models/heatalpha/relu/heatalpha_17.pth (torch, 977047 bytes, 51 tensors)

net.0.weight f4 [100, 3]
000000 c8 9a 36 3d a1 5a b1 3e d7 e3 e4 3e b9 d9 ef 3e
       0.044581205 0.34639457 0.44705078 0.46845797
000010 ee dc dc 3e 1c 90 f8 3e c4 1b 81 be c0 49 14 39
       0.43137306 0.48547447 -0.25216496 0.00014141854
000020 ea 67 0e 3f 9f 36 fe be 4e 1a b6 be 00 c3 20 3f
       0.5562731 -0.49651048 -0.35566944 0.62797546
000030 4e d6 87 3c 5e 41 43 be 7a de d2 be aa 00 67 be
       0.01658168 -0.19067904 -0.4118536 -0.22558847
000040 92 e3 b6 3e 1c 46 d6 3e b8 cf 43 be 5f 3c c0 3d
       0.35720497 0.41850364 -0.19122207 0.09386515
000050 13 94 04 be 90 12 f9 be 9a 1a 7a 3e d2 61 e3 be
       -0.12947111 -0.48646975 0.2442421 -0.44410568
000060 66 84 d0 3d de 23 4a ba d4 cf 80 be cd 0b 30 bd
       0.10181503 -0.0007711033 -0.2515856 -0.042980004
000070 89 85 a9 3d ee af a0 3d 79 e8 ca 3e c7 f5 9c bd
       0.08277423 0.07846056 0.39630488 -0.07664066
000080 e3 1a 07 bf 82 cb c1 3e 84 57 8b 3e 36 ea b0 bd
       -0.527754 0.37850577 0.27215207 -0.08638422
000090 c9 48 fe 3a 08 d3 a8 3e d8 80 92 3e 25 8c a6 3e
       0.0019400354 0.32973504 0.28613925 0.32528797
0000a0 99 fc 03 3f 79 af a6 3e c3 54 18 3e 56 48 c0 3e
       0.5155731 0.3255575 0.14876084 0.37555188
0000b0 85 88 c4 3e f9 d8 95 3e 2b 71 f5 3c da fd 2f 3d
       0.38385406 0.292671 0.02996119 0.0429667
0000c0 c4 bd 87 be 34 21 85 3c 00 0e c7 3e 54 8a a4 3e
       -0.26511967 0.016251184 0.3887787 0.32136786
0000d0 a6 f4 c3 3e d1 d6 06 bf 7f e5 aa bd aa 3a 2b 3e
       0.3827259 -0.52671534 -0.08344554 0.16721597
0000e0 75 b0 31 3d e6 b7 d5 3e b3 3f bd 3d 2e b1 41 be
       0.043381173 0.41741866 0.09240665 -0.18915245
0000f0 04 a7 d5 bd ca 39 ed be a1 88 8c bd f4 12 9a 3e
       -0.10432246 -0.46333152 -0.068619974 0.30092585
000100 df b1 76 bd 92 66 a2 be e5 0f 37 be 24 44 b6 bb
       -0.060228225 -0.3171888 -0.17877157 -0.005562322
000110 c1 7d 08 3f 2b 92 c2 be ce f9 a4 bd b3 19 be 3e
       0.53316885 -0.38002142 -0.08055459 0.37128982
000120 f0 d4 d8 be 60 da 18 bd 52 7e 6a be a5 90 f9 3e
       -0.42349958 -0.037317634 -0.2289975 0.48743168
000130 03 f5 df bd d6 32 04 bf 53 c2 8e 3e bd c3 5d 3d
       -0.10935404 -0.5164007 0.27882633 0.05414175
000140 5b 9c 14 3e 74 16 b9 bd 5f 26 96 3e 09 36 34 3e
       0.1451277 -0.09037486 0.2932615 0.17598738
000150 96 5b 61 bd 1b c2 70 bc bd 3e 7d 3e ed b5 00 3e
       -0.055018984 -0.014694716 0.24730964 0.12569399
000160 2f ab 56 bc 2e ad c7 be f0 30 0b 3f b0 4d 5a 3e
       -0.013102337 -0.38999313 0.5437155 0.21318698
000170 2b f8 f3 3d 2d 90 e0 be 96 da 2e be 09 12 8f 3d
       0.11912569 -0.43859997 -0.17075571 0.06985862
000180 16 69 d1 3e da 77 a8 3e 95 34 44 3d 1f 4d 85 bb
       0.40900487 0.3290394 0.04790171 -0.0040680314
000190 58 fa 15 3e 1c 81 64 be 12 d0 e4 bd 4c 98 21 3a
       0.1464628 -0.22314876 -0.11172499 0.00061643566
0001a0 34 5a 8f 3e 9b 05 ed be f3 67 9b be 80 67 05 bf
       0.27998507 -0.4629334 -0.30352744 -0.52111053
0001b0 82 26 58 3e c9 02 23 3c d1 29 e2 be 9d 5f 0b 3f
       0.2110844 0.0099493945 -0.44172528 0.5444277
0001c0 32 91 c2 bd 32 67 42 be 71 da 51 3e d6 8c 10 bb
       -0.0950035 -0.18984678 0.20493485 -0.00220566
0001d0 74 c0 8c bd 4e f9 84 3e b7 ad e3 bd ac 4b df bd
       -0.06872645 0.25971454 -0.11117118 -0.10903105
0001e0 0b fb 8e be ad f0 8c be 30 98 55 3e 20 57 48 3b
       -0.27925906 -0.2752737 0.20858836 0.0030569509
0001f0 47 a8 63 3e d7 b4 c8 3e ba e2 a4 3e 2f 6b 5a bc
       0.22232161 0.3920047 0.3220423 -0.013331219
000200 cb 2d de be b8 1d ee 3d 56 26 67 3e bc 73 51 3e
       -0.43394312 0.11626762 0.22573218 0.20454305
000210 2b aa 36 3d 89 0a 91 3d b4 f6 0c be 32 90 9a 3e
       0.04459588 0.070820875 -0.13765985 0.30188137
000220 32 7f f7 bc f4 0d f1 be 66 a9 2b 3e 14 11 e5 3c
       -0.030212019 -0.47080958 0.16763839 0.027962245
000230 b6 cd bb be 55 65 e8 3d 68 80 e5 3d 02 b1 e4 3e
       -0.36680382 0.113474526 0.11206132 0.44666296
000240 1e 5b d6 3e 2a fc 18 be 6a bf 10 3e 04 bc 9c be
       0.41866392 -0.14939943 0.14135519 -0.30612195
000250 95 a9 a5 3d 86 77 10 be 6c 2f ab 3d 8f 42 c3 bd
       0.08088986 -0.14108095 0.083586544 -0.095341794
000260 26 86 00 3f 9b 1d 42 3e 3b 59 d5 3b 27 11 1b be
       0.50204694 0.18956606 0.0065108812 -0.15143262
000270 8d 74 ea 3e 23 25 da 3e 06 aa f3 be 6b 87 a9 be
       0.45792046 0.42606458 -0.47590655 -0.33111128
000280 6b 2a 14 3e fe a2 1c 3e 6b 80 fb 3d f3 d3 da 3d
       0.14469306 0.15296552 0.12280353 0.10684957
000290 ca 17 52 3e 57 a3 ce be c6 af 5f bd 76 f5 2d 3e
       0.20516887 -0.40358993 -0.05461099 0.16988167
0002a0 9e bb fb 3d 84 c9 87 bd 0e 8e 73 bc bc af df bd
       0.122916445 -0.06630233 -0.014865411 -0.109221905
0002b0 8d 01 31 bd 03 dc 97 3e e3 a7 01 bd b5 1f 5e 3e
       -0.04321437 0.29660043 -0.03165425 0.21691783
0002c0 4e 36 07 bd 3d df 9b be 7e 85 cf 3d 26 37 01 3f
       -0.033010773 -0.30443755 0.101328835 0.50474775
0002d0 13 8c b3 3e e7 5b 89 bd 72 ee 81 bd 5b 24 44 3e
       0.35067806 -0.06706982 -0.06344308 0.19154494
0002e0 09 1a 1a 3a 74 17 c6 be d8 37 d0 3e ca 0a b3 3a
       0.00058785133 -0.38689768 0.40667605 0.0013659832
0002f0 39 18 de be 4b f5 89 be d4 d1 b2 be 4e a5 38 3d
       -0.43377855 -0.26944956 -0.3492571 0.04507952
000300 6e 72 6d 3c c6 b9 e2 bb f5 9a 3a 3c 06 4a 00 3e
       0.014492614 -0.0069191186 0.011389484 0.12528238
000310 ae 8d e6 3e 78 28 26 3d 67 c9 95 be f0 f9 fe be
       0.45029968 0.040565938 -0.2925522 -0.49800062
000320 60 44 62 3d 16 55 fa 3e b0 c2 46 bd e6 db da 3e
       0.05524099 0.4889304 -0.048525512 0.42745894
000330 37 d5 b6 be ed 47 b0 bb 2d fd eb 3e 4d cf 86 be
       -0.35709545 -0.005379668 0.46091595 -0.26330033
000340 80 3f c4 bd 04 3a 81 be 82 b2 12 3f eb 43 97 bd
       -0.09582424 -0.25239575 0.5730363 -0.07386001
000350 fe 4f a2 be 09 bc 79 3e 52 d7 de 3d d6 26 39 3c
       -0.31701654 0.24388136 0.10880913 0.011300763
000360 ff e0 8c 3e e7 90 94 3d ad 69 b4 be 6e d8 ae be
       0.27515408 0.072542004 -0.35236874 -0.34149498
000370 be 88 cc 3d be ba 85 3e 44 10 b6 3e 1b 5a b1 bd
       0.09987019 0.26119035 0.35559285 -0.086597644
000380 af da 69 bd d7 54 f6 be 2b b3 00 bf 0f 62 d6 be
       -0.05709332 -0.48111603 -0.5027339 -0.41871688
000390 c0 0f 2a 3e c4 a8 0a 3b 21 ad c6 3e 72 aa 9d 3c
       0.1660757 0.002115772 0.38803962 0.019246314
0003a0 1a 64 53 bc 40 58 fb 3e d8 da c0 be c5 73 1f 3e
       -0.012902284 0.49090767 -0.37666965 0.15571506
0003b0 40 a8 a5 3e 8c d1 b4 3e ad 6e 09 bd ed ee 34 be
       0.32354927 0.35316122 -0.033552814 -0.17669268
0003c0 24 a6 98 be ee d6 2b 3b 93 66 bd 3e 81 78 fc be
       -0.29814255 0.0026220637 0.3699232 -0.49310687
0003d0 82 4f a1 be aa 1c 01 bf 5c aa c2 be 27 4f ea be
       -0.31505972 -0.5043436 -0.380206 -0.45763513
0003e0 37 2a e6 3e 5a c0 19 be fb 3d df be 1c 0c 66 be
       0.44954082 -0.15014783 -0.43601975 -0.22465557
0003f0 10 f5 b3 be 3a 17 15 3d 86 64 dd 3e e3 30 2d 3e
       -0.35147905 0.036399104 0.43240756 0.1691318

net.0.bias f4 [100]
000000 c2 b2 97 bb 03 14 b3 3e b4 d7 f6 3e 74 39 d8 3e
       -0.004629464 0.34976205 0.48211443 0.42231333
000010 fd 38 09 be 7b 34 07 3f d7 21 6c be 80 ed 00 bf
       -0.13400646 0.52814454 -0.23059784 -0.50362396
000020 10 08 0b bf 54 11 95 3e 6a 9a e6 3e 72 5d ba 3e
       -0.5430918 0.29114783 0.45039684 0.36399418
000030 6f c7 fa 3e 9a 04 1e bf 72 8c 16 bf aa 8d b4 3e
       0.4898028 -0.6172577 -0.5880805 0.3526433
000040 91 9e a7 3e 8b e9 37 be df fe 11 3f 49 59 86 3d
       0.32738164 -0.17960183 0.5702953 0.065599985
000050 3e 13 bd 3e 18 eb 3a be f2 22 a0 bc dd b4 96 3c
       0.36928743 -0.18253744 -0.019547913 0.01839679
000060 ea 33 0d bf 01 11 e4 3e 96 54 18 bf 71 4f 24 3f
       -0.5515734 0.44544223 -0.5950407 0.6418372
000070 f8 33 10 3f 3c 7f ed bd b2 28 34 3e 95 fc fd 3e
       0.563293 -0.11596534 0.17593649 0.49606767
000080 f1 1a 86 3a b6 5b 9c be f9 6f 18 3f 93 67 0e 3f
       0.0010231418 -0.3053872 0.59545857 0.5562679
000090 bb 11 88 be 1e 83 9b bd 20 4b 04 3e 79 a8 62 bd
       -0.26576027 -0.07593368 0.12919283 -0.05533645
0000a0 43 47 dd be e1 5a a7 bc a6 5d 23 bf e6 1d 16 bf
       -0.4321843 -0.020429077 -0.6381477 -0.5863937
0000b0 f3 6b 49 3e fd 3a 94 be 0e c1 0b 3f 84 8a ba bd
       0.19670086 -0.28951254 0.54591453 -0.09108451
0000c0 16 85 74 3e 8a 5c 11 3f 84 25 1a 3f 70 88 95 be
       0.23878893 0.5678183 0.60213494 -0.29205656
0000d0 1c ef 17 bf 90 60 a7 be cd 1e fa 3d 21 06 db bd
       -0.59349227 -0.3269086 0.12212906 -0.10694528
0000e0 3e ff 43 3e b0 bc 46 be f8 c9 95 3e b4 e1 14 bf
       0.19140336 -0.19407916 0.29255652 -0.58156896
0000f0 6b 2f c4 be 0b d6 d9 be 46 94 1d bf 2c 82 8d bd
       -0.38317427 -0.42546114 -0.6155437 -0.06909594
000100 ca 21 3f 3a d8 a9 0c 3f 6c 03 72 be 9f 2e 90 be
       0.0007291107 0.5494666 -0.23634118 -0.2816057
000110 4e 38 dd 3e d0 a4 03 bd 57 75 10 bf ad 8a 09 bf
       0.4320702 -0.0321396 -0.56429046 -0.5372723
000120 9c e5 ac be 66 97 20 be 64 f5 e4 bd dd b6 94 be
       -0.33768928 -0.15682754 -0.11179617 -0.29045764
000130 59 b0 19 bf 0f 9e 60 3a ba 01 48 be 74 17 e5 be
       -0.6003471 0.00085684744 -0.19531909 -0.44744456
000140 2e f9 b6 3e 24 b2 39 3e d9 7f 61 3d 26 ad 44 be
       0.35736984 0.18134362 0.055053566 -0.19206676
000150 d0 62 d9 3e 99 51 05 3f 15 a0 65 bb 28 74 31 be
       0.424582 0.52077633 -0.0035038043 -0.17329466
000160 aa 03 7f be a4 9c c4 3d ca 19 50 3e 78 48 58 3d
       -0.24903741 0.09600189 0.20322338 0.052803487
000170 e6 88 15 3f c4 0b 5e be 86 3d ee 3e be 07 88 be
       0.58412015 -0.21684176 0.46531314 -0.26568407
000180 f4 f7 15 bf f7 75 a4 bd 69 ec 50 be 2c b9 ed bd
       -0.5858147 -0.080303125 -0.20402683 -0.11607584

net.2.weight f4 [100, 100]
000000 07 9c 00 3d 74 e7 0a bd f3 f3 87 bc fc 36 31 bd
       0.0313988 -0.033912137 -0.016595816 -0.043265328
000010 aa 6c 57 bb bc 11 80 bc f4 b4 9d 3c fb 28 0c bd
       -0.0032871165 -0.015633456 0.019251324 -0.03421877
000020 a6 06 d7 3d df 95 2b bd 91 a6 80 3d 88 ae dc bd
       0.10499315 -0.041890975 0.0628177 -0.10775477
000030 df 20 c6 3c 10 e3 94 bd 17 32 f7 bc dd 3e 15 3d
       0.024185596 -0.07269871 -0.030175252 0.036436904
000040 2e 3f 2b bd 60 6c 4f 3c 57 d0 c0 3c 7d e3 8e bd
       -0.0418083 0.012660116 0.023536844 -0.06976984
000050 7d 3f 93 bd f3 c1 14 bc f9 0b a7 bd ef 06 80 bd
       -0.07189844 -0.009079444 -0.081565805 -0.062513225
000060 d0 4f 3a 3c 4f 67 33 bd fd 3f 32 bc ab b7 b7 3b
       0.011371568 -0.043799695 -0.010879514 0.0056066117
000070 3e bd 76 bd 68 2e 86 bd 4b 2e 94 3d 16 5c 5c bd
       -0.06023907 -0.0655182 0.07235392 -0.053798757
000080 b6 4c ce bc ae a3 64 bc c4 d6 53 3d 12 91 a1 bd
       -0.025183063 -0.01395504 0.05171849 -0.07888998
000090 05 ae f3 bc cc c9 e7 3c 44 76 56 3c b6 d4 c6 bc
       -0.029746065 0.028294466 0.01308972 -0.02427135
0000a0 95 19 bc 3d 6a a9 7a bd e0 80 64 bc 90 1d 95 3d
       0.09184567 -0.061196722 -0.013946742 0.07281029
0000b0 4e 69 9e bb c2 15 5a 3d ee ed 92 3d ce d2 6d 3d
       -0.0048343306 0.053243406 0.07174288 0.058062367
0000c0 fa e6 dd 3c a0 51 3d 3d ce a2 b9 bd 1a 97 82 3d
       0.027087677 0.04622042 -0.09064256 0.063764766
0000d0 5c 78 12 bd 9a 47 b1 3c a8 16 9b 3d b2 e1 3f bc
       -0.035759315 0.021640588 0.07572681 -0.011711525
0000e0 4e f3 02 3d b2 c3 d3 3c 97 c4 2a bd 41 1b 17 bd
       0.031970315 0.02585015 -0.04169139 -0.036891226
0000f0 e2 6f a6 bd 27 d6 90 3d 5c c2 b9 3c 41 59 91 3d
       -0.08126809 0.07072096 0.022675686 0.07097102
000100 ae 85 19 3c d6 fd 87 3d 61 32 98 3d 07 da 23 3d
       0.009370251 0.06640212 0.07431484 0.04000285
000110 1d 39 e0 bd a0 3f 49 3b 8b 40 8b bc 7b f6 3b 3d
       -0.109483935 0.003070809 -0.01699855 0.04588936
000120 19 ed 7c 3c 72 f1 ab 3c 4b 5c d8 bc e8 95 c5 bc
       0.015437388 0.020989154 -0.026411196 -0.024119332
000130 f7 60 af bd 0b 72 45 3d 2d 90 fc 3c 40 89 b8 bd
       -0.085634165 0.048204463 0.030830467 -0.09010553
000140 15 97 89 bd 06 37 2c 3c 6e 96 be bc 77 0e b3 bd
       -0.0671827 0.0105111655 -0.02326509 -0.08742993
000150 b4 09 6f bd b6 ca ca 3d 59 a9 d0 3d 92 e4 35 3d
       -0.058358863 0.09901945 0.101885505 0.044407435
000160 6c 38 f0 bc a8 16 a9 bd 1b c7 b0 bc 46 58 99 3c
       -0.029323779 -0.082562745 -0.021579316 0.01871885
000170 45 16 97 3d e4 98 fd bb a5 93 0f bb db 89 e3 3d
       0.073772945 -0.0077391732 -0.0021908071 0.11110278
000180 9b 65 02 3c cc c6 09 bd 82 b7 60 bd 03 9e f3 3c
       0.007958795 -0.033636853 -0.054862507 0.029738432
000190 9f ca 8c bd b8 67 6f bd 6a 58 40 3c 23 f3 82 bd
       -0.068745844 -0.058448523 0.01173983 -0.06394031
0001a0 cd 59 98 3d f7 aa 4a 3c ce 1b bb bc f0 8d 12 bd
       0.07439003 0.012369863 -0.022840407 -0.035779893
0001b0 72 fa 92 3d ac 5c d9 bd a1 0f 32 bd 88 3c 9a 3d
       0.07176675 -0.10613379 -0.043471936 0.07531077
0001c0 f7 dc d5 bd c7 da 73 3b b6 0c 9f bd 3f 05 9a 3d
       -0.10442536 0.003720926 -0.07766096 0.07520532
0001d0 53 5e a5 bd 1a da b9 3d 1c 40 ed 3c ce 70 2e bd
       -0.080746315 0.09074803 0.028961234 -0.042588048
0001e0 c1 5a 96 3d 3a 73 d7 bd 37 d5 db 3b 20 90 a2 3d
       0.07341529 -0.105200246 0.006708767 0.07937646
0001f0 2b 0c b8 bd 4c 2c bc 39 4d 93 41 3c 4c 67 cd bd
       -0.08986696 0.00035891158 0.011814904 -0.10029468
000200 a9 26 0d 3d f9 a1 21 bc d5 80 1a bd a0 77 2e bd
       0.034460697 -0.009865277 -0.03772052 -0.042594552
000210 bb 8e 92 3d 08 eb 9c bc 5e 2a c7 bc e1 97 3b 3d
       0.0715613 -0.01915504 -0.024312194 0.04579914
000220 c4 eb e2 3c 16 76 85 b9 06 ac b8 3d 37 b2 8a 3c
       0.027700312 -0.00025455718 0.09017186 0.016930683
000230 27 1d 2c bd f4 65 b6 bc 95 b7 0e bd fd 96 a0 bc
       -0.04201999 -0.022265412 -0.034843046 -0.019603247
000240 6f 38 15 bd 12 ec 1d 3d 16 bb e3 3c 99 3b 91 bc
       -0.036430772 0.038555212 0.02779917 -0.017728614
000250 f7 01 2d bd d2 21 81 3d f2 48 8d 3d 18 d7 01 3c
       -0.042238202 0.06305279 0.06898679 0.0079248175
000260 0b d0 c4 3c b2 4a 6c 3d d6 51 c9 bd f1 2f 46 bd
       0.024024984 0.057688423 -0.09830062 -0.048385564
000270 7b a8 54 bc 43 dc d9 3c f2 94 ac 3d 89 87 61 3c
       -0.012979622 0.026594287 0.084268466 0.013765224
000280 78 49 1b 3d 2b a4 ef 3c db c9 62 3b ae ed 86 3c
       0.037911862 0.029253086 0.0034605179 0.016470756
000290 2f b2 22 3c 30 80 8b 3d da a7 44 3d 36 69 d7 3b
       0.009930178 0.06811559 0.04801164 0.0065738214
0002a0 c3 ad b8 3d c3 47 af 3d ae c1 98 bd 70 04 da 3b
       0.090175174 0.08558609 -0.074588165 0.006653361
0002b0 57 15 d2 bd aa df f5 bc b7 47 5f 3b d9 f6 af 3d
       -0.102579765 -0.030013878 0.0034069845 0.08592004
0002c0 8c b5 81 3d 26 50 a2 bc 62 e8 06 3d a4 5f a4 3b
       0.063334554 -0.019813608 0.03293646 0.005016284
0002d0 b2 24 99 3c c5 4d 5e bd 6b 75 4d 3c cc 72 a6 3c
       0.018694256 -0.054273386 0.012540202 0.020318411
0002e0 27 bb ba bb b6 b7 be bd 23 1f 97 3d d0 0d 20 bc
       -0.00569858 -0.09312384 0.07378986 -0.009768918
0002f0 38 d3 eb bc c2 46 cc 3c 17 3d 41 bd 28 73 0d bd
       -0.02878724 0.024936084 -0.0471774 -0.03453365
000300 e8 0f 8e bd 55 8a 4d bb fb b1 85 3d 6e 64 99 bc
       -0.069366276 -0.003136297 0.06528088 -0.018724646
000310 c8 ad ee 3c 31 c3 74 bc ed 1d c3 bc c7 2d c7 3d
       0.0291356 -0.014939115 -0.02381798 0.09725528
000320 75 4d bc 3d 92 af 99 bc ee 60 9f 3d 64 1a d7 3d
       0.09194461 -0.018760476 0.0778216 0.105030805
000330 95 92 9f bc db f2 fb 3c 7b 7c e8 3c 51 cb 21 3d
       -0.019479075 0.030755451 0.02837967 0.03950054
000340 ac 10 b0 bc 72 17 19 bd 14 d7 1f bd d2 de 28 bd
       -0.021492325 -0.037375875 -0.039023474 -0.041228123
000350 3d 56 1f bd 8f a2 78 3d 00 0e 42 3d 87 10 05 bc
       -0.038900603 0.060701903 0.047376633 -0.008121616
000360 5c 0d 08 3d ca 96 8f bd ed 70 1b bd a9 36 bc 3b
       0.033215865 -0.070111826 -0.03794949 0.0057438207
000370 67 82 58 3d 39 16 75 3d 65 0c be 3b c4 bc a5 3d
       0.052858736 0.059835646 0.0057998174 0.08092645
000380 db 3b a7 3d d1 24 28 bd 21 ab d9 3d e0 44 9f ba
       0.081657134 -0.041050736 0.106283434 -0.0012151264
000390 be c6 e9 3c a3 a6 a8 3c 2e 5d 43 bd 62 01 dd 3d
       0.02853715 0.020587271 -0.047696285 0.107912794
0003a0 3e f8 9d bd 8a f5 40 ba d0 28 27 3c 21 45 a0 3d
       -0.07713364 -0.0007360807 0.010202602 0.07825685
0003b0 26 a2 c7 3c 6b 9c aa 3d e3 01 1f bb 7d d4 88 bc
       0.02436931 0.083306156 -0.00242626 -0.016702885
0003c0 5d 92 b5 3d 6f 18 20 bd 9f b8 a4 3d 84 81 0b 3e
       0.08865807 -0.0390858 0.08043026 0.13623625
0003d0 32 8b e2 bd 0c 35 85 bd 7b 72 77 3d af 74 00 bc
       -0.11061706 -0.065042585 0.06041191 -0.00784032
0003e0 a4 fb b9 3d 15 c7 6e 3c e7 30 4e 3b c3 45 e3 bc
       0.090812 0.014573832 0.0031462254 -0.027743226
0003f0 e2 3b 92 ba a5 f4 d4 3d 1e 3e 7d bd 90 a5 82 3d
       -0.0011156762 0.10398225 -0.061826818 0.06379235

net.2.bias f4 [100]
000000 20 be 77 3d b1 4f 8a bd 58 1d 32 bd 91 34 ef bc
       0.06048405 -0.06753481 -0.043485016 -0.02919987
000010 d3 90 2a bd c4 5c ce 3d 5b 59 d6 3c 0a e8 f0 3c
       -0.04164202 0.100762874 0.026165655 0.02940752
000020 b5 19 0d bc 04 a4 89 3d 09 31 87 3d ec 37 01 3c
       -0.008612086 0.067207366 0.066011496 0.007886868
000030 9a 90 7d bd 50 34 78 bc 28 7d 5d 3d e2 25 58 3d
       -0.06190548 -0.015149191 0.054074436 0.052770503
000040 33 3e bc 39 07 fa 90 bd 39 68 e2 bd 50 d8 6b 3c
       0.00035904496 -0.07078939 -0.11055035 0.014394835
000050 d9 ec eb bd bf 94 b4 3d 24 7d 15 bd cd 33 1e 3d
       -0.115197845 0.088174336 -0.036496297 0.03862362
000060 36 13 3b 3c 75 8a b4 3d 21 1b e2 3d e1 cc c6 3d
       0.011418154 0.08815471 0.11040331 0.09707046
000070 58 38 7d 3d 0f 48 25 bd 14 0a 14 3d 91 1d be 3d
       0.06182131 -0.040351924 0.036142424 0.09282983
000080 30 38 c8 3d b2 d3 3e bd 77 78 3b bc ac 0c ed 3c
       0.09776342 -0.046588607 -0.011442295 0.028936706
000090 11 09 90 3d 55 a2 12 3d 56 c3 8a bd 42 c6 05 be
       0.07032979 0.035799343 -0.067755386 -0.1306391
0000a0 5e b6 91 bd 5d db 52 bd cb a8 a3 3d 4d 23 d9 3d
       -0.07114862 -0.051478732 0.07991179 0.10602436
0000b0 14 a4 fb bd c2 73 29 3e ac be 85 3d a5 8b c3 bd
       -0.12287155 0.16548064 0.065305084 -0.095481195
0000c0 96 7c 16 bd b8 b8 c9 bc f1 14 13 3e af c0 d2 bd
       -0.03673991 -0.024624214 0.14363457 -0.10290658
0000d0 6f d3 83 3d af 82 93 bc 52 96 bc bd 02 e5 e0 bd
       0.06436812 -0.01800665 -0.09208359 -0.1098118
0000e0 9f 27 11 3d 52 7b 9b bb fa 2e 98 bd 97 22 95 3c
       0.035438176 -0.0047449255 -0.07430835 0.01820497
0000f0 81 b0 ca 3c 4d fc 42 3d c3 25 e6 3d a7 c4 11 bd
       0.024742367 0.047603894 0.11237671 -0.035587933
000100 f3 3d bb bd 68 c5 35 3d aa 6e 1e 3d 11 f7 9f bd
       -0.09142675 0.044377714 0.038679756 -0.07810796
000110 61 0d dc bd ff 01 79 3c ba a7 50 3d f2 59 c6 bd
       -0.10744739 0.01519823 0.050941207 -0.096851245
000120 d3 7a 3c bc da 8c 37 3e c0 ba 96 3c f2 bd 06 bd
       -0.011503893 0.17924824 0.018399596 -0.03289599
000130 f4 05 b0 3d 4c 15 cb bc 53 2e b3 3d 1c f5 0e 3e
       0.085948855 -0.024790429 0.0874907 0.1396069
000140 86 61 21 3d ab ef a2 bd f4 ff e3 bc 5e 5f 95 3c
       0.039399646 -0.07955869 -0.027832009 0.018233951
000150 34 21 02 3c 3f 5e b0 bd 2f c3 ac bd 1c 8a 93 3d
       0.007942487 -0.08611726 -0.08435666 0.07204077
000160 8e d4 54 3c ba 5e 54 bc c8 95 7b 3d d9 69 19 3e
       0.01299013 -0.012962038 0.06142214 0.14981784
000170 56 cd 20 3b f7 ff 4f 3d 3a be 63 3d 12 ca 8a bd
       0.0024536452 0.050781216 0.055601336 -0.06776823
000180 f8 60 a1 3c c1 a5 5e bd 14 f2 f9 3c a4 1f 51 ba
       0.019699559 -0.054357294 0.03051094 -0.0007977432

net.4.weight f4 [100, 100]
000000 71 39 8a bb e5 e0 6e bd cc f7 02 bd c9 cf 76 bd
       -0.0042182733 -0.058319945 -0.0319746 -0.060256753
000010 29 78 a0 bb d4 0d f5 3c 65 7b e9 3d 78 01 70 3a
       -0.0048971367 0.02991382 0.11400489 0.00091554923
000020 33 a7 47 bd 16 05 a8 39 14 d8 87 bb af 5c 83 3d
       -0.048743438 0.00032047246 -0.0041456316 0.06414162
000030 72 a1 c4 bd da 9f 2f bd 54 e5 62 bd 0d 7c 3e bd
       -0.09601106 -0.042877056 -0.055394486 -0.046505023
000040 a1 bf e6 bc e7 f0 d8 3d 78 5d 2e bd 46 54 62 3d
       -0.028167548 0.105928235 -0.042569607 0.05525615
000050 43 c7 5f bd 07 bf ea bc 58 88 5b 3c 13 4b b1 3d
       -0.05463339 -0.028655542 0.013399206 0.086568974
000060 60 3b 12 3c a4 10 12 3d 0c d4 8b 3d cb a7 ce bc
       0.008925289 0.0356604 0.06827554 -0.025226494
000070 35 2b 67 bc 38 33 d9 3d fd 84 bc bc 15 66 d1 3c
       -0.014109422 0.10605472 -0.023012633 0.025561372
000080 5f 73 95 3d 60 27 21 bd 5c c2 8f 3d c8 af ac 3d
       0.07297396 -0.03934419 0.07019493 0.08431965
000090 77 58 90 3d d2 76 8b 3d d2 91 d7 3d bf 1c 85 3b
       0.07048123 0.068097726 0.1052586 0.0040622647
0000a0 07 bd 9e bb 20 e1 f1 bb 4b e1 a3 3d 47 5a 81 3d
       -0.004844311 -0.0073815733 0.080019556 0.06316047
0000b0 d9 89 7d bd d6 69 02 be 2a 59 56 bd e7 26 cb bd
       -0.06189904 -0.12735686 -0.052331127 -0.099195294
0000c0 71 cf f1 ba 98 1e f6 bc 22 a9 0b 3c a2 8f 8b ba
       -0.0018448663 -0.030043885 0.008524211 -0.0010647664
0000d0 61 de 17 bc c4 e4 ac 3d 57 f2 b9 bd fa 2a 1f 3c
       -0.009269328 0.08442071 -0.09079426 0.009714836
0000e0 a2 cb d1 3d 01 a1 17 3b 39 56 8d 3c 01 2f a8 3d
       0.10243918 0.0023136737 0.017253028 0.0821209
0000f0 08 fd 9a 3c cc 33 a3 3d ae fc d6 bd df d0 5c 3d
       0.018919483 0.07968864 -0.104974136 0.053910132
000100 6c 59 21 3d 5c 34 89 3c 79 b9 2c 3d 58 24 51 bd
       0.03939192 0.0167486 0.042169068 -0.05106005
000110 8f a2 a8 bd e3 65 3f bd 62 24 84 bd c6 ae 99 3c
       -0.082341306 -0.046728026 -0.06452252 0.018760096
000120 4c 1b ae 3d c1 d3 ed bd 3d 57 02 bb e6 3c 10 3c
       0.085013 -0.116126545 -0.0019888424 0.008803582
000130 21 98 35 3c 18 99 7a bc 55 be 0a bd 6c cb 7a 3b
       0.011083634 -0.015295289 -0.03387292 0.0038268222
000140 ba b9 0e be bd 70 8b 3d 34 db 62 bd d5 8a 5c bd
       -0.13938037 0.068086125 -0.05538483 -0.053843338
000150 ad b4 81 bd 23 71 8d bc 64 21 40 3d f3 5f 74 3d
       -0.06333289 -0.017265862 0.046906844 0.059661817
000160 0c 5b 5c bd d8 b9 c1 3d 92 f8 63 bd 53 36 e6 bd
       -0.053797767 0.09459275 -0.055656977 -0.1124083
000170 1e 33 64 bd c2 8d 31 bd ab 15 b9 bd 40 4b 19 bd
       -0.05571281 -0.04334808 -0.09037336 -0.03742528
000180 fa 20 8b bd a8 a7 ab 3d 66 1d d4 3d 93 29 82 3d
       -0.06793399 0.08381587 0.1035717 0.06355586
000190 5b c6 a3 3d d2 09 8f 3d d3 9a c5 3c ba 49 5c 3d
       0.07996818 0.06984295 0.024121678 0.05378125
0001a0 3e 99 60 3d c6 9b 13 3d 05 d8 30 bc ca 9d b7 3d
       0.054833643 0.03603723 -0.010793691 0.08965643
0001b0 10 20 ad 3d 3e bc a0 3d 0d 28 42 3b b9 5e 47 bd
       0.08453381 0.07848404 0.0029625923 -0.04867432
0001c0 da f0 79 3d 8a 63 5f bd 1e 09 49 bd 45 76 a5 bd
       0.06102071 -0.054538287 -0.04908096 -0.08079199
0001d0 e8 02 f2 bb 7d 4b 39 bd c7 9a 50 bd 47 30 6a bd
       -0.0073856004 -0.045238007 -0.050928857 -0.057174947
0001e0 c0 09 54 bd f1 91 4a 3d b2 1b b8 bd 6f 52 d9 3c
       -0.05176711 0.049455587 -0.089896575 0.026528565
0001f0 46 c3 a6 3d de 70 9a bd ed 0d f0 3c 98 7c b4 bc
       0.08142714 -0.07541059 0.029303515 -0.022032067
000200 05 a8 8d bd 10 23 b5 bd 52 47 33 bc e0 39 32 3d
       -0.06916813 -0.08844578 -0.010942297 0.043512225
000210 f2 d0 cb bd 3b 65 97 bd de d8 b0 bd a0 4f ba bd
       -0.099519625 -0.07392355 -0.08635114 -0.090972185
000220 4f c3 06 bd 99 63 4c bd 22 91 ad 3c f4 36 4e 3d
       -0.032901105 -0.04989967 0.021187369 0.050345376
000230 38 3c 7d 3d f0 61 70 bc 73 a1 3b bd a2 54 c2 3c
       0.061825007 -0.014671788 -0.045808267 0.023721997
000240 74 d8 d4 3d 86 ce f3 bd e4 19 65 bc 80 3b af bb
       0.10392848 -0.119046256 -0.013983224 -0.005347669
000250 9a 66 8e 3d 51 95 a3 3d 90 c8 b2 bd 1a 0e a8 3c
       0.069531634 0.07987464 -0.087296605 0.020514537
000260 28 8f 77 bd 38 e1 7f 3d 8b be 9a 3d 1c f5 12 bd
       -0.06043926 0.062470645 0.075558744 -0.035878286
000270 fe b5 55 3d 8d 68 e4 ba ce 24 cf 3c 6f e8 b1 3d
       0.052175514 -0.0017426178 0.025286105 0.08686911
000280 2f af 6c 3c bf 60 61 3d ee e4 c5 bd 9d 63 6c 3d
       0.014446064 0.055023905 -0.096628055 0.057712186
000290 0e b8 39 bd d4 ee f3 bd 28 d3 58 bd 54 0e 17 bd
       -0.045341544 -0.11910787 -0.05293575 -0.0368789
0002a0 74 4e b8 3d 6b db 77 3d 34 f0 2e bd e0 d8 68 3d
       0.08999339 0.060511988 -0.042709544 0.056847453
0002b0 95 c9 39 3d 28 08 15 be 16 9b 82 bc a1 3a 99 bc
       0.04535826 -0.14553893 -0.015943091 -0.018704714
0002c0 b7 bb f6 3c 4d b3 51 bd bf a6 97 3d d3 1d 1b bb
       0.030118806 -0.051196385 0.07404851 -0.00236689
0002d0 95 d1 08 be 5e 0f e3 3b 98 86 c3 3d 8b 59 24 3c
       -0.13361199 0.006929322 0.09547156 0.010031114
0002e0 31 32 8f bd 60 6f 60 bc c1 39 d4 3d e8 2a 0b 3d
       -0.06991995 -0.013698429 0.10362578 0.033976465
0002f0 d0 10 d3 bd 92 99 93 bd b1 5c 93 bd 8b 22 be 3c
       -0.10305941 -0.072070256 -0.07195414 0.02320983
000300 49 a0 03 bd 26 1a af 3d 88 d2 c0 bd e0 c6 9c bb
       -0.03213528 0.08549909 -0.09415156 -0.00478445
000310 23 69 c8 3d 22 19 aa 3d da 32 10 bc 45 6f a1 bc
       0.09785678 0.08305575 -0.008801186 -0.019706378
000320 00 8c 88 3a 69 58 99 3d 38 aa b3 bd 45 53 83 bd
       0.00104177 0.07487566 -0.08772701 -0.06412367
000330 e0 d2 f6 3b 39 38 b8 3d 7a ae 97 bd fd 7b c4 3d
       0.0075324625 0.089950986 -0.07406326 0.095939614
000340 57 38 39 bd b6 36 81 bd 8c 3b 88 bd 9d b2 2b bd
       -0.045219745 -0.063092634 -0.06651983 -0.041918386
000350 ac 62 ba bc a2 92 2b 3d a4 8c d1 3c 3d 63 8d bd
       -0.022752129 0.041887887 0.025579758 -0.06903694
000360 14 d9 9f bc 6a 7d cc bd 50 45 fd 3b 79 bb a6 3d
       -0.01951269 -0.09984858 0.00772921 0.08141226
000370 ac cc a7 bc cd c5 3b bd 80 66 9a 3a 13 e9 39 bd
       -0.020483337 -0.045842934 0.0011779815 -0.045388293
000380 20 07 9b 3b e2 e1 76 3d c0 bc 08 3c 03 c4 8d bd
       0.004731074 0.060274012 0.008345783 -0.06922152
000390 5a 95 25 3d f3 d4 85 3d 48 04 ad bd ad 98 47 bd
       0.040425636 0.065347575 -0.08448082 -0.048729587
0003a0 98 5f 83 bc bd 0e 99 3d b0 bd f7 3b 50 66 36 bc
       -0.016036794 0.07473514 0.0075604543 -0.011132792
0003b0 2d a4 b7 bd 0e 34 0f 3d 70 cc 3e bd 9d 76 9a bd
       -0.08966861 0.034961753 -0.046581686 -0.07542155
0003c0 25 14 bc bd 63 29 95 3d 58 a6 06 bc 0b e4 93 bd
       -0.0918353 0.072832845 -0.00821837 -0.0722123
0003d0 b5 4c a5 3d 9c 5d 83 bd 7c 9e 85 bd 58 bd 8f bc
       0.08071271 -0.06414339 -0.06524369 -0.01754634
0003e0 98 67 a3 bc 28 8e 7e 3c 77 b4 c7 3d a7 69 91 3d
       -0.019946858 0.015536822 0.09751218 0.0710023
0003f0 cc 25 06 bd 78 14 ad bd ec ce 9f 3c 00 f5 08 bd
       -0.03275089 -0.0845117 0.019507848 -0.033436775

net.4.bias f4 [100]
000000 58 7c 9e bc d2 37 19 be bd f9 44 bd e5 1e c3 3c
       -0.019346401 -0.149627 -0.04808973 0.023818443
000010 3c 83 81 3d ef 3b ca bd 87 4d 03 bc 35 04 c9 3c
       0.06323859 -0.09874713 -0.008014089 0.024538139
000020 0d e3 06 3e c0 d4 27 bd 33 b5 23 bd 6f c2 67 3d
       0.1317255 -0.04097438 -0.039967727 0.05658191
000030 12 e1 97 3d cb 63 cb bd b1 7a 3e bd 5b 66 52 bd
       0.07415976 -0.099311434 -0.046503726 -0.051367145
000040 32 60 a7 bd 96 02 13 be b9 36 93 3d 34 fa 05 be
       -0.08172645 -0.14356455 0.07188172 -0.13083726
000050 4e 0b 5d bd 3e fc 09 3e 7a 38 f4 3d 24 09 56 bd
       -0.05396586 0.13475129 0.119248345 -0.05225481
000060 14 fd f8 3b b1 56 e0 3d e2 b9 52 3b 07 7c b7 3d
       0.0075985286 0.10954035 0.0032154252 0.08959203
000070 21 f2 99 3d f1 46 b1 bd f1 f1 85 bc ee 0e 6d 3c
       0.075168855 -0.08656109 -0.016350718 0.014468892
000080 9a a4 7c bd 15 ab 4c bd f8 30 30 bd e5 c8 04 3c
       -0.061680414 -0.049967844 -0.04301545 0.008104538
000090 28 f3 23 3d 5a 62 ba 3d 70 96 bf bd 9a 46 59 3d
       0.040026814 0.0910079 -0.093548656 0.053045847
0000a0 f5 af 8d 3d 2a f0 5e bd e9 cc 28 bd ab fd a5 bd
       0.06918327 -0.054428257 -0.041211043 -0.08105024
0000b0 8d 3e ef bc 82 22 87 bd 52 97 05 3e fe 72 1d 3d
       -0.029204631 -0.06598379 0.13046005 0.038439743
0000c0 94 fc 9d 3d 1d 9f 0d be 67 ad 01 be 14 56 eb bc
       0.07714191 -0.13830228 -0.12663804 -0.028727569
0000d0 dc 94 6d bc 2e 0f 5f 3d 91 af 4f 3d 60 15 ee bc
       -0.014500823 0.054457836 0.050704543 -0.029062927
0000e0 ba 6f f4 3c c9 80 e5 bb 54 fb 08 3d 8e a4 f7 3d
       0.029838432 -0.007003878 0.03344281 0.12091933
0000f0 24 c3 14 be 68 77 10 be 22 60 88 bd 39 14 b2 3d
       -0.14527565 -0.1410805 -0.06658961 0.086952634
000100 25 88 33 3d 4b d8 0a 3c 07 2f 1d 3d 54 49 e9 3d
       0.04383101 0.00847442 0.038374927 0.11390939
000110 1a 06 21 bd 8e 28 a2 bd 7e c6 b7 bd f8 a8 41 bc
       -0.03931246 -0.079178914 -0.08973406 -0.01182007
000120 58 f5 b8 bd 29 6c e2 bd 3b b4 9f 3d 37 9f 74 bd
       -0.090311706 -0.11055786 0.07798048 -0.05972215
000130 43 ed 00 3e ff bc 9b bd 5f 97 d6 bd 3f c0 4b 3d
       0.12590508 -0.076044075 -0.104780905 0.049743887
000140 8f 34 bc bd 91 f4 37 bb 5d 5c fd b8 e3 21 42 bc
       -0.09189712 -0.0028069357 -0.00012081184 -0.0118489
000150 f7 ce df bd 63 66 d4 3b fc c1 5e bd 5b 59 bd 3d
       -0.10928147 0.006481932 -0.054384217 0.09245559
000160 68 14 0c 3e 53 eb f1 3d 77 78 33 bc 09 7a af bd
       0.1367966 0.11812463 -0.010954014 -0.08568198
000170 b3 d0 eb bd 21 40 82 3d 8c d9 11 be f3 b1 03 bc
       -0.115144156 0.06359888 -0.14243144 -0.008038032
000180 a4 7d d0 3c 55 17 be 3d 74 9d d4 bd 42 97 8a bd
       0.025450535 0.09281794 -0.10381594 -0.067671314

net.6.weight f4 [100, 100]
000000 d3 4b 1d 3d a8 e9 2b 3d c7 7d 49 bd 5e 65 4f 3c
       0.03840239 0.04197088 -0.049192216 0.012658445
000010 d0 76 6b bd 9e 0c 8d 3d 80 9f fb 3d 90 dc 01 bd
       -0.057486355 0.06887172 0.122862816 -0.031704485
000020 af a3 76 3d 76 81 a5 3d 8a 7a 54 3d 4c 37 8d 3d
       0.060214695 0.08081333 0.051874675 0.06895313
000030 c6 b7 0b 3d 36 c8 c9 3d 7a 00 b9 bc 9f 8e fd bb
       0.034110807 0.0985264 -0.022583235 -0.007737949
000040 f5 47 5a 3d ea aa 1f 3d 54 72 94 bd f2 55 bd 3d
       0.05329128 0.038981356 -0.07248369 0.092449084
000050 63 e9 c7 3d 03 89 cf bd 60 af a2 3d a5 ce b0 bd
       0.09761312 -0.10133555 0.079436064 -0.08633164
000060 ff 8e a0 3d c7 d9 f2 bb 3e 0c 9e 3d 54 ca c4 3d
       0.07839774 -0.007411215 0.07717179 0.096089035
000070 0a 6c 70 3d f1 52 d7 3c 83 72 fe 3b a6 47 3e 3d
       0.058696784 0.026284667 0.0077651157 0.046455048
000080 2d 6f 8f bd 5e e5 83 bd 48 ce 3c 3d b3 08 ad bd
       -0.07003627 -0.06440233 0.046095163 -0.08448925
000090 17 05 27 3c 7f 8e 01 3e af bc 2c 3d 70 c2 9f 3d
       0.010194085 0.12652014 0.04217213 0.07800758
0000a0 41 d0 5b 3d 6c 16 ab 3d e7 cf 82 3c 50 7d b2 bb
       0.053665403 0.08353886 0.015968276 -0.0054470673
0000b0 a7 1c 6e 3d 8d a6 ce 3b 4a 2b 1c 3d fa a9 ae 3d
       0.058132794 0.0063064755 0.03812722 0.08528514
0000c0 3e 82 8a 3d 43 b9 24 be b6 5a e2 3d 61 d1 31 3c
       0.06763123 -0.16086297 0.11052458 0.0108531425
0000d0 25 06 91 bc 53 4e c3 bd fb 63 4b bd ff c8 93 3d
       -0.017703125 -0.095364235 -0.049655896 0.07216071
0000e0 dd 99 79 3d f7 8e 8e 3c 3e f0 ce 3d 2c a8 dd 3d
       0.06093775 0.017402155 0.10104416 0.10823092
0000f0 fc 40 aa 3d 57 27 d9 3d f6 38 19 3d c4 00 8b 3d
       0.08313176 0.106032066 0.037407838 0.067872554
000100 ed bb 03 3e a5 0a cd 3d b7 20 87 3a 77 34 b1 bd
       0.12864657 0.10011796 0.0010309432 -0.08652585
000110 4e e2 6b 3d 6a d8 6f 3d 3b b1 a5 bd b9 47 b5 bd
       0.057588868 0.058555998 -0.08090445 -0.08851571
000120 5f ac d7 3d ed 21 b0 3d a4 7f 0d 3d 10 d7 35 bb
       0.10530924 0.08600221 0.034545556 -0.0027746595
000130 c1 1a d9 bb 8d c9 aa ba 7a 75 c9 bd 0a 60 23 bd
       -0.006625504 -0.0013030038 -0.0983686 -0.03988651
000140 95 32 26 bd 26 2c 91 3d cc b0 d8 bc da f1 5d 3d
       -0.040575583 0.07088499 -0.02645149 0.054185726
000150 83 b3 68 bd 68 31 3c bd 25 66 2c 3c 73 c2 ea bc
       -0.05681182 -0.045945555 0.0105224 -0.028657174
000160 34 f3 1b 3d 7c a0 5e bd 86 1a 7b 3c f2 ac 3c bd
       0.038073733 -0.05435227 0.015326148 -0.04606337
000170 7f 7b ad 3d 6d 19 98 3d 09 c4 f3 bd e1 6a b3 bb
       0.08470821 0.074267246 -0.11902625 -0.0054753874
000180 65 91 91 3d ff 8c 84 bd 85 53 19 bd 34 8c 5b 3d
       0.0710781 -0.06472205 -0.037433166 0.053600505
000190 81 46 b8 bd 6a b3 24 bd 90 c1 61 3c 5d d3 93 3d
       -0.089978226 -0.040210165 0.013779059 0.07218049
0001a0 58 39 b9 bc 6c 6e bf 3c 15 65 ce bd 57 52 8b bd
       -0.022610351 0.023368083 -0.100778736 -0.068028145
0001b0 2e 2d 93 bd a1 80 94 bd f2 70 32 3d cd 9a af bd
       -0.07186352 -0.072510965 0.043564744 -0.08574448
0001c0 57 ea 94 3d b3 15 24 3d b4 cf cc 3c f4 e7 38 bb
       0.07271259 0.040059756 0.025001384 -0.0028214427
0001d0 10 d1 91 bd 3c 2d 9b 3d 84 47 fb bc d9 4c d7 3a
       -0.07119954 0.07576987 -0.03067375 0.0016426101
0001e0 5f 34 95 bd e5 3b 90 bd 1b 09 50 bd ec 97 14 bd
       -0.072853796 -0.07042674 -0.050789934 -0.036277696
0001f0 24 94 9e bd c7 dc 03 bd 1a 90 91 3d 97 e9 b1 3d
       -0.07743099 -0.03219297 0.07107563 0.08687132
000200 d8 39 0e bd 4d 50 b5 bd 88 cd c6 bc ba e7 c9 bd
       -0.034723133 -0.08853207 -0.024267927 -0.098586515
000210 d3 72 0f bd 92 91 84 3d 24 28 ec 3c 2e 0b 80 bd
       -0.035021614 0.06473078 0.028827734 -0.06252132
000220 4b 65 68 3d d9 7b 2d 3b ef c7 bc 3b 69 c2 2b bb
       0.056737226 0.0026471524 0.0057611386 -0.0026208407
000230 6b 3c 00 bd c8 f0 4c bd 7f d5 c5 bd 16 e7 83 bd
       -0.03130762 -0.050034314 -0.09659862 -0.064405605
000240 33 3d 4a bd 26 7a e0 bc 4e 9c b9 3d 20 82 1e 3d
       -0.04937477 -0.027401995 0.09063016 0.038698316
000250 e9 b3 ac 3d d8 bf 46 bc 3c 77 b2 3c 8d c4 79 bd
       0.08432753 -0.0121307 0.021785371 -0.06097846
000260 50 6e 24 bc e3 c0 c9 bd 68 26 67 3c ec 02 82 3d
       -0.010036066 -0.09851243 0.014108278 0.063482136
000270 dc 22 d4 bd 13 13 59 bd 6e 6d 8e 3d e0 a3 b2 ba
       -0.103582114 -0.052996706 0.06954466 -0.0013629161
000280 6c be c0 3c bd a0 ad 3c d8 34 4f 3d 81 59 14 3d
       0.0235283 0.02119481 0.050587505 0.03621817
000290 79 1a bd 3d 8e 64 d9 bb 2a e1 1b 3c c6 0f bc 3d
       0.09233565 -0.0066343015 0.0095141325 0.09182696
0002a0 05 22 ae 3d 33 03 8d bd 3b 26 17 3d b7 3a 80 3d
       0.085025825 -0.06885376 0.036901694 0.06261199
0002b0 4d 22 da bd 6c b8 46 3d e8 53 7f 3d 00 f4 18 39
       -0.106510736 0.048515722 0.06233588 0.00014586747
0002c0 34 bf 72 3b ce 74 8e bc b1 5e 4e 3c a6 d2 81 bd
       0.0037040235 -0.017389681 0.012595818 -0.06339006
0002d0 d8 d9 53 3d 6c 11 1e bd e3 bb d5 bc f2 91 82 bd
       0.051721424 -0.038590834 -0.026090568 -0.06375493
0002e0 14 17 a2 3d f4 ff e6 bc 70 d2 6c 3c 4d d5 a7 3d
       0.07914558 -0.02819822 0.014454469 0.08194981
0002f0 fd 3c 30 bd 81 45 35 bd 44 24 67 3d 04 e0 97 bc
       -0.043026913 -0.044255737 0.05643107 -0.018539436
000300 b5 86 ac bd cc 18 8b bd 96 58 bb 3d 79 0b 3a bd
       -0.08424131 -0.06791839 0.09147756 -0.045421097
000310 85 f7 8b 3d 47 2f 04 bd d2 69 bd 3d f7 59 ae bc
       0.0683432 -0.03227165 0.09248699 -0.021283133
000320 21 00 83 3d 88 b2 ad bd ee f0 3c 3d e3 9a 82 bd
       0.06396509 -0.08481318 0.046128206 -0.063771985
000330 1a 04 5b bd 72 e9 cb 3b 05 ef f8 bc ba 7d 85 3d
       -0.05347071 0.006222897 -0.03038741 0.06518121
000340 4e b8 76 bd 5c 56 b0 bc 30 41 7b bd 31 6c a6 bc
       -0.06023436 -0.021525554 -0.061341465 -0.020315262
000350 cf 0f 7a bd 3f 03 cd bd b5 eb b6 bd d2 79 24 bd
       -0.061050232 -0.10010385 -0.08931676 -0.04015524
000360 e3 98 d5 3b ae 47 c0 bd 03 ca db bd 71 2b 95 bd
       0.0065184697 -0.09388672 -0.1073189 -0.072836764
000370 ee 53 64 3d e5 7a 83 bd 3b b6 8b 3c 27 a3 28 3d
       0.055744104 -0.06419925 0.017054668 0.04117122
000380 56 3a b9 3c cd 96 ac 3d 76 ed 34 bd bd e7 48 bd
       0.022610825 0.084272005 -0.044171773 -0.049049128
000390 81 e4 d2 bd 8a 0c 8f bd 89 f2 97 3d 96 44 a6 bd
       -0.1029749 -0.069848135 0.07419307 -0.081185505
0003a0 c0 31 6d bd be 38 ff bd da ec 93 3c e2 e7 5d 3d
       -0.057908773 -0.124619946 0.018057276 0.05417622
0003b0 16 0f 90 bd a5 26 02 be c2 be 66 bd ae cc 34 3d
       -0.070341274 -0.12710054 -0.056334265 0.04414051
0003c0 f9 b5 0e 3d a5 e3 97 3d 50 9f e8 bc 10 9e 1a bd
       0.03484151 0.074164666 -0.028396279 -0.037748396
0003d0 a6 0e c6 3c 48 1a 26 bd ca 58 02 3c 77 25 10 bc
       0.024176907 -0.040552408 0.007955739 -0.008797995
0003e0 02 5e af bd 70 0f 2b 3e 09 83 26 3d 34 91 7f bd
       -0.085628524 0.16705108 0.04065231 -0.062394336
0003f0 89 26 b7 bb a4 8a af bd 95 4d 65 bd a2 85 81 3d
       -0.0055893105 -0.085713655 -0.05598219 0.063243166

net.6.bias f4 [100]
000000 97 f4 33 3c d3 e0 07 bd f4 92 99 3d 2d a2 6d 3d
       0.010983608 -0.033173393 0.07498732 0.05801599
000010 77 20 95 3d 70 e7 e7 bd 33 dd 9a bd 12 9f a6 bd
       0.07281583 -0.1132344 -0.07561722 -0.08135809
000020 15 19 c7 3c 90 58 13 bb e6 03 85 3d 7a cd 02 3e
       0.024303952 -0.0022483207 0.06494884 0.12773696
000030 05 90 ce 3d 17 f0 67 3c b5 83 5e bd 39 da d8 3d
       0.10086063 0.014156363 -0.054324824 0.10588498
000040 94 d1 85 bd 3a d8 c5 3d 17 fe 11 3e 2d 5d ee 3c
       -0.065341145 0.096603826 0.14257084 0.029097164
000050 d0 49 0b 3e 92 65 03 3e 2a 91 3c 3c b6 db 1c be
       0.13602376 0.12831715 0.011509219 -0.15318188
000060 39 f7 f0 3d f9 fc df 3c 4c de d9 3d 5a 8d 6e bd
       0.11765904 0.027342306 0.10638103 -0.058240272
000070 8d 7f fc bc 29 42 8e 3d 24 6a 59 3d b0 7b 69 bc
       -0.03082254 0.06946213 0.05307974 -0.014250681
000080 ac c9 61 3d 1b 21 65 3d 69 d1 21 bc c1 85 c6 bd
       0.05512397 0.055939775 -0.009876587 -0.0969348
000090 70 82 ac 3d 3d 93 45 3d 24 93 b1 bd 31 bf 4f bd
       0.084233165 0.04823612 -0.08670643 -0.050719444
0000a0 18 c4 f1 3c 5f 0c f2 3d 6f 50 09 be 27 b9 9b bd
       0.02951245 0.11818766 -0.13409589 -0.076036744
0000b0 ea f5 90 bd 70 ca a9 bd 5b f4 80 bd 52 87 4d 3d
       -0.070781544 -0.08290565 -0.06296607 0.05017788
0000c0 3f dd a0 3d 2d ee 45 bd 9e be 58 bc c4 f8 bd bc
       0.07854699 -0.048322845 -0.01322904 -0.02318991
0000d0 b8 c4 bc bd 92 77 c4 bc 9f 46 b4 bd d9 f0 e5 3d
       -0.092172086 -0.023982797 -0.088025324 0.11227579
0000e0 d3 b8 a6 bd a7 46 dc 3d 9d a3 1e bc ad 01 12 3d
       -0.08140721 0.10755663 -0.009682563 0.03564613
0000f0 6e 71 88 3c ae 63 28 3d 42 22 d1 bd 5f e5 e5 3a
       0.01665565 0.041110687 -0.10211612 0.0017539671
000100 b8 eb ad bd 86 9b 7e bd 0d d2 ab bd f9 7c 2e 3c
       -0.084922254 -0.062160037 -0.083896734 0.010649913
000110 10 02 c9 bd 63 da 5b 3d b0 d9 09 3d 74 c1 dc 3d
       -0.098148465 0.053675067 0.03365487 0.10779086
000120 39 d0 01 be 29 43 0d 3d ca a3 c8 3c a0 ce e8 bb
       -0.12677087 0.034487877 0.024492163 -0.0071047097
000130 9a 7d be bd 10 4a ae 3b 0a b8 11 bd 34 b4 a3 bd
       -0.093013 0.0053188875 -0.035575904 -0.079933554
000140 c0 4c d5 bd 0e 91 13 3d 87 b7 ef 3d 5b 40 3f bd
       -0.104150295 0.036027007 0.11704927 -0.046692234
000150 36 e4 1e bd fe 43 cd 3d 0b 25 05 3d 7f 6d 20 3c
       -0.038791858 0.10022734 0.03250603 0.009791731
000160 de b6 49 bd 1e 80 05 3e ca 0d c0 3d 54 6d 0d 3e
       -0.04924666 0.13037154 0.0937763 0.13811237
000170 4e 51 26 3d 36 46 66 bd 5e 02 cb 3d eb a3 81 bc
       0.040604882 -0.056219302 0.09912561 -0.015825232
000180 85 e2 69 bd d8 ed 11 bd dc ed e6 bd 40 d5 9d 3d
       -0.05710079 -0.035627216 -0.11275837 0.0770669

net.8.weight f4 [100, 100]
000000 22 3d 8b 3d 0b ee 83 3d dc 8f be 3d da e8 d6 bd
       0.067987695 0.064418875 0.09304783 -0.10493632
000010 c4 51 7a 3d 90 4d a4 3d 44 ed a6 3d 5d 78 b4 bd
       0.061113134 0.080226064 0.081507236 -0.0881202
000020 92 a4 c1 3d 52 ed e0 3d 3a 45 80 3d 6e 1f a0 bd
       0.094552174 0.10982765 0.06263204 -0.07818495
000030 0a 5e ab bd 8c 64 39 bd cc b3 80 3d 13 cc 46 3d
       -0.08367546 -0.045261905 0.062842935 0.048534464
000040 5b 1b e8 bc 31 86 1c bd 5f 21 a9 3c d4 15 a8 bd
       -0.028333357 -0.038213912 0.020645795 -0.082072884
000050 dc 47 4d 3c ac 53 10 3d 2e 22 0d 3c 9b 69 ec 3d
       0.01252934 0.035236046 0.008614106 0.1154358
000060 d0 71 2d bd 24 14 c3 bd 13 fb 0f bc 1a 86 43 3d
       -0.04234487 -0.09525326 -0.008787888 0.04773531
000070 92 c0 58 bd 8d 03 af 3d 05 03 3e bd 01 fc 6e 3d
       -0.052918024 0.08545599 -0.0463896 0.0583458
000080 55 61 a8 bc 85 8a a5 bc 99 70 b5 3d e0 be 76 3d
       -0.020554224 -0.020207653 0.08859367 0.060240626
000090 9d 18 31 bd 84 85 af bd f7 51 80 bd 2e 7d 80 bd
       -0.043236364 -0.08570388 -0.062656336 -0.06273876
0000a0 b4 af 08 3d f8 c9 a4 3a 44 68 6b bd 0e 51 2c 3b
       0.03337069 0.0012572398 -0.057472482 0.002629343
0000b0 36 6c a7 3d 48 f0 4b 3d 1a 29 08 bd be a2 e9 bd
       0.081749365 0.049789697 -0.033242323 -0.11407994
0000c0 1a 7c 81 bd 2a ef 4e bd f8 82 92 3d 83 f3 a4 bc
       -0.063224986 -0.050521053 0.071538866 -0.020135647
0000d0 f9 d0 a5 3c 13 95 57 bd 51 99 84 3d b2 a3 0f bd
       0.020241247 -0.052632403 0.06474555 -0.03506822
0000e0 3d fc 2a 3d 3a da eb 3c 08 1e af 3d dc 72 d9 3a
       0.04174446 0.028790582 0.0855065 0.0016590017
0000f0 77 1e 13 bd 71 e1 a3 3d 5a c7 10 3d 19 91 08 3d
       -0.035917725 0.08001984 0.035346366 0.0333415
000100 ee ab 9b 3d c2 d2 95 bc af 90 c9 bd 9e 15 1f bd
       0.07601152 -0.018288974 -0.09842049 -0.038838975
000110 5b cb 97 bd 37 b9 86 bd 7d 9b 63 bd 81 a7 c1 3d
       -0.07411834 -0.06578296 -0.055568207 0.09455777
000120 23 c9 02 bd 59 78 ce 3d a4 a1 c3 3d 84 dd 86 3c
       -0.0319301 0.10081548 0.09552315 0.016463049
000130 19 c0 4e bd 5b e4 d6 3d fd d8 08 3b 47 88 49 bd
       -0.050476167 0.10492774 0.0020881288 -0.04920223
000140 6c 8c 80 3d da d0 9c 3d 95 a1 d1 bb 51 f6 dc bc
       0.06276783 0.07657023 -0.006397436 -0.026972922
000150 ab 56 66 3d 10 63 5a 3d cb b3 fd 3d f7 45 19 3d
       0.056234997 0.05331713 0.123878084 0.03742024
000160 ba 2b 1f 3a 9a 66 02 bd 07 fc 9e bc 76 5f f1 bd
       0.00060718844 -0.03183613 -0.019407285 -0.11785786
000170 28 95 d8 bd 2e f7 8c 3c 17 5c 49 3d c8 df 5f 3d
       -0.10575324 0.017207708 0.04916009 0.054656774
000180 b4 ff 8c 3d ea 64 2e bd ed 2f a8 3d ae 77 ac bd
       0.06884709 -0.042576708 0.08212266 -0.084212646
000190 54 9d 5f bd 64 88 18 bd 46 d4 27 3c d2 dd 3e 3d
       -0.0545934 -0.037239447 0.010243481 0.046598263
0001a0 de 81 d9 bb 1e dc bf bd 00 52 dc 3b 5e 7b 98 bd
       -0.006637796 -0.09368156 0.0067236423 -0.074454054
0001b0 59 8c b5 bd a6 af c1 bd 0d ec d4 bd bf f2 1b bc
       -0.0886466 -0.094573304 -0.103965856 -0.009518324
0001c0 1d 89 78 3c 78 77 f2 bc 9b c5 b5 3d 6e ee 3a 3d
       0.015169409 -0.029597983 0.08875581 0.04563754
0001d0 23 ed e3 3c f4 b0 05 3d ea 3f c8 bd db 4d c3 bc
       0.027823037 0.03263946 -0.09777816 -0.023840835
0001e0 f8 aa 55 3d c9 ee 9b bd d1 fe a2 bd 95 4e 65 bd
       0.052165 -0.07613904 -0.079587586 -0.055983145
0001f0 a9 d6 20 bd b4 51 ba 3d 60 e0 b2 3d 05 b0 31 bd
       -0.039267216 0.09097615 0.087342024 -0.043380756
000200 21 06 4e bd 03 f1 60 3d d1 8c b5 bc 35 c4 19 bb
       -0.050298814 0.054917347 -0.022161873 -0.0023462896
000210 b0 70 ad bd 5d a0 10 3d 40 25 b4 bd 35 32 c0 bd
       -0.08468759 0.035309184 -0.087961674 -0.09384576
000220 90 1f 08 be c0 51 cc 3d 84 7c ca bb 8b a8 03 bd
       -0.1329329 0.0997653 -0.006179394 -0.032143157
000230 9e 12 af 3b 60 78 ce bc 04 cf c3 3d 53 a9 b6 bd
       0.0053427955 -0.025203884 0.095609695 -0.08919015
000240 98 50 4c 3d 72 66 87 3d bc 26 29 3e 1c 88 30 3d
       0.049881548 0.06611337 0.16518682 0.043098554
000250 aa bb d0 3d 4a af 65 bd 35 42 93 3d b9 67 95 bd
       0.10192044 -0.05607537 0.07190362 -0.07295174
000260 9f 0c 1a 3d 76 e1 81 3d 40 74 bd bc b3 9a c7 bc
       0.037609693 0.063418314 -0.023126721 -0.024365759
000270 b1 a4 66 3d 59 98 50 bd 37 73 8d bc a7 d3 d9 3d
       0.056309406 -0.05092654 -0.017266853 0.106360726
000280 d1 f3 fa bc e5 04 35 3d 44 50 b0 3c 15 f0 67 bd
       -0.030633839 0.04419412 0.021522649 -0.056625444
000290 ac a6 cd 3d 3a 79 b1 3d 2f 90 8e 3d 5e 97 ac 3c
       0.10041556 0.086657 0.069610946 0.021068271
0002a0 02 39 92 bc e2 fd cf bd 3f 9f 92 3d d0 e2 8f 3d
       -0.017849449 -0.10155846 0.0715928 0.07025683
0002b0 3f ae e9 bb 3b 71 cd 3d 19 a8 82 3d 75 a8 f6 bc
       -0.0071313675 0.100313626 0.06379718 -0.030109623
0002c0 15 b0 ae 3d cc 04 12 bd ac 7e a2 3d 2f 71 b0 3c
       0.08529679 -0.035649106 0.07934317 0.021538345
0002d0 0f 0d 86 bc e5 44 cb bb 01 23 53 3b 4f 1c 9f bd
       -0.016363649 -0.006203281 0.003221691 -0.07769071
0002e0 c1 a8 b7 bd bd a0 d5 3d 5c ae a7 3d cd 1f d3 bd
       -0.08967734 0.10431049 0.08187553 -0.103088
0002f0 7b 41 4b 3d 6c 77 a6 3d bf c3 c1 3d 1e 5e ac 3d
       0.049622994 0.08128247 0.09461164 0.08416389
000300 c2 41 ac bb d9 bd 0a bd a3 89 59 bc 51 58 a6 3c
       -0.0052568624 -0.03387246 -0.013277444 0.020305784
000310 e1 f7 53 3d 59 04 70 3d 4b 21 5c bc 1f 22 62 3d
       0.051750068 0.058597896 -0.013435672 0.05520832
000320 c3 47 ef bc 15 44 b3 3d 24 dd a5 bc 37 4c d7 bc
       -0.029209023 0.0875322 -0.02024705 -0.02628146
000330 25 24 c3 3c 00 33 31 bd 8f 54 d7 bc c0 72 7d bc
       0.023820946 -0.043261528 -0.026285438 -0.015469253
000340 28 f9 04 3d 89 76 b9 bd c4 e0 b6 bd e0 5d 2f 3d
       0.032464176 -0.09055812 -0.089295894 0.042814136
000350 86 68 5a 3c aa 67 26 bd e4 c3 f5 3b af 30 3a 3b
       0.013330584 -0.040626206 0.0075001586 0.0028410365
000360 e2 84 9f bc e7 bb 1a be 16 3f ae bc a9 b5 b5 bc
       -0.019472543 -0.15110742 -0.021270316 -0.022181349
000370 74 cb 9c 3d c7 2c 90 3c d6 d5 f3 3c fb cf e9 bd
       0.07655993 0.017599477 0.02976505 -0.11416622
000380 10 3d f1 bb 93 d2 47 bd 84 96 a6 bd d1 5c 55 bc
       -0.0073620155 -0.048784804 -0.08134177 -0.013022617
000390 80 8a f8 bb 66 e4 a4 bc 0c 60 aa bd cf 10 c7 bc
       -0.00758487 -0.02012844 -0.08319101 -0.024300007
0003a0 6d d0 28 3d ec f3 6e bc 2e 14 9b bd 89 11 9e bd
       0.041214395 -0.014584523 -0.07572208 -0.07718188
0003b0 0f 08 06 bd d8 85 6e bc 2d 80 6e 3d 4f 60 1f bd
       -0.03272253 -0.014558278 0.058227707 -0.038910206
0003c0 b8 dc 8f bd 9f 60 af bc a6 67 6d bc a0 13 8d 3a
       -0.07024521 -0.021408377 -0.014490044 0.0010763295
0003d0 f0 bd 20 bd 7e 60 de bc 66 a3 00 be b0 e4 70 3d
       -0.03924364 -0.02714562 -0.12562332 0.058811843
0003e0 ad db e5 bc 88 31 b2 bd 52 ec 3b 3c 94 6c 08 bd
       -0.028058851 -0.087008536 0.011469917 -0.033306673
0003f0 ef dc 93 3d 20 b3 da bb 53 2f 94 bd 3c 64 a9 3d
       0.07219874 -0.0066741854 -0.07235589 0.08271071

net.8.bias f4 [100]
000000 d1 e6 47 3c 7f 88 2e bc e3 d5 c8 3d 95 20 69 bd
       0.012201027 -0.01065266 0.09806421 -0.05691584
000010 16 f2 6a 3d dd c1 e8 bd 67 ba 61 bd 7f a4 03 be
       0.057359777 -0.113651015 -0.055109408 -0.12855719
000020 aa 5d c9 ba a3 a4 b9 3d 01 7f 8e 3d 2a c4 cb 3d
       -0.0015362997 0.09064605 0.06957818 0.09949525
000030 42 f1 01 bc 54 38 83 3d 29 e6 e4 bd 54 75 fe bd
       -0.0079310555 0.06407228 -0.11176712 -0.12424722
000040 54 af 34 3c fb 1a 50 bd 85 25 c6 bd d6 9f f9 bd
       0.01102813 -0.05080698 -0.09675125 -0.121886894
000050 95 02 f9 3c 55 c0 ff 3c 90 4c 7b 3d 34 05 2a 3d
       0.030396739 0.03121964 0.061352313 0.04150887
000060 4f 18 37 bd 23 4c 26 3d 83 69 98 bd 18 8b 80 bd
       -0.044700917 0.040599953 -0.07442 -0.0627653
000070 e2 41 6c bd 87 28 8e 3d 3e 64 af 3d ab 5c c0 bd
       -0.05768002 0.06941324 0.085640416 -0.09392675
000080 de 94 a6 bd a7 8b 05 3e 82 9a 13 bd 79 dc fa 3d
       -0.08133863 0.13041554 -0.036036022 0.12249083
000090 a3 e8 bb bd c5 29 b6 3d bf f3 b8 bd 80 f3 a7 bd
       -0.09175231 0.08894686 -0.09030866 -0.08200741
0000a0 17 62 38 3d 98 4e d3 bc 7b 20 f7 3b c8 b8 a1 bd
       0.04501542 -0.025794312 0.007541714 -0.07896572
0000b0 e7 09 1d 3c dd 1a f3 3c b0 c5 cc bd 16 b9 02 bd
       0.00958488 0.029675895 -0.099986434 -0.031914793
0000c0 be c1 95 3d ad cd 0f 3d ef 5d dc bd c6 76 8e 3d
       0.07312344 0.035108257 -0.10760104 0.06956248
0000d0 8d a8 7b bc fa cd bb 3d 29 2d ef bd 24 d9 c2 bd
       -0.01536001 0.09170146 -0.116785355 -0.095140725
0000e0 a1 44 91 bd cc e4 64 3a d0 2a cb 3b 66 50 10 ba
       -0.07093168 0.0008731603 0.006200172 -0.00055051444
0000f0 76 0a 82 bd 09 f4 a7 3b 0b 4c a5 3d 9d 7e ed bd
       -0.063496515 0.005125527 0.08071145 -0.11596415
000100 26 8b 5e bd 57 a7 51 3d 5e 10 8c 3d bd 31 94 3d
       -0.05433192 0.05118498 0.06839059 0.07236049
000110 56 f0 d9 3d 70 01 d0 3d 84 0f 0f 3d a7 ad 8a bb
       0.106415436 0.10156524 0.034926906 -0.0042321268
000120 93 08 8b 3d 54 19 d6 bd 64 a8 f3 bc 47 a4 5a bd
       0.06788745 -0.1045405 -0.02974338 -0.053379323
000130 c3 d5 c1 bd de e7 94 3d cf 00 43 bd 36 64 31 3d
       -0.094646 0.07270788 -0.047608193 0.04330846
000140 d1 e0 dd 3c 51 46 8c 3d 1d ca a8 bc c3 f6 d5 bb
       0.02708474 0.06849349 -0.020604188 -0.0065296604
000150 36 36 d5 bd 64 16 6b bd 7a 75 3c 3d de 1d b9 bb
       -0.104107305 -0.0573944 0.046010472 -0.0056493124
000160 34 ab 3a 3d c6 99 74 bd b2 85 a7 3c 59 b6 57 3b
       0.04557343 -0.059716962 0.020449493 0.0032915084
000170 d0 b1 a4 bb 7e a1 17 3d 05 48 bf 3d d0 36 27 bd
       -0.0050260797 0.037019245 0.093399085 -0.040823758
000180 4e 5d a3 3d 84 6c 94 bd db bf c4 bd fd bd e3 bd
       0.07976781 -0.0724726 -0.09606906 -0.11120222
