models/heatalpha/relu/heatalpha_29.pth (torch, 977047 bytes, 51 tensors)

net.0.weight f4 [100, 3]
00000000: 83a6 353d db74 ae3e 30ea e43e 9fca ef3e
00000010: a772 d33e 3585 f83e 6c49 81be 0602 fa39
00000020: 0bd0 0d3f 8edf fdbe 75bf b1be bb2a 213f
00000030: cadf 833c 5e41 43be 7ade d2be 1df6 65be
00000040: c749 af3e ee43 d43e b8cf 43be 56a8 b23d
00000050: b2cf 04be 9012 f9be 44d5 743e 454a e3be
00000060: 20a1 d03d 6cca abb9 cb98 81be 601d 30bd
00000070: e076 a53d 1999 a03d 06e4 ca3e 76a3 9fbd
00000080: 9117 07bf dd99 c13e 7ed0 8c3e f575 b0bd
00000090: 98d1 f83a eca1 a63e 277d 923e ab8a a63e
000000a0: c9f9 033f baab a63e 9368 183e fcb8 c03e
000000b0: 4685 c43e adae 953e 8aaa e43c 1199 2e3d
000000c0: 54d8 85be 374d 603c d77a c83e da7a a43e
000000d0: fb52 c23e 2ad9 06bf 80c3 aabd 0e21 283e
000000e0: 4ab2 313d b659 d53e 659d c23d abcb 43be
000000f0: 9705 d8bd 172e eabe 6189 78bd cce6 993e
00000100: 538d 59bd 129a a2be fdcc 37be 8f5e f1b9
00000110: fa75 073f 0a91 c2be a1fa a5bd 392d be3e
00000120: f0d4 d8be 60da 18bd 527e 6abe 6c8a f93e
00000130: ac55 d5bd 0438 04bf ebc2 8e3e 9579 5a3d
00000140: 0c9a 143e ab20 b9bd 4052 953e 9b30 343e
00000150: 7080 61bd 0033 78bc 373c 7d3e 5f3a 013e
00000160: 19d0 21bc 90f1 c4be 2d30 0b3f 39ba 533e
00000170: 54ef f33d ce90 e0be 0728 2cbe ab21 8e3d
00000180: 475a d13e 6bf0 a53e 6481 433d 7d05 97ba
00000190: fa4b bf3d fd15 63be 0808 e5bd 4179 7139
000001a0: 534c 8f3e 9b05 edbe f390 9bbe 0b52 05bf
000001b0: fcfb 583e ef08 8c3a be2b e1be c85b 0b3f
000001c0: 9c2e c4bd 1a78 42be ccbe 513e 7424 4cbb
000001d0: b5b3 8cbd 3827 853e a548 cebd ed82 e1bd
000001e0: 0bfb 8ebe adf0 8cbe 3098 553e 96df 613b
000001f0: 1f95 673e aba0 c83e a1bc a43e 477e 0fbc
00000200: 6274 debe f236 ee3d d580 5f3e cf64 513e
00000210: 564a 363d 0522 9a3d aa00 0dbe 103e 9a3e
00000220: b7dc c0bc 6760 f0be 70a0 2b3e 8128 e93c
00000230: 2ccb bbbe 7909 e83d 4257 f43d 7dac e43e
00000240: 6b40 d63e ae23 10be 2f9b 103e e1b5 9cbe
00000250: 047f 903d fbdb 10be 752a ab3d 4ee3 c1bd
00000260: e683 003f 8b20 423e 4e8e 173c 5106 1bbe
00000270: 0f71 ea3e 98bd da3e 4bab f3be 6b87 a9be
00000280: a859 0f3e f197 1c3e 9d5d fa3d fd6a ea3d
00000290: d619 513e 57a3 cebe 565a 5fbd 4f87 2e3e
000002a0: eb92 fb3d 50c6 84bd 09b4 77bc 1c7f debd
000002b0: da06 13bd b19a 973e e89b 01bd 98a0 5b3e
000002c0: 2409 07bd beca 9bbe 72d9 c63d 575f 013f
000002d0: 3b40 b33e 844b 7bbd 09aa 82bd 335e 443e
000002e0: 06a9 d538 e513 c6be be38 d03e 844f 703a
000002f0: b30a debe 4bf5 89be d4d1 b2be c669 383d
00000300: b553 713c 8688 dfbb 1880 3d3c 9d43 003e
00000310: 52cc e13e 8ea8 263d 67c9 95be f0f9 febe
00000320: 6044 623d c145 fa3e 3e6c 1fbd 27b8 da3e
00000330: c1ad b6be 37a2 a5bb 3150 eb3e 4dcf 86be
00000340: 803f c4bd 043a 81be 48ad 123f e0ab 91bd
00000350: d656 a2be 0bb0 793e 1231 e23d 8207 383c
00000360: 41ce 8c3e 5536 163d e688 b4be fcd7 aebe
00000370: 5894 cb3d 653a 863e 3cfe b53e 0a0a a9bd
00000380: b294 69bd d754 f6be 2bb3 00bf 0f62 d6be
00000390: d70a 2a3e 517d f33a d59a c63e 956d 9c3c
000003a0: b32b 4ebc c40c fb3e b1fa c0be 8580 073e
000003b0: 9112 a53e 9ecd b43e 6440 f9bc edf7 34be
000003c0: d171 98be 7c35 2a3b 876f bc3e 8178 fcbe
000003d0: 824f a1be aa1c 01bf efe1 c2be 03a6 e9be
000003e0: b930 e63e 5ac0 19be fb3d dfbe 1c0c 66be
000003f0: 14b5 b3be daab fa3c f896 dc3e a729 2d3e
0.04434825 0.3407353 0.4470992 0.46834275 0.4129841 0.4853913 -0.2525133 0.00047685223
0.55395573 -0.4958462 -0.34716383 0.62955827 0.016097922 -0.19067904 -0.4118536 -0.22457166
0.34235975 0.41458076 -0.19122207 0.08723514 -0.12969854 -0.48646975 0.2390948 -0.443926
0.10186982 -0.00032766478 -0.25311884 -0.042996764 0.08079314 0.07841701 0.39627093 -0.077948496
-0.52770334 0.378127 0.27502817 -0.086162485 0.0018983362 0.32545412 0.2861111 0.3252767
0.51553017 0.32552892 0.14883642 0.37641132 0.3838293 0.2923483 0.02791335 0.042626444
-0.26141608 0.013690284 0.3915622 0.32124978 0.37953934 -0.52675116 -0.0833807 0.1641886
0.04338292 0.41670007 0.09502677 -0.19120662 -0.10547941 -0.4573829 -0.06067789 0.30058897
-0.053113293 -0.3175817 -0.1794929 -0.00046037554 0.5291439 -0.3800128 -0.08104444 0.37143877
-0.42349958 -0.037317634 -0.2289975 0.4873842 -0.10416731 -0.51647973 0.27883086 0.053338606
0.14511889 -0.09039434 0.29164314 0.17596667 -0.05505413 -0.015148878 0.24730001 0.12619923
-0.0098762745 -0.38465548 0.54370385 0.20676507 0.119108826 -0.43860477 -0.16812144 0.069400154
0.4088919 0.32409987 0.04773082 -0.0011522021 0.09340663 -0.22176357 -0.111831725 0.00023028722
0.27987918 -0.4629334 -0.30384025 -0.5207831 0.21189874 0.0010683815 -0.43978685 0.5443692
-0.095792025 -0.18991128 0.2048294 -0.0031149657 -0.06870214 0.26006484 -0.100724496 -0.110113
-0.27925906 -0.2752737 0.20858836 0.0034465543 0.22615479 0.3918508 0.32175162 -0.008758134
-0.43448168 0.11631574 0.2182649 0.20448612 0.044504486 0.0752602 -0.13769785 0.30125475
-0.023542745 -0.4694855 0.16760421 0.028461697 -0.36678445 0.11329932 0.119307056 0.44662848
0.41846022 -0.1407611 0.14121698 -0.30607513 0.07055476 -0.14146416 0.083577074 -0.09467183
0.5020126 0.18957727 0.009250237 -0.15139128 0.45789382 0.42722774 -0.47591624 -0.33111128
0.13999045 0.15292336 0.122248866 0.11446188 0.20420012 -0.40358993 -0.05452951 0.17043804
0.12283882 -0.064831376 -0.015118607 -0.10864088 -0.035895206 0.29610208 -0.031642824 0.2144798
-0.0329677 -0.30428118 0.09709443 0.505361 0.3500994 -0.061351314 -0.06380088 0.19176559
0.000101881145 -0.38687053 0.4066829 0.0009167122 -0.43367538 -0.26944956 -0.3492571 0.04502275
0.01472943 -0.006821695 0.011566184 0.12525792 0.44101197 0.04068809 -0.2925522 -0.49800062
0.05524099 0.48881343 -0.038921587 0.42718622 -0.3567944 -0.005054738 0.4595962 -0.26330033
-0.09582424 -0.25239575 0.57295656 -0.07112861 -0.31706876 0.24383561 0.11044516 0.011232259
0.2750111 0.03667291 -0.35260695 -0.34149158 0.09940404 0.26216426 0.35545528 -0.08253868
-0.057026573 -0.48111603 -0.5027339 -0.41871688 0.16605698 0.0018576776 0.38790002 0.019095222
-0.012583661 0.49033177 -0.37691262 0.1323262 0.32240728 0.35313123 -0.030426212 -0.17672701
-0.29774335 0.002597182 0.3680384 -0.49310687 -0.31505972 -0.5043436 -0.38063 -0.4563447
0.44959047 -0.15014783 -0.43601975 -0.22465557 -0.3509909 0.030599523 0.4308393 0.1691042

net.0.bias f4 [100]
00000000: 3722 a1bb 1a19 b33e 9e41 f83e f383 d83e
00000010: 0539 09be 5893 073f efad 6cbe 00ec 00bf
00000020: 68f0 0abf 8623 953e 06a9 e63e 2e40 ba3e
00000030: 67d6 fa3e 5410 1ebf ff8c 16bf f24e b43e
00000040: 6871 a93e e33d 38be 0b0c 123f 8f48 853d
00000050: 4d8c bf3e 9999 3bbe b9c4 96bc 673a 973c
00000060: ea33 0dbf 5b20 e43e bd5e 18bf 0f59 243f
00000070: 5d3c 103f b17f eabd 27fb 333e a32b fe3e
00000080: 15a8 433a e4b1 9bbe 2377 183f 9e85 0e3f
00000090: a7aa 87be 04f8 9bbd 7759 043e 7183 62bd
000000a0: 4347 ddbe 42e9 a4bc 837d 23bf e122 16bf
000000b0: 207d 493e 1eb9 94be 05c9 0b3f 2e35 bbbd
000000c0: a574 743e f066 113f c02e 1a3f 0c99 95be
000000d0: 3cf9 17bf aa54 a7be fcd5 f83d 4448 dabd
000000e0: 59f1 433e 22b9 46be f5de 953e 56d0 14bf
000000f0: cb5c c4be 8f7c d9be 079c 1dbf f485 8dbd
00000100: e6bf 983a a6b2 0c3f 6c03 72be a750 90be
00000110: cbdc de3e d0a4 03bd b585 10bf 9798 09bf
00000120: ef0e adbe 6692 20be a58d e5bd ddb6 94be
00000130: 99bb 19bf 0a93 0a3a 3b33 48be 422e e5be
00000140: 5632 b93e 13b1 393e e466 613d 26ad 44be
00000150: e6d4 da3e 5e59 053f 1036 b93b 2874 31be
00000160: aa03 7fbe 9a28 c53d dfca 4f3e bfff 563d
00000170: ee8f 153f 31f7 5dbe 0b4f ee3e 5dff 87be
00000180: 1b0a 16bf 7829 a5bd 8959 51be 416e edbd
-0.004917409 0.34980088 0.48487562 0.4228817 -0.13400657 0.52959204 -0.23113225 -0.5036011
-0.5427308 0.29128665 0.4505083 0.3637709 0.489917 -0.61743665 -0.5880889 0.3521648
0.33094335 -0.17992358 0.57049626 0.0650798 0.37411729 -0.18320312 -0.018404352 0.018460466
-0.5515734 0.44555935 -0.5951956 0.6419839 0.5634211 -0.114501365 0.17576276 0.49642667
0.0007463706 -0.30409157 0.5955679 0.55672634 -0.26497385 -0.076156646 0.12924753 -0.055301134
-0.4321843 -0.020130757 -0.6386339 -0.5864697 0.19676638 -0.29047483 0.54603606 -0.091410026
0.23872621 0.56797695 0.60227585 -0.29218328 -0.59364676 -0.3268178 0.12150189 -0.10658315
0.19135036 -0.1940656 0.29271665 -0.58130395 -0.38352045 -0.42477843 -0.61566204 -0.06910315
0.001165387 0.54960096 -0.23634118 -0.28186533 0.43527827 -0.0321396 -0.5645402 -0.5374846
-0.33800456 -0.15680847 -0.11208657 -0.29045764 -0.60051876 0.0005286193 -0.19550793 -0.44761854
0.36171216 0.18133955 0.055029765 -0.19206676 0.42740554 0.5208949 0.0056521967 -0.17329466
-0.24903741 0.09626885 0.20292233 0.052489992 0.58422744 -0.21676327 0.4654468 -0.26562014
-0.5860917 -0.0806455 -0.20444311 -0.11593295

net.2.weight f4 [100, 100]
00000000: b41b 023d b22f 0bbd e3da 90bc 0232 30bd
00000010: 0c79 57bb bdeb a4bc c2ac 973c dcd3 f6bc
00000020: b85c dd3d 1cc6 2bbd 8bb7 7e3d 2c34 ddbd
00000030: 994d c53c f965 93bd fd1a e4bc 5723 143d
00000040: d3b2 25bd 1815 4e3c 7b87 c23c 7c6d 8fbd
00000050: 2d83 82bd 20ca 2dbc 4c8b a8bd ef06 80bd
00000060: d04f 3a3c 1da8 35bd d748 28bc 37c3 b03b
00000070: f7f0 77bd 2187 82bd 97e1 933d 0789 5cbd
00000080: 89cc cebc fd81 66bc e78f 533d e181 a1bd
00000090: e391 edbc 06ac e53c 9326 513c 0324 bebc
000000a0: 9519 bc3d 6103 76bd f89a 5abc 14c1 9c3d
000000b0: d575 b7bb 04de 583d b458 913d cde3 6e3d
000000c0: b742 db3c 4fb1 363d 4b26 bbbd 57d1 823d
000000d0: a990 11bd 1650 2f3c 6402 9b3d b2e1 3fbc
000000e0: eacd f53c b2c3 d33c 6c4a 2cbd 7667 22bd
000000f0: 4a57 a6bd 370c 933d 8145 ba3c 4159 913d
00000100: 6d2b 053c 8f89 873d 6132 983d d3f3 233d
00000110: ec1b e1bd a03f 493b d344 8bbc 4a93 3e3d
00000120: b89e 7d3c ca8b a13c 92c8 d9bc e895 c5bc
00000130: 6d5e a4bd fc8d 463d f0af 083d 065c b8bd
00000140: 903a 8cbd 0637 2c3c 6e96 bebc 770e b3bd
00000150: 4411 80bd 7749 c93d f120 e03d 92e4 353d
00000160: 6c38 f0bc ed17 a6bd cf17 b9bc 9409 993c
00000170: ceae 953d e498 fdbb 6f95 1cbb 255b ec3d
00000180: dbba 043c 045d 09bd 48df 61bd 4245 ee3c
00000190: 9fca 8cbd b867 6fbd 6a58 403c 23f3 82bd
000001a0: cd59 983d f7aa 4a3c ce1b bbbc f08d 12bd
000001b0: 72fa 923d ac5c d9bd a10f 32bd 883c 9a3d
000001c0: f7dc d5bd c7da 733b b60c 9fbd 3f05 9a3d
000001d0: 535e a5bd 1ada b93d 1c40 ed3c ce70 2ebd
000001e0: c15a 963d 3a73 d7bd 37d5 db3b 2090 a23d
000001f0: 2b0c b8bd 4c2c bc39 4d93 413c 4c67 cdbd
00000200: a926 0d3d f9a1 21bc d580 1abd a077 2ebd
00000210: bb8e 923d 08eb 9cbc 5e2a c7bc e197 3b3d
00000220: c4eb e23c 1676 85b9 06ac b83d 37b2 8a3c
00000230: 271d 2cbd f465 b6bc 95b7 0ebd fd96 a0bc
00000240: 6f38 15bd 12ec 1d3d 16bb e33c 993b 91bc
00000250: f701 2dbd d221 813d f248 8d3d 18d7 013c
00000260: 0bd0 c43c b24a 6c3d d651 c9bd f12f 46bd
00000270: 7ba8 54bc 43dc d93c f294 ac3d 8987 613c
00000280: 7849 1b3d 2ba4 ef3c dbc9 623b aeed 863c
00000290: 2fb2 223c 3080 8b3d daa7 443d 3669 d73b
000002a0: c3ad b83d c347 af3d aec1 98bd 7004 da3b
000002b0: 5715 d2bd aadf f5bc b747 5f3b d9f6 af3d
000002c0: 8cb5 813d 2650 a2bc 62e8 063d a45f a43b
000002d0: b224 993c c54d 5ebd 6b75 4d3c cc72 a63c
000002e0: 27bb babb b6b7 bebd 231f 973d d00d 20bc
000002f0: 38d3 ebbc c246 cc3c 173d 41bd 2873 0dbd
00000300: e80f 8ebd 558a 4dbb fbb1 853d 6e64 99bc
00000310: c8ad ee3c 31c3 74bc ed1d c3bc c72d c73d
00000320: 96d2 bc3d 34b8 98bc d85a a73d 28b1 d93d
00000330: da92 9fbc ee27 a13c 8009 e33c af4a 1a3d
00000340: e995 ffbb 04b3 16bd 5f2f 1ebd 831a 27bd
00000350: e6ad 1abd 4aff 783d c500 413d d225 04bc
00000360: b8e3 203d 40b8 8dbd 8870 54bd fc07 c23b
00000370: 4dc3 573d f45a 703d cf86 2bbb 42ec a43d
00000380: db3b a73d 4a09 27bd b86b d83d 145b da3a
00000390: 8f98 ea3c 832d b83c b618 43bd 9e44 da3d
000003a0: bc70 9dbd 0ccf 5ebc 5b44 573c c153 9f3d
000003b0: ec8b d43c 504a aa3d 29b7 19bb 802b 9ebc
000003c0: 5d92 b53d ee62 20bd 879b a23d c7e2 0a3e
000003d0: cb44 dfbd 667c 83bd cc5b 7b3d c47f 09bc
000003e0: 2761 b93d 037b 863c 7a66 2e3b ca1e e4bc
000003f0: 0469 94b9 7173 d03d d052 7dbd f88d 823d
0.0317647 -0.033981033 -0.017682498 -0.04301644 -0.0032878546 -0.02013194 0.018514995 -0.03013032
0.108087 -0.04193698 0.06218676 -0.108009666 0.024084853 -0.07197184 -0.0278449 0.036166515
-0.040453743 0.012578271 0.023746243 -0.07003304 -0.06372676 -0.010607272 -0.08229694 -0.062513225
0.011371568 -0.04434978 -0.010271273 0.005394365 -0.060532536 -0.0637343 0.07220762 -0.053841617
-0.025244014 -0.014069078 0.051650908 -0.078861006 -0.029000228 0.028036129 0.0127655445 -0.023210531
0.09184567 -0.060061816 -0.0133426115 0.07654014 -0.0055987635 0.052946106 0.07096997 0.058322717
0.02676521 0.04460269 -0.09138163 0.06387585 -0.03553835 0.010700246 0.07568815 -0.011711525
0.030005414 0.02585015 -0.04206316 -0.03964945 -0.08122118 0.07180064 0.02273822 0.07097102
0.008128029 0.06618034 0.07431484 0.04002745 -0.10991654 0.003070809 -0.017000591 0.046527185
0.015479736 0.019719977 -0.026584897 -0.024119332 -0.08025823 0.04847525 0.033370912 -0.09001927
-0.068471074 0.0105111655 -0.02326509 -0.08742993 -0.06253293 0.098284654 0.10943783 0.044407435
-0.029323779 -0.08110032 -0.02259436 0.018681325 0.07308732 -0.0077391732 -0.002389278 0.11540822
0.00810119 -0.033535972 -0.05514458 0.02908576 -0.068745844 -0.058448523 0.01173983 -0.06394031
0.07439003 0.012369863 -0.022840407 -0.035779893 0.07176675 -0.10613379 -0.043471936 0.07531077
-0.10442536 0.003720926 -0.07766096 0.07520532 -0.080746315 0.09074803 0.028961234 -0.042588048
0.07341529 -0.105200246 0.006708767 0.07937646 -0.08986696 0.00035891158 0.011814904 -0.10029468
0.034460697 -0.009865277 -0.03772052 -0.042594552 0.0715613 -0.01915504 -0.024312194 0.04579914
0.027700312 -0.00025455718 0.09017186 0.016930683 -0.04201999 -0.022265412 -0.034843046 -0.019603247
-0.036430772 0.038555212 0.02779917 -0.017728614 -0.042238202 0.06305279 0.06898679 0.0079248175
0.024024984 0.057688423 -0.09830062 -0.048385564 -0.012979622 0.026594287 0.084268466 0.013765224
0.037911862 0.029253086 0.0034605179 0.016470756 0.009930178 0.06811559 0.04801164 0.0065738214
0.090175174 0.08558609 -0.074588165 0.006653361 -0.102579765 -0.030013878 0.0034069845 0.08592004
0.063334554 -0.019813608 0.03293646 0.005016284 0.018694256 -0.054273386 0.012540202 0.020318411
-0.00569858 -0.09312384 0.07378986 -0.009768918 -0.02878724 0.024936084 -0.0471774 -0.03453365
-0.069366276 -0.003136297 0.06528088 -0.018724646 0.0291356 -0.014939115 -0.02381798 0.09725528
0.092198536 -0.018642522 0.08171624 0.10629493 -0.019479204 0.01967236 0.02771449 0.03766888
-0.007799853 -0.036791816 -0.038619395 -0.040796768 -0.0377635 0.060790338 0.047119875 -0.008065658
0.03927967 -0.069199085 -0.05186513 0.005921362 0.052676488 0.05868049 -0.0026172881 0.08052875
0.081657134 -0.040780343 0.10567421 0.0016659223 0.028637199 0.02248264 -0.047630988 0.10657619
-0.07687518 -0.0135991685 0.013138856 0.07779647 0.025945626 0.08314955 -0.002345512 -0.019307852
0.08865807 -0.039156847 0.07939821 0.13563071 -0.10901793 -0.064202115 0.06136684 -0.008392278
0.090517335 0.016416078 0.0026611374 -0.027846713 -0.00028307003 0.10178269 -0.061846554 0.06374735

net.2.bias f4 [100]
00000000: eb9d 753d b14f 8abd 7431 2ebd 9134 efbc
00000010: e493 2bbd 7bd6 ce3d 1e7e d63c c83f f13c
00000020: 74ea 1cbc 04a4 893d ab9a 863d 5791 043c
00000030: 9a90 7dbd 5034 78bc 8194 5e3d e225 583d
00000040: 333e bc39 49c3 90bd 3968 e2bd 50d8 6b3c
00000050: 14c3 ebbd a2aa b03d 247d 15bd cd33 1e3d
00000060: 2727 393c 29d7 b33d 1f54 e23d e1cc c63d
00000070: 4dbe 843d 0f48 25bd 573d 163d 37fe bd3d
00000080: 77a3 c83d b2d3 3ebd cd25 2abc ac0c ed3c
00000090: 009e 903d 55a2 123d 5d04 8bbd c4f1 05be
000000a0: 92e8 91bd 5ddb 52bd 5e00 a43d 0453 d93d
000000b0: 3ccf fbbd ef97 293e acbe 853d a58b c3bd
000000c0: a299 16bd b8b8 c9bc 7853 133e de3e d3bd
000000d0: 6d5a 843d cec2 94bc 5296 bcbd def5 e0bd
000000e0: 13e1 0f3d 527b 9bbb 2965 98bd 9722 953c
000000f0: 81b0 ca3c 73ee 4e3d 80be e63d 1ef6 0ebd
00000100: ae10 bcbd c197 393d aa6e 1e3d 11f7 9fbd
00000110: c778 dcbd e62f 933c baa7 503d f259 c6bd
00000120: d37a 3cbc 68b5 373e c0ba 963c f2bd 06bd
00000130: 5991 ae3d 4c15 cbbc f9ce b33d 1044 0f3e
00000140: c65e 223d 8705 a3bd 27bd e4bc 19d0 8f3c
00000150: aecc 033c e0e7 b0bd 6f13 adbd 3485 933d
00000160: 86e1 5a3c 1d99 56bc c461 863d 3baf 193e
00000170: fabc 613b f7ff 4f3d 3abe 633d 12ca 8abd
00000180: f860 a13c c1a5 5ebd 441b f83c c767 8fba
0.059965055 -0.06753481 -0.04252763 -0.02919987 -0.041889086 0.10099503 0.026183184 0.029449359
-0.009577382 0.067207366 0.06572469 0.008091292 -0.06190548 -0.015149191 0.054340843 0.052770503
0.00035904496 -0.07068498 -0.11055035 0.014394835 -0.115118176 0.086262956 -0.036496297 0.03862362
0.011300839 0.08781273 0.11051201 0.09707046 0.064816095 -0.040351924 0.036679592 0.09277003
0.097968034 -0.046588607 -0.010384989 0.028936706 0.07061386 0.035799343 -0.067879416 -0.13080508
-0.071244374 -0.051478732 0.080078825 0.10611537 -0.12295386 0.16561864 0.065305084 -0.095481195
-0.03676761 -0.024624214 0.1438731 -0.10314725 0.0646256 -0.018159296 -0.09208359 -0.109843954
0.035126757 -0.0047449255 -0.0744117 0.01820497 0.024742367 0.05052037 0.11266804 -0.034902684
-0.09182869 0.04531074 0.038679756 -0.07810796 -0.10765224 0.017967176 0.050941207 -0.096851245
-0.011503893 0.17940295 0.018399596 -0.03289599 0.085238166 -0.024790429 0.08779711 0.13990808
0.039641164 -0.07960039 -0.027922226 0.017555283 0.008044405 -0.08637977 -0.08450972 0.07203141
0.013359433 -0.0130980285 0.06561616 0.15008251 0.0034444914 0.050781216 0.055601336 -0.06776823
0.019699559 -0.054357294 0.030286439 -0.0010940962

net.4.weight f4 [100, 100]
00000000: 893c 76bb e5e0 6ebd 7cc3 ffbc c9cf 76bd
00000010: 2978 a0bb eeef f63c 3aef e93d 7bfd a13b
00000020: a632 46bd 1605 a839 0ff9 88bb 25b6 853d
00000030: 72a1 c4bd da9f 2fbd edb8 5ebd 0d7c 3ebd
00000040: a1bf e6bc 9160 d83d 785d 2ebd 4654 623d
00000050: 350c 5fbd a256 f3bc 5888 5b3c 134b b13d
00000060: 863c 133c b884 0f3d c7e7 8c3d cba7 cebc
00000070: c073 6dbc 3833 d93d b3f1 bcbc cf87 d93c
00000080: 27c1 953d 6027 21bd a9e3 903d c8af ac3d
00000090: 8f43 8c3d d276 8b3d d2d5 d73d f706 8c3b
000000a0: 8e38 98bb 20e1 f1bb 7068 a43d 9927 813d
000000b0: b507 7bbd 34ea 01be 2a59 56bd e726 cbbd
000000c0: 556a d0ba 981e f6bc 3c77 183c 6888 73ba
000000d0: 5940 01bc 5908 ad3d 57f2 b9bd 1b38 1b3c
000000e0: ec2b d43d 01a1 173b f303 8d3c 012f a83d
000000f0: 08fd 9a3c e43f a03d 664d d4bd bbbb 5d3d
00000100: fa70 1e3d 69ab 923c 79b9 2c3d 5824 51bd
00000110: 2988 a7bd e365 3fbd 6224 84bd c6ae 993c
00000120: 4c1b ae3d 0069 edbd 3d57 02bb e63c 103c
00000130: 2198 353c 1899 7abc cf5b 0bbd f618 8a3b
00000140: a35d 0ebe dfa9 8c3d 8404 61bd d58a 5cbd
00000150: 0709 81bd b748 8cbc 2ef4 403d 964f 743d
00000160: 5ad7 57bd 7dce c13d 9c4d 7cbd 187b e5bd
00000170: 1e33 64bd c28d 31bd ab15 b9bd 404b 19bd
00000180: fa20 8bbd a8a7 ab3d e40e d43d fa3c 833d
00000190: eb4c a43d d209 8f3d 2354 c93c ba49 5c3d
000001a0: 3e99 603d 1419 143d cb27 31bc a737 b93d
000001b0: 08dc ae3d 3ebc a03d cfa2 063b 95c3 41bd
000001c0: daf0 793d 8a63 5fbd 1e09 49bd 4576 a5bd
000001d0: e802 f2bb c323 39bd c79a 50bd 4730 6abd
000001e0: 89bd 54bd f191 4a3d b21b b8bd 6f52 d93c
000001f0: cc01 a73d 9b9a 99bd 2d79 f33c 987c b4bc
00000200: 05a8 8dbd 1023 b5bd dadf 33bc fef0 383d
00000210: 3354 cbbd 3b65 97bd ba63 b0bd a04f babd
00000220: a73b fabc 9963 4cbd 5b18 af3c a9fd 4e3d
00000230: 71ec 7d3d f061 70bc f9ed 1dbd c815 db3c
00000240: d946 d53d 86ce f3bd e419 65bc 803b afbb
00000250: 54d1 8e3d 5195 a33d 8dd6 b1bd 0f79 a93c
00000260: 288f 77bd 504a 803d 8bbe 9a3d 735b 12bd
00000270: 09b6 553d 8d68 e4ba 6cdd cf3c 6fe8 b13d
00000280: 2faf 6c3c 588a 623d 4c15 c4bd 9db3 663d
00000290: 1cf0 38bd b308 fabd 28d3 58bd 540e 17bd
000002a0: 81b9 b83d 6bdb 773d 34f0 2ebd e0d8 683d
000002b0: 95c9 393d c8e5 14be 169b 82bc a13a 99bc
000002c0: b7bb f63c 4db3 51bd 71ce 963d 1d76 0abb
000002d0: a3a4 08be 0446 e83b fd17 c43d 8b59 243c
000002e0: 3132 8fbd fdc0 5cbc 9496 d43d 20f9 0b3d
000002f0: 2c70 d1bd 7983 93bd 9a8b 94bd 9e76 c63c
00000300: 49a0 03bd 261a af3d 88d2 c0bd e0c6 9cbb
00000310: 2369 c83d 2219 aa3d 2d87 0dbc 0aaf a0bc
00000320: 008c 883a 6958 993d 38aa b3bd 4553 83bd
00000330: e0d2 f63b 3938 b83d 7aae 97bd fd7b c43d
00000340: 5738 39bd b636 81bd 8c3b 88bd 9db2 2bbd
00000350: ac62 babc a292 2b3d a48c d13c 3d63 8dbd
00000360: 14d9 9fbc 6a7d ccbd 5045 fd3b 79bb a63d
00000370: accc a7bc cdc5 3bbd 8066 9a3a 13e9 39bd
00000380: 2007 9b3b e2e1 763d c0bc 083c 03c4 8dbd
00000390: 5a95 253d f3d4 853d 4804 adbd ad98 47bd
000003a0: 985f 83bc bd0e 993d b0bd f73b 5066 36bc
000003b0: 2da4 b7bd 0e34 0f3d 70cc 3ebd 9d76 9abd
000003c0: 2514 bcbd 6329 953d 58a6 06bc 0be4 93bd
000003d0: b54c a53d 9c5d 83bd 7c9e 85bd 58bd 8fbc
000003e0: 9867 a3bc 288e 7e3c 77b4 c73d a769 913d
000003f0: cc25 06bd 7814 adbd ecce 9f3c 00f5 08bd
-0.0037572703 -0.058319945 -0.031221144 -0.060256753 -0.0048971367 0.030143704 0.11422582 0.0049435473
-0.048388146 0.00032047246 -0.0041800807 0.06528882 -0.09601106 -0.042877056 -0.054375578 -0.046505023
-0.028167548 0.105652936 -0.042569607 0.05525615 -0.054455 -0.029704396 0.013399206 0.086568974
0.008986598 0.03503868 0.068801455 -0.025226494 -0.014492929 0.10605472 -0.02306447 0.026554016
0.073122315 -0.03934419 0.07074673 0.08431965 0.06848823 0.068097726 0.1053883 0.004273291
-0.0046454137 -0.0073815733 0.08027732 0.06306381 -0.061286647 -0.12686998 -0.052331127 -0.099195294
-0.001590083 -0.030043885 0.009305771 -0.00092900405 -0.007888877 0.08448858 -0.09079426 0.009473826
0.1035994 0.0023136737 0.017213797 0.0821209 0.018919483 0.07824686 -0.10366325 0.05413411
0.03868196 0.017904 0.042169068 -0.05106005 -0.08180267 -0.046728026 -0.06452252 0.018760096
0.085013 -0.11592293 -0.0019888424 0.008803582 0.011083634 -0.015295289 -0.034023102 0.0042144014
-0.13902907 0.06868338 -0.054935947 -0.053843338 -0.0630055 -0.017124517 0.047107868 0.05964621
-0.05269561 0.09463213 -0.06159745 -0.11205119 -0.05571281 -0.04334808 -0.09037336 -0.03742528
-0.06793399 0.08381587 0.10354403 0.06408115 0.080224834 0.06984295 0.024576252 0.05378125
0.054833643 0.03615673 -0.01081271 0.09043818 0.085380614 0.07848404 0.0020543819 -0.047305662
0.06102071 -0.054538287 -0.04908096 -0.08079199 -0.0073856004 -0.04520012 -0.050928857 -0.057174947
-0.051938567 0.049455587 -0.089896575 0.026528565 0.081546396 -0.07500192 0.029720867 -0.022032067
-0.06916813 -0.08844578 -0.010978663 0.045151703 -0.09928169 -0.07392355 -0.08612771 -0.090972185
-0.030546023 -0.04989967 0.021373918 0.050534878 0.061993066 -0.014671788 -0.038557027 0.026743785
0.10413904 -0.119046256 -0.013983224 -0.005347669 0.0697352 0.07987464 -0.086835004 0.020687608
-0.06043926 0.06264174 0.075558744 -0.035731744 0.052175555 -0.0017426178 0.025374137 0.08686911
0.014446064 0.055307716 -0.095743746 0.056323636 -0.04515086 -0.122086905 -0.05293575 -0.0368789
0.09019757 0.060511988 -0.042709544 0.056847453 0.04535826 -0.1454078 -0.015943091 -0.018704714
0.030118806 -0.051196385 0.07363594 -0.002112753 -0.13344054 0.0070884246 0.09574888 0.010031114
-0.06991995 -0.013473746 0.10380283 0.03417313 -0.10226473 -0.07202811 -0.072531894 0.024226483
-0.03213528 0.08549909 -0.09415156 -0.00478445 0.09785678 0.08305575 -0.008638185 -0.019614715
0.00104177 0.07487566 -0.08772701 -0.06412367 0.0075324625 0.089950986 -0.07406326 0.095939614
-0.045219745 -0.063092634 -0.06651983 -0.041918386 -0.022752129 0.041887887 0.025579758 -0.06903694
-0.01951269 -0.09984858 0.00772921 0.08141226 -0.020483337 -0.045842934 0.0011779815 -0.045388293
0.004731074 0.060274012 0.008345783 -0.06922152 0.040425636 0.065347575 -0.08448082 -0.048729587
-0.016036794 0.07473514 0.0075604543 -0.011132792 -0.08966861 0.034961753 -0.046581686 -0.07542155
-0.0918353 0.072832845 -0.00821837 -0.0722123 0.08071271 -0.06414339 -0.06524369 -0.01754634
-0.019946858 0.015536822 0.09751218 0.0710023 -0.03275089 -0.0845117 0.019507848 -0.033436775

net.4.bias f4 [100]
00000000: 5ba0 9dbc e324 19be bdf9 44bd 538e c13c
00000010: a080 813d ef3b cabd 4c03 ffbb 3504 c93c
00000020: 9a29 073e c0d4 27bd 33b5 23bd f51b 683d
00000030: 0f57 983d 02a3 cbbd b17a 3ebd 5b66 52bd
00000040: 8ebf a6bd 8c2f 13be b936 933d 07d3 05be
00000050: 0e6b 5fbd 2f46 0a3e cd67 f43d 2409 56bd
00000060: 14fd f83b 665a e03d 1fef 733b afd8 b73d
00000070: 1c63 9a3d f146 b1bd 0697 84bc d4b9 6e3c
00000080: a0e0 7abd 3a9a 4cbd c3d5 30bd b09e 063c
00000090: 28f3 233d a4ed ba3d 7096 bfbd 9a46 593d
000000a0: 2117 8e3d 2ffe 5ebd 5d51 28bd abfd a5bd
000000b0: f3dd efbc 6f98 87bd 51a6 053e f4ca 1b3d
000000c0: 28a1 9e3d 0c5e 0ebe f7f1 01be fd46 ecbc
000000d0: 8de2 68bc 2e0f 5f3d aaf7 4f3d e5ad f0bc
000000e0: 2cf8 f63c cea2 e9bb 8619 0a3d b0f8 f73d
000000f0: abfc 14be 8999 10be 79a8 88bd 7392 b23d
00000100: 61de 383d 3ce5 093c 2d8d 1c3d 8407 ea3d
00000110: 1a06 21bd 8e28 a2bd 7ec6 b7bd f3f6 41bc
00000120: a462 b9bd d9ac e2bd f818 a03d 379f 74bd
00000130: 6b2c 013e 90fe 9bbd 5f97 d6bd 1d66 4c3d
00000140: 1867 bcbd 86c6 47bb bc44 24b7 973c 41bc
00000150: 2c85 e1bd 833c f93b 5084 5ebd ddcf bd3d
00000160: 6253 0c3e a46c f23d 41c8 2ebc 097a afbd
00000170: da10 ecbd 0851 823d ed86 13be e1a8 01bc
00000180: a47d d03c db16 be3d 749d d4bd 4297 8abd
-0.019241503 -0.14955477 -0.04808973 0.023627436 0.063233614 -0.09874713 -0.0077823754 0.024538139
0.13199463 -0.04097438 -0.039967727 0.056667287 0.0743848 -0.09943201 -0.046503726 -0.051367145
-0.08142005 -0.14373606 0.07188172 -0.13068782 -0.054545455 0.13503335 0.11933861 -0.05225481
0.0075985286 0.10954742 0.0037221385 0.08976876 0.07538435 -0.08656109 -0.016185295 0.014570672
-0.061249375 -0.04995177 -0.04317261 0.008216545 0.040026814 0.091273576 -0.093548656 0.053045847
0.06938005 -0.054441627 -0.04109322 -0.08105024 -0.029280638 -0.06620871 0.13051726 0.038035348
0.07745582 -0.13903064 -0.12689959 -0.028842444 -0.01421417 0.054457836 0.0507733 -0.029379794
0.030147634 -0.0071300035 0.033715747 0.1210798 -0.1454951 -0.14121069 -0.066727586 0.08719339
0.045133952 0.00841647 0.038220573 0.11427215 -0.03931246 -0.079178914 -0.08973406 -0.011838662
-0.09052017 -0.11068124 0.078172624 -0.05972215 0.126146 -0.07616913 -0.104780905 0.04990207
-0.09199351 -0.003048332 -9.791165e-06 -0.011794231 -0.11011729 0.0076060905 -0.0543254 0.092681624
0.13703683 0.11837128 -0.010667861 -0.08568198 -0.11526652 0.06363112 -0.14406939 -0.007913799
0.025450535 0.09281703 -0.10381594 -0.067671314

net.6.weight f4 [100, 100]
00000000: 0ca8 1c3d 2c37 2b3d c77d 49bd fd2d 0e3c
00000010: b134 68bd 9e0c 8d3d e567 f63d 90dc 01bd
00000020: 2118 793d 7681 a53d 8a7a 543d 4af2 8a3d
00000030: 63a4 0c3d bda2 c93d 7a00 b9bc 9f8e fdbb
00000040: e70d 493d 3513 1f3d 5472 94bd a62b bd3d
00000050: 03f7 c73d 8546 d4bd d695 a33d a5ce b0bd
00000060: ff8e a03d ddd4 f3bb 3b7c 9b3d 3610 c63d
00000070: 5796 6e3d f152 d73c e4e7 053c 9bec 3f3d
00000080: 7f93 8fbd a53c 84bd b6d6 3b3d 1878 adbd
00000090: 1705 273c 3383 013e afbc 2c3d 70c2 9f3d
000000a0: ffbb 5b3d 7729 ab3d 329f 813c 507d b2bb
000000b0: 55f4 6c3d 7883 e53b 5c27 1c3d d36e a03d
000000c0: 9b9d 8a3d 9a58 27be 3b02 e23d dd6a 2c3c
000000d0: ecc0 8ebc 534e c3bd 5f20 4abd ffc8 933d
000000e0: 1340 773d 8267 8c3c 9c12 cf3d 6074 de3d
000000f0: 6082 aa3d d303 d93d a031 193d fc26 8a3d
00000100: 386a 013e 5d2b cd3d 5889 123b 8666 b0bd
00000110: 4ee2 6b3d 6ad8 6f3d 3bb1 a5bd 03aa b5bd
00000120: fe38 d73d 012d b03d 0b03 0e3d dc78 f0ba
00000130: caf8 c9bb 0c66 c3ba 7a75 c9bd 8b0f 23bd
00000140: 0cb0 26bd 3bed 903d 35c9 d6bc acea 5e3d
00000150: 3508 66bd ab33 3cbd 1b02 153c ce83 dfbc
00000160: 8511 253d 5437 5abd cb72 763c f2ac 3cbd
00000170: 2562 ad3d d693 9a3d 2b58 06be 5c75 ccbb
00000180: 6591 913d 5441 84bd 8553 19bd 348c 5b3d
00000190: 8146 b8bd 6ab3 24bd 90c1 613c 5dd3 933d
000001a0: 5839 b9bc 6c6e bf3c 1565 cebd 5752 8bbd
000001b0: 2e2d 93bd a180 94bd f270 323d cd9a afbd
000001c0: 57ea 943d b315 243d b4cf cc3c f4e7 38bb
000001d0: 10d1 91bd 3c2d 9b3d 8447 fbbc d94c d73a
000001e0: 5f34 95bd e53b 90bd 1b09 50bd ec97 14bd
000001f0: 2494 9ebd c7dc 03bd 1a90 913d 97e9 b13d
00000200: d839 0ebd 4d50 b5bd 88cd c6bc bae7 c9bd
00000210: d372 0fbd 9291 843d 2428 ec3c 2e0b 80bd
00000220: 4b65 683d d97b 2d3b efc7 bc3b 69c2 2bbb
00000230: 6b3c 00bd c8f0 4cbd 7fd5 c5bd 16e7 83bd
00000240: 333d 4abd 267a e0bc 4e9c b93d 2082 1e3d
00000250: e9b3 ac3d d8bf 46bc 3c77 b23c 8dc4 79bd
00000260: 506e 24bc e3c0 c9bd 6826 673c ec02 823d
00000270: dc22 d4bd 1313 59bd 6e6d 8e3d e0a3 b2ba
00000280: 6cbe c03c bda0 ad3c d834 4f3d 8159 143d
00000290: 791a bd3d 8e64 d9bb 2ae1 1b3c c60f bc3d
000002a0: 0522 ae3d 3303 8dbd 3b26 173d b73a 803d
000002b0: 4d22 dabd 6cb8 463d e853 7f3d 00f4 1839
000002c0: 34bf 723b ce74 8ebc b15e 4e3c a6d2 81bd
000002d0: d8d9 533d 6c11 1ebd e3bb d5bc f291 82bd
000002e0: 1417 a23d f4ff e6bc 70d2 6c3c 4dd5 a73d
000002f0: fd3c 30bd 8145 35bd 4424 673d 04e0 97bc
00000300: b586 acbd cc18 8bbd 9658 bb3d 790b 3abd
00000310: 85f7 8b3d 472f 04bd d269 bd3d f759 aebc
00000320: 2dcb 823d 6fd0 aebd eef0 3c3d 749c 83bd
00000330: aa1f 5cbd 72e9 cb3b 2095 06bd ba7d 853d
00000340: 1bfa 75bd 5c56 b0bc 3041 7bbd 8149 b1bc
00000350: 185b 76bd 0b0b cdbd b5eb b6bd d279 24bd
00000360: 6361 b53b c8dd c0bd 03ca dbbd fb69 95bd
00000370: fe6c 633d 5739 84bd 4441 923c 27a3 283d
00000380: 563a b93c 9280 ac3d f649 3ebd 344e 43bd
00000390: e085 d2bd 8a0c 8fbd 951a 963d 8011 a5bd
000003a0: c031 6dbd 27a1 ffbd 698c 933c 797f 5d3d
000003b0: 160f 90bd a575 03be c2be 66bd 5fcd 343d
000003c0: a713 113d 5bdd 973d 6c25 ddbc 109e 1abd
000003d0: f39e c63c aefe 27bd 6e70 003c ad1b f8bb
000003e0: 7b2d b2bd 02f7 2f3e 8e6e 253d b440 7ebd
000003f0: a038 b9bb a48a afbd 64dc 62bd a285 813d
0.0382462 0.041800663 -0.049192216 0.008677957 -0.056690875 0.06887172 0.12031535 -0.031704485
0.060814027 0.08081333 0.051874675 0.06784494 0.03433646 0.09845493 -0.022583235 -0.007737949
0.049085524 0.038836677 -0.07248369 0.09236841 0.097639106 -0.10365013 0.07987563 -0.08633164
0.07839774 -0.0074411468 0.075920545 0.09671061 0.058248844 0.026284667 0.008172963 0.046856504
-0.070105545 -0.064568795 0.04585906 -0.08470172 0.010194085 0.12647705 0.04217213 0.07800758
0.053646084 0.08357518 0.01582298 -0.0054470673 0.0578502 0.0070041977 0.038123474 0.07833638
0.06768342 -0.16342393 0.11035582 0.010523525 -0.017425977 -0.095364235 -0.049347278 0.07216071
0.06036384 0.0171392 0.10110971 0.108620405 0.08325648 0.105964325 0.03740084 0.06745717
0.12638175 0.100180365 0.0022359695 -0.08613305 0.057588868 0.058555998 -0.08090445 -0.08870318
0.10508917 0.08602334 0.03467087 -0.0018346566 -0.006163691 -0.0014907732 -0.0983686 -0.039809745
-0.040695235 0.07076498 -0.02621899 0.05442302 -0.05616017 -0.045947712 0.00909474 -0.027284529
0.04029991 -0.05327542 0.015042017 -0.04606337 0.08465985 0.07547729 -0.13119571 -0.0062395763
0.0710781 -0.06457773 -0.037433166 0.053600505 -0.089978226 -0.040210165 0.013779059 0.07218049
-0.022610351 0.023368083 -0.100778736 -0.068028145 -0.07186352 -0.072510965 0.043564744 -0.08574448
0.07271259 0.040059756 0.025001384 -0.0028214427 -0.07119954 0.07576987 -0.03067375 0.0016426101
-0.072853796 -0.07042674 -0.050789934 -0.036277696 -0.07743099 -0.03219297 0.07107563 0.08687132
-0.034723133 -0.08853207 -0.024267927 -0.098586515 -0.035021614 0.06473078 0.028827734 -0.06252132
0.056737226 0.0026471524 0.0057611386 -0.0026208407 -0.03130762 -0.050034314 -0.09659862 -0.064405605
-0.04937477 -0.027401995 0.09063016 0.038698316 0.08432753 -0.0121307 0.021785371 -0.06097846
-0.010036066 -0.09851243 0.014108278 0.063482136 -0.103582114 -0.052996706 0.06954466 -0.0013629161
0.0235283 0.02119481 0.050587505 0.03621817 0.09233565 -0.0066343015 0.0095141325 0.09182696
0.085025825 -0.06885376 0.036901694 0.06261199 -0.106510736 0.048515722 0.06233588 0.00014586747
0.0037040235 -0.017389681 0.012595818 -0.06339006 0.051721424 -0.038590834 -0.026090568 -0.06375493
0.07914558 -0.02819822 0.014454469 0.08194981 -0.043026913 -0.044255737 0.05643107 -0.018539436
-0.08424131 -0.06791839 0.09147756 -0.045421097 0.0683432 -0.03227165 0.09248699 -0.021283133
0.06386409 -0.08535849 0.046128206 -0.064263254 -0.053741135 0.006222897 -0.03285706 0.06518121
-0.060052972 -0.021525554 -0.061341465 -0.021641495 -0.060145468 -0.10011872 -0.08931676 -0.04015524
0.005535291 -0.094173014 -0.1073189 -0.07295605 0.055523865 -0.06456249 0.017853387 0.04117122
0.022610825 0.0842296 -0.046457253 -0.047682002 -0.10279441 -0.069848135 0.07329289 -0.080599785
-0.057908773 -0.12481909 0.018011289 0.054076646 -0.070341274 -0.12837847 -0.056334265 0.04414117
0.035419133 0.07415267 -0.026995383 -0.037748396 0.024245715 -0.041014366 0.007839305 -0.0075716586
-0.08700081 0.1718407 0.040388636 -0.062073424 -0.005652502 -0.085713655 -0.055385962 0.063243166

net.6.bias f4 [100]
00000000: 444a 323c d3e0 07bd 1ae5 993d 2da2 6d3d
00000010: 7720 953d 9925 e8bd 0240 9bbd 129f a6bd
00000020: f662 c83c 4308 0dbb df31 853d 0dcd 023e
00000030: 3d17 cf3d 5683 7c3c b583 5ebd e584 d93d
00000040: 71c2 85bd d3cd c53d 53ea 113e d9c9 ec3c
00000050: d158 0b3e ea6c 033e 17aa 3e3c dad6 1cbe
00000060: 3653 f13d f9fc df3c 4704 da3d c78c 6dbd
00000070: 8d7f fcbc fc9a 8e3d 7481 593d b07b 69bc
00000080: 13f9 613d 60b0 663d 6151 22bc e4c8 c6bd
00000090: 2a6c ac3d 5f3d 473d 2616 b4bd bb24 53bd
000000a0: 5d14 f13c 20a6 f23d a5f6 0bbe d14d 9bbd
000000b0: 39ba 90bd 70ca a9bd 33a1 81bd 8a65 4f3d
000000c0: e8c7 a03d 828b 45bd 9ebe 58bc c4f8 bdbc
000000d0: 2fc6 bcbd e21f c5bc 9f46 b4bd fa3c e63d
000000e0: 95c4 a7bd 675d dc3d 638e 22bc b25c 123d
000000f0: 1628 893c ae63 283d 4222 d1bd 378b 093b
00000100: b8eb adbd 1808 7ebd 0dd2 abbd 3185 2d3c
00000110: c374 c9bd 9415 5c3d c1f3 0c3d 4caf dd3d
00000120: 80c7 01be c78d 0d3d eadc c73c a0ce e8bb
00000130: 75b1 bebd ebd8 b23b 0ab8 11bd 7a0b a4bd
00000140: c666 d5bd dc18 133d 9289 f03d 631a 3ebd
00000150: 45fb 1fbd 4138 ce3d 908a 053d 7f6d 203c
00000160: deb6 49bd f59c 053e f166 c03d 87bd 0d3e
00000170: 6e2e 263d 6775 67bd ae64 cb3d eba3 81bc
00000180: d0e1 68bd de01 13bd e528 e7bd 3469 9e3d
0.010881964 -0.033173393 0.07514401 0.05801599 0.07281583 -0.11335296 -0.07580568 -0.08135809
0.02446125 -0.0021519817 0.06503653 0.12773533 0.10111854 0.015412172 -0.054324824 0.10621051
-0.065312274 0.096583985 0.14249544 0.028904842 0.136081 0.12834516 0.011637232 -0.15316334
0.11783449 0.027342306 0.10645347 -0.057995584 -0.03082254 0.06963155 0.05310197 -0.014250681
0.055169176 0.056320548 -0.009907098 -0.097062856 0.08419068 0.048642512 -0.08793287 -0.0515487
0.029428655 0.11848092 -0.13668306 -0.07583202 -0.07066769 -0.08290565 -0.063295744 0.050633945
0.07850629 -0.04822875 -0.01322904 -0.02318991 -0.09217488 -0.024063054 -0.088025324 0.11242099
-0.08191792 0.107600026 -0.009921643 0.035732932 0.016742747 0.041110687 -0.10211612 0.002098752
-0.084922254 -0.062019438 -0.083896734 0.010590837 -0.09836724 0.053731516 0.03441215 0.10824451
-0.1267376 0.034559038 0.024397332 -0.0071047097 -0.09311191 0.0054579875 -0.035575904 -0.080100015
-0.10419993 0.03591238 0.117449895 -0.046411883 -0.03905799 0.10069323 0.032602847 0.009791731
-0.04924666 0.13048156 0.093946345 0.1384183 0.040571623 -0.056508448 0.099313125 -0.015825232
-0.056855977 -0.035890453 -0.11287097 0.0773491

net.8.weight f4 [100, 100]
00000000: 56db 8a3d 0bee 833d 0755 bd3d dae8 d6bd
00000010: c451 7a3d 5895 a33d 89f9 a53d 5d78 b4bd
00000020: 82b1 c03d 8b9a df3d 73d7 813d ee7f a0bd
00000030: f5da abbd 8c64 39bd ccb3 803d 47cd 443d
00000040: d786 eabc b5fa 1ebd a588 b53c a26c a8bd
00000050: 14f0 483c 3f32 123d 2cb4 023c b748 ec3d
00000060: 6b7b 2fbd 2414 c3bd fef4 1abc 9e95 343d
00000070: 92c0 58bd 276e ac3d 3a65 3bbd 01fc 6e3d
00000080: 1f94 a5bc 93b8 aabc 705e b53d bd69 753d
00000090: 1141 3ebd 4448 b3bd 8c28 80bd 28eb 85bd
000000a0: 69ae 0d3d 4343 b739 4468 6bbd ae60 4e3a
000000b0: 393f a53d 48f0 4b3d 1a29 08bd 177a eabd
000000c0: edd9 82bd 835a 52bd f882 923d 83f3 a4bc
000000d0: c953 a43c c49f 57bd 5199 843d cc66 11bd
000000e0: c8d7 2c3d dac1 e13c a28b ae3d a6da 3e3a
000000f0: c6b6 13bd 71e1 a33d 5ac7 103d 9c0b 063d
00000100: eeab 9b3d 47e8 98bc af90 c9bd 454b 1fbd
00000110: 3aab 9abd 5b25 88bd 0874 64bd 9353 c03d
00000120: ce59 04bd 4d22 cd3d 470d c23d 84dd 863c
00000130: 3560 51bd 83a7 d53d fdd8 083b e834 4abd
00000140: 4551 803d 382c 9c3d 5c97 69bc da29 e0bc
00000150: c3ea 633d 2e5e 573d 5702 fd3d f745 193d
00000160: ba2b 1f3a ee57 04bd 4de8 a5bc f31c f2bd
00000170: 1d0b d9bd d721 8b3c efa3 4a3d c8df 5f3d
00000180: f810 8c3d 5e40 2fbd 1904 a83d 3d33 adbd
00000190: fa30 5fbd 6488 18bd 42c7 283c d2dd 3e3d
000001a0: de81 d9bb df52 c4bd 69aa d23b 5e7b 98bd
000001b0: d897 b5bd 7454 c2bd 07eb d6bd 3d80 1dbc
000001c0: 5a94 783c 7877 f2bc 9bc5 b53d d4bf 3a3d
000001d0: 423c e43c 1788 033d 1bbe c8bd 3448 c1bc
000001e0: 7e6f 553d abdf 9bbd 8530 a3bd 034b 63bd
000001f0: 61bd 20bd b451 ba3d b1af b23d a845 36bd
00000200: 2106 4ebd 9ce1 5e3d 9931 bcbc 35c4 19bb
00000210: 4a8d aebd c8fc 0f3d 810b b5bd b0a1 bfbd
00000220: 9974 0bbe 821e cc3d 847c cabb 2185 09bd
00000230: 6977 a33b df7a d0bc 04cf c33d a088 b8bd
00000240: 6e5e 473d 7266 873d bc26 293e e38f 283d
00000250: ff11 d03d 4a4c 6abd 3542 933d b967 95bd
00000260: 45ba 183d 134d 823d 4074 bdbc 6b8c c9bc
00000270: ff2e 713d 5e2a 52bd f14d 89bc 81f8 d93d
00000280: 86f4 fabc e504 353d 4450 b03c 71be 6dbd
00000290: aca6 cd3d df78 b13d 2f90 8e3d a80a af3c
000002a0: 5786 9ebc f370 d0bd 15df 913d e25f 8f3d
000002b0: fdd9 e4bb a04b cd3d a1fc 803d 75a8 f6bc
000002c0: 1751 ae3d cd3e 12bd ac7e a23d 7980 b23c
000002d0: 859e 85bc e1a2 c8bb 4ad2 ea38 a831 9fbd
000002e0: fa58 b7bd 5758 d53d a554 a73d cd1f d3bd
000002f0: 7b41 4b3d 0941 a63d caed c13d 7041 ac3d
00000300: 53b4 aabb 1901 0abd c4e6 5dbc 5158 a63c
00000310: 1dce 533d b00a 703d 9bda 63bc 7bc3 5e3d
00000320: b84f efbc 1544 b33d 21e1 9ebc 374c d7bc
00000330: 2524 c33c 4dfa 37bd 80d9 d7bc c072 7dbc
00000340: a0e0 073d 6bb8 babd 130d b6bd b8d1 303d
00000350: d45f 5a3c aa67 26bd e4c3 f53b 8ba3 5f3b
00000360: 29d5 9fbc 9f7d 1abe 3d86 aabc 0b3d b3bc
00000370: b26e 9d3d bc36 943c 4bc7 f63c 7f03 eabd
00000380: 496a f7bb 93d2 47bd ae82 a6bd 3a18 8ebc
00000390: 808a f8bb 6051 a4bc d12b a9bd cf10 c7bc
000003a0: 339f 2a3d 8eb6 70bc c4a5 9bbd f32b 9ebd
000003b0: 0f3e 0dbd fc76 7bbc 2d80 6e3d 0954 22bd
000003c0: 7cb5 8ebd f5e5 a9bc a667 6dbc fc38 643a
000003d0: 2d4b 0dbd 7e60 debc 8269 01be e9ba 713d
000003e0: 09e2 e5bc f195 b4bd 52ec 3b3c 946c 08bd
000003f0: 5887 933d a99f d4bb 532f 94bd 91c4 a93d
0.06780116 0.064418875 0.09244733 -0.10493632 0.061113134 0.079874694 0.08104236 -0.0881202
0.09408857 0.109181486 0.06339922 -0.07836901 -0.08391372 -0.045261905 0.062842935 0.04804733
-0.02862875 -0.03881331 0.022159884 -0.08223845 0.01226427 0.03569245 0.007977527 0.11537307
-0.04284231 -0.09525326 -0.009457825 0.044088 -0.052918024 0.084194474 -0.045750834 0.0583458
-0.020212231 -0.020839965 0.08855903 0.059915293 -0.04644877 -0.08754018 -0.06257734 -0.06538993
0.03459016 0.00034954594 -0.057472482 0.0007872683 0.080686994 0.049789697 -0.033242323 -0.11449068
-0.06389222 -0.05135585 0.071538866 -0.020135647 0.020059483 -0.0526426 0.06474555 -0.035498425
0.042197973 0.027558256 0.085227266 0.0007280506 -0.03606298 0.08001984 0.035346366 0.032725915
0.07601152 -0.018665446 -0.09842049 -0.038890142 -0.0755219 -0.0664775 -0.05577472 0.093909405
-0.032312207 0.10016308 0.09475189 0.016463049 -0.05111714 0.10432341 0.0020881288 -0.04936686
0.06265501 0.076256216 -0.014257278 -0.027363706 0.055643808 0.05258005 0.12353962 0.03742024
0.00060718844 -0.03231042 -0.020252371 -0.11821928 -0.10597823 0.01698391 0.049472746 0.054656774
0.06839174 -0.042785995 0.082039066 -0.084570386 -0.054490067 -0.037239447 0.010301413 0.046598263
-0.006637796 -0.09586119 0.006429006 -0.074454054 -0.088668525 -0.094887644 -0.10494047 -0.009613094
0.0151720885 -0.029597983 0.08875581 0.045593098 0.027860764 0.032112207 -0.09801885 -0.023594
0.05210828 -0.07611021 -0.07968239 -0.05549146 -0.039243106 0.09097615 0.08724917 -0.044500023
-0.050298814 0.054414377 -0.022972869 -0.0023462896 -0.085230425 0.03515318 -0.08840085 -0.09357011
-0.13618697 0.099667564 -0.006179394 -0.033574227 0.0049886 -0.025449215 0.095609695 -0.09010434
0.04867404 0.06611337 0.16518682 0.041152846 0.101596825 -0.05720166 0.07190362 -0.07295174
0.037287015 0.06362357 -0.023126721 -0.02460309 0.05888271 -0.051309936 -0.016760798 0.106431015
-0.030634176 0.04419412 0.021522649 -0.058042947 0.10041556 0.086656325 0.069610946 0.021367386
-0.019351168 -0.10177793 0.07122628 0.0700071 -0.006983994 0.1002419 0.06298185 -0.030109623
0.085115604 -0.035704423 0.07934317 0.021789776 -0.01631094 -0.0061229323 0.00011197159 -0.07773143
-0.08952518 0.1041724 0.081704415 -0.103088 0.049622994 0.08117873 0.09469183 0.08410919
-0.0052094846 -0.033692453 -0.013543788 0.020305784 0.051710237 0.058603942 -0.0139071 0.054385643
-0.029212818 0.0875322 -0.01939446 -0.02628146 0.023820946 -0.04491644 -0.02634883 -0.015469253
0.033173203 -0.09117206 -0.088892125 0.043168753 0.013328511 -0.040626206 0.0075001586 0.0034124579
-0.019510822 -0.15086983 -0.020815963 -0.021879693 0.07687129 0.018092506 0.030124327 -0.11426448
-0.007550512 -0.048784804 -0.08130394 -0.017345537 -0.00758487 -0.020058334 -0.082603104 -0.024300007
0.04165573 -0.014691962 -0.07599977 -0.077232264 -0.03448301 -0.015348192 0.058227707 -0.039630923
-0.06968209 -0.020739535 -0.014490044 0.0008706001 -0.03449552 -0.02714562 -0.12637904 0.059016142
-0.028061884 -0.088176616 0.011469917 -0.033306673 0.07203549 -0.0064887595 -0.07235589 0.08289445

net.8.bias f4 [100]
00000000: 1bfb 433c 8c68 2ebc 2a6d c93d 9520 69bd
00000010: ac79 6a3d 575c eebd 67ba 61bd 21d0 03be
00000020: a3e7 bcba b938 ba3d dfdd 8e3d 0e28 cc3d
00000030: dc3f f8bb 578f 833d 29e6 e4bd 4286 febd
00000040: 54af 343c fb1a 50bd 8525 c6bd e5c1 f9bd
00000050: 0ffe fb3c 5747 013d d307 7c3d 8e10 2b3d
00000060: 7be9 36bd b8b6 263d 8369 98bd 188b 80bd
00000070: e241 6cbd 8728 8e3d e5d1 af3d 33af bfbd
00000080: de94 a6bd 4cb5 053e 829a 13bd 1473 fb3d
00000090: 5f26 bcbd 9b9b b63d bff3 b8bd 80f3 a7bd
000000a0: ec1d 3f3d 984e d3bc 7b20 f73b c8b8 a1bd
000000b0: e709 1d3c dc89 f43c b0c5 ccbd c7d2 01bd
000000c0: cce0 953d a68e 103d 4cc4 ddbd c676 8e3d
000000d0: e8ce 68bc c5d5 bb3d 292d efbd a0f0 c2bd
000000e0: a144 91bd e095 953a d02a cb3b f3a2 ceb9
000000f0: 760a 82bd 6915 a53b 4f9b a53d 3f58 edbd
00000100: 268b 5ebd d120 533d b43c 8c3d 5fda 933d
00000110: 5255 da3d b9a3 d03d 3d70 0f3d 2cfa 7ebb
00000120: 9308 8b3d 6f0f d6bd 1a7a f0bc 47a4 5abd
00000130: 25de c1bd 4c5a 953d 0587 42bd 3664 313d
00000140: d1e0 dd3c 2e9c 8c3d bf57 a8bc f4f3 c3bb
00000150: f6f4 d4bd 1748 6bbd b013 3c3d de1d b9bb
00000160: c068 3b3d c699 74bd b285 a73c 59b6 573b
00000170: d0b1 a4bb 7ea1 173d 5f0f c03d d036 27bd
00000180: 8352 a33d 9b81 94bd dbbf c4bd fdbd e3bd
0.011961724 -0.010645043 0.098352745 -0.05691584 0.05724494 -0.11638706 -0.055109408 -0.12872364
-0.0014412295 0.0909285 0.06975912 0.09968577 -0.007575972 0.06423824 -0.11176712 -0.124279514
0.01102813 -0.05080698 -0.09675125 -0.121951856 0.030760793 0.031562176 0.0615309 0.041763835
-0.044656258 0.040701598 -0.07442 -0.0627653 -0.05768002 0.06941324 0.08584956 -0.093595885
-0.08133863 0.1305744 -0.036036022 0.12277809 -0.09187006 0.08916398 -0.09030866 -0.08200741
0.046659395 -0.025794312 0.007541714 -0.07896572 0.00958488 0.029850893 -0.099986434 -0.031695154
0.07318267 0.03529229 -0.10828456 0.06956248 -0.014209487 0.09171633 -0.116785355 -0.09518552
-0.07093168 0.0011412464 0.006200172 -0.00039412788 -0.063496515 0.0050379527 0.080862634 -0.11589097
-0.05433192 0.051544968 0.06847516 0.07219385 0.10660805 0.101874776 0.03501915 -0.0038906438
0.06788745 -0.104521625 -0.029355098 -0.053379323 -0.09466199 0.072926134 -0.047492046 0.04330846
0.02708474 0.068657264 -0.020549653 -0.005980009 -0.10398285 -0.057441797 0.045917213 -0.0056493124
0.045754194 -0.059716962 0.020449493 0.0032915084 -0.0050260797 0.037019245 0.09377932 -0.040823758
0.07974722 -0.07251283 -0.09606906 -0.11120222

net.10.weight f4 [100, 100]
00000000: 184e fc3c 1c13 d93c d5ed 913c 8e5f 67bc
00000010: ac8a 3e3d 300f 823b 60f5 9a3c 5a19 0eba
00000020: bcdd c4bd 19c3 a3bb 4459 69bc d72f 423a
00000030: 8a69 bbbd e03f aabd b340 a83d f0d4 273d
00000040: 65f2 0cbc 0801 b43c 67a6 30bd 5a51 7cbd
00000050: 9ab4 35bd 780f 23bb 5d72 d1bd 3fd3 5abc
00000060: 90ad 69bd 08df aabb 90e0 3cbd c109 9e3d
00000070: 5541 583d 12d8 733d 0515 9e3d ae69 733d
00000080: ad05 76bd 2b58 58bd 8268 623d dbde 7ebd
00000090: a8d9 54bc 9432 873d 0abf 563d cc76 273d
000000a0: 00be c7ba 90b8 1d3d f606 3bbd fb07 c1bd
000000b0: 8e1c 64bd 124e a83d 2465 d43c 4a79 043d
000000c0: b53e f93c 6642 023d 2262 2b3d 4b14 92bc
000000d0: f511 6c3d 9937 35bd a0a7 95bd ccf1 c2bc
000000e0: aea8 aabd b0f7 63bd 74d9 973c b35c acbd
000000f0: 6aba 2fbd 1108 acbd 5506 96bd e339 96bd
00000100: 8085 b73d 7545 ccbd 6b62 843d 7833 0b3d
00000110: 204c 733c 43c6 5dbd 8344 95bd a618 883d
00000120: 0f68 f0bc 0440 4d3b a4ec 103d 7081 1ebc
00000130: 8d7a 793d 68c9 b43d 776d 1cbd 589a 433c
00000140: 6d3e 2abd 727f a0bc 72dc 88bd 21d8 993d
00000150: 55d3 f73c 8311 543d 747c d7bd ad00 723c
00000160: 63f1 0d3d 1517 733d 5ab9 953d d12c 063d
00000170: 288e 0b3c c91c 573d 8455 ab3d ec78 923c
00000180: 3f11 fb3c 404b 093b b95d 8d3d 6a5b 5e3d
00000190: b490 2dbd 86df b5bd 94a8 9ebd af99 9dbd
000001a0: 48a2 e9bb 6850 01bc 64ef f93c 8b6b bbbd
000001b0: 4ee6 463d e35d 3bbd 6328 a63d 492b 9b3d
000001c0: 74e6 a8bd b396 4cbd dc54 c0bd 96ef ae3c
000001d0: fbec 873d 78fc 99bd 00ed dc39 514c c83c
000001e0: f6bd 91bd 60f7 8dbd 6522 a7bd 0d7e 49bd
000001f0: e0a5 99bb 3632 63bd 43dc 6fbd 6714 e9ba
00000200: acf7 993c 06df a43d 15aa 533c f2d3 b9bd
00000210: f463 eb3c b0c8 043c d218 c4bd 0e4b af3d
00000220: 8d55 803d d5df 5d3d 49ef a13d 7ec1 04bc
00000230: 8936 9c3d 8d41 49bd c5cd 5ebc 5681 6fbd
00000240: 3622 18bd 4d08 703d 00d0 a639 9adc b73d
00000250: 0017 13bc eaa4 bd3d 803a da3a 7e4b abbd
00000260: 16ca 90bd 5b8e 0dbd ad95 8cbd 3985 9d3d
00000270: 0fc2 9b3c 19c0 3cbd 2249 85bd 1987 723c
00000280: dbab ac3d e632 d3bd 7050 87bd 31d4 833d
00000290: 6085 90bd 9776 0b3d 7555 c7bc 0780 46bd
000002a0: eab5 8c3d b3f4 bfbd 8e57 dabc 2fd2 583d
000002b0: 16b6 113d 0f89 05bd c7ef df3b d089 9cbb
000002c0: 36d4 9e3d a00e a83d d51b 953d 04af a7bd
000002d0: 6b14 fa3b 1fba 30bc a0d8 ddbd 96b2 87ba
000002e0: 6a75 39bd 80b0 08bc ab2f 68bd e7cc 0bbd
000002f0: 60b5 213d 047a b73c 6851 293d 4311 ccbd
00000300: 4b50 8c3d 0e85 503d b50f d4bc e767 b2bd
00000310: 27d6 e5bb 1bad 90bd 9bcc a13d eca1 1dbd
00000320: bc5e 843d d67a a13c de8b 993d 6673 a23d
00000330: 4767 ff3c a0e5 38bd b0c6 91bd 4eec 3f3b
00000340: 9d00 aa3c 910e a8bc d3d1 91bd 1847 0ebe
00000350: 283f 96bc a403 883d 9b77 dfbd 7785 a1bd
00000360: 6b49 94bd 7422 76bd 8048 df3a b7d2 9f3d
00000370: f55b 6f3d 9e02 c93d 8e55 73bc 1fce 8f3c
00000380: 7da5 4ebd dcf8 45bd 5519 acbd a8de 4c3d
00000390: b494 b03d c469 ac3d 2c3c 47bd 0958 cbbd
000003a0: 5826 163c 2a8d cd3b d459 e53c 41c2 933d
000003b0: 92e9 1abe a74b 8d3d 029d 4d3d 68f8 b33c
000003c0: 87e0 8abd 2a23 94bd 30d8 acbc 6b0e c7bd
000003d0: aabd 413d 2e4f aabd 9851 2cbc 176a 2a3d
000003e0: 0d09 aabc ab50 973c 1e20 b43c 8482 c13d
000003f0: 8434 883d 1c86 a93d f98c 8b3d d4cb 02be
0.030798957 0.02649837 0.017813602 -0.014121903 0.046518967 0.0039690956 0.018915832 -0.0005420648
-0.09612605 -0.0049976227 -0.014242474 0.00074076414 -0.09150989 -0.083129644 0.082154654 0.040974557
-0.008602713 0.021973148 -0.043127444 -0.06160102 -0.04436169 -0.0024881046 -0.10226891 -0.013356029
-0.057050288 -0.0052145757 -0.046112597 0.07716704 0.05279668 0.059532233 0.07718853 0.059426956
-0.060064007 -0.05281846 0.055275448 -0.06222425 -0.012991346 0.06601444 0.052428283 0.040884778
-0.001523912 0.03850609 -0.045660935 -0.0942535 -0.055691294 0.08218016 0.025927134 0.032342233
0.030425409 0.031801604 0.041841634 -0.017831942 0.057634313 -0.044242475 -0.073073626 -0.023796938
-0.08332954 -0.055656135 0.018536307 -0.084161185 -0.042902388 -0.08399976 -0.073254265 -0.0733526
0.0896101 -0.099741854 0.06464084 0.03398463 0.014849693 -0.054144155 -0.07288458 0.06645326
-0.029346494 0.0031318674 0.035381928 -0.009674415 0.06090789 0.08827478 -0.03819033 0.011938654
-0.04156344 -0.01959202 -0.066826716 0.075119264 0.030252138 0.051774513 -0.105217844 0.014770669
0.034654032 0.059348185 0.07310744 0.032757584 0.008517779 0.052517686 0.0836592 0.017879926
0.030647872 0.0020949394 0.06902642 0.054286398 -0.042374328 -0.08880524 -0.077469975 -0.076953284
-0.007129941 -0.0078927055 0.030509658 -0.091513716 0.04855948 -0.045743834 0.08113172 0.07576615
-0.082470804 -0.049948405 -0.09391186 0.021354478 0.06636997 -0.07518858 0.0004213825 0.024450453
-0.0711631 -0.06931949 -0.08160857 -0.049192477 -0.0046889633 -0.055467807 -0.058559667 -0.001778257
0.018794857 0.08050351 0.012918969 -0.090736285 0.028734185 0.008104488 -0.095750466 0.085592374
0.062663175 0.05416854 0.07906968 -0.008102773 0.07627589 -0.04913478 -0.013598864 -0.058472954
-0.037142 0.058601666 0.0003181696 0.08977623 -0.008977652 0.092599705 0.0016649514 -0.08364008
-0.07069795 -0.03455959 -0.06864486 0.07691426 0.019013433 -0.046081636 -0.065080896 0.014802718
0.08431216 -0.103124425 -0.06607139 0.06436957 -0.07056689 0.034048643 -0.024332741 -0.04846194
0.06870635 -0.093728445 -0.026653077 0.05293482 0.03557404 -0.032601412 0.0068340036 -0.0047771707
0.0775532 0.082059145 0.07280699 -0.081876785 0.0076318285 -0.010786562 -0.108323336 -0.0010352905
-0.04527799 -0.008342862 -0.056686085 -0.034130957 0.039479613 0.022397049 0.0413374 -0.0996423
0.06851252 0.05090814 -0.025886396 -0.08711224 -0.0070140543 -0.07064267 0.079003535 -0.0384845
0.06463382 0.019711893 0.07497381 0.07932167 0.031177176 -0.045140862 -0.07117975 0.0029285136
0.020752246 -0.020514758 -0.07120099 -0.13894308 -0.018340662 0.066413194 -0.10911485 -0.078867845
-0.07240566 -0.06009145 0.0017035156 0.078038625 0.058437306 0.09814952 -0.014851941 0.01755434
-0.05045079 -0.048333034 -0.08403269 0.05001703 0.08622113 0.08418611 -0.04864137 -0.09928901
0.009164415 0.0062729316 0.027996935 0.07214785 -0.15128163 0.06899195 0.050198562 0.021969035
-0.067811064 -0.072332695 -0.02109918 -0.09719547 0.04730002 -0.083158836 -0.0105175 0.04160508
-0.020756269 0.018471083 0.02198797 0.09448722 0.066506416 0.082775325 0.06813998 -0.12773067
