models/heatalpha/relu/heatalpha_16.pth (torch, 977047 bytes, 51 tensors)

net.0.weight f4 [100, 3]
0.044629395 0.3469125 0.4470432 0.4684896 0.4335505 0.48550406 -0.25211912 3.6645033e-05
0.55657274 -0.49637598 -0.35725594 0.62786806 0.016657371 -0.19067904 -0.4118536 -0.22587854
0.3602052 0.41906983 -0.19122207 0.094495855 -0.12946844 -0.48646975 0.2443494 -0.44407085
0.10179636 -0.00083060394 -0.25111747 -0.042978093 0.08301128 0.078472495 0.39631298 -0.076709606
-0.5277531 0.37857902 0.27165744 -0.08637678 0.0019467957 0.33039615 0.28614822 0.32529095
0.515647 0.32555786 0.14874823 0.3755335 0.38385293 0.29273862 0.030180378 0.043092653
-0.2662408 0.016428892 0.3879851 0.32138523 0.38321733 -0.5267093 -0.08344834 0.16752273
0.04338784 0.41761646 0.09219828 -0.18891846 -0.10387845 -0.4645263 -0.06972919 0.30099764
-0.061040398 -0.31714073 -0.17865615 -0.005694288 0.53370535 -0.3800201 -0.08041539 0.37130222
-0.42349958 -0.037317634 -0.2289975 0.48744318 -0.11014822 -0.5163769 0.27882618 0.05424721
0.1451252 -0.09037181 0.29342252 0.17599633 -0.055011194 -0.0147432685 0.24731807 0.1256064
-0.0136938635 -0.39097005 0.54372036 0.21395731 0.119126886 -0.43859875 -0.1711353 0.06993436
0.40903288 0.3294906 0.04794041 -0.0036983883 0.1509927 -0.22312316 -0.1117078 0.00067037443
0.2800066 -0.4629334 -0.30342758 -0.521186 0.21100117 0.011664464 -0.44195035 0.5444394
-0.09501667 -0.1898341 0.20495415 -0.0021910446 -0.068724334 0.2597536 -0.11172271 -0.10891327
-0.27925906 -0.2752737 0.20858836 0.0029721651 0.22212256 0.3920236 0.32208678 -0.014041124
-0.4338792 0.11625823 0.2266111 0.20454788 0.044611532 0.07032532 -0.13765122 0.30201763
-0.030608447 -0.4709508 0.16764621 0.027833702 -0.3667973 0.11350435 0.11102761 0.44666767
0.418704 -0.15016949 0.14139155 -0.3061371 0.08098823 -0.14100742 0.08359115 -0.09536816
0.50205827 0.18956761 0.0060536675 -0.15143527 0.45792526 0.4259186 -0.47590736 -0.33111128
0.14543648 0.15296604 0.12290337 0.10622991 0.20531464 -0.40358993 -0.05468063 0.16977707
0.122950956 -0.06632325 -0.014779836 -0.10930605 -0.04418005 0.2967279 -0.031653453 0.21719067
-0.033009756 -0.30450726 0.102379225 0.50460905 0.35081044 -0.068285175 -0.06332643 0.1915242
0.00071797066 -0.38689023 0.4066744 0.0013934355 -0.43379587 -0.26944956 -0.3492571 0.045096155
0.01451156 -0.0070423237 0.011424615 0.12529019 0.4513777 0.040557984 -0.2925522 -0.49800062
0.05524099 0.4889516 -0.049833093 0.42749652 -0.3571092 -0.0054335324 0.4611716 -0.26330033
-0.09582424 -0.25239575 0.57305074 -0.07431344 -0.31700423 0.24388732 0.10864792 0.011308714
0.27517202 0.075634606 -0.35234362 -0.34149817 0.10007116 0.26103634 0.35561633 -0.08745285
-0.057092875 -0.48111603 -0.5027339 -0.41871688 0.16607532 0.0022144478 0.38805404 0.019294763
-0.012949109 0.49106163 -0.3765877 0.15754619 0.32380328 0.35316712 -0.033947423 -0.17668837
-0.29814637 0.0026108085 0.37018183 -0.49310687 -0.31505972 -0.5043436 -0.37984008 -0.45778498
0.44979393 -0.15014783 -0.43601975 -0.22465557 -0.3513065 0.036991067 0.4326648 0.16913748
00000000: 50cd 363d 849e b13e d9e2 e43e dedd ef3e
00000010: 55fa dd3e fd93 f83e c215 81be 4eb3 1938
00000020: 8d7b 0e3f fe24 febe 40ea b6be f6bb 203f
00000030: 0a75 883c 5e41 43be 7ade d2be b44c 67be
00000040: d16c b83e 5290 d63e b8cf 43be 0b87 c13d
00000050: 6093 04be 9012 f9be bb36 7a3e 415d e3be
00000060: 9c7a d03d e3bc 59ba 7892 80be cc09 30bd
00000070: d101 aa3d 30b6 a03d 89e9 ca3e ed19 9dbd
00000080: d41a 07bf 1cd5 c13e af16 8b3e 4fe6 b0bd
00000090: a02b ff3a af29 a93e 0582 923e 898c a63e
000000a0: 7101 043f 85af a63e 7551 183e ed45 c03e
000000b0: 5f88 c43e d6e1 953e d73c f73c ec81 303d
000000c0: b750 88be e295 863c fca5 c63e 9b8c a43e
000000d0: 1035 c43e 6cd6 06bf f7e6 aabd 148b 2b3e
000000e0: 73b7 313d d3d1 d53e 74d2 bc3d d773 41be
000000f0: 3abe d4bd 64d6 edbe 2dce 8ebd 5d1c 9a3e
00000100: 7f05 7abd 4560 a2be a3f1 36be 2697 babb
00000110: eaa0 083f ff91 c2be d3b0 a4bd 531b be3e
00000120: f0d4 d8be 60da 18bd 527e 6abe 2792 f93e
00000130: 6495 e1bd 4731 04bf 4ec2 8e3e 5332 5e3d
00000140: b39b 143e db14 b9bd 7a3b 963e 6238 343e
00000150: 6b53 61bd c08d 71bc f340 7d3e f79e 003e
00000160: 3a5c 60bc 3a2d c8be 4231 0b3f a017 5b3e
00000170: ccf8 f33d 0490 e0be 183e 2fbe bf39 8f3d
00000180: c26c d13e feb2 a83e 2a5d 443d a960 72bb
00000190: d59d 1a3e 667a 64be 0fc7 e4bd 11bc 2f3a
000001a0: 065d 8f3e 9b05 edbe dc5a 9bbe 726c 05bf
000001b0: b110 583e 4f1c 3f3c 5147 e2be 6160 0b3f
000001c0: 1a98 c2bd df63 42be 80df 513e a197 0fbb
000001d0: 58bf 8cbd 6dfe 843e e0ce e4bd ec0d dfbd
000001e0: 0bfb 8ebe adf0 8cbe 3098 553e a8c8 423b
000001f0: 1974 633e 51b7 c83e 8fe8 a43e be0c 66bc
00000200: 6a25 debe cb18 ee3d bd0c 683e 0075 513e
00000210: 95ba 363d b906 903d 71f4 0cbe 0ea2 9a3e
00000220: 91be fabc 7720 f1be 73ab 2b3e 8103 e43c
00000230: dbcc bbbe f874 e83d 7262 e33d a0b1 e43e
00000240: 5f60 d63e 08c6 19be f2c8 103e 01be 9cbe
00000250: 28dd a53d 4064 10be d631 ab3d 6250 c3bd
00000260: e486 003f 031e 423e d85d c63b d911 1bbe
00000270: 2e75 ea3e 0112 da3e 21aa f3be 6b87 a9be
00000280: 4ded 143e 21a3 1c3e c3b4 fb3d 118f d93d
00000290: 003e 523e 57a3 cebe ccf8 5fbd 0ada 2d3e
000002a0: b6cd fb3d 7cd4 87bd 2027 72bc dadb dfbd
000002b0: 24f6 34bd b8ec 973e 0da7 01bd 3b67 5e3e
000002c0: 3d35 07bd 60e8 9bbe 33ac d13d 0f2e 013f
000002d0: 6d9d b33e 19d9 8bbd 4ab1 81bd eb1e 443e
000002e0: 3236 3c3a 7a16 c6be a137 d03e f0a3 b63a
000002f0: 7e1a debe 4bf5 89be d4d1 b2be bfb6 383d
00000300: e5c1 6d3c 4bc3 e6bb 4f2e 3b3c 124c 003e
00000310: fa1a e73e 2120 263d 67c9 95be f0f9 febe
00000320: 6044 623d dd57 fa3e c91d 4cbd d3e0 da3e
00000330: 04d7 b6be c60b b2bb af1e ec3e 4dcf 86be
00000340: 803f c4bd 043a 81be 74b3 123f a531 98bd
00000350: 614e a2be 99bd 793e cd82 de3d 2f48 393c
00000360: 59e3 8c3e 51e6 9a3d 6266 b4be d9d8 aebe
00000370: 1cf2 cc3d 8ea6 853e 5813 b63e 7b1a b3bd
00000380: 38da 69bd d754 f6be 2bb3 00bf 0f62 d6be
00000390: a60f 2a3e 4520 113b 05af c63e 0d10 9e3c
000003a0: 8028 54bc 6e6c fb3e 1ad0 c0be ca53 213e
000003b0: 8bc9 a53e 52d2 b43e 740c 0bbd cced 34be
000003c0: a4a6 98be 191a 2b3b 7988 bd3e 8178 fcbe
000003d0: 824f a1be aa1c 01bf 667a c2be cb62 eabe
000003e0: 644b e63e 5ac0 19be fb3d dfbe 1c0c 66be
000003f0: 72de b3be f283 173d 3e86 dd3e 6032 2d3e

net.0.bias f4 [100]
-0.0045723487 0.34976503 0.4817391 0.42234856 -0.13400282 0.5275819 -0.23056531 -0.50362134
-0.5431819 0.2911217 0.45037934 0.3640395 0.48978063 -0.6172263 -0.5880727 0.35274005
0.32640973 -0.17955185 0.57026577 0.0657566 0.3687563 -0.18238238 -0.020406226 0.018417591
-0.5515734 0.44542456 -0.59501255 0.64181066 0.5632716 -0.1162681 0.17597173 0.4960871
0.0010805182 -0.3053987 0.5954368 0.5561324 -0.2658321 -0.07589194 0.12918237 -0.055228602
-0.4321843 -0.020492738 -0.6380717 -0.58637816 0.19668774 -0.28930163 0.54589444 -0.09103091
0.2388031 0.56781256 0.60211295 -0.29202843 -0.593461 -0.32690886 0.12224586 -0.107017405
0.19145226 -0.19399361 0.29252952 -0.5816616 -0.38306713 -0.42553583 -0.6155214 -0.069088995
0.0007123278 0.5494456 -0.23634118 -0.2815581 0.43157732 -0.0321396 -0.564247 -0.5372365
-0.33764032 -0.15678658 -0.111745 -0.29045764 -0.60032123 0.0009422885 -0.19528918 -0.44741228
0.356882 0.18134469 0.05519137 -0.19206676 0.42437184 0.5207555 -0.004874423 -0.17329466
-0.24903741 0.09580097 0.20330115 0.052864276 0.58410347 -0.21687046 0.46529025 -0.26565674
-0.58576727 -0.08024121 -0.2039335 -0.11610612
00000000: a4d3 95bb 6714 b33e 82a6 f63e 123e d83e
00000010: 0938 09be 9b0f 073f 5019 6cbe 54ed 00bf
00000020: f80d 0bbf e70d 953e 1f98 e63e 6363 ba3e
00000030: 87c4 fa3e 8b02 1ebf ef8b 16bf 589a b43e
00000040: 2d1f a73e 71dc 37be f0fc 113f 65ab 863d
00000050: a0cd bc3e 72c2 3abe f52a a7bc 7de0 963c
00000060: ea33 0dbf b00e e43e be52 18bf b44d 243f
00000070: 9132 103f f81d eebd ef31 343e 21ff fd3e
00000080: 2da0 8d3a 385d 9cbe 8c6e 183f b15e 0e3f
00000090: 251b 88be 3c6d 9bbd 6248 043e 6337 62bd
000000a0: 4347 ddbe 63e0 a7bc ab58 23bf e11c 16bf
000000b0: 8368 493e 581f 94be bdbf 0b3f 6a6e babd
000000c0: cd88 743e 2a5c 113f 1324 1a3f c084 95be
000000d0: 0fed 17bf 9960 a7be 0a5c fa3d f12b dbbd
000000e0: 100c 443e 43a6 46be 6ec6 953e c6e7 14bf
000000f0: 6021 c4be d5df d9be cf92 1dbf 887e 8dbd
00000100: 82bb 3a3a 78a8 0c3f 6c03 72be 6228 90be
00000110: b4f7 dc3e d0a4 03bd 7e72 10bf 5588 09bf
00000120: 31df acbe a98c 20be 90da e4bd ddb6 94be
00000130: a7ae 19bf e903 773a e3f9 47be 3913 e5be
00000140: 3db9 b63e 6cb2 393e 5910 623d 26ad 44be
00000150: 4447 d93e 3c50 053f a0b9 9fbb 2874 31be
00000160: aa03 7fbe 4d33 c43d 2d2e 503e 3688 583d
00000170: ce87 153f 4a13 5ebe 863a ee3e 2904 88be
00000180: d8f4 15bf 8155 a4bd f2d3 50be 0cc9 edbd

net.2.weight f4 [100, 100]
0.031364676 -0.033903655 -0.01653187 -0.043307815 -0.0032867643 -0.015044746 0.01945673 -0.034161296
0.10499073 -0.04187098 0.06288845 -0.10772179 0.024210142 -0.07278261 -0.030522775 0.036464915
-0.04146494 0.012682041 0.023532268 -0.06974254 -0.073024906 -0.008824078 -0.08106009 -0.062513225
0.011371568 -0.04374023 -0.010973108 0.005651008 -0.06020216 -0.06577927 0.07236732 -0.053777546
-0.025175313 -0.013927371 0.051758196 -0.07889294 -0.029805468 0.028313518 0.013123255 -0.02451241
0.09184567 -0.061342087 -0.014039303 0.07188123 -0.0047205198 0.053306013 0.07184062 0.058025233
0.027122952 0.04667775 -0.09056425 0.06373784 -0.03577979 0.024279414 0.07573004 -0.011711525
0.03217791 0.02585015 -0.041607097 -0.0359931 -0.08129281 0.070549235 0.022657037 0.07097102
0.009520604 0.06644352 0.07431484 0.039986663 -0.10934873 0.003070809 -0.017016977 0.04580148
0.015422509 0.02119477 -0.026401235 -0.024119332 -0.08642519 0.048168287 0.030746141 -0.09013481
-0.06690943 0.0105111655 -0.02326509 -0.08742993 -0.056920655 0.099138536 0.101112016 0.044407435
-0.029323779 -0.08287086 -0.021292958 0.018719314 0.07385255 -0.0077391732 -0.0021688314 0.11045127
0.007922474 -0.03365225 -0.054840006 0.030108528 -0.068745844 -0.058448523 0.01173983 -0.06394031
0.07439003 0.012369863 -0.022840407 -0.035779893 0.07176675 -0.10613379 -0.043471936 0.07531077
-0.10442536 0.003720926 -0.07766096 0.07520532 -0.080746315 0.09074803 0.028961234 -0.042588048
0.07341529 -0.105200246 0.006708767 0.07937646 -0.08986696 0.00035891158 0.011814904 -0.10029468
0.034460697 -0.009865277 -0.03772052 -0.042594552 0.0715613 -0.01915504 -0.024312194 0.04579914
0.027700312 -0.00025455718 0.09017186 0.016930683 -0.04201999 -0.022265412 -0.034843046 -0.019603247
-0.036430772 0.038555212 0.02779917 -0.017728614 -0.042238202 0.06305279 0.06898679 0.0079248175
0.024024984 0.057688423 -0.09830062 -0.048385564 -0.012979622 0.026594287 0.084268466 0.013765224
0.037911862 0.029253086 0.0034605179 0.016470756 0.009930178 0.06811559 0.04801164 0.0065738214
0.090175174 0.08558609 -0.074588165 0.006653361 -0.102579765 -0.030013878 0.0034069845 0.08592004
0.063334554 -0.019813608 0.03293646 0.005016284 0.018694256 -0.054273386 0.012540202 0.020318411
-0.00569858 -0.09312384 0.07378986 -0.009768918 -0.02878724 0.024936084 -0.0471774 -0.03453365
-0.069366276 -0.003136297 0.06528088 -0.018724646 0.0291356 -0.014939115 -0.02381798 0.09725528
0.09204722 -0.018755117 0.07731535 0.10503264 -0.019479075 0.030572915 0.028418118 0.03963156
-0.024807334 -0.0373271 -0.039142292 -0.041299123 -0.038893096 0.060687758 0.047448054 -0.008134958
0.032042995 -0.0702853 -0.03731164 0.005678673 0.052962065 0.060006823 0.0062293364 0.08106124
0.081657134 -0.041146725 0.106317624 -0.001242356 0.02871039 0.019954547 -0.047718138 0.108183704
-0.07718425 0.0006805515 0.009930162 0.07835705 0.023808073 0.0832754 -0.002468495 -0.016898394
0.08865807 -0.038904816 0.08034642 0.13629285 -0.11085765 -0.06535811 0.060242224 -0.007695868
0.09083623 0.014118035 0.003303427 -0.02781879 -0.0012953073 0.10337169 -0.061785385 0.063797645
00000000: 3f78 003d 8fde 0abd d86d 87bc 8963 31bd
00000010: c166 57bb 3d7e 76bc b863 9f3c b7ec 0bbd
00000020: 6105 d73d e880 2bbd a9cb 803d 3e9d dcbd
00000030: 5954 c63c 0d0f 95bd e60a fabc 3c5c 153d
00000040: 24d7 29bd 56c8 4f3c bec6 c03c 2dd5 8ebd
00000050: 158e 95bd de92 10bc d502 a6bd ef06 80bd
00000060: d04f 3a3c f528 33bd 8dc8 33bc 172c b93b
00000070: 8a96 76bd 48b7 86bd 5135 943d d845 5cbd
00000080: 753c cebc a12f 64bc 6700 543d 9f92 a1bd
00000090: 992a f4bc c0f1 e73c ec02 573c 40ce c8bc
000000a0: 9519 bc3d d741 7bbd 1b05 66bc 7736 933d
000000b0: 97ae 9abb 6857 5a3d 2d21 933d deab 6d3d
000000c0: f430 de3c 2b31 3f3d c079 b9bd fc88 823d
000000d0: d48d 12bd 9fe5 c63c 5a18 9b3d b2e1 3fbc
000000e0: fccc 033d b2c3 d33c 346c 2abd 806d 13bd
000000f0: d87c a6bd 1e7c 903d 409b b93c 4159 913d
00000100: 4ffc 1b3c 8a13 883d 6132 983d 0ec9 233d
00000110: 3af2 dfbd a03f 493b 3067 8bbc 559a 3b3d
00000120: b1ae 7c3c a7a0 ad3c 6747 d8bc e895 c5bc
00000130: b1ff b0bd 1c4c 453d 55df fb3c 9998 b8bd
00000140: d007 89bd 0637 2c3c 6e96 bebc 770e b3bd
00000150: a225 69bd 2509 cb3d d113 cf3d 92e4 353d
00000160: 6c38 f0bc 33b8 a9bd 926e aebc 3f59 993c
00000170: 0140 973d e498 fdbb f422 0ebb 4734 e23d
00000180: 44cd 013c f1d6 09bd ea9f 60bd 29a6 f63c
00000190: 9fca 8cbd b867 6fbd 6a58 403c 23f3 82bd
000001a0: cd59 983d f7aa 4a3c ce1b bbbc f08d 12bd
000001b0: 72fa 923d ac5c d9bd a10f 32bd 883c 9a3d
000001c0: f7dc d5bd c7da 733b b60c 9fbd 3f05 9a3d
000001d0: 535e a5bd 1ada b93d 1c40 ed3c ce70 2ebd
000001e0: c15a 963d 3a73 d7bd 37d5 db3b 2090 a23d
000001f0: 2b0c b8bd 4c2c bc39 4d93 413c 4c67 cdbd
00000200: a926 0d3d f9a1 21bc d580 1abd a077 2ebd
00000210: bb8e 923d 08eb 9cbc 5e2a c7bc e197 3b3d
00000220: c4eb e23c 1676 85b9 06ac b83d 37b2 8a3c
00000230: 271d 2cbd f465 b6bc 95b7 0ebd fd96 a0bc
00000240: 6f38 15bd 12ec 1d3d 16bb e33c 993b 91bc
00000250: f701 2dbd d221 813d f248 8d3d 18d7 013c
00000260: 0bd0 c43c b24a 6c3d d651 c9bd f12f 46bd
00000270: 7ba8 54bc 43dc d93c f294 ac3d 8987 613c
00000280: 7849 1b3d 2ba4 ef3c dbc9 623b aeed 863c
00000290: 2fb2 223c 3080 8b3d daa7 443d 3669 d73b
000002a0: c3ad b83d c347 af3d aec1 98bd 7004 da3b
000002b0: 5715 d2bd aadf f5bc b747 5f3b d9f6 af3d
000002c0: 8cb5 813d 2650 a2bc 62e8 063d a45f a43b
000002d0: b224 993c c54d 5ebd 6b75 4d3c cc72 a63c
000002e0: 27bb babb b6b7 bebd 231f 973d d00d 20bc
000002f0: 38d3 ebbc c246 cc3c 173d 41bd 2873 0dbd
00000300: e80f 8ebd 558a 4dbb fbb1 853d 6e64 99bc
00000310: c8ad ee3c 31c3 74bc ed1d c3bc c72d c73d
00000320: 4183 bc3d 55a4 99bc 8357 9e3d 5a1b d73d
00000330: 9592 9fbc 0d74 fa3c 1dcd e83c b454 223d
00000340: c038 cbbc 4de4 18bd ab53 20bd 4529 29bd
00000350: 5e4e 1fbd ba93 783d e458 423d 7d48 05bc
00000360: 843f 033d bdf1 8fbd 17d4 18bd 2914 ba3b
00000370: c0ee 583d b7c9 753d 761f cc3b 6f03 a63d
00000380: db3b a73d 7889 28bd 0ebd d93d 8dd6 a2ba
00000390: 0d32 eb3c b877 a33c 1874 43bd 6b8f dd3d
000003a0: c712 9ebd 0a67 323a 1eb2 223c a979 a03d
000003b0: 2609 c33c 4b8c aa3d 79c6 21bb 806e 8abc
000003c0: 5d92 b53d a85a 1fbd aa8c a43d 5a90 0b3e
000003d0: 5609 e3bd 79da 85bd 8dc0 763d 9f2d fcbb
000003e0: 5808 ba3d 554f 673c 4f7e 583b 3be4 e3bc
000003f0: 4dc7 a9ba 89b4 d33d ac12 7dbd 57a8 823d

net.2.bias f4 [100]
0.060549945 -0.06753481 -0.04351327 -0.02919987 -0.041622497 0.10073787 0.026171492 0.029537305
-0.008426711 0.067207366 0.066075206 0.00785318 -0.06190548 -0.015149191 0.054036688 0.052770503
0.00035904496 -0.070786506 -0.11055035 0.014394835 -0.11520051 0.08842355 -0.036496297 0.03862362
0.011444019 0.088213086 0.110384196 0.09707046 0.06120935 -0.040351924 0.036120858 0.09281757
0.09773552 -0.046588607 -0.011558362 0.028936706 0.07027684 0.035799343 -0.06772921 -0.13061069
-0.071107455 -0.051478732 0.07990419 0.1060023 -0.122850426 0.16545768 0.065305084 -0.095481195
-0.036732502 -0.024624214 0.14359511 -0.10286663 0.06433331 -0.017984837 -0.09208359 -0.10979951
0.035439476 -0.0047449255 -0.0742847 0.01820497 0.024742367 0.04702919 0.112328164 -0.03586007
-0.091369286 0.044241205 0.038679756 -0.07810796 -0.107421026 0.0149934525 0.050941207 -0.096851245
-0.011503893 0.17922416 0.018399596 -0.03289599 0.08611516 -0.024790429 0.087445416 0.13956046
0.039364338 -0.07955715 -0.027814697 0.018367393 0.007921271 -0.08607413 -0.08432535 0.07203348
0.012928426 -0.012926351 0.06100256 0.14977601 0.0024283107 0.050781216 0.055601336 -0.06776823
0.019699559 -0.054357294 0.030552005 -0.00076219055
00000000: 3803 783d b14f 8abd f83a 32bd 9134 efbc
00000010: 5a7c 2abd a84f ce3d 9965 d63c 38f8 f13c
00000020: 3010 0abc 04a4 893d 7052 873d a0aa 003c
00000030: 9a90 7dbd 5034 78bc 9355 5d3d e225 583d
00000040: 333e bc39 84f8 90bd 3968 e2bd 50d8 6b3c
00000050: 3fee ebbd 6817 b53d 247d 15bd cd33 1e3d
00000060: b27f 3b3c 10a9 b43d 1c11 e23d e1cc c63d
00000070: a8b6 7a3d 0f48 25bd 77f3 133d 2317 be3d
00000080: 8f29 c83d b2d3 3ebd 495f 3dbc ac0c ed3c
00000090: 4eed 8f3d 55a2 123d 9db5 8abd cfbe 05be
000000a0: c9a0 91bd 5ddb 52bd cfa4 a33d bc17 d93d
000000b0: 0199 fbbd bd6d 293e acbe 853d a58b c3bd
000000c0: d274 16bd b8b8 c9bc 990a 133e bdab d2bd
000000d0: 2fc1 833d f054 93bc 5296 bcbd 91de e0bd
000000e0: fc28 113d 527b 9bbb 9422 98bd 9722 953c
000000f0: 81b0 ca3c aea1 403d 4f0c e63d 02e2 12bd
00000100: d21f bbbd 4436 353d aa6e 1e3d 11f7 9fbd
00000110: 8eff dbbd 19a7 753c baa7 503d f259 c6bd
00000120: d37a 3cbc 8a86 373e c0ba 963c f2bd 06bd
00000130: 255d b03d 4c15 cbbc 9516 b33d f0e8 0e3e
00000140: 803c 213d dcee a2bd a6db e3bc 3777 963c
00000150: 38c8 013c a247 b0bd c5b2 acbd 4a86 933d
00000160: c0d1 533c 0cc9 53bc d2dd 793d e25e 193e
00000170: 4b24 1f3b f7ff 4f3d 3abe 633d 12ca 8abd
00000180: f860 a13c c1a5 5ebd 3348 fa3c becd 47ba

net.4.weight f4 [100, 100]
-0.004253925 -0.058319945 -0.03214327 -0.060256753 -0.0048971367 0.02988221 0.113937005 0.002530072
-0.04876233 0.00032047246 -0.004114943 0.063977435 -0.09601106 -0.042877056 -0.055576365 -0.046505023
-0.028167548 0.10593942 -0.042569607 0.05525615 -0.05464871 -0.027916363 0.013399206 0.086568974
0.008915888 0.035712358 0.06819963 -0.025226494 -0.013381471 0.10605472 -0.022990767 0.025410408
0.072934955 -0.03934419 0.07013291 0.08431965 0.07065526 0.068097726 0.10523467 0.0040247287
-0.0048691775 -0.0073815733 0.07996066 0.06315081 -0.06197337 -0.12740386 -0.052331127 -0.099195294
-0.001879534 -0.030043885 0.008403439 -0.0010905234 -0.009501887 0.08440678 -0.09079426 0.009758129
0.102233864 0.0023136737 0.017254777 0.0821209 0.018919483 0.07989499 -0.10517412 0.053830676
0.039503105 0.01669796 0.042169068 -0.05106005 -0.08243112 -0.046728026 -0.06452252 0.018760096
0.085013 -0.11616766 -0.0019888424 0.008803582 0.011083634 -0.015295289 -0.033885233 0.003761569
-0.13944183 0.06798019 -0.055430077 -0.053843338 -0.0633706 -0.017288927 0.04687329 0.059667867
-0.053962637 0.09458932 -0.055549975 -0.112474106 -0.05571281 -0.04334808 -0.09037336 -0.03742528
-0.06793399 0.08381587 0.10357024 0.063497394 0.07994811 0.06984295 0.02407886 0.05378125
0.054833643 0.03602611 -0.010808687 0.09062129 0.08444946 0.07848404 0.0029120657 -0.048840467
0.06102071 -0.054538287 -0.04908096 -0.08079199 -0.0073856004 -0.04523744 -0.050928857 -0.057174947
-0.051758077 0.049455587 -0.089896575 0.026528565 0.08141416 -0.075460665 0.029275898 -0.022032067
-0.06916813 -0.08844578 -0.010934018 0.043335047 -0.09954666 -0.07392355 -0.08636942 -0.090972185
-0.03288453 -0.04989967 0.021164471 0.05032268 0.06181426 -0.014671788 -0.04667793 0.023570286
0.103893265 -0.119046256 -0.013983224 -0.005347669 0.06950634 0.07987464 -0.08734154 0.020497028
-0.06043926 0.062452417 0.075558744 -0.03589939 0.052194357 -0.0017426178 0.025277462 0.08686911
0.014446064 0.054976527 -0.09673021 0.05780095 -0.04536294 -0.118213795 -0.05293575 -0.0368789
0.08997114 0.060511988 -0.042709544 0.056847453 0.04535826 -0.14553262 -0.015943091 -0.018704714
0.030118806 -0.051196385 0.07417842 -0.0023991968 -0.13360365 0.006921173 0.09542187 0.010031114
-0.06991995 -0.013726949 0.10360461 0.03395759 -0.1031707 -0.07206804 -0.07137951 0.023107504
-0.03213528 0.08549909 -0.09415156 -0.00478445 0.09785678 0.08305575 -0.008819699 -0.019724516
0.00104177 0.07487566 -0.08772701 -0.06412367 0.0075324625 0.089950986 -0.07406326 0.095939614
-0.045219745 -0.063092634 -0.06651983 -0.041918386 -0.022752129 0.041887887 0.025579758 -0.06903694
-0.01951269 -0.09984858 0.00772921 0.08141226 -0.020483337 -0.045842934 0.0011779815 -0.045388293
0.004731074 0.060274012 0.008345783 -0.06922152 0.040425636 0.065347575 -0.08448082 -0.048729587
-0.016036794 0.07473514 0.0075604543 -0.011132792 -0.08966861 0.034961753 -0.046581686 -0.07542155
-0.0918353 0.072832845 -0.00821837 -0.0722123 0.08071271 -0.06414339 -0.06524369 -0.01754634
-0.019946858 0.015536822 0.09751218 0.0710023 -0.03275089 -0.0845117 0.019507848 -0.033436775
00000000: 8264 8bbb e5e0 6ebd a9a8 03bd c9cf 76bd
00000010: 2978 a0bb 89cb f43c ce57 e93d 90cf 253b
00000020: 02bb 47bd 1605 a839 a5d6 86bb 9a06 833d
00000030: 72a1 c4bd da9f 2fbd 0ba4 63bd 0d7c 3ebd
00000040: a1bf e6bc c4f6 d83d 785d 2ebd 4654 623d
00000050: 53d7 5fbd dbb0 e4bc 5888 5b3c 134b b13d
00000060: f213 123c 1f47 123d 3fac 8b3d cba7 cebc
00000070: f53d 5bbc 3833 d93d 2257 bcbc 7d29 d03c
00000080: ec5e 953d 6027 21bd d8a1 8f3d c8af ac3d
00000090: b4b3 903d d276 8b3d 4685 d73d dfe1 833b
000000a0: 9f8d 9fbb 20e1 f1bb 6ac2 a33d 3655 813d
000000b0: cad7 7dbd 2876 02be 2a59 56bd e726 cbbd
000000c0: b25a f6ba 981e f6bc 94ae 093c e5ef 8eba
000000d0: cdad 1bbc 76dd ac3d 57f2 b9bd 8fe0 1f3c
000000e0: fd5f d13d 01a1 173b e459 8d3c 012f a83d
000000f0: 08fd 9a3c fc9f a33d 8765 d7bd 8e7d 5c3d
00000100: 02ce 213d 29ca 883c 79b9 2c3d 5824 51bd
00000110: a6d1 a8bd e365 3fbd 6224 84bd c6ae 993c
00000120: 4c1b ae3d 4fe9 edbd 3d57 02bb e63c 103c
00000130: 2198 353c 1899 7abc 3ecb 0abd a884 763b
00000140: d7c9 0ebe 3339 8b3d a60a 63bd d58a 5cbd
00000150: 72c8 81bd 82a1 8dbc 35fe 3f3d 4b66 743d
00000160: ed07 5dbd 0cb8 c13d 5f88 63bd d358 e6bd
00000170: 1e33 64bd c28d 31bd ab15 b9bd 404b 19bd
00000180: fa20 8bbd a8a7 ab3d a21c d43d ec0a 823d
00000190: d6bb a33d d209 8f3d 0841 c53c ba49 5c3d
000001a0: 3e99 603d 1d90 133d eb16 31bc a897 b93d
000001b0: d7f3 ac3d 3ebc a03d 5bd8 3e3b f10c 48bd
000001c0: daf0 793d 8a63 5fbd 1e09 49bd 4576 a5bd
000001d0: e802 f2bb e54a 39bd c79a 50bd 4730 6abd
000001e0: 4700 54bd f191 4a3d b21b b8bd 6f52 d93c
000001f0: 78bc a63d 1f8b 9abd 02d4 ef3c 987c b4bc
00000200: 05a8 8dbd 1023 b5bd 9824 33bc 1780 313d
00000210: 1fdf cbbd 3b65 97bd 73e2 b0bd a04f babd
00000220: eeb1 06bd 9963 4cbd 1d61 ad3c 281f 4e3d
00000230: f330 7d3d f061 70bc 5b31 3fbd 7916 c13c
00000240: fec5 d43d 86ce f3bd e419 65bc 803b afbb
00000250: 5759 8e3d 5195 a33d 1fe0 b2bd 62e9 a73c
00000260: 288f 77bd 1bce 7f3d 8bbe 9a3d 3d0b 13bd
00000270: c0c9 553d 8d68 e4ba ae12 cf3c 6fe8 b13d
00000280: 2faf 6c3c 112f 613d 7d1a c6bd b0c0 6c3d
00000290: 7dce 39bd 131a f2bd 28d3 58bd 540e 17bd
000002a0: ca42 b83d 6bdb 773d 34f0 2ebd e0d8 683d
000002b0: 95c9 393d 8106 15be 169b 82bc a13a 99bc
000002c0: b7bb f63c 4db3 51bd dbea 973d d83b 1dbb
000002d0: 65cf 08be 02cb e23b 8b6c c33d 8b59 243c
000002e0: 3132 8fbd ffe6 60bc a72e d43d 1d17 0b3d
000002f0: 294b d3bd 6998 93bd 6c2f 92bd f34b bd3c
00000300: 49a0 03bd 261a af3d 88d2 c0bd e0c6 9cbb
00000310: 2369 c83d 2219 aa3d 8080 10bc 4f95 a1bc
00000320: 008c 883a 6958 993d 38aa b3bd 4553 83bd
00000330: e0d2 f63b 3938 b83d 7aae 97bd fd7b c43d
00000340: 5738 39bd b636 81bd 8c3b 88bd 9db2 2bbd
00000350: ac62 babc a292 2b3d a48c d13c 3d63 8dbd
00000360: 14d9 9fbc 6a7d ccbd 5045 fd3b 79bb a63d
00000370: accc a7bc cdc5 3bbd 8066 9a3a 13e9 39bd
00000380: 2007 9b3b e2e1 763d c0bc 083c 03c4 8dbd
00000390: 5a95 253d f3d4 853d 4804 adbd ad98 47bd
000003a0: 985f 83bc bd0e 993d b0bd f73b 5066 36bc
000003b0: 2da4 b7bd 0e34 0f3d 70cc 3ebd 9d76 9abd
000003c0: 2514 bcbd 6329 953d 58a6 06bc 0be4 93bd
000003d0: b54c a53d 9c5d 83bd 7c9e 85bd 58bd 8fbc
000003e0: 9867 a3bc 288e 7e3c 77b4 c73d a769 913d
000003f0: cc25 06bd 7814 adbd ecce 9f3c 00f5 08bd

net.4.bias f4 [100]
-0.019363204 -0.14962406 -0.04808973 0.023832543 0.06323011 -0.09874713 -0.008045888 0.024538139
0.13168068 -0.04097438 -0.039967727 0.05655539 0.07413155 -0.09928923 -0.046503726 -0.051367145
-0.081762284 -0.14353767 0.07188172 -0.130854 -0.053883497 0.13470379 0.11924174 -0.05225481
0.0075985286 0.109517254 0.003145465 0.08956949 0.075145625 -0.08656109 -0.016359976 0.014459782
-0.0618076 -0.049960822 -0.042989824 0.008103733 0.040026814 0.090967335 -0.093548656 0.053045847
0.06914815 -0.054417644 -0.041191246 -0.08105024 -0.029181661 -0.06596657 0.1304691 0.03847042
0.077127725 -0.13815655 -0.12660743 -0.028689593 -0.014525642 0.054457836 0.050697926 -0.029021855
0.029784419 -0.0069904 0.03333774 0.12089212 -0.14524455 -0.14105916 -0.066562675 0.08692972
0.043700594 0.008498033 0.038407102 0.11384903 -0.03931246 -0.079178914 -0.08973406 -0.011812161
-0.09027013 -0.11054075 0.07793242 -0.05972215 0.12586918 -0.07601918 -0.104780905 0.0497192
-0.09187995 -0.00277108 -0.00013509167 -0.011873142 -0.10925439 0.00647956 -0.054381754 0.092408754
0.13675062 0.118094966 -0.010994488 -0.08568198 -0.11512416 0.06359062 -0.14224078 -0.008094152
0.025450535 0.09282798 -0.10381594 -0.067671314
00000000: 959f 9ebc 0d37 19be bdf9 44bd 773c c33c
00000010: ca7e 813d ef3b cabd e6d2 03bc 3504 c93c
00000020: 4dd7 063e c0d4 27bd 33b5 23bd a0a6 673d
00000030: 48d2 973d 2758 cbbd b17a 3ebd 5b66 52bd
00000040: fc72 a7bd 8afb 12be b936 933d 97fe 05be
00000050: f1b4 5cbd caef 093e 0335 f43d 2409 56bd
00000060: 14fd f83b 954a e03d 2524 4e3b 3570 b73d
00000070: f3e5 993d f146 b1bd 5b05 86bc b9e8 6c3c
00000080: f729 7dbd b8a3 4cbd 1916 30bd 85c5 043c
00000090: 28f3 233d 154d ba3d 7096 bfbd 9a46 593d
000000a0: 8c9d 8d3d 09e5 5ebd 27b8 28bd abfd a5bd
000000b0: 610e efbc 7b19 87bd b199 053e 2993 1d3d
000000c0: 24f5 9d3d e978 0dbe 61a5 01be 7006 ebbc
000000d0: f5fc 6dbc 2e0f 5f3d a1a8 4f3d 3ebf edbc
000000e0: 74fe f33c ba0f e5bb 278d 083d 4a96 f73d
000000f0: fdba 14be d071 10be 0352 88bd 3608 b23d
00000100: 65ff 323d 553b 0b3c c450 1d3d ae29 e93d
00000110: 1a06 21bd 8e28 a2bd 7ec6 b7bd cb87 41bc
00000120: 8cdf b8bd 3063 e2bd 089b 9f3d 379f 74bd
00000130: dae3 003e f2af 9bbd 5f97 d6bd 5ca6 4b3d
00000140: 8e2b bcbd 029b 35bb 65a7 0db9 9187 42bc
00000150: c4c0 dfbd 7d52 d43b 67bf 5ebd cd40 bd3d
00000160: 5b08 0c3e c6db f13d 3a22 34bc 097a afbd
00000170: 37c6 ebbd cd3b 823d 91a7 11be 569d 04bc
00000180: a47d d03c 991c be3d 749d d4bd 4297 8abd

net.6.weight f4 [100, 100]
0.038423672 0.04199025 -0.049192216 0.013179813 -0.057640135 0.06887172 0.12273451 -0.031704485
0.060172316 0.08081333 0.051874675 0.06915479 0.03405791 0.098531604 -0.022583235 -0.007737949
0.05388957 0.038996354 -0.07248369 0.09245433 0.09761162 -0.10102144 0.079372264 -0.08633164
0.07839774 -0.0073587457 0.07740487 0.09601833 0.05878939 0.026284667 0.0075424323 0.046405658
-0.07002211 -0.064384714 0.046125866 -0.08446355 0.010194085 0.1265415 0.04217213 0.07800758
0.05367442 0.08353239 0.0158293 -0.0054470673 0.05817071 0.0062625003 0.038118143 0.08616923
0.0676054 -0.16025472 0.11054222 0.010898054 -0.01773803 -0.095364235 -0.04972862 0.07216071
0.061018176 0.017432293 0.10102557 0.1081994 0.08310438 0.10603823 0.03740731 0.0679725
0.12869802 0.10010912 0.00071653473 -0.086549476 0.057588868 0.058555998 -0.08090445 -0.08848594
0.105332166 0.08599189 0.0345049 -0.0029390254 -0.006625443 -0.0012830831 -0.0983686 -0.039928693
-0.04055975 0.070890605 -0.026455764 0.05420809 -0.056814678 -0.045945555 0.01068222 -0.02877555
0.03789819 -0.054480005 0.01526811 -0.04606337 0.08471254 0.074156865 -0.11810862 -0.00557741
0.0710781 -0.064733036 -0.037433166 0.053600505 -0.089978226 -0.040210165 0.013779059 0.07218049
-0.022610351 0.023368083 -0.100778736 -0.068028145 -0.07186352 -0.072510965 0.043564744 -0.08574448
0.07271259 0.040059756 0.025001384 -0.0028214427 -0.07119954 0.07576987 -0.03067375 0.0016426101
-0.072853796 -0.07042674 -0.050789934 -0.036277696 -0.07743099 -0.03219297 0.07107563 0.08687132
-0.034723133 -0.08853207 -0.024267927 -0.098586515 -0.035021614 0.06473078 0.028827734 -0.06252132
0.056737226 0.0026471524 0.0057611386 -0.0026208407 -0.03130762 -0.050034314 -0.09659862 -0.064405605
-0.04937477 -0.027401995 0.09063016 0.038698316 0.08432753 -0.0121307 0.021785371 -0.06097846
-0.010036066 -0.09851243 0.014108278 0.063482136 -0.103582114 -0.052996706 0.06954466 -0.0013629161
0.0235283 0.02119481 0.050587505 0.03621817 0.09233565 -0.0066343015 0.0095141325 0.09182696
0.085025825 -0.06885376 0.036901694 0.06261199 -0.106510736 0.048515722 0.06233588 0.00014586747
0.0037040235 -0.017389681 0.012595818 -0.06339006 0.051721424 -0.038590834 -0.026090568 -0.06375493
0.07914558 -0.02819822 0.014454469 0.08194981 -0.043026913 -0.044255737 0.05643107 -0.018539436
-0.08424131 -0.06791839 0.09147756 -0.045421097 0.0683432 -0.03227165 0.09248699 -0.021283133
0.063998215 -0.08470736 0.046128206 -0.06367793 -0.053358395 0.006222897 -0.030027647 0.06518121
-0.06023868 -0.021525554 -0.061341465 -0.020144483 -0.061123356 -0.10007783 -0.08931676 -0.04015524
0.006682506 -0.09383128 -0.1073189 -0.07280525 0.05581303 -0.0642157 0.017011551 0.04117122
0.022610825 0.084305145 -0.043910127 -0.04919124 -0.102964334 -0.069848135 0.07432811 -0.0812109
-0.057908773 -0.1245716 0.018086677 0.054208174 -0.070341274 -0.12673955 -0.056334265 0.044137884
0.03475511 0.07418482 -0.028749473 -0.037748396 0.024186438 -0.040356934 0.007988347 -0.008952735
-0.08547685 0.16586635 0.04070894 -0.062401917 -0.005568891 -0.085713655 -0.056015987 0.063243166
00000000: 2462 1d3d f8fd 2b3d c77d 49bd 24f0 573c
00000010: 1018 6cbd 9e0c 8d3d 3b5c fb3d 90dc 01bd
00000020: 3f77 763d 7681 a53d 8a7a 543d 07a1 8d3d
00000030: 4f80 0b3d f0ca c93d 7a00 b9bc 9f8e fdbb
00000040: 4fbb 5c3d a4ba 1f3d 5472 94bd b258 bd3d
00000050: 9ae8 c73d 54e4 cebd ed8d a23d a5ce b0bd
00000060: ff8e a03d a221 f1bb 7286 9e3d 42a5 c43d
00000070: 25cd 703d f152 d73c 8226 f73b dc13 3e3d
00000080: c167 8fbd 22dc 83bd 7aee 3c3d 3afb acbd
00000090: 1705 273c 1894 013e afbc 2c3d 70c2 9f3d
000000a0: b5d9 5b3d 0813 ab3d 73ac 813c 507d b2bb
000000b0: 6944 6e3d a935 cd3b c521 1c3d 7e79 b03d
000000c0: b374 8a3d d019 24be f663 e23d c08d 323c
000000d0: 584f 91bc 534e c3bd 3db0 4bbd ffc8 933d
000000e0: 32ee 793d 2bce 8e3c 7ee6 ce3d a697 dd3d
000000f0: a132 aa3d 922a d93d 6838 193d 2b35 8b3d
00000100: 6ac9 033e 0306 cd3d d5d5 3b3a da40 b1bd
00000110: 4ee2 6b3d 6ad8 6f3d 3bb1 a5bd 1e38 b5bd
00000120: 64b8 d73d 841c b03d 0355 0d3d aa9c 40bb
00000130: 3f1a d9bb 202d a8ba 7a75 c9bd 458c 23bd
00000140: fb21 26bd 182f 913d c2b9 d8bc 4d09 5e3d
00000150: 82b6 68bd 6831 3cbd 7a04 2f3c b4ba ebbc
00000160: 223b 1b3d 6d26 5fbd 1827 7a3c f2ac 3cbd
00000170: c57d ad3d 8edf 973d efe2 f1bd b5c2 b6bb
00000180: 6591 913d c192 84bd 8553 19bd 348c 5b3d
00000190: 8146 b8bd 6ab3 24bd 90c1 613c 5dd3 933d
000001a0: 5839 b9bc 6c6e bf3c 1565 cebd 5752 8bbd
000001b0: 2e2d 93bd a180 94bd f270 323d cd9a afbd
000001c0: 57ea 943d b315 243d b4cf cc3c f4e7 38bb
000001d0: 10d1 91bd 3c2d 9b3d 8447 fbbc d94c d73a
000001e0: 5f34 95bd e53b 90bd 1b09 50bd ec97 14bd
000001f0: 2494 9ebd c7dc 03bd 1a90 913d 97e9 b13d
00000200: d839 0ebd 4d50 b5bd 88cd c6bc bae7 c9bd
00000210: d372 0fbd 9291 843d 2428 ec3c 2e0b 80bd
00000220: 4b65 683d d97b 2d3b efc7 bc3b 69c2 2bbb
00000230: 6b3c 00bd c8f0 4cbd 7fd5 c5bd 16e7 83bd
00000240: 333d 4abd 267a e0bc 4e9c b93d 2082 1e3d
00000250: e9b3 ac3d d8bf 46bc 3c77 b23c 8dc4 79bd
00000260: 506e 24bc e3c0 c9bd 6826 673c ec02 823d
00000270: dc22 d4bd 1313 59bd 6e6d 8e3d e0a3 b2ba
00000280: 6cbe c03c bda0 ad3c d834 4f3d 8159 143d
00000290: 791a bd3d 8e64 d9bb 2ae1 1b3c c60f bc3d
000002a0: 0522 ae3d 3303 8dbd 3b26 173d b73a 803d
000002b0: 4d22 dabd 6cb8 463d e853 7f3d 00f4 1839
000002c0: 34bf 723b ce74 8ebc b15e 4e3c a6d2 81bd
000002d0: d8d9 533d 6c11 1ebd e3bb d5bc f291 82bd
000002e0: 1417 a23d f4ff e6bc 70d2 6c3c 4dd5 a73d
000002f0: fd3c 30bd 8145 35bd 4424 673d 04e0 97bc
00000300: b586 acbd cc18 8bbd 9658 bb3d 790b 3abd
00000310: 85f7 8b3d 472f 04bd d269 bd3d f759 aebc
00000320: 7f11 833d 0d7b adbd eef0 3c3d 9369 82bd
00000330: 558e 5abd 72e9 cb3b 8afc f5bc ba7d 853d
00000340: d6bc 76bd 5c56 b0bc 3041 7bbd 0b06 a5bc
00000350: 7c5c 7abd 9bf5 ccbd b5eb b6bd d279 24bd
00000360: ecf8 da3b 9d2a c0bd 03ca dbbd eb1a 95bd
00000370: 349c 643d 8583 83bd cf5b 8b3c 27a3 283d
00000380: 563a b93c 2da8 ac3d 1bdb 33bd c17c 49bd
00000390: f7de d2bd 8a0c 8fbd 5639 983d e651 a6bd
000003a0: c031 6dbd 651f ffbd 832a 943c 6409 5e3d
000003b0: 160f 90bd 03c8 01be c2be 66bd edc9 343d
000003c0: 605b 0e3d 36ee 973d 0484 ebbc 109e 1abd
000003d0: a322 c63c 504d 25bd 8ee1 023c 7eae 12bc
000003e0: 7d0e afbd ded8 293e 6bbe 263d 2799 7fbd
000003f0: 3e7b b6bb a48a afbd 0571 65bd a285 813d

net.6.bias f4 [100]
0.011003809 -0.033173393 0.074989244 0.05801599 0.07281583 -0.113198414 -0.07559091 -0.08135809
0.024283234 -0.0022663218 0.06492116 0.12773667 0.10082209 0.013611671 -0.054324824 0.10584149
-0.06534931 0.0966083 0.14257029 0.029132064 0.1360388 0.12830962 0.0115632685 -0.15319255
0.11762727 0.027342306 0.10637525 -0.05827448 -0.03082254 0.069419585 0.053096004 -0.014250681
0.055115867 0.055886954 -0.009858754 -0.09690573 0.08422381 0.048199583 -0.08650665 -0.050609984
0.029525451 0.11814714 -0.13380972 -0.07603953 -0.0707778 -0.08290565 -0.062907435 0.050119266
0.07853923 -0.0483551 -0.01322904 -0.02318991 -0.09218051 -0.023962103 -0.088025324 0.11225356
-0.08136665 0.10754737 -0.009669807 0.03562309 0.016655462 0.041110687 -0.10211612 0.001666836
-0.084922254 -0.06214577 -0.083896734 0.010666162 -0.098123096 0.05365998 0.033588853 0.10771683
-0.12677094 0.034471728 0.024512649 -0.0071047097 -0.09298985 0.005298214 -0.035575904 -0.07991131
-0.10413861 0.036052715 0.11699926 -0.046733685 -0.038759507 0.10016198 0.032491278 0.009791731
-0.04924666 0.1303542 0.09374326 0.1380914 0.040618572 -0.05619291 0.09912696 -0.015825232
-0.0571471 -0.035604894 -0.11274148 0.07704688
00000000: 5249 343c d3e0 07bd f693 993d 2da2 6d3d
00000010: 7720 953d 92d4 e7bd 68cf 9abd 129f a6bd
00000020: a2ed c63c 9286 14bb 63f5 843d 67cd 023e
00000030: d07b ce3d 7c03 5f3c b583 5ebd 6cc3 d83d
00000040: dcd5 85bd 93da c53d f2fd 113e 5ea6 ee3c
00000050: c14d 0b3e 9963 033e dd73 3d3c 82de 1cbe
00000060: 91e6 f03d f9fc df3c 44db d93d 39b1 6ebd
00000070: 8d7f fcbc db2b 8e3d 327b 593d b07b 69bc
00000080: 2dc1 613d b8e9 643d 9d86 21bc 8376 c6bd
00000090: 887d ac3d ed6c 453d 662a b1bd 6a4c 4fbd
000000a0: 5cdf f13c 21f7 f13d 6a05 09be 9dba 9bbd
000000b0: f4f3 90bd 70ca a9bd 9dd5 80bd dc49 4d3d
000000c0: 2dd9 a03d ff0f 46bd 9ebe 58bc c4f8 bdbc
000000d0: 23c9 bcbd 2c4c c4bc 9f46 b4bd 32e5 e53d
000000e0: 8fa3 a6bd cc41 dc3d 1c6e 1ebc 84e9 113d
000000f0: 0971 883c ae63 283d 4222 d1bd bc79 da3a
00000100: b8eb adbd 908c 7ebd 0dd2 abbd 20c1 2e3c
00000110: c3f4 c8bd 91ca 5b3d 7794 093d a49a dc3d
00000120: 3ed0 01be 3a32 0d3d c0ce c83c a0ce e8bb
00000130: 7671 bebd a49c ad3b 0ab8 11bd 8aa8 a3bd
00000140: a046 d5bd 03ac 133d 4f9d ef3d d26b 3fbd
00000150: 4ac2 1ebd b921 cd3d 9315 053d 7f6d 203c
00000160: deb6 49bd 927b 053e 77fc bf3d d567 0d3e
00000170: a95f 263d 892a 66bd 1303 cb3d eba3 81bc
00000180: 1413 6abd 70d6 11bd 01e5 e6bd c1ca 9d3d

net.8.weight f4 [100, 100]
0.068001345 0.064418875 0.09311375 -0.10493632 0.061113134 0.08026378 0.08153277 -0.0881202
0.094638795 0.10993043 0.06261924 -0.07811194 -0.08364204 -0.045261905 0.062842935 0.048665024
-0.028315436 -0.038046744 0.02054462 -0.082068644 0.012628752 0.035254527 0.008672416 0.11539713
-0.04226519 -0.09525326 -0.008675864 0.0481602 -0.052918024 0.08561652 -0.046396453 0.0583458
-0.020544566 -0.020098737 0.0885926 0.060231294 -0.04271985 -0.08548597 -0.0626749 -0.06233047
0.033313133 0.001399448 -0.057472482 0.0027884145 0.08185489 0.049789697 -0.033242323 -0.11408955
-0.06309418 -0.05038233 0.071538866 -0.020135647 0.020239107 -0.05264453 0.06474555 -0.034971286
0.04167526 0.029005054 0.08552178 0.0017896004 -0.035894778 0.08001984 0.035346366 0.03338163
0.07601152 -0.018260755 -0.09842049 -0.038826756 -0.074008144 -0.0656431 -0.055508554 0.09469235
-0.031919617 0.10086819 0.09561796 0.016463049 -0.05042604 0.105027325 0.0020881288 -0.049211334
0.06275913 0.07658261 -0.004962294 -0.026893128 0.05627938 0.053458363 0.12393044 0.03742024
0.00060718844 -0.0317491 -0.019281616 -0.1177728 -0.10572669 0.017205492 0.049125634 0.054656774
0.068905555 -0.04257557 0.08211967 -0.08413084 -0.054603994 -0.037239447 0.010249303 0.046598263
-0.006637796 -0.093361884 0.0067060133 -0.074454054 -0.088644795 -0.09453912 -0.103803426 -0.009487277
0.015170374 -0.029597983 0.08875581 0.04565796 0.027821494 0.0327559 -0.09770773 -0.02387237
0.052190375 -0.076106496 -0.079603106 -0.05604465 -0.039263766 0.09097615 0.08736251 -0.04333656
-0.050298814 0.05499733 -0.02205079 -0.0023462896 -0.084579945 0.03534476 -0.08789589 -0.09389086
-0.13240318 0.09978692 -0.006179394 -0.03174714 0.005401004 -0.02517349 0.095609695 -0.088996194
0.05004501 0.06611337 0.16518682 0.043362327 0.10196683 -0.055907916 0.07190362 -0.07295174
0.037658595 0.06341268 -0.023126721 -0.02432581 0.055998933 -0.050859656 -0.01733318 0.106355235
-0.030625492 0.04419412 0.021522649 -0.056533035 0.10041556 0.086661704 0.069610946 0.021055324
-0.01729219 -0.10151653 0.07166464 0.07029086 -0.0071566147 0.10032006 0.06388801 -0.030109623
0.08532998 -0.035620376 0.07934317 0.021496257 -0.016383898 -0.0062181167 0.0037371856 -0.07767105
-0.08966929 0.104341745 0.08188788 -0.103088 0.049622994 0.08131609 0.09460435 0.08419076
-0.005263053 -0.033917766 -0.013247747 0.020305784 0.05176287 0.05858622 -0.013444689 0.05532034
-0.029229783 0.0875322 -0.020337801 -0.02628146 0.023820946 -0.043260474 -0.026313547 -0.015469253
0.032392353 -0.090485476 -0.08933027 0.042764995 0.013312999 -0.040626206 0.0075001586 0.0027996055
-0.019484641 -0.15111142 -0.021318065 -0.022255028 0.076541 0.01755404 0.029703056 -0.11416599
-0.0073574367 -0.048784804 -0.08135284 -0.012298416 -0.00758487 -0.020120373 -0.0832556 -0.024300007
0.04116064 -0.014557888 -0.07568498 -0.07718163 -0.03243316 -0.014451584 0.058227707 -0.038877662
-0.0703068 -0.021466177 -0.014490044 0.0010548237 -0.03973521 -0.02714562 -0.12543495 0.058762316
-0.02804585 -0.086869664 0.011469917 -0.033306673 0.07219444 -0.006715027 -0.07235589 0.08267485
00000000: 4a44 8b3d 0bee 833d 6cb2 be3d dae8 d6bd
00000010: c451 7a3d 5661 a43d a7fa a63d 5d78 b4bd
00000020: fcd1 c13d 3523 e13d 843e 803d 27f9 9fbd
00000030: 854c abbd 8c64 39bd ccb3 803d fa54 473d
00000040: c6f5 e7bc e7d6 1bbd 314d a83c 9b13 a8bd
00000050: d3e8 4e3c 0d67 103d c016 0e3c 5555 ec3d
00000060: 441e 2dbd 2414 c3bd 3625 0ebc a143 453d
00000070: 92c0 58bd b757 af3d 350a 3ebd 01fc 6e3d
00000080: 144d a8bc 1ba6 a4bc 0970 b53d 17b5 763d
00000090: 02fb 2ebd 4513 afbd b35b 80bd 3c4e 7fbd
000000a0: 5a73 083d af6d b73a 4468 6bbd d5bd 363b
000000b0: 89a3 a73d 48f0 4b3d 1a29 08bd c8a7 e9bd
000000c0: 8537 81bd b45d 4ebd f882 923d 83f3 a4bc
000000d0: 7ccc a53c caa1 57bd 5199 843d 0d3e 0fbd
000000e0: adb3 2a3d 029c ed3c 0b26 af3d 0691 ea3a
000000f0: 6706 13bd 71e1 a33d 5ac7 103d 2dbb 083d
00000100: eeab 9b3d 9497 95bc af90 c9bd ce08 1fbd
00000110: 9591 97bd e46f 86bd f05c 63bd 10ee c13d
00000120: 25be 02bd fb93 ce3d 59d3 c33d 84dd 863c
00000130: 898b 4ebd 9118 d73d fdd8 083b d391 49bd
00000140: dc87 803d 58d7 9c3d bd9a a2bb fa4e dcbc
00000150: 3585 663d 28f7 5a3d 3ecf fd3d f745 193d
00000160: ba2b 1f3a 580b 02bd 7bf4 9dbc de32 f1bd
00000170: 3c87 d8bd 88f2 8c3c f637 493d c8df 5f3d
00000180: 5b1e 8d3d b963 2ebd 5c2e a83d ca4c acbd
00000190: 70a8 5fbd 6488 18bd b1ec 273c d2dd 3e3d
000001a0: de81 d9bb 8434 bfbd 1ebe db3b 5e7b 98bd
000001b0: 678b b5bd ba9d c1bd e496 d4bd 8670 1bbc
000001c0: 298d 783c 7877 f2bc 9bc5 b53d d703 3b3d
000001d0: e7e9 e33c 0d2b 063d fe1a c8bd fd8f c3bc
000001e0: 93c5 553d b9dd 9bbd f406 a3bd 138f 65bd
000001f0: 0bd3 20bd b451 ba3d 1eeb b23d ad81 31bd
00000200: 2106 4ebd e144 613d dca3 b4bc 35c4 19bb
00000210: 4038 adbd abc5 103d c302 b4bd da49 c0bd
00000220: b394 07be 165d cc3d 847c cabb 4a09 02bd
00000230: e8fa b03b a338 cebc 04cf c33d a343 b6bd
00000240: fffb 4c3d 7266 873d bc26 293e b29c 313d
00000250: fcd3 d03d b3ff 64bd 3542 933d b967 95bd
00000260: e63f 1a3d 82de 813d 4074 bdbc ec46 c7bc
00000270: 235f 653d 3752 50bd 50fe 8dbc c6d0 d93d
00000280: 50e2 fabc e504 353d 4450 b03c 2f8f 67bd
00000290: aca6 cd3d b17b b13d 2f90 8e3d 377c ac3c
000002a0: 5aa8 8dbc e6e7 cfbd e9c4 923d a8f4 8f3d
000002b0: 0982 eabb 9b74 cd3d b8d7 823d 75a8 f6bc
000002c0: 7cc1 ae3d ace6 11bd ac7e a23d eb18 b03c
000002d0: 8637 86bc 58c1 cbbb 92eb 743b 0012 9fbd
000002e0: 88a4 b7bd 20b1 d53d d5b4 a73d cd1f d3bd
000002f0: 7b41 4b3d 0d89 a63d edbf c13d 356c ac3d
00000300: b075 acbb 5bed 0abd 140d 59bc 5158 a63c
00000310: 4e05 543d 1bf8 6f3d 1d47 5cbc 9597 623d
00000320: 4c73 efbc 1544 b33d 769b a6bc 374c d7bc
00000330: 2524 c33c e531 31bd 828f d7bc c072 7dbc
00000340: d8ad 043d 7350 b9bd caf2 b6bd 592a 2f3d
00000350: c41e 5a3c aa67 26bd e4c3 f53b 9679 373b
00000360: 419e 9fbc f4bc 1abe 39a3 aebc 2d50 b6bc
00000370: 87c1 9c3d 7dcd 8f3c d353 f33c dccf e9bd
00000380: a716 f1bb 93d2 47bd 519c a6bd 4c7f 49bc
00000390: 808a f8bb 7bd3 a4bc e981 aabd cf10 c7bc
000003a0: 0f98 283d 3584 6ebc ba00 9bbd 6711 9ebd
000003b0: a2d8 04bd 56c6 6cbc 2d80 6e3d 2f3e 1fbd
000003c0: 03fd 8fbd d6d9 afbc a667 6dbc 0342 8a3a
000003d0: 63c1 22bd 7e60 debc 0572 00be c1b0 703d
000003e0: 69c0 e5bc b9e8 b1bd 52ec 3b3c 946c 08bd
000003f0: aeda 933d bb09 dcbb 532f 94bd 6f51 a93d

net.8.bias f4 [100]
0.012250434 -0.010649251 0.09801171 -0.05691584 0.05737293 -0.113286845 -0.055109408 -0.12854224
-0.0015540998 0.09059356 0.06955338 0.099470206 -0.007988635 0.06403784 -0.11176712 -0.12423489
0.01102813 -0.05080698 -0.09675125 -0.12187319 0.030352488 0.031179711 0.0613327 0.04148832
-0.044696182 0.040577885 -0.07442 -0.0627653 -0.05768002 0.06941324 0.08560342 -0.09397407
-0.08133863 0.13039306 -0.036036022 0.122452736 -0.09173157 0.08890609 -0.09030866 -0.08200741
0.044560615 -0.025794312 0.007541714 -0.07896572 0.00958488 0.02964907 -0.099986434 -0.0319308
0.07310837 0.035123654 -0.107503824 0.06956248 -0.015464219 0.091701515 -0.116785355 -0.09513755
-0.07093168 0.000823018 0.006200172 -0.00057046884 -0.063496515 0.005142037 0.08067851 -0.11598055
-0.05433192 0.05113319 0.06836432 0.07238552 0.10639244 0.10151789 0.03491011 -0.0043098037
0.06788745 -0.10452861 -0.029784413 -0.053379323 -0.09463144 0.07268304 -0.047631666 0.04330846
0.02708474 0.068472646 -0.020598881 -0.0066047884 -0.104124375 -0.057404067 0.046018645 -0.0056493124
0.04554976 -0.059716962 0.020449493 0.0032915084 -0.0050260797 0.037019245 0.09334154 -0.040823758
0.07977098 -0.07245641 -0.09606906 -0.11120222
00000000: 0bb6 483c 327a 2ebc 5dba c83d 9520 69bd
00000010: e1ff 6a3d ef02 e8bd 67ba 61bd 94a0 03be
00000020: f0b2 cbba 1e89 b93d 0172 8e3d 09b7 cb3d
00000030: c4e2 02bc 4526 833d 29e6 e4bd dd6e febd
00000040: 54af 343c fb1a 50bd 8525 c6bd a798 f9bd
00000050: c8a5 f83c 986c ff3c ff37 7b3d a8ef 293d
00000060: 5813 37bd ff34 263d 8369 98bd 188b 80bd
00000070: e241 6cbd 8728 8e3d d950 af3d 7a75 c0bd
00000080: de94 a6bd c285 053e 829a 13bd 80c8 fa3d
00000090: c3dd bbbd 6514 b63d bff3 b8bd 80f3 a7bd
000000a0: 3185 363d 984e d3bc 7b20 f73b c8b8 a1bd
000000b0: e709 1d3c 9be2 f23c b0c5 ccbd dfc9 02bd
000000c0: d7b9 953d d2dd 0f3d f72a dcbd c676 8e3d
000000d0: a35d 7dbc 01ce bb3d 292d efbd 7ad7 c2bd
000000e0: a144 91bd cebf 573a d02a cb3b 848b 15ba
000000f0: 760a 82bd 887e a83b c63a a53d 3687 edbd
00000100: 268b 5ebd 0971 513d 9802 8c3d dc3e 943d
00000110: 48e4 d93d 9de8 cf3d e7fd 0e3d 4139 8dbb
00000120: 9308 8b3d 1913 d6bd 71fe f3bc 47a4 5abd
00000130: 21ce c1bd d8da 943d 6c19 43bd 3664 313d
00000140: d1e0 dd3c 633b 8c3d fcbe a8bc fb6c d8bb
00000150: 293f d5bd 8720 6bbd 0c7e 3c3d de1d b9bb
00000160: 6392 3a3d c699 74bd b285 a73c 59b6 573b
00000170: d0b1 a4bb 7ea1 173d d929 bf3d d036 27bd
00000180: f85e a33d 0764 94bd dbbf c4bd fdbd e3bd

net.10.weight f4 [100, 100]
0.030798957 0.02649837 0.017813602 -0.014121903 0.046518967 0.0039690956 0.018915832 -0.0005420648
-0.09612605 -0.0049976227 -0.014242474 0.00074076414 -0.09150989 -0.083129644 0.082154654 0.040974557
-0.008602713 0.021973148 -0.043127444 -0.06160102 -0.04436169 -0.0024881046 -0.10226891 -0.013356029
-0.057050288 -0.0052145757 -0.046112597 0.07716704 0.05279668 0.059532233 0.07718853 0.059426956
-0.060064007 -0.05281846 0.055275448 -0.06222425 -0.012991346 0.06601444 0.052428283 0.040884778
-0.001523912 0.03850609 -0.045660935 -0.0942535 -0.055691294 0.08218016 0.025927134 0.032342233
0.030425409 0.031801604 0.041841634 -0.017831942 0.057634313 -0.044242475 -0.073073626 -0.023796938
-0.08332954 -0.055656135 0.018536307 -0.084161185 -0.042902388 -0.08399976 -0.073254265 -0.0733526
0.0896101 -0.099741854 0.06464084 0.03398463 0.014849693 -0.054144155 -0.07288458 0.06645326
-0.029346494 0.0031318674 0.035381928 -0.009674415 0.06090789 0.08827478 -0.03819033 0.011938654
-0.04156344 -0.01959202 -0.066826716 0.075119264 0.030252138 0.051774513 -0.105217844 0.014770669
0.034654032 0.059348185 0.07310744 0.032757584 0.008517779 0.052517686 0.0836592 0.017879926
0.030647872 0.0020949394 0.06902642 0.054286398 -0.042374328 -0.08880524 -0.077469975 -0.076953284
-0.007129941 -0.0078927055 0.030509658 -0.091513716 0.04855948 -0.045743834 0.08113172 0.07576615
-0.082470804 -0.049948405 -0.09391186 0.021354478 0.06636997 -0.07518858 0.0004213825 0.024450453
-0.0711631 -0.06931949 -0.08160857 -0.049192477 -0.0046889633 -0.055467807 -0.058559667 -0.001778257
0.018794857 0.08050351 0.012918969 -0.090736285 0.028734185 0.008104488 -0.095750466 0.085592374
0.062663175 0.05416854 0.07906968 -0.008102773 0.07627589 -0.04913478 -0.013598864 -0.058472954
-0.037142 0.058601666 0.0003181696 0.08977623 -0.008977652 0.092599705 0.0016649514 -0.08364008
-0.07069795 -0.03455959 -0.06864486 0.07691426 0.019013433 -0.046081636 -0.065080896 0.014802718
0.08431216 -0.103124425 -0.06607139 0.06436957 -0.07056689 0.034048643 -0.024332741 -0.04846194
0.06870635 -0.093728445 -0.026653077 0.05293482 0.03557404 -0.032601412 0.0068340036 -0.0047771707
0.0775532 0.082059145 0.07280699 -0.081876785 0.0076318285 -0.010786562 -0.108323336 -0.0010352905
-0.04527799 -0.008342862 -0.056686085 -0.034130957 0.039479613 0.022397049 0.0413374 -0.0996423
0.06851252 0.05090814 -0.025886396 -0.08711224 -0.0070140543 -0.07064267 0.079003535 -0.0384845
0.06469445 0.019904448 0.074359566 0.07932167 0.031123776 -0.046334095 -0.07117975 0.002873358
0.020794285 -0.020504737 -0.07116332 -0.13863298 -0.018302698 0.06659122 -0.10911485 -0.07898438
-0.07240566 -0.06009145 0.0017035156 0.07817674 0.058408078 0.09860766 -0.014728079 0.017532486
-0.050293762 -0.04854648 -0.08403269 0.05001703 0.08622113 0.08420911 -0.048614174 -0.0992229
0.009164415 0.0064395824 0.027996935 0.071856596 -0.1510408 0.06895411 0.050198562 0.021969035
-0.06702676 -0.072332695 -0.02109918 -0.09719547 0.04730002 -0.08315769 -0.0105175 0.041742485
-0.020636717 0.018503943 0.019284265 0.09448722 0.06642275 0.08303584 0.06813998 -0.12766708
00000000: 184e fc3c 1c13 d93c d5ed 913c 8e5f 67bc
00000010: ac8a 3e3d 300f 823b 60f5 9a3c 5a19 0eba
00000020: bcdd c4bd 19c3 a3bb 4459 69bc d72f 423a
00000030: 8a69 bbbd e03f aabd b340 a83d f0d4 273d
00000040: 65f2 0cbc 0801 b43c 67a6 30bd 5a51 7cbd
00000050: 9ab4 35bd 780f 23bb 5d72 d1bd 3fd3 5abc
00000060: 90ad 69bd 08df aabb 90e0 3cbd c109 9e3d
00000070: 5541 583d 12d8 733d 0515 9e3d ae69 733d
00000080: ad05 76bd 2b58 58bd 8268 623d dbde 7ebd
00000090: a8d9 54bc 9432 873d 0abf 563d cc76 273d
000000a0: 00be c7ba 90b8 1d3d f606 3bbd fb07 c1bd
000000b0: 8e1c 64bd 124e a83d 2465 d43c 4a79 043d
000000c0: b53e f93c 6642 023d 2262 2b3d 4b14 92bc
000000d0: f511 6c3d 9937 35bd a0a7 95bd ccf1 c2bc
000000e0: aea8 aabd b0f7 63bd 74d9 973c b35c acbd
000000f0: 6aba 2fbd 1108 acbd 5506 96bd e339 96bd
00000100: 8085 b73d 7545 ccbd 6b62 843d 7833 0b3d
00000110: 204c 733c 43c6 5dbd 8344 95bd a618 883d
00000120: 0f68 f0bc 0440 4d3b a4ec 103d 7081 1ebc
00000130: 8d7a 793d 68c9 b43d 776d 1cbd 589a 433c
00000140: 6d3e 2abd 727f a0bc 72dc 88bd 21d8 993d
00000150: 55d3 f73c 8311 543d 747c d7bd ad00 723c
00000160: 63f1 0d3d 1517 733d 5ab9 953d d12c 063d
00000170: 288e 0b3c c91c 573d 8455 ab3d ec78 923c
00000180: 3f11 fb3c 404b 093b b95d 8d3d 6a5b 5e3d
00000190: b490 2dbd 86df b5bd 94a8 9ebd af99 9dbd
000001a0: 48a2 e9bb 6850 01bc 64ef f93c 8b6b bbbd
000001b0: 4ee6 463d e35d 3bbd 6328 a63d 492b 9b3d
000001c0: 74e6 a8bd b396 4cbd dc54 c0bd 96ef ae3c
000001d0: fbec 873d 78fc 99bd 00ed dc39 514c c83c
000001e0: f6bd 91bd 60f7 8dbd 6522 a7bd 0d7e 49bd
000001f0: e0a5 99bb 3632 63bd 43dc 6fbd 6714 e9ba
00000200: acf7 993c 06df a43d 15aa 533c f2d3 b9bd
00000210: f463 eb3c b0c8 043c d218 c4bd 0e4b af3d
00000220: 8d55 803d d5df 5d3d 49ef a13d 7ec1 04bc
00000230: 8936 9c3d 8d41 49bd c5cd 5ebc 5681 6fbd
00000240: 3622 18bd 4d08 703d 00d0 a639 9adc b73d
00000250: 0017 13bc eaa4 bd3d 803a da3a 7e4b abbd
00000260: 16ca 90bd 5b8e 0dbd ad95 8cbd 3985 9d3d
00000270: 0fc2 9b3c 19c0 3cbd 2249 85bd 1987 723c
00000280: dbab ac3d e632 d3bd 7050 87bd 31d4 833d
00000290: 6085 90bd 9776 0b3d 7555 c7bc 0780 46bd
000002a0: eab5 8c3d b3f4 bfbd 8e57 dabc 2fd2 583d
000002b0: 16b6 113d 0f89 05bd c7ef df3b d089 9cbb
000002c0: 36d4 9e3d a00e a83d d51b 953d 04af a7bd
000002d0: 6b14 fa3b 1fba 30bc a0d8 ddbd 96b2 87ba
000002e0: 6a75 39bd 80b0 08bc ab2f 68bd e7cc 0bbd
000002f0: 60b5 213d 047a b73c 6851 293d 4311 ccbd
00000300: 4b50 8c3d 0e85 503d b50f d4bc e767 b2bd
00000310: 27d6 e5bb 1bad 90bd 9bcc a13d eca1 1dbd
00000320: 867e 843d a70e a33c d449 983d 6673 a23d
00000330: 4af7 fe3c d2c8 3dbd b0c6 91bd f34e 3c3b
00000340: c758 aa3c 8df9 a7bc 13be 91bd cef5 0dbe
00000350: 8aef 95bc fa60 883d 9b77 dfbd 90c2 a1bd
00000360: 6b49 94bd 7422 76bd 8048 df3a 201b a03d
00000370: 4f3d 6f3d d0f2 c93d 0a4e 71bc 4aa0 8f3c
00000380: d500 4ebd acd8 46bd 5519 acbd a8de 4c3d
00000390: b494 b03d d375 ac3d a81f 47bd 6035 cbbd
000003a0: 5826 163c 2203 d33b d459 e53c 8d29 933d
000003b0: 71aa 1abe d037 8d3d 029d 4d3d 68f8 b33c
000003c0: 5345 89bd 2a23 94bd 30d8 acbc 6b0e c7bd
000003d0: aabd 413d 944e aabd 9851 2cbc 2bfa 2a3d
000003e0: 550e a9bc 9595 973c 09fa 9d3c 8482 c13d
000003f0: a708 883d b20e aa3d f98c 8b3d 29bb 02be
