models/heatalpha/relu/heatalpha_47.pth (torch, 977047 bytes, 51 tensors)

net.0.weight f4 [100, 3]
00000000: 0167 353d e99d ab3e 2bec e43e e3cf ef3e
00000010: e729 cc3e d49a f83e bb8c 81be 35d3 fb38
00000020: 343f 0d3f 2460 fdbe e80d b1be 1a4f 213f
00000030: 7dbd 7e3c 5e41 43be 7ade d2be 7f85 64be
00000040: 88e3 ab3e 4854 d23e b8cf 43be 34cf ac3d
00000050: 071d 05be 9012 f9be cdb9 723e 2441 e3be
00000060: 93b3 d03d 9b90 51b9 5807 82be 320f 30bd
00000070: e42e a23d 7791 a03d 36e4 ca3e 07a6 a1bd
00000080: 4c10 07bf f194 c13e e3be 8c3e 6b91 afbd
00000090: b36f f63a 3ac5 a53e 8a7e 923e f28a a63e
000000a0: 1c06 043f 42a9 a63e 187c 183e 4e4a c13e
000000b0: 2f80 c43e 63a5 953e 929c d73c 49c6 2e3d
000000c0: b471 83be 8a0f da3b d9a1 c93e 6b78 a43e
000000d0: 69c1 c13e 06d4 06bf a28d aabd c85c 253e
000000e0: 1bd8 313d 197c d53e db28 c63d b092 45be
000000f0: fef7 d5bd 0c86 e8be 8faf 77bd 66f3 993e
00000100: f34f 4abd a199 a2be 039a 37be 36ce a1b9
00000110: 58c6 063f 0891 c2be f618 a6bd 2433 be3e
00000120: f0d4 d8be 60da 18bd 527e 6abe 408d f93e
00000130: 9e4a d0bd d434 04bf 8bc4 8e3e affb 593d
00000140: 3892 143e 9c2c b9bd 3792 943e 9035 343e
00000150: f682 61bd 34be 85bc c944 7d3e 0def 013e
00000160: b412 cabb c32c c2be 8331 0b3f da22 4f3e
00000170: a406 f43d ce90 e0be 4b9e 2abe d10f 8e3d
00000180: f45c d13e ccde a23e 5d8b 433d 658f 2b3b
00000190: 6e87 483d 6e95 62be 1625 e5bd 22e0 2a39
000001a0: c244 8f3e 9b05 edbe 6291 9bbe 0b52 05bf
000001b0: e1ab 593e f976 bf39 3668 e0be 7a5b 0b3f
000001c0: 7f0a c5bd 8c7d 42be 79b4 513e 4d1b 80bb
000001d0: 4979 8cbd 5585 853e 7f4c c3bd 3fbe e2bd
000001e0: 0bfb 8ebe adf0 8cbe 3098 553e cab3 6d3b
000001f0: 4a2a 6d3e 3691 c83e c5ad a43e e294 96bb
00000200: d7a2 debe 3949 ee3d 7390 593e dc58 513e
00000210: a31c 363d 3f97 a13d b0fd 0cbe 3253 9a3e
00000220: ea06 64bc 0bae efbe 25a1 2b3e 2097 ea3c
00000230: 85c2 bbbe 72e5 e73d 7368 ff3d 6da7 e43e
00000240: 253b d63e e698 08be 8eac 103e e1b5 9cbe
00000250: 3df8 753d b324 11be 2336 ab3d fabd c2bd
00000260: 2486 003f 642d 423e d540 213c 70ff 1abe
00000270: 816f ea3e fc1e db3e 26ae f3be 6b87 a9be
00000280: 974c 0c3e 2095 1c3e ba1c fa3d 41cc fa3d
00000290: 3698 503e 57a3 cebe a035 5fbd 77f1 2e3e
000002a0: ba0e fc3d f48a 84bd 9074 6bbc 62b4 ddbd
000002b0: da79 00bd 69b1 973e 4082 01bd e9b7 593e
000002c0: 6cb8 06bd beca 9bbe 1ba9 c93d c164 013f
000002d0: 4e38 b33e b768 7abd 34c0 82bd a7ac 443e
000002e0: d647 c238 95f1 c5be fc3a d03e 37ba 843a
000002f0: cd03 debe 4bf5 89be d4d1 b2be c069 383d
00000300: 02a3 793c 712a cdbb b7b0 4e3c 1947 003e
00000310: 42b6 dd3e 6342 273d 67c9 95be f0f9 febe
00000320: 6044 623d 3742 fa3e 0fb8 0cbd 8da4 da3e
00000330: 5197 b6be a8a0 6abb 8d95 eb3e 4dcf 86be
00000340: 803f c4bd 043a 81be 8aab 123f f7af 8dbd
00000350: 315a a2be efaa 793e e614 e53d ae37 373c
00000360: b0c3 8c3e 803d 453b 359f b4be fcd7 aebe
00000370: 10b1 c43d d25e 863e 23fb b53e 292a a7bd
00000380: 78a8 68bd d754 f6be 2bb3 00bf 0f62 d6be
00000390: 2a04 2a3e 985e b53a fa87 c63e e650 9d3c
000003a0: 71cb 34bc 9b26 fb3e d6fa c0be 296e 023e
000003b0: 3bee a43e f6cc b43e f2c1 eabc 5efb 34be
000003c0: 1e17 98be b2db 293b a192 bb3e 8178 fcbe
000003d0: 824f a1be aa1c 01bf f71c c3be 5b30 e9be
000003e0: 451b e63e 5ac0 19be fb3d dfbe 1c0c 66be
000003f0: 82b5 b3be 052e ab3c 847a db3e 3428 2d3e
0.044287685 0.33518913 0.44711432 0.46838292 0.3987572 0.48555624 -0.2530268 0.00012007953
0.55174565 -0.49487412 -0.34580922 0.63011324 0.015548107 -0.19067904 -0.4118536 -0.2231655
0.3357203 0.41079926 -0.19122207 0.08437958 -0.12999354 -0.48646975 0.2370369 -0.44385636
0.10190501 -0.00019985663 -0.25396228 -0.04298324 0.079191 0.07840245 0.39627236 -0.07892995
-0.5275924 0.37808946 0.27489385 -0.08572658 0.00188016 0.32377034 0.28612167 0.32527882
0.5157182 0.32551008 0.14891088 0.37752002 0.38379046 0.29227743 0.026319776 0.04266957
-0.25672686 0.0066546844 0.39381292 0.32123122 0.37842873 -0.5266727 -0.083277956 0.16148674
0.043418985 0.41696241 0.09675761 -0.19294238 -0.104476914 -0.4541477 -0.06047016 0.3006851
-0.04939265 -0.31757835 -0.17929845 -0.00030861952 0.526464 -0.38001275 -0.0811023 0.37148392
-0.42349958 -0.037317634 -0.2289975 0.48740578 -0.10170482 -0.5164311 0.27884325 0.05321854
0.14508903 -0.09041712 0.29017803 0.17598557 -0.055056535 -0.016326047 0.2473327 0.12688847
-0.0061667804 -0.37924775 0.54372424 0.20228139 0.11915329 -0.43860477 -0.16661946 0.069366105
0.4089123 0.31810606 0.04774033 0.0026178 0.04895728 -0.22127315 -0.11188714 0.0001629596
0.27982146 -0.4629334 -0.30384356 -0.5207831 0.21256973 0.00036519 -0.43829507 0.5443646
-0.096211426 -0.18993205 0.20479001 -0.0039095045 -0.06859071 0.26078287 -0.09536075 -0.11071443
-0.27925906 -0.2752737 0.20858836 0.0036270493 0.23160663 0.39173287 0.32163826 -0.004595385
-0.43483612 0.1163506 0.21246509 0.20444053 0.044460904 0.07890176 -0.13768649 0.30141598
-0.013917664 -0.46812472 0.1676069 0.028636515 -0.36671844 0.1132306 0.12471094 0.44658986
0.41842 -0.13339576 0.14128324 -0.30607513 0.06005119 -0.14174156 0.08359935 -0.095088914
0.5020468 0.18962628 0.009842117 -0.15136504 0.45788196 0.42797077 -0.47593802 -0.33111128
0.13701092 0.15291262 0.122125104 0.122459896 0.20370564 -0.40358993 -0.0544945 0.17084299
0.12307496 -0.06471816 -0.014371052 -0.10825421 -0.031366207 0.2962754 -0.031618357 0.21261562
-0.032890722 -0.30428118 0.098467074 0.50544363 0.35003895 -0.06113502 -0.06384316 0.19206487
9.264021e-05 -0.38660875 0.40670002 0.0010126297 -0.43362275 -0.26944956 -0.3492571 0.045022726
0.015236618 -0.006261163 0.012615374 0.12527122 0.43303114 0.040834796 -0.2925522 -0.49800062
0.05524099 0.48878643 -0.03435522 0.42703667 -0.3566232 -0.0035801325 0.46012536 -0.26330033
-0.09582424 -0.25239575 0.57293 -0.06918328 -0.31709436 0.24381612 0.11185627 0.011182709
0.27493048 0.0030096471 -0.35277715 -0.34149158 0.096040845 0.26244217 0.35543165 -0.08162338
-0.05680129 -0.48111603 -0.5027339 -0.41871688 0.16603151 0.0013837395 0.38775617 0.019203614
-0.011034832 0.4905289 -0.37691373 0.12737335 0.32213005 0.35312623 -0.028656933 -0.17674014
-0.29705137 0.0025918302 0.36635306 -0.49310687 -0.31505972 -0.5043436 -0.38108036 -0.45544705
0.4494268 -0.15014783 -0.43601975 -0.22465557 -0.35099417 0.020895967 0.4286691 0.16909868

net.0.bias f4 [100]
00000000: b126 a3bb ce23 b33e b558 f93e c0a4 d83e
00000010: 0539 09be cab5 073f 4423 6dbe 8ceb 00bf
00000020: a4e4 0abf 0e2b 953e efad e63e 9744 ba3e
00000030: e5d9 fa3e ef12 1ebf fe86 16bf 243b b43e
00000040: 37d0 aa3e fe5d 38be 0b14 123f 49f6 853d
00000050: 388c c03e 1395 3bbe 715f a0bc a411 973c
00000060: ea33 0dbf 142a e43e 9f60 18bf 385b 243f
00000070: 733f 103f 2956 ebbd ecf5 333e 4d5b fe3e
00000080: 8262 393a 9f5f 9bbe 7878 183f 9e85 0e3f
00000090: d146 87be 6018 9cbd b558 043e 2f52 5fbd
000000a0: 4347 ddbe 7767 a3bc 9b88 23bf cc21 16bf
000000b0: 217d 493e 15a9 94be dccb 0b3f 767c bbbd
000000c0: 0170 743e da67 113f 4d32 1a3f 9395 95be
000000d0: aafb 17bf da53 a7be f874 f83d 42b1 d9bd
000000e0: fe4c 443e 9124 46be 55e7 953e 42cf 14bf
000000f0: 4147 c4be fd17 d9be fe9b 1dbf f485 8dbd
00000100: c5bc dd3a 13b7 0c3f 6c03 72be cb58 90be
00000110: 08b0 de3e d0a4 03bd 628a 10bf f99c 09bf
00000120: e523 adbe c882 20be c0a5 e5bd ddb6 94be
00000130: f4c0 19bf 2d4f 1a3a 0434 48be 1934 e5be
00000140: 550a bb3e 13b1 393e 41c4 603d 26ad 44be
00000150: beb1 db3e 775b 053f 6e4a 3d3c 2874 31be
00000160: aa03 7fbe 6da9 c03d 9cd8 4f3e 09a9 563d
00000170: bb92 153f 31f7 5dbe 8254 ee3e 57ab 87be
00000180: 2d11 16bf fd4b a5bd 9c3b 51be 4f6c edbd
-0.0049789776 0.34988254 0.4870049 0.42313194 -0.13400657 0.53011763 -0.23157984 -0.50359416
-0.5425513 0.2913441 0.45054576 0.36380455 0.48994365 -0.6174764 -0.5879973 0.3520137
0.3336198 -0.18004605 0.57061833 0.06541116 0.37606978 -0.18318586 -0.01957676 0.018441029
-0.5515734 0.44563353 -0.5952243 0.6420169 0.56346816 -0.11491043 0.1757428 0.49679032
0.0007071869 -0.3034639 0.5955882 0.55672634 -0.26421216 -0.07621837 0.12924464 -0.054521736
-0.4321843 -0.019946797 -0.6388032 -0.5864532 0.19676639 -0.2903525 0.5460794 -0.091545984
0.23870851 0.5679909 0.60233 -0.2921568 -0.59368384 -0.3268116 0.12131685 -0.10629512
0.19169995 -0.19349886 0.29278055 -0.5812875 -0.38335612 -0.42401114 -0.6156615 -0.06910315
0.001691722 0.5496685 -0.23634118 -0.28192744 0.43493676 -0.0321396 -0.56461155 -0.53755146
-0.33816448 -0.15674889 -0.11213255 -0.29045764 -0.6006005 0.0005886432 -0.19551092 -0.4476631
0.3653132 0.18133955 0.054874662 -0.19206676 0.42909044 0.5209269 0.01155339 -0.17329466
-0.24903741 0.094073154 0.20297474 0.0524073 0.5842702 -0.21676327 0.4654885 -0.2649791
-0.5861996 -0.08071134 -0.20432895 -0.11592924

net.2.weight f4 [100, 100]
00000000: b489 043d c31d 0bbd f35f 95bc 8009 30bd
00000010: 4579 57bb a040 ddbc 30d8 9a3c ca2d e1bc
00000020: e3b0 d93d a697 2bbd bb91 7c3d 6b61 ddbd
00000030: 571b c63c 4d4e 91bd 1870 d8bc cc1b 133d
00000040: 4848 19bd ca17 573c 080f c53c 7bba 8fbd
00000050: 828c 77bd 584e 39bc b902 a3bd ef06 80bd
00000060: d04f 3a3c 8c9b 37bd 16ac 1fbc 3093 b13b
00000070: ed78 79bd 91e3 7cbd 3cb8 933d b17e 5cbd
00000080: 34f0 cdbc 0b79 a0bc 59f2 503d db7f a1bd
00000090: 2062 e4bc 2983 e33c ddab 4c3c 8894 bdbc
000000a0: 9519 bc3d a568 71bd 5c64 4dbc f404 9d3d
000000b0: 66c5 c0bb f450 593d 0533 903d 46df 6f3d
000000c0: aead d83c c55f 343d 6236 bdbd 3136 833d
000000d0: 2b9b 0ebd bf32 073c 130e 9b3d b2e1 3fbc
000000e0: e532 ec3c b2c3 d33c 8f4e 2bbd 1e98 26bd
000000f0: 1955 a6bd 7114 953d 1209 bc3c 4159 913d
00000100: a39f ed3b f1b2 873d 6132 983d 99ba 233d
00000110: c555 e0bd a03f 493b c388 8bbc ada1 413d
00000120: ffad 7f3c f44d 9b3c ef57 dbbc e895 c5bc
00000130: fbfb 9dbd 0d02 473d b0b6 f83c aa3a b8bd
00000140: 8d68 8cbd 0637 2c3c 6e96 bebc 770e b3bd
00000150: 874b 81bd 9736 c93d 200a de3d 92e4 353d
00000160: 6c38 f0bc ce6a a5bd f8ab c3bc aa0f 993c
00000170: 5488 943d e498 fdbb 4373 31bb 9251 f03d
00000180: 65e2 053c 42b8 08bd 457e 62bd 01bc f13c
00000190: 9fca 8cbd b867 6fbd 6a58 403c 23f3 82bd
000001a0: cd59 983d f7aa 4a3c ce1b bbbc f08d 12bd
000001b0: 72fa 923d ac5c d9bd a10f 32bd 883c 9a3d
000001c0: f7dc d5bd c7da 733b b60c 9fbd 3f05 9a3d
000001d0: 535e a5bd 1ada b93d 1c40 ed3c ce70 2ebd
000001e0: c15a 963d 3a73 d7bd 37d5 db3b 2090 a23d
000001f0: 2b0c b8bd 4c2c bc39 4d93 413c 4c67 cdbd
00000200: a926 0d3d f9a1 21bc d580 1abd a077 2ebd
00000210: bb8e 923d 08eb 9cbc 5e2a c7bc e197 3b3d
00000220: c4eb e23c 1676 85b9 06ac b83d 37b2 8a3c
00000230: 271d 2cbd f465 b6bc 95b7 0ebd fd96 a0bc
00000240: 6f38 15bd 12ec 1d3d 16bb e33c 993b 91bc
00000250: f701 2dbd d221 813d f248 8d3d 18d7 013c
00000260: 0bd0 c43c b24a 6c3d d651 c9bd f12f 46bd
00000270: 7ba8 54bc 43dc d93c f294 ac3d 8987 613c
00000280: 7849 1b3d 2ba4 ef3c dbc9 623b aeed 863c
00000290: 2fb2 223c 3080 8b3d daa7 443d 3669 d73b
000002a0: c3ad b83d c347 af3d aec1 98bd 7004 da3b
000002b0: 5715 d2bd aadf f5bc b747 5f3b d9f6 af3d
000002c0: 8cb5 813d 2650 a2bc 62e8 063d a45f a43b
000002d0: b224 993c c54d 5ebd 6b75 4d3c cc72 a63c
000002e0: 27bb babb b6b7 bebd 231f 973d d00d 20bc
000002f0: 38d3 ebbc c246 cc3c 173d 41bd 2873 0dbd
00000300: e80f 8ebd 558a 4dbb fbb1 853d 6e64 99bc
00000310: c8ad ee3c 31c3 74bc ed1d c3bc c72d c73d
00000320: 5943 bd3d 3393 96bc ab6e aa3d 76db db3d
00000330: da92 9fbc 80cb 733c f7ee df3c d1c7 153d
00000340: 971b 4dbc 6638 15bd 8144 1cbd f575 25bd
00000350: 3131 16bd e2fc 773d 7945 3e3d cf3c febb
00000360: aa08 243d f40f 8dbd 081c 8bbd 66a8 c73b
00000370: 12b0 583d ecd5 6e3d a43e 2ebc 936f a53d
00000380: db3b a73d b268 25bd 533a d73d cc1b 8b3b
00000390: 16ee f43c c59a bc3c 1c5e 42bd 1f37 da3d
000003a0: 0014 9dbd d364 68bc 73cd 563c 4753 9f3d
000003b0: d415 cd3c ea41 aa3d b160 0bbb 646a a8bc
000003c0: 5d92 b53d 48f1 1fbd ed5b 9f3d 1c92 093e
000003d0: cb11 ddbd 8b93 83bd 681e 7f3d 723d 0bbc
000003e0: 7e91 b93d f3c3 893c 63a5 493b ae13 e7bc
000003f0: 7b09 8eb9 f669 cc3d 4e57 7cbd 608d 823d
0.032357886 -0.03396393 -0.018234229 -0.04297781 -0.0032878679 -0.027008355 0.018901914 -0.027487654
0.106294416 -0.04189267 0.061662417 -0.10809597 0.024182959 -0.07095013 -0.026420638 0.03591518
-0.03742245 0.01312823 0.024055019 -0.0701799 -0.060436733 -0.0113101825 -0.07959504 -0.062513225
0.011371568 -0.044826075 -0.009745618 0.0054191574 -0.06090634 -0.06174046 0.07212874 -0.05383176
-0.025138952 -0.019588968 0.05101237 -0.078857146 -0.02787882 0.027772503 0.012492147 -0.023142114
0.09184567 -0.058937687 -0.012536135 0.0766696 -0.0058829067 0.05305572 0.07040981 0.05856254
0.026450004 0.044036645 -0.09238888 0.064068206 -0.03481595 0.008251845 0.07571044 -0.011711525
0.028832862 0.02585015 -0.041822966 -0.040672414 -0.081217 0.072792895 0.022953544 0.07097102
0.007251696 0.06625927 0.07431484 0.039972875 -0.10953859 0.003070809 -0.017032987 0.047273327
0.015605449 0.01895807 -0.026775328 -0.024119332 -0.07714077 0.04858594 0.03036055 -0.08995564
-0.06855879 0.0105111655 -0.02326509 -0.08742993 -0.06313234 0.09824865 0.10841775 0.044407435
-0.029323779 -0.08077012 -0.023885712 0.018684227 0.07252565 -0.0077391732 -0.0027076758 0.11734308
0.008171652 -0.033378847 -0.0552962 0.029508593 -0.068745844 -0.058448523 0.01173983 -0.06394031
0.07439003 0.012369863 -0.022840407 -0.035779893 0.07176675 -0.10613379 -0.043471936 0.07531077
-0.10442536 0.003720926 -0.07766096 0.07520532 -0.080746315 0.09074803 0.028961234 -0.042588048
0.07341529 -0.105200246 0.006708767 0.07937646 -0.08986696 0.00035891158 0.011814904 -0.10029468
0.034460697 -0.009865277 -0.03772052 -0.042594552 0.0715613 -0.01915504 -0.024312194 0.04579914
0.027700312 -0.00025455718 0.09017186 0.016930683 -0.04201999 -0.022265412 -0.034843046 -0.019603247
-0.036430772 0.038555212 0.02779917 -0.017728614 -0.042238202 0.06305279 0.06898679 0.0079248175
0.024024984 0.057688423 -0.09830062 -0.048385564 -0.012979622 0.026594287 0.084268466 0.013765224
0.037911862 0.029253086 0.0034605179 0.016470756 0.009930178 0.06811559 0.04801164 0.0065738214
0.090175174 0.08558609 -0.074588165 0.006653361 -0.102579765 -0.030013878 0.0034069845 0.08592004
0.063334554 -0.019813608 0.03293646 0.005016284 0.018694256 -0.054273386 0.012540202 0.020318411
-0.00569858 -0.09312384 0.07378986 -0.009768918 -0.02878724 0.024936084 -0.0471774 -0.03453365
-0.069366276 -0.003136297 0.06528088 -0.018724646 0.0291356 -0.014939115 -0.02381798 0.09725528
0.09241361 -0.018380737 0.083218895 0.10735218 -0.019479204 0.014880061 0.027335627 0.036567513
-0.012518785 -0.03643074 -0.038151268 -0.040395696 -0.036668006 0.060543902 0.046452973 -0.007758714
0.040047325 -0.068878084 -0.06792456 0.0060930727 0.05290229 0.05830948 -0.010635052 0.08077922
0.081657134 -0.04038305 0.10509171 0.004245257 0.029898684 0.023023019 -0.04745303 0.10655045
-0.0766983 -0.014184195 0.013110506 0.07779556 0.025034823 0.08313353 -0.002126735 -0.020558544
0.08865807 -0.039048463 0.07781205 0.13434643 -0.10794409 -0.06424626 0.062284857 -0.008498536
0.090609536 0.016817069 0.0030768744 -0.028207626 -0.00027091414 0.09981148 -0.061606698 0.063746214

net.2.bias f4 [100]
00000000: f47d 733d b14f 8abd c6c7 27bd 9134 efbc
00000010: f5bc 2bbd e522 cf3d 880a d73c 0bc4 f03c
00000020: 3250 1fbc 04a4 893d d53f 863d 8d61 063c
00000030: 9a90 7dbd 5034 78bc dc53 5f3d e225 583d
00000040: 333e bc39 ac6a 90bd 3968 e2bd 50d8 6b3c
00000050: aa78 ebbd f5cc af3d 247d 15bd cd33 1e3d
00000060: d62c 393c 5e9e b33d a75e e23d e1cc c63d
00000070: 7afc 823d 0f48 25bd 6e85 183d ceb7 bd3d
00000080: 43d0 c83d b2d3 3ebd 6691 1cbc ac0c ed3c
00000090: 950b 913d 55a2 123d f206 8bbd 67fa 05be
000000a0: 4fe8 91bd 5ddb 52bd a387 a43d 3d49 d93d
000000b0: 4bbf fbbd b8a6 293e acbe 853d a58b c3bd
000000c0: 566a 16bd b8b8 c9bc 5468 133e e379 d3bd
000000d0: e0a7 843d c672 95bc 5296 bcbd abdf e0bd
000000e0: 045b 0e3d 527b 9bbb 425c 98bd 9722 953c
000000f0: 81b0 ca3c abf7 553d 720b e73d 958f 12bd
00000100: 9237 bdbd 938b 3b3d aa6e 1e3d 11f7 9fbd
00000110: b4ca dcbd 1dc8 983c baa7 503d f259 c6bd
00000120: d37a 3cbc 81c9 373e c0ba 963c f2bd 06bd
00000130: e3e9 ad3d 4c15 cbbc 4136 b43d 1b6c 0f3e
00000140: 2de6 223d 0164 a3bd c6d7 e4bc 26dc 8f3c
00000150: 1a00 043c 5b11 b1bd 131b adbd d261 933d
00000160: d361 5e3c 7013 56bc 13dc 8d3d 95d1 193e
00000170: ec3f 853b f7ff 4f3d 3abe 633d 12ca 8abd
00000180: f860 a13c c1a5 5ebd 05ad f73c 4b3f 99ba
0.05944629 -0.06753481 -0.040962003 -0.02919987 -0.04192825 0.101140775 0.026250139 0.029390356
-0.00972371 0.067207366 0.06555144 0.008201969 -0.06190548 -0.015149191 0.054523334 0.052770503
0.00035904496 -0.07051596 -0.11055035 0.014394835 -0.11497624 0.08584014 -0.036496297 0.03862362
0.011302194 0.087704405 0.1105321 0.09707046 0.06395812 -0.040351924 0.037236623 0.092635736
0.09805348 -0.046588607 -0.00955615 0.028936706 0.07082287 0.035799343 -0.06788434 -0.13083802
-0.071243875 -0.051478732 0.08033683 0.10609672 -0.122923456 0.16567504 0.065305084 -0.095481195
-0.036722504 -0.024624214 0.14395267 -0.103259824 0.06477332 -0.018243205 -0.09208359 -0.10980161
0.034754768 -0.0047449255 -0.07439472 0.01820497 0.024742367 0.052238148 0.1128148 -0.03578146
-0.09239115 0.045787405 0.038679756 -0.07810796 -0.1078085 0.018650109 0.050941207 -0.096851245
-0.011503893 0.17947961 0.018399596 -0.03289599 0.08491876 -0.024790429 0.087994106 0.14006083
0.039770294 -0.079780586 -0.02793492 0.01756103 0.008056665 -0.086458884 -0.084524296 0.07196392
0.013573128 -0.013066158 0.069267415 0.15021355 0.004066458 0.050781216 0.055601336 -0.06776823
0.019699559 -0.054357294 0.03023387 -0.0011691836

net.4.weight f4 [100, 100]
00000000: 6d97 60bb e5e0 6ebd 7dd3 02bd c9cf 76bd
00000010: 2978 a0bb 1607 f83c c499 e93d 0671 d73b
00000020: 5afc 43bd 1605 a839 6c8f 95bb d728 873d
00000030: 72a1 c4bd da9f 2fbd 07ea 5dbd 0d7c 3ebd
00000040: a1bf e6bc 271e d83d 785d 2ebd 4654 623d
00000050: b7d4 5dbd 82e0 94bc 5888 5b3c 134b b13d
00000060: 9f10 143c 67a6 0d3d 607f 8d3d cba7 cebc
00000070: b1ed 44bc 3833 d93d c84a bebc 78a4 de3c
00000080: eebb 953d 6027 21bd 7a3d 923d c8af ac3d
00000090: 5962 893d d276 8b3d 61f1 d73d 5d94 903b
000000a0: e813 92bb 20e1 f1bb 1e83 a43d fa89 803d
000000b0: 7f8e 78bd 22b4 01be 2a59 56bd e726 cbbd
000000c0: fae8 b2ba 981e f6bc 765e 1f3c fb27 55ba
000000d0: 910c edbb 4028 ad3d 57f2 b9bd 828c 183c
000000e0: 137d d53d 01a1 173b 660d 8d3c 012f a83d
000000f0: 08fd 9a3c c21a 9e3d fd94 d2bd 9b4c 5d3d
00000100: 39f2 1c3d 78e2 973c 79b9 2c3d 5824 51bd
00000110: 0c64 a7bd e365 3fbd 6224 84bd c6ae 993c
00000120: 4c1b ae3d 674d edbd 3d57 02bb e63c 103c
00000130: 2198 353c 1899 7abc ebc1 0dbd 0b37 8f3b
00000140: a73c 0ebe e5ab 8d3d d331 5fbd d58a 5cbd
00000150: 9f1f 81bd de32 8bbc f786 413d 0284 743d
00000160: 7b4d 55bd f1e7 c13d d32f 82bd 2b64 e5bd
00000170: 1e33 64bd c28d 31bd ab15 b9bd 404b 19bd
00000180: fa20 8bbd a8a7 ab3d b004 d43d 28cf 833d
00000190: 6c81 a43d d209 8f3d 4b69 c93c ba49 5c3d
000001a0: 3e99 603d 2a39 143d b446 33bc e53d ba3d
000001b0: 54e1 b03d 3ebc a03d 420a 93ba 74bb 3dbd
000001c0: daf0 793d 8a63 5fbd 1e09 49bd 4576 a5bd
000001d0: e802 f2bb 9bd2 38bd c79a 50bd 4730 6abd
000001e0: 3401 56bd f191 4a3d b21b b8bd 6f52 d93c
000001f0: 701e a73d ed25 99bd 4b6a f63c 987c b4bc
00000200: 05a8 8dbd 1023 b5bd 50ff 2cbc 8927 3e3d
00000210: a231 cbbd 3b65 97bd f4d7 afbd a04f babd
00000220: 257c f5bc 9963 4cbd 79db af3c 9378 4f3d
00000230: 72a4 7e3d f061 70bc 8fbe 12bd 0afe f43c
00000240: 918a d53d 86ce f3bd e419 65bc 803b afbb
00000250: 731b 8f3d 5195 a33d e404 b1bd 8076 aa3c
00000260: 288f 77bd 538a 803d 8bbe 9a3d a628 12bd
00000270: 0c4e 563d 8d68 e4ba 0d10 d03c 6fe8 b13d
00000280: 2faf 6c3c 045a 613d 0881 c2bd ea77 5f3d
00000290: ad96 38bd 9ced f9bd 28d3 58bd 540e 17bd
000002a0: 4906 b93d 6bdb 773d 34f0 2ebd e0d8 683d
000002b0: 95c9 393d 00ba 14be 169b 82bc a13a 99bc
000002c0: b7bb f63c 4db3 51bd 0fb0 933d 5aaf 04bb
000002d0: 9b6c 08be 6def ec3b b052 c43d 8b59 243c
000002e0: 3132 8fbd c7a8 5abc a2d0 d43d 076a 0c3d
000002f0: 1795 d0bd e364 93bd 2a84 91bd f644 cd3c
00000300: 49a0 03bd 261a af3d 88d2 c0bd e0c6 9cbb
00000310: 2369 c83d 2219 aa3d 6246 0cbc 276f a0bc
00000320: 008c 883a 6958 993d 38aa b3bd 4553 83bd
00000330: e0d2 f63b 3938 b83d 7aae 97bd fd7b c43d
00000340: 5738 39bd b636 81bd 8c3b 88bd 9db2 2bbd
00000350: ac62 babc a292 2b3d a48c d13c 3d63 8dbd
00000360: 14d9 9fbc 6a7d ccbd 5045 fd3b 79bb a63d
00000370: accc a7bc cdc5 3bbd 8066 9a3a 13e9 39bd
00000380: 2007 9b3b e2e1 763d c0bc 083c 03c4 8dbd
00000390: 5a95 253d f3d4 853d 4804 adbd ad98 47bd
000003a0: 985f 83bc bd0e 993d b0bd f73b 5066 36bc
000003b0: 2da4 b7bd 0e34 0f3d 70cc 3ebd 9d76 9abd
000003c0: 2514 bcbd 6329 953d 58a6 06bc 0be4 93bd
000003d0: b54c a53d 9c5d 83bd 7c9e 85bd 58bd 8fbc
000003e0: 9867 a3bc 288e 7e3c 77b4 c73d a769 913d
000003f0: cc25 06bd 7814 adbd ecce 9f3c 00f5 08bd
-0.0034269944 -0.058319945 -0.031939972 -0.060256753 -0.0048971367 0.030276816 0.114062816 0.0065747527
-0.047848083 0.00032047246 -0.0045642164 0.065995865 -0.09601106 -0.042877056 -0.054178264 -0.046505023
-0.028167548 0.10552626 -0.042569607 0.05525615 -0.05415794 -0.01817346 0.013399206 0.086568974
0.009037166 0.03458252 0.069090605 -0.025226494 -0.012019561 0.10605472 -0.023229018 0.027178034
0.07311235 -0.03934419 0.07140632 0.08431965 0.067082115 0.068097726 0.10544086 0.0044122175
-0.0044579394 -0.0073815733 0.08032821 0.06276317 -0.06068277 -0.12666371 -0.052331127 -0.099195294
-0.0013649755 -0.030043885 0.009727111 -0.0008131263 -0.007234164 0.08454943 -0.09079426 0.009310843
0.10424247 0.0023136737 0.017218303 0.0821209 0.018919483 0.077199474 -0.102823235 0.054028135
0.03831694 0.018540606 0.042169068 -0.05106005 -0.08173379 -0.046728026 -0.06452252 0.018760096
0.085013 -0.11587029 -0.0019888424 0.008803582 0.011083634 -0.015295289 -0.034608763 0.0043705753
-0.13890325 0.06917552 -0.054490875 -0.053843338 -0.06304859 -0.016992029 0.047247853 0.059696205
-0.052075844 0.094680674 -0.06356778 -0.11200746 -0.05571281 -0.04334808 -0.09037336 -0.03742528
-0.06793399 0.08381587 0.103524566 0.06435996 0.08032498 0.06984295 0.02458634 0.05378125
0.054833643 0.03618733 -0.01094215 0.09093837 0.08636728 0.07848404 -0.0011218267 -0.046321347
0.06102071 -0.054538287 -0.04908096 -0.08079199 -0.0073856004 -0.045122724 -0.050928857 -0.057174947
-0.05224724 0.049455587 -0.089896575 0.026528565 0.08160102 -0.07477937 0.030079981 -0.022032067
-0.06916813 -0.08844578 -0.010558918 0.046424422 -0.09921576 -0.07392355 -0.08586112 -0.090972185
-0.029966423 -0.04989967 0.021466957 0.050652098 0.062168546 -0.014671788 -0.035826262 0.029906292
0.1042682 -0.119046256 -0.013983224 -0.005347669 0.069876574 0.07987464 -0.08643511 0.020808458
-0.06043926 0.06276383 0.075558744 -0.035683297 0.052320525 -0.0017426178 0.025398279 0.08686911
0.014446064 0.055017486 -0.09497267 0.05455772 -0.04506557 -0.122035235 -0.05293575 -0.0368789
0.09034402 0.060511988 -0.042709544 0.056847453 0.04535826 -0.14524078 -0.015943091 -0.018704714
0.030118806 -0.051196385 0.07211315 -0.002024612 -0.1332268 0.00723069 0.09586084 0.010031114
-0.06991995 -0.013345904 0.10391356 0.034280803 -0.10184687 -0.07196977 -0.071052864 0.025057297
-0.03213528 0.08549909 -0.09415156 -0.00478445 0.09785678 0.08305575 -0.008561702 -0.019584252
0.00104177 0.07487566 -0.08772701 -0.06412367 0.0075324625 0.089950986 -0.07406326 0.095939614
-0.045219745 -0.063092634 -0.06651983 -0.041918386 -0.022752129 0.041887887 0.025579758 -0.06903694
-0.01951269 -0.09984858 0.00772921 0.08141226 -0.020483337 -0.045842934 0.0011779815 -0.045388293
0.004731074 0.060274012 0.008345783 -0.06922152 0.040425636 0.065347575 -0.08448082 -0.048729587
-0.016036794 0.07473514 0.0075604543 -0.011132792 -0.08966861 0.034961753 -0.046581686 -0.07542155
-0.0918353 0.072832845 -0.00821837 -0.0722123 0.08071271 -0.06414339 -0.06524369 -0.01754634
-0.019946858 0.015536822 0.09751218 0.0710023 -0.03275089 -0.0845117 0.019507848 -0.033436775

net.4.bias f4 [100]
00000000: e50e 9dbc 0d0d 19be bdf9 44bd 45bf c03c
00000010: 3580 813d ef3b cabd fd0b f5bb 3504 c93c
00000020: 6360 073e c0d4 27bd 33b5 23bd b29d 673d
00000030: e3a7 983d 2dc3 cbbd b17a 3ebd 5b66 52bd
00000040: 536b a6bd d26d 13be b936 933d 14af 05be
00000050: e422 60bd a970 0a3e 057d f43d 2409 56bd
00000060: 14fd f83b d357 e03d 9f9e 553b c3ff b73d
00000070: 808b 9a3d f146 b1bd 3558 83bc 7ae9 6f3c
00000080: c8a4 7bbd 815e 4cbd c0de 30bd 5328 083c
00000090: 28f3 233d e081 bb3d 7096 bfbd 9a46 593d
000000a0: e076 8e3d a6d2 5ebd b93f 29bd abfd a5bd
000000b0: bfab eebc c3fb 87bd 23c0 053e 3ce3 1a3d
000000c0: 0cc5 9e3d f244 0fbe 5129 02be 1642 ebbc
000000d0: fa69 64bc 2e0f 5f3d 35d8 4f3d c8ca f1bc
000000e0: 9479 f83c 9932 ebbb 203c 093d 5913 f83d
000000f0: 8f1a 15be cea3 10be 15a8 88bd bed2 b23d
00000100: 326e 3b3d 129e 0a3c fb6c 1c3d 4151 ea3d
00000110: 1a06 21bd 8e28 a2bd 7ec6 b7bd d9ca 3fbc
00000120: 1885 b9bd 39ee e2bd dd7e a03d 379f 74bd
00000130: d850 013e 1d15 9cbd 5f97 d6bd e196 4c3d
00000140: 0361 bcbd 8ff1 51bb 99c3 5838 b35f 41bc
00000150: 79c3 e0bd c910 143c 5dc0 5fbd 15f1 bd3d
00000160: f156 0c3e f7ad f23d 935f 2bbc 097a afbd
00000170: a919 ecbd 7234 823d 5fe1 14be 2084 01bc
00000180: a47d d03c 032d be3d 749d d4bd 4297 8abd
-0.019172141 -0.14946385 -0.04808973 0.023528704 0.06323282 -0.09874713 -0.0074782358 0.024538139
0.13220362 -0.04097438 -0.039967727 0.056546874 0.07453897 -0.09949336 -0.046503726 -0.051367145
-0.08125939 -0.14397362 0.07188172 -0.13055068 -0.054720774 0.13519539 0.11937908 -0.05225481
0.0075985286 0.10954251 0.0032595766 0.089843296 0.07546139 -0.08656109 -0.016033271 0.0146430675
-0.061436445 -0.049894813 -0.04318118 0.008310395 0.040026814 0.09155631 -0.093548656 0.053045847
0.06956267 -0.05440011 -0.041320536 -0.08105024 -0.02913463 -0.066398166 0.13061576 0.037814364
0.077524275 -0.13991144 -0.12711073 -0.028718036 -0.013941282 0.054457836 0.0507433 -0.029515639
0.03033141 -0.0071776626 0.033504605 0.12113065 -0.14560913 -0.14124987 -0.06672684 0.08731602
0.045759387 0.008460538 0.03818987 0.11441279 -0.03931246 -0.079178914 -0.08973406 -0.0117060775
-0.09058589 -0.110805936 0.07836697 -0.05972215 0.12628496 -0.076212145 -0.104780905 0.049948577
-0.09198191 -0.003203485 5.1680578e-05 -0.011802602 -0.109747835 0.009037205 -0.05462681 0.092744984
0.1370504 0.118495874 -0.010459798 -0.08568198 -0.11528332 0.063576594 -0.14539097 -0.007905036
0.025450535 0.09285929 -0.10381594 -0.067671314

net.6.weight f4 [100, 100]
00000000: 5655 1c3d 34ac 2a3d c77d 49bd 6bd9 b63b
00000010: 3b07 67bd 9e0c 8d3d 3b2a f03d 90dc 01bd
00000020: 70fc 7a3d 7681 a53d 8a7a 543d b96e 883d
00000030: 38c6 0b3d ac8f c93d 7a00 b9bc 9f8e fdbb
00000040: a9a2 3d3d 17a8 1e3d 5472 94bd 3d15 bd3d
00000050: 8f3d c83d 68f2 d7bd bbd8 a33d a5ce b0bd
00000060: ff8e a03d 0b63 ecbb bb05 983d 4521 c73d
00000070: 7c8a 6e3d f152 d73c 4ce8 013c 78dd 403d
00000080: 8795 8fbd e473 84bd 308b 3b3d 65b6 adbd
00000090: 1705 273c 3d69 013e afbc 2c3d 70c2 9f3d
000000a0: b8c0 5b3d 404c ab3d 5778 7c3c 507d b2bb
000000b0: 6e7d 6c3d 9850 043c e4e6 1b3d 1e82 9b3d
000000c0: 4aee 893d 5eee 27be 4dba e13d dd46 293c
000000d0: d028 8dbc 534e c3bd 274e 4abd ffc8 933d
000000e0: 36ca 753d 4bcb 8a3c 9c12 cf3d 92f5 de3d
000000f0: 6eb1 aa3d b9fd d83d 897b 193d 51ae 893d
00000100: 07f6 003e d062 cd3d eb36 e339 515f afbd
00000110: 4ee2 6b3d 6ad8 6f3d 3bb1 a5bd 29b9 b5bd
00000120: aad6 d63d 5532 b03d 6bb4 0d3d 7f20 f5ba
00000130: 2460 aebb cbe6 d4ba 7a75 c9bd 6803 24bd
00000140: 0fbf 26bd f3b7 903d fb50 d5bc 1141 603d
00000150: e999 64bd 6941 3cbd 8ede 0a3c babd dabc
00000160: 27cd 2b3d 7733 57bd 201b 703c f2ac 3cbd
00000170: 0d5d ad3d 25a3 9b3d 3136 10be c851 f1bb
00000180: 6591 913d bae3 83bd 8553 19bd 348c 5b3d
00000190: 8146 b8bd 6ab3 24bd 90c1 613c 5dd3 933d
000001a0: 5839 b9bc 6c6e bf3c 1565 cebd 5752 8bbd
000001b0: 2e2d 93bd a180 94bd f270 323d cd9a afbd
000001c0: 57ea 943d b315 243d b4cf cc3c f4e7 38bb
000001d0: 10d1 91bd 3c2d 9b3d 8447 fbbc d94c d73a
000001e0: 5f34 95bd e53b 90bd 1b09 50bd ec97 14bd
000001f0: 2494 9ebd c7dc 03bd 1a90 913d 97e9 b13d
00000200: d839 0ebd 4d50 b5bd 88cd c6bc bae7 c9bd
00000210: d372 0fbd 9291 843d 2428 ec3c 2e0b 80bd
00000220: 4b65 683d d97b 2d3b efc7 bc3b 69c2 2bbb
00000230: 6b3c 00bd c8f0 4cbd 7fd5 c5bd 16e7 83bd
00000240: 333d 4abd 267a e0bc 4e9c b93d 2082 1e3d
00000250: e9b3 ac3d d8bf 46bc 3c77 b23c 8dc4 79bd
00000260: 506e 24bc e3c0 c9bd 6826 673c ec02 823d
00000270: dc22 d4bd 1313 59bd 6e6d 8e3d e0a3 b2ba
00000280: 6cbe c03c bda0 ad3c d834 4f3d 8159 143d
00000290: 791a bd3d 8e64 d9bb 2ae1 1b3c c60f bc3d
000002a0: 0522 ae3d 3303 8dbd 3b26 173d b73a 803d
000002b0: 4d22 dabd 6cb8 463d e853 7f3d 00f4 1839
000002c0: 34bf 723b ce74 8ebc b15e 4e3c a6d2 81bd
000002d0: d8d9 533d 6c11 1ebd e3bb d5bc f291 82bd
000002e0: 1417 a23d f4ff e6bc 70d2 6c3c 4dd5 a73d
000002f0: fd3c 30bd 8145 35bd 4424 673d 04e0 97bc
00000300: b586 acbd cc18 8bbd 9658 bb3d 790b 3abd
00000310: 85f7 8b3d 472f 04bd d269 bd3d f759 aebc
00000320: 69a0 823d cf8b afbd eef0 3c3d 8449 84bd
00000330: 341a 5cbd 72e9 cb3b c1a1 0bbd ba7d 853d
00000340: 20b7 75bd 5c56 b0bc 3041 7bbd 3cca b7bc
00000350: 70c5 74bd 4e1b cdbd b5eb b6bd d279 24bd
00000360: 3d18 913b 864e c1bd 03ca dbbd 1fb0 95bd
00000370: 453d 643d 4246 84bd 9477 983c 27a3 283d
00000380: 563a b93c 5f40 ac3d ff3b 44bd 3ef5 3ebd
00000390: 3746 d2bd 8a0c 8fbd 2ba7 943d a92a a4bd
000003a0: c031 6dbd 9407 00be 020e 923c 9525 5d3d
000003b0: 160f 90bd 4029 03be c2be 66bd 5fcd 343d
000003c0: 5e3c 103d 65c1 973d 19af f0bc 109e 1abd
000003d0: 908b c63c e391 23bd c86f fa3b 7b76 f3bb
000003e0: f055 b4bd dc72 313e 4faa 243d bdd4 7dbd
000003f0: f58c bcbb a48a afbd a507 61bd a285 813d
0.03816732 0.041668132 -0.049192216 0.0055801175 -0.05640338 0.06887172 0.11726805 -0.031704485
0.0612759 0.08081333 0.051874675 0.06661744 0.034124583 0.09841856 -0.022583235 -0.007737949
0.046297703 0.03873452 -0.07248369 0.092325665 0.09777366 -0.10544282 0.080003224 -0.08633164
0.07839774 -0.0072139553 0.07422968 0.097231425 0.058237538 0.026284667 0.007928919 0.04708621
-0.07010942 -0.06467417 0.045787036 -0.084820546 0.010194085 0.12637801 0.04217213 0.07800758
0.053650588 0.08364153 0.015409551 -0.0054470673 0.057736807 0.008075856 0.03806199 0.07593177
0.06734903 -0.16399524 0.11021862 0.0103318365 -0.017231375 -0.095364235 -0.049390938 0.07216071
0.060007297 0.01694264 0.10110971 0.108866826 0.08334623 0.10595269 0.037471328 0.06722701
0.12593852 0.100286126 0.0004333773 -0.08563102 0.057588868 0.058555998 -0.08090445 -0.08873207
0.10490163 0.0860335 0.034595888 -0.0018701701 -0.0053215194 -0.0016243098 -0.0983686 -0.04004231
-0.04070955 0.070663355 -0.026039591 0.054749552 -0.055810843 -0.045960817 0.008475913 -0.026701797
0.041943695 -0.052539315 0.014654905 -0.04606337 0.08465014 0.07599477 -0.14083172 -0.0073644854
0.0710781 -0.0643992 -0.037433166 0.053600505 -0.089978226 -0.040210165 0.013779059 0.07218049
-0.022610351 0.023368083 -0.100778736 -0.068028145 -0.07186352 -0.072510965 0.043564744 -0.08574448
0.07271259 0.040059756 0.025001384 -0.0028214427 -0.07119954 0.07576987 -0.03067375 0.0016426101
-0.072853796 -0.07042674 -0.050789934 -0.036277696 -0.07743099 -0.03219297 0.07107563 0.08687132
-0.034723133 -0.08853207 -0.024267927 -0.098586515 -0.035021614 0.06473078 0.028827734 -0.06252132
0.056737226 0.0026471524 0.0057611386 -0.0026208407 -0.03130762 -0.050034314 -0.09659862 -0.064405605
-0.04937477 -0.027401995 0.09063016 0.038698316 0.08432753 -0.0121307 0.021785371 -0.06097846
-0.010036066 -0.09851243 0.014108278 0.063482136 -0.103582114 -0.052996706 0.06954466 -0.0013629161
0.0235283 0.02119481 0.050587505 0.03621817 0.09233565 -0.0066343015 0.0095141325 0.09182696
0.085025825 -0.06885376 0.036901694 0.06261199 -0.106510736 0.048515722 0.06233588 0.00014586747
0.0037040235 -0.017389681 0.012595818 -0.06339006 0.051721424 -0.038590834 -0.026090568 -0.06375493
0.07914558 -0.02819822 0.014454469 0.08194981 -0.043026913 -0.044255737 0.05643107 -0.018539436
-0.08424131 -0.06791839 0.09147756 -0.045421097 0.0683432 -0.03227165 0.09248699 -0.021283133
0.06378252 -0.08571588 0.046128206 -0.064593345 -0.053735927 0.006222897 -0.034089807 0.06518121
-0.059989095 -0.021525554 -0.061341465 -0.0224353 -0.059758604 -0.100149736 -0.08931676 -0.04015524
0.0044279383 -0.09438805 -0.1073189 -0.07308983 0.055722494 -0.06458713 0.018611707 0.04117122
0.022610825 0.08410715 -0.04790878 -0.0466206 -0.10267299 -0.069848135 0.07258447 -0.08015949
-0.057908773 -0.12502891 0.017828945 0.05399092 -0.070341274 -0.12808704 -0.056334265 0.04414117
0.03521382 0.07409934 -0.029380368 -0.037748396 0.02423647 -0.03993405 0.00764272 -0.0074298955
-0.08805454 0.17328972 0.04020148 -0.06197046 -0.005754108 -0.085713655 -0.05493893 0.063243166

net.6.bias f4 [100]
00000000: 3e89 323c d3e0 07bd 6700 9a3d 2da2 6d3d
00000010: 7720 953d 0c3b e8bd 4364 9bbd 129f a6bd
00000020: 6906 c93c 987d 0cbb 262c 853d 0ff0 023e
00000030: 5f48 cf3d 62f2 873c b583 5ebd 332e da3d
00000040: e095 85bd 77c5 c53d f4c7 113e bfbc eb3c
00000050: be6f 0b3e 4b6d 033e b754 433c d4c7 1cbe
00000060: d689 f13d f9fc df3c 3c48 da3d 4383 6dbd
00000070: 8d7f fcbc b20b 8f3d ac7d 593d b07b 69bc
00000080: b0db 613d c82e 673d ed72 20bc 03ab c6bd
00000090: dc26 ac3d d8d3 483d a456 b5bd ca43 55bd
000000a0: b989 f03c 7b0d f33d 6ef1 0cbe 63cd 9abd
000000b0: 5b7f 90bd 70ca a9bd 3cbe 81bd 6788 503d
000000c0: efe5 a03d 81fe 45bd 9ebe 58bc c4f8 bdbc
000000d0: 5cd9 bcbd 93d6 c4bc 9f46 b4bd 435c e63d
000000e0: 56e3 a7bd 3452 dc3d cc35 21bc 1f79 123d
000000f0: 142b 8a3c ae63 283d 4222 d1bd 721b 113b
00000100: b8eb adbd 9c3a 7dbd 0dd2 abbd 2008 2e3c
00000110: 77b4 c9bd 3044 5c3d 2b10 103d b511 de3d
00000120: 33be 01be dd09 0e3d 6f71 c63c a0ce e8bb
00000130: cfc8 bebd 5d19 b83b 0ab8 11bd 2940 a4bd
00000140: b64f d5bd 09ee 123d 53ec f03d 9ee2 3dbd
00000150: ed3b 20bd d394 ce3d ce09 053d 7f6d 203c
00000160: deb6 49bd 64ba 053e 3886 c03d 1b03 0e3e
00000170: 2255 263d 940b 68bd 5cd8 cb3d eba3 81bc
00000180: bcbd 68bd 8ea6 13bd 164b e7bd 0d05 9f3d
0.010896979 -0.033173393 0.07519608 0.05801599 0.07281583 -0.11339387 -0.07587483 -0.08135809
0.02453919 -0.0021437164 0.06502561 0.12786888 0.101212256 0.01659507 -0.054324824 0.10653343
-0.06522727 0.09656804 0.14236432 0.028776525 0.13616845 0.1283466 0.011922053 -0.15310603
0.11793868 0.027342306 0.10658309 -0.05798651 -0.03082254 0.069846526 0.053098366 -0.014250681
0.05514115 0.0564411 -0.009793025 -0.09700587 0.08405849 0.049030155 -0.08854416 -0.0520666
0.029362546 0.118678056 -0.13763973 -0.07558706 -0.07055541 -0.08290565 -0.063351125 0.050911333
0.07856356 -0.048338417 -0.01322904 -0.02318991 -0.092211455 -0.024028098 -0.088025324 0.11248066
-0.08197658 0.107578665 -0.009839486 0.03576004 0.016866244 0.041110687 -0.10211612 0.0022141603
-0.084922254 -0.061823472 -0.083896734 0.010622054 -0.09848874 0.053775966 0.03517167 0.10843221
-0.12670211 0.034677375 0.024224011 -0.0071047097 -0.09315645 0.005618258 -0.035575904 -0.0802005
-0.10415594 0.03587154 0.11763825 -0.046358697 -0.03911965 0.1008698 0.032480054 0.009791731
-0.04924666 0.13059384 0.094006 0.13868372 0.040608533 -0.056651667 0.09953377 -0.015825232
-0.05682157 -0.03604751 -0.112936184 0.07764635

net.8.weight f4 [100, 100]
00000000: d5e9 8a3d 0bee 833d 7e9f bb3d dae8 d6bd
00000010: c451 7a3d 0e79 a43d 1f65 a53d 5d78 b4bd
00000020: 6359 bf3d 661a de3d b560 823d 379d a1bd
00000030: 7e42 acbd 8c64 39bd ccb3 803d 7c70 433d
00000040: 51b5 eabc d330 22bd 15cd bb3c 86e3 a8bd
00000050: 442e 413c 419e 113d 777c f73b 8094 ec3d
00000060: a86a 32bd 2414 c3bd 4735 23bc 11c7 2c3d
00000070: 92c0 58bd a8af a93d 0e18 3bbd 01fc 6e3d
00000080: 5049 a8bc 9657 b0bc a281 b53d 9b8f 743d
00000090: 76a5 42bd 9175 b6bd 8690 7fbd f13c 88bd
000000a0: 39d1 0e3d 6d23 3eba 4468 6bbd 8183 29ba
000000b0: 80a8 a23d 48f0 4b3d 1a29 08bd e614 ebbd
000000c0: ed5d 84bd 442b 55bd f882 923d 83f3 a4bc
000000d0: 05e0 a53c 7014 57bd 5199 843d 11dd 12bd
000000e0: 163f 303d 0b03 da3c 6653 ae3d c32e 7ab9
000000f0: c694 13bd 71e1 a33d 5ac7 103d a055 043d
00000100: eeab 9b3d 4864 9abc af90 c9bd 4660 1ebd
00000110: 5a8b 9cbd 3fa8 89bd 8641 64bd b3a5 be3d
00000120: 1d32 05bd 6456 cc3d c029 c03d 84dd 863c
00000130: d973 52bd 4d1b d43d fdd8 083b cff6 49bd
00000140: b57f 803d 0ae7 9b3d 6d0f 92bc b0b9 debc
00000150: 918e 623d d70f 553d 7147 fb3d f745 193d
00000160: ba2b 1f3a 091e 06bd 9425 adbc f96e f3bd
00000170: 05d3 d8bd 5b68 8b3c cf42 4a3d c8df 5f3d
00000180: 0a82 8b3d c9b6 2ebd 4d6c a83d a7de adbd
00000190: ead5 5ebd 6488 18bd 4fdd 2b3c d2dd 3e3d
000001a0: de81 d9bb 00c6 c4bd 4c8a b73b 5e7b 98bd
000001b0: ef75 b5bd 6af7 c2bd 62bc d6bd 9a22 1abc
000001c0: 299b 793c 7877 f2bc 9bc5 b53d 0ffc 3b3d
000001d0: 7b50 e43c 4853 043d bad0 c7bd fbb2 c0bc
000001e0: 1b3f 563d 1b87 9abd efb1 a3bd 4781 61bd
000001f0: 9f7b 20bd b451 ba3d cde0 b23d 818f 3abd
00000200: 2106 4ebd faab 5d3d 87c6 bcbc 35c4 19bb
00000210: b3dd adbd 8220 103d fc30 b5bd 3d96 bfbd
00000220: 5177 0cbe 5ce5 cb3d 847c cabb 2841 0bbd
00000230: 5391 a73b 4a0d d1bc 04cf c33d 2fcd b9bd
00000240: d27f 433d 7266 873d bc26 293e 8515 263d
00000250: 3fe1 cf3d f414 6dbd 3542 933d b967 95bd
00000260: 87e4 183d 240a 833d 4074 bdbc cc0f c9bc
00000270: c88a 783d 258f 52bd 1370 87bc d736 da3d
00000280: 5cfd f9bc e504 353d 4450 b03c c8cc 74bd
00000290: aca6 cd3d caa7 b13d 2f90 8e3d 4d8a b23c
000002a0: e803 96bc e35d d0bd d00d 923d 6bf6 8e3d
000002b0: c141 ecbb 6938 cd3d dfff 7e3d 75a8 f6bc
000002c0: 9220 ae3d f6bc 11bd ac7e a23d c4b0 b23c
000002d0: 25e0 86bc 844e c8bb 2ef6 c3b9 36c9 9ebd
000002e0: 9988 b7bd a95a d53d f418 a73d cd1f d3bd
000002f0: 7b41 4b3d a380 a63d 7953 c23d c9a4 ac3d
00000300: f99a a8bb 7207 0bbd 0a8e 5ebc 5158 a63c
00000310: 4d05 543d ffe7 6f3d c650 73bc 750c 5e3d
00000320: c7da eebc 1544 b33d bcce 9abc 374c d7bc
00000330: 2524 c33c 5217 40bd b2e9 d7bc c072 7dbc
00000340: 6ea3 093d 9ea4 babd 2418 b6bd edbc 313d
00000350: afb3 5a3c aa67 26bd e4c3 f53b 2563 813b
00000360: 3359 9fbc e67f 1abe e96a aabc d6d8 b2bc
00000370: 5ec1 9d3d bc89 963c 9b6c f93c d0c7 e9bd
00000380: 972d 00bc 93d2 47bd 0a76 a6bd 2fad 9fbc
00000390: 808a f8bb 1e6b a3bc b0cf a8bd cf10 c7bc
000003a0: ab21 2b3d 987b 74bc 7f9f 9bbd e8d8 9dbd
000003b0: 60fb 0fbd a2c6 81bc 2d80 6e3d d591 23bd
000003c0: b09e 8ebd e24d a6bc a667 6dbc 03bd 5b3a
000003d0: f3ca ffbc 7e60 debc 144b 02be 2779 713d
000003e0: 47e1 e5bc 8981 b6bd 52ec 3b3c 946c 08bd
000003f0: 9363 933d 1322 cebb 532f 94bd eaf7 a93d
0.06782881 0.064418875 0.0916128 -0.10493632 0.061113134 0.08030902 0.08075928 -0.0881202
0.09343221 0.10844879 0.06366102 -0.078913145 -0.0841112 -0.045261905 0.062842935 0.047714695
-0.028650912 -0.039597344 0.02292494 -0.08246522 0.011790816 0.035551313 0.007552679 0.115517616
-0.043558747 -0.09525326 -0.009961433 0.042182032 -0.052918024 0.08285457 -0.045677237 0.0583458
-0.02054277 -0.02152614 0.08862616 0.059707265 -0.047521077 -0.08909143 -0.062393688 -0.06652249
0.0348675 -0.00072532037 -0.057472482 -0.0006466434 0.07942295 0.049789697 -0.033242323 -0.114785954
-0.064632274 -0.052043214 0.071538866 -0.020135647 0.020248422 -0.052509725 0.06474555 -0.035855357
0.043028913 0.02661278 0.08512001 -0.00023859278 -0.036030553 0.08001984 0.035346366 0.03230822
0.07601152 -0.018846646 -0.09842049 -0.038666032 -0.07643767 -0.067215435 -0.05572655 0.09308948
-0.032518495 0.09977415 0.09382963 0.016463049 -0.051380012 0.1035677 0.0020881288 -0.04930764
0.06274358 0.076124266 -0.017829621 -0.027188152 0.055311743 0.05201706 0.12269486 0.03742024
0.00060718844 -0.032743488 -0.021136083 -0.11886401 -0.10587124 0.017017534 0.04938012 0.054656774
0.06811912 -0.042654786 0.08223782 -0.08489733 -0.054403223 -0.037239447 0.010489776 0.046598263
-0.006637796 -0.09608078 0.005601203 -0.074454054 -0.08860385 -0.09519847 -0.1048515 -0.009407664
0.015234747 -0.029597983 0.08875581 0.04589468 0.027870407 0.032305986 -0.09756608 -0.023522845
0.052306276 -0.075453006 -0.079929225 -0.05505493 -0.039180394 0.09097615 0.087342836 -0.045547012
-0.050298814 0.054119088 -0.023043884 -0.0023462896 -0.084895514 0.035187252 -0.08847234 -0.093548276
-0.1371739 0.09955856 -0.006179394 -0.033997685 0.0051137595 -0.025519032 0.095609695 -0.09072339
0.04772932 0.06611337 0.16518682 0.040547866 0.10150384 -0.05788131 0.07190362 -0.07295174
0.037327316 0.063984185 -0.023126721 -0.024543665 0.060679227 -0.051406045 -0.016532933 0.10654991
-0.030516319 0.04419412 0.021522649 -0.059765607 0.10041556 0.08674581 0.069610946 0.021794463
-0.01831241 -0.101741575 0.07131541 0.06980594 -0.007209987 0.10020525 0.062255736 -0.030109623
0.08502306 -0.035580598 0.07934317 0.021812804 -0.016464302 -0.0061128754 -0.00037376717 -0.07753222
-0.08961601 0.10417683 0.08159056 -0.103088 0.049622994 0.08130004 0.094885774 0.08429868
-0.0051454273 -0.033942647 -0.013583669 0.020305784 0.051762868 0.058570858 -0.014850801 0.0542111
-0.029157056 0.0875322 -0.018897407 -0.02628146 0.023820946 -0.04689724 -0.026356552 -0.015469253
0.033603124 -0.091134295 -0.08891323 0.043393064 0.013348504 -0.040626206 0.0075001586 0.0039485865
-0.019451713 -0.15087852 -0.020802932 -0.021831911 0.077028975 0.018376224 0.030447295 -0.11415064
-0.0078233695 -0.048784804 -0.08127983 -0.01949176 -0.00758487 -0.019948538 -0.08242738 -0.024300007
0.041780155 -0.014922045 -0.07598781 -0.07707387 -0.03515184 -0.015841786 0.058227707 -0.039934
-0.06963861 -0.02030081 -0.014490044 0.0008382352 -0.031224703 -0.02714562 -0.12723953 0.05895343
-0.028061522 -0.089114256 0.011469917 -0.033306673 0.07196727 -0.006290683 -0.07235589 0.08299239

net.8.bias f4 [100]
00000000: f150 423c 8240 2cbc 24e0 c93d 9520 69bd
00000010: 8d2f 6a3d 8f63 f2bd 67ba 61bd 3c0a 04be
00000020: 3e75 a1ba 4a93 ba3d fe25 8f3d ec54 cc3d
00000030: 1b22 efbb 58d2 833d 29e6 e4bd 939d febd
00000040: 54af 343c fb1a 50bd 8525 c6bd e1d1 f9bd
00000050: 5079 fd3c a4b2 023d 97be 7c3d 5df5 2b3d
00000060: a98a 36bd e958 273d 8369 98bd 188b 80bd
00000070: e241 6cbd 8728 8e3d fa2c b03d 9c27 bfbd
00000080: de94 a6bd edd2 053e 829a 13bd bab0 fb3d
00000090: 8a37 bcbd 0dca b63d bff3 b8bd 80f3 a7bd
000000a0: 7418 433d 984e d3bc 7b20 f73b c8b8 a1bd
000000b0: e709 1d3c 4b61 f53c b0c5 ccbd 5efa 00bd
000000c0: bdeb 953d 8010 113d 31d9 debd c676 8e3d
000000d0: 92d9 5ebc 5bd2 bb3d 292d efbd 74f7 c2bd
000000e0: a144 91bd 210c a63a d02a cb3b 5576 a0b9
000000f0: 760a 82bd b96b a43b 9d86 a53d 8a35 edbd
00000100: 268b 5ebd dc1d 553d 2954 8c3d 1052 943d
00000110: 0a99 da3d 9513 d13d 1ecd 0f3d 0c99 6fbb
00000120: 9308 8b3d dded d5bd 25ab edbc 47a4 5abd
00000130: 9bcb c1bd eb88 953d ac02 42bd 3664 313d
00000140: d1e0 dd3c d5de 8c3d 05d9 a7bc 0b44 bcbb
00000150: d7c4 d4bd ba2c 6abd 67ad 3b3d de1d b9bb
00000160: 7632 3c3d c699 74bd b285 a73c 59b6 573b
00000170: d0b1 a4bb 7ea1 173d c772 c03d d036 27bd
00000180: 9051 a33d 147b 94bd dbbf c4bd fdbd e3bd
0.011860118 -0.010513427 0.098572046 -0.05691584 0.057174254 -0.118353955 -0.055109408 -0.12894529
-0.0012318266 0.091101244 0.06989668 0.09977135 -0.007297767 0.06436604 -0.11176712 -0.12432399
0.01102813 -0.05080698 -0.09675125 -0.12198234 0.030941635 0.031908646 0.0617052 0.041982044
-0.04456583 0.040856276 -0.07442 -0.0627653 -0.05768002 0.06941324 0.086023286 -0.09333727
-0.08133863 0.13068743 -0.036036022 0.12289567 -0.09190281 0.08925257 -0.09030866 -0.08200741
0.047630742 -0.025794312 0.007541714 -0.07896572 0.00958488 0.02995362 -0.099986434 -0.03148877
0.07320354 0.035416126 -0.1088127 0.06956248 -0.0136016775 0.091709815 -0.116785355 -0.09519854
-0.07093168 0.001266841 0.006200172 -0.00030605742 -0.063496515 0.0050177244 0.08082316 -0.115824774
-0.05433192 0.05203043 0.0685199 0.07242215 0.10673721 0.10208813 0.035107724 -0.003655973
0.06788745 -0.104457594 -0.029012272 -0.053379323 -0.09462663 0.07301506 -0.04736583 0.04330846
0.02708474 0.06878439 -0.020489225 -0.005745416 -0.10389107 -0.05717156 0.045819666 -0.0056493124
0.04594656 -0.059716962 0.020449493 0.0032915084 -0.0050260797 0.037019245 0.09396892 -0.040823758
0.07974541 -0.07250038 -0.09606906 -0.11120222

net.10.weight f4 [100, 100]
00000000: 184e fc3c 1c13 d93c d5ed 913c 8e5f 67bc
00000010: ac8a 3e3d 300f 823b 60f5 9a3c 5a19 0eba
00000020: bcdd c4bd 19c3 a3bb 4459 69bc d72f 423a
00000030: 8a69 bbbd e03f aabd b340 a83d f0d4 273d
00000040: 65f2 0cbc 0801 b43c 67a6 30bd 5a51 7cbd
00000050: 9ab4 35bd 780f 23bb 5d72 d1bd 3fd3 5abc
00000060: 90ad 69bd 08df aabb 90e0 3cbd c109 9e3d
00000070: 5541 583d 12d8 733d 0515 9e3d ae69 733d
00000080: ad05 76bd 2b58 58bd 8268 623d dbde 7ebd
00000090: a8d9 54bc 9432 873d 0abf 563d cc76 273d
000000a0: 00be c7ba 90b8 1d3d f606 3bbd fb07 c1bd
000000b0: 8e1c 64bd 124e a83d 2465 d43c 4a79 043d
000000c0: b53e f93c 6642 023d 2262 2b3d 4b14 92bc
000000d0: f511 6c3d 9937 35bd a0a7 95bd ccf1 c2bc
000000e0: aea8 aabd b0f7 63bd 74d9 973c b35c acbd
000000f0: 6aba 2fbd 1108 acbd 5506 96bd e339 96bd
00000100: 8085 b73d 7545 ccbd 6b62 843d 7833 0b3d
00000110: 204c 733c 43c6 5dbd 8344 95bd a618 883d
00000120: 0f68 f0bc 0440 4d3b a4ec 103d 7081 1ebc
00000130: 8d7a 793d 68c9 b43d 776d 1cbd 589a 433c
00000140: 6d3e 2abd 727f a0bc 72dc 88bd 21d8 993d
00000150: 55d3 f73c 8311 543d 747c d7bd ad00 723c
00000160: 63f1 0d3d 1517 733d 5ab9 953d d12c 063d
00000170: 288e 0b3c c91c 573d 8455 ab3d ec78 923c
00000180: 3f11 fb3c 404b 093b b95d 8d3d 6a5b 5e3d
00000190: b490 2dbd 86df b5bd 94a8 9ebd af99 9dbd
000001a0: 48a2 e9bb 6850 01bc 64ef f93c 8b6b bbbd
000001b0: 4ee6 463d e35d 3bbd 6328 a63d 492b 9b3d
000001c0: 74e6 a8bd b396 4cbd dc54 c0bd 96ef ae3c
000001d0: fbec 873d 78fc 99bd 00ed dc39 514c c83c
000001e0: f6bd 91bd 60f7 8dbd 6522 a7bd 0d7e 49bd
000001f0: e0a5 99bb 3632 63bd 43dc 6fbd 6714 e9ba
00000200: acf7 993c 06df a43d 15aa 533c f2d3 b9bd
00000210: f463 eb3c b0c8 043c d218 c4bd 0e4b af3d
00000220: 8d55 803d d5df 5d3d 49ef a13d 7ec1 04bc
00000230: 8936 9c3d 8d41 49bd c5cd 5ebc 5681 6fbd
00000240: 3622 18bd 4d08 703d 00d0 a639 9adc b73d
00000250: 0017 13bc eaa4 bd3d 803a da3a 7e4b abbd
00000260: 16ca 90bd 5b8e 0dbd ad95 8cbd 3985 9d3d
00000270: 0fc2 9b3c 19c0 3cbd 2249 85bd 1987 723c
00000280: dbab ac3d e632 d3bd 7050 87bd 31d4 833d
00000290: 6085 90bd 9776 0b3d 7555 c7bc 0780 46bd
000002a0: eab5 8c3d b3f4 bfbd 8e57 dabc 2fd2 583d
000002b0: 16b6 113d 0f89 05bd c7ef df3b d089 9cbb
000002c0: 36d4 9e3d a00e a83d d51b 953d 04af a7bd
000002d0: 6b14 fa3b 1fba 30bc a0d8 ddbd 96b2 87ba
000002e0: 6a75 39bd 80b0 08bc ab2f 68bd e7cc 0bbd
000002f0: 60b5 213d 047a b73c 6851 293d 4311 ccbd
00000300: 4b50 8c3d 0e85 503d b50f d4bc e767 b2bd
00000310: 27d6 e5bb 1bad 90bd 9bcc a13d eca1 1dbd
00000320: 58f0 833d 5666 a03c 014a 9a3d 6673 a23d
00000330: 6a0a 003d e045 38bd b0c6 91bd 3578 4a3b
00000340: 9cc7 a93c 6832 a8bc 3ada 91bd 7047 0ebe
00000350: 2f2c 96bc 01d2 873d 9b77 dfbd e013 a1bd
00000360: 6b49 94bd 7422 76bd 8048 df3a e3cd 9f3d
00000370: 6aa4 6f3d 2db9 c83d 4048 74bc bda0 903c
00000380: 1da7 4ebd a029 45bd 5519 acbd a8de 4c3d
00000390: b494 b03d c469 ac3d e762 47bd 173a cbbd
000003a0: 5826 163c 1741 c93b d459 e53c 790b 943d
000003b0: e609 1bbe 135a 8d3d 029d 4d3d 68f8 b33c
000003c0: 98c3 8bbd 2a23 94bd 30d8 acbc 6b0e c7bd
000003d0: aabd 413d 203a aabd 9851 2cbc 9160 2a3d
000003e0: 6372 aabc a392 973c 2ad6 bc3c 8482 c13d
000003f0: e581 883d c737 a93d f98c 8b3d 5ea9 02be
0.030798957 0.02649837 0.017813602 -0.014121903 0.046518967 0.0039690956 0.018915832 -0.0005420648
-0.09612605 -0.0049976227 -0.014242474 0.00074076414 -0.09150989 -0.083129644 0.082154654 0.040974557
-0.008602713 0.021973148 -0.043127444 -0.06160102 -0.04436169 -0.0024881046 -0.10226891 -0.013356029
-0.057050288 -0.0052145757 -0.046112597 0.07716704 0.05279668 0.059532233 0.07718853 0.059426956
-0.060064007 -0.05281846 0.055275448 -0.06222425 -0.012991346 0.06601444 0.052428283 0.040884778
-0.001523912 0.03850609 -0.045660935 -0.0942535 -0.055691294 0.08218016 0.025927134 0.032342233
0.030425409 0.031801604 0.041841634 -0.017831942 0.057634313 -0.044242475 -0.073073626 -0.023796938
-0.08332954 -0.055656135 0.018536307 -0.084161185 -0.042902388 -0.08399976 -0.073254265 -0.0733526
0.0896101 -0.099741854 0.06464084 0.03398463 0.014849693 -0.054144155 -0.07288458 0.06645326
-0.029346494 0.0031318674 0.035381928 -0.009674415 0.06090789 0.08827478 -0.03819033 0.011938654
-0.04156344 -0.01959202 -0.066826716 0.075119264 0.030252138 0.051774513 -0.105217844 0.014770669
0.034654032 0.059348185 0.07310744 0.032757584 0.008517779 0.052517686 0.0836592 0.017879926
0.030647872 0.0020949394 0.06902642 0.054286398 -0.042374328 -0.08880524 -0.077469975 -0.076953284
-0.007129941 -0.0078927055 0.030509658 -0.091513716 0.04855948 -0.045743834 0.08113172 0.07576615
-0.082470804 -0.049948405 -0.09391186 0.021354478 0.06636997 -0.07518858 0.0004213825 0.024450453
-0.0711631 -0.06931949 -0.08160857 -0.049192477 -0.0046889633 -0.055467807 -0.058559667 -0.001778257
0.018794857 0.08050351 0.012918969 -0.090736285 0.028734185 0.008104488 -0.095750466 0.085592374
0.062663175 0.05416854 0.07906968 -0.008102773 0.07627589 -0.04913478 -0.013598864 -0.058472954
-0.037142 0.058601666 0.0003181696 0.08977623 -0.008977652 0.092599705 0.0016649514 -0.08364008
-0.07069795 -0.03455959 -0.06864486 0.07691426 0.019013433 -0.046081636 -0.065080896 0.014802718
0.08431216 -0.103124425 -0.06607139 0.06436957 -0.07056689 0.034048643 -0.024332741 -0.04846194
0.06870635 -0.093728445 -0.026653077 0.05293482 0.03557404 -0.032601412 0.0068340036 -0.0047771707
0.0775532 0.082059145 0.07280699 -0.081876785 0.0076318285 -0.010786562 -0.108323336 -0.0010352905
-0.04527799 -0.008342862 -0.056686085 -0.034130957 0.039479613 0.022397049 0.0413374 -0.0996423
0.06851252 0.05090814 -0.025886396 -0.08711224 -0.0070140543 -0.07064267 0.079003535 -0.0384845
0.06442326 0.019580048 0.075336464 0.07932167 0.03125993 -0.044988513 -0.07117975 0.0030894403
0.020725064 -0.020531848 -0.071217015 -0.13894439 -0.018331615 0.06631852 -0.10911485 -0.07865119
-0.07240566 -0.06009145 0.0017035156 0.07802942 0.058506407 0.098009445 -0.014909804 0.017654771
-0.05045234 -0.0481354 -0.08403269 0.05001703 0.08622113 0.08418611 -0.048678305 -0.09923189
0.009164415 0.0061417925 0.027996935 0.07228751 -0.15140495 0.06901946 0.050198562 0.021969035
-0.06824416 -0.072332695 -0.02109918 -0.09719547 0.04730002 -0.08311868 -0.0105175 0.041596
-0.020806497 0.018502539 0.02305134 0.09448722 0.066654004 0.08262592 0.06813998 -0.12759921
