models/heatalpha/relu/heatalpha_26.pth (torch, 977047 bytes, 51 tensors)

net.0.weight f4 [100, 3]
00000000: 81cb 353d c22a af3e 54ea e43e d2cb ef3e
00000010: 306b d53e cf83 f83e 863d 81be d8f0 ec39
00000020: 9cef 0d3f 0b0e febe 4a55 b2be f211 213f
00000030: 3d5d 853c 5e41 43be 7ade d2be ba37 66be
00000040: f1c2 af3e 95b3 d43e b8cf 43be 3f99 b53d
00000050: 88b1 04be 9012 f9be 7e71 753e f25c e3be
00000060: 369d d03d 9e60 cbb9 3b7f 81be eb1b 30bd
00000070: d34c a63d 049b a03d 6ce4 ca3e 199c 9ebd
00000080: be18 07bf 38a0 c13e 8ebe 8c3e cd9c b0bd
00000090: 3ab4 f93a bdf2 a63e 857d 923e 3c8b a63e
000000a0: f2f3 033f feac a63e ce66 183e ce97 c03e
000000b0: 4886 c43e aab4 953e dacc ea3c 12b4 2e3d
000000c0: ef62 86be 9ee4 773c 7026 c83e b67d a43e
000000d0: 77a4 c23e ebd8 06bf 7acd aabd b4cc 283e
000000e0: 6bac 313d bb61 d53e a61e c03d 5f4c 43be
000000f0: 96a8 d7bd 9bb5 eabe 837a 7bbd d9ec 993e
00000100: cfe0 60bd 7290 a2be eec1 37be 0d0f a1ba
00000110: d4ad 073f 0d91 c2be 1132 a6bd ba21 be3e
00000120: f0d4 d8be 60da 18bd 527e 6abe ba8a f93e
00000130: bc14 d7bd bb37 04bf ebc2 8e3e 1c23 5b3d
00000140: 439b 143e 381f b9bd 2286 953e fd2f 343e
00000150: b67d 61bd bfbe 74bc 193b 7d3e e233 013e
00000160: c42d 2bbc bf61 c5be 4130 0b3f 1f02 553e
00000170: 21f0 f33d ce90 e0be f3cf 2cbe 5a20 8e3d
00000180: 205c d13e c790 a63e 3c95 433d 7234 06bb
00000190: 4973 da3d 538b 63be 7eff e4bd 673a 9e39
000001a0: 654e 8f3e 9b05 edbe e78e 9bbe 0b52 05bf
000001b0: 53d0 583e 9bab f93a 705e e1be 585c 0b3f
000001c0: bace c3bd 7b75 42be 19c3 513e 199c 37bb
000001d0: 3db8 8cbd 001b 853e a557 d2bd 4af0 e0bd
000001e0: 0bfb 8ebe adf0 8cbe 3098 553e d322 5f3b
000001f0: 1751 663e aca5 c83e 8fc3 a43e e61d 1fbc
00000200: e166 debe 5a35 ee3d be1b 613e a767 513e
00000210: 9659 363d f647 983d a0ff 0cbe c748 9a3e
00000220: 3966 d6bc d784 f0be 24a1 2b3e 5194 e83c
00000230: 62cc bbbe 6819 e83d 27b0 f13d 71ad e43e
00000240: ea43 d63e 876f 12be ab9d 103e 47b6 9cbe
00000250: cdce 953d 2cbe 10be ba29 ab3d 81f9 c1bd
00000260: f983 003f a01f 423e 67d1 0f3c 9c08 1bbe
00000270: c671 ea3e 8d9d da3e b1aa f3be 6b87 a9be
00000280: 64d5 103e 5f9c 1c3e 308a fa3d 1fb3 e53d
00000290: 974b 513e 57a3 cebe 1a3f 5fbd 4d6e 2e3e
000002a0: 178a fb3d 1189 85bd 5668 78bc 51ca debd
000002b0: 64e3 18bd 239d 973e 1da1 01bd c323 5c3e
000002c0: 3417 07bd beca 9bbe da5a c63d 8556 013f
000002d0: 764a b33e 092b 7fbd 907f 82bd cb50 443e
000002e0: 2dcf 3639 bd16 c6be 8738 d03e 17e4 7b3a
000002f0: ce0c debe 4bf5 89be d4d1 b2be 296a 383d
00000300: edeb 6f3c 31b6 d0bb 510c 3c3c ea43 003e
00000310: e3d1 e23e 7d89 263d 67c9 95be f0f9 febe
00000320: 6044 623d 1d48 fa3e 9d38 26bd 5fbe da3e
00000330: b1b3 b6be b594 a3bb 0567 eb3e 4dcf 86be
00000340: 803f c4bd 043a 81be 2bae 123f 088f 92bd
00000350: 9955 a2be 9bb2 793e 2c67 e13d 8a4a 383c
00000360: 3dd2 8c3e ae79 3b3d 2e82 b4be fcd7 aebe
00000370: eb81 cb3d 5b21 863e 7401 b63e 850f aabd
00000380: c8ae 69bd d754 f6be 2bb3 00bf 0f62 d6be
00000390: 580c 2a3e aaf9 ec3a f29e c63e dc7f 9c3c
000003a0: 8633 51bc 7711 fb3e 1cfa c0be 63bc 0a3e
000003b0: 8730 a53e 49ce b43e 611a febc 24f6 34be
000003c0: 3681 98be b73d 293b f8a3 bc3e 8178 fcbe
000003d0: 824f a1be aa1c 01bf 01e4 c2be a9cf e9be
000003e0: 1525 e63e 5ac0 19be fb3d dfbe 1c0c 66be
000003f0: bdec b3be 55e0 063d 56ba dc3e 502a 2d3e
0.04438353 0.3421231 0.44710028 0.4683519 0.4168334 0.48538062 -0.2524225 0.0004519287
0.5544374 -0.4962009 -0.34830695 0.6291801 0.016279811 -0.19067904 -0.4118536 -0.22482195
0.34328416 0.4154326 -0.19122207 0.0886712 -0.12958348 -0.48646975 0.23969075 -0.4440685
0.101862356 -0.00038791163 -0.25292382 -0.042995375 0.08120122 0.07842067 0.39627397 -0.07744617
-0.5277213 0.3781755 0.27489132 -0.086236574 0.0019050904 0.3260707 0.2861139 0.32528102
0.51544106 0.32553858 0.14882967 0.37615818 0.38383698 0.29239398 0.028662134 0.042652197
-0.26247355 0.01513019 0.39091825 0.3212716 0.38016102 -0.5267474 -0.08339973 0.16484338
0.04337732 0.41676125 0.09380846 -0.19072102 -0.10530202 -0.4584168 -0.061396133 0.30063513
-0.054901894 -0.31750828 -0.17945072 -0.0012287811 0.52999616 -0.3800129 -0.08115018 0.37135106
-0.42349958 -0.037317634 -0.2289975 0.48738652 -0.10502002 -0.5164754 0.27883086 0.05350028
0.14512353 -0.09039158 0.29203898 0.17596431 -0.055051528 -0.014938056 0.24729575 0.12617448
-0.010447923 -0.38551137 0.54370505 0.2080159 0.11911035 -0.43860477 -0.16876201 0.06939764
0.40890598 0.3253233 0.047749743 -0.0020478037 0.1066652 -0.22221117 -0.11181544 0.00030179622
0.27989498 -0.4629334 -0.30382463 -0.5207831 0.2117322 0.0019048335 -0.44017363 0.5443778
-0.09560914 -0.18990128 0.2048458 -0.0028016625 -0.06871078 0.25997162 -0.10270623 -0.109833315
-0.27925906 -0.2752737 0.20858836 0.0034047856 0.22491871 0.39188898 0.3218045 -0.009711718
-0.43437865 0.1163127 0.21983239 0.20449696 0.04451903 0.074356005 -0.13769388 0.3013365
-0.02617179 -0.4697635 0.16760689 0.028391035 -0.3667937 0.11332971 0.118011765 0.44663575
0.4184869 -0.14300357 0.14122646 -0.30607817 0.07314835 -0.14135045 0.08357568 -0.09471417
0.50201374 0.18957376 0.008777953 -0.15140003 0.45789927 0.42698327 -0.47591165 -0.33111128
0.14143902 0.15294026 0.122333884 0.11215805 0.20438991 -0.40358993 -0.054503538 0.17034264
0.12282198 -0.06520284 -0.015161594 -0.108784325 -0.03732623 0.29612073 -0.03164779 0.21498017
-0.032981113 -0.30428118 0.09685297 0.50522643 0.35017747 -0.0622969 -0.06371987 0.19171445
0.00017434052 -0.38689223 0.40668127 0.0009608878 -0.43369144 -0.26944956 -0.3492571 0.045023117
0.014643651 -0.006369375 0.011477546 0.12525907 0.44300756 0.040658463 -0.2925522 -0.49800062
0.05524099 0.48883143 -0.040581334 0.42723367 -0.3568397 -0.0049920925 0.45977035 -0.26330033
-0.09582424 -0.25239575 0.5729701 -0.07156187 -0.3170593 0.24384539 0.110060066 0.01124824
0.2750415 0.04577034 -0.3525557 -0.34149158 0.09936889 0.26197323 0.35547984 -0.08303741
-0.05705145 -0.48111603 -0.5027339 -0.41871688 0.16606271 0.0018079777 0.3879314 0.019103937
-0.012768632 0.49036762 -0.37690818 0.13548426 0.32263586 0.35313633 -0.031018438 -0.1767202
-0.2978608 0.0025824138 0.36843848 -0.49310687 -0.31505972 -0.5043436 -0.38064578 -0.45666245
0.44950166 -0.15014783 -0.43601975 -0.22465557 -0.35141554 0.032928783 0.43110913 0.16910672

net.0.bias f4 [100]
00000000: 4cb4 9fbb 3417 b33e effa f73e 7963 d83e
00000010: 0539 09be 6687 073f b377 6cbe 68ec 00bf
00000020: 20f4 0abf 7120 953e 79a6 e63e 6242 ba3e
00000030: 3dd4 fa3e 3c0e 1ebf d98c 16bf e758 b43e
00000040: 2716 a93e 452e 38be 7709 123f 255b 853d
00000050: d622 bf3e 9f81 3bbe 16e9 92bc ece2 963c
00000060: ea33 0dbf 821d e43e 065d 18bf 7e57 243f
00000070: e63a 103f bfbf eabd 8601 343e 1810 fe3e
00000080: 4b6a 4e3a fbea 9bbe ff75 183f 8385 0e3f
00000090: f9c0 87be 49e5 9bbd 4357 043e 4ec9 62bd
000000a0: 4347 ddbe 0e26 a5bc 0478 23bf c321 16bf
000000b0: 8c7a 493e 0fa7 94be 7ec7 0b3f a317 bbbd
000000c0: 6976 743e 1564 113f 3d2d 1a3f c796 95be
000000d0: dbf7 17bf c256 a7be 7007 f93d 8c65 dabd
000000e0: c1e8 433e 5dd9 46be 5fdb 953e 82d2 14bf
000000f0: ee59 c4be 0b90 d9be ef9a 1dbf f485 8dbd
00000100: 94d1 893a 33b1 0c3f 6c03 72be 5f4b 90be
00000110: 49a1 de3e d0a4 03bd 1083 10bf 2b96 09bf
00000120: 4407 adbe 399b 20be 1f76 e5bd ddb6 94be
00000130: a1b9 19bf 2f5c 143a 6429 48be 962a e5be
00000140: 43ad b83e 13b1 393e a744 613d 26ad 44be
00000150: 7a6b da3e 3358 053f 301b 793b 2874 31be
00000160: aa03 7fbe caa2 c53d 84c4 4f3e 1a2f 573d
00000170: b88e 153f 31f7 5dbe f84b ee3e ed11 88be
00000180: f106 16bf ee0c a5bd 534a 51be 4878 edbd
-0.004873788 0.3497864 0.48433635 0.42263392 -0.13400657 0.52940977 -0.23092537 -0.5036073
-0.54278755 0.29126313 0.45048884 0.3637877 0.4899005 -0.6174047 -0.58808666 0.35224077
0.33024713 -0.179864 0.5704569 0.06511525 0.37331265 -0.18311165 -0.01793341 0.018418752
-0.5515734 0.44553763 -0.5951694 0.64196 0.5633987 -0.11462354 0.17578706 0.49621654
0.0007874115 -0.30452713 0.5955505 0.5567247 -0.26514414 -0.07612092 0.12923913 -0.05536776
-0.4321843 -0.020159747 -0.63855004 -0.58645266 0.19675654 -0.29033706 0.54601276 -0.09135368
0.23873295 0.5679334 0.6022528 -0.29216596 -0.5936257 -0.32683378 0.12159622 -0.106639
0.19131757 -0.19418855 0.2926893 -0.5813371 -0.3834986 -0.4249271 -0.61564535 -0.06910315
0.001051473 0.54957885 -0.23634118 -0.28182504 0.43482426 -0.0321396 -0.56449986 -0.53744763
-0.33794606 -0.15684213 -0.112041704 -0.29045764 -0.6004887 0.00056594884 -0.1954704 -0.44759053
0.36069688 0.18133955 0.054997113 -0.19206676 0.42660123 0.52087706 0.003801059 -0.17329466
-0.24903741 0.0965019 0.20289809 0.052535154 0.58420897 -0.21676327 0.46542335 -0.26576176
-0.5860434 -0.08059107 -0.20438509 -0.115952075

net.2.weight f4 [100, 100]
00000000: a8c7 013d 7a19 0bbd a45e 8ebc e557 30bd
00000010: 9a78 57bb 2edf 9cbc fed0 973c 0cf5 fbbc
00000020: 7cd8 dc3d 6daa 2bbd 1253 7f3d 7115 ddbd
00000030: 8289 c53c bec6 93bd 5683 e7bc 4e6d 143d
00000040: d4e0 29bd 85b6 4d3c 5750 c23c 534e 8fbd
00000050: cf97 85bd daf7 29bc e9ee a8bd ef06 80bd
00000060: d04f 3a3c 1d1f 35bd 5fb2 2abc 6089 b23b
00000070: 9b96 77bd 4e65 83bd 60f5 933d 908e 5cbd
00000080: 3bb4 cebc 842a 5abc 99d6 533d 3a86 a1bd
00000090: 201d efbc 5130 e63c a271 523c e1d2 bebc
000000a0: 9519 bc3d 67f9 76bd a533 5dbc 0cd9 9b3d
000000b0: 8b2a b2bb 4ed4 583d ecb6 913d c8b1 6e3d
000000c0: 45e0 db3c 4487 383d a9c6 babd 19b9 823d
000000d0: edee 11bd 6eb7 3d3c 4d0b 9b3d b2e1 3fbc
000000e0: afee f83c b2c3 d33c d700 2cbd 2643 21bd
000000f0: 2a5f a6bd 3c9c 923d 82ee b93c 4159 913d
00000100: 890e 093c 30a3 873d 6132 983d 96f7 233d
00000110: 6535 e1bd a03f 493b 2f4d 8bbc a8e2 3d3d
00000120: d617 7d3c 6610 a33c dd70 d9bc e895 c5bc
00000130: 4f73 a6bd 3168 463d 5a38 0a3d d76a b8bd
00000140: 96f3 8bbd 0637 2c3c 6e96 bebc 770e b3bd
00000150: 5781 7fbd 9295 c93d 77a1 dd3d 92e4 353d
00000160: 6c38 f0bc 827c a6bd 8406 b6bc 0f28 993c
00000170: a903 963d e498 fdbb c506 18bb 4ec6 ea3d
00000180: c128 043c 656f 09bd a0af 61bd dfb4 ed3c
00000190: 9fca 8cbd b867 6fbd 6a58 403c 23f3 82bd
000001a0: cd59 983d f7aa 4a3c ce1b bbbc f08d 12bd
000001b0: 72fa 923d ac5c d9bd a10f 32bd 883c 9a3d
000001c0: f7dc d5bd c7da 733b b60c 9fbd 3f05 9a3d
000001d0: 535e a5bd 1ada b93d 1c40 ed3c ce70 2ebd
000001e0: c15a 963d 3a73 d7bd 37d5 db3b 2090 a23d
000001f0: 2b0c b8bd 4c2c bc39 4d93 413c 4c67 cdbd
00000200: a926 0d3d f9a1 21bc d580 1abd a077 2ebd
00000210: bb8e 923d 08eb 9cbc 5e2a c7bc e197 3b3d
00000220: c4eb e23c 1676 85b9 06ac b83d 37b2 8a3c
00000230: 271d 2cbd f465 b6bc 95b7 0ebd fd96 a0bc
00000240: 6f38 15bd 12ec 1d3d 16bb e33c 993b 91bc
00000250: f701 2dbd d221 813d f248 8d3d 18d7 013c
00000260: 0bd0 c43c b24a 6c3d d651 c9bd f12f 46bd
00000270: 7ba8 54bc 43dc d93c f294 ac3d 8987 613c
00000280: 7849 1b3d 2ba4 ef3c dbc9 623b aeed 863c
00000290: 2fb2 223c 3080 8b3d daa7 443d 3669 d73b
000002a0: c3ad b83d c347 af3d aec1 98bd 7004 da3b
000002b0: 5715 d2bd aadf f5bc b747 5f3b d9f6 af3d
000002c0: 8cb5 813d 2650 a2bc 62e8 063d a45f a43b
000002d0: b224 993c c54d 5ebd 6b75 4d3c cc72 a63c
000002e0: 27bb babb b6b7 bebd 231f 973d d00d 20bc
000002f0: 38d3 ebbc c246 cc3c 173d 41bd 2873 0dbd
00000300: e80f 8ebd 558a 4dbb fbb1 853d 6e64 99bc
00000310: c8ad ee3c 31c3 74bc ed1d c3bc c72d c73d
00000320: f99f bc3d 1930 99bc 1305 a63d b4f1 d83d
00000330: da92 9fbc abb2 b53c 0146 e43c c407 1c3d
00000340: 8be0 f6bb 237f 17bd 5580 1ebd b67b 27bd
00000350: bee4 1bbd 1809 793d ab58 413d 45f2 04bc
00000360: a334 1d3d c9ee 8dbd 7353 42bd 4ee5 c03b
00000370: 3b92 573d cff6 703d f803 4ab9 1cc7 a43d
00000380: db3b a73d 5245 27bd 91ae d83d 3466 653a
00000390: 0395 e83c feaa b73c 2e3b 43bd 8784 da3d
000003a0: 118b 9dbd dc40 4bbc 281e 513c 7563 9f3d
000003b0: fd93 d43c c155 aa3d d5f5 1bbb ea2d 99bc
000003c0: 5d92 b53d a7a6 20bd c531 a33d 751a 0b3e
000003d0: 66df dfbd d190 83bd 5491 7a3d 33e6 08bc
000003e0: 0967 b93d 4fa5 843c e6d9 2b3b 2e8b e3bc
000003f0: d258 bab9 6a71 d23d 3484 7dbd 3790 823d
0.031684548 -0.033959843 -0.017379113 -0.043052573 -0.003287828 -0.01914939 0.018532272 -0.030756496
0.107834786 -0.041910578 0.06233508 -0.10795105 0.02411342 -0.072156414 -0.028260868 0.036237054
-0.04147418 0.012555723 0.02371995 -0.06997361 -0.06523096 -0.010374034 -0.082486935 -0.062513225
0.011371568 -0.044219125 -0.010418504 0.0054485053 -0.060446363 -0.06415807 0.07224536 -0.053846896
-0.025232425 -0.013315801 0.05171833 -0.0788693 -0.029188693 0.028099211 0.012844475 -0.023293914
0.09184567 -0.060296442 -0.013501083 0.07609758 -0.0054372004 0.052936845 0.07114968 0.058275014
0.026840338 0.045050874 -0.09119923 0.06382961 -0.035628248 0.011579378 0.07570515 -0.011711525
0.03038725 0.02585015 -0.04199299 -0.03937068 -0.0812362 0.071587056 0.022696737 0.07097102
0.008365282 0.066229224 0.07431484 0.04003104 -0.10996512 0.003070809 -0.017004577 0.046358734
0.015447577 0.01990528 -0.026543075 -0.024119332 -0.08127462 0.04843921 0.033745147 -0.09004753
-0.0683357 0.0105111655 -0.02326509 -0.08742993 -0.062379207 0.098429814 0.108218126 0.044407435
-0.029323779 -0.08129217 -0.022219904 0.01869586 0.07324917 -0.0077391732 -0.0023197394 0.11463605
0.008066357 -0.0335535 -0.05509913 0.02901691 -0.068745844 -0.058448523 0.01173983 -0.06394031
0.07439003 0.012369863 -0.022840407 -0.035779893 0.07176675 -0.10613379 -0.043471936 0.07531077
-0.10442536 0.003720926 -0.07766096 0.07520532 -0.080746315 0.09074803 0.028961234 -0.042588048
0.07341529 -0.105200246 0.006708767 0.07937646 -0.08986696 0.00035891158 0.011814904 -0.10029468
0.034460697 -0.009865277 -0.03772052 -0.042594552 0.0715613 -0.01915504 -0.024312194 0.04579914
0.027700312 -0.00025455718 0.09017186 0.016930683 -0.04201999 -0.022265412 -0.034843046 -0.019603247
-0.036430772 0.038555212 0.02779917 -0.017728614 -0.042238202 0.06305279 0.06898679 0.0079248175
0.024024984 0.057688423 -0.09830062 -0.048385564 -0.012979622 0.026594287 0.084268466 0.013765224
0.037911862 0.029253086 0.0034605179 0.016470756 0.009930178 0.06811559 0.04801164 0.0065738214
0.090175174 0.08558609 -0.074588165 0.006653361 -0.102579765 -0.030013878 0.0034069845 0.08592004
0.063334554 -0.019813608 0.03293646 0.005016284 0.018694256 -0.054273386 0.012540202 0.020318411
-0.00569858 -0.09312384 0.07378986 -0.009768918 -0.02878724 0.024936084 -0.0471774 -0.03453365
-0.069366276 -0.003136297 0.06528088 -0.018724646 0.0291356 -0.014939115 -0.02381798 0.09725528
0.092102 -0.018699693 0.081064366 0.10592976 -0.019479204 0.022179922 0.027865412 0.038093343
-0.007534092 -0.03698648 -0.038696606 -0.040889464 -0.038059942 0.060799688 0.0472037 -0.008114402
0.038380276 -0.0693031 -0.047442865 0.0058867102 0.05262969 0.058829125 -0.000192657 0.080457896
0.081657134 -0.040837593 0.10580171 0.0008750886 0.028391367 0.022420403 -0.04766386 0.10669809
-0.076925404 -0.0124056 0.0127635375 0.07782642 0.025949473 0.083171375 -0.002379765 -0.018698651
0.08865807 -0.039221432 0.07968477 0.13584311 -0.10931282 -0.06424106 0.061173752 -0.008355665
0.090528555 0.016192107 0.0026222407 -0.027776327 -0.0003554286 0.10275538 -0.061893657 0.06375163

net.2.bias f4 [100]
00000000: 212a 763d b14f 8abd 1081 2fbd 9134 efbc
00000010: ba50 2bbd f2bd ce3d ff6f d63c 70dd f03c
00000020: 5096 1abc 04a4 893d 5aac 863d f4ed 033c
00000030: 9a90 7dbd 5034 78bc 895b 5e3d e225 583d
00000040: 333e bc39 44d6 90bd 3968 e2bd 50d8 6b3c
00000050: b9cd ebbd 382c b13d 247d 15bd cd33 1e3d
00000060: f16f 393c 70ed b33d c74a e23d e1cc c63d
00000070: 9c5d 843d 0f48 25bd a04d 153d 530d be3d
00000080: 6291 c83d b2d3 3ebd 3f62 2ebc ac0c ed3c
00000090: b176 903d 55a2 123d 92fa 8abd 4aea 05be
000000a0: 56e2 91bd 5ddb 52bd 0ae5 a33d 504e d93d
000000b0: dcca fbbd f390 293e acbe 853d a58b c3bd
000000c0: 2495 16bd b8b8 c9bc 6149 133e 6d28 d3bd
000000d0: 7f3f 843d 1784 94bc 5296 bcbd d1f3 e0bd
000000e0: 3936 103d 527b 9bbb 8a5f 98bd 9722 953c
000000f0: 81b0 ca3c d86a 4c3d cca5 e63d 3ead 0ebd
00000100: c6dd bbbd e7f4 383d aa6e 1e3d 11f7 9fbd
00000110: d960 dcbd 6883 8e3c baa7 503d f259 c6bd
00000120: d37a 3cbc ccad 373e c0ba 963c f2bd 06bd
00000130: a8ba ae3d 4c15 cbbc 36b3 b33d df36 0f3e
00000140: 522e 223d b502 a3bd 689c e4bc 9b95 903c
00000150: 5b85 033c 44d2 b0bd c408 adbd 218e 933d
00000160: ace3 593c ea56 56bc c095 843d 1ea3 193e
00000170: 5e69 483b f7ff 4f3d 3abe 633d 12ca 8abd
00000180: f860 a13c c1a5 5ebd 3c6b f83c 84be 84ba
0.06009877 -0.06753481 -0.042847693 -0.02919987 -0.041825034 0.10094823 0.02617645 0.029402465
-0.009435251 0.067207366 0.06575842 0.008052338 -0.06190548 -0.015149191 0.054286513 0.052770503
0.00035904496 -0.07072118 -0.11055035 0.014394835 -0.11513848 0.08651012 -0.036496297 0.03862362
0.011318193 0.08785522 0.11049419 0.09707046 0.06463167 -0.040351924 0.036450982 0.09279885
0.097933546 -0.046588607 -0.010643541 0.028936706 0.070538886 0.035799343 -0.06786074 -0.13077655
-0.07123248 -0.051478732 0.0800267 0.1061064 -0.12294552 0.165592 0.065305084 -0.095481195
-0.036763325 -0.024624214 0.1438346 -0.10310445 0.064574234 -0.018129392 -0.09208359 -0.10984004
0.03520796 -0.0047449255 -0.07440098 0.01820497 0.024742367 0.04990658 0.11262092 -0.034833185
-0.09173159 0.045155432 0.038679756 -0.07810796 -0.1076066 0.017396644 0.050941207 -0.096851245
-0.011503893 0.17937392 0.018399596 -0.03289599 0.085316956 -0.024790429 0.08774416 0.13985775
0.039594956 -0.07959501 -0.027906612 0.017649462 0.0080274 -0.08633855 -0.084489375 0.07204843
0.01329891 -0.013082245 0.06473875 0.1500363 0.0030580382 0.050781216 0.055601336 -0.06776823
0.019699559 -0.054357294 0.03032457 -0.0010127579

net.4.weight f4 [100, 100]
00000000: 6540 7dbb e5e0 6ebd 7efd ffbc c9cf 76bd
00000010: 2978 a0bb 1688 f63c 07ef e93d 78a0 673b
00000020: 01a2 46bd 1605 a839 0c91 8abb 973f 853d
00000030: 72a1 c4bd da9f 2fbd 1864 5fbd 0d7c 3ebd
00000040: a1bf e6bc 8189 d83d 785d 2ebd 4654 623d
00000050: 0d39 5fbd 52e2 00bd 5888 5b3c 134b b13d
00000060: 6a10 133c 150a 103d 3fb0 8c3d cba7 cebc
00000070: e6ee 76bc 3833 d93d 36c3 bcbc aff7 d73c
00000080: aab4 953d 6027 21bd 02a2 903d c8af ac3d
00000090: a80c 8d3d d276 8b3d 28cc d73d 5cf9 8a3b
000000a0: 5194 99bb 20e1 f1bb 9e4f a43d bb32 813d
000000b0: 858d 7bbd 4f0a 02be 2a59 56bd e726 cbbd
000000c0: dfae d6ba 981e f6bc 173d 163c 4e6c 79ba
000000d0: 7e01 05bc b703 ad3d 57f2 b9bd 54f7 1b3c
000000e0: 75cf d33d 01a1 173b a21b 8d3c 012f a83d
000000f0: 08fd 9a3c 0fc3 a03d 24cb d4bd 99ca 5d3d
00000100: d9f9 1e3d 4b0a 903c 79b9 2c3d 5824 51bd
00000110: 9bab a7bd e365 3fbd 6224 84bd c6ae 993c
00000120: 4c1b ae3d 087e edbd 3d57 02bb e63c 103c
00000130: 2198 353c 1899 7abc 0a28 0bbd 11e8 873b
00000140: 0b6f 0ebe 9975 8c3d b470 61bd d58a 5cbd
00000150: b22f 81bd e77b 8cbc dcd1 403d b451 743d
00000160: c4a9 58bd e2cd c13d a3a6 75bd 1a9d e5bd
00000170: 1e33 64bd c28d 31bd ab15 b9bd 404b 19bd
00000180: fa20 8bbd a8a7 ab3d b713 d43d 0efc 823d
00000190: cb2c a43d d209 8f3d 3a7a c83c ba49 5c3d
000001a0: 3e99 603d 21fd 133d 61d2 30bc 76b7 b73d
000001b0: b878 ae3d 3ebc a03d 0a71 1e3b 4fec 42bd
000001c0: daf0 793d 8a63 5fbd 1e09 49bd 4576 a5bd
000001d0: e802 f2bb e034 39bd c79a 50bd 4730 6abd
000001e0: 6c89 54bd f191 4a3d b21b b8bd 6f52 d93c
000001f0: 79f4 a63d 78c8 99bd 1a93 f23c 987c b4bc
00000200: 05a8 8dbd 1023 b5bd 578a 33bc c85d 373d
00000210: 0c6e cbbd 3b65 97bd 9684 b0bd a04f babd
00000220: 3d77 febc 9963 4cbd 7ac8 ae3c 5fd3 4e3d
00000230: 2abd 7d3d f061 70bc 3175 24bd ff5b d43c
00000240: f532 d53d 86ce f3bd e419 65bc 803b afbb
00000250: 27ba 8e3d 5195 a33d 2d0f b2bd b627 a93c
00000260: 288f 77bd 0f36 803d 8bbe 9a3d 0177 12bd
00000270: 62a9 553d 8d68 e4ba c6b7 cf3c 6fe8 b13d
00000280: 2faf 6c3c 044d 623d 5f7a c4bd e1aa 673d
00000290: 7415 39bd 33a4 f9bd 28d3 58bd 540e 17bd
000002a0: a4a2 b83d 6bdb 773d 34f0 2ebd e0d8 683d
000002b0: 95c9 393d fcf2 14be 169b 82bc a13a 99bc
000002c0: b7bb f63c 4db3 51bd 4412 973d 65b1 0dbb
000002d0: 3ab6 08be cf0e e73b 7501 c43d 8b59 243c
000002e0: 3132 8fbd fb7f 5dbc 9982 d43d 4acc 0b3d
000002f0: 44bb d1bd b08b 93bd 70ed 94bd 3da2 c43c
00000300: 49a0 03bd 261a af3d 88d2 c0bd e0c6 9cbb
00000310: 2369 c83d 2219 aa3d f012 0ebc 81fb a0bc
00000320: 008c 883a 6958 993d 38aa b3bd 4553 83bd
00000330: e0d2 f63b 3938 b83d 7aae 97bd fd7b c43d
00000340: 5738 39bd b636 81bd 8c3b 88bd 9db2 2bbd
00000350: ac62 babc a292 2b3d a48c d13c 3d63 8dbd
00000360: 14d9 9fbc 6a7d ccbd 5045 fd3b 79bb a63d
00000370: accc a7bc cdc5 3bbd 8066 9a3a 13e9 39bd
00000380: 2007 9b3b e2e1 763d c0bc 083c 03c4 8dbd
00000390: 5a95 253d f3d4 853d 4804 adbd ad98 47bd
000003a0: 985f 83bc bd0e 993d b0bd f73b 5066 36bc
000003b0: 2da4 b7bd 0e34 0f3d 70cc 3ebd 9d76 9abd
000003c0: 2514 bcbd 6329 953d 58a6 06bc 0be4 93bd
000003d0: b54c a53d 9c5d 83bd 7c9e 85bd 58bd 8fbc
000003e0: 9867 a3bc 288e 7e3c 77b4 c73d a769 913d
000003f0: cc25 06bd 7814 adbd ecce 9f3c 00f5 08bd
-0.0038643118 -0.058319945 -0.031248804 -0.060256753 -0.0048971367 0.030094188 0.11422544 0.003534345
-0.048494343 0.00032047246 -0.0042287167 0.065062694 -0.09601106 -0.042877056 -0.054538816 -0.046505023
-0.028167548 0.10573102 -0.042569607 0.05525615 -0.054497767 -0.031465836 0.013399206 0.086568974
0.008976081 0.035165865 0.06869554 -0.025226494 -0.015071606 0.10605472 -0.023042303 0.026363222
0.073098496 -0.03934419 0.070621505 0.08431965 0.068871796 0.068097726 0.105369866 0.0042411517
-0.00468687 -0.0073815733 0.08022998 0.06308504 -0.06141426 -0.12699245 -0.052331127 -0.099195294
-0.001637902 -0.030043885 0.009169838 -0.0009514735 -0.008118032 0.08447974 -0.09079426 0.009519417
0.10342304 0.0023136737 0.01722509 0.0821209 0.018919483 0.078497045 -0.103903085 0.05414829
0.038812492 0.017583033 0.042169068 -0.05106005 -0.08187028 -0.046728026 -0.06452252 0.018760096
0.085013 -0.11596304 -0.0019888424 0.008803582 0.011083634 -0.015295289 -0.03397373 0.0041475375
-0.13909547 0.068583675 -0.055039123 -0.053843338 -0.06307925 -0.017148925 0.047075137 0.05964823
-0.052896276 0.09463097 -0.05997337 -0.11211605 -0.05571281 -0.04334808 -0.09037336 -0.03742528
-0.06793399 0.08381587 0.10355323 0.06395732 0.08016356 0.06984295 0.024472345 0.05378125
0.054833643 0.036130074 -0.010792346 0.08970539 0.08519119 0.07848404 0.0024176263 -0.047588643
0.06102071 -0.054538287 -0.04908096 -0.08079199 -0.0073856004 -0.04521644 -0.050928857 -0.057174947
-0.05188887 0.049455587 -0.089896575 0.026528565 0.08152098 -0.075089395 0.02961116 -0.022032067
-0.06916813 -0.08844578 -0.010958276 0.04476717 -0.09933099 -0.07392355 -0.08619039 -0.090972185
-0.031062717 -0.04989967 0.021335829 0.050494548 0.06194798 -0.014671788 -0.040150825 0.025922773
0.1041011 -0.119046256 -0.013983224 -0.005347669 0.069690995 0.07987464 -0.08694301 0.020648818
-0.06043926 0.06260311 0.075558744 -0.035758022 0.05216349 -0.0017426178 0.025356185 0.08686911
0.014446064 0.05524923 -0.09593653 0.056559447 -0.045186475 -0.12189522 -0.05293575 -0.0368789
0.09015396 0.060511988 -0.042709544 0.056847453 0.04535826 -0.14545816 -0.015943091 -0.018704714
0.030118806 -0.051196385 0.07376531 -0.0021620628 -0.13350764 0.007051326 0.095705904 0.010031114
-0.06991995 -0.013519282 0.10376472 0.034130372 -0.10240796 -0.07204378 -0.0727185 0.024003142
-0.03213528 0.08549909 -0.09415156 -0.00478445 0.09785678 0.08305575 -0.008671507 -0.019651176
0.00104177 0.07487566 -0.08772701 -0.06412367 0.0075324625 0.089950986 -0.07406326 0.095939614
-0.045219745 -0.063092634 -0.06651983 -0.041918386 -0.022752129 0.041887887 0.025579758 -0.06903694
-0.01951269 -0.09984858 0.00772921 0.08141226 -0.020483337 -0.045842934 0.0011779815 -0.045388293
0.004731074 0.060274012 0.008345783 -0.06922152 0.040425636 0.065347575 -0.08448082 -0.048729587
-0.016036794 0.07473514 0.0075604543 -0.011132792 -0.08966861 0.034961753 -0.046581686 -0.07542155
-0.0918353 0.072832845 -0.00821837 -0.0722123 0.08071271 -0.06414339 -0.06524369 -0.01754634
-0.019946858 0.015536822 0.09751218 0.0710023 -0.03275089 -0.0845117 0.019507848 -0.033436775

net.4.bias f4 [100]
00000000: 19cb 9dbc 692b 19be bdf9 44bd 43b6 c13c
00000010: e17d 813d ef3b cabd d55b 00bc 3504 c93c
00000020: f410 073e c0d4 27bd 33b5 23bd 650e 683d
00000030: 1f3b 983d aa97 cbbd b17a 3ebd 5b66 52bd
00000040: 0ee6 a6bd 6c22 13be b936 933d 84d8 05be
00000050: 8a08 5fbd e339 0a3e 115f f43d 2409 56bd
00000060: 14fd f83b 495d e03d 02aa 543b 9fc4 b73d
00000070: b952 9a3d f146 b1bd 2ee9 84bc b855 6e3c
00000080: 1216 7bbd 9e9d 4cbd febd 30bd fc10 063c
00000090: 28f3 233d 0dcd ba3d 7096 bfbd 9a46 593d
000000a0: 8a05 8e3d 6502 5fbd ff57 28bd abfd a5bd
000000b0: 5cec efbc b478 87bd 5c9f 053e d623 1c3d
000000c0: fd92 9e3d 033f 0ebe d0e2 01be 3d45 ecbc
000000d0: 89e3 69bc 2e0f 5f3d a6f6 4f3d 152d f0bc
000000e0: b183 f63c 829c e8bb 360b 0a3d 20e9 f73d
000000f0: c3ee 14be eb93 10be 839d 88bd f17b b23d
00000100: 0ef0 373d bb10 0a3c ee9a 1c3d 05ec e93d
00000110: 1a06 21bd 8e28 a2bd 7ec6 b7bd 7514 42bc
00000120: 4751 b9bd af9c e2bd c20c a03d 379f 74bd
00000130: 7021 013e b0f9 9bbd 5f97 d6bd f853 4c3d
00000140: cd5f bcbd 3a02 45bb 3afe e8b7 0411 41bc
00000150: 934d e1bd ad59 ec3b 5a7b 5ebd 81c2 bd3d
00000160: c74c 0c3e 5b53 f23d aa93 2fbc 097a afbd
00000170: e605 ecbd 1254 823d e32e 13be d963 01bc
00000180: a47d d03c 4515 be3d 749d d4bd 4297 8abd
-0.019261884 -0.14957966 -0.04808973 0.02364648 0.063228376 -0.09874713 -0.007834394 0.024538139
0.13190061 -0.04097438 -0.039967727 0.056654353 0.074331515 -0.09941037 -0.046503726 -0.051367145
-0.08149348 -0.143686 0.07188172 -0.13070875 -0.054451503 0.13498645 0.11932195 -0.05225481
0.0075985286 0.10955293 0.0032449965 0.08973049 0.07535309 -0.08656109 -0.01622447 0.014546804
-0.061300345 -0.049955003 -0.04314994 0.00818276 0.040026814 0.091211416 -0.093548656 0.053045847
0.0693465 -0.054445643 -0.041099545 -0.08105024 -0.02928751 -0.06614819 0.13049072 0.038120113
0.077428795 -0.13891225 -0.12684178 -0.02884161 -0.01427544 0.054457836 0.05077233 -0.029318372
0.030092092 -0.0070987353 0.033702098 0.12105012 -0.14544205 -0.14118926 -0.06670668 0.08715046
0.04490667 0.00842684 0.03823369 0.1142197 -0.03931246 -0.079178914 -0.08973406 -0.011845698
-0.090487055 -0.11065041 0.07814933 -0.05972215 0.12610412 -0.076159835 -0.104780905 0.049884766
-0.0919796 -0.0030061142 -2.7774939e-05 -0.011783842 -0.11001124 0.0072128386 -0.054316856 0.09265614
0.13701163 0.11832305 -0.010716358 -0.08568198 -0.115245625 0.063636914 -0.14373355 -0.007897341
0.025450535 0.092814006 -0.10381594 -0.067671314

net.6.weight f4 [100, 100]
00000000: b6c5 1c3d 505a 2b3d c77d 49bd c457 1b3c
00000010: 5d90 68bd 9e0c 8d3d c434 f83d 90dc 01bd
00000020: 4f86 783d 7681 a53d 8a7a 543d 5367 8b3d
00000030: b89d 0c3d c7aa c93d 7a00 b9bc 9f8e fdbb
00000040: f611 4c3d 6432 1f3d 5472 94bd bd35 bd3d
00000050: a9f1 c73d dc6b d3bd a66d a33d a5ce b0bd
00000060: ff8e a03d dede f4bb ad2d 9c3d 04c7 c53d
00000070: 03c7 6e3d f152 d73c 45fc 053c 069a 3f3d
00000080: 858e 8fbd 6729 84bd e705 3c3d 5362 adbd
00000090: 1705 273c f783 013e afbc 2c3d 70c2 9f3d
000000a0: 4fc3 5b3d e225 ab3d 6eb8 823c 507d b2bb
000000b0: d828 6d3d 2e17 df3b 8234 1c3d 7cc5 a23d
000000c0: f5ac 8a3d dafb 26be 1515 e23d f27c 2d3c
000000d0: 1425 8fbc 534e c3bd 143d 4abd ffc8 933d
000000e0: 6bb2 773d 35db 8c3c 9c12 cf3d 1845 de3d
000000f0: dd79 aa3d 090b d93d 3731 193d 5444 8a3d
00000100: d3d5 013e 6a24 cd3d 17b1 133b bba2 b0bd
00000110: 4ee2 6b3d 6ad8 6f3d 3bb1 a5bd d49a b5bd
00000120: ce51 d73d ca2d b03d f307 0e3d d36a efba
00000130: 9383 cfbb a61b beba 7a75 c9bd 7115 23bd
00000140: 689c 26bd f4fc 903d c84f d7bc 0197 5e3d
00000150: 97de 66bd 4e32 3cbd 84a9 1a3c 5ee1 e1bc
00000160: b2f0 223d e01e 5bbd 68be 783c f2ac 3cbd
00000170: de66 ad3d 7108 9a3d ca5e 03be 97b9 c1bb
00000180: 6591 913d a153 84bd 8553 19bd 348c 5b3d
00000190: 8146 b8bd 6ab3 24bd 90c1 613c 5dd3 933d
000001a0: 5839 b9bc 6c6e bf3c 1565 cebd 5752 8bbd
000001b0: 2e2d 93bd a180 94bd f270 323d cd9a afbd
000001c0: 57ea 943d b315 243d b4cf cc3c f4e7 38bb
000001d0: 10d1 91bd 3c2d 9b3d 8447 fbbc d94c d73a
000001e0: 5f34 95bd e53b 90bd 1b09 50bd ec97 14bd
000001f0: 2494 9ebd c7dc 03bd 1a90 913d 97e9 b13d
00000200: d839 0ebd 4d50 b5bd 88cd c6bc bae7 c9bd
00000210: d372 0fbd 9291 843d 2428 ec3c 2e0b 80bd
00000220: 4b65 683d d97b 2d3b efc7 bc3b 69c2 2bbb
00000230: 6b3c 00bd c8f0 4cbd 7fd5 c5bd 16e7 83bd
00000240: 333d 4abd 267a e0bc 4e9c b93d 2082 1e3d
00000250: e9b3 ac3d d8bf 46bc 3c77 b23c 8dc4 79bd
00000260: 506e 24bc e3c0 c9bd 6826 673c ec02 823d
00000270: dc22 d4bd 1313 59bd 6e6d 8e3d e0a3 b2ba
00000280: 6cbe c03c bda0 ad3c d834 4f3d 8159 143d
00000290: 791a bd3d 8e64 d9bb 2ae1 1b3c c60f bc3d
000002a0: 0522 ae3d 3303 8dbd 3b26 173d b73a 803d
000002b0: 4d22 dabd 6cb8 463d e853 7f3d 00f4 1839
000002c0: 34bf 723b ce74 8ebc b15e 4e3c a6d2 81bd
000002d0: d8d9 533d 6c11 1ebd e3bb d5bc f291 82bd
000002e0: 1417 a23d f4ff e6bc 70d2 6c3c 4dd5 a73d
000002f0: fd3c 30bd 8145 35bd 4424 673d 04e0 97bc
00000300: b586 acbd cc18 8bbd 9658 bb3d 790b 3abd
00000310: 85f7 8b3d 472f 04bd d269 bd3d f759 aebc
00000320: c2cc 823d 26a8 aebd eef0 3c3d d868 83bd
00000330: 5410 5cbd 72e9 cb3b 5c07 04bd ba7d 853d
00000340: ee0a 76bd 5c56 b0bc 3041 7bbd 224c afbc
00000350: 6608 77bd cf0f cdbd b5eb b6bd d279 24bd
00000360: 96fe bd3b 71c7 c0bd 03ca dbbd 3662 95bd
00000370: 3b53 633d fe24 84bd d5e0 903c 27a3 283d
00000380: 563a b93c 6e83 ac3d 1278 39bd 9452 44bd
00000390: b298 d2bd 8a0c 8fbd fc75 963d 664e a5bd
000003a0: c031 6dbd 8497 ffbd 1c84 933c 6586 5d3d
000003b0: 160f 90bd e345 03be c2be 66bd 5fcd 343d
000003c0: 56f6 103d ebd9 973d 7604 dcbc 109e 1abd
000003d0: 3b6b c63c 2c8b 28bd 68c1 003c d3f2 ffbb
000003e0: 5893 b1bd c946 2f3e 6990 253d e782 7ebd
000003f0: 864d b9bb a48a afbd e663 63bd a285 813d
0.03827449 0.041834176 -0.049192216 0.009481374 -0.0567783 0.06887172 0.12119439 -0.031704485
0.06067496 0.08081333 0.051874675 0.06806817 0.0343301 0.09847026 -0.022583235 -0.007737949
0.049821816 0.038866416 -0.07248369 0.092387654 0.0976289 -0.10323307 0.07979898 -0.08633164
0.07839774 -0.007472857 0.076258995 0.096571 0.05829526 0.026284667 0.0081778215 0.046777748
-0.07009605 -0.06453209 0.045904066 -0.084660195 0.010194085 0.12647997 0.04217213 0.07800758
0.053653058 0.08356835 0.015957084 -0.0054470673 0.05790028 0.006808183 0.038136013 0.079478234
0.0677127 -0.16307011 0.11039177 0.010588871 -0.017473735 -0.095364235 -0.049374655 0.07216071
0.060472887 0.01719437 0.10110971 0.10853022 0.08324025 0.10597808 0.03740045 0.06751314
0.12679224 0.10016711 0.0022535974 -0.086247884 0.057588868 0.058555998 -0.08090445 -0.08867422
0.1051365 0.086024836 0.03467555 -0.0018266089 -0.0063328235 -0.001450409 -0.0983686 -0.03981537
-0.040676504 0.07079497 -0.02628316 0.054343227 -0.056364622 -0.04594641 0.00943983 -0.027573284
0.039780326 -0.05349624 0.015182115 -0.04606337 0.08466886 0.07521141 -0.12829128 -0.0059120166
0.0710781 -0.064612634 -0.037433166 0.053600505 -0.089978226 -0.040210165 0.013779059 0.07218049
-0.022610351 0.023368083 -0.100778736 -0.068028145 -0.07186352 -0.072510965 0.043564744 -0.08574448
0.07271259 0.040059756 0.025001384 -0.0028214427 -0.07119954 0.07576987 -0.03067375 0.0016426101
-0.072853796 -0.07042674 -0.050789934 -0.036277696 -0.07743099 -0.03219297 0.07107563 0.08687132
-0.034723133 -0.08853207 -0.024267927 -0.098586515 -0.035021614 0.06473078 0.028827734 -0.06252132
0.056737226 0.0026471524 0.0057611386 -0.0026208407 -0.03130762 -0.050034314 -0.09659862 -0.064405605
-0.04937477 -0.027401995 0.09063016 0.038698316 0.08432753 -0.0121307 0.021785371 -0.06097846
-0.010036066 -0.09851243 0.014108278 0.063482136 -0.103582114 -0.052996706 0.06954466 -0.0013629161
0.0235283 0.02119481 0.050587505 0.03621817 0.09233565 -0.0066343015 0.0095141325 0.09182696
0.085025825 -0.06885376 0.036901694 0.06261199 -0.106510736 0.048515722 0.06233588 0.00014586747
0.0037040235 -0.017389681 0.012595818 -0.06339006 0.051721424 -0.038590834 -0.026090568 -0.06375493
0.07914558 -0.02819822 0.014454469 0.08194981 -0.043026913 -0.044255737 0.05643107 -0.018539436
-0.08424131 -0.06791839 0.09147756 -0.045421097 0.0683432 -0.03227165 0.09248699 -0.021283133
0.06386711 -0.085281655 0.046128206 -0.06416482 -0.05372651 0.006222897 -0.03223358 0.06518121
-0.060069017 -0.021525554 -0.061341465 -0.021398608 -0.060310744 -0.10012781 -0.08931676 -0.04015524
0.0057981713 -0.094130404 -0.1073189 -0.07294123 0.055499297 -0.06452368 0.017685333 0.04117122
0.022610825 0.08423506 -0.045280524 -0.047930315 -0.102830306 -0.069848135 0.073467225 -0.08071594
-0.057908773 -0.12480071 0.01800733 0.054083247 -0.070341274 -0.12819628 -0.056334265 0.04414117
0.035391174 0.074146114 -0.026857596 -0.037748396 0.024221053 -0.04114835 0.007858612 -0.0078109293
-0.08670682 0.17116846 0.040420923 -0.062136557 -0.0056549935 -0.085713655 -0.055515192 0.063243166

net.6.bias f4 [100]
00000000: 4a84 323c d3e0 07bd 85d0 993d 2da2 6d3d
00000010: 7720 953d 4818 e8bd b42c 9bbd 129f a6bd
00000020: 7a32 c83c 0c6a 0dbb 2d2b 853d 31c7 023e
00000030: 7802 cf3d 559d 7d3c b583 5ebd 0b6d d93d
00000040: ddc1 85bd 6ccd c53d 2ff0 113e 0e13 ed3c
00000050: e352 0b3e 036c 033e f847 3e3c bfd7 1cbe
00000060: 8445 f13d f9fc df3c 56fb d93d 9a94 6dbd
00000070: 8d7f fcbc f592 8e3d 8375 593d b07b 69bc
00000080: 35fc 613d c279 663d c7b2 22bc 0ec2 c6bd
00000090: b776 ac3d 02bf 463d 969f b3bd ded9 52bd
000000a0: 2730 f13c bc88 f23d 568d 0bbe b96a 9bbd
000000b0: a4d3 90bd 70ca a9bd 3c84 81bd 2303 4f3d
000000c0: 70c4 a03d b286 45bd 9ebe 58bc c4f8 bdbc
000000d0: d2c3 bcbd 4613 c5bc 9f46 b4bd f331 e63d
000000e0: 6cac a7bd e659 dc3d 7cd5 21bc 3943 123d
000000f0: a0fb 883c ae63 283d 4222 d1bd 8781 063b
00000100: b8eb adbd ff3a 7ebd 0dd2 abbd 81b0 2d3c
00000110: 3b60 c9bd d70f 5c3d ca4e 0c3d 4489 dd3d
00000120: 30c8 01be af84 0d3d d217 c83c a0ce e8bb
00000130: e3ab bebd f3be b13b 0ab8 11bd 92fb a3bd
00000140: e261 d5bd 502d 133d 1c64 f03d 8a35 3ebd
00000150: 97c1 1fbd fc0c ce3d 3b84 053d 7f6d 203c
00000160: deb6 49bd 4296 053e 3560 c03d dfac 0d3e
00000170: ab32 263d 2236 67bd ef3e cb3d eba3 81bc
00000180: 4d02 69bd dfd2 12bd ba1e e7bd ed35 9e3d
0.010895798 -0.033173393 0.07510475 0.05801599 0.07281583 -0.11332756 -0.07576886 -0.08135809
0.024438132 -0.0021578101 0.06502376 0.12771298 0.10107893 0.015479405 -0.054324824 0.106165014
-0.06531117 0.09658322 0.14251779 0.02893975 0.13605838 0.12834172 0.011613838 -0.15316676
0.11780837 0.027342306 0.10643642 -0.058003046 -0.03082254 0.069616236 0.053090584 -0.014250681
0.055172164 0.05626846 -0.009930319 -0.09704982 0.084210806 0.048522003 -0.08770673 -0.051477306
0.029441906 0.11842486 -0.13628134 -0.07588715 -0.07071617 -0.08290565 -0.0632405 0.0505401
0.078499675 -0.04822416 -0.01322904 -0.02318991 -0.09217037 -0.024057042 -0.088025324 0.11239996
-0.08187184 0.10759334 -0.009877559 0.03570864 0.016721547 0.041110687 -0.10211612 0.0020523982
-0.084922254 -0.06206798 -0.083896734 0.010601164 -0.09832808 0.053726044 0.034254827 0.10817197
-0.12674022 0.034550365 0.02442542 -0.0071047097 -0.093101285 0.0054243742 -0.035575904 -0.080069676
-0.1041906 0.035931885 0.11737844 -0.046437778 -0.03900298 0.1006107 0.032596808 0.009791731
-0.04924666 0.130456 0.0939335 0.13835476 0.040575664 -0.05644811 0.09924113 -0.015825232
-0.05688696 -0.035845634 -0.112851575 0.07725129

net.8.weight f4 [100, 100]
00000000: 92de 8a3d 0bee 833d 99b5 bd3d dae8 d6bd
00000010: c451 7a3d ec8d a33d 9521 a63d 5d78 b4bd
00000020: 67f4 c03d 94ec df3d 0db3 813d 7f4e a0bd
00000030: 2ecb abbd 8c64 39bd ccb3 803d 7a58 453d
00000040: 1759 eabc cb22 1ebd d1b8 b33c 6956 a8bd
00000050: 1bbd 4a3c 215d 123d b37e 043c 7f45 ec3d
00000060: 4bf0 2ebd 2414 c3bd 3afe 18bc 1767 373d
00000070: 92c0 58bd 110f ad3d df6e 3bbd 01fc 6e3d
00000080: 5510 a5bc 2c7b a9bc be56 b53d 87ab 753d
00000090: d94a 3cbd f270 b2bd 2331 80bd 2cf9 84bd
000000a0: 5412 0d3d f71d 143a 4468 6bbd df32 993a
000000b0: 18cf a53d 48f0 4b3d 1a29 08bd d02b eabd
000000c0: 4a81 82bd a497 51bd f882 923d 83f3 a4bc
000000d0: 3551 a43c 4dad 57bd 5199 843d 4710 11bd
000000e0: 9c51 2c3d 9a96 e33c 7ca0 ae3d 041e 7e3a
000000f0: 91b1 13bd 71e1 a33d 5ac7 103d b489 063d
00000100: eeab 9b3d 088c 98bc af90 c9bd 5860 1fbd
00000110: 0c0a 9abd 75c9 87bd 134b 64bd 53aa c03d
00000120: 5115 04bd b55b cd3d 7183 c23d 84dd 863c
00000130: 9efd 50bd 51fe d53d fdd8 083b 8132 4abd
00000140: be4d 803d 9441 9c3d cd63 4fbc 981d e0bc
00000150: ee50 643d 86d7 573d 6852 fd3d f745 193d
00000160: ba2b 1f3a 7dfb 03bd 5025 a4bc 8ed5 f1bd
00000170: 1406 d9bd 0945 8b3c bd88 4a3d c8df 5f3d
00000180: 7832 8c3d 7c39 2fbd a4f9 a73d 68f3 acbd
00000190: de45 5fbd 6488 18bd 232d 283c d2dd 3e3d
000001a0: de81 d9bb 48ef c3bd 16e4 d73b 5e7b 98bd
000001b0: 069c b5bd c02b c2bd bac6 d6bd 1a14 1ebc
000001c0: 5a7e 783c 7877 f2bc 9bc5 b53d af86 3a3d
000001d0: b139 e43c f579 033d c3ea c8bd 59bc c1bc
000001e0: 8247 553d c724 9cbd 7219 a3bd a8bf 63bd
000001f0: 34d0 20bd b451 ba3d 42af b23d f4ea 34bd
00000200: 2106 4ebd ae3d 5f3d 1ac9 bbbc 35c4 19bb
00000210: 67a4 aebd fc02 103d 61eb b4bd 87a7 bfbd
00000220: cdf8 0abe 9630 cc3d 847c cabb 24db 08bd
00000230: 391d a23b 563b d0bc 04cf c33d 3255 b8bd
00000240: 6f87 483d 7266 873d bc26 293e 948d 293d
00000250: be27 d03d 8f86 69bd 3542 933d b967 95bd
00000260: 67e1 183d 9623 823d 4074 bdbc 706b c9bc
00000270: 7705 6e3d 13f6 51bd 22ee 89bc b0e9 d93d
00000280: 4511 fbbc e504 353d 4450 b03c 700e 6cbd
00000290: aca6 cd3d 0f78 b13d 2f90 8e3d 0544 ae3c
000002a0: 13c3 9ebc 536b d0bd 7ce0 913d 5276 8f3d
000002b0: 76ce e3bb 8e55 cd3d f655 813d 75a8 f6bc
000002c0: 5260 ae3d ec58 12bd ac7e a23d ac3f b23c
000002d0: 155c 85bc 53d0 c8bb 5ea3 d939 a93a 9fbd
000002e0: 995b b7bd 875f d53d c664 a73d cd1f d3bd
000002f0: 7b41 4b3d 5c3d a63d 1adb c13d 892e ac3d
00000300: c14e abbb faea 09bd d57a 5dbc 5158 a63c
00000310: 4ece 533d 1e0c 703d ef2d 60bc e93a 5f3d
00000320: 6549 efbc 1544 b33d f461 a0bc 374c d7bc
00000330: 2524 c33c ef03 36bd c5ae d7bc c072 7dbc
00000340: db52 073d 5384 babd 1123 b6bd 9fa6 303d
00000350: e76d 5a3c aa67 26bd e4c3 f53b 57b7 583b
00000360: 9ccc 9fbc 9d82 1abe d8e8 aabc ba5f b3bc
00000370: 0156 9d3d 94a6 933c 9536 f63c e901 eabd
00000380: 147c f5bb 93d2 47bd 1b87 a6bd 38f0 87bc
00000390: 808a f8bb d194 a4bc 4f52 a9bd cf10 c7bc
000003a0: 5d73 2a3d 3e4a 70bc 2f93 9bbd 7b30 9ebd
000003b0: 5d2f 0cbd 9a34 79bc 2d80 6e3d 2682 21bd
000003c0: 6bd7 8ebd db00 abbc a667 6dbc f03c 743a
000003d0: 8504 12bd 7e60 debc 423b 01be 77d1 713d
000003e0: 1cd4 e5bc 571b b4bd 52ec 3b3c 946c 08bd
000003f0: 6a9a 933d 0370 d5bb 532f 94bd 37bc a93d
0.06780733 0.064418875 0.09263153 -0.10493632 0.061113134 0.07986054 0.08111874 -0.0881202
0.09421616 0.109337956 0.06332979 -0.07827472 -0.08388363 -0.045261905 0.062842935 0.04818008
-0.028606934 -0.0386074 0.021938713 -0.082196064 0.012374188 0.035733346 0.008086848 0.11536693
-0.04270963 -0.09525326 -0.009337956 0.04477605 -0.052918024 0.08450139 -0.04576003 0.0583458
-0.02014939 -0.020688616 0.088544354 0.059978034 -0.045969818 -0.08712949 -0.06259372 -0.06492838
0.034441307 0.0005650217 -0.057472482 0.0011688134 0.080961406 0.049789697 -0.033242323 -0.11434138
-0.06372316 -0.051170006 0.071538866 -0.020135647 0.020058254 -0.052655507 0.06474555 -0.035415914
0.042070016 0.027781773 0.08526704 0.0009693804 -0.036058012 0.08001984 0.035346366 0.032846168
0.07601152 -0.01862146 -0.09842049 -0.03891024 -0.075214475 -0.06630222 -0.05573566 0.09407487
-0.03224689 0.10027257 0.09497727 0.016463049 -0.05102312 0.10448898 0.0020881288 -0.04936457
0.06264828 0.076296955 -0.012658072 -0.027357861 0.055741243 0.052695774 0.12369233 0.03742024
0.00060718844 -0.03222226 -0.020037323 -0.118083104 -0.105968624 0.017000692 0.04944681 0.054656774
0.06845564 -0.04277943 0.08201912 -0.084448636 -0.05450999 -0.037239447 0.010264668 0.046598263
-0.006637796 -0.09567124 0.0065884693 -0.074454054 -0.0886765 -0.09481001 -0.10487123 -0.009648347
0.015166843 -0.029597983 0.08875581 0.0455386 0.02785954 0.03209873 -0.09810402 -0.023649381
0.05207015 -0.07624202 -0.07963838 -0.0556027 -0.039261058 0.09097615 0.08724834 -0.04416938
-0.050298814 0.05450218 -0.022923041 -0.0023462896 -0.08527451 0.035159096 -0.088339575 -0.09358125
-0.13571472 0.099702045 -0.006179394 -0.033412114 0.0049473313 -0.025418919 0.095609695 -0.09000625
0.048957285 0.06611337 0.16518682 0.041394785 0.1016383 -0.05701309 0.07190362 -0.07295174
0.037324335 0.06354444 -0.023126721 -0.024587363 0.05811068 -0.051260065 -0.016837183 0.106402755
-0.030647883 0.04419412 0.021522649 -0.057630956 0.10041556 0.086654775 0.069610946 0.021272669
-0.019380128 -0.101767205 0.07122895 0.0700499 -0.0069521023 0.10026084 0.06315224 -0.030109623
0.085144654 -0.035729334 0.07934317 0.021758877 -0.01627926 -0.00612835 0.00041511183 -0.077748604
-0.08953018 0.10418611 0.08173518 -0.103088 0.049622994 0.08117172 0.094656184 0.084073134
-0.005227894 -0.033671357 -0.013518055 0.020305784 0.05171042 0.058605306 -0.013682826 0.05449954
-0.029209802 0.0875322 -0.019577958 -0.02628146 0.023820946 -0.044437345 -0.026328454 -0.015469253
0.033038 -0.0910727 -0.08893407 0.043127652 0.013331867 -0.040626206 0.0075001586 0.0033068263
-0.019506745 -0.15088888 -0.020862982 -0.021896232 0.076824196 0.018023767 0.030055324 -0.114261456
-0.007491598 -0.048784804 -0.08131238 -0.016594037 -0.00758487 -0.020090492 -0.08267652 -0.024300007
0.041613925 -0.014666138 -0.075964324 -0.07724091 -0.034224857 -0.015210295 0.058227707 -0.03943076
-0.069746815 -0.020874431 -0.014490044 0.0009316942 -0.03564884 -0.02714562 -0.12620261 0.059037652
-0.028055243 -0.08794277 0.011469917 -0.033306673 0.072071865 -0.006513597 -0.07235589 0.08287852

net.8.bias f4 [100]
00000000: 5278 443c 57b8 2ebc 8b53 c93d 9520 69bd
00000010: 1e95 6a3d 474e edbd 67ba 61bd 75c2 03be
00000020: b4da c0ba 0421 ba3d b1cc 8e3d 6518 cc3d
00000030: 926c fabb b87d 833d 29e6 e4bd e383 febd
00000040: 54af 343c fb1a 50bd 8525 c6bd 59bb f9bd
00000050: 2193 fb3c 2906 013d b8de 7b3d b2e0 2a3d
00000060: 97f1 36bd 189b 263d 8369 98bd 188b 80bd
00000070: e241 6cbd 8728 8e3d 03be af3d 2bce bfbd
00000080: de94 a6bd 69ac 053e 829a 13bd 2554 fb3d
00000090: 0b1f bcbd b287 b63d bff3 b8bd 80f3 a7bd
000000a0: 7bef 3d3d 984e d3bc 7b20 f73b c8b8 a1bd
000000b0: e709 1d3c 7c6b f43c b0c5 ccbd bafc 01bd
000000c0: 3adc 953d 0062 103d 437c ddbd c676 8e3d
000000d0: 4ede 6bbc e0d5 bb3d 292d efbd b0e9 c2bd
000000e0: a144 91bd 556b 903a d02a cb3b ff27 dab9
000000f0: 760a 82bd 3093 a53b 0c8f a53d 6261 edbd
00000100: 268b 5ebd 9e9d 523d 5934 8c3d 8ed4 933d
00000110: 9e41 da3d 7f87 d03d 325f 0f3d c417 82bb
00000120: 9308 8b3d 0818 d6bd 8d26 f1bc 47a4 5abd
00000130: 87df c1bd 8149 953d 809b 42bd 3664 313d
00000140: d1e0 dd3c bc8d 8c3d 6b6e a8bc 8386 c6bb
00000150: 1002 d5bd 1c27 6bbd 602b 3c3d de1d b9bb
00000160: 0c4d 3b3d c699 74bd b285 a73c 59b6 573b
00000170: d0b1 a4bb 7ea1 173d d9f3 bf3d d036 27bd
00000180: 0e4f a33d d380 94bd dbbf c4bd fdbd e3bd
0.011991577 -0.010664067 0.09830388 -0.05691584 0.057271115 -0.11587196 -0.055109408 -0.12867148
-0.0014713616 0.090883285 0.069726355 0.099655904 -0.007642337 0.06420463 -0.11176712 -0.12427499
0.01102813 -0.05080698 -0.09675125 -0.12193937 0.030709805 0.031500015 0.061491698 0.041718192
-0.04466399 0.040675253 -0.07442 -0.0627653 -0.05768002 0.06941324 0.08581164 -0.09365495
-0.08133863 0.1305405 -0.036036022 0.12271909 -0.091856085 0.089126006 -0.09030866 -0.08200741
0.046370964 -0.025794312 0.007541714 -0.07896572 0.00958488 0.029836409 -0.099986434 -0.03173516
0.073173955 0.03524971 -0.10814717 0.06956248 -0.014396263 0.09171653 -0.116785355 -0.095172286
-0.07093168 0.0011018316 0.006200172 -0.0004161 -0.063496515 0.0050529465 0.08083925 -0.1159084
-0.05433192 0.051419847 0.06845922 0.07218276 0.10657047 0.10182094 0.035002895 -0.0039701182
0.06788745 -0.10453802 -0.029437328 -0.053379323 -0.094664626 0.072894104 -0.047511578 0.04330846
0.02708474 0.06862971 -0.020560464 -0.0060585155 -0.10400784 -0.057410344 0.045939803 -0.0056493124
0.045727775 -0.059716962 0.020449493 0.0032915084 -0.0050260797 0.037019245 0.09372682 -0.040823758
0.07974063 -0.07251134 -0.09606906 -0.11120222

net.10.weight f4 [100, 100]
00000000: 184e fc3c 1c13 d93c d5ed 913c 8e5f 67bc
00000010: ac8a 3e3d 300f 823b 60f5 9a3c 5a19 0eba
00000020: bcdd c4bd 19c3 a3bb 4459 69bc d72f 423a
00000030: 8a69 bbbd e03f aabd b340 a83d f0d4 273d
00000040: 65f2 0cbc 0801 b43c 67a6 30bd 5a51 7cbd
00000050: 9ab4 35bd 780f 23bb 5d72 d1bd 3fd3 5abc
00000060: 90ad 69bd 08df aabb 90e0 3cbd c109 9e3d
00000070: 5541 583d 12d8 733d 0515 9e3d ae69 733d
00000080: ad05 76bd 2b58 58bd 8268 623d dbde 7ebd
00000090: a8d9 54bc 9432 873d 0abf 563d cc76 273d
000000a0: 00be c7ba 90b8 1d3d f606 3bbd fb07 c1bd
000000b0: 8e1c 64bd 124e a83d 2465 d43c 4a79 043d
000000c0: b53e f93c 6642 023d 2262 2b3d 4b14 92bc
000000d0: f511 6c3d 9937 35bd a0a7 95bd ccf1 c2bc
000000e0: aea8 aabd b0f7 63bd 74d9 973c b35c acbd
000000f0: 6aba 2fbd 1108 acbd 5506 96bd e339 96bd
00000100: 8085 b73d 7545 ccbd 6b62 843d 7833 0b3d
00000110: 204c 733c 43c6 5dbd 8344 95bd a618 883d
00000120: 0f68 f0bc 0440 4d3b a4ec 103d 7081 1ebc
00000130: 8d7a 793d 68c9 b43d 776d 1cbd 589a 433c
00000140: 6d3e 2abd 727f a0bc 72dc 88bd 21d8 993d
00000150: 55d3 f73c 8311 543d 747c d7bd ad00 723c
00000160: 63f1 0d3d 1517 733d 5ab9 953d d12c 063d
00000170: 288e 0b3c c91c 573d 8455 ab3d ec78 923c
00000180: 3f11 fb3c 404b 093b b95d 8d3d 6a5b 5e3d
00000190: b490 2dbd 86df b5bd 94a8 9ebd af99 9dbd
000001a0: 48a2 e9bb 6850 01bc 64ef f93c 8b6b bbbd
000001b0: 4ee6 463d e35d 3bbd 6328 a63d 492b 9b3d
000001c0: 74e6 a8bd b396 4cbd dc54 c0bd 96ef ae3c
000001d0: fbec 873d 78fc 99bd 00ed dc39 514c c83c
000001e0: f6bd 91bd 60f7 8dbd 6522 a7bd 0d7e 49bd
000001f0: e0a5 99bb 3632 63bd 43dc 6fbd 6714 e9ba
00000200: acf7 993c 06df a43d 15aa 533c f2d3 b9bd
00000210: f463 eb3c b0c8 043c d218 c4bd 0e4b af3d
00000220: 8d55 803d d5df 5d3d 49ef a13d 7ec1 04bc
00000230: 8936 9c3d 8d41 49bd c5cd 5ebc 5681 6fbd
00000240: 3622 18bd 4d08 703d 00d0 a639 9adc b73d
00000250: 0017 13bc eaa4 bd3d 803a da3a 7e4b abbd
00000260: 16ca 90bd 5b8e 0dbd ad95 8cbd 3985 9d3d
00000270: 0fc2 9b3c 19c0 3cbd 2249 85bd 1987 723c
00000280: dbab ac3d e632 d3bd 7050 87bd 31d4 833d
00000290: 6085 90bd 9776 0b3d 7555 c7bc 0780 46bd
000002a0: eab5 8c3d b3f4 bfbd 8e57 dabc 2fd2 583d
000002b0: 16b6 113d 0f89 05bd c7ef df3b d089 9cbb
000002c0: 36d4 9e3d a00e a83d d51b 953d 04af a7bd
000002d0: 6b14 fa3b 1fba 30bc a0d8 ddbd 96b2 87ba
000002e0: 6a75 39bd 80b0 08bc ab2f 68bd e7cc 0bbd
000002f0: 60b5 213d 047a b73c 6851 293d 4311 ccbd
00000300: 4b50 8c3d 0e85 503d b50f d4bc e767 b2bd
00000310: 27d6 e5bb 1bad 90bd 9bcc a13d eca1 1dbd
00000320: 5676 843d a0c1 a13c 185c 993d 6673 a23d
00000330: 6d66 ff3c b126 39bd b0c6 91bd 33a3 413b
00000340: bd13 aa3c 3ffc a7bc d4ca 91bd 033f 0ebe
00000350: ad23 96bc b217 883d 9b77 dfbd 2388 a1bd
00000360: 6b49 94bd 7422 76bd 8048 df3a fce2 9f3d
00000370: 5651 6f3d 1d31 c93d 44d5 72bc fdcb 8f3c
00000380: d299 4ebd a124 46bd 5519 acbd a8de 4c3d
00000390: b494 b03d c469 ac3d 262f 47bd 4f53 cbbd
000003a0: 5826 163c eecd ce3b d459 e53c cfab 933d
000003b0: 66d9 1abe 814c 8d3d 029d 4d3d 68f8 b33c
000003c0: f598 8abd 2a23 94bd 30d8 acbc 6b0e c7bd
000003d0: aabd 413d 4a4f aabd 9851 2cbc 6181 2a3d
000003e0: e5d1 a9bc 0461 973c 1ce5 af3c 8482 c13d
000003f0: cd08 883d 8da2 a93d f98c 8b3d 54c5 02be
0.030798957 0.02649837 0.017813602 -0.014121903 0.046518967 0.0039690956 0.018915832 -0.0005420648
-0.09612605 -0.0049976227 -0.014242474 0.00074076414 -0.09150989 -0.083129644 0.082154654 0.040974557
-0.008602713 0.021973148 -0.043127444 -0.06160102 -0.04436169 -0.0024881046 -0.10226891 -0.013356029
-0.057050288 -0.0052145757 -0.046112597 0.07716704 0.05279668 0.059532233 0.07718853 0.059426956
-0.060064007 -0.05281846 0.055275448 -0.06222425 -0.012991346 0.06601444 0.052428283 0.040884778
-0.001523912 0.03850609 -0.045660935 -0.0942535 -0.055691294 0.08218016 0.025927134 0.032342233
0.030425409 0.031801604 0.041841634 -0.017831942 0.057634313 -0.044242475 -0.073073626 -0.023796938
-0.08332954 -0.055656135 0.018536307 -0.084161185 -0.042902388 -0.08399976 -0.073254265 -0.0733526
0.0896101 -0.099741854 0.06464084 0.03398463 0.014849693 -0.054144155 -0.07288458 0.06645326
-0.029346494 0.0031318674 0.035381928 -0.009674415 0.06090789 0.08827478 -0.03819033 0.011938654
-0.04156344 -0.01959202 -0.066826716 0.075119264 0.030252138 0.051774513 -0.105217844 0.014770669
0.034654032 0.059348185 0.07310744 0.032757584 0.008517779 0.052517686 0.0836592 0.017879926
0.030647872 0.0020949394 0.06902642 0.054286398 -0.042374328 -0.08880524 -0.077469975 -0.076953284
-0.007129941 -0.0078927055 0.030509658 -0.091513716 0.04855948 -0.045743834 0.08113172 0.07576615
-0.082470804 -0.049948405 -0.09391186 0.021354478 0.06636997 -0.07518858 0.0004213825 0.024450453
-0.0711631 -0.06931949 -0.08160857 -0.049192477 -0.0046889633 -0.055467807 -0.058559667 -0.001778257
0.018794857 0.08050351 0.012918969 -0.090736285 0.028734185 0.008104488 -0.095750466 0.085592374
0.062663175 0.05416854 0.07906968 -0.008102773 0.07627589 -0.04913478 -0.013598864 -0.058472954
-0.037142 0.058601666 0.0003181696 0.08977623 -0.008977652 0.092599705 0.0016649514 -0.08364008
-0.07069795 -0.03455959 -0.06864486 0.07691426 0.019013433 -0.046081636 -0.065080896 0.014802718
0.08431216 -0.103124425 -0.06607139 0.06436957 -0.07056689 0.034048643 -0.024332741 -0.04846194
0.06870635 -0.093728445 -0.026653077 0.05293482 0.03557404 -0.032601412 0.0068340036 -0.0047771707
0.0775532 0.082059145 0.07280699 -0.081876785 0.0076318285 -0.010786562 -0.108323336 -0.0010352905
-0.04527799 -0.008342862 -0.056686085 -0.034130957 0.039479613 0.022397049 0.0413374 -0.0996423
0.06851252 0.05090814 -0.025886396 -0.08711224 -0.0070140543 -0.07064267 0.079003535 -0.0384845
0.06467883 0.019745648 0.074882686 0.07932167 0.03117677 -0.045202915 -0.07117975 0.0029546737
0.020761365 -0.020506022 -0.071187645 -0.13891225 -0.018327558 0.066451445 -0.10911485 -0.07887294
-0.07240566 -0.06009145 0.0017035156 0.07806966 0.058427177 0.09823821 -0.014821354 0.017553324
-0.050439663 -0.048374776 -0.08403269 0.05001703 0.08622113 0.08418611 -0.04862895 -0.09927999
0.009164415 0.00631117 0.027996935 0.07210504 -0.15121993 0.068993576 0.050198562 0.021969035
-0.067674555 -0.072332695 -0.02109918 -0.09719547 0.04730002 -0.083159044 -0.0105175 0.04162729
-0.020729968 0.018478878 0.021471553 0.09448722 0.066423036 0.08282957 0.06813998 -0.12770587
