models/heatalpha/lambdas/heatalpha_15.pth (torch, 977047 bytes, 51 tensors)

net.0.weight f4 [100, 3]
00000000: 251e c73e 8c97 5f3e a262 083f ca1b f4be
00000010: 3c3d 04ba 6a54 f8bd 26ba 263e c44d 9b3e
00000020: 34b2 833d 5dbb 043f ad8f 24bf a471 66be
00000030: bfc5 b83e 6e4b 3abf 01c5 f1be 6c18 063f
00000040: 484a 563e b2bc 293e b7be 8b3e 19c3 993e
00000050: 7f1b 2e3d 5014 85be 444e 76be 686c 083b
00000060: 4ccf a03e d61c 5dbe c6d4 a7be 9209 c53d
00000070: 66d5 7e3f 1d61 47be 104c 7dbe 51d2 33bf
00000080: 8e58 a83e 711f adbe 3553 55bf b666 18be
00000090: 0ec6 de3c 3b24 743f 4a5e ccbe 0d62 b03c
000000a0: a4a9 e73e f48e 013f 6942 a33e e324 6c3f
000000b0: e38b edbe e122 d73e 27fd 3abf 219b c0be
000000c0: 050f 053f 4f90 fe3d 45d1 56bc 50fd a03e
000000d0: 30d9 91bf 736e a33e 8fd4 c73e 0447 903d
000000e0: a03f 143f 06de 02bf 819e a13f f17b c43e
000000f0: 751d 49bd dcf9 a93c 78f9 893e 7a23 8a3e
00000100: fadc 14bf 7dd6 853d 3d63 a33d 06aa 833f
00000110: 52c8 01bd 5fd5 6c3e 6af1 2040 5b9d f1be
00000120: f5fc f3be a6ec 713f 0d64 d13c a455 b9ba
00000130: 9074 7ebe 97c0 523e c1b0 923e 6251 9d3f
00000140: 9826 16bf 0197 a93d b754 adbf 862a 79be
00000150: 3239 77be b471 d1be 4385 50be a18c 0b3f
00000160: 3ab4 cbbe 2996 01bf 36f7 13bf b2f2 ffbd
00000170: 72de 9cbe a8d1 d13d 06c8 62bf 400a 84be
00000180: 109f 563e bd36 c63e 4a6f 35be 4f13 9ebc
00000190: 165c 06c0 fd17 203d 727e ebbe d21f ec3e
000001a0: 92ef 3bbe c75d 743e c282 db3d 9637 86bd
000001b0: d4a4 eabe 9957 683e 7739 f4bc b63f 15bf
000001c0: 2459 78bc 1073 983e e290 173e 67f2 24bf
000001d0: c772 a2be c69c 0b3f 3190 873f 737c f4bb
000001e0: e648 81be 343e e23f 29fa d7bd ef56 d13e
000001f0: 0974 e43f a623 a93e 3623 12bf 103a 6e3f
00000200: 71fb 5f3d 693c b93e d05e 9ebf 9d73 c53e
00000210: 501b 053e 50a6 14be 53ae e23e 0a58 0dbe
00000220: 5390 9fbe 796d f93e 30cf 08bf f5fd db3a
00000230: 7efd 893d 7058 b83d 6068 09bd 8ced cd3e
00000240: b507 043f 612a ca3e 9058 cc3e 55d3 06bf
00000250: 3215 69bf 77d2 013f 7096 033f 296f a4be
00000260: 9623 df3e e06c a5be 62b6 b7be 364b 01bf
00000270: a8b1 fabd fa25 133f 374c a43b 3747 77be
00000280: a1cd 9c3e 448d 673e 2ed5 d6bc 6b6c 0b3f
00000290: a9d4 a9be 31fe 12be 353d 4c3e 4813 57be
000002a0: 57da 8dbe 6803 603e 673c 9d3e f703 0b3f
000002b0: 8a5f 2abf 59b9 373e 3884 1dbf 7abb 34bf
000002c0: dbae dfbc c340 0abf 5e31 0040 9f1a 313e
000002d0: 1aab e1be a859 c6be 0842 83bd 8d3e 06bf
000002e0: 03dd f8be e1ae 533d f41a d2be 705b cc3d
000002f0: aac2 c8bd d391 433d 9c75 5f3e 0d83 3fbe
00000300: 1d8b 593e 7495 8dbf d271 a0be 6220 013e
00000310: ccfe 83bc e41d 693e c4ee 63be 09f4 b53f
00000320: 11bd 063f d339 113c 0911 8fbe 4c42 053d
00000330: 88a2 043f 7822 973e 85e1 59bd f346 e23e
00000340: ba09 963f b661 863e aa81 633e 6c1d 5fbe
00000350: 614e 1bbe 1f86 1dbe ebba 6ebf 6f2e bbbd
00000360: 4e88 df3c aa8b b33d 1541 b8be b844 0ebf
00000370: 0b83 aebf 314e 3ebe fb6e 8fbe 7544 653e
00000380: 4507 143e a712 1d3f 7626 6a3f 141d cd3e
00000390: 1f29 913d c445 883d 7b76 103f c62b f6be
000003a0: 3236 22bf 9b1a ccbe 67b2 043f 51d7 e03e
000003b0: 6e12 dd3e 3ada 7e3e 975e 2c3f e5e9 6b3d
000003c0: cfc3 a13e 635b bf3d 44a6 9ebd e138 9a3e
000003d0: e1fe 2e3d 8bf7 27bd f9c5 e93e c12f e6bd
000003e0: eab3 803e f68e 19bf 6ce1 343e ded2 dc3d
000003f0: 329b a6be 2fcd 4ebf a5e6 96be 65a5 9fbe
0.38890186 0.21835154 0.532755 -0.4767745 -0.0005044525 -0.12125476 0.16281947 0.30332768
0.06430474 0.51848394 -0.6428173 -0.22504288 0.36088368 -0.72771347 -0.47220615 0.52381015
0.20926774 0.16575888 0.2729394 0.3003166 0.04250669 -0.2599206 -0.24053293 0.0020816568
0.31408155 -0.21593031 -0.3277952 0.09620966 0.9954437 -0.1947064 -0.24736047 -0.7024279
0.32880062 -0.3381305 -0.8333009 -0.14882931 0.02719405 0.95367783 -0.39915687 0.02153113
0.45246613 0.50608754 0.31886604 0.92243785 -0.46395788 0.42018798 -0.7304253 -0.37618354
0.51976043 0.124298684 -0.013111417 0.31443262 -1.1394405 0.31920204 0.39029357 0.07044795
0.57909584 -0.5112003 1.2626497 0.3837581 -0.049100358 0.020749025 0.26948142 0.2698019
-0.58149683 0.06535051 0.079779126 1.0286262 -0.03168518 0.2312827 2.5147347 -0.47190365
-0.47653928 0.9450172 0.025560403 -0.0014139903 -0.24849153 0.2058128 0.28650478 1.2290461
-0.5865264 0.08280755 -1.3541478 -0.24332628 -0.24142912 -0.4090706 -0.20363335 0.5451146
-0.3978594 -0.5061975 -0.5779909 -0.12497462 -0.30638462 0.10245067 -0.8858646 -0.2578907
0.20959115 0.38713637 -0.17718235 -0.019296316 -2.0993705 0.039085377 -0.45994908 0.46118027
-0.18353108 0.23863898 0.107182994 -0.06553571 -0.4582888 0.22689666 -0.029812558 -0.5830034
-0.0151579715 0.29775286 0.14801362 -0.64432377 -0.31728193 0.5453609 1.0590879 -0.0074611246
-0.2525093 1.7675233 -0.10545761 0.40886638 1.7847911 0.3303501 -0.5708498 0.93057346
0.054683153 0.36178902 -1.2372684 0.38564768 0.129987 -0.14516568 0.44273624 -0.13803115
-0.31164798 0.48716334 -0.53441143 0.0016784059 0.06737803 0.09001243 -0.033546805 0.40220296
0.5157426 0.39485458 0.39911318 -0.5266622 -0.91047966 0.5071177 0.51401424 -0.32116058
0.43581837 -0.32309628 -0.35881335 -0.5050539 -0.122409165 0.5747982 0.0050139683 -0.2414826
0.30625632 0.22612482 -0.026224699 0.5446231 -0.3317006 -0.14354779 0.19945224 -0.21003449
-0.27705643 0.218763 0.30710146 0.54302925 -0.6655203 0.17941798 -0.61529875 -0.70598567
-0.027305057 -0.5400507 2.0030131 0.17295311 -0.44075853 -0.38740277 -0.06409079 -0.52439195
-0.4860612 0.05168045 -0.4103619 0.09978378 -0.09802754 0.04774649 0.21822208 -0.18702336
0.21244474 -1.1061234 -0.31336838 0.1261001 -0.016112708 0.22765309 -0.2225905 1.4215099
0.5263224 0.008863884 -0.27942684 0.03253393 0.51810503 0.29518485 -0.053193588 0.44194755
1.1721718 0.26246423 0.22217432 -0.21788567 -0.15166618 -0.15383194 -0.93253964 -0.09139716
0.027286675 0.08766873 -0.35987154 -0.55573606 -1.3633741 -0.18584515 -0.2801436 0.22389396
0.14455898 0.61356586 0.91464937 0.40061247 0.07087921 0.06653932 0.56430787 -0.4808027
-0.63363945 -0.39864048 0.5183472 0.43914273 0.43178123 0.24887934 0.6733183 0.057596106
0.31594703 0.093436025 -0.077465564 0.3012152 0.04272354 -0.04100756 0.45658854 -0.11239577
0.25137264 -0.59983766 0.17664117 0.10782407 -0.3254028 -0.80781835 -0.29472843 -0.31180874

net.0.bias f4 [100]
00000000: 85b2 2a3c 5206 d13e 21f0 d4be 7415 d1bd
00000010: c9d3 b9be 1e3e ecbe 0368 80be 4285 083f
00000020: 80d0 e6be b1c4 093f c405 d4bd 03c6 27bf
00000030: c6bd 84bc 87ce 813e ae48 ae3e dcc6 a53e
00000040: 96cf bc3e ec62 203e c66d 85be 84dc 4cbd
00000050: c320 133f bd1f 4f3d f887 d73d 92cc 2d3e
00000060: 7874 43be 88c6 c9be 1d74 4dbd 2c7e 06bd
00000070: 677a 173f 7056 a53e 4bc5 85be 643c 433e
00000080: e884 733e 95f9 c1bd 62b6 d6bd a925 56be
00000090: b293 5d3e 374a 21be e92a e4bd 4ae4 133f
000000a0: f700 b03e c833 c7be 01c4 313c e145 c83e
000000b0: 0be4 b3be 76b2 42be 1495 183f 8722 473e
000000c0: 7577 083f 8815 41be 1e3b 0d3f 9b61 983e
000000d0: a5c3 58bd 63be 0d3f 3bc0 053e ac87 00be
000000e0: 4081 c6be 3508 b93e a038 dc3e 9c23 fdbe
000000f0: ff8c 6abe e7ad 26be a2e4 9a3e d538 a1bc
00000100: 4022 0abf 077a 65be 7c5c 9d3d 72d1 8b3b
00000110: 95f6 c03e 18da e5be aac6 d83e 6e6e f03e
00000120: 69e7 60be 6810 c8be e128 2a3d 6924 91be
00000130: 14b6 00bf 0855 5ebd 400c 613b d73f c43e
00000140: 7ff8 7fbe a856 c7bd aa15 ab3e b392 2fbe
00000150: 5e88 0f3f 8b52 ad3e 5f02 04bf 7e11 d5be
00000160: 9a94 2fbd 74fd edbe 5ab7 2dbd 2e3a 26bd
00000170: 96c2 e53e cae1 183f 59e0 07bf 940c 123f
00000180: 675b ffbe 413b 2e3e dc6e 96be c66f 2e3e
0.010418539 0.40825135 -0.41589454 -0.1020917 -0.36294392 -0.46141142 -0.25079355 0.53328335
-0.45080948 0.5381575 -0.10352662 -0.65536517 -0.016203772 0.2535288 0.34039825 0.3237828
0.36877126 0.15662736 -0.26060313 -0.050014988 0.57471865 0.050567377 0.10523981 0.16972569
-0.19087398 -0.3940928 -0.050159562 -0.03283517 0.59171146 0.3229251 -0.26127085 0.19066006
0.23781168 -0.09471432 -0.104840055 -0.20912804 0.21638373 -0.15750967 -0.11140997 0.57770216
0.34375736 -0.38906693 0.010849954 0.39115813 -0.3513492 -0.1901339 0.59602475 0.19446765
0.53307277 -0.1885587 0.5516833 0.29761967 -0.052920956 0.5536863 0.13061611 -0.12551755
-0.38770485 0.36139074 0.4301195 -0.4944123 -0.22905348 -0.16277276 0.30252558 -0.01968042
-0.5395851 -0.22409831 0.076836556 0.004266911 0.37688127 -0.44892955 0.4233907 0.4695925
-0.21963276 -0.39075017 0.04154289 -0.2834809 -0.5027783 -0.05428031 0.0034339577 0.38329956
-0.24997137 -0.09733325 0.33414966 -0.17145805 0.56067455 0.33852038 -0.5156612 -0.41614908
-0.042866327 -0.46482432 -0.042411186 -0.04058283 0.4487502 0.59719527 -0.530767 0.5705044
-0.49874422 0.17014791 -0.29381454 0.17034826

net.2.weight f4 [100, 100]
00000000: 13a2 88bd 9ae6 fbbd 3586 7d3d 27b4 233d
00000010: 7280 ac3c d4ff 193e 7ec6 cdbd 7f3d 24bd
00000020: a400 973c b404 963d c7ea bebd 56f1 ad3c
00000030: 3e54 a4bd 00b2 9fbd f0dc f5bc 5570 30bd
00000040: a041 333d 7241 c03d 7845 f23d 073b b9bc
00000050: f76c 99bd 3e9f 6fbd 20e7 013d ee30 c73d
00000060: 2482 76bd ccf7 da3d ee36 aabd a326 923d
00000070: 0ce7 08bd 1c3e 153d 06fc 8ebc 9136 3bba
00000080: 4a6c 733d 0fd5 d9bc a0a3 74bd 4975 d73c
00000090: b73e c6bd ef79 85bd 20b3 663d ceea 243d
000000a0: 9138 d7bd 8b4b 8c3c 20f7 2cbb 853e d03d
000000b0: 261f 84bd 19de 033e b47e 173c d01e a1bd
000000c0: a5a5 8b3d e383 28bd c163 aebd d3e2 f53a
000000d0: 011f 153d 165a d23d 627f 873d 3373 18bd
000000e0: 1840 493d eb20 b93d 956f c8bc 4f89 80bd
000000f0: a1ff 68bd db52 07bd a05b bdbd 1912 f2bb
00000100: 0f15 3c3d f6c1 62bd 9fba d53d 791b 373c
00000110: a6c8 f33d 3362 76bc 58a9 70bd 6735 b73c
00000120: 15e7 0bbc 8331 bc3c 18dd 63bd d452 79bd
00000130: bfc0 4ebd 7ff9 fcbc 9da1 693d e5b5 7e3b
00000140: 2223 66bd 60ac 45bd cc4f 9f3d 714d 0a3d
00000150: ca06 a9bd efb8 b0bc 6b79 543a 157f 873d
00000160: c111 073d d786 e93c c121 38be a918 b93d
00000170: 7535 f13d 647b a03d 2244 afbd fa94 cdbc
00000180: 9535 4dbd 2e73 aebd 11af 27bd c46a f83c
00000190: dbad 98bc 502f b6bd 1dd0 5ebd 6737 a73d
000001a0: c6ad a23d e2d9 5c3c 5806 a03d c9f4 b6bd
000001b0: 298b 32bb f1bf cabd 942a 63bb d7fd 713d
000001c0: 04a5 9c3d 1cc8 8e3b 32df a1bd 3b00 8d3c
000001d0: 9c20 05be 76bc 9ebd fa43 a33c 94e3 8b3d
000001e0: cdd6 18bd 797e 8a3d dd63 6e3d f76b 943d
000001f0: 55cf 1abd 5e14 17bc 6b6c d33d e688 393d
00000200: f166 4ebd 20a3 88bd 1f8c 763d c91a 633d
00000210: 1a11 223d b9dc ccbc d982 68bc 539d 94bd
00000220: 48a3 ce3d b8ac 03bd f375 bbbd 5da2 19be
00000230: 76a1 7a3d 47b2 ad3d 0b6e 1fbd c212 9ebd
00000240: 05bf 873d 4c43 053d ca0f b6bd f1f0 ae3b
00000250: 8d3b 2dbe 0422 30bd 3b3f febd b80b 82bd
00000260: 4c43 bb3d e1f9 b23c 945a f5bc e3d1 2f3c
00000270: 27d2 1abd a902 e1bd 7113 51bd 77b0 f73d
00000280: 219e f63c a413 1a3d eb98 c0bd 86a9 7abb
00000290: de00 b23c eedd 8fbd 7592 a7bd 3a2b a13d
000002a0: 1cfc 09be b362 6bbd 279b 58bd 4632 d3bd
000002b0: ddad fb3c f190 1f3d 1619 8c3d 731c ac3c
000002c0: c78d b03d 05e6 203d 405c 01be ec7b 093c
000002d0: 951b 52bc 17ca 53bc e6e8 36bd e389 24bc
000002e0: e541 a2bd 42bc 85bd 46a2 38bd 4ea6 0c37
000002f0: 19ce ba3a 7690 b9bd d784 bfbc 546e 76bd
00000300: 03d7 8dbd 8c02 b7bd 64f2 f83d 0b32 8a3d
00000310: df58 103d b6f4 45bb a2d7 efbc 3199 77bc
00000320: 119f 343d 362c 953d 4b50 343d df35 4b3d
00000330: 5d26 34bb ebb0 08bd f1fa 863d 42f0 89bd
00000340: a446 783d 13de 803d 7e3e 7f3d 8b81 b63d
00000350: 42f5 613d 4075 95bc a10e 38bc 6746 3fbc
00000360: e10f 2dbd 35d4 b4bc 9d87 d33c 4e57 d23d
00000370: e730 60bd 0015 d93c 9fd9 c43d f4cf 8a3d
00000380: dc2f 34bd 3a59 61bd 72d1 b0bd de1a 47bd
00000390: 442a 5dbd f3ae 01bd e4a7 193d 6101 c83d
000003a0: 171d fa3d 997d 403d 23ee 56bd f7c8 c13c
000003b0: 8f7f 7c3d 325d 563d df2c a03c 3f24 babd
000003c0: bf70 ac3d b705 2d3d 218d a1bc 4611 5bbd
000003d0: d573 1d3d 5a13 c2bc 35fc d1bd 6506 813b
000003e0: 6157 45bd 51a9 cd3d 66a8 05be 6729 69ba
000003f0: 2a05 afbd c06e 59bd 454b e1bd a8d2 19bc
-0.06671538 -0.12299843 0.061895568 0.03996673 0.021057341 0.15038997 -0.10047625 -0.04009771
0.018432923 0.07325116 -0.09322124 0.021233242 -0.080238804 -0.07797623 -0.030012578 -0.04307588
0.043763757 0.09387483 0.11829656 -0.022611154 -0.074914865 -0.058501475 0.03171456 0.097261295
-0.060182706 0.10691795 -0.08311258 0.071362756 -0.03342347 0.036436185 -0.017454159 -0.0007141615
0.059429444 -0.026590852 -0.059726357 0.026301043 -0.09679931 -0.065173976 0.05632317 0.04026299
-0.10508836 0.017125865 -0.0026392415 0.10168175 -0.064512536 0.12877692 0.009246517 -0.07867205
0.068187036 -0.041141402 -0.0851512 0.0018759615 0.03640652 0.10271089 0.06616093 -0.037219238
0.04913339 0.09039482 -0.024467269 -0.062761895 -0.05688441 -0.033038 -0.09245992 -0.0073874113
0.04591852 -0.055360757 0.10435986 0.011175984 0.11903505 -0.015038061 -0.05875525 0.022364331
-0.008538981 0.022972828 -0.055630773 -0.060870007 -0.050476786 -0.030880688 0.057038892 0.0038865742
-0.05618585 -0.048260093 0.07778892 0.03376526 -0.08253248 -0.021572558 0.0008105251 0.06616036
0.032975916 0.02850668 -0.17981626 0.09037907 0.11777774 0.07836035 -0.08557917 -0.025095452
-0.050099928 -0.085180625 -0.04093844 0.030324347 -0.018637588 -0.08895743 -0.05439769 0.08164864
0.07943301 0.013479682 0.0781371 -0.08933408 -0.002724359 -0.09899891 -0.003466283 0.05907997
0.07648662 0.004357351 -0.07903899 0.017212024 -0.1300072 -0.0775079 0.019929875 0.068305165
-0.037314225 0.06762404 0.058200706 0.07247155 -0.037795383 -0.0092211645 0.103234135 0.045296572
-0.05039114 -0.066717386 0.060192224 0.055445466 0.03956709 -0.025007593 -0.014191353 -0.0725657
0.10089737 -0.03214714 -0.091533564 -0.15003343 0.061189137 0.08481269 -0.038923305 -0.077184215
0.06628231 0.032534882 -0.0888973 0.005338781 -0.16917248 -0.04300119 -0.12414404 -0.063498914
0.09143695 0.021847667 -0.029950418 0.010731193 -0.037798073 -0.109868355 -0.05104393 0.12094205
0.030104699 0.037616387 -0.09404167 -0.0038248016 0.02172893 -0.070247516 -0.08182231 0.07869573
-0.13475078 -0.057467174 -0.05288234 -0.10312323 0.030722553 0.038956586 0.06840722 0.02100966
0.08620792 0.039281864 -0.12632847 0.008391362 -0.012823959 -0.0129266 -0.044655703 -0.01004264
-0.07922725 -0.06530048 -0.04507663 8.383371e-06 0.0014252096 -0.09060757 -0.023378773 -0.06016381
-0.06925776 -0.08936033 0.12155607 0.06747826 0.035241004 -0.0030205674 -0.029277626 -0.015112207
0.04409701 0.07283823 0.044021886 0.049611922 -0.0027488687 -0.033371847 0.06590832 -0.06735279
0.060614243 0.06292357 0.062315457 0.08911427 0.055165537 -0.018244386 -0.011233957 -0.0116745
-0.04225147 -0.022073844 0.025821501 0.10270558 -0.054734137 0.026499271 0.096118204 0.06777945
-0.043990955 -0.055016734 -0.086336985 -0.048609607 -0.053995386 -0.031660985 0.03751363 0.09765888
0.1221258 0.04699478 -0.0524732 0.023655398 0.061645087 0.05233497 0.019552646 -0.09088945
0.08419942 0.04224178 -0.019720616 -0.05348327 0.038440544 -0.023690868 -0.10253183 0.00393753
-0.048179034 0.1004206 -0.1305252 -0.0008894414 -0.08545907 -0.053084135 -0.11000685 -0.009388603

net.2.bias f4 [100]
00000000: f4d2 0cbd c565 a53c abbd a33d ef4b 3a3d
00000010: 0c74 3c3c 7327 d63d 3a35 10bd f304 cebd
00000020: 3eb4 b6bd 5e9d 60bd a433 183d f57e b3bc
00000030: 9ccb c1bd f39e 9e3d 23b7 4fbd 3d06 ab3d
00000040: 4268 87bd d208 62bd 9056 81bd 3b14 3fbc
00000050: 000d 06bd 4598 abbc a3bd 363d 2665 4b3d
00000060: daf5 973c 7a5d acbd b696 60bd 6c5a e0bd
00000070: 7757 2d3c ffc9 0c3d 2f2d ad3d 48c3 9bbd
00000080: 742d 383d 4413 d4bd 0edc 8bbd f48c 4e3d
00000090: 8178 293d 7502 b9bd 5e9c df3b 6d61 59bd
000000a0: c6b8 59bd 4d7d 133d 13df a93d 6aef cbbc
000000b0: 4b79 0a3d 02b7 603d 1736 893c bb7f 80bd
000000c0: 3eed 273d e357 c03d 2b0c b3bd d3e8 cebd
000000d0: 0253 87bd 586d 973c 3bc4 2d3d b363 123c
000000e0: 92bb 30bd a16f 3ebc ab6b 843a 85aa b93c
000000f0: e3be 0cbd 8fff 043d 3ba3 4c3b ad4f 933d
00000100: 810b 283d eb13 c63c 2b89 57bd 0c94 d8bd
00000110: ad2d 3dbd 1804 4d3d 4c89 52bc 9c34 d9bd
00000120: a515 24bd f7a6 bbbc 37db 01bd b630 6dbd
00000130: 11e1 f0bd b920 253d 5678 a5bd 4828 813d
00000140: 683b 983c f5a2 703d 4225 a5bd 47c6 dbbc
00000150: e5bb 5d3d c4e6 b03c cdc0 04bb 4d1f 3ebc
00000160: d2fd 04bc d58f b5bd fcad a5bd e961 d33d
00000170: 41fc 08bd ec29 923c 6372 be3c 5ddc 2bbd
00000180: f23d b1bd 1d32 05bd df15 ab3c 9879 9b3d
-0.034380868 0.020190129 0.07995161 0.045482572 0.011502277 0.10456743 -0.03520701 -0.10059538
-0.08921097 -0.054837577 0.037158623 -0.021911124 -0.094626635 0.07745161 -0.050711762 0.08350799
-0.066116825 -0.055184193 -0.063153386 -0.011662538 -0.03272724 -0.020946631 0.044614445 0.04965701
0.018549848 -0.08416267 -0.05483123 -0.109547466 0.010579935 0.034372326 0.08455884 -0.07605606
0.044965222 -0.10355237 -0.068290815 0.050427392 0.041374687 -0.09033672 0.0068240603 -0.053071428
-0.05315473 0.036008168 0.08294501 -0.024894435 0.03380708 0.05486203 0.016749425 -0.06274363
0.040997736 0.09391763 -0.08742555 -0.101030014 -0.06607629 0.018484756 0.042423468 0.008934903
-0.04314763 -0.011623294 0.0010102888 0.022664318 -0.03436173 0.032470282 0.0031225223 0.07192931
0.041026596 0.02417942 -0.052621048 -0.10575113 -0.046186138 0.050052732 -0.012850117 -0.106057376
-0.040059704 -0.022906763 -0.0317032 -0.057907782 -0.11761678 0.04031441 -0.08079593 0.06306511
0.018583015 0.058749158 -0.08063747 -0.026827944 0.05413427 0.021594413 -0.002025652 -0.011604142
-0.008117156 -0.088653244 -0.080898255 0.10321409 -0.033443693 0.017842256 0.023247903 -0.0419582
-0.08654393 -0.032518495 0.020884452 0.075915515

net.4.weight f4 [100, 100]
00000000: c5b2 e8bd 65e6 503d e40f 283d e67f 403d
00000010: 4860 8e3c 4486 6f3d 25c8 8e3d b17f 263d
00000020: 9395 26bd a979 96bd 4751 b6bd 0366 0dbc
00000030: 48e8 7cb9 a3e4 bfbd 0e3b e6bc 0a35 30bc
00000040: af24 b6bd d82e f53c 3042 353d 3949 f1bd
00000050: 63f0 11bd 068d 1d3d 71b5 cd3c 55e1 b7bd
00000060: 5d15 a93d b1c9 73bd a576 4ebc e8bf c1bd
00000070: 26e9 9abd f2fd b5bd 3a1c 9ebd f581 51bd
00000080: e83c e1bd 6a83 d43d 8e1a 533c f841 9c3b
00000090: ac2d 75bd 692b 963c e6cd 1c3d e1a5 f63b
000000a0: f320 4f3d 8d51 49bd 71fe 9b3c f54d 92bd
000000b0: f74b 883c df0e f1bc 70a9 fd3b 5f9e eb3c
000000c0: be56 14bc a1c1 b03d 08de 87bd f657 96bb
000000d0: 24c2 873d 990f 1e3d 1df5 31bc a032 67bd
000000e0: cefc ddbc df85 a6bd 07bf 5dbd 4ba2 bc3d
000000f0: 5354 7abd 5e52 aa3a 3b17 c5bd 49cd 5e3d
00000100: 0020 4fbd 7d96 b03d 11fc e73c b319 e4bd
00000110: fa86 a2bd a3bc abbd 6019 3c3d 8af1 08bd
00000120: c173 b33c d208 5dbc 9258 d53d 251a e3bd
00000130: bd26 073c d242 49bd ae98 97bc f032 3dbc
00000140: 842b cfbd b3ca 6e3d fb5f 1abc c71e 023e
00000150: c28c 45bc 1e66 c2bd 0528 9f3d 5790 68bd
00000160: 9c3c f33d 678a 973c 3e49 14be 4e14 f33d
00000170: be68 bf3c c9d4 343d 1fe7 a9bc d0ca acbd
00000180: 3f13 de3d db13 ee3c 7cc6 b0bc edf6 00bd
00000190: b059 c0bd ca55 11bd a363 7a3c ff38 5bbd
000001a0: ea37 cc3d 57df aa3d e041 963d a21c 17bc
000001b0: 3c58 813d fe2d 853b 27a2 223d 82df b8bb
000001c0: d6f2 0fbd 5e1b 13bd be74 a8bd 2f68 5a3d
000001d0: b6cb a7bc e8cc 513d bf1e 9a3d 8954 ba3b
000001e0: 21c5 6d3d 9f5e a63d 808a b03d a47c 3bbd
000001f0: b107 56bb 2e52 8fbc 84d5 6a3d a010 0b3d
00000200: eb0f 97bd 0bdd 72bd a675 413d def1 3c3d
00000210: f00c 98bd 4c95 9ebd a8b8 c0bb f5c8 c2bd
00000220: 9966 67bd b288 603d cc16 723d a920 6e3d
00000230: 92b9 4abd 8c30 a5bd 7c89 783d 45da 0e3d
00000240: 9ca2 2cbd 4bbe 41bd d4f6 5f3d f478 2e3d
00000250: c0c4 023d 2cae 023d 2863 9e3a 4158 733c
00000260: dd5d 03bb 14a7 04bd 11ff 2b3d fcee 753d
00000270: 03d7 983d f3e2 8c3d ef2e 553d ebc4 d5bd
00000280: 2f47 12bd 3423 8ebd 22a7 e33d 34f6 a9bd
00000290: e3b7 d0bd 4588 ee3a 79bb cf3d ffb7 7e3d
000002a0: 6e83 dc3d a023 f1bc e5ee 8dbd 2883 66bc
000002b0: cc54 2abd e020 5cbd 65d0 423c 2e4a 0f3e
000002c0: 60d6 163d 2e8a 573c db29 da3b 8fc7 6dbd
000002d0: acea 5d3d b42d 003e 4d7a 1d3d 4668 79bd
000002e0: bbd9 c0bd a1bf adbd 5310 4b3d e240 8bbd
000002f0: 6ec6 1d3d adf4 1e3d 76f6 99bd 3304 cdbc
00000300: 25c1 e7bc 73eb d5bc 518b f9bc 95df 3f3d
00000310: 5ae9 c83d 0752 76bd 4eb1 dabc eb90 84bd
00000320: 1640 1abd cb4c 393d e08b 22bc 08b1 9cbd
00000330: 1fb7 d03d 6f20 81b9 923d 7ebd e861 b03d
00000340: 5b07 453d b086 98bc 3305 903d cf4d bbbd
00000350: 5cce 003d b58d 9f3d cc1a 163a 3231 a9bd
00000360: 8931 843d dd0f ba3c 7104 143d 349f e9bc
00000370: 04d0 5a3d 1e86 a23d 69d2 9abc 1184 c7bc
00000380: ed81 abbd 7249 cd3d 2e44 81bc 383b 2a3d
00000390: 1dd9 9ebd 1abc a23c 8ab6 333d fa06 b63d
000003a0: d406 b8bd fa07 53bd 58ad 213d 2dab ce3d
000003b0: 90bb e9bc 1bb4 bb3d 8e90 853d 364e 243d
000003c0: 3345 3a3d ef8a 873d 3d1d c7bb bf6d bd3d
000003d0: 5c3c 25bd c28d 973d 0b50 78bc b7c2 6d3d
000003e0: e28a 9cbd b81b be3d c7b3 7e3d 508d babd
000003f0: 848c 723d f2ca fe3c a7d0 dbbc a6d3 14bd
-0.113622226 0.05100097 0.04103078 0.046996973 0.017379895 0.058477655 0.06971768 0.04064912
-0.04066999 -0.073474236 -0.08902221 -0.0086302785 -0.00024119124 -0.09369781 -0.028104331 -0.010754833
-0.088937156 0.029929563 0.044252574 -0.11781544 -0.03562964 0.03846457 0.025110932 -0.089785255
0.08256028 -0.05951852 -0.012601529 -0.09460431 -0.07564001 -0.08886327 -0.077202275 -0.051149327
-0.10997945 0.10376628 0.012884749 0.0047686063 -0.05985801 0.018331246 0.038282298 0.0075270985
0.050568532 -0.04915004 0.019042226 -0.071437754 0.016637785 -0.029426036 0.007741146 0.02876204
-0.009053884 0.08630682 -0.06634146 -0.0045881225 0.06628826 0.038589094 -0.010861662 -0.056444764
-0.027098086 -0.08131003 -0.054137256 0.092106424 -0.061115574 0.0012994518 -0.096235715 0.054394994
-0.050567627 0.08622453 0.028318437 -0.11137714 -0.07935901 -0.08385589 0.045922637 -0.033433475
0.021905782 -0.013490872 0.10417284 -0.11088971 0.008248982 -0.04913599 -0.01850542 -0.011547789
-0.10115722 0.058298778 -0.009422298 0.12707053 -0.012057485 -0.094921336 0.07771305 -0.05677828
0.11876795 0.018498613 -0.14481065 0.11869107 0.023365375 0.04414824 -0.02074009 -0.08437121
0.10843515 0.029062202 -0.02157902 -0.031485487 -0.093921065 -0.035482205 0.015282544 -0.053521153
0.09971602 0.0834338 0.073367834 -0.009223135 0.063156575 0.0040643206 0.03970542 -0.0056418786
-0.035143696 -0.03591477 -0.08225392 0.053322013 -0.02048288 0.051220804 0.075253956 0.005686347
0.058049325 0.08123516 0.08620167 -0.045773163 -0.0032658393 -0.017495241 0.05733253 0.0339514
-0.07376083 -0.059292834 0.04723134 0.0461291 -0.07424343 -0.0774332 -0.0058813877 -0.09510986
-0.05649433 0.054817863 0.059103772 0.058136616 -0.04949338 -0.080659 0.06067799 0.034876127
-0.042147264 -0.04730062 0.054678753 0.04259582 0.031925917 0.031904384 0.0012083994 0.014852584
-0.002004496 -0.0323859 0.041991297 0.060042366 0.07462885 0.06879225 0.052046712 -0.1043795
-0.035712417 -0.06940308 0.111158624 -0.08298913 -0.101913236 0.001819857 0.101431794 0.06218719
0.10767256 -0.029435933 -0.06930331 -0.014069356 -0.041584775 -0.05374229 0.011890505 0.13993141
0.036825538 0.013155503 0.0066578216 -0.058051642 0.05417888 0.12517434 0.038446713 -0.06089046
-0.09416529 -0.08483816 0.049576115 -0.06799485 0.038519315 0.03880756 -0.07517712 -0.025026416
-0.02829034 -0.026113247 -0.030461939 0.046844084 0.09810133 -0.06013682 -0.026695874 -0.064729534
-0.037658773 0.04523925 -0.009921044 -0.076509535 0.101911776 -0.00024628962 -0.062070437 0.08612424
0.048102718 -0.018618912 0.07032242 -0.091457 0.0314468 0.077907 0.0005726039 -0.082613364
0.064547606 0.022712642 0.03613705 -0.028518297 0.053421035 0.07935737 -0.01889916 -0.024354966
-0.08374391 0.10023774 -0.01577958 0.04156038 -0.07756255 0.019865084 0.043875255 0.088880494
-0.08985677 -0.05152128 0.039471954 0.10091243 -0.02853182 0.09165212 0.06521712 0.04011365
0.04547615 0.06618296 -0.0060764835 0.09249448 -0.040340766 0.07400085 -0.0151558025 0.058047023
-0.07643677 0.09282631 0.062183168 -0.091089845 0.059216037 0.031102631 -0.026832892 -0.036334656

net.4.bias f4 [100]
00000000: a1fa 443d 7322 b5bc 3f7d 823d 9e78 253d
00000010: 237b c03d 2c08 9dbd 3798 bc3d 5fa2 3c3d
00000020: a983 1cbd 199b 2b3d 6a77 f6bc 6105 c7bc
00000030: d25a aebd 2148 a53d 56e2 fabb f7c7 b9bc
00000040: e442 5a3d 6727 a33d 9cef 5d3d 800e 643d
00000050: 2485 1ebd ed97 33bd 8e9a 4b3d 1825 adbd
00000060: 25e0 8b3d 4a0a a4bd 41b6 8c3d 532c 27bd
00000070: fde9 34bb 50ae 053d 8c51 a3bd a45e 4abd
00000080: 3dd9 31b8 965f c7bd 5712 743d c6f5 30bd
00000090: dfc6 64bc b8d2 a33c c7ac d93c 61c3 1bbc
000000a0: 1e79 a03d b863 abbb d08e 45bd 948e b33d
000000b0: 89d2 8c3d d56b 9fbc 3816 84bc 114e e73c
000000c0: 8191 42bc 80fa 46bc 9e18 de3c fd79 c43c
000000d0: 61cf 243d d8a0 02bd b651 67bd fd1b a03d
000000e0: c916 c63d 358c 18bd 18e5 34bc 6566 8abd
000000f0: 8aa1 6e3d 5283 a53d be29 a5bd e8a9 68bd
00000100: fcfa c3bc b30a 133c 6938 de3d 5e38 a53d
00000110: 6c66 e5bc 51b5 abbd 29d3 cc3d 499f 87bd
00000120: 9a5f 36bd e779 cf3c 844a d23c 520d 993d
00000130: 462b ea3b b649 4b3b 7c86 023e b639 31bc
00000140: f686 183d eea2 ff39 79ff 1a3d f13b 56bd
00000150: 6e20 97bd 8d80 0ebd 2a87 babc 2fdd 8fbd
00000160: 8b63 9e3d 250a b53d 161d b63d 6a88 74bd
00000170: 4996 893d 843a eebd dc8f 0e3c 3f54 893d
00000180: 3d3c bb3d f43e cdbd 587c 8d3d 50fc e73b
0.04809058 -0.022111153 0.06371545 0.040398233 0.093984865 -0.07667574 0.0920872 0.046053287
-0.0382115 0.04189596 -0.030086238 -0.024294557 -0.08513416 0.08070398 -0.007656376 -0.022678358
0.053286448 0.079665 0.054183587 0.05567789 -0.03870119 -0.04384606 0.04970794 -0.08454341
0.068298616 -0.08009775 0.068707 -0.040813755 -0.0027605288 0.03263694 -0.07974538 -0.049406663
-4.2402407e-05 -0.097350284 0.059587803 -0.043203138 -0.01396343 0.01999794 0.026571644 -0.009507031
0.07835601 -0.0052303933 -0.0482319 0.08767429 0.06876094 -0.019460598 -0.016123876 0.028235467
-0.011875511 -0.012144685 0.027111348 0.02398395 0.040236834 -0.031891674 -0.05647441 0.07817838
0.09672315 -0.037243087 -0.011040948 -0.067578115 0.058259524 0.08081688 -0.08064602 -0.05680266
-0.02392339 0.008974719 0.10850603 0.08067392 -0.02800294 -0.08384193 0.10001213 -0.06622178
-0.044524767 0.025326682 0.025670297 0.07473244 0.007146272 0.0031019277 0.12746614 -0.010816982
0.037238084 0.00048758782 0.037841294 -0.05230326 -0.07379232 -0.034790564 -0.02276953 -0.07024609
0.0773383 0.088398255 0.088922665 -0.059700407 0.06718118 -0.11632255 0.008701291 0.06705522
0.09142349 -0.10021773 0.06908482 0.0070796385

net.6.weight f4 [100, 100]
00000000: 710d 0dbd 98a8 1abd 63cb 91bd 75f8 6c3d
00000010: 5827 a9bd 4b9f 30bb 5ceb 7dbd 6a6c 26bd
00000020: 7963 d43b 3a6b 993c e337 b7bd cb6c c83c
00000030: 28e9 1abc 0ed8 8f3d 3127 9dbc 6756 ef3c
00000040: 71c8 71bd 7b5b 8cbd cbbe bfbd 18dc 9cbd
00000050: 55a7 50bd 43d2 08bc 0c51 e0bd e179 f4bc
00000060: 610d 1fbd d9e0 92bc 1775 2a3b d421 a5bd
00000070: 43d5 613c 523a cdbc c4de 953d c0b5 b43c
00000080: ab78 83bd b63f 4d3c 02b8 94bc 7141 10bd
00000090: f8f4 f03b 153e b7bd 2cca a6bd 18a6 18bd
000000a0: 2dba e33b 4a8c 2a3d fc00 9e3d 4852 98bc
000000b0: 2eef f3bd d9e3 bfbd 6191 573d b493 9b3d
000000c0: fbea 9fbd d4b0 93bd 9cc2 a33d 8482 fe3c
000000d0: 071f d13c 7f34 363d 641f eb3c 8078 32bd
000000e0: 453b 49bd 8821 713d 3271 e6bc f30d b5bd
000000f0: 967f 3c3b 1ac4 90bd 2107 babd d382 64bc
00000100: 6bef cb3b 5819 8d3d 284b f2bd d90c b7bd
00000110: 2a0d 8d3d 9c4c 273d 0c6c d7bd 65fd 163d
00000120: cea2 2f3d d063 963d d4b3 87bd 59b7 903d
00000130: 5023 27bd d71f db3d a77a b5bd 73f6 95bd
00000140: fcb9 73bd 7428 83bd d92b afbb 2cdb 6a3d
00000150: fe4b e93d 1035 d4bc 9c9c 9e3d da74 28bc
00000160: c1e6 6f3c 666f e93b 729b c53c 0e97 ab3d
00000170: a6d2 0ebe bc7a 95bc 74c8 8b3d ab1e da3c
00000180: 0312 ac3d fc29 afbd 7665 c53d 06f1 33bd
00000190: 8f20 09bb 5fe7 933d 7334 d93a 221d 5ebd
000001a0: e93e 46bd e92d 963d 072b 9f3d 01cf b73d
000001b0: 46d5 aabd 7141 633d ea8e edbd a54a 063d
000001c0: 1923 ed3c f334 313c 834b 9d3d 0e85 c4bc
000001d0: 130c 0f3d d87f 88bd 3232 143d c819 af3d
000001e0: 855f 14bd 99b8 d3bc 347b 49bd 37e1 5fbc
000001f0: 19d6 b73d a837 48bd b049 d4bc b96d 913d
00000200: 6850 dabd d6ef cfbc e76d 68bd a59b a93c
00000210: 8a23 94bb 93d9 d83d 7adb 4f3b 63bc 983d
00000220: 168f 4bbd c28e 033c f0f7 0abd 6854 aabd
00000230: d5c1 d53c 8b26 4c3b 0f66 1a3d 1d43 973d
00000240: aa30 3bbd ccc5 dabd a737 623d fc31 8cbd
00000250: 3b5c 17bd 425f bb3d 9443 8d3d 335d 4cbc
00000260: 5b27 8b3d 310d 623d e5e1 4a3c 7b97 0fbc
00000270: f078 bb3d dfa6 653d 0a0c a6bc 5992 68bb
00000280: d19a 2cbc 9db8 a43c 997e af3d 8de6 77bd
00000290: 69af 663c e1d6 5bbd 6383 7f3d fb28 7abd
000002a0: 087a b1bd 76d2 dfbd 17ad 2a3c 76e0 e3bc
000002b0: 6f65 bebd 1ce0 d4ba 8fb5 39bd d63e d73d
000002c0: 50a8 c13d c2d1 c63d ec7a 693d 8619 223d
000002d0: d799 c2bd 3d4a d6bc f64e c8bc 0930 82bd
000002e0: d589 273c 95cd f23c 342d d5bc 0dc7 873d
000002f0: c6cb b4bd 9da1 e53d 358f 913d 3256 29bc
00000300: 8bfe 71bd 5ff3 a33d 24b5 68bd 49b6 fdbc
00000310: 646c 8a3d 519a 793d 543c 8cb9 f284 1e3d
00000320: 885e 413c 66e1 c9bd 03f5 323d 75f4 d13b
00000330: b607 82ba 3c5e 9d3d 7d61 d6bd bd6d 863d
00000340: 24e3 a93d 8e07 683d ca1c 833d 00a6 95bd
00000350: 9b7f b43d c6d3 fb3c a66c 853d 945b 8ebd
00000360: c0c4 873d bf13 6e3d 598f 8d3d 5516 8e3d
00000370: c78d 19bd 4b92 af3d 3cfb abbd a9f8 d938
00000380: b12e 833c a4df 3b3d 4ff0 803d 52b1 543b
00000390: ba2e 913d 7068 883d d015 b3bd 4c6e ab3d
000003a0: b612 90bc 9056 a2bd a7b1 20bb 799e e43c
000003b0: 105a 6dbd e93f 89bb f1d1 a7bd 9954 82bd
000003c0: a89a 4b3c 6599 c1bd 9575 043c 9505 40bd
000003d0: b51c c3bc 0174 4a3c d672 0a3d ad2f 94bb
000003e0: 590e b3ba 04cc 5a3d e807 ac3c 6c01 183c
000003f0: 6c09 603c 1e3f 843b 4dc3 d03d 44a2 00bd
-0.034436647 -0.03775844 -0.07118871 0.057854135 -0.08259457 -0.0026950415 -0.061992034 -0.040630735
0.0064815846 0.018727887 -0.089462064 0.024465939 -0.009455003 0.07023631 -0.019183727 0.029216005
-0.059029046 -0.06853386 -0.09362563 -0.07659167 -0.05094083 -0.008350912 -0.109529585 -0.029843273
-0.03883112 -0.017929481 0.0026009732 -0.08063093 0.013783756 -0.025052223 0.0731788 0.022059321
-0.064195 0.012527397 -0.018154148 -0.03521866 0.0073534213 -0.08947388 -0.0814403 -0.037267774
0.006949684 0.041637696 0.077150315 -0.018593922 -0.11910854 -0.0936963 0.05262888 0.075965315
-0.07808491 -0.07211462 0.07996103 0.031068094 0.02552749 0.044483658 0.028701492 -0.04357195
-0.04912879 0.05886987 -0.028130148 -0.08840551 0.002876257 -0.070686534 -0.09083391 -0.013947207
0.006223609 0.068895996 -0.11830741 -0.08937997 0.068872765 0.040844545 -0.10518655 0.03686275
0.042879872 0.073432565 -0.06626096 0.07066221 -0.04080516 0.10699432 -0.08861285 -0.07322397
-0.05950354 -0.064042 -0.005345803 0.057337925 0.113914475 -0.025904208 0.077447146 -0.010281766
0.014642418 0.0071238754 0.024121974 0.08378421 -0.13947544 -0.018247 0.06825343 0.026625952
0.08401873 -0.0855293 0.09638493 -0.04393103 -0.0020923947 0.07221865 0.0016571417 -0.054227002
-0.04839984 0.073329754 0.07771879 0.0897503 -0.0834146 0.05548233 -0.11599524 0.03278603
0.0289474 0.010815847 0.07680418 -0.023989227 0.034923624 -0.06665009 0.036180682 0.08549839
-0.036223907 -0.025844859 -0.04918976 -0.013664535 0.08976383 -0.048881203 -0.025914043 0.07101006
-0.106598675 -0.025382917 -0.056745436 0.0207041 -0.004520838 0.10588374 0.0031716512 0.07457807
-0.049697004 0.008029642 -0.033927858 -0.083168805 0.026093403 0.0031150903 0.037694987 0.07385848
-0.045700707 -0.10682258 0.055228855 -0.06845471 -0.036953192 0.09149028 0.06897655 -0.012473392
0.06794616 0.05518836 0.012382959 -0.008764143 0.09153926 0.056067344 -0.020269413 -0.003548762
-0.010534958 0.020107562 0.085690685 -0.060522605 0.014079907 -0.05367172 0.06238116 -0.06107424
-0.08665854 -0.10928814 0.010417244 -0.027816992 -0.09296691 -0.0016241106 -0.045339163 0.10510032
0.09455931 0.09707977 0.057001993 0.039575122 -0.09501999 -0.026158446 -0.024451714 -0.06356818
0.010225733 0.029639045 -0.026022531 0.06629763 -0.08827929 0.11212466 0.07107393 -0.010335492
-0.05908064 0.08005404 -0.056813374 -0.03097071 0.06758955 0.060938183 -0.0002674783 0.038701005
0.011802323 -0.098574445 0.043690693 0.0064073154 -0.0009920511 0.076839894 -0.10467813 0.065639
0.08295277 0.05664783 0.064019755 -0.073070526 0.08813401 0.03074063 0.06514864 -0.06951061
0.06629324 0.0581243 0.06912107 0.06937853 -0.037488725 0.08572825 -0.083975285 0.00010393683
0.016013475 0.045867577 0.06295835 0.0032454324 0.070889905 0.06660545 -0.08744395 0.08370647
-0.017587047 -0.07926667 -0.0024519952 0.027907597 -0.05794722 -0.004188527 -0.0819434 -0.06363792
0.01242701 -0.09453086 0.008084674 -0.046880323 -0.0238174 0.012356759 0.033800922 -0.004522285
-0.0013660892 0.05341722 0.020999864 0.009277683 0.013674121 0.0040358445 0.10193501 -0.03140475

net.6.bias f4 [100]
00000000: 79cc 2cbd 7a71 273d 34ee 69bd 3c83 f8bc
00000010: bf25 3c3d 7d9e 843d 31cd 78bc c52e f0bd
00000020: e407 913d 9a59 2c3a 262d a3bc c1c2 a23d
00000030: 5dae 9dbd bc0d 15bd dc4e cbbd 27df b33c
00000040: 3957 a43d 4e65 c5bc 2e44 22bd d932 663d
00000050: 8eb9 573d 323e 0abd 8cd6 d83c e111 4cbc
00000060: 7213 b13d feea c9bd 162c 9b3d ac68 0bbd
00000070: f0bc bc3d 9a00 39bc f471 d23d 021c cf3d
00000080: 3adf 94bc 579c 75bc e9cf 8e3c 5a32 7a3d
00000090: 3c4a c0bc 5caf b13c 2da6 f5bc e359 873d
000000a0: 2c81 8b3d 3262 cc3d 48f8 a7bc 2044 a4bc
000000b0: 6275 47bd 519f 82bd 4a77 8c3d 643d 86bc
000000c0: 2aed 3abd 3290 e7bc e708 b5ba 2500 b53c
000000d0: 3dd0 0e3c d5f2 09bd 1f4f 663c 49c6 fc3a
000000e0: e4fc 18bd d750 0ebd 54f4 bcbc af72 68bd
000000f0: 1e4c 96bc 118f 943d 2d83 0a3d 0674 5abc
00000100: a777 f3bd 26df 353d fae9 853c 94ad 2d3d
00000110: d2e4 75bc de1b 763c a537 27bd c04f bebd
00000120: 56f2 febc 60eb 333d ae35 52bd 4cc7 bcbc
00000130: 9303 59bc ad2b f7bc 62a7 b93c 24de 63bc
00000140: 67a1 f1bc 0d1c 9c3d 6784 743d e38d 283d
00000150: c8a0 08bd c18f 9fbd 26fe c93b 0822 69bc
00000160: 4142 913d 3b1f 783d 823a 9d3c e4c9 c43d
00000170: 3970 c93c bcf8 8f3d b80e 533c 6f62 5c3d
00000180: 828c b6bd 9a18 6c3d 42f0 b83d 8d94 43bd
-0.042187188 0.040879704 -0.057111934 -0.030336015 0.045934435 0.06475542 -0.01518564 -0.117276706
0.07081583 0.0006574631 -0.01991899 0.079473026 -0.07699273 -0.03639005 -0.099271506 0.021956993
0.08024449 -0.024096157 -0.039615802 0.056200836 0.052667193 -0.03375072 0.026469491 -0.012455435
0.08646287 -0.09859274 0.07576768 -0.03403537 0.092157245 -0.011291647 0.10275641 0.10112764
-0.018172849 -0.014990888 0.017433124 0.061083175 -0.023472898 0.021690063 -0.029986465 0.066089414
0.06811747 0.09979667 -0.020504132 -0.020052016 -0.04869593 -0.063780434 0.0685869 -0.016386695
-0.045636334 -0.028267 -0.0013811857 0.022094795 0.00871664 -0.03367885 0.01405695 0.0019285168
-0.03735055 -0.034745064 -0.023065723 -0.056749996 -0.018346842 0.0725385 0.033816505 -0.013333326
-0.11888056 0.044402264 0.01634692 0.042401865 -0.015008168 0.0150212925 -0.04082455 -0.09292555
-0.031121414 0.043925643 -0.051320724 -0.02304425 -0.013245481 -0.030172193 0.022662822 -0.013907943
-0.029495908 0.07622538 0.05969658 0.04115094 -0.033356458 -0.07791091 0.00616433 -0.014229305
0.07092715 0.06057666 0.019192938 0.0960882 0.024589645 0.07029864 0.012881927 0.05380481
-0.089135185 0.05764065 0.090302005 -0.04774909

net.8.weight f4 [100, 100]
00000000: acd0 4abc af5d c4bc 36d0 b7bd 5894 5cbd
00000010: 7ead 8fbc 88e2 7fbd f2b1 933d 5fc0 15bd
00000020: 2c05 843d fe89 e7bd 3452 8abd 3bb2 92bd
00000030: 95ce a03d 7e29 c4bc 63a2 853d fa10 ad3b
00000040: 1b3e 64bd 9bb5 883c b456 56bd d273 bdbb
00000050: 501f 95bd 99fc a93d bd97 a1bc b3e5 173c
00000060: 0e85 77bd 4dee bcbd 9def 8f3d f98b ff3b
00000070: de6a f03c 6bab 903c 93b0 95bd b33a 3ebd
00000080: e3f4 503d 2226 a93d 73f0 20bb 87f4 ecbd
00000090: 83a7 aebc 5b01 a83d 292c 77bc 221f d23d
000000a0: 2a06 2dbd 3247 cb3d fba4 11bd 957d 983d
000000b0: ba62 3bbd 1aa3 a23d 7704 453d 91fe 8dbd
000000c0: e072 453d fa3f 2bbd ece1 94bc 98ff dd3c
000000d0: 8220 3c3d 1662 b93d fdc6 983d bef1 ae3b
000000e0: 7157 383d 562b 8abd fd73 883c 3dcf 21bb
000000f0: 0a06 22bb 7899 ad3d f35f 633d f0c7 afbd
00000100: bcb0 23bd 3153 093b 127b 7bbd 1921 493d
00000110: 199e b83d 1b75 4b3c 7de1 8e3d 5c10 27bd
00000120: f269 f0bc 23b8 843d 7e25 89bd 1b4e 54bd
00000130: e0f0 8a3d 0cdc edbc 9a7d 513d 2ac3 123d
00000140: 6e47 b23d 79ca a9bd ff24 d13c 385f 75bd
00000150: 53b1 95bd 8e48 75bc e4e8 92bc 18df 8bbc
00000160: a7d0 87bc 2f8a d63b a4a4 6a3c 1d74 1a3d
00000170: 3848 8bbc 0b1c 7fbd 6ea1 f1bd 4714 653d
00000180: 8de6 19bd 1895 833d d304 b43d 840d 323d
00000190: 4daf 74bb 3ce4 383c 079f fabb acf5 9b3d
000001a0: b3e6 d7bd 04a5 8a3c cc2c bbbd 319b 493d
000001b0: 68e7 6abd da0f 22bd c51d c0bd 2119 b53d
000001c0: 66cc 2d3c bc4c d73b e2ce cc3d a458 c4bd
000001d0: a19b 463d 5e8a 603a 3831 81bb 6cb4 7fbc
000001e0: 8518 1b3d 510d 26bd cf37 50bd af54 47bd
000001f0: 03b5 bb3d ab9b b9bd 1d08 813c cf08 523d
00000200: ff8e 053d 9186 82bd 05fa b73a 725f b5bc
00000210: f53b c83c 834b 433d b2d9 fc3c 8302 533d
00000220: 2d4b afbd bf58 ba3c 6480 3c3d 7277 683d
00000230: 029e 193b be31 87bd 8160 4c3d 33d5 053d
00000240: 693b 2a3d d36a d4bd a9a5 edbb 54f8 3cbd
00000250: 71ff 7bbd 75ae 173d 2c38 cebb e532 8b3d
00000260: ead3 83bd f2f4 8dbc d513 0b3d 4ea5 0d3d
00000270: 3fcf e8bc 8266 9c3d d97a ac3c e7d2 e4bd
00000280: b6c6 8bbd 976a 393d 7993 d13d a4c9 1ebc
00000290: 791e 8d3a 95c5 323c 445b c3bd 63e6 25bd
000002a0: 7f1f 953d a1f8 c53d a39a a53d 5cc9 353d
000002b0: 50e1 42bc a21d 933d c8c2 c13d 1a27 0e3c
000002c0: 0642 75bd 8268 b7bc 6671 8a3d 6e2c 0c3d
000002d0: ffd9 ac3d 1c55 97bd 1dc1 dabd 478e b33d
000002e0: 2c04 0abd a1c9 b93c 9899 dcbd b134 873d
000002f0: f7d6 a13d e2a2 9d3d 8517 8d3d 2714 5fbd
00000300: ec24 9e3d 9e6f 5a3c 46e2 d63c f559 3cbd
00000310: 153c 02bd cbfc a7bd cda1 943d fd9c 703d
00000320: a62f c93b f9d9 0d3d c1e8 9b3d c291 6dbd
00000330: 2562 dcbd 4f73 9f3d 46c7 893c 9969 9e3d
00000340: 9fef babd 79a8 74bb 9c4e 1dbc 6d7e 67bd
00000350: fc93 263d 55de d83c 86f0 97bd e891 cd3d
00000360: 3a36 52bb a103 1b3d 2173 8dba b0ec 1a3d
00000370: d198 c7bd 62c7 d7bc 23f0 babd 425a 4ebd
00000380: f45c 393c a516 04bd e53a f63b ade4 afbd
00000390: ed2e a53c 980a 89bd 00de babc c3a9 b3bd
000003a0: 3f10 c2bc f1f6 9a3d 7cbc 95bd 8cb8 c73d
000003b0: 9e35 803d 27f2 86bd 1291 1ebd 084f bb3c
000003c0: 16ef 5cbd 00ae a2bd 7158 9fbd e4cc a2bd
000003d0: 7c70 f6bc 7bc2 13bc f998 653d bf67 443d
000003e0: 6b9c 9d3d 32d2 a8bd d3e1 a0bd 5a31 1abd
000003f0: 4051 333d bd37 b23c bd0c 14bd b32f cc3c
-0.012378853 -0.023970453 -0.0897526 -0.05385241 -0.017538782 -0.062471896 0.07211675 -0.036560412
0.06446299 -0.11305617 -0.0675396 -0.07162901 0.078519024 -0.023945566 0.065251134 0.005281565
-0.05572329 0.016688159 -0.05232878 -0.005781629 -0.07281363 0.08300132 -0.019725675 0.009271073
-0.060429625 -0.0922514 0.070281245 0.0077986685 0.029347833 0.017659863 -0.073090695 -0.0464427
0.051014792 0.082592264 -0.0024557381 -0.115700774 -0.02132011 0.082033835 -0.015086212 0.10259844
-0.042242207 0.09925689 -0.03555773 0.07445828 -0.04574845 0.079412654 0.04809996 -0.0693332
0.048205256 -0.04180906 -0.018174134 0.027099416 0.04592944 0.090519115 0.07459829 0.0053388765
0.045005266 -0.06746547 0.01665687 -0.0024690174 -0.0024722838 0.084765375 0.055511426 -0.08583057
-0.03996347 0.0020954127 -0.061396666 0.04910383 0.0901453 0.012418057 0.06976602 -0.040787086
-0.029347394 0.06480434 -0.06696604 -0.0518323 0.067842245 -0.02903559 0.051145174 0.035830654
0.087050304 -0.08290572 0.025530336 -0.05990526 -0.073092125 -0.014970912 -0.017933317 -0.017074153
-0.016578985 0.0065472345 0.01432148 0.03770839 -0.01700221 -0.062282603 -0.117983684 0.05592754
-0.037573386 0.06424922 0.08789983 0.04346992 -0.0037335933 0.011284884 -0.007648352 0.076152176
-0.10542049 0.016924389 -0.09139404 0.049220268 -0.057349592 -0.0395659 -0.09380678 0.088426836
0.010607814 0.0065704267 0.10000397 -0.09587219 0.048488263 0.000856554 -0.003942635 -0.015606981
0.03786518 -0.040540043 -0.050834473 -0.048664745 0.091653846 -0.090628944 0.015750939 0.05127793
0.032607075 -0.06373323 0.0014036304 -0.022140238 0.024442652 0.047679435 0.030865524 0.051516067
-0.085592605 0.022747396 0.04602088 0.056754537 0.0023440127 -0.066012844 0.04989672 0.032674026
0.041560564 -0.103719376 -0.0072524142 -0.04613526 -0.061522905 0.03703161 -0.0062933173 0.06796817
-0.06436904 -0.017328713 0.03395446 0.034581475 -0.028419135 0.07636739 0.021054672 -0.11173039
-0.068250105 0.045267668 0.10233206 -0.00969163 0.0010766528 0.010911365 -0.09538892 -0.040502917
0.07281398 0.09666563 0.08086135 0.044381484 -0.011894539 0.071833864 0.0946098 0.008676315
-0.059877418 -0.0223887 0.0675991 0.03422206 0.08440017 -0.0738928 -0.10681365 0.087673716
-0.033695385 0.022679152 -0.10771483 0.06601847 0.079023294 0.07697083 0.068892516 -0.05446258
0.07721886 0.013332276 0.026230942 -0.045984227 -0.03179558 -0.08202513 0.072574235 0.058743466
0.0061397133 0.034631703 0.07612754 -0.058000334 -0.10760907 0.07785665 0.016818654 0.07734985
-0.09127735 -0.0037331863 -0.0096012615 -0.056517053 0.040668473 0.026473204 -0.07418923 0.10037595
-0.0032075779 0.037845258 -0.0010791757 0.03782338 -0.09745944 -0.02634019 -0.09127834 -0.050379045
0.011313666 -0.032248158 0.007514345 -0.08588538 0.020163978 -0.06691474 -0.022810936 -0.08772614
-0.023689387 0.075666316 -0.07311341 0.097519964 0.06260227 -0.06589156 -0.03871257 0.022864833
-0.053938948 -0.07943344 -0.07780541 -0.07949236 -0.030082934 -0.009018536 0.05605409 0.047950502
0.0769585 -0.082432166 -0.078555726 -0.03764472 0.043778658 0.021755094 -0.03614496 0.024925089

net.8.bias f4 [100]
00000000: cce9 503d 0b17 d63c b951 b2bb 82f0 993d
00000010: 0849 883b 8bde ddbc 9790 813c 1e76 0bbd
00000020: f300 103d bb47 d1bc 384a 44bd 7404 27bd
00000030: 1c5d babb 0caa 463d 18b2 00bc 1c64 49bc
00000040: 1953 84bc 4380 3cbd 2161 893d eae8 1d3d
00000050: 710c 18bc 4995 aa3d 5e5c 453d 7573 d43c
00000060: 30f6 5f3d fcaa 953c f700 2c3d da32 333d
00000070: 3c7f 4dbc 2e2e afba 6d3b 2ebd b1c6 c5bd
00000080: cbb9 163d 4253 883c d2a7 edbc 7793 483d
00000090: 9674 ba3c d972 dc3c 250c 11bd 9c0e 28bd
000000a0: 1d87 e53d 7791 a2bc eb8f 3c3d c559 663d
000000b0: a9cd 15bd 3a33 a8bd 727f 053d 8fd4 23bd
000000c0: 7fc0 e43b 0d3e 6d3b 8ea3 373c 0cf3 9abd
000000d0: b607 14bc 3668 033d 4534 6cbd 05b3 40bd
000000e0: 91e8 83bd 5d54 a03c 0e8b 183d 9519 8abd
000000f0: 3c04 92bd 5d8d 603d b2a6 a7bd 9a6a acbc
00000100: 7b88 903c 7af9 02bc 025d c83b 854f b5bd
00000110: 2e92 ca3d 333b 20bd e485 8ebc 3c0a 02bd
00000120: eec5 3fbd e8e0 1fbd 6f7a 283d 53fd f0bc
00000130: e7ea 60bd 2451 96bb 7318 42bd ce74 b2ba
00000140: 600e 7b3d 046f 853d 1308 953d 4ae0 42bc
00000150: 4200 193d 2f4d 393d 9eb0 6cbd c95e 21bd
00000160: 8f5d bc3c 6c96 ac3d 34a1 60bd dcd1 ad3d
00000170: eeba 4c3d d9f7 5c3c 59ad 4dbc a5da 803c
00000180: b461 393d 4dea 4dba 7f45 85ba 691a ad3d
0.051004216 0.026134035 -0.005441871 0.07516576 0.0041590966 -0.027083656 0.015816016 -0.034048192
0.035157155 -0.025546899 -0.047922343 -0.04077573 -0.005687369 0.048502013 -0.007854961 -0.012291934
-0.016152905 -0.046020757 0.06707979 0.038552202 -0.00928031 0.08329255 0.04818379 0.02593396
0.054678142 0.018270008 0.041993108 0.043749668 -0.012542542 -0.0013365203 -0.04253714 -0.09657038
0.03679828 0.016641263 -0.029010687 0.04896876 0.02276067 0.026910232 -0.035411973 -0.041029558
0.112074114 -0.019844754 0.04603569 0.056237955 -0.036573086 -0.08212896 0.032592244 -0.039997634
0.006980955 0.0036200315 0.011208428 -0.07565889 -0.009035042 0.032081805 -0.057667036 -0.047045726
-0.06440843 0.019571478 0.037241988 -0.06743161 -0.07129714 0.054822315 -0.081860915 -0.021046925
0.017643204 -0.00799405 0.006114603 -0.08853058 0.09891163 -0.039118957 -0.017397828 -0.03174804
-0.04681962 -0.039032847 0.041132387 -0.02941767 -0.05491152 -0.0045873094 -0.047386598 -0.0013615133
0.061293006 0.06515315 0.07276931 -0.011894295 0.03735376 0.045239624 -0.057785623 -0.039397035
0.022993831 0.08427128 -0.054841235 0.08487293 0.049982958 0.013486826 -0.012553536 0.015729258
0.045259193 -0.0007855043 -0.0010167806 0.08452303

net.10.weight f4 [100, 100]
00000000: 805a a43b 0f60 6bbd 055e 143d a337 96bd
00000010: 8cb5 d1bd 0fc2 88bd ca79 b0bd c162 37bd
00000020: cf37 26bb 23fc 683c 640f f7bc 04d6 723d
00000030: 600b 6fbd 29f8 c4bc 2427 d0bc 4930 513d
00000040: 1896 b53b 53de 983b f287 2d3d 2873 323d
00000050: dc5c b1bd 6352 0fbd 1252 c43d 3de9 23bd
00000060: 09fd 393d 2ef3 36bd 71b8 8eba d137 343b
00000070: 35ad bcbd 95e6 343d 218d 11bd 1511 173d
00000080: 55af b1bd 56b4 58bc 9b87 063d 9b7e e83c
00000090: 5f05 38bd c5a3 5a3d 74b2 8b3d 1ddc d8bc
000000a0: 4e9c a93d 6b61 433d 38ae 993d 3858 a2bd
000000b0: 77cc 60bd 4bb3 e43d 0132 44bd 6b28 d1bc
000000c0: c977 8dbd 5f07 c5bd 58d8 723d 6c3b 94bc
000000d0: e891 123d 408e cd3d e3da 9dbd 8ae4 11bd
000000e0: c423 143c edd3 12bd cdc8 2dbd d5f2 1d3d
000000f0: 3359 cd38 ab15 d0bb ec62 c73c 68a1 b2bd
00000100: cde9 b4bd 6d3b a23c 79ee 2fbd 420b 68bd
00000110: b49f b2bd a546 dabd ecdc bdbd fcba 603d
00000120: a6b7 6c3c a2dc a7bd c907 8dbd 019a 6abd
00000130: 95c5 cdba 8ff0 253d ac13 673d ba42 89bc
00000140: 3b07 03bb d579 b2bd 52d3 4dbb 17d8 1f3d
00000150: d7ee 66bd 3ecd 36bc f8c2 71bd b812 f4bc
00000160: 7e14 2abd dfc6 93bd 3e05 3cbd f114 d33b
00000170: ee60 c4bd d854 1e3d 2d4a b63d eaee 29bd
00000180: c359 0f3d c9d1 78bc b9d7 163d 762b 7c3d
00000190: bf66 a0bd 636a 1bbd 6b83 a2bd 7849 093d
000001a0: 8698 c7bd 5eea a33d 9274 7cbd b860 9cbd
000001b0: 0872 6bbc 6cab e93b d47c 07bd 7705 c93d
000001c0: b391 9dbd b4f7 513d 4063 913b 9a37 9dbd
000001d0: 51c3 f2bc e01c 7f3b 9f57 92bd 1549 cf3d
000001e0: 29cb e0bc 584f a93d 54ee e23a 8db9 a33c
000001f0: 189e bb3b af07 7dbd 36df b83c 914c 5abc
00000200: 02bb c0bd 2d8c 423c 7e77 533d 7599 bd3d
00000210: e53b 613c c0ea 9fbd d08d c83c f5e7 c4bd
00000220: 2c4a 26bc bc3d d93d 422f 683c 8a9b 5e3b
00000230: 9b0b 1bbd 9be8 8dbc 47a0 81bd a74c 95bd
00000240: 2de0 aa3d 7c84 8bbd efe4 223c 4969 9fbb
00000250: a1e1 39bd 244d e5bc c5e1 3ebd b8d3 d23d
00000260: ba26 f43c 69f8 81bd 5390 c5bd c490 243d
00000270: f4f4 a03d bccd 31bd c775 cd3c 461c 90bd
00000280: f130 3d3d 9f02 a83d e3fb 5cbd 362c 0c3c
00000290: 3903 d7bc 4946 04bd e937 943c 4e87 343b
000002a0: 0184 80bc 9448 d83d 7c4f aebd 9f8a 663b
000002b0: 3724 b73d ed8c 7cbd b602 5abd 2e5e c2bd
000002c0: 384d 893b 1bde 48bd a48b d83d c1ad 653d
000002d0: 19c4 653d 5ee1 fcbb 641c 273d 85cc 9c3d
000002e0: 8650 573c ef9a 51bd 7ee5 88bd 1d22 1fbd
000002f0: a405 c23c 2b31 a0bd b823 113d f531 c2bd
00000300: 0194 ab3d e3ae 483d d42b 0dbd 3ccb 773d
00000310: 5d28 dc3c d646 b0bd 4b4c 153d 0569 c03c
00000320: 1223 83bd 08fe 6abc 9080 6cbd b989 9e3d
00000330: 9674 23bd 37ab ddbc b28f 0bbd d539 c2bc
00000340: 4a8f ed3c 062a 293d 62ec ac3d eccd 8e3d
00000350: 2076 ecbc e745 953d 3dac 11bd ccaa c53c
00000360: 2375 abbd 37e6 90bc 408a b3bd 2d44 61bd
00000370: 35e3 62bd 1e3f 973d a59f 923d c02e 66bc
00000380: 3394 3dbd d3f9 a8bb f736 94bd 805f 013d
00000390: 27e7 ea3b c7b5 e13b bfa0 5b3c 3317 8ebd
000003a0: 7f18 84bd d7a3 693b 5944 b23d 83cc c83d
000003b0: 5813 b43d 246d 89bd 3fb8 06bd b0c7 adbd
000003c0: 336f d53d 878e c63d d3d2 a1bd 0a46 b63d
000003d0: d515 cbbd 7b3d ab3d 45e3 18bd fb08 f03b
000003e0: 0018 d6bd 86ba e7bd 5bf8 1fbd 5926 7f3d
000003f0: 1a44 bf3d 3f9b 6ebd bb24 a23d 6022 b03d
0.0050156713 -0.057464655 0.036222477 -0.073348306 -0.102397054 -0.06677639 -0.086169794 -0.044771913
-0.0025362854 0.01422027 -0.030158706 0.059286132 -0.058360457 -0.024044113 -0.025409289 0.05107144
0.005541574 0.004665175 0.042365976 0.043566853 -0.0866029 -0.03499068 0.09585966 -0.040017355
0.04540733 -0.044665508 -0.0010888708 0.002749909 -0.09212724 0.044165213 -0.03553498 0.036881525
-0.0867602 -0.013226589 0.032844167 0.028380683 -0.044926997 0.05337884 0.068211466 -0.026472146
0.08281766 0.047700327 0.07503933 -0.07926983 -0.054882493 0.1116701 -0.04789925 -0.025531968
-0.06907613 -0.096205465 0.059288353 -0.01809474 0.03578368 0.10036898 -0.07707765 -0.035618342
0.00904173 -0.03584664 -0.042427827 0.03856166 9.7917764e-05 -0.0063502393 0.024339162 -0.08722192
-0.088336565 0.019803727 -0.042952035 -0.05665136 -0.08721867 -0.106580056 -0.09270653 0.054865822
0.014448082 -0.08196379 -0.068862505 -0.057275776 -0.0015699143 0.040512618 0.056415245 -0.01675545
-0.0019993323 -0.08714644 -0.0031406474 0.03902444 -0.05638012 -0.011157332 -0.059023827 -0.029794082
-0.04152345 -0.07215666 -0.045903437 0.0064417054 -0.095888 0.038655132 0.08900867 -0.04148761
0.034997713 -0.015186735 0.036826823 0.061564885 -0.07832097 -0.037943255 -0.07935222 0.03351733
-0.097458884 0.08003686 -0.061634608 -0.07635635 -0.014370449 0.007131031 -0.03307803 0.098154955
-0.076938055 0.05126162 0.0044368804 -0.07676621 -0.02963415 0.0038927123 -0.07145619 0.10121361
-0.027440624 0.08267087 0.0017313459 0.019985938 0.0057256334 -0.061774906 0.022567373 -0.013323919
-0.09410669 0.011874241 0.05162763 0.09257785 0.01374719 -0.07808447 0.024481684 -0.09614555
-0.01014952 0.10607478 0.014171423 0.003396722 -0.037852865 -0.017322829 -0.063293986 -0.07290011
0.083435394 -0.06812379 0.009942277 -0.004864846 -0.045381192 -0.027990885 -0.04660203 0.102942884
0.029803623 -0.063462086 -0.09646668 0.04017712 0.07859221 -0.043409094 0.025080575 -0.07036643
0.046189252 0.08203625 -0.053951155 0.008555463 -0.026246654 -0.03229359 0.018093066 0.0027546468
-0.015687944 0.10560718 -0.08511254 0.003517784 0.08942454 -0.061657835 -0.05322524 -0.094906196
0.0041901134 -0.04903994 0.10573509 0.056073908 0.056095216 -0.0077172955 0.04079856 0.076561965
0.013141757 -0.051173147 -0.06684397 -0.038850892 0.02368433 -0.07821878 0.035434455 -0.09482185
0.08377839 0.04899491 -0.034465626 0.060496554 0.026874715 -0.08607261 0.03644971 0.023487577
-0.064031735 -0.014342792 -0.057739794 0.07741112 -0.039906107 -0.02705918 -0.034072585 -0.023709217
0.02899899 0.041299842 0.08443524 0.0697287 -0.02886492 0.072887234 -0.03556465 0.024129294
-0.083719514 -0.0176879 -0.087666035 -0.054996658 -0.055392463 0.073850855 0.07159356 -0.014049232
-0.046283912 -0.0051567345 -0.07237046 0.031585217 0.007168669 0.0068881246 0.013405024 -0.06938019
-0.06449985 0.0035650635 0.087044425 0.098046325 0.08792752 -0.0671027 -0.032890555 -0.08485353
0.104216 0.09695154 -0.0790154 0.08900078 -0.099162735 0.08361336 -0.037326116 0.0073252893
-0.104537964 -0.113148734 -0.03905521 0.06229243 0.09339161 -0.058253523 0.07917162 0.086003065
