models/heatalpha/lambdas/heatalpha_09.pth (torch, 977047 bytes, 51 tensors)

net.0.weight f4 [100, 3]
00000000: ef76 c53e 396c 3f3e bf54 073f f92d f4be
00000010: ff54 3c3c e394 ffbd ba57 273e 0de1 ac3e
00000020: f6d0 793d d557 043f 1f78 24bf c951 63be
00000030: b11a b93e 296e 3abf b447 f0be eaa9 053f
00000040: e202 3f3e c30c 2b3e 032c 8c3e fa4c 893e
00000050: bdb8 283d 079b 85be 121f 8ebe 7bf7 e83a
00000060: 10ec a03e 1a92 77be 6214 a7be 6c0e bf3d
00000070: 3211 6d3f d19c 47be 3f6b 7cbe a842 3fbf
00000080: cc8e a93e dc10 acbe f143 54bf 0645 10be
00000090: a67a b83c 2b7a 723f cab2 ccbe 56c1 b03c
000000a0: 24b6 de3e c31c ff3e d233 a63e 6f93 683f
000000b0: 7596 ebbe a83c d63e 18aa 37bf 2053 b4be
000000c0: f2d0 043f 5270 213e d59c 55bc c50d a13e
000000d0: 78ac 88bf 4308 a33e 578e c53e 0499 163d
000000e0: 378f 133f 88c0 02bf aa1b a43f 938a c23e
000000f0: 5112 43bd 2c74 8b3b f6d4 893e dc60 8a3e
00000100: e6cc 11bf 7e6a 903d c7bd a13d e193 853f
00000110: 5a67 f2bc 6537 6b3e 43e4 2040 17bd efbe
00000120: 9c0e f4be 7dc8 693f 65c2 c23c d917 043a
00000130: 1bc7 7ebe 518f 4e3e 6d3a 943e 9b96 9d3f
00000140: 667d 15bf 1aa7 ab3d 325d afbf 3df0 79be
00000150: 7033 77be 192e f0be 78f6 50be 5f4f 0b3f
00000160: df61 cfbe 2cde 00bf 86e3 13bf 7dc3 c8bd
00000170: ccac 9dbe 0d71 d13d 37c5 69bf 2f85 83be
00000180: 79c8 543e a75a a53e de69 32be 195c 80bc
00000190: 216e 06c0 f8d6 113d efb8 eabe d453 003f
000001a0: e367 3bbe 9c1d 753e 43c4 123e 599d 8cbd
000001b0: d20b ebbe 91d2 6d3e 4a10 f1bc 315c 15bf
000001c0: c3f4 8bbc 6f4e 953e 16c0 173e a91f 21bf
000001d0: 5034 a1be d2c4 0b3f 931f 853f 4b24 13bc
000001e0: 2923 85be 4c85 e33f c76c d3bd 3eea d13e
000001f0: 6452 e23f 7148 a63e dceb 11bf 2ca7 6c3f
00000200: e530 6b3d e763 bb3e f331 9abf 7648 c53e
00000210: 2371 033e 3b0b 07be 62b6 db3e 1bf7 0fbe
00000220: 1f30 c1be 7ab2 f73e ab3f 09bf 0c47 cdbc
00000230: d99b 823d 0494 a53d 8cc7 2ebd 1531 ca3e
00000240: 6bd5 033f 74e2 ce3e 2f16 cd3e b352 06bf
00000250: 7602 6dbf 9ce4 003f 496c 033f 7e37 9dbe
00000260: 2e40 df3e b525 a5be f3b7 bebe ea2a 02bf
00000270: c055 fbbd 2d40 253f 9ca5 a63a 4994 77be
00000280: 5d1b 913e 7f63 663e 72ed edbc 413c 063f
00000290: 7601 abbe a3c9 0fbe b29d 913e fc5a 55be
000002a0: 6e15 8fbe f7af 693e 4a8a 9c3e 66e5 0a3f
000002b0: 7999 28bf 2a9e 383e 1a57 1dbf ec97 36bf
000002c0: 3aee cabc b881 0abf 9e6c 0040 850c 323e
000002d0: 9bfe dfbe 8d81 bdbe c7ff 7dbd c615 06bf
000002e0: 90eb fabe fbfc 5f3d e98e d2be 2ecf fb3d
000002f0: 2de1 c8bd f518 3d3d cc33 843e 7d5c 40be
00000300: 3fec 593e d66d 90bf 0fea 9ebe 0049 013e
00000310: 5256 453c 9076 673e a686 61be 027c ba3f
00000320: ad7a 063f 0357 203c 1845 88be 8c11 163d
00000330: 6564 043f f287 9c3e 25e9 5dbd 650f e23e
00000340: cbb6 963f 1260 843e e171 663e ae2e 5fbe
00000350: b9eb 18be d3fb 1dbe 77f6 76bf 8cfb bcbd
00000360: 2041 d33c 01d7 8b3d 238e b7be 1d45 0ebf
00000370: 856f aebf bfcf 3dbe 8fd5 8fbe 089d 5e3e
00000380: f44a 173e fa6d 1d3f ef59 703f ba34 cc3e
00000390: ee20 973d bf3c 7c3d f460 0f3f 6cb0 f5be
000003a0: ebd5 20bf 98b9 c9be 0a4e 043f 2856 dc3e
000003b0: 1939 db3e ace4 7e3e aa3f 253f 287b 6d3d
000003c0: b1fe a23e dc0e f73d 29ad aebd ad47 9c3e
000003d0: bb8b 253e d7d1 3fbd bf25 e93e af30 51be
000003e0: f104 813e cb42 19bf 9870 273e 4115 db3d
000003f0: 5fdc a6be 2c71 51bf 407d 93be 3d30 a0be
0.38567302 0.18693627 0.5286369 -0.47691324 0.011494874 -0.1247957 0.16342059 0.3376545
0.060990296 0.5169652 -0.6424579 -0.22199167 0.36153176 -0.7282434 -0.46929705 0.52212393
0.18653443 0.16704087 0.27377328 0.2681654 0.041191805 -0.2609484 -0.2775808 0.001777395
0.314301 -0.24176827 -0.32632738 0.09328923 0.9260436 -0.19493414 -0.24650286 -0.74711084
0.33116758 -0.33606613 -0.8291617 -0.1408883 0.02251942 0.94717664 -0.39980155 0.021576565
0.43498337 0.4982663 0.3246141 0.90849966 -0.46013227 0.41843152 -0.7174392 -0.3521967
0.51881325 0.15765503 -0.01303788 0.31455818 -1.0677633 0.3184224 0.3858516 0.03676702
0.57640404 -0.5107503 1.2820942 0.3799635 -0.04762489 0.004255792 0.2692029 0.27027023
-0.56953275 0.07051562 0.07897525 1.0435754 -0.029590297 0.2297035 2.513932 -0.46823952
-0.47667396 0.91321546 0.023774335 0.0005038954 -0.2488064 0.20171858 0.28950825 1.2311586
-0.5839447 0.083814815 -1.3700316 -0.2440805 -0.24140716 -0.4691017 -0.2040652 0.54417986
-0.40504357 -0.5033901 -0.5776905 -0.098029114 -0.30795896 0.10226641 -0.9131655 -0.2568755
0.20779599 0.32295725 -0.17423198 -0.015668916 -2.1004717 0.0356054 -0.45844218 0.5012791
-0.18301348 0.23937076 0.1433268 -0.06865949 -0.45907456 0.23224856 -0.029426713 -0.583438
-0.017084485 0.29161403 0.14819369 -0.62938935 -0.31485224 0.545972 1.0400261 -0.008980821
-0.26003388 1.7775054 -0.10323482 0.40999025 1.7681394 0.32477143 -0.5700052 0.92442584
0.057419676 0.36599657 -1.2046493 0.38531846 0.12836127 -0.13187878 0.42912585 -0.14059107
-0.37732026 0.48378354 -0.53612775 -0.025058292 0.06377382 0.08084872 -0.04267077 0.39490572
0.51497525 0.40407145 0.40055987 -0.5246994 -0.9258188 0.5034883 0.51337105 -0.307064
0.43603653 -0.3225533 -0.37249717 -0.5084673 -0.12272215 0.6455105 0.001271415 -0.2417766
0.2834119 0.22498892 -0.029043887 0.5243569 -0.33399552 -0.14041762 0.28440624 -0.20835489
-0.27946037 0.22821032 0.30574256 0.54256284 -0.6585918 0.18029085 -0.6146103 -0.71325564
-0.024771798 -0.54104185 2.0066295 0.17387588 -0.43748936 -0.37012902 -0.062011506 -0.52376974
-0.49007845 0.05468462 -0.41124657 0.12295376 -0.09808574 0.04616638 0.25820768 -0.18785281
0.21281527 -1.1283519 -0.31037948 0.12625504 0.012044506 0.22603822 -0.2202402 1.4569094
0.5253094 0.00978637 -0.26615214 0.036637828 0.5171569 0.30572468 -0.054177422 0.4415237
1.1774534 0.25854546 0.22504379 -0.2179515 -0.14933671 -0.15428095 -0.96469826 -0.09227666
0.02578789 0.06828118 -0.3585063 -0.5557421 -1.3627783 -0.1853628 -0.2809262 0.2173959
0.14774686 0.61495936 0.9388723 0.39883977 0.07379328 0.06158137 0.56007314 -0.47986162
-0.6282641 -0.3939941 0.5168158 0.43034482 0.42817 0.24891919 0.6455027 0.05797878
0.3183494 0.12063381 -0.085291214 0.30523434 0.16166584 -0.04683098 0.4553661 -0.20428728
0.25199082 -0.59867543 0.16351545 0.10697413 -0.32590005 -0.8181331 -0.28806496 -0.31286803

net.0.bias f4 [100]
00000000: 03c6 df3b 5c3d d13e ff55 d4be 9e53 d2bd
00000010: df93 b9be 00cb ecbe 5012 80be 1b02 083f
00000020: d100 e6be f516 093f 69e8 d4bd 452c 27bf
00000030: b773 9cbc ba8a 813e d00e b13e ef65 a43e
00000040: d76b bc3e d985 213e 97eb 87be 95e0 48bd
00000050: 1cf7 123f 5a9c 513d 4727 d83d bb1f 293e
00000060: 96b8 43be 195d c9be 26e9 44bd 743c 06bd
00000070: aa28 173f c039 a53e 4118 85be f818 433e
00000080: db95 733e dae5 bbbd 8f8d d4bd a3c8 54be
00000090: 456f 5d3e c7ba 21be 0d44 e5bd 97e7 133f
000000a0: 4ed5 a93e a354 c7be e499 393c 3d40 c93e
000000b0: 69d3 b3be 1d8e 46be 8759 183f 573d 433e
000000c0: 3053 083f 5652 3fbe 7b26 0d3f 8fcd 9a3e
000000d0: 6fba 5abd ac9c 0d3f ec69 033e 5ad6 fbbd
000000e0: f852 c6be 4407 b93e d3b1 dc3e 9d07 febe
000000f0: ec37 67be 280b 26be 374a 9a3e f87b aabc
00000100: 1432 0abf 3dd2 63be 9827 a23d 6254 ab3b
00000110: 50ad c03e 7375 e6be fc97 d83e 07bd ef3e
00000120: 7f33 61be 425d c7be 71a0 273d b1d5 90be
00000130: 44f5 febe 1524 5abd 1a35 273b 74d2 c33e
00000140: 2455 7ebe eed2 c2bd 0d7d aa3e 02fc 2ebe
00000150: e053 0f3f 167b ad3e a3ab 04bf 345e d4be
00000160: 752f 4cbd bd99 edbe ba81 2fbd f403 2dbd
00000170: 779d e53e 289e 183f c1c2 07bf 129b 113f
00000180: 1675 febe 8e2e 2f3e 372d 96be 5cab 2f3e
0.0068290248 0.40867126 -0.4147186 -0.10269855 -0.3624563 -0.46248627 -0.2501397 0.5312821
-0.44922498 0.53550655 -0.10395891 -0.65301925 -0.019098146 0.25301152 0.34581614 0.3210902
0.36801025 0.15773715 -0.26546928 -0.049042303 0.5740831 0.0511745 0.105543666 0.1651601
-0.19113383 -0.3932884 -0.04807391 -0.032772496 0.59046423 0.32270622 -0.25995067 0.19052494
0.23787634 -0.091747 -0.10378563 -0.20779662 0.21624477 -0.15793906 -0.1119462 0.57775253
0.3317055 -0.3893176 0.011328194 0.39306822 -0.3512223 -0.1939015 0.5951161 0.19066368
0.53251934 -0.18683752 0.5513684 0.30234954 -0.053400453 0.5531719 0.12833375 -0.12296744
-0.38735175 0.36138356 0.4310442 -0.49615183 -0.22579926 -0.16215193 0.30134746 -0.020811066
-0.53982663 -0.22248168 0.07917708 0.005228565 0.37632227 -0.45011482 0.42303455 0.46823904
-0.219923 -0.38938338 0.040924493 -0.28288034 -0.49796498 -0.053257067 0.0025513829 0.382465
-0.24837166 -0.09512888 0.3329853 -0.17088321 0.5598736 0.3388297 -0.51824397 -0.4147812
-0.049849946 -0.46406356 -0.042848326 -0.042240098 0.448467 0.5961633 -0.53031546 0.56877244
-0.49698704 0.17107603 -0.2933137 0.17155212

net.2.weight f4 [100, 100]
00000000: 7020 83bd 951a f5bd 0d29 843d d824 0a3d
00000010: 5c99 c03c 1119 143e 65cc c8bd acd8 2dbd
00000020: d2f5 a83c fcf7 9a3d 0c19 bebd 000e a13c
00000030: 8823 8ebd 3a0c 9cbd bc03 f3bc 98b2 2dbd
00000040: 3c9b 2a3d 383b c43d 383c f03d fca5 bdbc
00000050: 16e5 9cbd c909 69bd 36ff 143d 99c6 bb3d
00000060: 413d 78bd 2096 bb3d 0fdd aebd 0919 8a3d
00000070: 571a 13bd 7c29 073d 4af5 76bc 5699 1b3b
00000080: 9eab 7f3d 5e12 3bbd 993f 61bd a2dd e73c
00000090: 2ff3 c3bd a00f 7fbd 5aba 753d 504b 173d
000000a0: dc3e d9bd 9372 8c3c fc73 093a 47af d43d
000000b0: b515 8abd e04b f93d 9853 413c 090b a3bd
000000c0: f6f9 873d 0472 12bd a272 b4bd 4a8f b4ba
000000d0: c479 113d 8dd9 cc3d dcc4 9a3d ec8a 19bd
000000e0: 878b 403d ec1d b03d a9ad bbbc 0f24 85bd
000000f0: cab8 59bd 866a ebbc 0373 bcbd deda f43b
00000100: b153 3d3d bf8b 65bd dd02 d33d 8174 723b
00000110: dd07 ef3d 06e7 88bc 7b17 67bd 7ffa a93c
00000120: f9fc 0bbb 97da c63c 58c2 6cbd 7764 84bd
00000130: c808 6dbd 43d7 eabc 2a8b 5d3d 2db9 643b
00000140: b1d9 5fbd ac38 3fbd fbb2 953d 0407 193d
00000150: 7de4 aabd d465 9dbc 65ca 81b9 e7a5 823d
00000160: ee2b 123d 2af5 d23c daeb 33be 6917 bb3d
00000170: 57ed ed3d 9861 9f3d d1fb a9bd f75b e3bc
00000180: 71db 49bd e845 98bd 9399 29bd a9a1 193d
00000190: 1042 9dbc 6b93 b5bd 1a66 5fbd 2eaf a63d
000001a0: 69b3 a53d 8209 5c3c 0e06 a03d 3b1e b7bd
000001b0: 7901 68bb ae1a cabd 7b30 2abb 19ad 6b3d
000001c0: dc95 9a3d d76b 623b 8cad a2bd 3a1f 923c
000001d0: afc0 03be 6373 a0bd 4149 993c 97b2 883d
000001e0: 4974 15bd ef7c 883d 28aa 733d d942 963d
000001f0: 846d 1cbd be0d 3abc b1ab ca3d 8239 513d
00000200: 9b47 4bbd 9073 85bd 6183 703d c3b8 6a3d
00000210: 9c3c 233d 62e3 19bd d27b 5cbc 63b1 93bd
00000220: 4932 cf3d 4e5d 09bd 7fa2 b2bd cf46 19be
00000230: 791d 753d 6221 af3d 35ba 21bd ff61 a0bd
00000240: 0c09 853d b13d 023d 5619 b6bd d858 a43b
00000250: f414 26be 084b 30bd 9498 f8bd f4f9 80bd
00000260: 6d2a ba3d 69d1 ce3c 738e 00bd b7a1 413c
00000270: 7c0d 1bbd d878 e3bd ccd0 57bd 6582 ed3d
00000280: 74a2 f43c 6a60 183d 8c82 bfbd 419f 393c
00000290: 8ed5 7f3c 1b93 90bd 3e68 a7bd 6fd3 953d
000002a0: aa4f 09be 52b3 67bd bc00 59bd 74a4 d2bd
000002b0: 634a fa3c d898 223d 56ea 8c3d 53f0 b63c
000002c0: 98e0 b13d 5cd3 1a3d 7124 00be 5f07 0b3c
000002d0: 737b 4cbc e88e 4ebc 561e 36bd 17ce 32bc
000002e0: 9c4f a2bd a07e 86bd 19ba 3abd 1b24 3aba
000002f0: 5f76 df3a 9cf2 b8bd 80a7 c7bc 7b6a 68bd
00000300: 4210 8ebd cc30 b6bd fb57 f83d e788 853d
00000310: 77c7 113d c063 52bb 36b1 f4bc 8812 73bc
00000320: b8cf 373d 189c 953d 4078 2e3d fcc2 4b3d
00000330: 78a8 bdba c3ce 07bd 0246 853d 1f15 87bd
00000340: 5c18 763d f3c4 833d 1e22 7d3d 5886 b43d
00000350: 995e 6d3d 74f0 9dbc 601e 39bc b03f 36bc
00000360: ee49 27bd e211 afbc 96bb d73c 9edb ce3d
00000370: 93be 5bbd 4c3e cf3c 4b1f ca3d b076 8f3d
00000380: 4351 36bd 10c4 64bd a5c3 b4bd b55a 4dbd
00000390: c600 59bd d45d f8bc 26e4 133d 03c0 c43d
000003a0: af7b fa3d e65b 3c3d f52d 54bd d19c bc3c
000003b0: b255 7d3d d579 513d 54ce 8e3c 0b3d b8bd
000003c0: ef63 ab3d 100d 2e3d 63de a8bc 6b7f 57bd
000003d0: 1104 1e3d 6ae3 d8bc 730d d2bd e2ed 873b
000003e0: b787 2dbd 9eda ce3d 1074 02be 6c29 86ba
000003f0: 11a6 acbd ee1f 4cbd 2a4a e2bd 00b1 0ebc
-0.06402671 -0.11967961 0.06453142 0.033726543 0.023510627 0.14462687 -0.0980461 -0.042442963
0.020625029 0.075668305 -0.09282121 0.019659996 -0.06940371 -0.076195195 -0.029664867 -0.04240665
0.04165195 0.095816076 0.11730236 -0.023150437 -0.07660882 -0.056894097 0.0363762 0.09168739
-0.06060529 0.091594934 -0.08538257 0.06743056 -0.03591379 0.032998547 -0.01507313 0.0023742518
0.062419526 -0.045671813 -0.054992292 0.028303925 -0.09567868 -0.06227076 0.05999217 0.036937058
-0.106076926 0.017144477 0.0005243418 0.10384994 -0.067424215 0.12172675 0.011799715 -0.07961089
0.06639473 -0.035753265 -0.08810927 -0.0013775614 0.035516515 0.10002432 0.07557079 -0.037486
0.047008064 0.08599457 -0.022909956 -0.06501018 -0.053154744 -0.028737318 -0.09201624 0.00747238
0.046222392 -0.056041475 0.103032805 0.0036995711 0.11671422 -0.016711723 -0.056418877 0.020749329
-0.00213605 0.024274154 -0.05780253 -0.06464475 -0.057869703 -0.028667098 0.054087795 0.0034900412
-0.054650966 -0.046684906 0.073095284 0.037360206 -0.08344362 -0.019213594 -0.00024755593 0.063792996
0.035686426 0.025751669 -0.17570439 0.091353245 0.116175346 0.077822864 -0.08299983 -0.027753813
-0.04928154 -0.074352086 -0.041406225 0.037507687 -0.01919654 -0.08866008 -0.05454073 0.081388816
0.080908604 0.013430001 0.07813655 -0.08941313 -0.0035401268 -0.0986837 -0.0025968838 0.057538126
0.07548115 0.003454914 -0.07943258 0.017837156 -0.12866472 -0.07834508 0.018711688 0.06674688
-0.03648785 0.06664454 0.059488446 0.07336969 -0.03819038 -0.011355815 0.09896029 0.051080234
-0.049628835 -0.065161824 0.058719043 0.05730511 0.039852723 -0.037570365 -0.013457255 -0.07211568
0.10117013 -0.033536248 -0.087224 -0.14968418 0.05984256 0.08551289 -0.03948422 -0.07831191
0.06495866 0.031797115 -0.08891551 0.005015474 -0.1621893 -0.043040305 -0.12138477 -0.06297675
0.09090123 0.025246339 -0.03138585 0.011818341 -0.037854657 -0.111070335 -0.05268936 0.115971364
0.02986262 0.037201323 -0.09351072 0.011329473 0.01561488 -0.07059308 -0.081741795 0.073157184
-0.13409296 -0.056567498 -0.052979216 -0.10285273 0.030553048 0.039696544 0.068806335 0.022331392
0.08685416 0.037799224 -0.12513901 0.008485644 -0.012480604 -0.012607314 -0.044462524 -0.010913393
-0.079253405 -0.065671206 -0.045587633 -0.0007100717 0.0017048827 -0.09030649 -0.024371862 -0.056742173
-0.06936695 -0.08896026 0.12126156 0.06520253 0.035590615 -0.0032102913 -0.029869657 -0.014835961
0.04487583 0.07305163 0.042595148 0.0497465 -0.0014469763 -0.033156168 0.065074936 -0.065958254
0.060081825 0.064340495 0.061800115 0.088146865 0.057951543 -0.019279696 -0.011298746 -0.011123583
-0.04084199 -0.021370832 0.026334565 0.101004824 -0.053648543 0.02529826 0.0986925 0.0700506
-0.04451109 -0.055851042 -0.08826379 -0.050135333 -0.052979253 -0.030318178 0.03610625 0.09606936
0.12230622 0.04598608 -0.05180164 0.023023995 0.061849304 0.05114158 0.01743237 -0.08996018
0.0836867 0.042492926 -0.020613855 -0.05261175 0.038578097 -0.026475627 -0.102564715 0.004148231
-0.042365756 0.10100292 -0.12739587 -0.0010235733 -0.08430112 -0.049835138 -0.11049302 -0.008709192

net.2.bias f4 [100]
00000000: 4d03 03bd 4aae ab3c 4826 a43d ee1b 383d
00000010: c565 303c 2dc9 d33d 4abe 11bd e23b ccbd
00000020: a48a b5bd 0dfd 6dbd 7b17 193d 0de6 b5bc
00000030: 7d02 c4bd 83ea a03d 2f91 53bd 752a aa3d
00000040: 4740 86bd 85a2 69bd be21 81bd 1215 59bc
00000050: 65fc 06bd 5636 afbc 2378 343d b883 513d
00000060: 6cc2 853c 1bc7 adbd cc80 63bd 060a dfbd
00000070: b403 1c3c f4a1 0e3d 2bfe ac3d e04b 9dbd
00000080: de37 3c3d 82fe d3bd b956 8ebd 64b9 4e3d
00000090: 21dc 223d a978 b6bd 3ac4 ff3b 8e2d 57bd
000000a0: 8bdb 5abd d44a 1a3d 3d5e aa3d 7076 d7bc
000000b0: 14c7 293d fea3 603d be7f 8e3c 6dbd 80bd
000000c0: d7c4 1c3d fb94 bf3d c84f b4bd aca7 cdbd
000000d0: 3047 89bd 43a0 933c 8390 403d 011b ff3b
000000e0: 7064 31bd 6c9b 32bc a8b6 d3b9 de9a ae3c
000000f0: 5abb 0dbd 8234 0b3d 32ff 733b d368 923d
00000100: d312 243d 7e11 c53c 3cd6 50bd 238d d6bd
00000110: 2392 3dbd daad 4d3d ecf5 38bc 3d37 d6bd
00000120: cb0a 27bd f543 b6bc 86f7 fcbc ef56 62bd
00000130: 3922 efbd c0f8 343d aec8 a5bd 0a36 843d
00000140: 498a a83c 8b5f 6b3d 4035 a3bd 3fd1 f5bc
00000150: 5539 603d b547 b83c 3061 97ba 70f6 4dbc
00000160: 6fc9 1ebc 9629 b5bd 8dc0 a8bd b550 cf3d
00000170: e5b1 0abd a6ff 8c3c 1cd0 c23c 5ad4 28bd
00000180: dd1e b3bd 6720 05bd cbae a83c 3861 9b3d
-0.03198557 0.020957131 0.08015114 0.04494851 0.010766451 0.103411056 -0.035581864 -0.09972359
-0.08864334 -0.058102656 0.03737591 -0.022204423 -0.09570787 0.078572296 -0.05165213 0.08308879
-0.06555229 -0.057039756 -0.06305264 -0.013249652 -0.032955546 -0.021388214 0.044059884 0.051151007
0.01632806 -0.08485242 -0.055542752 -0.10890584 0.009522367 0.03482242 0.08446916 -0.07680488
0.045951717 -0.10351278 -0.06950135 0.05046977 0.039760713 -0.08909733 0.0078053745 -0.05253368
-0.05343203 0.037669018 0.08318756 -0.026301593 0.04144962 0.054843895 0.017394897 -0.0628613
0.03827366 0.09354588 -0.088042796 -0.100417465 -0.06703031 0.018020755 0.047012817 0.0077852015
-0.043308675 -0.010901313 -0.00040381146 0.02131408 -0.0346025 0.033985622 0.0037230966 0.071489
0.040057015 0.024056192 -0.05098556 -0.104761384 -0.046281945 0.050214626 -0.011289101 -0.104597546
-0.040781777 -0.022249201 -0.030879747 -0.055258688 -0.11676449 0.04418254 -0.08094917 0.0645562
0.020573752 0.057464164 -0.07969141 -0.030007003 0.054742176 0.02249513 -0.001154935 -0.012570962
-0.00969158 -0.088458225 -0.08239851 0.101228155 -0.03386106 0.017211746 0.023780875 -0.04121814
-0.08746121 -0.032501604 0.02059116 0.075869024

net.4.weight f4 [100, 100]
00000000: 2984 e8bd 15c4 503d e51b 2a3d 79fc 403d
00000010: cfba 853c 003b 733d 3c8e 8e3d abcb 263d
00000020: 1e0f 25bd 566a 94bd cf45 b8bd cb2e 5dbc
00000030: 2fbf 903a b2ce bbbd 70ac f3bc b629 27bc
00000040: 0369 b6bd 04b7 0d3d d0c2 373d 90df f2bd
00000050: c86d 15bd 4de2 203d b89f cc3c 67ac b4bd
00000060: 40b8 a53d 9b74 6bbd bfb7 79bc 12d8 bebd
00000070: 6743 92bd 74da b5bd 8085 9cbd 8491 49bd
00000080: b18f debd 240a d33d 75aa 943b 6b48 b73b
00000090: f644 72bd b20e 9c3c 8bc8 193d 4673 393c
000000a0: 74f7 4d3d 0c6d 42bd f9eb 953c 9e71 92bd
000000b0: fd59 883c 7cff e6bc 3bd9 de3b d64e f23c
000000c0: 4b03 1fbc c7ea b13d 251b 8abd 8590 a5bb
000000d0: 3dca 843d af0c 1c3d 49af 4cbc 3181 61bd
000000e0: 58f4 dbbc 4789 91bd 8c53 4fbd 8213 c13d
000000f0: efcb 76bd 4935 c33a 9781 c2bd 5419 5e3d
00000100: a322 5abd 37dd b03d a325 df3c 0fac e3bd
00000110: f04f a2bd 5d4e adbd d46f 433d 6290 09bd
00000120: 0a80 a83c 66eb 39bc 53ba d23d c407 e3bd
00000130: 5c61 1e3c 9093 40bd 5a99 b6bc bbd3 27bc
00000140: ded5 d0bd 812b 753d d9c2 04bc d2a7 ed3d
00000150: 67a7 4dbc bc73 c1bd b06c 9f3d 2359 69bd
00000160: f187 ed3d d5cf 9e3c df2f 14be 1b60 ef3d
00000170: 9cfb b73c e811 343d 5701 a5bc 134e afbd
00000180: b964 de3d df80 e63c ebbc b7bc 7beb fabc
00000190: 991c c0bd 1852 0fbd cd0a 813c 043a 5bbd
000001a0: ed03 ce3d 6458 aa3d 7f15 963d 37f3 0fbc
000001b0: b98a 833d 0567 4f3b d914 213d 63dc aabb
000001c0: 8b45 12bd 417c 17bd 3331 a8bd 9992 553d
000001d0: fd57 a8bc 0c72 4f3d ba07 9a3d 8e4d c53b
000001e0: 38bd 6e3d d254 a63d 039f b03d f2c2 3bbd
000001f0: ad04 acba 1a1f 90bc d85e 683d 6d26 0d3d
00000200: 5b86 90bd 447b 70bd 3a09 413d be64 3c3d
00000210: 0a89 99bd f197 9ebd ed08 9abb ff34 c4bd
00000220: 4191 67bd 86ea 613d ecba 723d 5389 6d3d
00000230: 6fcc 4abd c0d5 a4bd 93af 7a3d a330 143d
00000240: 900b 29bd f9bb 41bd 1f71 5f3d b091 2d3d
00000250: 4aaf ff3c e75c 013d 1fec e93a 2b89 743c
00000260: ef9d 3fbb bf7b 03bd a776 263d 79b6 753d
00000270: 3058 993d 2d5e 8f3d 19ab 523d e9e5 d5bd
00000280: f2df 10bd d363 8ebd 32d5 e03d ea13 a8bd
00000290: d0be c6bd 129f a33a 7093 cf3d 8db7 753d
000002a0: e313 de3d d6af f4bc 73d5 8dbd 5db8 5fbc
000002b0: e39b 26bd 0a3e 5dbd e3c9 383c b341 0c3e
000002c0: 621f 193d af8b a03c 5da4 dc3b efd7 6cbd
000002d0: d5c4 643d 3327 ff3d f91b 1c3d 6eef 84bd
000002e0: ac44 c1bd 284a adbd 8808 4c3d d713 8cbd
000002f0: d384 1a3d 584a 213d 41a7 a0bd 5fbb c2bc
00000300: 6d37 e6bc bf80 cebc 93c4 f9bc 33e4 393d
00000310: a2fe c73d f365 79bd be54 dbbc 6182 86bd
00000320: 0662 1bbd e6d2 393d b75c 1fbc e5d8 a1bd
00000330: 0ddc cd3d b53a 88ba e476 80bd 158d af3d
00000340: c359 493d 44e3 a6bc 6361 923d 85eb 9abd
00000350: 3f04 ef3c b2de 9d3d b1c1 cd3b b74e aabd
00000360: a018 823d 26a5 5d3b 4cb2 103d d6da dcbc
00000370: 72d6 5e3d 2ba9 a23d 0bd0 94bc d3f3 cfbc
00000380: b9bc a6bd 06ac c93d cbb6 79bc e86b 3f3d
00000390: b137 9fbd b735 973c b7a8 2c3d 41c9 a83d
000003a0: 5d02 b9bd 31f2 46bd f2bb 363d 6bc1 cb3d
000003b0: bc99 f5bc e4ef bb3d c590 8e3d ea6f 163d
000003c0: d72a 3f3d 48d5 873d 2408 bebb cdc9 c43d
000003d0: b690 25bd 3a60 983d 39ff 83bc cfcb 6a3d
000003e0: 981f 9abd 3c5f bd3d 9b99 843d 61fc b9bd
000003f0: 33b3 803d 7de5 003d 9554 b9bc a2e8 1bbd
-0.113533325 0.05096825 0.04153051 0.047115777 0.016324429 0.05938244 0.06960723 0.040721577
-0.04029762 -0.072468445 -0.0899769 -0.013499926 0.0011043305 -0.091702834 -0.02974531 -0.010202816
-0.08906748 0.034598365 0.044863522 -0.118590474 -0.03648165 0.039278317 0.024978504 -0.08821946
0.080917835 -0.05748425 -0.015241562 -0.09318556 -0.07141762 -0.08879557 -0.076426506 -0.04921104
-0.10867251 0.103046685 0.0045369216 0.0055933497 -0.059147798 0.019049976 0.03754477 0.011318987
0.050284818 -0.047467276 0.018300997 -0.07150577 0.016644472 -0.028197996 0.0068007982 0.029578608
-0.009705375 0.08687358 -0.06743459 -0.0050526285 0.064838864 0.038098034 -0.012492963 -0.055054847
-0.02684991 -0.07106262 -0.050616786 0.09427549 -0.06025308 0.00148932 -0.094973736 0.054223374
-0.05325569 0.086359434 0.027239626 -0.11116802 -0.07925403 -0.08462212 0.04771407 -0.03358496
0.020568866 -0.011347627 0.10289445 -0.110854656 0.009666767 -0.047015727 -0.02228992 -0.010243352
-0.10197042 0.05985594 -0.008103096 0.11604275 -0.012552119 -0.09445903 0.07784402 -0.056969773
0.115981944 0.019386211 -0.14471386 0.116882525 0.022458844 0.04396239 -0.02014224 -0.08559813
0.10859055 0.028137622 -0.02242895 -0.030629864 -0.093804546 -0.0349904 0.01575222 -0.053522125
0.100593425 0.083176404 0.07328319 -0.008786014 0.064229436 0.0031647098 0.039326522 -0.0052142604
-0.035710853 -0.036983732 -0.08212509 0.05214176 -0.020549769 0.050645873 0.07521005 0.006021208
0.05828592 0.08121647 0.08624079 -0.04584021 -0.0013123952 -0.017592955 0.056731075 0.034460474
-0.07056876 -0.058711305 0.04712794 0.045994513 -0.07496841 -0.07743824 -0.004700771 -0.09580421
-0.05653501 0.0551553 0.059260294 0.05799229 -0.04951137 -0.08048582 0.061202597 0.036179196
-0.041270792 -0.047298405 0.05455124 0.042375267 0.031211514 0.03158274 0.0017846859 0.0149252815
-0.0029238423 -0.032100435 0.0406405 0.059988473 0.074875236 0.070003845 0.051432703 -0.104442425
-0.03536982 -0.06952634 0.10978164 -0.08206923 -0.09704363 0.001248332 0.10135543 0.0599895
0.10843637 -0.029869001 -0.06925478 -0.0136547955 -0.04067601 -0.054014243 0.011278602 0.13696937
0.037383445 0.019597856 0.006733461 -0.057823118 0.055851776 0.124586485 0.038112614 -0.0649098
-0.09436926 -0.0846141 0.049812824 -0.06839722 0.037724327 0.03937754 -0.07844401 -0.023770986
-0.028102601 -0.025207875 -0.030489242 0.045383643 0.09765364 -0.060888242 -0.026773807 -0.065678366
-0.03793528 0.045367144 -0.009726695 -0.079026975 0.10051737 -0.0010393473 -0.062726766 0.08571831
0.04915787 -0.02037204 0.07147481 -0.07564453 0.02917683 0.077084914 0.0062791933 -0.08315795
0.06352353 0.003382036 0.035326287 -0.026959818 0.05440373 0.079424225 -0.018165609 -0.02538482
-0.08141465 0.09847264 -0.015241335 0.046733767 -0.07774294 0.01845823 0.042153087 0.08241511
-0.09033654 -0.048570815 0.044612832 0.09949001 -0.029980533 0.09176615 0.06961206 0.036727823
0.046671715 0.06632477 -0.0057993103 0.09608803 -0.04042121 0.07440229 -0.01611291 0.057323273
-0.07525557 0.0924668 0.064746104 -0.090813406 0.062841795 0.031468857 -0.02262334 -0.038063653

net.4.bias f4 [100]
00000000: 9711 463d 46ee b9bc 8ce9 803d c397 273d
00000010: b5c9 bc3d 2082 a2bd 536b bb3d 1e22 3c3d
00000020: 09ce 18bd 6b63 2f3d 3535 e6bc e152 ccbc
00000030: e165 acbd ed35 a53d 20f2 debb 5e49 b8bc
00000040: fa07 563d 947b a43d f292 5b3d d1f3 633d
00000050: 8059 0ebd 012c 35bd ce55 4d3d 3218 abbd
00000060: 4c63 8b3d 9504 a8bd f6c0 8f3d 1bb7 36bd
00000070: 5f81 50bb 9d40 033d 0eaa a3bd e982 50bd
00000080: 6a9b 22bb 896a c5bd 204b 723d c3d8 30bd
00000090: bbb3 54bc 6be8 983c c9a8 d53c cae9 ffbb
000000a0: c390 a13d 03e7 d8bb 91ed 47bd 6af7 b23d
000000b0: 1927 8b3d 2078 92bc 807e 87bc 95b1 df3c
000000c0: b6d2 38bc c53f 58bc 291e dc3c 7cb6 bd3c
000000d0: 3bae 213d 21c8 0abd 833c 69bd 3ee7 a23d
000000e0: f240 c13d 34bd 0abd bf53 59bc 9efe 89bd
000000f0: 1e73 703d 3527 a33d 1eda a5bd 9eb7 6dbd
00000100: 91aa c0bc 6bd3 fa3b a7a0 df3d 8f84 a63d
00000110: 4808 e2bc bfc2 a9bd e3f9 ca3d d09a 89bd
00000120: a11d 38bd cc42 d13c cc90 cb3c 15df 983d
00000130: 022e c93b 1abe 793b 6cd3 003e 924f 3dbc
00000140: 51d7 1c3d 7a5f 85ba 8fbd 1b3d be20 59bd
00000150: 94cc 95bd 32cd 0fbd 8356 b2bc a574 92bd
00000160: 8ac6 a03d 58d9 b53d 24b4 b53d 9db0 67bd
00000170: df1e 8a3d b6f5 eebd 901a 333c 6e29 893d
00000180: 47f4 bc3d d907 ccbd 8154 8c3d cd56 e13b
0.04835662 -0.022696625 0.062945455 0.040916216 0.0921816 -0.079349756 0.0915133 0.045930974
-0.037305865 0.04281942 -0.028101543 -0.024941863 -0.08417869 0.08066926 -0.006803766 -0.022495922
0.0522537 0.08031383 0.053606935 0.055652443 -0.034753323 -0.04423142 0.050130658 -0.08354224
0.06806049 -0.08203999 0.07019226 -0.044608217 -0.0031815392 0.032044042 -0.0799142 -0.050906096
-0.0024811872 -0.096394606 0.059153676 -0.04317547 -0.012982304 0.018665513 0.02608146 -0.0078098522
0.07888939 -0.0066193356 -0.048810545 0.08738597 0.06794567 -0.017879546 -0.016539812 0.027306357
-0.011280706 -0.013198798 0.02686985 0.023158304 0.0394728 -0.033882264 -0.056942474 0.07954262
0.094362155 -0.033871844 -0.0132645955 -0.067380175 0.058703534 0.079664625 -0.08098243 -0.05803644
-0.023518832 0.0076545975 0.10919314 0.08130752 -0.02759184 -0.08289098 0.09910943 -0.06718981
-0.04495013 0.025544547 0.024849318 0.074644245 0.0061395178 0.0038107694 0.12580651 -0.011554616
0.03829128 -0.0010175549 0.038022574 -0.05300974 -0.07314411 -0.0351078 -0.021769768 -0.071511544
0.07850368 0.08879346 0.0887225 -0.056564916 0.067441694 -0.116679594 0.010931626 0.06697355
0.0922628 -0.09962434 0.06852055 0.0068768025

net.6.weight f4 [100, 100]
00000000: cf9f 16bd 61a0 1bbd 8954 8cbd 6ae7 683d
00000010: b68c adbd 80d5 233a 5d0f 79bd b1f4 1cbd
00000020: 5ef1 8d3b c0b0 7a3c 1cf1 bbbd 7907 cb3c
00000030: 0816 e0bb c8cb 8b3d 5b5a a8bc 845a 163d
00000040: 97bf 6fbd 0866 91bd 3ceb bbbd 42de 9bbd
00000050: fc86 78bd f6e2 11bc cae3 debd b7a7 f5bc
00000060: cba0 16bd 972e 67bc 2bf2 b83a 9208 9fbd
00000070: 30ed 013c d497 cbbc 7cc0 8f3d 6499 bf3c
00000080: 28ba 79bd 4348 323c 4194 95bc 3e02 18bd
00000090: 523e 183c 8aa6 b2bd 4dc9 a1bd 8a6a 2ebd
000000a0: 7968 ea3b 684b 2e3d 3a7b 9d3d ccf8 8bbc
000000b0: b750 f0bd cc27 bdbd d202 573d aa5b a03d
000000c0: 8025 a5bd 4bc4 97bd fe9a a43d a910 023d
000000d0: 43a6 d53c 395f 413d ebac e73c 6c78 3fbd
000000e0: 7829 3dbd 3513 673d 4f3b cdbc 283c afbd
000000f0: c40b 243b bc39 93bd 1071 babd 67ad 3cbc
00000100: e50a 913b a04c 913d 8d42 efbd 9a73 b8bd
00000110: 3374 913d 42e0 1f3d a0dc d3bd d7d9 2d3d
00000120: 4fda 2a3d bbcd 993d 3610 81bd 6a4a 923d
00000130: 9b01 2bbd f920 d53d dd24 b5bd cccc 96bd
00000140: b5a3 79bd 4f0d 7cbd c603 abbb 0698 703d
00000150: 49f4 e23d ca9b cfbc e231 973d 0307 1dbc
00000160: b49e 853c b464 163c b0ef b03c 7e09 a63d
00000170: 4351 0abe d0b2 a4bc 7322 893d 27be e03c
00000180: 2fae a73d 40d7 b1bd 9ba5 c23d 17d9 2bbd
00000190: ee82 8d3b 32f0 8e3d 736a c1bb 2cc2 26bd
000001a0: dda5 77bc 529c 8a3d dfe6 9e3d eceb bc3d
000001b0: fba0 a9bd 8344 823d 2b28 b1bd e8ff f83c
000001c0: 4a3d 073d 073f 5c3c 6ecd a63d f212 573c
000001d0: 9493 233d a8f3 8dbd 4987 413d b3b9 bb3d
000001e0: a6dd 8b3c 89bd 20bd c606 67bd 9efa 01bc
000001f0: 6381 b63d 9471 17bd 1fa7 bdbc 1ccc 843d
00000200: 7e7f bbbd 899f 13bd 3a1c f7bc 2c87 8e3c
00000210: 2386 4abc 6fd7 c33d bf72 0f3b 4576 913d
00000220: 0010 0db8 e157 9fbb a6c2 debc 2672 95bd
00000230: 540a 023d 9cd5 c33a 8eba 273d d8c0 993d
00000240: 6c1a 3abd c973 c3bd e990 a93d 0d7f 79bd
00000250: 2b49 16bd cca9 2f3d c669 9c3d 40d6 16bc
00000260: 2d23 8d3d feb8 4e3d 4245 9d3c ae4d eeba
00000270: 7c57 b23d 6ac5 6c3d 7011 f0bc 864b b0ba
00000280: c93f a4bb eec5 833c 7a60 aa3d 9263 82bd
00000290: f31c 213c 0977 5dbd b896 7f3d 07b1 84bd
000002a0: 6fd7 afbd 1203 ddbd 23a9 3039 41a7 1fbd
000002b0: b4b8 aabd 827a 1e3c 54bd 51bd a1fc b93d
000002c0: 6b7d c23d 67b8 823d d76e 663d 4a39 2b3d
000002d0: abcf bcbd 38e5 b6bc fdcc 1abd c47e 87bd
000002e0: 6064 d5bb f1cf e33a 8144 b0bc 507d 893d
000002f0: d356 abbd daed d63d ee27 c23d 1356 0bbc
00000300: 4450 2abd 029f 9f3d aec7 45bd fe05 a2bb
00000310: a58c 903d 2650 633d 32fb 81ba ba28 6f3c
00000320: a5da 453c 2261 c9bd cdb2 303d 8918 e63b
00000330: f892 a8ba e744 a13d 7e28 d6bd cb26 863d
00000340: 95e9 a83d adce 5e3d 04b8 813d 22b5 96bd
00000350: af7f b53d aef9 f63c 8b94 843d 2e35 93bd
00000360: 1975 853d 78b2 6f3d 7e92 8c3d c1cd 8b3d
00000370: 61ca 22bd 0ee2 ad3d 03a6 abbd e4d2 2c3a
00000380: b962 823c 8d5e 383d b188 803d 3991 943b
00000390: a0ad 8a3d 8720 893d 48f9 b8bd 7b26 ab3d
000003a0: ae66 89bc cc32 a0bd 8d5c 37bb 7494 e73c
000003b0: 8d61 6fbd e7f2 7abb 612b aabd 75a9 86bd
000003c0: dea6 333c 3eb3 c1bd 25bf 053c de49 40bd
000003d0: 3ab1 cbbc efda 273c 148a 0d3d 424b a4bb
000003e0: 6f1b d1b9 3e84 683d ad83 ad3c b2a2 043c
000003f0: 5c0a 523c 9305 933b 5f17 cf3d 2747 0bbd
-0.0367735 -0.037994746 -0.06852061 0.05686132 -0.08474104 0.00062497705 -0.060805667 -0.038319293
0.0043317517 0.01530093 -0.09176847 0.024783837 -0.006838564 0.068259776 -0.020550897 0.036707416
-0.058532324 -0.07099539 -0.09175727 -0.07610752 -0.060675606 -0.008904209 -0.10883291 -0.0299872
-0.036774438 -0.014110229 0.0014110258 -0.077653065 0.007930085 -0.02485267 0.07019135 0.023388572
-0.060968548 0.010881486 -0.01825917 -0.037111513 0.009292202 -0.08723171 -0.07899723 -0.042582072
0.0071535674 0.04255238 0.07689519 -0.017086409 -0.11734145 -0.09236106 0.052492924 0.078299835
-0.08063793 -0.07410487 0.08037375 0.03175417 0.026080256 0.047209952 0.028280696 -0.046745703
-0.046182126 0.0564148 -0.025052695 -0.08556396 0.0025031427 -0.07188746 -0.09103596 -0.011515952
0.0044263476 0.07094693 -0.116826154 -0.09006424 0.07102241 0.03903223 -0.10344815 0.042444076
0.0417121 0.07509943 -0.0630192 0.071430996 -0.041749578 0.1040668 -0.08844922 -0.07363281
-0.06094714 -0.06153613 -0.0052189557 0.05873873 0.1108175 -0.02534284 0.07382561 -0.009584191
0.016311027 0.009179283 0.021598667 0.08107279 -0.13507561 -0.020104796 0.06696024 0.027434422
0.0818752 -0.08683634 0.09504243 -0.04195508 0.0043185866 0.06979407 -0.0059025823 -0.04071252
-0.0151152285 0.06768097 0.07758879 0.09224686 -0.08282658 0.06360724 -0.086502396 0.030395463
0.033017434 0.013442761 0.08144651 0.0131270755 0.039935663 -0.06931239 0.04724816 0.09166279
0.017073464 -0.039243255 -0.056402944 -0.007933287 0.08911397 -0.03697355 -0.023150979 0.06484243
-0.091551766 -0.036040816 -0.030164827 0.01739844 -0.012361082 0.09562575 0.0021888462 0.07102636
-3.363192e-05 -0.004862771 -0.027192425 -0.07297163 0.03174813 0.001494098 0.040949397 0.07507485
-0.045435354 -0.09543569 0.082795925 -0.06091218 -0.036690872 0.04288654 0.07637362 -0.009206355
0.06891475 0.05046939 0.019198064 -0.0018181109 0.087080926 0.057805456 -0.02930519 -0.0013450242
-0.0050124866 0.016085591 0.08319183 -0.06366648 0.009833562 -0.0540686 0.062399596 -0.06479078
-0.085860126 -0.10791601 0.00016847676 -0.038977865 -0.083360106 0.009672763 -0.051205948 0.09081388
0.09496578 0.06382828 0.05625805 0.041802682 -0.09219297 -0.022326097 -0.03779315 -0.066159755
-0.00651221 0.0017380697 -0.02151704 0.067133546 -0.0836617 0.10494585 0.09480272 -0.008504408
-0.041580454 0.07794 -0.048286133 -0.004944562 0.07058076 0.055496357 -0.0009916781 0.014597112
0.012076055 -0.0983298 0.043139268 0.007021968 -0.0012861183 0.0787447 -0.10456942 0.06550368
0.08247677 0.05439632 0.06333926 -0.07358767 0.08862244 0.030148353 0.06473645 -0.071878776
0.06516475 0.05851981 0.06863879 0.06826354 -0.039743785 0.08490382 -0.083812736 0.00065927044
0.015916215 0.045012046 0.06276072 0.0045339135 0.067713976 0.06695657 -0.090319216 0.08356949
-0.016772594 -0.07822189 -0.0027978749 0.02826903 -0.05844264 -0.0038291754 -0.08309055 -0.0657529
0.010965077 -0.09458016 0.008163248 -0.046945445 -0.024864782 0.010245069 0.03455551 -0.0050138542
-0.00039884026 0.05676674 0.021180952 0.00809543 0.012819853 0.0044867485 0.101118796 -0.034003403

net.6.bias f4 [100]
00000000: 9802 36bd d38f 233d 9c5d 68bd 72f9 fcbc
00000010: cfa9 3e3d 4e00 823d 70d1 68bc 737e edbd
00000020: a105 8f3d 3d5e 7139 d972 a0bc e9bb 9f3d
00000030: 6bfa 98bd 724c 12bd c746 cabd f241 b83c
00000040: a11f a53d 3f23 cebc 250b 17bd b5a7 603d
00000050: 310a 563d 5fbf 04bd b0e9 a73c 9776 98bc
00000060: 199a ad3d fc4e cabd 863b 9c3d 83c7 08bd
00000070: 01d2 b93d d3a3 4fbc a533 d23d 43a7 cf3d
00000080: 14cb 91bc 1a37 71bc f62f b73c 2aef 793d
00000090: a241 c8bc 444c d03c 58a8 e5bc 7200 853d
000000a0: 6c28 873d ef60 cb3d b753 92bc 04aa aabc
000000b0: b67b 55bd 535f 83bd 7ab7 8e3d ab29 67bc
000000c0: 18e2 39bd ea33 03bd 3ba8 05bb 3dac ba3c
000000d0: 1ff8 813c eb78 0dbd b7ef 413c e00b 1e3b
000000e0: c5ff 18bd 8447 0bbd 1665 b4bc 48f2 66bd
000000f0: 3703 95bc ac4b 933d bde8 0b3d 3aa2 4ebc
00000100: b1c2 f2bd 7934 3a3d dced 803c 9719 303d
00000110: 179e 9ebc 4081 163c 0435 24bd 6e3d bebd
00000120: 1d07 01bd 9f22 223d 16c6 55bd e50e c3bc
00000130: 20c4 54bc 113e f5bc 3074 c53c 6691 2abc
00000140: f68f 00bd d30c 9b3d 51f3 763d 3981 2a3d
00000150: 61f9 09bd 8df9 9cbd d26c b83b 476c 7ebc
00000160: ea61 923d fb7b 653d d514 973c 2fce c33d
00000170: 0bd5 c03c b03b 923d c86c 643c 9ddd 663d
00000180: e28f b4bd 1690 553d 3e99 b73d b584 45bd
-0.044436067 0.039932083 -0.056729898 -0.030880664 0.04654866 0.06347714 -0.01421009 -0.11596384
0.069834955 0.00023018658 -0.019586014 0.07799513 -0.074696384 -0.035717435 -0.09876781 0.022492383
0.08062673 -0.025163291 -0.036875863 0.054847438 0.052255813 -0.03240907 0.020497173 -0.018611236
0.084766574 -0.09878346 0.07628541 -0.033393394 0.09073258 -0.012673336 0.10263757 0.101393245
-0.01779703 -0.01472261 0.022361737 0.0610191 -0.024445359 0.025426991 -0.028034374 0.064942256
0.06599507 0.09930598 -0.017862184 -0.020833023 -0.052119933 -0.06414666 0.06968589 -0.0141090555
-0.045381635 -0.03203193 -0.0020394463 0.022787208 0.015865384 -0.034539144 0.011836938 0.0024115965
-0.037353296 -0.03400375 -0.022020858 -0.0563834 -0.01819001 0.07192168 0.034157503 -0.01261192
-0.11853541 0.045460198 0.01573842 0.042993154 -0.019362492 0.009186089 -0.040089622 -0.092890605
-0.031500924 0.0395838 -0.052190863 -0.023810813 -0.012986213 -0.029936822 0.024103254 -0.010410642
-0.03138729 0.075708054 0.06029064 0.041627143 -0.033685092 -0.076647855 0.0056282068 -0.015528745
0.07147582 0.05602644 0.01844255 0.09560811 0.023539087 0.07140291 0.013941951 0.05636369
-0.08816506 0.052139364 0.089647755 -0.048222262

net.8.weight f4 [100, 100]
00000000: ff77 40bc 7efe f8bc aeff b8bd 1cab 5cbd
00000010: e00e a7bc 2873 84bd 6124 913d e3a4 16bd
00000020: 2306 863d dbef e5bd c520 8abd a6b7 8dbd
00000030: 718b a13d ec27 ccbc 2276 883d bc16 f63b
00000040: b79b 64bd 0595 983c d617 57bd 00fc 9dbb
00000050: 9b1d 94bd 4394 aa3d 7768 8ebc d496 223c
00000060: 1a68 76bd 4b67 bfbd 79bf 8d3d 2e7c 143c
00000070: c600 fa3c 40e7 513c 3206 93bd d89b 39bd
00000080: f448 4a3d 252a a73d 0fc5 53bb 08ec eebd
00000090: 119d b3bc b6b4 a73d bf90 62bc 4b62 d43d
000000a0: 1c2d 34bd 9f93 cb3d bd1d 0bbd f228 973d
000000b0: 2d18 32bd d4f2 a23d f128 443d 8226 83bd
000000c0: 525c 3b3d a5ce 29bd 7512 8abc 420b df3c
000000d0: 8051 363d 0018 bc3d 5992 993d 2e55 9d3b
000000e0: 3da1 433d d3d6 8bbd 8e45 853c 4482 70bb
000000f0: 625b 16b9 a76c ae3d 2cbb 673d 5129 b0bd
00000100: 7cf9 24bd d936 f839 0647 79bd 08ce 473d
00000110: ff79 b73d 8dc3 4a3c 3718 8b3d 3b8b 1bbd
00000120: 3344 e9bc 2872 713d f234 88bd 374f 54bd
00000130: dc27 8e3d 3680 f2bc 6895 493d 98aa 0d3d
00000140: 5fc4 b13d 069e a6bd ce0b ca3c 91a7 79bd
00000150: 299d 92bd acc0 4bbc f25c 8fbc 608a 80bc
00000160: 93e8 84bc da29 f33b 1363 553c 5efc 1c3d
00000170: 4050 8abc ed79 82bd 67b1 f8bd 5d44 5f3d
00000180: 35e4 1abd 3f2c 863d 38a9 b63d 8643 383d
00000190: 9f28 8ebb c234 253c 9237 ecbb d287 9b3d
000001a0: b644 d7bd 3272 8c3c 5cd5 b7bd ddfe 473d
000001b0: 436c 60bd 69e9 24bd 6cec bfbd 09ad b43d
000001c0: 57ba 023c c505 dd3b 9be8 c93d ff07 c8bd
000001d0: 843f 493d 9e69 a03a dabd 4cbb 768e 92bc
000001e0: ef74 1d3d 7ada 23bd 95e9 5abd 0586 4ebd
000001f0: c366 bd3d 9a44 b9bd aa5a 853c 6741 4e3d
00000200: b44d 043d 08fb 85bd a7de 7c3a 6252 b7bc
00000210: 5b5b cd3c 533b 453d 5375 033d 21ee 523d
00000220: 0f91 afbd 8e0f d63c d8b6 3a3d fa2d 653d
00000230: 68d4 463a f96f 87bd 5b0d 503d 0632 063d
00000240: fb85 293d c118 d5bd f25d d8bb b5b0 3ebd
00000250: 278e 76bd bc4c 143d 56a0 dfbb c844 8a3d
00000260: c4ac 81bd 3ac0 91bc aa0d 0b3d 24f7 0e3d
00000270: 2b07 e3bc 0ae0 9b3d 8f05 b23c 301c e4bd
00000280: 6460 8ebd e0ee 373d 804d d03d 7399 1fbc
00000290: ac92 d839 9492 433c d4aa c3bd 9fd6 22bd
000002a0: e3b2 943d 69b4 c23d 9c95 a73d 87b2 363d
000002b0: 99f8 c3bb 8626 903d 63f6 bf3d d3a6 133c
000002c0: 2be7 74bd 38b9 b1bc 36d3 893d 2c74 103d
000002d0: 91bc ac3d 1855 98bd cc3d dbbd d894 b53d
000002e0: 8339 0bbd e7f2 bd3c 5af9 dbbd 8d17 843d
000002f0: 2fbc a03d a901 973d b976 903d 50ac 5ebd
00000300: a03e 9a3d bdf1 673c 8a31 d23c 3d72 35bd
00000310: 4680 04bd d1b2 a8bd a571 923d 55d2 6d3d
00000320: 57c6 c63b 4c27 053d 1924 9d3d 2451 6ebd
00000330: 92ef dbbd 549e a13d 2cf6 963c 1702 9e3d
00000340: 25b2 b3bd bc33 97bb ec15 37bc a86b 60bd
00000350: cebc 1b3d 7a2f db3c 9568 9abd 56c6 c93d
00000360: afe2 2bbb df46 1b3d a369 1aba 6f8d 103d
00000370: 9171 c6bd c204 d3bc d282 b6bd b9b6 51bd
00000380: 0f46 5e3c c48d 02bd b139 023c 55bc b1bd
00000390: 5d39 a23c cecf 8dbd cec1 bfbc 3fe1 b4bd
000003a0: 7a86 babc 0b3f 9c3d ef36 94bd 4869 c73d
000003b0: 4cf9 803d 0abd 88bd 3761 1abd 4cfb b33c
000003c0: 50b3 68bd c842 a3bd 9125 9fbd c3c9 a2bd
000003d0: dfd8 eebc 357b 1abc fe7f 6d3d b664 473d
000003e0: 7107 a33d 3bc8 a8bd cbca a1bd c8a1 1bbd
000003f0: 007e 3a3d 6efa ad3c c924 13bd 1f4f cd3c
-0.011747359 -0.030394789 -0.09033142 -0.05387412 -0.020392835 -0.06467277 0.07087017 -0.036778342
0.06544139 -0.112273894 -0.067445315 -0.06919794 0.078879245 -0.02492138 0.06663157 0.0075100344
-0.055812564 0.018625746 -0.052512966 -0.0048213005 -0.07232209 0.0832906 -0.017383797 0.009923656
-0.060157873 -0.093458734 0.06921286 0.00906281 0.030517947 0.012811482 -0.07178916 -0.04531464
0.04938598 0.08162335 -0.00323135 -0.11666113 -0.021925481 0.08188765 -0.0138284555 0.103703104
-0.043988332 0.09940266 -0.033963908 0.073808566 -0.043480087 0.07956472 0.047890607 -0.06403829
0.04574234 -0.041456837 -0.016854504 0.027227048 0.04451132 0.09184265 0.07498617 0.004801414
0.04776119 -0.06828084 0.016268518 -0.0036698738 -0.00014339157 0.085168175 0.056574985 -0.086016305
-0.04027699 0.0004734311 -0.06085875 0.04878047 0.08958816 0.0123757245 0.06791728 -0.037974577
-0.028474903 0.05894676 -0.066507235 -0.051833358 0.06941196 -0.029602151 0.04921475 0.03458652
0.08680033 -0.08135609 0.024663832 -0.06095082 -0.07158882 -0.012436073 -0.017500374 -0.015690982
-0.016224181 0.0074207606 0.013024109 0.038326614 -0.01688397 -0.06370912 -0.12143212 0.054508556
-0.03781529 0.06551408 0.08918995 0.04498627 -0.0043383385 0.010083379 -0.007208773 0.07594265
-0.105111524 0.017144296 -0.08976242 0.04882704 -0.054790746 -0.04026166 -0.09371266 0.08822066
0.007978997 0.0067450725 0.09858819 -0.0976715 0.04913284 0.0012238508 -0.003124109 -0.017890196
0.038441595 -0.040003277 -0.053445417 -0.05042078 0.09248116 -0.09046288 0.016278584 0.05035534
0.032300666 -0.06542021 0.0009646215 -0.02237815 0.025067976 0.04815228 0.03209431 0.05149663
-0.085725896 0.026130464 0.04558453 0.05595205 0.00075847516 -0.06613154 0.050793987 0.03276255
0.04138754 -0.10405112 -0.006602996 -0.04655524 -0.06019416 0.036205992 -0.0068245335 0.067514
-0.063317806 -0.017791856 0.033948578 0.03490366 -0.027713379 0.076110914 0.021731166 -0.11138189
-0.06951979 0.044905543 0.10171032 -0.009741175 0.0004130801 0.011936802 -0.09554067 -0.03975546
0.072606824 0.09507067 0.081828326 0.04460385 -0.005980563 0.07038598 0.093731664 0.009011942
-0.05979077 -0.021694764 0.067297384 0.03526704 0.08434404 -0.07438105 -0.10705146 0.0886628
-0.033990394 0.023187114 -0.107409194 0.064498045 0.07848393 0.073733635 0.070538945 -0.05436355
0.07531476 0.014156756 0.025658388 -0.0442984 -0.032348894 -0.082372315 0.07150582 0.058061916
0.0060661244 0.03250818 0.07672901 -0.05818285 -0.10739054 0.07891527 0.01842793 0.07715242
-0.08774213 -0.0046143215 -0.01117466 -0.05479017 0.038021855 0.026756037 -0.07539479 0.09852283
-0.0026227643 0.037909385 -0.0005890375 0.03529113 -0.0968963 -0.025759105 -0.08911671 -0.05119965
0.013566508 -0.03187348 0.007948325 -0.086784996 0.019802744 -0.06924401 -0.023407843 -0.08832025
-0.022769202 0.07629212 -0.0723704 0.09736878 0.062975496 -0.06676681 -0.037690368 0.021970414
-0.05681163 -0.07971722 -0.07770837 -0.07948639 -0.029156147 -0.009428789 0.05798339 0.04868003
0.07960404 -0.08241316 -0.07900008 -0.037996083 0.04553032 0.021237578 -0.035923753 0.025062142

net.8.bias f4 [100]
00000000: cc1f 503d 2725 d93c e55b abbb 26ae 983d
00000010: e28a 903b fe26 d8bc 4b68 833c 4d2f 0cbd
00000020: 5c9b 0f3d 71a2 dcbc 9015 44bd ce80 12bd
00000030: 52f1 ecbb e3e8 403d cd67 07bc 4119 85bc
00000040: 4ec1 82bc f446 39bd ef4e 8c3d 5e43 1f3d
00000050: 3659 1abc 1b33 ab3d 4938 533d 1e4a d83c
00000060: 5aad 653d 5874 853c 65c6 233d 8000 4e3d
00000070: 92f0 80bc 8dea 84ba 7dd4 22bd b945 c5bd
00000080: 82e2 153d f480 803c c485 f0bc a27b 493d
00000090: 23b8 bf3c 8098 e23c b5e6 12bd 04c8 27bd
000000a0: 9a55 e43d 4efc a6bc 3f51 3b3d 77c6 683d
000000b0: 967a 14bd 16de a0bd 7118 063d 3a62 25bd
000000c0: 6af1 103c 019e e63b d657 343c 4df9 99bd
000000d0: 166d 3abc a764 053d 02bf 6bbd 4584 3cbd
000000e0: c7e6 82bd 169d 9f3c 94da 113d 9461 89bd
000000f0: f4f7 94bd 5a22 643d 9083 acbd 662b a1bc
00000100: ffb1 af3c a913 e0bb 2184 cb3b 63ed b4bd
00000110: 6725 c93d af3f 40bd 6fc8 a7bc 6c38 09bd
00000120: 0ac2 3ebd 5171 28bd c652 293d 8df3 f7bc
00000130: 62fc 61bd d7fe d8bb 5ff8 40bd c1b2 cfba
00000140: c656 7b3d 538f 863d 0a9c 933d 0724 3ebc
00000150: 4845 223d 3e2d 393d 1de5 6dbd e891 0ebd
00000160: a869 c13c 713d ab3d 2c1e 5fbd 63b9 ab3d
00000170: 9d2b 5e3d a888 233c fc8f 97bc b671 843c
00000180: 5f6b 3c3d 388d 95bb e353 a4ba 8cb2 ac3d
0.050811574 0.026506973 -0.0052294605 0.07455091 0.0044110874 -0.02638578 0.016040942 -0.034224797
0.03506027 -0.026932927 -0.047872126 -0.03576737 -0.007230916 0.047097098 -0.008264494 -0.016247394
-0.015961315 -0.04523368 0.06850993 0.038882606 -0.009420684 0.08359357 0.05156735 0.02640253
0.056073524 0.016290829 0.039984126 0.050293446 -0.015739713 -0.0010140702 -0.039753426 -0.09632439
0.036592968 0.01568649 -0.02936066 0.04919017 0.023403233 0.027660608 -0.03586455 -0.040962234
0.1114914 -0.02038398 0.04573178 0.056829896 -0.03624972 -0.078548595 0.032738153 -0.04037688
0.00884662 0.0070378785 0.01100727 -0.075182535 -0.011378547 0.032566693 -0.057555206 -0.04602458
-0.063916735 0.019484084 0.035608843 -0.06708065 -0.07273856 0.055696823 -0.08423531 -0.019674014
0.02144718 -0.006838281 0.0062108194 -0.088343404 0.09821587 -0.046935733 -0.020481316 -0.033501074
-0.04657177 -0.041123692 0.041338705 -0.030267501 -0.05517233 -0.006622176 -0.047111865 -0.001584612
0.06136205 0.06570306 0.072074965 -0.011605269 0.039616853 0.045209162 -0.058079828 -0.034807116
0.023609951 0.083613284 -0.054472134 0.08384969 0.05424081 0.009981312 -0.018501274 0.016167503
0.046000835 -0.0045639537 -0.0012537207 0.084324926

net.10.weight f4 [100, 100]
00000000: 7373 ba3b 911e 6abd c4a1 103d 6d3a 96bd
00000010: 33a7 c9bd 3aae 81bd f733 b2bd 5843 32bd
00000020: 751a 53bb 571c 563c 80b7 dbbc da49 5f3d
00000030: fce4 69bd ab79 e2bc 70e1 ccbc 5554 5f3d
00000040: 9152 ed3b a997 be3b 6fd7 263d 653f 313d
00000050: 3884 afbd e08c 12bd 6fbf c13d 06e7 23bd
00000060: 9033 443d 883e 29bd d7fd 0abc 2d7f d8bb
00000070: 82b0 abbd b2f2 303d 289d 21bd 5703 173d
00000080: 57b8 b0bd a6ad 04bc 5069 063d d77a bb3c
00000090: 218a 1fbd 6415 613d bcfc 8c3d 7cde e5bc
000000a0: e6bc a93d 22f2 473d 27d5 9a3d a990 a5bd
000000b0: 146e 64bd 7205 de3d bc40 47bd e79c cdbc
000000c0: 4990 8dbd 143c b8bd 5bb8 6d3d 0022 97bc
000000d0: d8e2 1c3d b7f7 c63d 5271 9cbd cc21 14bd
000000e0: 0c7a 133c c28e 10bd 796a 2cbd e0b1 1f3d
000000f0: a8ce 59b8 0495 b4bb 9634 d33c 5524 afbd
00000100: ba95 abbd 76d3 863c 4bcf 2ebd 8105 64bd
00000110: b94a b2bd 4f20 d7bd 2222 b5bd f018 5e3d
00000120: 2cbc 5b3c 4178 a0bd 00c8 8bbd 029e 59bd
00000130: 5863 6f3a 8ea0 133d 6488 673d 9400 84bc
00000140: 12b1 e7ba 4407 b5bd b0b4 bf3b 1fae 2b3d
00000150: db73 7fbd 2302 6abc ec1a 6dbd 2d87 f6bc
00000160: a43b 23bd 9f8c 92bd fbd3 3bbd 7c6b ce3b
00000170: 3bed c2bd 045d 303d 0b5e b53d d1dd 2ebd
00000180: f5b4 f33c 42bd bfbb 8ab7 173d f136 7d3d
00000190: 3150 a1bd 66b6 1bbd ca00 a1bd 644e 0b3d
000001a0: ff9e c6bd 67fd a33d f10e 7abd 9d33 9dbd
000001b0: eba4 69bc 410e e93b 982b 07bd db5c c83d
000001c0: 61e4 9ebd 8a95 4b3d 4c8b 873b eced 9cbd
000001d0: 5fb0 eebc efb5 353b d71e 91bd 77cc ce3d
000001e0: b08b e4bc a439 aa3d d2ad 9b3a 524c a03c
000001f0: 7155 de3b b428 7bbd 9065 ae3c 6c2c 7bbc
00000200: 34a2 bbbd e9ff 493c 3a5e 583d e24b bd3d
00000210: e2ac 643c 2a7f a0bd 1618 cc3c a365 c0bd
00000220: d5e6 08bc 61bd d83d 923d 6b3c ac5d 913b
00000230: e0a4 18bd 410a 8abc 050c 82bd 589d 94bd
00000240: 1ce9 ab3d e922 8bbd c614 203c 2c7c 9cbb
00000250: 246f 3abd b353 debc d94c 3dbd 6a6b d23d
00000260: cc8f 023d b15d 84bd b6d0 c5bd 6098 203d
00000270: 3a09 a13d c531 31bd 5d53 cc3c 9f61 90bd
00000280: 95e3 3e3d e14d a73d d50f 60bd 4cae 103c
00000290: 3b3b dabc c7c7 03bd 31cc 923c 4e48 1c3b
000002a0: 14a6 7dbc 782c d73d fb69 acbd 511d 2e3b
000002b0: b9e6 b73d 1fd5 7abd 5302 5ebd a5d9 c3bd
000002c0: 7f61 653b 8da4 47bd 8a49 d83d f947 653d
000002d0: ffe8 653d 5251 f5bb 3baa 303d 1f38 9c3d
000002e0: 17c6 5f3c 17ea 50bd 7944 89bd ec6b 22bd
000002f0: 1ad7 bb3c 45d1 9fbd 0c08 123d 37ae c1bd
00000300: f736 ab3d cd4d 4b3d 9ada 0ebd 06e9 773d
00000310: fb1f de3c 46e8 abbd 8252 163d 9811 c03c
00000320: b83e 83bd 8ad8 5cbc d9ed 6ebd 9fc2 a03d
00000330: b483 1abd c97b c6bc 4f0a 0cbd 7d6e bdbc
00000340: fbfe e93c 8a65 243d 4eac b13d 37c9 8b3d
00000350: 7259 ecbc 4b62 8e3d 00f5 14bd 0e54 e33c
00000360: 684f a9bd 7ac2 99bc 423a b4bd 7697 60bd
00000370: 901b 62bd 569d 973d 1e3a 923d b9c0 63bc
00000380: 938b 30bd 0d5f 4cbb f873 9ebd 6553 d83c
00000390: 207e 6e3c eaf1 d73b d597 393c d504 8ebd
000003a0: 8fad 83bd 9ddd ee3b 2cc6 b13d 4ed0 be3d
000003b0: 8d4f be3d e9e6 86bd 3436 07bd 0a67 afbd
000003c0: 5a97 d43d 15da c73d 2034 a2bd 18f9 b43d
000003d0: 2e7b cbbd 967e a83d 625b 1abd e86f f23b
000003e0: 37f2 d6bd 4734 dfbd babf 21bd 650f 7f3d
000003f0: 31df c43d 346e 78bd 5c58 a23d 32d8 ae3d
0.005690032 -0.057158057 0.03531052 -0.073353626 -0.09846344 -0.06332059 -0.08701318 -0.043521255
-0.0032211815 0.01306828 -0.026820898 0.05451379 -0.057103142 -0.027645906 -0.02500984 0.054523785
0.0072425087 0.005816419 0.040732797 0.04327335 -0.085701406 -0.03577888 0.09460341 -0.040015243
0.047900736 -0.0413194 -0.008483372 -0.0066069574 -0.083832756 0.043200202 -0.039456517 0.03686842
-0.0862891 -0.008098042 0.032815278 0.022885723 -0.03895009 0.05495204 0.06884143 -0.02806019
0.08287983 0.0488149 0.07560187 -0.08084232 -0.05576904 0.10840882 -0.04864572 -0.02509923
-0.06912286 -0.08995834 0.058037143 -0.01844883 0.038302273 0.097152166 -0.07638802 -0.036165044
0.009001266 -0.035292394 -0.042093728 0.038987994 -5.1929295e-05 -0.005510928 0.02578191 -0.08551852
-0.083781675 0.016458254 -0.04267816 -0.05566931 -0.087056585 -0.10504209 -0.08844401 0.054223
0.013411563 -0.078354366 -0.06825256 -0.053129204 0.000913193 0.03604179 0.056526557 -0.016113557
-0.0017676672 -0.088392764 0.005850397 0.0419141 -0.062366348 -0.014282736 -0.057887003 -0.030093754
-0.0398518 -0.071557276 -0.045856457 0.006299434 -0.09517904 0.043057457 0.08855828 -0.04269201
0.029749373 -0.0058514187 0.03704027 0.061819974 -0.078766234 -0.038015746 -0.078614786 0.034010306
-0.09698295 0.08007317 -0.061049405 -0.0767586 -0.014260511 0.007112295 -0.03300056 0.09783336
-0.077584036 0.04970316 0.0041364785 -0.076625675 -0.029136835 0.002772685 -0.0708596 0.10097592
-0.02789864 0.08311775 0.0011877364 0.019567642 0.0067850878 -0.061318114 0.021288663 -0.015330415
-0.09161797 0.01232908 0.052824236 0.09242989 0.013957234 -0.078367546 0.024913829 -0.09394386
-0.008355816 0.10582996 0.014357941 0.0044362154 -0.037266612 -0.016850593 -0.06349949 -0.072565734
0.083940715 -0.06793768 0.009770578 -0.0047755446 -0.04551615 -0.02713952 -0.046215866 0.10274394
0.031875417 -0.06463183 -0.09658949 0.039207816 0.07863088 -0.043260355 0.024942094 -0.0704987
0.046603758 0.08169151 -0.0547026 0.008830618 -0.026639571 -0.032172944 0.017919632 0.0023846808
-0.015481491 0.105065286 -0.08418652 0.0026567767 0.08979554 -0.061238404 -0.054201435 -0.09562997
0.003500074 -0.048740912 0.105609015 0.05597684 0.056130406 -0.007486501 0.043131094 0.07627892
0.013658068 -0.051004495 -0.06702513 -0.039653704 0.022929717 -0.07803587 0.035652205 -0.09457057
0.08360093 0.049634743 -0.034876443 0.060524963 0.027114859 -0.08393912 0.03669978 0.02344589
-0.06408447 -0.013479361 -0.058332298 0.07849621 -0.03772326 -0.024228947 -0.03418952 -0.023123974
0.028563967 0.040135898 0.08675443 0.06825488 -0.028851245 0.06952342 -0.036366463 0.027750041
-0.08267099 -0.018769491 -0.08800174 -0.054831944 -0.055202067 0.07403056 0.07139991 -0.013900929
-0.04310186 -0.0031184584 -0.07736963 0.026406953 0.014556438 0.0065901177 0.0113277035 -0.069345154
-0.06429588 0.007289602 0.086803764 0.09317075 0.09292517 -0.06587011 -0.033010677 -0.08564575
0.103804305 0.09758393 -0.07920098 0.08836573 -0.09935604 0.08227269 -0.037684806 0.007398594
-0.104954176 -0.10898643 -0.039489485 0.06227054 0.09612883 -0.060651973 0.079270095 0.0853733
