models/heatalpha/lambdas/heatalpha_38.pth (torch, 977303 bytes, 51 tensors)

net.0.weight f4 [100, 3]
0	0x3ec92fda	0.3929432
1	0x3e89a614	0.2688452
2	0x3f0a597f	0.5404281
3	0xbef48f10	-0.47765398
4	0xbd1cc870	-0.03827709
5	0xbdef392e	-0.11680828
6	0x3e25ae6f	0.16179822
7	0x3e8f3de8	0.27976918
8	0x3d88c95d	0.06679032
9	0x3f04ee7f	0.51926416
10	0xbf15b2ef	-0.58476156
11	0xbe6d63b3	-0.23182563
12	0x3eb84557	0.35990402
13	0xbf339152	-0.70143616
14	0xbef43685	-0.47697845
15	0x3f067d1e	0.52534664
16	0x3e5bee61	0.21477653
17	0x3e27bde4	0.16381031
18	0x3e8aa316	0.2707755
19	0x3e93d768	0.2887528
20	0x3d3c05f7	0.045904126
21	0xbe846c68	-0.25863957
22	0xbe3e40b9	-0.18579377
23	0xb98d7381	-0.00026979673
24	0x3e9ff699	0.31242827
25	0xbe758e2e	-0.23980018
26	0xbeabb20a	-0.3353427
27	0x3dc541dc	0.09631702
28	0x3f6b2a81	0.9186173
29	0xbe4ebb35	-0.20188601
30	0xbe7ae0cd	-0.24499817
31	0xbf21abbe	-0.6315268
32	0x3eab36be	0.33440202
33	0xbeae6f16	-0.34069127
34	0xbf501726	-0.8128532
35	0xbe1ae308	-0.15125668
36	0x3cf7f3ca	0.030267615
37	0x3f68fe2d	0.9101284
38	0xbece9953	-0.40351352
39	0x3caa6b52	0.020803127
40	0x3ef6b6fb	0.48186478
41	0x3f0169cf	0.50552076
42	0x3ea0b7bc	0.31390178
43	0x3f5e2ff3	0.86791915
44	0xbef1af6c	-0.4720415
45	0x3ed7cb73	0.42147407
46	0xbf3b94b0	-0.73273754
47	0xbed286f7	-0.41118595
48	0x3f0531b0	0.5202894
49	0x3dc939e0	0.09825492
50	0xbc583910	-0.0131971985
51	0x3ea0bd21	0.31394294
52	0xbf989ac5	-1.1922232
53	0x3ea7376f	0.3265948
54	0x3eca95f0	0.39567518
55	0x3e0297a8	0.12753165
56	0x3f15dc5b	0.5853936
57	0xbf02d41a	-0.5110489
58	0x3f9f4963	1.2444271
59	0x3ec6c008	0.38818383
60	0xbd55a65b	-0.052160602
61	0x3d64c842	0.055855043
62	0x3e8bd689	0.27312115
63	0x3e895fbb	0.2683085
64	0xbf21fc93	-0.6327602
65	0x3d707548	0.058705598
66	0x3da48414	0.080330044
67	0x3f829974	1.020308
68	0xbd1561e3	-0.036470305
69	0x3e6fe0a0	0.23425531
70	0x401c40e5	2.4414608
71	0xbef16379	-0.47146204
72	0xbef3aa01	-0.4759064
73	0x3f75b756	0.95982873
74	0x3cd274c3	0.025690442
75	0xbac01874	-0.0014655725
76	0xbe403d52	-0.18773392
77	0x3e544257	0.20728432
78	0x3e935b4f	0.287806
79	0x3f9a1127	1.2036484
80	0xbf16a466	-0.588446
81	0x3da84984	0.08217147
82	0xbfa5c0ff	-1.2949523
83	0xbe77acca	-0.24187008
84	0xbe76f8b1	-0.24118306
85	0xbebdc88d	-0.3706707
86	0xbe561d77	-0.20909677
87	0x3f0be6e0	0.5464916
88	0xbec35c78	-0.38156486
89	0xbf037ab7	-0.51359123
90	0xbf1448c5	-0.5792354
91	0xbe21fafd	-0.158184
92	0xbe9c0a21	-0.30476478
93	0x3dd1a9ec	0.10237488
94	0xbf624da3	-0.88399714
95	0xbe85528b	-0.26039538
96	0x3e594fba	0.2122182
97	0x3e921af4	0.2853619
98	0xbe3a267d	-0.18178745
99	0xbcc1c54f	-0.023653654
100	0xc0016f70	-2.0224266
101	0x3d2b2d0d	0.04179101
102	0xbeeaf427	-0.45889398
103	0x3edbf87f	0.42963025
104	0xbe35f471	-0.17769028
105	0x3e725c62	0.23668054
106	0x3db1e46f	0.086861484
107	0xbd8483f4	-0.064704806
108	0xbeeab9da	-0.45844918
109	0x3e26d56b	0.1629235
110	0xbccab511	-0.024744542
111	0xbf153367	-0.5828156
112	0xbbbbaf0a	-0.0057276534
113	0x3e99d26b	0.3004335
114	0x3e180e4f	0.14849208
115	0xbf1a3367	-0.60234684
116	0xbea395cd	-0.31950226
117	0x3f0b01a3	0.5429937
118	0x3f8415b0	1.0319118
119	0xbc192650	-0.009347513
120	0xbe8140b2	-0.2524467
121	0x3fd6baf3	1.6775802
122	0xbdf1a946	-0.117998645
123	0x3ed11877	0.40838978
124	0x3fd965f4	1.6984239
125	0x3eaf6477	0.34256336
126	0xbf11f113	-0.57008475
127	0x3f614022	0.87988484
128	0x3d5eb53b	0.054372054
129	0x3eb719a0	0.35761738
130	0xbf984b1e	-1.1897924
131	0x3ec59648	0.38591218
132	0x3e0cff2c	0.13769215
133	0xbdef41e4	-0.116824895
134	0x3eebc206	0.46046466
135	0xbe0d2324	-0.13782936
136	0xbe3d4811	-0.18484522
137	0x3ef95790	0.48699617
138	0xbf090e03	-0.53537005
139	0x3cc55eb1	0.024093004
140	0x3d950217	0.07275789
141	0x3dc8ab60	0.09798312
142	0xbd7971f0	-0.060899675
143	0x3ed1d6ba	0.40984136
144	0x3f043daf	0.5165662
145	0x3ecc48b6	0.39899224
146	0x3ecc15f9	0.39860514
147	0xbf06b41c	-0.52618575
148	0xbf5d19f0	-0.863677
149	0x3efea7ed	0.49737492
150	0x3f03eef2	0.51536477
151	0xbe92c49a	-0.2866562
152	0x3ee02849	0.43780735
153	0xbea70d54	-0.32627356
154	0xbe98e6ce	-0.2986359
155	0xbf0172cc	-0.5056579
156	0xbdfa1fba	-0.122130826
157	0x3f0a0f10	0.53929234
158	0x3bfe7c99	0.007766318
159	0xbe768146	-0.24072751
160	0x3e9a8a63	0.30183706
161	0x3e6a5de9	0.22887386
162	0xbcce00d6	-0.025146883
163	0x3ef3ccee	0.47617286
164	0xbea925c2	-0.3303662
165	0xbe15920a	-0.1460649
166	0x3e0b86f3	0.13625698
167	0xbe58c14d	-0.21167488
168	0xbe8cad5b	-0.2747601
169	0x3e77dcc7	0.24205314
170	0x3e9e5a73	0.30928382
171	0x3f0b6bda	0.54461443
172	0xbf1f192e	-0.62147796
173	0x3e35b4b0	0.17744708
174	0xbf1dd0cc	-0.61646724
175	0xbf2baf67	-0.6706452
176	0xbcf1bfed	-0.029510463
177	0xbf09de7d	-0.53855115
178	0x3ff75c63	1.9325069
179	0x3e2fc986	0.17166719
180	0xbee31c7e	-0.44357675
181	0xbea41fdd	-0.3205556
182	0xbd7912e2	-0.060809024
183	0xbf0650f7	-0.5246729
184	0xbec7f416	-0.3905341
185	0x3d47e9d7	0.04880699
186	0xbed157e4	-0.40887368
187	0x3d95d46b	0.07315906
188	0xbdc6f156	-0.09714
189	0x3d4921ce	0.049104504
190	0x3e5103ae	0.2041156
191	0xbe407325	-0.18793924
192	0x3e5a141d	0.21296735
193	0xbf8429aa	-1.0325215
194	0xbea11fd4	-0.31469595
195	0x3e012283	0.12610821
196	0xbd902d6f	-0.07039916
197	0x3e706744	0.23476893
198	0xbe660d4b	-0.22466008
199	0x3fab8643	1.3400348
200	0x3f0723cc	0.52788997
201	0x3c0b67eb	0.008508663
202	0xbe7d7186	-0.24750337
203	0x3cfb82d2	0.030702028
204	0x3f04b581	0.51839453
205	0x3e9cd0f2	0.30628163
206	0xbd4f036b	-0.05054037
207	0x3ee3187b	0.44354615
208	0x3f8f8ad1	1.1214238
209	0x3e856415	0.2605292
210	0x3e628005	0.22119148
211	0xbe640ea9	-0.22271217
212	0xbe1cd70d	-0.1531641
213	0xbe1d05f0	-0.15334296
214	0xbf6a57d1	-0.9154025
215	0xbdb57d85	-0.088618316
216	0x3ce36d29	0.027762013
217	0x3e48fa08	0.1962663
218	0xbeb9edc5	-0.36314216
219	0xbf0dbf3c	-0.55369925
220	0xbfa8dcc6	-1.3192375
221	0xbe3b2657	-0.18276344
222	0xbe8e621e	-0.27809232
223	0x3e68ed89	0.22746862
224	0x3e17935b	0.14802305
225	0x3f1d15f9	0.6136165
226	0x3f5ce102	0.86280835
227	0x3ecec2ca	0.40382987
228	0x3d98a3ec	0.074531406
229	0x3d35b308	0.04436019
230	0x3f152c6b	0.582709
231	0xbef6a892	-0.48175484
232	0xbf1cc116	-0.61232126
233	0xbecd57d6	-0.40106076
234	0x3f05607b	0.5210034
235	0x3ed940e9	0.42432335
236	0x3edf90eb	0.4366525
237	0x3e7dac06	0.24772653
238	0x3f2e9f3c	0.6821172
239	0x3d4a5209	0.04939464
240	0x3ea05bbf	0.31319997
241	0x3d9f01ed	0.07764039
242	0xbd8afabc	-0.06786105
243	0x3e97c7e4	0.29644692
244	0xbda67b44	-0.0812898
245	0xbd0783be	-0.033084624
246	0x3eea7504	0.457924
247	0xbd5db06b	-0.054123323
248	0x3e7cee02	0.24700168
249	0xbf197369	-0.59941727
250	0x3e382648	0.17983353
251	0x3de16d23	0.11007144
252	0xbea4e85e	-0.32208532
253	0xbf3e8a5d	-0.74429876
254	0xbe9996c9	-0.29997852
255	0xbea07753	-0.31341037

net.0.bias f4 [100]
0	0x3c6cc6b1	0.014451669
1	0x3ed07dd8	0.4072101
2	0xbed5f071	-0.41785005
3	0xbdd005da	-0.10157366
4	0xbeb9aca8	-0.3626454
5	0xbeebcd29	-0.46054962
6	0xbe815a32	-0.25264126
7	0x3f0950e2	0.5363904
8	0xbee84dde	-0.45371908
9	0x3f0a185a	0.5394341
10	0xbdd22074	-0.10260096
11	0xbf282bd8	-0.656919
12	0xbc6ae647	-0.014337129
13	0x3e810166	0.2519638
14	0x3eab38b5	0.33441702
15	0x3ea8125e	0.32826513
16	0x3ebcb87d	0.36859503
17	0x3e1f5a70	0.15561843
18	0xbe8325e0	-0.25614834
19	0xbd51a0ea	-0.05117885
20	0x3f133111	0.57496744
21	0x3d45a5f3	0.048253965
22	0x3dd7b1f7	0.10531991
23	0x3e35977e	0.17733571
24	0xbe428aae	-0.18998215
25	0xbeca51bb	-0.3951548
26	0xbd4ac9e7	-0.049508955
27	0xbd07f62a	-0.033193745
28	0x3f17c5b5	0.5928605
29	0x3ea5d6c6	0.32390422
30	0xbe86c601	-0.2632294
31	0x3e431206	0.19049844
32	0x3e7278bc	0.23678869
33	0xbdc8dfb6	-0.098082945
34	0xbdd794eb	-0.10526451
35	0xbe5851e8	-0.21124995
36	0x3e5d1ee4	0.21593815
37	0xbe219137	-0.15778051
38	0xbde39402	-0.111122146
39	0x3f13c86a	0.5772768
40	0x3eb20935	0.3477265
41	0xbec75c8c	-0.38937795
42	0x3c3a6243	0.0113759665
43	0x3ec6f030	0.38855124
44	0xbeb11057	-0.3458278
45	0xbe427270	-0.18988967
46	0x3f18cc52	0.5968677
47	0x3e48f63f	0.19625185
48	0x3f08aac2	0.53385556
49	0xbe3b3fdb	-0.18286078
50	0x3f0db92a	0.5536066
51	0x3e9645c5	0.29350105
52	0xbd554950	-0.05207187
53	0x3f0e0569	0.55477005
54	0x3e0571ed	0.1303174
55	0xbe02cb74	-0.12772924
56	0xbec67805	-0.38763443
57	0x3eb94683	0.3618661
58	0x3edbdb54	0.42940772
59	0xbefc36ff	-0.4926071
60	0xbe6c4faf	-0.23077272
61	0xbe269b86	-0.16270265
62	0x3e9bb1fc	0.3040923
63	0xbc91bc41	-0.017789962
64	0xbf09bf16	-0.538072
65	0xbe678bce	-0.22611925
66	0x3d9b0b5a	0.075705245
67	0x3b49be8f	0.0030783748
68	0x3ec0f366	0.37685698
69	0xbee576d4	-0.4481722
70	0x3ed8fa4b	0.42378458
71	0x3ef1b21a	0.47206193
72	0xbe61aa7f	-0.22037695
73	0xbec8c9d7	-0.39216492
74	0x3d2fcc3a	0.042919375
75	0xbe913e9f	-0.2836809
76	0xbf00773e	-0.5018195
77	0xbd62311b	-0.055222612
78	0x3bc0c856	0.005883257
79	0x3ec38b5d	0.38192263
80	0xbe81645d	-0.25271884
81	0xbdcdf347	-0.10056167
82	0x3eab96fc	0.3351363
83	0xbe2fb000	-0.17156982
84	0x3f10818b	0.56447667
85	0x3eac40c1	0.33643153
86	0xbf039605	-0.51400787
87	0xbed5c17f	-0.41749188
88	0xbd1ebf2e	-0.038756542
89	0xbeed54ba	-0.46353704
90	0xbd3251b2	-0.043534942
91	0xbd2953c0	-0.041339636
92	0x3ee5b1dd	0.4486226
93	0x3f19284e	0.59827125
94	0xbf07f4fd	-0.531082
95	0x3f12b2c6	0.57304037
96	0xbeffc779	-0.49956873
97	0x3e2c894f	0.16849254
98	0xbe96b9fd	-0.29438773
99	0x3e2ceb8c	0.16886729

net.2.weight f4 [100, 100]
0	0xbd9db6a6	-0.07700853
1	0xbdfc73db	-0.12326785
2	0x3d7bc47c	0.06146668
3	0x3d2167cc	0.03940563
4	0x3c99236d	0.01869365
5	0x3e153a39	0.14572991
6	0xbdd154b5	-0.10221235
7	0xbd22429a	-0.039614297
8	0x3c921ad2	0.017835055
9	0x3d964853	0.073380135
10	0xbdc34970	-0.095354915
11	0x3cb94d68	0.022619918
12	0xbdaa7284	-0.08322623
13	0xbda7be06	-0.08190541
14	0xbd01a077	-0.03164717
15	0xbd410cbb	-0.04713128
16	0x3d35dd23	0.044400346
17	0x3dc72c0f	0.097252004
18	0x3de1af43	0.11019757
19	0xbc641d9d	-0.013923076
20	0xbd9768c3	-0.073930286
21	0xbd6e5c5b	-0.058193546
22	0x3cee233d	0.029069537
23	0x3dd5a20a	0.10431297
24	0xbd6045a6	-0.054753922
25	0x3de5aa02	0.11214067
26	0xbda371f6	-0.07980721
27	0x3da208bb	0.079118215
28	0xbcfb4812	-0.030674014
29	0x3cc74fae	0.024329986
30	0xbc948281	-0.018128635
31	0x3b41b70f	0.0029558574
32	0x3d70768b	0.0587068
33	0xbc26f90c	-0.010191213
34	0xbd6cbe07	-0.05779841
35	0x3cd5b45e	0.026086982
36	0xbdc2ca30	-0.095112205
37	0xbd8b6e88	-0.068081915
38	0x3d644bb4	0.05573626
39	0x3d32868a	0.043585338
40	0xbdd338f5	-0.10313598
41	0x3c80e36a	0.01573344
42	0xbbaf26ed	-0.0053452165
43	0x3dd6750f	0.10471546
44	0xbd7b2bc0	-0.06132102
45	0x3e036c32	0.12834242
46	0x3bf62983	0.007512273
47	0xbd9f2600	-0.0777092
48	0x3d8f7592	0.07004847
49	0xbc94061a	-0.018069316
50	0xbdaee8ce	-0.08540498
51	0x3c063105	0.008190398
52	0x3d14bdf3	0.036313962
53	0x3dd350c8	0.10318142
54	0x3d7a36ec	0.061087534
55	0xbd1ada9f	-0.03780615
56	0x3d4cd253	0.05000527
57	0x3dba374d	0.09092579
58	0xbcc3f0e9	-0.023918586
59	0xbd7131ea	-0.058885492
60	0xbd62162d	-0.05519693
61	0xbd0a1cb7	-0.03371879
62	0xbdbc13ab	-0.09183439
63	0xbc41a64a	-0.011819432
64	0x3d4c5177	0.04988238
65	0xbd5eb2e4	-0.054369822
66	0x3dd148d0	0.10218966
67	0x3c63fe86	0.013915664
68	0x3df411ec	0.11917481
69	0xbc8a3470	-0.016870707
70	0xbd7478ea	-0.059685625
71	0x3cc7e69d	0.024401957
72	0xbc512946	-0.012766188
73	0x3c9f7c82	0.01946855
74	0xbd5f63d1	-0.05453855
75	0xbd64f215	-0.05589493
76	0xbd3ff0d7	-0.046860542
77	0xbd067854	-0.032829598
78	0x3d6e8047	0.058227804
79	0x3b6dfca7	0.0036313923
80	0xbd67332c	-0.056445286
81	0xbd47e682	-0.048803814
82	0x3da1c196	0.07898252
83	0x3cf01e40	0.0293113
84	0xbda4e5ee	-0.08051668
85	0xbca63eb6	-0.020293575
86	0x3a939969	0.001126093
87	0x3d880def	0.066432826
88	0x3d142db2	0.03617639
89	0x3cfea8f7	0.031086428
90	0xbe2c8bb4	-0.16850168
91	0x3dab36d0	0.08360064
92	0x3dedf2d4	0.116185814
93	0x3d9f632d	0.07782588
94	0xbdb010ca	-0.08596952
95	0xbcd1365d	-0.025538618
96	0xbd454acc	-0.048167035
97	0xbdb9eea4	-0.0907872
98	0xbd2c23e8	-0.04202643
99	0x3cff0161	0.031128587
100	0xbc862326	-0.016374182
101	0xbdb8723a	-0.09006162
102	0xbd58fd34	-0.05297585
103	0x3da7a19d	0.08185122
104	0x3d9e6dad	0.07735763
105	0x3c64076a	0.013917783
106	0x3da2917f	0.079379074
107	0xbdb8e5cf	-0.090282075
108	0xbb6478a3	-0.0034861944
109	0xbdc9eed5	-0.09860007
110	0xbbc94144	-0.0061418135
111	0x3d797f20	0.06091225
112	0x3d9cd9dc	0.07658741
113	0x3bb2af68	0.005453039
114	0xbda02e02	-0.07821275
115	0x3c83e2ea	0.016099412
116	0xbe06378d	-0.13107128
117	0xbd97f0b2	-0.07418956
118	0x3cc0510c	0.023476146
119	0x3d9215a7	0.07133036
120	0xbd1c49b5	-0.03815623
121	0x3d8cf249	0.0688215
122	0x3d68b18e	0.056809954
123	0x3d8b998e	0.068163976
124	0xbd13613f	-0.035981413
125	0xbba40012	-0.005004891
126	0x3ddf8d58	0.10915631
127	0x3d5a9836	0.053367816
128	0xbd590726	-0.052985333
129	0xbd8db1e2	-0.06918694
130	0x3d86409a	0.065552905
131	0x3d67e6a4	0.05661644
132	0x3d2548c8	0.040352613
133	0xbcc7fd8d	-0.024412895
134	0xbc8a9d4a	-0.016920704
135	0xbd950f36	-0.07278292
136	0x3dcc6ce1	0.099817045
137	0xbd07b742	-0.033133753
138	0xbdbb899e	-0.09157108
139	0xbe18536e	-0.14875576
140	0x3d759f1c	0.05996619
141	0x3db05f0e	0.0861188
142	0xbd1bf12b	-0.038071793
143	0xbd96c6d5	-0.07362143
144	0x3d8d6610	0.069042325
145	0x3d0a8f27	0.033827927
146	0xbdb88988	-0.09010607
147	0x3bc40fac	0.0059833135
148	0xbe37ff47	-0.17968474
149	0xbd32eb67	-0.04368153
150	0xbe0470b8	-0.12933624
151	0xbd8730ad	-0.06601081
152	0x3db9ec59	0.09078283
153	0x3c8e7a4c	0.0173923
154	0xbcf6036b	-0.030030927
155	0x3c1a65f5	0.0094237225
156	0xbd18a103	-0.037262928
157	0xbddb69e7	-0.10713559
158	0xbd47fb55	-0.048823673
159	0x3e0449c0	0.12918758
160	0x3cf905e3	0.030398315
161	0x3d1d9aeb	0.03847782
162	0xbdc3207c	-0.0952768
163	0xbcf01652	-0.029307518
164	0x3cf01206	0.02930547
165	0xbd8e2b3a	-0.069418386
166	0xbda8ac51	-0.08235992
167	0x3dbc2ea7	0.09188586
168	0xbe0ae3c9	-0.13563456
169	0xbd6f5c50	-0.058437645
170	0xbd585959	-0.052819584
171	0xbdd50bb1	-0.104026206
172	0x3ce81a64	0.028332897
173	0x3d14cb0d	0.036326457
174	0x3d8b8312	0.06812109
175	0x3ca6a7e1	0.020343723
176	0x3da93871	0.082627185
177	0x3d2b3582	0.041799076
178	0xbe03fa5b	-0.12888472
179	0x3c0a21af	0.008430882
180	0xbc4e819c	-0.0126041435
181	0xbc51579b	-0.012777234
182	0xbd38276e	-0.044959478
183	0xbc2ea777	-0.010660044
184	0xbda1b79c	-0.07896349
185	0xbd8325d7	-0.06403702
186	0xbd34ea38	-0.04416868
187	0x3b399cbe	0.0028322185
188	0x3b10f885	0.0022120785
189	0xbdbc63dc	-0.09198734
190	0xbcb2169a	-0.021739293
191	0xbd8d0be7	-0.06887036
192	0xbd8eb096	-0.06967275
193	0xbdb78150	-0.08960211
194	0x3df9a9cb	0.121905886
195	0x3d8bc228	0.06824142
196	0x3d0ca311	0.0343352
197	0xbb631f0f	-0.0034655964
198	0xbce260da	-0.027634073
199	0xbc8c9504	-0.0171609
200	0x3d32b231	0.043626968
201	0x3d94b3b6	0.0726084
202	0x3d410c9b	0.047131162
203	0x3d46b66c	0.048513815
204	0xbb5f2f5c	-0.0034055328
205	0xbd0e2f68	-0.03471318
206	0x3d88539e	0.06656574
207	0xbd8db6ab	-0.06919607
208	0x3d7459f9	0.059656117
209	0x3d7fed52	0.062482186
210	0x3d7e0849	0.06201962
211	0x3dbaca3f	0.09120607
212	0x3d5d96c6	0.054098867
213	0xbc9b20b6	-0.018936496
214	0xbc3d9191	-0.01157035
215	0xbc515b64	-0.012778137
216	0xbd3713f7	-0.044696774
217	0xbcbae360	-0.022813499
218	0x3cd9fc87	0.026609672
219	0x3ddab11f	0.106783144
220	0xbd643db0	-0.055722892
221	0x3cd38bef	0.025823561
222	0x3dc3ea64	0.09566191
223	0x3d81c923	0.06337192
224	0xbd2b32fe	-0.041796677
225	0xbd686a19	-0.056741808
226	0xbdb07f6f	-0.08618056
227	0xbd4403ab	-0.04785506
228	0xbd632190	-0.05545193
229	0xbd0aa3c3	-0.03384758
230	0x3d264758	0.040595382
231	0x3dc899bc	0.097949475
232	0x3df90741	0.12159587
233	0x3d4690dd	0.048477996
234	0xbd554bc4	-0.05207421
235	0x3cc80f6e	0.02442142
236	0x3d7dc43c	0.06195472
237	0x3d5c9334	0.05385132
238	0x3cb73789	0.022365348
239	0xbdbf23ec	-0.093330234
240	0x3dac4875	0.084122576
241	0x3d2af245	0.041734952
242	0xbc8bf099	-0.0170825
243	0xbd5ee4ac	-0.054417297
244	0x3d15012b	0.036378067
245	0xbca98eb8	-0.020697936
246	0xbdd20e30	-0.10256612
247	0x3b40515a	0.0029345364
248	0xbd4fc432	-0.050724216
249	0x3dced16d	0.100985385
250	0xbe045446	-0.12922773
251	0xba4f9139	-0.0007918063
252	0xbdae0bae	-0.084983215
253	0xbd582761	-0.05277193
254	0xbddffeda	-0.10937281
255	0xbc0d1dc1	-0.008613051

net.2.bias f4 [100]
0	0xbd0e3c41	-0.03472543
1	0x3ca00773	0.019534802
2	0x3da379b7	0.079822
3	0x3d36a912	0.04459483
4	0x3c5d5588	0.013509162
5	0x3ddbf6af	0.107404105
6	0xbd11864c	-0.035528466
7	0xbdd0975e	-0.10185121
8	0xbdb656ad	-0.08903251
9	0xbd4c0a98	-0.04981479
10	0x3d16535c	0.03670059
11	0xbcb1b15f	-0.021691022
12	0xbdbf64e6	-0.09345417
13	0x3d9f7532	0.07786025
14	0xbd4bcd34	-0.049756244
15	0x3dac624b	0.084171854
16	0xbd870549	-0.06592805
17	0xbd5b2d81	-0.053510193
18	0xbd8168cd	-0.06318817
19	0xbc4af30a	-0.012387047
20	0xbcfcab27	-0.03084333
21	0xbca4d242	-0.02011979
22	0x3d3d68f5	0.046242673
23	0x3d48095b	0.048837047
24	0x3ca1b554	0.019739784
25	0xbdac73c0	-0.08420515
26	0xbd5b2bae	-0.053508453
27	0xbde0ee12	-0.10982908
28	0x3c34c247	0.011032647
29	0x3d0b4a9c	0.0340067
30	0x3dadf085	0.08493141
31	0xbd9a7459	-0.07541723
32	0x3d3864e1	0.04501808
33	0xbdd3131c	-0.10306379
34	0xbd8952cc	-0.067052454
35	0x3d4f6c89	0.050640617
36	0x3d2be379	0.04196498
37	0xbdbc1a6c	-0.09184727
38	0x3bacbb81	0.0052713756
39	0xbd5b26fb	-0.05350397
40	0xbd58bd77	-0.052915063
41	0x3d13da7f	0.036097046
42	0x3daa5895	0.08317677
43	0xbcce2d06	-0.025167953
44	0x3cd48291	0.025941165
45	0x3d60fd28	0.05492893
46	0x3c8846cd	0.016635323
47	0xbd7dbd2c	-0.061947986
48	0x3d298485	0.041386146
49	0x3dc1ff49	0.0947252
50	0xbdb87d43	-0.09008267
51	0xbddad011	-0.10684217
52	0xbd874cb7	-0.06606429
53	0x3c985e29	0.018599587
54	0x3d22f55a	0.039784767
55	0x3c158c65	0.009127711
56	0xbd2c1f45	-0.04202201
57	0xbc59c187	-0.013290769
58	0x39bc4cd4	0.00035915396
59	0x3ccafd90	0.024779111
60	0xbd109c18	-0.035305113
61	0x3ccd7ca1	0.025083842
62	0x3a34bd0b	0.00068946247
63	0x3d91d1c0	0.07120085
64	0x3d2b19df	0.04177272
65	0x3cc55e0b	0.024092695
66	0xbd5277ef	-0.05138391
67	0xbdd817b1	-0.10551394
68	0xbd3904bb	-0.045170527
69	0x3d49b110	0.049241126
70	0xbc78eef0	-0.015193686
71	0xbdda0014	-0.10644546
72	0xbd23ba09	-0.03997234
73	0xbcb9b2be	-0.022668239
74	0xbcf70196	-0.030152123
75	0xbd702351	-0.05862743
76	0xbdf3717e	-0.11886881
77	0x3d263379	0.040576432
78	0xbda54083	-0.08068945
79	0x3d85509c	0.06509516
80	0x3c855c9b	0.01627951
81	0x3d73ef72	0.059554525
82	0xbda5269f	-0.08064007
83	0xbcb6e9da	-0.022328306
84	0x3d64485b	0.055733066
85	0x3caa5f7e	0.020797487
86	0xbb377be5	-0.002799743
87	0xbc428b04	-0.011873964
88	0xbbe97cb9	-0.007125464
89	0xbdb60a03	-0.08888628
90	0xbda106f8	-0.07862657
91	0x3dd946dd	0.10609219
92	0xbd040bee	-0.03223794
93	0x3c8ca157	0.017166777
94	0x3cb8abc7	0.022542847
95	0xbd328035	-0.0435793
96	0xbdb3b04f	-0.087738626
97	0xbd01f154	-0.03172429
98	0x3cb5c27a	0.02218746
99	0x3da27018	0.079315364

net.4.weight f4 [100, 100]
0	0xbde86d12	-0.113489285
1	0x3d4dfa08	0.050287277
2	0x3d257b7b	0.040400963
3	0x3d3dd97c	0.046349987
4	0x3c8a973b	0.016917815
5	0x3d6d7a25	0.057977814
6	0x3d8ec267	0.06970673
7	0x3d23c7bc	0.039985403
8	0xbd2d58dd	-0.042321075
9	0xbda7da19	-0.08195896
10	0xbdb25716	-0.087080166
11	0xbba9284c	-0.0051622745
12	0xbb1a4c30	-0.0023543946
13	0xbdc0b50d	-0.09409533
14	0xbcd59ea8	-0.02607663
15	0xbc3c6fdc	-0.011501279
16	0xbdb74c84	-0.08950141
17	0x3ce0e0fb	0.027451029
18	0x3d32af19	0.043624017
19	0xbded058b	-0.11573323
20	0xbd07587e	-0.033043377
21	0x3d1bf498	0.03807506
22	0x3cd70075	0.026245335
23	0xbdb96167	-0.09051781
24	0x3dac1b50	0.08403647
25	0xbd75a7ec	-0.059974596
26	0xbc0a83bd	-0.00845426
27	0xbdcdb841	-0.10044909
28	0xbd93c0f4	-0.07214537
29	0xbdb3c738	-0.08778232
30	0xbd9d657a	-0.07685371
31	0xbd4c94fd	-0.049946774
32	0xbde45527	-0.11149054
33	0x3dd56c77	0.10421079
34	0x3c8e8888	0.017399088
35	0x3b8064fc	0.0039182883
36	0xbd793711	-0.06084353
37	0x3c97a306	0.018510353
38	0x3d29a530	0.0414173
39	0x3b02b9af	0.0019947102
40	0x3d551f34	0.05203171
41	0xbd4c90f6	-0.049942933
42	0x3ca5d956	0.020245235
43	0xbd8bd35a	-0.068274215
44	0x3c404726	0.011735713
45	0xbcf4023a	-0.029786218
46	0x3c0c59bb	0.008566315
47	0x3ce68206	0.028138172
48	0xbbc7057d	-0.0060736523
49	0x3daf8556	0.08570354
50	0xbd876e34	-0.066128165
51	0xbb89d2dc	-0.0042060446
52	0x3d8afea5	0.06786851
53	0x3d19d968	0.03756085
54	0x3a2e9853	0.00066602713
55	0xbd6f51ec	-0.058427736
56	0xbce20026	-0.027587961
57	0xbda5574a	-0.0807329
58	0xbd5bfecb	-0.053709786
59	0x3db560b6	0.08856337
60	0xbd7c700b	-0.06163029
61	0x3a8ee089	0.0010900657
62	0xbdc74530	-0.09729993
63	0x3d5eb8b5	0.05437537
64	0xbd5af172	-0.053452916
65	0x3dafd72a	0.08585961
66	0x3cf7db96	0.030256074
67	0xbde8a184	-0.11358932
68	0xbda8a814	-0.08235183
69	0xbda19504	-0.078897506
70	0x3d2bb328	0.041918904
71	0xbd055a5f	-0.032556888
72	0x3cb9e393	0.022691524
73	0xbc6f1f67	-0.014594889
74	0x3ddd4cd6	0.10805671
75	0xbde0c4a0	-0.10975003
76	0x3ba3dd73	0.005000764
77	0xbd598363	-0.053103816
78	0xbc6e43f3	-0.014542568
79	0xbc549154	-0.012974102
80	0xbde69975	-0.11259738
81	0x3d6265a7	0.055272724
82	0xbc47fb63	-0.012205931
83	0x3e173c1a	0.1476902
84	0xbc34e2f9	-0.011040443
85	0xbdc29f2c	-0.09503016
86	0x3da06c2d	0.07833133
87	0xbd747dc2	-0.059690244
88	0x3df9bcf4	0.12194243
89	0x3c8dab06	0.017293464
90	0xbe155980	-0.14584923
91	0x3de6c0b4	0.11267224
92	0x3cc500d3	0.024048245
93	0x3d36756c	0.044545576
94	0xbca97767	-0.020686818
95	0xbd9f503e	-0.07778977
96	0x3ddced3c	0.10787436
97	0x3d27c7ae	0.040961914
98	0xbcac0e47	-0.021002902
99	0xbcfab42c	-0.03060349
100	0xbdc04777	-0.09388631
101	0xbd1220ca	-0.0356758
102	0x3c6cd7fb	0.014455791
103	0xbd5ae927	-0.053445008
104	0x3dcc7f57	0.09985226
105	0x3daacb37	0.083395414
106	0x3d963a2f	0.073353164
107	0xbc1bd145	-0.009510343
108	0x3d7facbb	0.062420588
109	0x3b8e69fd	0.004346131
110	0x3d21c131	0.039490882
111	0xbb7bbebe	-0.0038413252
112	0xbd0f6348	-0.03500679
113	0xbd0c504e	-0.034256272
114	0xbda5b2c9	-0.08090741
115	0x3d5e0c0c	0.054210708
116	0xbcad0493	-0.021120345
117	0x3d4733d2	0.048633404
118	0x3d9b97b1	0.07597292
119	0x3bbb4f9c	0.0057162773
120	0x3d6b26c4	0.057410017
121	0x3da50032	0.08056678
122	0x3dafa57d	0.08576486
123	0xbd390490	-0.045170367
124	0xbbbd1b22	-0.0057710567
125	0xbc824fdb	-0.015907219
126	0x3d5ef74a	0.054435052
127	0x3d092e3d	0.033491362
128	0xbd973422	-0.073829904
129	0xbd760556	-0.060063682
130	0x3d44f223	0.048082482
131	0x3d3c113b	0.04591487
132	0xbd960206	-0.07324605
133	0xbd9c6b93	-0.07637706
134	0xbc2573ef	-0.0100984415
135	0xbdc18d25	-0.09450749
136	0xbd69c104	-0.05706884
137	0x3d620323	0.055178773
138	0x3d75c9c9	0.06000689
139	0x3d6e3b2d	0.058161903
140	0xbd4ade6d	-0.049528528
141	0xbda451df	-0.08023428
142	0x3d749e63	0.05972136
143	0x3d0f7f87	0.03503373
144	0xbd28f955	-0.041253407
145	0xbd3f14f4	-0.04665084
146	0x3d605a0c	0.054773375
147	0x3d2d39c1	0.042291407
148	0x3d04ce65	0.032423396
149	0x3d058d99	0.03260574
150	0x3a4d74b1	0.0007837518
151	0x3c7b6219	0.0153432125
152	0xba934e0c	-0.001123847
153	0xbd03bd02	-0.032162674
154	0x3d2ad355	0.04170545
155	0x3d75b14d	0.05998354
156	0x3d980ab9	0.0742392
157	0x3da30d06	0.079614684
158	0x3d628efb	0.055312138
159	0xbdd6d5d1	-0.10490001
160	0xbd130d1d	-0.035901178
161	0xbd8cdd70	-0.06878173
162	0x3de4b599	0.111674495
163	0xbdaacd0b	-0.0833989
164	0xbddf9cbf	-0.10918569
165	0x3b7f4b14	0.0038954662
166	0x3dcedd34	0.10100785
167	0x3d7eb2c6	0.06218221
168	0x3dd74f34	0.10513154
169	0xbcee3e09	-0.029082315
170	0xbd8ffbf6	-0.070304796
171	0xbc682727	-0.014169491
172	0xbd29d792	-0.04146535
173	0xbd5ded65	-0.054181475
174	0x3c4d6e52	0.012538509
175	0x3e12bea8	0.14330542
176	0x3d17068a	0.03687147
177	0x3bf76ebc	0.0075510424
178	0x3c207c68	0.009795286
179	0xbd701376	-0.05861231
180	0x3d5e3366	0.054248236
181	0x3e005c6d	0.12535258
182	0x3d1ee7dc	0.038795337
183	0xbd79ae8e	-0.060957484
184	0xbdc0a7cf	-0.09407007
185	0xbdae6c1d	-0.08516715
186	0x3d4c5a19	0.04989061
187	0xbd8a540d	-0.06754313
188	0x3d28dcba	0.041226126
189	0x3d1e6601	0.038671497
190	0xbd967c50	-0.073479295
191	0xbcd8bcf1	-0.026457282
192	0xbce83e1b	-0.028349927
193	0xbcd1f477	-0.025629265
194	0xbcfc8260	-0.030823886
195	0x3d452d98	0.048139185
196	0x3dcb5671	0.09928597
197	0xbd70b79b	-0.05876885
198	0xbcdb1cd7	-0.02674715
199	0xbd8287f6	-0.06373589
200	0xbd14bec5	-0.036314745
201	0x3d33d6f8	0.043906182
202	0xbc292a2f	-0.010324999
203	0xbd9605cd	-0.07325325
204	0x3dd685b4	0.104747206
205	0x3a915d43	0.0011090416
206	0xbd7d0fd2	-0.061782666
207	0x3db2da5a	0.087330535
208	0x3d300ec4	0.04298283
209	0x3b838189	0.0040132445
210	0x3d888852	0.06666626
211	0xbdd72951	-0.10505927
212	0x3d09f2a7	0.033678677
213	0x3da81c8a	0.082085684
214	0xbac6398f	-0.0015123355
215	0xbda6016f	-0.08105742
216	0x3d8811b1	0.06643999
217	0x3d19a196	0.037507616
218	0x3d15de38	0.036588877
219	0xbd10b892	-0.03533227
220	0x3d20dda7	0.039273884
221	0x3da40ef0	0.080106616
222	0xbca84adf	-0.020543514
223	0xbcc546a4	-0.024081536
224	0xbdad082e	-0.08448826
225	0x3dd0d7f3	0.10197439
226	0xbc828e99	-0.015937136
227	0x3d10372d	0.03520887
228	0xbdb304cf	-0.087411515
229	0x3c87517c	0.016518347
230	0x3d3d3047	0.04618862
231	0x3db38e34	0.087673575
232	0xbdba077e	-0.0908346
233	0xbd5f8c69	-0.054577265
234	0x3d327a96	0.04357394
235	0x3dd0160e	0.101604566
236	0xbce49117	-0.027901215
237	0x3db76471	0.089547046
238	0x3d5af3cd	0.053455163
239	0x3d3e7d5a	0.046506263
240	0x3d2bd480	0.041950703
241	0x3d87906c	0.06619343
242	0xbc10d119	-0.008838915
243	0x3d9b19dd	0.075732924
244	0xbd0c44be	-0.034245245
245	0x3d94150a	0.072305754
246	0xbc6d066c	-0.014466863
247	0x3d72b879	0.059257958
248	0xbda35a28	-0.0797618
249	0x3dbf30b8	0.09335464
250	0x3d76bcd4	0.060238674
251	0xbdbd4b03	-0.09242823
252	0x3d686b62	0.056743033
253	0x3d043f4d	0.03228693
254	0xbd37c75f	-0.04486787
255	0xbcfedd63	-0.031111425

net.4.bias f4 [100]
0	0x3d467c71	0.04845852
1	0xbcb8678d	-0.022510314
2	0x3d8374fe	0.06418799
3	0x3d283b2f	0.041072067
4	0x3dc58a9c	0.09645578
5	0xbd908ba6	-0.07057886
6	0x3dbc5003	0.091949485
7	0x3d3acee9	0.04560748
8	0xbd1b06c7	-0.03784826
9	0x3d297caa	0.041378655
10	0xbce38c95	-0.027776996
11	0xbcd220ff	-0.0256505
12	0xbdaee0ed	-0.08538995
13	0x3da8e7d6	0.08247344
14	0xbc185137	-0.009296707
15	0xbcbfdfa9	-0.02342208
16	0x3d5c0c47	0.053722646
17	0x3da34fc3	0.07974198
18	0x3d63492a	0.055489697
19	0x3d638e6b	0.055555742
20	0xbd1109b3	-0.03540964
21	0xbd37d83b	-0.044883948
22	0x3d4ce92f	0.05002707
23	0xbdaf1ece	-0.085507974
24	0x3d8daaba	0.06917329
25	0xbda4d646	-0.08048682
26	0x3d8cbcd0	0.068719506
27	0xbd12c5af	-0.035833057
28	0xbb01b74b	-0.001979309
29	0x3d0d2500	0.034459114
30	0xbda2039c	-0.07910845
31	0xbd46db3e	-0.04854893
32	0x39bd13a4	0.00036063523
33	0xbdc83692	-0.097760335
34	0x3d7dd989	0.061975036
35	0xbd2f4065	-0.04278602
36	0xbc634ae3	-0.013872835
37	0x3c8d7a9a	0.017270375
38	0x3cd47228	0.02593334
39	0xbc22ee0f	-0.009944453
40	0x3d9fb250	0.07797682
41	0xbb49da88	-0.003080042
42	0xbd49a706	-0.04923155
43	0x3db26d20	0.0871222
44	0x3d8e1a7b	0.069386445
45	0xbcb6babe	-0.022305842
46	0xbc83fc5f	-0.01611155
47	0x3ce23d4d	0.027617121
48	0xbc3b3c54	-0.011427958
49	0xbc587c87	-0.013213283
50	0x3cefbded	0.029265368
51	0x3ccde2da	0.025132585
52	0x3d257969	0.04039899
53	0xbd053bed	-0.032527853
54	0xbd6b654f	-0.057469662
55	0x3d9d3835	0.07676736
56	0x3dc502b3	0.096196555
57	0xbd0caad0	-0.034342587
58	0xbc55465f	-0.013017266
59	0xbd88936a	-0.06668742
60	0x3d742e05	0.0596142
61	0x3da7e048	0.08197075
62	0xbda718ee	-0.08159052
63	0xbd694515	-0.056950647
64	0xbccccab4	-0.024999
65	0x3c0f96f4	0.008764017
66	0x3ddec940	0.10878229
67	0x3da61270	0.081089854
68	0xbcfc281a	-0.03078084
69	0xbdab9d45	-0.08379606
70	0x3dcec304	0.1009579
71	0xbd88af07	-0.06674009
72	0xbd3793a7	-0.044818547
73	0x3ccd3655	0.025050322
74	0x3ccddf62	0.025130931
75	0x3d956510	0.07294667
76	0x3c058662	0.008149715
77	0x3b561ae5	0.003266984
78	0x3e02dd03	0.12779622
79	0xbc411d6c	-0.0117868
80	0x3d1b1d75	0.03786989
81	0xb980fdae	-0.0002460307
82	0x3d18ba90	0.037287295
83	0xbd55adf6	-0.052167855
84	0xbd9957dc	-0.07487461
85	0xbd0ef65f	-0.034902927
86	0xbca6ff7b	-0.020385494
87	0xbd8ecc1e	-0.06972526
88	0x3d9e07e0	0.07716346
89	0x3db45856	0.08805911
90	0x3db51662	0.0884216
91	0xbd721739	-0.059104178
92	0x3d8b49ee	0.0680121
93	0xbdefd2c4	-0.11710122
94	0x3c37be01	0.011214734
95	0x3d8c2d26	0.06844549
96	0x3dbb2f02	0.091398254
97	0xbdce53ab	-0.10074552
98	0x3d8dc9c2	0.06923248
99	0x3b3a036a	0.0028383383

net.6.weight f4 [100, 100]
0	0xbd071719	-0.032981012
1	0xbd2216c3	-0.03957249
2	0xbd97bea7	-0.07409411
3	0x3d6a57a2	0.05721248
4	0xbda2072c	-0.07911524
5	0xbba7f965	-0.0051261657
6	0xbd844532	-0.064585105
7	0xbd54c958	-0.05194983
8	0x3bf6d7e6	0.0075330613
9	0x3c9a089d	0.018802935
10	0xbdb1a262	-0.0867355
11	0x3cb77221	0.022393288
12	0xbcb23753	-0.021754896
13	0x3d931222	0.07181193
14	0xbc9a7083	-0.018852478
15	0x3c41490c	0.011797201
16	0xbd6e8b92	-0.058238573
17	0xbd8999e8	-0.067188084
18	0xbdc22c26	-0.09481077
19	0xbd9aa17f	-0.07550334
20	0xbd2bbc0d	-0.041927386
21	0xbc5001b3	-0.012695718
22	0xbde0bcb2	-0.10973491
23	0xbd014ffa	-0.031570412
24	0xbd21cc4d	-0.039501477
25	0xbca46c5b	-0.0200712
26	0x3b9790b4	0.0046254043
27	0xbda931c3	-0.082614444
28	0x3c5637bf	0.013074814
29	0xbcbeff49	-0.023315089
30	0x3d997030	0.07492101
31	0x3ca9366e	0.020655837
32	0xbd88df16	-0.06683175
33	0x3c69cd23	0.0142701
34	0xbc90f481	-0.017694714
35	0xbd0c693b	-0.034280043
36	0x3b9afea0	0.0047300607
37	0xbdb57bc7	-0.08861499
38	0xbdaa6443	-0.08319905
39	0xbd0fa782	-0.035071857
40	0x3bde5920	0.006785527
41	0x3d297c56	0.04137834
42	0x3d9b43a0	0.07581258
43	0xbca306ab	-0.01990064
44	0xbdf261c5	-0.11835054
45	0xbdd1ece6	-0.10250263
46	0x3d7470cd	0.059677888
47	0x3d964ce5	0.07338885
48	0xbd9d3ce7	-0.07677632
49	0xbd9bc37f	-0.07605647
50	0x3da67075	0.08126918
51	0x3d01594b	0.031579297
52	0x3cd95d88	0.026533857
53	0x3d371d7a	0.044705845
54	0x3ce35ce8	0.027754262
55	0xbd1f3bf8	-0.03887555
56	0xbd4e2ee1	-0.050337676
57	0x3d758445	0.059940595
58	0xbcfabc1d	-0.030607278
59	0xbdb8db6c	-0.090262264
60	0x3b887b5a	0.0041650953
61	0xbd8ff816	-0.070297405
62	0xbdc17cb6	-0.09447615
63	0xbc790a19	-0.015200161
64	0x3be7b216	0.00707079
65	0x3d895845	0.06706289
66	0xbdf24f36	-0.118315145
67	0xbdb7c9e7	-0.08974057
68	0x3d849ed1	0.06475604
69	0x3d2cb4b4	0.04216452
70	0xbdd94f94	-0.106108814
71	0x3d148602	0.036260612
72	0x3d2c0223	0.041994225
73	0x3d9238b3	0.07139721
74	0xbd8c92cf	-0.06863939
75	0x3d8c8606	0.068615004
76	0xbd22ab89	-0.03971437
77	0x3ddf6384	0.10907653
78	0xbdb5c2c2	-0.08875038
79	0xbd96dc08	-0.073661864
80	0xbd6d1c10	-0.05788809
81	0xbd86ae89	-0.06576259
82	0xbb1ca578	-0.0023902338
83	0x3d6a6330	0.0572235
84	0x3deea677	0.116528444
85	0xbc9a702b	-0.018852314
86	0x3da506c4	0.08057931
87	0xbc375cbb	-0.011191542
88	0x3c639735	0.013891031
89	0x3bd985ae	0.0066382503
90	0x3d189386	0.037250064
91	0x3da885e3	0.08228662
92	0xbe0b00e1	-0.13574554
93	0xbc66e04f	-0.014091565
94	0x3d920e3b	0.071316205
95	0x3ce11223	0.027474469
96	0x3db3beb4	0.08776608
97	0xbdac97e5	-0.08427409
98	0x3dc7a1d7	0.097476654
99	0xbd4623a8	-0.04837385
100	0xba91e5c5	-0.0011131099
101	0x3d9de847	0.07710319
102	0x3c0310b2	0.007999586
103	0xbdaf5055	-0.08560244
104	0xbd852ad5	-0.0650231
105	0x3d8c5843	0.06852772
106	0x3dbf5dea	0.093440846
107	0x3dca221c	0.09869787
108	0xbda901fb	-0.08252331
109	0x3d966184	0.073428184
110	0xbe01df38	-0.12682807
111	0x3d2d8213	0.042360377
112	0xba4f4b76	-0.0007907668
113	0x3bf74cc3	0.0075469925
114	0x3d9878af	0.074448936
115	0xbcb7580f	-0.022380857
116	0x3d00241b	0.031284433
117	0xbd943d18	-0.07238215
118	0x3cda8ea9	0.026679354
119	0x3da9b767	0.08286934
120	0xbd2e5bd5	-0.042568047
121	0xbc663ebc	-0.014053043
122	0xbd2382c9	-0.03991965
123	0xbc3d4cf4	-0.011553992
124	0x3db4f75f	0.08836245
125	0xbd81d483	-0.063393615
126	0xbd03e733	-0.03220291
127	0x3d921dd2	0.07134594
128	0xbde94bbd	-0.11391399
129	0xbc9c913e	-0.019112226
130	0xbd93a0f9	-0.072084375
131	0x3cd310ec	0.025764905
132	0x3c22f026	0.009944951
133	0x3de23901	0.11046029
134	0xbb09ce03	-0.0021027334
135	0x3d9a2872	0.075272456
136	0xbd2a02fd	-0.041506756
137	0x3c0d639d	0.008629707
138	0xbd024dcb	-0.03181247
139	0xbdacbd31	-0.08434523
140	0x3d12d5aa	0.035848297
141	0x3b6cca76	0.0036131418
142	0x3d3defe7	0.046371367
143	0x3da06f63	0.07833745
144	0xbcfa6523	-0.030565804
145	0xbdcee4be	-0.10102223
146	0x3d59dcb4	0.053188995
147	0xbda1e14d	-0.07904301
148	0xbd1724db	-0.036900382
149	0x3db5ee7a	0.088833764
150	0x3d80b7ab	0.06285032
151	0xbc4e90d2	-0.01260777
152	0x3d837302	0.064184204
153	0x3d6bff0a	0.05761627
154	0x3c7b3a8c	0.015333783
155	0xbba8ab33	-0.0051473617
156	0x3dc0637c	0.09393975
157	0x3d54ba41	0.051935438
158	0x3b0258ba	0.001988931
159	0x3c5cd55d	0.013478604
160	0xbc9e35f7	-0.019312842
161	0x3cc745ca	0.02432527
162	0x3dd17c24	0.10228756
163	0xbd5e7ac6	-0.054316305
164	0x3c61a354	0.013771851
165	0xbd4bcc35	-0.049755294
166	0x3d58e87d	0.052956093
167	0xbd81b28b	-0.063328825
168	0xbd8c38bf	-0.06846761
169	0xbddc9348	-0.10770279
170	0x3cc4fc99	0.02404623
171	0xbd0dde86	-0.034636043
172	0xbdbd8e55	-0.09255663
173	0xbc25d26d	-0.01012097
174	0xbce18941	-0.027531268
175	0x3e0b96e9	0.13631786
176	0x3dbe059d	0.092784144
177	0x3dbccb02	0.09218408
178	0x3d943b3b	0.0723786
179	0x3d1c3b19	0.038142297
180	0xbdd4ebef	-0.10396563
181	0xbcd99303	-0.026559358
182	0xbd088118	-0.03332624
183	0xbd826da5	-0.06368569
184	0x3d17cf37	0.03706285
185	0x3d94e697	0.07270544
186	0xbd0dd595	-0.034627516
187	0x3d82809b	0.06372186
188	0xbdb6d9ae	-0.08928238
189	0x3deb8666	0.11500244
190	0x3d46796c	0.04845564
191	0xbbe35ac1	-0.006938309
192	0xbd65a604	-0.056066528
193	0x3db14931	0.08656538
194	0xbd6bf887	-0.05761006
195	0xbd860320	-0.06543565
196	0x3d63a408	0.055576354
197	0x3d90d3f7	0.07071679
198	0xba9044c0	-0.0011006817
199	0x3d3d974b	0.046286862
200	0x3c3b520a	0.011433134
201	0xbdc9da47	-0.09856086
202	0x3d31e764	0.043433562
203	0x3bf0df32	0.0073508257
204	0x3ada5e97	0.001666027
205	0x3d9aa564	0.07551077
206	0xbdd655c4	-0.10465577
207	0x3d7aeb72	0.061259694
208	0x3daaeeec	0.08346352
209	0x3d721b52	0.059108086
210	0x3d84bdfc	0.06481549
211	0xbd952d71	-0.07284058
212	0x3db2fc33	0.087395094
213	0x3cf81b94	0.030286588
214	0x3d874e2e	0.066067085
215	0xbd8cad23	-0.06868961
216	0x3d88ae72	0.06673898
217	0x3d707bea	0.058711924
218	0x3d8d7400	0.06906891
219	0x3d8f175c	0.06986877
220	0xbd0c652b	-0.03427617
221	0x3dad0909	0.08448989
222	0xbdadd647	-0.08488136
223	0xba101f6c	-0.0005497846
224	0x3c87b91f	0.016567765
225	0x3d3e194b	0.04641084
226	0x3d8173e1	0.0632093
227	0x3b224db6	0.0024765558
228	0x3d9200f1	0.07129086
229	0x3d8728ca	0.06599577
230	0xbdaf92b5	-0.08572904
231	0x3dac29be	0.08406399
232	0xbc952253	-0.018204844
233	0xbda1f97e	-0.07908915
234	0xbb291488	-0.002579959
235	0x3ce154d9	0.027506279
236	0xbd74f5e3	-0.05980481
237	0xbba0aae8	-0.004903186
238	0xbda8717e	-0.08224772
239	0xbd838d96	-0.0642349
240	0x3c702776	0.014657846
241	0xbdc15bf0	-0.09441364
242	0x3c08fd3d	0.008361158
243	0xbd40ad8a	-0.0470405
244	0xbcb22299	-0.021745013
245	0x3c3ef05b	0.011653985
246	0x3d11160c	0.035421416
247	0xbb92d4eb	-0.004480948
248	0xba8a2f8e	-0.0010542737
249	0x3d56d781	0.052451614
250	0x3cac430f	0.02102807
251	0x3c1dcbf4	0.009631146
252	0x3c662e5f	0.014049142
253	0x3b6c60b1	0.0036068375
254	0x3dd1c8f6	0.102434084
255	0xbcdec95e	-0.027195629

net.6.bias f4 [100]
0	0xbd2a7239	-0.041612837
1	0x3d1d6303	0.038424503
2	0xbd6988f7	-0.057015385
3	0xbcf96c31	-0.030447097
4	0x3d2b0f07	0.041762378
5	0x3d84cfc4	0.06484941
6	0xbc847d5f	-0.016173063
7	0xbdf1483a	-0.11781354
8	0x3d922530	0.07135999
9	0x3a726e4d	0.00092480035
10	0xbb0d8b15	-0.0021597792
11	0x3da3cf14	0.079984814
12	0xbd9cd66d	-0.07658086
13	0xbd152485	-0.03641178
14	0xbdcb7523	-0.099344514
15	0x3cae8e99	0.02130823
16	0x3da4eb32	0.080526724
17	0xbce735e4	-0.02822394
18	0xbd227091	-0.039658133
19	0x3d62e414	0.055393293
20	0x3d584d20	0.052807927
21	0xbd07b522	-0.033131726
22	0x3d189573	0.0372519
23	0xbb11e2e8	-0.002226049
24	0x3daeb12e	0.08529888
25	0xbdc9f38b	-0.09860905
26	0x3d99746b	0.07492908
27	0xbd087ffd	-0.033325184
28	0x3dbcd751	0.09220756
29	0xbc4af905	-0.012388472
30	0x3dd19e96	0.10235326
31	0x3dd04444	0.10169271
32	0xbc90bdfd	-0.017668718
33	0xbc70519d	-0.014667896
34	0x3c854f4d	0.016273165
35	0x3d7f4747	0.062323835
36	0xbcb78a45	-0.0224048
37	0x3c8e5eca	0.017379183
38	0xbced7f75	-0.02899144
39	0x3d875f5b	0.066099845
40	0x3d8b0508	0.06788069
41	0x3dcc379d	0.09971545
42	0xbca250cd	-0.01981392
43	0xbca2875a	-0.019839931
44	0xbd4648ed	-0.04840939
45	0xbd8302b6	-0.063970014
46	0x3d888f43	0.0666795
47	0xbc93f0a2	-0.018059079
48	0xbd3dabe5	-0.04630651
49	0xbcefe385	-0.029283294
50	0xbae17873	-0.0017202034
51	0x3cb4488e	0.022007253
52	0x3c00b94b	0.007856677
53	0xbd099691	-0.033590857
54	0x3c4b09af	0.0123924455
55	0x3afe8d86	0.0019420839
56	0xbd21afae	-0.03947418
57	0xbd0d810f	-0.034546908
58	0xbcc4b47e	-0.024011847
59	0xbd68c7fa	-0.056831338
60	0xbca2077d	-0.019778961
61	0x3d941fa8	0.072326005
62	0x3d08d1c1	0.033403162
63	0xbc5dc4a8	-0.013535656
64	0xbdf2e8a2	-0.118607774
65	0x3d356ef5	0.04429527
66	0x3c859b5d	0.016309435
67	0x3d3131cc	0.04326038
68	0xbc47e920	-0.012201577
69	0x3cca7952	0.024716053
70	0xbd29c847	-0.041450765
71	0xbdc1e821	-0.09468103
72	0xbd01ac27	-0.031658318
73	0x3d44fd3f	0.048093077
74	0xbd537acb	-0.051630776
75	0xbcbbc4dc	-0.022921018
76	0xbc58b9c4	-0.013227884
77	0xbcf8843e	-0.030336495
78	0x3cb46407	0.022020353
79	0xbd1636ad	-0.036673237
80	0xbce3c872	-0.02780554
81	0x3d9be7c3	0.076125644
82	0x3d749142	0.05970884
83	0x3d293780	0.041312695
84	0xbd0a968a	-0.03383497
85	0xbda30ead	-0.079617836
86	0x3bcc2bd7	0.006230812
87	0xbc807055	-0.015678564
88	0x3d9157db	0.07096835
89	0x3d794113	0.060853075
90	0x3ca2c621	0.019869866
91	0x3dc4e282	0.096135154
92	0x3ccbf0f7	0.024895174
93	0x3d903e6b	0.07043155
94	0x3c55ccee	0.013049347
95	0x3d5b4cbe	0.053539984
96	0xbdb7358c	-0.0894576
97	0x3d81af4e	0.06332265
98	0x3db8b25b	0.090183936
99	0xbd448137	-0.04797479

net.8.weight f4 [100, 100]
0	0xbc827fec	-0.015930139
1	0xbc9a6e96	-0.01885156
2	0xbdb6f339	-0.0893311
3	0xbd5fa703	-0.054602634
4	0xbc80d038	-0.015724286
5	0xbd7db2e4	-0.06193818
6	0x3d94f421	0.072731264
7	0xbd10e466	-0.035374068
8	0x3d813a10	0.06309903
9	0xbde662d9	-0.112493224
10	0xbd84c537	-0.06482928
11	0xbd956a13	-0.07295623
12	0x3d949009	0.07254035
13	0xbcc20a3b	-0.023686519
14	0x3d8605d8	0.06544083
15	0x3b8c268a	0.004277055
16	0xbd6466ac	-0.055761978
17	0x3c7027f0	0.014657959
18	0xbd5d375a	-0.054007865
19	0xbbb40718	-0.0054940097
20	0xbd973222	-0.07382609
21	0x3da7044d	0.08155117
22	0xbca6dcf4	-0.02036903
23	0x3bf1adef	0.007375471
24	0xbd772ac6	-0.060343526
25	0xbdbb84ed	-0.09156213
26	0x3d90c1d1	0.070682175
27	0x3bcf9290	0.0063346103
28	0x3ceeab41	0.029134395
29	0x3cc0a0fd	0.023514265
30	0xbd96c942	-0.07362606
31	0xbd47b911	-0.048760477
32	0x3d53e7fc	0.05173491
33	0x3daa2473	0.083077334
34	0xbc1007e6	-0.008790946
35	0xbdec3575	-0.115336336
36	0xbca3f83e	-0.020015832
37	0x3dad9a58	0.08476704
38	0xbc45028c	-0.012024533
39	0x3dcfe6b3	0.10151424
40	0xbd28e7d8	-0.04123673
41	0x3dc881ea	0.09790404
42	0xbd1b4338	-0.0379059
43	0x3d990080	0.074707985
44	0xbd4202ec	-0.047366068
45	0x3da19821	0.078903444
46	0x3d3cceea	0.046095766
47	0xbd95fbc8	-0.07323414
48	0x3d32cb79	0.043651078
49	0xbd32b717	-0.04363164
50	0xbc976326	-0.018479895
51	0x3cdfc992	0.027317796
52	0x3d3467cf	0.044044312
53	0x3db83b76	0.08995716
54	0x3d9620f4	0.07330504
55	0x3bc9ec67	0.0061622146
56	0x3d1ae887	0.03781941
57	0xbd895282	-0.0670519
58	0x3c83effd	0.016105646
59	0xbadeac08	-0.0016988525
60	0xbb27f0b7	-0.0025625655
61	0x3dacd1a6	0.08438425
62	0x3d6085dc	0.05481516
63	0xbdad7a40	-0.08470583
64	0xbd2aaa66	-0.04166641
65	0x3b10b186	0.0022078468
66	0xbd7ef23d	-0.062242735
67	0x3d4b7bc2	0.04967857
68	0x3db81e84	0.089901954
69	0x3c67fd5a	0.014159525
70	0x3d9015bd	0.07035396
71	0xbd377648	-0.044790536
72	0xbcd08954	-0.025456108
73	0x3d91c037	0.0711674
74	0xbd88aae7	-0.06673222
75	0xbd53fa9e	-0.05175268
76	0x3d7c8f84	0.061660305
77	0xbcf519ff	-0.029919622
78	0x3d5cec62	0.05393637
79	0x3d12155c	0.0356649
80	0x3db12edb	0.08651515
81	0xbdab45b7	-0.083629064
82	0x3cd5c566	0.026095103
83	0xbd748f62	-0.059707053
84	0xbd97d7cf	-0.07414209
85	0xbc91bd03	-0.017790323
86	0xbc9b536a	-0.018960673
87	0xbc8cde29	-0.017195778
88	0xbc81435e	-0.015779193
89	0x3c3c11b9	0.011478835
90	0x3c86182c	0.016368948
91	0x3d1a990e	0.03774362
92	0xbc876e6e	-0.01653215
93	0xbd7b371a	-0.061331846
94	0xbdea88ec	-0.11451897
95	0x3d5a6846	0.0533221
96	0xbd125122	-0.035721906
97	0x3d866960	0.065630674
98	0x3db40d56	0.08791606
99	0x3d2e08fc	0.042489037
100	0xbb40bf56	-0.002941092
101	0x3c3f9f37	0.011695675
102	0xbc021d6a	-0.007941583
103	0x3d9ce947	0.076616816
104	0xbddb3aff	-0.10704612
105	0x3c8e463d	0.017367477
106	0xbdbd1325	-0.09232167
107	0x3d49f2dc	0.049303874
108	0xbd73cc5e	-0.05952107
109	0xbd216d93	-0.03941114
110	0xbdc33676	-0.09531872
111	0x3dba8fb1	0.09109438
112	0x3c8cf2e7	0.017205669
113	0x3bdda6f6	0.006764288
114	0x3dcdbd75	0.10045902
115	0xbdc30ac2	-0.09523536
116	0x3d44e1ab	0.048066776
117	0xbb07efdf	-0.002074234
118	0xbb9e8333	-0.0048374175
119	0xbc7a8230	-0.015289828
120	0x3d1a3f7b	0.037658196
121	0xbd2215fe	-0.039571755
122	0xbd48813a	-0.048951365
123	0xbd46a68a	-0.048498668
124	0x3dbfd5eb	0.093669735
125	0xbdb9b7e4	-0.090682775
126	0x3c7dabc4	0.015482847
127	0x3d53a1d4	0.051668003
128	0x3d05485c	0.03253971
129	0xbd85953b	-0.06522604
130	0x3ab81eff	0.0014047323
131	0xbcb1b715	-0.021693746
132	0x3ccb4c06	0.024816524
133	0x3d415634	0.04720135
134	0x3cfee0c4	0.031113036
135	0x3d528998	0.05140075
136	0xbdb041ab	-0.08606275
137	0x3cbce9cf	0.023060707
138	0x3d365a82	0.04451991
139	0x3d684d76	0.056714498
140	0x3b1d29e0	0.0023981258
141	0xbd864a62	-0.06557156
142	0x3d50332b	0.050830048
143	0x3d05e640	0.032690287
144	0x3d32e079	0.043671105
145	0xbdd402f6	-0.10352127
146	0xbbd38ee9	-0.006456245
147	0xbd45115d	-0.048112262
148	0xbd7fb8ec	-0.062432215
149	0x3d20d7b9	0.03926823
150	0xbbc62f04	-0.006048085
151	0x3d8bfa17	0.0683481
152	0xbd827253	-0.06369462
153	0xbc8d1825	-0.017223427
154	0x3d0ce8fe	0.034401886
155	0x3d0d2fc3	0.034469377
156	0xbceae4a5	-0.02867348
157	0x3d9c76c1	0.07639838
158	0x3ca2e5fa	0.019885052
159	0xbde562d1	-0.11200488
160	0xbd8bb06b	-0.068207584
161	0x3d3b43c4	0.045718923
162	0x3dd2bea2	0.102902666
163	0xbc2e24a7	-0.010628856
164	0x3b5cc0a0	0.003368415
165	0x3c2d15a5	0.0105642425
166	0xbdc2e307	-0.09515958
167	0xbd272f82	-0.04081679
168	0x3d95def0	0.073179126
169	0x3dc5c42a	0.09656556
170	0x3da64032	0.08117713
171	0x3d3618c6	0.04445722
172	0xbc855b4b	-0.016278883
173	0x3d93864e	0.07203351
174	0x3dc1a67a	0.09455581
175	0x3c0a453c	0.008439358
176	0xbd6ac439	-0.05731604
177	0xbcb0ca69	-0.021580892
178	0x3d8ca0c9	0.06866605
179	0x3d0dc34f	0.03461009
180	0x3dae6efa	0.08517261
181	0xbd97fe6a	-0.074215725
182	0xbdd83acd	-0.1055809
183	0x3db2e651	0.087353356
184	0xbd0bb471	-0.03410763
185	0x3cb0b0bd	0.02156865
186	0xbddc91fb	-0.10770031
187	0x3d8417d0	0.064498544
188	0x3da1d675	0.079022326
189	0x3da2180c	0.07914743
190	0x3d8b835f	0.068121664
191	0xbd61b82e	-0.055107288
192	0x3d9fe9b1	0.07808245
193	0x3c58afd9	0.013225519
194	0x3ccffa47	0.025387896
195	0xbd3c6db8	-0.046003073
196	0xbd02a63d	-0.03189682
197	0xbdac21b3	-0.08404865
198	0x3d94d751	0.07267631
199	0x3d7207b8	0.059089392
200	0x3baec7dc	0.0053338837
201	0x3d14189d	0.036156286
202	0x3d9b3b67	0.075796895
203	0xbd6db44a	-0.058033265
204	0xbde365b7	-0.11103385
205	0x3d9f8eda	0.07790919
206	0x3c85bdf0	0.01632592
207	0x3d9edbca	0.07756765
208	0xbdc237d0	-0.09483302
209	0xbb7a6a16	-0.0038210205
210	0xbc01d882	-0.007925155
211	0xbd63cd4d	-0.055615712
212	0x3d45a229	0.04825035
213	0x3cdaa456	0.02668969
214	0xbd966041	-0.07342578
215	0x3dd04bf7	0.10170739
216	0xbb696ba5	-0.003561714
217	0x3d070c93	0.032970976
218	0xbb15ab0e	-0.0022837552
219	0x3d1c19aa	0.038110413
220	0xbdc8d715	-0.09806649
221	0xbcd129b2	-0.025532577
222	0xbdb8dd2b	-0.090265594
223	0xbd5147a0	-0.051093698
224	0x3c6e859c	0.014558222
225	0xbd055ceb	-0.032559317
226	0x3be91c38	0.0071139596
227	0xbdaff300	-0.085912704
228	0x3ca5b364	0.020227142
229	0xbd8b212f	-0.06793439
230	0xbcba8f5a	-0.022773433
231	0xbdb1c918	-0.08680934
232	0xbcbbf332	-0.022943113
233	0x3d99b0f9	0.07504458
234	0xbd986cf2	-0.07442655
235	0x3dc7c3f2	0.097541705
236	0x3d807032	0.062713996
237	0xbd8539ee	-0.0650519
238	0xbd25b1e3	-0.04045285
239	0x3cb5f0e6	0.022209596
240	0xbd5eae90	-0.054365695
241	0xbda239b7	-0.079211645
242	0xbd9c28c9	-0.07624967
243	0xbda2c071	-0.079468615
244	0xbd053d43	-0.032529127
245	0xbc112273	-0.008858311
246	0x3d653946	0.055962823
247	0x3d346cd2	0.04404909
248	0x3d981f64	0.07427862
249	0xbda3c55f	-0.0799663
250	0xbda05475	-0.07828609
251	0xbd18b1ff	-0.037279125
252	0x3d313343	0.043261778
253	0x3cb29e4b	0.021803996
254	0xbd167bee	-0.036739282
255	0x3ccf1557	0.02527873

net.8.bias f4 [100]
0	0x3d504687	0.05084851
1	0x3cd66660	0.026171863
2	0xbbb00b4a	-0.0053724395
3	0x3d986f20	0.074430704
4	0x3b9450a1	0.0045262133
5	0xbceab493	-0.028650558
6	0x3c820c8b	0.015875122
7	0xbd0c4795	-0.034247953
8	0x3d11b79a	0.035575487
9	0xbcd1e8d4	-0.025623716
10	0xbd441223	-0.04786886
11	0xbd245670	-0.040121496
12	0xbbb37937	-0.0054770964
13	0x3d4c0026	0.04980483
14	0xbc04cbfd	-0.008105275
15	0xbbb746f8	-0.005593177
16	0xbc82b930	-0.015957445
17	0xbd41a0a1	-0.04727233
18	0x3d8a510d	0.067537405
19	0x3d1e6cc2	0.03867794
20	0xbc2061a4	-0.009788904
21	0x3daad1ba	0.083407834
22	0x3d47c986	0.048776172
23	0x3cd429ad	0.025898779
24	0x3d62d225	0.05537619
25	0x3c864a90	0.016392976
26	0x3d2e0013	0.04248054
27	0x3d3da301	0.04629803
28	0xbc4a96e2	-0.012365075
29	0xbabbf04b	-0.0014338581
30	0xbd2c22dc	-0.042025432
31	0xbdc57fc2	-0.096435085
32	0x3d15d832	0.036583133
33	0x3c815138	0.015785798
34	0xbceea70f	-0.029132394
35	0x3d46d457	0.048542347
36	0x3c9eaf0b	0.019370576
37	0x3cdc6861	0.02690524
38	0xbd111f5d	-0.0354303
39	0xbd2848bd	-0.041084994
40	0x3de57a51	0.11204971
41	0xbcaf6e1c	-0.021414809
42	0x3d3c0888	0.045906574
43	0x3d66d4be	0.05635523
44	0xbd1538c6	-0.036431096
45	0xbda61f4a	-0.08111437
46	0x3d071991	0.032983366
47	0xbd23e0fe	-0.04000949
48	0x3c077be0	0.00826928
49	0x3b314737	0.0027050504
50	0x3c3ffb91	0.011717693
51	0xbd9af710	-0.07566655
52	0xbc2742d4	-0.010208804
53	0x3d0876b1	0.033316318
54	0xbd6b7bb2	-0.057491012
55	0xbd47cf23	-0.048781525
56	0xbd843e31	-0.064571746
57	0x3c9e0d64	0.019293495
58	0x3d13c3d4	0.036075428
59	0xbd89fdf6	-0.06737892
60	0xbd911542	-0.07084133
61	0x3d5c62de	0.053805225
62	0xbda6af9a	-0.08138962
63	0xbcab174c	-0.020885132
64	0x3c8a017d	0.016846413
65	0xbc179db1	-0.009253905
66	0x3bd46f20	0.0064829737
67	0xbdb5062d	-0.088390686
68	0x3dca34df	0.098733656
69	0xbd2414b8	-0.04005882
70	0xbcb1adec	-0.021689378
71	0xbcf7e535	-0.030260662
72	0xbd3ecdd8	-0.046583027
73	0xbd21d89f	-0.039513227
74	0x3d28fb61	0.04125536
75	0xbcf04294	-0.029328622
76	0xbd6034ce	-0.05473786
77	0xbb0e8595	-0.0021747102
78	0xbd41498c	-0.04718928
79	0xbad4e550	-0.0016242657
80	0x3d793504	0.060841575
81	0x3d85a90b	0.06526383
82	0x3d8f7a8a	0.07005794
83	0xbc41e1a9	-0.011833587
84	0x3d131a7e	0.035913937
85	0x3d3c0f3d	0.04591297
86	0xbd6c49a4	-0.057687417
87	0xbd44e083	-0.048065674
88	0x3cb5ee1d	0.022208268
89	0x3dad368e	0.08457671
90	0xbd5fe883	-0.0546651
91	0x3dae3f34	0.08508149
92	0x3d49d20c	0.049272582
93	0x3c82dce3	0.015974468
94	0xbc62f120	-0.013851434
95	0x3c806c2e	0.015676584
96	0x3d445ec3	0.047941934
97	0xbbf946d7	-0.0076073217
98	0xbaabf43c	-0.0013119052
99	0x3dacb94b	0.08433779
