models/heatalpha/lambdas/heatalpha_11.pth (torch, 977047 bytes, 51 tensors)

net.0.weight f4 [100, 3]
00000000: 84fc c53e 8b42 4b3e 069a 073f 8c26 f4be
00000010: c1d3 463c 8e73 fdbd 16fc 263e bf14 aa3e
00000020: 8803 7f3d 2a8f 043f fc8d 24bf df87 63be
00000030: 4ef0 b83e 2e3b 3dbf 4c86 f1be b6d6 053f
00000040: ac57 463e ab8c 2a3e 90db 8b3e 28a4 8d3e
00000050: 2e48 2a3d 3347 85be 90b5 88be f9c5 fb3a
00000060: 79fe a03e 1910 78be cfa9 a7be 9b34 bf3d
00000070: b805 793f 84fc 47be 0b9b 7cbe 02ee 3ebf
00000080: 8050 a93e 776b acbe 7a07 54bf 1ade 13be
00000090: 5c02 c73c 1e8f 723f a94b ccbe e14a b13c
000000a0: 2ace e23e 54c0 003f 3db8 a43e 2f10 6c3f
000000b0: c061 ebbe f1f3 d63e df5c 3abf ec7f b7be
000000c0: ffe4 043f d006 123e de53 54bc 981e a13e
000000d0: 32f2 8cbf d4dc a23e 1e4e c63e 0c81 323d
000000e0: 78a6 133f 5ee1 02bf ff3b a43f 8abb c23e
000000f0: 74e8 44bd c596 c03b 81ae 893e d769 8a3e
00000100: 9743 12bf 939a 8d3d e410 a23d 1a65 873f
00000110: 3103 f9bc abd6 6b3e bf49 2140 8e39 f0be
00000120: 8013 f4be 35d0 6c3f 77fb c73c e1c2 3fb9
00000130: dfee 7ebe fab5 503e 196e 933e 770d 9e3f
00000140: e88d 15bf 7d6a aa3d 3ad7 aebf 21e7 79be
00000150: 31dd 76be ea98 e6be ff52 50be 2f95 0b3f
00000160: 5884 d3be 16e1 00bf 9cdf 13bf 8773 dbbd
00000170: c54e 9dbe e75f d13d fcc9 67bf 27dd 83be
00000180: 8891 543e 2ef9 ae3e 7da9 33be 6291 8cbc
00000190: b2b6 06c0 42a2 153d fb18 ebbe 08be fd3e
000001a0: 8544 3cbe c9b5 743e 84fb 073e ebd3 8abd
000001b0: 68e6 eabe 6a64 6c3e 7abe f5bc 6062 15bf
000001c0: 72d3 9abc 921e 963e a159 173e 22eb 24bf
000001d0: 4702 a2be bbc4 0b3f b1ed 853f 3f9e 03bc
000001e0: 9495 82be c105 e43f fe9e d5bd 122e d23e
000001f0: fd03 e33f 1984 a83e 730a 12bf c463 6f3f
00000200: b7c7 663d a4bf ba3e b2eb 9bbf bb33 c53e
00000210: 71a0 033e 1cba 00be 40cf dd3e 23ea 0ebe
00000220: 4de8 babe 6940 f83e 981d 09bf 2a1b 8bbc
00000230: 6fca 843d 6fb2 ab3d e5b8 28bd c1c0 ca3e
00000240: b3e2 033f ad03 ce3e 48fe cc3e ea63 06bf
00000250: 0e4f 6cbf b80d 013f 636d 033f 2db8 a2be
00000260: d60b df3e 84f9 a4be e429 bbbe e32c 02bf
00000270: 5dbc fabd 09e9 1f3f 573b 503b f55e 77be
00000280: 33e4 983e 6d2b 673e a9d6 e0bc 952f 093f
00000290: 2e94 aabe 74ed 10be 50f5 853e 7352 55be
000002a0: 1681 8ebe fa1c 663e 7638 9d3e 96e4 0a3f
000002b0: 6691 2bbf 5485 383e 8656 1dbf 1083 33bf
000002c0: 062b d4bc c173 0abf 0ce9 0040 ffda 313e
000002d0: fd83 e0be 3085 c1be 61b8 80bd 2120 06bf
000002e0: 83c7 fabe 2e69 5a3d bd4e d2be e9d8 f43d
000002f0: 2a1e c8bd 7c4a 403d 73e0 7e3e 0335 40be
00000300: 4edf 593e 5b2f 91bf bbbb 9fbe a1ef 003e
00000310: 7611 8dba c7fc 673e dc63 62be debf b93f
00000320: 09cc 063f bbc1 163c dde5 89be 72a7 0e3d
00000330: 5c7e 043f c64a 973e cfad 5cbd c473 e23e
00000340: 6a17 973f 1f8f 853e 4cf7 643e 1c41 5ebe
00000350: b936 1abe 1271 1dbe 68d3 72bf b2aa bcbd
00000360: 59ec d83c 0883 7b3d a9a2 b7be 5255 0ebf
00000370: 24bf afbf 253b 3ebe a0a1 8fbe 7b3d 643e
00000380: 045b 163e 3c49 1d3f feb3 6f3f 3ee3 cc3e
00000390: 78ac 913d 5dc2 8f3d 5f79 0f3f 49d8 f5be
000003a0: 1b11 22bf 6fad cabe c464 043f f875 e33e
000003b0: 7e03 dc3e 6efb 7e3e 9ea6 263f 3d1a 6c3d
000003c0: 5a62 a23e 591b ec3d 47dd a9bd 0386 9b3e
000003d0: d95a f23d abbc 3dbd ef56 e93e db7a 2fbe
000003e0: 5ad3 803e 805b 19bf a1b5 2a3e 381c dc3d
000003f0: e1d6 a6be 693a 51bf 45f9 94be e428 a0be
0.38669217 0.19849603 0.52969396 -0.4768566 0.012135447 -0.12375556 0.163071 0.33218953
0.062259227 0.5178095 -0.6427915 -0.222198 0.36120838 -0.73918426 -0.47172773 0.5228075
0.19369382 0.16655223 0.2731595 0.27664304 0.041572742 -0.26030883 -0.2670102 0.0019208781
0.31444147 -0.24224891 -0.3274674 0.093362056 0.9727435 -0.19529921 -0.24668519 -0.7458192
0.3306923 -0.3367574 -0.8282391 -0.14440194 0.024293117 0.9474963 -0.39901474 0.02164215
0.44297916 0.5029347 0.32171813 0.92212194 -0.45973015 0.41982988 -0.7279796 -0.35839784
0.5191192 0.14260411 -0.012959449 0.31468654 -1.1011412 0.31809103 0.38731474 0.0435801
0.57675886 -0.51125133 1.2830809 0.38033706 -0.048073247 0.005877348 0.26890948 0.27033874
-0.57134384 0.06914248 0.07913378 1.0577729 -0.03039703 0.23031108 2.520126 -0.4691891
-0.47671127 0.925052 0.0244119 -0.00018287777 -0.2489581 0.20381919 0.28794935 1.2347859
-0.58419657 0.08321092 -1.3659432 -0.24404575 -0.24107815 -0.4503854 -0.2034416 0.5452451
-0.41311908 -0.50343454 -0.57763076 -0.107153945 -0.3072416 0.1022337 -0.9054258 -0.25754663
0.20758641 0.34174484 -0.17545123 -0.017159168 -2.1049008 0.036531694 -0.45917496 0.49559045
-0.18385513 0.2389747 0.1327954 -0.067787014 -0.4587891 0.2308518 -0.029998053 -0.58353233
-0.018899653 0.29320198 0.14780284 -0.64421284 -0.31642362 0.5459706 1.0463163 -0.008033334
-0.25504744 1.7814256 -0.10430716 0.41050774 1.7735592 0.32913283 -0.57047194 0.93511605
0.056342807 0.36474335 -1.2181304 0.3851603 0.12854172 -0.12570995 0.43322182 -0.13956504
-0.36505356 0.4848664 -0.5356078 -0.016980726 0.06483924 0.08383643 -0.041191954 0.39600185
0.5151779 0.4023718 0.4003775 -0.52496207 -0.9230813 0.5041156 0.51338786 -0.3178114
0.43563718 -0.32221615 -0.36555398 -0.5084974 -0.12242959 0.6246496 0.003177365 -0.24157317
0.29861602 0.2257516 -0.027446108 0.5358823 -0.33316177 -0.14153081 0.2616372 -0.20832233
-0.2783286 0.22471991 0.3070714 0.54255044 -0.67018735 0.1801961 -0.6146015 -0.7012186
-0.025899421 -0.54082876 2.014224 0.17368697 -0.438507 -0.37796926 -0.062851675 -0.52392775
-0.4898034 0.053322963 -0.41075698 0.11955435 -0.09771378 0.046946034 0.24890308 -0.18770222
0.2127659 -1.1342577 -0.31197914 0.12591411 -0.001076265 0.2265502 -0.22108406 1.4511678
0.5265508 0.009201462 -0.26933184 0.034827657 0.5175531 0.29549235 -0.053876694 0.44228947
1.180402 0.26085755 0.22359961 -0.21704525 -0.15059938 -0.15375164 -0.9485383 -0.09212245
0.026479887 0.061404258 -0.35866287 -0.5559894 -1.3730206 -0.1857725 -0.28052998 0.22289078
0.14683157 0.6143987 0.9363402 0.40017122 0.07112974 0.07019494 0.5604457 -0.48016575
-0.6330735 -0.39585444 0.51716256 0.4442594 0.42971414 0.249006 0.6509799 0.05764221
0.3171566 0.11528654 -0.082941584 0.3037568 0.11833734 -0.046322506 0.45574138 -0.1713671
0.25161248 -0.5990524 0.16670848 0.1074757 -0.32585815 -0.8172975 -0.29096428 -0.31281197

net.0.bias f4 [100]
00000000: c099 073c bc30 d13e 1faa d4be 378f d1bd
00000010: fbd6 b9be 9294 ecbe 4142 80be b147 083f
00000020: 763c e6be 2a1d 093f 1c8b d4bd a465 27bf
00000030: b015 92bc a294 813e e5e7 af3e 0e2b a53e
00000040: ca91 bc3e 6c54 213e 05f2 86be 065b 4bbd
00000050: 080c 133f bcde 513d 5e74 d73d fba1 2a3e
00000060: 9ec1 43be 4a88 c9be ce1c 49bd 0e75 06bd
00000070: 3d57 173f dc86 a53e 1143 85be d700 433e
00000080: ff7f 733e effa bdbd 3486 d5bd d476 55be
00000090: 6f64 5d3e ecc4 21be a846 e5bd 55f0 133f
000000a0: f40d ad3e 2189 c6be 68c8 353c d1f7 c83e
000000b0: 5622 b4be cd33 45be c76b 183f 2d5e 443e
000000c0: 975c 083f a210 40be 1d26 0d3f 9ff4 993e
000000d0: 5651 59bd 44af 0d3f 5ecc 043e 40a6 fdbd
000000e0: a849 c6be acf4 b83e de9e dc3e 61c4 fdbe
000000f0: db65 68be b844 26be 84b3 9a3e f2c4 a4bc
00000100: f72d 0abf 2593 64be 6403 a03d 46a5 963b
00000110: d6c8 c03e bbf6 e5be 6497 d83e c019 f03e
00000120: 1c01 61be 34ae c7be be81 293d b1f2 90be
00000130: 7049 00bf 7cbe 5bbd 9ae9 343b a10a c43e
00000140: edf1 7ebe 138a c4bd 68ae aa3e 4d21 2fbe
00000150: 9e6f 0f3f 9771 ad3e 1e6e 04bf e698 d4be
00000160: c153 41bd 0399 edbe bda0 2fbd ae00 2abd
00000170: 43cb e53e 33d2 183f d7c7 07bf b3c6 113f
00000180: 26cb febe bdf7 2e3e a04b 96be b33d 2f3e
0.008276403 0.40857494 -0.41536042 -0.10232394 -0.3629683 -0.462071 -0.25050548 0.5323439
-0.44968003 0.53560126 -0.103780955 -0.65389466 -0.017832607 0.2530871 0.3435661 0.3225941
0.36829978 0.1575486 -0.2635652 -0.049647354 0.57440233 0.051237807 0.10520242 0.16663353
-0.19116828 -0.39361793 -0.049099736 -0.032826476 0.5911749 0.32329452 -0.2602773 0.19043289
0.23779295 -0.092763774 -0.10425988 -0.2084611 0.21620344 -0.15797776 -0.11195117 0.5778859
0.33799708 -0.38776496 0.011095144 0.3925157 -0.35182446 -0.19258042 0.59539455 0.1917655
0.5326628 -0.18756345 0.5513628 0.30069444 -0.053056084 0.5534556 0.12968585 -0.12385225
-0.3872807 0.3612417 0.43089956 -0.49563888 -0.22695105 -0.16237152 0.30215085 -0.020113442
-0.53976387 -0.22321756 0.07813147 0.004597339 0.37653226 -0.44914803 0.42303002 0.46894646
-0.2197308 -0.39000094 0.041383497 -0.2831016 -0.50112057 -0.053648457 0.0027605058 0.3828936
-0.24896975 -0.09596648 0.33336186 -0.17102547 0.5602969 0.33875725 -0.51730525 -0.41522902
-0.047199015 -0.464058 -0.0428779 -0.041504554 0.4488164 0.5969574 -0.53039306 0.56943816
-0.49764365 0.17086692 -0.29354572 0.1711338

net.2.weight f4 [100, 100]
00000000: faec 85bd 49ef f7bd 287c 823d 52cd 183d
00000010: bd2d ba3c cb6b 163e 1068 cabd 2ee7 2abd
00000020: 0744 a23c 3a78 993d fe4a bebd 5bdc a83c
00000030: ab3b 93bd cc65 9ebd ef75 f5bc 8058 2bbd
00000040: 3227 2c3d 586d c33d f16f ef3d 9160 c5bc
00000050: 4804 9cbd 500b 6bbd 0201 0f3d 03d8 be3d
00000060: 8d7d 7bbd 614c c73d ea64 adbd 46f3 8a3d
00000070: aece 0fbd 3ec9 153d 8b48 81bc 85bc 233a
00000080: 8beb 7a3d ad23 2cbd 862e 69bd e9f4 e23c
00000090: 2bf0 c5bd 9a08 81bd 2424 703d 5c00 1b3d
000000a0: 662c d9bd 30d0 883c dff3 7fba 6bcd d33d
000000b0: aa3a 88bd a831 ff3d 04b9 2c3c 40ca a2bd
000000c0: 4349 893d 3d84 1ebd 9874 b2bd 0f3d f638
000000d0: cb68 123d 1de6 ce3d 9a35 943d 1ec5 18bd
000000e0: 6afb 433d 4e0a b33d d693 c0bc 02a4 85bd
000000f0: 5c65 5dbd 71ea f4bc 904d bdbd d207 253b
00000100: 7535 3b3d a446 64bd 2fab d53d 7792 ab3b
00000110: e315 f03d 2293 82bc 27b1 6abd 5251 ad3c
00000120: d79d 89bb ddf3 c53c f3ec 69bd 1999 81bd
00000130: 1738 62bd e1bb f1bc ea5a 623d 9bab 653b
00000140: 0d93 61bd 0e56 41bd a382 983d 5f6c 153d
00000150: 800d aabd 7032 a4bc 95e6 4a39 f333 843d
00000160: b155 0a3d 4e8c dd3c 71ff 37be a603 bb3d
00000170: 7ec8 ef3d b0fa 9f3d fc2b acbd e26e dcbc
00000180: 639a 4abd a606 9fbd e947 29bd e5be 0d3d
00000190: cfe9 9dbc 27b0 b5bd c318 5fbd a6ee a63d
000001a0: 665b a53d cf5d 583c c6e6 9f3d d325 b7bd
000001b0: b28d 4cbb 30a7 cabd dd3e 3fbb 4ac6 6e3d
000001c0: 11b4 9b3d 7c36 7d3b 7a36 a2bd 6b9a 913c
000001d0: 86a0 04be c415 a0bd 84b2 9b3c ffba 893d
000001e0: f296 16bd 981d 893d 3e62 703d f5ea 963d
000001f0: e4a5 1bbd 12b0 2abc 0afe cd3d d736 483d
00000200: 7445 4cbd b103 86bd 8279 763d 16e8 663d
00000210: 3d8a 223d ce4a 06bd c91b 5fbc 22f0 93bd
00000220: fdfc ce3d f79a 06bd 6df2 b5bd 9576 19be
00000230: d0d9 763d 2142 ae3d 2b8c 20bd d4ca 9fbd
00000240: b853 863d 2341 033d 3618 b6bd ca43 a93b
00000250: 9a57 29be 6962 31bd 7e8b fbbd 6622 81bd
00000260: 57ea ba3d 826b c43c c2ea fcbc 171c 3b3c
00000270: 932a 1bbd b24b e3bd 3f22 55bd 71c3 f03d
00000280: 750b f73c 8867 193d 85e5 bfbd 7620 cf3b
00000290: 8916 9e3c 5e41 90bd c12e a7bd bc6c 993d
000002a0: 08d9 09be b351 69bd e4fa 58bd 8819 d2bd
000002b0: a7ef f93c 2f24 243d 769a 8c3d eca0 af3c
000002c0: 13a0 b23d cecd 1d3d e0c8 00be 9786 083c
000002d0: 08da 4dbc fc91 50bc 76d1 36bd 4027 2cbc
000002e0: b8fe a1bd 8c0d 87bd ee88 3abd c6f7 adb9
000002f0: 29f1 ef3a 61ff b8bd 2405 c7bc c3e2 6dbd
00000300: 6528 8ebd be6e b6bd bb1b f93d 56a6 863d
00000310: fd82 113d b23b 45bb 9596 f3bc eb0a 73bc
00000320: e6c6 363d cedd 953d 1ee1 2f3d e0ea 4b3d
00000330: 57f4 e3ba 4a85 08bd 66ab 853d 91bc 87bd
00000340: 7f5c 763d ba04 823d adb0 7e3d 0353 b53d
00000350: d5db 673d 1909 98bc f38e 37bc 2c06 37bc
00000360: eef7 28bd 736b b0bc 8e90 d73c fcfd cf3d
00000370: fa29 5dbd 889a d33c 76b2 c63d 58bc 8f3d
00000380: 0da7 35bd bb75 60bd cf51 b3bd 9c44 4ebd
00000390: bc34 5abd 7d5b fabc b6f5 153d fb71 c53d
000003a0: 2719 fa3d 61dd 3f3d e6eb 54bd 83a3 bc3c
000003b0: d1d2 7d3d 6e7f 533d b9fd 923c 3caf b7bd
000003c0: b608 ac3d 913f 2d3d 77f1 a5bc 3440 58bd
000003d0: f000 1f3d da7e cbbc 9e7e d1bd 6272 873b
000003e0: 2b63 36bd 5e31 cd3d 1a2c 04be c3ea 97ba
000003f0: 9777 adbd 6f42 51bd eda3 e2bd 9086 13bc
-0.0653934 -0.12106187 0.06371337 0.037305184 0.022726888 0.14689557 -0.098831296 -0.041724376
0.019807829 0.074936345 -0.092916474 0.020612886 -0.07189115 -0.0773426 -0.029963462 -0.041832447
0.042029567 0.0954234 0.11691273 -0.024093898 -0.07618004 -0.057383835 0.03491307 0.09318545
-0.06139903 0.09731365 -0.084665135 0.06784682 -0.035109214 0.036568873 -0.015781661 0.0006246048
0.061259788 -0.04202621 -0.056929134 0.027704673 -0.09664949 -0.06300469 0.058628216 0.03784214
-0.106041715 0.016700834 -0.00097638177 0.10341915 -0.06651814 0.12460643 0.010542158 -0.079487324
0.06703427 -0.03870033 -0.08713645 0.00011741567 0.03574447 0.101024844 0.07236786 -0.03729736
0.04784719 0.087422 -0.023507994 -0.06525423 -0.054051742 -0.029896947 -0.092433095 0.0025181663
0.045705277 -0.05573143 0.10433041 0.005235966 0.117229246 -0.015939299 -0.057297852 0.02115694
-0.004199724 0.024164135 -0.057110738 -0.06328029 -0.055229273 -0.029508533 0.055262484 0.0035044912
-0.05507188 -0.04720121 0.07446792 0.036480304 -0.08303356 -0.020043582 0.0001935012 0.06455221
0.033773128 0.027044442 -0.17968537 0.09131555 0.11708163 0.07811487 -0.08406827 -0.026908342
-0.04946364 -0.0776494 -0.041328344 0.03460588 -0.019276528 -0.08871489 -0.054466974 0.08150987
0.080740735 0.013205959 0.078076884 -0.08942761 -0.0031212387 -0.0989517 -0.0029181757 0.058294572
0.07602704 0.0038637212 -0.07920547 0.017773828 -0.1295186 -0.078166515 0.019006021 0.0672512
-0.036765046 0.06695098 0.05868744 0.07369033 -0.038000003 -0.010417955 0.1005822 0.048880424
-0.049870923 -0.06543673 0.060174473 0.05637368 0.039682616 -0.032786183 -0.013617464 -0.07223536
0.101068474 -0.03286263 -0.0888413 -0.14986642 0.060266316 0.08508707 -0.039196175 -0.07802358
0.06558937 0.03204454 -0.088913366 0.005165552 -0.16537324 -0.043306742 -0.122824654 -0.06305389
0.09126728 0.023977045 -0.03087366 0.011420271 -0.0378824 -0.11098422 -0.052034613 0.117560275
0.03015683 0.03745225 -0.09369949 0.0063210083 0.019297855 -0.07043718 -0.081632145 0.074914426
-0.13461697 -0.05696268 -0.052973643 -0.10258776 0.030509783 0.04007357 0.068653986 0.021439038
0.08721938 0.03852635 -0.12576628 0.00833287 -0.01256419 -0.012730118 -0.04463335 -0.010507405
-0.07909912 -0.06594381 -0.045540743 -0.00033181737 0.0018306124 -0.09033085 -0.024294443 -0.058077585
-0.069412984 -0.08907841 0.12163492 0.06574695 0.03552531 -0.0030095396 -0.029734889 -0.014834146
0.044623278 0.073176965 0.042939298 0.04978454 -0.0017391545 -0.03333024 0.06526832 -0.06627763
0.060146805 0.06348558 0.06218021 0.08853724 0.056606133 -0.018559026 -0.011203515 -0.011170905
-0.04125207 -0.02153561 0.026314046 0.101558656 -0.05399511 0.025830522 0.097020075 0.070183456
-0.044348765 -0.054799777 -0.08755838 -0.0503584 -0.053272948 -0.030561203 0.03661128 0.09640881
0.12211829 0.046841983 -0.051982783 0.023027187 0.06196863 0.0516352 0.01794325 -0.0896897
0.08400099 0.04229695 -0.020256741 -0.052795604 0.038819253 -0.024840761 -0.102292284 0.0041335085
-0.044528168 0.10019182 -0.12907448 -0.001159035 -0.084700756 -0.051088747 -0.110664226 -0.00900425

net.2.bias f4 [100]
00000000: d71a 07bd a1b4 a83c cdb4 a33d c74b 393d
00000010: a37c 353c 1e39 d43d 5617 11bd a5a1 ccbd
00000020: fee5 b5bd 51db 67bd 7623 183d c514 b6bc
00000030: d1a8 c2bd a4ed 9f3d 550e 52bd 549a aa3d
00000040: d8c3 86bd 6203 65bd 59fc 80bd 8012 49bc
00000050: 8f4a 06bd e7ff adbc 9a93 353d 5e95 4e3d
00000060: 34c0 873c cfe7 adbd b41f 62bd df80 dfbd
00000070: 85db 1f3c 09df 0d3d b5b8 ad3d e999 9cbd
00000080: 4234 3a3d 81f2 d3bd bd6f 8dbd d461 4f3d
00000090: 7d37 223d c745 b7bd ae05 ed3b 946a 57bd
000000a0: bcea 5abd fc95 183d 1951 aa3d 11a2 d0bc
000000b0: b8e1 1b3d f476 603d 61b1 8b3c 3173 80bd
000000c0: 9436 203d f146 c03d 7fba b3bd 9a2d cebd
000000d0: aa5e 88bd 7cda 953c e0bd 373d 7e36 093c
000000e0: ff1c 32bd 9d85 34bc c9c7 3d39 29ad b13c
000000f0: adbc 0dbd 3d9f 0a3d 28f7 763b 838d 923d
00000100: 8116 273d 67da c33c 827d 52bd 670b d7bd
00000110: bced 3cbd 6794 4d3d 977d 4fbc ff67 d7bd
00000120: ba21 26bd cfc0 b6bc 1f6d 00bd cc7a 67bd
00000130: 70fa efbd 217f 2e3d cf76 a5bd 96ff 823d
00000140: 2ce8 a33c c187 6e3d e794 a4bd 364a f2bc
00000150: d63f 5f3d ffa7 b43c 69c8 e5ba 2929 3cbc
00000160: 7365 13bc 490a b5bd d301 a7bd 4c7f d03d
00000170: 2edd 09bd 7456 8d3c 6972 c33c 6280 2cbd
00000180: bea4 b1bd 80ba 04bd b685 a83c 2d6f 9b3d
-0.03298458 0.020593943 0.079934694 0.045238283 0.011077079 0.10362457 -0.035422646 -0.09991769
-0.08881758 -0.05660564 0.037143193 -0.0222267 -0.095048554 0.07808998 -0.0512832 0.08330217
-0.06580323 -0.05591143 -0.062981315 -0.012272477 -0.03278595 -0.021240188 0.044330217 0.050435416
0.016571142 -0.084914796 -0.055206016 -0.10913252 0.009756927 0.03463653 0.08482496 -0.076465435
0.045459993 -0.10348988 -0.06906078 0.050630406 0.0396037 -0.08948856 0.007233343 -0.052591875
-0.053446516 0.03725241 0.083162494 -0.025467904 0.03805706 0.054800943 0.017052354 -0.06271971
0.03911455 0.09388531 -0.08775806 -0.100672916 -0.06658681 0.018292658 0.044858813 0.008374808
-0.043484684 -0.011018184 0.0001809887 0.021689015 -0.034603763 0.033843268 0.0037683938 0.071558975
0.040792946 0.023907853 -0.051389225 -0.10500222 -0.04612516 0.050190356 -0.01266422 -0.105178826
-0.040559508 -0.022308735 -0.031354066 -0.056513593 -0.11717689 0.04260171 -0.080793016 0.063964054
0.02000817 0.058234934 -0.08036213 -0.029576402 0.054504238 0.022052763 -0.001753104 -0.011484423
-0.008996355 -0.08839852 -0.08154645 0.1018053 -0.0336582 0.017253138 0.023858266 -0.042114623
-0.08674 -0.032404423 0.02057157 0.075895645

net.4.weight f4 [100, 100]
00000000: 8584 e8bd 55e4 503d f86e 283d 3715 423d
00000010: 213e 8f3c bfb1 703d 9c0e 8f3d 46c2 263d
00000020: 59ef 25bd 8b5c 94bd 12b8 b7bd f2ad 64bc
00000030: 51d5 563a bf74 bdbd e5e0 eebc e7f5 26bc
00000040: e314 b6bd db1c 0c3d 7300 373d 8a75 f2bd
00000050: 9711 14bd d39d 1e3d 2559 cc3c 9b40 b6bd
00000060: 5f60 a63d fca2 6ebd f932 62bc c56c c0bd
00000070: 7ceb 92bd 2f3c b6bd eec6 9dbd 4418 4ebd
00000080: 2af6 dfbd 1226 d33d cf17 113c 8ab4 ae3b
00000090: 47d5 73bd ab35 9a3c 6f4e 193d 0fc0 213c
000000a0: caaa 4d3d 9b20 46bd 7731 973c 73f0 91bd
000000b0: a277 8d3c ef8d edbc d653 f43b 4bce ef3c
000000c0: 9113 1ebc 5caa b13d 9a38 89bd 6466 9fbb
000000d0: 44f9 853d a617 1d3d 50d0 46bc 19dd 62bd
000000e0: e8b0 dbbc 63f5 99bd 869d 57bd 07be bf3d
000000f0: fac1 78bd dea4 b63a ad7b c3bd 7ad3 5e3d
00000100: dc7e 59bd d6b0 b13d 17d6 e23c 4b99 e4bd
00000110: 1b2d a3bd da57 acbd d5bf 413d f70e 09bd
00000120: 800e ac3c 2332 46bc 028e d43d ebd2 e2bd
00000130: 3d45 153c 8ef5 3cbd 2541 b1bc efe7 34bc
00000140: 0366 cfbd fcff 723d b87e 0abc 435d f53d
00000150: 7cb2 48bc 260f c2bd a4e4 9e3d fd4f 67bd
00000160: f025 ef3d 528f 9c3c 6412 14be 8397 f33d
00000170: a419 bd3c 361f 303d e447 a7bc 133b b0bd
00000180: dbc5 de3d 6a53 e13c b1c4 b5bc abae f8bc
00000190: 3385 c0bd f15e 10bd d3a2 7c3c 1c26 5bbd
000001a0: dce5 cc3d 185f aa3d 893c 963d 0df8 0ebc
000001b0: a4be 823d a235 6e3b 3ae7 213d f018 afbb
000001c0: a112 11bd 6bba 14bd 315c a8bd a90d 583d
000001d0: 4623 a9bc fe04 553d f58d 993d af4c bf3b
000001e0: 6699 6e3d 1a3c a63d cc4f b03d ee57 3bbd
000001f0: 9a71 11bb 8009 8fbc f710 693d 2d76 0c3d
00000200: 34b1 93bd 8bcc 70bd 6063 413d be7b 3c3d
00000210: 3528 99bd baac 9ebd b34b acbb b676 c3bd
00000220: 7ca8 67bd a086 603d 218b 723d 6b6f 6e3d
00000230: f3f0 4abd 935c a5bd 21b3 793d 31a3 133d
00000240: a68b 2abd 7095 41bd 02fa 5e3d b0b8 2d3d
00000250: b910 013d 223e 023d c0e6 d93a bf11 743c
00000260: 6e78 33bb eab1 04bd 45cc 2a3d fbd4 753d
00000270: 0c05 993d 5dec 8e3d 37bf 543d 2bb5 d5bd
00000280: e201 12bd 2b7a 8ebd b6f7 e23d e2df a9bd
00000290: 7076 cabd 3677 7c3a afa1 cf3d 6c25 7c3d
000002a0: 057a dd3d 07b3 f2bc 54f6 8dbd dd64 67bc
000002b0: 6f7a 27bd 5be1 5cbd 491c 3c3c 3ca6 0d3e
000002c0: 5914 183d 4c1d 8d3c d81a d83b 1380 6dbd
000002d0: 6885 613d 86d3 ff3d de6a 1c3d 40be 81bd
000002e0: a344 c1bd 5e68 adbd cd7c 4a3d 479b 8bbd
000002f0: cf88 1d3d 2e0c 213d 7dd8 9dbd ff78 c4bc
00000300: cb47 e6bc 5d46 d9bc 495c fabc 2385 3b3d
00000310: 6dea c83d c98c 78bd 70cf dbbc 78da 85bd
00000320: d082 1abd c72b 3a3d 2539 1abc 5837 a1bd
00000330: 21a3 ce3d b912 16ba 9667 80bd ee5a af3d
00000340: 5a25 483d b5e6 a4bc 2812 923d c467 a5bd
00000350: 424e f43c a001 9f3d da6e 9c3b a169 aabd
00000360: 8ee9 823d efe3 ec3b 6b52 113d 1d46 ddbc
00000370: 6193 5c3d 624d a33d 62a3 94bc 2251 cdbc
00000380: b2f9 a7bd 9060 ca3d e83f 82bc 6ee3 3f3d
00000390: 22cd 9cbd 04e7 9a3c 0cf2 2e3d ec1c ad3d
000003a0: d317 b7bd 6dc5 49bd 9727 233d 6ff5 cc3d
000003b0: 2a28 eebc 2d51 bc3d bbf0 8d3d f2d8 1a3d
000003c0: beb5 3c3d 6842 883d 44b8 b5bb 3631 c33d
000003d0: 9d29 29bd ebae 983d 1fe8 83bc cf89 6c3d
000003e0: 32f9 99bd 5892 bd3d d5a6 823d 77e2 babd
000003f0: da66 7d3d e544 013d 0d46 bcbc 0fc0 1abd
-0.11353401 0.050999004 0.041121453 0.047383513 0.01748568 0.058763262 0.069852084 0.040712617
-0.040511463 -0.07244214 -0.089706555 -0.013957487 0.0008195239 -0.09250783 -0.029159972 -0.010190464
-0.088907026 0.034207206 0.044678163 -0.11838825 -0.036149587 0.03872473 0.024944851 -0.08899041
0.0812385 -0.058260903 -0.013806098 -0.09395746 -0.07173821 -0.08898198 -0.077039585 -0.05031611
-0.10935624 0.10309996 0.008855774 0.0053315805 -0.05952957 0.018824419 0.037428316 0.0098724505
0.050211705 -0.04837094 0.018456204 -0.0712594 0.01726896 -0.028998343 0.007456283 0.029273173
-0.00964822 0.086750716 -0.06700249 -0.004864501 0.06541684 0.03835263 -0.0121346265 -0.055386636
-0.026817754 -0.07517507 -0.05264046 0.09362417 -0.060731865 0.0013934632 -0.09545074 0.0544009
-0.0530995 0.08676307 0.027689977 -0.11162051 -0.079675876 -0.08415194 0.047302086 -0.033461537
0.021003008 -0.012096914 0.10378648 -0.11075386 0.009110746 -0.046132617 -0.021637509 -0.011041625
-0.10126879 0.059326157 -0.008453064 0.11980679 -0.012249585 -0.094755456 0.077584535 -0.056472767
0.11677158 0.01911131 -0.1446014 0.11894133 0.023083515 0.042998515 -0.020420022 -0.086050175
0.10877582 0.027505595 -0.022188516 -0.030356726 -0.09400406 -0.035246793 0.01541968 -0.05350314
0.1000478 0.08318919 0.07335765 -0.008726132 0.06384018 0.0036347886 0.039527155 -0.005343549
-0.035418157 -0.036310595 -0.08220709 0.052747402 -0.020646702 0.052006714 0.07497779 0.005837999
0.05825176 0.08116932 0.0860897 -0.045738153 -0.0022192956 -0.017460585 0.056900945 0.03429239
-0.07211533 -0.058788817 0.047213912 0.046016447 -0.07478372 -0.07747789 -0.0052580475 -0.09544127
-0.056557164 0.05481589 0.059214715 0.058211725 -0.049546193 -0.08074298 0.060961846 0.036044303
-0.041637085 -0.047261655 0.054437645 0.04241246 0.03151009 0.031797536 0.0016624555 0.014896809
-0.0027385014 -0.032396235 0.041698713 0.060017567 0.07471666 0.069786765 0.05194017 -0.10434946
-0.035646327 -0.069568954 0.11082403 -0.082946554 -0.098858714 0.0009630801 0.101382606 0.061559126
0.10814289 -0.029626383 -0.06931749 -0.014123169 -0.040888246 -0.053925853 0.011481353 0.13832945
0.03712878 0.017225884 0.006594997 -0.05798347 0.055058867 0.12491517 0.038187854 -0.063351154
-0.094369195 -0.08467172 0.049435426 -0.06816726 0.03846055 0.039318256 -0.077073075 -0.023983477
-0.028110405 -0.02652281 -0.030561583 0.045781266 0.09810338 -0.06068114 -0.026832312 -0.0653581
-0.03772241 0.045451906 -0.009413038 -0.07871884 0.10089708 -0.0005724836 -0.062697574 0.08562265
0.048863746 -0.020129541 0.07132369 -0.08076432 0.029822472 0.07763982 0.0047739567 -0.08320928
0.06392203 0.0072293202 0.03547899 -0.027010972 0.05385149 0.07973744 -0.018144313 -0.025063101
-0.082019225 0.09881699 -0.015899613 0.046847753 -0.076563135 0.018908985 0.042711303 0.08452782
-0.08940091 -0.049260546 0.039832678 0.1000775 -0.029071886 0.091951706 0.06930681 0.03780455
0.04607176 0.06653291 -0.005545648 0.095308706 -0.04129945 0.07455238 -0.016101895 0.057748612
-0.07518233 0.092564285 0.06379477 -0.09125226 0.061865665 0.031559844 -0.022982622 -0.037780818

net.4.bias f4 [100]
00000000: 76af 443d 9d08 b7bc ed48 823d fb54 253d
00000010: 9fd2 be3d fb4b a0bd 0284 bc3d bf53 3b3d
00000020: 91b4 1abd c3a8 2d3d ae58 ebbc f7e2 c9bc
00000030: dbd2 acbd 1428 a53d decb ebbb 9656 b8bc
00000040: c88a 573d a491 a33d ab5f 5c3d ae02 643d
00000050: ba1b 10bd 091d 35bd 111e 4d3d dd13 acbd
00000060: 0db0 8b3d c79b a6bd 985f 8e3d d1e5 31bd
00000070: 0383 21bb 5e92 033d e944 a3bd f972 4dbd
00000080: 4724 05bb feb0 c6bd 59a4 743d 3053 31bd
00000090: e5a2 5cbc 8922 973c 2bd9 d83c 3754 03bc
000000a0: 5282 9f3d ea1c c0bb 11fb 46bd f6e0 b33d
000000b0: 25cc 8c3d 0e5f 98bc 41e2 8abc e902 e33c
000000c0: c2ea 3fbc 8131 4bbc a154 dc3c 7453 c03c
000000d0: 8c5b 233d 924d 08bd 2f02 69bd e1cb a13d
000000e0: 08fc bf3d 4c64 0ebd 2894 59bc 7d2e 89bd
000000f0: 1b53 703d 480a a43d 7388 a5bd 0fee 6bbd
00000100: 2ff8 c3bc ea58 093c 1602 df3d dccd a53d
00000110: dd2c e4bc ddd0 aabd c4c4 cb3d 8fb1 88bd
00000120: 2a95 37bd 726d d13c 8a59 ce3c cb1a 993d
00000130: 9a83 d13b ac33 8d3b 11af 013e 6982 3abc
00000140: f600 1b3d 91ea aab9 bf23 1a3d c40a 57bd
00000150: 93a0 96bd 2ca7 0ebd 5143 b3bc a9df 90bd
00000160: c224 a03d 297b b53d df1c b63d 23c9 6cbd
00000170: 1857 893d ff6b eebd 8243 2d3c 6558 893d
00000180: 9e17 bc3d 65a7 ccbd 98b0 8c3d f31a da3b
0.048018895 -0.022342974 0.06361566 0.040364247 0.093175165 -0.07826992 0.09204866 0.045734163
-0.037769858 0.04239727 -0.02872881 -0.024644358 -0.08438655 0.08064285 -0.0071959337 -0.022502225
0.052622586 0.07986763 0.053802174 0.055666618 -0.035182692 -0.044217143 0.0500775 -0.08402226
0.068206884 -0.08135181 0.06951827 -0.04343206 -0.002464474 0.03212201 -0.07972128 -0.050158475
-0.0020315812 -0.09701727 0.059727047 -0.043292224 -0.013466571 0.018449085 0.026470741 -0.008015684
0.077885285 -0.005862822 -0.04857928 0.08783142 0.06874875 -0.018600013 -0.01695359 0.027711349
-0.0117136855 -0.012401939 0.026895823 0.023477294 0.039882228 -0.0332771 -0.056886848 0.07900215
0.09374243 -0.03476362 -0.013279952 -0.0669832 0.058673006 0.080097735 -0.08082666 -0.057600077
-0.023922054 0.008383015 0.1088907 0.08095905 -0.027853424 -0.08340619 0.099496394 -0.066744916
-0.04481999 0.025564883 0.02518918 0.074758135 0.006393862 0.0043091383 0.12664439 -0.011383631
0.037842713 -0.00032599692 0.037631746 -0.0525005 -0.07354846 -0.034827396 -0.021882685 -0.0707391
0.07819511 0.088613816 0.088922255 -0.057809006 0.06706065 -0.11641692 0.010575177 0.06706313
0.09184192 -0.099928655 0.0686962 0.0066560446

net.6.weight f4 [100, 100]
00000000: 4395 12bd 0b7a 1abd f5f4 8ebd e4de 6d3d
00000010: 83e9 a9bd 2501 39ba 8070 7abd f503 14bd
00000020: 8211 ad3b 8d8e 873c 1ee4 babd 9c3d cb3c
00000030: 75c9 acbb 525b 8c3d 35e9 a0bc 8806 163d
00000040: a532 71bd 76ea 8ebd 2ecc bdbd 30c4 9cbd
00000050: 4577 76bd fb7d 0cbc c3bb dfbd b06c f3bc
00000060: 4bae 1abd d1dd 81bc 87e5 f13a b67b a1bd
00000070: 54f0 363c 5e43 cebc e028 923d 5039 bb3c
00000080: 9118 7fbd 69e8 3c3c 6f3a 96bc 4b10 14bd
00000090: 8701 113c 74c9 b6bd bdc7 a3bd 2ae1 22bd
000000a0: 888a f63b 5540 2c3d 67c5 9d3d 1acb 91bc
000000b0: 5d2a f4bd 042d bebd 7433 5a3d 29a0 9e3d
000000c0: 7bd0 a2bd bcef 93bd 83d3 a33d e85a 003d
000000d0: 5661 d23c d13f 3c3d 429d ea3c 2154 39bd
000000e0: 2deb 44bd 952d 6b3d 14d9 d9bc 7b34 b2bd
000000f0: 29ef 1f3b bcfe 91bd b907 babd f15d 50bc
00000100: a74e ae3b 297c 8f3d d698 f1bd 4084 b8bd
00000110: d612 903d 5c30 233d 25f5 d5bd 1d8b 243d
00000120: 3d92 2d3d 8f14 983d 74c3 83bd f8e0 913d
00000130: 893d 29bd ab91 d63d 499d b5bd 5e3e 96bd
00000140: 5280 77bd 86b6 80bd 7c5b afbb 819c 6d3d
00000150: 01d2 e53d 776e d8bc 861a 9a3d 9647 21bc
00000160: 58f8 7d3c 55ee 043c 6181 b13c d436 a93d
00000170: b4fe 0bbe 562e a1bc 64c5 8a3d d3eb db3c
00000180: 0f07 a93d 77b9 b0bd f1e0 c33d 2928 2abd
00000190: d7d7 fab8 3c7d 903d 2511 e73a a659 48bd
000001a0: 2b58 08bd 8388 973d 0437 9f3d 36e8 aa3d
000001b0: 31a4 abbd cc9f 703d 3ce9 adbd 3bb4 f03c
000001c0: c24c 053d 0cca 5c3c 611b 9f3d d4d6 22bc
000001d0: d1a3 213d abb7 8dbd 1ff7 403d c4ae bb3d
000001e0: 5189 883c 8893 bbbc d001 6abd 1b31 f4bb
000001f0: badd b53d 9ec4 0ebd 089c c4bc 8e63 913d
00000200: c899 b6bd ad70 18bd 741d ffbc 5db3 943c
00000210: 25ec 38bc 00c6 c53d 961c 9f3a ab47 923d
00000220: 006a e4ba 6363 9c3b 2bb3 debc 7637 a6bd
00000230: b665 ad3c 97b6 f039 cb05 293d 08ff 983d
00000240: 00e8 12bd 5704 c5bd b02c 663d 5231 75bd
00000250: 1abc 17bd b5ca 593d a450 983d 42c1 10bc
00000260: c889 8a3d 7a8a 4f3d 515a 8f3c 0a9b 16bc
00000270: 6eb1 c43d 017d 593d fe69 d1bc 9e41 11b9
00000280: 43a8 adbb 3011 883c 6e52 aa3d 30ff 78bd
00000290: 8274 233c 6a98 5fbd ff60 7f3d cf4e 7dbd
000002a0: d473 abbd 0c46 dcbd 4f8f f13a 6f59 0dbd
000002b0: 7c62 a9bd 126b 143c 8358 60bd c6e3 b73d
000002c0: aa9e c33d 0409 a33d 5292 693d 1538 2f3d
000002d0: e08a bebd a714 b1bc 4108 12bd 9afd 82bd
000002e0: 346b beba bd28 bb38 108b c6bc a0b4 8a3d
000002f0: 3d1f acbd 85e4 d33d 0fbc c33d 65ce 12bc
00000300: 6ac4 66bd 07b2 993d 8763 59bd 6675 5abc
00000310: 3090 963d ef3c 6a3d 7309 39ba 60e8 383c
00000320: 076b 443c 18df c9bd dce7 313d 3b0d da3b
00000330: ee5b dbba f86c 9f3d 43c6 d6bd 97ec 863d
00000340: ed50 a93d f3cf 633d 206a 823d 318a 96bd
00000350: 6d46 b53d 9b29 fb3c 35bb 843d aee8 92bd
00000360: ad6e 863d babe 6e3d fd29 8d3d 5cd3 8c3d
00000370: 21d9 20bd bb8b af3d f279 abbd 04e6 c239
00000380: 91a3 823c eec3 383d c0e0 803d 422f 753b
00000390: 81ca 8c3d 8e2c 893d f1ca b6bd 2609 ab3d
000003a0: e284 8cbc f91c a1bd a7f7 26bb d6ae e63c
000003b0: 181f 6fbd 3de6 66bb 9987 a9bd 5b25 84bd
000003c0: b207 2f3c 5b81 c1bd 58a1 033c 3f0f 40bd
000003d0: 94d4 c6bc ea58 3e3c 0af3 093d 2b98 a4bb
000003e0: d9a2 58ba 7508 633d da6d ad3c 5789 0d3c
000003f0: 588e 593c 73f0 883b da5b cf3d 05dd 09bd
-0.03578688 -0.037714045 -0.069803156 0.058073893 -0.08296492 -0.00070573605 -0.061142445 -0.036136586
0.005281628 0.016547466 -0.09125541 0.024809651 -0.005273039 0.068533555 -0.019642452 0.036627322
-0.05888619 -0.069783136 -0.0926746 -0.07654607 -0.060172338 -0.008574958 -0.109244846 -0.029714912
-0.037763875 -0.01585284 0.0018455245 -0.07884924 0.011165697 -0.025178608 0.071367025 0.022854477
-0.062279288 0.01153002 -0.01833841 -0.03614835 0.008850462 -0.08925143 -0.079970814 -0.039765514
0.0075238384 0.04205354 0.07703667 -0.017797042 -0.11922143 -0.0928593 0.053271726 0.07745392
-0.07949921 -0.0722346 0.07999327 0.031336695 0.025681179 0.045959298 0.02863944 -0.045246247
-0.048075844 0.057416517 -0.026592769 -0.08701416 0.0024404025 -0.07128665 -0.09083504 -0.01271771
0.0053194347 0.070061035 -0.11796729 -0.090096 0.07034843 0.03984104 -0.10447148 0.04017173
0.04237579 0.07425796 -0.06433764 0.071229875 -0.04131845 0.10477003 -0.088678904 -0.07336114
-0.06042511 -0.062848136 -0.005351482 0.058010582 0.11221696 -0.026419861 0.0752459 -0.009843728
0.015501104 0.008113463 0.021668138 0.08262411 -0.1367138 -0.019675415 0.067759305 0.026845848
0.082532994 -0.086291246 0.095643885 -0.041542206 -0.00011961132 0.070551366 0.0017629011 -0.04891362
-0.03328721 0.073990844 0.07774165 0.08345072 -0.083809264 0.058746144 -0.084917516 0.029382816
0.032543905 0.013475906 0.07768894 -0.009938914 0.039462868 -0.069197975 0.047110673 0.09164193
0.01666704 -0.022897497 -0.057130635 -0.007452143 0.088801816 -0.034855478 -0.024000183 0.07099067
-0.0891605 -0.03721683 -0.031141974 0.018151933 -0.01128677 0.09656906 0.0012139257 0.07142576
-0.001742661 0.00477259 -0.027185043 -0.08116047 0.021166664 0.00045912407 0.04126529 0.07470518
-0.035865784 -0.096199684 0.05619496 -0.05986149 -0.037044622 0.053171832 0.07437256 -0.008835139
0.06764561 0.05066917 0.01749912 -0.009192238 0.096041545 0.05309773 -0.025563236 -0.00013852722
-0.0052995994 0.016609758 0.083165035 -0.06079024 0.009976508 -0.054588713 0.062348362 -0.061842736
-0.08371702 -0.10755548 0.001842955 -0.03450912 -0.082707375 0.009058731 -0.05477191 0.08978991
0.09551747 0.07960704 0.057024308 0.042778093 -0.09303832 -0.021616293 -0.035652403 -0.06396027
-0.0014527799 8.924443e-05 -0.024236232 0.06772733 -0.08404396 0.10346321 0.09557354 -0.008960341
-0.05633966 0.07504659 -0.053073432 -0.013333654 0.0735172 0.057187017 -0.0007058598 0.011285871
0.011988408 -0.09857005 0.04343401 0.006654409 -0.0016735771 0.07784456 -0.10487034 0.06588095
0.082673885 0.055618238 0.06367898 -0.07350577 0.08851323 0.030659487 0.064810194 -0.071732864
0.065640785 0.05828736 0.06892774 0.06876251 -0.03926957 0.08571573 -0.083728686 0.00037173938
0.015947135 0.045108728 0.06292868 0.00374122 0.06874562 0.06697951 -0.08925427 0.08351354
-0.017153207 -0.07866854 -0.0025477202 0.02815954 -0.058379263 -0.0035232448 -0.08277816 -0.064524375
0.010682987 -0.09448501 0.008034073 -0.04688954 -0.024271287 0.011617878 0.033679046 -0.0050230226
-0.0008264012 0.055427987 0.021170545 0.008638701 0.013278566 0.0041790544 0.10124941 -0.033658046

net.6.bias f4 [100]
00000000: 1bd2 30bd 510f 213d 8094 69bd f100 fabc
00000010: 1a9d 3f3d 70de 843d c128 6ebc 53e6 eebd
00000020: 9c2f 933d c9f3 e6b9 6d44 a6bc 9398 a03d
00000030: d8ba 9cbd 6b32 14bd 990a cbbd b0b6 ac3c
00000040: 0661 a43d 3754 cbbc b241 1fbd e8d4 5f3d
00000050: 21ea 563d c463 07bd 4255 a83c 3dba 80bc
00000060: e02a b33d 9f63 cbbd 39d2 9b3d b556 0abd
00000070: e390 bb3d bb3c 6cbc d271 d23d c9fd cf3d
00000080: e847 93bc b3f6 73bc 1db0 9b3c 8d68 7a3d
00000090: f7ec bcbc bd72 c43c 8934 e7bc bda1 863d
000000a0: f33a 873d a11a cc3d 57a3 8fbc 1d6a a6bc
000000b0: 22e8 4ebd 13b1 82bd 9705 8f3d 9a35 83bc
000000c0: 7c6e 38bd 9ff7 f4bc 900a dbba 4261 b63c
000000d0: 9263 493c 6867 0bbd 7bf6 513c 3006 063b
000000e0: 49b1 1bbd db81 0cbd 3bd0 b9bc 8ab9 68bd
000000f0: f4f4 9dbc 254e 943d 73ff 0a3d 700d 56bc
00000100: 2492 f5bd d48e 373d a584 833c 9bc0 2f3d
00000110: d69c 94bc 8782 503c d98c 26bd b522 bfbd
00000120: fba3 01bd dce9 233d 21d2 53bd 4923 bfbc
00000130: 0c8f 47bc 0209 f2bc b835 c73c fbd4 31bc
00000140: da2d efbc 43c5 9b3d f39c 743d 451f 293d
00000150: 2527 09bd d410 a0bd 7167 c43b e677 79bc
00000160: 20c4 913d a217 733d 1e3b a13c 3076 c43d
00000170: 85a2 bf3c a4f3 903d 45ae 593c 082e 603d
00000180: 3599 b5bd d776 603d caa7 b83d d63c 44bd
-0.043169122 0.039321247 -0.057026386 -0.030518027 0.046780683 0.06487739 -0.014536084 -0.116650246
0.07186815 -0.00044050653 -0.0202963 0.07841601 -0.07652825 -0.036180895 -0.09914131 0.021083206
0.08026318 -0.02482043 -0.03888101 0.054646403 0.052469376 -0.03305413 0.020548467 -0.015713805
0.08748412 -0.099311106 0.07608456 -0.033774097 0.09158494 -0.014418776 0.10275616 0.101558276
-0.017978624 -0.014890361 0.019004876 0.061134864 -0.023062212 0.023980493 -0.028223293 0.06573818
0.066030405 0.099660166 -0.017533941 -0.02031427 -0.050514348 -0.063814305 0.06983488 -0.01601677
-0.04502724 -0.029903231 -0.0016711522 0.022263173 0.012291806 -0.034034163 0.012815113 0.0020450465
-0.03801087 -0.034303527 -0.0226823 -0.05681757 -0.019281842 0.072414674 0.03393502 -0.013064727
-0.11990765 0.044813946 0.01605446 0.042908292 -0.018141191 0.012726433 -0.040661667 -0.09332792
-0.031650525 0.040017948 -0.051714066 -0.023332255 -0.012180101 -0.02954531 0.024317607 -0.010854001
-0.029196668 0.07605984 0.05971999 0.041289587 -0.033484597 -0.0781571 0.0059937765 -0.01522634
0.07117486 0.05934871 0.01968151 0.09592855 0.023392925 0.07077721 0.013286178 0.0547314
-0.088671125 0.054800835 0.09016378 -0.04790958

net.8.weight f4 [100, 100]
00000000: a1d7 3ebc 0f10 edbc 8ebb b8bd 07cf 5bbd
00000010: 006e 9ebc dabb 81bd 32dd 913d e5eb 16bd
00000020: 101d 873d f3a2 e6bd 2965 8dbd 2014 8ebd
00000030: bfa7 a03d eca9 c7bc 8cfe 863d 6c02 da3b
00000040: 9006 65bd 92c1 8f3c 843a 57bd 23c8 afbb
00000050: 52b4 94bd f243 aa3d 96da 91bc 0ffd 103c
00000060: 3871 79bd 0a07 bebd c60f 8f3d e1a9 0b3c
00000070: a13e f53c 7973 663c bd4a 94bd 55fe 39bd
00000080: 17d2 4d3d eebf a73d ded2 10bb 6fe7 edbd
00000090: fa09 afbc bf8f a73d 68bf 63bc c089 d33d
000000a0: 1f28 2fbd 9ef3 cb3d 36b6 0bbd 62ee 973d
000000b0: 1308 33bd 4744 a33d 5a51 483d e202 86bd
000000c0: b81e 403d 2711 2abd 50b8 8fbc 57b5 db3c
000000d0: 9ac5 393d 969f ba3d c539 9a3d d41f a93b
000000e0: e682 3f3d 0cf7 8abd ebb6 853c 663e 48bb
000000f0: 7004 65ba e03f ae3d d3e5 643d 39a5 afbd
00000100: 326d 24bd bd50 b13a 11d5 79bd e9c4 4b3d
00000110: 252d b73d 333c 3d3c 4803 8d3d c504 1ebd
00000120: 5f06 e9bc 4eac 6f3d b448 88bd 5182 54bd
00000130: bc14 8e3d f13a eebc 1b32 4d3d b881 103d
00000140: 7ea4 b03d 3f1d a8bd c3f7 cc3c b973 78bd
00000150: 2a2f 94bd 3580 55bc 9728 90bc 842d 81bc
00000160: 5c74 83bc 35d2 e23b 12c5 513c a9a5 1b3d
00000170: 43c0 87bc 31b8 80bd 9b22 f8bd dd95 633d
00000180: be04 1bbd 16fa 833d 2ba6 b53d 4703 353d
00000190: 5803 8ebb 2ef5 283c 67be f1bb f3a0 9b3d
000001a0: 695d d7bd 7096 893c 8610 b9bd d2e3 483d
000001b0: a984 64bd 0909 24bd 5121 bebd 9124 b53d
000001c0: bb73 0b3c c988 d83b b609 cb3d c962 c6bd
000001d0: b41c 483d 437b 943a 3100 6abb 7764 8abc
000001e0: 1daf 1c3d ef28 25bd 2f85 58bd bfa6 49bd
000001f0: 832e be3d 8d89 b9bd dcf0 823c 7ded 4f3d
00000200: 9d00 053d 4d2f 85bd 9b3a 993a 7cee b5bc
00000210: 1e10 ca3c bc50 453d 282c ff3c a5e6 523d
00000220: e298 afbd dcc7 cd3c 4b85 3a3d 78ca 663d
00000230: 7bed 4d3a 166b 87bd 2929 4f3d 4f24 063d
00000240: 1022 283d 70e2 d4bd 0df1 f5bb f4ee 3dbd
00000250: e66f 7abd f530 153d fb47 d7bb 79c3 8a3d
00000260: e4c9 82bd 3bea 8fbc b879 093d a72d 0d3d
00000270: 49e2 e2bc 0321 9c3d 7624 ae3c 397a e4bd
00000280: 5f1a 8ebd 4c9d 383d b701 d13d 2be6 21bc
00000290: 74d6 8c39 8036 3b3c d166 c3bd c713 25bd
000002a0: 651e 953d bbbb c53d 1389 a63d e737 353d
000002b0: e174 eabb 0ddf 913d eaac c03d 0552 113c
000002c0: 0e02 75bd e146 b4bc 03ab 893d 6895 0d3d
000002d0: 0b4c ae3d c8b9 97bd 984b dbbd 9bcc b43d
000002e0: 193f 0abd b623 bb3c e31e dcbd 6dca 833d
000002f0: ebcb a03d c25b 993d 1969 8f3d 23c5 5ebd
00000300: 5246 9b3d 52c6 5e3c f1c1 d33c 6770 39bd
00000310: 4bba 03bd 2e2d a7bd 2757 933d 7248 6f3d
00000320: 4c42 c33b 6eee 053d 43bc 9c3d b20f 6ebd
00000330: 8111 dcbd ee00 a03d d679 923c d55c 9e3d
00000340: 5fb7 b5bd 9977 8ebb 4155 2cbc 09bf 5fbd
00000350: 8177 1c3d 3510 da3c ca73 99bd 3879 cb3d
00000360: 350a 3cbb 4cd3 1c3d c227 74ba 228b 153d
00000370: 4ec7 c6bd cb8f d5bc fb65 b7bd 475e 4ebd
00000380: 6933 5f3c 924c 03bd d288 fb3b 63f2 b0bd
00000390: da5d a33c e105 8dbd 0cf6 bdbc a02e b4bd
000003a0: 35c9 bebc bb59 9c3d 1338 95bd 1680 c73d
000003b0: a35b 803d 246a 87bd 8416 1cbd bb8b b73c
000003c0: 12c5 67bd 3b10 a3bd fdfd 9ebd d7cc a2bd
000003d0: 0b85 f1bc 8155 18bc a35e 683d 9f9c 483d
000003e0: 5db2 9f3d 2644 a8bd 4869 a1bd d4d3 1abd
000003f0: 83f1 373d 3f77 af3c 55a0 14bd 1a79 ca3c
-0.01164809 -0.028938321 -0.09020148 -0.053664234 -0.019339561 -0.06334658 0.07122268 -0.03684606
0.0659734 -0.11261549 -0.069040604 -0.06937432 0.07844495 -0.024373017 0.0659152 0.0066531207
-0.05591446 0.017548356 -0.05254604 -0.0053644343 -0.07260956 0.08313741 -0.017804425 0.008849396
-0.06089899 -0.09278686 0.069854304 0.008524389 0.02993709 0.014065617 -0.07240818 -0.045408566
0.050249185 0.081909046 -0.0022098343 -0.11616408 -0.021367062 0.08181714 -0.013900615 0.10329008
-0.04276287 0.09958576 -0.034109317 0.07418515 -0.043708872 0.07972007 0.048905708 -0.065435186
0.046904296 -0.041520264 -0.017543942 0.026819868 0.045354463 0.0911247 0.0753055 0.005161265
0.046755694 -0.06785402 0.016322574 -0.003055477 -0.0008736318 0.08508277 0.05588324 -0.085764356
-0.0401432 0.001352809 -0.06099421 0.049748335 0.089441575 0.011549997 0.068853915 -0.038578767
-0.02844542 0.058513932 -0.06654492 -0.051882092 0.069375485 -0.02908084 0.050096612 0.03527996
0.086251244 -0.08208703 0.025020486 -0.060657237 -0.07235558 -0.013031055 -0.01759748 -0.015768774
-0.016046695 0.0069220313 0.012803333 0.037999783 -0.01657117 -0.06285132 -0.121159755 0.055562843
-0.03784632 0.064441845 0.08869585 0.04419258 -0.0043338947 0.010312362 -0.007377434 0.07599058
-0.105158634 0.016795367 -0.09036355 0.04904539 -0.055790577 -0.04004768 -0.09283698 0.08844865
0.008511479 0.006608103 0.099139616 -0.096868105 0.0488555 0.0011328239 -0.003570568 -0.016893608
0.03825294 -0.04032224 -0.05286139 -0.049231287 0.09286215 -0.09059439 0.015983991 0.050763596
0.032471288 -0.065031625 0.001169044 -0.022208445 0.024665888 0.048172697 0.031148985 0.05148949
-0.08574082 0.025119714 0.045537274 0.056345433 0.0007855517 -0.06612222 0.050576363 0.03274947
0.04104811 -0.10394752 -0.007505542 -0.04637046 -0.06114187 0.036423642 -0.00656986 0.06775565
-0.06386164 -0.017567744 0.033563346 0.034467366 -0.027695792 0.07623484 0.02125762 -0.111561246
-0.06938624 0.045071885 0.10205405 -0.0098815365 0.0002686266 0.011426568 -0.09541095 -0.040302064
0.07281188 0.09654947 0.081316136 0.044242766 -0.0071550463 0.07122622 0.09407981 0.008869653
-0.059816413 -0.022006454 0.06722071 0.034566313 0.08510598 -0.07408482 -0.10707778 0.08828088
-0.03375158 0.022844177 -0.10748079 0.06435094 0.07851394 0.074882045 0.07002468 -0.054387223
0.07581772 0.013597088 0.025849314 -0.04527321 -0.032160085 -0.08162914 0.07194357 0.0584187
0.005958831 0.032698087 0.076530956 -0.058120437 -0.10745526 0.07812677 0.017880362 0.0773255
-0.08872866 -0.0043477532 -0.010518373 -0.054625545 0.038199905 0.026619056 -0.07492788 0.0993523
-0.0028692607 0.038287446 -0.00093137857 0.03650964 -0.09705983 -0.026069542 -0.08954998 -0.05038288
0.013623097 -0.032055445 0.0076762224 -0.086399816 0.019942213 -0.06885887 -0.023188613 -0.087979555
-0.023289302 0.07634302 -0.07286086 0.09741227 0.06267478 -0.066120416 -0.03810741 0.022405496
-0.056584425 -0.0796208 -0.07763288 -0.07949226 -0.029482385 -0.0092977295 0.056730878 0.04897749
0.07797692 -0.08216123 -0.07881409 -0.03779967 0.044908058 0.021419166 -0.036285717 0.024715949

net.8.bias f4 [100]
00000000: bcf7 503d 285c d73c 1df3 adbb b996 983d
00000010: 904e ae3b 8231 e5bc e864 813c 45df 0bbd
00000020: b4e0 0e3d d202 d7bc 45b7 44bd b185 16bd
00000030: 85f3 cfbb 0118 473d c1ed 03bc 1664 6fbc
00000040: 6804 84bc ae48 2ebd 6ebd 8a3d e187 1e3d
00000050: 970a 19bc 27d4 aa3d 1a98 543d 3943 d63c
00000060: 434b 583d 93a4 813c 1ef0 233d 3f65 423d
00000070: c117 73bc 4fbd 9bba 497f 29bd f29f c5bd
00000080: 36a4 163d e54a 5e3c d75a eebc ed0d 4a3d
00000090: b9de bb3c b113 df3c 80d6 11bd a4d4 27bd
000000a0: da15 e53d 0207 95bc bbc6 3b3d ae8a 673d
000000b0: a127 15bd 08fb a5bd 0071 053d 8a6b 24bd
000000c0: c992 073c 065f 7b3b ea94 343c 6f8c 9abd
000000d0: d29f 40bc b7fe 053d e1ea 6bbd 948f 3dbd
000000e0: be9b 83bd 7081 a03c 1963 143d 96d1 89bd
000000f0: dfa8 93bd cbb2 623d e0ba a9bd 5961 b6bc
00000100: 7842 9a3c bd16 f1bb 8a4c c73b 6829 b5bd
00000110: 4c0f ca3d c32f 35bd 44f2 a1bc b536 0cbd
00000120: 687f 3fbd bee6 1fbd 7bc4 283d f361 f2bc
00000130: f1d2 64bd dac4 a4bb 68b7 41bd 5e1e bfba
00000140: 3173 7b3d 36fd 853d da18 943d f390 47bc
00000150: c521 1c3d 8d4a 3a3d 21a2 6dbd fc56 14bd
00000160: d7f8 bd3c 7219 ac3d e635 60bd 30f2 ac3d
00000170: 7cfc 4c3d ace6 263c 99c0 60bc 833e 823c
00000180: f734 3e3d 426c b9ba 6dc9 8fba 15e7 ac3d
0.051017508 0.02628906 -0.0053085224 0.07450623 0.005319424 -0.027977709 0.015795186 -0.034148473
0.034882262 -0.026246462 -0.048026342 -0.03674859 -0.0063461685 0.048606876 -0.00805229 -0.014611265
-0.016115382 -0.04254978 0.06774412 0.038703803 -0.009340904 0.08341246 0.051902868 0.026155101
0.05280615 0.015825545 0.040023915 0.047459837 -0.014837206 -0.001188198 -0.041381154 -0.09649648
0.036777698 0.013567661 -0.02909605 0.049329687 0.02293335 0.02723107 -0.035604954 -0.040974274
0.111858085 -0.018191818 0.04584382 0.05652874 -0.036414746 -0.08104521 0.03257847 -0.04014162
0.008274742 0.00383562 0.011021832 -0.07546317 -0.011756854 0.032713618 -0.057597045 -0.046279505
-0.0642619 0.01959297 0.03622732 -0.067294285 -0.07209944 0.05534629 -0.08287597 -0.022263216
0.018830523 -0.007357447 0.006082122 -0.08845788 0.09866199 -0.044235002 -0.019768842 -0.03423186
-0.046752363 -0.039038412 0.041203003 -0.029587721 -0.055865232 -0.0050283493 -0.04729405 -0.0014581194
0.061389152 0.06542437 0.072313026 -0.012180555 0.038118143 0.045481253 -0.058015946 -0.036215767
0.023189945 0.08403291 -0.0547389 0.08444631 0.050045475 0.010186832 -0.013717794 0.015898949
0.04643723 -0.0014146643 -0.0010970064 0.08442513

net.10.weight f4 [100, 100]
00000000: e6ec ab3b 95d5 6abd a6d6 123d ce10 95bd
00000010: a4c3 cbbd f547 84bd 6f0f b1bd 29ae 34bd
00000020: 424c 3fbb 2207 553c 3797 e4bc 1daf 613d
00000030: 7eac 6bbd 5c37 debc c8e3 cdbc 3e4c 593d
00000040: 8790 d53b 58ba b03b 1aed 2a3d f90b 313d
00000050: 525d b0bd d1b2 10bd 2534 c23d c980 24bd
00000060: 809c 423d 4121 2fbd 40fa d5bb 7c81 87bb
00000070: 525e b4bd cf99 333d 8810 1dbd 42b3 163d
00000080: b6f4 b0bd 47ae 16bc 52b0 063d 6588 ca3c
00000090: f768 22bd 8f62 5e3d c06c 8c3d d45b debc
000000a0: 0dfb a93d 4aef 443d ba07 9a3d 404c a4bd
000000b0: 4e56 62bd 9ae6 df3d 6a9c 46bd 14a1 cebc
000000c0: b883 8dbd a07f b8bd c7bf 703d 506e 96bc
000000d0: ff4f 153d 9af1 ca3d 3238 9dbd edd5 14bd
000000e0: 5a05 143c 0f31 11bd 7729 2dbd 1f26 1e3d
000000f0: d774 4c39 3bdb c3bb 72ae ce3c c5d9 b0bd
00000100: c79b aebd ef37 8e3c 554c 2ebd 635e 65bd
00000110: 544f b2bd 2f91 d8bd 6ee1 b9bd d7cd 5d3d
00000120: 50c3 613c fbb8 a4bd 63a6 8cbd 9272 5fbd
00000130: 02cd 21b9 8374 1c3d 2402 673d 89a0 87bc
00000140: 6d21 d7ba 76ab b3bd 33f4 3d3b 6c45 263d
00000150: 5c35 7abd ebf5 56bc 99b6 6dbd 4240 f8bc
00000160: ff91 26bd 9252 93bd ec97 3abd a379 ca3b
00000170: afcf c2bd 3212 2b3d 6f9f b53d e6c0 2cbd
00000180: 998e 033d 21b5 13bc 6aa3 173d ad39 7d3d
00000190: 61f5 a0bd 4849 1bbd 85d3 a1bd 5082 0a3d
000001a0: 0eee c6bd ab2f a53d becb 7abd e1e1 9cbd
000001b0: f456 6abc 8bcf ea3b d010 08bd d65b c83d
000001c0: c32e 9ebd 8e9e 4e3d 77c2 8b3b 02a9 9cbd
000001d0: b54b edbc 8318 363b 88cb 91bd 07f9 ce3d
000001e0: d7dd e2bc c4c2 a93d fe81 9e3a a527 a23c
000001f0: d75a df3b e6b4 7bbd 8227 b33c 69bd 7cbc
00000200: ed76 bdbd ebec 443c dc95 583d 3ba4 bd3d
00000210: e037 623c 7463 9fbd 9f56 ca3c dcba c1bd
00000220: 89b0 0abc 7f00 d93d 5f92 683c 1029 803b
00000230: 0703 1abd ab96 89bc c7ef 81bd 9ec8 94bd
00000240: 3679 ab3d 78b4 8bbd a32a 223c e2bd 9ebb
00000250: 4c60 3bbd dc60 debc 02d1 3dbd bfc1 d23d
00000260: 9a1b 013d e820 84bd 3eaa c5bd 1e1f 223d
00000270: 621b a13d 8872 31bd a912 cf3c 70b9 8fbd
00000280: 7f6c 3e3d 7bba a73d 0846 5ebd 899d 113c
00000290: 3c2c d8bc 9d33 04bd ca97 923c eb0c 243b
000002a0: 6021 80bc ec48 d83d b469 abbd 71a0 273b
000002b0: 4f92 b73d 03db 7abd 7c42 5bbd 828f c3bd
000002c0: 8ad7 7b3b f16b 48bd bc90 d83d 87d9 653d
000002d0: bc84 653d a8b4 f6bb 62ca 313d 0423 9d3d
000002e0: daf7 613c dbed 50bd 5f35 89bd f908 21bd
000002f0: 3ed5 bf3c a6f9 9fbd 4419 123d c306 c2bd
00000300: a20b ab3d a5a4 4a3d 370f 0fbd ea2b 783d
00000310: b3d5 db3c 7d90 adbd 6385 153d 5cd1 be3c
00000320: 2728 83bd 15db 63bc 9972 6dbd 183e a03d
00000330: ee15 1dbd beaf d2bc 801c 0cbd 36a6 bebc
00000340: d084 eb3c 351b 263d 75b4 b03d fd1e 8c3d
00000350: 292b edbc cf09 903d a48c 13bd 649b d83c
00000360: 2f8b aabd 2939 94bc f197 b3bd b200 61bd
00000370: c05f 62bd a976 973d ca60 913d debe 65bc
00000380: 7c41 35bd 99d1 8abb 0067 9cbd 26d3 e03c
00000390: 8402 3a3c 4bac de3b 0769 393c 7921 8ebd
000003a0: 22bc 83bd ba15 d33b 2415 b23d 92f5 c03d
000003b0: 9fa2 bb3d 7bce 87bd dcb6 06bd efb3 aebd
000003c0: 7d30 d53d ec97 c63d 85f1 a1bd c34e b53d
000003d0: d969 cbbd c5a6 a83d 5e22 1abd b5ae f33b
000003e0: 3405 d6bd 5ff2 debd 1111 21bd 6ac8 7e3d
000003f0: 78e9 c03d 6a3b 71bd 0850 a23d 4e08 af3d
0.0052467464 -0.057332594 0.035849236 -0.07278596 -0.09949425 -0.06459037 -0.08645522 -0.044111405
-0.002918974 0.013002189 -0.027904136 0.05509864 -0.05753755 -0.027126007 -0.025133029 0.053051226
0.006517473 0.0053933077 0.041730024 0.04322431 -0.086115494 -0.035326783 0.09482602 -0.04016188
0.04751253 -0.042756323 -0.0065300763 -0.004135309 -0.08807053 0.043847855 -0.038345844 0.036792047
-0.08640425 -0.009196824 0.032882996 0.024723241 -0.039650884 0.05429321 0.0685668 -0.027143396
0.08299837 0.048079766 0.07521005 -0.08022356 -0.055258088 0.10932656 -0.04848901 -0.025223292
-0.06909889 -0.090087175 0.058776643 -0.018363148 0.036453243 0.09909363 -0.07676734 -0.036336828
0.009034479 -0.035447177 -0.042275872 0.038610574 0.00019498482 -0.005977062 0.025229666 -0.08635286
-0.08525806 0.017360656 -0.042553265 -0.055998217 -0.08706537 -0.105745666 -0.090762004 0.054151382
0.013779476 -0.08043095 -0.06867673 -0.054552622 -0.00015430528 0.03819705 0.056398526 -0.016556041
-0.001641316 -0.08772938 0.0028984665 0.04059355 -0.061086044 -0.013120155 -0.058035467 -0.030304078
-0.040666576 -0.071934834 -0.04555504 0.006179051 -0.09512269 0.0417654 0.088683 -0.04217615
0.032118414 -0.009015352 0.03702108 0.061822582 -0.07859302 -0.037911683 -0.07901672 0.033815682
-0.09713374 0.080657326 -0.06122946 -0.076602705 -0.014302958 0.0071658543 -0.03321916 0.09783141
-0.07723763 0.05044418 0.0042651254 -0.07649423 -0.028966764 0.0027785606 -0.07118899 0.10106092
-0.027693672 0.08289102 0.0012093184 0.019794295 0.006816249 -0.061451815 0.021869425 -0.015426018
-0.09251199 0.012019376 0.052877292 0.0925984 0.013807267 -0.07782641 0.024699507 -0.09459469
-0.008464941 0.10595798 0.014195054 0.003911145 -0.037600543 -0.016795477 -0.06344562 -0.07264827
0.083727285 -0.06821531 0.009897861 -0.004844413 -0.045746133 -0.027145796 -0.046341904 0.102908604
0.031520464 -0.06451589 -0.09651612 0.039580457 0.07866551 -0.043322116 0.025277453 -0.07017791
0.04649019 0.08189865 -0.054266006 0.008887657 -0.02638828 -0.032275785 0.017894644 0.0025032114
-0.015640914 0.10560784 -0.08369771 0.0025577808 0.08963453 -0.061244022 -0.0535302 -0.09548856
0.0038428032 -0.048931066 0.10574481 0.056115653 0.05603479 -0.00752886 0.043405898 0.07672694
0.013792003 -0.051008087 -0.06699633 -0.039315198 0.023417111 -0.078112885 0.035668626 -0.09473946
0.08351828 0.049473424 -0.03492662 0.060588755 0.026835298 -0.084748246 0.03650416 0.02329319
-0.06404143 -0.013907214 -0.057970617 0.078243434 -0.038350992 -0.025718566 -0.034206867 -0.023272615
0.028749853 0.04055329 0.086281694 0.06841848 -0.028951244 0.07033121 -0.036022797 0.026441284
-0.083273284 -0.018093662 -0.08769215 -0.054932304 -0.055267096 0.073956795 0.07098539 -0.014022557
-0.044251904 -0.004236412 -0.07636833 0.027444433 0.011353139 0.0067954413 0.011316544 -0.06939978
-0.06432368 0.006441799 0.086954385 0.09421839 0.09161877 -0.0663118 -0.032889232 -0.08530413
0.10409639 0.096969455 -0.07907394 0.08852913 -0.09932298 0.08234934 -0.03763043 0.007436598
-0.10450211 -0.10886072 -0.039322916 0.06220285 0.09419531 -0.058894552 0.07925421 0.08546506
