models/heatalpha/lambdas/heatalpha_46.pth (torch, 977303 bytes, 51 tensors)

net.0.weight f4 [100, 3]
0	0x3ec96f40	0.3934269
1	0x3e861126	0.26184958
2	0x3f0ab8d6	0.5418829
3	0xbef4b6f0	-0.4779582
4	0xbd251007	-0.040298488
5	0xbdeec453	-0.116585396
6	0x3e254331	0.16138913
7	0x3e8a5737	0.27019665
8	0x3d8a1c27	0.06743651
9	0x3f04eee3	0.5192701
10	0xbf11aa85	-0.5690082
11	0xbe6e6705	-0.23281486
12	0x3eb85f24	0.36010087
13	0xbf33efb8	-0.70287657
14	0xbef4b784	-0.4779626
15	0x3f0694b5	0.5257066
16	0x3e5d10a3	0.21588378
17	0x3e27ef77	0.16399942
18	0x3e8a4fcc	0.27014005
19	0x3e91bb99	0.28463438
20	0x3d3f92ce	0.046770863
21	0xbe84365b	-0.2582272
22	0xbe3bf976	-0.1835688
23	0xbae47f99	-0.0017433047
24	0x3e9fa72f	0.31182238
25	0xbe772bf5	-0.24137862
26	0xbeacd00b	-0.33752474
27	0x3dc4c6d1	0.09608234
28	0x3f67af4a	0.90501845
29	0xbe5048c2	-0.20340255
30	0xbe7a7d7b	-0.2446193
31	0xbf218b6a	-0.63103354
32	0x3eabd0e1	0.335578
33	0xbeae8fb3	-0.3409401
34	0xbf4e523c	-0.8059423
35	0xbe1aac2f	-0.15104745
36	0x3cf946c3	0.03042925
37	0x3f667777	0.9002604
38	0xbecf227b	-0.40455994
39	0x3caa331b	0.020776322
40	0x3ef8bc64	0.4858123
41	0x3f017e44	0.5058329
42	0x3ea0a9c8	0.31379533
43	0x3f5a7dc9	0.8534818
44	0xbef21e69	-0.47288826
45	0x3ed7c83e	0.4214496
46	0xbf3bb42f	-0.73321813
47	0xbed46946	-0.41486567
48	0x3f05323a	0.52029765
49	0x3dc6860c	0.09693536
50	0xbc5ee087	-0.013603336
51	0x3ea0ee5d	0.31431857
52	0xbf977d0e	-1.1835039
53	0x3ea7e31a	0.32790452
54	0x3ecaf35f	0.39638802
55	0x3e064067	0.13110505
56	0x3f165306	0.58720434
57	0xbf02d05f	-0.510992
58	0x3f9e037a	1.2344811
59	0x3ec6d40b	0.3883365
60	0xbd560298	-0.052248567
61	0x3d9abe24	0.07555798
62	0x3e8c47e0	0.27398586
63	0x3e895754	0.2682444
64	0xbf24daf7	-0.64396614
65	0x3d6dc49f	0.05804884
66	0x3da44c47	0.08022361
67	0x3f818970	1.0120068
68	0xbd199755	-0.037497837
69	0x3e705f70	0.23473907
70	0x401a6a67	2.4127443
71	0xbef14560	-0.4712324
72	0xbef373a6	-0.4754917
73	0x3f71f2bd	0.94511014
74	0x3ccf587f	0.025310753
75	0xba9df21a	-0.0012050301
76	0xbe3b5bff	-0.18296812
77	0x3e54d69f	0.20784996
78	0x3e935ded	0.28782597
79	0x3f9898d7	1.1921643
80	0xbf16b7a0	-0.5887394
81	0x3da838e5	0.08213977
82	0xbfa46737	-1.2843999
83	0xbe770df7	-0.24126421
84	0xbe7682cf	-0.24073337
85	0xbeb72b80	-0.35775375
86	0xbe56b9b6	-0.2096928
87	0x3f0bf820	0.54675484
88	0xbec2c926	-0.3804409
89	0xbf04042f	-0.51568884
90	0xbf145fc2	-0.57958615
91	0xbe24b4e2	-0.16084626
92	0xbe9c09e9	-0.3047631
93	0x3dd1a6f6	0.102369234
94	0xbf61e922	-0.8824636
95	0xbe857b81	-0.26070789
96	0x3e593c13	0.21214323
97	0x3e8e824f	0.27833793
98	0xbe3ad1d8	-0.18244112
99	0xbcc76c8d	-0.024343753
100	0xbfffbdbc	-1.9979777
101	0x3d2b50ab	0.041824978
102	0xbeeab42f	-0.45840594
103	0x3ed3f0eb	0.41394743
104	0xbe34c45c	-0.1765303
105	0x3e719692	0.23592594
106	0x3da3c091	0.079957135
107	0xbd847db9	-0.06469292
108	0xbeeac53e	-0.4585361
109	0x3e1a04ed	0.15040942
110	0xbcc2e06b	-0.023788651
111	0xbf152891	-0.58265024
112	0xb912cabe	-0.00013999172
113	0x3e9a5ab1	0.30147317
114	0x3e183511	0.14863993
115	0xbf18a944	-0.5963328
116	0xbea3b67f	-0.3197517
117	0x3f0ad9eb	0.54238766
118	0x3f82cc96	1.0218685
119	0xbc259b42	-0.010107817
120	0xbe818e5f	-0.25303933
121	0x3fd3a044	1.6533284
122	0xbdf33cf3	-0.118768595
123	0x3ed0f0fb	0.40808854
124	0x3fd73904	1.6814275
125	0x3eb08386	0.34475344
126	0xbf11dc93	-0.56977195
127	0x3f5e66d3	0.8687565
128	0x3d5e007b	0.054199677
129	0x3eb6e495	0.3572127
130	0xbf97a45c	-1.1847034
131	0x3ec60ab7	0.3868005
132	0x3e0d72d7	0.13813339
133	0xbde0763c	-0.109600514
134	0x3eecc4f2	0.46244007
135	0xbe0cc00f	-0.1374514
136	0xbe2d6f34	-0.16936952
137	0x3ef9b0a9	0.48767594
138	0xbf0928ef	-0.53578085
139	0x3ce74b9b	0.028234294
140	0x3d94cda9	0.07265789
141	0x3dcaba5d	0.09898827
142	0xbd8af0d0	-0.067842126
143	0x3ecea153	0.40357456
144	0x3f044487	0.51667064
145	0x3ecb16ff	0.39665982
146	0x3ecc7440	0.39932442
147	0xbf05f0d9	-0.5232063
148	0xbf59ba6e	-0.85050094
149	0x3efecda0	0.49766254
150	0x3f03f60b	0.51547307
151	0xbe8ebd22	-0.27878672
152	0x3ee0bfcc	0.4389633
153	0xbea7637c	-0.32693088
154	0xbe9460cb	-0.28980097
155	0xbf01d1ab	-0.5071055
156	0xbdfa0d51	-0.12209571
157	0x3f07de69	0.53073746
158	0x3c07abc8	0.008280702
159	0xbe766303	-0.24061207
160	0x3e95814f	0.29200217
161	0x3e6b3807	0.22970591
162	0xbccf2529	-0.025286274
163	0x3ee8cafe	0.4546737
164	0xbea9f5b4	-0.3319527
165	0xbe15fc2a	-0.14646974
166	0x3e0e2a99	0.13883437
167	0xbe58c45a	-0.21168652
168	0xbe8c6a8c	-0.2742504
169	0x3e7f69a7	0.24942647
170	0x3e9ee31b	0.31032643
171	0x3f0b7c68	0.54486704
172	0xbf1bab6d	-0.6080845
173	0x3e3516b3	0.1768444
174	0xbf1de13d	-0.6167181
175	0xbf289e30	-0.65866375
176	0xbcf72aab	-0.030171713
177	0xbf09dd66	-0.5385345
178	0x3ff4ca11	1.9124166
179	0x3e2f5090	0.17120576
180	0xbee3171b	-0.44353566
181	0xbe9f7a00	-0.31147766
182	0xbd7a335b	-0.061084133
183	0xbf064962	-0.52455723
184	0xbec6cd22	-0.3882838
185	0x3d45e286	0.048311733
186	0xbed15e0b	-0.40892062
187	0x3d8bf6c2	0.06834175
188	0xbdc812e2	-0.097692266
189	0x3d499074	0.049210027
190	0x3e5441d6	0.2072824
191	0xbe417773	-0.18893223
192	0x3e5a44cc	0.21315306
193	0xbf82d4ef	-1.0221232
194	0xbea100a1	-0.31445792
195	0x3e010b6f	0.12602018
196	0xbd9bef26	-0.07613973
197	0x3e712320	0.23548555
198	0xbe66b080	-0.22528267
199	0x3fa9e479	1.3272849
200	0x3f06fb39	0.52727085
201	0x3c099ec5	0.00839967
202	0xbe77fb50	-0.24216962
203	0x3cfbbdd4	0.030730166
204	0x3f04abf4	0.5182488
205	0x3e965188	0.29359078
206	0xbd4ecc04	-0.050487533
207	0x3ee3571a	0.4440239
208	0x3f8d8d37	1.105872
209	0x3e8529bf	0.26008412
210	0x3e628925	0.22122629
211	0xbe61802e	-0.22021553
212	0xbe1d3418	-0.15351903
213	0xbe1cdaca	-0.15317836
214	0xbf69b790	-0.9129572
215	0xbdb57527	-0.08860236
216	0x3ce3aef3	0.027793383
217	0x3e401063	0.18756251
218	0xbeba2102	-0.36353308
219	0xbf0daf00	-0.55345154
220	0xbfa718c4	-1.3054433
221	0xbe3a885d	-0.18216081
222	0xbe8e086c	-0.277408
223	0x3e63b839	0.22238244
224	0x3e187515	0.14888413
225	0x3f1d1ac3	0.6136896
226	0x3f5a1aa5	0.85196906
227	0x3ecf220a	0.40455657
228	0x3d991a36	0.074757025
229	0x3d3b6672	0.045751996
230	0x3f159d8c	0.5844352
231	0xbef6b885	-0.48187652
232	0xbf19ad95	-0.6003049
233	0xbecd8a59	-0.40144613
234	0x3f0570f6	0.5212549
235	0x3ed3c8c9	0.41364124
236	0x3ee076d2	0.43840653
237	0x3e7d97bd	0.24764915
238	0x3f2e7c6c	0.681586
239	0x3d4591fc	0.048234925
240	0x3ea0091c	0.3125695
241	0x3da14371	0.078741916
242	0xbd8705bc	-0.065928906
243	0x3e979d47	0.2961218
244	0xbdc97d24	-0.09838322
245	0xbd03a8ba	-0.032143332
246	0x3eea8e4c	0.4581169
247	0xbd2a24db	-0.041539054
248	0x3e7c5218	0.24640691
249	0xbf195614	-0.5989697
250	0x3e3061f8	0.17224872
251	0x3de4355d	0.11142991
252	0xbea47d01	-0.3212662
253	0xbf3b12bd	-0.7307547
254	0xbe99996b	-0.2999986
255	0xbea0964f	-0.31364676

net.0.bias f4 [100]
0	0x3c747373	0.014920103
1	0x3ed06438	0.4070146
2	0xbed629cb	-0.4182876
3	0xbdcf9610	-0.10136044
4	0xbeb99378	-0.36245322
5	0xbeeba98a	-0.46027786
6	0xbe817bbd	-0.25289717
7	0x3f096617	0.536714
8	0xbee8a69e	-0.4543962
9	0x3f0a113d	0.53932554
10	0xbdd20e7e	-0.102566704
11	0xbf282c3f	-0.65692514
12	0xbc68bbe9	-0.0142049575
13	0x3e80f133	0.2518402
14	0x3eaacafa	0.33357984
15	0x3ea871ff	0.32899472
16	0x3ebca8b9	0.36847475
17	0x3e1fb236	0.15595326
18	0xbe82d61d	-0.2555398
19	0xbd5192f3	-0.051165532
20	0x3f134380	0.5752487
21	0x3d457151	0.04820377
22	0x3dd7b945	0.10533384
23	0x3e36a30c	0.17835635
24	0xbe423362	-0.18964913
25	0xbeca5535	-0.39518133
26	0xbd4b4e09	-0.049634967
27	0xbd07cc5b	-0.033153873
28	0x3f17de3b	0.5932347
29	0x3ea5f926	0.32416648
30	0xbe86e1af	-0.26344058
31	0x3e4310d5	0.1904939
32	0x3e726501	0.23671342
33	0xbdca0f15	-0.09866158
34	0xbdd74e09	-0.10512931
35	0xbe58d12b	-0.21173541
36	0x3e5cf081	0.2157612
37	0xbe21595f	-0.15756749
38	0xbde36a05	-0.11104206
39	0x3f13c031	0.57715136
40	0x3eb21269	0.3477967
41	0xbec74031	-0.38916162
42	0x3c3e403f	0.011611997
43	0x3ec6c0e7	0.38819048
44	0xbeb0cdec	-0.34532106
45	0xbe4229ee	-0.18961307
46	0x3f18c777	0.5967936
47	0x3e48f3d7	0.19624268
48	0x3f08b586	0.5340198
49	0xbe381ccd	-0.17979737
50	0x3f0dd323	0.55400294
51	0x3e95e78d	0.29278222
52	0xbd54b38a	-0.051929034
53	0x3f0e1080	0.55493927
54	0x3e053272	0.13007525
55	0xbe02e708	-0.12783444
56	0xbec65620	-0.38737583
57	0x3eb94698	0.3618667
58	0x3edbe461	0.42947677
59	0xbefc1bc5	-0.49239936
60	0xbe6c4b68	-0.2307564
61	0xbe268ec0	-0.16265392
62	0x3e9bac27	0.3040478
63	0xbc90705e	-0.017631706
64	0xbf09a33a	-0.5376469
65	0xbe67bf99	-0.22631682
66	0x3d9a458b	0.075327955
67	0x3b3f58af	0.0029197147
68	0x3ec0ec3b	0.3768023
69	0xbee563ac	-0.44802606
70	0x3ed91055	0.42395273
71	0x3ef1de79	0.47240046
72	0xbe61d65a	-0.22054425
73	0xbec8f3b9	-0.39248446
74	0x3d31037e	0.04321622
75	0xbe91467d	-0.2837409
76	0xbf007134	-0.50172734
77	0xbd62aa9f	-0.0553385
78	0x3bcee55e	0.006313964
79	0x3ec3887e	0.38190073
80	0xbe817f25	-0.25292316
81	0xbdce6a25	-0.10078839
82	0x3eaba98b	0.3352779
83	0xbe2f80c8	-0.1713897
84	0x3f10b9f6	0.56533754
85	0x3eac27fb	0.33624253
86	0xbf0355d5	-0.51302844
87	0xbed5ea8d	-0.4178051
88	0xbd1b84d6	-0.03796848
89	0xbeec91bf	-0.46204945
90	0xbd332eb5	-0.043745715
91	0xbd28dbf3	-0.041225385
92	0x3ee5aa65	0.44856563
93	0x3f192aa1	0.5983067
94	0xbf07f027	-0.5310082
95	0x3f12cc3b	0.5734288
96	0xbeffbff1	-0.49951127
97	0x3e2c1de5	0.16808279
98	0xbe96abae	-0.29427856
99	0x3e2cbdc5	0.16869266

net.2.weight f4 [100, 100]
0	0xbda29469	-0.07938463
1	0xbdfb4d52	-0.12270607
2	0x3d7c0d4d	0.061536122
3	0x3d21dc4b	0.03951673
4	0x3c96e8a3	0.018421477
5	0x3e13cb04	0.14432913
6	0xbdd1507b	-0.102204286
7	0xbd2234a9	-0.039601002
8	0x3c92a8d4	0.01790277
9	0x3d96cd40	0.07363367
10	0xbdc4d2b5	-0.09610502
11	0x3cc3055f	0.023806272
12	0xbda6fee1	-0.08154083
13	0xbda99f59	-0.08282346
14	0xbd038d0f	-0.032116946
15	0xbd422bfc	-0.047405228
16	0x3d35347a	0.0442395
17	0x3dc8ddf8	0.09807962
18	0x3ddb94fc	0.10721776
19	0xbc62477b	-0.013810988
20	0xbd9747d6	-0.073867485
21	0xbd6d8118	-0.05798444
22	0x3ced32bc	0.028954856
23	0x3dd61e2f	0.10454976
24	0xbd5a2614	-0.05325897
25	0x3de87b95	0.113516964
26	0xbda240c8	-0.07922512
27	0x3da10995	0.07863156
28	0xbcfaa513	-0.030596292
29	0x3cc4d3f6	0.024026852
30	0xbc91d16c	-0.017800055
31	0x3b7fd228	0.0039035175
32	0x3d7151bf	0.05891585
33	0xbc1fa372	-0.009743558
34	0xbd6943f4	-0.05694957
35	0x3cd537ff	0.026027678
36	0xbdc1f619	-0.094707675
37	0xbd8cc9a8	-0.068744004
38	0x3d649e17	0.05581483
39	0x3d3086ea	0.043097414
40	0xbdd247c9	-0.10267598
41	0x3c639caf	0.013892337
42	0xbba7e27d	-0.005123435
43	0x3dd6de0d	0.104915716
44	0xbd78ccbc	-0.060742125
45	0x3e03d711	0.1287501
46	0x3be9da42	0.007136614
47	0xbd9edb51	-0.07756675
48	0x3d8f03c6	0.069831416
49	0xbc5d4d0c	-0.013507139
50	0xbdb053d0	-0.08609736
51	0x3c187cdf	0.009307115
52	0x3d148eab	0.03626887
53	0x3dd30fa6	0.10305719
54	0x3d77788c	0.060417697
55	0xbd1babe6	-0.038005732
56	0x3d4d0ce4	0.05006112
57	0x3db91a93	0.09038272
58	0xbcbf59f1	-0.023358317
59	0xbd6cfb65	-0.057856936
60	0xbd60505d	-0.05476414
61	0xbd0813f0	-0.03322214
62	0xbdbb7074	-0.09152308
63	0xbc545562	-0.01295981
64	0x3d50627a	0.050875165
65	0xbd5d8923	-0.054085862
66	0x3dd179e8	0.1022833
67	0x3c783f24	0.015151773
68	0x3df36abb	0.118855916
69	0xbc9e9625	-0.019358704
70	0xbd74a690	-0.05972916
71	0x3ccae236	0.024766069
72	0xbc65a925	-0.014017378
73	0x3c99ee47	0.018790377
74	0xbd5f60c8	-0.054535657
75	0xbd66147f	-0.05617189
76	0xbd3e821b	-0.046510797
77	0xbd030cc8	-0.03199461
78	0x3d6b797c	0.057488903
79	0x3b5e0cb9	0.0033882095
80	0xbd675df6	-0.056486093
81	0xbd483964	-0.048882857
82	0x3da041a4	0.0782502
83	0x3cecd42c	0.028909765
84	0xbda378d0	-0.079820275
85	0xbc9fb6ba	-0.01949631
86	0x3a97aa8b	0.0011571212
87	0x3d88a6d8	0.06672448
88	0x3d16892e	0.03675192
89	0x3d007b01	0.031367306
90	0xbe2c65fd	-0.1683578
91	0x3da7f001	0.08200074
92	0x3dec73b3	0.115455054
93	0x3d9ef94f	0.077623956
94	0xbdafc8e5	-0.085832395
95	0xbcd30478	-0.025758967
96	0xbd4259ad	-0.047448803
97	0xbdb8fea0	-0.09032941
98	0xbd2ec1d7	-0.04266533
99	0x3d04775c	0.032340392
100	0xbc837a5c	-0.016049556
101	0xbdb8d59e	-0.09025119
102	0xbd57fce0	-0.052731395
103	0x3da78c37	0.08181041
104	0x3d9e937f	0.077429764
105	0x3c64ecd9	0.0139724845
106	0x3da2f74a	0.07957323
107	0xbdb941c1	-0.09045745
108	0xbb63c1ef	-0.0034753045
109	0xbdc96016	-0.0983278
110	0xbbd7f35f	-0.0065902914
111	0x3d7a1ea1	0.061064366
112	0x3d9d2c71	0.07674492
113	0x3bb223dc	0.0054364037
114	0xbda0247a	-0.07819457
115	0x3c843a94	0.016141213
116	0xbe067071	-0.1312883
117	0xbd9791ec	-0.07400879
118	0x3cc5a05f	0.024124322
119	0x3d931856	0.07182376
120	0xbd1c9445	-0.03822734
121	0x3d8d5bae	0.06902252
122	0x3d679aee	0.056544237
123	0x3d890e61	0.06692196
124	0xbd12f2ef	-0.03587621
125	0xbb866380	-0.004101217
126	0x3de0238a	0.109442785
127	0x3d69a876	0.057045422
128	0xbd5adf95	-0.05343588
129	0xbd8db0b2	-0.069184676
130	0x3d87aa5a	0.06624289
131	0x3d6ac980	0.05732107
132	0x3d256568	0.04037991
133	0xbccd8311	-0.025086911
134	0xbc91f19f	-0.01781541
135	0xbd94eeab	-0.07272085
136	0x3dcb6876	0.09932034
137	0xbd085840	-0.033287287
138	0xbdb8c3dd	-0.09021733
139	0xbe17bd9b	-0.14818422
140	0x3d72aa44	0.05924441
141	0x3db137ed	0.08653245
142	0xbd1bf3da	-0.03807435
143	0xbd9680d0	-0.07348788
144	0x3d8e24e9	0.06940634
145	0x3d106de6	0.035261057
146	0xbdb92a20	-0.09041238
147	0x3bc7eacd	0.0061009885
148	0xbe3935aa	-0.18086877
149	0xbd313e0f	-0.043272074
150	0xbe04856b	-0.1294152
151	0xbd883274	-0.06650248
152	0x3db90801	0.0903473
153	0x3c896ad2	0.016774569
154	0xbcffe00a	-0.03123476
155	0x3c164e93	0.009174007
156	0xbd18b9b4	-0.037286475
157	0xbdd94586	-0.10608964
158	0xbd46ddae	-0.048551254
159	0x3e04c927	0.12967359
160	0x3cf86d7e	0.030325647
161	0x3d1d2a9d	0.038370717
162	0xbdc3f360	-0.095679045
163	0xbd0bc90e	-0.034127288
164	0x3cfd03ea	0.030885655
165	0xbd8da8f1	-0.06916989
166	0xbda864d2	-0.08222355
167	0x3dc0baff	0.09410667
168	0xbe0acefb	-0.1355552
169	0xbd6faf11	-0.058516566
170	0xbd57e963	-0.05271281
171	0xbdd45592	-0.10367884
172	0x3ce35511	0.027750524
173	0x3d12ac0d	0.03580861
174	0x3d8b2b6f	0.06795394
175	0x3ca3ff11	0.020019086
176	0x3da878d4	0.08226171
177	0x3d2cbb73	0.042170953
178	0xbe04304a	-0.12909046
179	0x3c0b0dd1	0.008487181
180	0xbc4ca1d3	-0.012489754
181	0xbc4db82c	-0.012556117
182	0xbd3847bf	-0.044990297
183	0xbc356bf6	-0.011073103
184	0xbda16df6	-0.078823015
185	0xbd8186cd	-0.06324539
186	0xbd34b5aa	-0.04411856
187	0x3b68c2b9	0.0035516454
188	0x3b214b14	0.00246114
189	0xbdbcdbf8	-0.09221643
190	0xbcb33a18	-0.021878287
191	0xbd8f6edf	-0.07003569
192	0xbd8f27ab	-0.06989988
193	0xbdb7264a	-0.0894285
194	0x3dfad6d3	0.12248006
195	0x3d8c5c6e	0.06853567
196	0x3d0adc7c	0.033901677
197	0xbb63f7f9	-0.0034785254
198	0xbcdf8401	-0.027284624
199	0xbc932eca	-0.017966647
200	0x3d331776	0.043723546
201	0x3d945916	0.07243554
202	0x3d43e5eb	0.04782669
203	0x3d461f1d	0.048369516
204	0xbb4c0685	-0.0031131816
205	0xbd0e7abc	-0.034785017
206	0x3d888ecc	0.06667861
207	0xbd8e12be	-0.069371685
208	0x3d72b99c	0.059259042
209	0x3d7f236b	0.062289637
210	0x3d7ee93f	0.06223416
211	0x3dbb956b	0.091593586
212	0x3d5a2ee2	0.053267367
213	0xbc9c16a1	-0.019053759
214	0xbc43831b	-0.011933113
215	0xbc4f1b94	-0.0126408525
216	0xbd372168	-0.044709593
217	0xbcb99847	-0.02265562
218	0x3cdfe88c	0.027332567
219	0x3ddc00f8	0.10742372
220	0xbd63eed3	-0.055647682
221	0x3cd11135	0.0255209
222	0x3dc34057	0.09533756
223	0x3d7ed027	0.06221023
224	0xbd2ac76a	-0.041694082
225	0xbd6a88d0	-0.05725938
226	0xbdb14d3c	-0.086573094
227	0xbd4723dc	-0.048618183
228	0xbd64c73f	-0.05585408
229	0xbd0d1d98	-0.03445205
230	0x3d27bb1d	0.04094993
231	0x3dc8da3f	0.09807252
232	0x3df8ea38	0.12154049
233	0x3d4b5b33	0.04964752
234	0xbd54dbf0	-0.05196756
235	0x3cc81bbd	0.02442729
236	0x3d7e30b6	0.062058173
237	0x3d5da291	0.054110114
238	0x3cb7c4d1	0.022432717
239	0xbdbec6bb	-0.093152486
240	0x3dad25bc	0.08454463
241	0x3d2c0993	0.04200132
242	0xbc8de65c	-0.017321758
243	0xbd5ec749	-0.054389272
244	0x3d13f551	0.036122624
245	0xbca32fc0	-0.01992023
246	0xbdd1e51b	-0.102487765
247	0x3b3abb10	0.0028492846
248	0xbd51f063	-0.05125464
249	0x3dcf75da	0.101299
250	0xbe039321	-0.12849094
251	0xba91d9ed	-0.0011127569
252	0xbdacf167	-0.08444481
253	0xbd554c8e	-0.05207496
254	0xbddf31b8	-0.10898155
255	0xbc0ba2cf	-0.008522703

net.2.bias f4 [100]
0	0xbd0e4d15	-0.03474148
1	0x3ca02d7c	0.019552939
2	0x3da3aa5a	0.07991476
3	0x3d34ebe3	0.04417027
4	0x3c5e1b68	0.013556339
5	0x3ddd2406	0.107978866
6	0xbd11c46b	-0.03558771
7	0xbdd0d3dd	-0.1019666
8	0xbdb66954	-0.089068085
9	0xbd4b1c64	-0.049587622
10	0x3d161fb8	0.036651343
11	0xbcb1a324	-0.021684237
12	0xbdbf0130	-0.093263984
13	0x3d9fe061	0.07806469
14	0xbd4b6e64	-0.049665824
15	0x3dac9f29	0.08428795
16	0xbd86e453	-0.06586518
17	0xbd59e100	-0.053193092
18	0xbd819628	-0.06327468
19	0xbc51d562	-0.012807222
20	0xbcf8c8d8	-0.030369207
21	0xbca277e7	-0.019832565
22	0x3d3fe038	0.04684469
23	0x3d479ff0	0.048736513
24	0x3ca25ab0	0.019818634
25	0xbdad1810	-0.08451855
26	0xbd5bd7ca	-0.05367259
27	0xbde10734	-0.10987702
28	0x3c34ff0d	0.011047137
29	0x3d0ba286	0.03409054
30	0x3dae2465	0.085030355
31	0xbd9a9f93	-0.075499676
32	0x3d384261	0.04498518
33	0xbdd312ff	-0.103063576
34	0xbd890b66	-0.06691627
35	0x3d4fc535	0.05072518
36	0x3d2d632a	0.0423309
37	0xbdbca373	-0.09210863
38	0x3ba46bc3	0.005017729
39	0xbd5b3c54	-0.05352433
40	0xbd588b0b	-0.052866977
41	0x3d149477	0.0362744
42	0x3daa29eb	0.083087765
43	0xbccf40cd	-0.025299454
44	0x3cd0ab3b	0.025472274
45	0x3d61481f	0.05500042
46	0x3c879f47	0.016555442
47	0xbd7d43c4	-0.061832204
48	0x3d2aac82	0.041668423
49	0x3dc2430a	0.09485443
50	0xbdb97acd	-0.090566255
51	0xbddc1547	-0.10746246
52	0xbd87c8a1	-0.06630064
53	0x3c987f86	0.018615495
54	0x3d23cbf9	0.039989445
55	0x3c12b670	0.008954629
56	0xbd2b6662	-0.041845687
57	0xbc5c5a7a	-0.013449306
58	0x397b9b04	0.00023994973
59	0x3ccd0c43	0.02503026
60	0xbd117336	-0.035510264
61	0x3cbc9fd7	0.023025436
62	0x39eecb4d	0.00045546368
63	0x3d91b684	0.0711489
64	0x3d2b93df	0.041889068
65	0x3cc50863	0.02405185
66	0xbd515e97	-0.0511156
67	0xbdd86e54	-0.105679184
68	0xbd390a19	-0.045175646
69	0x3d45dc0f	0.048305567
70	0xbc7fab5c	-0.01560482
71	0xbdda22da	-0.10651179
72	0xbd23d409	-0.039997134
73	0xbcb8701d	-0.022514397
74	0xbcf4e6dc	-0.029895239
75	0xbd6ff36d	-0.05858176
76	0xbdf38959	-0.11891431
77	0x3d28119a	0.04103241
78	0xbda59849	-0.08085687
79	0x3d861dbf	0.06548642
80	0x3c853b34	0.016263582
81	0x3d739dae	0.059476547
82	0xbda56438	-0.08075756
83	0xbcb93db4	-0.02261243
84	0x3d6611ed	0.05616944
85	0x3ca9d8f3	0.020733332
86	0xbb503ef8	-0.0031775814
87	0xbc41c580	-0.011826873
88	0xbbea0fe4	-0.0071430076
89	0xbdb63841	-0.08897448
90	0xbda09c80	-0.0784235
91	0x3ddaab86	0.10677247
92	0xbd034cf1	-0.0320558
93	0x3c8b09bb	0.016972413
94	0x3cbad8ae	0.022808399
95	0xbd339255	-0.043840725
96	0xbdb44662	-0.08802487
97	0xbd0248b9	-0.031807635
98	0x3cb80dc7	0.022467507
99	0x3da3af12	0.079923764

net.4.weight f4 [100, 100]
0	0xbde822c5	-0.11334757
1	0x3d4d1a92	0.050074168
2	0x3d241a9a	0.04006443
3	0x3d3e07a8	0.04639402
4	0x3c88ee16	0.01671509
5	0x3d6ca9b4	0.05777903
6	0x3d8ee665	0.06977538
7	0x3d22c243	0.039736044
8	0xbd36b8aa	-0.044609703
9	0xbdae9d39	-0.085260816
10	0xbdb16c27	-0.086632065
11	0xbbc779f3	-0.0060875355
12	0xbb2f1a7a	-0.0026718662
13	0xbdc2177b	-0.09477135
14	0xbcd3b3f8	-0.025842652
15	0xbc3a4cd8	-0.01137086
16	0xbdb77309	-0.08957488
17	0x3ce03b73	0.027372098
18	0x3d32b9ed	0.043634344
19	0xbdeb53b5	-0.11490575
20	0xbd039dc8	-0.032132894
21	0x3d1b61c5	0.037935037
22	0x3cd814c2	0.026377086
23	0xbdb9672d	-0.09052882
24	0x3dac829d	0.0842335
25	0xbd75d492	-0.060017176
26	0xbbe904c9	-0.007111166
27	0xbdd1fe7a	-0.10253616
28	0xbd8b6fa2	-0.06808402
29	0xbdb36a5f	-0.08760523
30	0xbd9e2841	-0.077225216
31	0xbd4bff1a	-0.04980383
32	0xbde4472a	-0.11146386
33	0x3dd59cc0	0.10430288
34	0x3ca05d51	0.019575747
35	0x3b7d5cfb	0.0038660157
36	0xbd79de1c	-0.061002836
37	0x3c991d52	0.018690739
38	0x3d2d3bf4	0.042293504
39	0x3aa35c8f	0.0012463498
40	0x3d54bc08	0.051937133
41	0xbd4bfba6	-0.049800538
42	0x3ca7c3d1	0.020479115
43	0xbd878f34	-0.06619111
44	0x3c32abfb	0.010905261
45	0xbcf290ba	-0.029610027
46	0x3c0e657a	0.008691186
47	0x3ce69ccd	0.02815094
48	0xbbbe869c	-0.0058143865
49	0x3daff62c	0.085918754
50	0xbd875659	-0.066082664
51	0xbb87fb60	-0.0041498393
52	0x3d8adbab	0.067801796
53	0x3d18d1fb	0.037309628
54	0x3a760d86	0.00093861704
55	0xbd700858	-0.058601707
56	0xbce3eb70	-0.027822226
57	0xbda4489a	-0.0802166
58	0xbd5c5562	-0.053792365
59	0x3db49096	0.0881664
60	0xbd7d59c9	-0.061853204
61	0x3a918d02	0.0011104646
62	0xbdc6ea82	-0.097126976
63	0x3d5f7d62	0.054562934
64	0xbd5c196e	-0.05373519
65	0x3db08eae	0.08620964
66	0x3cf95842	0.030437592
67	0xbde97f3a	-0.1140122
68	0xbda95a20	-0.08269143
69	0xbda07685	-0.07835106
70	0x3d29b79c	0.04143487
71	0xbd03fe5f	-0.03222501
72	0x3cbbf9f7	0.022946341
73	0xbc6c03bc	-0.014405187
74	0x3de0bd6e	0.10973631
75	0xbde0cf3b	-0.10977026
76	0x3b963003	0.00458336
77	0xbd5980c1	-0.053101305
78	0xbc67754f	-0.01412709
79	0xbc60bb48	-0.013716526
80	0xbdeb3ae5	-0.114858426
81	0x3d61b930	0.05510825
82	0xbc4fef47	-0.0126913255
83	0x3e19b4df	0.15010403
84	0xbc306946	-0.010767287
85	0xbdc2662f	-0.09492146
86	0x3da0672c	0.078321785
87	0xbd7602bb	-0.060061198
88	0x3dfadc07	0.12248998
89	0x3c8afd2b	0.016966423
90	0xbe15401f	-0.14575242
91	0x3de26f2a	0.11056359
92	0x3cc3b29b	0.023888877
93	0x3d38b2e8	0.045092493
94	0xbca995da	-0.020701338
95	0xbd9e8253	-0.07739701
96	0x3ddcaf1c	0.10775587
97	0x3d2c4ff6	0.042068444
98	0xbcabf4a6	-0.02099068
99	0xbcf7c4c7	-0.030245198
100	0xbdc08aa3	-0.09401443
101	0xbd125a21	-0.035730485
102	0x3c68d2c6	0.014210409
103	0xbd5b3ad9	-0.05352292
104	0x3dcca667	0.09992676
105	0x3daa776c	0.08323559
106	0x3d95d8fc	0.07316777
107	0xbc1ad1c7	-0.009449429
108	0x3d7f3876	0.062309705
109	0x3b8c51cb	0.0042822114
110	0x3d22239a	0.039584734
111	0xbb4a69a3	-0.0030885718
112	0xbd0f5747	-0.034995344
113	0xbd0a1e97	-0.03372058
114	0xbda529b5	-0.080645956
115	0x3d5e8e21	0.054334763
116	0xbcae14f0	-0.021250218
117	0x3d4966fd	0.049170483
118	0x3d9c49ff	0.07631301
119	0x3bb6fc45	0.005584272
120	0x3d6a9805	0.057273883
121	0x3da46036	0.08026163
122	0x3daf7ff7	0.08569329
123	0xbd38feb9	-0.045164797
124	0xbbcb0879	-0.0061960784
125	0xbc8086de	-0.01568931
126	0x3d5c336f	0.05375999
127	0x3d09a073	0.033600282
128	0xbd974503	-0.0738621
129	0xbd76b0f9	-0.060227368
130	0x3d45401f	0.048156854
131	0x3d3b3d10	0.04571253
132	0xbd95b41b	-0.07309743
133	0xbd9bb543	-0.07602932
134	0xbc29fafe	-0.010374783
135	0xbdc142ae	-0.09436546
136	0xbd6a4d00	-0.05720234
137	0x3d62bd39	0.055356238
138	0x3d76e1d2	0.060273953
139	0x3d6e1664	0.058126822
140	0xbd4b16a4	-0.04958214
141	0xbda4088d	-0.080094434
142	0x3d73eded	0.059553076
143	0x3d10b6e6	0.035330676
144	0xbd28c852	-0.041206665
145	0xbd3e6d47	-0.046490934
146	0x3d602813	0.054725718
147	0x3d2cdc78	0.042202443
148	0x3d041d01	0.032254223
149	0x3d064b90	0.032786906
150	0x3a410d61	0.00073643593
151	0x3c7dbe4d	0.015487266
152	0xba931188	-0.0011220435
153	0xbd03ce13	-0.03217895
154	0x3d2b57ca	0.04183177
155	0x3d75a8ae	0.05997532
156	0x3d97d9a8	0.074145615
157	0x3da97be7	0.082755856
158	0x3d63b48f	0.055592116
159	0xbdd71b8f	-0.10503303
160	0xbd131954	-0.035912827
161	0xbd8cc247	-0.06872993
162	0x3de587bf	0.11207532
163	0xbdab03c8	-0.083503306
164	0xbde295e2	-0.11063744
165	0x3b8ddabf	0.004329055
166	0x3dceb355	0.100927986
167	0x3d7e7e20	0.062132
168	0x3dd6746a	0.10471423
169	0xbcedd821	-0.029033722
170	0xbd90305e	-0.07040475
171	0xbc69f9b6	-0.014280727
172	0xbd28273b	-0.041053038
173	0xbd5ea881	-0.054359917
174	0x3c4d5b61	0.012533993
175	0x3e133898	0.14377058
176	0x3d1764bc	0.036961302
177	0x3bd0c47f	0.0063710804
178	0x3c2bfd1e	0.01049736
179	0xbd70c1ed	-0.058778692
180	0x3d5d75fb	0.054067593
181	0x3e0066ce	0.12539217
182	0x3d1eec23	0.038799416
183	0xbd774296	-0.060366236
184	0xbdc09ac5	-0.0940452
185	0xbdae839b	-0.085211955
186	0x3d4bcc98	0.049755663
187	0xbd8a3aef	-0.06749522
188	0x3d2bf82c	0.041984722
189	0x3d1e96c5	0.038718004
190	0xbd967a63	-0.07347562
191	0xbcd9cb2f	-0.026586143
192	0xbce80439	-0.028322326
193	0xbcc93229	-0.024560051
194	0xbcfdf7c9	-0.031001942
195	0x3d457f81	0.0482173
196	0x3dcbcfeb	0.099517666
197	0xbd6fbc5d	-0.058529247
198	0xbcdb4440	-0.026765943
199	0xbd823acb	-0.0635887
200	0xbd14a522	-0.036290295
201	0x3d340eba	0.043959357
202	0xbc2571d3	-0.010097939
203	0xbd962568	-0.073313534
204	0x3dd74c5a	0.1051261
205	0x3ac2db4f	0.0014866384
206	0xbd7df76c	-0.062003538
207	0x3db3738d	0.08762274
208	0x3d31e14d	0.043427754
209	0x3bfdd6df	0.007746562
210	0x3d872e66	0.06600647
211	0xbdd7f015	-0.10543839
212	0x3d09ebbd	0.033672083
213	0x3dab8e57	0.083767585
214	0xbab2d118	-0.0013642637
215	0xbda5da7a	-0.08098312
216	0x3d88b293	0.06674685
217	0x3d1effe9	0.038818274
218	0x3d16d85f	0.03682744
219	0xbd14c2d0	-0.0363186
220	0x3d1e719e	0.038682573
221	0x3da4994f	0.08037054
222	0xbca805cc	-0.020510577
223	0xbcc71180	-0.024300337
224	0xbdad0e7c	-0.08450028
225	0x3dd0edba	0.10201593
226	0xbc86cc15	-0.016454736
227	0x3d1419f6	0.03615757
228	0xbdbd36ba	-0.09238954
229	0x3c7c2999	0.015390777
230	0x3d3efc34	0.04662724
231	0x3db283ce	0.08716546
232	0xbdbacb07	-0.09120756
233	0xbd612bc0	-0.054973364
234	0x3d2e3efe	0.042540543
235	0x3dcfdbb8	0.1014933
236	0xbce2d4bb	-0.027689328
237	0x3db73cb2	0.089471236
238	0x3d592eb0	0.05302304
239	0x3d416c93	0.047222685
240	0x3d2c0c54	0.042003945
241	0x3d87ce30	0.06631124
242	0xbc1367b2	-0.008996891
243	0x3d96d640	0.07365084
244	0xbd0a4bbd	-0.033763636
245	0x3d93e85d	0.07222054
246	0xbc71d5cb	-0.014760445
247	0x3d736c82	0.059429653
248	0xbda3df96	-0.0800163
249	0x3dbef25e	0.093235716
250	0x3d759aaf	0.05996197
251	0xbdbdac50	-0.092613816
252	0x3d6810a7	0.056656506
253	0x3d0502a0	0.032473207
254	0xbd3f6187	-0.04672387
255	0xbcfebd7a	-0.031096209

net.4.bias f4 [100]
0	0x3d463d37	0.048398223
1	0xbcb988ba	-0.022648204
2	0x3d840271	0.06445778
3	0x3d288167	0.041139033
4	0x3dc6164c	0.096722215
5	0xbd8da935	-0.06917039
6	0x3dbc83ae	0.092048034
7	0x3d3a598c	0.045495555
8	0xbd1af0ee	-0.037827425
9	0x3d28c9b1	0.041207973
10	0xbcdcd515	-0.026957074
11	0xbcd528ac	-0.02602037
12	0xbdaee5e2	-0.085399404
13	0x3da90c91	0.0825435
14	0xbc1bae78	-0.009502046
15	0xbcbfb6c5	-0.023402581
16	0x3d5c5dd0	0.053800404
17	0x3da37b31	0.07982481
18	0x3d63d575	0.05562349
19	0x3d63d12b	0.0556194
20	0xbd0ef62c	-0.034902737
21	0xbd38593d	-0.04500698
22	0x3d4cd467	0.05000725
23	0xbdaf6459	-0.08564062
24	0x3d8e0f4c	0.069365114
25	0xbda4bc49	-0.08043725
26	0x3d8cd3e9	0.06876356
27	0xbd0ed198	-0.034867853
28	0xbaf251c1	-0.0018487499
29	0x3d0ddf4b	0.034636777
30	0xbda1b3b0	-0.07895601
31	0xbd46aed6	-0.04850658
32	0x3a303225	0.00067213393
33	0xbdc86375	-0.09784595
34	0x3d7fe9fc	0.062479004
35	0xbd2f12fa	-0.042742707
36	0xbc63d8e6	-0.013906693
37	0x3c89c376	0.016816836
38	0x3cd47fbc	0.025939815
39	0xbc243bd9	-0.010024034
40	0x3d9f4bab	0.077781044
41	0xbb36976e	-0.0027861255
42	0xbd49ff1e	-0.049315564
43	0x3db253d3	0.087073945
44	0x3d8e5fb1	0.069518454
45	0xbcb6e49f	-0.022325812
46	0xbc84c495	-0.016207019
47	0x3ce299f2	0.027661297
48	0xbc3a755c	-0.01138052
49	0xbc5d238a	-0.013497243
50	0x3cf09a0c	0.02937033
51	0x3ccfcb13	0.025365388
52	0x3d25588b	0.040367644
53	0xbd06bddf	-0.03289592
54	0xbd6c4b9b	-0.05768929
55	0x3d9b825f	0.07593226
56	0x3dc65913	0.09684958
57	0xbd0c21d8	-0.034211963
58	0xbc51f468	-0.012814619
59	0xbd87a912	-0.066240445
60	0x3d755571	0.059895936
61	0x3da83bcf	0.082145326
62	0xbda76f5d	-0.08175538
63	0xbd6842e9	-0.056704435
64	0xbcce29fd	-0.025166506
65	0x3c0f7c65	0.008757685
66	0x3ddedb65	0.1088169
67	0x3da64977	0.08119481
68	0xbcfd2ad0	-0.030904204
69	0xbdabb454	-0.08384004
70	0x3dcf20d6	0.10113685
71	0xbd88edb9	-0.06685967
72	0xbd37c60e	-0.044866614
73	0x3ccc6dc7	0.02495469
74	0x3ccc85b6	0.024966102
75	0x3d94fbcf	0.07274591
76	0x3c074bec	0.008257847
77	0x3b5b7b09	0.0033490083
78	0x3e02e2ba	0.12781802
79	0xbc4472f8	-0.011990301
80	0x3d1b07cb	0.03784923
81	0xb9d7ad4a	-0.00041137106
82	0x3d19011d	0.037354577
83	0xbd54cf9b	-0.0519558
84	0xbd99ac14	-0.075035244
85	0xbd0f4b45	-0.034983892
86	0xbca4299a	-0.020039368
87	0xbd8ed3b1	-0.06973971
88	0x3d9e4636	0.077282354
89	0x3db41a00	0.087940216
90	0x3db51c96	0.08843343
91	0xbd702d42	-0.05863691
92	0x3d8b7bc2	0.06810714
93	0xbdf01ec8	-0.11724621
94	0x3c3d01af	0.011536046
95	0x3d8c525f	0.068516485
96	0x3dbb403f	0.09143113
97	0xbdceb2fe	-0.10092734
98	0x3d8dd18f	0.06924736
99	0x3b221ca3	0.0024736307

net.6.weight f4 [100, 100]
0	0xbd070160	-0.032960296
1	0xbd23544c	-0.039875314
2	0xbd984686	-0.07435326
3	0x3d69eecb	0.057112496
4	0xbda23f67	-0.07922249
5	0xbbb8c8af	-0.0056391577
6	0xbd85ac45	-0.065269984
7	0xbd64daea	-0.055872835
8	0x3bfc3c21	0.0076975976
9	0x3c9bb89c	0.019008927
10	0xbdb0ebca	-0.08638723
11	0x3cb40cff	0.021978853
12	0xbcb7f360	-0.022454917
13	0x3d93249d	0.07184718
14	0xbc99e800	-0.018787384
15	0x3c0b3239	0.008495861
16	0xbd6d7177	-0.057969537
17	0xbd8920a5	-0.066956796
18	0xbdc2644f	-0.094917886
19	0xbd99a086	-0.075013205
20	0xbd289bee	-0.04116433
21	0xbc5f1209	-0.01361514
22	0xbde118c8	-0.10991055
23	0xbd031df6	-0.032010995
24	0xbd22333e	-0.03959965
25	0xbca61ccf	-0.020277409
26	0x3ba58757	0.005051534
27	0xbda9c2fa	-0.08289142
28	0x3c58abbb	0.0132245375
29	0xbcbd234f	-0.023088126
30	0x3d990973	0.074725054
31	0x3ca6d863	0.020366853
32	0xbd8a031e	-0.06738876
33	0x3c6fdcec	0.014640074
34	0xbc8faaa4	-0.017537422
35	0xbd0c48ff	-0.034249302
36	0x3b8aa011	0.004230507
37	0xbdb53a50	-0.08849013
38	0xbdab59e8	-0.08366758
39	0xbd0f6a16	-0.03501328
40	0x3bcb6d49	0.006208096
41	0x3d2a1fc9	0.04153422
42	0x3d9ad1d5	0.075595535
43	0xbca3ad05	-0.019979963
44	0xbdf28b8a	-0.11843021
45	0xbdd50d16	-0.104028866
46	0x3d74b11f	0.05973923
47	0x3d94ad20	0.072595835
48	0xbd9cb690	-0.076520085
49	0xbda22dd9	-0.07918901
50	0x3da744fa	0.08167453
51	0x3d028d88	0.031873256
52	0x3cdb608c	0.026779436
53	0x3d375e12	0.044767447
54	0x3ce1f859	0.027584242
55	0xbd191a51	-0.037378613
56	0xbd5057c4	-0.05086495
57	0x3d76a4ed	0.06021588
58	0xbcfc8f09	-0.030829923
59	0xbdb982cb	-0.0905815
60	0x3b8fb87a	0.004386005
61	0xbd8fec04	-0.07027438
62	0xbdc3612c	-0.095400184
63	0xbc7c3a68	-0.0153947845
64	0x3be9ff4a	0.0071410285
65	0x3d88cc02	0.066795364
66	0xbdf1b36b	-0.118017994
67	0xbdb706f9	-0.08936877
68	0x3d829e31	0.06377829
69	0x3d2cf667	0.042227175
70	0xbdda1d1f	-0.10650086
71	0x3d144679	0.03620002
72	0x3d2bace1	0.041912917
73	0x3d913960	0.070910215
74	0xbd8cf443	-0.06882527
75	0x3d8b5fa0	0.068053484
76	0xbd220499	-0.039555166
77	0x3ddffc8f	0.109368436
78	0xbdb5f28f	-0.08884155
79	0xbd970881	-0.07374669
80	0xbd6bcaa3	-0.057566296
81	0xbd8721cd	-0.06598244
82	0xbae79558	-0.0017668409
83	0x3d696c35	0.05698796
84	0x3defed76	0.11715214
85	0xbc6ffb13	-0.014647263
86	0x3da623f4	0.08112326
87	0xbc3a96b7	-0.011388472
88	0x3c62570a	0.013814697
89	0x3bdbfce9	0.006713499
90	0x3d1ef8af	0.038811382
91	0x3da5eaf7	0.081014566
92	0xbe096a75	-0.13419516
93	0xbc5b47f2	-0.013383852
94	0x3d9213cb	0.071326815
95	0x3cd945c9	0.026522534
96	0x3db4efcb	0.088347994
97	0xbdabe4e2	-0.08393265
98	0x3dc7efa2	0.09762503
99	0xbd48c5e3	-0.049016844
100	0x3a57cbdc	0.00082319765
101	0x3d9f2821	0.07771326
102	0x3c123648	0.0089240745
103	0xbdde57e7	-0.1085661
104	0xbd829c27	-0.0637744
105	0x3d85b561	0.06528736
106	0x3dc3555c	0.095377654
107	0x3dc94da3	0.09829261
108	0xbda8704a	-0.082245424
109	0x3d9655ff	0.07340621
110	0xbe01b81e	-0.12667891
111	0x3d2fc179	0.04290912
112	0x3b9e6ddd	0.004834874
113	0x3c096b2d	0.008387369
114	0x3d98b247	0.07455879
115	0xbcb111ac	-0.021614872
116	0x3d01821d	0.031618226
117	0xbd957f97	-0.072997265
118	0x3cd917ab	0.026500544
119	0x3da90ff3	0.08254995
120	0xbd2f12e2	-0.042742617
121	0xbc1742b5	-0.009232213
122	0xbd1e12b6	-0.038592063
123	0xbc2fec6d	-0.010737521
124	0x3db443b0	0.08801973
125	0xbd7f1971	-0.062280122
126	0xbd087c70	-0.033321798
127	0x3d94d79a	0.07267685
128	0xbde41b85	-0.111380614
129	0xbc97eefc	-0.018546574
130	0xbd905d1e	-0.07049011
131	0x3cd571a5	0.026055166
132	0x3c179d16	0.009253761
133	0x3de26097	0.11053579
134	0xbb153326	-0.0022766083
135	0x3d9a3c6a	0.07531054
136	0xbd2ef817	-0.042717066
137	0x3c21a395	0.009865661
138	0xbcf912d1	-0.03040448
139	0xbda9ddb1	-0.082942374
140	0x3d15bfc4	0.036559835
141	0x3b6072f9	0.0034248217
142	0x3d44f519	0.048085306
143	0x3da14130	0.07873762
144	0xbcef176c	-0.029185973
145	0xbdcfb45d	-0.101418234
146	0x3d584002	0.052795418
147	0xbda0146b	-0.078163944
148	0xbd188622	-0.037237294
149	0x3dbc04fa	0.09180637
150	0x3d801964	0.06254843
151	0xbc4dd06f	-0.0125619015
152	0x3d832527	0.064035706
153	0x3d675ad7	0.056483116
154	0x3c872ecc	0.016501807
155	0xbb3fe9f1	-0.0029283727
156	0x3dbf43cb	0.09339102
157	0x3d55cd5a	0.05219779
158	0x3b939881	0.004504264
159	0x3c79aa69	0.015238383
160	0xbca1f8b1	-0.019771906
161	0x3cc5562f	0.024088947
162	0x3dd4f12f	0.103975646
163	0xbd5b30ca	-0.053513326
164	0x3c55a020	0.013038665
165	0xbd4b1fa1	-0.04959071
166	0x3d4a7121	0.049424294
167	0xbd820dc2	-0.0635028
168	0xbd8611d9	-0.06546373
169	0xbddd9166	-0.10818748
170	0x3ccf0002	0.025268558
171	0xbd06c3d6	-0.032901607
172	0xbdbebd3b	-0.093134366
173	0xbc1cdc2d	-0.009573978
174	0xbce1ea7d	-0.027577633
175	0x3e0ce646	0.13759717
176	0x3dbcebb8	0.09224647
177	0x3dbdf18c	0.09274587
178	0x3d959741	0.0730424
179	0x3d1b4b64	0.037913695
180	0xbdd5c612	-0.104381695
181	0xbcd71849	-0.026256697
182	0xbd0e66cf	-0.034766015
183	0xbd81537e	-0.06314753
184	0x3d1165a2	0.035497315
185	0x3d975ea7	0.073911004
186	0xbd188d15	-0.03724392
187	0x3d821c5f	0.063530676
188	0xbdb63d76	-0.088984415
189	0x3dec10dd	0.11526654
190	0x3d3ea4c8	0.046543866
191	0xbb2c0387	-0.002624722
192	0xbd6138b6	-0.054985724
193	0x3db1e8bd	0.086869694
194	0xbd713a1a	-0.0588933
195	0xbd817fde	-0.06323217
196	0x3d62823c	0.055299982
197	0x3d90b1f8	0.07065195
198	0xbabb06c6	-0.0014268986
199	0x3d43ae7d	0.047773827
200	0x3c3d6e8b	0.011562
201	0xbdc9dc0d	-0.098564245
202	0x3d30d652	0.04317314
203	0x3bfd7f90	0.007736154
204	0x3ad950b9	0.0016579843
205	0x3d9a780c	0.075424284
206	0xbdd6a95f	-0.10481524
207	0x3d79f514	0.06102474
208	0x3dab065a	0.08350821
209	0x3d74fec1	0.059813265
210	0x3d8502c7	0.0649467
211	0xbd951692	-0.072796956
212	0x3db1851e	0.08667968
213	0x3cf6c2a4	0.030122109
214	0x3d87b0e5	0.06625537
215	0xbd8bce16	-0.06826417
216	0x3d88b85c	0.06675789
217	0x3d710774	0.058845
218	0x3d8d7afc	0.06908223
219	0x3d8f5139	0.06997914
220	0xbd0c0dce	-0.034192853
221	0x3da9da58	0.08293599
222	0xbdadf139	-0.08493275
223	0xba3a8be9	-0.0007116185
224	0x3c889d47	0.016676558
225	0x3d3de83d	0.046364058
226	0x3d81c7a5	0.06336907
227	0x3b0d37cb	0.0021548148
228	0x3d9134a3	0.07090118
229	0x3d870fae	0.065947875
230	0xbdaf0e5e	-0.08547662
231	0x3dac1be9	0.08403761
232	0xbc9600b0	-0.018310875
233	0xbda1e976	-0.07905857
234	0xbb2b538b	-0.0026142325
235	0x3ce147d8	0.027500078
236	0xbd770a21	-0.060312394
237	0xbba1a973	-0.00493353
238	0xbda8d616	-0.08243959
239	0xbd83cbcb	-0.06435355
240	0x3c7531de	0.014965503
241	0xbdc13c55	-0.094353355
242	0x3c098d43	0.008395496
243	0xbd40ba63	-0.047052752
244	0xbcb1c0bd	-0.02169835
245	0x3c36f95a	0.0111678485
246	0x3d129e47	0.035795476
247	0xbb98e99f	-0.0046665217
248	0xba74ab8c	-0.0009333424
249	0x3d53a789	0.051673446
250	0x3cac7b98	0.021055028
251	0x3c1f76ae	0.009732885
252	0x3c6739e5	0.014112924
253	0x3b62ecf1	0.0034626091
254	0x3dd1bbd0	0.102409005
255	0xbcda7e0c	-0.026671432

net.6.bias f4 [100]
0	0xbd2aabcc	-0.041667745
1	0x3d1c5d92	0.038175173
2	0xbd695fc8	-0.05697611
3	0xbcf9bd35	-0.030485729
4	0x3d27eb4e	0.04099589
5	0x3d848ad5	0.064717926
6	0xbc862477	-0.01637481
7	0xbdf15b31	-0.117849715
8	0x3d925198	0.07144469
9	0x3a80d6cc	0.000982964
10	0xba82ff1c	-0.0009994241
11	0x3da38cb5	0.07985822
12	0xbd9c84f3	-0.076425456
13	0xbd151b0a	-0.03640274
14	0xbdcb600d	-0.099304296
15	0x3cae33bb	0.021264901
16	0x3da4f869	0.08055193
17	0xbceaef9c	-0.028678708
18	0xbd22cace	-0.03974419
19	0x3d61fed1	0.055174652
20	0x3d58345a	0.0527843
21	0xbd0787f1	-0.03308863
22	0x3d1c7a43	0.038202535
23	0xbaeba866	-0.0017979264
24	0x3dae9eae	0.085263595
25	0xbdca166b	-0.09867557
26	0x3d9959f2	0.07487859
27	0xbd076032	-0.033050723
28	0x3dbcc903	0.092180274
29	0xbc4b630f	-0.012413754
30	0x3dd17828	0.10227996
31	0x3dd0454d	0.10169468
32	0xbc8ff887	-0.017574562
33	0xbc6ee1db	-0.014580215
34	0x3c82e9e5	0.01598067
35	0x3d7fc851	0.062446896
36	0xbcb6d1ba	-0.022316802
37	0x3c8b32e4	0.01699204
38	0xbcec25c9	-0.028826611
39	0x3d8763bb	0.06610819
40	0x3d8b20b4	0.06793347
41	0x3dcc283d	0.09968612
42	0xbca2e793	-0.019885814
43	0xbca268ec	-0.019825421
44	0xbd45d3d6	-0.048297726
45	0xbd8318de	-0.064012274
46	0x3d876b21	0.0661223
47	0xbc96b9f2	-0.018399213
48	0xbd3e9066	-0.046524428
49	0xbcf0357a	-0.029322375
50	0xbaec2447	-0.0018016183
51	0x3cb4322e	0.021996584
52	0x3bd967c5	0.0066346847
53	0xbd0999c9	-0.033593927
54	0x3c44f045	0.012020175
55	0x3b01d769	0.0019812232
56	0xbd223bc7	-0.03960779
57	0xbd0d48d2	-0.034493275
58	0xbcc606df	-0.024173198
59	0xbd69b996	-0.057061754
60	0xbca36212	-0.019944225
61	0x3d9404ff	0.072275154
62	0x3d0852d1	0.033282105
63	0xbc5df826	-0.013547933
64	0xbdf2f129	-0.11862404
65	0x3d3577de	0.044303767
66	0x3c84c35f	0.016206441
67	0x3d31a6eb	0.043372076
68	0xbc4a7cfe	-0.012358902
69	0x3cd28db5	0.025702337
70	0xbd2a5e12	-0.04159362
71	0xbdc28a7f	-0.09499072
72	0xbd024646	-0.0318053
73	0x3d470a48	0.04859379
74	0xbd53b4d0	-0.051686108
75	0xbcbbb8ae	-0.02291521
76	0xbc5a1182	-0.013309838
77	0xbcf961dc	-0.03044217
78	0x3cb3bae9	0.021939712
79	0xbd21a554	-0.03946431
80	0xbce0cb67	-0.02744074
81	0x3d9bf4d1	0.076150544
82	0x3d74d866	0.059776686
83	0x3d2935b7	0.041310992
84	0xbd0b3467	-0.03398552
85	0xbda3fad5	-0.08006827
86	0x3bcbb11e	0.0062161824
87	0xbc83aa18	-0.016072318
88	0x3d9183af	0.07105195
89	0x3d79f3d8	0.061023563
90	0x3ca3646d	0.019945348
91	0x3dc4d629	0.0961116
92	0x3cce2654	0.02516476
93	0x3d905457	0.070473365
94	0x3c569221	0.013096363
95	0x3d5ae614	0.053442076
96	0xbdb724c2	-0.08942558
97	0x3d82eb81	0.06392575
98	0x3db8cd8e	0.090235814
99	0xbd44b8ab	-0.048027676

net.8.weight f4 [100, 100]
0	0xbc88dba7	-0.0167063
1	0xbc9923cb	-0.018693825
2	0xbdb6e703	-0.08930781
3	0xbd602b7a	-0.054728962
4	0xbc82006b	-0.01586934
5	0xbd7db5c6	-0.06194093
6	0x3d95229a	0.0728199
7	0xbd104c2c	-0.035228893
8	0x3d80ffae	0.06298767
9	0xbde6578b	-0.11247166
10	0xbd8412e8	-0.064489186
11	0xbd94058d	-0.07227621
12	0x3d943984	0.07237533
13	0xbcc1a406	-0.023637783
14	0x3d86a9e8	0.06575376
15	0x3b88abd6	0.004170875
16	0xbd644f79	-0.055739854
17	0x3c6eb2bc	0.014568981
18	0xbd5c49b4	-0.053781226
19	0xbbb17ad3	-0.005416253
20	0xbd97cfd2	-0.074126855
21	0x3da6fff5	0.08154289
22	0xbca6836d	-0.02032634
23	0x3bddd3ee	0.0067696488
24	0xbd7588bf	-0.059944864
25	0xbdbbc3d2	-0.09168209
26	0x3d90c0f1	0.07068051
27	0x3bc79a75	0.0060914108
28	0x3cef1268	0.029183581
29	0x3cc1d9b4	0.02366338
30	0xbd96eb2c	-0.07369074
31	0xbd486efc	-0.048933968
32	0x3d546b4f	0.05186015
33	0x3daa8927	0.08326941
34	0xbc1f2ca1	-0.00971523
35	0xbdec2509	-0.115305014
36	0xbca1491e	-0.019688185
37	0x3daf1053	0.085480355
38	0xbc3e6ef8	-0.011623137
39	0x3dcef934	0.101061255
40	0xbd2913f2	-0.041278787
41	0x3dc83ffc	0.09777829
42	0xbd1b5e9a	-0.037932016
43	0x3d990242	0.07471134
44	0xbd42c878	-0.047554463
45	0x3da1746e	0.07883535
46	0x3d3bcaa1	0.04584754
47	0xbd96fe96	-0.07372777
48	0x3d2c593f	0.0420773
49	0xbd347ec7	-0.044066217
50	0xbc978790	-0.018497258
51	0x3cdf8141	0.027283313
52	0x3d32996a	0.04360334
53	0x3db80b20	0.08986497
54	0x3d95806b	0.072998844
55	0x3bcd4cdc	0.006265266
56	0x3d16cce6	0.0368165
57	0xbd89029e	-0.06689952
58	0x3c7a0899	0.015260839
59	0xbad9d5c1	-0.001661949
60	0xbb28aec7	-0.002573894
61	0x3dacc3b5	0.08435766
62	0x3d603754	0.054740265
63	0xbdad5777	-0.08463948
64	0xbd2cbd99	-0.042173002
65	0x3b1415e6	0.002259606
66	0xbd7f1c54	-0.062282875
67	0x3d4bc106	0.04974463
68	0x3db7e540	0.08979273
69	0x3c658bab	0.01401035
70	0x3d90592b	0.070482574
71	0xbd3ae05e	-0.04562413
72	0xbccdbea2	-0.025115315
73	0x3d9244c7	0.071420245
74	0xbd889e32	-0.06670798
75	0xbd545699	-0.0518404
76	0x3d7a3f84	0.06109573
77	0xbcf4fd7d	-0.029906029
78	0x3d5e9139	0.054337714
79	0x3d121735	0.035666663
80	0x3db0fca2	0.08641936
81	0xbdab9cae	-0.08379494
82	0x3cd70842	0.026249055
83	0xbd74d860	-0.059776664
84	0xbd985d5f	-0.07439684
85	0xbc933c72	-0.017973159
86	0xbc9d32cb	-0.019189259
87	0xbc901436	-0.017587762
88	0xbc7f0911	-0.015566126
89	0x3c485464	0.012227152
90	0x3c8573be	0.016290542
91	0x3d1aa999	0.037759397
92	0xbc872280	-0.016495943
93	0xbd7ada72	-0.061243482
94	0xbde95e6f	-0.11394965
95	0x3d5a81e4	0.05334653
96	0xbd1126f7	-0.03543755
97	0x3d86c540	0.06580591
98	0x3db43382	0.08798887
99	0x3d2d736a	0.042346396
100	0xbb407a17	-0.0029369646
101	0x3c406abc	0.011744197
102	0xbc02092b	-0.007936756
103	0x3d9ceea3	0.07662704
104	0xbddb8e71	-0.10720528
105	0x3c8ecffb	0.017433157
106	0xbdbd16cb	-0.09232863
107	0x3d4a111c	0.049332723
108	0xbd73dda0	-0.05953753
109	0xbd2135ad	-0.03935783
110	0xbdc35327	-0.095373444
111	0x3db9fb3f	0.090811245
112	0x3c929003	0.017890936
113	0x3bdff019	0.006834042
114	0x3dcd5b92	0.10027231
115	0xbdc30d42	-0.09524013
116	0x3d44ad79	0.048017
117	0xbb135aca	-0.0022484534
118	0xbbaa4e7f	-0.0051973457
119	0xbc7bf5fd	-0.015378472
120	0x3d1a3ffd	0.03765868
121	0xbd220a30	-0.039560497
122	0xbd481a3a	-0.048853137
123	0xbd46c97c	-0.048531994
124	0x3dbfdaed	0.09367929
125	0xbdb96acc	-0.09053573
126	0x3c7d6d97	0.015468023
127	0x3d538364	0.051638976
128	0x3d0543cf	0.03253537
129	0xbd85d27a	-0.06534286
130	0x3ab524d1	0.0013820176
131	0xbcb112f1	-0.021615477
132	0x3ccc3514	0.024927653
133	0x3d411789	0.047141585
134	0x3cfd57c8	0.030925646
135	0x3d526a44	0.051370874
136	0xbdb096eb	-0.08622535
137	0x3cbd1a77	0.023083908
138	0x3d35ca9a	0.04438267
139	0x3d681c5c	0.05666767
140	0x3b248588	0.0025104005
141	0xbd865e72	-0.06560983
142	0x3d508006	0.050903343
143	0x3d06006d	0.03271525
144	0x3d32dc96	0.0436674
145	0xbdd3f8dc	-0.103502005
146	0xbbd0adc2	-0.00636837
147	0xbd4587c1	-0.04822517
148	0xbd7d5aa2	-0.061854012
149	0x3d23c824	0.03998579
150	0xbbc69054	-0.0060596857
151	0x3d8c0978	0.068377435
152	0xbd821bcc	-0.06352958
153	0xbc8d5b91	-0.017255576
154	0x3d0d77af	0.034537967
155	0x3d0d6c24	0.03452696
156	0xbcec63e6	-0.028856229
157	0x3d9c77d4	0.07640043
158	0x3ca3893f	0.019962905
159	0xbde54db0	-0.11196458
160	0xbd8c0dd5	-0.06838576
161	0x3d3b9907	0.045800235
162	0x3dd2d882	0.10295202
163	0xbc306a13	-0.010767478
164	0x3b7d1bcc	0.0038621305
165	0x3c2d4034	0.010574389
166	0xbdc2e715	-0.09516732
167	0xbd26aaf7	-0.04069039
168	0x3d95df86	0.07318024
169	0x3dc62d1f	0.09676575
170	0x3da66587	0.081248336
171	0x3d36c2a3	0.044619214
172	0xbc8721ad	-0.01649555
173	0x3d93f68d	0.0722476
174	0x3dc18933	0.09449997
175	0x3c0986bc	0.00839394
176	0xbd6905d2	-0.056890316
177	0xbcb08867	-0.021549417
178	0x3d8d449c	0.06897852
179	0x3d0de10f	0.03463846
180	0x3daef77d	0.085432984
181	0xbd97fc49	-0.074211664
182	0xbdd7dfb0	-0.10540712
183	0x3db3005d	0.08740304
184	0xbd0b9beb	-0.03408424
185	0x3caea397	0.02131824
186	0xbddc90bd	-0.10769794
187	0x3d842047	0.06451469
188	0x3da1e74e	0.07905446
189	0x3da2350f	0.079202764
190	0x3d8c2ca2	0.068444505
191	0xbd625775	-0.055259187
192	0x3da01ce3	0.0781801
193	0x3c58b66e	0.013227088
194	0x3cce33d5	0.0251712
195	0xbd3d6a98	-0.046244234
196	0xbd02ebdc	-0.031963214
197	0xbdac9724	-0.08427265
198	0x3d94c1e8	0.07263547
199	0x3d723044	0.05912806
200	0x3ba6a7f8	0.0050859414
201	0x3d14066c	0.036138937
202	0x3d9b3809	0.07579047
203	0xbd6e061e	-0.058111303
204	0xbde4acbc	-0.11165759
205	0x3d9f8f91	0.07791055
206	0x3c866df5	0.016409853
207	0x3d9efaa3	0.07762649
208	0xbdc23e41	-0.0948453
209	0xbb757dbe	-0.0037458981
210	0xbbf819ab	-0.0075714192
211	0xbd65174b	-0.055930417
212	0x3d48e703	0.049048435
213	0x3cdb2006	0.026748668
214	0xbd96b520	-0.073587656
215	0x3dd08800	0.1018219
216	0xbb6c3eb3	-0.0036048114
217	0x3d04b62b	0.03240029
218	0xbb2c4185	-0.002628417
219	0x3d1b8fe0	0.037979007
220	0xbdc90c4c	-0.098167986
221	0xbcd101cd	-0.025513554
222	0xbdb8a810	-0.090164304
223	0xbd539970	-0.05166
224	0x3c732810	0.014841095
225	0xbd051acc	-0.03249626
226	0x3be75b50	0.007060446
227	0xbdb00ccd	-0.085961916
228	0x3ca5eb4d	0.020253802
229	0xbd8b8d55	-0.06814066
230	0xbcba94b1	-0.02277598
231	0xbdb0f60e	-0.08640681
232	0xbcb9f810	-0.022701293
233	0x3d998265	0.07495574
234	0xbd996809	-0.07490546
235	0x3dc7b9a2	0.097522035
236	0x3d80654c	0.06269321
237	0xbd85a036	-0.065246984
238	0xbd25a27c	-0.04043816
239	0x3cb49abd	0.022046441
240	0xbd5e7962	-0.05431498
241	0xbda26960	-0.07930255
242	0xbd9bb008	-0.07601935
243	0xbda2b591	-0.07944787
244	0xbd06177a	-0.032737233
245	0xbc10cff7	-0.008838645
246	0x3d655671	0.05599064
247	0x3d31f134	0.04344292
248	0x3d98d36d	0.07462201
249	0xbda22f5c	-0.07919189
250	0xbda0574a	-0.07829149
251	0xbd18fd99	-0.037351225
252	0x3d317912	0.043328352
253	0x3cb201a4	0.021729298
254	0xbd162883	-0.03665973
255	0x3ccfc521	0.025362553

net.8.bias f4 [100]
0	0x3d507a7d	0.050898064
1	0x3cd6bb4b	0.026212355
2	0xbbad68f8	-0.0052920543
3	0x3d980cd0	0.07424319
4	0x3b97158a	0.004610722
5	0xbcf09ff2	-0.029373143
6	0x3c820ac6	0.015874278
7	0xbd0c7371	-0.03428978
8	0x3d118451	0.035526577
9	0xbcd1ec2d	-0.025625313
10	0xbd43ff19	-0.047850702
11	0xbd242d47	-0.040082242
12	0xbbb3f8b2	-0.0054922933
13	0x3d4de318	0.0502654
14	0xbc05f341	-0.008175672
15	0xbbac85af	-0.0052649598
16	0xbc824b01	-0.015904905
17	0xbd412bec	-0.047161028
18	0x3d8ad575	0.06778995
19	0x3d1ea5a9	0.038732205
20	0xbc229166	-0.009922361
21	0x3daae91b	0.083452426
22	0x3d44fac4	0.04809071
23	0x3cd43228	0.025902823
24	0x3d634ec2	0.05549503
25	0x3c841123	0.016121453
26	0x3d2ce3b1	0.04220933
27	0x3d3d2f93	0.04618795
28	0xbc4a541a	-0.012349153
29	0xbabb9a6a	-0.0014312987
30	0xbd2d51d8	-0.04231438
31	0xbdc55cc8	-0.09636837
32	0x3d15c8fe	0.036568634
33	0x3c7e3e25	0.015517746
34	0xbceef6d6	-0.029170435
35	0x3d4675ad	0.048452068
36	0x3c9b814e	0.018982556
37	0x3cdcf7f7	0.026973708
38	0xbd114efb	-0.035475712
39	0xbd282900	-0.041054726
40	0x3de56fd5	0.11202971
41	0xbcabce28	-0.020972326
42	0x3d3bc143	0.045838606
43	0x3d66fb54	0.05639203
44	0xbd14e400	-0.03635025
45	0xbda6e71d	-0.0814955
46	0x3d076699	0.03305683
47	0xbd240765	-0.040046114
48	0x3c0ccbf7	0.008593551
49	0x3b4a2364	0.0030843848
50	0x3c412f7c	0.011791106
51	0xbd9aeddf	-0.075649016
52	0xbc296adb	-0.010340418
53	0x3d099cec	0.033596918
54	0xbd6b349f	-0.05742323
55	0xbd4a8c61	-0.049450282
56	0xbd84426c	-0.064579815
57	0x3c9da8e0	0.019245565
58	0x3d12497b	0.035714608
59	0xbd89ebdc	-0.0673444
60	0xbd913fdc	-0.07092258
61	0x3d5c4c8e	0.053783946
62	0xbda678d3	-0.08128514
63	0xbca9a786	-0.020709764
64	0x3c8a0ced	0.016851867
65	0xbc1b3e80	-0.00947535
66	0x3bd7fbc2	0.006591291
67	0xbdb4f0f9	-0.088350244
68	0x3dca0fd4	0.098663
69	0xbd1a72f2	-0.037707277
70	0xbcb9f278	-0.022698626
71	0xbcf77006	-0.030204784
72	0xbd3e8af5	-0.04651924
73	0xbd215073	-0.039383363
74	0x3d2923ca	0.041293897
75	0xbcef7c91	-0.029234203
76	0xbd5fc117	-0.054627504
77	0xbae964aa	-0.001780649
78	0xbd40d6c9	-0.047079835
79	0xbae11199	-0.0017171382
80	0x3d79045f	0.060795184
81	0x3d85c58a	0.06531818
82	0x3d8f73a2	0.07004477
83	0xbc37f21b	-0.011227156
84	0x3d12197e	0.035668842
85	0x3d3be1b4	0.045869544
86	0xbd6c22f8	-0.057650536
87	0xbd503f38	-0.05084154
88	0x3cb5755c	0.022150688
89	0x3dad44ea	0.0846041
90	0xbd5fa1b0	-0.054597557
91	0x3dae356d	0.08506284
92	0x3d4a412c	0.04937856
93	0x3c82ea49	0.015980856
94	0xbc65875d	-0.014009324
95	0x3c80d4a4	0.015726395
96	0x3d45e918	0.048318
97	0xbc02df51	-0.007987813
98	0xbab66ade	-0.0013917347
99	0x3daca034	0.08428994
