models/heatalpha/sin/heatalpha_34.pth (torch, 977047 bytes, 51 tensors)

net.0.weight f4 [100, 3]
0	0xbebabb1d	-0.3647088
1	0x3e80d084	0.25159085
2	0x3e5ef110	0.21771646
3	0x3a0484a6	0.00050551665
4	0x3de738c8	0.11290127
5	0xbf0dad3f	-0.5534248
6	0xbf1252b5	-0.5715745
7	0x3e8fb616	0.28068608
8	0x3f070bae	0.52752197
9	0x3ea98aaf	0.3311362
10	0xbe031595	-0.12801202
11	0xbf23ae14	-0.639375
12	0xbe878908	-0.26471734
13	0x3da8df47	0.08245712
14	0x3ebc9c51	0.3683801
15	0x3ee7dcdc	0.4528569
16	0x3f4a999f	0.7914066
17	0x3f07e66e	0.5308598
18	0xbebce76c	-0.3689531
19	0x3ed4e910	0.41584063
20	0x3d7e956c	0.06215422
21	0xbcb7f251	-0.022454413
22	0xbcf0e3ec	-0.029405557
23	0xbe1b346c	-0.15156716
24	0xbd36f82a	-0.04467026
25	0xbf01b2bf	-0.5066337
26	0x3b53c505	0.0032313478
27	0x3f29ae11	0.6628123
28	0x3e37e61f	0.17958878
29	0xbe385224	-0.18000084
30	0xbe401280	-0.18757057
31	0x3f3f063b	0.7461888
32	0xbf24ac95	-0.6432584
33	0x3f1a12ed	0.6018513
34	0xbe37438d	-0.17896862
35	0x3eae3ebe	0.34032243
36	0xbd13f546	-0.036122583
37	0x3e015aef	0.12632345
38	0xbeb1c300	-0.34719086
39	0xbe2bde4d	-0.1678402
40	0x3e70a58d	0.23500653
41	0x3dff7b49	0.12474687
42	0xbf104ffe	-0.5637206
43	0xbe85e25c	-0.2614926
44	0xbe95eb6e	-0.2928118
45	0xbe65c5a8	-0.22438681
46	0xbf150bf0	-0.5822134
47	0x3ef148cb	0.4712585
48	0x3f01579a	0.50524294
49	0x3d5101f9	0.051027272
50	0x3d2a4521	0.041569833
51	0x3f1e7d30	0.6190977
52	0x3e851a00	0.259964
53	0xbed9a468	-0.42508245
54	0xbddb1c05	-0.10698704
55	0xbee5f1d4	-0.44911063
56	0x3ebb235a	0.3655041
57	0x3ea4e0d9	0.32202795
58	0xbe3e2fa1	-0.18572856
59	0x3f246646	0.64218557
60	0x3eed78c6	0.46381205
61	0xbf0f148e	-0.5589074
62	0xbf209704	-0.6273043
63	0xbe341665	-0.17586668
64	0x3e03ee30	0.1288383
65	0x3f16e22c	0.5893886
66	0xbe334da1	-0.17510082
67	0xbef2c23d	-0.47413817
68	0x3efadd08	0.48996758
69	0xbe014819	-0.1262516
70	0x3eed9cd3	0.4640871
71	0xbe019b45	-0.12656887
72	0xbef26c0d	-0.4734806
73	0x3e1c9fa5	0.15295275
74	0xbecda87c	-0.40167606
75	0x3eb0fc37	0.34567425
76	0x3db2c1b6	0.08728354
77	0x3e794d71	0.24345948
78	0x3e9f79be	0.3114757
79	0x3e484489	0.19557394
80	0xbec5d4d8	-0.3863895
81	0xbf2d9fc7	-0.67821926
82	0xbf28a95c	-0.6588342
83	0x3eb04718	0.3442924
84	0xbed507ba	-0.41607457
85	0xbf26bd32	-0.6513244
86	0xbeab19f8	-0.3341825
87	0x3ee60091	0.44922307
88	0xbd400858	-0.046882957
89	0x3e778161	0.24170448
90	0x3c8a16c2	0.016856555
91	0x3e1696cd	0.14705963
92	0xbd9ad1e8	-0.07559568
93	0x3e624729	0.22097458
94	0xbea1425a	-0.31495935
95	0x3e03ded7	0.12877975
96	0x3f193b76	0.59856355
97	0x3e6afbce	0.22947618
98	0x3ecc91ba	0.3995493
99	0xbe14f007	-0.14544688
100	0x3e3e35f5	0.1857527
101	0x3eccfd29	0.40036896
102	0x3e7bbe88	0.245844
103	0xbd39bd54	-0.045346573
104	0xbda25033	-0.07925453
105	0x3edb78c4	0.42865574
106	0x3df1e603	0.118114494
107	0xbf3ca3de	-0.7368754
108	0xbf0d7642	-0.5525857
109	0x3f2985c1	0.6621972
110	0xbe4fb110	-0.20282388
111	0x3e0e8c52	0.13920715
112	0xbf275115	-0.65358096
113	0x3d303afc	0.043025002
114	0x3e94e067	0.29077455
115	0x3f2c243c	0.6724279
116	0x3f398716	0.7247175
117	0x3ea49282	0.32143027
118	0xbeb3529f	-0.35023972
119	0xbf022936	-0.5084413
120	0x3eb2fc3a	0.3495806
121	0xbe4449e6	-0.19168815
122	0xbe828343	-0.2549077
123	0x3e895ac8	0.26827073
124	0x3baff917	0.00537027
125	0x3e78c71c	0.24294704
126	0xbbdcea7d	-0.0067418204
127	0x3e9b3e8d	0.3032116
128	0xbd5721b4	-0.052522376
129	0xbda915ba	-0.08256097
130	0x3ed6bf4f	0.41942832
131	0x3e5e42ca	0.21705166
132	0x3f1457d8	0.5794654
133	0x3ef61ae7	0.480674
134	0x3d73c9a6	0.05951848
135	0xbe2a38d4	-0.1662324
136	0x3f2b012f	0.6679868
137	0xbf051e4f	-0.5199937
138	0xbeb52344	-0.35378468
139	0xbe93b477	-0.2884862
140	0xbf3dc796	-0.7413267
141	0x3e8f68f1	0.2800975
142	0x3ddba1cc	0.1072422
143	0x3f42af56	0.7604879
144	0x3a1bbf6d	0.00059413054
145	0x3d8aa48d	0.06769667
146	0x3ea11b4c	0.31466138
147	0x3ec18eea	0.37804347
148	0xbdffa769	-0.12483103
149	0x3eb47016	0.35241765
150	0xbbbc7235	-0.005750919
151	0xbeec2296	-0.46120137
152	0x3e6fe88f	0.23428558
153	0x3f11fd2a	0.5702692
154	0xbde5133f	-0.111853115
155	0x3c92abd6	0.017904203
156	0xbe3f1746	-0.18661222
157	0x3ebffe73	0.37498817
158	0xbee4d21c	-0.4469155
159	0xbefd3846	-0.49456996
160	0x3e8ad026	0.2711193
161	0xbda794fc	-0.081827134
162	0xbf00dc12	-0.503358
163	0xbd929e04	-0.07159045
164	0xbd9d0733	-0.07667389
165	0xbf1333c4	-0.57500863
166	0xbf16b361	-0.5886746
167	0xbe3849b8	-0.17996871
168	0xbe1e20a7	-0.15442143
169	0xbe6ef569	-0.23335804
170	0x3e3cf5b6	0.18453106
171	0xbe385f2c	-0.18005055
172	0xbe320eda	-0.17388478
173	0xbd1aadf8	-0.037763566
174	0xbef707c7	-0.4824812
175	0xbe4b75dd	-0.1986918
176	0xbf0070dd	-0.50172216
177	0xbdcc8cd0	-0.09987795
178	0xbe9073b2	-0.2821327
179	0xbf136150	-0.5757036
180	0x3e3fbad4	0.18723613
181	0xbf02ab82	-0.5104295
182	0x3e8723f9	0.26394632
183	0x3e99ceca	0.3004058
184	0xbdbd6c94	-0.09249225
185	0x3ec0061b	0.37504658
186	0x3f1c4421	0.61041456
187	0x3ee271f5	0.44227567
188	0x3e7be2c4	0.24598223
189	0xbefbc0dc	-0.49170578
190	0x3ed0055e	0.40629095
191	0xbc9f197a	-0.019421328
192	0xbeaf9498	-0.34293056
193	0xbdd14275	-0.10217754
194	0x3dde9c07	0.108696036
195	0xbf07ebd2	-0.5309421
196	0x3edc6a01	0.43049625
197	0xbebe0dc2	-0.3711987
198	0xbccad2cc	-0.024758719
199	0x3e8a02a9	0.26955155
200	0xbdb83921	-0.089952715
201	0xbf0d38d7	-0.55164856
202	0xbdee6b6f	-0.11641585
203	0xbeac476c	-0.3364824
204	0x3e05ef48	0.1307956
205	0xbecc2b1c	-0.3987664
206	0xbdb0e9cf	-0.086383455
207	0x3ea30ea3	0.31847104
208	0xbf19a00e	-0.6000985
209	0xbd813e6e	-0.06310736
210	0xbe2d3b5d	-0.16917177
211	0xbee1e50b	-0.44120058
212	0x3e6e02c6	0.23243245
213	0x3eb3bec0	0.35106468
214	0x3e37dbac	0.17954892
215	0x3e6a4d5f	0.22881077
216	0xbdaa6a6a	-0.08321078
217	0x3ed0e8b8	0.4080255
218	0xbdcd029c	-0.10010263
219	0x3f351475	0.7073434
220	0xbe6386d8	-0.22219408
221	0x3edf14fb	0.43570694
222	0xbf03b5c3	-0.5144922
223	0x3ecdaa00	0.40168762
224	0x3e6a3402	0.22871402
225	0x3f179d91	0.592248
226	0xbec30b1b	-0.3809441
227	0xbf58c2ca	-0.84672225
228	0xbdbf13bd	-0.09329937
229	0xbe9ebd76	-0.31003922
230	0x3f2a3b46	0.66496694
231	0xbef35005	-0.47521988
232	0x3e3e7573	0.18599491
233	0x3e1f82bf	0.1557722
234	0x3f056851	0.521123
235	0x3ed78f69	0.421016
236	0x3f0a4b49	0.54021126
237	0xbe884bcd	-0.2662033
238	0xbf135364	-0.5754912
239	0xbf05d802	-0.52282727
240	0x3ed69825	0.41912952
241	0x3ea6f286	0.32606906
242	0xbf08b04f	-0.53394026
243	0x3d2c25a9	0.042028103
244	0xbe4ab8d8	-0.19797075
245	0xbe82b052	-0.25525147
246	0x3e997f41	0.299799
247	0x3e914b70	0.28377867
248	0x3f31b547	0.6941723
249	0xbe16b447	-0.14717208
250	0x3d508b3d	0.050914038
251	0xbf0089d5	-0.50210315
252	0xbf03eb08	-0.51530504
253	0x3e9a5d01	0.3014908
254	0xbefc815a	-0.49317437
255	0x3ecc1593	0.3986021

net.0.bias f4 [100]
0	0xbf100819	-0.56262356
1	0xbe9f82cb	-0.31154475
2	0xbeb1af1c	-0.3470391
3	0xbed1f476	-0.4100682
4	0x3f052649	0.52011544
5	0x3f116028	0.5678735
6	0xbd0baee4	-0.034102336
7	0xbeb575c6	-0.35441417
8	0x3d196ae3	0.03745545
9	0x3e764368	0.24049151
10	0xbef84666	-0.4849121
11	0x3e562c80	0.20915413
12	0x3efc6ba7	0.49300882
13	0x3f02bcd3	0.5106937
14	0xbf07a07f	-0.5297927
15	0xbf05f1ac	-0.52321887
16	0x3f05ad94	0.52217984
17	0xbf03e5ba	-0.5152241
18	0xbdb40a9d	-0.08791087
19	0x3d6625ec	0.05618851
20	0xbf0a5a96	-0.54044473
21	0xbeca8837	-0.3955705
22	0xbee6fb21	-0.4511347
23	0x3eb00543	0.34379014
24	0xbdaa4342	-0.0831361
25	0x3ed64e0c	0.4185642
26	0x3f0322e2	0.512251
27	0xbf51588b	-0.8177573
28	0xbf170d3f	-0.59004587
29	0x3ea86936	0.3289277
30	0x3f0df9bb	0.55459183
31	0xbebc88ad	-0.36823025
32	0x3dd07927	0.10179358
33	0xbf118d88	-0.56856585
34	0xbeffb79c	-0.4994477
35	0xbf1a49e9	-0.6026903
36	0x3f248194	0.6426022
37	0xbf0f011b	-0.5586106
38	0x3f037de8	0.5136399
39	0xbee94fd4	-0.45568717
40	0xbeb2daf1	-0.34932664
41	0xbf1a2b05	-0.6022189
42	0x3ded6607	0.11591726
43	0x3ecfa1e4	0.405532
44	0xbea8baa2	-0.3295489
45	0xbf0ebc65	-0.5575622
46	0x3db11a1f	0.0864756
47	0x3e5c08d6	0.21487746
48	0xbed99db1	-0.42503121
49	0x3cfa7a0b	0.030575773
50	0xbd89d93c	-0.06730887
51	0xbefecc32	-0.49765164
52	0x3df6333d	0.12021492
53	0xbefe18e4	-0.49628365
54	0x3e84048e	0.25784725
55	0x3ee1a920	0.44074345
56	0x3f037cc0	0.5136223
57	0xbeabe343	-0.33571824
58	0x3de1d583	0.11027052
59	0xbe7de1c3	-0.24793153
60	0xbf378d07	-0.71699566
61	0xbe896bbd	-0.2684001
62	0x3ef4da25	0.4782268
63	0x3dd069d1	0.10176433
64	0xbe2f8b70	-0.17143035
65	0x3ecb58b9	0.39716128
66	0x3e7122ff	0.23548506
67	0x3ef2a5bb	0.47392067
68	0x3ea6d41f	0.3258371
69	0x3ee16038	0.44018722
70	0x3ec6b131	0.3880706
71	0xbe6d4cdb	-0.2317385
72	0x3f0560a9	0.52100617
73	0xbefa2a43	-0.48860368
74	0xbf029016	-0.5100111
75	0xbe30c69d	-0.17263265
76	0xbe771661	-0.2412963
77	0xbec38ea8	-0.38194776
78	0x3ecf80de	0.40528005
79	0xbf1e9458	-0.61945105
80	0x3c1b36eb	0.009473543
81	0x3f09b195	0.53786594
82	0xbdd6c076	-0.10485928
83	0x3e5724c2	0.21010116
84	0xbea6995f	-0.32538888
85	0xbdc872d4	-0.09787527
86	0x3eec2ffa	0.46130353
87	0xbecddcff	-0.4020767
88	0xbed6bc66	-0.41940612
89	0x3d8b5e88	0.0680514
90	0xbcbf6ada	-0.02336638
91	0xbe8457c9	-0.25848225
92	0xbe885c15	-0.26632753
93	0xbecae329	-0.39626434
94	0x3ed66213	0.418717
95	0x3f01a585	0.5064319
96	0xbe5576a2	-0.20846036
97	0xbe7353b5	-0.237624
98	0xbf17adb5	-0.5924943
99	0x3dcf5d3a	0.101252034

net.2.weight f4 [100, 100]
0	0xbd6ce6bd	-0.057837237
1	0xbd9f284c	-0.07771358
2	0xbc929149	-0.017891543
3	0x3c0f6a54	0.008753378
4	0x3cad1443	0.021127826
5	0xbbf582c8	-0.007492397
6	0xbdeb2214	-0.11481109
7	0xbde16601	-0.11005784
8	0xbbb81b37	-0.0056184786
9	0x3ca90265	0.020631025
10	0xbcc17a82	-0.023617987
11	0x3a97963a	0.0011565157
12	0x3b92b234	0.00447681
13	0x3d669e68	0.05630341
14	0x3c435aec	0.011923533
15	0x3d6e87ca	0.058234967
16	0xbd55147a	-0.05202148
17	0xbdae1e45	-0.08501867
18	0x3d58f398	0.052966684
19	0x3dd16f09	0.102262564
20	0x3c8967d1	0.016773136
21	0xbd04552b	-0.032307785
22	0x3dab34a6	0.08359651
23	0xbc815d89	-0.015791671
24	0x3c5e61f7	0.013573161
25	0x3be3227d	0.0069316016
26	0xbdc73dd5	-0.097285904
27	0xbd8a986f	-0.06767356
28	0xba31b6e6	-0.0006779268
29	0xbd17d50d	-0.037068415
30	0x3da41786	0.08012299
31	0x3cab7e42	0.020934228
32	0xbdd95241	-0.10611392
33	0xbd6ce202	-0.057832725
34	0xbd30b879	-0.043144677
35	0x3d380c87	0.044933822
36	0xbdc625fc	-0.09675214
37	0x3c0bd54f	0.008534743
38	0xbe01b107	-0.12665187
39	0xbc68b3fa	-0.014203066
40	0x3d87d2cc	0.06632003
41	0x3d954adb	0.07289668
42	0xbd3a67a0	-0.04550898
43	0x3d2cc7ef	0.04218286
44	0xbcfc8273	-0.030823922
45	0xbd0beffa	-0.034164406
46	0x3a46218f	0.0007558101
47	0x3e0454e9	0.12923016
48	0xbd08e0b0	-0.033417404
49	0xbd28f5ec	-0.041250154
50	0x3d946c0d	0.072471716
51	0xbd3205e2	-0.04346264
52	0xbd759c23	-0.059963357
53	0x3db2edd9	0.08736772
54	0xbd1380df	-0.036011573
55	0x3cd33471	0.025781842
56	0xbd9cc4af	-0.07654702
57	0xbce7255c	-0.028216057
58	0xbd65c660	-0.05609739
59	0xbdc6d555	-0.097086586
60	0xbc2b3440	-0.010449469
61	0x3c5032c1	0.012707413
62	0x3c91aced	0.017782653
63	0xbd25bcb9	-0.040463183
64	0x3d674e19	0.056470964
65	0xbe1cd50c	-0.15315646
66	0xbdafdc18	-0.085869014
67	0x3deecf47	0.11660629
68	0xbd93fc5b	-0.07225867
69	0x3d95334c	0.07285175
70	0xbd6972ef	-0.056994375
71	0x3cf4aaa3	0.029866522
72	0x3da0197c	0.07817361
73	0x3d83a684	0.06428245
74	0xbde7e828	-0.11323577
75	0xbdd5ba6a	-0.10435946
76	0xbc14bb54	-0.009077866
77	0xbd4e6374	-0.050387815
78	0xbdb05530	-0.08609998
79	0x3c7d9539	0.015477472
80	0x3d17a3e4	0.037021533
81	0xbdcdf4cc	-0.10056457
82	0x3d467d3b	0.048459273
83	0x3d5bf7be	0.053703062
84	0xbdd06874	-0.10176173
85	0xbcd5f784	-0.026119001
86	0xbca693b9	-0.020334112
87	0xbdd01c61	-0.10161663
88	0x3cc1bc91	0.023649486
89	0xbd973400	-0.07382965
90	0x3e01112a	0.12604204
91	0xbcf840b0	-0.030304283
92	0xbd44b7bb	-0.04802678
93	0x3bd39da0	0.0064579993
94	0x3d7dcea5	0.06196465
95	0xbbc69ecf	-0.006061412
96	0xbd83c378	-0.06433767
97	0x3aa1d34c	0.0012346297
98	0x3ca7c2ce	0.020478632
99	0xbd97757e	-0.07395457
100	0xbcfabb29	-0.030606823
101	0x3d055889	0.032555137
102	0xbdd7a97c	-0.105303735
103	0xbdf36cc7	-0.11885982
104	0x3d96493e	0.073381886
105	0xbd871668	-0.065960705
106	0xbd6056dc	-0.054770336
107	0x3d3f5105	0.046708126
108	0x3d00a889	0.031410728
109	0xbd3b667e	-0.04575204
110	0xbd5025a0	-0.050817132
111	0x3d8b7430	0.068092704
112	0xbdb70793	-0.089369915
113	0x3d9c104a	0.076202944
114	0xbdb646b3	-0.089002036
115	0x3c8dd40e	0.01731303
116	0xbd33664c	-0.04379873
117	0x3d0696f8	0.03285882
118	0xbdb56eea	-0.08859046
119	0x3d3540fa	0.04425142
120	0x3d44aefb	0.048018437
121	0x3b1f21a9	0.0024281538
122	0xbc4549a8	-0.012041487
123	0x3c756beb	0.014979343
124	0xbdb21a17	-0.086963825
125	0x3d55cf95	0.05219992
126	0xbd53ab5e	-0.0516771
127	0x3dae2aa9	0.085042305
128	0x3dce6683	0.10078146
129	0xbcee867a	-0.029116858
130	0x3bbffe38	0.0058591627
131	0x3db15e96	0.08660619
132	0x3d076693	0.033056807
133	0x3e1a9e35	0.15099414
134	0x3d5e25b4	0.054235175
135	0x3e1c398e	0.1525633
136	0x3d99aa18	0.07503146
137	0xbdcb842e	-0.09937321
138	0x3db621e4	0.08893183
139	0x3d4430d8	0.047898144
140	0xbbdd6ece	-0.0067575937
141	0xbdbdb3ec	-0.09262833
142	0xbda1f13d	-0.07907341
143	0xbdb0bad9	-0.08629388
144	0x3db31888	0.08744913
145	0x3d4edb72	0.050502248
146	0x3df6011f	0.120119326
147	0xbdc5c003	-0.09655764
148	0xbd55f5d9	-0.05223641
149	0x3d8861c8	0.06659275
150	0xbdb0ed8b	-0.08639058
151	0x3d3a8be2	0.04554356
152	0x3d88e608	0.066845
153	0xbd7261c2	-0.05917526
154	0xbce6dbbc	-0.02818095
155	0x3d801d87	0.06255632
156	0x3d5e12a6	0.054217003
157	0xbdb71fb4	-0.08941594
158	0xbcf25d4d	-0.029585505
159	0x3cec7b7d	0.028867478
160	0x3dc9304c	0.09823665
161	0xbc41d853	-0.011831361
162	0xbde6df5d	-0.11273072
163	0xbdac161b	-0.08402654
164	0xbcd72b1b	-0.026265671
165	0x3d16e59d	0.03684007
166	0x3dbaa12e	0.09112774
167	0xbce4ff09	-0.027953641
168	0xbd824c12	-0.063621655
169	0x3d792900	0.060830116
170	0xbd810aca	-0.06300886
171	0x3d2b92c1	0.041888002
172	0x3d966f64	0.07345465
173	0x3d77412b	0.060364883
174	0x3d63bc7a	0.055599667
175	0xbde70b11	-0.112814076
176	0xbd371cc3	-0.044705164
177	0xbd00230a	-0.031283416
178	0xbd389869	-0.045067225
179	0x3cf235e0	0.029566705
180	0x3d09dde3	0.033658873
181	0x3d090230	0.03344935
182	0xbd342332	-0.043978877
183	0x3b8291c9	0.003984664
184	0x3d4908e8	0.04908076
185	0xbdeb4838	-0.11488384
186	0xbceea76d	-0.02913257
187	0xbdd4b8e6	-0.10386829
188	0x3d4fb31d	0.050707925
189	0xbccfd53b	-0.02537023
190	0x3d9d593b	0.07683035
191	0x3b820d53	0.0039688735
192	0x3c0f03c4	0.008728925
193	0xbb862851	-0.0040941616
194	0x3dcb6c73	0.099327944
195	0xbcc60de6	-0.02417655
196	0xbd867266	-0.065647885
197	0xbd12689d	-0.0357443
198	0x3ce5fdb3	0.028075075
199	0x3c06c6ac	0.008226078
200	0xbdd14c31	-0.102196105
201	0xbdf46787	-0.11933809
202	0x3d72233f	0.059115645
203	0x3da77283	0.08176138
204	0x3dad73f0	0.08469379
205	0x3cd49bab	0.025953135
206	0x3d0f14a2	0.034931786
207	0xbda4d4c4	-0.08048394
208	0xbc0ddf58	-0.008659206
209	0xbcada0a4	-0.021194763
210	0xbb4a7f0a	-0.0030898475
211	0x3e0d3871	0.13791062
212	0x3d3ea0b3	0.046539973
213	0x3d1498d0	0.036278546
214	0xbe033677	-0.12813745
215	0x3cfa22d4	0.030534185
216	0x3e0238ef	0.12717031
217	0xbc27ea04	-0.010248665
218	0x3cd939fa	0.026516903
219	0x3d965b0d	0.07341585
220	0xbc8683c1	-0.016420247
221	0xbd9d6374	-0.07684985
222	0x3cae7b14	0.021298923
223	0xbb520c42	-0.0032050763
224	0x3cdaa408	0.026689544
225	0x3d926a2d	0.07149158
226	0x3bfec58e	0.007775015
227	0x3c303bbc	0.010756429
228	0xbdbbf444	-0.09177449
229	0xbbefcafa	-0.007317898
230	0xbd1f8726	-0.038947247
231	0x3d3ee551	0.046605412
232	0x3db7b790	0.08970559
233	0xbd4f208a	-0.05056814
234	0xbd4faa94	-0.050699785
235	0xbc24ccd5	-0.010058601
236	0xbd3923e9	-0.045200262
237	0x3dcdf3b3	0.100562476
238	0xbba57244	-0.005049022
239	0x3daf3d09	0.085565634
240	0xbd0b4630	-0.034002483
241	0xbaf07ef8	-0.0018348387
242	0xbbdf76e2	-0.006819592
243	0x3d8631d8	0.06552476
244	0xbd65058c	-0.055913493
245	0x3d829204	0.063755065
246	0xbe003653	-0.12520723
247	0xbd912ac3	-0.07088234
248	0x3d80d518	0.062906444
249	0xbd5424d5	-0.05179294
250	0xbd3eefb6	-0.046615325
251	0xbd13a336	-0.036044322
252	0xbc042e0d	-0.00806762
253	0xbd09303a	-0.033493258
254	0x3ca292ee	0.019845452
255	0x3d6db8fe	0.05803775

net.2.bias f4 [100]
0	0xbaa982d3	-0.0012932665
1	0x3cfbfad1	0.030759247
2	0x3d95bc5a	0.07311316
3	0x3dd550ed	0.10415826
4	0x3be1eba4	0.0068945456
5	0xbc4b0fbe	-0.01239389
6	0x3d97f97a	0.07420631
7	0xbd82337c	-0.06357476
8	0x3df66a3b	0.120319806
9	0x3d870d58	0.06594342
10	0xbbe1d0fc	-0.006891368
11	0x3ccf2281	0.025285007
12	0x3d8b4e61	0.06802059
13	0x3d8d29ff	0.06892776
14	0x3dbced7f	0.09224986
15	0xbb9b375a	-0.004736823
16	0xbd840ea8	-0.06448108
17	0xbdbf27f0	-0.09333789
18	0x3c450c9a	0.01202693
19	0x3d67dc1a	0.05660639
20	0xbdb97f00	-0.090574265
21	0xba85a0ce	-0.0010195018
22	0xbdbf8b0c	-0.09352693
23	0x39bb08c9	0.00035673965
24	0x3daa8841	0.083267696
25	0x3d4c0c74	0.049816564
26	0xbdbaa457	-0.091133766
27	0xba75d2b7	-0.0009377407
28	0xbbcf1929	-0.006320138
29	0xbd82c23f	-0.06384706
30	0xbda9bf8d	-0.082884885
31	0x3d3e0da5	0.04639973
32	0x3d29f32b	0.04149167
33	0xbdbfe5cd	-0.09370003
34	0x3db2820c	0.08716211
35	0x3cc786f8	0.02435635
36	0x3d3cfc5d	0.04613911
37	0x3dc566de	0.09638761
38	0x3c70b874	0.014692415
39	0xbd20dae9	-0.03927127
40	0x3dcfbf33	0.1014389
41	0xbd4025fb	-0.04691122
42	0x3da0bdd2	0.07848705
43	0x3cbc9641	0.023020865
44	0xbd752693	-0.05985124
45	0xbdac43a0	-0.08411336
46	0x3d196b1e	0.03745567
47	0x3c7cd844	0.015432421
48	0x3d49f419	0.049305055
49	0x3db1ea4b	0.08687266
50	0x3dbcd748	0.09220749
51	0xbd8df0ec	-0.06930718
52	0x3d69b315	0.05705555
53	0xbd6ad258	-0.057329506
54	0x3d9c4847	0.07630973
55	0x3db49b4b	0.08818682
56	0x3e13e3d2	0.14442375
57	0xbdc897ac	-0.09794554
58	0x3ccbd2f1	0.024880858
59	0xbc50a9bb	-0.012735779
60	0x3d829d6a	0.063776806
61	0x3dd2d182	0.10293867
62	0x3c8d400c	0.017242454
63	0xbd933622	-0.071880594
64	0xbd0a8acc	-0.033823773
65	0xbc889329	-0.016671734
66	0x3d93910b	0.07205399
67	0x3d48e9e4	0.04905118
68	0xbd9c0ff8	-0.07620233
69	0x3db82008	0.089904845
70	0xbcb7fea8	-0.022460297
71	0x3d745104	0.059647575
72	0xbcf0f607	-0.02941419
73	0x3d18734f	0.03721934
74	0x3db1f873	0.08689966
75	0xbdb3da22	-0.0878184
76	0x3d93c63b	0.07215544
77	0xbdcd60c2	-0.10028221
78	0x3d63cb61	0.05561388
79	0xbd1cfbf0	-0.038326204
80	0x3d5ce2f2	0.05392737
81	0x3d90a4fe	0.0706272
82	0xbce03166	-0.027367305
83	0x3da1c193	0.078982495
84	0xbdb65b28	-0.089041054
85	0x3b14b07d	0.0022688203
86	0xbc284d84	-0.010272387
87	0xbd695517	-0.056965914
88	0xbdbff04d	-0.093720056
89	0xbdad4543	-0.08460476
90	0xbd904c13	-0.0704576
91	0xbb7f5a5c	-0.003896377
92	0xbd90238a	-0.070380285
93	0xbbe4e721	-0.0069855605
94	0xbd15b1c3	-0.03654648
95	0x3da667af	0.08125245
96	0x3b88b258	0.004171651
97	0xbd833417	-0.0640642
98	0xbcb554dd	-0.022135193
99	0x3dc469b7	0.09590476

net.4.weight f4 [100, 100]
0	0xbc34d1d1	-0.011036352
1	0xbe2698e3	-0.16269259
2	0x3db78894	0.08961597
3	0x3de9c4c0	0.1141448
4	0x3d702d51	0.058636967
5	0xbd3a7975	-0.045525987
6	0x3d9dac79	0.07698912
7	0xbda23eb0	-0.07922113
8	0xbd93d820	-0.07218957
9	0x3caf6655	0.0214111
10	0x3ddc846e	0.107674465
11	0x3e00889c	0.12552112
12	0x3e014b80	0.12626457
13	0xbe3e5409	-0.18586744
14	0x3df5ca3b	0.12001463
15	0xbdefb5c3	-0.1170459
16	0xbe15a383	-0.14613156
17	0x3c1b99ce	0.009497119
18	0xbe1336c3	-0.14376359
19	0xbd0322d9	-0.032015655
20	0xbc1a9f03	-0.009437325
21	0xbcb6ddb5	-0.022322515
22	0x3d936759	0.071974464
23	0x3dfed011	0.12442029
24	0x3df8fc18	0.12157458
25	0xba67934e	-0.0008833901
26	0x3d0aa12d	0.033845115
27	0x3d2bea12	0.041971274
28	0xbc7411fb	-0.014896865
29	0xbd1ce589	-0.03830484
30	0x3d9e575b	0.077315055
31	0xbbfc4c05	-0.007699492
32	0x3dae8581	0.085215576
33	0xbc1a9d91	-0.009436981
34	0xbdef385f	-0.11680674
35	0xbd70f437	-0.05882665
36	0xbdb7b2df	-0.08969664
37	0xbc0d2a05	-0.008615975
38	0x3e6a2b4a	0.22868076
39	0xbd127033	-0.035751533
40	0xbdde7f02	-0.108640686
41	0xbdbfcc25	-0.09365109
42	0xbdb29d29	-0.08721382
43	0xbd2b6276	-0.041841947
44	0x3dd4f898	0.10398978
45	0x3d28bf24	0.04119791
46	0xbe5e7b15	-0.2172664
47	0x3db6166d	0.08890996
48	0xbdebfa74	-0.115223795
49	0x3ccd219c	0.02504044
50	0x3c20f690	0.00982441
51	0x3b1283a6	0.00223563
52	0xbd139b36	-0.036036693
53	0x3f0b71d9	0.5447059
54	0xbe78672c	-0.24258107
55	0x3e0513f0	0.12995887
56	0x3d8846cd	0.06654129
57	0x3e19339e	0.14961097
58	0xbe52e0d2	-0.20593575
59	0xbdbf4cf9	-0.09340853
60	0x3dbe783e	0.09300278
61	0x3da471cd	0.08029518
62	0xbd8dfb71	-0.06932724
63	0xbe885cf7	-0.26633427
64	0xbdc062a0	-0.09393811
65	0x3e5be7c4	0.2147513
66	0x3e3eba31	0.18625714
67	0xbe07905c	-0.13238662
68	0xbe79f795	-0.24410851
69	0xbdbdb8b7	-0.09263747
70	0xbc96aae1	-0.018392028
71	0x3e6c903e	0.23101899
72	0xbd9a8d03	-0.07546427
73	0x3d5f8c98	0.05457744
74	0xbd23b824	-0.039970532
75	0x3cc2eca8	0.023794487
76	0xbdf2243d	-0.11823318
77	0xbe3b247c	-0.18275636
78	0xbe044cd5	-0.12919934
79	0xbe24964c	-0.16072959
80	0xbdcf35f0	-0.1011771
81	0x3debd82b	0.1151584
82	0x3d96c04f	0.07360899
83	0x3e270f74	0.16314489
84	0xbea3011e	-0.3183679
85	0xbe1ab406	-0.15107736
86	0xbdc0438d	-0.09387884
87	0x3e66fb09	0.225567
88	0x3d9c56b2	0.07633723
89	0xbd97c9f9	-0.0741157
90	0x3e03f47f	0.12886237
91	0xbdc899a8	-0.097949326
92	0xbd7d124f	-0.06178504
93	0xbdefe9ba	-0.11714502
94	0xbe043ee9	-0.12914623
95	0xbc981b4f	-0.01856771
96	0x3e0878d4	0.13327342
97	0x3d99ba65	0.07506255
98	0xbe216b5d	-0.15763612
99	0xbd83ff87	-0.06445222
100	0xbdb0cb9e	-0.08632587
101	0xbda4d3ec	-0.080482334
102	0xbcac8b32	-0.021062467
103	0x3d27b40c	0.04094319
104	0x3e18633e	0.14881608
105	0xbbf7115c	-0.007539911
106	0xbe15cf69	-0.14629902
107	0x3ddf0d33	0.108911894
108	0x3da4527d	0.08023546
109	0xbd8c9bea	-0.06865676
110	0xbd08b4de	-0.033375613
111	0xbdac23d4	-0.08405271
112	0x3ce219ff	0.027600287
113	0x3dc1765e	0.09446405
114	0xbd679069	-0.056534205
115	0xbd55bf94	-0.052184656
116	0xbda92f17	-0.08260935
117	0xbd26fe4f	-0.04076987
118	0xbd18dea5	-0.037321705
119	0xbcf66c5b	-0.030080965
120	0x3da2bc7a	0.07946105
121	0xbdab3ba7	-0.08360987
122	0xbdc4dce2	-0.096124426
123	0xbc49545b	-0.012288178
124	0x3d653ac4	0.055964246
125	0x3d4a64b5	0.049412448
126	0xbd879ad3	-0.06621327
127	0xbd9d42e9	-0.07678778
128	0x3d895b1c	0.06706831
129	0x3d04375c	0.032279357
130	0x3ddeb000	0.10873413
131	0xbcb8c374	-0.022554137
132	0xbc648bc6	-0.01394934
133	0xbc6a8ff5	-0.014316549
134	0xbcb548e9	-0.022129493
135	0x3d562b82	0.052287586
136	0x3d9972e8	0.0749262
137	0x3dba9863	0.09111097
138	0x3c8cebb0	0.017202228
139	0x3e13427e	0.14380834
140	0xbd9ec988	-0.07753283
141	0xbb948c8e	-0.004533357
142	0x3ca4b7ae	0.020107117
143	0xbd2ff592	-0.042958803
144	0xbdb42c9f	-0.08797573
145	0x3dd5bc11	0.104362614
146	0x3c06888b	0.008211265
147	0x3daafbc1	0.083487995
148	0xbbe23b6d	-0.0069040568
149	0x3ba74ba4	0.0051054526
150	0x3dc35488	0.095376074
151	0x3d9f330f	0.077734105
152	0xbcaf4655	-0.021395842
153	0x3e3dd7ad	0.18539305
154	0xbd9a5269	-0.0753525
155	0x3d53e842	0.05173517
156	0xbe2ef4ed	-0.1708562
157	0xbe1ba050	-0.15197873
158	0xbd282b39	-0.041056845
159	0xbd407a1a	-0.046991445
160	0xbd3559a9	-0.04427496
161	0xbd0f8267	-0.03503647
162	0x3d55c06b	0.052185457
163	0xbbc4f4ff	-0.006010651
164	0x3cb260de	0.021774705
165	0x3e4cfe2f	0.20018838
166	0x3c22a71f	0.00992754
167	0xbc294322	-0.010330947
168	0xbcf9b9fc	-0.030484192
169	0xbdcae8ee	-0.09907709
170	0xbce6b16a	-0.02816077
171	0x3cf585a7	0.029970957
172	0xbde66688	-0.11250025
173	0xbb6ddb81	-0.0036294165
174	0xbdb08515	-0.086191334
175	0xbe03746c	-0.1283738
176	0xbda2f44c	-0.07956752
177	0xbddda4c1	-0.1082244
178	0xbc3141cc	-0.01081891
179	0x3d898e8b	0.06716641
180	0x3c2cc3ce	0.01054473
181	0x3daa430c	0.083135694
182	0x3d4a3b4d	0.04937296
183	0x3de30692	0.110852376
184	0xbc239073	-0.00998317
185	0xbdd5b821	-0.104355104
186	0xbe185b07	-0.14878474
187	0x3e0ae794	0.13564903
188	0xbd77f24b	-0.060533803
189	0x3cd9c4be	0.026583072
190	0x3d529c25	0.051418442
191	0xbd27a415	-0.040927965
192	0x3d06476f	0.032782968
193	0xbd35c0e4	-0.044373408
194	0x3b8f2c30	0.004369281
195	0xbdff3a5a	-0.124623016
196	0x3cac8dac	0.021063648
197	0x3d8ed6e7	0.06974583
198	0x3dd8ecbb	0.10592028
199	0x3ce27cf5	0.027647475
200	0xbcf2c1f5	-0.029633502
201	0xbcf6f92b	-0.03014811
202	0x3b834bfc	0.004006861
203	0x3d8afd97	0.0678665
204	0x3dc2135c	0.09476349
205	0x3b13857f	0.002250999
206	0x3cc43b4d	0.023954058
207	0x3d12206a	0.035675444
208	0x3cd2cf7b	0.0257337
209	0xbc61d89e	-0.013784556
210	0xbd874ca7	-0.06606417
211	0x3dd7ff52	0.10546745
212	0x3dd9e371	0.10639084
213	0xbdd550dc	-0.10415813
214	0xbd0f7172	-0.0350203
215	0xbde09c0c	-0.109672636
216	0x3c7454a4	0.014912758
217	0x3d9f022f	0.07764088
218	0xbddaf2e7	-0.10690861
219	0x3d232131	0.039826576
220	0x3d0a3ac7	0.03374746
221	0x3dd0a496	0.10187642
222	0xbc2f9abc	-0.010718044
223	0xbc219984	-0.009863261
224	0x3d4a8e23	0.04945196
225	0x3d422cb5	0.047405917
226	0xbd8328a7	-0.06404238
227	0xbd84ff83	-0.064940475
228	0xbd3c4ae6	-0.045969866
229	0xbd66e1f9	-0.056367848
230	0x3cfdf437	0.03100024
231	0xba9a9ae9	-0.0011795434
232	0xbdad6306	-0.08466153
233	0xbd3e39d3	-0.046441864
234	0xbdb1c5aa	-0.086802796
235	0x3cab9f19	0.020949887
236	0x3b08885c	0.002083323
237	0x3d89b97c	0.067248315
238	0xbd85f729	-0.06541283
239	0x3d9fa6d1	0.077954896
240	0xbce91daf	-0.028456537
241	0xbe01641f	-0.1263585
242	0xbd1fdfd1	-0.039031807
243	0x3d5a63d8	0.053317875
244	0xbd8490f9	-0.06472964
245	0xbdaaf67a	-0.08347793
246	0xbcee5415	-0.029092828
247	0xbd324a2d	-0.04352777
248	0xbd329800	-0.04360199
249	0x3de4ba55	0.111683525
250	0x3c1e7afb	0.0096728755
251	0xbda62b36	-0.081137106
252	0x3d76c0e1	0.060242537
253	0x3df7841f	0.12085747
254	0xbd9fdc71	-0.07805718
255	0xbd8dc335	-0.069219984

net.4.bias f4 [100]
0	0xbd0ce9a0	-0.03440249
1	0x3bc0164b	0.0058620325
2	0x3c987e96	0.018615048
3	0xbd800b62	-0.06252171
4	0xbdaec927	-0.085344605
5	0x3da6657a	0.08124824
6	0xbcd17b11	-0.025571378
7	0xbce72257	-0.028214617
8	0xbcf34154	-0.029694237
9	0x3d8e8115	0.06958214
10	0x3db747c1	0.08949233
11	0x3db02965	0.086016454
12	0xbd0abac1	-0.03386951
13	0x3d789b03	0.060694706
14	0x3d471303	0.048602115
15	0x3d2c6c4f	0.04209548
16	0xbd4e1661	-0.05031431
17	0xbc665bd7	-0.014059982
18	0xbd70620f	-0.058687266
19	0x3c295d10	0.010337129
20	0xbd3678ad	-0.04454868
21	0xbdafb1b5	-0.08578817
22	0xbc1268c5	-0.008936112
23	0xbcf6322e	-0.030053224
24	0xbc2aa515	-0.010415335
25	0xbdbcfed8	-0.09228295
26	0xbd3c39d0	-0.04595357
27	0x3da244f5	0.07923309
28	0x3d1ff7d6	0.039054714
29	0x3d88bc89	0.06676585
30	0xbd34af4b	-0.044112485
31	0x3bf3c4d2	0.0074392343
32	0x3d6d96f1	0.058005277
33	0x3d872888	0.065995276
34	0xbcc15b8d	-0.023603225
35	0x3d78f5ba	0.060781218
36	0xbd9cd9d8	-0.07658738
37	0xbdd34add	-0.103170134
38	0x3b7ef6e7	0.003890449
39	0x3d5576ab	0.052115124
40	0xbd2567d6	-0.04038223
41	0xbd26a29e	-0.040682428
42	0xbcd5c062	-0.026092712
43	0x3c2bd66c	0.010488134
44	0xbda6fee3	-0.081540845
45	0x3d75ed73	0.060040902
46	0xbd550ecf	-0.052016076
47	0x3db79ddc	0.08965656
48	0xbda5a69c	-0.08088419
49	0x3cadeaab	0.021230062
50	0x3dd0274b	0.101637445
51	0xbcf124d6	-0.02943651
52	0x3b798e6d	0.0038079277
53	0xbda1d33d	-0.07901619
54	0x3cbb4de4	0.02286429
55	0xbdf2ea85	-0.11861137
56	0xbdb6120e	-0.088901624
57	0x3d74b137	0.059739318
58	0x3c60e1db	0.013725723
59	0x3d2ab557	0.041676845
60	0x3c93b9e4	0.018032975
61	0x3dc4b269	0.096043415
62	0xbd009465	-0.03139152
63	0xbd8e6be7	-0.069541745
64	0x3c1cd4b9	0.009572201
65	0xbcea6866	-0.028614234
66	0xbcfcd7bb	-0.030864587
67	0x3da412c8	0.08011395
68	0x3ca07687	0.019587768
69	0x3a0ecaa6	0.0005447067
70	0xbda252b6	-0.07925932
71	0xbdcffcc9	-0.10155637
72	0xbcf3eb9e	-0.029775437
73	0x3da8546a	0.08219226
74	0x3d3b0fe1	0.04566944
75	0x3d85770d	0.06516848
76	0xbd88a716	-0.06672494
77	0x3dd14cc0	0.10219717
78	0x3d8a1d9f	0.06743931
79	0xbda96833	-0.082718275
80	0x3da7b129	0.081880875
81	0xbce43bfd	-0.027860636
82	0xbd5db46f	-0.054127153
83	0x3d4ed061	0.050491694
84	0x3dcc85ef	0.09986483
85	0xbd708c05	-0.058727283
86	0xbd518cc3	-0.05115963
87	0x3d712fc2	0.058883436
88	0xbd49f7e6	-0.04930868
89	0x3db8ecf1	0.09029568
90	0xbd003f8f	-0.031310614
91	0x3d3c7ed6	0.046019398
92	0xbd3fa8dc	-0.046791896
93	0xbd1583ea	-0.036502756
94	0xbc6f3c6b	-0.014601807
95	0xbcdbaece	-0.026816752
96	0xbd1b0891	-0.037849966
97	0xbd6f15df	-0.058370467
98	0x3d46bc6a	0.04851953
99	0xbd996149	-0.07489259

net.6.weight f4 [100, 100]
0	0x3d195b5e	0.03744065
1	0x3cbdedd4	0.023184694
2	0x3d21572d	0.039389778
3	0xbbc5ca26	-0.006036061
4	0x3ca6fcf0	0.020384282
5	0xbc14067e	-0.009034751
6	0x3c121fb0	0.008918688
7	0xbd80e2a7	-0.062932305
8	0x3ced53e3	0.028970664
9	0xbd8b5737	-0.06803744
10	0xbc466692	-0.012109416
11	0xbd74b32e	-0.05974119
12	0xbc31ea5f	-0.010859101
13	0x3d6ceaa7	0.05784097
14	0x3d0d0d54	0.03443654
15	0xbd94b30b	-0.07260712
16	0xbd74cb0a	-0.059763946
17	0xbdbf9fe4	-0.093566686
18	0x3d126939	0.03574488
19	0xbc9e4945	-0.019322047
20	0x3dc7ee36	0.09762232
21	0x3cc0e92f	0.02354869
22	0xbde45a0d	-0.11149988
23	0xbcd9b760	-0.026576698
24	0x3d0fbad6	0.03509029
25	0x3ce2fe24	0.027709074
26	0xbd284bfd	-0.041088093
27	0xbc9feb70	-0.019521445
28	0xbdc80145	-0.09765867
29	0x3c29bdb7	0.010360173
30	0xbdb0e3ce	-0.086372
31	0xbd117300	-0.035510063
32	0x3da32b97	0.079672985
33	0xbd9a6e8b	-0.07540616
34	0x3d5ed9e8	0.05440703
35	0xbd211449	-0.039325986
36	0xbd1cab17	-0.0382491
37	0x3d9fe1dc	0.07806751
38	0x3d93b9c3	0.072131656
39	0xbc0c4c99	-0.008563184
40	0x3d59df17	0.05319127
41	0x3d9b63c0	0.07587385
42	0x3d83582d	0.064133026
43	0x3d57e5f4	0.052709535
44	0xbdee8401	-0.116462715
45	0x3c64e647	0.013970918
46	0x3c3fe694	0.011712689
47	0xbdb6edd5	-0.089320816
48	0xbd88f13e	-0.06686638
49	0xbd0a715c	-0.033799514
50	0x3cddac98	0.027059838
51	0x3d489a09	0.048975024
52	0x3d558cb9	0.052136157
53	0x3d8c5a32	0.06853141
54	0x3dda93bb	0.106727086
55	0x3cb840f5	0.022491911
56	0x3d204517	0.03912839
57	0x3d7f0eeb	0.062270086
58	0xbd97de36	-0.0741543
59	0xbdb6a44e	-0.089180574
60	0xbbe0963e	-0.0068538478
61	0xbda17de9	-0.078853436
62	0x3d4671d8	0.048448414
63	0x3ca6d00d	0.020362878
64	0x3d9567df	0.072952025
65	0x3d170ddd	0.036878455
66	0xbd72d063	-0.059280764
67	0xbb8b3935	-0.004248763
68	0xbd8f90ab	-0.07010015
69	0x3c9aca3a	0.018895257
70	0x3cbde53b	0.023180595
71	0x3d6e5503	0.058186542
72	0xbbb291d2	-0.005449512
73	0xbd91fe9c	-0.07128641
74	0xbda333f0	-0.07968891
75	0x3d9fff0e	0.0781232
76	0xbd6c6890	-0.057716906
77	0x3d2c0ed8	0.042006344
78	0xbc149d5a	-0.009070719
79	0xbdb658c8	-0.089036524
80	0x3d8395c6	0.064250514
81	0x3cc10388	0.023561254
82	0xbd134f02	-0.03596402
83	0xbd7ea523	-0.062169205
84	0xbc5bbcf3	-0.013411748
85	0x3cecc03b	0.028900256
86	0xbdb23950	-0.08702338
87	0xbd844d68	-0.064600766
88	0x3d81f785	0.06346039
89	0x3dbb91e6	0.09158687
90	0xbd508884	-0.05091144
91	0xbd243a1b	-0.040094476
92	0xbdb2f86a	-0.087387875
93	0xbc829429	-0.015939789
94	0xbd80fda6	-0.062983796
95	0xbd9cd24b	-0.07657298
96	0x3d64ff5c	0.055907592
97	0x3c85ccfd	0.016333098
98	0x3db45243	0.08804753
99	0x3cd8d5d4	0.026469149
100	0x3d038dc0	0.032117605
101	0xbd85b67f	-0.06528949
102	0x3dad4ada	0.084615424
103	0x3ce7c23d	0.028290862
104	0x3dad22cd	0.08453903
105	0xbe0493ce	-0.12947008
106	0x3dba29db	0.090900145
107	0x3d896d09	0.0671025
108	0x3df2fcd2	0.11864628
109	0x3d66806f	0.056274828
110	0xbdda931c	-0.1067259
111	0xbd583e9c	-0.052794084
112	0xbd5044e0	-0.050846934
113	0x3d30bcac	0.04314868
114	0xbd4821f3	-0.0488605
115	0xbc659ca3	-0.014014396
116	0xbd8568b5	-0.06514112
117	0xbd271fb3	-0.040801715
118	0xbd3bc3d0	-0.04584104
119	0xbd6b73eb	-0.057483595
120	0x3d8142e1	0.06311584
121	0x3dbd0683	0.09229758
122	0xbdbdd8b3	-0.09269848
123	0xbbafe73e	-0.0053681424
124	0xbcadb48b	-0.021204254
125	0xbdb962a2	-0.09052016
126	0x3da6409e	0.081177935
127	0xbdb47d13	-0.088129185
128	0x3dd14674	0.10218516
129	0x3e039331	0.12849118
130	0x3de77dc6	0.11303286
131	0xbd51b80c	-0.05120091
132	0x3a3d3471	0.0007217592
133	0xbbb228b2	-0.00543698
134	0xbd4cf0d1	-0.050034348
135	0xbcbfe547	-0.023424758
136	0x3b7b6cae	0.0038364339
137	0x3d945380	0.07242489
138	0xbddfb02a	-0.109222725
139	0x3d21a847	0.039467122
140	0x3d9b7cae	0.0759214
141	0xbbb8494d	-0.0056239725
142	0x3d3d4e90	0.0462175
143	0x3c50447f	0.012711643
144	0x3d87ce66	0.06631164
145	0x3d186b88	0.037211925
146	0xbd9c7983	-0.07640364
147	0xbdb1eb65	-0.08687476
148	0x3d709374	0.058734372
149	0xbd144f62	-0.036208518
150	0xbc82a41d	-0.015947396
151	0x3d82e0c4	0.06390527
152	0x3c9b4525	0.01895387
153	0x3daa4418	0.08313769
154	0x3dcbbd9a	0.09948273
155	0x3dd697a5	0.10478143
156	0xbd44c6a3	-0.048040997
157	0x3cbd847f	0.023134468
158	0xbc7dda2f	-0.015493914
159	0x3de81ee1	0.11334015
160	0xbdacb96b	-0.08433803
161	0xbd202184	-0.039094463
162	0x3d350a58	0.044199318
163	0xbd934d91	-0.07192529
164	0xbd7aea22	-0.061258443
165	0xbd9b6d25	-0.07589177
166	0xbdd86877	-0.105668
167	0xbd8d3a8c	-0.068959326
168	0xbcbdb705	-0.02315856
169	0x3da2cd29	0.079492874
170	0x3d1ed1d1	0.038774315
171	0x3db20376	0.08692066
172	0x3d7d9e4b	0.061918538
173	0xbd62f8a6	-0.05541291
174	0xbd9b9eb3	-0.07598629
175	0x3d260240	0.04052949
176	0xbdd390c1	-0.10330344
177	0x3d1d3c4b	0.038387578
178	0x3de4528e	0.111485586
179	0x3c819a2b	0.015820583
180	0x3dcf303e	0.10116623
181	0xbd25bac7	-0.040461328
182	0xbaf0c03b	-0.0018367836
183	0x3d872c2d	0.06600223
184	0x3bc4809b	0.0059967763
185	0xbc34b19e	-0.011028675
186	0xbd3d40ec	-0.046204492
187	0x3dcce6ec	0.10004982
188	0x3cf75438	0.030191526
189	0x3df355ce	0.118816
190	0x3d98521c	0.07437536
191	0xba640c68	-0.00086993584
192	0x3cfb7203	0.030694013
193	0xbd0e3347	-0.03471687
194	0x3cc1a94a	0.023640294
195	0xbd34de07	-0.044157054
196	0x3d945fbf	0.072448246
197	0x3d929eab	0.0715917
198	0xbd73bcf2	-0.059506364
199	0x3beaae7f	0.007161915
200	0x3c293f57	0.010330043
201	0xbd0e647e	-0.034763806
202	0xbdbeec26	-0.093223855
203	0xbc9d0a3e	-0.019169923
204	0x3d9c85d0	0.0764271
205	0xbd4739b3	-0.04863901
206	0xbda88791	-0.08228982
207	0x3cf27d6b	0.02960082
208	0xbc29c3bb	-0.010361607
209	0xbdaa53bf	-0.083167545
210	0x3dbbbcdd	0.09166882
211	0xbc646965	-0.013941144
212	0x3d612d1f	0.05497467
213	0x3cedf59c	0.02904778
214	0xbdbaf31d	-0.091284014
215	0x3d092d55	0.033490498
216	0x3db91ca9	0.090386696
217	0x3ce7d3ab	0.028299173
218	0xbd1678af	-0.036736187
219	0xbd593c9c	-0.053036317
220	0x3cd02929	0.025410252
221	0xbd2f598c	-0.042810008
222	0xbdf31f23	-0.11871173
223	0x3d12a85c	0.03580509
224	0xbd03e9ef	-0.03220552
225	0xbdcff399	-0.101538844
226	0xbcf3b893	-0.029751098
227	0x3d7b4ded	0.061353613
228	0xbd7bf411	-0.061512057
229	0xbd516fca	-0.051132
230	0xbdb3b0b8	-0.08773941
231	0xbdd6777a	-0.10472007
232	0xbdb8e982	-0.09028913
233	0x3d7ecd06	0.062207244
234	0x3cae5f04	0.021285541
235	0x3c915865	0.017742345
236	0xbc8b1f41	-0.016982676
237	0xbb3d594d	-0.0028892339
238	0x3d9cce75	0.07656566
239	0xbd200ac6	-0.039072774
240	0x3c89cff7	0.016822798
241	0x3d58f5a9	0.052968655
242	0x3d8669b4	0.0656313
243	0xbd4f2c64	-0.050579444
244	0x3da23372	0.07919969
245	0x3ce08573	0.027407384
246	0xbd6f0e9e	-0.05836355
247	0x3cad995d	0.021191293
248	0xbda51b1e	-0.08061813
249	0x3d2c1c87	0.042019393
250	0x3dad8e85	0.08474449
251	0xbca204f7	-0.019777758
252	0xbd9155b6	-0.07096426
253	0x3d79aefe	0.0609579
254	0x3da51692	0.080609456
255	0xbd2feb56	-0.042949043

net.6.bias f4 [100]
0	0xbd40f9b7	-0.047113147
1	0x3ce264e7	0.027636005
2	0x3d75c900	0.06000614
3	0x3bd62a77	0.006535824
4	0x3cecd199	0.028908538
5	0xbd21c2f9	-0.03949258
6	0xbdae5bcf	-0.08513605
7	0x3ce791c2	0.028267745
8	0xbc405d03	-0.011740926
9	0x3d210ad0	0.039316952
10	0xbc99c737	-0.01877175
11	0x3d1e2109	0.038605724
12	0xbd812c5b	-0.06307288
13	0xbd277a6a	-0.040888228
14	0x3d313091	0.043259207
15	0xbdacb780	-0.08433437
16	0xbd89ebfb	-0.06734463
17	0xbca565b8	-0.020190105
18	0xbce0aec9	-0.027427094
19	0xbdc7edb5	-0.09762136
20	0xbddbb70c	-0.10728273
21	0x3c3f19b9	0.011663848
22	0x3c09f038	0.008419089
23	0xbc8d6bf2	-0.017263386
24	0x3da60b66	0.08107643
25	0x3c0edfab	0.008720319
26	0xbd859e39	-0.06524319
27	0x3d0d5448	0.034504205
28	0xbd8cc8f1	-0.06874264
29	0xbdb855ee	-0.09000765
30	0x3cc1609d	0.02360564
31	0xbe117745	-0.14205654
32	0xbb95e3d8	-0.00457428
33	0xbdd2797c	-0.102770776
34	0xbdc16ba7	-0.09444361
35	0x3cc17282	0.023614172
36	0x3c23b957	0.009992919
37	0x3aad4cc3	0.0013221729
38	0xbdc19724	-0.09452656
39	0x3cf50465	0.029909322
40	0xbd283e9f	-0.041075345
41	0xbd7b868c	-0.06140761
42	0xbd09ea3b	-0.033670645
43	0x3d126467	0.035740282
44	0x3c805fc6	0.015670668
45	0xbdbde652	-0.09272446
46	0xbddce23b	-0.107853375
47	0xbdb2f141	-0.08737422
48	0xbdaa06b4	-0.0830206
49	0x3c000e18	0.00781586
50	0x3d489dc7	0.048978593
51	0x3d3bb2f2	0.045824952
52	0x3d981d18	0.07427424
53	0x3da13fe6	0.07873516
54	0x3d3b2c94	0.04569681
55	0xbc3ce781	-0.011529804
56	0x3d6279ff	0.055292126
57	0xbd07c15f	-0.033143397
58	0x3db71a27	0.08940535
59	0x3d401601	0.046895985
60	0x3ba8abfd	0.0051474557
61	0xbd0210a6	-0.03175416
62	0xbdc468fd	-0.095903374
63	0xbdd24780	-0.10267544
64	0xbd443912	-0.04790599
65	0x3c242491	0.010018484
66	0xbd23fd5d	-0.040036548
67	0x3d8bcd1c	0.06826231
68	0xbd5f3670	-0.054495275
69	0xbd1f7c94	-0.038937166
70	0x3d8da3a5	0.06915978
71	0x3d836e91	0.06417573
72	0x3d0624c2	0.0327499
73	0x3ccdd4e0	0.02512592
74	0x3d101a15	0.035181124
75	0x3da2641c	0.079292506
76	0xbd6ea33f	-0.058261152
77	0x3d497236	0.049181186
78	0x3d65c7b5	0.05609866
79	0x3da632df	0.08115172
80	0xbbdfb6ad	-0.0068271966
81	0x3cfbb11d	0.030724103
82	0x3d3d85a5	0.04627003
83	0x3c52f7ed	0.012876493
84	0x3d81789d	0.06321833
85	0xbc3b3af8	-0.011427633
86	0xbbbb0c5f	-0.005708262
87	0xbab90228	-0.0014115022
88	0xbd3023e8	-0.043002993
89	0x3d8a78ac	0.067612976
90	0xbd86c411	-0.065803654
91	0x3a982c34	0.0011609853
92	0xbd224b3b	-0.039622527
93	0x3d839d91	0.06426538
94	0x3dc01eab	0.093808495
95	0x3dc09130	0.09402692
96	0xbce98220	-0.028504431
97	0xbcd33e07	-0.025786413
98	0x39ba5b1c	0.00035544566
99	0x3d282685	0.04105236

net.8.weight f4 [100, 100]
0	0xbd619f5a	-0.05508361
1	0xbdda5949	-0.10661561
2	0xbda16954	-0.07881418
3	0xbc597e19	-0.013274693
4	0xbc92efda	-0.017936636
5	0x3d5b9ca9	0.0536162
6	0x3cb39618	0.021922156
7	0xbd9755a1	-0.07389379
8	0xbdbe7ebe	-0.09301518
9	0xbd684bef	-0.05671304
10	0x3db38cee	0.087671146
11	0xbdc6f17d	-0.09714029
12	0xbc6bff87	-0.014404184
13	0xbbfa4848	-0.007638011
14	0xbd29b639	-0.041433547
15	0x3cf73a89	0.030179279
16	0x3c394ae0	0.0113093555
17	0x3cb91e2c	0.022597395
18	0xbbef758d	-0.0073077143
19	0x3d9e497a	0.07728858
20	0x3db5db7d	0.08879755
21	0xbd108eb7	-0.035292353
22	0x3c4ee783	0.012628439
23	0x3b4f4e05	0.0031632197
24	0xbd42042b	-0.047367256
25	0xbd09e17b	-0.0336623
26	0x3d3b8388	0.045779735
27	0xbcd91dab	-0.026503405
28	0x3b647dfe	0.0034865136
29	0xbd47c2c5	-0.04876973
30	0xbdc27f4b	-0.094969355
31	0xbdcb900f	-0.09939586
32	0xbd9248f7	-0.07142823
33	0x37f6bb38	2.9412666e-05
34	0x3d306c01	0.04307175
35	0xbc06f9be	-0.008238254
36	0x3d78e41d	0.06076442
37	0x3d447833	0.047966193
38	0x3d7b671e	0.061377637
39	0x3d6cb3a3	0.057788502
40	0x3c62b8d2	0.01383801
41	0x3d8dee59	0.06930227
42	0x3cc0a9d1	0.023518475
43	0xbdb670dc	-0.08908245
44	0xbc98f9b0	-0.018673748
45	0xbbb9c9e1	-0.005669818
46	0xbd003be6	-0.031307124
47	0x3dd8152b	0.105509125
48	0x3cf3f260	0.02977866
49	0x3ce00b84	0.027349241
50	0xbda8d6be	-0.08244084
51	0xbc46946c	-0.0121203475
52	0xbd03f976	-0.032220326
53	0x3da1eeb3	0.079068564
54	0xbcef53f3	-0.029214835
55	0x3d9d2599	0.07673187
56	0xbda29d93	-0.07940211
57	0x3d983a08	0.074329436
58	0x3d1a7fbc	0.037719473
59	0xbd8ee334	-0.06976929
60	0xbdb65f34	-0.08904877
61	0x3dd06309	0.101751395
62	0x3d98dc26	0.07463865
63	0x3db33cd5	0.08751837
64	0x3cfa3399	0.030542182
65	0xbc047287	-0.008083946
66	0x3d91ef20	0.071256876
67	0xbdb5153b	-0.0884194
68	0xbd00b611	-0.031423632
69	0xbc8bf299	-0.017083453
70	0xbd09cfd1	-0.033645455
71	0xbdaedce3	-0.085382245
72	0xbcd63172	-0.026146624
73	0x3c829ae3	0.015942996
74	0xbc1f3535	-0.009717275
75	0x3bf4b7d3	0.0074682026
76	0x3cb729dd	0.02235883
77	0x3da209ef	0.07912051
78	0x3c9f5b1f	0.01945263
79	0x3da3409b	0.07971307
80	0xbcaffe5d	-0.021483595
81	0xbd8d79a8	-0.0690797
82	0x3c996f11	0.018729718
83	0xbb6e2578	-0.003633825
84	0x3d352b3f	0.044230696
85	0xbd0cc49b	-0.034367185
86	0x3db0c399	0.08631057
87	0x3d9fee7e	0.07809161
88	0xbc4bdbfd	-0.012442586
89	0x3a5c70fa	0.0008409169
90	0xbb9212ff	-0.004457831
91	0xbdcdbb72	-0.10045518
92	0x3d257a54	0.040399864
93	0x3d947ed9	0.07250757
94	0x3d0240c8	0.03180006
95	0xbd4f722b	-0.05064599
96	0xbc0e7278	-0.008694284
97	0xbd3dd051	-0.046341244
98	0xbc04f549	-0.008115121
99	0xbd160fe9	-0.036636267
100	0x3cd15272	0.025552008
101	0x3d094f57	0.03352293
102	0xbd972625	-0.07380322
103	0x3dddcf55	0.10830561
104	0xbc98cd8d	-0.018652702
105	0x3d30e4b5	0.043186862
106	0x3d4d6dc6	0.050153516
107	0xbda5e5f1	-0.081004985
108	0x3dc60c51	0.09670318
109	0xbd985ffb	-0.07440182
110	0x3dcb7195	0.099337734
111	0x3da00077	0.07812589
112	0xbca059a6	-0.019573998
113	0x3cc7ef58	0.02440612
114	0x3da2102c	0.07913241
115	0x3ddf4577	0.10901921
116	0xbd850830	-0.06495702
117	0xbc5c5b75	-0.013449539
118	0xbd0a25d9	-0.0337275
119	0xbcf45016	-0.029823344
120	0xbcee3cdd	-0.029081756
121	0xbd266a5d	-0.04062878
122	0xbd9fc17b	-0.07800575
123	0xbd3f8023	-0.04675306
124	0xbdba9350	-0.09110129
125	0x3cb9f8dd	0.022701675
126	0x3dabc9c1	0.08388091
127	0xbc1495aa	-0.009068886
128	0xbdaa7d23	-0.08324649
129	0x3d97c1db	0.07410022
130	0xbd891a40	-0.0669446
131	0x3d925582	0.071452156
132	0x3c342318	0.010994695
133	0xbd250637	-0.04028913
134	0x3da6e3bd	0.081489064
135	0xbc3b9718	-0.011449598
136	0x3b9b52fa	0.004740116
137	0xbd551b04	-0.052027717
138	0xbb88d6f4	-0.004176015
139	0x3d01cf5b	0.03169189
140	0xbdab62c0	-0.083684444
141	0x3de26abb	0.110555135
142	0x3a6be25e	0.000899827
143	0x3d7ea75b	0.06217132
144	0x3daa2e52	0.08309616
145	0xbc4c7b5a	-0.012480581
146	0xbdcbf155	-0.0995814
147	0x3d82f7a3	0.06394889
148	0xbda79c96	-0.08184163
149	0xbd98097f	-0.07423686
150	0x3d2b1065	0.041763682
151	0x3d2cc254	0.042177513
152	0xbdbb2003	-0.09136965
153	0x3c63bc52	0.0138998795
154	0x3d842339	0.06452031
155	0x3c3ef425	0.011654888
156	0xbd708ed9	-0.05872998
157	0x3ce2b4ad	0.027674044
158	0xbdc9ced0	-0.098538995
159	0x3dd76cfa	0.105188325
160	0x3db5baf5	0.0887355
161	0xbdbf546a	-0.093422726
162	0x3d6f58ed	0.058434416
163	0xbd690d0a	-0.0568972
164	0xbcae111c	-0.021248393
165	0xbddf0dc1	-0.10891295
166	0xbd9786e1	-0.07398773
167	0xb9f5c42a	-0.00046876195
168	0xbcacdcc0	-0.021101356
169	0xbc057c23	-0.008147272
170	0x3dba0e80	0.09084797
171	0xbd9365e2	-0.07197167
172	0xbcb80ca5	-0.022466967
173	0xbcd5a93c	-0.026081674
174	0xbcb416c2	-0.021983508
175	0xbd9f8f3d	-0.077909924
176	0x3be67817	0.007033359
177	0x3d2bb7ca	0.04192332
178	0xbd8ccd6e	-0.0687512
179	0x3cdf7246	0.02727617
180	0x3d7edc15	0.062221605
181	0xbc96b410	-0.018396407
182	0x3d85561d	0.065105654
183	0x3d758b72	0.05994744
184	0xbe01bc26	-0.12669429
185	0xbdd5aae7	-0.10432988
186	0xbd228015	-0.03967293
187	0x3d51090c	0.05103402
188	0x3d07834e	0.033084206
189	0xbd520af2	-0.05127997
190	0xbce18786	-0.027530443
191	0xbd1694b9	-0.036762927
192	0xbd83ca6c	-0.06435093
193	0x3d6caae2	0.057780154
194	0xbd7e41f2	-0.06207461
195	0x3d6bb325	0.057543892
196	0xbd230bb7	-0.039806094
197	0x3c5e6ede	0.0135762375
198	0x3dd73d19	0.105097
199	0x3b8d5a44	0.004313739
200	0xbd5e34f6	-0.054249726
201	0x3c4b20b1	0.012397931
202	0xbdb18162	-0.08667256
203	0x3d756cfd	0.059918392
204	0x3d7ad032	0.061233707
205	0xbdbaed85	-0.091273345
206	0x3b243a81	0.0025059285
207	0x3cf27445	0.029596457
208	0x3c062f24	0.00818995
209	0x3c1401d0	0.009033635
210	0x3d428073	0.04748578
211	0x3cd7c118	0.026337191
212	0x3d12a7ee	0.03580468
213	0xbd1d2358	-0.038363785
214	0xbdcd0eaf	-0.10012566
215	0xbd17addc	-0.03703104
216	0x3c9f1d92	0.01942328
217	0xbdcb4c62	-0.09926678
218	0x3da9e500	0.082956314
219	0x3d9f6c7f	0.07784366
220	0xbd9625d9	-0.073314376
221	0xbdb962c6	-0.09052043
222	0xbd3fc9ed	-0.04682343
223	0xbd72e57b	-0.05930088
224	0x3da4e535	0.0805153
225	0xbd8e5215	-0.0694925
226	0x3dba7a6d	0.09105382
227	0x3d7f33e9	0.062305365
228	0x3d852298	0.06500739
229	0x3dc5ccc0	0.096581936
230	0x3c88bbc6	0.0166911
231	0x3d82d783	0.06388762
232	0xbb5634af	-0.003268521
233	0xbd4d6d38	-0.050152987
234	0x3d93658b	0.07197102
235	0x3ce244f5	0.027620772
236	0xbd706b56	-0.058696114
237	0xbdff56ae	-0.12467705
238	0x3d840883	0.06446936
239	0xbd098909	-0.033577953
240	0xbdd8b1de	-0.105808005
241	0x3c7f6907	0.015589005
242	0xbcb726f3	-0.02235744
243	0x3c781f40	0.015144169
244	0xbdbc15b0	-0.09183824
245	0xbd3b3f27	-0.045714524
246	0xbd61bda7	-0.055112507
247	0xbc73578e	-0.014852418
248	0xbdb66aa0	-0.08907056
249	0xbd1259bb	-0.035730105
250	0xbdca4161	-0.09875751
251	0x3c40bc22	0.011763604
252	0xbd8d3e2d	-0.06896625
253	0xbdae11e9	-0.0849951
254	0x3c260999	0.010134124
255	0x3d3effc0	0.04663062

net.8.bias f4 [100]
0	0xbcf9faa1	-0.030515017
1	0xbd4c9e03	-0.04995538
2	0x3d3c3ba1	0.045955304
3	0xbc8e93f5	-0.017404536
4	0x3cc87693	0.024470603
5	0x3db93d94	0.09044948
6	0x3d018b0d	0.03162675
7	0x3cdc3281	0.02687955
8	0xbc13803a	-0.00900274
9	0xbd6640fd	-0.05621432
10	0x3d83f166	0.064425275
11	0x3d2721a6	0.040803574
12	0x3c6401ad	0.013916415
13	0x3b9015da	0.004397136
14	0x3cc28218	0.023743674
15	0x3d8c71c8	0.068576396
16	0x3d41d7c9	0.04732493
17	0x3dab5136	0.08365099
18	0xbc5bd76f	-0.013418063
19	0x3d1e0f3c	0.038588747
20	0x3b263a7c	0.002536445
21	0x3d947945	0.07249693
22	0xbcbc91d8	-0.023018762
23	0x3d481b68	0.04885426
24	0xbb78c9f2	-0.0037962166
25	0x3c878d61	0.016546907
26	0x3cde995b	0.027172735
27	0xbb37fd8a	-0.0028074705
28	0x3d996356	0.0748965
29	0xbd32a713	-0.043616366
30	0xbd17bb1b	-0.037043672
31	0x3d5a0721	0.053229455
32	0x3d3b35c0	0.045705557
33	0xbd93e2b2	-0.07220973
34	0x3dc39843	0.09550526
35	0xbca4c02a	-0.020111162
36	0x3d9b86ae	0.075940475
37	0xbd0f93ba	-0.035052992
38	0xbd95caa4	-0.07314041
39	0xbd7d6f5a	-0.06187377
40	0xbc1eee67	-0.009700394
41	0x3d3fc920	0.046822667
42	0xbce6c2a4	-0.028168984
43	0xbcfa6123	-0.030563897
44	0xbdce7014	-0.10079971
45	0x3d90e581	0.070750244
46	0x3d25f49b	0.040516477
47	0xbdc049ad	-0.093890525
48	0x3d0f6c7a	0.03501556
49	0x3d512007	0.051055934
50	0x3d13d10f	0.036088046
51	0xba79ab99	-0.0009524166
52	0xbc4138f7	-0.011793367
53	0xbcbd8eff	-0.023139475
54	0xbd5b2eb0	-0.05351132
55	0xbccb8565	-0.02484388
56	0xbd79aa0c	-0.060953185
57	0x3d6d828a	0.05798582
58	0xbd7bdc8f	-0.061489638
59	0xbcba2914	-0.022724666
60	0xbd7d454e	-0.061833672
61	0x3d8c4bb8	0.0685038
62	0xbd2a4236	-0.04156705
63	0x3cfe9425	0.0310765
64	0xbdca4029	-0.09875519
65	0xbd49e83a	-0.049293734
66	0x3da68a90	0.081318974
67	0x3cd167fc	0.025562279
68	0xbcace872	-0.021106932
69	0x3d988142	0.07446529
70	0x3c7a166f	0.015264138
71	0xbd7a5c36	-0.061123095
72	0x3ceca89b	0.028888991
73	0xbd28810b	-0.04113869
74	0x3dcdad9f	0.10042881
75	0xbd853fc8	-0.06506306
76	0x3d87ecdc	0.06636974
77	0xbd03c7c8	-0.032172948
78	0xbdb2b9b6	-0.08726828
79	0x3c68dabb	0.014212306
80	0xbda0271e	-0.07819961
81	0x3cfe80d4	0.03106729
82	0x3ceebfd9	0.029144214
83	0xbddadfea	-0.106872395
84	0x3d75baf3	0.05999274
85	0xbc4287bd	-0.011873183
86	0xbcacf4ce	-0.021112826
87	0x3d66d317	0.056353655
88	0xbd6563ab	-0.056003254
89	0xbdafc7a6	-0.08583002
90	0xbd9bdebe	-0.07610844
91	0x3d44f4a8	0.048084885
92	0xbd2fea85	-0.042948265
93	0x3c9c2443	0.01906026
94	0x3d38529e	0.045000665
95	0xbd1944f0	-0.03741926
96	0xbcab0a83	-0.020879036
97	0xbd0a4c27	-0.03376403
98	0xbd60eb9e	-0.054912202
99	0x3c66c49d	0.014084962
