models/heatalpha/sin/heatalpha_03.pth (torch, 977047 bytes, 51 tensors)

net.0.weight f4 [100, 3]
00000000: eaad b0be aef0 b13e 5039 373e e00c 1a3c
00000010: 4c82 f73d 30a6 00bf 06bd 0ebf 4d77 8d3e
00000020: cd01 023f 27d1 ac3e 428d 1dbe 9ba1 1abf
00000030: 7049 8cbe 87fa 1f3d a6ec b53e 7ff2 e13e
00000040: 3681 5d3f 1e04 033f 47bd babe 9532 d93e
00000050: 6e97 1e3d 13d2 44bc 697e 8cbd 829e 10be
00000060: 9d94 36bd e788 02bf 3d99 34bc 4d67 1c3f
00000070: 086c 363e 3baf 06be d109 58be e0ad 493f
00000080: e9e0 25bf 16b3 193f 1fd2 2ebe ba01 a53e
00000090: 2412 10bd a4e8 063e 15b2 a7be 6220 26be
000000a0: 5a1e 5e3e 9edd 013e efb4 10bf 99ab 89be
000000b0: 5489 8cbe 6efd 5fbe 8af1 20bf abf1 e93e
000000c0: 25ff ff3e a78d 2e3d d35e 753c 778f 1f3f
000000d0: a79b 993e c754 d8be 6e78 debd 0cb5 03bf
000000e0: 7b0a b83e 3662 ab3e 62ed 6dbe 4fec 173f
000000f0: 85af eb3e 3187 0dbf 3446 19bf 4524 36be
00000100: ae3f 0b3e 3d40 0a3f 9c99 3ebe f565 fcbe
00000110: f537 f63e 76db 0abe 5e1e f33e e731 05be
00000120: 05df efbe 8f91 2d3e 5cdd bcbe 9c61 aa3e
00000130: c31b 813d fbf0 6b3e 8c4d 8f3e 11d2 583e
00000140: f8c7 c6be d52c 2abf d278 30bf ad42 bd3e
00000150: 644b d3be e4fc 30bf 90f4 acbe 42fe db3e
00000160: 33fd 67bd f195 683e 9576 333c 86d9 0a3e
00000170: 000b 81bd 2bd2 603e 9c7d 99be 3366 123e
00000180: eae3 183f 0c0b 6b3e ff8c ba3e e53c 0dbe
00000190: fab6 8d3e a8c8 b43e 2592 783e 3857 80bd
000001a0: 2ebd 36bd 69b4 d83e b97d 1a3e 9ae8 30bf
000001b0: f074 0ebf fffe 333f 83d8 67be 3ebe 0e3e
000001c0: 1ef8 23bf 6364 253d 383f 8f3e 2eac 373f
000001d0: 5005 2e3f 241f a53e dc15 c4be 0ebc f8be
000001e0: 1d9a b63e cc25 48be 863e 67be bd51 873e
000001f0: b5d9 913b eebf 593e 26f5 25bc 98ab a83e
00000200: ff58 b3bc b02f a5bd 5ac4 f63e 8b5a 673e
00000210: 1cdb 143f 550e fa3e 56e2 3c3d 7d8c 36be
00000220: bee1 323f 5d24 00bf 5426 b1be e4fb a4be
00000230: 34bf 2fbf 0b7d 8a3e c9e9 103d a96b 303f
00000240: a0e7 f33b 0e63 193e 1979 933e acbc c43e
00000250: 8574 cebd 0216 b73e 357c b2ba 6821 f1be
00000260: 1ead 603e e961 103f 6531 a7bd 5232 533c
00000270: 6fa4 36be cb57 c63e 0d00 e1be 94bc 00bf
00000280: e47b 703e 9ebf aebd a26d fbbe 917e 82bd
00000290: 3203 8abd 2901 15bf 3672 1fbf 9b93 20be
000002a0: 8e01 11be 106c 6bbe 648c 343e bea1 2bbe
000002b0: 4cd7 1dbe f577 82bc b672 f5be d49e 4abe
000002c0: 63a0 e5be 6d10 08be bd1e 99be ccef 04bf
000002d0: 83da 4a3e cede 05bf e151 813e 6665 983e
000002e0: 8252 b2bd 078e a23e e681 1f3f 3416 f13e
000002f0: 708d 6b3e ce60 ffbe ed88 db3e 6f0b 07bd
00000300: 7271 abbe 7183 ddbd c64f df3d dd1f 09bf
00000310: 3fec f23e bd4f c1be 5ee0 d7bc dd1d 8d3e
00000320: 34db 8dbd 36c2 0cbf b0e1 05be d0ea 9cbe
00000330: b94f 043e b060 ccbe 945d cbbd 1a23 a13e
00000340: 80ce 20bf b314 47bd 6cd8 2cbe e026 f0be
00000350: 619e 613e 5197 ac3e a44c 333e 08c4 493e
00000360: 40dc a8bd dbf9 f13e eb26 a5bd 221f 2b3f
00000370: 1485 5ebe 0e53 c33e 1767 00bf de0e e93e
00000380: afbd 5c3e 1ee5 103f 0e24 dbbe d2fd 40bf
00000390: ebb7 c9bd e816 bfbe 86ec 273f d613 f0be
000003a0: 6d19 253e 7da1 403e 798c 073f 59b2 ed3e
000003b0: 33a9 fa3e 122c 82be 98cd 1cbf a547 05bf
000003c0: dac2 d53e 6a75 c43e 8a5d 08bf 2bf3 143d
000003d0: 6b76 77be bab7 78be 41e2 9f3e cb6d 9b3e
000003e0: 4099 223f a4de 18be daf0 0c3d 0294 cabe
000003f0: f63c 01bf fe13 a33e 2486 f2be b5b8 bf3e
-0.34507686 0.34753937 0.17892957 0.009402484 0.12085399 -0.5025358 -0.55757177 0.27630082
0.50784 0.3375332 -0.15385917 -0.6040284 -0.27399778 0.03905728 0.3553211 0.44130322
0.86525285 0.5117816 -0.36472532 0.42421404 0.038718633 -0.012012976 -0.06860048 -0.14122966
-0.044575322 -0.50990146 -0.011022863 0.61095124 0.17814648 -0.13152783 -0.21097495 0.7878094
-0.6479631 0.6003889 -0.17072342 0.3222788 -0.03517355 0.13174683 -0.32753053 -0.1622329
0.21691266 0.12682196 -0.5652608 -0.2688873 -0.27448523 -0.2187402 -0.6286856 0.4569219
0.49999347 0.04261556 0.014976221 0.62328285 0.30001566 -0.4225218 -0.10862814 -0.5144813
0.35945496 0.33473366 -0.23235086 0.59344953 0.46032348 -0.5528441 -0.59872746 -0.17787273
0.1359851 0.5400427 -0.18613285 -0.49296537 0.48089567 -0.1356028 0.47484106 -0.13007317
-0.46849838 0.16950057 -0.36887634 0.33277595 0.06304123 0.23041146 0.2798885 0.21173884
-0.3882444 -0.6647466 -0.6893436 0.36964932 -0.41268456 -0.6913588 -0.33780336 0.4296742
-0.056637954 0.22713448 0.010953565 0.13559541 -0.06300926 0.21955173 -0.29978645 0.14296798
0.5972277 0.22953433 0.36435696 -0.1379276 0.27678663 0.3530934 0.242745 -0.06266636
-0.04461401 0.42325142 0.15087022 -0.6910492 -0.5564718 0.7031097 -0.22641186 0.13939759
-0.6405047 0.04037894 0.2797792 0.717471 0.67976856 0.3225032 -0.38297927 -0.48580974
0.35664454 -0.19545668 -0.22582445 0.2642955 0.0044510015 0.21264622 -0.010129249 0.32943416
-0.021893023 -0.08065736 0.4819668 0.22593133 0.58146834 0.4883906 0.04611429 -0.1782703
0.69875705 -0.50055486 -0.34599555 -0.32223427 -0.6865113 0.27048525 0.035379205 0.68914276
0.0074433833 0.14979193 0.28803328 0.38425195 -0.10080818 0.35758978 -0.0013617339 -0.470958
0.21941039 0.563994 -0.08163718 0.012890415 -0.17836164 0.38738856 -0.4394535 -0.5028775
0.2348476 -0.08532642 -0.4910708 -0.06371797 -0.06738891 -0.58204895 -0.6228365 -0.15681307
-0.1416075 -0.22990441 0.1763168 -0.16760918 -0.1541416 -0.01592634 -0.4793908 -0.1978715
-0.44848928 -0.13287516 -0.29906264 -0.519284 0.19809918 -0.522931 0.2525778 0.2976486
-0.08707143 0.31748983 0.62307584 0.47087252 0.23003173 -0.49878544 0.42877904 -0.03296989
-0.3348499 -0.10816086 0.109038875 -0.53564245 0.47445866 -0.37756148 -0.026352104 0.27561846
-0.06926575 -0.5498384 -0.13074374 -0.30647898 0.12921037 -0.39917517 -0.09929958 0.31472093
-0.62815094 -0.048603725 -0.16879433 -0.4690466 0.22033073 0.33709195 0.17509705 0.19703686
-0.08245134 0.47260937 -0.08064064 0.6684438 -0.21730453 0.38149303 -0.501573 0.45519155
0.21556734 0.56599605 -0.42800945 -0.753873 -0.09849533 -0.37322164 0.6559528 -0.46890134
0.1612298 0.18811603 0.5294872 0.4642513 0.48957214 -0.25424248 -0.6125121 -0.52062446
0.41750222 0.3837083 -0.5326773 0.036364716 -0.24166267 -0.24288836 0.31227306 0.30357203
0.6351509 -0.1492868 0.03440938 -0.39566046 -0.50483644 0.3185119 -0.47367966 0.37445608

net.0.bias f4 [100]
00000000: bfaa 0abf 7879 98be 06c9 b3be 5df4 d3be
00000010: a9d8 023f 498f 0b3f 10d9 c1bc 5188 b1be
00000020: fcb8 313d de25 773e 059b f9be 8f64 4e3e
00000030: d849 fd3e 35a1 023f c0c1 09bf 4d3d 07bf
00000040: 8e53 043f 1f68 f8be 42f9 abbd 270a 3d3d
00000050: 3212 09bf e8e5 c9be 5710 ecbe afb5 a83e
00000060: 4d40 7ebd 0dd4 d33e df6b 023f 01ab 52bf
00000070: 1954 16bf 815c a03e b74c 093f 687b acbe
00000080: 178e e23d 1d39 0ebf ad56 fcbe 81c8 1abf
00000090: f70a 233f b656 0dbf b201 013f 26b2 eabe
000000a0: 2ae2 aebe ba35 18bf cd0d df3d b0db cd3e
000000b0: f3d4 a7be e402 0ebf 2950 bc3d f6b0 4d3e
000000c0: 4a3f d6be 6eea 303d 12d5 74bd cd3f f8be
000000d0: 5f04 073e a109 01bf 977a 863e 24cc df3e
000000e0: 7cd0 043f 6ea6 a9be 4e50 e53d 72df 85be
000000f0: 7534 36bf 59ba 88be 2ca1 f93e e679 ce3d
00000100: 2347 2dbe 0eb8 d23e 06a2 6c3e 4083 f03e
00000110: b02d a83e 42d7 dd3e 6df5 c73e a1ad 7dbe
00000120: 3289 043f fb3e f9be e976 f7be af8e 24be
00000130: 279b 78be d116 c4be 965d d03e a33c 1cbf
00000140: 71fe 9c3c 3f23 083f 2dca c7bd 90fb 573e
00000150: f993 a0be 048e eebd b707 fb3e be0a d1be
00000160: 4316 d4be 05be 983d 647e 25bc 1bcb 80be
00000170: 46b8 7ebe d702 cbbe 2e9d cf3e 39e6 023f
00000180: 9246 47be 7b06 81be 85e9 15bf 1c00 d83d
-0.5416679 -0.29780173 -0.35114306 -0.41397372 0.5111185 0.5451551 -0.023663074 -0.34674314
0.043389305 0.24135539 -0.48751083 0.20155548 0.494704 0.5102723 -0.53811264 -0.5282791
0.51689994 -0.48516938 -0.083971515 0.04615226 -0.5354339 -0.39433217 -0.46106216 0.32951114
-0.06207304 0.4137272 0.5094585 -0.8229218 -0.5872207 0.31320575 0.5363268 -0.33687901
0.11062258 -0.555559 -0.49284878 -0.60462195 0.63688606 -0.55210435 0.5039321 -0.4583904
-0.34156924 -0.5945698 0.10891304 0.4020667 -0.32779655 -0.5547316 0.09194977 0.20087036
-0.4184516 0.04319232 -0.059773512 -0.48486176 0.13185261 -0.5040532 0.26265404 0.43710434
0.5188062 -0.33134788 0.111969575 -0.26147038 -0.71173793 -0.26704672 0.48755777 0.10081844
-0.16921668 0.41156048 0.23108682 0.46975136 0.32847357 0.4332829 0.39054433 -0.24773265
0.51771843 -0.48680863 -0.4833291 -0.16070054 -0.24277936 -0.38298658 0.406964 -0.61030024
0.019164296 0.5317878 -0.09755359 0.21092057 -0.31362894 -0.11648181 0.49029323 -0.40828508
-0.41423234 0.07458118 -0.010100935 -0.25154957 -0.24874982 -0.39650604 0.40549606 0.5113254
-0.19460514 -0.25200257 -0.5855945 0.10546896

net.2.weight f4 [100, 100]
00000000: f8ed 5cbd 5cba bcbd 3033 edbb eab4 133c
00000010: f232 c63c 452e b13b 2f81 d9bd 304f e5bd
00000020: c7bb 8cbb 0bd0 a83c 51a6 58bb 3a55 d13b
00000030: f739 4fb9 1f1d 5d3d 627a 523c 4e3d 5d3d
00000040: 99c2 f6bc 1a81 b5bd a5d0 163d 72e0 cd3d
00000050: 233f 363c 02a4 cdbc 93d9 923d 7e70 a9bc
00000060: 4ca0 623c 044b 473c a166 b3bd 2b35 9cbd
00000070: 3f15 33ba bf32 00bd 65a8 a43d 46ab af3c
00000080: 5303 c7bd dc94 6abd ee81 37bd bab6 073d
00000090: 6e19 b6bd aad1 4e3c 2a01 debd b2dc 4c3b
000000a0: 6d63 833d 9996 963d 9ab9 4fbd 5da1 163d
000000b0: 1436 51bd 7f65 81bc dd29 de3b eb83 dc3d
000000c0: 6e9e e5bc 9119 37bd 9556 983d 2021 2cbd
000000d0: dc48 7cbd 370e ae3d 6add 5abd fd91 243d
000000e0: ace6 9cbd 7292 e5bc ae07 8dbd 5b54 9ebd
000000f0: caf2 87bb 028b 253c ec89 f4bb 2341 cdbc
00000100: 3066 3e3d 5596 0bbe cf5e b5bd 4575 ac3d
00000110: 4482 8abd 6493 633d 630c 89bd 8d0e 073d
00000120: 5aec 8d3d 98ba 853d f1df cdbd 7875 bbbd
00000130: f6f8 00bc 9bda 52bd a528 b8bd db3a 8b3b
00000140: 3615 2c3d e6d1 cdbd 739d 043d 8647 523d
00000150: ee55 d4bd 4326 cdbc 3fdb 7bbc 175b c4bd
00000160: 2e0d 113d 3c78 8bbd b453 ec3d d6ec 07bd
00000170: 5084 21bd 40fc 083b 437c 2c3d b71d 91b9
00000180: d423 76bd e3f8 8f3c cfd2 0e3d f2c6 87bd
00000190: 9bc5 50bd 1460 443d 4e24 d1bd ff81 c3bd
000001a0: f4b5 5e3d ada1 45bd 256f 76bd 74c0 413d
000001b0: ecd0 0c3c 6e5c 31bd ec20 9bbd e63e 6d3d
000001c0: 1506 bebd 7d3e 983d 21c3 adbd dd0f cd3c
000001d0: cfc1 67bd a2a2 b63c 7731 a7bd 3fe5 8a3c
000001e0: b668 053d b995 bcbc 8dd6 d9bb 1a59 843c
000001f0: 1be7 a6bd 6fef 413d d16d 84bd 9e4d 523d
00000200: 9791 c93d 0f65 10bd e4c8 b33b 279b bc3d
00000210: 536e 053d 0280 093e d059 903d a47a 043e
00000220: 2aca a23d 39f8 d1bd bb03 923d ea9c 2b3d
00000230: 6213 273c a174 acbd 59b7 9cbd df9c 46bd
00000240: 62cd a93d 455c 0e3d ca8d e13d 63a1 b9bd
00000250: 423a 76bd 99be 753d ca55 b0bd 7537 333d
00000260: e473 6f3d 7251 81bd 7f0b 9dbc e6cb 7c3d
00000270: 3b0a 543d 34ed b7bd 4666 e1bc 1c47 863a
00000280: 70b8 d83d dd59 6ebc 8814 e5bd 05da cabd
00000290: 8c42 8cbc 70f7 993c 8782 ba3d b6bf dfbc
000002a0: 3495 84bd 3e8f 693d a2e3 77bd d819 263d
000002b0: 5aae a83d eb71 563d 69fc 013d 6591 94bd
000002c0: 36fd 0bbd 778f 05bd 507b 8bbd 543e 4a3d
000002d0: 88c1 9f3c 7918 1d3d 0d37 e6bc fb0c 553c
000002e0: b3c0 603d 4b51 d3bd 8058 c8bc bd6a cbbd
000002f0: 4800 253d 3a2b 15bd f09e b53d 99db 7a3a
00000300: 27ba 8039 95ef c0bc 0c1c d03d 9bf1 fabc
00000310: be41 abbd 21bd 0cbd 45c9 f43c c4e9 0fbc
00000320: 259f b5bd 32f1 d6bd 2fae 663d a851 793d
00000330: 6e00 c53d afca 343d 507c bf3c 8110 99bd
00000340: e1e0 24bc 3124 fabc 3caf a8bc d28e 0e3e
00000350: db35 3f3d 484a 033d c4b9 f6bd 342c 1a3d
00000360: bd2d 023e 436a a8bc 3440 683c 0409 a43d
00000370: 133d 1a3c 4241 8bbd 56f7 a73b be83 96bc
00000380: 5328 a83c f5be 9d3d 647b 5d3c f6fb 86bc
00000390: fe01 cebd af59 2dbb e2fc 34bd ed49 6c3d
000003a0: b3ed a53d c8b3 2bbd fca2 85bd 96ce 733c
000003b0: a637 2ebd 1063 b23d fa78 56bc 9f80 b63d
000003c0: b643 59bd 84b8 3bbc 9dc7 4bbc b1fa 5b3d
000003d0: 9639 80bd 4566 343d 07de fbbd 7f48 53bd
000003e0: 02d6 733d 1405 38bd 093d 1cbd 24ee ffbc
000003f0: 4fb2 cdbc 88eb f0bc 5932 733c 840f 743d
-0.053937882 -0.09215233 -0.007238768 0.009015301 0.024194214 0.005407127 -0.10620343 -0.111967444
-0.0042948457 0.020607015 -0.0033058117 0.0063883336 -0.00019762652 0.05398285 0.012846561 0.054013543
-0.030122088 -0.08862515 0.036820073 0.10052575 0.011123451 -0.02510262 0.07170405 -0.020683523
0.013832163 0.012163881 -0.08759809 -0.076273285 -0.0006831474 -0.031298395 0.08039931 0.021443974
-0.09717431 -0.05727087 -0.044801645 0.033133246 -0.08891569 0.01262323 -0.10840066 0.0031259474
0.06415448 0.07352943 -0.050714113 0.03677498 -0.051076964 -0.015795467 0.006779893 0.10767349
-0.028029647 -0.044702116 0.07438389 -0.042023778 -0.06159292 0.08498805 -0.053433813 0.040178288
-0.07661185 -0.028023932 -0.068862304 -0.07730933 -0.0041488158 0.010103943 -0.0074627306 -0.025055474
0.046484172 -0.13631566 -0.08855974 0.08420805 -0.067631274 0.055560485 -0.06691816 0.03297286
0.06929846 0.065297306 -0.10052479 -0.09153265 -0.007871857 -0.05147801 -0.08992127 0.0042489595
0.042012416 -0.100498006 0.032376718 0.05133774 -0.10367952 -0.025042659 -0.015372097 -0.095876865
0.03541296 -0.06810042 0.115394026 -0.03318485 -0.039432824 0.0020902306 0.042110693 -0.00027678694
-0.060092762 0.017574733 0.03486901 -0.06629743 -0.0509697 0.04794319 -0.10212003 -0.09546279
0.054372743 -0.04824989 -0.06016459 0.04730268 0.008594733 -0.04330104 -0.07574639 0.057921313
-0.09278504 0.07433794 -0.084844835 0.025031978 -0.056581315 0.022294346 -0.081637315 0.016955016
0.032570563 -0.023020612 -0.006647891 0.016155768 -0.081495486 0.047347482 -0.06466258 0.051343553
0.09842222 -0.035252627 0.0054865945 0.092092805 0.032575916 0.13427737 0.070483804 0.12937409
0.07948716 -0.10252423 0.07129618 0.04189769 0.010197492 -0.08420683 -0.07652158 -0.048489448
0.08291127 0.034755964 0.11013372 -0.09063985 -0.060114153 0.05999622 -0.08610113 0.04375406
0.05846013 -0.063143626 -0.01917052 0.06171789 0.05176757 -0.0898079 -0.027514588 0.0010244581
0.10582054 -0.014547792 -0.11185557 -0.09904865 -0.017121576 0.018794745 0.09106927 -0.027313095
-0.06473771 0.057021372 -0.060519822 0.04055199 0.0823638 0.052354734 0.031734858 -0.07254294
-0.034177028 -0.03260752 -0.06810629 0.049375847 0.019501463 0.038353417 -0.028102422 0.013003583
0.054871272 -0.1031824 -0.024456263 -0.09932468 0.04028347 -0.036418177 0.088682055 0.0009569466
0.00024552757 -0.023551742 0.101615995 -0.030632785 -0.08362149 -0.034360055 0.029881129 -0.008783761
-0.08868245 -0.10495223 0.05631846 0.06086889 0.096192226 0.044138607 0.023374707 -0.07473851
-0.010063381 -0.030534836 -0.02059137 0.13921669 0.04668222 0.032053262 -0.12047151 0.03763981
0.1271276 -0.020558482 0.0141754635 0.08009532 0.009413975 -0.06799556 0.0051259203 -0.018373366
0.02052704 0.07702438 0.013518188 -0.016477566 -0.10058974 -0.002645116 -0.04418648 0.05768769
0.08101978 -0.0419195 -0.065252274 0.014880797 -0.04253354 0.08710301 -0.0130903665 0.08911251
-0.05304309 -0.011457566 -0.012437728 0.053705875 -0.06260984 0.044042844 -0.12298208 -0.05158281
0.059530266 -0.044926718 -0.038144145 -0.031241484 -0.025109438 -0.029409185 0.014843547 0.05958511

net.2.bias f4 [100]
00000000: aea7 33ba 0dc8 f83c 149f 893d 5ea2 d63d
00000010: 08d3 593c e907 97bc 96d1 993d c0a4 6fbd
00000020: 7e1b f13d f176 8b3d 2545 4eba 226b c53c
00000030: 6915 6d3d 700b 8d3d 4c00 b73d b2c3 29bc
00000040: ba56 6fbd 5e10 8ebd 0181 bb3b 200a 453d
00000050: 2e81 aabd e330 b4bb 9314 bbbd ce8a 243c
00000060: d80b af3d 0e3a 303d 9267 bfbd 438a 813c
00000070: db74 63bc 0d2c 8cbd 5244 a6bd ff33 533d
00000080: 7fad 3f3d 8f4c afbd fa15 9f3d 6e2b d33c
00000090: 3c0e 373d a5f8 be3d c172 993c 8373 19bd
000000a0: f065 cb3d 02f4 3bbd 463c 9e3d b8d2 983c
000000b0: 54ac 8ebd 77fc 9fbd 8080 b53c cde9 f43b
000000c0: f858 093d 7633 ae3d ac06 b53d 8daa 5dbd
000000d0: b0ef 5f3d 3910 5fbd ced7 8b3d 5764 be3d
000000e0: 6ecc 0c3e 46ab c9bd b18d d03c 873d aebc
000000f0: 4127 9d3d f31c c83d 1470 a33c 11e0 9cbd
00000100: ffa4 cabc 9ab0 84bc 7b64 a13d 922d 403d
00000110: 73fa 8fbd 78b0 af3d e150 babc c714 a03d
00000120: f79f c8bc fa31 213d f10c aa3d 50c1 99bd
00000130: 6880 8e3d 2435 e7bd 8a17 f93c d318 5ebd
00000140: 9d5d 4b3d 3a1f 8b3d 642c ebbc b715 a73d
00000150: dfb1 b6bd d858 6ebb 1172 bebb 89b3 79bd
00000160: 727f c0bd d767 adbd 7ee4 84bd 90de 9dbb
00000170: 1655 92bd d243 ad3b 83fe 11bd 0cb9 ab3d
00000180: 1bf5 703b 8384 72bd 4522 d0bc 622e b13d
-0.00068532943 0.03036883 0.06719795 0.10480188 0.013294943 -0.018436389 0.075106785 -0.058506727
0.11772822 0.06809796 -0.00078685797 0.024098936 0.057881746 0.06886947 0.089356035 -0.010361599
-0.05843232 -0.069367155 0.0057221656 0.04810536 -0.0832542 -0.005498992 -0.091347836 0.010042859
0.08547181 0.043024115 -0.09345926 0.015812999 -0.013882841 -0.068443395 -0.081185 0.05156326
0.04679632 -0.08559524 0.077678636 0.025777545 0.04469131 0.09324769 0.018731477 -0.037463676
0.099315524 -0.045887 0.0772634 0.018655166 -0.06966463 -0.07811826 0.022156 0.0074741603
0.033532113 0.08505909 0.08839163 -0.054117728 0.054671943 -0.05445883 0.06828271 0.09296482
0.13749859 -0.09847121 0.025458189 -0.021269573 0.07673503 0.097711466 0.019950904 -0.07659925
-0.02473688 -0.016197491 0.07880493 0.04691846 -0.07030191 0.085785806 -0.022743644 0.07816463
-0.02449034 0.039354302 0.083032496 -0.075075746 0.06958085 -0.11289433 0.030406732 -0.054222893
0.049649823 0.06793065 -0.02870769 0.08158439 -0.08920645 -0.0036368873 -0.0058119376 -0.060962234
-0.09399308 -0.084670715 -0.06488894 -0.0048177913 -0.07145135 0.005287626 -0.035643112 0.08384904
0.0036767188 -0.059208404 -0.025406966 0.08651425

net.4.weight f4 [100, 100]
00000000: 0506 d2bb 8f39 13be 7696 ce3d 7eb0 bb3d
00000010: 95d4 093c b509 2ebd f972 ae3d 2493 b7bd
00000020: 003b c4bd c8b8 f23c b058 b13d 6419 ea3d
00000030: 107e af3d 8341 bbbd 7f57 f23d 38f9 85bd
00000040: 7eec 0cbe 636c 2fbb f8bb 20be 8f07 2abc
00000050: 41f0 a33b 442f cabc bdce b73d e0e2 bb3d
00000060: 1669 b23d 4d71 c53d f882 a83c 2116 2a3d
00000070: c4f2 76bc f49c 66bd 328b 8c3d 96c7 d8bc
00000080: 546a 9b3d 23e7 043c a97e 62bd 5c9f 99bd
00000090: c9a5 d2bd 2f1b 43bb 58bc 023e 5882 3dbd
000000a0: 7acb 9cbd e6c5 a5bc 06b8 a9bd 28db a7bc
000000b0: 8bf7 6c3d 1d9a ff3c 1238 37be 4cda c53d
000000c0: ea75 8dbd f80e ce3c 59fd 8d3c 69e5 ac3b
000000d0: 1712 9cbd b25b b83e 2f46 4ebe 42c9 e03d
000000e0: 1ad1 b63d 03d3 0d3e f8ff 30be 8251 ffbc
000000f0: e093 a03d 3f00 973d 95ab 93bd 142f 52be
00000100: 55b4 b3bd 5b72 283e 053c 073e cdf3 acbd
00000110: 12e1 4abe 10b9 d1bd eb44 afbc 2302 2f3e
00000120: d183 81bd a87c 5a3d 9086 12bd 010f f0bc
00000130: 3698 9fbd c504 3ebe 1df0 9fbd 7c21 c9bd
00000140: 17ef 51bd ed40 b53d 6f69 d43d ccfb e03d
00000150: a22a 98be ac4d d6bd 6582 b5bd c9d0 4f3e
00000160: c3a2 793d 86f5 b6bd bb88 8c3d 6939 0abe
00000170: e1ba 93bd 3d6a c4bd d9cb 9ebd cf2b 23bb
00000180: 44b9 d23d 78e9 9d3d d8ba 21be 554e 82bd
00000190: e0c0 dcbd 41bb 4abd ce48 4abc 5277 3f3d
000001a0: 58d8 0c3e 3768 9fbc 4efd 0ebe bed0 e13d
000001b0: 8256 c33d 5d1a bbbd 1378 11bd 351f 98bd
000001c0: 1922 553c a405 ab3d 0b66 6dbd dd25 45bd
000001d0: 0b7f a5bd ece3 30bd 9af1 97bd dba5 0bbd
000001e0: cde2 5c3d 30e8 93bd ae1d b0bd a3d8 38bc
000001f0: c1f1 243d 7f70 583d b182 71bd 76e3 8dbd
00000200: 337a 9a3d b422 5e3c 8516 e23d b4e6 16bd
00000210: 07f6 afbc fffe 15bc 6ef7 13bd 9471 343d
00000220: 0a73 a73d b2dd b33d 0973 ee3b 818f 0d3e
00000230: 6bd0 9ebd 8d92 9b3c 16a0 6d3c ab2e 0bbd
00000240: 396b bebd 744a d43d 3aa2 203c ecc5 9b3d
00000250: b9e4 fcbc 9865 b03c 0dc5 bb3d 18b5 a43d
00000260: fd00 fd3b e026 1f3e f0b5 3cbd af30 163d
00000270: c2d9 19be 7b49 1ebe 2a6f f7bc 1453 83bd
00000280: 8b4d 4bbd 7b81 14bd e400 693d 0a5d a6bc
00000290: 0114 833c 03c5 313e 71e3 e23b 24f6 68bc
000002a0: 97a5 86bc f309 b6bd 9283 bcbc 8f33 183d
000002b0: 3eb2 d3bd 8b47 423c ce5b 90bd b2cc 00be
000002c0: 2104 60bd 1523 dfbd 606a 3fbc a244 483d
000002d0: ffd8 cc3c f806 9e3d c2d8 2e3d be87 cc3d
000002e0: d2d9 1dbc bfc0 b2bd ed59 09be 8631 bf3d
000002f0: bb79 83bd 2a05 1e3d a588 0e3d 206c 5abd
00000300: 74c8 913c 1d4c 0ebd 26ef 13bd 61a0 e6bd
00000310: d0f2 223c af76 643d 8642 e83d de3c 4b3c
00000320: f9a0 e43b 38ba 65bd 3f37 803b 77f8 913d
00000330: 9c97 b53d 7732 cb3b aaff af3c 50b6 ce3c
00000340: 670d d73c 80ee 5f3c a67e 58bd 44a9 cb3d
00000350: 24bb 813d 2327 c8bd 0cbf 6dbd 7411 a3bd
00000360: 14a1 23ba c443 5f3d ff52 a8bd 9ff0 583d
00000370: 4a24 8e3c aef6 d53d e597 94bc 01c3 75bc
00000380: c6b7 533d 76a9 833d bda4 a0bd 127e 87bd
00000390: 5e2b 0ebd 21b6 70bd 0a5b 103d 4509 c4bb
000003a0: 38c1 adbd 0ffa 0dbd 91b4 94bd 8fcf d53b
000003b0: b5ff f03b a1d3 b63d 59b4 97bd 059f b63d
000003c0: cba9 cbbc a88f cebd 947a 85bb eaba 653d
000003d0: db96 9dbd c37a 89bd ac17 b7bc 14b2 0dbd
000003e0: a0c6 25bd 8303 b73d 88da 283d e481 babd
000003f0: ccda 423d 72bd 2d3d 05e2 64bd fbbc 9ebd
-0.006409409 -0.14377426 0.10087292 0.091645226 0.0084125 -0.042489726 0.08518023 -0.08963612
-0.09581566 0.029629126 0.08659494 0.11430624 0.085689664 -0.09143355 0.11833095 -0.06541675
-0.1376209 -0.0026767484 -0.15696704 -0.010377779 0.0050030057 -0.024680741 0.08974979 0.09174132
0.0871145 0.09640751 0.020570263 0.04152501 -0.015072528 -0.056302026 0.06862487 -0.026462357
0.0758864 0.008111748 -0.055296574 -0.075010985 -0.10285527 -0.0029770841 0.1276716 -0.046266884
-0.076559976 -0.020235967 -0.08287053 -0.020490244 0.057853263 0.031201417 -0.17892483 0.096607774
-0.06907256 0.025153622 0.01733272 0.0052763713 -0.07620638 0.36007458 -0.2014396 0.10975887
0.08926602 0.13850026 -0.17285144 -0.031166796 0.07840705 0.07373094 -0.07210461 -0.20525771
-0.0877463 0.16449873 0.1320649 -0.08444939 -0.1981242 -0.10240376 -0.021395167 0.17090659
-0.0632397 0.053341538 -0.03577286 -0.02930403 -0.07792704 -0.18556507 -0.0780947 -0.0982084
-0.051253404 0.08850274 0.10371672 0.109855264 -0.29720026 -0.104640335 -0.088627614 0.20294489
0.060946237 -0.08933549 0.06862017 -0.13498463 -0.07213379 -0.09590576 -0.077537246 -0.0024897938
0.10289243 0.07710546 -0.15793931 -0.06362597 -0.107789755 -0.049494985 -0.01234646 0.046744652
0.13754404 -0.019458873 -0.13963816 0.110261425 0.095379844 -0.09135888 -0.035514902 -0.07427827
0.013008618 0.08350685 -0.057958644 -0.048131812 -0.08080872 -0.043186113 -0.07419129 -0.03409372
0.05392723 -0.072220206 -0.08599411 -0.011282119 0.040269617 0.05284166 -0.058962528 -0.0692815
0.07542839 0.013558079 0.110394515 -0.03684111 -0.02147962 -0.009155034 -0.03612464 0.04405363
0.08176239 0.087825194 0.007276897 0.13824274 -0.07754596 0.01899078 0.0145034995 -0.033980053
-0.09297795 0.10365763 0.009804303 0.0760611 -0.030870782 0.021532819 0.09168444 0.080423534
0.007721065 0.15542173 -0.046071947 0.036667522 -0.15024474 -0.15457718 -0.030204374 -0.0641233
-0.049634498 -0.036256295 0.056885615 -0.020308036 0.01600075 0.1736031 0.006924086 -0.014218841
-0.016436381 -0.088886164 -0.023011956 0.037158545 -0.103367314 0.0118578775 -0.0704876 -0.12578085
-0.054691438 -0.10895363 -0.011683077 0.04889358 0.025005816 0.07716173 0.042687185 0.09986828
-0.009634452 -0.0872817 -0.1341321 0.09335618 -0.064197026 0.038579144 0.034798283 -0.053325772
0.017795779 -0.034740556 -0.03611674 -0.112610586 0.009945586 0.055777248 0.11340813 0.012404649
0.0069771972 -0.056085795 0.003912836 0.07127469 0.08866808 0.0062010842 0.021484215 0.025233418
0.026251508 0.013667703 -0.052855156 0.09944394 0.06334522 -0.0977309 -0.058043525 -0.07962313
-0.0006241959 0.054507986 -0.08218955 0.05296385 0.017351288 0.10447441 -0.018138835 -0.015000106
0.051688932 0.064288065 -0.07843921 -0.06615843 -0.034709327 -0.05876744 0.03524307 -0.0059825503
-0.08484119 -0.034662303 -0.07261003 0.006524987 0.0073547014 0.08927084 -0.074074455 0.08917049
-0.024861237 -0.10085994 -0.0040734503 0.05608646 -0.07694789 -0.06712868 -0.022350155 -0.034593657
-0.040472627 0.08936217 0.041224033 -0.09106806 0.047571942 0.042416997 -0.05587961 -0.07750889

net.4.bias f4 [100]
00000000: d343 c53b 5e27 cc3a 3f60 163d 9620 95bd
00000010: 3a00 b4bd f99b bd3d 8d36 e7bc a9ad b9bc
00000020: bb3d e33b efbf 933d d640 ae3d 73d6 b13d
00000030: 3258 50bd f41c 6f3d dffe 3e3d 777f 3c3d
00000040: 6d5c 5abd 6592 2cbc c3cb 81bd 162d dcbb
00000050: 1a72 30bd 5dd2 b1bd 4fbb b836 c147 0fbd
00000060: 0666 d93a f6ac c8bd c660 6cbd 8741 7f3d
00000070: acf9 1d3d 82ab 8c3d ef0a 2dbd 72e6 cd3b
00000080: 2657 763d c4bc 7f3d c48b bfbc 053f 233d
00000090: d5bd 66bd 5af3 91bd 7e22 bd3b 0418 7a3d
000000a0: 64cd 1abd b892 20bd eca1 b6bc b9f1 9e3c
000000b0: 9340 b1bd 45b1 683d 7bd7 55bd 0517 cc3d
000000c0: 5aaf 8bbd 9912 8c3c 0bbd bb3d b9ab f4bc
000000d0: 2e21 f33b 05ad 9ebd cdf5 053d 188e b0bd
000000e0: e14f a7bd 7b88 7c3d 8894 9f3c 9d81 283d
000000f0: 67b7 243c b6ea ca3d 7665 02bd e3ca 6ebd
00000100: aae7 8b3c 715c 38bd a83c 06bd 73ac a03d
00000110: 2268 a73c 97fa 443c 1316 9fbd 10a2 c1bd
00000120: b4ce 2dbd 1e58 a93d df23 313d ecff 803d
00000130: eb53 8fbd a403 c63d faad 803d 53de a6bd
00000140: 530d ac3d 77f7 27bd d390 1abd 5123 633d
00000150: 96fe bf3d 0e21 65bd c3a1 48bd a91a 5b3d
00000160: c8bd 49bd de2b 983d 1387 fabc 80f4 143d
00000170: 12db 10bd 6d71 12bd 9309 913d fb23 fbbc
00000180: 82f0 2bbd 4ef3 6fbd 7365 3a3d de24 9bbd
0.006020048 0.0015575697 0.03671288 -0.07281606 -0.08789106 0.09258265 -0.028224254 -0.022665815
0.006934849 0.07214343 0.0850846 0.08683481 -0.05086536 0.05837722 0.046629783 0.046019997
-0.0533108 -0.01053295 -0.063376926 -0.006719242 -0.043077566 -0.08682702 5.505433e-06 -0.03498054
0.0016586191 -0.09798615 -0.057709478 0.06231835 0.038568184 0.0686865 -0.042246755 0.0062835747
0.060141705 0.06243588 -0.023382075 0.039855022 -0.05633338 -0.07126494 0.005771934 0.06105806
-0.037793532 -0.039202422 -0.022294007 0.019402372 -0.08654895 0.056809682 -0.05220745 0.09965328
-0.06820555 0.017098712 0.091669165 -0.02986704 0.007419727 -0.077478446 0.032705117 -0.08620852
-0.081695326 0.061653595 0.019480005 0.041139234 0.010053492 0.09908049 -0.031835042 -0.058298957
0.01707824 -0.045010034 -0.03277269 0.07845392 0.020435397 0.012022636 -0.07767882 -0.09454739
-0.042433456 0.0826876 0.0432471 0.06298813 -0.06998428 0.09668663 0.062831834 -0.08147874
0.08400979 -0.041007485 -0.03773577 0.055453602 0.0937473 -0.055939727 -0.048982393 0.053492222
-0.049253255 0.07430242 -0.030581987 0.036365986 -0.03536517 -0.035752703 0.07081904 -0.030656805
-0.041977413 -0.058581643 0.045506906 -0.07575391

net.6.weight f4 [100, 100]
00000000: 0453 a73d 763f 063d 8c91 0f3d 3548 2ebb
00000010: c06b 063d 6ac9 123c 9c0a bf3b 0023 78bd
00000020: d433 403d 1df3 86bd 24bd 70bc c98e 7bbd
00000030: ceda 28bb 877d 7e3d e665 283d 0f95 8ebd
00000040: 3840 7ebd 1b31 b0bd e65f 063d 73a4 d6bc
00000050: 231b a63d 9a43 df3c 5a2e b0bd e851 aabc
00000060: 0d74 233c d508 f93c f5ff d1bc b6de dfbb
00000070: 574f ccbd 6eb6 923b 5eda b5bd 787f febc
00000080: 6a60 8e3d adca a7bd 5d0c 833d 8e51 4ebd
00000090: 27cb 2bbd b4d8 b53d 3e9c b73d b413 fabc
000000a0: 0b07 483d d968 883d 6d45 453d d8b2 4e3d
000000b0: 37d8 c3bd a491 51bb 7ac6 063c c3ef b6bd
000000c0: 8537 9fbd 1fbe 38bd 264f a23c 098f 413d
000000d0: 0b2b 553d 8bc6 8b3d 3170 cb3d 8b8e c23c
000000e0: d2c2 063d 1d06 8a3d f631 84bd 7c50 a8bd
000000f0: e039 02bc 63d8 98bd 0986 343d 25cc 0a3d
00000100: d8fb 953d ff59 bd3c 8ac4 7bbd b389 43bc
00000110: a9a6 9dbd f052 083b ec7a 063d 23cb 283d
00000120: d32e 22bc d4d0 90bd fec2 8ebd 2fdd 9d3d
00000130: ee6e 6ebd 282f 143d 0b1c d0bb 3da8 a6bd
00000140: a03a 823d 3da6 b53c cc58 d8bc a942 34bd
00000150: cc3c 8abc fcc5 c73c 0fb9 abbd a94d 31bd
00000160: 4de3 973d f20d bb3d 5a09 17bd 20ce 50bd
00000170: b722 8ebd 1e2b 89bc bf61 43bd 240d 9bbd
00000180: 4bbe 603d f059 ec3b e03f c23d 0fde 9b3c
00000190: 8b8b c93c 1449 64bd 4bec b23d 10d8 093d
000001a0: ae98 bf3d 7fc3 e6bd 8c20 b13d e2cb 633d
000001b0: d774 eb3d ae9c 633d 0fc1 d9bd 3560 4abd
000001c0: 4adb 41bd 83ac 213d 83d4 39bd fb5f 8bbc
000001d0: 0c3b 8cbd 2119 1abd 5c3e 28bd 31fb 7abd
000001e0: b926 6d3d 33ba bc3d 9978 abbd ebd0 dbba
000001f0: 6d57 a4bc 91b1 babd 68bd a93d 5481 a5bd
00000200: a8c3 d33d ff3a f93d b034 e63d 8edf 3ebd
00000210: 925a 2e3c 44e0 3fbc 3900 2bbd 724c 26bd
00000220: a350 9e3b c6a8 8b3d 8519 e1bd 203b 363d
00000230: fbcd 933d 2e51 43bc 3a91 513d bdb8 943c
00000240: 139b 963d 4777 333d 1550 96bd 565f b3bd
00000250: 0c15 373d 6b7a febc 0b5e adbc bda0 8e3d
00000260: fe5f 9b3c 8119 9a3d e5d6 c93d 9700 cb3d
00000270: 7890 35bd e58f d43c 044a 9ebc 8023 d83d
00000280: a01f 9dbd f08e 12bd c135 343d 8f59 84bd
00000290: 3b57 6abd b51a a1bd c91d cabd b0d0 90bd
000002a0: f55b a4bc 7eb5 953d 0122 393d 0560 a03d
000002b0: 84ad 633d 74c4 53bd cf09 93bd 4f80 573d
000002c0: 956c cbbd e886 103d bc54 e23d c38f 3a3c
000002d0: 6962 ca3d 49e5 a1bc a910 bebb ffbd 9d3d
000002e0: aff0 00bb 87ac 53bc 64cc 58bd 7024 cc3d
000002f0: 15c1 ec3c cab7 ed3d 6227 a33d b156 01bc
00000300: a431 143d 1f36 17bd 0430 de3c 814a 32bd
00000310: b815 a43d dcf1 a13d d2b8 83bd f8ea a739
00000320: 827d 19ba cb62 dfbc ab52 c7bd 2c09 9abc
00000330: a3b4 963d d1d2 4ebd a5d9 a6bd cbfa 0d3d
00000340: 90e4 14bc bf9d a1bd aab4 b03d c2ef d4bc
00000350: b481 6a3d 132d 033d 5924 b6bd ca76 2d3d
00000360: a0f8 ac3d da79 023d 7639 13bd 3875 7dbd
00000370: 1693 9c3c d67b 2fbd 4ac1 e5bd 0ebe 0f3d
00000380: 25f0 30bd ddab cdbd 5008 f9bc 2dc8 783d
00000390: 584a 81bd 360a 5fbd dfd3 aebd 21b9 cdbd
000003a0: 135b aebd 8d22 823d 9b7b 5f3c 7f92 693c
000003b0: 4d86 a0bc de71 a1ba 36f9 a73d 9c9f 34bd
000003c0: 9692 a83c c170 3d3d a887 723d 27a4 58bd
000003d0: f282 a63d 4353 a13c 620f 7cbd 78f7 b13c
000003e0: 13c0 adbd be89 1b3d c52b a33d dbb2 b1bc
000003f0: 4c26 a3bd ff8c 873d fc63 a13d 67e7 46bd
0.08170131 0.032775365 0.035050914 -0.0026593332 0.032817602 0.008959154 0.005830122 -0.060580254
0.046924427 -0.06589339 -0.014693532 -0.061415467 -0.0025765183 0.06213143 0.041112803 -0.069620244
-0.062072963 -0.08603116 0.0328063 -0.026201462 0.08110645 0.027253915 -0.08602591 -0.020791009
0.009976399 0.03039972 -0.025634745 -0.006831969 -0.099760704 0.0044773137 -0.08879541 -0.031066641
0.06951983 -0.08192954 0.063988425 -0.050370745 -0.041941788 0.088792235 0.08965348 -0.030526973
0.04883484 0.06660623 0.048161913 0.050463527 -0.09562724 -0.0031977678 0.008226031 -0.0893245
-0.077742614 -0.04510319 0.019813132 0.04725555 0.052043002 0.068249784 0.09933508 0.02374961
0.03290064 0.06739447 -0.06454842 -0.08218476 -0.007948369 -0.074631475 0.04407314 0.033886094
0.07323426 0.023114203 -0.06146673 -0.0119346855 -0.076978035 0.0020801388 0.03283207 0.04120935
-0.009898859 -0.07071081 -0.069707856 0.07708203 -0.05821126 0.036177784 -0.006350999 -0.08137558
0.06358838 0.022173995 -0.02640953 -0.044008885 -0.016874693 0.024386398 -0.083849065 -0.043286953
0.07416401 0.09133519 -0.036874153 -0.050977826 -0.06940215 -0.016744193 -0.04770064 -0.07570866
0.054868978 0.00721287 0.094848394 0.019026784 0.024602672 -0.055733755 0.087364756 0.03365332
0.09355293 -0.11267757 0.08648786 0.05561436 0.11496895 0.055569343 -0.10632526 -0.049408156
-0.04732827 0.03947116 -0.045368683 -0.01701354 -0.068472 -0.03762162 -0.041075096 -0.06127471
0.057898257 0.09215202 -0.083726116 -0.0016770636 -0.02006122 -0.09115899 0.082880795 -0.08081308
0.10340053 0.12169456 0.11240518 -0.046599917 0.010641711 -0.011711184 -0.04174826 -0.040600248
0.00483139 0.068193 -0.109911956 0.04448998 0.07217022 -0.01192121 0.05116389 0.018154496
0.07353797 0.043814924 -0.07339493 -0.08758418 0.044697806 -0.031064233 -0.021163007 0.06964252
0.018966671 0.07524396 0.09855441 0.09912222 -0.04432723 0.02594752 -0.019322403 0.10553646
-0.076720476 -0.035780847 0.043996576 -0.064623944 -0.057212096 -0.07866422 -0.09868962 -0.07071054
-0.02006338 0.073100075 0.045198444 0.07830814 0.0555854 -0.051701024 -0.07179605 0.0526126
-0.0993282 0.035284907 0.11051318 0.0113868145 0.098820515 -0.019762652 -0.005800326 0.077022545
-0.0019674709 -0.012919552 -0.052929297 0.099678874 0.028900662 0.116073206 0.07966496 -0.007894204
0.036180153 -0.03691685 0.027122505 -0.043528084 0.08011955 0.07907459 -0.06431736 0.00032027788
-0.0005855189 -0.027268788 -0.097325645 -0.018803202 0.073586725 -0.05049402 -0.08146981 0.034663003
-0.009087697 -0.07891416 0.08628209 -0.025993232 0.0572526 0.032025408 -0.088936515 0.042349614
0.08445859 0.031854488 -0.03594347 -0.061879367 0.019113105 -0.04284271 -0.112185076 0.03509336
-0.04319777 -0.10042546 -0.030399472 0.060737778 -0.06313008 -0.054453097 -0.08536505 -0.10045076
-0.08513465 0.06354246 0.01364031 0.014256119 -0.01959529 -0.001231726 0.0820183 -0.044097528
0.02057771 0.04625011 0.059211403 -0.052890923 0.081304446 0.019693023 -0.061538108 0.021724448
-0.08483901 0.037973158 0.07967333 -0.02169173 -0.07966289 0.0661869 0.07880399 -0.048560526

net.6.bias f4 [100]
00000000: a1e9 4abd b1c7 e93c 1456 6f3d 9531 af3b
00000010: 4e9f d83c 0acc 0ebd 608c a7bd 14e6 e63c
00000020: fe10 21bc 03bf 183d 637a 88bc dfce 063d
00000030: 911b 82bd 07a4 4cbd a43d 4f3d cf3e c2bd
00000040: aafd 8dbd acfa 22bc f6a3 ccbc f499 d8bd
00000050: 0ac3 dbbd cece 1bbc b32c 51bb 239d b8bc
00000060: dea7 a73d c59a d43b d8f4 40bd 6b00 1e3d
00000070: 1731 89bd 929a bebd de20 d83c 97d9 e2bd
00000080: f2a4 33bb 9d8e cfbd d64c bfbd fe56 a63c
00000090: 64c1 8b3b f71f b73b 134e b7bd 2ee7 b53c
000000a0: fe30 26bd 2b04 77bd 2f99 2ebd e1dc f73c
000000b0: e8c8 813c 41dd b8bd 9c5b ddbd 010c b6bd
000000c0: 977b adbd 4a88 f2ba 5659 2c3d 134d 383d
000000d0: 69f3 923d a602 a23d a37d 393d f509 88bc
000000e0: ecde 763d 70b5 0abd 58de b53d a2c5 5c3d
000000f0: c5b6 053b 918a cdbc 3115 c2bd 1088 543c
00000100: af3f 41bd b05d 313c 757f 26bd b86c 8e3d
00000110: c724 6abd 7baa 23bd 448e 8a3d 8444 843d
00000120: deb9 003d 7ece c53c 6584 173d 21a0 a23d
00000130: 9408 7cbd 7aa6 4a3d d303 6d3d b56c a93d
00000140: d3ce 40bc 087c dd3c 285d 1f3d 8dad 5f3c
00000150: 3169 4c3d d432 10bb 6989 bfba e9eb 2dba
00000160: c8b0 35bd 1172 863d 9025 80bd 0291 9b3b
00000170: b320 15bd a802 393d 8ae8 bd3d 2241 c03d
00000180: 7526 91bc cc58 eebc d7bf 4f39 1cf0 243d
-0.049539212 0.028537603 0.0584317 0.005346487 0.02644315 -0.034862556 -0.08181071 0.028185882
-0.009830711 0.037291538 -0.016659921 0.03291213 -0.06352914 -0.049961116 0.050595894 -0.09484636
-0.06933148 -0.00994746 -0.024980526 -0.10576239 -0.1073056 -0.009509755 -0.0031917512 -0.022535866
0.08186315 0.0064881765 -0.0471085 0.038574617 -0.06698816 -0.09306826 0.02638286 -0.11076658
-0.0027411547 -0.10134623 -0.09340827 0.020305153 0.0042649973 0.0055885273 -0.08950438 0.022204962
-0.040574066 -0.06030671 -0.042626556 0.03025669 0.01584287 -0.09026576 -0.10808489 -0.08889008
-0.084708385 -0.0018503752 0.042077385 0.04499538 0.07175333 0.079106614 0.045285832 -0.01660631
0.06027119 -0.03386444 0.08880299 0.053899415 0.0020403129 -0.025090488 -0.09476698 0.012971893
-0.047179874 0.0108255595 -0.040648896 0.0695433 -0.05716398 -0.039957505 0.06765416 0.06458381
0.031427257 0.024146315 0.036991496 0.079406984 -0.06153162 0.04947517 0.057864975 0.08272687
-0.011768061 0.027036682 0.0389072 0.013652218 0.049905006 -0.0022002952 -0.0014613095 -0.00066345796
-0.044358045 0.06564725 -0.062571645 0.004747511 -0.036408138 0.04516855 0.09272869 0.09387423
-0.017718533 -0.029095076 0.00019812524 0.04026805

net.8.weight f4 [100, 100]
00000000: ebd1 75bd 998a dfbd 1def a8bd 9ac7 1abc
00000010: d9c3 85bb 518a 683d d030 9c3c 060b abbd
00000020: ee60 b7bd 739f 6dbd 8916 b03d 5870 9dbd
00000030: 6f2a 1fbc 82dc cbbb 6a7b 4abd 88c9 d43c
00000040: eec5 323c 7e64 973c 7a32 0e3c 04ff b63d
00000050: ba85 b53d ce37 d9bc 0ddf 753c 2bed c33b
00000060: 49be 51bd 9c26 04bd 2b60 453d 6e49 e7bc
00000070: 3567 d23a ca73 45bd 3015 cfbd 8dbd c2bd
00000080: 1c89 84bd e551 323b 1105 343d a395 27bc
00000090: 788d 853d 25da 013d a188 803d 2760 643d
000000a0: 03a5 863c 49e9 763d a02d e73c f857 c6bd
000000b0: 029b 83bc b8c3 c83a f312 f4bc daeb db3d
000000c0: 124f 813c 5586 e13c f588 b0bd 8324 1abc
000000d0: 02b9 13bd a311 a63d f76f f2bc d3b4 a13d
000000e0: 26e4 9cbd dd9d 943d 422b 0d3d 3a5d a7bd
000000f0: 23d9 a9bd 9de3 be3d 5e1a a63d c64c b33d
00000100: e979 bf3c 73bb 87bc e8a1 963d b270 b0bd
00000110: 5760 97bc 93d0 97bc 804f e0bc 7875 b1bd
00000120: 269c e8bc 138f 9e3c cad1 49bc b943 5a3b
00000130: a3c9 ca3c 70a2 b63d ebbd a63c 5615 a73d
00000140: 5e96 b0bc a54c 8dbd e046 4f3c 075d 0d3c
00000150: 5e8b 3d3d 41fd 20bd eb70 be3d 91b5 a23d
00000160: 879f dfbb ea81 b4bb 698c e2ba 88ee d6bd
00000170: 9768 1d3d a679 993d 7692 1e3d 4c5f 54bd
00000180: 4c08 75bc fd42 38bd 1ac5 39bb 23a3 2cbd
00000190: bb7b cbbb 9ed0 893c 1414 7dbd 7321 c83d
000001a0: 2b66 8cbc a046 253d 9819 233d 71c9 aabd
000001b0: 559b ce3d b87d 8bbd 84d7 af3d 5e5a 803d
000001c0: 8656 2fbc 3f67 043d bad8 993d 384b bb3d
000001d0: a84f 9cbd 80e7 afbc 5f72 fabc 2147 4abc
000001e0: 745a 34bd ad73 22bd 7586 93bd 65d6 45bd
000001f0: b79f a5bd 2060 bc3c c108 a83d 6087 96bc
00000200: 3544 bebd 2c3e 9e3d 4213 89bd b724 4c3c
00000210: 88f2 d63c 6f03 4abd 3366 993d d41f 10bc
00000220: c999 4b3c 11c3 f6bc 900d 43bb 7c20 063d
00000230: 551c abbd 08d5 b73d fce6 1e3c e8ae 7d3d
00000240: 9b51 c23d f3ac eebc b1c9 c5bd 101f 7e3d
00000250: ad96 b0bd 8fba 8dbd d146 3d3d 59f5 483d
00000260: 1949 b4bd 64e9 a53c 3423 943d bdb2 4e3c
00000270: 349f 84bd eff4 953c fbf1 b4bd 17c7 c43d
00000280: 9f77 b43d a9c4 acbd 2ef2 4c3d 0351 34bd
00000290: d11b 07bd f89c d5bd c6e3 91bd 6fe4 b13b
000002a0: a6eb 67bc f3dc 4e3c 919a c93d f083 96bd
000002b0: 6a7b 08bd cb49 c3bc f187 d1bc 42cd b2bd
000002c0: 53d0 833b 0f4e 823d f9ac 61bd 99fd 1f3d
000002d0: f53c 753d 768d 8abc 6ef5 8c3d f071 833d
000002e0: e7fb c3bd a713 d4bd c85f fabc cb7a 183d
000002f0: d173 e83c c610 75bd 7051 0bbd b944 4cbd
00000300: a0a8 abbd 3e7c 823d 109a 59bd d7b8 603d
00000310: 18f1 1ebd 8ac1 d339 7a7b c83d 9b41 a0bb
00000320: e3b2 75bd ba85 413c 61a8 b1bd 5190 723d
00000330: 2814 7d3d bad6 b0bd 6518 8c3b dea9 c93c
00000340: 8ed5 383c 65b4 7a3b 60fb 3a3d 8dd5 1b3d
00000350: aa12 1f3d 0ee9 30bd 37a2 c1bd bae3 3cbd
00000360: dbd6 bf3c 8f13 c4bd 8dd5 b53d 2331 7c3d
00000370: c362 a7bd eb37 bbbd d24c 54bd 6067 7bbd
00000380: 55b7 a73d 10c8 7ebd c601 be3d 643b 713d
00000390: 3840 893d b1bf c73d 57d7 843c 85e1 913d
000003a0: 5787 423b bc3e 4ebd 9193 8d3d 9301 c83c
000003b0: d74b 80bd 4c7b f6bd ec64 8d3d f8f7 1abd
000003c0: c9c9 d2bd 2c27 a13c d1e8 90bc ef22 7b3c
000003d0: 9149 b5bd 68a4 29bd 24f8 3ebd d1e0 96bc
000003e0: 34df c0bd b032 1fbd 2437 d5bd 7aa2 7b3c
000003f0: 1c1d 98bd 4641 b3bd 381e 5e3c 974b 283d
-0.060014647 -0.10915107 -0.08248732 -0.009447003 -0.0040821848 0.056772534 0.019066244 -0.08351712
-0.08954035 -0.05801339 0.08598048 -0.076874435 -0.009714707 -0.006221355 -0.049434103 0.025975004
0.010911448 0.018480536 0.008679027 0.08935359 0.08863397 -0.026515868 0.015006793 0.0059792004
-0.05120686 -0.032263383 0.048187416 -0.028233256 0.0016052487 -0.04820613 -0.10111463 -0.0950881
-0.06471464 0.0027209457 0.043950144 -0.010228547 0.06521124 0.03170218 0.0627606 0.05575576
0.016436106 0.06028107 0.028219998 -0.096847475 -0.016065124 0.0015317118 -0.029794192 0.107383445
0.015784774 0.027529875 -0.086198725 -0.009408119 -0.03606511 0.08108833 -0.029594405 0.078958176
-0.07660703 0.072566725 0.034465082 -0.081720784 -0.08293369 0.093207575 0.08110498 0.08754878
0.023373561 -0.016568875 0.073551 -0.08615245 -0.018478556 -0.018532073 -0.027381659 -0.086649835
-0.02839477 0.019355332 -0.012318084 0.0033304526 0.024754351 0.08917701 0.020354232 0.081583664
-0.021556076 -0.068993844 0.012651175 0.0086281365 0.04627549 -0.03930402 0.09298881 0.07944787
-0.006824437 -0.005508651 -0.0017284277 -0.10494715 0.038429823 0.07493906 0.038713895 -0.051848695
-0.014955591 -0.04498576 -0.0028346241 -0.042147767 -0.006209818 0.01682311 -0.061786726 0.09772005
-0.017138561 0.040350556 0.03981933 -0.08339203 0.10088221 -0.06811088 0.08586028 0.06267236
-0.010701781 0.032325026 0.075120404 0.09145206 -0.07632381 -0.021472692 -0.030572115 -0.01234606
-0.044031575 -0.0396611 -0.0720338 -0.048300166 -0.08087104 0.022995055 0.08204795 -0.018375099
-0.09290353 0.07726702 -0.06693126 0.012459925 0.026238695 -0.04931968 0.07490196 -0.008796651
0.012426802 -0.030122312 -0.0029762723 0.032745823 -0.08355013 0.08976179 0.009698626 0.06193438
0.09488221 -0.029135203 -0.0965761 0.062041342 -0.08622489 -0.06920349 0.046210114 0.049062107
-0.08803005 0.02025289 0.07233277 0.012615857 -0.06475678 0.01830527 -0.088352166 0.09608286
0.088118784 -0.084359474 0.050035648 -0.04402257 -0.032985512 -0.1043033 -0.071235225 0.0054288427
-0.014155304 0.012625921 0.09843934 -0.07349384 -0.03332082 -0.023838898 -0.025577517 -0.08730556
0.004022637 0.06362545 -0.0550966 0.03906021 0.059872586 -0.016913157 0.068827495 0.06418216
-0.09569531 -0.10355311 -0.03056325 0.03722648 0.028375538 -0.05983045 -0.03401321 -0.049870227
-0.08381772 0.063713536 -0.05312544 0.054863777 -0.038804144 0.00040389254 0.09789176 -0.0048906333
-0.059985053 0.011811668 -0.08674694 0.059219662 0.0617868 -0.08634706 0.004275369 0.024617132
0.011281384 0.0038254496 0.045649886 0.038045455 0.03883616 -0.04319101 -0.09454768 -0.046115614
0.02341788 -0.09574043 0.08878622 0.061570298 -0.08173134 -0.09141525 -0.051831074 -0.061377883
0.08189265 -0.062202513 0.09277682 0.05889453 0.06701702 0.09753359 0.016215963 0.071230926
0.002968272 -0.050352797 0.06912912 0.024414813 -0.06264465 -0.12035236 0.06904015 -0.037834138
-0.10292394 0.019671999 -0.01768914 0.015328153 -0.08851922 -0.041416556 -0.046623364 -0.018417748
-0.094175726 -0.0388667 -0.10410908 0.015358562 -0.07427427 -0.08752684 0.013557009 0.041087713

net.8.bias f4 [100]
00000000: 3a1e fabc 5d67 eebc 5b77 493d ac0e a9bc
00000010: 4ea0 e73c 09d0 973d 9c45 053d 8365 ad3c
00000020: 2d11 b5bc c2b3 62bd bafe 813d b86a 193d
00000030: 3a6c 483c cd2a 123c aa1c ae3c 7924 973d
00000040: 6108 453d e549 ae3d ee87 b8bc cdaf 833d
00000050: 3710 b73a 694c 963d 9c44 48bd 3da2 313d
00000060: 9d19 57bc 1ada 893c 5b9e 3b3c 1e0b 083c
00000070: 2b62 9f3c 181f 5ebd 7400 02bd 2820 5d3d
00000080: 00d8 333d 81ea 9cbd 887d b73d 9754 97bc
00000090: 0d9a 4c3d 19af 0cbd eb4b 98bd 8069 75bd
000000a0: 1820 2fbc 0e29 673d 1845 dbbc 1b8d 09bd
000000b0: 81f5 bebd ca8e 963d 6f2e 313d d82b bebd
000000c0: d0f4 093d 121f 093d 7f05 213d e8d7 933c
000000d0: 4108 bdbc 6776 99bc df28 50bd 9ca1 c7bc
000000e0: 6f73 a5bd d972 7f3d dc5a 86bd 8831 c6bc
000000f0: 213d 71bd 3c39 8b3d 3024 26bd 65df e53c
00000100: f210 c6bd 7704 46bd ae8d a93d 7154 783c
00000110: 4dbe 5fbd 886a 913d 5e64 e83b 67ee 91bd
00000120: 460d 133d 3fa9 2fbd 7bcb c33d 5955 89bd
00000130: eb75 463d 148a 0cbd f460 a3bd a53e 3b3c
00000140: 5962 a4bd 4c42 173d 2495 f73c 5277 c9bd
00000150: cda1 6b3d ed28 3bbc 220e 81bc 2d68 703d
00000160: 7100 67bd 4978 b3bd b341 95bd 2267 363d
00000170: 0355 70bd 5e1d 993c 8a94 453d 6b35 25bd
00000180: c9a4 453b d0c0 0bbd eb59 57bd 546a 553c
-0.030531991 -0.029102022 0.049186092 -0.020636879 0.028274681 0.074127264 0.032537088 0.021166569
-0.022102917 -0.05534721 0.06347413 0.03745529 0.0122328345 0.008921337 0.021253902 0.073800035
0.048103694 0.08510188 -0.022525754 0.06430016 0.0013966624 0.07338793 -0.048893556 0.043367613
-0.013128665 0.016827632 0.011451329 0.008303432 0.01945599 -0.054228872 -0.031738713 0.053985745
0.043907166 -0.076619156 0.0895949 -0.018472953 0.0499516 -0.034346674 -0.07436355 -0.059915066
-0.010688804 0.056435637 -0.026766345 -0.033581834 -0.0932417 0.073514536 0.043257173 -0.09285706
0.033680737 0.033476897 0.039311882 0.018047288 -0.023075225 -0.018733216 -0.050820228 -0.024369054
-0.08078658 0.062365387 -0.06560299 -0.02419354 -0.058896188 0.06798026 -0.040561855 0.028060624
-0.09671201 -0.0483441 0.082789764 0.015156851 -0.054624844 0.07100397 0.007092043 -0.0712555
0.03590133 -0.042886015 0.09560295 -0.06705732 0.0484523 -0.03431137 -0.07977477 0.01142851
-0.08026571 0.03692846 0.030222483 -0.09837212 0.057527352 -0.011423332 -0.01575381 0.0586931
-0.056396905 -0.08763177 -0.07287922 0.04453195 -0.058674823 0.018690761 0.04823736 -0.040334146
0.0030158034 -0.034119427 -0.052575987 0.013025839

net.10.weight f4 [100, 100]
00000000: 28b4 f8bc 4474 24bd e70d ca3c 6b32 a2bd
00000010: a086 373c 4df4 bb3c 6650 d13d a158 29bc
00000020: 9946 29bd f91b 68bd b420 413d 89f0 363d
00000030: d8e5 523d d964 933d 4d83 cd3d ac86 56bd
00000040: b2b6 703d e5e8 09bd 9bef ad3d d1e8 963c
00000050: 7228 9a3d a50f fd3c c157 863c e48d 483d
00000060: b956 be3d 5527 a83d e046 24bd f8f6 163d
00000070: 3550 cdbd 3996 1c3d ff75 d6bc 053c 8cbd
00000080: 2574 c2bd 6f03 613d aeb1 843d 98de afbd
00000090: 70ed 9a3d efab 81bd 1fdd 813d 8e6d 59bd
000000a0: 90ed 82bd f944 ab3d 6347 abbc 0cff ae3d
000000b0: ce6b ccbd bf8a cdbc d784 323c 0cec a5bd
000000c0: 469e a13d e83e edba 096a a1bd ec51 0936
000000d0: c828 2fbd 65ed bdbb 9f2a 7a3d 3a22 24bd
000000e0: 4e27 e9bc 5cce bfbd f1e8 56bd b12d ddbd
000000f0: b2b0 dc3d 2e02 52bd 9fd9 18bd 0327 6f3d
00000100: 6a7d a8bd f7bc 5ebd bbe9 32bc 5182 bbbd
00000110: 2fa3 dbbc 7e54 b83c b9bb 3b3d 533f c9bd
00000120: 26aa f0bc 94da b2bd 5ca6 713d 3a5f 943c
00000130: f866 513d ecb8 2e3d 2ae2 51bd e675 1cbd
00000140: a6be a93d 0298 aabd 7f88 0b3c d541 f13d
00000150: ddc6 abbb a00c 6a3c 8bc2 823b fdc2 cbbd
00000160: c56a b4bd d6b3 293d 0b7c 4abd a9ac 1c3d
00000170: 4926 8c3d 23fc c1bd aee8 abbc 7513 7f3d
00000180: 7dbc df3c 1388 79bd 3a43 ddbd 166e 9bbb
00000190: 2479 babc 81b5 d0bd a7e0 1e3d 3371 43bd
000001a0: 59ed 4fbd 2730 253d 1c66 5dba 0392 4b3d
000001b0: 0c85 fa3c d1da a83d 18cb c03d b3dd bebd
000001c0: 70e8 653d cc43 113b 4c16 d93d 9534 ddb9
000001d0: 6959 b9bc 69f0 95bd 2121 59bd edeb 4a3d
000001e0: fcaa 0e3d 37d0 85bd e5d2 89bd 202c fcba
000001f0: fb36 cc3d 7b32 8b3d ed28 a7bc 64d7 043d
00000200: 4e57 dd3b 26a2 213c b778 933c 0b28 063e
00000210: bbb1 1c3c 06be c03c d442 afbd c653 9bbc
00000220: bd3c 303c 7a74 423d 3a8b 953d e53b a7bd
00000230: b66a 81bd 9330 2ebd 563d c3bd fc24 bc3d
00000240: 89d8 873d 0fa1 90bd 2b36 aa3d 0f87 17bb
00000250: 10a8 81bd 38ea ae3c 9436 0ebd 19aa 96bd
00000260: c571 b73d 33c2 4d3d 264b 45bd ab3a 32bd
00000270: 3f15 b63d 278b 51bd 6976 acbb e066 abbd
00000280: 7886 82bd f18b 04bd 36b6 f03c d7d4 5a3d
00000290: 293f 2f3d 72f5 7cbd b851 8e3d 13c1 e53d
000002a0: f403 2c3c b949 733d eb0c 753d b915 543c
000002b0: a7a4 7dbd 52a5 cebd 3b25 2f3b 491f 81bd
000002c0: 1646 abbd 9317 b5bd 4fb3 973c 1124 ec3c
000002d0: 51b9 643d 4dd0 9fbd c02c 09bc 8209 873d
000002e0: e571 c03d b011 0ab9 3a58 603d d12c e0bc
000002f0: 3ea5 a03d c7f6 b0ba 7bef 903d b39e 913d
00000300: 885e b53b ea97 4cbd 5b38 183c 3da2 9d3d
00000310: 2f9f 52bd 538a 8f3d 7152 d7bd 7845 f43b
00000320: 52b4 fb3c a136 a3bd 6ca0 ae3d c0e7 883d
00000330: 6c36 b1bd 4ac5 92bd 103c 4ebc 913d 92bd
00000340: fe4e b13d cd54 123d 67bf 80bc e6d3 1fbc
00000350: 43a2 8f3d a68d 7e3d d47c 5dbd e04f 273b
00000360: 948b 8c3c 7c23 5d3d 917b 33bd c97e 03bc
00000370: 311c a0bd 4162 a43d 45b5 a2bd e81c bd3c
00000380: 97b2 86bd 4715 c73d eba1 163d d674 d5bc
00000390: 0042 67bc 8bd8 8ebd d177 3d3d 8478 943d
000003a0: ef7e d53d c065 b23d 2458 db3d c149 4d3d
000003b0: c2cb 5e3d e140 f43c d8fd 243d 3b6f 50bd
000003c0: c627 4bbd f7d4 dc3c eff2 2ebc 5fe2 743d
000003d0: 07ba edbd fe8e a43d 6cef 95bd 87aa 0ebb
000003e0: d5db c93d de19 833d 7038 34bd 3078 1a3d
000003f0: 7d72 92bd 495c 0c3d 8972 0dbd a252 8e3d
-0.030359343 -0.040149942 0.024664832 -0.07919773 0.011201531 0.02294364 0.10220413 -0.010336072
-0.041327093 -0.0566673 0.04715033 0.044662986 0.051488727 0.071969695 0.10034809 -0.052374527
0.05876798 -0.03366937 0.08492967 0.018421562 0.075272456 0.030891249 0.016399266 0.048963442
0.09293885 0.08210627 -0.040106654 0.03685662 -0.10025064 0.0382292 -0.026179312 -0.06847385
-0.09494809 0.054934915 0.06479202 -0.08587378 0.07564819 -0.06331622 0.063410036 -0.053082995
-0.06392968 0.08362765 -0.020908063 0.0854474 -0.099814996 -0.025090573 0.010895929 -0.08101663
0.078915164 -0.0018100413 -0.07881553 2.0462276e-06 -0.0427635 -0.005796122 0.061075803 -0.040071703
-0.028461125 -0.09365532 -0.052468244 -0.107997306 0.107758895 -0.05127161 -0.037316915 0.058386814
-0.08227046 -0.05437943 -0.0109199835 -0.09155715 -0.02681121 0.022501227 0.045833323 -0.09826531
-0.029378008 -0.08733097 0.058996543 0.018111814 0.05112359 0.042656824 -0.051241077 -0.038198374
0.082883164 -0.083297744 0.00851643 0.117801346 -0.005242212 0.014285237 0.0039904765 -0.099493004
-0.08809427 0.04143127 -0.049434703 0.0382506 0.0684324 -0.094719194 -0.020984974 0.062274415
0.027311558 -0.060920786 -0.10803838 -0.004743348 -0.022762842 -0.10190869 0.038788464 -0.047715377
-0.05076346 0.040329125 -0.00084456964 0.049699795 0.03058102 0.08244861 0.09413737 -0.093196295
0.056129873 0.0022165654 0.10599956 -0.0004219158 -0.022625642 -0.07321245 -0.05301011 0.049541403
0.034831032 -0.065338545 -0.06729678 -0.0019239224 0.09971424 0.06796738 -0.020405257 0.032431975
0.0067547923 0.009865319 0.018001897 0.13101213 0.009563859 0.02352811 -0.08557668 -0.018960845
0.010756669 0.047474362 0.07301946 -0.08165721 -0.063191816 -0.042526793 -0.09533183 0.09186742
0.06633098 -0.070619695 0.08311113 -0.0023121273 -0.063308835 0.021351919 -0.03472002 -0.07356662
0.08957247 0.05023403 -0.04816737 -0.04351298 0.08890771 -0.051158097 -0.005263139 -0.08369231
-0.06373304 -0.03236002 0.02938376 0.053425636 0.042784844 -0.061757512 0.0694918 0.112184666
0.010498989 0.05939648 0.059826773 0.012944632 -0.061924603 -0.10090126 0.0026725072 -0.06304795
-0.08362977 -0.08842387 0.018518118 0.028825792 0.055840794 -0.07803402 -0.008372486 0.0659361
0.09396724 -0.00013167295 0.05477164 -0.02736512 0.078440174 -0.001350128 0.07076927 0.071103476
0.0055349506 -0.049949564 0.00929078 0.0769696 -0.05142134 0.07008805 -0.10513771 0.0074545704
0.030725632 -0.07969404 0.08526692 0.06684828 -0.08652958 -0.07166536 -0.012587562 -0.07140649
0.08657645 0.035725404 -0.015716268 -0.00975511 0.07013371 0.062146805 -0.054074124 0.0025529787
0.0171564 0.05398892 -0.043819014 -0.008025833 -0.07817877 0.08026553 -0.07944731 0.023085073
-0.06577032 0.09720855 0.03677551 -0.026056688 -0.014114857 -0.06974896 0.046256844 0.07249549
0.10424601 0.087108135 0.10710171 0.050119165 0.054393537 0.029816093 0.040281147 -0.050887328
-0.049598478 0.026957018 -0.010678037 0.059786197 -0.116077475 0.08035086 -0.07321057 -0.0021769123
0.09856383 0.06401418 -0.043999135 0.037712276 -0.07150743 0.034267697 -0.034533057 0.06949355
