models/heatalpha/sin/heatalpha_47.pth (torch, 977047 bytes, 51 tensors)

net.0.weight f4 [100, 3]
00000000: 3aac babe 743d 813e eb39 5f3e addd 243a
00000010: be25 e63d ce33 0fbf 7b66 12bf 7224 903e
00000020: d51a 073f ba22 a93e 9586 03be 3719 24bf
00000030: 0280 87be c27d ad3d f638 bd3e 3ee1 e73e
00000040: b428 4a3f 1863 083f c0db bcbe 62c5 d33e
00000050: a1df 883d a5c8 b4bc 0b17 eabc 5ce9 1cbe
00000060: b7f2 38bd e754 01bf 86f0 413b 09b1 2a3f
00000070: ab78 363e 7448 38be 1d26 3dbe 466b 3e3f
00000080: a66f 24bf bffb 193f a9d0 37be 176b af3e
00000090: 45b9 11bd 894e 013e e90b b2be b5a6 2cbe
000000a0: 5aa9 6e3e 60c8 fe3d 6249 10bf 35e8 85be
000000b0: 056f 95be 3246 66be bfca 14bf 10b3 f13e
000000c0: d33d 013f d55b 523d f90a 333d 7627 1e3f
000000d0: 07a3 833e 6ed5 d9be 75bc dabd bdde e4be
000000e0: a752 bb3e eb78 a43e effa 3dbe 864d 253f
000000f0: 6f31 ed3e b5fd 0ebf 1f05 21bf fdd5 33be
00000100: 2a46 043e 5b74 173f 3650 32be 4252 f2be
00000110: 00d1 fa3e 8658 00be 8bbf ec3e a58b 00be
00000120: 2f84 f2be 6852 1a3e 9737 cebe 7823 b13e
00000130: 8f4c be3d c65c 7a3e ec00 a03e 2a41 433e
00000140: 9776 c6be d427 2ebf d91e 28bf c48d af3e
00000150: f9b1 d4be 8d4b 26bf 61e6 aabe a2a8 e63e
00000160: b63a 37bd 6b9a 783e fb3c 8e3c 937c 173e
00000170: 3a61 9bbd 53c5 623e f49d 9fbe de01 023e
00000180: 8bfd 183f 22d9 6a3e eb66 cc3e 097c 14be
00000190: bbf7 3d3e 635e ce3e d560 7c3e 1860 39bd
000001a0: ec4a a3bd 4b2f db3e 417c f13d 2445 3dbf
000001b0: f6e1 0cbf f12f 293f 09ec 4cbe 3979 0e3e
000001c0: 5400 27bf b74e 2e3d 8271 953e 9ebb 2b3f
000001d0: 8d28 3a3f 2b49 a43e c93e b3be b5b6 02bf
000001e0: a799 b23e 35a0 43be 41b9 83be 6161 893e
000001f0: a47a bc3b 6130 7b3e c5de dabb 77ac 983e
00000200: 571f 5ebd e5a1 a8bd 1cfa d23e edcf 603e
00000210: b538 143f be4a f53e dcb2 7a3d 1e8c 28be
00000220: 4e5b 2a3f 5fe2 04bf 5d4f b5be a39a 93be
00000230: 8f25 3ebf 91b6 8e3e 353f db3d a522 433f
00000240: f544 043a 3284 883d de92 a13e 1931 c13e
00000250: 90a3 ffbd db36 b33e 9c73 c9bb 59d2 eabe
00000260: 0534 713e d4fb 113f 15c3 e9bd 8f86 9d3c
00000270: a6a8 3ebe 5b40 bf3e b429 e6be 4c18 fdbe
00000280: c6da 893e 2b8c a5bd 0375 00bf ce4c 93bd
00000290: 551b 9dbd e515 13bf b325 16bf 5037 39be
000002a0: ef41 1fbe 5ed5 6ebe 008a 3c3e 6e95 38be
000002b0: ca25 30be 22ce 1fbd 59bf f6be 3cba 49be
000002c0: 002a 01bf 81c6 c8bd 178b 8fbe dd48 14bf
000002d0: 6625 3f3e e853 02bf 908e 863e 47c9 993e
000002e0: 5a34 bfbd 1016 c23e db1b 1c3f 8abb e13e
000002f0: 6e93 7c3e 3ba7 fbbe c144 cf3e d837 8dbc
00000300: 57f9 afbe 013b d2bd d6ce e13d 5cfe 07bf
00000310: fdb6 db3e f776 bdbe 20d2 c6bc 945a 893e
00000320: e0f5 b9bd c527 0dbf 63ef eebd 047e adbe
00000330: 32bd 053e 8d26 ccbe c792 adbd bcee a23e
00000340: 3a29 19bf 5c50 83bd 2855 2dbe 289f e0be
00000350: f7b6 6d3e c4f3 b33e 1dab 383e 3b1b 6b3e
00000360: 8caa aabd 0ef9 cf3e 1d8f cfbd 8b63 353f
00000370: 10ff 63be 2669 e03e cced 03bf d29c cc3e
00000380: 1957 6d3e 5fb6 173f 57f3 c1be 7fc1 5abf
00000390: 91bf bfbd 9830 9ebe 277d 2a3f 9588 f3be
000003a0: f2ff 3e3e 9bc1 1d3e d812 053f 7677 d73e
000003b0: e70d 0b3f e1c9 88be a18f 12bf 5929 06bf
000003c0: 26ba d63e 37e5 a53e 29bf 08bf 3ae3 2b3d
000003d0: c433 49be 8d0c 83be d5e4 983e a48e 903e
000003e0: d4f0 313f 7695 18be a9da 543d f45f 01bf
000003f0: dd1f 04bf 4aa0 983e f05d fdbe 09cf cb3e
-0.36459523 0.25242198 0.21799438 0.0006289136 0.112376675 -0.5593842 -0.5718762 0.28152806
0.5277532 0.33034307 -0.12844308 -0.64100975 -0.2646485 0.08471252 0.3695752 0.45289034
0.7896836 0.53276205 -0.36886406 0.4136153 0.06683279 -0.022068331 -0.02857544 -0.15323395
-0.045153346 -0.50520176 0.0029592826 0.66676384 0.17819469 -0.17996389 -0.1847157 0.74382436
-0.6423286 0.6014976 -0.17950691 0.3426139 -0.035577077 0.12627615 -0.34774712 -0.16860469
0.2330679 0.12440562 -0.56361973 -0.26153722 -0.29186264 -0.22487715 -0.58121866 0.47206926
0.5048496 0.05135711 0.043711636 0.6177896 0.25710317 -0.42545646 -0.106804766 -0.44701186
0.36586496 0.32123503 -0.18552755 0.64571416 0.46326777 -0.55855876 -0.6289844 -0.17562099
0.1291739 0.5916192 -0.1741341 -0.47328383 0.4898758 -0.12533769 0.46239886 -0.1255327
-0.47366473 0.15070498 -0.40276787 0.34597373 0.09291946 0.24449453 0.31250703 0.19067827
-0.38762352 -0.6802952 -0.6567207 0.34287846 -0.41542032 -0.6495903 -0.3337889 0.45050532
-0.044733725 0.24277656 0.017363062 0.14793615 -0.07586904 0.22145586 -0.31175196 0.12696025
0.59761876 0.22934392 0.3992227 -0.1450044 0.18551533 0.40306386 0.24646313 -0.045257658
-0.079732746 0.4280952 0.11791278 -0.73933625 -0.5503229 0.6608878 -0.20011915 0.1391343
-0.65234876 0.042555537 0.29188162 0.67083156 0.72718126 0.32087073 -0.3500884 -0.5106004
0.34882852 -0.19104083 -0.25727275 0.26832107 0.0057519246 0.24530174 -0.006679388 0.2981908
-0.054229107 -0.08234004 0.41206443 0.21954317 0.5789903 0.47908586 0.06120573 -0.164597
0.6654557 -0.51907915 -0.35412112 -0.28828916 -0.7427606 0.27873662 0.10705415 0.7622474
0.0005045676 0.06665839 0.31557363 0.3773277 -0.12482369 0.3500279 -0.006147815 -0.45863608
0.23555 0.57024884 -0.11414162 0.019229202 -0.18619022 0.37353787 -0.44953692 -0.494326
0.26924723 -0.080833755 -0.50178546 -0.07192384 -0.07671229 -0.57455283 -0.58651274 -0.18087506
-0.15552495 -0.2332358 0.18412018 -0.18025753 -0.17201915 -0.039014943 -0.48192862 -0.19699949
-0.5045471 -0.098034866 -0.28035805 -0.5792368 0.1866661 -0.5090928 0.26280642 0.30036375
-0.09336157 0.37907457 0.60980004 0.44088393 0.24665615 -0.49151024 0.40482143 -0.017238542
-0.3436992 -0.1026516 0.11025779 -0.53122497 0.42913046 -0.37004825 -0.024270117 0.26826918
-0.090801 -0.5513881 -0.11666753 -0.33885205 0.13060454 -0.39873162 -0.08475261 0.31822765
-0.5982853 -0.06411812 -0.16927016 -0.43871427 0.23214327 0.35146916 0.18034025 0.22959606
-0.083333105 0.406197 -0.101347186 0.70855016 -0.22265267 0.43830222 -0.51534724 0.39963394
0.23177756 0.5926265 -0.37880966 -0.854515 -0.0936271 -0.3089645 0.6659722 -0.4756514
0.18652323 0.15405886 0.5198188 0.4208333 0.5431809 -0.2671652 -0.5725041 -0.5240684
0.41938895 0.3240144 -0.5341669 0.041964747 -0.19648653 -0.25595513 0.29862085 0.28233826
0.695081 -0.14900765 0.051966343 -0.5053704 -0.5161112 0.2980979 -0.4948573 0.39806393

net.0.bias f4 [100]
00000000: bc20 10bf 1d1e a0be cae5 b1be 51fd d1be
00000010: 9436 053f 51fe 113f 21a2 0ebd beeb b5be
00000020: d6f5 123d a86a 773e 5cab f7be a53f 573e
00000030: d5f6 fc3e f99b 023f fa9d 07bf ba2b 06bf
00000040: b9dd 053f a94c 04bf d732 b5bd 85f1 673d
00000050: cd81 0abf 417c cabe bd54 e7be a5e3 b03e
00000060: 722a afbd 3bb2 d63e 3344 033f 457a 51bf
00000070: 5707 17bf 3ad1 a93e df80 0e3f 09d1 bcbe
00000080: 44ea cf3d 9b8d 11bf 43ca ffbe e86f 1abf
00000090: 96b0 243f e031 0fbf e0c2 033f 91c2 e9be
000000a0: 5a4a b3be 1910 1abf f0a1 ef3d 0882 d03e
000000b0: 18ff a8be 9479 0ebf 1fa8 b03d e6b1 5b3e
000000c0: 049d d9be e947 fa3c e135 8bbd 2efd febe
000000d0: bb7c f33d b076 febe 51f0 833e b5bc e13e
000000e0: 8a38 033f 2312 acbe a0e8 e13d 0f9c 7cbe
000000f0: d4a8 37bf 2d80 89be 65b2 f43e 17a1 cf3d
00000100: 0c86 30be 91f3 ca3e 9de1 713e 1d74 f23e
00000110: 00bc a63e 237b e13e b864 c63e 5f64 6cbe
00000120: 0f85 053f 38ef f9be aafc 02bf 45e0 30be
00000130: 96f3 77be 7936 c4be 0cb2 cf3e 2dd1 1ebf
00000140: 5d03 1b3c 56b4 093f 9493 d8bd fc89 553e
00000150: 235e a7be df9d c8bd 7e86 eb3e 6cc6 cdbe
00000160: bfc6 d6be 892a 8a3d b596 b8bc 5c1e 84be
00000170: 078a 88be ee67 cbbe 6efe d63e d188 013f
00000180: 1345 57be ea07 73be a5f8 17bf bc1f cf3d
-0.5629995 -0.31272975 -0.34745628 -0.41013578 0.52036405 0.5702868 -0.034822587 -0.3553142
0.03587898 0.2416178 -0.48372924 0.21020372 0.49407068 0.51019245 -0.5297543 -0.5241047
0.52291447 -0.51679474 -0.088475876 0.056626815 -0.5410431 -0.39547923 -0.45181838 0.3454868
-0.08553018 0.41932854 0.5127594 -0.81827193 -0.58995575 0.3316744 0.5566539 -0.3687823
0.101521045 -0.568567 -0.49959 -0.60327005 0.6433195 -0.5593548 0.5146923 -0.45656255
-0.35017663 -0.60180813 0.11700809 0.40724206 -0.3300712 -0.55654263 0.086258166 0.21454582
-0.42502606 0.030551868 -0.06797386 -0.49802536 0.11889025 -0.49699926 0.25769284 0.44089285
0.51258147 -0.33607587 0.11030698 -0.24668907 -0.71741986 -0.26855603 0.47792354 0.10138147
-0.17238635 0.3963895 0.23621221 0.47354212 0.32565308 0.44039258 0.38748717 -0.23085164
0.52156156 -0.48815322 -0.51166785 -0.17273052 -0.24214014 -0.3832281 0.40565526 -0.62037927
0.009461251 0.53790796 -0.10575023 0.20853418 -0.32689008 -0.097957365 0.46001047 -0.40190446
-0.41948506 0.06746394 -0.0225328 -0.25804412 -0.26667807 -0.3972773 0.4199099 0.5059939
-0.21022443 -0.23733488 -0.59363776 0.10113475

net.2.weight f4 [100, 100]
00000000: 3f2a 69bd a7b4 9cbd 0e36 90bc 278c f03b
00000010: 1105 b53c 3a39 f0bb 4027 e9bd f517 e1bd
00000020: 8fd0 7cbb d233 ad3c 43f5 bfbc 65fb 593a
00000030: a0fc a03b 5777 693d 830d 383c 83c1 693d
00000040: 0400 55bd a99b adbd 9f8e 613d 566d ce3d
00000050: 36ec 843c 34ca 00bd b5d2 aa3d e481 8abc
00000060: a179 5c3c 06fb e23b eb3d c8bd 096d 8bbd
00000070: 5403 6eba 1c8c 18bd 2204 a43d bc41 a13c
00000080: ee9c d8bd f7ab 68bd 8341 33bd ae30 3a3d
00000090: bfb1 c1bd ae43 143c 6409 01be 5d90 80bc
000000a0: c2ad 853d c71c 943d 58c5 3abd 8927 293d
000000b0: de5d f8bc dfad 0ebd 58ea abba 3de5 063e
000000c0: 9cb4 0abd 4033 29bd 46e4 983d 3fa2 33bd
000000d0: 3727 72bd eeb4 b23d 996c 0fbd 511c d43c
000000e0: 252b 9cbd f7e9 e3bc 62bf 66bd 36e2 c6bd
000000f0: a017 10bc bdd0 463c 36b1 943c 99f6 23bd
00000100: 1ffa 6a3d 1b9c 1cbe 91d6 afbd e753 f03d
00000110: d022 95bd 9933 953d 25e4 61bd f64c f03c
00000120: df29 9e3d e0c9 823d a284 e7bd 434c d5bd
00000130: 1a20 09bc a244 4dbd b0f5 afbd d0c0 653c
00000140: 43fe 183d fcda cebd 679b 4d3d 9b19 5f3d
00000150: 1f77 d1bd 57dd debc 04d9 9bbc 9925 d1bd
00000160: 4c3e ba3c 3c89 96bd 138f 013e 13d9 f5bc
00000170: c0c6 42bd 8a16 f23b 6112 783d f957 c0bb
00000180: 5960 84bd d636 393a c28a a23c a562 96bd
00000190: cfce f8bc f152 043d fb1b d8bd e8a1 f5bd
000001a0: bf0c 983d bc16 85bd a5de 60bd c36f 403d
000001b0: 8c7f 013d 327c 3cbd 9f34 4dbd fc30 8b3d
000001c0: 02fe b5bd 8896 9c3d 6209 b7bd 396c 923c
000001d0: 2502 2fbd b3b5 053d ef76 b8bd a81d 323d
000001e0: 28eb 4c3d 03bc 583b 3e52 42bc 848b 833c
000001f0: 893f b1bd a6bf 583d 1c6f 51bd 7c7d af3d
00000200: d028 cd3d 0e36 e9bc df0b c13b 2996 b03d
00000210: b7e9 083d 7568 1b3e faed 593d e0cc 1d3e
00000220: fd79 9a3d 1a33 d0bd 9873 b73d d211 453d
00000230: 250b f3bb 8c9d c1bd 1c95 a1bd 03d6 b4bd
00000240: a6e8 b43d 76e6 4e3d e83c f33d 7351 c6bd
00000250: 742b 56bd b809 873d fb2a b4bd f94b 3a3d
00000260: 021e 893d c756 71bd a089 eebc 5591 7d3d
00000270: 65b5 5c3d b674 b6bd f5e3 fabc 239e 013d
00000280: 811e c53d d15a 54bc a399 e7bd d9b7 aabd
00000290: 3b6b ddbc 5e4f 203d 002d bb3d 0d7c ebbc
000002a0: 568c 82bd cd9d 7f3d f6b5 81bd 3ce9 2b3d
000002b0: d4d1 973d 723d 763d d6ed 653d d9ef eabd
000002c0: 02be 3dbd 4bee 00bd b97d 36bd 06e5 ef3c
000002d0: 2147 063d d70e 083d 6d77 33bd d6d5 a13b
000002e0: b810 4b3d 0222 ecbd fd9f e6bc c828 d5bd
000002f0: 1c41 523d 807c c8bc b2b0 9b3d 9d9e 833b
00000300: 2c2b 123c 98bd 60bb 3644 ca3d beba bebc
00000310: f927 85bd 2f97 12bd 63da e43c 2015 0d3c
00000320: ee9e d3bd 1942 f5bd c382 723d 20d4 a93d
00000330: 282b ac3d 2c29 c13c 191e 103d d89e a5bd
00000340: 9720 02bc 1599 b0bc 31d6 4dbb e7a7 0d3e
00000350: 5d7f 3e3d 5031 153d 22a1 01be 33d4 023d
00000360: 5aca 013e 7093 1abc 38fd e63c c436 983d
00000370: 69b4 80bc f2e7 9dbd 2108 bd3c bf21 52bb
00000380: 2e30 d13c 56cc 923d 2e89 023c a4eb 443c
00000390: 5c44 bcbd a399 dabb e172 1ebd 2dbe 3d3d
000003a0: 2338 b53d d5d6 50bd dd68 4bbd d68e 21bc
000003b0: 5eb8 39bd 2b3d d13d 022d 1fbb b7a2 af3d
000003c0: 51b0 05bd 5ebd edb9 34b4 dcbb 9ae8 873d
000003d0: b0d2 6cbd eef3 833d 69dd ffbd dd4f 91bd
000003e0: b871 813d bf73 4fbd 013e 39bd 6172 12bd
000003f0: 809f ebbb 4702 0abd ab6c 9f3c bcff 743d
-0.056925055 -0.07651644 -0.0176039 0.007340926 0.022097142 -0.0073310407 -0.113844395 -0.109908976
-0.003857646 0.021142874 -0.02343238 0.0008315354 0.0049129277 0.056998577 0.01123369 0.057069313
-0.052001968 -0.084769554 0.055067655 0.10079448 0.016225915 -0.031442836 0.083409704 -0.01690764
0.013456733 0.006926897 -0.09777435 -0.06807906 -0.00090794754 -0.037242994 0.08008601 0.019684665
-0.10576807 -0.056804623 -0.04376365 0.04545658 -0.094577305 0.009049339 -0.12601238 -0.015693838
0.06527282 0.07232051 -0.045598358 0.04129747 -0.030318197 -0.034833785 -0.0013116105 0.13173385
-0.03386365 -0.04130864 0.07465415 -0.0438559 -0.05911943 0.08725916 -0.035015676 0.025892409
-0.07625417 -0.027821524 -0.05633486 -0.09711115 -0.008794695 0.012134728 0.018150907 -0.040030096
0.05736744 -0.15293925 -0.08585847 0.11734753 -0.072820306 0.07285232 -0.055149216 0.029333573
0.0772283 0.06386161 -0.113045946 -0.104149364 -0.00836947 -0.05011428 -0.08591783 0.014023021
0.037351858 -0.10100362 0.05019703 0.05446778 -0.10227799 -0.027205152 -0.01902438 -0.10212249
0.022734784 -0.07350394 0.12652235 -0.030010736 -0.047552824 0.007387941 0.060564402 -0.005869862
-0.06463689 0.0007065361 0.019841556 -0.07343034 -0.030372052 0.03230566 -0.10552212 -0.11993772
0.07424306 -0.06498477 -0.05489983 0.046981584 0.03161578 -0.04601688 -0.05009901 0.067964524
-0.08886339 0.07645899 -0.089373365 0.01787387 -0.042726655 0.032643985 -0.0900706 0.043485314
0.05002895 0.0033071048 -0.011860428 0.016057737 -0.086546965 0.052917145 -0.051131353 0.08568856
0.1001755 -0.028468158 0.0058913077 0.08622391 0.033426013 0.15176566 0.053205468 0.15410185
0.07542799 -0.10165997 0.08957595 0.048112698 -0.0074171 -0.09453878 -0.078897685 -0.08829882
0.08833437 0.050512753 0.11876851 -0.09683504 -0.052287534 0.065936506 -0.087972604 0.04548261
0.06695177 -0.058920648 -0.02911836 0.061906178 0.05388393 -0.089089796 -0.030626277 0.03164495
0.09624959 -0.012961105 -0.11308601 -0.083358474 -0.02702867 0.03913819 0.091394424 -0.028745675
-0.06374423 0.06240635 -0.063335344 0.041970477 0.074130684 0.060117193 0.05613502 -0.114715286
-0.046323784 -0.031477254 -0.044553492 0.029284012 0.032782678 0.033217277 -0.043815065 0.0049388213
0.04957649 -0.11529924 -0.02815246 -0.10408169 0.051331624 -0.024473429 0.07602061 0.004016711
0.008921426 -0.0034292694 0.098762915 -0.023282405 -0.06501765 -0.03578871 0.027936166 0.008610994
-0.10333048 -0.11975498 0.059206735 0.08292413 0.08406669 0.023579203 0.035184953 -0.08086938
-0.00794234 -0.02155737 -0.0031408186 0.13833581 0.04650818 0.03642398 -0.12659124 0.03194065
0.12674847 -0.009434566 0.028196916 0.07432321 -0.015711026 -0.07710256 0.023075165 -0.0032063571
0.02553567 0.0716788 0.0079672765 0.012019072 -0.09192726 -0.006671147 -0.038683776 0.046323944
0.08848598 -0.05098613 -0.049660552 -0.009860715 -0.045341842 0.10216745 -0.0024288301 0.08575957
-0.03263885 -0.00045345252 -0.006735349 0.06636162 -0.057818115 0.0644301 -0.124934025 -0.07095311
0.06320518 -0.050647493 -0.045225147 -0.03575361 -0.0071906447 -0.033693578 0.019460997 0.0598142

net.2.bias f4 [100]
00000000: 903a b3ba f48b fa3c 6685 963d 80b8 d43d
00000010: 9cfa d23b e091 47bc ee91 973d badf 81bd
00000020: dbe7 f73d 0653 863d fe7f dcbb 6907 ce3c
00000030: 1051 8e3d 037d 8e3d 0039 bd3d 5edf 98bb
00000040: a3bb 86bd c7b5 c3bd e12e 583c 433e 683d
00000050: 696f b7bd 44ee adba 4149 bfbd 355a 24ba
00000060: 944e aa3d a477 4e3d 01cb babd 4a4c 5dbb
00000070: c8a0 bcbb 9ccf 80bd 4ce0 a9bd a83d 3e3d
00000080: c0e1 273d 568f c1bd 2a8a b43d 9ecb c33c
00000090: b4d9 3d3d 8a3a c63d e62e 5c3c 1ef4 20bd
000000a0: c0f4 d03d cab5 40bd 890b a13d b224 c43c
000000b0: 4898 77bd bfe4 adbd 8f33 1e3d 3f19 873c
000000c0: c3df 503d d034 b33d 6f4e be3d ec5d 8fbd
000000d0: d846 6b3d b6e6 67bd 4aac 9f3d c933 b43d
000000e0: a89a 133e 76fc c8bd 2914 c93c 7ccb 45bc
000000f0: cce4 813d 7c4b d43d e3c3 883c 2515 91bd
00000100: 6491 0fbd 9d98 89bc 43fd 923d 67e1 4b3d
00000110: 070a 97bd 395d b93d cc02 b6bc 93ed 733d
00000120: e465 f1bc 19fd 183d 2347 b13d 1cb3 b2bd
00000130: 9f36 943d c00f ccbd f309 693d 77ec 19bd
00000140: fb8c 5d3d ebec 903d 070a e0bc 12f2 a03d
00000150: fe27 b5bd 0565 123b fa3a 2cbc 0540 68bd
00000160: 80ca bebd 85d6 acbd f9c6 91bd 2ed8 7cbb
00000170: 704b 8ebd 690b e9bb d8ff 15bd 6f9e a43d
00000180: 67fd b73b a9b8 82bd a300 b1bc 09eb c63d
-0.0013674069 0.030584313 0.073496625 0.10386753 0.0064385664 -0.012180775 0.07400881 -0.063415006
0.1210477 0.06558804 -0.006729125 0.025150018 0.06949055 0.06957438 0.092393875 -0.0046652993
-0.065787576 -0.09556156 0.013194771 0.056700002 -0.08956797 -0.0013269861 -0.09340144 -0.00062695454
0.08315769 0.050407067 -0.09120751 -0.0033767396 -0.0057564713 -0.06289598 -0.08294734 0.04644552
0.040986776 -0.09451167 0.08815415 0.023900803 0.046350196 0.09679134 0.013438916 -0.03929531
0.10202932 -0.047048368 0.07863528 0.023943279 -0.06044796 -0.084908955 0.03862339 0.01649153
0.050994646 0.087503076 0.09292304 -0.07000336 0.05744061 -0.056616507 0.077965334 0.0879894
0.14414465 -0.09813778 0.024545746 -0.01207244 0.06342468 0.1036596 0.016694969 -0.07084111
-0.035050765 -0.016796404 0.07177212 0.049775507 -0.073749594 0.09050984 -0.02221813 0.05955274
-0.02946753 0.037350748 0.086561464 -0.08725569 0.07236981 -0.099639416 0.056894254 -0.037579026
0.054089528 0.070764385 -0.027348531 0.07858671 -0.088455185 0.0022338044 -0.010512108 -0.05670168
-0.093159676 -0.08439354 -0.07118029 -0.0038581002 -0.06947982 -0.007111956 -0.036620945 0.08038031
0.0056149247 -0.063828774 -0.021606749 0.09712798

net.4.weight f4 [100, 100]
00000000: 78a4 45bc cefe 25be 5cf0 b63d ccd7 e63d
00000010: 49da 723d d439 3fbd df06 9e3d 40f4 9fbd
00000020: 408d 97bd be8c a73c 4ace e03d b750 003e
00000030: a2ab 043e 4fc1 43be c039 f63d c461 fcbd
00000040: 4028 15be bed2 133c 7414 13be e10a 06bd
00000050: 1e1c 10bc f325 a4bc 9dbb 903d d5c2 003e
00000060: ee06 fe3d 0505 eebb 07cd 1c3d 387c 2b3d
00000070: be65 95bc 4feb 20bd 0216 9e3d 2dd9 ecbb
00000080: f214 af3d 31ea 32bc 0801 f5bd b813 78bd
00000090: bea8 b7bd d916 09bc 3466 6e3e 7618 14bd
000000a0: 050d e2bd bc13 c5bd 4632 b2bd 5d68 31bd
000000b0: a7de d33d 5da8 2d3d 5586 60be b740 b33d
000000c0: e38d efbd 42c2 d93c d5df ae3b ed3a 533b
000000d0: ce4a 0fbd 13c8 0e3f 759e 7cbe dc9a 053e
000000e0: dd15 833d 7bc5 1b3e ca48 53be 7f12 c9bd
000000f0: 43cd c03d fc07 a83d cb31 8fbd 0522 88be
00000100: d202 c1bd 3520 5e3e e68a 403e 5ee0 07be
00000110: fee1 7bbe 8384 c2bd 9889 9bbc df8c 6c3e
00000120: 3bcc 96bd 166d 5b3d 0a73 21bd 1d2b cd3c
00000130: cb76 f1bd 05b8 3bbe 221c 08be 65da 26be
00000140: d28c d1bd 9d71 f23d a6a9 923d 4575 293e
00000150: 8b48 a3be 0f4a 1bbe 531a bfbd 592a 693e
00000160: 6257 973d 0470 91bd 8f40 073e 29d4 c7bd
00000170: b353 75bd 44b5 f1bd 9bfc 04be 394b a4bc
00000180: b98f 0c3e ecfe 9b3d fc85 20be 5197 87bd
00000190: bfcc adbd d8b0 a7bd a594 aebc 10de 213d
000001a0: 531e 1b3e f5ba dbbb 90ca 16be 05d8 df3d
000001b0: e7a0 a13d 195c 8bbd fadd 06bd 6728 acbd
000001c0: 3a54 e33c f0a5 c13d 4249 64bd e46b 58bd
000001d0: 7600 a9bd 0b86 29bd 49df 1bbd ec37 fabc
000001e0: 29be a03d 929e a9bd 063e c6bd 9d34 46bc
000001f0: 196a 683d 4fa5 483d f7c9 86bd de97 9ebd
00000200: 2264 8b3d 42ba 033d db8b df3d a96b b5bc
00000210: a032 54bc ed74 71bc 6c44 a3bc fa27 523d
00000220: 3503 993d 19c9 ba3d 1900 903c a28b 133e
00000230: cbd4 a3bd 95dd b7bb 354f ac3c af40 30bd
00000240: 4a0d b4bd ef92 d63d 2d41 0c3c ba69 ab3d
00000250: ac17 8bbb b26a 903b 4d6a c33d 2f96 9d3d
00000260: 48bc c3bc ff1c 3f3e cec2 99bd 03fe 563d
00000270: 56b0 2ebe a85a 1bbe 288f 29bd 6d59 41bd
00000280: 0581 32bd db6a 12bd 3b48 543d 2a95 fabb
00000290: 5f45 b33c 6ed8 4d3e c0f3 253c 80f3 27bc
000002a0: 7004 09bd 0fae cbbd 505e f0bc 81ed f53c
000002b0: 17ca e5bd bcad 9abb 28ca aebd 3869 03be
000002c0: bbaa a4bd 8e3c ddbd cc31 30bc daac 8a3d
000002d0: fff2 353c 10f2 aa3d efed 4a3d fb84 e43d
000002e0: 9269 3abc 5637 d8bd c69f 18be ef31 0c3e
000002f0: 5899 77bd 44aa cc3c 8d06 5a3d 1227 27bd
00000300: eca2 043d 02df 38bd 06c8 ad3b ea77 ffbd
00000310: d4fa b03c 003b 8e3d df74 da3d c265 e43c
00000320: 1734 ebbc 569d febc cb95 223b 4781 883d
00000330: 314e c63d 3c05 8f3a f63c b93c 7367 163d
00000340: d5a1 d53c 92ef 53bc e0aa 86bd 0392 d83d
00000350: f15d dc3d 1846 d7bd a5d7 0cbd 0fa9 e1bd
00000360: cb67 7d3c 3614 9c3d 58d4 dfbd fcc0 203d
00000370: d2e0 0d3d df8d d13d c628 3cbc 186f 10bc
00000380: 25a6 4c3d 6e4a 413d 4037 86bd d396 80bd
00000390: 2d65 38bd acba 66bd e290 ef3c 603a e6ba
000003a0: 7b67 abbd 8ee6 38bd ee78 b5bd 2fb2 a63c
000003b0: 494e 2c3b 213f 873d bf1e 86bd 7514 a33d
000003c0: 017d d4bc 1872 02be 06c5 1abd 8522 523d
000003d0: 0818 84bd 5ebe a8bd ed33 eabc bead 34bd
000003e0: 80e9 36bd 7710 e33d 2186 263c 6b35 a5bd
000003f0: be4a 773d f94d fa3d 4198 9ebd 09ae 8cbd
-0.012063138 -0.16210482 0.08932564 0.11271629 0.059290204 -0.04668601 0.07716154 -0.07810259
-0.07399988 0.020452853 0.109768465 0.1253079 0.12956098 -0.1911671 0.12022734 -0.12323335
-0.14566135 0.009022413 -0.14363271 -0.03272522 -0.008795766 -0.020037627 0.070670344 0.12574323
0.124036655 -0.007263782 0.038281467 0.04186651 -0.018236991 -0.039286908 0.077190414 -0.007228038
0.08548917 -0.010920093 -0.11963087 -0.06056568 -0.08967732 -0.008367264 0.23281175 -0.03615614
-0.110376395 -0.09622905 -0.08700995 -0.04331242 0.10345202 0.04239689 -0.21926244 0.08752578
-0.116969846 0.026581887 0.0053367415 0.0032231167 -0.03498345 0.5577404 -0.24669822 0.13047355
0.064006545 0.15212052 -0.20633236 -0.09817981 0.094141506 0.08204648 -0.06991919 -0.26588455
-0.09424366 0.21691974 0.18802986 -0.13269183 -0.24597928 -0.09497931 -0.018986508 0.23100613
-0.073631726 0.05357083 -0.03941635 0.025044972 -0.11790236 -0.18331917 -0.13291982 -0.16294248
-0.102319375 0.11838076 0.07161264 0.16548641 -0.31891283 -0.1516497 -0.09331193 0.2277006
0.07389714 -0.071014434 0.13208221 -0.09757263 -0.059894275 -0.11802152 -0.12986986 -0.0200554
0.13726701 0.07616982 -0.15676111 -0.06620658 -0.08486318 -0.08188027 -0.021311114 0.039518416
0.15148287 -0.0067056366 -0.14725709 0.10929874 0.07892018 -0.068046756 -0.032926537 -0.08406144
0.027750123 0.09455478 -0.055733927 -0.052837268 -0.08252041 -0.0413876 -0.03805474 -0.030544244
0.0784877 -0.08282198 -0.09679799 -0.012097505 0.056741808 0.048985776 -0.065814905 -0.0774381
0.06806208 0.03216005 0.10915347 -0.022146063 -0.012951523 -0.01473735 -0.019930087 0.051307656
0.07471315 0.091203876 0.017578172 0.14408734 -0.079995714 -0.0056111314 0.021033863 -0.043030437
-0.08791597 0.10477244 0.008560461 0.08369775 -0.0042447653 0.0044072503 0.0954176 0.07694661
-0.02389349 0.18663405 -0.07507859 0.05248834 -0.17059454 -0.15171301 -0.04139629 -0.047204424
-0.043580074 -0.035746437 0.051826697 -0.0076471763 0.021883665 0.20102093 0.010128915 -0.010250926
-0.033451498 -0.099453084 -0.029341847 0.030020477 -0.11220186 -0.004720418 -0.08534652 -0.12833107
-0.08040377 -0.108025655 -0.01075406 0.0677125 0.011105298 0.08346951 0.049543317 0.111581765
-0.011377709 -0.105574295 -0.14904699 0.13690923 -0.060448974 0.024983533 0.053228904 -0.040808745
0.032381937 -0.04513455 0.0053033857 -0.12474044 0.02160398 0.06944847 0.10666823 0.027880553
-0.028711362 -0.031080883 0.0024808522 0.06665283 0.096828826 0.0010911594 0.022612076 0.03671975
0.026078144 -0.012935536 -0.065755606 0.105747245 0.107601054 -0.10511416 -0.034385342 -0.110185735
0.015466641 0.076210424 -0.10929173 0.039246544 0.034638233 0.10232138 -0.0114843305 -0.008815549
0.049963135 0.047190122 -0.06553507 -0.062787674 -0.045018364 -0.056330368 0.02924389 -0.0017565005
-0.08369347 -0.04514175 -0.08860956 0.020348636 0.0026291779 0.06603838 -0.06548833 0.07962886
-0.025938513 -0.12738836 -0.037785552 0.05130245 -0.06449896 -0.08239435 -0.028589213 -0.044111006
-0.044656277 0.11087125 0.010163815 -0.08066829 0.060374014 0.12221903 -0.07743884 -0.06869132

net.4.bias f4 [100]
00000000: 22b2 17bd b161 cc3b c206 973c 8939 7ebd
00000010: d4db aebd d4c1 a93d c477 cabc 8b01 e7bc
00000020: bac6 ffbc dbf2 8d3d 3eb7 b73d 1782 b13d
00000030: 9055 0dbd 93a8 7a3d 05be 473d 53ac 2d3d
00000040: 7b64 4ebd ec68 6fbc 3e79 6ebd c484 533c
00000050: 45fc 36bd 9324 b0bd 265c 16bc eec4 f3bc
00000060: 13a0 3abc 7dd3 bcbd be3e 39bd a50a a43d
00000070: 7e71 213d 697a 883d eaaf 35bd 7e37 f03b
00000080: 8540 6b3d 9515 8a3d b138 c4bc 308d 7e3d
00000090: 8343 9ebd b6d1 d4bd b06b 593b 728f 503d
000000a0: 663e 26bd 0cea 26bd 4bdf d5bc 87ff 153c
000000b0: 39dc a6bd 9147 783d eb9c 54bd 93d9 b63d
000000c0: 3428 a7bd 407b b03c 0d66 d03d d520 edbc
000000d0: 6778 7a3b 810c a2bd 230e b33c e248 fabd
000000e0: 3bea b8bd 5900 753d c884 5a3c 47d4 2c3d
000000f0: 816e 923c 22e8 c43d 24bd 00bd 5469 8ebd
00000100: 58f3 fb3b 890c efbc f638 fdbc 0424 a43d
00000110: 4039 a33c 4540 9138 3b43 a3bd 432d d0bd
00000120: fb60 e7bc 216a a83d d426 3c3d b730 853d
00000130: 6b2a 88bd 0e71 d23d cd9c 893d 52b0 a8bd
00000140: 1966 a73d 5b4d e0bc e9a1 5dbd f8b3 503d
00000150: b31c d03d 1871 71bd e84b 4ebd 888f 733d
00000160: b408 48bd 8d16 b93d fe65 00bd 07c0 403d
00000170: f6b1 3cbd 6782 15bd 4ebf 89bc 635c d4bc
00000180: efe5 1cbd 7b83 70bd 56a4 4a3d e5bf 99bd
-0.037035115 0.0062372317 0.01843584 -0.06206659 -0.08538023 0.08288923 -0.024715312 -0.028198978
-0.03122269 0.06931087 0.089704975 0.08667391 -0.034505427 0.06119592 0.0487652 0.04240067
-0.050388794 -0.014612418 -0.058221094 0.012910072 -0.044674177 -0.08600726 -0.009177243 -0.02975699
-0.011390704 -0.09220026 -0.04522585 0.08009843 0.039414875 0.06663973 -0.044357218 0.007330834
0.057434577 0.06742398 -0.023952814 0.062146366 -0.077277206 -0.10391562 0.003317576 0.05091805
-0.04058685 -0.04075055 -0.026107451 0.009155161 -0.08147473 0.060615126 -0.05190746 0.08928218
-0.08161965 0.021543145 0.10175715 -0.02894632 0.0038218738 -0.07912541 0.021857327 -0.122209325
-0.09029051 0.059814785 0.013337322 0.04219463 0.017874958 0.09614588 -0.03143038 -0.069536835
0.007688921 -0.029180782 -0.03091095 0.08014682 0.01992476 6.92611e-05 -0.079718076 -0.10164883
-0.028244486 0.082233675 0.045935467 0.06503432 -0.066487156 0.1027547 0.067193605 -0.082367554
0.081737705 -0.027380636 -0.054109488 0.05095288 0.10161724 -0.058945745 -0.05036536 0.059463054
-0.048836425 0.09037504 -0.031347267 0.04705813 -0.046068154 -0.036501314 -0.016814854 -0.02592296
-0.03830522 -0.05871914 0.04947313 -0.07507304

net.6.weight f4 [100, 100]
00000000: 4fd1 0f3d 3cbd be3c 1231 1d3d cc14 b8bb
00000010: e6df a23c 51c5 1abc 8ed4 173c be0d 85bd
00000020: c79c ef3c c81c 8dbd 9d4f 55bc cd4a 73bd
00000030: 0462 31bc 9020 6c3d 8460 0a3d 779d 96bd
00000040: 0c5f 76bd d66b bfbd 4076 143d 87e8 97bc
00000050: 9271 c93d c8c4 bf3c 335b e5bd baf6 d5bc
00000060: ddc0 1a3d f7c1 e03c 0b16 28bd 490a a3bc
00000070: d9d1 c7bd beb5 273c a289 adbd c6d8 10bd
00000080: 2318 a53d 6980 9fbd 2d52 613d 851a 23bd
00000090: db62 1dbd 0512 9e3d baa3 8c3d 635c 1abc
000000a0: f1b1 5c3d abb0 9b3d 52ff 833d 73aa 573d
000000b0: ddca edbd af0c 793c 8df6 4a3c f17a b6bd
000000c0: ec62 88bd a83d 07bd 8791 de3c b3c0 493d
000000d0: b7fa 533d a939 8d3d dcbf db3d 89a0 ae3c
000000e0: 37b8 233d 24b6 7e3d 1dff 99bd ef22 b8bd
000000f0: 16c5 d9bb 8d4d a2bd 10e0 463d 0d9c 9f3c
00000100: 450b 963d 4b9b 183d 4cac 7bbd 6bfa 94bb
00000110: 07ce 8cbd 0576 a43c d11e c73c b3f8 703d
00000120: cbdc e8bb 0c90 91bd f8a1 a3bd 5558 a23d
00000130: 498a 6bbd 01a7 283d 99f7 1ebc 21fe b6bd
00000140: 19cb 833d 881e ae3c 5928 19bd 09ca 78bd
00000150: a2d6 65bc 0b79 ec3c 8305 b4bd 5e29 84bd
00000160: 2168 803d 09df ba3d 1421 52bd fae8 28bd
00000170: 57b7 b1bd 1093 81bc 5a32 83bd 4746 9ebd
00000180: 8b1c 6a3d c455 883c 74a2 b23d f639 da3c
00000190: 0df5 043d 3028 86bd 0898 ae3d bc3d e63c
000001a0: 2f20 ac3d c1fd 04be 170d ba3d ec8f 893d
000001b0: eb64 f33d 5638 673d f500 dbbd 7fc9 55bd
000001c0: 3267 50bd c206 303d 6708 48bd a95c 61bc
000001d0: 989a 84bd ce5b 28bd c131 3cbd 0034 6abd
000001e0: 614a 833d 47bc bc3d 4832 c0bd 28cc acbb
000001f0: c266 b0bc ef68 b9bd ebf8 a43d 1593 b4bd
00000200: 0d57 d13d b5bb 033e ff6d e83d 65b8 53bd
00000210: a6f2 383a 7d71 adbb d546 4fbd 800f bebc
00000220: 4373 7f3b 2387 943d f958 e0bd 4be2 213d
00000230: 5c48 9c3d 73b0 b3bb 9569 3d3d 6d19 503c
00000240: 35f4 883d 3cbb 163d 99ff 9cbd 7907 b2bd
00000250: a40a 703d 4ed6 14bd dde7 82bc 02f0 813d
00000260: 3f2a 9c3c ec98 aa3d 49cf cb3d bda0 d63d
00000270: ae78 45bd 7c3d c33c c22d 79bc 3071 e73d
00000280: 6c32 adbd 2bf8 1fbd 4478 343d d2af 93bd
00000290: 9de5 79bd 706b 9bbd 749a d9bd 00a0 8dbd
000002a0: cf91 bdbc 649c a33d b896 1f3d fd21 b23d
000002b0: 93f2 7e3d acc7 63bd 7e9a 9dbd a68b 263d
000002c0: 9776 d3bd 3c8c 1c3d 47ec e33d 7fcb 7f3c
000002d0: 7456 cf3d ccce 27bd e7f5 b1ba d05c 873d
000002e0: 192f c73b 3086 35bc cd3d 3cbd 5eee cc3d
000002f0: f3e7 fa3c e27c f33d 964f 993d 0f02 2c38
00000300: 7ee5 f83c 7206 0ebd eaf2 bd3c 0994 34bd
00000310: 1561 903d cd4d 933d 0ba7 72bd 00a9 fb3b
00000320: 3a1d 2d3c ccb8 0fbd 4beb bfbd 5bad 9fbc
00000330: ba34 9c3d 1a48 44bd b1ae a8bd d67e f13c
00000340: c349 27bc 0f31 a9bd 9cba bb3d 2f0a 5fbc
00000350: 26f4 613d 9795 e93c d8fe babd ddd8 093d
00000360: f25a b93d f162 e73c 7b14 16bd 3a0f 57bd
00000370: fd46 ce3c 9a6e 2fbd f970 f0bd 945e 123d
00000380: c6c0 04bd 392d d0bd 3485 efbc aec5 7b3d
00000390: 3bcc 7bbd 7a3f 51bd 684d b4bd 05cb d6bd
000003a0: 820a babd 89b1 7a3d 136e af3c 00a8 8f3c
000003b0: bdbd 8abc 493b 35bb a11a 9f3d 2ab5 20bd
000003c0: 277e 893c ae18 593d 6ed5 863d 9715 4fbd
000003d0: 2c90 a23d ecfc db3c 66ad 6fbd 0aa2 ac3c
000003e0: dd6b a5bd f9f2 2a3d 0b7e ad3d b5db a3bc
000003f0: c792 90bd 5ddf 793d 463e a53d 26f8 2ebd
0.03511172 0.023283593 0.038376875 -0.0056177136 0.019882154 -0.009446458 0.009266986 -0.06496762
0.029249562 -0.06890255 -0.01301947 -0.059397507 -0.010826591 0.05764824 0.03378345 -0.07354253
-0.060149238 -0.0934674 0.036245584 -0.018543495 0.09836115 0.023409262 -0.111990355 -0.026118625
0.037781585 0.02743624 -0.041036647 -0.019902365 -0.09756822 0.010236202 -0.08473517 -0.03536298
0.08061244 -0.07788164 0.05501001 -0.039820213 -0.038424354 0.07718281 0.06867166 -0.009421441
0.053880636 0.07602056 0.06445183 0.052652787 -0.11610959 0.015200778 0.012387884 -0.08910168
-0.06659493 -0.033017784 0.027169002 0.049256038 0.051752772 0.068957634 0.10729954 0.021316784
0.039970603 0.06218542 -0.07519362 -0.08991038 -0.006645809 -0.07924948 0.048553526 0.01948359
0.07326368 0.037257474 -0.061443612 -0.0045464537 -0.06875234 0.020075807 0.024306687 0.058830928
-0.0071063987 -0.07107553 -0.079898775 0.07927004 -0.057504926 0.041174892 -0.009702587 -0.0893519
0.06435222 0.021254793 -0.037391994 -0.06073955 -0.014028223 0.028866312 -0.08790114 -0.06453203
0.06269861 0.09124572 -0.051301077 -0.04123781 -0.086775474 -0.015817195 -0.06406088 -0.07728248
0.057156127 0.016642459 0.08722392 0.026638966 0.03246026 -0.06550634 0.085250914 0.02810561
0.08404576 -0.12987424 0.09084528 0.06716904 0.11884483 0.05645021 -0.10693542 -0.052194115
-0.050879665 0.042975195 -0.048836138 -0.013755002 -0.06474799 -0.041103177 -0.045945887 -0.057178497
0.06410671 0.092155986 -0.093845904 -0.0052733608 -0.021533374 -0.090532176 0.0805529 -0.08817116
0.10221682 0.12864573 0.11349105 -0.051689524 0.00070552004 -0.00529307 -0.05060466 -0.02320075
0.0038978613 0.07252338 -0.1095447 0.03952245 0.07630989 -0.005483681 0.04624327 0.0127013745
0.06687204 0.036799654 -0.07665939 -0.086928315 0.058603898 -0.03633719 -0.015979702 0.06344606
0.019063113 0.08329949 0.09951646 0.10479877 -0.048210792 0.023833029 -0.015208663 0.11300886
-0.08456883 -0.03905503 0.044060007 -0.072112694 -0.061009992 -0.075888515 -0.10625163 -0.06915283
-0.023140816 0.079888135 0.038962096 0.08697889 0.062243056 -0.055610344 -0.07695483 0.040660523
-0.103253536 0.038219675 0.11129051 0.015612482 0.101239115 -0.0409687 -0.0013577313 0.066094995
0.0060786125 -0.011079356 -0.045957375 0.100064024 0.03062818 0.11889054 0.07485883 4.1009913e-05
0.030382868 -0.034674115 0.02318712 -0.04408649 0.07049767 0.07192574 -0.059241336 0.0076800585
0.01056605 -0.035088345 -0.093710504 -0.019491842 0.07627244 -0.047920324 -0.08236445 0.029479425
-0.010210457 -0.0826131 0.09166452 -0.013613268 0.05516448 0.028513713 -0.09130639 0.033654083
0.090505496 0.028245421 -0.036640625 -0.052504756 0.025180334 -0.042830087 -0.11740298 0.035734728
-0.032410406 -0.101648755 -0.02923832 0.06146782 -0.061474066 -0.051085927 -0.088038266 -0.10487942
-0.090840355 0.061204467 0.021414792 0.017536163 -0.016936177 -0.0027653745 0.07768751 -0.03923527
0.016783787 0.053002052 0.06583677 -0.0505577 0.07937655 0.026854001 -0.058514975 0.02107336
-0.08077214 0.041735623 0.084713064 -0.020002225 -0.070592456 0.06100403 0.08068518 -0.04271712

net.6.bias f4 [100]
00000000: 8247 44bd 0c44 e23c dcf6 753d 9516 cf3b
00000010: fb72 ed3c e00a 24bd 42a0 aebd 6505 e73c
00000020: 0365 41bc 13ea 213d 3e2c 9cbc 186d 203d
00000030: 5160 81bd 3882 25bd 6792 313d 130c adbd
00000040: 41c3 8abd 4062 a5bc 5932 e0bc 0b5a c7bd
00000050: 1c32 dcbd e0ec 3d3c ccdd 1c3c 4ded 8abc
00000060: fa17 a63d 5f83 0b3c 2d97 88bd 3f0f 0d3d
00000070: 1ef6 8cbd c62d b7bd 300b b43c a48b 11be
00000080: 469f 99bb 44a1 d2bd 038c c1bd 03ff c13c
00000090: 8b18 293c d081 263a 01e0 c1bd d271 f63c
000000a0: 3191 28bd bf0c 7cbd e0ca 0abd 222b 153d
000000b0: f963 7e3c a745 bebd 2f01 ddbd a38b b2bd
000000c0: b712 aabd b7ef 323c ff61 4c3d 841c 373d
000000d0: cd03 993d 3955 a13d 1303 3b3d 85a9 39bc
000000e0: eabe 653d 4803 07bd ab23 b73d 860c 3a3d
000000f0: f0f0 113c 621e 02bd f947 c4bd 6fc7 e0bd
00000100: 9568 44bd cae2 223c 0665 23bd c05e 8b3d
00000110: 457e 5ebd 6759 20bd e5e6 8d3d 3414 833d
00000120: afc5 073d dcaf cd3c 1602 113d 781e a23d
00000130: 045b 6fbd 75a5 4b3d 8e5e 633d c41f a63d
00000140: efd4 dabb b580 fb3c ff49 3f3d 217f 543c
00000150: 5ba4 813d 2e8a 3cbc bf84 dcbb 643d ceba
00000160: 4ca4 2fbd 7fb8 8a3d 91e2 86bd 9a50 833a
00000170: 56fa 22bd d601 833d 3bb4 c03d 96b7 c03d
00000180: 75fd e7bc bfc5 d1bc d33f 3438 791a 283d
-0.047919758 0.027620338 0.060049877 0.0063198307 0.028985491 -0.040049434 -0.085266605 0.028200815
-0.011803868 0.03952987 -0.019064065 0.03916654 -0.06317199 -0.04040739 0.04335251 -0.084495686
-0.06775523 -0.02018845 -0.027367758 -0.09733971 -0.10751745 0.01159212 0.009574365 -0.016958857
0.08110042 0.008515208 -0.066694595 0.034438368 -0.06882881 -0.089442775 0.02197799 -0.14213425
-0.0046881763 -0.10284665 -0.09450533 0.02368117 0.010320793 0.0006351741 -0.094665535 0.03008357
-0.04115409 -0.061535593 -0.033884883 0.036418088 0.015526765 -0.09290629 -0.107912414 -0.0871804
-0.08304351 0.01092141 0.049898144 0.04470493 0.07471428 0.07877583 0.04565723 -0.0113319205
0.056090273 -0.032962114 0.0894235 0.0454221 0.008907542 -0.031767257 -0.0958404 -0.10975539
-0.0479513 0.009941766 -0.039891265 0.068051815 -0.05431964 -0.03914776 0.06928805 0.06400338
0.03314751 0.02510827 0.03540238 0.07915968 -0.05843641 0.04971834 0.055510096 0.081115276
-0.0066782157 0.03070102 0.046701428 0.012969763 0.063301764 -0.011507554 -0.0067296918 -0.0015734849
-0.042881295 0.06773471 -0.06586183 0.0010018528 -0.03978952 0.063968346 0.09409376 0.09410016
-0.0283191 -0.025606988 4.2974785e-05 0.04104087

net.8.weight f4 [100, 100]
00000000: a9a5 5dbd b744 d9bd 9ddd a0bd 070b 5abc
00000010: a623 96bc 1660 5c3d 2fc9 b43c 53c2 96bd
00000020: 32a8 bebd 4039 68bd 516b b53d 46d9 cabd
00000030: 338d 68bc db62 05bc d41f 2cbd f3df 003d
00000040: e692 3c3c 3555 b53c 97b3 f1bb 0dde 9b3d
00000050: a2e8 b73d 8aad 10bd 9221 4c3c 2e70 4d3b
00000060: 4c8c 42bd e6d2 0bbd 2aa5 3b3d 0bc5 d7bc
00000070: 3572 573b 3910 48bd e537 c1bd 45f7 cabd
00000080: c33b 92bd 9a02 9cb9 98e5 303d 3d2b 0dbc
00000090: 30f7 7a3d 46f4 493d b987 7c3d 3625 6c3d
000000a0: cc0d 543c a95d 8e3d 6f67 be3c 1d8d b8bd
000000b0: 71de 96bc 852e c0bb 3652 fbbc 34ca d63d
000000c0: 9eb7 fe3c d7f8 dd3c 1801 a9bd 930d 43bc
000000d0: 7c42 07bd c4b7 a13d bcad f4bc 702c 9d3d
000000e0: c88d a2bd 8d28 983d 5736 1a3d 2ad2 8ebd
000000f0: ff89 b6bd 5ab6 d03d 9438 993d c643 b33d
00000100: 4b6d f63c ecf9 e0bb 4897 8f3d 525f b5bd
00000110: 4d93 00bd f8e0 87bc 9dee 05bd afb0 adbd
00000120: f305 d5bc a64c 803c 65eb 27bc 7659 f13b
00000130: 8c1c b83c f7db 9f3d 8d79 b73c c642 a33d
00000140: 554b afbc 63a3 8dbd 251a 9a3c 5df8 9ebb
00000150: 064d 353d e719 0ebd 2f3b af3d 16e1 a33d
00000160: 98cc 57bc 2feb 8d3a 14e5 91bb 5616 d0bd
00000170: a9f9 243d 5faf 943d 915a fd3c b274 4ebd
00000180: 2b81 19bc 70b4 41bd 237b 09bc 39d9 15bd
00000190: 3f49 da3c b22b 083d 69da 98bd 918e dd3d
000001a0: c88e 99bc 9f71 303d e946 4e3d 018b a5bd
000001b0: eda7 c53d 5771 97bd 8182 ca3d 4943 a03d
000001c0: eaf1 9dbc ad3d cb3c 88e5 a23d e6a0 dd3d
000001d0: cbba 84bd f8da 5bbc b5ac 08bd 5ac7 f2bc
000001e0: 8bb5 e2bc 7668 2abd 6dfa a0bd eb25 3dbd
000001f0: b07a babd 5686 c13c 480f ad3d 0053 19bc
00000200: 72ce aabd afc9 973d 4ef5 88bd c86c 943d
00000210: 5ce3 343c 543f 23bd 9cda a73d 3c5e 42bc
00000220: 4200 993b a6c4 49bd 67f1 7cbb 1eca 013d
00000230: f029 acbd 5ac2 e53d 6515 b33a ce96 7f3d
00000240: d194 aa3d 51f4 4abc f0a0 cbbd 2ad3 843d
00000250: 6c93 a6bd db88 9cbd 0526 273d 12a6 2d3d
00000260: c7fb b8bd 749d 563c ffcc 843d cbd7 343c
00000270: 7a07 71bd cc5b e43c 925e c8bd 3178 dc3d
00000280: 931c b63d 72ff bdbd 8ad9 703d 35da 6fbd
00000290: 6a0f a8bc 20a1 e0bd 01d6 97bd 5f2c 33b9
000002a0: 45d6 aebc 3a11 0ebc 6cba b83d 791a 93bd
000002b0: 31e7 b8bc 4c33 d6bc 6a27 b0bc a2ba 9fbd
000002c0: 181b e73b 4d1d 2a3d 1123 8dbd 7bda e13c
000002d0: 613a 823d e191 a0bc ea3f 7e3d 6840 733d
000002e0: a283 00be bb20 d6bd e858 21bd 5c20 463d
000002f0: 2ed4 053d e185 53bd c4c2 e5bc a3cd 15bd
00000300: 37d3 83bd e3b0 6c3d 3ab3 7fbd 6252 683d
00000310: f119 25bd 1b86 533c ee9c d53d 354e 953b
00000320: f7e7 5cbd 18af 4a3c 904d b1bd 3d80 753d
00000330: a214 7b3d 239a bbbd f66e 0e3b 6673 f73c
00000340: 1f94 023c 8f4b 183c 2a06 443d 1bc3 d43c
00000350: c987 123d 41ce 1abd bff5 cdbd 26fe 13bd
00000360: 8c0b 9e3c ab20 ccbd 91d0 a83d fc3c 9f3d
00000370: 2225 95bd 49b0 b8bd d171 3fbd 109d 73bd
00000380: a61c a53d 33c6 8ebd 4470 ba3d 933c 7f3d
00000390: 8704 853d c67f c53d 256b 8a3c fd96 813d
000003a0: 9916 5dbb 20ea 4dbd 6d52 933d d332 e23c
000003b0: cf9e 6ebd 1e73 febd 062d 833d d1cb 09bd
000003c0: d93c d8bd 383a 7d3c 82ce b8bc 6132 6c3c
000003d0: 4fdb bbbd 54aa 3bbd c49c 61bd a0a3 74bc
000003e0: 3323 b4bd d3f6 11bd 24cf c9bd 5194 423c
000003f0: 3b03 8ebd 8bbe adbd 7b81 223c 5d46 403d
-0.054113064 -0.106088094 -0.078547694 -0.013308293 -0.018327545 0.053802572 0.022068588 -0.07361283
-0.093094245 -0.056695223 0.088583596 -0.09904723 -0.014193821 -0.008141245 -0.04202254 0.031463575
0.011509633 0.022135356 -0.007376145 0.07610712 0.08979918 -0.03532175 0.012459176 0.0031347382
-0.04749708 -0.034136675 0.04581181 -0.026339075 0.003287447 -0.048843596 -0.09434489 -0.09910444
-0.07140305 -0.00029756577 0.043187708 -0.008616266 0.061270893 0.049305223 0.061652873 0.057652675
0.012942743 0.06951458 0.02324268 -0.0901129 -0.018416615 -0.0058649206 -0.03067885 0.10487786
0.031093415 0.027096195 -0.08252162 -0.011905092 -0.03302239 0.07896379 -0.029868 0.076744914
-0.07937199 0.074296094 0.03764948 -0.06973679 -0.089130394 0.10191031 0.074814945 0.08753161
0.030081412 -0.0068657305 0.070112765 -0.088560715 -0.031390477 -0.016586766 -0.032698262 -0.08480965
-0.026003813 0.015661549 -0.0102489935 0.007365401 0.02247455 0.07805627 0.022396827 0.079717204
-0.021398226 -0.06915929 0.018811295 -0.0048513846 0.04426291 -0.03469267 0.0855621 0.08001916
-0.013171338 0.0010827536 -0.004452357 -0.1016051 0.040277157 0.07260012 0.030926974 -0.050404258
-0.009369175 -0.04729122 -0.0083911745 -0.036584113 0.026646255 0.033244796 -0.074635334 0.10818208
-0.018744841 0.043077108 0.050360594 -0.080831535 0.0965117 -0.07394665 0.09888173 0.078253336
-0.019280393 0.024809683 0.07953936 0.108217046 -0.064809404 -0.013418905 -0.03336783 -0.029636074
-0.027674457 -0.041603528 -0.07860265 -0.04617874 -0.09105432 0.023623627 0.0845018 -0.009358168
-0.083401576 0.07411515 -0.06687413 0.07247311 0.011040535 -0.039855316 0.08195993 -0.011863288
0.00466922 -0.049259804 -0.0038596035 0.031686895 -0.084064364 0.1121871 0.0013662992 0.062399678
0.08329166 -0.012387351 -0.09942806 0.06485589 -0.08133587 -0.076432906 0.040807743 0.042394705
-0.09032398 0.013099063 0.064844124 0.011037777 -0.05884502 0.027875803 -0.09783663 0.10765112
0.08892169 -0.09277238 0.05880121 -0.058557708 -0.020515162 -0.10968232 -0.07413865 -0.000170873
-0.021342406 -0.008671099 0.09019932 -0.07182784 -0.022571178 -0.026147507 -0.02150317 -0.07799269
0.0070527904 0.04153185 -0.06891454 0.02757 0.06358791 -0.01960081 0.062072672 0.059387594
-0.12550214 -0.104554616 -0.03939143 0.048370704 0.032673053 -0.05164135 -0.028046973 -0.036573064
-0.064367704 0.05778588 -0.062426783 0.05671919 -0.040307943 0.012910391 0.104303226 0.004556442
-0.053932156 0.012370847 -0.08657372 0.05993675 0.061298974 -0.091602586 0.0021733618 0.030206393
0.007969885 0.009295358 0.04785744 0.02597194 0.035774026 -0.037794355 -0.10056638 -0.036131047
0.019292615 -0.099671684 0.08242906 0.07775304 -0.07282473 -0.09017999 -0.046739403 -0.05947596
0.08062105 -0.06971397 0.09103444 0.062313627 0.06495004 0.096435115 0.016896794 0.06327627
-0.0033735393 -0.050272107 0.07193456 0.027612126 -0.05825692 -0.124243006 0.06405072 -0.03364164
-0.10558481 0.015455775 -0.022559408 0.014416308 -0.09172689 -0.045816734 -0.055081144 -0.014931589
-0.08795776 -0.03563578 -0.09853962 0.011876182 -0.0693421 -0.08483609 0.009918566 0.046942104

net.8.bias f4 [100]
00000000: 4210 fcbc cfcc 4dbd 9b75 3c3d d831 8ebc
00000010: 43ff c73c 7cca ba3d c339 003d efb3 df3c
00000020: 61f5 10bc 834b 66bd 4901 843d f3a6 263d
00000030: a55b 613c 67fc 8b3b 23d3 c33c 065b 8b3d
00000040: 6587 413d 692f ab3d 21e2 5abc 92cb 1d3d
00000050: 0768 313b 53d7 953d 6816 b7bc fcf5 473d
00000060: 96c6 63bb a199 883c 2bdb de3c 8528 9cbb
00000070: da7c 9b3d 5463 2cbd 9f55 1abd cf21 5a3d
00000080: 81c2 393d 75d5 93bd 5a07 c43d 44d7 a5bc
00000090: 1828 9c3d d41a 10bd 55cb 95bd 279a 7dbd
000000a0: fd27 1ebc e0ba 413d c4ed e7bc c107 f8bc
000000b0: 8d64 ccbd 2edc 903d 05b4 253d d274 c0bd
000000c0: f290 0f3d 0725 543d 9874 143d bba0 ceba
000000d0: 0f9b 39bc ba98 bfbc 6066 5ebd 2890 cbbc
000000e0: 570d 77bd e696 6e3d 653b 79bd 0f87 babc
000000f0: 433e 7ebd 2968 8c3d ce5a 2abd c6af ff3c
00000100: 28fa cabd 86ec 49bd aea4 a63d e87e d23c
00000110: 145d aabc deba 983d 0c84 783c 1105 7abd
00000120: 3a4b ed3c fa6a 28bd 31df cd3d 1543 85bd
00000130: 33c5 873d 5a99 03bd 9bbb b5bd 8ce0 6b3c
00000140: b2ed 9fbd 3bd0 fc3c e46d ee3c 6fda dabd
00000150: 33c5 763d 14fc 43bc e454 b2bc bc16 683d
00000160: 5e0b 65bd aa1e afbd 76c3 9cbd aa49 453d
00000170: 939c 2fbd 6054 9c3c 1ba2 373d 0345 1dbd
00000180: f743 a8bc d737 09bd 4643 60bd aad0 673c
-0.030769471 -0.05024415 0.046010595 -0.017357752 0.02441371 0.09120652 0.031305086 0.027307479
-0.008847565 -0.056224357 0.064455576 0.04068656 0.01375476 0.004272032 0.023904389 0.06804471
0.047248263 0.08358652 -0.013359577 0.038524218 0.0027070062 0.073164605 -0.022349551 0.048818573
-0.0034755818 0.016674818 0.027204117 -0.0047655725 0.07592173 -0.042086914 -0.03767931 0.0532549
0.04535151 -0.07218448 0.09571715 -0.020244248 0.07624835 -0.035181835 -0.07314173 -0.06191459
-0.009653089 0.04729736 -0.028311618 -0.030277135 -0.09980116 0.07073246 0.040454883 -0.09397282
0.03505034 0.051793125 0.036244005 -0.0015764454 -0.011328473 -0.023388255 -0.05429685 -0.024849012
-0.060315456 0.058249377 -0.06084766 -0.02276948 -0.062071096 0.068558045 -0.041590504 0.031211745
-0.09910995 -0.049297832 0.08136879 0.02569528 -0.020796336 0.07457517 0.015168201 -0.061039988
0.028966535 -0.041117646 0.10052336 -0.065069355 0.0662941 -0.03212867 -0.088736735 0.014396798
-0.07809009 0.03086101 0.029105134 -0.10686194 0.060246658 -0.011961956 -0.021768995 0.056662306
-0.055919044 -0.085507706 -0.07654469 0.048165955 -0.04287393 0.019083202 0.04483233 -0.038395893
-0.02054022 -0.03350052 -0.054751657 0.0141488705

net.10.weight f4 [100, 100]
00000000: 3a9c d6bc 92e1 1fbd c91a dd3c ed62 9ebd
00000010: 15c2 6f3c 5591 ea3c d34a c93d 5b3b 25bc
00000020: 3c05 17bd d3c6 69bd 068d 3d3d a7f5 413d
00000030: 6d33 4e3d 9cf0 883d edf2 cd3d fbc1 5bbd
00000040: 4eb4 6a3d 14fb 0ebd fbb9 ac3d 506b 9d3c
00000050: e069 9d3d ee01 2c3d a73f 9e3c 8edb 713d
00000060: d2a4 bd3d 432b aa3d d0a4 1cbd f4ec f63c
00000070: c436 c9bd 24d9 143d 305c 11bd ecd3 8fbd
00000080: 5f39 bcbd 0167 683d bc78 8b3d a7f0 b4bd
00000090: 8c18 a43d e53f 80bd 3b88 843d 3385 65bd
000000a0: 5f72 7fbd f61e a43d 4784 a8bc 0f68 aa3d
000000b0: 1d21 dbbd 6f7e e5bc f128 433c 2ac7 aabd
000000c0: 0a60 a33d 8561 35bb 249e 8fbd 39fa 03bc
000000d0: 946c 2abd 2313 d8bb 00a6 8f3d f1ef 20bd
000000e0: b519 ecbc 1902 c8bd 43f2 5abd 4f25 d8bd
000000f0: aaae d83d 08d4 5fbd 82fa 1cbd 93fb 703d
00000100: 2eed a5bd 16d1 61bd 465f 1abc 1252 c6bd
00000110: 9212 c8bc 7a78 bd3c 822b 3c3d 4ec2 c4bd
00000120: fce4 0bbd 3edd aebd 4b28 5f3d 6948 983c
00000130: 5737 623d c598 343d 8c1f 72bd ada3 22bd
00000140: d298 a13d e368 a9bd da79 223c 1bf0 fa3d
00000150: 980f 00bb c6d1 443c 4ee4 493b c584 d0bd
00000160: 2b8e bcbd 3664 353d 74e0 62bd 910c 1e3d
00000170: 2810 873d 46e5 c8bd 1965 cabc 0f86 643d
00000180: 4ae4 6e3c 0fba 86bd 600b e1bd d1bd 2abb
00000190: 2add cbbc dc3b d5bd 8b86 1b3d 1b15 40bd
000001a0: e70c 47bd 83ff 413d 4a35 20bb 2047 4e3d
000001b0: 4c5a f93c 6a7f b63d 82da c13d 672e babd
000001c0: 263b 6c3d 2c42 a03a 119e e03d 7ce9 cb39
000001d0: faed dfbc 5695 98bd 6606 65bd 7382 3b3d
000001e0: 54cf 073d d585 5bbd d75f 84bd 4656 383c
000001f0: bb7e cc3d 3fc4 853d aa32 a0bc ccb5 ba3c
00000200: e5f5 183b a6d5 903b 783f 1a3c cece 073e
00000210: 3a5c 683c 6dde fd3c 590a a0bd f7d6 abbc
00000220: 6008 3b3c 47d3 373d 7eff 923d efda a7bd
00000230: f4ef 81bd 2cea 43bd 2d99 c0bd 8db5 ba3d
00000240: d475 903d 24ac 90bd c43c b13d 6525 5139
00000250: c8a5 88bd fe81 da3c ac5c 05bd 6e0b c3bd
00000260: 757b c93d 6b2f 383d ebd3 5cbd 8ce5 3fbd
00000270: 7ddb bd3d 4667 72bd 5b6d dcbb 05f6 abbd
00000280: b3e2 72bd 3dc9 14bd 74d3 093d c92d 4d3d
00000290: 8707 1c3d 1cd7 83bd 1464 943d 614e ed3d
000002a0: d0b5 813c e6a7 643d c980 763d 1eb9 793c
000002b0: 6847 87bd 56c7 d1bd 490f b23b a81d 7bbd
000002c0: 1feb b5bd b275 babd 65c0 943c efdd f53c
000002d0: 32c4 673d aedd a6bd dfd3 b6bb a045 993d
000002e0: 38ab c63d dc60 14bb 004d 703d f53f 04bd
000002f0: ee82 9f3d f4b0 0bba 8c8a 933d 117f 8f3d
00000300: bddb 0f3b 2983 61bd 564c a23b c0a6 963d
00000310: e832 61bd 873d 903d 9836 e2bd bb01 a73b
00000320: 1fd2 2e3d f137 a3bd 5ed4 ac3d 1099 963d
00000330: e74c 99bd e6fd 69bd df61 c7bc 43d1 b0bd
00000340: 41fa 8a3d cf35 003d b114 8dbb 27c5 84bc
00000350: 2dd1 423d 29ad 8d3d 7d11 4ebd 21fb e2bb
00000360: 3232 943c cd27 573d 3927 6cbd 4ba8 96bb
00000370: dc2c 88bd 1175 c73d a1c8 c5bd 880e 033e
00000380: 98f8 11bd 572f aa3d 9548 423d 0b7b 34bd
00000390: 86b9 59bd 1703 83bd e42a 323d bb68 673d
000003a0: 4907 9d3d 360e c13d 9e90 0b3e b294 123d
000003b0: d8a1 b03d 875e 543d b5be 4c3d a47e 3abd
000003c0: d5de 4fbd 60c0 b93c 3e69 65bc cf41 2c3d
000003d0: a298 a9bd f0e6 ae3d 6d6f 93bd 872f 613a
000003e0: c2e6 d33d a683 c03d de9c b1bc c206 963c
000003f0: 685f 36bd 0c47 013c 9130 0bbd 40ce 8c3d
-0.026197542 -0.03903348 0.026990311 -0.07733712 0.014633675 0.028633753 0.09828725 -0.010084952
-0.036870226 -0.05707438 0.04627707 0.047353413 0.050342012 0.066865176 0.100561 -0.05365179
0.05730086 -0.034907416 0.084339105 0.01921621 0.0768621 0.041994028 0.019317461 0.059047274
0.092599526 0.08309033 -0.038243115 0.030142285 -0.09824899 0.036339894 -0.035488307 -0.07022843
-0.0919063 0.056738857 0.06810138 -0.08834963 0.080124944 -0.06262187 0.064712964 -0.05603523
-0.062364932 0.08013718 -0.020570887 0.08320629 -0.10699675 -0.02801439 0.011911617 -0.08338769
0.07977302 -0.0027676534 -0.07012585 -0.008055263 -0.041607454 -0.006594078 0.07014084 -0.039291326
-0.028820852 -0.09766025 -0.053453695 -0.10553991 0.105801895 -0.054645568 -0.03832484 0.05883367
-0.08101879 -0.05513104 -0.009422129 -0.096836224 -0.024422918 0.023128737 0.04593993 -0.09607373
-0.034153923 -0.08538292 0.054481786 0.018589215 0.055228557 0.044091005 -0.059112117 -0.039706875
0.07890476 -0.08271959 0.009916747 0.12252828 -0.0019540545 0.0120129045 0.0030806246 -0.10181574
-0.09206804 0.04428502 -0.055389836 0.038586203 0.065948784 -0.098093554 -0.02470641 0.05579191
0.014580796 -0.065784566 -0.10988498 -0.002605308 -0.024885733 -0.10411808 0.037970107 -0.046895128
-0.04859629 0.047362816 -0.0024445825 0.0503608 0.030438565 0.08911021 0.09465505 -0.09090882
0.057673596 0.0012226752 0.10967649 0.00038893137 -0.027335156 -0.074503586 -0.055914305 0.045778703
0.033156708 -0.05359443 -0.064635925 0.011251038 0.099851094 0.065315716 -0.019555409 0.022791766
0.0023339924 0.00442 0.009414546 0.13262483 0.014182145 0.03098985 -0.07814474 -0.020976527
0.011415571 0.044879224 0.071776375 -0.08196055 -0.063445956 -0.047830746 -0.09404216 0.09116659
0.07053724 -0.07064083 0.08654168 0.00019945724 -0.06672245 0.026673313 -0.032559082 -0.095236644
0.09838001 0.044967096 -0.05391304 -0.046849772 0.0927038 -0.05918052 -0.0067269034 -0.08396534
-0.05929823 -0.03632473 0.033648923 0.050092492 0.038093116 -0.06437513 0.07245651 0.11587215
0.015833765 0.055824183 0.060181413 0.015241889 -0.066054165 -0.102430984 0.005433951 -0.06130758
-0.088827364 -0.0910448 0.018158147 0.030013053 0.05658359 -0.08147751 -0.005579456 0.07483983
0.09700626 -0.002264074 0.058667183 -0.032287557 0.07788645 -0.0005328797 0.0720416 0.07006658
0.0021951043 -0.055056725 0.0049529476 0.07356024 -0.05498019 0.070429854 -0.11045569 0.005096642
0.042680856 -0.07969654 0.08438943 0.07353413 -0.07485371 -0.057126902 -0.02433866 -0.086336635
0.067860134 0.031301316 -0.004305445 -0.01620729 0.047562767 0.06917793 -0.050309647 -0.0069269096
0.018090341 0.05252819 -0.057654593 -0.004597699 -0.06649181 0.097391255 -0.096574076 0.12798512
-0.035637468 0.083098106 0.0474325 -0.044062655 -0.053155445 -0.06397074 0.043497935 0.056496363
0.07667405 0.09426539 0.13629386 0.03578634 0.08624619 0.05184796 0.04998656 -0.04553093
-0.05074962 0.02267474 -0.0140021425 0.042054947 -0.082810655 0.085401416 -0.07198987 0.0008590151
0.10346748 0.0940011 -0.021681245 0.01831377 -0.04452458 0.007890474 -0.033981863 0.068752766
