models/heatalpha/sin/heatalpha_41.pth (torch, 977047 bytes, 51 tensors)

net.0.weight f4 [100, 3]
-0.36465123 0.25210536 0.21793818 0.0005399252 0.11258222 -0.55708665 -0.57175875 0.2811558
0.52765167 0.33066452 -0.12836246 -0.6403252 -0.26467833 0.08393508 0.3690744 0.45294794
0.7902889 0.532066 -0.3689002 0.4144773 0.065050505 -0.022244144 -0.0288116 -0.15259193
-0.04495601 -0.5057441 0.0030971798 0.6652426 0.17886375 -0.18000144 -0.18584937 0.7447168
-0.6427012 0.60161734 -0.1792885 0.34172878 -0.03581544 0.12630601 -0.34744594 -0.16827507
0.2338887 0.12456848 -0.5636378 -0.26147914 -0.29227468 -0.22468711 -0.5815516 0.47169557
0.5050483 0.051231142 0.042920355 0.6183102 0.2582802 -0.42528155 -0.106875196 -0.44778442
0.36575937 0.32156566 -0.18562394 0.64418143 0.46352863 -0.5587178 -0.6283193 -0.17572029
0.12905921 0.590686 -0.17453577 -0.4736372 0.48988092 -0.12563093 0.4631121 -0.1259559
-0.47360814 0.15156855 -0.40232828 0.34588787 0.09106733 0.24409002 0.3120948 0.19258521
-0.38706225 -0.6794987 -0.6575982 0.34347287 -0.41570792 -0.6502197 -0.33389306 0.45005
-0.045625135 0.24241531 0.017172419 0.14764066 -0.075755216 0.2212292 -0.31292218 0.12775281
0.59795636 0.22934183 0.39942697 -0.14519416 0.18560727 0.4019316 0.24620725 -0.045332067
-0.07955359 0.42830944 0.11799217 -0.7382928 -0.5511711 0.66132015 -0.20120397 0.139149
-0.65283364 0.042765096 0.29146752 0.6713733 0.7261572 0.32108328 -0.35018653 -0.50971127
0.3491258 -0.19129795 -0.25632164 0.2683346 0.0055941087 0.2443607 -0.0066733984 0.29993013
-0.05357847 -0.08243041 0.41480216 0.21856108 0.57917124 0.4797432 0.060451362 -0.1652138
0.666373 -0.5194 -0.35398003 -0.28835177 -0.7421226 0.27929446 0.10712514 0.761476
0.0005469633 0.067035556 0.3151964 0.3776185 -0.12491959 0.35089594 -0.005995858 -0.4596377
0.23503287 0.57026076 -0.11332388 0.018707579 -0.18637599 0.37408403 -0.44853103 -0.49440765
0.26995307 -0.081296 -0.50241697 -0.071789876 -0.076679595 -0.5747383 -0.5873456 -0.18043703
-0.15509263 -0.23334382 0.18427499 -0.18016808 -0.17271584 -0.038480375 -0.4821462 -0.19761682
-0.5034618 -0.098768845 -0.28102028 -0.5776513 0.1868704 -0.50965714 0.26325023 0.30038232
-0.09304074 0.37753636 0.6100945 0.44143537 0.24635921 -0.49156547 0.4054573 -0.018101849
-0.34335634 -0.102473095 0.10963937 -0.5311116 0.42970625 -0.37053025 -0.024475299 0.26874682
-0.09045484 -0.5515127 -0.11652512 -0.33793718 0.130692 -0.39871666 -0.08544514 0.31833214
-0.5989171 -0.06367591 -0.16923334 -0.43963188 0.23232298 0.3513111 0.18006001 0.2293059
-0.083286345 0.40693316 -0.10085807 0.70805925 -0.2224872 0.43729615 -0.51493233 0.40035576
0.23049676 0.59250355 -0.37963626 -0.85153526 -0.09351545 -0.30939862 0.66554874 -0.47548884
0.18635415 0.1547056 0.5204285 0.42087558 0.54199046 -0.26674625 -0.57361966 -0.5234962
0.41931966 0.3247763 -0.5339786 0.041998193 -0.19700734 -0.25565487 0.29909077 0.28286493
0.6946602 -0.14821512 0.05169144 -0.50412637 -0.5157813 0.29945412 -0.49415502 0.39834154
00000000: 91b3 babe f413 813e 302b 5f3e c489 0d3a
00000010: 8291 e63d 3b9d 0ebf c85e 12bf a7f3 8f3e
00000020: 2e14 073f dc4c a93e 7371 03be 5aec 23bf
00000030: eb83 87be 28e6 ab3d 52f7 bc3e cbe8 e73e
00000040: 6050 4a3f 7a35 083f 7de0 bcbe 5e36 d43e
00000050: 3339 853d 5a39 b6bc 4e06 ecbc 0f41 1cbe
00000060: cb23 38bd 7278 01bf 0efa 4a3b 574d 2a3f
00000070: 0f28 373e 4c52 38be 4c4f 3ebe c3a5 3e3f
00000080: 1188 24bf 9803 1a3f 6897 37be 13f7 ae3e
00000090: 36b3 12bd 5d56 013e 6fe4 b1be 4d50 2cbe
000000a0: 8580 6f3e c21d ff3d 914a 10bf 98e0 85be
000000b0: 07a5 95be 6114 66be 91e0 14bf 1582 f13e
000000c0: d84a 013f bfd7 513d 41cd 2f3d 9449 1e3f
000000d0: 4d3d 843e 81be d9be 62e1 dabd 0044 e5be
000000e0: d044 bb3e 41a4 a43e 3414 3ebe 13e9 243f
000000f0: a053 ed3e 2108 0fbf 89d9 20bf 05f0 33be
00000100: 1928 043e 3337 173f 81b9 32be 9380 f2be
00000110: acd1 fa3e 65a5 00be 071d ed3e 95fa 00be
00000120: c47c f2be c934 1b3e f9fd cdbe 3718 b13e
00000130: 8281 ba3d bcf2 793e e4ca 9f3e 0f35 453e
00000140: 062d c6be a0f3 2dbf 5b58 28bf addb af3e
00000150: abd7 d4be cc74 26bf 08f4 aabe f46c e63e
00000160: 6ce1 3abd b83b 783e 2cad 8c3c 1d2f 173e
00000170: 8d25 9bbd e889 623e 5637 a0be a2d1 023e
00000180: ab13 193f 96d8 6a3e b181 cc3e c7ad 14be
00000190: d50f 3e3e fbc9 cd3e c11d 7c3e 1eae 39bd
000001a0: feec a2bd 604b db3e e1a5 f13d c200 3dbf
000001b0: 8d19 0dbf 474c 293f 6a08 4ebe 137d 0e3e
000001c0: 1b20 27bf 742a 2f3d 3b3b 953e 1fdf 2b3f
000001d0: 70e5 393f 0765 a43e a64b b3be 707c 02bf
000001e0: 9ec0 b23e 9ce3 43be 973c 83be 2763 893e
000001f0: c94e b73b b139 7a3e 86ac dabb 7190 993e
00000200: 1975 5bbd 46d1 a8bd f360 d43e 7ace 5f3e
00000210: 9144 143f e7a0 f53e d99b 773d ce2d 29be
00000220: 6c97 2a3f 66f7 04bf df3c b5be d8a2 93be
00000230: bffb 3dbf afff 8e3e 6d64 db3d 17f0 423f
00000240: 1662 0f3a f049 893d 6c61 a13e 3657 c13e
00000250: d8d5 ffbd a2a8 b33e e778 c4bb a255 ebbe
00000260: 75ac 703e 9cfc 113f 5a16 e8bd a340 993c
00000270: 59d9 3ebe f187 bf3e dca5 e5be 0023 fdbe
00000280: 4a37 8a3e 847e a6bd 669e 00bf 9206 93bd
00000290: 310a 9dbd 0d22 13bf 485c 16bf 7cc4 38be
000002a0: 9ad0 1ebe aff1 6ebe 95b2 3c3e fb7d 38be
000002b0: 6cdc 30be 999d 1dbd dedb f6be 105c 4abe
000002c0: dfe2 00bf 5247 cabd e4e1 8fbe f5e0 13bf
000002d0: f45a 3f3e e478 02bf bcc8 863e b6cb 993e
000002e0: 258c bebd 724c c13e 272f 1c3f d103 e23e
000002f0: 9745 7c3e 78ae fbbe 1998 cf3e 544a 94bc
00000300: 67cc afbe 6add d1bd 9b8a e03d eef6 07bf
00000310: 7502 dc3e 24b6 bdbe 6c80 c8bc 2f99 893e
00000320: 6340 b9bd f02f 0dbf b9a4 eebd 1a06 adbe
00000330: 20d4 053e 9724 ccbe ddfd aebd 6efc a23e
00000340: a252 19bf 8468 82bd 814b 2dbe 6e17 e1be
00000350: 13e6 6d3e 0cdf b33e a761 383e 2acf 6a3e
00000360: 0892 aabd 8b59 d03e ad8e cebd 5f43 353f
00000370: afd3 63be 48e5 df3e 9bd2 03bf 6efb cc3e
00000380: 5807 6c3e 50ae 173f af5f c2be 37fe 59bf
00000390: 0785 bfbd 7f69 9ebe 6761 2a3f 4673 f3be
000003a0: 9fd3 3e3e 256b 1e3e cd3a 053f 017d d73e
000003b0: e3bf 0a3f f792 88be bdd8 12bf d903 06bf
000003c0: 11b1 d63e 1449 a63e d2b2 08bf 4c06 2c3d
000003d0: 4bbc 49be 32e5 82be 6d22 993e acd3 903e
000003e0: 40d5 313f b4c5 17be 67ba 533d 6d0e 01bf
000003f0: 3e0a 04bf 0d52 993e e301 fdbe 6cf3 cb3e

net.0.bias f4 [100]
-0.5628181 -0.31226102 -0.3472891 -0.41012195 0.52025706 0.56936574 -0.034508817 -0.35494658
0.036541373 0.24119192 -0.48416516 0.20974517 0.4936164 0.51040787 -0.5297553 -0.5237334
0.5226158 -0.516126 -0.08823593 0.056451082 -0.5407867 -0.39550406 -0.45154837 0.3448483
-0.08457004 0.41901442 0.5125617 -0.8180495 -0.5900156 0.33054537 0.55585444 -0.3685863
0.1015864 -0.5685672 -0.4995372 -0.6030158 0.6430615 -0.5590519 0.5143385 -0.4562018
-0.34988034 -0.60197425 0.11657483 0.4065782 -0.32986337 -0.5569119 0.08638015 0.21467091
-0.42502567 0.030519392 -0.06770358 -0.4978803 0.11944012 -0.4966849 0.2577519 0.44084826
0.5129872 -0.33592287 0.11032352 -0.24718714 -0.7172521 -0.26849487 0.47805008 0.10156266
-0.1719952 0.39670414 0.23590706 0.47371894 0.32572627 0.44029245 0.3877349 -0.23122838
0.52133113 -0.48836774 -0.51091933 -0.17270388 -0.24180348 -0.38273475 0.40554354 -0.61999017
0.009469292 0.5378943 -0.105421714 0.20919622 -0.32625633 -0.097915515 0.46055543 -0.4019465
-0.4194518 0.06767478 -0.022845224 -0.25822926 -0.26652846 -0.39683294 0.41941935 0.50621206
-0.20947541 -0.2375053 -0.5931933 0.10115291
00000000: d914 10bf ade0 9fbe e0cf b1be 81fb d1be
00000010: 912f 053f f4c1 113f 1e59 0dbd 8fbb b5be
00000020: 68ac 153d 04fb 763e 7fe4 f7be 70c7 563e
00000030: 4abb fc3e 17aa 023f 0b9e 07bf 6413 06bf
00000040: 26ca 053f d520 04bf 0ab5 b4bd 4039 673d
00000050: ff70 0abf 827f cabe 5931 e7be f58f b03e
00000060: 0f33 adbd 0f89 d63e 3e37 033f b16b 51bf
00000070: 430b 17bf 3e3d a93e 7a4c 0e3f 58b7 bcbe
00000080: 880c d03d 9f8d 11bf 57c3 ffbe 3e5f 1abf
00000090: ae9f 243f 061e 0fbf b0ab 033f 4893 e9be
000000a0: 8423 b3be fc1a 1abf c9be ee3d 052b d03e
000000b0: dae3 a8be c791 0ebf 13e8 b03d b1d2 5b3e
000000c0: f79c d9be ce03 fa3c 2da8 8abd 2bea febe
000000d0: 069d f43d 7c4d febe 0ff8 833e ddb6 e13e
000000e0: 2153 033f 15fe abbe 4cf1 e13d a01e 7dbe
000000f0: d59d 37bf 2978 89be fbc2 f43e 1500 d03d
00000100: 821f 30be ce1c cb3e 9f91 713e 4a8b f23e
00000110: 98c5 a63e 036e e13e 3085 c63e 22c7 6cbe
00000120: f575 053f 560b fabe 9ccb 02bf 49d9 30be
00000130: 559b 77be cff5 c3be 67a3 cf3e adb7 1ebf
00000140: 1725 1b3c 71b3 093f 57e7 d7bd 8937 563e
00000150: 120b a7be ee87 c8bd eccd eb3e efcb cdbe
00000160: 63c2 d6be 1399 8a3d e825 bbbc a036 84be
00000170: 6b76 88be b02d cbbe 22be d63e 1d97 013f
00000180: b980 56be 9734 73be 84db 17bf 4229 cf3d

net.2.weight f4 [100, 100]
-0.057275884 -0.077009976 -0.017744528 0.007925649 0.021722976 -0.0074410075 -0.11424539 -0.109962314
-0.0045237755 0.020917503 -0.023522366 0.00095497695 0.00473444 0.056709327 0.011529784 0.05752473
-0.05204282 -0.084904544 0.054324266 0.10134263 0.016428148 -0.03179117 0.08348839 -0.016458383
0.013506514 0.0069322526 -0.097598225 -0.06789302 -0.0008179169 -0.037166443 0.08009597 0.020140486
-0.10593231 -0.057203237 -0.043523636 0.045267075 -0.09549334 0.008858901 -0.12620048 -0.01510579
0.06569024 0.072552145 -0.045562718 0.041627824 -0.030482901 -0.034569383 -0.00048478428 0.13078354
-0.033688333 -0.04127341 0.073824935 -0.043676402 -0.059414048 0.08730205 -0.035397884 0.025793549
-0.07637617 -0.027979434 -0.056217518 -0.09709487 -0.009448312 0.012368046 0.018049184 -0.0402169
0.057011195 -0.15303391 -0.08586229 0.11708818 -0.07260163 0.07286082 -0.05582791 0.0295445
0.07761209 0.06402316 -0.1131218 -0.10424048 -0.008700804 -0.05024643 -0.08597151 0.014594859
0.03718779 -0.10081101 0.049522974 0.054151032 -0.1020429 -0.026748158 -0.019484418 -0.10191494
0.023091312 -0.073653914 0.12630647 -0.030148264 -0.047767088 0.0070043695 0.061066598 -0.0059522716
-0.06453154 0.0009160421 0.020095076 -0.07365242 -0.03045553 0.03243863 -0.10541409 -0.119520806
0.07390839 -0.06533149 -0.054838467 0.046859194 0.031611066 -0.045898102 -0.05031168 0.06800917
-0.08905869 0.07636007 -0.08924018 0.017658368 -0.043147888 0.03274743 -0.08943393 0.0438483
0.049215686 0.0029550001 -0.011864209 0.015604115 -0.086730465 0.052636597 -0.051351525 0.085359715
0.10043409 -0.028745025 0.005885321 0.0863684 0.033300217 0.1514551 0.053603824 0.15343885
0.07525041 -0.100692436 0.08935423 0.048032545 -0.007160435 -0.0937767 -0.078974225 -0.08758522
0.087934695 0.050539453 0.11927742 -0.09671548 -0.052266978 0.06622775 -0.08728879 0.045490798
0.06692748 -0.059020683 -0.028713264 0.062220827 0.054024074 -0.08922659 -0.030226547 0.030587343
0.09698208 -0.012484921 -0.11299635 -0.08362862 -0.026728282 0.03817744 0.09128387 -0.028450679
-0.063695006 0.06176646 -0.0631685 0.041928537 0.07382756 0.060211692 0.055928923 -0.113910176
-0.04564035 -0.031379845 -0.04470735 0.029380139 0.03313845 0.033307366 -0.043889143 0.004556956
0.0493484 -0.1151279 -0.028597705 -0.10406934 0.051074408 -0.024809996 0.07637246 0.0040059355
0.008860938 -0.0036852653 0.09902172 -0.023590708 -0.065319434 -0.03575799 0.028001156 0.0084980745
-0.1029298 -0.11962721 0.059192196 0.08247614 0.08430427 0.024571639 0.035046667 -0.08070935
-0.008172904 -0.021399576 -0.003127124 0.13816297 0.04650837 0.036348976 -0.12722597 0.03144856
0.12692738 -0.009787911 0.027567618 0.07395256 -0.016018895 -0.07700241 0.022425948 -0.003200682
0.026011312 0.07159334 0.007887302 0.011584559 -0.09188797 -0.006937774 -0.03879667 0.04646724
0.08898964 -0.050823692 -0.050041698 -0.009996503 -0.045307063 0.101586536 -0.003557543 0.08570643
-0.033105697 -0.00094118854 -0.0067727845 0.06601278 -0.057042163 0.06417006 -0.12503195 -0.0709579
0.063100345 -0.051103834 -0.04573406 -0.035871938 -0.007567167 -0.033604745 0.019608704 0.05916181
00000000: 1e9a 6abd 68b7 9dbd f95c 91bc 95da 013c
00000010: 62f4 b13c b2d3 f3bb 7df9 e9bd ec33 e1bd
00000020: 2e3c 94bb 2f5b ab3c fab1 c0bc 6b57 7a3a
00000030: 5c23 9b3b 0a48 683d 6be7 3c3c 0d9f 6b3d
00000040: da2a 55bd 6fe2 adbd 1f83 5e3d ba8c cf3d
00000050: 5394 863c 7537 02bd f6fb aa3d bbd3 86bc
00000060: 6d4a 5d3c f327 e33b 94e1 c7bd 7f0b 8bbd
00000070: 7969 56ba d73b 18bd 5b09 a43d a9fd a43c
00000080: 0af3 d8bd f14d 6abd d745 32bd f869 393d
00000090: 0392 c3bd ed24 113c b33a 01be 477e 77bc
000000a0: 9b88 863d 3896 943d f99f 3abd f081 2a3d
000000b0: 47b7 f9bc a098 0dbd a52a feb9 1fec 053e
000000c0: c7fc 09bd 4f0e 29bd 8731 973d 07e6 32bd
000000d0: 255c 73bd 6bcb b23d 5ffd 10bd fe4c d33c
000000e0: 1c6b 9cbd 2035 e5bc 5744 66bd add9 c6bd
000000f0: 18cd 1abc 58a3 4a3c e2db 933c 7aba 24bd
00000100: 9284 693d ecb4 1cbe 91d8 afbd edcb ef3d
00000110: 2ab0 94bd 0e38 953d ceab 64bd 4f07 f23c
00000120: 16f3 9e3d 931e 833d 67ac e7bd 087c d5bd
00000130: d18d 0ebc 33cf 4dbd d511 b0bd 471f 6f3c
00000140: 3952 183d 0176 cebd 9ad8 4a3d 79cd 5d3d
00000150: defb d0bd f41e dbbc c99d 9fbc c8b8 d0bd
00000160: fe29 bd3c ddd7 96bd 7c56 013e 7ef9 f6bc
00000170: 6ca7 43bd e984 e53b f820 7a3d 460b c3bb
00000180: 1d29 84bd 8b22 703a 6e9e a43c 14d7 96bd
00000190: e07d f9bc 5ede 043d 58e3 d7bd 53c7 f4bd
000001a0: 485d 973d 84cc 85bd 4d9e 60bd 6def 3f3d
000001b0: 9b7a 013d a6ff 3bbd 9f13 4ebd 6448 8b3d
000001c0: 6764 b6bd ab62 9c3d 8ec3 b6bd 48a8 903c
000001d0: d7bb 30bd 2b22 063d 2329 b7bd 469a 333d
000001e0: 6396 493d ada8 413b 1962 42bc 67a8 7f3c
000001f0: be9f b1bd 7999 573d fa55 52bd 13d1 ae3d
00000200: 63b0 cd3d b07a ebbc a7d9 c03b eae1 b03d
00000210: cf65 083d 0c17 1b3e af8f 5b3d 131f 1d3e
00000220: e31c 9a3d d637 cebd 5aff b63d c6bd 443d
00000230: 15a2 eabb 000e c0bd 3dbd a1bd e15f b3bd
00000240: 1b17 b43d 7502 4f3d b847 f43d c412 c6bd
00000250: e615 56bd 6aa2 873d 77c4 b2bd 8f54 3a3d
00000260: 4611 893d acbf 71bd 1438 ebbc 44db 7e3d
00000270: 5948 5d3d 6ebc b6bd aa9d f7bc 4f92 fa3c
00000280: 8a9e c63d 8e8d 4cbc a16a e7bd 7b45 abbd
00000290: 45f5 dabc f35f 1c3d 0af3 ba3d 6611 e9bc
000002a0: 8772 82bd d4fe 7c3d 7d5e 81bd 42bd 2b3d
000002b0: e732 973d 89a0 763d ba15 653d bd49 e9bd
000002c0: 60f1 3abd 2788 00bd 0e1f 37bd 9eae f03c
000002d0: 2fbc 073d 4e6d 083d 1ac5 33bd 8452 953b
000002e0: 8c21 4a3d 2dc8 ebbd bc45 eabc 4e22 d5bd
000002f0: 6633 513d 553e cbbc 2a69 9c3d 3944 833b
00000300: 782d 113c 7e84 71bb e6cb ca3d 4d41 c1bc
00000310: 32c6 85bd f876 12bd ae62 e53c 823b 0b3c
00000320: dccc d2bd 1cff f4bd 8473 723d 40e9 a83d
00000330: b8a7 ac3d 764a c93c 188d 0f3d f24a a5bd
00000340: a5e7 05bc 2a4e afbc 6ff0 4cbb 987a 0d3e
00000350: 907f 3e3d aae2 143d 8647 02be 35d0 003d
00000360: 40f9 013e 795d 20bc 7cd5 e13c 7174 973d
00000370: 0f3a 83bc 71b3 9dbd 9fb6 b73c 89c2 51bb
00000380: ad15 d53c 879f 923d be39 013c 2acd 3d3c
00000390: c32f bcbd 4456 e3bb 42e9 1ebd 6f54 3e3d
000003a0: 3340 b63d 812c 50bd 86f8 4cbd 5fc8 23bc
000003b0: e693 39bd 9a0c d03d ab25 69bb da86 af3d
000003c0: d799 07bd 18ba 76ba 3cee ddbb b531 873d
000003d0: 0ba5 69bd 986b 833d 6008 00be 6052 91bd
000003e0: c13a 813d 4152 51bd a353 3bbd 74ee 12bd
000003f0: fff5 f7bb 21a5 09bd 6fa2 a03c a753 723d

net.2.bias f4 [100]
-0.0013448211 0.030666608 0.073332064 0.104010284 0.006641408 -0.012272353 0.07408153 -0.063485265
0.12076754 0.06572612 -0.006788569 0.025202416 0.068944395 0.06929461 0.09235627 -0.004695653
-0.06527957 -0.09465544 0.012692084 0.056670427 -0.089965634 -0.001205432 -0.09348711 -0.00020420982
0.08322363 0.050164115 -0.091195755 -0.002416884 -0.0059733735 -0.06329263 -0.08292699 0.04642409
0.041210257 -0.0941938 0.08772888 0.02408487 0.046289496 0.096634105 0.013975403 -0.039277654
0.101774044 -0.04699937 0.07857999 0.023551015 -0.06016485 -0.084547654 0.038163085 0.01605432
0.050396964 0.08723992 0.09261861 -0.06974188 0.057259466 -0.05691949 0.07728544 0.0880664
0.14423658 -0.09806053 0.024685204 -0.012345638 0.063569784 0.10336789 0.01692846 -0.07127304
-0.034544732 -0.016741585 0.071893126 0.049449787 -0.07470693 0.090254754 -0.022321306 0.059560902
-0.029449647 0.03728848 0.086712085 -0.08747171 0.072277956 -0.09994599 0.05635812 -0.037864048
0.054014497 0.07073233 -0.027347572 0.07875062 -0.08871176 0.002237511 -0.010409835 -0.05680192
-0.093352206 -0.08448408 -0.07086662 -0.0038817236 -0.06983963 -0.007076947 -0.036570203 0.080761306
0.005031229 -0.063927904 -0.021813395 0.09659918
00000000: b544 b0ba 8a38 fb3c 1f2f 963d 5803 d53d
00000010: 2ba0 d93b fb11 49bc 0fb8 973d 9004 82bd
00000020: f954 f73d 6a9b 863d a572 debb 4c75 ce3c
00000030: b832 8d3d 55ea 8d3d 4925 bd3d fedd 99bb
00000040: 4cb1 85bd b6da c1bd 75f2 4f3c 401f 683d
00000050: e73f b8bd 96ff 9dba 2c76 bfbd 2821 56b9
00000060: 2771 aa3d e378 4d3d d7c4 babd 9664 1ebb
00000070: 4abc c3bb 919f 81bd a0d5 a9bd 3027 3e3d
00000080: 16cc 283d aee8 c0bd 33ab b33d a24d c53c
00000090: 0e9a 3d3d 1ae8 c53d 17f9 643c 9be1 20bd
000000a0: e96e d03d 6982 40bd 8cee a03d 0fee c03c
000000b0: 6b6f 76bd 5227 adbd e550 1c3d 5984 833c
000000c0: 0c6d 4e3d d8aa b23d d3ae bd3d d5d4 8ebd
000000d0: e788 6a3d 6924 69bd d447 9e3d 285c b43d
000000e0: c1b2 133e f6d3 c8bd a038 ca3c 5c45 4abc
000000f0: e030 823d 8bb2 d33d 8ead 8a3c 99f7 91bd
00000100: c77e 0dbd a625 89bc b43c 933d dc8b 4a3d
00000110: f2ff 98bd 7cd7 b83d 2cdb b6bc 22f6 733d
00000120: 6340 f1bc cebb 183d 1b96 b13d 5e24 b3bd
00000130: 7706 943d 7cb0 ccbd c6d7 663d 5517 1bbd
00000140: 4e3e 5d3d 1ddc 903d 0408 e0bc 0148 a13d
00000150: 83ae b5bd 35a3 123b 038e 2abc 21a9 68bd
00000160: 712f bfbd fd05 adbd 8522 91bd 8464 7ebb
00000170: 1408 8fbd bce5 e7bb a3ca 15bd 2f66 a53d
00000180: 02dd a43b a2ec 82bd 01b2 b2bc cad5 c53d

net.4.weight f4 [100, 100]
-0.011627191 -0.16239284 0.08942617 0.11328719 0.05902156 -0.04624798 0.07708434 -0.0785755
-0.073398896 0.02082118 0.10894908 0.12536114 0.12832965 -0.18902409 0.120158374 -0.12066606
-0.14584549 0.009315419 -0.14379017 -0.032434624 -0.009026597 -0.020901144 0.071161054 0.12519413
0.12305402 -0.0050154114 0.036563925 0.04199272 -0.016719202 -0.038845576 0.077166066 -0.0073752045
0.0853538 -0.010231556 -0.118583895 -0.05981166 -0.08965595 -0.00844251 0.23123804 -0.036019534
-0.109815106 -0.09525365 -0.08702319 -0.042686474 0.10368871 0.041883394 -0.21846235 0.08805949
-0.1165406 0.026016958 0.0072399178 0.0028799912 -0.035305344 0.55282265 -0.24521093 0.13025469
0.06502165 0.15110011 -0.20610808 -0.09644381 0.09365263 0.08133658 -0.0696448 -0.2661511
-0.094141446 0.21617311 0.1873473 -0.13260944 -0.24519561 -0.09395039 -0.018732922 0.23109065
-0.07439603 0.053960517 -0.039691627 0.024625894 -0.117984205 -0.18312103 -0.1314417 -0.16197944
-0.101871766 0.11718491 0.07230438 0.16456203 -0.31858385 -0.15150045 -0.09356538 0.22669679
0.074920714 -0.0722264 0.13080959 -0.09767429 -0.060650006 -0.11765201 -0.12963413 -0.01945738
0.13560499 0.07566554 -0.15712418 -0.06550536 -0.085455745 -0.08132918 -0.021201042 0.04010794
0.15035607 -0.007030246 -0.14685528 0.109138645 0.07944091 -0.0682963 -0.033130113 -0.08409402
0.027700419 0.09454155 -0.05606657 -0.052559827 -0.08257137 -0.04117696 -0.03772505 -0.030328615
0.07890854 -0.083175115 -0.09651595 -0.012194464 0.05640078 0.049160883 -0.06594559 -0.07712576
0.06759926 0.03219148 0.10896779 -0.022302208 -0.013370128 -0.014579052 -0.02080959 0.051657706
0.07474699 0.09116334 0.017420173 0.14397085 -0.078978 -0.0052095065 0.020673716 -0.04299542
-0.0879279 0.104602836 0.008410049 0.08364966 -0.0053043994 0.0046956944 0.09539839 0.077248126
-0.022885779 0.18621151 -0.075219214 0.052208863 -0.17072591 -0.15186214 -0.041277148 -0.04712589
-0.04388023 -0.035406705 0.0519683 -0.0069470117 0.021859115 0.20070367 0.010037595 -0.010279064
-0.032307137 -0.09929142 -0.028837107 0.029992191 -0.11230974 -0.0042690174 -0.08570968 -0.1283843
-0.08011473 -0.10812388 -0.010743038 0.0674947 0.010856511 0.083346754 0.049483027 0.11127387
-0.010843374 -0.10507078 -0.14894377 0.13638818 -0.060491435 0.025657255 0.052494694 -0.040860385
0.03253486 -0.044805918 0.005020194 -0.12467866 0.021380138 0.06957955 0.10636426 0.02777391
-0.02906389 -0.030639699 0.0030695896 0.067154996 0.09603185 0.0015397279 0.023114698 0.03631455
0.025930492 -0.013274892 -0.06588712 0.10563704 0.10722372 -0.10472063 -0.034640923 -0.109982066
0.015242347 0.0768121 -0.108348496 0.03950297 0.034383796 0.10225283 -0.011177481 -0.009246034
0.049763296 0.047326982 -0.06484314 -0.06368885 -0.04544613 -0.056357183 0.029914068 -0.0015158352
-0.084096596 -0.0457178 -0.0879511 0.02056201 0.002422038 0.06647998 -0.06545718 0.07899609
-0.02692202 -0.12704937 -0.038283795 0.052101977 -0.064620174 -0.082865834 -0.028793782 -0.04381536
-0.04432952 0.11124719 0.009944022 -0.080873474 0.06031654 0.12187297 -0.07769379 -0.06890442
00000000: f97f 3ebc 4f4a 26be 1125 b73d 1d03 e83d
00000010: 97c0 713d 866e 3dbd 65de 9d3d 31ec a0bd
00000020: 2952 96bd 2e91 aa3c b220 df3d ac5e 003e
00000030: d968 033e 888f 41be 9815 f63d c41f f7bd
00000040: 8558 15be b39f 183c bb3d 13be 2bda 04bd
00000050: 4be4 13bc e038 abbc e3bc 913d e432 003e
00000060: bf03 fc3d 5258 a4bb 0ec4 153d 8f00 2c3d
00000070: b5f6 88bc 8a1c 1fbd 3e09 9e3d b3ab f1bb
00000080: f9cd ae3d 42a2 27bc 1ddc f2bd 12fd 74bd
00000090: 8a9d b7bd 7452 0abc aac9 6c3e 3889 13bd
000000a0: bee6 e0bd 5814 c3bd 3739 b2bd 03d8 2ebd
000000b0: bf5a d43d ec8d 2b3d 98b4 5fbe 8958 b43d
000000c0: d7ac eebd 8421 d53c d53c ed3b 3cbe 3c3b
000000d0: 569c 10bd c985 0d3f 9318 7bbe 7c61 053e
000000e0: 122a 853d fdb9 1a3e ff0d 53be 5584 c5bd
000000f0: f3cc bf3d cb93 a63d efa1 8ebd f544 88be
00000100: 3bcd c0bd 7c5c 5d3e f8d7 3f3e c5ca 07be
00000110: 8f14 7bbe 1069 c0bd c975 99bc 07a3 6c3e
00000120: f25c 98bd b405 5d3d b093 22bd 3ebc c93c
00000130: b4a1 f1bd 1484 3bbe a798 06be f0dd 25be
00000140: 25a2 d0bd a4fe ef3d 5214 943d f382 283e
00000150: 6c1d a3be ef22 1bbe 359f bfbd 3423 683e
00000160: 0870 993d 6feb 93bd f3f2 053e 7509 c8bd
00000170: 246c 78bd 89f3 f0bd cfbe 04be 1565 9fbc
00000180: 09dc 0a3e 89f6 9a3d 29e5 20be ad27 86bd
00000190: 6c03 afbd ea8f a6bd cfad adbc 3948 243d
000001a0: f1f6 193e fa5d e6bb 3b61 16be 1584 df3d
000001b0: eab1 a23d eede 8bbd 71b3 07bd 7c39 acbd
000001c0: fdeb e23c 009f c13d 0fa6 65bd f948 57bd
000001d0: 2e1b a9bd 2ca9 28bd 9585 1abd b773 f8bc
000001e0: cd9a a13d b757 aabd 28aa c5bd 4acb 47bc
000001f0: 8104 673d ec5c 493d 7b0e 87bd 1cf4 9dbd
00000200: 7b71 8a3d 37db 033d 812a df3d 1fb3 b6bc
00000210: 620e 5bbc fadc 6ebc e078 aabc 0897 533d
00000220: f314 993d d8b3 ba3d c0b4 8e3c 186d 133e
00000230: 38bf a1bd 82b4 aabb ed5b a93c f71b 30bd
00000240: 8b13 b4bd 033a d63d 4dca 093c 8350 ab3d
00000250: 87d0 adbb 57de 993b 3b60 c33d 4434 9e3d
00000260: f57a bbbc 3bae 3e3e 880c 9abd f6d8 553d
00000270: c6d2 2ebe c081 1bbe 3a12 29bd 1407 41bd
00000280: c2bb 33bd 9f06 11bd b6dc 543d c2a3 e3bb
00000290: e311 b33c 4385 4d3e ba74 243c 8569 28bc
000002a0: 7d54 04bd 4d59 cbbd cc3b ecbc 2fb2 f53c
000002b0: a602 e6bd 1de3 8bbb 8f88 afbd 2d77 03be
000002c0: 3113 a4bd 0e70 ddbd 9103 30bc a93a 8a3d
000002d0: 82df 313c b4b1 aa3d b7ae 4a3d 8ee3 e33d
000002e0: 68a8 31bc 592f d7bd b784 18be 58a9 0b3e
000002f0: dec5 77bd 2a2f d23c ad04 573d 385d 27bd
00000300: 4643 053d 6986 37bd 7180 a43b 8657 ffbd
00000310: 6625 af3c b97f 8e3d 81d5 d93d 1c86 e33c
00000320: 6517 eebc 1b00 fbbc 2b2b 493b 8f88 893d
00000330: 59ac c43d b2d0 c93a 095b bd3c 91be 143d
00000340: 2f6c d43c ef7e 59bc d4ef 86bd 3c58 d83d
00000350: 1c98 db3d c577 d6bd a4e3 0dbd 473e e1bd
00000360: 09bb 793c aa4f 9d3d d1e5 ddbd decd 213d
00000370: 06d6 0c3d ef69 d13d c121 37bc ad7c 17bc
00000380: 99d4 4b3d f0d9 413d 7bcc 84bd 4d6f 82bd
00000390: b925 3abd cad6 66bd 590e f53c fdae c6ba
000003a0: d63a acbd 9642 3bbd b51f b4bd a971 a83c
000003b0: 0ebb 1e3b a826 883d 6a0e 86bd b4c8 a13d
000003c0: 918b dcbc 3b19 02be 78cf 1cbd e268 553d
000003d0: 9557 84bd 90b5 a9bd f0e0 ebbc bc77 33bd
000003e0: df92 35bd 91d5 e33d 40ec 223c fea0 a5bd
000003f0: 7a0e 773d 8998 f93d ec1d 9fbd c31d 8dbd

net.4.bias f4 [100]
-0.03599328 0.0061030416 0.018512482 -0.062254228 -0.085362375 0.082192 -0.02508794 -0.028211944
-0.03057356 0.06940586 0.089599594 0.08639465 -0.034240704 0.061006688 0.048702676 0.042271286
-0.050357897 -0.014373017 -0.058407217 0.011851403 -0.044613965 -0.08591493 -0.009075919 -0.029875146
-0.010978189 -0.09222203 -0.045506634 0.079704344 0.039260652 0.066694446 -0.044240598 0.0073780664
0.057664566 0.06686706 -0.023803487 0.061589036 -0.07701194 -0.103574246 0.0035595584 0.051436286
-0.04048775 -0.040725026 -0.026117627 0.009738684 -0.08149811 0.060406346 -0.05194956 0.08942168
-0.08130917 0.021412961 0.10171071 -0.029159725 0.0038250051 -0.07907868 0.02224528 -0.12067973
-0.08971531 0.059789017 0.01350773 0.04197502 0.017932152 0.096083164 -0.031413924 -0.06953782
0.008424079 -0.028988147 -0.030885616 0.08011516 0.019839052 0.00025677908 -0.07952042 -0.10161411
-0.028902715 0.0822178 0.045822605 0.06510887 -0.06659455 0.10253294 0.067303024 -0.08252533
0.08179967 -0.027595187 -0.054106575 0.05075984 0.10091487 -0.058856733 -0.05071066 0.05922012
-0.04902513 0.09036267 -0.031324606 0.046668787 -0.046373066 -0.03650477 -0.01594879 -0.02631535
-0.038092505 -0.05857827 0.049074695 -0.07499605
00000000: b16d 13bd 06fc c73b 7da7 973c 4afe 7ebd
00000010: 78d2 aebd 4754 a83d 3985 cdbc bc1c e7bc
00000020: 6775 fabc a924 8e3d fe7f b73d aeef b03d
00000030: fb3f 0cbd 26e2 793d 757c 473d a824 2d3d
00000040: 1544 4ebd cd7c 6bbc 683c 6fbd 632c 423c
00000050: 22bd 36bd 2bf4 afbd 2ab3 14bc b9bc f4bc
00000060: dddd 33bc e7de bcbd 2a65 3abd 083c a33d
00000070: c7cf 203d 1997 883d a135 35bd b5c3 f13b
00000080: ae31 6c3d 99f1 883d 88ff c2bc c944 7c3d
00000090: 70b8 9dbd bc1e d4bd 7b47 693b dbae 523d
000000a0: 7cd6 25bd 49cf 26bd a2f4 d5bc 008f 1f3c
000000b0: 7be8 a6bd a56c 773d 10c9 54bd b722 b73d
000000c0: 6c85 a6bd 3c6a af3c b44d d03d 60e0 eebc
000000d0: f0ac 7a3b 01f4 a1bd bc3b b63c ef26 f7bd
000000e0: a9bc b7bd 54e5 743d 874f 5d3c 00ee 2b3d
000000f0: 73e6 923c 40c7 c43d e3ab 00bd d869 8ebd
00000100: 2605 0a3c 8d78 edbc d503 fdbc 6b13 a43d
00000110: 8285 a23c 4ea0 8639 9adb a2bd 0f1b d0bd
00000120: 63c5 ecbc ce61 a83d 7cb0 3b3d cd57 853d
00000130: b962 88bd cafc d13d 2bd6 893d 0a03 a9bd
00000140: 9686 a73d 4d0f e2bc db9e 5dbd 8de9 4f3d
00000150: 75ac ce3d c213 71bd fbb5 4fbd cc90 723d
00000160: 93ce 48bd 1010 b93d 3b4e 00bd c527 3f3d
00000170: aff1 3dbd 0786 15bd 09a7 82bc 4a93 d7bc
00000180: e306 1cbd c5ef 6fbd 8c02 493d 8797 99bd

net.6.weight f4 [100, 100]
0.035917252 0.023230085 0.03881462 -0.005799669 0.020057261 -0.009330136 0.009131064 -0.06421262
0.029126309 -0.068665035 -0.012675588 -0.05953291 -0.010825089 0.057780586 0.03404741 -0.07313889
-0.06004208 -0.09350829 0.03603258 -0.018820899 0.0980387 0.023473833 -0.11187136 -0.026311945
0.0369877 0.027545352 -0.041011304 -0.019758705 -0.09760928 0.0103009865 -0.08540379 -0.035447463
0.08021558 -0.07693629 0.05474043 -0.039603703 -0.038390502 0.07756335 0.069915846 -0.009162165
0.053592518 0.075969525 0.06429957 0.052651756 -0.116298705 0.014731038 0.012096416 -0.089183114
-0.06670499 -0.03335543 0.02712834 0.049171016 0.051912177 0.06879216 0.10710597 0.021801151
0.039644953 0.062231142 -0.074803084 -0.08956581 -0.006718508 -0.079090655 0.048517305 0.019846698
0.07312916 0.03710094 -0.060545698 -0.004400828 -0.069351494 0.019637687 0.02381984 0.058615305
-0.0063483566 -0.0711711 -0.079838924 0.078847565 -0.057584744 0.04153839 -0.009444805 -0.08916208
0.06430816 0.022231553 -0.03676459 -0.061330304 -0.013733075 0.028905487 -0.087488286 -0.0645442
0.063065976 0.09137756 -0.051095225 -0.04062456 -0.08698258 -0.015874747 -0.06362213 -0.07696748
0.056711353 0.016515028 0.08754791 0.026565228 0.032329347 -0.0654163 0.085004106 0.028170802
0.08425681 -0.1297364 0.09086609 0.06715258 0.118765056 0.056354348 -0.10685842 -0.05243832
-0.050861936 0.0430437 -0.048846513 -0.013872138 -0.06491183 -0.040979028 -0.04590817 -0.057310738
0.063700885 0.09222673 -0.093371175 -0.005307517 -0.021394957 -0.09052634 0.08081688 -0.08815236
0.10220721 0.12858506 0.11330024 -0.051475648 0.0006877202 -0.005339971 -0.05034533 -0.02328361
0.0038774011 0.07248327 -0.1094146 0.039540518 0.07614704 -0.0055428147 0.046202052 0.012705397
0.06663901 0.036934115 -0.07656196 -0.08689881 0.058667637 -0.036300287 -0.015964236 0.06364369
0.01901297 0.0832458 0.099505045 0.10479379 -0.04815388 0.023557998 -0.015312051 0.11314794
-0.084471464 -0.03906783 0.044118814 -0.072030514 -0.061127678 -0.07590283 -0.106039025 -0.06906495
-0.02314064 0.079715244 0.03887544 0.086937815 0.062137164 -0.05552467 -0.076599106 0.040604033
-0.103280246 0.03827947 0.111374944 0.015709488 0.10121441 -0.04076165 -0.0015276873 0.06603089
0.0060563404 -0.011062571 -0.04605473 0.10007414 0.030455679 0.118854806 0.07466092 -0.00034168176
0.03049564 -0.034691125 0.023381505 -0.04411068 0.07126167 0.07176859 -0.059340205 0.007462133
0.010470878 -0.034964208 -0.09349846 -0.019346423 0.07635241 -0.04819766 -0.08233697 0.029526344
-0.010264049 -0.08285036 0.09164836 -0.013745996 0.055095874 0.028720342 -0.09130277 0.033598065
0.09044709 0.028265875 -0.03668447 -0.052725095 0.025266226 -0.04281766 -0.11788424 0.03576836
-0.032347094 -0.10160302 -0.029395727 0.061414346 -0.06148713 -0.05109871 -0.08790878 -0.10481994
-0.09064927 0.06152494 0.02136791 0.017616045 -0.016955439 -0.002818346 0.077265255 -0.039170865
0.016807664 0.052989274 0.06572978 -0.050560903 0.07930885 0.027077995 -0.058453746 0.021119041
-0.08072334 0.041830324 0.08473439 -0.019885542 -0.070748225 0.060985826 0.080658406 -0.042805128
00000000: f81d 133d 054d be3c 14fc 1e3d 260b bebb
00000010: 204f a43c 6ddd 18bc 759a 153c e881 83bd
00000020: 4c9a ee3c 41a0 8cbd 45ad 4fbc c8d8 73bd
00000030: b75b 31bc 56ab 6c3d 4c75 0b3d d8c9 95bd
00000040: afee 75bd 4681 bfbd e696 133d 492e 9abc
00000050: 84c8 c83d 324c c03c d01c e5bd 268c d7bc
00000060: 6a80 173d caa6 e13c 78fb 27bd 02dd a1bc
00000070: 60e7 c7bd 78c5 283c 2fe8 aebd 5c31 11bd
00000080: 1148 a43d c690 9dbd 8037 603d 7e37 22bd
00000090: 5c3f 1dbd 89d9 9e3d 0a30 8f3d e81c 16bc
000000a0: d483 5b3d e995 9b3d 7eaf 833d 5ea9 573d
000000b0: 042e eebd 745a 713c 0c30 463c a3a5 b6bd
000000c0: a09c 88bd b49f 08bd 413c de3c 8c67 493d
000000d0: dda1 543d e7e2 8c3d 605a db3d 5498 b23c
000000e0: bf62 223d 15e6 7e3d 5c32 99bd 486e b7bd
000000f0: ee26 dcbb 48fa a1bd 15ba 463d 8b95 a23c
00000100: bec4 953d 28f7 173d c4fe 77bd d234 90bb
00000110: 2808 8ebd 37df a03c d321 c33c 9a16 703d
00000120: e005 d0bb 27c2 91bd 9782 a3bd d57a a13d
00000130: fbdd 6bbd 2924 2a3d 62be 1abc 9c9a b6bd
00000140: ffb3 833d f21e b63c 7796 16bd 7c35 7bbd
00000150: b100 61bc 33cb ec3c 0f2d b3bd c02f 84bd
00000160: bc28 813d 2824 bb3d 3a49 51bd f065 26bd
00000170: ec23 b2bd c20b 82bc 524c 82bd 20a1 9dbd
00000180: 2a4a 683d 864a 873c 524c b33d 529f d93c
00000190: c76b 043d fbf8 85bd a216 ae3d 74c6 e63c
000001a0: d68e ac3d 9ed9 04be 0018 ba3d 4b87 893d
000001b0: 183b f33d d1d3 663d 96d8 dabd 90c9 56bd
000001c0: 9b54 50bd 974e 303d 4813 48bd f747 63bc
000001d0: 7ef0 84bd a0d9 27bd 350a 3cbd aabe 6abd
000001e0: 9c75 823d 5ee1 bc3d 6339 bfbd aeea adbb
000001f0: 7a44 afbc e065 b9bd 5283 a53d 3989 b4bd
00000200: 0452 d13d cdab 033e f509 e83d 21d8 52bd
00000210: 1f48 343a ecfa aebb e836 4ebd 45bd bebc
00000220: ff1b 7e3b 1c72 943d c314 e0bd 3df5 213d
00000230: fbf2 9b3d 80a0 b5bb 5d3e 3d3d 4c2a 503c
00000240: 097a 883d 3a48 173d 84cc 9cbd 01f8 b1bd
00000250: 7a4d 703d 9caf 14bd 6ec7 82bc 9f57 823d
00000260: 17c1 9b3c c67c aa3d 4dc9 cb3d 209e d63d
00000270: 013d 45bd b4fc c03c 66df 7abc 1bba e73d
00000280: 60ff acbd 9705 20bd eeb5 343d bc84 93bd
00000290: 0461 7abd f172 9bbd fd2a d9bd ed71 8dbd
000002a0: 7191 bdbc bf41 a33d da3b 1f3d 740c b23d
000002b0: 8a83 7e3d d66d 63bd fedf 9cbd 6a50 263d
000002c0: 9884 d3bd efca 1c3d 8c18 e43d 2fb1 803c
000002d0: 8049 cf3d b0f5 26bd ae3c c8ba 343b 873d
000002e0: 4474 c63b c93f 35bc e2a3 3cbd acf3 cc3d
000002f0: 307e f93c 266a f33d d3e7 983d c023 b3b9
00000300: fed1 f93c 4818 0ebd 928a bf3c 67ad 34bd
00000310: a3f1 913d 69fb 923d b70e 73bd e984 f43b
00000320: 0c8e 2b3c a136 0fbd 1f7c bfbd 647c 9ebc
00000330: a75e 9c3d e96a 45bd 49a0 a8bd 3be1 f13c
00000340: 8b2a 28bc 73ad a9bd 23b2 bb3d e336 61bc
00000350: 36ac 613d ec46 eb3c f2fc babd 209e 093d
00000360: 533c b93d d68d e73c 7442 16bd 45f6 57bd
00000370: 1efb ce3c 9261 2fbd 4b6d f1bd d881 123d
00000380: 637e 04bd 3f15 d0bd 4fcf f0bc 9c8d 7b3d
00000390: eed9 7bbd e24c 51bd 8509 b4bd d6ab d6bd
000003a0: 53a6 b9bd 9301 7c3d c10b af3c 864f 903c
000003b0: 22e6 8abc 00b4 38bb 3f3d 9e3d a171 20bd
000003c0: 3ab0 893c 480b 593d 569d 863d f318 4fbd
000003d0: ae6c a23d acd2 dd3c 326d 6fbd d701 ad3c
000003e0: 4752 a5bd 4656 2b3d 3989 ad3d 01e7 a2bc
000003f0: 72e4 90bd 46cc 793d 3c30 a53d 6e54 2fbd

net.6.bias f4 [100]
-0.04756615 0.027626704 0.060025882 0.0064084595 0.02896103 -0.039807785 -0.085212275 0.028228963
-0.011786936 0.03943626 -0.018940432 0.038918514 -0.0631294 -0.040609356 0.043319166 -0.08442364
-0.06758017 -0.020187411 -0.027392194 -0.09746163 -0.10742074 0.011632857 0.0090968935 -0.017073348
0.08108169 0.008605181 -0.06610764 0.03446628 -0.068792164 -0.089675374 0.022676967 -0.14209718
-0.0046443236 -0.10281404 -0.09447609 0.023655297 0.010181551 0.0009247218 -0.094608545 0.030012254
-0.04112434 -0.06148189 -0.033806145 0.036153965 0.015587798 -0.09283082 -0.107889436 -0.087263964
-0.08303397 0.009707538 0.049509123 0.04519913 0.07452891 0.07875811 0.04567089 -0.011415038
0.05575748 -0.033022374 0.089412406 0.04603246 0.0074655865 -0.031759612 -0.095868334 -0.10677624
-0.047931097 0.0099732755 -0.03995258 0.068146035 -0.054398105 -0.039068963 0.06923717 0.06407197
0.033001486 0.025116092 0.035304792 0.07921262 -0.05835946 0.0494955 0.055763595 0.08112698
-0.00674502 0.030700015 0.046508048 0.012928783 0.06326953 -0.011479185 -0.006322342 -0.001504261
-0.042925444 0.06768082 -0.06583862 0.0010734369 -0.03971841 0.06411521 0.093970686 0.09406911
-0.028404167 -0.025678212 0.00017997027 0.041049015
00000000: b9d4 42bd 6651 e23c b3dd 753d 0efe d13b
00000010: af3f ed3c 7d0d 23bd c683 aebd 6d40 e73c
00000020: fe1d 41bc ea87 213d f728 9bbc 0569 1f3d
00000030: fd49 81bd ff55 26bd 706f 313d 4de6 acbd
00000040: 7967 8abd 1260 a5bc 9865 e0bc f799 c7bd
00000050: 68ff dbbd bd97 3e3c 230b 153c 68dd 8bbc
00000060: 280e a63d bffc 0c3c 7163 87bd 842c 0d3d
00000070: e8e2 8cbd b9a7 b7bd 0cc5 b93c ec81 11be
00000080: 692f 98bb 2b90 d2bd ae7c c1bd c1c8 c13c
00000090: 85d0 263c 0869 723a 20c2 c1bd 42dc f53c
000000a0: ff71 28bd 6fd4 7bbd 5078 0abd 2e16 143d
000000b0: f763 7f3c 161e bebd 23f5 dcbd 73b7 b2bd
000000c0: b70d aabd 5e0c 1f3c 14ca 4a3d b922 393d
000000d0: 9da2 983d ef4b a13d 6611 3b3d 2406 3bbc
000000e0: f561 643d 7842 07bd da1d b73d 888c 3c3d
000000f0: e1a1 f43b 5e16 02bd 9e56 c4bd 80ad dabd
00000100: 6653 44bd f366 233c 51a5 23bd 2690 8b3d
00000110: 8cd0 5ebd c706 20bd 38cc 8d3d 2a38 833d
00000120: 912c 073d 43c0 cd3c c29b 103d 3a3a a23d
00000130: 540a 6fbd cbbb 4a3d 5e68 643d e725 a63d
00000140: 5405 ddbb 997e fb3c 397f 3e3d 3fd3 533c
00000150: 7593 813d 3113 3cbc a62b cfbb a02a c5ba
00000160: 97d2 2fbd 3e9c 8a3d 66d6 86bd 91b2 8c3a
00000170: c5af 22bd d64e 833d b473 c03d 4ea7 c03d
00000180: dbaf e8bc 1d5b d2bc 67b6 3c39 0323 283d

net.8.weight f4 [100, 100]
-0.054529034 -0.10630577 -0.07865597 -0.013291934 -0.018228231 0.05372912 0.022000287 -0.07371918
-0.09305182 -0.056697197 0.088199764 -0.098302014 -0.0142862145 -0.007955639 -0.041784372 0.030956857
0.01143839 0.022331543 -0.0073641036 0.07656102 0.08946447 -0.03532659 0.012515835 0.0031383452
-0.047456414 -0.03392494 0.045802537 -0.026411155 0.003381579 -0.04881073 -0.09458543 -0.099231414
-0.07141784 -0.00017508162 0.043149263 -0.008447824 0.061053496 0.048832707 0.061525088 0.05771344
0.013276005 0.06947207 0.023360288 -0.08967994 -0.018557215 -0.005789788 -0.030929523 0.10513481
0.030609172 0.027197754 -0.082478486 -0.011977823 -0.032691967 0.079005845 -0.029551556 0.0767548
-0.07939127 0.07432289 0.03769808 -0.06971895 -0.08911367 0.101860434 0.07470846 0.0875597
0.030301481 -0.0073599885 0.07058412 -0.088501684 -0.031444848 -0.016795177 -0.033113275 -0.085039444
-0.026080735 0.01578455 -0.010023385 0.0074177324 0.022429151 0.07849594 0.021305665 0.0797189
-0.021480052 -0.069123924 0.018805768 -0.004379781 0.044257503 -0.034552075 0.085862674 0.07929532
-0.012859527 0.0009819741 -0.004484598 -0.10117209 0.040339943 0.07255996 0.031279713 -0.050510798
-0.009086803 -0.04696397 -0.008261019 -0.036600016 0.02623988 0.033372883 -0.07433333 0.10819631
-0.01870829 0.04312892 0.05030698 -0.0809561 0.09658315 -0.074097745 0.09905624 0.07822316
-0.01939072 0.024633866 0.07936537 0.1085084 -0.064817645 -0.013427173 -0.033520687 -0.029738141
-0.028120229 -0.041191936 -0.07835058 -0.04635431 -0.0910828 0.02324477 0.08423202 -0.009234172
-0.08335885 0.07408808 -0.06689527 0.07214878 0.011022542 -0.040025435 0.08176621 -0.011716804
0.00468976 -0.05025188 -0.0039869267 0.03170148 -0.0838834 0.111604445 0.0011710668 0.062313445
0.08321541 -0.012416186 -0.09950482 0.06447628 -0.081534855 -0.075532496 0.04121062 0.04231125
-0.09075911 0.013425625 0.064681955 0.011258974 -0.058794774 0.027797895 -0.09812683 0.10671223
0.088865116 -0.093049616 0.05866221 -0.057876494 -0.020802386 -0.10938099 -0.0740737 -0.00028695824
-0.02122525 -0.008456618 0.09045824 -0.07189471 -0.02252666 -0.026122702 -0.02170674 -0.077976495
0.007054393 0.04170167 -0.06880023 0.027459878 0.063147075 -0.01911118 0.06331927 0.05962342
-0.12599081 -0.104500026 -0.039504677 0.049426522 0.032840565 -0.05149642 -0.027804382 -0.03659177
-0.064359285 0.057772722 -0.062288374 0.05706471 -0.040099263 0.013143542 0.10461181 0.0044296067
-0.05405509 0.012377475 -0.086607784 0.05994605 0.06125617 -0.09147158 0.0022859955 0.029961213
0.008046179 0.009184105 0.047707424 0.02611014 0.03578796 -0.038023543 -0.100410394 -0.03647093
0.019338513 -0.09950309 0.082657345 0.07780977 -0.07298844 -0.09032954 -0.0467655 -0.05940204
0.08058497 -0.06961851 0.091044344 0.06231452 0.06498075 0.09649787 0.016820466 0.06349031
-0.0033299234 -0.050224148 0.071950726 0.027623897 -0.058434296 -0.12438416 0.064218484 -0.033613432
-0.10567781 0.015510721 -0.022476485 0.0147120105 -0.0917823 -0.04577689 -0.055098772 -0.0149046965
-0.08839122 -0.0356727 -0.09862563 0.0118463375 -0.06918019 -0.08490923 0.009995761 0.04682473
00000000: d659 5fbd d7b6 d9bd 6216 a1bd 69c6 59bc
00000010: 5f53 95bc 1113 5c3d f239 b43c 15fa 96bd
00000020: f491 bebd 523b 68bd 14a2 b43d 9152 c9bd
00000030: ba10 6abc 5e58 02bc 1726 2bbd 3c99 fd3c
00000040: 1668 3b3c a4f0 b63c 944e f1bb 06cc 9c3d
00000050: 2639 b73d 9db2 10bd 380f 4d3c b2ac 4d3b
00000060: a861 42bd e1f4 0abd 719b 3b3d 355c d8bc
00000070: 7b9d 5d3b c3ed 47bd 02b6 c1bd d739 cbbd
00000080: 8443 92bd 1d96 37b9 48bd 303d be68 0abc
00000090: 3b13 7a3d ce04 483d bb01 7c3d ee64 6c3d
000000a0: 9a83 593c 5f47 8e3d 135e bf3c 1eaa b7bd
000000b0: 4d05 98bc 43b8 bdbb e95f fdbc eb50 d73d
000000c0: 16c0 fa3c d3cd de3c 7bea a8bd a23e 44bc
000000d0: 03e8 05bd d1cd a13d 1b16 f2bc 9f31 9d3d
000000e0: e497 a2bd 9936 983d 4d69 1a3d cfc8 8ebd
000000f0: 3a81 b6bd 349c d03d c000 993d 8052 b33d
00000100: d03a f83c 0f2c f1bb 688e 903d 5f40 b5bd
00000110: 50cc 00bd 0a96 89bc c9a1 07bd 2929 aebd
00000120: 44a7 d5bc 9a4e 813c 2039 24bc 7310 f33b
00000130: 57bd b73c 7bc2 a03d 3889 ae3c aa43 a33d
00000140: eff6 afbc d890 8dbd 8e0e 9a3c 4484 8fbb
00000150: 5b47 353d 7a86 0dbd c5d8 af3d 9665 a23d
00000160: c4b0 52bc 95b5 803a 89f3 92bb 5033 cfbd
00000170: 7f3b 253d 519a 943d 281f 003d 69e4 4ebd
00000180: d0e0 14bc 4b5d 40bd 3a59 07bc e6e9 15bd
00000190: 04f5 d63c 01b2 083d 133c 98bd 0796 dd3d
000001a0: 2142 99bc f3a7 303d b10e 4e3d 50cc a5bd
000001b0: 63cd c53d 8fc0 97bd ffdd ca3d 7733 a03d
000001c0: 4ad9 9ebc f6cc c93c 508a a23d a739 de3d
000001d0: 1dbf 84bd a5fd 5bbc fd4c 09bd 679d f3bc
000001e0: 655c e6bc e0b8 28bd 4576 a0bd 04de 3dbd
000001f0: 9e89 babd d16b be3c d681 ac3d ed4a 17bc
00000200: 0bb8 aabd 7ebb 973d 6300 89bd bdc2 933d
00000210: e497 343c b6f1 23bd 0b75 a73d d6f7 3fbc
00000220: 8fac 993b ead4 4dbd c4a4 82bb 69d9 013d
00000230: 0fcb abbd df90 e43d 7b7e 993a 623c 7f3d
00000240: d76c aa3d 426d 4bbc 2fc9 cbbd 240c 843d
00000250: bffb a6bd c8b0 9abd 78cc 283d 904e 2d3d
00000260: eadf b9bd 27f7 5b3c f977 843d 8f77 383c
00000270: cad2 70bd 69b8 e33c b8f6 c8bd f18b da3d
00000280: eafe b53d cc90 bebd c947 703d e70f 6dbd
00000290: c469 aabc 2403 e0bd f4b3 97bd e272 96b9
000002a0: 93e0 adbc a08d 0abc 2b42 b93d 893d 93bd
000002b0: d489 b8bc 47ff d5bc 55d2 b1bc 24b2 9fbd
000002c0: 8a28 e73b 5fcf 2a3d 23e7 8cbd 8af3 e03c
000002d0: 4153 813d 0d8f 9cbc 89ad 813d b037 743d
000002e0: bc03 01be 1c04 d6bd a8cf 21bd 7773 4a3d
000002f0: d483 063d e9ed 52bd 04c6 e3bc 40e1 15bd
00000300: cdce 83bd 17a3 6c3d 1822 7fbd afbc 693d
00000310: 203f 24bd 0358 573c b73e d63d 3c26 913b
00000320: df68 5dbd e5ca 4a3c 6c5f b1bd fd89 753d
00000330: c0e7 7a3d 7455 bbbd a4d0 153b 3871 f53c
00000340: 1fd4 033c ee78 163c dc68 433d efe4 d53c
00000350: 6596 123d 93be 1bbd f7a3 cdbd 8b62 15bd
00000360: cd6b 9e3c 47c8 cbbd 4148 a93d bb5a 9f3d
00000370: f77a 95bd b2fe b8bd 2e8d 3fbd 8e4f 73bd
00000380: bc09 a53d 2694 8ebd 7575 ba3d 833d 7f3d
00000390: a114 853d ada0 c53d 13cb 893c 3507 823d
000003a0: d83a 5abb d6b7 4dbd e75a 933d 834b e23c
000003b0: cd58 6fbd 1fbd febd fb84 833d 3dae 09bd
000003c0: 9c6d d8bd ae20 7e3c 9b20 b8bc a50a 713c
000003d0: 5cf8 bbbd 8c80 3bbd 40af 61bd d432 74bc
000003e0: 7506 b5bd 891d 12bd 3cfc c9bd 2417 423c
000003f0: 58ae 8dbd e4e4 adbd 43c5 233c 4acb 3f3d

net.8.bias f4 [100]
-0.03065954 -0.050125536 0.0459852 -0.017376756 0.0244375 0.09090081 0.031448185 0.027132137
-0.0089203995 -0.05622212 0.064439155 0.040734846 0.013820307 0.004318797 0.023835238 0.06827208
0.047280636 0.08361173 -0.013403139 0.03855968 0.0026303094 0.07290087 -0.022620216 0.048833128
-0.003606908 0.01662293 0.027191564 -0.0039623943 0.0754989 -0.0427138 -0.037406646 0.0532415
0.04549361 -0.07219495 0.09565047 -0.020188086 0.07613021 -0.03512658 -0.07313863 -0.061897673
-0.009671295 0.0470944 -0.028245967 -0.030410195 -0.10021045 0.070737146 0.040483046 -0.09393685
0.035036188 0.05149134 0.036189478 -0.0013169274 -0.011522168 -0.023282656 -0.053988233 -0.024840672
-0.06057432 0.058134068 -0.061099216 -0.022752332 -0.061967127 0.06853487 -0.041586567 0.031155398
-0.09898907 -0.049295265 0.08134913 0.025639363 -0.020939855 0.074530594 0.015169721 -0.061074577
0.02893665 -0.041127577 0.10048466 -0.06506054 0.06631343 -0.03214663 -0.088123836 0.014313958
-0.07812158 0.03095225 0.02912102 -0.10686634 0.060141575 -0.011923124 -0.02147586 0.056530196
-0.055956315 -0.08564971 -0.07633499 0.048132125 -0.04290546 0.01907389 0.0449054 -0.038028114
-0.020682372 -0.033612773 -0.05482053 0.014121945
00000000: b729 fbbc 6f50 4dbd fa5a 3c3d b359 8ebc
00000010: 2731 c83c 342a ba3d d0cf 003d 3744 de3c
00000020: de26 12bc 2a49 66bd adf8 833d 95d9 263d
00000030: 926e 623c b284 8d3b 1e42 c33c 3bd2 8b3d
00000040: 57a9 413d a03c ab3d d798 5bbc c1f0 1d3d
00000050: 4561 2c3b 0d4d 953d 084e b9bc 3f05 483d
00000060: e061 6cbb d02c 883c d8c0 de3c f9d6 81bb
00000070: 2b9f 9a3d aaf4 2ebd b637 19bd c213 5a3d
00000080: 8257 3a3d f2da 93bd 65e4 c33d 7c61 a5bc
00000090: 28ea 9b3d e4e0 0fbd b5c9 95bd 6a88 7dbd
000000a0: 5a74 1ebc 0fe6 403d 1664 e7bc cd1e f9bc
000000b0: 233b cdbd a3de 903d 8dd1 253d f761 c0bd
000000c0: 1b82 0f3d 95e8 523d 6b3b 143d c09c acba
000000d0: 7ac7 3cbc 45bb bebc c422 5dbd aa7e cbbc
000000e0: c71c 78bd fd1d 6e3d 2c43 7abd 1963 babc
000000f0: 3ed1 7dbd 035c 8c3d ad56 2abd 9b39 ff3c
00000100: c8ba cabd d5e9 49bd 5f9a a63d a409 d23c
00000110: 0f8a abbc 7fa3 983d 6c8a 783c 5629 7abd
00000120: 8e0c ed3c 6475 28bd e7ca cd3d 763e 85bd
00000130: 56cf 873d 2fac 03bd 457a b4bd 1785 6a3c
00000140: 35fe 9fbd 938f fd3c 358f ee3c bddc dabd
00000150: 0357 763d 3559 43bc 25ee afbc 358c 673d
00000160: 7332 65bd 1d69 afbd 8555 9cbd 3126 453d
00000170: a3bd 2fbd d940 9c3c baee 373d 5ec3 1bbd
00000180: 146e a9bc 8cad 09bd 7e8b 60bd bb5f 673c

net.10.weight f4 [100, 100]
-0.026127718 -0.039087567 0.02694472 -0.077346556 0.01465244 0.028539162 0.098417476 -0.010142907
-0.037090853 -0.057056796 0.046268594 0.047328245 0.050351325 0.06688467 0.10057 -0.053584322
0.057268955 -0.03488938 0.08429296 0.019270314 0.07675205 0.04198789 0.019142954 0.05891716
0.09254193 0.0829344 -0.038297746 0.030161757 -0.09844382 0.036393322 -0.03516259 -0.07018162
-0.09197475 0.056704693 0.068084255 -0.08834531 0.079994544 -0.062648594 0.06466528 -0.05588888
-0.06243251 0.08025259 -0.020648202 0.08322211 -0.10693614 -0.028048309 0.011979794 -0.08319929
0.079657145 -0.002806318 -0.07035577 -0.007848375 -0.041681033 -0.0064586625 0.06999964 -0.039296564
-0.028956728 -0.09768239 -0.05344335 -0.105625615 0.10587028 -0.054736856 -0.038293473 0.05882473
-0.08119563 -0.05515084 -0.009393855 -0.09683458 -0.024578245 0.023045016 0.04571818 -0.09612128
-0.03412526 -0.08546242 0.054463487 0.018554704 0.055080142 0.04409386 -0.059067458 -0.039683133
0.07898851 -0.08272854 0.009892269 0.12251799 -0.0020072504 0.012114444 0.0030845182 -0.101952165
-0.09182679 0.044169363 -0.055067685 0.038574763 0.0657789 -0.09807271 -0.024663527 0.055835843
0.0146346465 -0.06576782 -0.10985149 -0.0028537668 -0.024629256 -0.10404827 0.038062517 -0.046806816
-0.04851663 0.0471111 -0.0024132584 0.050204746 0.030396644 0.088731 0.094597936 -0.09086991
0.05762837 0.0012209476 0.10955211 0.0003018844 -0.027198346 -0.074575484 -0.055783045 0.04596714
0.033152685 -0.053725615 -0.064764574 0.0110579 0.09980125 0.06518458 -0.019618701 0.02280266
0.0023287137 0.0045293868 0.0096368175 0.13258915 0.014034177 0.030722205 -0.07839032 -0.020985616
0.011229945 0.044901192 0.07181338 -0.08180179 -0.06340529 -0.047548424 -0.09414539 0.09107152
0.07048277 -0.070807785 0.08649878 0.00017135966 -0.06665055 0.026369652 -0.03275048 -0.09481896
0.09821139 0.04514017 -0.053426992 -0.04683283 0.092391714 -0.058869187 -0.006687343 -0.08387282
-0.05943086 -0.03641069 0.033347063 0.05015956 0.038135637 -0.06434373 0.07231778 0.11563055
0.015718963 0.055873178 0.060069427 0.015205163 -0.06601635 -0.10223775 0.005007238 -0.06135253
-0.08882126 -0.090884075 0.018058203 0.029922761 0.056483515 -0.08131455 -0.0055557 0.07473956
0.096639246 -0.0022476627 0.05856667 -0.032048676 0.07802835 -0.0005993621 0.07193866 0.07007274
0.0022517713 -0.055026595 0.0050068945 0.07343481 -0.054839037 0.07007065 -0.11016984 0.0051100375
0.04264069 -0.07974212 0.084290855 0.07333969 -0.07497597 -0.057552908 -0.024001114 -0.08646553
0.0670207 0.03156104 -0.0043373406 -0.016391074 0.04749498 0.069475405 -0.0504373 -0.00687162
0.017821763 0.052716967 -0.057675865 -0.004983397 -0.066936314 0.097063296 -0.09687049 0.126805
-0.0361255 0.08269869 0.047284957 -0.043950014 -0.05331287 -0.06374268 0.044309102 0.056595646
0.07636611 0.094301686 0.13608174 0.036162928 0.085925214 0.051650822 0.05001221 -0.044797286
-0.050909583 0.023141202 -0.014027503 0.041689847 -0.08193031 0.08544803 -0.07164817 0.0011746945
0.10310907 0.09349323 -0.022216687 0.018701538 -0.04519872 0.00796521 -0.034275398 0.06878858
00000000: cc09 d6bc 491a 20bd 2cbb dc3c df67 9ebd
00000010: ca10 703c f6ca e93c 1a8f c93d 6f2e 26bc
00000020: 94ec 17bd 63b4 69bd 2384 3d3d 43db 413d
00000030: 313d 4e3d d4fa 883d a5f7 cd3d 3c7b 5bbd
00000040: da92 6a3d 2be8 0ebd caa1 ac3d c7dc 9d3c
00000050: 2e30 9d3d 7efb 2b3d afd1 9c3c 1f53 713d
00000060: a086 bd3d 83d9 a93d 19de 1cbd ca15 f73c
00000070: ea9c c9bd 2a11 153d a606 10bd 62bb 8fbd
00000080: 425d bcbd 2e43 683d c26f 8b3d 63ee b4bd
00000090: 2ed4 a33d e84d 80bd 3b6f 843d bdeb 64bd
000000a0: 3bb9 7fbd 785b a43d 6b26 a9bc 5b70 aa3d
000000b0: 5601 dbbd 91c5 e5bc e646 443c 6464 aabd
000000c0: 4923 a33d 34ea 37bb b016 90bd 7896 00bc
000000d0: bbb9 2abd 30a3 d3bb f95b 8f3d 6ff5 20bd
000000e0: a936 edbc b40d c8bd 6ae7 5abd 3e52 d8bd
000000f0: 84d2 d83d c133 60bd 9ed9 1cbd 33f2 703d
00000100: e549 a6bd d9e5 61bd afe8 19bc 3551 c6bd
00000110: 5158 c9bc e7c8 bc3c fc42 3b3d 3cdb c4bd
00000120: eec6 0bbd ec06 afbd 1b15 5f3d 0900 983c
00000130: b79b 613d c39b 343d b8f0 71bd c88a 22bd
00000140: bac4 a13d 956d a9bd 2f13 223c b6ea fa3d
00000150: 138c 03bb a97b 463c a125 4a3b 4ccc d0bd
00000160: af0f bcbd efea 343d a78e 61bd 9200 1e3d
00000170: 17b7 863d 58da c8bd 2a0b cabc 20b4 643d
00000180: 28c6 6f3c 47b1 86bd d1f9 e0bd 4306 3bbb
00000190: 4bc3 c9bc 4217 d5bd 71e7 1b3d 81b8 3fbd
000001a0: 60b9 46bd 92f7 403d c227 1ebb 7ea3 4d3d
000001b0: 6202 f93c 99b8 b53d 90bc c13d 011a babd
000001c0: ba0b 6c3d 3408 a03a db5c e03d 3d46 9e39
000001d0: 11cf debc 08bb 98bd c37c 64bd 0a48 3c3d
000001e0: 1ccb 073d 640f 5cbd 4aa3 84bd 322c 353c
000001f0: 9964 cc3d 7e7f 853d 66b7 a0bc a5cc ba3c
00000200: 559d 183b 406b 943b bee3 1d3c 73c5 073e
00000210: 9bef 653c 22ad fb3c 1b8b a0bd 07ea abbc
00000220: cefd 373c 50ea 373d e512 933d b287 a7bd
00000230: a2da 81bd 23c2 42bd 4ccf c0bd b483 ba3d
00000240: 4559 903d ac03 91bd 4626 b13d 02af 3339
00000250: 1580 88bd 2b05 d83c 5e25 06bd 7130 c2bd
00000260: 0e23 c93d e6e4 383d 43d6 5abd c8d3 3fbd
00000270: de37 bd3d d120 71bd 8021 dbbb 83c5 abbd
00000280: c66d 73bd 6023 15bd ee96 083d 1c74 4d3d
00000290: 1d34 1c3d a5c6 83bd 581b 943d b6cf ec3d
000002a0: 0ec5 803c 46db 643d 5c0b 763d 131f 793c
000002b0: 9533 87bd 0762 d1bd c213 a43b ca4c 7bbd
000002c0: ece7 b5bd 6e21 babd ccee 933c 9420 f53c
000002d0: 425b 673d 3e88 a6bd 970c b6bb 0e11 993d
000002e0: ccea c53d 864d 13bb 9be3 6f3d 7945 03bd
000002f0: 54cd 9f3d 821e 1dba 9454 933d 4c82 8f3d
00000300: 7492 133b 9163 61bd e010 a43b fd64 963d
00000310: e69e 60bd 3381 8f3d baa0 e1bd 1a72 a73b
00000320: 01a8 2e3d d64f a3bd afa0 ac3d 1f33 963d
00000330: 008d 99bd 99bc 6bbd fc9d c4bc d714 b1bd
00000340: 2642 893d 2646 013d 4020 8ebb 9346 86bc
00000350: 198a 423d 1f49 8e3d 5897 4ebd 542b e1bb
00000360: f2fe 913c bfed 573d 873d 6cbd c44b a3bb
00000370: e815 89bd 1fc9 c63d 0964 c6bd 2bd9 013e
00000380: 55f8 13bd ee5d a93d dfad 413d ee04 34bd
00000390: 995e 5abd 868b 82bd 767d 353d d6d0 673d
000003a0: d665 9c3d 3e21 c13d 0359 0b3e 941f 143d
000003b0: 8ff9 af3d d08f 533d 9ad9 4c3d 5c7d 37bd
000003c0: 9186 50bd 9e92 bd3c 9dd3 65bc f9c2 2a3d
000003d0: 14cb a7bd 60ff ae3d 47bc 92bd 35f8 993a
000003e0: d92a d33d 6179 bf3d c5ff b5bc f833 993c
000003f0: 4b22 39bd 8380 023c 5c64 0cbd 07e1 8c3d
