models/heatalpha/sin/heatalpha_43.pth (torch, 977047 bytes, 51 tensors)

net.0.weight f4 [100, 3]
-0.36463147 0.2522313 0.21797101 0.0005656559 0.11250636 -0.55787843 -0.57179725 0.28128895
0.52768165 0.3305519 -0.12840676 -0.6405586 -0.26466897 0.08420379 0.36924446 0.45293465
0.79006624 0.53233486 -0.36888197 0.4141811 0.065673515 -0.02218704 -0.028734043 -0.1528214
-0.045027748 -0.50556666 0.0030515045 0.6657756 0.17865127 -0.17999761 -0.18545356 0.74442935
-0.64256793 0.6015668 -0.17937385 0.3420421 -0.03573448 0.12629876 -0.34754437 -0.1683904
0.23360893 0.12450839 -0.5636283 -0.2614927 -0.29212588 -0.2247493 -0.581421 0.47181302
0.50499064 0.05127976 0.043209087 0.6181292 0.25786403 -0.42534137 -0.10684953 -0.44752377
0.3658035 0.32145303 -0.1855992 0.6446978 0.46344885 -0.5586756 -0.6285478 -0.17568414
0.12911187 0.59100515 -0.17440082 -0.47351584 0.48987705 -0.12552473 0.46287215 -0.12581754
-0.4736299 0.15127735 -0.40249446 0.3459299 0.09171946 0.24424136 0.31224146 0.1919056
-0.38724697 -0.679766 -0.6572901 0.34327868 -0.4156136 -0.6500025 -0.33385155 0.4502131
-0.045316894 0.24255574 0.017229712 0.14774913 -0.07579963 0.2213097 -0.31252375 0.12747909
0.5978358 0.22933424 0.39936537 -0.14512956 0.18557787 0.40231967 0.24629344 -0.045325316
-0.07961285 0.4282249 0.117961094 -0.7386558 -0.5508843 0.6611536 -0.20083416 0.13914296
-0.6526757 0.04269476 0.29161343 0.6711778 0.726504 0.3210081 -0.35016552 -0.510015
0.349017 -0.19122034 -0.25664335 0.26832303 0.0056483615 0.2446918 -0.0066705775 0.29934046
-0.053812485 -0.082394935 0.41387558 0.218878 0.5791086 0.47951165 0.060712155 -0.16499667
0.6660666 -0.51927847 -0.35403445 -0.2883314 -0.7423409 0.27910483 0.10711123 0.7617442
0.000533009 0.066919185 0.31532696 0.37751555 -0.12490648 0.35060012 -0.0060515897 -0.45930058
0.23521501 0.57025826 -0.11361799 0.018896516 -0.18630956 0.37390503 -0.44887528 -0.49437734
0.2697406 -0.08115048 -0.50219387 -0.07183476 -0.07669369 -0.57467335 -0.58704555 -0.18058346
-0.15524694 -0.23331669 0.18422268 -0.18019724 -0.1724786 -0.038663354 -0.48207268 -0.19738849
-0.50384456 -0.09850961 -0.28077987 -0.57819223 0.18680382 -0.5094647 0.26309538 0.3003746
-0.09315666 0.37805507 0.609999 0.44124684 0.24646054 -0.49154645 0.40524036 -0.017804418
-0.34347317 -0.10253467 0.109856404 -0.53115505 0.42950526 -0.3703712 -0.02440384 0.2685834
-0.0905796 -0.5514734 -0.11656469 -0.3382684 0.13066255 -0.3987203 -0.08521248 0.31829616
-0.5986828 -0.06382746 -0.16924822 -0.43931922 0.23226893 0.35137293 0.1801528 0.22941534
-0.08329986 0.40668657 -0.101032175 0.7082292 -0.22257009 0.43765762 -0.51507294 0.40010527
0.23092842 0.5925477 -0.37935418 -0.85257053 -0.09355564 -0.30925333 0.6656986 -0.47554415
0.1864339 0.15446827 0.52023035 0.42086405 0.5424065 -0.2668962 -0.5732494 -0.52368253
0.41934237 0.32451278 -0.5340337 0.041987404 -0.19682352 -0.2557586 0.2989324 0.2826796
0.694804 -0.14847943 0.051787224 -0.5045548 -0.51589775 0.29898924 -0.49439597 0.39825195
00000000: fab0 babe 7624 813e cb33 5f3e 8648 143a
00000010: bc69 e63d 1fd1 0ebf 4e61 12bf 1b05 903e
00000020: 2516 073f 193e a93e 107d 03be a6fb 23bf
00000030: b182 87be 0973 ac3d 9c0d bd3e 0de7 e73e
00000040: c841 4a3f 1947 083f 19de bcbe 8c0f d43e
00000050: d67f 863d 98c1 b5bc a863 ebbc 377d 1cbe
00000060: 046f 38bd d16c 01bf c0fb 473b 4570 2a3f
00000070: 5cf0 363e 4b51 38be 8ae7 3dbe ec92 3e3f
00000080: 557f 24bf 4800 1a3f c7ad 37be 2420 af3e
00000090: 515e 12bd 7654 013e 56f1 b1be 886e 2cbe
000000a0: 2e37 6f3e 41fe fe3d f249 10bf 5fe2 85be
000000b0: 8691 95be ae24 66be 02d8 14bf 7a91 f13e
000000c0: 1147 013f ba0a 523d 03fc 303d b73d 1e3f
000000d0: c106 843e 58c6 d9be edd3 dabd d621 e5be
000000e0: 994a bb3e 7e95 a43e b70d 3ebe ea0a 253f
000000f0: 2b49 ed3e 5d05 0fbf 82e8 20bf 8be6 33be
00000100: e735 043e 1d4c 173f 2196 32be ab70 f2be
00000110: 2ad1 fa3e 8e89 00be 94fd ec3e 50d6 00be
00000120: 9e7f f2be 73e8 1a3e c113 cebe b91d b13e
00000130: 6ad7 bb3d 681a 7a3e 1dde 9f3e e782 443e
00000140: 3c45 c6be 2505 2ebf 2a44 28bf 39c2 af3e
00000150: 4ecb d4be 9066 26bf 97ee aabe 5582 e63e
00000160: 359e 39bd 8860 783e 5325 8d3c 8c4b 173e
00000170: d63c 9bbd 039f 623e 1d03 a0be e189 023e
00000180: c40b 193f 98d6 6a3e 9e79 cc3e d89c 14be
00000190: 2008 3e3e d8fc cd3e 5934 7c3e 0aa7 39bd
000001a0: 100c a3bd 4b40 db3e 9695 f13d 8c18 3dbf
000001b0: c106 0dbf 5d41 293f 78a7 4dbe 7e7b 0e3e
000001c0: c115 27bf b3e0 2e3d 5b4e 953e 4fd2 2b3f
000001d0: 2bfc 393f 2c5b a43e e548 b3be 5890 02bf
000001e0: 5bb2 b23e 44cf 43be c266 83be a361 893e
000001f0: e415 b93b 7d90 7a3e dc94 dabb 2743 993e
00000200: 7b6a 5cbd adbe a8bd 80e7 d33e 8e21 603e
00000210: 7640 143f 8d82 f53e 4fad 783d e3f4 28be
00000220: 5783 2a3f 6fef 04bf 0144 b5be 2ca0 93be
00000230: 0e0a 3ebf d4e6 8e3e 225d db3d ab01 433f
00000240: a1b9 0b3a ed0c 893d 8972 a13e b849 c13e
00000250: f8ce ffbd dc81 b33e 6a4c c6bb 7229 ebbe
00000260: 34dc 703e 72fc 113f 8cb0 e8bd decc 9a3c
00000270: efc7 3ebe 7b70 bf3e fbd2 e5be 071f fdbe
00000280: 711b 8a3e 3932 a6bd c78f 00bf 1a1e 93bd
00000290: 9511 9dbd cb1d 13bf 9e48 16bf dfea 38be
000002a0: 0ef9 1ebe 92ea 6ebe dfa4 3c3e a085 38be
000002b0: 3b9e 30be 775d 1ebd 3bd2 f6be 3520 4abe
000002c0: f5fb 00bf 68bf c9bd 61c2 8fbe 6804 14bf
000002d0: 8049 3f3e 476c 02bf 70b4 863e b3ca 993e
000002e0: ebc8 bebd 6f90 c13e e528 1c3f 1beb e13e
000002f0: 2760 7c3e faab fbbe aa7b cf3e 92da 91bc
00000300: b7db afbe b2fd d1bd 65fc e03d c7f9 07bf
00000310: 1de8 db3e 4ba1 bdbe 90ea c7bc c383 893e
00000320: cc81 b9bd 5c2d 0dbf 78b9 eebd 8431 adbe
00000330: 67cc 053e 1125 ccbe e183 aebd b7f7 a23e
00000340: 4743 19bf f9b7 82bd 684f 2dbe 73ee e0be
00000350: e8d7 6d3e 27e7 b33e fa79 383e dbeb 6a3e
00000360: 1e99 aabd 3939 d03e f5e9 cebd 824e 353f
00000370: 6ae9 63be a914 e03e d2db 03bf 99da cc3e
00000380: 8078 6c3e 35b1 173f b63a c2be 1042 5abf
00000390: 199a bfbd 7456 9ebe 396b 2a3f 867a f3be
000003a0: 87e8 3e3e ee2c 1e3e d12d 053f 7e7b d73e
000003b0: 27db 0a3f 9ea6 88be 79c0 12bf 0f10 06bf
000003c0: 0bb4 d63e 8a26 a63e 6fb6 08bf fcfa 2b3d
000003d0: 1b8c 49be cbf2 82be ab0d 993e 61bb 903e
000003e0: adde 313f fe0a 18be d71e 543d 812a 01bf
000003f0: e011 04bf 1e15 993e 7821 fdbe aee7 cb3e

net.0.bias f4 [100]
-0.5628762 -0.3124251 -0.34734297 -0.41012698 0.5202933 0.56967825 -0.034611836 -0.35507405
0.0363102 0.24134555 -0.4840105 0.20989622 0.49377143 0.51033074 -0.5297531 -0.5238632
0.5227277 -0.51635504 -0.08831913 0.056513622 -0.5408716 -0.39549115 -0.45164403 0.34507152
-0.08490548 0.4191263 0.51263 -0.8181063 -0.5899985 0.33093858 0.5561246 -0.3686505
0.10156073 -0.56856483 -0.49955833 -0.60310566 0.6431385 -0.55915695 0.51446396 -0.45632482
-0.34999245 -0.6019173 0.11672747 0.40681377 -0.32993773 -0.5567833 0.08634018 0.21462497
-0.42502365 0.030525116 -0.06779941 -0.4979305 0.1192548 -0.49679124 0.25773072 0.4408717
0.5128409 -0.3359743 0.110321835 -0.247007 -0.7173088 -0.2685174 0.4780069 0.10150028
-0.17213152 0.39659137 0.23601292 0.4736584 0.325696 0.44032747 0.3876452 -0.23109594
0.5214142 -0.48829985 -0.511173 -0.17271897 -0.24192062 -0.38290268 0.4055903 -0.62012774
0.009464171 0.5378976 -0.105540566 0.20896825 -0.3264772 -0.09792922 0.460362 -0.40193394
-0.4194627 0.06759976 -0.022741813 -0.25816727 -0.26657665 -0.3969834 0.41958988 0.50613594
-0.20972826 -0.23745647 -0.5933455 0.10114512
00000000: a818 10bf 2ff6 9fbe f0d6 b1be 2afc d1be
00000010: f131 053f 6fd6 113f 24c5 0dbd 44cc b5be
00000020: 01ba 143d 4a23 773e 39d0 f7be 09ef 563e
00000030: 9ccf fc3e 09a5 023f e69d 07bf e61b 06bf
00000040: 7cd1 053f d82f 04bf a9e0 b4bd d47a 673d
00000050: 9076 0abf d17d cabe e33d e7be 37ad b03e
00000060: ede2 adbd b997 d63e b83b 033f 6a6f 51bf
00000070: 240a 17bf c870 a93e 2f5e 0e3f c2bf bcbe
00000080: 12ff cf3d 778d 11bf 1cc6 ffbe 2265 1abf
00000090: baa4 243f e924 0fbf e9b3 033f 68a3 e9be
000000a0: 3632 b3be 4117 1abf d00e ef3d e549 d03e
000000b0: 99ed a8be 5a89 0ebf 1fd3 b03d a6c6 5b3e
000000c0: b39c d9be cf0f fa3c 6bda 8abd bff0 febe
000000d0: dc3b f43d 6c5b febe 48f5 833e efb9 e13e
000000e0: 8b49 033f d304 acbe 6af0 e13d 67ef 7cbe
000000f0: 8da1 37bf 1d7b 89be 52bd f43e 61df cf3d
00000100: 3f43 30be 060e cb3e 5fad 713e 5b83 f23e
00000110: a0c1 a63e 9a72 e13e 6f79 c63e 6aa4 6cbe
00000120: 677b 053f 7002 fabe 3cdc 02bf 3edd 30be
00000130: 0aba 77be d20b c4be 88a9 cf3e b1c0 1ebf
00000140: 9c0f 1b3c a8b3 093f a725 d8bd c6fb 553e
00000150: 0528 a7be 1d8f c8bd 91b4 eb3e 49ca cdbe
00000160: d1c3 d6be be71 8a3d 0a4d babc 802e 84be
00000170: bc7c 88be 6941 cbbe 7cd4 d63e 2092 013f
00000180: 01c3 56be ca27 73be 7ee5 17bf 2c25 cf3d

net.2.weight f4 [100, 100]
-0.057156548 -0.07683948 -0.017699465 0.0077295727 0.021852382 -0.0074063423 -0.11410741 -0.10994176
-0.0042983517 0.020993426 -0.023482624 0.0009111818 0.004794766 0.056808777 0.011428533 0.057363328
-0.052031156 -0.08486557 0.05458007 0.10114451 0.01634889 -0.03166994 0.08346154 -0.016608737
0.013490187 0.0069305208 -0.0976596 -0.06795901 -0.00085122616 -0.03719258 0.080090776 0.019979239
-0.10587754 -0.057064563 -0.043609947 0.045336105 -0.09517444 0.008923608 -0.12612887 -0.015308657
0.065546036 0.07246726 -0.045575712 0.041515116 -0.03042435 -0.03465456 -0.00077182346 0.13110445
-0.033748295 -0.041291527 0.0741074 -0.04373777 -0.059305184 0.08728585 -0.03526448 0.025822666
-0.07633325 -0.027922528 -0.056258235 -0.097095 -0.00922694 0.012281401 0.018091375 -0.04015634
0.057134528 -0.15300806 -0.085861556 0.117179245 -0.07267949 0.072853744 -0.055594075 0.029470894
0.0774814 0.06396576 -0.113102 -0.10420596 -0.008590146 -0.050201975 -0.085953034 0.014399174
0.03724219 -0.10087707 0.04975514 0.054263413 -0.10212431 -0.026903493 -0.019317046 -0.101991065
0.022967514 -0.073605 0.12637985 -0.030101936 -0.047698855 0.007127173 0.06089752 -0.0059263115
-0.06457073 0.0008433424 0.020006802 -0.07358112 -0.030424964 0.03240167 -0.10544885 -0.1196648
0.07402682 -0.06520117 -0.054861505 0.046898153 0.031620413 -0.0459376 -0.050235335 0.06799121
-0.088983834 0.07639774 -0.08929476 0.017739043 -0.04300186 0.032711368 -0.08964139 0.04373157
0.049499914 0.0030767024 -0.011850495 0.015757618 -0.08666992 0.052736267 -0.051275328 0.08546001
0.10033742 -0.028649777 0.0058912346 0.086313985 0.0333522 0.15156321 0.053462826 0.15366633
0.07530629 -0.10102564 0.08944148 0.048068 -0.0072511598 -0.09403838 -0.07894622 -0.08782775
0.088067345 0.05053084 0.11910034 -0.09675174 -0.05227508 0.06613146 -0.08751928 0.045484923
0.06694038 -0.058986787 -0.028845847 0.062115286 0.053973764 -0.08918226 -0.030370759 0.030945938
0.09673041 -0.0126471585 -0.11302385 -0.08353914 -0.026832942 0.03849055 0.091324575 -0.028551204
-0.06371189 0.061991844 -0.06321995 0.041942127 0.07392879 0.060176417 0.056000993 -0.11417301
-0.045879316 -0.031411845 -0.044638764 0.029341474 0.033016764 0.033273842 -0.043865997 0.0046887174
0.049420994 -0.11518207 -0.028449154 -0.104082175 0.051162228 -0.024688719 0.07625142 0.004012014
0.008881237 -0.003600237 0.09894089 -0.023479229 -0.06522088 -0.035767954 0.027977802 0.008543292
-0.10307109 -0.11967767 0.059206054 0.08263414 0.08421669 0.024246713 0.035089243 -0.08076505
-0.008092737 -0.021452101 -0.0031372234 0.13822553 0.046505142 0.036373436 -0.12700544 0.03162101
0.12686479 -0.009667852 0.027778374 0.07408028 -0.015915232 -0.077039115 0.022648022 -0.0031952339
0.02585001 0.071619034 0.007909434 0.011742601 -0.09190736 -0.0068500717 -0.03875801 0.046422377
0.08881307 -0.05088235 -0.049903065 -0.00996193 -0.0453267 0.10178747 -0.0031836214 0.085723676
-0.03293748 -0.00076893385 -0.0067590564 0.06613195 -0.057304382 0.064257994 -0.12499396 -0.07096379
0.0631393 -0.050948188 -0.045569453 -0.035832554 -0.0074426825 -0.033633094 0.019559065 0.059374005
00000000: fc1c 6abd 045e 9dbd 78fe 90bc 5b48 fd3b
00000010: c403 b33c e7b0 f2bb 25b1 e9bd 2529 e1bd
00000020: 30d9 8cbb 68fa ab3c a25e c0bc 60dc 6e3a
00000030: 6a1d 9d3b 52b0 683d be3e 3b3c cff5 6a3d
00000040: 9f1e 55bd 00ce adbd 5a8f 5f3d da24 cf3d
00000050: 1bee 853c 57b8 01bd e2ed aa3d 0c0f 88bc
00000060: f205 5d3c 6c19 e33b c201 c8bd 182e 8bbd
00000070: d224 5fba 3f57 18bd a206 a43d 80ab a33c
00000080: 53d6 d8bd 88bc 69bd 58a0 32bd 5ab2 393d
00000090: d1ea c2bd 5334 123c ed27 01be 29d1 7abc
000000a0: 003d 863d b769 943d 99ad 3abd c10b 2a3d
000000b0: 7d3c f9bc f1f1 0dbd 3254 4aba 3f40 063e
000000c0: a73b 0abd 4e21 29bd 9fc5 973d 6026 33bd
000000d0: fee9 72bd ecc2 b23d 7d71 10bd 0e8a d33c
000000e0: 9b54 9cbd c9bd e4bc 096f 66bd bed9 c6bd
000000f0: 972c 17bc ee37 493c 5d34 943c f97a 24bd
00000100: e505 6a3d 25ae 1cbe 2fd8 afbd acfb ef3d
00000110: fcd8 94bd 5834 953d 9db6 63bd f26c f13c
00000120: 91ae 9e3d 7b00 833d 05a2 e7bd ef69 d5bd
00000130: afbd 0cbc 96a0 4dbd 2508 b0bd 83ea 6b3c
00000140: 448b 183d a398 cebd 0ccc 4b3d 5043 5e3d
00000150: 8d26 d1bd b764 dcbc c83e 9ebc b1e0 d0bd
00000160: 5e26 bc3c 38be 96bd b869 013e 5698 f6bc
00000170: e05f 43bd 0f8b e93b ae6f 793d 8131 c2bb
00000180: a93d 84bd c013 5d3a 4ee5 a33c b3b1 96bd
00000190: c63d f9bc 9db7 043d 91f5 d7bd d212 f5bd
000001a0: 609b 973d 3188 85bd 75b6 60bd 4718 403d
000001b0: 6884 013d 1129 3cbd 91c3 4dbd fa3e 8b3d
000001c0: 283d b6bd 6b76 9c3d 2ce0 b6bd 7851 913c
000001d0: b822 30bd 5bfc 053d e895 b7bd e01f 333d
000001e0: 6cc0 4a3d 80a2 493b 9428 42bc 1f16 813c
000001f0: 0080 b1bd fc01 583d 1406 52bd a805 af3d
00000200: b57d cd3d f0b2 eabc 420b c13b 63c5 b03d
00000210: 519c 083d 6333 1b3e d6fb 5a3d b55a 1d3e
00000220: 2f3a 9a3d 88e6 cebd 182d b73d f3e2 443d
00000230: 239b edbb 3297 c0bd 8eae a1bd 09df b3bd
00000240: a75c b43d 6df9 4e3d e1ea f33d c725 c6bd
00000250: 651e 56bd ee6f 873d 4f3d b3bd 664e 3a3d
00000260: 0a18 893d 219c 71bd 204e ecbc 996c 7e3d
00000270: 9813 5d3d 30a5 b6bd 19cc f8bc 5682 fd3c
00000280: 981a c63d 0736 4fbc 0c79 e7bd 9216 abbd
00000290: c2d0 dbbc 44a8 1d3d 6108 bb3d 37e4 e9bc
000002a0: 617b 82bd 29eb 7d3d 7679 81bd 82cb 2b3d
000002b0: fa67 973d 8c7b 763d 4c61 653d 8ad3 e9bd
000002c0: f3eb 3bbd b5a9 00bd 23d7 36bd 885d f03c
000002d0: 963c 073d 274a 083d d5ac 33bd d0a3 993b
000002e0: ab6d 4a3d 94e4 ebbd 330e e9bc 0929 d5bd
000002f0: 7c8f 513d ff3f cabc b429 9c3d 3677 833b
00000300: 9c82 113c f4f1 6bbb 85a1 ca3d 8357 c0bc
00000310: 8692 85bd 6b81 12bd b431 e53c 2af9 0b3c
00000320: f016 d3bd 9119 f5bd 0c82 723d 173c a93d
00000330: cd79 ac3d 0ba1 c63c bdb9 0f3d 2668 a5bd
00000340: 6697 04bc 51bc afbc e099 4dbb fe8a 0d3e
00000350: 2d7c 3e3d 50fc 143d b70d 02be 0885 013d
00000360: d8e8 013e e965 1ebc 798f e33c 67b7 973d
00000370: a960 82bc afc6 9dbd 5888 b93c 2167 51bb
00000380: 66c3 d33c 00ad 923d 9296 013c 0a64 403c
00000390: ed39 bcbd 9176 e0bb b8c0 1ebd 6425 3e3d
000003a0: a0e3 b53d 036a 50bd 2867 4cbd 5d37 23bc
000003b0: 7da8 39bd f375 d03d 4ea4 50bb e58f af3d
000003c0: 73e9 06bd 4792 49ba 137b ddbb 3070 873d
000003d0: 00b8 6abd b299 833d d5fc ffbd 7755 91bd
000003e0: 2d4f 813d 0caf 50bd 09a7 3abd 28c5 12bd
000003f0: bfe1 f3bb dbc2 09bd 553a a03c 2832 733d

net.2.bias f4 [100]
-0.0013549522 0.030642524 0.07338853 0.10396365 0.0065777074 -0.012239496 0.07405324 -0.06346028
0.12086646 0.06567475 -0.0067664315 0.025184993 0.06913134 0.06939474 0.092370674 -0.004682371
-0.06545573 -0.09495997 0.01287001 0.056683004 -0.08982409 -0.001248842 -0.093464166 -0.00034537984
0.08320519 0.050247192 -0.09120104 -0.00275279 -0.0058970316 -0.063158505 -0.08293325 0.046429947
0.04113511 -0.09430679 0.087875426 0.024021268 0.046313584 0.09669778 0.013787161 -0.03928429
0.101860926 -0.047014773 0.07859765 0.023681438 -0.060255025 -0.08467266 0.03832072 0.016210927
0.05061497 0.08732795 0.0927237 -0.0698348 0.057317074 -0.0568182 0.07751444 0.08803754
0.14419214 -0.09808681 0.024643729 -0.0122438995 0.0635178 0.10346814 0.01684892 -0.07111754
-0.03471709 -0.016763166 0.07184905 0.049554516 -0.0743719 0.09034311 -0.022286488 0.05955057
-0.029455056 0.03730987 0.08666045 -0.08739344 0.072311126 -0.09984564 0.056544982 -0.037765797
0.054039977 0.07074696 -0.027349327 0.07869154 -0.08862209 0.0022368198 -0.010442509 -0.056767326
-0.093279906 -0.084451094 -0.07097726 -0.0038737976 -0.06970795 -0.0070906477 -0.03658082 0.08063583
0.00522434 -0.063892886 -0.021736175 0.09677544
00000000: a798 b1ba 0806 fb3c ba4c 963d e5ea d43d
00000010: cf89 d73b 2b88 48bc 3aa9 973d 77f7 81bd
00000020: d688 f73d 7c80 863d f1b8 ddbb c250 ce3c
00000030: bb94 8d3d d41e 8e3d d62c bd3d 936e 99bb
00000040: a70d 86bd 5f7a c2bd bcdc 523c 702c 683d
00000050: b1f5 b7bd 2fb0 a3ba 246a bfbd 1914 b5b9
00000060: 7c67 aa3d 00d0 4d3d 9cc7 babd 2768 34bb
00000070: e33b c1bb 3f59 81bd e8d8 a9bd 542d 3e3d
00000080: 4a7d 283d eb23 c1bd 08f8 b33d 40c8 c43c
00000090: 50b3 3d3d 7c09 c63d 8be3 613c 90e8 20bd
000000a0: 769c d03d 9092 40bd cef7 a03d 93ff c13c
000000b0: f9cd 76bd dc68 adbd 30f6 1c3d c7cc 843c
000000c0: a551 4f3d ffd8 b23d ece5 bd3d 8c05 8fbd
000000d0: 4fc5 6a3d 33ba 68bd e4bf 9e3d 074d b43d
000000e0: 1ba7 133e bde1 c8bd a5e1 c93c a39a 48bc
000000f0: 9f15 823d 1be7 d33d bf06 8a3c 13a6 91bd
00000100: 8233 0ebd e852 89bc 9825 933d adf9 4a3d
00000110: 4b50 98bd cf05 b93d 2792 b6bc 4ceb 733d
00000120: bb4b f1bc 3cd2 183d 097b b13d 55fb b2bd
00000130: db17 943d df7b ccbd b69b 673d 4fb0 1abd
00000140: 0659 5d3d c8e3 903d b20b e0bc 0829 a13d
00000150: 807f b5bd 9c97 123b 0f17 2bbc db84 68bd
00000160: 8909 bfbd b2f4 acbd 875c 91bd 8adf 7dbb
00000170: 0bc3 8ebd aa58 e8bb c5d5 15bd 6624 a53d
00000180: f130 ab3b 46da 82bd 1010 b2bc 3432 c63d

net.4.weight f4 [100, 100]
-0.011771659 -0.1622873 0.08938788 0.11307983 0.059116054 -0.04640312 0.077119395 -0.07841563
-0.07361116 0.020695006 0.10922609 0.12534145 0.12875873 -0.18976174 0.12018969 -0.12155305
-0.14577831 0.009239927 -0.14376321 -0.032539777 -0.008950785 -0.020603396 0.07099719 0.1253854
0.12337982 -0.005777808 0.037158415 0.041942555 -0.017216401 -0.038999256 0.077165514 -0.00731858
0.08540186 -0.010454543 -0.1189264 -0.060062807 -0.08966278 -0.008416899 0.23179235 -0.03608185
-0.11002278 -0.09559504 -0.0870049 -0.04291307 0.103604846 0.042056188 -0.2187426 0.0878688
-0.116712295 0.026221639 0.0065767495 0.003011603 -0.03517194 0.55450225 -0.245728 0.13033229
0.06469694 0.15144962 -0.20618196 -0.097062305 0.09382426 0.08157629 -0.06974121 -0.2660718
-0.09417854 0.21643467 0.18757366 -0.13263698 -0.24546377 -0.09430642 -0.018819142 0.23106258
-0.07413236 0.05382074 -0.03959642 0.024784883 -0.117947735 -0.18318698 -0.13195655 -0.16229768
-0.10202464 0.11761106 0.07205838 0.16487567 -0.3186871 -0.15156482 -0.09347546 0.22697294
0.074568495 -0.0718056 0.13124855 -0.09762899 -0.060392786 -0.11778151 -0.12971808 -0.019667743
0.1361802 0.07583452 -0.15700139 -0.065747395 -0.08525695 -0.08151575 -0.021239657 0.039900795
0.1507386 -0.006909976 -0.14698897 0.109189324 0.07925552 -0.06821041 -0.0330649 -0.084083505
0.027724003 0.0945458 -0.05595174 -0.05265541 -0.082550064 -0.04124647 -0.03784045 -0.030400539
0.07876408 -0.0830469 -0.096611276 -0.0121635 0.05651836 0.049102344 -0.0659127 -0.07722481
0.06775051 0.032180425 0.10902947 -0.022247296 -0.01322549 -0.0146366 -0.020490946 0.051541623
0.07472663 0.09117226 0.017472876 0.1440058 -0.07932733 -0.005349849 0.020804578 -0.043008327
-0.08791778 0.10465904 0.008463325 0.08367059 -0.0049264133 0.004595555 0.0953988 0.077141136
-0.023234954 0.18636411 -0.07516915 0.052305195 -0.17068093 -0.15181385 -0.041317727 -0.04716272
-0.04377384 -0.0355266 0.05191655 -0.0071927803 0.021872059 0.20081079 0.010073493 -0.010270748
-0.032705102 -0.09934422 -0.028995974 0.029991364 -0.11227092 -0.0044234814 -0.08558408 -0.12836422
-0.08021924 -0.10809744 -0.010743425 0.06757045 0.010938215 0.083387256 0.04951211 0.11137506
-0.01103964 -0.10525115 -0.14897497 0.13656351 -0.06048146 0.025419945 0.052753363 -0.04084277
0.032492425 -0.044917293 0.005122543 -0.124691956 0.021463318 0.06953105 0.10647071 0.027811272
-0.02894294 -0.03077543 0.0028676828 0.06698514 0.09631113 0.0013878263 0.022948192 0.036453016
0.025984123 -0.0131637165 -0.06584547 0.105677605 0.10735347 -0.10486583 -0.034546632 -0.110055424
0.015319971 0.076634444 -0.10866193 0.03941273 0.03449209 0.102282874 -0.01127668 -0.009104289
0.049832333 0.04729345 -0.06507123 -0.063382074 -0.045292854 -0.056347627 0.0296819 -0.0015929833
-0.083958074 -0.04552969 -0.08817621 0.020482512 0.002497315 0.066322125 -0.065470986 0.07920663
-0.026581483 -0.12717052 -0.038116075 0.051816363 -0.06457818 -0.08271985 -0.028723234 -0.043902077
-0.04444161 0.111127466 0.010015985 -0.080805354 0.0603406 0.12199593 -0.07760148 -0.06883076
00000000: ebdd 40bc a42e 26be fe10 b73d 6696 e73d
00000010: ad23 723d 3311 3ebd c6f0 9d3d 6098 a0bd
00000020: 73c1 96bd 9388 a93c eeb1 df3d 8259 003e
00000030: 54d9 033e e750 42be 0326 f63d cef0 f8bd
00000040: e946 15be 1063 173c aa36 13be 6e48 05bd
00000050: 50a6 12bc 74c8 a8bc fa66 913d 0865 003e
00000060: 8fae fc3d c453 bdbb 6c33 183d f5cb 2b3d
00000070: 6909 8dbc afbd 1fbd f408 9e3d b3d0 efbb
00000080: 2ce7 ae3d 8849 2bbc af8f f3bd 6b04 76bd
00000090: 1fa1 b7bd 08e7 09bc f95a 6d3e 90ca 13bd
000000a0: a053 e1bd 55c7 c3bd a02f b2bd 9ec5 2fbd
000000b0: c72e d43d 1c43 2c3d 0ffe 5fbe 8ff4 b33d
000000c0: db06 efbd c3ce d63c c681 d73b 505e 453b
000000d0: 7410 10bd dcf3 0d3f 1fa0 7bbe d475 053e
000000e0: d47f 843d 9c15 1b3e 5d21 53be 9ac8 c6bd
000000f0: ef26 c03d 7811 a73d 7bd4 8ebd 903a 88be
00000100: aee0 c0bd 0da1 5d3e 4f13 403e fdd1 07be
00000110: db5a 7bbe b923 c1bd 9a2a 9abc ab9b 6c3e
00000120: b5d2 97bd 2373 5c3d db2f 22bd ab09 cb3c
00000130: 958e f1bd 5e95 3bbe 9e1f 07be 5d31 26be
00000140: 4bf2 d0bd 11de f03d 5893 933d 2bd5 283e
00000150: f52a a3be cf33 1bbe 1070 bfbd 986b 683e
00000160: 5eb7 983d d00e 93bd 0566 063e b5f1 c7bd
00000170: 6d5e 77bd 6f37 f1bd d1d4 04be 3f1e a1bc
00000180: d372 0b3e 214f 9b3d f9c4 20be 92a6 86bd
00000190: 329b aebd bbf1 a6bd cafe adbc 046f 233d
000001a0: 385b 1a3e 146d e2bb 4784 16be a79e df3d
000001b0: b850 a23d e6b1 8bbd 106f 07bd f933 acbd
000001c0: 731d e33c 3aa1 c13d a72d 65bd 33ad 57bd
000001d0: 0210 a9bd 0ff2 28bd 96fe 1abd 8d0a f9bc
000001e0: 104f a13d 7e14 aabd 22dc c5bd 6b49 47bc
000001f0: cc7f 673d 8a1f 493d 3dfd 86bd 0b28 9ebd
00000200: c8c0 8a3d 9fcf 033d d84a df3d f63f b6bc
00000210: baaf 58bc 5ace 6fbc a1dc a7bc 4f1d 533d
00000220: 460a 993d 86b8 ba3d 4723 8f3c 4276 133e
00000230: 5e76 a2bd c94d afbb 5d6e aa3c 8029 30bd
00000240: 3d0e b4bd 7b57 d63d c2a9 0a3c 7c5b ab3d
00000250: c06d a1bb 4f96 963b 7260 c33d 2cfc 9d3d
00000260: 3b57 bebc 3cd6 3e3e 49f2 99bd f93d 563d
00000270: fbc6 2ebe 1775 1bbe c73c 29bd b22d 41bd
00000280: 334c 33bd 5784 11bd 73a6 543d 6ab1 ebbb
00000290: 082d b33c 58a1 4d3e 4b0b 253c a446 28bc
000002a0: c9f5 05bd fb74 cbbd f788 edbc 73b0 f53c
000002b0: 4cee e5bd daf2 90bb b546 afbd e971 03be
000002c0: fc49 a4bd 3162 ddbd 3105 30bc 6062 8a3d
000002d0: 3336 333c f0c6 aa3d 36cd 4a3d 9c18 e43d
000002e0: 9bdf 34bc ea8d d7bd e58c 18be 4ed7 0b3e
000002f0: 68bb 77bd 7d3d d03c e913 583d c04a 27bd
00000300: c716 053d 32fb 37bd 01db a73b 7f5e ffbd
00000310: d7d3 af3c 4c66 8e3d 510d da3d 77d4 e33c
00000320: bf19 edbc c11c fcbc bcef 3b3b 812f 893d
00000330: c53e c53d b9e7 b53a d9fd bb3c c24f 153d
00000340: a8dc d43c a1ac 57bc fdd9 86bd 806d d83d
00000350: 23dc db3d e5c3 d6bd c580 0dbd bd64 e1bd
00000360: 9e00 7b3c 85f2 9c3d 258a debd 3e6f 213d
00000370: 9447 0d3d af79 d13d d3c1 38bc 282a 15bc
00000380: fd1c 4c3d c7b6 413d 1144 85bd 76ce 81bd
00000390: 0085 39bd c5cc 66bd 7527 f33c a6cb d0ba
000003a0: 36f2 abbd 577d 3abd bb95 b4bd f1ca a73c
000003b0: fea9 233b e5d3 873d a715 86bd 1637 a23d
000003c0: 69c1 d9bc fd38 02be 9a1f 1cbd 653d 543d
000003d0: 9141 84bd 0669 a9bd fd4c ebbc aad2 33bd
000003e0: 6808 36bd cc96 e33d 161a 243c 477d a5bd
000003f0: b427 773d 01d9 f93d 86ed 9ebd 24f7 8cbd

net.4.bias f4 [100]
-0.036357097 0.0061519267 0.018485542 -0.06219249 -0.08536772 0.0824126 -0.024963444 -0.028210782
-0.030803375 0.06938088 0.089633405 0.08648712 -0.034333408 0.06106621 0.048725422 0.04231579
-0.05036839 -0.014454141 -0.05834153 0.012205466 -0.04463422 -0.08594735 -0.009110676 -0.029834088
-0.011119589 -0.09221237 -0.045408174 0.07983405 0.0393128 0.06667536 -0.044278547 0.0073603196
0.057585318 0.06705771 -0.023853889 0.06178577 -0.077095315 -0.10368269 0.0034773808 0.05126472
-0.040521935 -0.04073517 -0.026111873 0.009546678 -0.08149053 0.060484674 -0.051934395 0.0893701
-0.08141455 0.021457408 0.10172605 -0.029086279 0.003825693 -0.0790953 0.02210513 -0.121182226
-0.089910336 0.059800684 0.013447435 0.042045977 0.017911986 0.09610323 -0.031419393 -0.06953697
0.008173274 -0.029055778 -0.03089547 0.08012429 0.019875677 0.00018781416 -0.07958807 -0.10162704
-0.028681418 0.08222356 0.045860916 0.06508857 -0.06655939 0.102611475 0.06726566 -0.08247222
0.08177818 -0.027522495 -0.05410902 0.050825592 0.10115328 -0.058887497 -0.0505945 0.059303056
-0.04895915 0.0903658 -0.03132952 0.04680609 -0.04627381 -0.03650423 -0.016249679 -0.026183518
-0.038162038 -0.058626655 0.04921652 -0.07502333
00000000: 2eeb 14bd 1a96 c93b fe6e 973c 8dbd 7ebd
00000010: 45d5 aebd f0c7 a83d 2380 ccbc 4c1a e7bc
00000020: 5c57 fcbc 9017 8e3d b891 b73d 2920 b13d
00000030: 30a1 0cbd 9020 7a3d 4f94 473d 5253 2d3d
00000040: 164f 4ebd 10d1 6cbc 87f7 6ebd 6ff9 473c
00000050: 5fd2 36bd 2a05 b0bd f244 15bc 9e66 f4bc
00000060: f02e 36bc d7d9 bcbd ecfd 39bd 0980 a33d
00000070: 7506 213d 178d 883d 6c5d 35bd d62e f13b
00000080: 95de 6b3d 8d55 893d 3b69 c3bc 1313 7d3d
00000090: 26e4 9dbd 9757 d4bd c5e4 633b f4fa 513d
000000a0: 54fa 25bd ecd9 26bd 91e8 d5bc ab69 1c3c
000000b0: 82e4 a6bd c7be 773d 29b9 54bd ac07 b73d
000000c0: acbc a6bd 72c7 af3c bf55 d03d 5946 eebc
000000d0: 7ab8 7a3b b7fc a1bd d115 b53c 632e f8bd
000000e0: e922 b8bd 90f1 743d a152 5c3c 6738 2c3d
000000f0: 28bc 923c c5d1 c43d 9fb1 00bd 6669 8ebd
00000100: 32e9 053c 6206 eebc 7f18 fdbc 3418 a43d
00000110: 51d2 a23c fbef 4439 12ff a2bd d621 d0bd
00000120: 4bf5 eabc d364 a83d a8d8 3b3d 284d 853d
00000130: 4a50 88bd f725 d23d 94c2 893d 32e7 a8bd
00000140: 527b a73d db76 e1bc 6ba1 5dbd 7f2e 503d
00000150: 7329 cf3d 0434 71bd 2e3c 4fbd c3e7 723d
00000160: 6489 48bd b411 b93d 6253 00bd beb7 3f3d
00000170: 9b89 3dbd 7685 15bd 0c1e 85bc d17e d6bc
00000180: cc4f 1cbd 8122 70bd 4397 493d d5a5 99bd

net.6.weight f4 [100, 100]
0.035620205 0.023248125 0.038656913 -0.0057339994 0.0199816 -0.00938042 0.009179814 -0.06448684
0.02916654 -0.06875359 -0.012797678 -0.059482563 -0.010824366 0.057741158 0.033952896 -0.07328294
-0.060090005 -0.09349456 0.036108162 -0.018715216 0.098145954 0.023452058 -0.111921266 -0.026248654
0.0372641 0.027505169 -0.041002177 -0.01981119 -0.097595826 0.010279974 -0.08517606 -0.035418727
0.0803499 -0.07725266 0.054836698 -0.039674316 -0.038406372 0.077433676 0.06949245 -0.009261621
0.053695455 0.075990066 0.06433903 0.052646942 -0.116244964 0.014904972 0.012196493 -0.0891533
-0.06668095 -0.033243533 0.027142767 0.049190585 0.051862214 0.06885016 0.1071816 0.021631729
0.03975279 0.062216382 -0.0749473 -0.08967781 -0.006691699 -0.07914786 0.04853265 0.0197232
0.07317626 0.037154328 -0.06085221 -0.004444741 -0.06915445 0.019793384 0.023980342 0.0586969
-0.006606603 -0.07114249 -0.07986117 0.07899678 -0.05755442 0.04141394 -0.009537014 -0.08921678
0.06432039 0.02192266 -0.03698015 -0.06114055 -0.013825764 0.02889319 -0.08762261 -0.064535946
0.06294699 0.09132758 -0.05116583 -0.040814426 -0.08690247 -0.01585287 -0.06376789 -0.07707042
0.05687353 0.016563471 0.08743896 0.026590211 0.032379553 -0.06544727 0.0850886 0.02814844
0.0841841 -0.12978663 0.09085712 0.06715419 0.118793085 0.05638362 -0.10688868 -0.052348968
-0.05086842 0.043017406 -0.048843697 -0.013833228 -0.06485313 -0.041023377 -0.045921348 -0.057265513
0.06384895 0.09220278 -0.09353969 -0.005294552 -0.021446139 -0.09052857 0.08072965 -0.08815762
0.10221137 0.1286072 0.11336884 -0.051549625 0.00069324364 -0.0053252834 -0.050431106 -0.023251904
0.0038839406 0.072495215 -0.10946019 0.039534558 0.0762037 -0.005521965 0.04621082 0.012703683
0.06672238 0.036885783 -0.07659591 -0.08690885 0.058637187 -0.036315724 -0.015967272 0.06357431
0.019030215 0.08326514 0.09950854 0.10479746 -0.04817729 0.023655366 -0.015273892 0.1130986
-0.084504776 -0.039064456 0.044097714 -0.072057836 -0.061089832 -0.075899966 -0.10611677 -0.06909669
-0.023137659 0.07977563 0.0389058 0.08695073 0.0621759 -0.05555432 -0.07672487 0.040626124
-0.10327105 0.038256217 0.11134582 0.015674813 0.10122209 -0.040822834 -0.0014685725 0.06604396
0.006067011 -0.011070535 -0.04602107 0.10007349 0.030514544 0.11886752 0.07472956 -0.00020866963
0.030453524 -0.034684587 0.023315836 -0.044101868 0.07098935 0.07182338 -0.05930445 0.0075376295
0.010504335 -0.03500961 -0.09356967 -0.019394763 0.07632734 -0.048097264 -0.0823472 0.02950859
-0.010244254 -0.08277132 0.09164823 -0.013696832 0.05511961 0.028644584 -0.091306016 0.033619083
0.09046677 0.028257424 -0.03666821 -0.052649166 0.02523979 -0.04282477 -0.11771466 0.035757188
-0.032369595 -0.101619296 -0.029335992 0.061433204 -0.061480638 -0.051093705 -0.087952666 -0.10484316
-0.09071938 0.061408956 0.021385202 0.017586978 -0.01695105 -0.0028011256 0.07741391 -0.039193522
0.016801408 0.052994005 0.0657643 -0.05055831 0.07933514 0.027005568 -0.058473907 0.021101609
-0.08074769 0.041794844 0.084728606 -0.019924888 -0.07069412 0.060989983 0.08066637 -0.04277245
00000000: 7ee6 113d da72 be3c b656 1e3d 46e4 bbbb
00000010: 74b0 a33c 55b0 19bc ee66 163c ad11 84bd
00000020: abee ee3c afce 8cbd 5aad 51bc fda3 73bd
00000030: ae58 31bc fe81 6c3d 3112 0b3d 5e15 96bd
00000040: f020 76bd 137a bfbd 27e6 133d a750 99bc
00000050: bf00 c93d 881e c03c fa36 e5bd 6b07 d7bc
00000060: 3ea2 183d 8552 e13c e6f1 27bd 144b a2bc
00000070: 52e0 c7bd 566d 283c c970 aebd 3a13 11bd
00000080: 7d8e a43d a536 9ebd 729c 603d 8981 22bd
00000090: 0050 1dbd 8c95 9e3d 0f52 8e3d 0ebe 17bc
000000a0: c4ef 5b3d aea0 9b3d 2ec4 833d 52a4 573d
000000b0: d711 eebd fc33 743c cdd3 473c 0196 b6bd
000000c0: 0690 88bd 5f2a 08bd 825a de3c 117c 493d
000000d0: 796d 543d 5001 8d3d 0782 db3d 0635 b13c
000000e0: d2d3 223d 9bd6 7e3d f87d 99bd 00a9 b7bd
000000f0: 0a46 dbbb 4618 a2bd 2cca 463d 8c92 a13c
00000100: 6fdd 953d 232f 183d 2b40 79bd 31a5 91bb
00000110: d9a0 8dbd bc25 a23c 6c72 c43c 296c 703d
00000120: 347c d8bb 27b3 91bd 418e a3bd 10c9 a13d
00000130: 2fbe 6bbd aaa1 293d 2341 1cbc 4ab7 b6bd
00000140: 69ba 833d 2697 b33c 7f78 17bd 836e 7abd
00000150: 7585 62bc 69b1 ec3c 7c73 b3bd 6c2b 84bd
00000160: 5aea 803d f409 bb3d 4393 51bd 072d 27bd
00000170: ecf9 b1bd e1dd 81bc bd98 82bd 19d7 9dbd
00000180: 38f4 683d 1eb0 873c 3313 b33d b7d3 d93c
00000190: 6ca0 043d 3809 86bd ef42 ae3d 8f97 e63c
000001a0: b768 ac3d c9e6 04be 4c13 ba3d 2388 893d
000001b0: ca49 f33d 83f2 663d 74e8 dabd df6b 56bd
000001c0: 685b 50bd 0533 303d 5410 48bd c3a4 62bc
000001d0: b8d1 84bd 2108 28bd 0618 3cbd 3e8f 6abd
000001e0: 3dc3 823d d0d4 bc3d bd91 bfbd ec7d adbb
000001f0: d0af afbc 0b67 b9bd 9655 a53d fb8b b4bd
00000200: 3254 d13d 9bb1 033e ec2d e83d b325 53bd
00000210: cbba 353a b77f aebb d990 4ebd c77a bebc
00000220: b689 7e3b 5f78 943d aa2c e0bd fdee 213d
00000230: af10 9c3d 9af1 b4bb 8f47 3d3d 1c23 503c
00000240: bea5 883d 8c15 173d 51de 9cbd 44fd b1bd
00000250: 8c2d 703d ccbf 14bd cccd 82bc 3f33 823d
00000260: 41e5 9b3c ea86 aa3d 22cb cb3d 0da0 d63d
00000270: 8d55 45bd e6c8 c13c 593f 7abc 3da0 e73d
00000280: d710 adbd 0d02 20bd ce9f 343d 0f93 93bd
00000290: 5539 7abd 7171 9bbd c053 d9bd 9182 8dbd
000002a0: 308b bdbc 6861 a33d b05b 1f3d 3913 b23d
000002b0: 28ac 7e3d ed8c 63bd ee21 9dbd 9467 263d
000002c0: c67f d3bd 8db2 1c3d 4709 e43d 7768 803c
000002d0: 874d cf3d d835 27bd 1e7d c0ba 0e42 873d
000002e0: c7cd c63b 3061 35bc 9780 3cbd 54f3 cc3d
000002f0: a3f9 f93c d070 f33d d00b 993d 54ce 5ab9
00000300: ab79 f93c 6d11 0ebd da00 bf3c 29a4 34bd
00000310: dd62 913d 2318 933d 39e9 72bd 38fe f63b
00000320: 601a 2c3c 3d66 0fbd 75a1 bfbd c4e1 9ebc
00000330: 8251 9c3d a301 45bd a6a5 a8bd 00bc f13c
00000340: 84d7 27bc 0384 a9bd 11b2 bb3d ad68 60bc
00000350: 1ac5 613d 0ca8 ea3c a6fe babd 2ab4 093d
00000360: a446 b93d 1d7c e73c 6831 16bd a7a6 57bd
00000370: adc3 ce3c 0769 2fbd 6214 f1bd 2176 123d
00000380: fb95 04bd c71d d0bd 0952 f0bc 62a1 7b3d
00000390: 1fd3 7bbd a247 51bd 8720 b4bd 03b8 d6bd
000003a0: 15cb b9bd f587 7b3d 0530 af3c 9112 903c
000003b0: eedc 8abc 1793 37bb 2f8b 9e3d 6389 20bd
000003c0: 1ba3 893c 3e10 593d 6faf 863d 3b16 4fbd
000003d0: 767a a23d c83a dd3c 5682 6fbd 48dd ac3c
000003e0: 0b5f a5bd 1231 2b3d 3186 ad3d 8539 a3bc
000003f0: 14c8 90bd a2d0 793d 6934 a53d 2a32 2fbd

net.6.bias f4 [100]
-0.047684353 0.02762438 0.060033984 0.0063785156 0.028972542 -0.039884243 -0.0852303 0.028218187
-0.0117929485 0.0394682 -0.018983914 0.038999144 -0.06314396 -0.040541444 0.0433325 -0.084448196
-0.067640886 -0.020187669 -0.02738506 -0.09742104 -0.10745146 0.011617224 0.009260415 -0.017030582
0.08108644 0.008577207 -0.0663062 0.03445613 -0.06880467 -0.089596614 0.022455368 -0.14210816
-0.0046607708 -0.10282643 -0.09448531 0.023664627 0.010229455 0.00082549045 -0.09462789 0.03003477
-0.0411362 -0.061500307 -0.033835087 0.036239766 0.015566712 -0.09285592 -0.107897356 -0.08723456
-0.08303703 0.010113503 0.049638353 0.045042735 0.07459158 0.078763776 0.04566753 -0.011387396
0.055866826 -0.033002455 0.08941559 0.045831405 0.007964646 -0.031762198 -0.095859036 -0.10774859
-0.04793744 0.009961555 -0.03993226 0.068114065 -0.0543729 -0.039097793 0.06925517 0.06404835
0.033054385 0.02511388 0.0353353 0.079194486 -0.05838677 0.04957227 0.05567822 0.0811223
-0.0067232195 0.030695297 0.046573285 0.012941413 0.063279875 -0.011490064 -0.006454286 -0.0015278424
-0.042908173 0.06769601 -0.065846324 0.0010487417 -0.039742887 0.06406888 0.09401224 0.09407959
-0.028377341 -0.025653752 0.00013316207 0.041046828
00000000: ab50 43bd 864c e23c 32e6 753d de02 d13b
00000010: d357 ed3c a95d 23bd 398d aebd d429 e73c
00000020: 3637 41bc 68a9 213d 2784 9bbc 91bd 1f3d
00000030: 9f51 81bd c90e 26bd 6b7d 313d 2df3 acbd
00000040: 4e87 8abd 9c60 a5bc a256 e0bc af84 c7bd
00000050: 830f dcbd 2b56 3e3c ffb8 173c b883 8bbc
00000060: a610 a63d 6a87 0c3c 8ccb 87bd df21 0d3d
00000070: 76e9 8cbd 6e7e b7bd 52f4 b73c cd84 11be
00000080: 61b9 98bb aa96 d2bd 8481 c1bd 52dc c13c
00000090: 7299 273c ba65 583a 44cc c1bd 7a0b f63c
000000a0: 6f7e 28bd bfe7 7bbd a996 0abd 2670 143d
000000b0: 860b 7f3c 3f2b bebd 4af9 dcbd 08a8 b2bd
000000c0: 520f aabd 1bb3 253c 9651 4b3d bb7e 383d
000000d0: 78c3 983d e74e a13d e00d 3b3d 3392 3abc
000000e0: 9dd4 643d 952d 07bd 851f b73d b6b9 3b3d
000000f0: 267e 023c 1419 02bd be51 c4bd 4bab dcbd
00000100: 0d5a 44bd ca35 233c 0290 23bd 637f 8b3d
00000110: 1eb6 5ebd 0225 20bd a8d5 8d3d c82b 833d
00000120: 0964 073d a0bb cd3c bfbb 103d b830 a23d
00000130: f726 6fbd 4b0c 4b3d d80e 643d 7323 a63d
00000140: 744e dcbb b474 fb3c a1c3 3e3d 3808 543c
00000150: e198 813d d240 3cbc 7a7e d3bb e241 c8ba
00000160: 7bc0 2fbd 35a4 8a3d 70da 86bd ef75 893a
00000170: 70c9 22bd 8c36 833d 7d89 c03d cdac c03d
00000180: 9977 e8bc d127 d2bc 6ca1 0b39 b820 283d

net.8.weight f4 [100, 100]
-0.054388665 -0.10623201 -0.07861941 -0.013298754 -0.018274706 0.05375231 0.022024032 -0.07367806
-0.0930668 -0.056695968 0.08833225 -0.09855933 -0.014252888 -0.008015338 -0.041864492 0.03113947
0.011464845 0.022264589 -0.0073700203 0.07639987 0.08958619 -0.035330318 0.012493388 0.003134494
-0.047469646 -0.033995584 0.04580595 -0.026388515 0.0033512977 -0.04881767 -0.09449849 -0.099186115
-0.07141289 -0.00022000949 0.04316562 -0.008504017 0.061127342 0.04900074 0.06156892 0.05769206
0.013166969 0.069496095 0.02331886 -0.08982428 -0.018513728 -0.005819723 -0.03084089 0.10504486
0.030783454 0.027157204 -0.08249213 -0.011956281 -0.032807767 0.07899171 -0.029649844 0.07675195
-0.07938747 0.07431527 0.037686292 -0.069724634 -0.089119025 0.10188144 0.07474093 0.08755973
0.030227473 -0.007184622 0.07042811 -0.08852247 -0.03143096 -0.016721785 -0.032974448 -0.08495881
-0.026057642 0.01574301 -0.010099094 0.007400142 0.022441002 0.078344084 0.021674154 0.079719365
-0.021458123 -0.06913474 0.018810326 -0.004541273 0.044258222 -0.03459611 0.08575698 0.07954315
-0.012966176 0.0010181945 -0.004477912 -0.10132562 0.040320683 0.07257329 0.031158099 -0.050476454
-0.009182449 -0.047076833 -0.008305845 -0.03659265 0.026377108 0.033326417 -0.07443682 0.10818419
-0.018724436 0.043115452 0.050333437 -0.080927975 0.09656237 -0.074042656 0.09898968 0.07823359
-0.019349413 0.024696084 0.079429366 0.10839763 -0.06480821 -0.013421168 -0.033468846 -0.029709632
-0.027975867 -0.04133735 -0.07844122 -0.046281725 -0.09107536 0.023379397 0.08432595 -0.009276063
-0.08337974 0.07409303 -0.06688779 0.07227323 0.01103392 -0.03996289 0.08182724 -0.011773103
0.0046758098 -0.049921937 -0.0039365324 0.03169788 -0.08394102 0.11181232 0.0012437088 0.062341254
0.08325039 -0.012403497 -0.099483475 0.064610794 -0.08146837 -0.07584136 0.041069474 0.04234058
-0.09060546 0.013310563 0.06473103 0.011176338 -0.05881571 0.027820047 -0.09802391 0.10704402
0.08888961 -0.09295896 0.05871536 -0.058113128 -0.020701779 -0.109488696 -0.074096 -0.00024372821
-0.021266408 -0.008526279 0.09036358 -0.071873486 -0.022540042 -0.026135737 -0.021637522 -0.07798446
0.007051437 0.041643843 -0.0688318 0.02750203 0.063292466 -0.019280255 0.06289019 0.059547562
-0.12581792 -0.1045201 -0.03946319 0.049062513 0.032781012 -0.051546235 -0.027884703 -0.03657295
-0.06436144 0.057780623 -0.06233901 0.056946088 -0.04017511 0.013057865 0.10449736 0.0044641127
-0.054013316 0.012375366 -0.08659525 0.059945278 0.061267488 -0.09152083 0.0022439826 0.030050179
0.008016952 0.009221214 0.047761634 0.02605998 0.035783876 -0.037945457 -0.10046503 -0.036344733
0.019324204 -0.0995618 0.08258042 0.07778978 -0.072927035 -0.09027767 -0.04675512 -0.05943018
0.0806011 -0.06965226 0.09104009 0.06231408 0.06497255 0.096478224 0.016849017 0.0634173
-0.0033462192 -0.05024216 0.0719461 0.027620912 -0.058372196 -0.12433331 0.06415743 -0.03362307
-0.1056416 0.015492416 -0.022507025 0.014611254 -0.09176662 -0.045792494 -0.05509045 -0.014915471
-0.08824347 -0.035661664 -0.09859357 0.011855964 -0.06923795 -0.0848847 0.009970026 0.046867203
00000000: a6c6 5ebd 2b90 d9bd 3703 a1bd 04e3 59bc
00000010: d6b4 95bc 622b 5c3d be6b b43c 86e4 96bd
00000020: ce99 bebd 083a 68bd 8ae7 b43d 79d9 c9bd
00000030: f284 69bc c452 03bc 1a7a 2bbd 3418 ff3c
00000040: 0cd7 3b3c 3a64 b63c 3680 f1bb 8977 9c3d
00000050: f778 b73d 86b6 10bd 11b1 4c3c 156c 4d3b
00000060: 886f 42bd f43e 0bbd 059f 3b3d ba2c d8bc
00000070: 72a1 5b3b 0af5 47bd 6d88 c1bd 1722 cbbd
00000080: ec40 92bd 59b2 66b9 6fce 303d 6f54 0bbc
00000090: aa60 7a3d 00b5 483d b12f 7c3d 824e 6c3d
000000a0: 45ba 573c f853 8e3d 3207 bf3c cbf5 b7bd
000000b0: 1aaa 97bc 60b3 bebb 09a6 fcbc c221 d73d
000000c0: 952d fc3c c978 de3c a2f1 a8bd 47e4 43bc
000000d0: 7061 06bd 68c6 a13d 3be4 f2bc 2030 9d3d
000000e0: e695 a2bd 9b32 983d f15c 1a3d cacb 8ebd
000000f0: 0984 b6bd 37a7 d03d c611 993d 8452 b33d
00000100: 9b9f f73c fa6c ebbb 9d3c 903d 454b b5bd
00000110: c0bd 00bd 20fc 88bc 3710 07bd e2fe adbd
00000120: d676 d5bc 7cf7 803c ac76 25bc e47c f23b
00000130: 31d6 b73c dd72 a03d ff8d b13c e843 a33d
00000140: f2c8 afbc 8496 8dbd 1d18 9a3c f6ce 94bb
00000150: 1c48 353d a7b4 0dbd 5ba1 af3d 85e7 a23d
00000160: 1570 54bc f074 853a 73bb 92bb cf83 cfbd
00000170: 4d27 253d 4ea1 943d 453f ff3c 66c0 4ebd
00000180: fc71 16bc a3d3 40bd 3d15 08bc 2de2 15bd
00000190: ce14 d83c 4881 083d 5572 98bd ac8f dd3d
000001a0: fd63 99bc d499 303d 6f2a 4e3d 91bd a5bd
000001b0: 7ec2 c53d ada3 97bd 1abb ca3d ef38 a03d
000001c0: a982 9ebc 714f ca3c ddab a23d 94ff dd3d
000001d0: 2bba 84bd 75e4 5bbc a116 09bd 9d61 f3bc
000001e0: a52d e5bc 5a51 29bd caa5 a0bd e891 3dbd
000001f0: b885 babd 2686 bf3c 15b3 ac3d a1fa 17bc
00000200: ffc2 aabd 16be 973d 77fc 88bd fd03 943d
00000210: 9dc7 343c 21b0 23bd 0a95 a73d f9e3 40bc
00000220: 8937 993b f27a 4cbd 07fe 80bb a3d5 013d
00000230: 45e9 abbd dcfd e43d f103 a33a 8b59 7f3d
00000240: 2e7f aa3d 0938 4bbc febd cbbd aa52 843d
00000250: e4d8 a6bd b752 9bbd 7738 283d 516d 2d3d
00000260: 5b8f b9bd 8c14 5a3c b491 843d f61c 373c
00000270: bee8 70bd dee6 e33c c2c0 c8bd e539 db3d
00000280: c10b b63d 4461 bebd 847f 703d 0808 6ebd
00000290: c796 a9bc 9c3b e0bd a5bf 97bd 4b91 7fb9
000002a0: e436 aebc ceb1 0bbc 8a10 b93d 6832 93bd
000002b0: e5a5 b8bc 9d1a d6bc 2c41 b1bc 51b6 9fbd
000002c0: be0f e73b bc92 2a3d b0f7 8cbd f04b e13c
000002d0: 7b9f 813d a0f1 9dbc 92cc 803d 25e8 733d
000002e0: 6ad6 00be a20e d6bd 27a4 21bd c6f5 483d
000002f0: 6245 063d 2522 53bd 766e e4bc 85cd 15bd
00000300: eecf 83bd 60ab 6c3d 3157 7fbd 4d40 693d
00000310: a88e 24bd a8f0 553c b602 d63d b147 923b
00000320: 113d 5dbd 0cc2 4a3c da58 b1bd 2e89 753d
00000330: 9ef3 7a3d 466f bbbd c80f 133b cb2b f63c
00000340: 8959 033c 9314 173c b4a1 433d bd7b d53c
00000350: 1d92 123d b26c 1bbd 9cc0 cdbd 37de 14bd
00000360: cb4d 9e3c 0fe7 cbbd ec1f a93d 4050 9f3d
00000370: c55a 95bd 80e3 b8bd 4c82 3fbd 0f6d 73bd
00000380: 3112 a53d d8a5 8ebd 3a73 ba3d 0c3d 7f3d
00000390: 5410 853d 6096 c53d f306 8a3c eee0 813d
000003a0: 3e4c 5bbb b9ca 4dbd 7a58 933d 4045 e23c
000003b0: af17 6fbd 76a2 febd f864 833d 58b8 09bd
000003c0: a05a d8bd e7d3 7d3c a760 b8bc 0b64 6f3c
000003d0: 23f0 bbbd e990 3bbd 86a6 61bd 0560 74bc
000003e0: feb8 b4bd f711 12bd 6deb c9bd 843f 423c
000003f0: a0cc 8dbd 08d8 adbd 5259 233c d3f7 3f3d

net.8.bias f4 [100]
-0.030697543 -0.050163936 0.045993518 -0.017369881 0.024430698 0.09100373 0.031400062 0.02719506
-0.008895798 -0.05622393 0.06444253 0.040721186 0.013796322 0.0043017836 0.023857882 0.068194285
0.04726978 0.0836035 -0.013386575 0.038546387 0.0026557199 0.07299293 -0.022530396 0.048829153
-0.003563294 0.016639708 0.027193284 -0.004244218 0.07564548 -0.04249032 -0.03749952 0.053245038
0.045443114 -0.07219177 0.09567349 -0.020207442 0.076170236 -0.035145443 -0.073139384 -0.061903484
-0.009664683 0.047166962 -0.028267527 -0.030366769 -0.10006562 0.070736535 0.040473238 -0.093948975
0.035041228 0.051594976 0.036207426 -0.0014068026 -0.011456023 -0.023318516 -0.054092616 -0.024842132
-0.060486767 0.05817288 -0.061007872 -0.022758737 -0.06200284 0.06854299 -0.041589353 0.031174336
-0.09903669 -0.049296163 0.08135694 0.025657583 -0.020889737 0.07454682 0.015166866 -0.06106223
0.02894779 -0.041123845 0.10049565 -0.065060884 0.066304795 -0.032140255 -0.08834475 0.01434056
-0.07810973 0.030922715 0.029116128 -0.10686419 0.06017832 -0.011936481 -0.02157768 0.056575727
-0.055944547 -0.085602365 -0.07640612 0.048143905 -0.04289421 0.019075403 0.044880707 -0.038161464
-0.020632235 -0.033576593 -0.054797053 0.014131392
00000000: 6a79 fbbc b378 4dbd b363 3c3d 484b 8ebc
00000010: e322 c83c 2a60 ba3d 5a9d 003d 2dc8 de3c
00000020: aebf 11bc 104b 66bd 72fa 833d 42cb 263d
00000030: f809 623c faf5 8c3b 9b71 c33c 72a9 8b3d
00000040: f59d 413d 5038 ab3d 5d53 5bbc d1e2 1d3d
00000050: 960b 2e3b 517d 953d aa91 b8bc 1401 483d
00000060: 2786 69bb ff4f 883c 73c4 de3c 1513 8bbb
00000070: 04ec 9a3d 540a 2ebd 1999 19bd 7817 5a3d
00000080: 8f22 3a3d 47d9 93bd 76f0 c33d 148a a5bc
00000090: 24ff 9b3d abf4 0fbd 1aca 95bd 828e 7dbd
000000a0: 9e58 1ebc 2532 413d 4d91 e7bc bbc3 f8bc
000000b0: 34ef ccbd 51de 903d 44c7 253d 5268 c0bd
000000c0: 6487 0f3d 4155 533d 3d4e 143d 7664 b8ba
000000d0: 0bb2 3bbc 7906 bfbc 3890 5dbd ba81 cbbc
000000e0: f9c0 77bd b046 6e3d 64e3 79bd 8870 babc
000000f0: b1f6 7dbd 4460 8c3d 9959 2abd 5261 ff3c
00000100: c0d3 cabd c6ea 49bd 789e a63d da2f d23c
00000110: f420 abbc 01ac 983d 727e 783c 641c 7abd
00000120: ea23 ed3c 7a71 28bd aad0 cd3d a43e 85bd
00000130: cfca 873d 80a5 03bd 18ee b4bd abf4 6a3c
00000140: fef7 9fbd a251 fd3c f284 ee3c 9ddb dabd
00000150: 8b7d 763d 3b91 43bc adc3 b0bc f3bb 673d
00000160: 1c26 65bd 4b50 afbd d07a 9cbd 8b32 453d
00000170: d7b1 2fbd 0544 9c3c d5d4 373d 324f 1cbd
00000180: ef04 a9bc 9c87 09bd e072 60bd 5b87 673c

net.10.weight f4 [100, 100]
-0.026148774 -0.03906821 0.026962154 -0.07734401 0.014645368 0.028571421 0.0983733 -0.010122068
-0.037014958 -0.057062924 0.046272676 0.04733116 0.050348885 0.06687833 0.10056731 -0.053608395
0.05727745 -0.034895394 0.084310554 0.019250352 0.07678935 0.04198762 0.01920236 0.058963094
0.09256265 0.08299351 -0.03827956 0.03015703 -0.09837595 0.036373932 -0.03527374 -0.070198014
-0.09195063 0.056717884 0.06809071 -0.08834658 0.080042474 -0.062639855 0.06468119 -0.0559364
-0.06241085 0.08021354 -0.020622194 0.083215 -0.106959745 -0.028039929 0.011957228 -0.08326525
0.07969718 -0.0027961095 -0.07027366 -0.007918376 -0.04165578 -0.0065036677 0.07004893 -0.039294846
-0.028910011 -0.09767168 -0.053448465 -0.10559935 0.10584596 -0.05470881 -0.038303 0.058828924
-0.081131645 -0.05514383 -0.009404859 -0.09683423 -0.024529403 0.023074267 0.045798056 -0.09610555
-0.034135394 -0.08543385 0.054470334 0.018566813 0.055134982 0.04409348 -0.059084274 -0.0396909
0.078958616 -0.08272517 0.009900423 0.12252143 -0.0019915637 0.01208065 0.003087685 -0.101910345
-0.09190722 0.0442063 -0.05517962 0.038578317 0.06583932 -0.0980818 -0.02467893 0.05581966
0.0146149695 -0.06577638 -0.10986496 -0.0027674108 -0.024717571 -0.10407234 0.038035367 -0.046837848
-0.04854521 0.047199335 -0.0024219058 0.05025498 0.030401653 0.0888671 0.094619125 -0.090892315
0.057644982 0.0012232315 0.10959797 0.0003317184 -0.027245166 -0.07455466 -0.055831406 0.04590605
0.033153515 -0.053683437 -0.06472186 0.011125652 0.09981879 0.06523144 -0.019595927 0.022801975
0.0023289702 0.004489855 0.009568022 0.13260317 0.014086917 0.030817928 -0.07830382 -0.020980831
0.011291429 0.044891372 0.07179935 -0.08185116 -0.063422516 -0.04764429 -0.09410383 0.091096744
0.070503786 -0.070750564 0.08651551 0.0001799764 -0.066674545 0.026475921 -0.0326862 -0.09496021
0.09827494 0.045078214 -0.053602364 -0.0468421 0.09250184 -0.058969583 -0.0067025376 -0.08390893
-0.059381537 -0.036381096 0.03345901 0.05013628 0.038124945 -0.064352736 0.07236839 0.115716696
0.01575076 0.05585459 0.06011281 0.015216264 -0.06602971 -0.10230411 0.0051601897 -0.06133589
-0.088827156 -0.09094014 0.01809928 0.029955186 0.056518935 -0.08137164 -0.0055644833 0.07477499
0.09676304 -0.0022524693 0.05860425 -0.032131888 0.07798254 -0.00057986495 0.07197018 0.07006871
0.0022306591 -0.055038735 0.004991311 0.0734775 -0.054884505 0.07019391 -0.11027046 0.0051040947
0.042663958 -0.07972293 0.084334925 0.07340143 -0.0749345 -0.05739884 -0.024113063 -0.08640153
0.067303434 0.03147842 -0.004317988 -0.016341127 0.047527954 0.069372244 -0.050389484 -0.0068947226
0.01791004 0.052657906 -0.057670757 -0.0048506265 -0.06679175 0.09717232 -0.09677323 0.12721233
-0.035950888 0.0828522 0.047336604 -0.0439836 -0.053262748 -0.06382694 0.04404013 0.05656699
0.076473475 0.09429682 0.13615447 0.036028765 0.086052835 0.05171752 0.050000004 -0.045037296
-0.050860338 0.022979688 -0.014019153 0.041808866 -0.08223392 0.08542728 -0.071763 0.0010656128
0.10322845 0.0936622 -0.022027008 0.018581357 -0.044962607 0.0079464195 -0.03417801 0.06877274
00000000: f435 d6bc fd05 20bd bcdf dc3c 8966 9ebd
00000010: 20f3 6f3c 9d0e ea3c f177 c93d 08d7 25bc
00000020: ff9c 17bd d0ba 69bd 6b88 3d3d 52de 413d
00000030: a23a 4e3d 82f7 883d 3cf6 cd3d 7a94 5bbd
00000040: c29b 6a3d 79ee 0ebd 03ab ac3d eab2 9d3c
00000050: bc43 9d3d 36fb 2b3d 454e 9d3c 4983 713d
00000060: 7d91 bd3d 80f8 a93d 07cb 1cbd e00b f73c
00000070: 5479 c9bd d5fc 143d 327b 10bd fac3 8fbd
00000080: 9d50 bcbd 0351 683d 2473 8b3d 0def b4bd
00000090: 4fed a33d 5349 80bd 9277 843d 911d 65bd
000000a0: 85a2 7fbd ff46 a43d e0ef a8bc a06c aa3d
000000b0: b60d dbbd feb3 e5bc 40e8 433c f986 aabd
000000c0: 4638 a33d ef3e 37bb a3eb 8fbd 13bc 01bc
000000d0: 409f 2abd b81c d5bb d075 8f3d a2f3 20bd
000000e0: b0d4 ecbc 1708 c8bd c7ec 5abd 7944 d8bd
000000f0: c4c5 d83d 5816 60bd 9be3 1cbd 99f6 703d
00000100: 5928 a6bd 7fde 61bd d616 1abc 0651 c6bd
00000110: e3f1 c8bc 3f06 bd3c be96 3b3d fdd2 c4bd
00000120: 8ed1 0bbd f1f7 aebd 491c 5f3d 6e19 983c
00000130: 38d5 613d 5d9b 343d 5a02 72bd ed92 22bd
00000140: 0eb5 a13d d06b a9bd 6235 223c 84ec fa3d
00000150: e584 02bb ebed 453c c25a 4a3b 5fb6 d0bd
00000160: da39 bcbd aa11 353d 0604 62bd 4c04 1e3d
00000170: c4d6 863d 1cdf c8bd 782b cabc 28a3 643d
00000180: a073 6f3c c4b5 86bd e100 e1bd 735d 35bb
00000190: 817c cabc e123 d5bd f9ca 1b3d 0bd9 3fbd
000001a0: 58d7 46bd 1754 413d d6b8 1ebb 2ad8 4d3d
000001b0: e30c f93c f4ff b53d acc7 c13d c025 babd
000001c0: 251d 6c3d d754 a03a e774 e03d 7dea ad39
000001d0: 4131 dfbc 1db0 98bd 79af 64bd fb07 3c3d
000001e0: fbcb 073d 2ae3 5bbd e58c 84bd 5e48 363c
000001f0: cb6d cc3d 1098 853d a387 a0bc 35cb ba3c
00000200: a3a1 183b a21f 933b 31c3 1c3c 20c9 073e
00000210: d0cc 663c e175 fc3c c15d a0bd fedf abbc
00000220: b0ff 383c 04e0 373d 8a0b 933d 95a1 a7bd
00000230: aae3 81bd a926 43bd 82b9 c0bd ee90 ba3d
00000240: 4a64 903d ace5 90bd 0b2f b13d 0cb8 3c39
00000250: aa8c 88bd 08e4 d83c f7e1 05bd 807a c2bd
00000260: 5f44 c93d efa3 383d 278e 5bbd 80dd 3fbd
00000270: 9b71 bd3d 178a 71bd f6a0 dbbb 72d8 abbd
00000280: 0e3a 73bd 5804 15bd 510c 093d b35b 4d3d
00000290: e728 1c3d 5ecb 83bd e135 943d e0fc ec3d
000002a0: bd07 813c c8c7 643d da38 763d a34d 793c
000002b0: 963a 87bd d184 d1bd cf16 a93b 583b 7bbd
000002c0: 03eb b5bd d33e babd f144 943c 9464 f53c
000002d0: 6680 673d 2da6 a6bd 4556 b6bb a123 993d
000002e0: b32b c63d 2a9e 13bb 030b 703d ba9c 03bd
000002f0: 4fb5 9f3d 1402 18ba 1a65 933d 2f80 8f3d
00000300: 4030 123b 4c70 61bd 278e a33b 5f7b 963d
00000310: 93ce 60bd d3c1 8f3d 7bd5 e1bd 4040 a73b
00000320: 67c0 2e3d c745 a3bd cab7 ac3d 7d53 963d
00000330: 4277 99bd 0c1b 6bbd c288 c5bc 49f3 b0bd
00000340: 62d6 893d 84ef 003d e97d 8dbb d4dd 85bc
00000350: acac 423d 0913 8e3d 3465 4ebd 20ed e1bb
00000360: 14b8 923c d1af 573d 2c38 6cbd 01f2 9ebb
00000370: 1dca 88bd 4802 c73d 0b31 c6bd f343 023e
00000380: 3d41 13bd 6aae a93d 07e4 413d 2628 34bd
00000390: 0a2a 5abd b3b7 82bd 6c63 343d cab2 673d
000003a0: 209e 9c3d b11e c13d 146c 0b3e e692 133d
000003b0: 783c b03d c0d5 533d cecc 4c3d 0779 38bd
000003c0: ee52 50bd e63f bc3c 97b0 65bc c63f 2b3d
000003d0: 426a a8bd 7ff4 ae3d 7bf8 92bd 08ac 8b3a
000003e0: 7069 d33d f8d1 bf3d fc71 b4bc ee37 983c
000003f0: b62a 38bd b331 023c 3efe 0bbd b9d8 8c3d
