models/heatalpha/sin/heatalpha_11.pth (torch, 977047 bytes, 51 tensors)

net.0.weight f4 [100, 3]
000000 bd e2 b9 be 91 1b 86 3e 39 4a 5c 3e 72 c3 5e 3b
       -0.363058 0.26192906 0.21512689 0.0033991006
000010 7a 3c ee 3d ff 56 07 bf 65 bf 11 bf 37 50 8f 3e
       0.11632629 -0.5286712 -0.5693267 0.27990887
000020 2b ff 06 3f b4 e1 ab 3e 0d e1 f9 bd 55 8c 21 bf
       0.52733105 0.33570635 -0.12201128 -0.63104755
000030 7b ca 87 be e7 ee 86 3d 0f ae ba 3e 56 cd e5 3e
       -0.26521668 0.06588536 0.3646092 0.4488322
000040 c6 d7 4e 3f e8 24 06 3f 2e e9 bb be 52 cc d8 3e
       0.80797994 0.52400064 -0.3670134 0.42343384
000050 9e 7e 2b 3d 7d 17 a6 bc 3a 6a 45 bd 2e 4a 10 be
       0.0418688 -0.020274872 -0.04819701 -0.14090797
000060 42 d7 31 bd 80 86 02 bf f9 5d 0d 3b d5 db 24 3f
       -0.043418176 -0.5098648 0.0021570905 0.6439794
000070 1f f9 30 3e 05 53 31 be 55 c3 4b be 1f 08 42 3f
       0.17282532 -0.17316826 -0.19898732 0.7579364
000080 2f a1 25 bf ec 5e 1a 3f d8 2d 37 be f8 f7 a8 3e
       -0.6469907 0.6030109 -0.17888582 0.33001685
000090 af f4 17 bd 16 96 02 3e 3d ec af be 61 aa 29 be
       -0.037098583 0.12752566 -0.34359923 -0.165689
0000a0 06 a7 73 3e fd aa 01 3e ff cf 10 bf ca 02 87 be
       0.23794183 0.12662883 -0.56567377 -0.26369315
0000b0 1a e3 95 be 9a 68 64 be f6 57 15 bf 8f f3 f3 3e
       -0.29274827 -0.22305527 -0.5833734 0.47646758
0000c0 2c 20 01 3f bb e8 43 3d 56 f9 e2 3c 9b 99 1f 3f
       0.50439715 0.04782937 0.027706783 0.6234376
0000d0 77 07 8a 3e 11 9d d8 be 2a 66 dc bd f2 4a ef be
       0.2695882 -0.42307332 -0.10761674 -0.46736866
0000e0 e8 c0 b9 3e 03 f6 a5 3e b4 c9 49 be 00 b8 21 3f
       0.36279988 0.32414255 -0.1970585 0.63171387
0000f0 9b fa ec 3e a5 6a 0e bf 85 d8 1e bf fa f8 35 be
       0.46284947 -0.55631477 -0.6204913 -0.17770758
000100 be be 09 3e ac fd 13 3f f5 5b 39 be 70 36 f4 be
       0.13451669 0.5780895 -0.18101485 -0.47697783
000110 46 b2 fb 3e 90 2f 0b be af 90 ee 3e d9 01 06 be
       0.4915945 -0.13592362 0.4659476 -0.13086642
000120 88 ea f1 be 8f 23 23 3e 99 6a cc be df 78 ae 3e
       -0.47249246 0.15931533 -0.39925078 0.34076592
000130 35 e5 3c 3d 46 31 76 3e a6 a9 9a 3e 42 4e 55 3e
       0.046117026 0.24042234 0.30207556 0.20830634
000140 69 23 c3 be f0 ca 2a bf 28 83 2a bf ff 00 b4 3e
       -0.38112953 -0.6671591 -0.6660638 0.3515701
000150 6a 76 d4 be a5 e1 2a bf 32 38 ad be 09 c0 e1 3e
       -0.41496593 -0.66750556 -0.33831936 0.44091824
000160 47 5f 63 bd 13 67 70 3e 11 b2 7a 3c 76 24 10 3e
       -0.055510785 0.2347682 0.015301243 0.14076409
000170 f9 91 9d bd 12 5a 61 3e 32 8e a4 be 96 11 0d 3e
       -0.07693858 0.22007015 -0.32139736 0.1377624
000180 be 23 1b 3f d0 0a 6f 3e 64 a7 c9 3e f3 c3 16 be
       0.60601413 0.23343968 0.3938552 -0.14723186
000190 a1 da 41 3e 32 b5 c6 3e 63 26 79 3e 6c 32 4a bd
       0.18931057 0.38810116 0.2433105 -0.049364492
0001a0 38 09 9b bd cc 7f db 3e 35 79 ec 3d a2 63 3a bf
       -0.07570118 0.4287094 0.11546556 -0.7280828
0001b0 aa 8b 0f bf f3 ad 2d 3f 15 60 58 be 75 ff 0e 3e
       -0.56072485 0.6784355 -0.21130402 0.13964637
0001c0 bd c9 26 bf 62 16 2e 3d 36 a5 92 3e c9 25 31 3f
       -0.6515158 0.042501815 0.2864167 0.6919828
0001d0 d4 76 37 3f d7 9b a5 3e 7e c6 b3 be b9 a8 ff be
       0.7166569 0.3234546 -0.35112375 -0.49933413
0001e0 72 df b3 3e ba 86 47 be 58 f9 7f be 95 cb 88 3e
       0.35131413 -0.19484988 -0.24997461 0.2671782
0001f0 45 35 70 3b 2e 18 73 3e a6 94 dd bb 64 9a a6 3e
       0.0036652845 0.23739693 -0.006762105 0.32539666
000200 a8 e7 26 bd ab 13 ad bd 0e 6e e8 3e 22 b3 58 3e
       -0.04074827 -0.08451017 0.45396465 0.21162084
000210 7d b2 14 3f a2 73 f8 3e e4 84 65 3d 36 6a 30 be
       0.5808485 0.4852572 0.056034938 -0.17228016
000220 69 d2 2f 3f fd 8c 05 bf 36 8c b3 be 23 6f 94 be
       0.68680435 -0.52168256 -0.3506791 -0.2899104
000230 64 5a 3c bf 9c ea 91 3e 5d a9 c0 3d 5c 15 42 3f
       -0.73575425 0.28499305 0.094073035 0.7581384
000240 52 56 81 3a b9 4f 9c 3d c1 16 9e 3e 2b f2 c2 3e
       0.0009867644 0.076323934 0.30876735 0.38075384
000250 68 22 f0 bd cb 1c bb 3e 90 1c 70 bb 68 ca ee be
       -0.117253125 0.36545405 -0.0036638118 -0.466388
000260 80 78 6a 3e 81 3f 12 3f a2 99 c4 bd 78 57 3f 3c
       0.2289753 0.5712815 -0.09599616 0.011678569
000270 c5 28 41 be de ce c0 3e 09 a9 e2 be 30 e0 fe be
       -0.18863209 0.37657827 -0.4426959 -0.49780416
000280 3a 77 8c 3e 7b 72 ac bd e4 6f 00 bf bd 05 8f bd
       0.27434713 -0.08420273 -0.5017073 -0.06983516
000290 a2 d2 9b bd 5e 7d 13 bf e3 2c 1a bf 1a 6e 38 be
       -0.076085344 -0.5761317 -0.6022474 -0.1801075
0002a0 75 68 18 be 92 13 6c be 7b 99 3e 3e b5 99 36 be
       -0.14883597 -0.2305434 0.18613236 -0.17832072
0002b0 fc 48 33 be cf 79 06 bd ae ea f6 be b9 86 50 be
       -0.1750831 -0.03283101 -0.4822592 -0.20363893
0002c0 e2 dc f8 be 1b e6 e3 bd 58 f9 94 be d0 aa 0f bf
       -0.4860602 -0.111278735 -0.29096484 -0.56120014
0002d0 d4 d5 44 3e 50 79 03 bf 29 86 89 3e cf 99 99 3e
       0.19222194 -0.51356983 0.2686017 0.3000016
0002e0 64 1d b5 bd 00 d1 b9 3e 4e 20 1c 3f 83 03 e6 3e
       -0.088434964 0.36292267 0.60986793 0.44924554
0002f0 bc 10 7a 3e 52 1f fe be 2b 25 d2 3e bf 86 f1 bc
       0.24420446 -0.4963327 0.41043982 -0.029483197
000300 f0 31 ae be 5a 31 ce bd c3 4e d1 3d fd d0 07 bf
       -0.34022474 -0.10068007 0.10220101 -0.53053266
000310 ba b2 de 3e c0 01 c0 be 2f 6c d6 bc 1a b5 8c 3e
       0.43495733 -0.37501335 -0.026174633 0.2748192
000320 70 45 ae bd 7c 91 0c bf 76 9c ea bd bd 44 a6 be
       -0.08509338 -0.5490949 -0.11455624 -0.32474318
000330 ae 91 05 3e e6 76 cc be 8e e0 b8 bd 68 48 a4 3e
       0.13043854 -0.39934462 -0.090272054 0.32086492
000340 27 9e 1c bf 2e 0b 77 bd e6 a4 2b be 93 74 ea be
       -0.6117882 -0.060313396 -0.16762123 -0.45792064
000350 a5 e8 6b 3e 5c 33 b2 3e 40 4a 35 3e 33 35 64 3e
       0.23037966 0.3480481 0.17704105 0.22285919
000360 de 9e a9 bd c8 f9 d5 3e ec c4 bf bd 14 ea 32 3f
       -0.08282255 0.4179213 -0.09363732 0.69888425
000370 65 ec 5e be 86 00 d7 3e 4a 35 03 bf 45 25 d9 3e
       -0.21769865 0.41992587 -0.5125319 0.42411247
000380 21 12 63 3e e5 ee 15 3f 3d e9 c9 be cc b4 4e bf
       0.22174884 0.5856765 -0.3943576 -0.80744624
000390 83 49 ba bd f9 aa a6 be c7 21 29 3f ff 80 f1 be
       -0.090960525 -0.32552317 0.66067165 -0.4716873
0003a0 1e 1e 39 3e 11 c9 28 3e 62 95 05 3f c9 27 d9 3e
       0.18077895 0.16482951 0.52181065 0.42413166
0003b0 4c 8d 07 3f 61 01 87 be d8 73 16 bf 69 af 06 bf
       0.52949977 -0.2636824 -0.58770514 -0.52611405
0003c0 1a c3 d5 3e f5 7b af 3e 7b 06 09 bf aa 48 29 3d
       0.41750413 0.3427426 -0.53525513 0.041329063
0003d0 0f eb 58 be 48 a4 80 be 78 a2 9b 3e ba 80 96 3e
       -0.21183418 -0.25125337 0.3039739 0.29395086
0003e0 d5 bb 30 3f 47 52 14 be 7f 26 3e 3d 50 cd f6 be
       0.6903661 -0.14484511 0.04642343 -0.48203516
0003f0 aa d8 02 bf 06 5b a0 3e 61 9b f9 be fc e1 c9 3e
       -0.51111853 0.31319445 -0.48751357 0.39430225

net.0.bias f4 [100]
000000 25 9f 0f bf 0d bd 9c be 0b 7d b0 be 85 67 d1 be
       -0.5610221 -0.30612984 -0.344704 -0.40899292
000010 5a df 04 3f ec 0a 0f 3f cd a8 03 bd db 76 b3 be
       0.5190331 0.5587604 -0.032143403 -0.35051617
000020 f1 e6 2d 3d f0 b1 71 3e 1d 4f fa be 21 4b 52 3e
       0.04245657 0.23603034 -0.48888484 0.20536472
000030 68 30 fb 3e 89 03 03 3f 7d 13 08 bf 89 23 05 bf
       0.4906037 0.5117727 -0.53154737 -0.5200735
000040 f7 a0 04 3f 8f 85 02 bf de a9 af bd cb f6 54 3d
       0.5180811 -0.50985044 -0.085773215 0.051993173
000050 31 da 09 bf 1f 0a cb be 1b 17 e6 be 40 cf a9 3e
       -0.5384856 -0.3965616 -0.44939503 0.33165932
000060 db 9c 9a bd ab cb d4 3e eb cd 01 3f 07 d6 51 bf
       -0.07549449 0.41561636 0.5070483 -0.81967205
000070 b5 ce 16 bf 29 0c a3 3e d4 c5 0b 3f 0b 80 b9 be
       -0.5890916 0.31845215 0.54598737 -0.36230502
000080 fc ba d8 3d da 90 11 bf 1d 46 ff be 27 84 1a bf
       0.105825394 -0.5686165 -0.4985818 -0.603579
000090 10 ae 23 3f ce 3b 0e bf e7 1f 02 3f 85 b0 e7 be
       0.63937473 -0.55560005 0.5082993 -0.4525186
0000a0 af 95 b0 be 08 06 1a bf 9c eb e6 3d 2d bb cb 3e
       -0.344892 -0.6016545 0.11275408 0.3979124
0000b0 8a 2c a8 be a5 36 0f bf 94 e0 b0 3d ed 43 5d 3e
       -0.3284648 -0.55942756 0.08636585 0.21607943
0000c0 7c b3 d9 be 9f 39 09 3d 73 4c 81 bd c3 30 fd be
       -0.42519748 0.033502217 -0.0631341 -0.49451265
0000d0 1f 4b f7 3d 56 54 fd be 6e bd 84 3e 26 e7 e0 3e
       0.12074875 -0.49478406 0.25925773 0.43926352
0000e0 6d be 04 3f 65 55 ab be 14 20 e0 3d 48 85 82 be
       0.51853067 -0.33463588 0.109436184 -0.2549231
0000f0 64 c5 36 bf e1 c6 88 be 97 52 f5 3e 6c 88 cf 3d
       -0.71394944 -0.26714233 0.47914574 0.10133442
000100 4d 14 2c be fa d7 cc 3e 63 30 6e 3e 52 80 f3 3e
       -0.16804619 0.40008527 0.23260646 0.47558838
000110 17 c9 a7 3e d3 fd e0 3e a8 c4 c7 3e 3e a6 70 be
       0.32770607 0.43943653 0.39017224 -0.23500916
000120 2e c7 04 3f e9 71 fa be 0b 1f 01 bf 1f c3 2d be
       0.51866424 -0.48915032 -0.5043799 -0.16968964
000130 4a c7 73 be 1a 11 c1 be 09 10 cd 3e 77 26 1e bf
       -0.23806491 -0.3770836 0.40051296 -0.6177744
000140 17 a1 36 3c 23 a2 09 3f d9 f1 cd bd 9e 37 5c 3e
       0.011146805 0.53763026 -0.100558944 0.21505591
000150 88 aa a3 be a4 93 c8 bd 0c a0 ef 3e 60 b8 cd be
       -0.31966043 -0.09793785 0.46801794 -0.4017973
000160 d5 d1 d6 be bb 53 92 3d d1 9e c0 bc b2 71 84 be
       -0.41956964 0.071448766 -0.02351323 -0.25867993
000170 18 62 86 be 13 f8 c9 be a9 ed d3 3e b6 11 02 3f
       -0.26246715 -0.39447078 0.41392258 0.50808275
000180 56 dc 53 be 85 90 70 be aa 6d 16 bf 19 fe d3 3d
       -0.2068952 -0.2349263 -0.58761084 0.103512

net.2.weight f4 [100, 100]
000000 32 e4 72 bd 3e f8 a6 bd e0 fc 82 bc 04 ed 3f 3c
       -0.059299655 -0.08152817 -0.01598972 0.011714224
000010 ef 7f 9b 3c 39 10 d6 bb 25 29 ef bd ac e9 e2 bd
       0.018981902 -0.0065326956 -0.116777696 -0.110797256
000020 b5 5c 47 bc 2a 7e a7 3c 75 2e ab bc c8 53 10 3b
       -0.012168099 0.020445902 -0.020896176 0.0022022594
000030 23 9d 3c 3b 80 67 5c 3d ee 9f 53 3c be c7 7c 3d
       0.0028780184 0.053809643 0.012916548 0.061713926
000040 30 29 40 bd 34 08 ac bd dc a0 30 3d ae cc e0 3d
       -0.04691428 -0.08400002 0.043122157 0.109765396
000050 6a bf 95 3c 06 aa 0e bd f2 38 a9 3d 09 af 4d bc
       0.01827975 -0.034830116 0.082628146 -0.012553939
000060 0d f7 6e 3c 54 ec 0f 3c d5 de c0 bd f9 c9 90 bd
       0.014585269 0.008784372 -0.09417502 -0.07069773
000070 c7 6f 35 ba 31 be 15 bd eb 45 a4 3d 3f 36 d6 3c
       -0.0006921258 -0.036558334 0.08021148 0.026148913
000080 72 50 d6 bd e0 36 79 bd 73 ff 2a bd 03 6d 2e 3d
       -0.104645625 -0.06084335 -0.04174752 0.04258443
000090 bf 41 d1 bd 30 99 bb 3b fa 47 04 be c7 43 22 bc
       -0.10217618 0.0057250485 -0.12918082 -0.009903855
0000a0 99 40 8d 3d ea 1b 9a 3d 84 e5 3a bd d7 78 43 3d
       0.06897087 0.075248554 -0.04562904 0.047722664
0000b0 a4 5b 0c bd 07 19 eb bc d2 cd 28 3c 67 00 f5 3d
       -0.034267083 -0.028698457 0.010302978 0.11962967
0000c0 d5 a0 01 bd 82 da 2a bd 4e fe 82 3d 6c 00 32 bd
       -0.031647522 -0.04171229 0.06396161 -0.043457434
0000d0 a3 63 81 bd a6 da b4 3d b6 33 2a bd 6a 66 df 3c
       -0.06317832 0.088307664 -0.04155322 0.027270515
0000e0 23 31 9d bd 8f 9d f5 bc d6 2e 6b bd f8 be c6 bd
       -0.07675388 -0.029982356 -0.057417713 -0.09704393
0000f0 a5 13 7d bc 02 28 7a 3c 5f aa 56 3c 94 60 22 bd
       -0.015446578 0.015268328 0.013102143 -0.039642885
000100 a2 4c 57 3d 80 c0 19 be 77 eb b0 bd d9 ca df 3d
       0.052563317 -0.15014839 -0.08638661 0.10927362
000110 43 95 8f bd 51 d4 8f 3d f7 e9 85 bd e3 16 0a 3d
       -0.07010891 0.07022918 -0.06538766 0.033713233
000120 ff d9 a5 3d 8f 34 85 3d 2a fc e2 bd ce fd d7 bd
       0.0809822 0.065041654 -0.11083253 -0.10546456
000130 0b 8a 23 bc 00 cd 4b bd 8e dc b4 bd 53 01 97 3c
       -0.0099816425 -0.04975605 -0.0883113 0.018433249
000140 5f 84 19 3d c9 99 cb bd e9 6d 21 3d 2c 8f 4f 3d
       0.037479755 -0.099414416 0.03941146 0.05067365
000150 43 e2 cc bd 3d 89 c0 bc fd 8d d9 bc e5 29 d2 bd
       -0.100040935 -0.02350294 -0.026556963 -0.10261897
000160 17 66 e1 3c e6 fc 95 bd 3a 2e 00 3e 61 4c fc bc
       0.0275145 -0.07323627 0.12517634 -0.030798139
000170 46 d2 43 bd 89 62 0a 3b 99 35 81 3d 36 76 bb bb
       -0.047807954 0.002111586 0.06309051 -0.005720879
000180 a0 52 79 bd ec b0 7c 3b 45 fd bf 3c 54 bb 96 bd
       -0.060869813 0.0038557602 0.023436198 -0.07359949
000190 37 30 05 bd e6 2d 10 3d f0 c2 da bd 12 8f e5 bd
       -0.032516684 0.035200022 -0.106817126 -0.11208929
0001a0 af 43 89 3d 70 21 8a bd e4 7d 63 bd 2b b7 40 3d
       0.06702363 -0.06744659 -0.05553998 0.047049683
0001b0 6b 86 b1 3c b2 9d 33 bd eb 3c 6b bd a5 c2 8a 3d
       0.02167054 -0.04385156 -0.057431143 0.06775407
0001c0 d1 81 bb bd e4 93 98 3d 28 a9 b2 bd a5 f6 6b 3c
       -0.0915562 0.07450083 -0.0872367 0.014402066
0001d0 33 eb 46 bd ab a0 09 3d 59 c3 b1 bd f0 32 39 3d
       -0.048564147 0.03360049 -0.08679838 0.045214593
0001e0 ef 3a 30 3d 07 27 7d bb 7c ba 74 bc e0 de 59 3c
       0.043024953 -0.0038627998 -0.014937039 0.013297766
0001f0 46 c3 b2 bd 95 97 48 3d dd f5 66 bd 48 08 a5 3d
       -0.08728652 0.048972685 -0.056386817 0.0805822
000200 61 16 d2 3d 74 d5 fe bc 37 57 a1 3b c3 bd b6 3d
       0.10258175 -0.031107642 0.004923727 0.08922913
000210 77 66 03 3d 86 58 16 3e 34 b1 76 3d fc bf 14 3e
       0.03208014 0.14682207 0.060227588 0.14526361
000220 73 c9 96 3d 64 40 c7 bd 2f 04 a4 3d e3 51 3f 3d
       0.07362642 -0.097290784 0.080086105 0.046708953
000230 cd f0 41 bb 30 cc ae bd c7 6e a2 bd ba e3 98 bd
       -0.0029592991 -0.085350394 -0.07931285 -0.074653104
000240 a2 b9 b3 3d af a2 40 3d 65 ae fc 3d dc b8 c3 bd
       0.08775641 0.047030147 0.123379506 -0.095567435
000250 41 23 5b bd 2a 89 8b 3d 73 54 ad bd 8e 68 40 3d
       -0.053500418 0.06813271 -0.08463373 0.04697471
000260 88 ad 84 3d ed 02 78 bd b2 de d9 bc 03 b0 7f 3d
       0.06478411 -0.060549665 -0.026595447 0.062423717
000270 92 c6 60 3d 93 0e b7 bd 75 3e d5 bc b4 ca 94 3c
       0.05487687 -0.08938327 -0.026030758 0.018163063
000280 b6 65 d4 3d 7c 3e 01 bc 5b 70 e5 bd 63 b7 b3 bd
       0.10370962 -0.007888433 -0.11203071 -0.087752126
000290 fd 75 b7 bc ec 06 f1 3c ac 88 b8 3d 4e 7c df bc
       -0.022395128 0.029422246 0.09010443 -0.027280953
0002a0 7e 7a 81 bd a5 c3 6f 3d 29 d0 81 bd 33 cd 29 3d
       -0.06322192 0.05853619 -0.063385315 0.04145546
0002b0 f4 07 97 3d 1e b9 77 3d 47 c2 52 3d ab 76 d9 bd
       0.07374564 0.060479276 0.05145481 -0.10618337
0002c0 71 10 21 bd b7 41 02 bd e3 66 55 bd 1d 6f 0e 3d
       -0.03932232 -0.03180095 -0.052100074 0.034773935
0002d0 18 bb 0a 3d d6 ee 0d 3d 64 b8 30 bd 3f 2a ac 3a
       0.033869833 0.0346516 -0.0431446 0.0013135149
0002e0 29 4e 4b 3d 5c 01 e8 bd 27 ed 02 bd 67 9d ce bd
       0.049635086 -0.11328384 -0.031964447 -0.10088616
0002f0 00 93 3d 3d 8c fa f4 bc 2c 27 a4 3d 1e 59 44 3b
       0.04628277 -0.029904626 0.08015284 0.0029960345
000300 89 ab de 3b 73 10 b3 bb 57 63 ce 3d 9d d6 f6 bc
       0.006795351 -0.0054646074 0.10077541 -0.030131632
000310 84 8a 8e bd 37 1b 1a bd f5 f4 dc 3c 67 41 66 3b
       -0.069600135 -0.03762361 0.026972273 0.0035134198
000320 a9 79 c6 bd 45 c8 f0 bd 65 29 75 3d 20 54 97 3d
       -0.096911736 -0.117569484 0.05985393 0.073890924
000330 35 73 b6 3d fd 5c fd 3c 7e 7b 15 3d 4f 40 a1 bd
       0.08908693 0.03092813 0.036494724 -0.07873594
000340 9d 02 4a bc b8 66 b8 bc 93 03 85 bb ba a3 0d 3e
       -0.012329725 -0.022509918 -0.004059264 0.13831988
000350 88 d0 3b 3d ca d7 15 3d 5e d1 08 be 70 64 e3 3c
       0.045853168 0.036582746 -0.13361117 0.027757853
000360 73 bf 01 3e 74 49 75 bc 3f 69 a4 3c 75 db 92 3d
       0.12670688 -0.014971126 0.020069716 0.07170764
000370 20 ed 63 bc 3f 8e 96 bd 8b 12 6e 3c a6 1e 6f bb
       -0.0139115155 -0.0735135 0.014530788 -0.0036486774
000380 83 27 dd 3c 2a 0e 90 3d dd d9 e3 3b 15 0a ad 3b
       0.02699638 0.070339516 0.0069534616 0.005280743
000390 56 bd b8 bd 6f b0 06 bc b3 63 25 bd ee 14 3f 3d
       -0.09020488 -0.008220776 -0.040378284 0.04665082
0003a0 8f c2 be 3d dd 08 42 bd a7 0c 68 bd f6 13 d4 bb
       0.09314453 -0.047371734 -0.05665269 -0.006472106
0003b0 c9 12 2a bd fc 94 c4 3d 03 41 f0 bb 4e 9f a5 3d
       -0.04152182 0.09598729 -0.0073319688 0.080870256
0003c0 11 78 34 bd 64 9c 0a bc a5 83 f7 bb 93 c6 85 3d
       -0.044059817 -0.008460138 -0.007553535 0.06532016
0003d0 7b 66 4d bd 32 bb 74 3d af aa 02 be 1d f4 8c bd
       -0.05014656 0.059748836 -0.12760423 -0.068824984
0003e0 71 bd 7c 3d 50 c9 59 bd 6a 96 50 bd c0 e6 11 bd
       0.061704103 -0.053170502 -0.050924696 -0.03562045
0003f0 8b e6 58 bc b0 6f 0d bd 83 6e c0 3c 0e 38 5a 3d
       -0.0132385595 -0.03453034 0.023490196 0.053276114

net.2.bias f4 [100]
000000 4f ab 58 ba f9 46 f5 3c 7c 2c 92 3d 2d 3c d5 3d
       -0.0008265273 0.029941069 0.07137391 0.10411868
000010 ae d5 22 3c 02 fa 5a bc 1a 4f 9b 3d 6c e5 81 bd
       0.0099386405 -0.013365271 0.07583447 -0.06342587
000020 6a a9 ef 3d ad 27 8b 3d 6b a5 d0 bb 35 63 d1 3c
       0.11702235 0.06794677 -0.0063673756 0.02556
000030 98 9c 80 3d 7d 76 89 3d ef a1 b7 3d f5 0f ba bb
       0.06279868 0.06712053 0.08966433 -0.0056781718
000040 9e e4 71 bd 2d 23 ae bd 9b 25 09 3c 9c 33 62 3d
       -0.059055917 -0.08502803 0.008370782 0.055225
000050 16 80 bc bd b6 72 f7 39 48 07 bc bd 89 72 a5 3b
       -0.09204118 0.00047196978 -0.09181076 0.005049054
000060 c0 09 aa 3d 78 6d 43 3d e9 6b b4 bd 6e 36 47 3c
       0.08302641 0.04771182 -0.08809645 0.012158973
000070 c0 af 23 bc a8 4f 89 bd df db a8 bd a1 e0 3e 3d
       -0.0099906325 -0.06704646 -0.08245062 0.04660094
000080 ab 71 2d 3d 3d 3b b7 bd f6 d1 aa 3d 81 d4 d4 3c
       0.04234473 -0.08946846 0.08340828 0.025980236
000090 63 4c 34 3d 80 47 c4 3d 65 75 a0 3c a8 57 1f bd
       0.04401816 0.0958395 0.019587228 -0.038901955
0000a0 46 7d cc 3d 89 70 3e bd 67 de a0 3d e1 c4 a1 3c
       0.099848315 -0.04649404 0.0785492 0.0197472
0000b0 dd 47 77 bd cb 5c aa bd e3 d2 06 3d 80 6a 45 3c
       -0.06037127 -0.0831848 0.03291596 0.012049317
0000c0 69 9f 20 3d 90 48 af 3d 94 3f b7 3d 78 8d 81 bd
       0.039214525 0.08558762 0.089476734 -0.06325811
0000d0 82 5b 68 3d 81 e0 6d bd 61 9e 93 3d 4a 27 b7 3d
       0.056727894 -0.05807543 0.07207943 0.08943041
0000e0 be 40 13 3e 27 58 c9 bd 92 b6 d2 3c 71 bc 82 bc
       0.14380166 -0.09831267 0.025721822 -0.015958996
0000f0 b6 6f 8b 3d 8f 74 ce 3d b7 dc 9c 3c d4 08 9d bd
       0.068084165 0.100808255 0.019148214 -0.076676995
000100 23 12 eb bc af ba 7d bc ab ca 98 3d 4a 1c 46 3d
       -0.028695172 -0.015486403 0.07460531 0.048366822
000110 87 84 9c bd 42 d7 b4 3d 8b 66 ba bc 89 63 87 3d
       -0.07642465 0.0883012 -0.022753974 0.06610782
000120 e9 45 e9 bc 99 fc 18 3d 16 a1 b2 3d ca 8e b8 bd
       -0.028475719 0.03735027 0.08722131 -0.0901161
000130 f4 33 93 3d 00 f7 d1 bd e1 ca 44 3d 5d 04 2a bd
       0.07187644 -0.1025219 0.048045043 -0.041508067
000140 eb db 58 3d 6c 78 8b 3d 73 31 ee bc 24 b5 a5 3d
       0.052944105 0.06810078 -0.029076314 0.080911905
000150 46 cd b9 bd 07 9b c4 3a c6 72 1f bc 58 fb 6a bd
       -0.09072356 0.0014999815 -0.009731954 -0.057368606
000160 e2 cd c2 bd 16 09 ae bd 2f cd 89 bd 7f f3 ca bb
       -0.09511925 -0.08497827 -0.06728589 -0.006193578
000170 49 c1 98 bd f4 33 b4 bb 09 33 19 bd f1 f9 aa 3d
       -0.07458741 -0.0054993574 -0.037402187 0.08348454
000180 55 dd b1 3a 3f eb 84 bd 19 b5 c6 bc c5 6f b9 3d
       0.001356999 -0.06490182 -0.024256276 0.090545215

net.4.weight f4 [100, 100]
000000 23 81 50 bc ab 14 25 be 39 4f ba 3d 3b 1c e9 3d
       -0.012726101 -0.16121165 0.09097142 0.11382338
000010 cf ad 75 3d 00 b6 0b bd de 16 a4 3d 01 22 a6 bd
       0.05998021 -0.034109116 0.08012174 -0.081119545
000020 4c 8b 94 bd 89 e2 c2 3c e9 94 d8 3d 26 47 fe 3d
       -0.07253131 0.023789661 0.10575277 0.12415914
000030 83 d6 cf 3d 42 da 23 be c3 bb f4 3d 0a e2 d9 bd
       0.10148337 -0.16001227 0.11949875 -0.10638817
000040 fe 1c 17 be 8e d5 59 bb df db 12 be 10 01 05 bd
       -0.14757153 -0.003323886 -0.14341687 -0.032471716
000050 b3 98 dc bb 00 f6 f7 bc be 36 a7 3d c6 8f ea 3d
       -0.0067320704 -0.03026867 0.08164738 0.11453204
000060 5f 10 de 3d 6c fc e0 3c 79 39 bd 3c 08 84 19 3d
       0.10842966 0.027464114 0.023098694 0.03747943
000070 e7 84 40 bc 24 0c 34 bd e8 3f ab 3d 0a 97 6d bc
       -0.011750436 -0.04395689 0.083617985 -0.014501343
000080 6a 2b b3 3d 13 fe 99 bc b8 e6 dc bd 4f 1b 4b bd
       0.08748515 -0.01879791 -0.107861936 -0.04958659
000090 d9 69 bd bd 5c de c0 bb ac 86 52 3e fb 36 1a bd
       -0.092487045 -0.0058858823 0.20559186 -0.03765009
0000a0 dc a7 bc bd cb dc a2 bd fd 4e bb bd c3 d6 2b bd
       -0.09211704 -0.07952269 -0.09145925 -0.04195286
0000b0 68 0a cd 3d 84 8b 15 3d 0e 7b 54 be 96 45 c1 3d
       0.100117505 0.036510006 -0.20750067 0.094371006
0000c0 6b c6 c8 bd da ac b4 3c 6a 4a 77 3c b6 a2 81 ba
       -0.0980347 0.022055078 0.015093425 -0.0009890411
0000d0 4f 5e 3e bd 52 69 02 3f 20 23 63 be 64 d8 00 3e
       -0.04647666 0.50941956 -0.22181368 0.12582546
0000e0 80 48 97 3d 8b 7a 15 3e fc 18 56 be 7c d3 92 bd
       0.07386875 0.14597528 -0.20907968 -0.07169244
0000f0 4a bc bc 3d a6 76 98 3d 05 44 8d bd 5b bf 80 be
       0.09215601 0.074445054 -0.06897739 -0.25145993
000100 99 5d b4 bd 37 1c 4b 3e e2 53 3a 3e e4 20 05 be
       -0.08806915 0.19834982 0.18196061 -0.13000828
000110 23 60 6e be a8 0e c7 bd a4 fc a5 bc 2c 4b 68 3e
       -0.23278861 -0.09719592 -0.02026207 0.22684926
000120 6c 74 9e bd e2 2b 6f 3d 6c 03 30 bd 3b c5 71 3c
       -0.077370495 0.05839146 -0.042972013 0.014756496
000130 fb fa fc bd fe dd 35 be 0b 31 e3 bd a2 f4 15 be
       -0.12352558 -0.17760465 -0.110933386 -0.14644101
000140 ec 2f be bd 86 27 d2 3d 47 94 a9 3d 36 bf 18 3e
       -0.09286484 0.10261445 0.08280235 0.14916691
000150 3a 44 a4 be 03 a7 15 be a5 5d c1 bd 18 eb 5e 3e
       -0.32083303 -0.14614491 -0.094416894 0.21769369
000160 a1 ba a2 3d 47 ff b2 bd 93 4e f3 3d a2 b8 e4 bd
       0.07945753 -0.087400965 0.11880221 -0.111680284
000170 14 c2 90 bd 43 3b e1 bd 79 c6 f5 bd 63 fd 48 bc
       -0.070682675 -0.109976314 -0.12000746 -0.012267443
000180 5c 1a fb 3d d2 d0 98 3d d6 f1 27 be e2 ed 65 bd
       0.12260887 0.07461704 -0.16400847 -0.056135066
000190 16 98 bf bd fd a9 95 bd cc c1 9b bc f2 93 3b 3d
       -0.0935518 -0.07307813 -0.019013308 0.04579539
0001a0 18 50 10 3e ab 2a 47 bc e4 34 12 be 4b ed dc 3d
       0.14093053 -0.012156169 -0.14277989 0.107874475
0001b0 f9 bb b3 3d 5d 1e 97 bd fd 32 0e bd ac 0b a5 bd
       0.08776087 -0.07378838 -0.034716595 -0.08058867
0001c0 b7 97 c7 3c 00 9c c0 3d bd c3 72 bd 2f fc 4d bd
       0.024364335 0.09404755 -0.0592687 -0.05028933
0001d0 4c f4 aa bd 62 c3 2a bd ea e5 27 bd 9a 8f f5 bc
       -0.08347377 -0.041690238 -0.040990748 -0.029975701
0001e0 ba 93 9d 3d 18 e0 a8 bd 3d 8c be bd fd c2 33 bc
       0.07694192 -0.082458675 -0.09304092 -0.010971782
0001f0 f6 0a 54 3d 14 5b 56 3d 29 25 82 bd 30 8f 98 bd
       0.051768266 0.052332953 -0.06354744 -0.07449186
000200 aa 07 8c 3d db ff 01 3d b8 32 dc 3d 31 11 d1 bc
       0.06837399 0.031738143 0.10751861 -0.025520893
000210 22 2a 9a bc 62 71 54 bc 7a 36 0b bd bd b5 5a 3d
       -0.018818919 -0.012966486 -0.0339875 0.053395975
000220 c6 6e a5 3d aa c7 be 3d 56 08 85 3c 53 0f 13 3e
       0.08077769 0.09315427 0.016239326 0.14361314
000230 9b a0 85 bd 88 71 01 3b d0 cb 83 3c ce c3 33 bd
       -0.06524774 0.0019751508 0.016088396 -0.043887906
000240 4e e0 b7 bd 5b 26 d2 3d b5 c4 ff 3b 1f 8e a5 3d
       -0.089783296 0.10261222 0.0078054317 0.08083748
000250 4c 6c 98 bc 1c 8f 27 3c f4 f0 c2 3d 14 6c af 3d
       -0.018606327 0.010226991 0.095186144 0.08565536
000260 12 ca 5c bc b4 d6 38 3e e4 54 8d bd f5 42 3d 3d
       -0.013475912 0.18050653 -0.06900957 0.046206433
000270 36 39 28 be c5 2a 1d be af 53 19 bd 7c c6 46 bd
       -0.16428074 -0.15348347 -0.037433323 -0.048529133
000280 40 f9 3c bd 46 fe 03 bd 9e 63 65 3d c1 cc e7 bb
       -0.04613614 -0.032224916 0.056003205 -0.007073969
000290 71 33 8e 3c f4 fe 47 3e 2a 3b 0d 3c 9a 7c 1e bc
       0.017358514 0.1953085 0.008620063 -0.009673262
0002a0 90 d5 a2 bc ef 39 c6 bd 8c c3 bd bc 97 1c 01 3d
       -0.019877225 -0.09679019 -0.023164533 0.031521406
0002b0 f8 82 e6 bd 94 60 9b 3a 39 8a b1 bd bf 8b 02 be
       -0.11255449 0.0011854344 -0.08668942 -0.12748621
0002c0 11 20 91 bd dc 72 db bd 50 26 42 bc 05 bf 80 3d
       -0.07086194 -0.10715267 -0.011849955 0.06286434
0002d0 1f 21 46 3c 7f 11 ac 3d 22 c4 44 3d af 67 de 3d
       0.012092858 0.084017746 0.04803861 0.1085962
0002e0 08 7d 65 bb fe 1b ca bd da c1 16 be 3e 15 01 3e
       -0.0035017151 -0.0986862 -0.14722386 0.1260576
0002f0 15 24 78 bd 8d fb 07 3d f2 7d 35 3d 92 3b 28 bd
       -0.060581286 0.033198882 0.044309564 -0.041072436
000300 45 5e 00 3d 84 74 2a bd 75 52 2d bc 21 f4 fd bd
       0.031339902 -0.041615024 -0.010578741 -0.124000795
000310 d7 0d 99 3c 2e bf 84 3d 98 13 d5 3d 94 3a d1 3c
       0.018683357 0.06481777 0.10404128 0.025540628
000320 06 24 b4 bc 85 70 1d bd 7a ab 00 3c aa 62 92 3d
       -0.021989834 -0.038437385 0.007853383 0.07147725
000330 8f a5 b3 3d ac 0c 79 3b 17 bc e0 3c c2 9f 04 3d
       0.08771812 0.0038001938 0.027433438 0.03237892
000340 62 0e c3 3c a2 31 c8 bb 87 78 7c bd 1c 87 d4 3d
       0.02381057 -0.0061094323 -0.06163838 0.103773326
000350 df 91 b4 3d 09 e0 db bd 76 d8 1e bd 86 8f da bd
       0.08816885 -0.10736091 -0.038780652 -0.10671906
000360 44 13 24 3c 19 26 86 3d 08 b4 cc bd 6b 88 26 3d
       0.010014359 0.06550235 -0.09995276 0.040657442
000370 20 8f cc 3c 01 07 d0 3d 02 67 2a bc 55 a4 6b bc
       0.024970591 0.10157586 -0.010400536 -0.0143824415
000380 c7 cb 4a 3d 5e f6 47 3d 68 f2 88 bd 0d 42 8d bd
       0.049510743 0.04881894 -0.0668686 -0.06897364
000390 59 85 44 bd fd f3 69 bd f7 24 22 3d 1b ae e2 bb
       -0.047978733 -0.05711745 0.039586034 -0.0069177276
0003a0 81 91 ad bd 72 5a 41 bd 4c 97 a0 bd 8e 1b c6 3c
       -0.08475018 -0.047205396 -0.078413576 0.024183061
0003b0 1e 2c ca 3a ec b9 9e 3d 1f d8 86 bd 45 57 9e 3d
       0.0015424525 0.077503055 -0.065841906 0.07731489
0003c0 ed 66 06 bd 1b 46 f0 bd b6 f3 f8 bc 7a d4 6a 3d
       -0.032813 -0.117321216 -0.030389648 0.05733154
0003d0 71 89 87 bd 23 3e ab bd 64 ed f9 bc 0e 7e 29 bd
       -0.06618012 -0.08361461 -0.030508704 -0.04137998
0003e0 a0 01 25 bd 50 78 de 3d a7 e5 84 3c 92 1c a5 bd
       -0.040284753 0.108627915 0.016222788 -0.0806209
0003f0 c6 78 6e 3d 93 2d d4 3d 3a 62 93 bd 46 90 92 bd
       0.058220647 0.10360255 -0.071964696 -0.07156424

net.4.bias f4 [100]
000000 70 49 bc bc b0 ca 6e 3b e0 77 b7 3c 7d 1e 84 bd
       -0.022984236 0.003643673 0.022396028 -0.06451128
000010 c4 fb ae bd 38 4a a4 3d 47 e5 db bc f8 bb df bc
       -0.08544114 0.080219686 -0.026842726 -0.02731131
000020 c8 1e c8 bc 96 01 8f 3d 87 eb b7 3d 68 30 ad 3d
       -0.02442874 0.06982724 0.0898047 0.084564984
000030 74 7e 03 bd f6 5f 73 3d 0f 8b 44 3d 79 bf 27 3d
       -0.032103017 0.059417687 0.04798418 0.040954087
000040 e1 02 4d bd 6d 88 46 bc a4 92 79 bd 27 7b 6c 3b
       -0.050051574 -0.012117487 -0.060930863 0.0036084147
000050 d2 ff 34 bd f5 2e ae bd f6 b4 00 bc 59 db 02 bd
       -0.04418928 -0.0850505 -0.007855644 -0.031947467
000060 39 26 c0 bb 1f 84 c1 bd f4 bf 4d bd 1d 76 9b 3d
       -0.0058639315 -0.09449028 -0.05023189 0.07590888
000070 27 13 19 3d de 12 89 3d 7c 02 2f bd 8d ff 0e 3c
       0.03737178 0.06693052 -0.04272698 0.00872792
000080 6d 16 77 3d 20 be 78 3d 4d d3 bb bc 1c 58 4b 3d
       0.06032412 0.060728192 -0.022927905 0.049644575
000090 fd 19 96 bd e5 b2 c5 bd da 9e c9 3b 34 2b 67 3d
       -0.073291756 -0.09653262 0.00615297 0.056437686
0000a0 37 a0 1c bd 38 1d 26 bd 44 e7 d0 bc 78 b3 56 3c
       -0.03823873 -0.04055521 -0.025500901 0.013104312
0000b0 e0 7e a9 bd 86 6b 6e 3d e7 3d 56 bd 98 ae c0 3d
       -0.082761526 0.05820801 -0.05230513 0.09408301
0000c0 f3 7c 9e bd 4b 74 a9 3c 13 0d cb 3d af 43 ff bc
       -0.07738676 0.020685336 0.09914603 -0.031160204
0000d0 81 cc 82 3b 57 ac a0 bd cb 33 e5 3c e1 4a d7 bd
       0.003991664 -0.07845371 0.027978798 -0.10512329
0000e0 62 9d ab bd dd 36 72 3d 66 c8 82 3c 0f 45 21 3d
       -0.08379628 0.059134353 0.015964698 0.0393725
0000f0 f7 a3 9c 3c 29 1e c7 3d 30 c8 fc bc d6 dc 8d bd
       0.019121153 0.097225495 -0.030857176 -0.06926887
000100 64 31 87 3c 63 ee d4 bc 6a e6 fb bc e2 d9 a6 3d
       0.016503043 -0.025992578 -0.030749518 0.081470266
000110 9b 3b 7b 3c 0b 1f 76 3b 8e 2a 9e bd 45 dd cd bd
       0.015334035 0.0037555124 -0.077229604 -0.100519694
000120 79 27 0d bd a1 3d a7 3d 83 c6 34 3d 77 18 86 3d
       -0.034461472 0.08166052 0.044134628 0.06547635
000130 4f 3e 8b bd 87 28 cb 3d 4e c4 89 3d 30 6a aa bd
       -0.06798994 0.09919839 0.06726895 -0.08321035
000140 8f 87 a9 3d 09 45 ef bc 39 f5 5d bd 01 4d 48 3d
       0.08277809 -0.029207723 -0.05418894 0.04890156
000150 77 8e bb 3d 05 ac 6a bd 7b f8 51 bd b1 25 66 3d
       0.091580324 -0.057292957 -0.05126236 0.05618829
000160 2f b8 50 bd d5 66 b1 3d c8 3c 03 bd 4a 2a 35 3d
       -0.0509569 0.08662192 -0.032040387 0.044229783
000170 ef 8d 42 bd 1c ce 14 bd f5 b8 79 3b 51 89 f3 bc
       -0.04749864 -0.036329374 0.0038104628 -0.029728564
000180 ff 6c 1d bd bb 24 66 bd 52 5a 3e 3d 0f 78 99 bd
       -0.038434025 -0.056187373 0.046472855 -0.074936025

net.6.weight f4 [100, 100]
000000 c1 ed 85 3d 1d 19 c8 3c 41 3d 34 3d 74 6d db bb
       0.065394886 0.024426037 0.04400373 -0.0066963974
000010 89 33 bf 3c 30 e3 82 ba 5c cf d9 3b 51 c3 6a bd
       0.023340004 -0.000998592 0.0066470336 -0.057315174
000020 e5 78 ea 3c 57 f3 77 bd 8a e5 1c bc 39 4b 76 bd
       0.0286221 -0.0605348 -0.009576211 -0.06013033
000030 e6 08 23 bc ce 63 6b 3d 74 d2 15 3d 6e 08 8f bd
       -0.009950852 0.057468228 0.036577657 -0.0698403
000040 d3 5a 68 bd f6 ef be bd 1c 4b 0c 3d 4b cc b5 bc
       -0.05672724 -0.09323113 0.034251317 -0.022192141
000050 c4 5d c1 3d fd 3e c1 3c 95 39 cc bd d5 aa d5 bc
       0.094417125 0.023589605 -0.099719204 -0.026082436
000060 b4 7b a3 3c ca 03 ea 3c ae 7c 1b bd 96 30 8f bc
       0.019956447 0.02856626 -0.0379607 -0.017479222
000070 55 fd c6 bd 13 37 17 3c 9a 30 b9 bd 8f d1 16 bd
       -0.09716288 0.009229439 -0.09042473 -0.036820944
000080 40 1d 9c 3d e2 62 90 bd 00 e8 5a 3d fc e9 29 bd
       0.076227665 -0.070501104 0.05344391 -0.04148291
000090 ef 4d 1e bd 97 74 a4 3d c8 fa 97 3d 3e 67 74 bc
       -0.038648542 0.0803005 0.074208796 -0.014917193
0000a0 47 72 52 3d 17 d9 97 3d b7 93 7f 3d 80 0f 63 3d
       0.051378515 0.074144535 0.06239673 0.055434704
0000b0 8b 1b dd bd 2d 41 2c 3c 86 b6 42 3c 09 6d b8 bd
       -0.10796269 0.010513586 0.011884337 -0.09005172
0000c0 d6 95 8a bd f1 3b 08 bd 58 3f cf 3c e9 a0 38 3d
       -0.0676686 -0.03326029 0.02529876 0.04507533
0000d0 72 44 62 3d 74 36 87 3d ec 21 d4 3d fd 2a be 3c
       0.055241056 0.06602183 0.103580326 0.023213858
0000e0 e8 8f 11 3d f9 fa 7e 3d a9 50 8a bd e6 35 b7 bd
       0.03553763 0.062251065 -0.06753666 -0.08945827
0000f0 7a cc 02 bc e4 59 9f bd fe 9c 44 3d 46 4d ba 3c
       -0.007983321 -0.07780817 0.048001282 0.022741925
000100 1d f0 92 3d 73 f3 06 3d 71 b0 62 bd b8 86 c1 bb
       0.07174704 0.032947015 -0.05534405 -0.0059059523
000110 cf 20 9e bd c1 bf 82 3c f0 ae ad 3c 36 55 46 3d
       -0.077211015 0.015960576 0.02120158 0.048421107
000120 f1 d0 d0 bb 59 8e 90 bd 3c 3b 92 bd a9 b2 9d 3d
       -0.006372564 -0.07058401 -0.07140204 0.07700092
000130 29 c9 6e bd 7b b3 37 3d 44 39 e3 bb eb 7b b3 bd
       -0.05829731 0.0448489 -0.006934317 -0.0876387
000140 1c 43 83 3d 77 b2 e4 3c 44 09 10 bd e4 cf 77 bd
       0.064092845 0.02791713 -0.035165086 -0.060500994
000150 ee a3 68 bc af ac db 3c 2d f1 b3 bd 0d c1 72 bd
       -0.01419924 0.02681574 -0.08786235 -0.05926614
000160 ad d3 85 3d a7 29 c0 3d a3 ab 49 bd 91 a8 36 bd
       0.065345146 0.093829446 -0.04923595 -0.04459435
000170 e2 09 b5 bd a2 c4 8c bc fa e9 6b bd 59 53 98 bd
       -0.088397756 -0.017183606 -0.057596184 -0.07437772
000180 f4 72 66 3d fc ed 73 3c a1 80 c0 3d 6e 27 cb 3c
       0.05626197 0.014888283 0.09399534 0.024799075
000190 77 f2 f9 3c 6e 8c 82 bd 1f 16 a9 3d 1a c9 f3 3c
       0.030511124 -0.06374441 0.082561724 0.029758979
0001a0 b4 0d b1 3d 2f 2a fc bd 60 0f ba 3d d7 01 83 3d
       0.08645192 -0.123127334 0.09084964 0.06396835
0001b0 65 80 ef 3d d8 a1 69 3d ae 60 d6 bd 8f bc 5c bd
       0.11694411 0.05703911 -0.10467659 -0.05389076
0001c0 90 f5 4b bd a8 66 31 3d e0 2e 48 bd 62 b3 7c bc
       -0.049794734 0.04331079 -0.04887283 -0.015423628
0001d0 4a 2d 8a bd a4 3f 22 bd a7 20 36 bd 69 1c 6e bd
       -0.067469195 -0.039611474 -0.044464733 -0.058132563
0001e0 9f e1 78 3d 52 d1 bc 3d 42 a8 ba bd 0c 2c bc bb
       0.060762044 0.09219612 -0.09114124 -0.0057425555
0001f0 7e f3 9c bc 5d 21 b9 bd ae fc a7 3d 21 7c b3 bd
       -0.019159075 -0.09039567 0.08202492 -0.0876391
000200 6e 03 d1 3d 72 4a 02 3e 7b 54 e5 3d f3 e6 4c bd
       0.10205732 0.12723711 0.11197754 -0.050024938
000210 6e 80 6b 3b 89 65 ba bb 68 27 47 bd 08 89 d5 bc
       0.0035934704 -0.0056883735 -0.048621565 -0.026066318
000220 f4 f2 42 3b 09 7f 92 3d d8 c5 e1 bd 5d 7f 23 3d
       0.0029746862 0.07153136 -0.11024064 0.039916385
000230 70 4a 97 3d 79 ab d7 bb 84 9b 45 3d 88 bd 56 3c
       0.07387245 -0.0065817204 0.048244014 0.013106711
000240 9f b6 84 3d 1c e4 1b 3d 81 14 99 bd 4b 94 b2 bd
       0.06480145 0.03805934 -0.07474614 -0.08719691
000250 03 d7 6f 3d ed d2 0b bd 2b 2c 87 bc 6a c7 85 3d
       0.05855466 -0.0341367 -0.016500553 0.06532176
000260 90 f3 95 3c 3f 25 a7 3d c2 f2 ca 3d a9 3e d5 3d
       0.018304616 0.08161401 0.09909584 0.10412342
000270 8d ff 3a bd a1 54 b2 3c 1c 8d 93 bc 10 4b e7 3d
       -0.04565387 0.02176887 -0.018011622 0.11293614
000280 5c fe a9 bd 01 33 1f bd 19 f8 36 3d 6c fa 8e bd
       -0.08300468 -0.038867 0.044670198 -0.06981358
000290 57 14 79 bd 1c 38 98 bd 35 53 cf bd 92 27 8d bd
       -0.060810413 -0.07432577 -0.10123292 -0.06892313
0002a0 ff ca bc bc 75 53 a1 3d fe 2e 1f 3d 1a 65 af 3d
       -0.023046015 0.07877246 0.038863175 0.085642055
0002b0 32 50 71 3d 7c ae 5e bd 85 65 94 bd a8 61 2e 3d
       0.05891437 -0.05436562 -0.07245926 0.0425736
0002c0 18 5b d2 bd 81 11 1f 3d 9b 41 e5 3d 6f 46 7c 3c
       -0.10271281 0.038835052 0.11194154 0.015397652
0002d0 79 18 cd 3d 21 02 19 bd 63 37 92 bb 69 8f 8d 3d
       0.100144334 -0.037355546 -0.004462169 0.06912119
0002e0 cf 40 a5 3b 0f 7a 34 bc 65 54 45 bd 97 2a ca 3d
       0.005043126 -0.011015429 -0.048176188 0.098714046
0002f0 39 17 e9 3c 5d 6c f2 3d 40 f3 95 3d 8f 23 ab bb
       0.028453456 0.11837075 0.07321787 -0.005222745
000300 ab 94 04 3d a9 cd 0e bd a8 b4 c7 3c 58 5c 32 bd
       0.032368343 -0.0348641 0.024378136 -0.043545097
000310 a0 be a0 3d 58 f4 92 3d 48 1e 7a bd 3b 20 9a 3b
       0.07848859 0.07175511 -0.061064035 0.004703549
000320 0d 9e e0 3b 3b 15 07 bd 23 10 c0 bd e5 48 98 bc
       0.0068547786 -0.03297923 -0.09378078 -0.018589446
000330 b1 27 9d 3d 8d fb 5b bd 62 d7 a6 bd ab 5a f9 3c
       0.07673586 -0.053706694 -0.0814655 0.030438742
000340 bf a7 2c bc 25 21 aa bd 43 2d bc 3d cd ce 80 bc
       -0.010538041 -0.08307103 0.091883205 -0.01572361
000350 ec be 5d 3d f4 3c 01 3d 99 f2 b9 bd e2 2c 0d 3d
       0.054137155 0.03155227 -0.09079475 0.03446663
000360 72 5d b6 3d 6a f0 ec 3c 41 23 17 bd e3 1b 62 bd
       0.08904542 0.028923232 -0.036898855 -0.055202376
000370 38 c4 d4 3c da 42 31 bd 00 8c f7 bd a6 dc 0f 3d
       0.02597247 -0.043276645 -0.1208725 0.035122536
000380 6d 1e ff bc 86 d2 cf bd 40 bb 0d bd 87 e5 7a 3d
       -0.031142438 -0.10147576 -0.034602404 0.06125405
000390 ce 04 7c bd e2 bd 52 bd 8d b7 ad bd 46 10 d4 bd
       -0.06152802 -0.051450618 -0.08482275 -0.103546664
0003a0 1c b5 b2 bd dd 4a 8b 3d 3c cc 94 3c ea 3b 96 3c
       -0.0872595 0.068013884 0.018163793 0.018339116
0003b0 60 f7 92 bc 4d a8 29 bb bd a5 98 3d 8d 24 1a bd
       -0.017940223 -0.0025887669 0.07453487 -0.037632514
0003c0 1a 08 90 3c 9f 64 55 3d ca dd 85 3d 35 44 51 bd
       0.017581988 0.052097913 0.065364435 -0.051090438
0003d0 e0 48 a1 3d 28 80 e1 3c 24 c4 6d bd 9a 01 b0 3c
       0.07875228 0.02752693 -0.058048382 0.021485139
0003e0 07 00 a8 bd 7c cc 31 3d 44 b7 ab 3d d7 3d b9 bc
       -0.0820313 0.043407902 0.083845645 -0.022612495
0003f0 cb e3 96 bd 44 fd 7c 3d 64 dd a3 3d 58 77 35 bd
       -0.07367667 0.06176497 0.08001211 -0.04430327

net.6.bias f4 [100]
000000 4b d1 36 bd 7b 87 e6 3c 31 02 76 3d cc 0c f9 3b
       -0.04463319 0.028140774 0.060060684 0.0076004025
000010 f9 cc ea 3c 3c ae 16 bd a8 66 ac bd 72 df e8 3c
       0.028662192 -0.036787257 -0.084180176 0.02842686
000020 be 12 37 bc 4f 2f 1d 3d 7e 25 91 bc b5 35 17 3d
       -0.011173902 0.038375195 -0.017718073 0.036916453
000030 1c 7e 80 bd 18 b9 31 bd bf fc 31 3d 84 49 ac bd
       -0.062740535 -0.04338941 0.043453928 -0.084124595
000040 ee bd 86 bd 3a f0 9e bc 75 af e4 bc 43 7f ca bd
       -0.06579195 -0.019401658 -0.027915696 -0.098875545
000050 67 28 d9 bd bd 71 1e 3c 19 b1 01 3c c3 d3 a1 bc
       -0.10603409 0.009670672 0.0079157585 -0.019754296
000060 62 24 a7 3d f9 b8 15 3c 41 06 75 bd 4a 87 10 3d
       0.08161236 0.009138339 -0.059820417 0.03528527
000070 28 67 8b bd 1c fb bd bd d9 9e e7 3c df ac 10 be
       -0.06806785 -0.09276411 0.028273987 -0.14128445
000080 e1 68 83 bb 88 c9 d1 bd 43 f7 c0 bd 52 b9 ba 3c
       -0.0040103053 -0.10243517 -0.094221614 0.022793446
000090 a3 cb 07 3c 9d 2c 74 3b ef e8 be bd d7 07 f1 3c
       0.008288297 0.0037258037 -0.09321772 0.029422684
0000a0 09 82 26 bd cc 96 78 bd 71 1a 0d bd 08 c2 01 3d
       -0.040651355 -0.060690686 -0.034449045 0.031679183
0000b0 8a 20 82 3c 70 ec ba bd a2 d1 db bd a1 fb b4 bd
       0.015884656 -0.09127128 -0.10733344 -0.08837057
0000c0 b0 1d aa bd e3 9d 01 b9 7c c5 37 3d 92 b9 45 3d
       -0.08306444 -0.00012361216 0.04486607 0.048272677
0000d0 5f 49 94 3d c0 95 a0 3d 2d e9 3c 3d 48 ce 56 bc
       0.07240557 0.078410625 0.04612081 -0.013110705
0000e0 3c 69 5f 3d f4 a0 06 bd 2f 9c b6 3d 7d 9e 56 3d
       0.05454372 -0.03286834 0.089165084 0.05239724
0000f0 c2 a7 f5 ba 34 a1 01 bd e8 2c c4 bd aa 6a b3 bd
       -0.0018742012 -0.031647876 -0.09578878 -0.08760579
000100 4b 9f 42 bd c0 89 28 3c 25 7d 26 bd a4 eb 8b 3d
       -0.047515195 0.010286748 -0.04064669 0.06832054
000110 28 c4 62 bd 5d 2a 1e bd ce ab 8b 3d a3 21 86 3d
       -0.05536285 -0.03861462 0.068198785 0.065493844
000120 97 73 04 3d ab 6c cf 3c 80 86 0b 3d 35 70 a4 3d
       0.032336798 0.025320372 0.034063816 0.08029214
000130 94 dd 6f bd 2b 6d 40 3d 5d 52 6c 3d fc 82 a7 3d
       -0.058560923 0.04697911 0.057695735 0.0817928
000140 66 d0 06 bc b8 dc f7 3c 37 d2 32 3d b7 a5 4e 3c
       -0.008228397 0.030256614 0.043657508 0.012612752
000150 bd d8 7c 3d 3c 9a 2f bc f8 43 37 bb 40 3e da b9
       0.061730135 -0.010717925 -0.0027964097 -0.0004162658
000160 9c b0 33 bd 6f 30 89 3d 66 f2 84 bd c4 13 04 3b
       -0.0438696 0.06698691 -0.06491546 0.0020153383
000170 fd 69 1d bd b1 20 7a 3d 44 d9 bd 3d 4c 67 bf 3d
       -0.038431156 0.061066333 0.09269956 0.09345874
000180 5c d3 e5 bc cf 7e df bc 08 c9 79 3a eb a3 26 3d
       -0.028054886 -0.027282147 0.0009528552 0.040683668

net.8.weight f4 [100, 100]
000000 39 1f 6d bd 31 3f da bd 1a ee a2 bd f4 44 50 bc
       -0.057891104 -0.10656584 -0.079555705 -0.012711752
000010 c1 1f 44 bc 98 a6 58 3d 7e c2 a3 3c 4c 4f 9a bd
       -0.011970461 0.05289325 0.019990202 -0.07534656
000020 20 e8 be bd e8 2a 64 bd fd a9 ae 3d 72 c2 ad bd
       -0.09321618 -0.05570498 0.085285164 -0.08484353
000030 48 ab 68 bc 1c 91 f9 bb 3f 2d 3b bd 3b 3b cd 3c
       -0.014200993 -0.0076161753 -0.045697447 0.025052657
000040 64 ae 36 3c 3f bb b8 3c 92 d6 5a bb fe 03 b0 3d
       0.011149976 0.022550223 -0.0033392054 0.085945114
000050 99 89 ab 3d 72 b3 01 bd f2 16 60 3c 9f 3a 9b 3b
       0.08375854 -0.031665273 0.013677346 0.004737213
000060 2b 47 3f bd 55 64 0b bd 22 77 3a 3d 45 17 d7 bc
       -0.04669873 -0.03403123 0.04552377 -0.026256213
000070 a1 e1 6c 3b 88 69 47 bd f7 04 cb bd 7e a1 cd bd
       0.0036145227 -0.048684627 -0.09913056 -0.10040568
000080 e9 fd 90 bd c4 3f a9 3a 08 66 36 3d 1f f9 f4 bb
       -0.070796795 0.001291268 0.0445309 -0.0074759866
000090 2d 37 7a 3d 35 a1 09 3d 7d 84 7e 3d db b0 6d 3d
       0.061087776 0.033601005 0.06213807 0.05802999
0000a0 6c 58 69 3c 18 c6 85 3d f4 a6 c6 3c ab 4a b4 bd
       0.014242273 0.06531924 0.024249531 -0.08803304
0000b0 df 1a 99 bc 3d 22 46 bb b9 fe 02 bd e4 23 dc 3d
       -0.018689571 -0.003023281 -0.031981204 0.10749033
0000c0 6a 78 b2 3c aa 8e e2 3c 32 63 aa bd 30 ef 73 bc
       0.021785934 0.027655918 -0.08319701 -0.01488857
0000d0 d3 9f f4 bc 94 65 a4 3d 9a cf f1 bc 15 ec 9f 3d
       -0.029861366 0.08027187 -0.029517937 0.07808701
0000e0 25 36 a1 bd d5 f2 97 3d 22 4e 11 3d db 20 9b bd
       -0.078716554 0.074193634 0.035474904 -0.07574626
0000f0 20 19 b3 bd 0c 7f c5 3d 91 e2 9b 3d 7d 06 aa 3d
       -0.087450266 0.09643373 0.076115735 0.08302019
000100 0e 12 f2 3c 81 1b 53 bc 32 17 95 3d c7 2d b6 bd
       0.029549625 -0.012884975 0.07279815 -0.0889545
000110 d9 eb dd bc 6e 1c 9c bc f8 65 17 bd c0 fd b2 bd
       -0.02709 -0.019056525 -0.03696248 -0.08739805
000120 42 01 d3 bc c1 bf 89 3c b1 e0 07 bc e4 9d d3 3b
       -0.025757436 0.016815068 -0.008293317 0.006458031
000130 55 0d c2 3c 09 d1 aa 3d 17 77 21 3c 5d 94 a2 3d
       0.023687998 0.083406515 0.009855053 0.07938454
000140 11 b6 c3 bc f8 b2 8c bd c5 1f 91 3c e1 68 71 3b
       -0.023890527 -0.06870073 0.017715344 0.0036836194
000150 de 78 30 3d b7 48 0e bd 76 e2 b3 3d 64 33 94 3d
       0.043084018 -0.034737315 0.08783428 0.072363645
000160 b5 d0 33 bc 8b f4 28 37 67 3b 5d bb d5 99 c7 bd
       -0.010975053 1.0070517e-05 -0.003375733 -0.09746138
000170 94 de 22 3d 48 4d 93 3d 18 0c 17 3d 60 26 4c bd
       0.03976305 0.071924746 0.036876768 -0.049841285
000180 03 6f d0 bb 57 a8 39 bd a9 53 b5 bb e8 15 17 bd
       -0.00636089 -0.045326557 -0.0055336547 -0.036886126
000190 c8 40 94 3c 73 a7 0d 3d 7f f9 8d bd 9b 0f e1 3d
       0.018097296 0.03458352 -0.06932353 0.10989305
0001a0 b1 e9 90 bc f9 e5 25 3d 7a c6 42 3d c1 f5 9a bd
       -0.017689558 0.040502522 0.047552563 -0.07566405
0001b0 70 c0 c6 3d be 4d 95 bd 7e 1c ce 3d ad 62 98 3d
       0.09704673 -0.07290219 0.10064028 0.07440696
0001c0 da 20 9d bc cc bc dd 3c ed 66 a1 3d e1 69 eb 3d
       -0.019180704 0.027067564 0.0788096 0.11494804
0001d0 87 c3 88 bd da b5 61 bc 37 1f ed bc 85 47 f7 bc
       -0.06677919 -0.013776267 -0.028945548 -0.03018547
0001e0 cc 02 25 bd 96 a9 24 bd 8d 73 97 bd df 21 57 bd
       -0.04028587 -0.040200792 -0.073950864 -0.052522536
0001f0 77 9e b5 bd ae a5 95 3c e8 e1 a8 3d 09 de db bb
       -0.088681154 0.018267479 0.08246213 -0.0067098183
000200 81 7b a7 bd 75 2b 9d 3d 8b 96 8a bd 52 e2 7c 3d
       -0.081778534 0.076743044 -0.06766995 0.061739273
000210 33 aa 3b 3c bb de 24 bd 11 44 a3 3d a1 67 1c bc
       0.011454153 -0.040251475 0.07971967 -0.009546191
000220 df cd 52 3b 86 99 53 bd 8a 0c 98 bb 4a 18 fe 3c
       0.0032166166 -0.051660083 -0.0046401666 0.031017441
000230 7c 4d aa bd 95 bf d5 3d b7 6a 8d ba 69 57 83 3d
       -0.0831556 0.10436932 -0.001078925 0.064131565
000240 94 d4 a9 3d 39 3b 79 bc e3 3a ca bd a5 8f 75 3d
       0.08292499 -0.015211874 -0.09874513 0.059951443
000250 f0 c3 ab bd 3c eb 89 bd ce 2f 37 3d 70 61 20 3d
       -0.083869815 -0.067343205 0.044723324 0.039155424
000260 a5 22 be bd 6d c3 89 3c 9d c5 81 3d 24 13 68 3c
       -0.09283952 0.01681682 0.0633652 0.01416472
000270 df 16 67 bd 32 76 cd 3c 9a 52 cc bd 08 cf c4 3d
       -0.056418296 0.025080774 -0.099766925 0.096098006
000280 eb 5c ae 3d 4d 8e c2 bd 17 f1 63 3d 41 16 49 bd
       0.085138164 -0.09499798 0.055649843 -0.04909349
000290 5b 06 c9 bc ab f3 d7 bd 83 05 98 bd 5b 30 e6 ba
       -0.024539163 -0.10544523 -0.07422926 -0.0017562018
0002a0 3e c9 9a bc 62 90 d7 bb 63 e9 c0 3d 3a 42 90 bd
       -0.018894788 -0.006578491 0.09419515 -0.07043882
0002b0 94 1a b3 bc 43 ef c9 bc e5 ab b3 bc ce d0 9f bd
       -0.02186326 -0.024650222 -0.021932552 -0.07803498
0002c0 00 8b d6 3b 7e f2 2c 3d 40 55 8a bd e7 a2 dc 3c
       0.006547332 0.042223446 -0.067545414 0.026933147
0002d0 bc 88 78 3d 5c 65 76 bc 0b 99 92 3d e9 33 81 3d
       0.060677275 -0.015038814 0.07158097 0.06308729
0002e0 44 1e 05 be 68 64 c8 bd 0b 59 29 bd 8c 84 6d 3d
       -0.12999827 -0.09784776 -0.041344684 0.057987735
0002f0 bd 01 11 3d 21 07 49 bd 59 28 e5 bc a1 54 23 bd
       0.03540205 -0.049079064 -0.02797334 -0.03987563
000300 3a a3 85 bd ba cf 6f 3d 07 01 6c bd 7c 45 6d 3d
       -0.065252736 0.058547713 -0.057618167 0.057927594
000310 3a 45 23 bd 75 bc 80 3c 22 93 d7 3d f4 35 b2 3b
       -0.03986094 0.015714863 0.1052611 0.0054385606
000320 e7 92 65 bd 12 e6 51 3c 30 91 b0 bd 3d b6 70 3d
       -0.0560483 0.012811201 -0.08621442 0.058767546
000330 18 20 7f 3d 2b b8 b5 bd 9a 79 90 3b 8d d7 df 3c
       0.062286466 -0.08873018 0.0044090273 0.027324462
000340 66 5c 20 3c 9f e8 e5 3b 1e 18 3f 3d 24 42 f6 3c
       0.0097876545 0.007016256 0.04665386 0.030060835
000350 42 1c 14 3d 8a b0 2e bd ff 9b c7 bd 5b f2 2c bd
       0.03615976 -0.04264883 -0.09746551 -0.042223316
000360 47 df a8 3c f0 1e c9 bd 36 7c a7 3d e5 76 9a 3d
       0.02061428 -0.09820354 0.08177988 0.075422086
000370 d8 17 9e bd b7 8e ba bd 71 2e 46 bd c5 d4 6e bd
       -0.077193916 -0.09109252 -0.048384134 -0.05830838
000380 f3 62 a4 3d 46 7b 8b bd 98 1c bb 3d 4f 1d 7b 3d
       0.080266856 -0.06810622 0.09136313 0.061307248
000390 8f bb 85 3d 06 e2 c7 3d 03 92 80 3c b9 15 8b 3d
       0.065299146 0.097599074 0.015694624 0.06791253
0003a0 4c 6f 10 bb 93 e7 50 bd 3b 2d 94 3d c1 8c df 3c
       -0.0022038994 -0.051002096 0.072351895 0.027288796
0003b0 02 22 74 bd 4c 6f 03 be 2b c9 88 3d c2 18 0c bd
       -0.059602745 -0.12835425 0.06678995 -0.0342033
0003c0 48 3a d9 bd e4 5c 86 3c 42 e5 ab bc 67 a8 85 3c
       -0.106068194 0.016401716 -0.020983342 0.016315652
0003d0 fd b1 bb bd cb 24 37 bd e8 56 5b bd 03 05 69 bc
       -0.09164808 -0.044712823 -0.053549677 -0.014222386
0003e0 eb b7 ba bd 90 a9 17 bd d3 41 ce bd b8 c2 39 3c
       -0.09117111 -0.03702694 -0.10071149 0.0113379285
0003f0 2b 56 8d bd 49 0f b0 bd 00 70 3f 3c af c5 36 3d
       -0.06901201 -0.085966654 0.011684418 0.04462212

net.8.bias f4 [100]
000000 71 78 f6 bc 59 80 43 bd 57 94 3c 3d 9b cc 93 bc
       -0.030086728 -0.047729824 0.046039905 -0.0180419
000010 87 6a cd 3c f2 5d b2 3d 37 d3 05 3d 45 0d d4 3c
       0.02507521 0.08709325 0.032672133 0.025885234
000020 02 2c 1e bc 08 7d 65 bd d4 b0 82 3d 14 74 23 3d
       -0.009654047 -0.056027442 0.063813835 0.039905623
000030 5d ca 6a 3c 9c e0 ba 3b 16 92 bb 3c 7d 06 90 3d
       0.014330474 0.005703045 0.022896808 0.070324875
000040 ae 30 43 3d 59 8b ac 3d 94 ba 48 bc fd 9d 20 3d
       0.047653846 0.08425016 -0.012251515 0.03921317
000050 a1 25 06 3b 40 f7 8b 3d f2 66 d3 bc 15 44 48 3d
       0.0020469206 0.068342686 -0.025805924 0.048893053
000060 e8 53 b3 bb 77 b9 83 3c 64 43 cf 3c c4 a6 ac 3b
       -0.005472649 0.016079647 0.025300689 0.0052689034
000070 27 ee 8f 3d e5 86 50 bd b9 7f 0b bd 43 2a 5a 3d
       0.07027846 -0.050909895 -0.034057353 0.05326296
000080 9e 1c 34 3d eb f9 94 bd 14 f4 b7 3d e4 f2 9e bc
       0.043972604 -0.072742306 0.08982101 -0.019402929
000090 b1 48 95 3d 25 e5 0e bd f2 5d 96 bd dd 30 7b bd
       0.072892554 -0.034886498 -0.073421374 -0.061325897
0000a0 4a dd 28 bc 0e 1d 44 3d af fb e4 bc 99 9a fe bc
       -0.010306666 0.04787927 -0.027952043 -0.031079577
0000b0 2b c4 d5 bd b0 73 92 3d a9 52 27 3d f4 a1 bf bd
       -0.10437807 0.07150972 0.040850315 -0.09357062
0000c0 6f f0 0d 3d 01 1f 3c 3d 17 cf 0e 3d 21 5e 60 3b
       0.034653123 0.045928005 0.034865465 0.0034235793
0000d0 88 ec 6c bc a7 3a b3 bc d7 0c 4c bd 3a bb cf bc
       -0.01446069 -0.021878554 -0.049816933 -0.025357831
0000e0 d9 db 85 bd bd 95 6b 3d 47 b2 82 bd 4a 8a ba bc
       -0.06536073 0.05751585 -0.0638166 -0.02277102
0000f0 48 71 79 bd 41 b9 8b 3d 0f ac 28 bd bb 7f f7 3c
       -0.06089905 0.06822444 -0.041179713 0.030212274
000100 ff db c5 bd d1 20 4a bd 59 5c a6 3d 56 05 b2 3c
       -0.096611015 -0.049347702 0.08123083 0.02173106
000110 ae 74 ba bc 49 7d 96 3d 21 7d 8a 3c 57 8e 7f bd
       -0.022760715 0.07348115 0.01690537 -0.062391605
000120 f4 fe ef 3c 80 3e 29 bd e4 dc c8 3d 6a 4e 85 bd
       0.029296376 -0.04131937 0.098077565 -0.06509097
000130 39 0a 88 3d 8f 4b 05 bd 7b 6a a7 bd c3 7e 60 3c
       0.06642575 -0.03254276 -0.081746064 0.013702097
000140 a2 23 a0 bd cf 3a 03 3d 35 3e f0 3c 6f e8 d7 bd
       -0.078192964 0.032038506 0.029326538 -0.1054238
000150 c9 21 6f 3d 83 ce 3a bc fb 81 c5 bc 51 e4 63 3d
       0.05838183 -0.011401775 -0.024109831 0.05563766
000160 2f 92 65 bd 47 c7 b1 bd bf b2 98 bd e8 de 41 3d
       -0.056047615 -0.08680587 -0.07455968 0.04733172
000170 a6 8b 36 bd ae 1d 96 3c 7c 5a 3a 3d 36 74 0b bd
       -0.044566773 0.0183247 0.04549645 -0.034046374
000180 63 18 ac bc 9f e1 0c bd 52 d4 63 bd 43 af 5f 3c
       -0.021007722 -0.034394857 -0.055622406 0.0136526255
