models/heat2D/heat2D_02.pth (torch, 976804 bytes, 51 tensors)

net.0.weight f4 [100, 3]
0	0xbe7ad742	-0.24496177
1	0xbf214464	-0.6299498
2	0x3f922f42	1.1420672
3	0x3f192bf1	0.59832674
4	0xbec38ab5	-0.38191763
5	0x3e9f9acd	0.3117279
6	0xbf105aa1	-0.5638829
7	0x3ec3d74d	0.382502
8	0xbedc4ac7	-0.430258
9	0x3d6f23be	0.058383696
10	0xbdc841c3	-0.09778168
11	0x3db1107a	0.08645721
12	0x3e875b13	0.26436672
13	0xbe93268f	-0.28740355
14	0xbeec7907	-0.46186087
15	0xbea5b3a0	-0.32363605
16	0xbe86b065	-0.26306453
17	0x3f2bcf00	0.6711273
18	0x3e843d42	0.25827986
19	0xbe228b87	-0.15873538
20	0xbf2a32d2	-0.66483796
21	0xbeae492a	-0.34040195
22	0xbee5265b	-0.44755825
23	0x3d728bfd	0.059215534
24	0xbeb559ec	-0.35420167
25	0xbeb7f6a1	-0.3593035
26	0xbce90744	-0.028445847
27	0x3e958d31	0.29209283
28	0xbeda69c1	-0.4265881
29	0xbf1ae830	-0.6051054
30	0x3e0fbd7f	0.14037131
31	0xbcf1f4ae	-0.029535618
32	0xbf1d3c32	-0.61419976
33	0x3f22f51f	0.63655275
34	0x3cd82ece	0.026389506
35	0x3f47bab8	0.78019285
36	0xbf09ca35	-0.5382417
37	0xbeadd055	-0.33948007
38	0xbf316f38	-0.6931033
39	0x3dd13826	0.102157876
40	0x3f057689	0.52133995
41	0xbef1cafc	-0.47225177
42	0xbf039d43	-0.5141184
43	0xbeda4f0f	-0.42638442
44	0xbdb8bbc2	-0.09020187
45	0xbdd497da	-0.10380526
46	0xbdb95a08	-0.09050375
47	0x3ee09856	0.43866223
48	0x3eefbf25	0.4682552
49	0x3f0f7d4d	0.5605057
50	0x3f3113b0	0.69170666
51	0x3e8c59e1	0.27412322
52	0xbf02909a	-0.51001894
53	0xbf7faa54	-0.99869275
54	0x3ed56a41	0.41682628
55	0x3ecc8c6c	0.39950883
56	0xbf28c74a	-0.6592909
57	0x3e3bae83	0.1832829
58	0xbd95b5cb	-0.07310065
59	0x3f79d371	0.9758826
60	0x3f126953	0.5719196
61	0xbe0feed7	-0.14055954
62	0x3deac626	0.11463575
63	0x3bcc7175	0.006239111
64	0xbe90744c	-0.28213727
65	0xbebfdd84	-0.3747369
66	0xbba5c38a	-0.0050587105
67	0xbf106946	-0.56410635
68	0x3c647bed	0.013945562
69	0xbf23abe5	-0.63934165
70	0xbe390bfc	-0.18070978
71	0xbe36feb0	-0.17870593
72	0x3e734891	0.2375815
73	0xbdf6b06e	-0.1204537
74	0xbeeefa92	-0.46675545
75	0x3e5b2bda	0.21403447
76	0x3e8ea799	0.27862242
77	0x3f17b119	0.59254605
78	0xbf1afadb	-0.60539025
79	0x3e59e5ee	0.21279117
80	0x3f30205a	0.68799365
81	0xbe5ce91f	-0.21573304
82	0x3eb221cb	0.34791407
83	0xbf6bf10b	-0.9216468
84	0x3ebde130	0.37085867
85	0xbf1604d6	-0.5860113
86	0xbeecfe24	-0.46287644
87	0xbeb0c2cd	-0.3452362
88	0xbefdb925	-0.49555317
89	0xbf02ba8d	-0.51065904
90	0x3f1569f3	0.5836479
91	0x3e1798a6	0.14804325
92	0x3e79fff1	0.2441404
93	0xbe6e96f8	-0.23299778
94	0x3e7a2e80	0.24431801
95	0x3dc6d015	0.09707657
96	0xbeea1ce3	-0.45725164
97	0x3efdbcfe	0.49558252
98	0xbf6bb180	-0.9206772
99	0x3e97ee3a	0.2967394
100	0x3f12c749	0.57335335
101	0x3eb66acb	0.35628352
102	0x3ec22b8f	0.37923858
103	0xbedd0a26	-0.43171805
104	0x3d9a1126	0.07522802
105	0x3f0a2bf5	0.53973323
106	0xbe76b0bb	-0.24090855
107	0xbe070a05	-0.13187416
108	0xbed3c524	-0.41361344
109	0xbd14e361	-0.036349658
110	0x3f3d6507	0.7398228
111	0x3f175283	0.5911028
112	0x3c85d590	0.016337186
113	0xbeb792ee	-0.35854286
114	0x3eaf7622	0.34269816
115	0xbf234f4f	-0.6379289
116	0x3e9bb583	0.3041192
117	0x3ed8aff5	0.42321745
118	0x3e55a12e	0.20862266
119	0xbef03c7a	-0.4692114
120	0xbe994400	-0.29934692
121	0x3f0efef6	0.5585779
122	0x3f292825	0.6607688
123	0x3e8dd3de	0.27700704
124	0xbee5d839	-0.44891527
125	0xbf4c7ca2	-0.79877675
126	0xbea9f061	-0.33191207
127	0x3ef98e1a	0.48741227
128	0xbf3d45f6	-0.73934877
129	0xbec1d4a0	-0.37857533
130	0xbe260106	-0.16211328
131	0xbf19b11f	-0.6003589
132	0xbed6bd0d	-0.4194111
133	0xbee0f8ed	-0.43939915
134	0xbe1d5d02	-0.15367511
135	0xbf1c7c9e	-0.6112765
136	0x3e449721	0.19198276
137	0xbe290a92	-0.16507939
138	0xbeac1e31	-0.33616784
139	0xbe67b56a	-0.22627798
140	0x3eb45fc2	0.35229307
141	0x3ed99b2e	0.42501205
142	0x3db912f6	0.0903682
143	0x3f27ce99	0.6554962
144	0x3e2c7b0c	0.16843814
145	0x3e983c6c	0.29733598
146	0xbdf18c17	-0.11794298
147	0x3ec4a49b	0.38406834
148	0xbda5603e	-0.08074997
149	0x3f11b395	0.56914645
150	0x3ef0e8cb	0.47052607
151	0xbece3271	-0.4027286
152	0xbf122cd9	-0.5709968
153	0xbf2241bb	-0.63381547
154	0x3e5728f5	0.21011718
155	0x3e9d50e3	0.30725774
156	0x3e104de5	0.14092214
157	0xbe98488f	-0.29742858
158	0xbf1cb705	-0.61216766
159	0xbe0a7886	-0.13522539
160	0x3dfe7407	0.12424474
161	0x3f5082d9	0.8144966
162	0xbf038411	-0.5137339
163	0x3f082512	0.53181565
164	0x3e3c8074	0.18408376
165	0xbf1d0eb3	-0.61350554
166	0xbe3f3ef0	-0.18676353
167	0xbf43670a	-0.763291
168	0xbe392954	-0.18082172
169	0x3e0c2211	0.1368487
170	0xbf63ff1f	-0.8906116
171	0x3d03af89	0.032149825
172	0xbe4bc149	-0.19897951
173	0xbcdf21a3	-0.027237719
174	0xbef23e9c	-0.47313392
175	0xbd33eeac	-0.043928787
176	0x3f2d5cc0	0.6771965
177	0xbf1744f7	-0.59089607
178	0x3dafa9d1	0.08577312
179	0xbeb882d3	-0.3603731
180	0xbea2d1d9	-0.31800726
181	0x3e69dfa7	0.22839223
182	0xbf5d165e	-0.86362255
183	0x3ebf2012	0.37329155
184	0x3d9d12e4	0.07669619
185	0x3eedf27a	0.46474057
186	0xbe240fcc	-0.16021651
187	0xbf0c5be7	-0.5482773
188	0xbcaff7b4	-0.021480419
189	0x3ee27cb8	0.44235778
190	0xbe2e7baa	-0.17039362
191	0x3e598215	0.21241029
192	0x3f34191e	0.70350826
193	0xbeadd424	-0.33950913
194	0x3f3ef84d	0.74597627
195	0x3ea44d12	0.3209005
196	0x3ed0d130	0.40784597
197	0xbec401b0	-0.38282537
198	0x3e8cd3ae	0.2750525
199	0x3e749729	0.23885788
200	0xbe8a85ec	-0.270553
201	0xbe8c985d	-0.27459994
202	0xbf058d31	-0.52168566
203	0xbf134cb9	-0.57538944
204	0x3eef5a30	0.46748495
205	0xbe91f690	-0.28508425
206	0x3f15f172	0.5857154
207	0xbe4648ff	-0.19363783
208	0xbef923eb	-0.48660216
209	0x3e6440ad	0.22290297
210	0xbee1ab94	-0.44076216
211	0xbea4aa86	-0.3216135
212	0x3f697fc9	0.9121061
213	0x3eb6bd8b	0.35691485
214	0xbe187ccb	-0.14891355
215	0xbadaee2d	-0.0016703062
216	0x3ed13678	0.4086187
217	0xbe2a1cc7	-0.1661254
218	0x3f15625c	0.5835321
219	0xbe88d348	-0.26723695
220	0x3e13fda4	0.14452225
221	0xbd95b194	-0.07309261
222	0x3f2133c6	0.62969625
223	0x3e4c17a6	0.19930896
224	0xbf310298	-0.6914458
225	0xbd93388a	-0.07188518
226	0x3d049d44	0.032376543
227	0x3f8b1514	1.0865808
228	0x3e8c1ecd	0.2736725
229	0x3edd5ffc	0.43237293
230	0xbf41c09b	-0.7568452
231	0xba5e3a33	-0.00084773
232	0x3e3bd4c0	0.18342876
233	0xbe576503	-0.21034627
234	0x3e4f1b7d	0.2022533
235	0xbe943943	-0.28949937
236	0x3e2b7a0f	0.1674578
237	0xbee0e09a	-0.43921357
238	0xbd209aad	-0.03921001
239	0x3e56a4ac	0.20961255
240	0x3df211b8	0.11819786
241	0xbe942989	-0.2893794
242	0x3e9fef50	0.31237268
243	0x3ef27cf5	0.4736096
244	0x3dac82cb	0.08423384
245	0x3f0c6909	0.5484777
246	0xbe89d862	-0.269229
247	0xbef8c849	-0.48590305
248	0x3e0439dd	0.12912698
249	0x3f024f54	0.50902295
250	0xbedafd07	-0.4277117
251	0xbe506162	-0.20349649
252	0x3f13e939	0.57777745
253	0x3bd2648c	0.0064206775
254	0xbf5efc8b	-0.871041
255	0x3f096a3f	0.53677744

net.0.bias f4 [100]
0	0x3f0fc918	0.5616622
1	0x3eaecf08	0.34142327
2	0xbd51b3ec	-0.051196977
3	0xbeb0ecb1	-0.3455558
4	0xbed15b9b	-0.40890202
5	0x3e57244c	0.2100994
6	0xbeb89025	-0.36047474
7	0x3d978ead	0.0740026
8	0xbe8ee0a8	-0.27905774
9	0x3ef99130	0.48743582
10	0xbda083f0	-0.07837665
11	0x3eedf96b	0.46479353
12	0xbde2b587	-0.1106978
13	0xbe33dcbb	-0.1756467
14	0xbf0cb3ad	-0.54961663
15	0xbe38a826	-0.18032894
16	0xbeb7eefb	-0.35924515
17	0x3e36db60	0.17857122
18	0x3e27fbae	0.16404602
19	0xbe14b795	-0.14523156
20	0x3e7c655d	0.24648042
21	0x3eb3ac12	0.35092217
22	0xbb8e577d	-0.0043439255
23	0x3f0a6a31	0.54068285
24	0x3ebfd6f7	0.37468693
25	0xbe15b992	-0.1462157
26	0xbee073b9	-0.4383829
27	0xbefcd685	-0.49382415
28	0x3ea9ca4e	0.3316216
29	0xbf002bf6	-0.5006708
30	0x3ebaad48	0.36460328
31	0x3e9a4fd8	0.3013904
32	0x3ea904b5	0.33011404
33	0xbea26e20	-0.31724644
34	0x3edcc6af	0.43120334
35	0x3eac4e69	0.33653572
36	0xbeb7abe7	-0.3587334
37	0xbee71ee3	-0.45140752
38	0xbe80f8cb	-0.25189814
39	0x3e9f8cc3	0.3116208
40	0xbaae2494	-0.0013286048
41	0xbe159464	-0.14607388
42	0xbed7f7dc	-0.4218129
43	0xbe461190	-0.19342637
44	0x3f0042c6	0.5010189
45	0x3ebb3f4e	0.36571735
46	0xbf04ad7b	-0.5182721
47	0x3e76b980	0.240942
48	0x3b779848	0.0037779976
49	0x3de62d5f	0.112391226
50	0xbefc3c74	-0.49264872
51	0x3eda5235	0.42640844
52	0xbd19fc13	-0.037593912
53	0x3eed1b08	0.46309686
54	0x3f103aa6	0.5633949
55	0x3db88588	0.09009844
56	0x3df66def	0.12032687
57	0xbd394469	-0.045231257
58	0x3e2a3c64	0.166246
59	0xbe7e5b2a	-0.24839464
60	0x3ef7d0d9	0.48401526
61	0x3f038dc0	0.5138817
62	0x3eeac67b	0.45854554
63	0xbf0d46f6	-0.551864
64	0x3f0cd401	0.5501099
65	0xbe676501	-0.22597124
66	0x3ea6752e	0.32511276
67	0xbea19315	-0.31557527
68	0xbeb92825	-0.3616344
69	0x3ec953fe	0.39321893
70	0x3ea684b8	0.3252313
71	0xbeea9f09	-0.4582446
72	0x3dd2076d	0.102553226
73	0x3e209f05	0.15685661
74	0xbea8c1d8	-0.3296039
75	0x3ed24720	0.4106989
76	0xbd905e93	-0.070492886
77	0xbe993ce5	-0.2992927
78	0xbc18a28c	-0.009316098
79	0x3d8561d7	0.06512802
80	0xbccff207	-0.025383962
81	0xbf053811	-0.52038676
82	0xbbe30d5e	-0.0069290837
83	0x3e940286	0.28908175
84	0xbc6c8574	-0.014436115
85	0xbed38449	-0.41311863
86	0x3ea3cdbb	0.31992897
87	0xbeff6ae1	-0.4988623
88	0x3e39437d	0.18092151
89	0x3e9f158b	0.31071123
90	0xbec297f4	-0.38006556
91	0xbe3639d2	-0.17795494
92	0xbe966728	-0.29375577
93	0xbede0246	-0.4336111
94	0x3dfdc1b5	0.12390462
95	0xbe21152e	-0.15730736
96	0xbf0a2c25	-0.5397361
97	0x3e5fac3e	0.21843049
98	0xbec4650b	-0.3835834
99	0xbc2cc870	-0.010545835

net.2.weight f4 [100, 100]
0	0xbc3ed0ac	-0.011646431
1	0xbdc63fc5	-0.09680132
2	0xbd23bc04	-0.039974228
3	0xbd520b33	-0.05128021
4	0xbd7c2b9a	-0.06156502
5	0x3c639519	0.013890528
6	0xbdd0160e	-0.101604566
7	0xbdee2bf7	-0.116294794
8	0xbda98028	-0.08276397
9	0x3d9b9ce2	0.075982824
10	0x3ce5dc92	0.028059278
11	0x3b661112	0.003510539
12	0xbda9e832	-0.08296241
13	0x3de31937	0.11088794
14	0x3d00555b	0.0313314
15	0x3d8c0e21	0.068386324
16	0x3d7d4b95	0.06183966
17	0x3de52336	0.111883566
18	0xbbc1358a	-0.005896275
19	0x3dcbdc86	0.09954171
20	0xbd0f5f22	-0.035002835
21	0x3d660b1d	0.056162942
22	0xbd46f077	-0.04856917
23	0xbc735b7f	-0.014853357
24	0xbd47676e	-0.048682623
25	0x3c321477	0.010869137
26	0xbd9e0262	-0.07715298
27	0xbde75cf9	-0.1129703
28	0xbcdc4465	-0.026888082
29	0x3cd6bf85	0.02621437
30	0x3d70b33d	0.058764685
31	0xbdf82e16	-0.12118165
32	0xbc85937e	-0.016305681
33	0xbdb43203	-0.087986015
34	0x3c113633	0.00886302
35	0x3ba321af	0.0049783806
36	0x3d906fa3	0.07052543
37	0x3d95c696	0.07313268
38	0x3e1e7efb	0.15478127
39	0x3d42b031	0.04753131
40	0xbdef30da	-0.116792396
41	0x3ca0e3b7	0.019639833
42	0x3b192024	0.0023365105
43	0x3dcb9463	0.09940412
44	0x3d9ef861	0.07762218
45	0x3d62d03f	0.05537438
46	0x3d81ff00	0.063474655
47	0x3cba8566	0.022768687
48	0x3c4a4fed	0.012348157
49	0x3de99f46	0.11407332
50	0x3cddbf92	0.027068887
51	0x3dc36dca	0.09542425
52	0xbdb0afbe	-0.0862727
53	0x3d4757d4	0.048667744
54	0x3cff665b	0.031176737
55	0x3da1c28e	0.078984365
56	0xbdeebf80	-0.116576195
57	0x3d962cde	0.073327765
58	0xbbd9f57c	-0.0066515785
59	0x3cbbb8b9	0.022915231
60	0xbe030603	-0.12795262
61	0x3cac8c2f	0.021062938
62	0xbd9c2e9b	-0.07626077
63	0xbd633305	-0.055468578
64	0xbceb101b	-0.028694203
65	0xbcf647ca	-0.030063529
66	0x3ceddd58	0.029036209
67	0xbd1e441e	-0.03863918
68	0x3b01ee6e	0.0019825953
69	0xbdb22e23	-0.08700206
70	0xbe13430f	-0.1438105
71	0x3c53ef2a	0.012935439
72	0x3d87baf0	0.066274524
73	0xbd90bf07	-0.070676856
74	0x3cd3a6ad	0.025836313
75	0x3e1aa345	0.15101345
76	0x3dbd061e	0.092296824
77	0x3cb8fab3	0.02258048
78	0x3d221d07	0.039578464
79	0x3d9151cf	0.07095682
80	0xbd069e14	-0.0328656
81	0xbd971d5f	-0.07378649
82	0x3d1bb2c9	0.0380123
83	0xbde73c31	-0.112907775
84	0x3df20678	0.1181764
85	0x3d58f16a	0.052964605
86	0x3dc21843	0.09477284
87	0x3de985d0	0.11402476
88	0xbb5bf9d7	-0.0033565664
89	0x3e038c97	0.128466
90	0xbd3ce61f	-0.046117898
91	0x3d85b223	0.065281175
92	0xbdd7b355	-0.10532252
93	0xbd268800	-0.040657043
94	0xbd6d737b	-0.05797146
95	0x3d3e50e3	0.04646386
96	0x3db4fe1f	0.08837532
97	0xbd8608f1	-0.06544674
98	0xbdae3ac6	-0.08507304
99	0x3dd0b8c1	0.10191489
100	0x3dfd8382	0.12378599
101	0x3c9fa14d	0.019486094
102	0xbdbe5fe2	-0.09295632
103	0x3d234815	0.039863665
104	0xbc9db78b	-0.01925256
105	0x3e1b7257	0.15180336
106	0x3e2be640	0.16787052
107	0x3e186128	0.14880812
108	0x3e0700d2	0.13183907
109	0x3e1135c6	0.14180669
110	0x3dd427b0	0.10359132
111	0x3d9ae45f	0.075630896
112	0x3d2cdc1d	0.042202104
113	0xbcde6584	-0.027148016
114	0x3cc3feee	0.02392527
115	0x3c6045b0	0.01368849
116	0x3deaa419	0.114570804
117	0x3df79358	0.120886505
118	0xbdd0d673	-0.10197153
119	0xbdecfca5	-0.115716256
120	0xbdf6ed5e	-0.12056993
121	0xbd63e80c	-0.05564122
122	0xbc071263	-0.00824413
123	0x3dbb742f	0.0915302
124	0x3db68b97	0.089133434
125	0xbd837e6e	-0.06420599
126	0x3e0f43f5	0.13990767
127	0x3e5802c1	0.210948
128	0x3c31e2b0	0.010857269
129	0x3d0f0f5e	0.034926765
130	0xbde90f7b	-0.11379906
131	0xbdc4abbb	-0.096030675
132	0x3e220d7a	0.15825453
133	0xbe0859af	-0.13315462
134	0x3dcbfbaa	0.099601105
135	0xbd8d1ce9	-0.0689028
136	0x3e5342c0	0.20630932
137	0xbe079e70	-0.13244033
138	0xbe574e7e	-0.21026036
139	0xbe5ecacd	-0.2175705
140	0xbd8da456	-0.0691611
141	0x3c886034	0.016647436
142	0x3dbc50b0	0.091950774
143	0x3df17fce	0.11791955
144	0x3def1630	0.11674154
145	0x3cde2a9e	0.02711993
146	0x3e41808e	0.18896696
147	0xbde632e3	-0.112401746
148	0xbd62fbd6	-0.05541595
149	0xbd8deb9e	-0.06929706
150	0x3e70b5be	0.23506829
151	0x3ca858af	0.0205501
152	0xbd03ca89	-0.032175574
153	0xbe4ea608	-0.20180523
154	0xbdf7b183	-0.120944045
155	0xbcbcb74e	-0.023036625
156	0x3e248570	0.16066527
157	0xbd0439bd	-0.032281626
158	0x3e55878c	0.20852488
159	0x3be828ba	0.007084933
160	0x3d4542c5	0.04815938
161	0xbd903539	-0.070414014
162	0x3b2ff87c	0.002685099
163	0x3c980664	0.018557735
164	0xbc7f586d	-0.015585047
165	0xbd80788d	-0.06272993
166	0xbdf0ea13	-0.11763396
167	0xbcd4dddd	-0.025984699
168	0x3d8f5322	0.06998278
169	0x3ddcee2a	0.10787614
170	0x3dd9a801	0.10627747
171	0xbbab5a1e	-0.0052292487
172	0xbd040b69	-0.032237444
173	0x3c312650	0.010812357
174	0xbdf73151	-0.12069953
175	0xbe9848d6	-0.2974307
176	0xbe440ea1	-0.19146205
177	0x3dc8479b	0.09779283
178	0xbd6a79bb	-0.057244997
179	0x3e0574fa	0.13032904
180	0xbc784793	-0.015153783
181	0x3c82c5ef	0.015963523
182	0x3dfeae99	0.124356456
183	0x3cefc891	0.029270442
184	0xbe6c5510	-0.23079324
185	0xbdc2cf43	-0.09512188
186	0xbd062892	-0.032753535
187	0xbcba2d0a	-0.022726554
188	0xbcd3bf43	-0.025848037
189	0xbd8ea99d	-0.06965945
190	0xbba78ffd	-0.0051136003
191	0x3de6f9ee	0.11278139
192	0x3e97759c	0.29581916
193	0xbd419e7c	-0.047270283
194	0xbc0a013e	-0.008423148
195	0xbbeedfe9	-0.0072898758
196	0x3cf971df	0.030449806
197	0xbd2aca04	-0.041696563
198	0xbdc78855	-0.097428
199	0xbdcfe5d8	-0.10151261
200	0xb9ef94a6	-0.00045696384
201	0x3d753b8d	0.059871245
202	0x3db1d30f	0.08682834
203	0x3db4a69a	0.08820839
204	0x3c06151d	0.008183745
205	0xbc9215b1	-0.017832609
206	0x3d979a69	0.07402498
207	0xbb8ed1e7	-0.0043585184
208	0xbda632f9	-0.08115191
209	0xbcef8785	-0.029239425
210	0xbd9fd689	-0.07804591
211	0xbc4a14fa	-0.012334103
212	0xbdbbd702	-0.09171869
213	0x3d583900	0.052788734
214	0xbc9e39ce	-0.019314673
215	0x3da65f95	0.081236996
216	0x3deb7daa	0.11498578
217	0x3d84e97d	0.06489847
218	0xbdad8fc0	-0.08474684
219	0x3d8b7a77	0.06810468
220	0xbc05c61e	-0.008164911
221	0x3d8a672d	0.067579605
222	0xbc8c39f7	-0.017117484
223	0x3c9fad43	0.019491797
224	0x3b8cc7a3	0.0042962595
225	0xbd91b5d5	-0.0711476
226	0xbd7592c2	-0.059954412
227	0xbd7c685d	-0.061622966
228	0xbd1c03a2	-0.038089402
229	0xbc9b9ed6	-0.018996637
230	0xbd48fe36	-0.04907056
231	0x3d184aec	0.037180826
232	0x3d442b04	0.047892585
233	0x3da0ff52	0.078611985
234	0x3c407900	0.011747599
235	0xbd4ffc27	-0.05077758
236	0xbc45173a	-0.012029463
237	0xbd3f1815	-0.046653826
238	0xbd781bea	-0.060573496
239	0xbb038104	-0.0020065913
240	0x3d8205b0	0.06348741
241	0xbdc133f3	-0.09433737
242	0xbd94c7d2	-0.07264675
243	0x3afc8e0a	0.0019268405
244	0x3d5224c5	0.051304597
245	0xbdb134e4	-0.08652666
246	0x3d05c797	0.032661047
247	0xbdd073cb	-0.10178336
248	0x3d672b57	0.056437816
249	0x3d705a09	0.058679614
250	0xbd2a9c53	-0.04165299
251	0xbc52895b	-0.012850131
252	0x3ccb4857	0.024814768
253	0x3cabf0fa	0.02098893
254	0xbb620c10	-0.0034492053
255	0x3da8dd89	0.082453795

net.2.bias f4 [100]
0	0x3c7882f5	0.015167941
1	0x3d602953	0.05472691
2	0xbdc92cd5	-0.09823004
3	0xbb7319c2	-0.003709421
4	0x3d67d3b6	0.056598388
5	0xbd513ba0	-0.051082253
6	0xbceb3dc4	-0.028715976
7	0xbd03f791	-0.03221852
8	0x3c451bf9	0.012030595
9	0xbd1c2613	-0.038122248
10	0xbccd8dd5	-0.025092045
11	0x38bdce51	9.050652e-05
12	0x3cc4c535	0.024019817
13	0xbd8d6d36	-0.06905596
14	0x3ddc0c58	0.10744542
15	0xbc29354f	-0.010327651
16	0xbd345e64	-0.04403533
17	0x3d7df3e6	0.062000178
18	0xbd27fad3	-0.04101069
19	0xbc6ef776	-0.0145853665
20	0xbd4683f6	-0.04846569
21	0xbd640a0d	-0.055673648
22	0xbdd2e0bd	-0.10296772
23	0x3d84a569	0.06476862
24	0x3cda39ce	0.026638892
25	0xbcc28dcb	-0.023749253
26	0xbc15becc	-0.009139728
27	0x3dbf0e28	0.09328872
28	0xbda18a47	-0.078877024
29	0x3d8c5160	0.068514585
30	0xbc9c3392	-0.01906756
31	0xbdb5885e	-0.088639006
32	0x3d90e241	0.070744045
33	0x3cf3b7c4	0.029750712
34	0xbd161853	-0.03664429
35	0x3da2a009	0.079406805
36	0xbd85d9f2	-0.065357104
37	0x3dcbaf8f	0.099455945
38	0xbc483c04	-0.01222134
39	0xbd93906d	-0.072052814
40	0xbd40087f	-0.046883103
41	0xbdc58e36	-0.09646265
42	0xbdb6e4a7	-0.08930331
43	0xbc47ff09	-0.012206801
44	0x3dc64125	0.09680394
45	0xbd199b4c	-0.03750162
46	0xbc897c6f	-0.016782967
47	0x3da91a85	0.08257011
48	0x3cfaf552	0.030634556
49	0xbdc2c762	-0.095106855
50	0xbd9ed044	-0.07754567
51	0xba9dcf53	-0.0012039937
52	0xbd86cc36	-0.06581919
53	0x3da9219c	0.082583636
54	0xbdbb503a	-0.091461614
55	0xbd8ac61b	-0.06776067
56	0x3da8c34f	0.08240377
57	0x3dbc9a4a	0.09209116
58	0xbcb61f35	-0.022231678
59	0x3cf7631c	0.030198626
60	0xbdc9d295	-0.098546185
61	0xbd8cb26a	-0.06869967
62	0x3d82c1ae	0.06384598
63	0x3d939d4f	0.072077386
64	0x3b9e9f1a	0.0048407437
65	0x3dd97e25	0.10619763
66	0x3df3b07b	0.11898895
67	0xbd960b51	-0.07326377
68	0xbca4c236	-0.020112138
69	0x3d543ef7	0.05181786
70	0x3d7666dc	0.060156688
71	0x3d521d84	0.05129768
72	0xbdafdf3f	-0.08587503
73	0x3c27d3c3	0.010243359
74	0xbd9972ad	-0.07492576
75	0xbc451da3	-0.012030992
76	0xbd314eed	-0.04328816
77	0xbd27ee08	-0.04099849
78	0xbc8a93ba	-0.016916145
79	0xbd810e01	-0.06301499
80	0x3d585b8f	0.052821692
81	0xbd910cac	-0.07082495
82	0xbdb52b4c	-0.08846149
83	0xbda6b24b	-0.081394754
84	0xbd36fe94	-0.04467638
85	0x3db1b945	0.086779155
86	0x3d9b4a3b	0.07582518
87	0x3dc29a9e	0.09502147
88	0x3d5c57b0	0.053794563
89	0x3d2f187e	0.042747967
90	0xbab62386	-0.0013896085
91	0xbd4b0d7e	-0.049573414
92	0xbdb63213	-0.0889627
93	0xbd47323a	-0.048631884
94	0xbcecef81	-0.028922798
95	0xbc4e55bf	-0.012593686
96	0xbdaa41db	-0.08313342
97	0xbda11560	-0.07865405
98	0xbd85ee8e	-0.06539641
99	0xbd1ff812	-0.039054938

net.4.weight f4 [100, 100]
0	0xbc15a796	-0.009134194
1	0xbd630572	-0.055425115
2	0x3d2d4b07	0.04230788
3	0xbd502dd7	-0.050824966
4	0xbbbb9828	-0.0057249255
5	0x3dde62ad	0.10858665
6	0xbd56941a	-0.052387334
7	0xbcdd60d3	-0.027023708
8	0xbdc59fb6	-0.09649603
9	0x3dc33bdd	0.095329024
10	0xbd92ddf6	-0.07171242
11	0x3cf3cdc2	0.029761199
12	0xbd819c0f	-0.06328594
13	0xbd3b3b04	-0.04571058
14	0x3cbde4e5	0.023180434
15	0x3dd56c48	0.10421044
16	0xbbbf06cf	-0.005829669
17	0xbcc1697a	-0.023609865
18	0xbcc24712	-0.02371553
19	0xbd27ab94	-0.040935114
20	0x3dc77e6c	0.0974091
21	0x3d8913ca	0.066932276
22	0xbdae8abc	-0.08522555
23	0x3d39a16b	0.045319956
24	0x3d936bce	0.071982965
25	0x3ca27efa	0.019835938
26	0xbd09cc6e	-0.033642225
27	0x3d91c9f1	0.071185954
28	0x3db58811	0.08863843
29	0xbdb67e51	-0.08910812
30	0x3dd20072	0.10253991
31	0xbd5a02df	-0.053225394
32	0xbdb3a3f7	-0.08771508
33	0xbde20f52	-0.11038078
34	0x3d487e37	0.048948493
35	0xbd7c1361	-0.06154192
36	0x3b979fb0	0.0046271905
37	0xbd0b713f	-0.034043547
38	0x3b11785b	0.0022196982
39	0x3df313fd	0.11869047
40	0x3d88a452	0.066719666
41	0x3d9ac1d2	0.075564995
42	0x3cc41089	0.023933666
43	0xbd5860c5	-0.05282666
44	0xbdd82b4d	-0.10555134
45	0xbdba0715	-0.09083382
46	0xbcb94802	-0.022617344
47	0xbd4f3091	-0.050583426
48	0xbd71880f	-0.058967646
49	0x3d653c65	0.0559658
50	0xbdb0ee2c	-0.08639178
51	0x3d08cb87	0.033397224
52	0xbd8aa8a9	-0.067704506
53	0xbd6b0cf9	-0.05738542
54	0xbd5b705f	-0.053573962
55	0x3c8940cf	0.016754536
56	0x3df2c236	0.11853449
57	0xbdb3ba20	-0.08775735
58	0x3c8b4a6a	0.017003257
59	0x3c89caf2	0.016820405
60	0xbd67d439	-0.056598876
61	0xbdb82f1a	-0.08993359
62	0x3d8dc689	0.06922633
63	0x3d652f63	0.055953395
64	0xbcc0c48e	-0.023531225
65	0xbd8395e5	-0.064250745
66	0x3d489247	0.048967626
67	0x3cf50ca5	0.029913256
68	0x3d45419d	0.048158277
69	0x3db12a84	0.08650687
70	0x3d366db8	0.04453823
71	0x3d8e41a9	0.069461174
72	0x3d5340ed	0.05157559
73	0x3d8abb87	0.06774049
74	0x3d24d0ea	0.0402383
75	0x3b004810	0.0019574203
76	0xbd37bde4	-0.04485883
77	0x3ddb57eb	0.107101284
78	0xb88736b9	-6.4474945e-05
79	0xbd81153c	-0.06302878
80	0x3bf88b6b	0.0075849793
81	0x3dc924b9	0.098214574
82	0xbc442941	-0.011972726
83	0x3d8798cb	0.0662094
84	0xbb3fd45b	-0.002927086
85	0x3da028a5	0.07820252
86	0x3db8924f	0.09012281
87	0xbda9cb28	-0.08290702
88	0x3d237402	0.039905556
89	0xbc484144	-0.012222592
90	0xbd872ba3	-0.0660012
91	0x3da9ec44	0.08297017
92	0x3dd8f024	0.10592678
93	0x3db4c39f	0.08826374
94	0xbd0d56a8	-0.03450647
95	0x3d88925f	0.06668543
96	0x3c7728d0	0.015085414
97	0x3bfdb5e5	0.007742631
98	0x3c12c42c	0.008957904
99	0xbdce8cf1	-0.10085476
100	0xbdd71198	-0.105014026
101	0xbdb9ed9a	-0.09078522
102	0x3d037d37	0.032101836
103	0xbe07ebfa	-0.13273612
104	0x3e07316d	0.13202448
105	0x3d9532a2	0.07285048
106	0xbd49b432	-0.049244113
107	0x3d53b7ad	0.05168884
108	0xbe270b6c	-0.16312951
109	0x3e0990d9	0.13434161
110	0xbd020665	-0.03174438
111	0xbe31af91	-0.1735213
112	0xba027149	-0.0004975987
113	0x3c92498b	0.017857334
114	0xbc5f9eab	-0.013648669
115	0x3bccdc8f	0.0062518786
116	0x3dfd15ff	0.12357711
117	0xbc10f102	-0.008846523
118	0x3df3edac	0.11910567
119	0x3d30a215	0.043123323
120	0xbd7f2517	-0.06229123
121	0x3cf8edb8	0.03038679
122	0x3dc0f2a0	0.09421277
123	0x3df05ac6	0.11736064
124	0x3d517e52	0.05114586
125	0x3debcb47	0.115133815
126	0x3de22aab	0.110432945
127	0xbc9c22c2	-0.019059543
128	0xbd908da1	-0.070582636
129	0x3d6f168c	0.05837111
130	0x3daafae4	0.08348635
131	0x3d35791d	0.044304956
132	0xbd13bd92	-0.03606946
133	0x3d541328	0.05177608
134	0x3dbef9b1	0.093249686
135	0xbde74a12	-0.11293425
136	0x3d47304b	0.04863004
137	0x3deab438	0.11460155
138	0x3dd39a49	0.10332162
139	0x3da7ac18	0.08187121
140	0xbd26686c	-0.04062693
141	0x3caf7099	0.021415995
142	0xbd0b75fc	-0.034048066
143	0x3ce08afa	0.02741002
144	0xbe024065	-0.12719877
145	0xbcfbb378	-0.030725226
146	0x3c45ff7b	0.012084837
147	0x3d079f35	0.033110816
148	0xbd83d1e4	-0.06436518
149	0xbd771602	-0.060323723
150	0x3d85bb6f	0.06529891
151	0x3d63d7a5	0.055625577
152	0x3bee8f64	0.007280277
153	0xbdd0380a	-0.101669386
154	0xbc0e96c4	-0.0087029375
155	0xbca17263	-0.019707864
156	0x3bb7c02e	0.0056076264
157	0xbda41d51	-0.08013404
158	0xbd476d38	-0.048688143
159	0xbd48cef5	-0.049025495
160	0xbca99d09	-0.020704763
161	0xbd87d800	-0.066329956
162	0xbd42c91f	-0.047555085
163	0x3d94b45c	0.07260963
164	0x3c38f2f6	0.011288395
165	0xbd4d1591	-0.050069395
166	0xbd93aa21	-0.07210184
167	0xbd41f6f7	-0.047354665
168	0xbd43253e	-0.04764294
169	0xbd9608cb	-0.07325896
170	0x3dc936b6	0.098248884
171	0xbda3a6bc	-0.079907864
172	0x3ce8f1bb	0.028435579
173	0x3d45efe8	0.048324496
174	0x3dc189df	0.09450125
175	0xbdea9ba2	-0.11455466
176	0x3d895aa2	0.0670674
177	0xbd8c38bf	-0.06846761
178	0xbdf6d1d5	-0.12051741
179	0xbd2f6fa9	-0.042831097
180	0x3df3eca2	0.119103685
181	0x3d953483	0.072854064
182	0xbd4e4abc	-0.05036424
183	0x3d45071d	0.048102487
184	0xbdb458a1	-0.08805967
185	0x3e060860	0.13089132
186	0xbe15f04d	-0.14642449
187	0xbcf89df1	-0.03034875
188	0xbd89bf65	-0.06725959
189	0xbd0196d2	-0.031637974
190	0x3d14f928	0.036370426
191	0x3d86d8e7	0.065843396
192	0xbd84dcd0	-0.06487429
193	0x3df902b2	0.12158717
194	0xbe15ac76	-0.1461657
195	0xbd31d803	-0.043418895
196	0x3c06a744	0.00821859
197	0x3d52c5a1	0.051458005
198	0x3dd64001	0.104614265
199	0x3cdd9049	0.02704634
200	0x3d336305	0.043795604
201	0xbd9b3928	-0.07579261
202	0xba166492	-0.0005737032
203	0x3ccfb0fc	0.025352947
204	0xbc333327	-0.010937489
205	0xbc610651	-0.013734416
206	0xbcdaf0d0	-0.026726156
207	0x3d700556	0.05859884
208	0x3bb9d51c	0.0056711566
209	0xbd990142	-0.07470943
210	0x3d3a3574	0.045461133
211	0xbdd203f6	-0.10254662
212	0x3d95db54	0.07317224
213	0xbb316509	-0.0027068278
214	0x3d83ceff	0.06435966
215	0x3c2f65be	0.01070541
216	0xbd19c8b0	-0.037544906
217	0xbd2b5195	-0.04182585
218	0x3ddedb14	0.108816296
219	0x3b81ee01	0.00396514
220	0x3d2407a8	0.040046364
221	0x3d3be717	0.04587468
222	0x3c473fa1	0.012161166
223	0x3a5367f3	0.0008064501
224	0x3dbfd54a	0.093668535
225	0x3d042fd8	0.03227219
226	0x3daca967	0.084307484
227	0x3d31681d	0.04331218
228	0xbcb5e8c3	-0.022205716
229	0x3dbb4dc5	0.09145693
230	0x3d073513	0.0330096
231	0xbcd20e90	-0.02564171
232	0x3df004a9	0.11719639
233	0xbd5eb49b	-0.054371458
234	0x3e2e87a5	0.17043932
235	0x3c15e00c	0.009147655
236	0xbd0a3b67	-0.033748057
237	0x3db2df1b	0.0873396
238	0xbda3ddeb	-0.08001312
239	0x3d3f4cce	0.046704106
240	0x3dcb97bd	0.09941051
241	0xbc68e6d4	-0.01421519
242	0x3d84a5ba	0.06476922
243	0xbd060a12	-0.032724448
244	0xbd8664f2	-0.065622225
245	0x3d089c3e	0.03335213
246	0x3db3187e	0.08744906
247	0xbc839bfb	-0.016065588
248	0xbc714508	-0.014725931
249	0x3d8a88ca	0.06764372
250	0xbd2f0da6	-0.042737626
251	0x3c855fc1	0.01628101
252	0x3df4d102	0.119539276
253	0xbdb435f1	-0.08799351
254	0xbcea43d2	-0.028596792
255	0xbd2bd856	-0.04195436

net.4.bias f4 [100]
0	0x3d233e6b	0.03985445
1	0xbd658513	-0.056035113
2	0x3cd2ea06	0.025746357
3	0xbdc7136d	-0.09720502
4	0x3d3ab560	0.04558313
5	0x3d1e75aa	0.038686432
6	0x3d94413f	0.07239007
7	0x3c0cf1ea	0.008602599
8	0xbd2910c8	-0.04127577
9	0x3c9c61d6	0.01908962
10	0xbc916452	-0.017748032
11	0x3b1379ff	0.0022503135
12	0xbcea26f7	-0.028583033
13	0xbd4f2671	-0.05057377
14	0xbd0a2eb3	-0.033735942
15	0xbd0c38c7	-0.034233835
16	0xbd5b1c86	-0.053494
17	0x3c70b1ed	0.014690858
18	0x3da1103b	0.07864424
19	0xbc03a8f2	-0.008035885
20	0xbd177282	-0.036974438
21	0x3d96a2c3	0.07355263
22	0xbc30f869	-0.010801413
23	0x3da44154	0.08020273
24	0xbdc670c0	-0.09689474
25	0xbdc2804e	-0.094971284
26	0x3d0cd867	0.034386065
27	0x3ad9740b	0.001659037
28	0xbdafafb6	-0.08578436
29	0x3d2f755c	0.042836532
30	0xbdb18cc3	-0.08669426
31	0x3d76c806	0.06024935
32	0xbdb1fb7c	-0.08690545
33	0xbd969e6f	-0.073544376
34	0x3d8043c5	0.06262926
35	0xbcd60a55	-0.026127974
36	0x3d7c8cc7	0.061657693
37	0x374d0531	1.2220161e-05
38	0xbd8e3978	-0.06944555
39	0x3b301100	0.0026865602
40	0x3c02bc4d	0.007979465
41	0x3c80a60b	0.015704175
42	0xbc1fceb4	-0.009753872
43	0xbd201f5b	-0.039092403
44	0x3d7eee82	0.062239178
45	0xbdaa8cff	-0.08327674
46	0x3ce8fba4	0.028440304
47	0x3d8496f5	0.06474105
48	0x3ba4276f	0.0050095837
49	0x3d33a2d8	0.04385647
50	0x3c9db8e6	0.019253206
51	0xbcb8be05	-0.022551546
52	0xbd63ea8f	-0.055643614
53	0x3dafbb41	0.08580638
54	0xbd9df42b	-0.07712587
55	0xbc974312	-0.018464599
56	0xbc8b23ab	-0.016984781
57	0x3da5f8e8	0.08104116
58	0x3c983347	0.018579138
59	0x3cbb6974	0.022877432
60	0xbde7dfec	-0.113220066
61	0xbb9b6d62	-0.004743264
62	0xbd99db5c	-0.075125426
63	0xbd058666	-0.032598875
64	0xbd05b3a2	-0.032642014
65	0xbce55469	-0.027994351
66	0xbdb03684	-0.08604148
67	0xbd905eef	-0.07049357
68	0xbd16598b	-0.03670649
69	0xbd9d87d3	-0.07691922
70	0x3c0371a7	0.008022702
71	0xbd911551	-0.07084144
72	0x3d3075d4	0.04308112
73	0xbd570931	-0.052499
74	0xbcf46c59	-0.02983682
75	0xbd94f1bf	-0.07272672
76	0x3c55eaab	0.0130564375
77	0xbc14fb5e	-0.009093134
78	0x3ca5c503	0.020235544
79	0x3bebf184	0.0072004218
80	0x3c775d48	0.015097924
81	0xbdad2f13	-0.08456244
82	0x3d41cc88	0.047314197
83	0xbd1d01d1	-0.03833181
84	0x3dc1f862	0.094712034
85	0x3d20e66d	0.03928225
86	0x3d603cf6	0.054745637
87	0xbdad643e	-0.08466385
88	0x3d87d298	0.066319644
89	0xbd0f987c	-0.03505753
90	0xbce4bd58	-0.027922317
91	0xbbc57d9e	-0.0060269376
92	0x3d05ec17	0.032695856
93	0xbc41b206	-0.011822229
94	0xbdd75bda	-0.10515566
95	0x3d915105	0.070955314
96	0x3db7e427	0.089790635
97	0x3ca992d6	0.0206999
98	0x3ce7c8d6	0.028294008
99	0xbd6b8b9e	-0.057506196

net.6.weight f4 [100, 100]
0	0xbad8990c	-0.0016525104
1	0xbd1c0ae1	-0.038096312
2	0x3deef31d	0.11667464
3	0x3d973c04	0.07384494
4	0x3d6e1efd	0.05813502
5	0x3d97071e	0.07374404
6	0xbcd7e2a2	-0.026353184
7	0x3e3a8e84	0.18218428
8	0xbd82b78f	-0.06382667
9	0x3db6fb71	0.089346774
10	0xbe0141ea	-0.126228
11	0x3cead758	0.028667137
12	0xbda66f6c	-0.08126721
13	0xba07051d	-0.0005150603
14	0x3e242e65	0.16033323
15	0xbd578ca4	-0.05262436
16	0xbd37d959	-0.044885013
17	0x3d6fffe9	0.058593664
18	0xbe9b1456	-0.30288953
19	0x3d1a84b5	0.037724216
20	0xbeb226ef	-0.3479533
21	0x3e18fdde	0.14940593
22	0x3d3bf377	0.045886483
23	0x3d9033bb	0.07041117
24	0xbebccfd1	-0.368773
25	0xbdd0528c	-0.101719946
26	0xbd44e557	-0.048070278
27	0x3dae19b2	0.08500995
28	0xbd9665e3	-0.07343652
29	0x3cc1ee8c	0.023673318
30	0xbd07a586	-0.03311684
31	0x3c4098f4	0.011755217
32	0x3d8c7bff	0.06859588
33	0xbdddc6b3	-0.108289145
34	0x3e7f088f	0.24905609
35	0xbd6352c7	-0.055498865
36	0xbe0e6fe0	-0.13909864
37	0xbc00befc	-0.007858034
38	0x3e1c99fd	0.15293117
39	0xbd07c837	-0.033149924
40	0x3e2add85	0.16686065
41	0x3db8685b	0.09004279
42	0x3d7cf83e	0.06176018
43	0x3cdd225a	0.02699392
44	0x3cc064a0	0.023485482
45	0x3e10146e	0.14070293
46	0x3cec6b23	0.02885968
47	0x3e047a22	0.12937215
48	0xbd7aaa68	-0.06119767
49	0x3ce39fe4	0.027786203
50	0xbd7e4963	-0.062081706
51	0xbe147d78	-0.14500988
52	0xbd7ce556	-0.06174215
53	0xbd1c4d00	-0.03815937
54	0xbe770e65	-0.24126585
55	0x3d72230d	0.05911546
56	0xbd19845f	-0.037479755
57	0xbd2439c3	-0.04009415
58	0x3cf9d4ee	0.03049704
59	0xbc60c5be	-0.01371902
60	0x3d99a849	0.07502801
61	0x3807ac52	3.2346994e-05
62	0x3d316881	0.043312553
63	0x3db6604f	0.08905088
64	0x3d44c396	0.048038088
65	0xbae0e73a	-0.0017158755
66	0xbe6b2ad1	-0.22965552
67	0x3c3eee3a	0.011653477
68	0xbdd940c4	-0.10608056
69	0xbd84265b	-0.06452628
70	0xbd17042a	-0.036869206
71	0xbeadf6bb	-0.33977303
72	0xbd534af0	-0.051585138
73	0x3e1b1b49	0.15147127
74	0x3e4c9e00	0.19982147
75	0xbd9d6dbe	-0.07686947
76	0xbe052b16	-0.13004717
77	0x3e68f851	0.22750975
78	0xbd763ce1	-0.060116652
79	0x3d9b16d8	0.075727165
80	0x3c4b1d81	0.012397171
81	0xbd35d46a	-0.044392027
82	0x3dc31948	0.095263064
83	0x3d8affc7	0.06787067
84	0x3dd66010	0.10467541
85	0x3d08556f	0.0332846
86	0x3da6ad47	0.08138519
87	0xbd798a3b	-0.060922842
88	0x3d3beac2	0.04587818
89	0xbd56c113	-0.052430224
90	0xbdbe91bb	-0.0930514
91	0x3d74e8fa	0.059792496
92	0xbdf28a4c	-0.11842784
93	0x3e3dc290	0.18531251
94	0x3e0cae95	0.13738473
95	0x3d8da65c	0.06916496
96	0xbe85f194	-0.26160872
97	0x3e0f6e36	0.14006886
98	0xbd1e6a56	-0.03867563
99	0x3d25b812	0.040458746
100	0xb9fe44e9	-0.00048497997
101	0x3dcda09c	0.100403994
102	0xbb959a13	-0.004565486
103	0x3c6eb723	0.01457003
104	0xbdb157fc	-0.0865936
105	0x3d95128a	0.07278927
106	0x3d031d9f	0.03201067
107	0xbc28d3e7	-0.010304428
108	0x3c5f2527	0.013619698
109	0xb8edbdc0	-0.00011336384
110	0xbdaf5e79	-0.08562941
111	0xbd8ee715	-0.06977669
112	0x3c380718	0.01123216
113	0xbd045dff	-0.032316204
114	0x3cbefa9e	0.023312863
115	0x3d99e472	0.075142756
116	0x3dd38eef	0.10329997
117	0x3ca9b1f4	0.020714737
118	0xbdb740c4	-0.089479
119	0xbcec1e1c	-0.028822951
120	0xbcdb5819	-0.026775407
121	0x3d643a0f	0.05571943
122	0x3d61d6cf	0.055136498
123	0xbc414983	-0.011797312
124	0xbdc2ebe6	-0.0951765
125	0xbb035d16	-0.0020044497
126	0xbd7b466e	-0.061346464
127	0xbd83dd52	-0.06438698
128	0x3cea0438	0.028566465
129	0xbc81b68f	-0.015834121
130	0x3c50698a	0.012720475
131	0xbd861755	-0.06547419
132	0x3cbd452b	0.02310427
133	0x3d3e5836	0.046470843
134	0xbd4afd9e	-0.049558274
135	0xbd93d3e8	-0.07218152
136	0x3da2605b	0.079285346
137	0xbdac224b	-0.08404978
138	0x3d683ce2	0.056698687
139	0x3d72b120	0.05925095
140	0xbd6aaee1	-0.057295684
141	0x3b8fa2f0	0.0043834373
142	0xbcc03e80	-0.023467302
143	0xbd1e6534	-0.038670734
144	0xbc726aa7	-0.014795936
145	0x3cec8868	0.028873637
146	0x3d8fcd64	0.07021597
147	0x3d4153de	0.047199123
148	0x3cdb12ce	0.026742365
149	0xbdb4c591	-0.08826745
150	0xbca4a319	-0.020097302
151	0x3c2910cc	0.010318946
152	0xbd8dba3c	-0.06920287
153	0xbdd19433	-0.10233345
154	0x3d7a7a79	0.061151955
155	0x3c2cae70	0.010539636
156	0xbde0eec8	-0.10983044
157	0x3d69318e	0.056932025
158	0xbd8a52de	-0.06754087
159	0xbd353505	-0.044240016
160	0xbcd3b6db	-0.025844028
161	0x3d9943db	0.074836455
162	0xbd93ea41	-0.07222415
163	0xbd99105b	-0.07473823
164	0xbda8c661	-0.08240963
165	0x3c191030	0.009342238
166	0xbd63461f	-0.055486795
167	0xbdb1e660	-0.08686519
168	0x3d5049c9	0.050851617
169	0xbda481c8	-0.08032566
170	0xbd8aa76a	-0.06770213
171	0x3b8bdc1c	0.0042681824
172	0x3d8a5d85	0.06756119
173	0xbbd5563a	-0.006510523
174	0x3de39ac4	0.111135036
175	0xbd957e63	-0.07299497
176	0x3ccc6b81	0.024953606
177	0x3cc157e1	0.023601474
178	0xbd83f93a	-0.064440206
179	0x3d33ec3f	0.043926474
180	0xbdd03dc9	-0.101680346
181	0x3d4b4239	0.0496237
182	0x3c4914c8	0.012273021
183	0xbd41363f	-0.047170874
184	0xbcd73879	-0.026272045
185	0x3da15410	0.07877362
186	0xbdbb37ac	-0.09141478
187	0xbd9e9c5e	-0.077446684
188	0xbdbbda94	-0.0917255
189	0xbdc3e775	-0.09565631
190	0x3c5a840f	0.013337149
191	0x3d322be9	0.043498907
192	0xbdb1c9ac	-0.08681044
193	0x3da1a5ce	0.07892953
194	0x3cd393d2	0.025827322
195	0x3b62a1c5	0.0034581285
196	0x3d46197b	0.048364144
197	0xbcb2cb80	-0.021825552
198	0x3db4c028	0.088257134
199	0xbdbe0ef7	-0.09280198
200	0xbd7a7327	-0.061144974
201	0x3d0ff0df	0.035141822
202	0xbcc322e9	-0.023820357
203	0x3dce3905	0.10069469
204	0xbdccab78	-0.099936426
205	0xbd69f6ee	-0.057120256
206	0xbd4fbb9d	-0.05071603
207	0x3d1121f9	0.03543279
208	0xbdf4cc44	-0.11953023
209	0xbd35eddf	-0.044416305
210	0x3bff7d7f	0.0077969427
211	0x3d027b8f	0.031856116
212	0x3d834b35	0.06410829
213	0xbd502d87	-0.05082467
214	0x3d448f06	0.04798796
215	0xbddef5eb	-0.10886749
216	0xbbeeabc1	-0.0072836583
217	0xbd5e7642	-0.054312
218	0x3c5e7bae	0.013579292
219	0xbca075ae	-0.019587364
220	0xba728eb8	-0.0009252834
221	0x3c8c9be3	0.017164176
222	0xbac0531a	-0.0014673204
223	0x3d137bb2	0.036006637
224	0x3d99127b	0.07474228
225	0x3d877cc9	0.06615598
226	0xbbe640fa	-0.007026789
227	0x3d054185	0.032533187
228	0x3c97c3fe	0.018526074
229	0xbdd0680e	-0.10176097
230	0x3da05bee	0.07830034
231	0xbd7ccb34	-0.061717227
232	0x3c30be02	0.010787489
233	0xbd9068ae	-0.07051216
234	0xbdaf65fe	-0.08564375
235	0xbb35056f	-0.0027621647
236	0x3dd6e36c	0.10492596
237	0x3d92c0d7	0.071656875
238	0x3dada79b	0.08479234
239	0x3dc06686	0.09394555
240	0x3b58c8b7	0.003307862
241	0x3d609997	0.054833975
242	0xbcbff90d	-0.023434186
243	0x3cda21a4	0.02662737
244	0xbda1217d	-0.078677155
245	0x3dcd34d1	0.100198396
246	0xbd954662	-0.07288815
247	0xbcc9b412	-0.024621997
248	0x3d7a4379	0.061099503
249	0xbd92624f	-0.07147657
250	0xbce2309e	-0.027611073
251	0xbd608b93	-0.05482061
252	0xbd6a1cf4	-0.057156518
253	0x3d09a957	0.03360876
254	0x3d69bffe	0.057067864
255	0x3c061f02	0.008186104

net.6.bias f4 [100]
0	0x3de1fc0b	0.110344015
1	0xbd83050b	-0.06397446
2	0xbd427d52	-0.047482796
3	0xbdaef8c2	-0.085435405
4	0x3d462ab6	0.048380576
5	0xbc137894	-0.009000916
6	0xbc955260	-0.018227756
7	0xbde03230	-0.109470725
8	0x3d78d2a1	0.060747746
9	0x3d649211	0.055803362
10	0xbd69d100	-0.057084084
11	0x3d9c505e	0.07632516
12	0xbd2551ae	-0.0403611
13	0xbb07abda	-0.0020701797
14	0x3cfb0a4a	0.030644555
15	0x3ceb16ff	0.028697489
16	0x3d87dccc	0.066339105
17	0xbdb2aa02	-0.08723833
18	0x3c277a6b	0.010222058
19	0xbd15a664	-0.036535636
20	0x3d4ad152	0.04951603
21	0x3d903b7a	0.07042594
22	0xbc4b941b	-0.012425448
23	0x3da0f14c	0.07858524
24	0xbd980909	-0.07423598
25	0x3c2a4e2a	0.010394612
26	0x3d946cd3	0.07247319
27	0xbd0603db	-0.03271852
28	0x3da5f845	0.08103994
29	0x3bf4a961	0.0074664806
30	0x3ce980e6	0.028503846
31	0xbd9da175	-0.07696811
32	0x3d9bd33c	0.07608649
33	0xbb0809ec	-0.0020757867
34	0x3d2f9204	0.04286386
35	0xbbed97f5	-0.0072507807
36	0xbbd0c52f	-0.0063711624
37	0xbd8b629f	-0.0680592
38	0xbd85ace7	-0.06527119
39	0xbc897df5	-0.016783694
40	0xbb1137aa	-0.0022158423
41	0x3d205a0a	0.039148368
42	0x3d6395b0	0.055562675
43	0x3d394949	0.045235906
44	0x3ba7abf4	0.005116934
45	0x3da120d7	0.07867592
46	0xbd675d17	-0.05648526
47	0xbcc1263f	-0.023577807
48	0xbc5af838	-0.013364844
49	0xbdb1f805	-0.08689884
50	0xbdab5600	-0.083660126
51	0x3d4b838c	0.049686
52	0x3d0674c2	0.032826193
53	0x3d02640c	0.031833693
54	0xbcad6862	-0.021167938
55	0xbd83a6b0	-0.064282775
56	0x3dbb5fd8	0.0914914
57	0x3bb6189d	0.0055571334
58	0xbdb9fa55	-0.0908095
59	0xbd2b8c92	-0.041882105
60	0x3d060ed5	0.03272899
61	0x3da39e2a	0.07989152
62	0x3c930833	0.017948246
63	0x3d5b2b05	0.053507823
64	0x3ccd569b	0.02506571
65	0x3da6eca1	0.08150602
66	0x3db411c9	0.08792455
67	0x3d094ebe	0.03352236
68	0xbd8daee1	-0.06918121
69	0x3d9aab3f	0.07552194
70	0x3da8430f	0.082159154
71	0x3d8dcd7b	0.06923958
72	0xbd619851	-0.0550769
73	0x3dcaf2ea	0.099096134
74	0x3bdc9ec6	0.0067327945
75	0xbdbeb750	-0.09312308
76	0xbcec73ee	-0.028863873
77	0xbd5d3b0f	-0.0540114
78	0xbdb9ae43	-0.09066441
79	0x3d5ae8ab	0.053444546
80	0x3d570ea6	0.052504204
81	0xbd2f6f4b	-0.042830747
82	0x3d3c2352	0.04593212
83	0xbcbc067a	-0.022952307
84	0xbdb5ee61	-0.08883358
85	0x3dc2494c	0.094866365
86	0x3d7dee17	0.06199464
87	0x3da6d211	0.08145536
88	0xbd51e161	-0.05124033
89	0x3d119637	0.035543647
90	0xbd89fe6a	-0.06737979
91	0xbd82bc21	-0.06383539
92	0xbd22b62d	-0.039724518
93	0x3d451ae3	0.048121344
94	0x3cb53cbf	0.022123693
95	0x3db8f76e	0.090315685
96	0xbbdb2919	-0.006688249
97	0xbd41ac00	-0.047283173
98	0xbda5ac1c	-0.08089468
99	0xbd4470a8	-0.047959

net.8.weight f4 [100, 100]
0	0xbd348f8a	-0.044082202
1	0xbd96e580	-0.073679924
2	0x3bc7ef01	0.0061014895
3	0xbd83addb	-0.06429645
4	0xbbebc258	-0.0071947984
5	0x3db540d7	0.08850258
6	0x3d414e63	0.047193896
7	0x3d43540f	0.047687586
8	0xbb9e17ba	-0.004824606
9	0x3c8c117e	0.017098185
10	0xbc3a1432	-0.011357354
11	0x3d14d7f6	0.03633877
12	0xbd967910	-0.073473096
13	0xbcdac8ed	-0.026707137
14	0x3daf21aa	0.08551343
15	0xbd64bd05	-0.055844326
16	0x3d8f4db3	0.06997242
17	0xbd256aa8	-0.04038492
18	0x3d14a629	0.036291275
19	0xbdd34804	-0.1031647
20	0x3dc9b5b0	0.09849107
21	0xbd53b96c	-0.051690504
22	0xb95f8034	-0.00021314697
23	0xbd1bda8e	-0.038050227
24	0x3d393aa5	0.045221943
25	0xbd6706db	-0.056403022
26	0xbaaa4254	-0.0012989738
27	0x3d8a96d0	0.067670465
28	0xbd020772	-0.03174538
29	0x3c845788	0.01615502
30	0xbcf1824d	-0.029481078
31	0x3d40d059	0.047073696
32	0x3d5b6843	0.05356623
33	0x3dc414de	0.095742926
34	0xbda3a7a3	-0.079909585
35	0xbc60ec90	-0.013728276
36	0x3d084d9f	0.03327715
37	0xbd8f8740	-0.07008219
38	0xbd9a0b25	-0.07521657
39	0xb9b8a2a3	-0.0003521639
40	0xbdacccd9	-0.08437509
41	0x3b8b8a76	0.004258449
42	0xbd393d5d	-0.045224536
43	0x3ccfad25	0.025351116
44	0x3db733cb	0.089454256
45	0x3da6dbcb	0.08147391
46	0x3d93e039	0.072205015
47	0xbca2bb45	-0.019864688
48	0x3da53d9d	0.080683924
49	0x3c9d137e	0.019174334
50	0x3d8dcc58	0.06923741
51	0x3d0f396d	0.034966875
52	0xbdad47ab	-0.08460935
53	0x3d139e3a	0.03603957
54	0x3c9c3620	0.019068778
55	0xbce779d3	-0.028256333
56	0xbd8d5f22	-0.06902911
57	0xbd80a8e7	-0.062822156
58	0x3d26d307	0.040728595
59	0xbddef0be	-0.10885762
60	0xbcd6608c	-0.026169084
61	0x3d1fad84	0.038983837
62	0xbd2db989	-0.04241327
63	0xbd11bb02	-0.035578735
64	0xbd18ee0e	-0.0373364
65	0xbbf4ed59	-0.007474583
66	0x3c20629e	0.009789137
67	0x3dbb2245	0.09137396
68	0x3c4ec884	0.012621049
69	0xbc520656	-0.012818893
70	0x3d80dcc1	0.062921055
71	0x3d81cf7d	0.063384034
72	0x3d478e74	0.04871984
73	0xbd90be39	-0.07067532
74	0xbd0e850f	-0.034794863
75	0x3dbefd3b	0.09325644
76	0xbda6cebe	-0.08144902
77	0xbdcd93cd	-0.100379564
78	0xbdbc7d89	-0.092036314
79	0x3ca207e6	0.019779157
80	0xbc055d4b	-0.008139919
81	0xbd4948a3	-0.049141537
82	0xbc9ae953	-0.018910086
83	0xbd46c414	-0.04852684
84	0xbd917200	-0.07101822
85	0x3d7b801e	0.06140148
86	0x3dc3578e	0.09538184
87	0xbd4c7c57	-0.049923267
88	0xbba3c49f	-0.0049978043
89	0xbc933fb5	-0.017974714
90	0x3d9e8c95	0.07741658
91	0x3d8ed853	0.06974854
92	0x3bc8a576	0.00612324
93	0xbd36dd42	-0.0446446
94	0x3cc54f66	0.024085712
95	0xbd5c57de	-0.053794734
96	0xbc3ec5d1	-0.011643843
97	0x3d8b0344	0.06787732
98	0x3b3a81c0	0.0028458685
99	0xbbae5822	-0.005320565
100	0x3d1d30d4	0.038376644
101	0x3cd7184e	0.026256707
102	0xbd1f1c70	-0.03884548
103	0xbdbbf0c8	-0.09176785
104	0xbd61c028	-0.055114895
105	0x3d4c8759	0.049933765
106	0xbd8eb10d	-0.069673635
107	0xbd955ce2	-0.072931066
108	0x3d9cfa1b	0.07664891
109	0xbca2d1d6	-0.019875448
110	0x3d592636	0.053014956
111	0xbd87069d	-0.06593058
112	0xbd841bcf	-0.064506166
113	0x3d3596ae	0.044333152
114	0x3d8e20af	0.06939828
115	0xbd2bb6a7	-0.041922238
116	0x3cab1ce0	0.020887792
117	0xbd8f5b49	-0.06999833
118	0x3da1d094	0.07901111
119	0xbdc8bbbd	-0.09801433
120	0x3d38a912	0.045083113
121	0x3d4bf985	0.049798507
122	0xbd54d233	-0.051958274
123	0x3d7f4290	0.06231934
124	0x3d37df1d	0.04489051
125	0x3d0d33ce	0.034473233
126	0xbcfb2290	-0.03065613
127	0x3d9f0a85	0.07765678
128	0x3dce28f9	0.10066409
129	0xbd30db11	-0.043177668
130	0xbd9c61c9	-0.076358385
131	0x3daf3fb1	0.0855707
132	0x3da1362f	0.07871663
133	0x3db1ff12	0.08691229
134	0x3dae5990	0.085131764
135	0x3d7329a1	0.059365872
136	0xbdac54a4	-0.084145814
137	0x3d86097f	0.0654478
138	0x3d4b1e9c	0.04958974
139	0xbcec27d8	-0.028827593
140	0xbd8c139a	-0.06839676
141	0xbd047bc3	-0.03234459
142	0xbd7cfcce	-0.06176453
143	0xbd28e5b3	-0.041234683
144	0x3dc6ba9a	0.0970356
145	0x3d56606f	0.05233806
146	0x3d2cc9a2	0.04218448
147	0x3db9a597	0.09064787
148	0x3bee7a5c	0.00727777
149	0xbd947ff7	-0.0725097
150	0xbc8d0d2e	-0.017218199
151	0x3d7b7484	0.061390415
152	0x3d67134c	0.056414887
153	0xbd99f4ad	-0.07517371
154	0xbc87a114	-0.0165563
155	0xbd835784	-0.06413177
156	0x3d981665	0.074261464
157	0xbd44f230	-0.04808253
158	0x3cea56f7	0.028605921
159	0x3d718c2b	0.058971565
160	0xbbc1615c	-0.0059014987
161	0xbd314247	-0.043276098
162	0x3db7a9b5	0.08967916
163	0xbd4ca5b3	-0.04996271
164	0x3cadc7ee	0.021213498
165	0x3cdc1a48	0.026868
166	0x3bf8087f	0.007569372
167	0x3cc113cd	0.023569012
168	0xbdaf3940	-0.085558414
169	0xbd82acaf	-0.06380593
170	0x3c9a9da9	0.018874006
171	0xbde687bc	-0.11256358
172	0xbd0b42de	-0.033999316
173	0xbc05d7b5	-0.008169104
174	0x3d8fc4ed	0.070199825
175	0x3c9aebfa	0.01891135
176	0x3d6de9e6	0.05808439
177	0xbd2bdf27	-0.04196086
178	0xbc4d71a2	-0.012539299
179	0x3dbea20e	0.09308253
180	0xbdc9c45a	-0.09851904
181	0x3d4fd111	0.05073649
182	0xbd952957	-0.072832756
183	0xbd05a95a	-0.03263221
184	0x3d655919	0.055993173
185	0x3ccf3753	0.025294935
186	0xbda69ad9	-0.081350036
187	0xbdbbc4c0	-0.091683865
188	0xbd35c8fd	-0.04438113
189	0xbd3ab167	-0.04557934
190	0xbc1e96e9	-0.0096795345
191	0x3b82d01a	0.003992093
192	0xbd074142	-0.03302122
193	0xbd22245a	-0.03958545
194	0xbd682d33	-0.05668373
195	0xba40e341	-0.0007358082
196	0xbc0b6d32	-0.008509921
197	0x3c10e322	0.008843215
198	0xbd4b3231	-0.049608413
199	0x3dcbc354	0.09949365
200	0x3cb6d267	0.022317125
201	0xbdcf6755	-0.10127131
202	0x3da1b8c4	0.07896569
203	0x3c0199fc	0.007910248
204	0x3d673e5b	0.05645595
205	0x3c97d24c	0.018532895
206	0xbd3fca12	-0.04682357
207	0x3d4b9890	0.04970604
208	0xbda032f1	-0.07822216
209	0xbd56642d	-0.05234163
210	0xbd0e1e42	-0.034696825
211	0x3d831d7e	0.064021096
212	0xbd97cf38	-0.07412571
213	0xbdc00e43	-0.0937772
214	0x3d610619	0.054937456
215	0xbd25dade	-0.04049193
216	0xbc9ee41f	-0.019395886
217	0x3d682c11	0.05668265
218	0xbba34f9f	-0.004983857
219	0xbd9e89b6	-0.0774111
220	0xbc9173cf	-0.017755417
221	0xbcb5c092	-0.022186551
222	0xbdc7b9f4	-0.097522646
223	0xbd8db3c0	-0.0691905
224	0x3ce18bde	0.027532514
225	0x3da88228	0.0822795
226	0x3c33030a	0.010926018
227	0xbd7e9d7d	-0.06216191
228	0xbdb2e577	-0.08735173
229	0xbd93a676	-0.07209484
230	0x3db3ad01	0.08773232
231	0xbdc0c9cb	-0.09413489
232	0xbd72e501	-0.059300426
233	0x3cb97c1e	0.022642191
234	0xbd7ed0a5	-0.062210698
235	0x3ce56fdd	0.028007442
236	0xbd00ddb3	-0.03146143
237	0xbd2a418c	-0.041566417
238	0x3d3c052d	0.045903374
239	0x3da9fece	0.08300553
240	0xbd54ab0e	-0.051920943
241	0xbda2fb24	-0.079580575
242	0xbd936a09	-0.07197959
243	0xbcd799e4	-0.026318498
244	0xbd9bf97a	-0.07615943
245	0xbdb4e457	-0.08832615
246	0xbd657afd	-0.056025494
247	0xbd2504c6	-0.040287755
248	0x3d683197	0.056687918
249	0xbdbdb6ff	-0.09263419
250	0xbca4c8ed	-0.02011534
251	0xbd52cbaa	-0.05146376
252	0x3d033d25	0.032040734
253	0x3d60f966	0.054925345
254	0x3cf59ac2	0.02998102
255	0xbd7defb2	-0.06199617

net.8.bias f4 [100]
0	0x3d0d2cb2	0.034466453
1	0x3d292ae6	0.041300677
2	0xbd82bcc6	-0.06383662
3	0xbcb5055b	-0.02209728
4	0xbdad7c3a	-0.0847096
5	0x3cfd3fed	0.030914271
6	0xbd0277ea	-0.03185264
7	0x3dc15560	0.09440112
8	0xbd961adf	-0.07329344
9	0xbd90ee74	-0.07076731
10	0x3d5688e8	0.052376658
11	0xbd69a4af	-0.05704182
12	0x3d25fc8b	0.040524047
13	0x3dadd721	0.08488298
14	0xbc20cd9e	-0.009814648
15	0x3d7cd856	0.06172975
16	0xbd421d5f	-0.04739129
17	0x3dae0d8d	0.08498678
18	0xbd3917ae	-0.0451886
19	0xbdda1bb3	-0.106498145
20	0x3d889227	0.06668501
21	0xbd85a39f	-0.06525349
22	0xbd90d296	-0.07071416
23	0x3d75f314	0.06004627
24	0xbc86e851	-0.016468199
25	0xbcddc50f	-0.027071504
26	0xbc826845	-0.01591886
27	0x3d0b49fd	0.034006108
28	0x3d46261e	0.048376195
29	0xbd25cf31	-0.040480796
30	0x3c2cfc72	0.0105582345
31	0xbd436634	-0.04770489
32	0xbd131b42	-0.035914667
33	0x3db45059	0.088043876
34	0x3dc0533e	0.09390877
35	0xbd95de92	-0.073178425
36	0xbda5a8bc	-0.08088824
37	0x3d5b47a8	0.053535134
38	0xbd8f7c6f	-0.07006156
39	0x3d0a4838	0.03376028
40	0x3d65cbdf	0.05610263
41	0x3c861f48	0.016372338
42	0xbdbfba93	-0.09361758
43	0x3d7facbc	0.06242059
44	0xbd8a11c3	-0.06741669
45	0x3baa390f	0.00519479
46	0x3d91fbec	0.071281284
47	0xbdb87628	-0.090069115
48	0x3d761095	0.060074408
49	0x3d1876ed	0.03722279
50	0x3d2249d0	0.039621174
51	0x3dca7ed2	0.0988747
52	0xbd91cdb9	-0.071193166
53	0x3a681691	0.00088534603
54	0x3aa37efa	0.0012473755
55	0x3dbba959	0.0916316
56	0x3d5d8d2e	0.054089718
57	0x3d7f35c7	0.062307145
58	0xbd8cb7a8	-0.06870967
59	0x3cfed557	0.031107588
60	0x3da65b70	0.08122909
61	0xbda66bab	-0.08126005
62	0xbdbae916	-0.09126489
63	0xbcc56f8f	-0.024101047
64	0x3d3e9dce	0.046537213
65	0x3d8c0d09	0.06838424
66	0xbd9ece33	-0.07754173
67	0x3da35190	0.07974541
68	0x3da28102	0.079347625
69	0xbd9cfdb4	-0.076655775
70	0x3d2fdb5f	0.042933818
71	0xbd0058fb	-0.03133486
72	0xbd1e7359	-0.038684223
73	0x3ce95a69	0.028485494
74	0xbd7bedc7	-0.06150606
75	0x3d47bdaa	0.048764862
76	0x3d76aff4	0.060226396
77	0x3d95ee1d	0.07320807
78	0x3d927523	0.07151248
79	0xbcde0829	-0.0271035
80	0x3d358217	0.044313516
81	0xbc52a694	-0.012857098
82	0x3d9970cd	0.07492218
83	0xbd6e9759	-0.058249805
84	0xbda596e5	-0.080854215
85	0x3dbb295f	0.0913875
86	0x3d3f8aa6	0.046763085
87	0x3d83b996	0.06431882
88	0x3d7aaa85	0.061197776
89	0x3d4225e1	0.047399405
90	0xbc85a61c	-0.016314559
91	0x3dab8059	0.0837409
92	0x3d95be62	0.07311703
93	0x3dc0dba3	0.094168924
94	0xbdc05e46	-0.09392981
95	0xbc8f685b	-0.017505815
96	0xbda81803	-0.08207705
97	0xbc26044b	-0.010132859
98	0x3d80b43f	0.06284379
99	0x3da6b7aa	0.081405
