models/heatalpha/tanh/heatalpha_49.pth (torch, 977047 bytes, 51 tensors)

net.0.weight f4 [100, 3]
000000 5d b2 25 be c7 d2 10 bf 09 77 be 3c 69 1b 07 bf
       -0.16181321 -0.5657162 0.02325012 -0.527762
000010 88 70 a5 be f6 6d 5c 3e 59 60 c4 be 93 ae 5f bb
       -0.32312417 0.21526322 -0.38354757 -0.0034131154
000020 0c 63 d6 3e 25 a1 61 3e e2 98 33 3e d0 34 4a 3e
       0.41872442 0.22034128 0.17538789 0.19746709
000030 6a 33 98 39 5b b3 47 3e 2c 20 b0 3e 3e 28 19 3e
       0.00029030006 0.19502012 0.34399545 0.14956757
000040 49 1c fb 3f 7f e0 d7 be 5d ca 28 3f ba 4f d7 3e
       1.9618007 -0.42163464 0.6593378 0.42053014
000050 b4 a3 82 3e 0a f1 2f be 64 64 3b 3e f8 a1 27 bd
       0.2551552 -0.17181793 0.18300015 -0.04092595
000060 46 ef 3c 3e 78 a1 d1 bd 4d ba 25 bf 7d 38 f6 bc
       0.1845065 -0.10235876 -0.647374 -0.030056233
000070 d0 02 67 bd 53 fb f6 3e ed db 85 bd bd cf 11 3d
       -0.056399167 0.4823862 -0.06536088 0.035598505
000080 77 31 16 3f 79 05 c1 3e cb 1a d2 bd a6 c3 02 bf
       0.5866923 0.37699488 -0.102590166 -0.51079786
000090 00 75 1e 3e ac d7 95 3d d4 6a fd be 93 55 92 3e
       0.1547432 0.07316527 -0.49495566 0.28580913
0000a0 f2 a3 b5 3d f3 e6 e3 3e 2a 3b 61 be 5e f8 55 3e
       0.08869161 0.44512138 -0.21995226 0.20895526
0000b0 b7 cc e4 3e 1b 51 b7 be 93 1e 93 be 71 ab 60 3e
       0.44687435 -0.35804066 -0.28734264 0.219404
0000c0 c5 d5 2e 3e 02 23 a5 3e 2f 7e 0c be b0 e8 71 3e
       0.17073734 0.3225327 -0.1372001 0.2362392
0000d0 5a 25 1b bf 21 f9 88 be 26 b9 c1 be 00 79 96 be
       -0.6060387 -0.2675257 -0.3783657 -0.2938919
0000e0 df 9e aa 3d 98 5f 2a 3f ab 6c 84 3e 0f cc 33 3f
       0.083310835 0.66552114 0.25864157 0.70233244
0000f0 5f 28 7b be e3 f4 ab 3e d1 ab 24 bf cd a7 c9 bd
       -0.24527119 0.3358527 -0.6432467 -0.098464586
000100 c6 44 93 bd 25 07 09 3e f0 97 a9 3e 83 55 09 bf
       -0.07190852 0.13381632 0.33123732 -0.53646106
000110 9d 97 d1 be ee 41 ba be 4d c9 f8 3e 84 d9 c3 be
       -0.40935984 -0.36378425 0.4859108 -0.3825189
000120 aa 76 96 be 1d a4 b5 be 83 09 34 bd bf e9 d3 be
       -0.29387408 -0.3547677 -0.043954384 -0.41389272
000130 3b 67 0b bf 32 b2 a3 3e 24 b5 3e 3f 95 81 c2 3d
       -0.5445439 0.3197189 0.7449515 0.09497372
000140 a3 40 da bd 16 67 19 3d ea 7f 04 bf a7 68 59 3d
       -0.1065686 0.037451826 -0.5175768 0.05307832
000150 7d 7a e5 3d fb 14 a7 bd ef 04 d3 3e 22 5d fc bb
       0.112050034 -0.081582986 0.41214702 -0.007701532
000160 73 55 79 be 6e 33 97 be 8b a4 ab 3e 04 72 48 3e
       -0.24349003 -0.29531425 0.33523974 0.19574744
000170 23 6e 7c 3d ba ef 07 bf 95 c9 1e 3d 46 7a 50 3d
       0.061628472 -0.5310017 0.038766462 0.05089786
000180 3d c9 31 be aa 46 ae 3e 94 15 d4 3e 0d 3d 42 3e
       -0.17361923 0.34038287 0.41422713 0.18968602
000190 4b bb 1c be 65 4d 1e 3f ed fe 6c 3c c4 60 20 3e
       -0.15305822 0.61836845 0.014465076 0.15661913
0001a0 9c dd 62 3e 85 be 99 3e 13 ea c4 3d 6b 8f 94 be
       0.2215485 0.30028167 0.096149586 -0.2901567
0001b0 36 51 95 3c a9 0a 48 bf 8a b4 80 3e 76 b0 ed 3d
       0.018227201 -0.78141266 0.2513774 0.11605923
0001c0 17 18 b7 be 5a 14 38 bd 8b c2 c7 3d 14 fa 6b 3e
       -0.35760567 -0.044941284 0.09753903 0.23044616
0001d0 99 32 04 3e f4 f0 b1 be ae 75 e2 3e e3 f8 bb 3e
       0.12909926 -0.34754145 0.44230407 0.36713323
0001e0 f2 02 08 3e 4e 68 c3 3e 4d e6 ae bd 8b 64 27 3e
       0.13282374 0.38165516 -0.0854002 0.16346948
0001f0 cf ce b1 bd a1 73 19 be 54 7a e8 be e1 1a f5 bc
       -0.08682024 -0.14985515 -0.4540583 -0.029920043
000200 6d 68 9a be ee e7 44 be fd 62 26 bf bd f3 ea 3e
       -0.30157796 -0.19229099 -0.64994794 0.45889083
000210 0a 94 42 be 38 37 7c bf f2 97 d4 3e 35 24 06 3f
       -0.19001785 -0.9852176 0.41522175 0.52399
000220 8e 7a dc be 6b 5d 2c be 7b 3d 82 be eb f2 c8 3d
       -0.43062252 -0.16832511 -0.2543753 0.09811958
000230 e2 ac ef be f5 dd 8c be 83 83 a6 3e bb cb bf be
       -0.46811587 -0.2751309 0.3252221 -0.37460122
000240 7d e4 5c be c6 2d 02 3d 2b ca 11 3f 67 af a6 be
       -0.21571536 0.031781934 0.5694911 -0.32555696
000250 fe d6 09 3d d1 6c 0a 3e b1 4a 04 3e a3 cc 3d 3c
       0.0336523 0.13518073 0.12919118 0.011584434
000260 77 1b 34 3e 7f 63 38 be fd eb c1 be ed e7 84 3d
       0.17588602 -0.18006705 -0.37875357 0.06489549
000270 8c e2 cf 3d be 89 54 be bf 2b 0e bf eb 61 84 be
       0.10150632 -0.2075567 -0.555355 -0.25855955
000280 d4 29 12 be db 6d 06 3e d4 5a a7 be 8f c4 13 be
       -0.14273769 0.13127844 -0.32686484 -0.1443045
000290 66 ce 3b bc 71 1d e9 3d 05 00 20 3f 10 6b cb be
       -0.011462783 0.11382569 0.6250003 -0.3973012
0002a0 60 5f 1a be 5c 83 0d 3e e8 0d b5 3e 3b e9 20 3e
       -0.15075445 0.13819641 0.35362172 0.1571397
0002b0 8f 16 29 3f 2b ca 30 be e9 f9 a8 be 96 87 2d 3e
       0.66050047 -0.17264621 -0.33003166 0.16946253
0002c0 22 ea 0a 3f 49 b6 2b 3f 9d c7 91 3e 8a 09 41 be
       0.5426351 0.6707502 0.28472605 -0.18851295
0002d0 ef fe 42 be 64 bc 5d 3e 64 8b 56 3e eb 02 a2 be
       -0.19042562 0.21653897 0.20951611 -0.3164285
0002e0 b4 2b ec 3d cc 11 cf 3e 93 ff d6 bd 27 c4 2e 3e
       0.11531773 0.40443265 -0.10497966 0.17067014
0002f0 85 90 d7 3e 1f 57 9f 3e 5b 41 85 bd 9d 2c cb 3d
       0.42102447 0.31121156 -0.06506606 0.09920619
000300 bb 97 40 3e 0c 73 ae bd b6 31 cd 3f b0 6b 10 bf
       0.1880788 -0.08518037 1.6030796 -0.5641432
000310 4d 3a cb 3c 01 cd e6 3d ce 7a 92 3d a5 f1 ab bd
       0.024808073 0.1126957 0.071523294 -0.083956994
000320 be 8d 05 bf b5 99 a8 be 79 cf fd bd 97 e0 82 3c
       -0.52169406 -0.3292977 -0.12393088 0.015976233
000330 ad 39 27 bf bb bb 11 bf bd 40 28 bf fe d8 f4 3d
       -0.6532238 -0.5692708 -0.6572378 0.119554505
000340 a7 a4 00 3b 5b 29 e5 3d 55 58 b0 3e c3 a1 50 3f
       0.001962939 0.111895286 0.34442392 0.8149683
000350 25 f3 15 bf 32 cc 54 be 43 48 cc be 91 5e fc 3e
       -0.58574134 -0.2078102 -0.3989888 0.49290898
000360 72 57 dc 3d 9d c4 82 3e 6b 98 8c bd fb 62 c3 be
       0.10758866 0.2554063 -0.06865009 -0.38161454
000370 13 a6 c3 3e c2 50 13 3f 12 72 02 3e d7 c8 d6 3e
       0.38212642 0.575451 0.12738827 0.41950104
000380 0f db 03 3e d1 95 44 3d 0f b3 6a 3e f0 e8 61 3e
       0.12876533 0.04799444 0.22919868 0.22061515
000390 11 f9 2d 3f c5 0b 1d 3f cb 13 2d 3d 67 bb 61 bd
       0.6795817 0.61346084 0.042255204 -0.05511036
0003a0 21 6f 35 3e 76 ca e8 3e ab 3d b6 be 65 91 03 bf
       0.17718174 0.45466965 -0.35593924 -0.5139373
0003b0 72 d6 f5 3c 8d 70 d1 ba ea 53 13 be 70 32 26 3f
       0.030009482 -0.0015978977 -0.1438748 0.6492071
0003c0 c9 50 81 bd da b6 0e 3e ff c1 ac be de f7 40 bf
       -0.06314237 0.1393694 -0.33741757 -0.75378215
0003d0 82 d6 05 be de 00 a7 bd 54 9c ca 3e 7b be d3 be
       -0.1307011 -0.08154462 0.39572394 -0.41356263
0003e0 86 fa 89 3e e5 bf c6 bd bd b0 9e be ae b8 3d bd
       0.26948947 -0.0970457 -0.30994216 -0.046318702
0003f0 fb d8 28 bd 00 81 6c bf 20 bd 55 3d 55 1f 1f 3e
       -0.041222554 -0.9238434 0.052182317 0.15539296

net.0.bias f4 [100]
000000 6a 70 d7 bd d6 b7 b4 be ae be 6d 3e 6c 29 ef bd
       -0.10519488 -0.35296506 0.2321727 -0.116778225
000010 11 66 98 3e ed 7f 83 3d 0c 1b 9f 3c f5 4d d1 3e
       0.2976537 0.06420884 0.019422077 0.4087979
000020 26 9b 6c bc b7 e5 0d 3f 0f 3b 17 bf 0a d5 86 bd
       -0.014441287 0.5542864 -0.5907449 -0.06583603
000030 6f 1a 09 bd 0b 58 38 bf f5 5d a2 3e 2f f7 09 bf
       -0.033472475 -0.7200934 0.3171231 -0.538928
000040 f8 8e 02 bf bc 02 ef be 21 c0 28 3f 57 58 9d 3e
       -0.50999403 -0.46681774 0.65918165 0.3073146
000050 c2 1e 09 3f 21 b6 4f 3e e0 70 0b bf 3b 0f 08 3d
       0.5356256 0.2028432 -0.5446911 0.03321765
000060 a8 ef e1 3d 24 c5 c0 bd a1 d5 9f 3d 0c f5 0a 3c
       0.11032039 -0.094126016 0.07804418 0.008481275
000070 d8 d9 a7 3e 9a 12 c7 3e 9a 7e 2a bf 06 dd 03 bf
       0.3278339 0.3888138 -0.6659943 -0.5150913
000080 9e d8 9b 3e 23 67 ad 3e 77 0b 14 bf 2e 48 5d 3e
       0.30438703 0.3386775 -0.57829994 0.21609566
000090 c9 18 91 be 53 3d e6 be fb 0b bf 3d a9 0e bd 3e
       -0.28339222 -0.44968662 0.09328457 0.36925247
0000a0 b5 30 82 be c5 5b cb 3d 5b 40 67 bd 57 1e 72 bc
       -0.25427786 0.09929613 -0.05645786 -0.014777741
0000b0 82 3e 0f 3e cd 93 39 be 3c 38 3c 3e 68 26 0b 3f
       0.13988689 -0.18122788 0.18380827 0.5435548
0000c0 e3 ec fb be 58 15 12 3f a2 8e 00 bf e3 ce 0f bf
       -0.49204168 0.5706382 -0.5021764 -0.5617506
0000d0 6c 60 a9 3c 7d ef 58 3d 44 85 dd be 2e 56 86 be
       0.02067586 0.05296277 -0.43265736 -0.26237625
0000e0 bb c9 6f be d9 90 fb bd 97 db b2 be d1 ad 03 3f
       -0.23416798 -0.12283487 -0.3493316 0.514371
0000f0 c4 20 98 3e 42 9a 33 bf 52 2f 80 be bf 66 6b be
       0.29712498 -0.70157254 -0.25036103 -0.22988413
000100 d5 69 f0 bd 02 b0 c9 ba 4d 05 8a 3e d0 ea 07 3f
       -0.11738936 -0.0015387537 0.2695717 0.5309267
000110 f3 a5 0a 3e 33 e7 25 bf 57 22 75 3e c5 7d d3 bd
       0.13539867 -0.64805907 0.23938881 -0.10326723
000120 42 95 a8 3e 73 ed 85 3e 0a 36 30 be fa fa 14 bd
       0.32926375 0.26157722 -0.17208114 -0.036372162
000130 7f c3 2c be dd 69 68 be 6f ba 13 3f a3 95 12 3f
       -0.16871451 -0.22696634 0.5770635 0.5725958
000140 12 c2 48 3e af 0e 00 be 67 f3 d1 3d 69 68 19 be
       0.19605282 -0.12505601 0.102515034 -0.14981236
000150 19 3b 8d be ec bd 09 be dc dc 17 3f 9e 29 88 3e
       -0.2758415 -0.13451356 0.5932138 0.2659425
000160 84 63 0b bf e6 e9 6e 3e 48 a4 9a be 4f 6d 20 bf
       -0.54448724 0.23331413 -0.30203462 -0.6266679
000170 9c 54 03 3e 69 e5 a1 3e da bc bd 3e ac ba be be
       0.12825245 0.3162034 0.37058145 -0.37251794
000180 d8 7c 9f bd a7 b0 9e 3e d8 39 0b be 22 b8 be be
       -0.07787484 0.3099415 -0.13596284 -0.37249857

net.2.weight f4 [100, 100]
000000 3b 2f a9 3d d9 37 9f 3d 1f 62 d8 3d cb c0 40 bc
       0.082609616 0.07774324 0.1056559 -0.011764715
000010 bd 61 47 3b bf 9c 59 3d 9b b7 1f bc 38 5d 69 3d
       0.0030423247 0.053128 -0.009748365 0.056973666
000020 ee a5 a6 bd 01 92 9b bb b1 ef db bd c9 4d 36 bd
       -0.08137117 -0.0047476296 -0.10739077 -0.044507775
000030 77 2b 4a 3d 6e 4c 4f 3b 4e 5c ac bc f1 fb 1a 3d
       0.049357858 0.003163125 -0.021040108 0.037837926
000040 4a 2f a0 bc c1 5e 79 3d 77 5b 4c 3b 24 2b 89 bd
       -0.0195538 0.06088138 0.0031182447 -0.066976815
000050 b4 4b ab 3c e7 91 66 3d d6 74 0c ba e3 a5 ac bc
       0.020910122 0.056291487 -0.0005357986 -0.021075195
000060 c3 be c1 3d fc 36 87 3c 30 68 6b bc 53 d8 25 3c
       0.09460213 0.01650571 -0.014368102 0.0101223765
000070 d9 6a 01 3d 16 81 94 3d fd 8a 8d 3d d7 1c b3 bd
       0.03159604 0.07251184 0.069112755 -0.08745735
000080 2a 6d 09 3e c8 23 85 3d c3 52 e4 3c 73 9f 9f bd
       0.13420549 0.06500965 0.027871495 -0.077940844
000090 7e d4 1c be 2d 3d f5 bd 32 0b 9e 3d 3a f8 80 bd
       -0.15315434 -0.11974559 0.07716979 -0.062973455
0000a0 f3 38 b8 bd 30 2b a0 3c d8 3e b1 3d 4e 46 c8 3d
       -0.08995237 0.019551843 0.086545646 0.097790346
0000b0 6e de b8 3d 7f 1d 4f bb e0 7f eb bc 4a 3a bb bc
       0.090268 -0.0031603274 -0.028747499 -0.022854943
0000c0 f9 f7 c7 3d 02 02 ea 3d 70 0f c7 bd 76 03 96 bd
       0.09764094 0.11426164 -0.09719741 -0.07324879
0000d0 9e f6 7b 3d fb 60 a4 3d 87 93 9d 3b 34 11 7e 3d
       0.06151449 0.0802631 0.0048088464 0.062028125
0000e0 15 1d b9 bd a6 b7 20 bc d3 27 9d 3b 61 66 ee 3b
       -0.0903875 -0.00980941 0.004796007 0.007275388
0000f0 8d 6c ea 3d 4e 6b c1 bd b4 21 2e 3d dd 3e ca 3c
       0.11446486 -0.09444295 0.04251261 0.024688179
000100 03 ab a6 bc 55 79 78 bd 83 50 18 3d 4c 3f 3a bd
       -0.020345217 -0.060662586 0.037186157 -0.04547052
000110 3e e3 aa bd b6 cd 3c be 6c 71 9a 3d 78 5c b9 3d
       -0.08344124 -0.18437847 0.07541165 0.0905084
000120 15 f6 c5 3d d8 c7 40 bd 8d 1b 6d 3d 94 c6 6b bc
       0.09666077 -0.047065586 0.057887603 -0.014390606
000130 a7 da 4c 3d f2 25 ad bc e5 48 35 3d e7 c1 95 3d
       0.05001321 -0.021136258 0.04425897 0.073123746
000140 c6 1c 41 3d 8d 93 89 3d d0 93 09 bd 71 21 c6 bd
       0.04714658 0.06717596 -0.03358823 -0.09674347
000150 fd ec 94 bd 86 43 c2 3c 5c da 3d bd aa d1 f6 bb
       -0.072717644 0.023713838 -0.04635082 -0.007532318
000160 1d a4 00 bc 1e bf 8a bd 4d 37 28 be c9 60 c9 bd
       -0.007851628 -0.06774734 -0.16427346 -0.098329134
000170 d1 5a 28 3d fb 26 3b bd 3c 38 2d 3d aa d9 06 bc
       0.041102234 -0.04569147 0.042289957 -0.008230606
000180 03 ff ec bc ed aa 15 3d 56 0c c8 bd b3 57 9e bd
       -0.028930193 0.03653996 -0.09767978 -0.07731571
000190 e5 03 2a 3d 8f 88 99 bd 00 7f ae bc 50 22 91 3c
       0.04150762 -0.074967496 -0.021300793 0.017716557
0001a0 d6 f1 bd bd 3a 25 53 bd 08 f8 af bd 2d 47 8a bd
       -0.09274642 -0.051549174 -0.0859223 -0.06751857
0001b0 6c b3 80 3d 03 22 21 bc 69 f1 89 3d c6 82 ac bd
       0.06284222 -0.009834769 0.067354985 -0.084233806
0001c0 1f fa a9 bd 8e fe db 3d 82 4a 41 bd c7 77 b0 bd
       -0.0829966 0.10741912 -0.047190197 -0.08616596
0001d0 ba f5 d6 bd cd f4 19 bc b8 80 6a bd 34 17 f7 3c
       -0.10496087 -0.009396744 -0.057251662 0.030162431
0001e0 4e 14 db 3d 29 f2 6b 3d ca a6 09 bd 82 04 23 3c
       0.10697232 0.05760399 -0.033606328 0.009949805
0001f0 99 ec 52 bd 03 94 bd bd bd 59 4b bd c3 4d 08 3d
       -0.05149517 -0.092567466 -0.049646128 0.033277284
000200 61 a9 69 bd c7 96 ed 3d dd 75 43 bd d6 14 66 bc
       -0.057046298 0.11601024 -0.047719825 -0.014043054
000210 83 30 91 bc fb 33 c0 bc fa 1e 84 bd 9b f6 74 3b
       -0.017723328 -0.023462286 -0.06451221 0.0037378434
000220 64 09 10 3c cb ae e8 bd 91 f6 5a 3b b3 21 8f 3d
       0.008791301 -0.11361464 0.0033411125 0.069888495
000230 3a 6f cf bd a3 9f d7 bd 31 1e 9e bd 7b 13 88 bd
       -0.10128637 -0.10528495 -0.07720602 -0.066443406
000240 dd e0 0f b9 d6 f7 34 bd 10 6b 34 3d 1d 58 b6 bc
       -0.00013721311 -0.044181667 0.044047415 -0.022258813
000250 65 99 9c 3d 5e 03 5b bd da 10 76 bd 53 6b c2 bc
       0.07646445 -0.053470008 -0.060074665 -0.023732817
000260 61 13 90 bd 9c 20 9d bc f4 5f 9f 3d c0 e8 67 3c
       -0.07034946 -0.019180588 0.077819735 0.014154613
000270 c1 43 86 3c 6f 98 62 bd 49 d9 94 bd 61 ef 95 bd
       0.01638973 -0.055321153 -0.07268006 -0.073210485
000280 8b 15 15 bd 2b 52 57 3d 84 ef c1 bd 04 1c a3 3d
       -0.036397498 0.052568596 -0.09469512 0.07964328
000290 b2 48 60 3c a9 7d 8d bc 47 98 92 3c d8 ee 30 3d
       0.013689207 -0.017271833 0.017894877 0.04319653
0002a0 6f a1 b8 bd c3 0c 59 be 4a 69 cb 3d 92 0a 99 bd
       -0.09015166 -0.21196274 0.09932192 -0.07472719
0002b0 b8 10 6b bd 92 e9 51 bd d3 cb e3 3c b8 72 14 3d
       -0.05738899 -0.05124814 0.027807152 0.036242217
0002c0 71 10 98 bd a0 31 37 3d ed 44 0d 3d fe af a5 3d
       -0.07425011 0.04472506 0.03448956 0.080902085
0002d0 db 4e c3 3d ec f0 b5 3d 01 a3 96 bd 93 6c ab 3c
       0.09536525 0.08883843 -0.07355309 0.020925796
0002e0 4d 0d 85 bd d9 72 0f ba 36 33 c9 bd 06 af a3 3d
       -0.064966775 -0.0005472131 -0.09824221 0.079923674
0002f0 14 95 93 bc 18 0b 74 3d 8b 14 79 bd c3 9e a3 bd
       -0.018015422 0.059580892 -0.060810607 -0.07989266
000300 86 8c 28 bc 0d 80 65 bd 65 69 9d bd 4a 9a d5 3b
       -0.01028741 -0.056030322 -0.07686118 0.006518637
000310 43 42 78 3d d2 fc 26 3d 0d d9 4a 3c e6 8c a1 bd
       0.060610067 0.040768452 0.0123808505 -0.07888202
000320 94 eb 1a 3d 4a b3 94 bd 4f a0 55 3d bd 13 62 bd
       0.03782232 -0.07260759 0.052154835 -0.055194605
000330 79 20 a5 3d 47 09 18 3b c2 ec 8f 3d 1e 1a 53 bd
       0.08062834 0.002319889 0.0702758 -0.05153858
000340 99 be b0 bd 47 03 57 3b c6 9c c3 bd 83 b4 a6 bd
       -0.086301036 0.003280835 -0.095513865 -0.08139899
000350 fe e5 d7 bd 24 67 31 bd 31 ec 11 3e 11 f8 bf 3d
       -0.105419144 -0.043311253 0.14250256 0.09373487
000360 aa 02 3e bd de 7b bd bd af ab 25 bd 4a 08 b2 3d
       -0.04638926 -0.092521414 -0.040446933 0.08692987
000370 b9 29 6f 3a 24 55 17 3e 39 43 be bd 82 04 7e 3b
       0.00091233436 0.14778572 -0.092901655 0.003876001
000380 01 13 57 3c 44 d9 6f 3d 57 04 9d bd bd 6b b8 bd
       0.0131270895 0.05855681 -0.076668434 -0.090049244
000390 8a 60 b9 bd e4 fe 28 3e 9e 6b 3a bd b0 5d b4 3d
       -0.090516165 0.16503483 -0.045512788 0.08806932
0003a0 64 45 44 bb 86 8e 67 3d b3 49 9a bd e2 ef 1c 3d
       -0.0029948587 0.056532405 -0.07533588 0.038314708
0003b0 03 e6 0f be b4 1c 23 be c3 60 4a bb f9 8f f4 bb
       -0.14052586 -0.15928918 -0.0030880428 -0.007463452
0003c0 8a 4f e7 bd f9 fd 71 3d 8d 75 3f bd c5 16 b2 bd
       -0.11294468 0.059080098 -0.046742965 -0.08695749
0003d0 d0 da 76 bd 6a 51 9a ba f8 5c 93 bb e8 5b 5a bc
       -0.06026727 -0.0011773531 -0.0044971667 -0.013327576
0003e0 b5 f4 26 3c 39 65 96 3d 37 8a 97 bc 27 e6 61 3d
       0.010190179 0.073435254 -0.018498523 0.05515113
0003f0 06 f5 97 3b 9f 81 2b 3d c4 6e 1c bd 6f 15 4f bd
       0.0046373634 0.041871663 -0.03819157 -0.05055755

net.2.bias f4 [100]
000000 2f 3c c1 3d 4e 51 f9 3c ca b5 87 3c 90 67 ad bd
       0.09435307 0.030434277 0.016566176 -0.084670186
000010 a7 5c 96 bd 62 e2 9e 3c fd 68 af bd 17 2f cc 3b
       -0.07341891 0.019395057 -0.08564947 0.0062311995
000020 c6 13 a4 bd e8 19 27 bd 6a 20 4f 3d bd 13 6e 3d
       -0.08011584 -0.04079619 0.05056802 0.058124293
000030 1c 38 35 3d 3f a4 6d bc 6b 41 7d 3d a5 f3 6e bc
       0.044242963 -0.014504491 0.061829966 -0.014584457
000040 5e a9 62 3c 09 7a 81 3d 42 45 b1 bd 28 cd e3 3d
       0.013834326 0.063221045 -0.08655788 0.11123115
000050 eb 33 7d 3d 31 76 b5 bc 7f d5 b3 3c 07 20 89 3d
       0.06181709 -0.022151085 0.021952389 0.06695562
000060 b7 5e ad 3d 0c 1f b4 3d e6 ca 8e bd e3 db 1b bd
       0.08465331 0.08794984 -0.069722936 -0.038051497
000070 ea a2 83 3c 76 0f 68 3c 63 13 a4 bd ac 53 70 39
       0.016068894 0.014163842 -0.0801151 0.00022919354
000080 9a be bd 3d 8e 69 91 3d a9 80 cf 3d 19 e7 72 3c
       0.0926487 0.07100211 0.10131962 0.014825606
000090 3b c4 7d bc 9e 25 06 3d e7 c0 3d 3d ba ea 44 bd
       -0.0154886795 0.03275072 0.046326544 -0.048075415
0000a0 d2 a9 c7 bc 54 0d b7 bb e0 05 4c 3d 1f a2 37 bd
       -0.024372969 -0.0055863056 0.04981029 -0.044832345
0000b0 45 24 b6 3d dd 28 c0 3d 7e c9 a1 3d d3 26 b9 3d
       0.088936366 0.09382794 0.0789976 0.09040608
0000c0 72 ae 8e 3d 03 fc ee bd 35 e0 45 3d 71 df 06 bd
       0.069668666 -0.11669161 0.048309524 -0.032927934
0000d0 c8 b3 8c bd 5e b4 4e 3d 14 c2 8a 3c a1 a4 8d bc
       -0.06870228 0.05046498 0.016938247 -0.017290415
0000e0 ea 3b ff bc d7 83 fa bb a0 5b ab bd 3d 8e 39 3d
       -0.031156499 -0.007645111 -0.083670855 0.045301665
0000f0 7e 99 19 bd bb 09 db bd 87 96 27 bd 76 01 83 bd
       -0.037499897 -0.10695215 -0.04091504 -0.06396763
000100 d7 38 c5 bd c7 cc 17 bd f3 b7 e6 bc d2 03 88 3d
       -0.09629982 -0.037060525 -0.028163886 0.06641354
000110 dd c3 a5 3d 50 2a 1e bc 39 f8 69 ba 9d 64 48 bd
       0.080939986 -0.009653643 -0.00089252327 -0.048924077
000120 11 6b d8 3c f4 df 8d 3d 3b 54 b4 3d dd ef 9f 3d
       0.02641824 0.06927481 0.08805128 0.07809422
000130 ab 0b 5e 3d fc ab 1e bd e1 3d 46 bd af a5 58 3d
       0.054210346 -0.038738236 -0.048398856 0.052892383
000140 7b 5e 96 3c fc 91 c8 3d 33 be 56 3d 5c a6 20 bc
       0.018355599 0.09793469 0.05242748 -0.009805288
000150 79 89 0d bd a7 20 e7 3c c4 67 4d bd 85 b3 79 bd
       -0.034554932 0.028213812 -0.050147787 -0.06096222
000160 74 34 95 bd c1 92 eb bc f7 09 20 3d 7c 8d 41 bc
       -0.07285395 -0.028756501 0.039072003 -0.011813518
000170 8c 47 f3 bc c9 8a 17 3d aa cf 00 3d 9d d0 17 bd
       -0.029697202 0.03699759 0.031448044 -0.037064184
000180 8a 12 cf bd fe 99 01 bd 59 fe 96 bd 54 07 92 bd
       -0.10110958 -0.031641 -0.07372732 -0.07130304

net.4.weight f4 [100, 100]
000000 19 38 57 bc 07 17 b4 3d 05 80 77 3e 6d 40 ef 3e
       -0.013135933 0.087934546 0.2416993 0.4672884
000010 47 5e ea 3d 69 20 0a bf a7 67 1b be 87 58 05 3d
       0.11443763 -0.53955704 -0.15176259 0.03255513
000020 d0 90 73 3d fa 8f 17 bd 6e 26 c3 3c 6d 1e 16 bd
       0.059464276 -0.03700254 0.023822036 -0.03665011
000030 63 7c 1e 3e b0 85 e1 3c 4b f8 eb 3e 55 45 04 3e
       0.15477137 0.027529567 0.4608787 0.12917073
000040 d1 58 ef 3e a5 a1 ba bd 5c 55 8e 3d 43 b7 c9 bb
       0.4674745 -0.091128625 0.06949875 -0.0061558797
000050 2f 44 51 3e 43 8f 00 bf bb e1 a8 3e 59 bb 51 bd
       0.20436166 -0.502186 0.3298472 -0.05120406
000060 b2 31 86 bd f7 a9 e6 bd d1 87 00 3c 6e 52 2e 3e
       -0.065524474 -0.11262887 0.007844881 0.17023632
000070 06 13 d8 bd 19 44 99 3d f9 4f 82 be 28 19 bf bb
       -0.105505034 0.07483692 -0.2545164 -0.0058318563
000080 22 6d 78 3f bc cb 20 be e4 fe 44 3f ab 2c 61 3e
       0.97041523 -0.15702718 0.7695143 0.21989696
000090 e7 a5 ea 3d 65 ae 0b be 98 dc 91 3c dc c1 8d 3e
       0.114574246 -0.13640745 0.017805383 0.27686965
0000a0 41 13 b8 be ae b1 fa bd c7 b7 60 3e 96 e2 06 bf
       -0.3595219 -0.12240921 0.21945105 -0.5268949
0000b0 29 9d 14 be 27 39 f6 bc ab a5 53 3e 70 20 41 bd
       -0.14513077 -0.03005655 0.20668666 -0.047150075
0000c0 60 4d 02 3e fc d1 6d be 83 81 6e 3e 16 6a 8f 3d
       0.12724829 -0.23224634 0.23291592 0.07002656
0000d0 74 bc fb 3c 1d 8f df 3d 91 e6 79 be 6e 4e 30 3e
       0.03072951 0.109159686 -0.2440436 0.17217419
0000e0 1d cd 01 3f 00 39 c1 3e 8a bd b1 3e e2 72 c7 3e
       0.50703603 0.377388 0.3471492 0.38954836
0000f0 44 69 fb 3d 8a be 38 3e e7 e1 06 3e df 8e a4 be
       0.12275937 0.18041435 0.13172112 -0.32140252
000100 06 ac 9d 3e 46 b5 25 3e c4 f5 8c 3d 77 14 96 bd
       0.30795306 0.16182432 0.068828136 -0.07328122
000110 c5 2e 38 3c fb 67 bf be 99 16 75 3e 50 36 b6 3d
       0.0112416195 -0.37384018 0.23934402 0.08897078
000120 8e 4c 8c 3c fb cd 7d bd 95 23 3c 3e eb 7e 99 bd
       0.017126348 -0.061964016 0.18372948 -0.07494911
000130 b9 9f 88 3e da 64 32 bd 22 86 91 be 2b 05 3d 3d
       0.2668436 -0.04355321 -0.28422648 0.046147507
000140 1d 0f 22 3f b2 54 59 3f b0 6a 3e 3d d9 b9 4a 3e
       0.6330431 0.8489486 0.046488464 0.19797458
000150 88 88 15 bf 4b c5 77 3f 6d 87 38 be 55 d6 1b bd
       -0.58411455 0.9678542 -0.18020411 -0.0380462
000160 b6 1a 4f 3c d7 cf d1 bf fd c2 36 3f 06 ec bf be
       0.012640646 -1.6391553 0.7139128 -0.3748476
000170 52 ff 03 bc 3c 26 86 bc 10 d3 38 3e ad 04 1a bd
       -0.008056479 -0.016375653 0.18049264 -0.037602115
000180 93 26 f8 ba 05 6b 4f 3e a9 15 db 3d 10 29 35 bf
       -0.0018932394 0.20255668 0.10697491 -0.7076578
000190 61 67 ab 3c c4 82 db 3c bf 4d 8e 3d 5c 7b a5 bd
       0.020923318 0.026795752 0.06948423 -0.080801696
0001a0 38 7c 39 3d c7 f5 db 3d 96 c6 6d bd 93 2a 9a bd
       0.04528448 0.10740238 -0.058050714 -0.07527652
0001b0 59 0e d7 3c 5e a1 b5 bc 3d 30 81 bd dd 53 d1 3c
       0.026251959 -0.022171672 -0.06308029 0.025552684
0001c0 ad d1 93 3d 08 1a 45 3d d9 e9 a2 bd 8e 1c ab bd
       0.07217727 0.04812053 -0.07954759 -0.08355056
0001d0 1c 58 48 bd 42 f1 c6 bd b9 4c 6b 3c 2a b0 5b 3d
       -0.048912153 -0.09713985 0.014361554 0.0536348
0001e0 95 36 d6 bd e8 e7 af 3d 95 6e 95 bc 82 88 af bd
       -0.104596294 0.085891545 -0.018241206 -0.08570959
0001f0 b7 37 dc 3c 61 15 f8 3c 52 0f a9 3d 7d 24 d8 3b
       0.026882036 0.030283632 0.08254875 0.0065961466
000200 21 ef 7a bc ca 51 9b bd 0d f2 78 ba 08 72 89 bd
       -0.015315802 -0.075839594 -0.00094965176 -0.06711203
000210 74 71 ce bd 71 08 51 3d 77 46 d0 3d 0c 25 d7 bd
       -0.10080233 0.05103344 0.1016969 -0.10505113
000220 dd 3d 9a bd 8f e0 69 3d ce 1a a5 bc bb a0 b3 bb
       -0.07531331 0.05709892 -0.020154383 -0.005481807
000230 3a bd 3e bc 6a ec 8b 3d 48 e5 3a 3d 46 4c 6f 3d
       -0.011641795 0.06832202 0.045628816 0.05842235
000240 46 37 eb bd 38 b0 48 bd 33 a4 c1 bd e5 be a0 3a
       -0.11485152 -0.04899618 -0.09455147 0.0012263922
000250 89 20 5f 3d a1 d2 6c bd 04 a2 43 3c 3f 74 48 3d
       0.054474387 -0.05781806 0.011940483 0.048938986
000260 ab e8 d8 bd a0 23 59 3d 40 1e bc bc 18 8d 28 3d
       -0.10591253 0.05301249 -0.022963643 0.041150182
000270 48 49 86 3c ab c0 82 bb 30 c2 02 be 4c 2f f0 3d
       0.016392365 -0.003990253 -0.12769389 0.11727771
000280 1c e3 80 3b 57 ac 45 3d 12 11 0b 3d 41 2c f3 bb
       0.0039333235 0.04826006 0.033951826 -0.007421047
000290 3c ad 3f bd 11 41 fc bc 72 e9 ee bd ff 38 d5 3c
       -0.04679607 -0.030792745 -0.1166562 0.026028154
0002a0 ff cb 60 3d c3 11 30 3d 72 c2 cc 3c 1d b7 de bc
       0.054882046 0.04298569 0.024995063 -0.027186925
0002b0 d9 6d 28 bd 4f 59 8b bd 1f 6e 3c 3c ea e8 06 3c
       -0.041120384 -0.06804144 0.011500864 0.008234242
0002c0 e0 c4 dd bd 99 c6 e7 bd 81 11 94 3b 2a b9 15 3d
       -0.108285666 -0.11317176 0.004518688 0.03655354
0002d0 88 94 10 be f0 55 2e be 68 c9 5c bc 35 2f 54 bd
       -0.1411916 -0.1702497 -0.013475753 -0.051802833
0002e0 14 be 48 bb eb 2f cd 3c f8 19 68 bc b9 2d ae 3d
       -0.0030630874 0.025047263 -0.014166348 0.08504815
0002f0 19 d5 65 bd f3 10 2c bd 6b a4 96 3d 33 3c 53 bd
       -0.05611143 -0.04200835 0.07355579 -0.051571082
000300 92 44 d0 bb e4 b8 71 bd 99 71 f7 3c 04 91 f4 bd
       -0.0063558305 -0.059014216 0.030205535 -0.11941722
000310 23 52 7e 3d 4e 36 d5 3c 35 4c 99 bd c7 a4 0c 3d
       0.06209005 0.026026871 -0.074852385 0.03433683
000320 ac bb 14 bd 3c 45 e7 3c 3d 6f 96 bd 98 30 22 bb
       -0.03631179 0.028231256 -0.07345436 -0.0024748202
000330 c4 38 a9 bd 12 d8 36 bc d8 b2 01 3d 5f 0f 32 3d
       -0.0826278 -0.011159914 0.0316647 0.04347169
000340 96 6d 50 3d b9 55 c8 3c 41 61 89 3d ab d2 f1 3d
       0.05088576 0.024454938 0.06708003 0.1180776
000350 4f 4e 26 3c 2e cf dc bd b1 8d 23 3d 93 96 c2 bb
       0.010150506 -0.10781704 0.03993005 -0.00593836
000360 6c 5f 99 3d c2 74 d8 3c 3e df 66 bc 4b 33 25 3d
       0.074889034 0.026422862 -0.014091311 0.04033212
000370 6e d6 0e bd 4c 32 b4 3d 43 69 a1 3d b5 41 db bd
       -0.034872465 0.08798656 0.07881405 -0.10705892
000380 a8 9d a1 3d 48 31 43 bd 45 47 4d bd 57 79 b9 3d
       0.07891399 -0.04765442 -0.050116796 0.09056347
000390 e2 d0 5f 3d 07 cf 80 3d 1f 36 a6 bc 69 fa b0 bd
       0.054642566 0.06289487 -0.020289479 -0.08641512
0003a0 3e fb 89 3a e7 fa a4 bc 21 7f 12 3d 77 07 2b 3d
       0.0010527147 -0.02013917 0.03576577 0.041755166
0003b0 75 c4 b3 3a 19 fd c6 3c 78 c4 b6 3d bd ea 52 3d
       0.0013715165 0.024290608 0.08924192 0.051493395
0003c0 a4 a1 bc bd c2 5f 7a 3c 01 48 78 3d f4 7f 67 bd
       -0.09210518 0.0152816195 0.060615543 -0.05651851
0003d0 70 77 5d 3c 82 2b 65 bd ef a8 5c 3d c6 04 de ba
       0.013517246 -0.055949695 0.053872045 -0.0016938678
0003e0 dc ba a9 3d 25 55 56 3b 5e 75 00 bd c2 93 e6 bd
       0.08287594 0.0032704559 -0.03136193 -0.11258651
0003f0 9a a0 3e 3d ef c1 68 3d 87 2f bc bd 8a 89 a0 3c
       0.04653988 0.056825574 -0.091887526 0.019596834

net.4.bias f4 [100]
000000 6d d6 06 bd 76 1a cb bd 7a 52 bb 3b 49 d6 88 bd
       -0.032919336 -0.099171564 0.005716619 -0.06681497
000010 ec 14 89 bd ce 26 42 3d 2f b5 80 bb 87 9e 52 bc
       -0.06693444 0.04740029 -0.003927849 -0.012855179
000020 5c a4 91 3d 4b fe d7 3c 83 59 60 3d 6a 7b 04 3d
       0.07111427 0.026366374 0.054772865 0.03234426
000030 b5 1f ba 3d de ae 34 bd 13 e8 e3 bc 05 da 26 3d
       0.09088079 -0.04411208 -0.027820623 0.040735263
000040 c1 ba bb 3d c8 74 99 3c b1 93 d9 bc fa fa b6 3d
       0.0916648 0.018732443 -0.026559683 0.08934589
000050 5a 09 a8 bd f6 22 26 3d 22 c6 2a 3c 8b a0 d1 3b
       -0.08204909 0.040560685 0.010423215 0.006397312
000060 44 ed a8 3c c5 a7 11 bd 8e 74 05 3d 98 34 cf bd
       0.02062095 -0.035560388 0.03258186 -0.10117453
000070 b4 c6 3b 3c ef 02 93 bd bf d3 30 3d 30 03 5a 3d
       0.011460949 -0.07178294 0.043170687 0.053225696
000080 2d b0 85 3d 77 98 c2 3d 04 29 2f bd a3 45 36 bd
       0.065277435 0.095017366 -0.042763725 -0.044500005
000090 7c da 7f bc 31 99 1d 3d b4 c8 be 3a de c5 80 bc
       -0.015616056 0.038476173 0.0014555664 -0.01571935
0000a0 06 f1 cc 3d 9e 71 a5 3d e4 33 31 bd 63 ea c3 3b
       0.10006909 0.080783114 -0.043262377 0.005978869
0000b0 74 73 6d 3d 2e 6a fd 3c e2 1e fb 3c 5d 79 c9 bc
       0.057971433 0.03093442 0.030654375 -0.024594003
0000c0 05 88 41 bd b6 b2 d0 bd c4 9e 55 bd e4 ae 3c 3d
       -0.04724886 -0.101903364 -0.052153364 0.046065226
0000d0 13 1c 4f bd e3 a2 70 3d f6 ed 6e bd 8a fd bf 3c
       -0.050563883 0.05874909 -0.058332406 0.023436327
0000e0 18 66 8c 3c 62 81 a9 bd ba 5c a3 bd b4 5b c2 bb
       0.017138526 -0.08276631 -0.079766706 -0.005931342
0000f0 61 cc b0 3d 76 6b 5c bd 57 27 88 3d 2f 5b 75 3d
       0.08632732 -0.05381342 0.066481285 0.059901413
000100 8a 58 79 bd 7e a4 d7 bb f5 1b 33 bd cd fd d4 bc
       -0.060875453 -0.0065808883 -0.043727834 -0.025999928
000110 ca 90 c3 3d 50 5f 79 3d 18 dd 8a bc 7e c6 33 bd
       0.09549101 0.060881913 -0.016951129 -0.04389047
000120 ed f6 e2 bd d4 ef f4 3c 63 82 a2 3d c2 db f6 bc
       -0.110822536 0.029899515 0.079350255 -0.030134086
000130 3b 61 ca 3c cd 88 70 bd b6 a8 1f 3d d5 5f d4 bd
       0.024704566 -0.058724213 0.038979255 -0.10369841
000140 1e 6b ae 3d ee 4e ee 3d d6 fa 0b 3d 15 5f 96 3c
       0.08516525 0.116361484 0.034174763 0.018355886
000150 c1 67 07 bd 9d fa f3 3b f7 3d b5 3d 75 76 9a bb
       -0.03305793 0.007445647 0.088497095 -0.004713828
000160 d7 80 ba bc 74 41 b2 3d b1 00 a3 3d 4e 0f bf bc
       -0.022766514 0.087038904 0.07959116 -0.023322728
000170 0f 43 74 bd 27 7c 4f 3d ae ea dd 3c ec 16 bd bd
       -0.059634265 0.05065551 0.027089443 -0.092328876
000180 52 b2 6e bd 58 a3 ad bd f9 f4 b3 3c 84 10 56 3d
       -0.05827553 -0.08478421 0.021967398 0.052261844

net.6.weight f4 [100, 100]
000000 b4 2a 11 be 3b e9 9e bd 48 0d 56 3d c9 68 d8 3d
       -0.14176446 -0.07759329 0.05225876 0.10566861
000010 c9 ad 2b bd 7b 11 73 3d 18 ae 9d 3d 3d 66 6c bd
       -0.04191378 0.059342843 0.076992214 -0.05771469
000020 1e 1f 42 3d c7 75 7d bc 9b ae c9 3c 37 bf 96 bd
       0.047392957 -0.015469975 0.024619391 -0.0736069
000030 83 9f d2 ba e8 d8 b4 bd ce 51 c2 3c c0 ad 37 3d
       -0.0016069267 -0.08830434 0.023720648 0.044843435
000040 1b 47 d5 bd ef ff 8d 3b 10 29 39 bd db a1 18 3d
       -0.10413953 0.004333488 -0.045205176 0.037263732
000050 6b 9a 56 3d 64 a9 3c bd 9c 1b 68 ba a9 24 e6 bb
       0.05239336 -0.04605998 -0.0008854212 -0.007023413
000060 04 98 87 3d 62 d9 0f bd 93 85 44 bd be c0 ed 3d
       0.066207916 -0.03511942 -0.04797895 0.11609028
000070 7f 9a 6c 3d 60 31 3e bc 5e 8a b2 bc 64 dc 90 bd
       0.057764526 -0.011608452 -0.021794494 -0.07073286
000080 e8 14 d0 bd dc 0a a3 3d 8c 32 27 3d c2 2a 69 bd
       -0.101602376 0.07961056 0.04081969 -0.056925543
000090 0e 7e b4 3d 70 db b9 bd 8c 77 52 3d 00 00 80 3d
       0.088131055 -0.090750575 0.05138354 0.0625
0000a0 2c dd 00 be 77 6d b9 bd da 34 21 bd 41 bb 0d 3d
       -0.1258437 -0.09054082 -0.039357044 0.034602407
0000b0 bf 27 cd bc f7 cc 54 bc 05 5a 11 be 78 3f 9c bd
       -0.025043366 -0.012988321 -0.14194496 -0.07629293
0000c0 57 e6 bb bd e0 35 a0 bd e1 c2 2e 3e aa 69 32 bd
       -0.09174793 -0.07822776 0.17066528 -0.0435578
0000d0 3a 4b f8 bc 52 44 6f 3c ac 57 e6 3b 0a 3f 9a bc
       -0.030309308 0.014603691 0.0070294943 -0.018828887
0000e0 72 5f 5e bc 31 a5 d6 3b 75 47 5a bd 11 32 1f 3d
       -0.013572561 0.006550454 -0.053290803 0.038866106
0000f0 99 36 a9 3d f2 9a 25 bd 50 1c e8 3b 9d fe 87 3d
       0.08262367 -0.04043097 0.0070834532 0.066403605
000100 bb d9 e4 b8 da 49 3f bd 4e 26 13 bd 86 ed a9 bd
       -0.00010912443 -0.04670129 -0.035925202 -0.08297257
000110 e8 99 f4 bd 9d b5 e4 3c ea 70 5f bc 09 53 da bd
       -0.11943418 0.027918631 -0.013637761 -0.10660369
000120 c1 7f cc 3c 5e 3a b0 3c d5 3b 8a bd ce 2c fb bd
       0.024963262 0.021512207 -0.06749693 -0.12264405
000130 cd ad a9 bd f4 f9 27 3d b3 5f 46 3d 9c 13 0c bd
       -0.08285103 0.04100986 0.04843111 -0.03419839
000140 98 a8 d1 bd 06 42 71 bc 4e 48 a9 bd 0b 8b e6 3c
       -0.10237235 -0.014725214 -0.08265744 0.028142473
000150 26 f4 be 3d 5a dc 7a bc 35 ca 52 bc dc 2f 03 bd
       0.09323911 -0.015311325 -0.012865593 -0.032028064
000160 f7 10 a0 bd 70 70 d5 bd 6e a8 9a bd 31 f4 75 bd
       -0.07815736 -0.104218364 -0.07551657 -0.060047332
000170 74 e5 91 bd 17 37 92 3d 62 e6 b1 3d 63 9a 7a 3d
       -0.07123843 0.07139414 0.0868652 0.06118239
000180 ea d3 9e bd 65 fa 63 3d 15 94 5f 3d 0d 2f 15 bd
       -0.07755263 0.055658717 0.05458458 -0.036421824
000190 67 9f 1c 3d d9 46 95 3d 28 81 99 bd 2b e5 0e be
       0.038237955 0.07288904 -0.07495338 -0.13954608
0001a0 ad 55 1d 3d 96 0b e5 bc 67 27 81 bd 7e 2f 9d bd
       0.038411785 -0.027959626 -0.063063435 -0.07675074
0001b0 1d 3d 96 3d 25 12 7c 3c c2 ec db bd f5 41 77 bd
       0.07335875 0.015385185 -0.10738517 -0.060365636
0001c0 04 17 3c 3d af 54 66 3d 5e a0 fa bc ce d6 9c bd
       0.045920387 0.056233104 -0.030594047 -0.07658158
0001d0 48 31 ea 3d 67 30 6a bd 4c 28 72 bd 72 d9 8b bd
       0.11435181 -0.057175066 -0.05912046 -0.06828584
0001e0 7a 7b 14 bc aa 2c 80 bc 61 3a 01 3e 09 88 ce 3c
       -0.009062642 -0.015646297 0.12619926 0.025211351
0001f0 b9 cd cc 3d ce 42 a4 3d 49 1b db 3b 9c a9 4a be
       0.10000176 0.080205545 0.0066866023 -0.19791263
000200 21 1f 98 3d fe 4c 41 3d fa c9 be 3c 29 50 7b bc
       0.07427812 0.047192566 0.02328967 -0.015338936
000210 aa 0b 6a bd df 9b ae bd 4c 75 8f 3c 52 6b f2 bc
       -0.05714003 -0.08525824 0.017511986 -0.02959219
000220 fa 6c 4e 3b 14 04 2e 3d bc a5 a0 3c 4b d8 7d 3d
       0.003149806 0.042484358 0.019610278 0.06197385
000230 d1 f3 f4 3d e4 b6 1a bc 9c 26 c5 3d f7 c6 00 3d
       0.11960567 -0.009443019 0.09626505 0.031439748
000240 f8 1d 78 3d ce 2f b3 bd 6a 20 c8 bc 44 51 c2 3d
       0.060575455 -0.087493524 -0.024429519 0.094881564
000250 63 91 b4 bc 48 2a 2d bd 9a b8 01 be 26 2d 98 3d
       -0.022041982 -0.04227665 -0.12668076 0.074304864
000260 a6 9e 09 bc 01 98 03 3e 87 6b 9b 3d fa b8 30 bd
       -0.008399641 0.12850954 0.075888686 -0.043145157
000270 a8 17 bd 3d c7 71 09 3a 88 7b ee bd de 67 cd 3d
       0.09233028 0.00052430894 -0.116446555 0.10029577
000280 f0 8f 81 bc 1c 03 aa 3d f1 a6 38 bd b0 32 30 bd
       -0.015815705 0.08301374 -0.045081083 -0.04301709
000290 1b 47 f7 3c 7e 80 87 3d cc 86 25 bd 41 08 01 3e
       0.030185273 0.06616305 -0.040411755 0.12600805
0002a0 79 26 f9 3d 11 1e a8 3d 96 16 c0 3d 54 21 b3 3c
       0.12165541 0.0820886 0.09379308 0.021866478
0002b0 a9 4b 7b 3d 1e d4 65 3d 75 be 00 3d 2a e6 35 3d
       0.061351452 0.056110494 0.031431634 0.044408955
0002c0 ad 1b cb 3d 82 7c c6 bd 99 72 d8 3d bd fb 78 bd
       0.09917388 -0.09691717 0.10568733 -0.06078695
0002d0 fc 15 76 3d db c1 c5 3d 3b c8 24 bd 3d 9a 8b bd
       0.06007956 0.096561156 -0.040230017 -0.06816528
0002e0 53 86 c5 bd e3 e2 e5 bd 64 36 0e 3d 24 e1 be bd
       -0.09644761 -0.11224916 0.03471984 -0.09320286
0002f0 c4 c8 9d 3d c9 f4 4e bd b0 08 e7 3d 9c 53 c8 bd
       0.07704309 -0.050526414 0.11280954 -0.09781572
000300 37 54 b3 3d 0b 75 6e 3d a5 8a 60 bd e5 76 2a bd
       0.08756297 0.05821709 -0.05481972 -0.041617293
000310 1b f5 9c 3b 05 84 77 bb 74 20 6d bd 08 f0 af bd
       0.004789961 -0.0037767899 -0.057892278 -0.08590704
000320 93 f1 ef bd 06 81 c6 3c c2 bf 6e 3d 58 d7 b5 bd
       -0.117159985 0.024231445 0.058288343 -0.08878964
000330 38 28 05 bc 5f cb 7f 3d 61 50 42 bb 89 72 cc 3d
       -0.008127265 0.06244981 -0.002964996 0.09982783
000340 d2 6a 9d bd f7 a2 2f bd 46 4d f3 bc da 73 a3 3d
       -0.0768639 -0.042880025 -0.029699933 0.07981081
000350 44 a7 2b 3d a9 c9 35 bd c4 d7 39 3d 8a 4c 2d bd
       0.041907564 -0.04438177 0.045371786 -0.04230932
000360 52 81 ac 3d 03 6f 81 3d 49 8c c1 bd 7c 98 01 bc
       0.084231034 0.06320002 -0.094505854 -0.00790989
000370 de a3 aa 3d 07 cf b8 bd 90 df 39 3d c5 10 4d 3d
       0.083320364 -0.09023862 0.04537922 0.05006482
000380 4b ad b7 bd d8 97 6d 3d 72 7b 7d bd 68 70 0a bc
       -0.089686 0.058006138 -0.061885305 -0.008449651
000390 f3 f7 01 be 0a 0d 93 bc bc 53 8a bd 29 2c 88 bd
       -0.12692241 -0.017950553 -0.06754252 -0.06649048
0003a0 3a 9e 2a 3d 06 0a 8a 3d 86 82 13 3c 98 c6 c4 bd
       0.041654803 0.06740193 0.009003287 -0.09608191
0003b0 b9 be e4 bd 1f ee 84 3d 0f ad ab 3d a2 86 97 bc
       -0.1116919 0.064907305 0.08382618 -0.018496815
0003c0 95 79 ae bd 9a a6 ce 3a 51 ac 49 bd 79 c7 08 3d
       -0.08519284 0.0015766204 -0.0492366 0.033393357
0003d0 2c 6e 9b 3d 15 d8 cb 3d 11 30 5f 3e 77 b0 d7 3d
       0.07589373 0.09953324 0.2179568 0.10531705
0003e0 4f a2 cd bb f7 66 26 be 22 72 63 3d 97 c1 ab bd
       -0.006275452 -0.16250215 0.055528767 -0.08386534
0003f0 8a 41 53 3d b5 49 87 3d 74 c3 ee bd 6e 01 fb bd
       0.051576175 0.066058554 -0.116583735 -0.12256132

net.6.bias f4 [100]
000000 5e b1 c6 bd 7a 44 c7 bc 9a 49 03 3d 9e ab 29 bc
       -0.09701799 -0.024324644 0.032052614 -0.010355858
000010 ff 04 e9 bd f6 a0 ab bd 7e 83 03 3d e7 8e 93 3c
       -0.11377906 -0.0838031 0.032107823 0.018012477
000020 54 4c 91 bd 4e 0c 29 bb 54 92 ba bc 0c 01 cd 3d
       -0.070946366 -0.0025794688 -0.022774853 0.10009965
000030 7a 46 ef 3d 96 31 66 3c fd 70 04 bd aa 6d b7 bd
       0.11683364 0.014049908 -0.032334317 -0.08956464
000040 40 6c a4 bd 09 7a db 3d 30 4e 9d bd 8d d6 d8 bd
       -0.080284595 0.10716636 -0.07680929 -0.10587797
000050 73 a2 d7 39 6d d3 bf 3d b6 09 3f bd 9c 62 02 bd
       0.0004112903 0.09366498 -0.04664012 -0.031832322
000060 16 7a 1c 3d cf e2 c6 3d 99 51 82 3d 31 2c 54 bd
       0.038202368 0.09711229 0.0636322 -0.051799957
000070 98 fa 51 3b 7b e2 e7 3c 79 11 4e bc 92 8a 8a bd
       0.0032040235 0.028306236 -0.012577408 -0.067647114
000080 70 ef b8 3b 43 bc 57 3c 36 f9 8a bc 5d 30 4c bd
       0.0056437775 0.013167444 -0.016964536 -0.04985081
000090 8a 68 1b 3d 86 e1 a3 3d b1 9c c7 3d 56 5b 12 3d
       0.037941493 0.080019996 0.097466834 0.035731636
0000a0 ee 27 46 bd 24 05 8c bd a7 88 88 bd 6b 21 6e bd
       -0.048377924 -0.06836918 -0.06666689 -0.05813734
0000b0 ac 73 c6 bd a8 8a 8c bd 90 f3 13 bd b3 a3 9e 3d
       -0.096900314 -0.06862384 -0.03612095 0.07746067
0000c0 55 c2 ae 3d 8f 98 c2 3b 9a d9 f7 3c 20 f3 ef bc
       0.0853316 0.0059385966 0.030255128 -0.029290736
0000d0 e2 30 91 bd b1 29 e6 3d 25 30 60 bd 92 c5 dd 3a
       -0.07089402 0.11238421 -0.054733414 0.0016919842
0000e0 42 1f df bc 38 73 ae bd 5d 6c d3 3c 8f 34 ac ba
       -0.027236585 -0.0851807 0.025808508 -0.0013138222
0000f0 4d 4c 02 bc 57 37 95 bd 26 72 6e bc 8f 6a e6 3d
       -0.007952762 -0.07285946 -0.014553582 0.11250793
000100 93 69 9b 3d 18 68 e6 3c b7 03 9d bd b4 ea ca bd
       0.07588496 0.028125808 -0.07666724 -0.09908047
000110 0b e6 2a bd 23 8e 76 bd 5d d2 b5 3d 19 7f 90 bd
       -0.041723292 -0.060194146 0.08878014 -0.07055492
000120 fc 27 70 3d e6 11 8c bd e9 c9 bd bd fb ba ab 3d
       0.058631882 -0.06839351 -0.09267027 0.08385273
000130 b5 62 cf 3d 02 5e cd 3d c1 76 7e bd 67 d3 85 3d
       0.10126249 0.10027696 -0.06212497 0.065344624
000140 4c 21 d9 3c 22 d0 a3 bd 6b a4 8f 3d 2e 74 85 bd
       0.026505135 -0.079986826 0.07013782 -0.065163
000150 73 65 03 be b4 79 2f 3d 5f f4 a1 3d a9 aa 3a 3d
       -0.12831669 0.042840675 0.07907938 0.04557291
000160 2e d2 d4 bc 0d 05 5a 3d 0e fe cb 3c 48 17 6c 3d
       -0.025979128 0.053227473 0.024901416 0.05763939
000170 86 24 ce bd ec da f0 bc 4d be 4e bd 84 17 32 3c
       -0.1006556 -0.029401265 -0.050474454 0.010869864
000180 48 ae 96 3d f1 9a 81 3d b2 6f 7a 3c af ef af bd
       0.0735746 0.06328381 0.015285419 -0.08590638

net.8.weight f4 [100, 100]
000000 1a f7 ce bd e8 64 c9 3a 96 cd 68 bc ac f8 a4 bd
       -0.10105725 0.0015365155 -0.014209172 -0.08055243
000010 7f 02 4e 3d c6 33 9e 3d 03 97 b6 bd e3 6e 32 3d
       0.05029535 0.07724719 -0.08915522 0.04356278
000020 c5 4d 57 bc d6 b9 aa 3d d4 1e d3 bd cd 1b 40 bc
       -0.0131411 0.08336227 -0.103086144 -0.011725378
000030 56 91 9a 3d b5 e7 80 3d 80 10 97 3d 5b 78 bf 3c
       0.07547252 0.062941946 0.07376194 0.02337282
000040 dc af c9 3b 01 e4 8d 3c ce 0d 0c 3d 49 7b 24 3d
       0.0061549973 0.017320635 0.034192853 0.040156636
000050 88 a5 6b bc 34 dc 2b 3d a4 1f 90 bc 19 e9 2f 3d
       -0.014382727 0.04195805 -0.017593212 0.04294691
000060 85 59 bc 3b 9c ab 03 bd 2d 41 95 3c 12 ee c5 3d
       0.0057479762 -0.03214608 0.018219555 0.09664549
000070 5f 10 cf 3d 83 a1 45 3d cf 83 55 3a 93 e4 aa bc
       0.101105444 0.048249733 0.0008144946 -0.020860946
000080 2f 7e 9c 3d fc 0b bc bd 8a ae 2a 3d b8 77 2e 3e
       0.07641255 -0.09181973 0.04167036 0.17037857
000090 e6 7d 31 3d ba bd 8f 3c 2d c0 8e bd 92 3b 03 be
       0.043332957 0.017546523 -0.06970248 -0.12815693
0000a0 71 5c c7 bd 5b 7d 61 bd 6e 79 6a 3d 21 8f 94 bd
       -0.09734429 -0.05505119 0.05724471 -0.07253862
0000b0 ca e1 87 bd f8 67 f2 3d 03 70 95 3d 69 cc 42 bd
       -0.06634863 0.11836237 0.07296755 -0.047558222
0000c0 db f2 a7 3d 8d fa 84 bd fd 42 86 3c f7 98 00 3e
       0.08200618 -0.06493101 0.016389364 0.12558351
0000d0 45 54 39 bd 78 2e 16 3d 34 a6 0c bd 0b 9a 45 bd
       -0.04524638 0.03666541 -0.03433819 -0.04824261
0000e0 c3 10 a5 bc a0 09 f4 bd ac 56 be bd 34 54 72 3d
       -0.020149594 -0.11915898 -0.09293875 0.059162334
0000f0 cf c9 bd 3d f8 ef 65 bd cf f3 a1 bd 60 16 ad 3b
       0.092670076 -0.056137055 -0.07907831 0.0052822083
000100 c2 cb 9a bd 58 8d 65 bb 22 69 88 bd 38 64 c4 3c
       -0.07558395 -0.0035026874 -0.066606775 0.02397357
000110 ae 63 2b bd c6 0f c3 3d fe 7d a0 3d fb 9e e9 bd
       -0.04184311 0.09524493 0.07836531 -0.11407276
000120 5a 4f 00 be 8d 51 d3 bd 89 b7 06 3c fc 41 a3 3d
       -0.1253027 -0.10318289 0.008222469 0.0797157
000130 57 06 d5 bc 04 32 bb bb 7f 62 90 3d 1b 81 b6 3c
       -0.026004 -0.0057127494 0.07050037 0.02227836
000140 d9 ce a9 3d b4 c6 6e bd 8c db 8c 3c 36 ef 57 3d
       0.08291406 -0.058294967 0.017194532 0.052718364
000150 1b 64 55 3d b6 8d 7d 3c d1 11 9e bd f1 d9 c1 bd
       0.05209742 0.015475681 -0.07718242 -0.09465397
000160 fe eb c8 3c 58 dd 66 bd 2a 10 8e 3d a6 b0 bf bd
       0.024526592 -0.056363434 0.06936677 -0.09359865
000170 70 61 95 3d 77 6f a7 bd f1 ef cf 3d 6e 6e c4 bc
       0.07293975 -0.08175557 0.10153187 -0.023978438
000180 b1 06 b7 3d cd a7 8b 3d b9 f9 a3 3c 74 9a 6f 3d
       0.08936823 0.06819115 0.020016538 0.058496907
000190 7b a2 db bb bf 85 21 3c 9a 12 1f bd 67 98 9c 3d
       -0.006702719 0.009858548 -0.0388361 0.07646256
0001a0 1e aa 79 3d 05 2e a0 3c e0 ef ba bd 50 5e 4b bd
       0.060953252 0.019553194 -0.09127784 -0.04965049
0001b0 c3 ab f3 bd 2d eb c5 bd 9e 75 72 3d 77 9d 7e 3d
       -0.11897995 -0.09663997 0.0591942 0.06216189
0001c0 cc 09 94 3d 67 cc a9 bd 0a f2 f0 bc 64 43 05 3d
       0.07228431 -0.0829094 -0.029412288 0.03253497
0001d0 fd b6 c1 3d d6 4f a8 3d 85 19 96 bc c7 fd 9c bd
       0.0945873 0.082183525 -0.018322716 -0.07665592
0001e0 41 8a bb bc 5b 48 b7 bd 83 2e a2 3d 39 4c 46 3d
       -0.022893073 -0.089493476 0.07919028 0.048412535
0001f0 30 6d 88 bd b5 f1 7a bd c6 f1 b3 3d 79 7a 0c be
       -0.06661451 -0.061265666 0.08786349 -0.13718595
000200 20 35 6b 3c 65 62 b0 bd b4 f9 8b bc 5c 99 32 bd
       0.014355928 -0.08612517 -0.017086841 -0.043603286
000210 52 e9 b1 bd b9 62 6f bd a5 1f 85 3c ea 87 da 3b
       -0.086870804 -0.05844376 0.01625044 0.0066690343
000220 7c 92 63 3d 05 8f 8b 3d 28 1b 87 bd 3e c8 4c bd
       0.05555962 0.06814388 -0.065969765 -0.049995653
000230 9c d8 af bd 12 ce 91 bc d2 3d d7 bd 53 01 31 3d
       -0.08586237 -0.017798457 -0.10509838 0.043214153
000240 e4 ea b0 bd 55 f7 61 bd 68 c7 b1 3d 62 cd d7 3d
       -0.08638552 -0.055167515 0.08680612 0.105372205
000250 fd 09 3a be cf 0f ab 3d 52 d5 f4 bd c0 4a 8a be
       -0.18167873 0.083526246 -0.1195475 -0.27010155
000260 3d c2 65 be b4 c9 80 bc 15 cc a9 3d bb 49 b7 bd
       -0.22437377 -0.01572118 0.08290879 -0.0894961
000270 da e8 c2 3c 48 ac 33 bd 73 bd 83 bc a8 39 6f bd
       0.023792673 -0.043865472 -0.016081547 -0.058404595
000280 70 99 df 3d 62 dd 86 3d d8 52 80 3e b4 96 7d bd
       0.10917938 0.06585194 0.25063205 -0.0619113
000290 db 44 93 3d ee 33 85 3d 94 59 1f 3d bb 6d 6c bd
       0.071908675 0.065040454 0.038903788 -0.057721835
0002a0 eb d4 02 bd 41 bb 37 bd f6 0e 99 bc 60 5d 02 be
       -0.031941336 -0.044856314 -0.018683892 -0.12730932
0002b0 51 59 47 bd 69 31 2f bd dd 6b a6 bd 09 5b 30 be
       -0.048669163 -0.04277173 -0.08126042 -0.17222227
0002c0 5d 2c e5 bd 35 a4 68 bd 1d 56 3d 3b 37 64 68 bd
       -0.11190102 -0.056797225 0.002889044 -0.056736197
0002d0 ce 4d 07 be 46 b3 00 bd c7 9a ae bc d0 22 53 bd
       -0.13213274 -0.03142097 -0.021314038 -0.05154687
0002e0 f9 61 b8 bd 48 5d 2f bd 97 2b cf 3c e3 95 51 bd
       -0.09003062 -0.04281357 0.02528934 -0.051168334
0002f0 37 86 64 bc c7 73 fa 3c 46 a6 11 bb 97 aa 18 3c
       -0.013948015 0.030572785 -0.002222435 0.009318016
000300 e8 a1 d6 bc 88 45 14 be 29 69 14 be bf 17 3c bc
       -0.02620025 -0.14479649 -0.1449324 -0.011480271
000310 c9 56 56 3d 88 6a 88 bd b3 48 f8 bc a1 32 5c 3c
       0.05232886 -0.06660944 -0.030308103 0.013439805
000320 61 6a 88 3c a0 52 56 bd aa 7f 0b 3e f5 0a 9f be
       0.016652288 -0.05232489 0.13622919 -0.31063047
000330 51 52 6c 3e 45 f9 82 3e 83 03 0e bd 93 2f 49 bd
       0.23078276 0.25580803 -0.034671318 -0.049117636
000340 dc 0d cc 3d 23 c7 40 3d 36 72 7c 3d b8 f0 76 3d
       0.09963581 0.04706491 0.061632358 0.06028816
000350 8a ee 93 be 10 c1 39 bc 99 8e 35 bd c7 1b 09 bd
       -0.28892928 -0.011337534 -0.044325445 -0.033473756
000360 d1 bf 9e 3d a6 7e 83 bd c7 60 b5 3d bf cb 3d bd
       0.0775143 -0.06420641 0.088563494 -0.046336886
000370 37 1d 80 3e c5 a4 07 bd 5e 99 31 3e 1d 90 95 3d
       0.2502229 -0.03311612 0.17343661 0.07302878
000380 2f ce 94 3c da ff 27 3e 0b 72 9c bd b9 b4 8d 3d
       0.018164722 0.16406193 -0.076389395 0.06919236
000390 db 3b 96 bc 79 65 32 be 84 c6 0c bd 35 cc be 3d
       -0.018339088 -0.17421521 -0.034369007 0.09316293
0003a0 2e 2f a3 3c 83 b5 3e bb 8c f7 c4 3c 53 50 b0 3e
       0.019919958 -0.0029099889 0.02404382 0.34436283
0003b0 4f 40 72 3d 5e 7d a8 bd 8a 10 65 bd bd 88 d1 3d
       0.05914336 -0.08227037 -0.055923976 0.10231159
0003c0 53 ad 15 3e 75 63 27 be 73 6b 1c bd 8c 7b 45 3e
       0.14616899 -0.16346534 -0.03818841 0.1928541
0003d0 3d 96 2c 3e 17 e9 70 bd f4 1d 81 bd ce 5f 30 3d
       0.16854186 -0.05881604 -0.06304541 0.043060116
0003e0 91 ef d8 3d 77 54 5d be 9a f1 eb 3d 97 ec 58 3e
       0.10592569 -0.21614252 0.11520691 0.21184002
0003f0 98 97 b1 3d 10 93 2d be d6 04 11 3e b6 80 f9 bc
       0.08671492 -0.16950631 0.14162001 -0.030456882

net.8.bias f4 [100]
000000 14 36 e4 3d c4 31 a3 3d 72 20 05 bd 1f 14 be 3d
       0.11143127 0.079684764 -0.032501645 0.092811815
000010 15 da 83 3d d2 fc c5 3c 5c 25 e9 3d a6 a7 3c 3c
       0.0643808 0.024168406 0.11384079 0.01151458
000020 0a f5 63 3b 77 49 41 3c 3d 13 db bc b1 a5 d8 bd
       0.0034783506 0.011797301 -0.026742572 -0.10578478
000030 ba f4 ce 3a 02 69 b7 3d c5 25 e2 bc d1 88 91 bd
       0.0015789487 0.089555755 -0.0276059 -0.07106174
000040 d6 02 f1 bc df bb 4d 3c 48 74 bf bc 8e 27 7c 3d
       -0.029420298 0.012556999 -0.023370877 0.06156116
000050 9b 3b 69 bd e3 78 f1 bd 54 96 34 bd a7 f6 1c 3d
       -0.05694161 -0.117906354 -0.044088677 0.038321164
000060 69 f8 17 bd 5b 01 77 3d 61 9f 48 3c f0 44 8d 3c
       -0.037102137 0.060304027 0.01224503 0.017244786
000070 b6 1c b7 bd 93 2c 86 bd 73 a7 8a 3d bb df d4 bd
       -0.08941023 -0.065514706 0.0677022 -0.10394236
000080 16 b4 11 3e a3 f8 ca bc 3d eb 8a bd e9 34 d2 3d
       0.14228854 -0.024776762 -0.067831494 0.10263998
000090 94 76 d0 3d 1b 8e 60 3c 2e 41 c2 3c 2d 05 b8 ba
       0.10178867 0.013705756 0.02371272 -0.0014039628
0000a0 44 19 92 3d b7 2f 5f bd d6 45 c6 3d 0c d8 ad 3c
       0.07133725 -0.054488864 0.09681289 0.021221183
0000b0 9e 79 17 bb b0 3e 9f bc 8d 43 26 bc 29 c1 67 bc
       -0.002311326 -0.019439071 -0.010147941 -0.014145174
0000c0 9f 4d 21 bd 65 6f 94 3d 33 59 21 3d 0f 76 94 bd
       -0.039380666 0.07247809 0.039391708 -0.072490804
0000d0 42 df 7a bc d9 5e 9a bd 6a 51 80 bd df 59 2d 3d
       -0.015312018 -0.07537622 -0.062655285 0.042322036
0000e0 28 4f 13 3d a3 ea 27 3d aa 63 c7 3c 6c 7f a0 3c
       0.03596416 0.04099525 0.024339516 0.01959201
0000f0 37 8a dc bc 51 b6 ea bd 41 ba 26 3c 1b 15 b6 bc
       -0.026921375 -0.11460555 0.010176242 -0.02222686
000100 df 25 c6 3c 4f e3 49 bd 00 71 c2 bd a8 04 29 bd
       0.02418798 -0.049289044 -0.09494209 -0.041264206
000110 63 8e aa 3c 74 7c 94 bd 4f 55 ac 3d 02 98 f5 3c
       0.020819848 -0.072503 0.08414709 0.02997971
000120 da 8f d0 bc 9d e9 62 3d b6 49 a8 bd d7 46 07 bd
       -0.025459219 0.055398572 -0.08217184 -0.033026543
000130 b2 c2 9b bd 08 2a 94 3d 1e b5 cf 3d 1e 45 ff bb
       -0.076054946 0.07234579 0.10141967 -0.007790222
000140 7a 4c fe bb d9 5b d4 3c 6c db 87 3d 0c e7 90 3d
       -0.0077605816 0.025922703 0.06633648 0.07075319
000150 da 40 f5 3a 0c 8e b0 3d 17 40 ab 3d cc 43 d0 bb
       0.0018711344 0.08620843 0.083618335 -0.0063557383
000160 38 f9 c4 bc 1c 54 6d bb bd d2 35 bd 0a cd 89 bd
       -0.024044618 -0.0036213463 -0.04439043 -0.06728561
000170 06 04 3d bd d3 f3 0f bd ac cb be bd 1f 7a 08 3d
       -0.046146415 -0.03514464 -0.09316191 0.03331959
000180 71 aa bf bd 8f b2 00 bd e1 82 90 bd e5 36 f7 bc
       -0.09358681 -0.031420287 -0.07056213 -0.030177543
