models/heatalpha/tanh/heatalpha_01.pth (torch, 977047 bytes, 51 tensors)

net.0.weight f4 [100, 3]
00000000: 9a82 37be 1be1 05bf 7d7e 593c ec02 ecbe
00000010: d949 a0be 9796 513e 6d8b c5be 472f 31bb
00000020: e9fe ef3e ef76 743e 44b6 6f3e a876 423e
00000030: 90ba 193b 65b5 5f3e 042c b63e e28c 1f3e
00000040: 61cd 943f f596 dabe b028 113f 7cf6 853e
00000050: 41cd c93e bb52 30be 2b43 7b3e e9b2 53bd
00000060: e288 363e d2e7 67be 7e0a 20bf a05d 08bd
00000070: a299 97bd d949 da3e c0dc 99bd 10d1 4abd
00000080: 9e8e 113f 7274 c53e 2479 abbd 3166 05bf
00000090: 97e8 2b3e c3ba b73c 1828 00bf 720d 9b3e
000000a0: af7d 1b3e fd4d ea3e 211a 5abe 70af 883e
000000b0: 4b9c e23e dd2a abbe 5223 d8be ef15 563e
000000c0: c24f 303e d554 dd3e 798e 0dbe 0e4f 823e
000000d0: 2320 32bf 5ae0 7ebe e2b9 c5be 2bc2 a7be
000000e0: 9a81 bf3d e017 313f f686 3b3e c8c2 df3e
000000f0: bdb4 9abe fb5e b43e 829f 15bf a754 d8bd
00000100: 03d3 babd f221 043e 2023 af3e e149 02bf
00000110: a47e c7be 6a5f d5be 0129 033f a270 bebe
00000120: fcf1 92be 6917 f0be acbb 33bd 4d7e cfbe
00000130: 55f8 d8be ba8b be3e 5323 2b3f dbb6 a53d
00000140: 3d38 d0bd c43d 8b3d 5eca 42bf 53c6 b73d
00000150: 1f9c ea3d 844b c9bd bd4a a53e 6aa8 e3bb
00000160: 96ae 88be 805a 99be 5a8e b43e ea99 8f3e
00000170: 2816 723d d618 d8be 4dda b83c d518 97bc
00000180: d5de 32be 076e b93e 3314 d13e 8ed1 853e
00000190: 09a1 1dbe ce4a b73e e3d3 813c ca37 633e
000001a0: abe6 673e ed4e 993e 94d7 b93d 03a8 9ebe
000001b0: ee0b 3d3c 3eb5 01bf ad7b 783e 32fa ed3d
000001c0: 93c8 aebe 6ac2 25bd 5818 de3d 12c4 8e3e
000001d0: 947b 0d3e 36a4 b5be bac3 023f ccbc b33e
000001e0: 821d 0a3e 56dc d33e e036 b2bd d16b 543e
000001f0: ce31 adbd 2936 d2bd 883d d4be 7b29 cf3c
00000200: f8c8 93be 4b95 4cbe 1b87 f3be c2fe e83e
00000210: 1647 4bbe b04b 27bf d081 d23e 4d38 033f
00000220: 1400 c0be 0ea1 22be a489 95be cc36 273e
00000230: 7514 a8be c81a 94be 11fd ca3e 9ccf d2be
00000240: 7411 63be 56cc 363d 633e 103f b17e adbe
00000250: 9cb7 673d ee10 093e c20a 0b3e c55e 283c
00000260: de9a 353e 6cfe 3fbe 26ec a8be 7941 553d
00000270: 7455 9e3d 6f35 85be 76af 08bf 4a73 89be
00000280: 8c8c 47be 52b2 083e dc2a 94be 7325 21be
00000290: 6392 04bd f732 e03d 2cff f93e 2678 cabe
000002a0: e003 1cbe 1a63 2f3e 208b b53e 585a 273e
000002b0: 760e f73e 04c5 29be 2820 acbe 8654 3b3e
000002c0: 2bd8 fa3e 0d47 103f 43af 513e 19df bc3d
000002d0: 1045 42be 1f90 a33e d33e 4c3e 74cd 91be
000002e0: 1f29 273e 8a51 c63e 58fa e6bd e3eb 3f3e
000002f0: df7f d33e 6f0a 9e3e cf47 a8bd 767a e43d
00000300: d6c2 ab3e c358 c1be 0179 143f 08f1 29bf
00000310: cda9 843d e99c 0dbd bff7 a53d fc06 1ebe
00000320: ba84 02bf 5f74 aebe 5332 12be a343 f43c
00000330: 927d 29bf cd52 03bf 232d 11bf 58ad fe3d
00000340: 2484 cbba 14be e43d 48d8 b53e 5be7 343f
00000350: e3e6 12bf 91ec 64be 4e78 b3be ce97 fc3e
00000360: acd5 f23d 0534 993e bd4a 89bd c882 c5be
00000370: 2fa9 db3e 96d3 103f a0aa 133e 05a4 8b3e
00000380: 035f 0c3e d468 533d 24a5 ee3e 22b9 613e
00000390: bafa 223f 1803 163f 8388 c1bd 5e92 6ebd
000003a0: a3c4 803e 42db e93e b524 bbbe 8103 f6be
000003b0: f0fc 1e3d 775c c1bc df48 89be 6892 133f
000003c0: d0a3 81bd cd72 6d3e 1ab5 adbe cbc3 22bf
000003d0: 9dcd a4be 1134 7d3d 20fe c13e f1a7 f8be
000003e0: 1f85 473e 7f83 e2bd df7e babe 38cf 55bd
000003f0: 3d51 55bd 9ad8 1ebf 6672 cb3c 727b 1a3e
-0.17920914 -0.5229661 0.013274786 -0.4609598 -0.3130634 0.20467602 -0.38582936 -0.0027036236
0.4687417 0.23873495 0.23409373 0.18990576 0.0023457147 0.2184654 0.35580456 0.15581086
1.1625177 -0.42693296 0.5670271 0.26164615 0.3941441 -0.17219059 0.24537341 -0.051684294
0.17825654 -0.22647026 -0.6251601 -0.033292413 -0.0740235 0.42634466 -0.07512808 -0.049515784
0.5685824 0.38565403 -0.08372715 -0.52109057 0.16787945 0.022427922 -0.5006118 0.30283695
0.15184663 0.45762625 -0.2129903 0.26696348 0.44259867 -0.3343114 -0.42214447 0.20906805
0.17217925 0.43228784 -0.1382388 0.2545094 -0.69580287 -0.24890271 -0.3861838 -0.32765326
0.093508914 0.69177055 0.18313202 0.43703294 -0.30216017 0.35228714 -0.58446515 -0.10563021
-0.091222785 0.12903574 0.34206486 -0.5089398 -0.38963807 -0.41674358 0.5123444 -0.37195307
-0.28700244 -0.4689286 -0.04388015 -0.40526047 -0.42376962 0.37215978 0.66850775 0.080915175
-0.101669766 0.0679889 -0.7609004 0.08973374 0.11455559 -0.098288566 0.32283583 -0.0069475668
-0.26695698 -0.2995186 0.35264856 0.28047115 0.05910316 -0.42206448 0.022565031 -0.018444458
-0.17467816 0.36216757 0.40835723 0.2613644 -0.15393461 0.3579926 0.015848106 0.2218925
0.22646587 0.29943028 0.090743214 -0.30987558 0.011538489 -0.5066718 0.24265929 0.116199866
-0.341374 -0.04046861 0.10844487 0.27883965 0.13816673 -0.35476846 0.51079905 0.35104978
0.13487819 0.4137904 -0.08701873 0.20744254 -0.08456765 -0.102642365 -0.41453195 0.025288334
-0.28864264 -0.19978826 -0.47564015 0.45506865 -0.19851336 -0.65349865 0.41114664 0.51257783
-0.3750006 -0.1588175 -0.29206574 0.16329497 -0.32828107 -0.28926682 0.396462 -0.41174018
-0.22174627 0.044628464 0.56345195 -0.3388572 0.056571588 0.13385364 0.13578323 0.010276501
0.17734858 -0.18749398 -0.32992667 0.052064393 0.07731143 -0.2601733 -0.5339273 -0.2684577
-0.19487208 0.13349274 -0.2893895 -0.15736942 -0.032366168 0.10947221 0.48827493 -0.3954479
-0.15235853 0.17127648 0.35457706 0.16343057 0.4825322 -0.16579062 -0.33618283 0.18293962
0.48993048 0.56358415 0.20477013 0.0922224 -0.18971658 0.31945893 0.1994584 -0.2847706
0.1632428 0.38734084 -0.11278218 0.18742327 0.41308495 0.30867335 -0.082168214 0.1115617
0.33547086 -0.37763032 0.5799714 -0.6638341 0.064776994 -0.03457347 0.081038944 -0.15432352
-0.50983775 -0.3407316 -0.1427701 0.029817408 -0.6620723 -0.5129822 -0.567095 0.124354064
-0.0015527052 0.11169067 0.35516572 0.7066552 -0.57383555 -0.22355868 -0.35052723 0.49334568
0.11857161 0.299225 -0.06703708 -0.3857634 0.42902514 0.56572855 0.14420557 0.27273574
0.13708119 0.051613644 0.46610367 0.22043279 0.6366383 0.5859847 -0.09449866 -0.058245055
0.25150022 0.45675093 -0.36551443 -0.48049548 0.03881544 -0.023603661 -0.2681341 0.57645273
-0.06330073 0.23188324 -0.33927232 -0.63580006 -0.3218812 0.061817233 0.37889194 -0.4856563
0.19484375 -0.11060237 -0.3642492 -0.052199572 -0.052079428 -0.6204926 0.024834823 0.15086153

net.0.bias f4 [100]
00000000: f65c 05be 4a5e a5be 2de6 753e 4ebc b4bd
00000010: 98b1 9e3e 5e75 743d cb25 833d 1a82 c73e
00000020: 4c63 c6bc 2371 0b3f 1dcb 17bf 8e50 3fbd
00000030: 640b d3bc 19ad 2cbf 19e4 9b3e c930 09bf
00000040: 6c34 00bf 3775 e4be d6b6 253f 9ee1 ab3d
00000050: 7304 043f f2e4 403e e42d 08bf 174f bcbb
00000060: 4854 e63d ebe4 97bd efa5 07bc 65bd c13c
00000070: df4a ad3e 4617 c33e 2635 23bf e899 09bf
00000080: e9e5 943e 1980 b63e 4439 11bf e586 693e
00000090: 217d 8ebe 02fb dfbe 1f28 e23d 8a57 bd3e
000000a0: 4c72 7abe ef01 093e a475 71bd 0d60 c8bc
000000b0: e019 073e c9cd 50be 2534 273e 680c 043f
000000c0: ead5 f7be 906a 0a3f 2e3a f7be 8a39 0ebf
000000d0: 83c1 5f39 cf24 e03c 456f d3be 1025 86be
000000e0: 049c 75be f553 e5bd 5c71 aebe 4c30 063f
000000f0: fe26 8f3e 68b3 1fbf ebe3 6ebe a13c 4bbe
00000100: d022 77be 40bc 4a3d 5cf4 783e 6bc9 013f
00000110: 3fc2 1e3e 9b6e 21bf 780c 763e cb06 fcbd
00000120: 8db9 b23e 94ac 863e 8dce 11be 9da9 a5bc
00000130: e3f8 80be 065c 59be 0bac 0f3f 9bd5 093f
00000140: ef6d 3e3e 959a 6b3d f333 083e 76f2 32be
00000150: f85b 92be 6cb9 f6bd 6279 143f 3938 b73e
00000160: fb41 08bf 8ea9 803e 4942 93be f06d 1abf
00000170: 256d e53d 1a87 763e e1d4 f63e 55f5 bdbe
00000180: 265d 84bd 0938 923e 5350 d7bd 3061 bdbe
-0.13023743 -0.322985 0.24013586 -0.08824979 0.30994868 0.059682243 0.06403693 0.38966447
-0.02421727 0.5446951 -0.592943 -0.046707682 -0.025762267 -0.67451626 0.30447462 -0.53590065
-0.5007999 -0.44620678 0.6473211 0.083926424 0.5156929 0.18837336 -0.53195024 -0.005746733
0.11246544 -0.074167095 -0.008279308 0.02364988 0.33846185 0.38103694 -0.63752973 -0.5375047
0.29081658 0.35644606 -0.56728005 0.22805364 -0.2782984 -0.4374619 0.11042809 0.3698085
-0.24457663 0.13379644 -0.05895008 -0.024459863 0.13193464 -0.20391001 0.16328485 0.5158143
-0.4840539 0.5406885 -0.48286575 -0.5555655 0.00021339026 0.027361302 -0.4129583 -0.2620015
-0.23985296 -0.11197654 -0.3407086 0.52417445 0.27959436 -0.6238313 -0.23329131 -0.19847347
-0.24134374 0.049495935 0.24311966 0.50697964 0.15503787 -0.63059396 0.24028194 -0.12305983
0.3490719 0.26303542 -0.14238949 -0.02022248 -0.25189885 -0.2122651 0.5612189 0.5384156
0.18596624 0.057520468 0.13301067 -0.17475304 -0.28585792 -0.12047085 0.57997715 0.35785082
-0.5322568 0.2512936 -0.2876151 -0.60324 0.11202458 0.24074975 0.4820929 -0.37101236
-0.06463079 0.28558376 -0.105133675 -0.3698821

net.2.weight f4 [100, 100]
00000000: d6bb a63d 8031 a43d 7688 d33d 38c0 2ebc
00000010: f8a6 133b e5fc 653d 9c91 50bc 82f9 423d
00000020: bcd7 91bd 1901 10bc 491e c2bd 72e7 40bd
00000030: acda 483d 1dfa e33b e33c 1cbd 4758 233d
00000040: c582 833a f100 7d3d d720 a4ba 4254 8fbd
00000050: 9b10 c83c f712 263d 9746 b33b 2241 b2bc
00000060: de00 c13d 6ba0 8c3c 914d 7cbc 9073 c23c
00000070: 4fa3 083d c7d9 053d 1f5f 963d 9189 afbd
00000080: 57cd fb3d 2d75 8a3d b2ac 423d be99 9cbd
00000090: bda4 b7bd 9ea0 cfbd 0934 a33d 6e85 8bbd
000000a0: a8a2 a2bd 168c b73c c8ca b23d a68c bd3d
000000b0: 3a9c a93d 1186 b5bb 562b 09bd 183b b4bc
000000c0: 8df3 cc3d a7df e03d 019e 98bd 50db 93bd
000000d0: df30 853d 08bc 9e3d 39f7 d23b 951a 873d
000000e0: 3ed5 bcbd a1e9 7cbb fe2a f73b ef17 913b
000000f0: 55d8 d53d ad35 babd 67a7 2d3d b29e df3c
00000100: 743d a5bc 896d 72bd 18ec dd3c 626b 4dbd
00000110: 672a a4bd eb5f 00be 4be0 9c3d e757 b03d
00000120: 1b90 c73d c677 6bbd e23d 813d c025 23bc
00000130: c9b3 403d 00ee ebbb 4716 2b3d cee6 883d
00000140: f8f4 3c3d 78b6 8e3d 7550 16bd 0fc2 c9bd
00000150: 8977 91bd 9a47 fb3c 681f 5dbd 4a24 19bc
00000160: a525 633c 0daf 84bd f31d f9bd d147 b6bd
00000170: bda7 193d dc5e 45bd 13d2 1e3d 6b4b a7bb
00000180: 5e76 febc 1609 003d e2c7 c9bd c756 99bd
00000190: d09a 263d 6be3 9abd 5582 a8bc 8ae7 8f3c
000001a0: c46f bcbd 39c9 4dbd d634 b0bd c478 95bd
000001b0: 7e8e 453d 6d96 39bc 5f4e 983d d5e2 babd
000001c0: 3682 a7bd 6005 cf3d ad53 3fbd 401d b2bd
000001d0: 9bdc cbbd 85af 1bbc 1ab5 74bd ca81 f03c
000001e0: d3d7 d23d b7ae 313d 7095 fdbc 29fd 0cbc
000001f0: 792b 56bd 9317 c0bd c980 4abd 2995 243d
00000200: 23e9 4fbd 60d2 dd3d 28c9 41bd bfb0 5bbc
00000210: 3163 a1bc 7d4e 9ebc e7d2 e3bc d7a7 b33b
00000220: cd15 353c 0cde e7bd 9fd3 973b ff7b 8c3d
00000230: 8c5d c9bd fe22 d3bd 66be 99bd b128 8bbd
00000240: 9fd4 c6ba 6d82 2abd ea97 273d 101e d1bc
00000250: 0fcd a13d 4ae1 47bd 37ad 20bd 57c0 c7bc
00000260: 3d24 93bd e13b a6bc 0b4c 9f3d 4e38 583c
00000270: 9c1c e43c a03b 5dbd 253b 8bbd a7b8 94bd
00000280: 3e8a 10bd c28e 693d 89de 4fbd 5692 9d3d
00000290: 5765 9c3c 4820 7fbc 7f86 65bd b3bf 373d
000002a0: 4cc5 b7bd bbd7 1ebe 2deb ce3d 522b 9fbd
000002b0: d188 64bd c5a9 5cbd 0950 ec3c da94 1a3d
000002c0: e740 99bd 4a69 623d 636f 0a3d edce a43d
000002d0: a9e0 cf3d 5ffe b53d 797e 9cbd bdc4 a03c
000002e0: b6a2 84bd 1e1e 5fbc cc31 d0bd 73ed 9e3d
000002f0: fec0 d0bc 3777 7b3d a9e3 59bd 9809 a2bd
00000300: 7252 18bc 955d 70bd 301d 92bd 1060 dd3b
00000310: 1532 813d 2ec4 0d3d 17f4 833c 3643 88bd
00000320: 2bb2 0b3d 8eb6 90bd 44ad 4b3d dfdf 4fbd
00000330: 2648 af3d 1447 7bbb bd60 8b3d 7971 6bbd
00000340: ac0d 82bd f232 76bc 2b50 b5bd 3f8c 9fbd
00000350: 4789 c2bd 116d 04bd 086e 003e eaf9 c23d
00000360: b5d2 6ebc eec5 c4bd 89ee 38bd 5e50 ad3d
00000370: fb59 f83b 6713 f13d ec95 b8bd 1685 8b3b
00000380: 8f30 343c 27b2 723d 171c a0bd c279 afbd
00000390: 5096 c3bd cc4c ad3d 3464 1fbd b1dc b73d
000003a0: 41e3 69bc ff5b 5b3d 3723 60bd 100b 233d
000003b0: 781b 8ebd c93c 14be f689 a13b 4ad8 1cbc
000003c0: b04d c1bd 7f2f 843d 2fcd 3fbd ef67 b5bd
000003d0: 6afc 81bd 6cf9 d73a 3a57 c0bb 52d3 0fbc
000003e0: b66a 253c 30d1 773d 9817 f73b 29b0 603d
000003f0: 69d7 0cbc abbc 1b3d 3fd6 19bd 4a81 38bd
0.081412956 0.08017254 0.10328762 -0.010665946 0.002252994 0.056149382 -0.0127300285 0.04760123
-0.07121226 -0.008789324 -0.09478433 -0.047095723 0.049036667 0.006957306 -0.038144004 0.03987911
0.0010033479 0.061768476 -0.0012521994 -0.06998493 0.02442198 0.04054543 0.0054710614 -0.021759573
0.094239935 0.017166337 -0.015399353 0.023736745 0.03335887 0.03267839 0.07342362 -0.085711606
0.12295025 0.06760631 0.047527976 -0.076465115 -0.08966968 -0.10138057 0.07968909 -0.06812559
-0.079411805 0.022405665 0.08730084 0.09255342 0.08281751 -0.0055396636 -0.033488594 -0.022000834
0.10007391 0.10980158 -0.07452012 -0.07219565 0.06503462 0.07750708 0.0064381626 0.06596867
-0.0922036 -0.0038591402 0.007542967 0.004427902 0.10441653 -0.09092269 0.042395975 0.027297352
-0.020170905 -0.059186492 0.027090117 -0.050151236 -0.080159 -0.1253659 0.07659968 0.08610516
0.09744283 -0.05748727 0.06310631 -0.009957731 0.047046456 -0.0072000027 0.041769292 0.066846475
0.046132058 0.06968397 -0.036697824 -0.09851467 -0.07102878 0.03067379 -0.05398503 -0.009347031
0.013863956 -0.06478701 -0.121639155 -0.08900417 0.037513483 -0.048186168 0.03877456 -0.005105426
-0.031062301 0.031258665 -0.09852578 -0.074872546 0.040674984 -0.07562908 -0.02056996 0.017566461
-0.09201005 -0.05024073 -0.08603828 -0.07298425 0.048231594 -0.011327368 0.07436823 -0.09125296
-0.08179133 0.10108447 -0.04671066 -0.08696985 -0.099541865 -0.009502296 -0.059743024 0.029358763
0.102950715 0.04337951 -0.030955046 -0.00860528 -0.052287553 -0.093794964 -0.049439225 0.040181313
-0.050759446 0.108311415 -0.04731098 -0.013408839 -0.019700618 -0.019324536 -0.027810527 0.0054826546
0.011052561 -0.11321649 0.0046333815 0.06859588 -0.09832296 -0.103094086 -0.07507019 -0.06794871
-0.0015169567 -0.04162829 0.04091636 -0.02552703 0.0790044 -0.048798837 -0.03922769 -0.024383707
-0.07184646 -0.020292224 0.07778176 0.013197018 0.027845673 -0.05401194 -0.0679839 -0.07261782
-0.035288088 0.05702091 -0.050749335 0.07693927 0.019091291 -0.015571661 -0.05603647 0.044860553
-0.08973178 -0.15511982 0.1010345 -0.077719346 -0.05579454 -0.053872842 0.028846757 0.037739612
-0.07483082 0.055276193 0.033797633 0.080472805 0.101502724 0.08886408 -0.0764131 0.019625062
-0.06476347 -0.01361802 -0.10165748 0.077601336 -0.02548265 0.06139299 -0.05319563 -0.07911986
-0.009297 -0.058682997 -0.07134473 0.0067558363 0.063083805 0.03461092 0.016107602 -0.066534445
0.03410546 -0.070660695 0.049725786 -0.05075061 0.08558683 -0.0038341926 0.06805561 -0.057481263
-0.06350264 -0.015026795 -0.088531815 -0.07790422 -0.0949884 -0.032330576 0.12541974 0.095203236
-0.014576604 -0.096080646 -0.04514936 0.084625944 0.007579086 0.11771279 -0.0901297 0.0042578084
0.010997905 0.05925193 -0.07817858 -0.08568145 -0.09550154 0.084619135 -0.03891392 0.089776404
-0.014275373 0.05355453 -0.054721083 0.039805472 -0.06938833 -0.14476313 0.0049297763 -0.009573052
-0.09438646 0.06454372 -0.046826538 -0.088577144 -0.06346972 0.0016477532 -0.005869773 -0.00877841
0.010096243 0.06050223 0.0075406544 0.0548555 -0.00859628 0.038021725 -0.037557837 -0.045045175

net.2.bias f4 [100]
00000000: 97ab ba3d 9d01 fb3c 1ffe 673c 777f a1bd
00000010: 6dde 94bd 29a1 523c 0fb7 adbd 3dbd 5f3c
00000020: 6d48 9dbd ca2e 11bd 9bc3 523d 4c34 533d
00000030: 3a7a 403d 5f3b 16bc 5b08 8a3d cdbc 5fbc
00000040: 5765 8f3c ed1c 6b3d 875c adbd 4c3e e33d
00000050: 9844 a13d de78 f4bc 23cf c43c 5980 863d
00000060: f70e b23d 2f4b b23d 0db4 94bd 7dda 12bd
00000070: 4a6e a93c f64b 8d3c 5089 9cbd bfb8 713b
00000080: 3692 af3d 91cd 7e3d 5db3 c23d 837d 623c
00000090: 9843 0ebc 9e99 cb3c b52b 393d d294 3dbd
000000a0: 1bfc d0bc 4d84 05bc 12af 5d3d 3ee5 42bd
000000b0: 7a13 bc3d 6d28 c43d 9282 9f3d d9a9 b13d
000000c0: 3c24 8b3d 6be0 e9bd c237 3b3d e7d5 12bd
000000d0: 98cb 92bd 5685 4c3d 7206 b83c b240 89bc
000000e0: f723 07bd d957 04bc b0c9 a4bd 01cd 433d
000000f0: aad2 00bd 2454 cebd 2f7a 2dbd 1463 80bd
00000100: 4fac c2bd 28ea 22bd cc48 cbbc 63d3 843d
00000110: f69e a83d 2600 adbc 622b 25ba 9287 53bd
00000120: 4906 de3c e479 903d 53cc b83d 7a69 953d
00000130: 30bf 5b3d 33d8 15bd 29f7 4cbd 0e3d 4d3d
00000140: 93d3 853c 0d07 c43d 5b54 6f3d 0268 c4bb
00000150: 5145 1cbd a5a2 e23c bcca 43bd 2319 80bd
00000160: fbeb 8fbd 4629 78bc b576 383d efda 55bc
00000170: 98cc fabc 1c57 163d c640 f13c f5fa 29bd
00000180: 2f2e c7bd 6cea d2bc 3bbe 8ebd bf8f 97bd
0.091147594 0.030640418 0.014159708 -0.0788564 -0.07268987 0.012855806 -0.08482181 0.013655958
-0.0767983 -0.035445012 0.051456075 0.051563546 0.046991564 -0.009169429 0.06739875 -0.013655853
0.017504377 0.057400633 -0.08464914 0.110958666 0.07874411 -0.02984279 0.024024552 0.06567449
0.086942606 0.087057464 -0.072609045 -0.035852898 0.020682473 0.017248135 -0.07643378 0.00368838
0.085728094 0.062207762 0.09506867 0.01382387 -0.008683108 0.024853524 0.045207698 -0.046284504
-0.025510838 -0.008149219 0.05412204 -0.047581904 0.09183402 0.09578023 0.07788576 0.08674974
0.067940205 -0.114197575 0.04570747 -0.035848524 -0.07167739 0.049931847 0.02246401 -0.016754482
-0.032993283 -0.008077585 -0.08046281 0.04780293 -0.031450905 -0.10074642 -0.04235285 -0.06268898
-0.095055215 -0.03977409 -0.024814986 0.06485631 0.082334444 -0.021118235 -0.0006300715 -0.05164296
0.027102606 0.07054499 0.09023347 0.07295509 0.053649127 -0.036583137 -0.050040398 0.050107054
0.016336238 0.09571657 0.058430057 -0.005993844 -0.038152043 0.027665446 -0.047800764 -0.062547944
-0.070274316 -0.015146559 0.045035083 -0.013052686 -0.030615136 0.036704168 0.029449832 -0.041499097
-0.09725606 -0.025746547 -0.06969877 -0.07400464

net.4.weight f4 [100, 100]
00000000: ecc9 263d 59b0 2b3d 87e8 f23d 32d3 b63d
00000010: bd4e 093d f282 2dbe 975d f4bd d649 813b
00000020: c930 a53d d729 a23d 9d0c c3bc 5964 2cbd
00000030: 9986 023c 372d f23d 34eb 1b3e f650 403e
00000040: 9dcd 883e 6d77 d93c df3b f63c 96f8 8dbd
00000050: 543a ee3d 44e9 0abe 6151 793d ca0c 04bc
00000060: bb2c 7cbd 8e29 e1bc 664d 343d fe56 823d
00000070: 5179 dc3d 1fd3 d43c 38f0 6e3c d226 0a3d
00000080: 7f50 3d3e 4d9e ebbd 481b 3c3e dac3 0dbd
00000090: 4bdd e139 96c4 f6bd cd89 d2bd 8270 953d
000000a0: e631 493d d1e1 cd3c 8be9 32bd ffde d9bd
000000b0: d5fc 6d3d 326f b2bc 2637 df3d 3dd6 913d
000000c0: ff6d 6d3d 3bb8 0ebe 67a0 843d 7c16 66bd
000000d0: dbb1 e43c 30b9 e83d c1b2 17bc eedd 2bbd
000000e0: 8a54 5c3e cdf2 843d 4237 923d 1856 3b3d
000000f0: 0518 4d3d 4395 833d 97dd de3d 906c 4ebc
00000100: 8350 2b3e 5c80 c63d 0ea7 8c3d c3bc b43c
00000110: 6292 fe3c 0836 bdbd 2caf c73c fc0f b73d
00000120: 1b03 3f3d f328 7dbc 80cd e83d a92c 69bd
00000130: 2e26 1bbd 2f74 83bd 8866 99bb a2ae a43d
00000140: 025f cc3d 645a 6e3e 69f8 553d ff4d a6bc
00000150: 5539 15be 3579 adbc 5645 203c d407 99bc
00000160: 9b31 cabb cd85 41be c210 b63c b0ac cbbd
00000170: 189b 04bd 0ec7 383c 3b38 023e 2d84 39bc
00000180: 4756 89bd 92b9 75bd 69d4 f33c 7509 e5bd
00000190: 1e65 e23c 2a73 ad3d aeaf b23d 73d3 9cbd
000001a0: 0ebd 8d3d 37ad d93d 20b1 1dbd 35e6 a2bd
000001b0: ee3d 0f3d 2b61 5cbc e992 96bd 81dd 193d
000001c0: 82cc b23d a96d 8d3d a4e4 b1bd 65b8 a9bd
000001d0: b07e 7abc 77ba c4bd 4e5f 9b3c 6f42 653d
000001e0: e7d3 b4bd 09de b13d 4e6b 92bc 7845 acbd
000001f0: 276e c43c 2ec1 963c 602d 3e3d 52e0 d23c
00000200: 4cf1 18bd e1c4 a7bd f106 82bc 29ab a3bd
00000210: 7c1f bfbd f0de 583d 22c4 ce3d 43f3 5bbd
00000220: ad1d a5bd e36c 123d 4ef4 05bd 330f 9839
00000230: fd67 333c 81d7 613d 50fe 373d 5586 783d
00000240: e7d0 f9bd a631 7ebd 2282 49bd f7db 13bb
00000250: 036b 653d 448a 83bd 4170 b63c 24b5 103d
00000260: a01a babd fd56 4e3d 945b 5cbd 2af0 133d
00000270: 172f ad3b 49c8 853b fbac 09be 7590 c33c
00000280: 481d 8d3c a992 813d 382d d03c f30b 7bbc
00000290: 6e09 53bd 183b c9bc 54c2 babd e1ee 143b
000002a0: 346a 883d 5ca5 4f3d 179b ef3c 5f62 f8bc
000002b0: f86c 42bd c534 8dbd 1790 473d 25d9 593c
000002c0: 7eb1 c0bd e814 f8bd 5831 8ab9 024d 813d
000002d0: 654f dcbd 9ce5 06be 35f0 0c3c 87ea 24bd
000002e0: ef78 1abc a61e e23c 032f 49bc ea4f ac3d
000002f0: 51ce 73bd 4d67 3abd 8857 843d 9ce7 85bd
00000300: 5a2f 30bc e7d9 85bd 95f1 723d 5973 a6bd
00000310: ff63 a53d af49 e53b fdcf 92bd 331d 253d
00000320: 2186 0ebd 183a d9bc 4d9b 9abd 8585 0dbc
00000330: 63aa 84bd bad1 64bb dbcb a53c cd2b 3f3d
00000340: 18b9 583d 15a6 873d db6f b13d d621 c73d
00000350: 25c0 be3c 4992 45bd 5a5a fc3c c4d1 bc3c
00000360: 46a1 903d 5982 093d a654 cebc 405e 283d
00000370: fe76 18bd 7b01 05bd 7815 543d 8d44 cdbd
00000380: 238a 983d 88e1 1fbd 772d 84bc 0113 af3d
00000390: f07d a83d 6ee1 843d f26a 81bc 2df0 a5bd
000003a0: 7a5c 45bc c0a1 58bb 9ccb 3c3d da64 ac3c
000003b0: d97b 0b3c f681 063c a752 9b3d 8a7d 403d
000003c0: 1532 80bd a376 c63c e06f 5d3d 0e17 3ebd
000003d0: 02b0 ca3c 6592 08bd 9d96 4b3d 8795 c43b
000003e0: add8 aa3d 13a3 7abd 09f4 14bd 9239 babd
000003f0: 7203 543d 3a4c 743d 278e 98bd e8cb 543c
0.04071991 0.041916225 0.11860757 0.08927001 0.033522356 -0.16944483 -0.11931913 0.0039455695
0.08065946 0.079181366 -0.023809725 -0.042087886 0.007966661 0.1182503 0.15226442 0.18780884
0.2671937 0.026546204 0.030057846 -0.0693218 0.11632219 -0.13565546 0.060868625 -0.00805969
-0.061566096 -0.027485635 0.044019125 0.06364249 0.10765327 0.025979577 0.01458364 0.03372843
0.18487738 -0.11504803 0.18369782 -0.034610607 0.0004308022 -0.120492145 -0.1028019 0.0729685
0.049119852 0.025132092 -0.043679755 -0.10638236 0.058102448 -0.021781538 0.108991906 0.07120941
0.05796623 -0.13937466 0.06475907 -0.056173787 0.02791684 0.11363447 -0.009258927 -0.041959696
0.21516624 0.06491623 0.07139446 0.045736402 0.050071735 0.06424954 0.10882109 -0.0125991255
0.16729932 0.09692451 0.06867801 0.022062665 0.03107566 -0.09238821 0.02437552 0.08938596
0.04663382 -0.015451658 0.11367321 -0.056927357 -0.037878208 -0.06418645 -0.004681412 0.08041121
0.09979059 0.23276669 0.052238856 -0.020300863 -0.14572652 -0.02117596 0.009782156 -0.01868049
-0.006170464 -0.18898697 0.022224788 -0.09945047 -0.03237447 0.011277927 0.12716763 -0.011323017
-0.06705909 -0.059991427 0.029764371 -0.111834444 0.027636107 0.084692314 0.087249145 -0.07657518
0.06920825 0.10628741 -0.038498998 -0.07954065 0.03497117 -0.013450901 -0.0735224 0.03756476
0.08730413 0.06905682 -0.08686188 -0.082871236 -0.015288994 -0.09605878 0.018966343 0.05597156
-0.0882948 0.08684928 -0.017873432 -0.084116876 0.023978306 0.018402662 0.04642999 0.02574173
-0.037339494 -0.081918485 -0.01587245 -0.079916306 -0.09332177 0.052946985 0.10096003 -0.05369879
-0.08062301 0.035748374 -0.03270369 0.00029003024 0.010950086 0.05513716 0.044920266 0.060674984
-0.12198048 -0.062059067 -0.04919637 -0.002256153 0.056010257 -0.064228565 0.022270324 0.035329
-0.090871096 0.050375927 -0.053798273 0.03611771 0.0052851546 0.0040827137 -0.13444893 0.023872593
0.017225876 0.06326801 0.025412187 -0.015322673 -0.051522665 -0.02456431 -0.091190964 0.002272539
0.06660882 0.05069481 0.029248757 -0.030320344 -0.047467202 -0.068948306 0.0487214 0.0132964
-0.09408854 -0.121133626 -0.00026358175 0.06313516 -0.10757331 -0.13173527 0.008602192 -0.040262725
-0.009428247 0.027602505 -0.012279275 0.0841368 -0.05952293 -0.04550867 0.06462008 -0.065383166
-0.010753477 -0.06535702 0.05931242 -0.081274696 0.08075713 0.006997309 -0.07168577 0.04031105
-0.034795884 -0.02651696 -0.075491525 -0.008637791 -0.06477811 -0.0034915046 0.020238807 0.04667263
0.052910894 0.066234745 0.08663913 0.097232506 0.023284981 -0.04823521 0.030804802 0.023049243
0.070620105 0.033571575 -0.025186848 0.04110551 -0.037222855 -0.032472115 0.051778287 -0.10022841
0.074482225 -0.039033443 -0.01613496 0.085485466 0.08227146 0.0648831 -0.015798066 -0.081024505
-0.012045974 -0.0033055395 0.046092615 0.021044184 0.008513414 0.008209696 0.07584124 0.046994723
-0.062595524 0.024226492 0.05406177 -0.046408705 0.02474213 -0.033342738 0.049704183 0.0059992704
0.08342109 -0.061190676 -0.036365543 -0.09093012 0.0517611 0.059643008 -0.074489884 0.012988068

net.4.bias f4 [100]
00000000: 769b 53bd 69be d0bd 589b 883b d544 78bd
00000010: aa09 79bd a3e1 5d3d 5f59 afb9 9bae 2cbc
00000020: ca9d 873d a3a1 c53c 9faa 703d c53e 0a3d
00000030: 14b6 b13d 4e71 43bd 0f32 f5bc 2f12 0e3d
00000040: 7ef0 b03d 446b 0d3c ae26 fdbc 4f4b bb3d
00000050: 9d36 acbd 2b3b 693d 53d7 143c 31da 5d3c
00000060: a2dd 9d3c e85f 29bd 7e98 0e3d 0f73 c6bd
00000070: 0d12 203c 36ec 92bd 7fcb 183d 0a9f 333d
00000080: 8981 8a3d ef4e bb3d b14e 1cbd 63eb 25bd
00000090: 4755 6dbc a31b 093d 38cb c13b 6b5c 8dbc
000000a0: 1e43 c93d 5c46 a73d de14 36bd cd7f 073b
000000b0: 08cf 713d a691 023d 19fd ef3c 7db5 a9bc
000000c0: 8856 4ebd fcd1 c3bd 83bb 5ebd e5e9 443d
000000d0: 1b63 9ebd dc9a 763d 5205 74bd 1781 b93c
000000e0: ff86 9c3c bffa c2bd 065c 8abd d763 47bb
000000f0: a2e5 b43d 4495 87bd c95b 6e3d bac7 6f3d
00000100: d5d6 72bd 61c3 b7bb 592e 1ebd af24 e6bc
00000110: 56e5 c13d 7f8f 713d e97e 11bd d3b6 33bd
00000120: 7bc5 d9bd 7b3e ea3c cdc5 a13d a6e8 d4bc
00000130: e412 b33c f561 57bd e73c 0f3d fac8 cdbd
00000140: 13a7 a93d a5e6 e03d 298a 013d 7e79 743c
00000150: 2bba 04bd 528e 1b3c 576e c53d 54d1 dcba
00000160: de07 dabc 76f2 b63d ffa2 963d 4ed1 2dbc
00000170: 891a 6dbd d57f 513d bd33 ad3c 0ebd b5bd
00000180: 4bd2 7fbd 92be a8bd 5352 8f3c 6bd5 543d
-0.05166193 -0.10192568 0.004168909 -0.06061252 -0.060800232 0.054170262 -0.00033445188 -0.010539676
0.06621893 0.024124926 0.058756467 0.033751268 0.08677307 -0.047715478 -0.029931096 0.03468531
0.0863962 0.008631531 -0.030902233 0.09145223 -0.08408854 0.056941193 0.00908454 0.01354079
0.019270722 -0.04135123 0.034813397 -0.096899144 0.009769929 -0.0717396 0.037303444 0.043852843
0.06762988 0.09145915 -0.038160983 -0.040507685 -0.014485664 0.033473622 0.005914118 -0.017255982
0.09827255 0.08167717 -0.044453494 0.002067554 0.05903533 0.031877182 0.029295491 -0.020716423
-0.05037549 -0.09561536 -0.054378044 0.04807462 -0.077337466 0.06020628 -0.059575386 0.022644563
0.01910734 -0.09520482 -0.06755833 -0.00304245 0.088328615 -0.06620267 0.058193002 0.058540083
-0.05928691 -0.005608008 -0.03861842 -0.028093664 0.094675705 0.05897474 -0.03552142 -0.043875527
-0.106333695 0.028594246 0.07899056 -0.025989842 0.021859594 -0.052583653 0.03497019 -0.10048099
0.0828382 0.10981492 0.0316259 0.014921544 -0.032404106 0.009494381 0.09640186 -0.0016847053
-0.02661508 0.089329645 0.07355308 -0.010608984 -0.057886634 0.0511473 0.021142835 -0.0887395
-0.06245641 -0.082394734 0.01749531 0.051961344

net.6.weight f4 [100, 100]
00000000: 2d84 bcbd b8e4 6fbd 95e8 823c 8018 423d
00000010: 9975 17bd 152d 9e3d fdaf 8f3d 3bc8 47bd
00000020: a563 123d 65fb 7c3b 2acd 133c 101c 97bd
00000030: 166d 97bc 14d4 b0bd d80c 1b3d 8636 183d
00000040: a4f5 9cbd b33d aaba fef4 36bd b424 803d
00000050: 7b55 5e3d b5c0 86bd 1fbd c33c fc81 19bc
00000060: e4c2 873d 21f8 8fbc 321d 58bd 472e 223d
00000070: 0559 113d db7d dcbc 76f2 b6bc ffb2 7ebd
00000080: 2d00 d2bd 7425 443d 18e6 1a3d a8ab 60bd
00000090: 4a07 983d ffaa 79bd 25d9 4c3d 3acb 8c3d
000000a0: 63fd dcbd db8c 98bd 3205 7cbc 1251 a93d
000000b0: c87d 9fbc 1ee8 73bb 0c83 f0bd 21a8 5bbd
000000c0: 47b6 a5bd 72c2 b9bd 80d9 d23d a180 cdbc
000000d0: 0638 b0bc 3a9d 023d d8fa 283d 9f18 2bbd
000000e0: d769 09bc fd59 6dbb 5b16 5bbd 0d2b 4b3d
000000f0: c8cf 9e3d b31b 2abd 004d 92b8 6cbf 963d
00000100: dc96 3d3b 8192 50bd 4642 55bd bf3c 8bbd
00000110: 7f14 cbbd 1dd7 9c3a d2b1 7dbc 52c8 c5bd
00000120: 3124 04bd b2a0 b43c 3a4a 96bd 3f7a e9bd
00000130: c636 a2bd 8081 163d 2ff9 3d3d 18c3 49bd
00000140: cc32 aebd a24c 0ebd 73c5 28bd 52e3 0c3d
00000150: 4e61 b83d 5817 90bc 04f9 e7bc d836 c8bc
00000160: 936a 99bd 656c a7bd a596 9abd c37b 9abd
00000170: 31c0 6dbd 4c1a 953d 23d6 b53d a0c9 5d3d
00000180: e9cd 8dbd 99d3 5d3d bf88 473d c04d 00bd
00000190: edd4 833c 98c0 613d 1c3f 6cbd ed41 bdbd
000001a0: b119 303d 9c87 03bd 6a48 6dbd ea5b a0bd
000001b0: 954c 9d3d 6296 d23b a847 cebd b531 73bd
000001c0: fc82 5a3d 7e0f 5b3d c9a6 88bc 15e2 8ebd
000001d0: 5eb3 dd3d 8448 66bd fbe9 6cbd 144e 9fbd
000001e0: 7f56 00bc e291 debb f1fd ea3d 5e57 013d
000001f0: 0c8e c63d d958 8d3d a407 ef3b 04b6 0bbe
00000200: 0977 b53d 8a9e 543d 19a5 aa3c 4c47 98bc
00000210: 4341 6fbd 845a 91bd f6e4 913c 63fd 09bd
00000220: 24bd f73b eda1 f43b b7eb ba3c c59b 7e3d
00000230: d8d4 d83d 010d 8dbc 2384 a53d e03a 1b3b
00000240: 5d79 653d fee3 c9bd e364 16bd 55b1 ba3d
00000250: 2e35 f4bc 405f fabc 83c9 b1bd 6480 883d
00000260: a19a 7abc 4bce f53d 2c25 733d 8c0e 06bd
00000270: df2d ba3d 34fc 28bb 243b fbbd 0860 cb3d
00000280: 9d5d 5bbc ed10 a03d 6267 30bd 995f 44bd
00000290: bd81 c93c 4828 7d3d a167 00bd 550e f33d
000002a0: 4c0b f43d e3cc ca3d 0354 bc3d db95 f23b
000002b0: 1406 ab3d 37f1 323d 5f83 0e3d de6f 423d
000002c0: c36f d03d 7d55 bdbd 5919 dc3d 16ce 97bd
000002d0: c240 323d 0f04 e13d 821c 64bd af76 99bd
000002e0: bbb8 cabd 9c42 d9bd 86a4 393d 7367 f1bd
000002f0: 340b 9c3d 1d82 85bd 33aa e53d e2f7 b2bd
00000300: 9540 a43d 72fa 793d cd8b 6abd a82d 11bd
00000310: 9c5b f539 8641 0bbb d406 60bd 00c3 acbd
00000320: 0d67 c6bd b584 263d 0c6f 823c 194c 88bd
00000330: 056d 45bd a113 753c 12db bb3c ce46 9d3d
00000340: fef6 80bd c36a 0ebd 45ce 0bbd 9a6b a73d
00000350: 4823 4e3d d2b3 12bd ef79 ee3c cc5a 0cbd
00000360: be04 c23d 3681 803d 7e7e b8bd 4c9c 97bc
00000370: 8c37 603d 662c c1bd 5629 1e3c f5c2 533d
00000380: 1647 92bd e4e8 7e3d 74c2 8fbd 2e3a 073d
00000390: f564 e0bd 98b9 dc3c f1f7 7cbd 4352 a6bd
000003a0: 9d53 583d 9fb3 3c3d ac4d c03c d8bf cfbd
000003b0: 1ced 87bd 0140 523d 8ac1 783d db1d 12bd
000003c0: 0232 bfbd d64d 0cbc bdf7 7bbd 486d 0a3d
000003d0: eaaf ab3d e631 ec3d 157f 163e 5ee2 cd3d
000003e0: 8212 5abc d8f3 fcbd 946d 253d fb3b a7bd
000003f0: 34ed 433d b6b2 5c3d 8d96 a5bd 8378 dcbd
-0.09204898 -0.058567733 0.015980044 0.047386646 -0.036977384 0.077234425 0.07015989 -0.04877494
0.03573956 0.0038601991 0.009021083 -0.07378399 -0.018484633 -0.08634201 0.037854046 0.037161373
-0.0766404 -0.0012988359 -0.044667237 0.062570006 0.05428074 -0.06579725 0.02389389 -0.00936937
0.06628969 -0.017574372 -0.052762218 0.039594915 0.035485286 -0.026915481 -0.022332411 -0.062182423
-0.1025394 0.04788728 0.03781709 -0.054851204 0.07423265 -0.06095409 0.050011773 0.068747
-0.10790517 -0.07448741 -0.015382098 0.08267416 -0.019469157 -0.003721721 -0.11743745 -0.053627137
-0.08091407 -0.090702906 0.10295391 -0.02508575 -0.021511089 0.031888224 0.04125485 -0.041771527
-0.008387051 -0.0036216967 -0.053488117 0.049601603 0.07754475 -0.041530322 -6.976165e-05 0.073607296
0.002892903 -0.050920967 -0.052065156 -0.06798696 -0.09916019 0.0011965964 -0.01548429 -0.09657349
-0.032261077 0.022049282 -0.07338376 -0.1140027 -0.079206035 0.036744595 0.046380218 -0.04925832
-0.085057825 -0.03474105 -0.041203927 0.034396477 0.090029344 -0.017589256 -0.028316982 -0.024440214
-0.074910305 -0.081749715 -0.075482644 -0.07543137 -0.058044616 0.07280406 0.08878734 0.054147363
-0.0692404 0.054156873 0.048714396 -0.03132415 0.016092742 0.055115312 -0.057677373 -0.0924109
0.04299325 -0.03211175 -0.057930388 -0.07830031 0.076806225 0.0064266184 -0.10072261 -0.059373576
0.053347573 0.05348157 -0.016681092 -0.069767155 0.10825227 -0.0562215 -0.05784033 -0.07778564
-0.007833122 -0.006792293 0.11474217 0.03157746 0.09695062 0.06901712 0.007294612 -0.13643652
0.08860595 0.051909007 0.020830678 -0.018588684 -0.058411848 -0.070973426 0.017809372 -0.033688914
0.007560389 0.007465592 0.022817476 0.062160272 0.10587472 -0.017218115 0.08081844 0.0023686215
0.056023944 -0.09857939 -0.036717307 0.09115855 -0.029810514 -0.030562997 -0.086810134 0.066651136
-0.0152956555 0.12002238 0.05936162 -0.032728717 0.090907805 -0.002578509 -0.122671396 0.09930426
-0.013389018 0.07815728 -0.043067344 -0.04794273 0.024597997 0.061805993 -0.03134883 0.11867968
0.11916217 0.0990236 0.091957115 0.007403118 0.08350769 0.04368707 0.034793254 0.047469966
0.10177567 -0.09244821 0.10747022 -0.07412355 0.04351879 0.10987102 -0.05569125 -0.0749334
-0.09898516 -0.10608408 0.045322917 -0.117873095 0.07619324 -0.06518958 0.112141035 -0.08738686
0.080201305 0.06102986 -0.05726223 -0.03544393 0.00046798296 -0.0021248772 -0.05469401 -0.08435631
-0.09687624 0.040653903 0.015922092 -0.066551395 -0.048199672 0.014958293 0.02293161 0.076795205
-0.0629711 -0.034769785 -0.03413226 0.0817482 0.050326616 -0.03581602 0.029110877 -0.03426628
0.09473561 0.06274645 -0.090085015 -0.018507145 0.054740474 -0.094322965 0.00965341 0.051699597
-0.07142465 0.06223382 -0.07019511 0.03301447 -0.10956756 0.026943967 -0.061759893 -0.08121159
0.052814115 0.046069738 0.023474537 -0.10144013 -0.06637022 0.05133057 0.06073145 -0.035673004
-0.0933571 -0.008563479 -0.06151556 0.033795625 0.08383162 0.11532955 0.14696915 0.10052942
-0.013310077 -0.12351197 0.040387705 -0.08165737 0.047833636 0.05388137 -0.08085356 -0.10765173

net.6.bias f4 [100]
00000000: f408 c0bd fb5c edbc a137 eb3c e2bf d8bc
00000010: 8358 b7bd fe41 a6bd effd 143d ab40 853c
00000020: 98ea 8cbd 7886 e4bb 092c 9fbc fdbc d23d
00000030: a310 a63d 00ab 40bc d99b 12bd 1efe b6bd
00000040: 19b7 9fbd de2b d33d ff2a 88bd d8b2 d1bd
00000050: 6038 1dba 816a b33d 7504 27bd a28b 1dbd
00000060: d63b 063d e53e bd3d ede6 4c3d 2608 6ebd
00000070: 4f4e f2bb fb2a a33c 639c 23bc 1ad1 8ebd
00000080: 0bc0 5f3b c1ee e13b b5f4 b5bc 209c 76bd
00000090: a276 323d 0604 953d 0500 c63d 2122 f43c
000000a0: 4dc1 4abd 9e8b afbc 3c26 89bd adde 38bd
000000b0: 1bb3 c9bd ae7f 89bd 8430 08bd f90c 9e3d
000000c0: 5e84 ac3d c090 c63b 9c25 073d e540 35bd
000000d0: 0c5a 91bd 544e cb3d 075a 40bd 601c 0dbc
000000e0: 16e0 bcbc e5ad b3bd 6a87 dd3c 36b0 75bb
000000f0: 44e2 9ebb d6e2 6ebd 88a0 b93c b110 d63d
00000100: 3acc 953d fbc3 f33c 4507 abbd 500a c5bd
00000110: ec1e 16bd f74e 70bd f38b b83d 7ff4 6fbd
00000120: da62 573d 899c 92bd ffd3 9dbd f65c 923d
00000130: 6515 bf3d 1fe0 c43d 4598 88bd a66b 933d
00000140: f9a4 c23c 258c 8cbd 27f5 693d f98c 85bd
00000150: e9ac f2bd 998f 173d 21a6 aa3d ddaa 4a3d
00000160: ffe9 97bc 05e7 5d3d 76fc f93c af0b 903d
00000170: fcb4 c5bd a15a 14bd b429 6ebd 08a5 4a3c
00000180: 2bef 8e3d a363 643d 7aae c63c 80bd a1bd
-0.09376708 -0.028975 0.02871305 -0.026458684 -0.08952429 -0.08118056 0.036374982 0.016266188
-0.06880683 -0.0069740377 -0.019430177 0.10289953 0.08108642 -0.01175952 -0.03579316 -0.08935188
-0.07798595 0.103111014 -0.06648826 -0.1023919 -0.0005997475 0.087605484 -0.040775735 -0.038463242
0.032771908 0.09240512 0.050024915 -0.05811324 -0.007394589 0.019917956 -0.009986016 -0.06973477
0.0034141566 0.0068949168 -0.022211412 -0.060207486 0.04357017 0.07276158 0.096679725 0.02980143
-0.049500752 -0.02142888 -0.06696746 -0.045134235 -0.09848615 -0.06713806 -0.033249393 0.07717318
0.084236845 0.006059736 0.03299485 -0.04425134 -0.07097253 0.09927049 -0.046960857 -0.008612722
-0.023056071 -0.08773402 0.02704211 -0.0037489063 -0.0048487503 -0.058321796 0.022659555 0.104524024
0.07314344 0.029756537 -0.08350996 -0.096211076 -0.036650583 -0.058669057 0.09011068 -0.05858278
0.052584507 -0.07158763 -0.07706451 0.07146637 0.093302526 0.0961306 -0.06669668 0.07198267
0.023760306 -0.06862668 0.05711856 -0.06521029 -0.11849386 0.03700218 0.08332468 0.049479354
-0.018544195 0.054175396 0.03051589 0.070334785 -0.09653661 -0.036219243 -0.05814524 0.012368448
0.069792114 0.055759083 0.024253119 -0.078974724

net.8.weight f4 [100, 100]
00000000: f99a eebd 73ea 3abc 5fc4 a5bc 8287 94bd
00000010: 723d 8f3d cbb4 a43d 8c5f a1bd 559e 0d3d
00000020: b067 2bbc 7f59 9b3d f19d abbd 9cd4 0dbc
00000030: 77ef bf3c 282e 493d 6930 a13d fe64 413d
00000040: 6989 bf3c 2566 ac3b 9093 0fbb 30d2 173d
00000050: e7f8 b0bd d4e7 283d dfc3 e03c 60d3 473d
00000060: 3e7e 3538 bf24 9dbc 1be0 b4ba 7277 b53d
00000070: 8b81 e53d 7db6 a63d 4dc8 f6bb 07c4 2dbd
00000080: 928d 693d 5b7d a6bd 2c6a 623d 4132 253d
00000090: 8982 e43c ca9d 103d 68ed 8ebd 8a0b f4bd
000000a0: a98e cabd e1cc 1dbd 032e 2e3d 35da 7bbd
000000b0: 4348 a8bd e03e 0d3e 88c1 643d 8823 80bd
000000c0: 087e a03c 01ce 8ebd 0939 3a3c b150 9a3d
000000d0: 1ef9 76bd 18fa 213d 73dc 04bd 245a a5bd
000000e0: a50a 63bd c878 d2bd a9bc b1bd cf16 853d
000000f0: 8841 a33d 5f9c a0bc 20a6 84bd a6b9 963b
00000100: 98f4 85bd d8d0 6cbc 3990 42bd 747a 4f3d
00000110: d707 73bd 87a2 d33d 6260 b23d 92e9 f2bd
00000120: 5563 c4bd db79 d4bd a40c cebb 7dce 913d
00000130: 7be5 15bd a8a4 17bc 581e 903d a3e9 1e3d
00000140: a1e9 363d fe82 8fbd 1264 90bd c68e 343d
00000150: e94c a73d c27a 803c bde8 3bbd 3abd d3bd
00000160: 6a30 5abc 12c9 b0bd 0bb0 863d e0e6 44bd
00000170: a90e 5a3d 2ced 8dbd f6f6 a73d a6ef c4bc
00000180: 9e13 a23d 7394 003d 9af6 1a3c 924f 7c3d
00000190: d37f 563d c971 47bc 9aaf 2ebd 32fb 853d
000001a0: 2c4b c23c bd6e 243c 4534 92bd 3972 69bd
000001b0: 7500 c2bd dbcc 31bd 9d7f 7e3d 5230 2b3d
000001c0: f231 233c e4f6 8d3c 17e4 3fbd 3af4 483b
000001d0: df6d 3c3d a59e 9f3d aab3 493c e3e6 33bd
000001e0: 2de5 12bd 26f5 6ebd 9339 8b3d b5c9 533d
000001f0: 9cad 8cbd 6100 f23b e4ec d83d 955f f0bd
00000200: 5dd0 123d 81fe c3bd b36f 833b bf6d b1bb
00000210: e3ed c4bd 0c6f 77bd 97a5 97bb 2eaf b83d
00000220: 2cae 2e3d 3e5d 053d f9d6 3bbd 42f0 84bc
00000230: b9d6 95bd 9899 65bc b7eb 65bd 9f8b 823d
00000240: fd1f 74bd 4c8f 50bd fb8d dc3d df2f d53d
00000250: c5cd 90bd 3549 b03d 25d0 ccbd b3dd dcbc
00000260: 108b 8dbd c306 11bd faeb 9a3d 9913 15bc
00000270: 52b7 003d 69c0 a3bc 903f a7bc 2970 43bd
00000280: 297a b93d 819e 763d 2e6b 943d b382 86bd
00000290: 1848 5b3d 478e 313d 6aa0 563c c888 79bd
000002a0: 406e f5bc 581a 07bd c9e1 91bc 8d37 03be
000002b0: 1556 513c 48b6 e0bc 3024 93bd da85 bcbd
000002c0: fe2b 73bd 2d0a acbc 1ddb 5e3a c2c3 27bd
000002d0: d06e b3bd 203a c2ba 1329 4fbd e056 8abd
000002e0: 296d 75bd 5220 08bd 2e43 1bbd 2fd0 94bd
000002f0: ddaf 333d ef89 b03c 7985 cdbc fc15 75bc
00000300: 7245 65bd 4a22 19be b7b8 b9bd 0216 febc
00000310: fa28 8c3d be75 23bb 25ff 31bd 092c d53b
00000320: b306 4b3d c31d ecbc 1331 a93d 88fa 71be
00000330: 6f23 233e cd9f 4e3e e208 b4bc 592d 79bd
00000340: 937a f23d 1de0 fb3c e249 2e3d 23ed 1b3d
00000350: c563 6dbe 2e6f dbbc 0c1d e8bc 9f18 58bd
00000360: c8bd 563d 02e6 15bd baa8 923d 8d96 15bd
00000370: 32bc 403e 4058 92bb 08ea 553e 2ed6 4f3d
00000380: 1829 dd3d 6aa7 033e 12e3 32bd f397 aa3d
00000390: 4311 59bd 0e1b 2ebe d03a b0bc 54b2 e33d
000003a0: d139 b93c afff e63a 703a bbbc cac0 443e
000003b0: 9757 823d 154d 8fbd 1810 d1bc f776 ce3d
000003c0: dbce 2c3e 3003 34be 7227 6d3b ca93 203e
000003d0: f6b6 363e 554a 37bd 2ae6 57bd e723 3e3d
000003e0: f2b2 c23c 104c 3bbe 20fc f63d 459a ed3d
000003f0: ffad 0a3d f192 01be bebf dd3d a56a 69bd
-0.116506524 -0.011408436 -0.020235239 -0.072524086 0.06994142 0.08042296 -0.07879552 0.034574825
-0.010461733 0.075854294 -0.08379734 -0.008656647 0.023429615 0.049116284 0.07870562 0.047215454
0.023380952 0.0052612 -0.0021908022 0.037065685 -0.08641224 0.041236714 0.027437149 0.048785567
4.3271335e-05 -0.019182561 -0.0013799699 0.08860673 0.11206349 0.081402756 -0.007531202 -0.042423274
0.057019778 -0.081293784 0.055277035 0.04033113 0.027894275 0.03530673 -0.069788754 -0.119162634
-0.098904915 -0.038525466 0.04252435 -0.061487395 -0.08216908 0.13793516 0.05584863 -0.06256777
0.019591346 -0.06972886 0.011366137 0.07534922 -0.06029617 0.03954515 -0.0324368 -0.080738336
-0.055430073 -0.102769434 -0.08678562 0.06498491 0.079714835 -0.019605814 -0.06476998 0.0045997677
-0.06540793 -0.014454089 -0.047500823 0.05065389 -0.05933365 0.10333734 0.0870979 -0.11860956
-0.095892586 -0.103748046 -0.006288128 0.07119463 -0.036595803 -0.009255566 0.070370376 0.038797032
0.0446564 -0.07007407 -0.07050337 0.04408147 0.08168966 0.015683535 -0.045876253 -0.103388265
-0.013317207 -0.08632101 0.06576546 -0.048071742 0.053236637 -0.069300026 0.08201401 -0.024040055
0.07913898 0.031391572 0.009458208 0.06159932 0.052367996 -0.012173125 -0.042647935 0.06542052
0.023717485 0.010036168 -0.07138876 -0.056993697 -0.094727434 -0.043408256 0.06213342 0.04179413
0.009960638 0.01732964 -0.046848383 0.0030663149 0.04600322 0.07793931 0.012310902 -0.043921363
-0.03586309 -0.05833926 0.06798091 0.051706035 -0.06869051 0.007385299 0.10592058 -0.11736981
0.035843242 -0.09570027 0.0040111183 -0.005414694 -0.09615686 -0.060408637 -0.004627894 0.09017788
0.042646572 0.032559626 -0.04585931 -0.016227845 -0.07316346 -0.01401367 -0.056133 0.06374287
-0.05960082 -0.05091791 0.10769268 0.10409521 -0.070704974 0.08607713 -0.10000638 -0.026961183
-0.0691129 -0.03540684 0.0756454 -0.009098911 0.031424828 -0.01998921 -0.020416051 -0.047714386
0.09056503 0.060209755 0.072470054 -0.06567898 0.05353555 0.043348577 0.013099769 -0.06092146
-0.029959798 -0.032984108 -0.017807858 -0.1281416 0.012776871 -0.027430668 -0.071846366 -0.09205218
-0.059368126 -0.021000946 0.00085012784 -0.040958174 -0.0876137 -0.0014818348 -0.05057628 -0.06754851
-0.059918556 -0.033233948 -0.037905864 -0.0726627 0.04386889 0.021550147 -0.025088059 -0.014958855
-0.05597443 -0.14954486 -0.09068435 -0.031016354 0.06843753 -0.0024942006 -0.043456215 0.0065054935
0.049566936 -0.028822785 0.08261313 -0.23630726 0.15931486 0.20178147 -0.021976892 -0.060834263
0.118397854 0.030746514 0.04255093 0.038067948 -0.2318259 -0.026786413 -0.028334163 -0.052757856
0.052427083 -0.036596306 0.07161088 -0.03652053 0.18821791 -0.0044660866 0.20890057 0.050741367
0.10798854 0.12856832 -0.043673582 0.08329763 -0.052994978 -0.17002508 -0.021512419 0.11117998
0.022610577 0.0017623807 -0.022855014 0.19214168 0.06364363 -0.06997124 -0.02552037 0.100812845
0.16875784 -0.17579341 0.0036186841 0.15681377 0.17843232 -0.044748623 -0.052709736 0.046420958
0.023766968 -0.18290734 0.12059808 0.1160169 0.03385734 -0.1265371 0.108275875 -0.05698647

net.8.bias f4 [100]
00000000: e683 c13d 66fd b93d 6465 d1bc a065 bd3d
00000010: ff58 973d 41b5 8c3d 8ea8 d63d c618 1ebb
00000020: b227 80bb 06c9 233c c9a8 d2bc bcb5 babd
00000030: b159 eb3b 4c5c c53d 1713 f8bc bb1f 8fbd
00000040: 381a 6ebc d15f 7f3c 93bb 9dbc fb18 883d
00000050: b1cd 6fbd 122c a3bd 6af1 3abd 17ef 203d
00000060: 51f6 2ebd d37b 223d df07 653c d68b ad3c
00000070: d826 b8bd c891 9cbd ae10 8d3d ae5a d8bd
00000080: 57d8 f03d 3645 c9bc 71bb 90bd c83a bd3d
00000090: 0cb8 c93d 3595 1c3c e513 ea3c 2a56 5dbc
000000a0: 361f 9c3d 923b 13bd a5b7 b73d 64b3 d03c
000000b0: 859c 45bb ad32 87bc 315a 60bc cedf 89bc
000000c0: 6c7e 01bd 801d 9e3d 4934 2e3d 997b 94bd
000000d0: 0667 52bc be22 90bd c750 73bd 1667 ae3c
000000e0: 60d7 183d f622 f53c 7707 803d 00fb 9d3c
000000f0: dce6 d3bc 9b4a 9fbd dbb4 423c cb4a 50bc
00000100: dc77 323d 5c4e 72bd 73e2 b3bd e874 c8bc
00000110: 0767 b53c 830e 72bd 870d b33d abe6 d43c
00000120: cb30 b8bc 0e0d 883d fa3f a9bd fe2d 1bbd
00000130: 8ff0 94bd b553 9d3d 4787 b13d 533b 7dbc
00000140: 65e4 b6bb e3ef 3b3d aab8 983d c05e 653d
00000150: 0ffb 8fba 3147 993d 6651 a53d a134 62bc
00000160: cfbc a1bc ca66 1f3a c5df 8bbd fd4e a0bd
00000170: 25fc 35bd c864 fdbc 1d4d b1bd 201a 123d
00000180: 8afa babd 6c35 38bd 86d0 86bd 9301 eebc
0.09448986 0.09081535 -0.025561042 0.09247899 0.073900215 0.06870509 0.10481368 -0.0024123653
-0.003910982 0.009996658 -0.025715249 -0.09116694 0.007182323 0.09636745 -0.03028254 -0.06988474
-0.014532618 0.015586809 -0.019254481 0.0664539 -0.058545772 -0.0796739 -0.045640387 0.039290514
-0.042715374 0.03966887 0.013978927 0.021184843 -0.08991784 -0.07644993 0.06887947 -0.10564171
0.117600136 -0.024569135 -0.070670016 0.09239727 0.09849557 0.009557058 0.02857394 -0.013509313
0.076231405 -0.035945483 0.08970574 0.025476165 -0.0030153107 -0.016503656 -0.013693378 -0.016830351
-0.031614706 0.077204704 0.04253033 -0.07250137 -0.0128419455 -0.070378765 -0.059403207 0.02128939
0.037314773 0.029923897 0.06251424 0.019284725 -0.025866918 -0.07777902 0.01188394 -0.0127131445
0.043571338 -0.05915676 -0.08783426 -0.024469808 0.022143854 -0.05909587 0.087428145 0.025988897
-0.022484204 0.06643115 -0.08264156 -0.03788566 -0.072724454 0.076819815 0.0866838 -0.0154560385
-0.005581426 0.04588307 0.07457097 0.055998564 -0.0010984855 0.07484282 0.08072166 -0.013806493
-0.019743351 0.00060806854 -0.0682979 -0.07827566 -0.044429917 -0.030931845 -0.08657286 0.035669446
-0.09129818 -0.044972822 -0.065827414 -0.029053485

net.10.weight f4 [100, 100]
00000000: 096c 42bd 1877 b13d 57fe 05bd 3392 903d
00000010: 9474 fb3c 1ec6 9b3c 6b14 ef3c 126b de3c
00000020: 996f 7738 77ef a63c 92e8 d4bd ae3c 5ebc
00000030: d227 7a3d b16c 0cbb 56d7 ed3d 4f37 993d
00000040: 8188 d3bc 2af2 a93d 5312 e23c e0e8 c9bc
00000050: 5099 ccbd f6b9 bc3c e043 e2bc 08f6 7dbd
00000060: de31 b5bd a4a8 0b3d 57c8 aebd 552b c2bd
00000070: 6959 90bd 3cbf 5f3d 3254 d8bd a8f9 b0bd
00000080: b985 bf3c 637e ffbb 205c 1abc ee5b dd3c
00000090: df53 d0bd fee5 d9bd 18ee 4f3d 1df7 98bd
000000a0: 599c 91bc 170e b63d ea39 2d3d 7264 c93d
000000b0: 96e6 a43d f558 a0bd 44b3 13bd 3e1a be3d
000000c0: 33ba 6dbd 4f7b 403d c31e 0cbc 367e a33d
000000d0: 2c0d bdbb b567 b93d 1b51 acbd db04 77bd
000000e0: 46f5 b73d e17e 32bd 8b09 643d d09c 733d
000000f0: a9a2 e5bc a0aa bf3d 6b9f 9f3c 10d7 2bbc
00000100: 1ce9 883d 8010 aabb f4de 10bd fa8e 613d
00000110: 7fee 9fbc d025 d23d a94c c63c 1af4 46bd
00000120: 6611 043d 7335 53bc 18c5 ab3c 7744 8c3d
00000130: 17f0 923d 439e f6bd e02f a93d 0289 b6bc
00000140: 2ad0 58bd 51a9 06bd f841 a93d ef44 493d
00000150: d22c 33bc 6f7b b43c bc6e 693c 90a0 babd
00000160: ce9e 873d 1e0f abbd f6c4 513d 22b1 debc
00000170: a4b6 973c 17fd c53d 0313 bfbd 8bca 8c3d
00000180: 6977 69bc 88c5 163c 28ef 8ebd d961 58bd
00000190: 8177 ff3d 3a17 303d 54c8 273d 1335 293d
000001a0: e374 aa3d 2100 343d 4355 23bd 92dc 90bd
000001b0: 37f6 9c3d e76e 683d 0b60 af3d b343 f3bc
000001c0: dde7 b63d 5ed6 1dbd 8f5e 15be 3bff dbbd
000001d0: 3aab d23c 16d6 96bc cdc8 99bd b0cd 55bd
000001e0: 86e5 953c 0916 bebd b035 d0bd 6a15 ab3d
000001f0: 17eb a23d a8ea 77bd 2ff1 b73d 1c03 d23d
00000200: d296 d6bc 1fb7 8dbd 20a9 d4bc 88ac a5bd
00000210: d7e3 a03d c845 dabd 65ee 623d cbc0 7a3d
00000220: 44a1 b23c 92df 60bd d866 d2bb 9e81 693d
00000230: b241 6f3d 49ca 9cbd 80dc 793d 5c82 bdbd
00000240: 898b b6bc 4e34 6a3c 98d9 ca3d 6287 24bd
00000250: a54e 233d a970 9b3d 93e5 9a3d 9881 b73c
00000260: a810 013d 7fdb 33bd 17db 3b3d e1b3 23bb
00000270: cd3a acbc 0875 173e 6132 a9bd 25a9 18bd
00000280: 0f24 6dbd d152 68bc 86b5 cc3d d6e2 a4bd
00000290: 4c5a 8e3d 4784 ec3b 9a30 1b3d 8e63 5fbd
000002a0: e3ae 803c b08f 82bd 34d0 98bd 6760 723c
000002b0: 4d19 563b 6ed5 cebc 455e 89bd 0144 aa3d
000002c0: 6214 10bd 3a27 dd3d 74d3 933d 3873 403c
000002d0: c3e3 85bd 9971 a3bd ac49 babd cd34 a4bd
000002e0: 84b7 2b3d ba27 f23d f62a 02bc b1d1 cf3d
000002f0: 4805 f63b 1f0d 593d d576 c53d 85df 58bc
00000300: 1304 a2bd 4f20 d6bd 6de5 2e3c 9551 ba3d
00000310: c652 b4bd d2eb 74bd 626e abbd 8aff 54bd
00000320: 5499 4b3c a725 fb3c dc27 1c3d ea73 cabd
00000330: 5a2a 623d 42e9 94bd 7b5d 6a3d 38cd 5c3b
00000340: 5c38 86bd 032d b73d 1a85 aabc 19f4 bd3d
00000350: 90ff 68bd 5315 78bc 1b8e cc3c 5ba1 0d3d
00000360: 374c 303d d41f 9cbd f300 e03c b973 903d
00000370: 02f1 0dbd 78b3 1dbd 1fd8 b7bc 8edc 46bc
00000380: 5d09 753d 60b6 913d 1798 e23d 9fcf 723d
00000390: 7b54 bc3c a4e1 92bc 37a3 4c3d a2c7 5cbd
000003a0: 85ba f93c 4dd9 27bd aabb c7bd 175c 96bd
000003b0: fc35 00bc e13c 5d3d bd13 debd 997f f33c
000003c0: 2c8f b7bd 7697 f83c 9549 1b3d a2a1 273d
000003d0: 7517 5dbb fc66 343b 209a 883d 16b6 a53d
000003e0: 7949 98bd 8ea5 ec3c d30d 363d 7aea 38bc
000003f0: 626e 39bd d5cd 6f3c 3c13 e43c cbbe a63b
-0.04746631 0.086652935 -0.03271326 0.07059135 0.030695237 0.019015368 0.02918454 0.027150664
5.8993322e-05 0.020377858 -0.10395922 -0.013564272 0.06107313 -0.002142709 0.11613338 0.074812524
-0.025821926 0.08298142 0.027596628 -0.024647176 -0.099901795 0.023037892 -0.027620256 -0.06200221
-0.08847402 0.034096375 -0.085343055 -0.09480921 -0.07048304 0.054625735 -0.10562934 -0.08641368
0.023379194 -0.007797049 -0.009421378 0.027021375 -0.10172247 -0.10639571 0.050764173 -0.07469008
-0.017774748 0.08889406 0.04229156 0.098336115 0.08051793 -0.07829467 -0.036059633 0.09282349
-0.0580389 0.046992596 -0.008552256 0.07983057 -0.0057693925 0.09052984 -0.08413907 -0.060307365
0.08982329 -0.043578032 0.055673163 0.05947572 -0.028031664 0.09358716 0.019485196 -0.010488287
0.06685087 -0.0051899552 -0.035368875 0.055067994 -0.019522903 0.102611184 0.024206476 -0.048572637
0.032243155 -0.012891161 0.020968005 0.06848996 0.071747 -0.12041905 0.082610846 -0.022282127
-0.052932896 -0.032876316 0.08264536 0.049138006 -0.010935979 0.022031514 0.014247593 -0.09112656
0.066220865 -0.08352493 0.051213227 -0.027184073 0.018519707 0.09667414 -0.09329798 0.068745695
-0.014249661 0.009202369 -0.06979209 -0.05282769 0.124739654 0.0429909 0.040962532 0.04131038
0.083230756 0.043945435 -0.039876234 -0.070733204 0.07664149 0.05674639 0.085632406 -0.029695367
0.08930943 -0.038534515 -0.14586852 -0.10742041 0.025716413 -0.018412631 -0.07509003 -0.052198112
0.018297922 -0.092815466 -0.1016649 0.08353694 0.07954996 -0.06052652 0.08981549 0.10254499
-0.026194964 -0.06919693 -0.025959551 -0.08089548 0.07855957 -0.10657841 0.055403132 0.061219018
0.021805413 -0.054900713 -0.0064209513 0.05700838 0.05841226 -0.0765577 0.0610013 -0.0925338
-0.022283332 0.014294697 0.09904784 -0.040168174 0.039869923 0.075898476 0.07563319 0.022400662
0.031510025 -0.0439105 0.045863237 -0.0024979042 -0.021024132 0.14790738 -0.08261562 -0.037270684
-0.057895716 -0.014179901 0.0999556 -0.08051078 0.069508165 0.007217917 0.037888147 -0.054538302
0.015708392 -0.063750625 -0.074615866 0.014793492 0.003266889 -0.025248256 -0.067074336 0.08313752
-0.03517569 0.107984975 0.07218066 0.01174622 -0.06537583 -0.079806514 -0.09096083 -0.080178834
0.04192306 0.118239835 -0.007944813 0.10147417 0.007507954 0.05299103 0.09641806 -0.013236885
-0.07910933 -0.10455381 0.010674817 0.09097592 -0.0880485 -0.05979521 -0.08370663 -0.052001514
0.012426693 0.030657602 0.03812395 -0.0988539 0.05521617 -0.07271053 0.057218056 0.0033691656
-0.065537184 0.08944132 -0.02081542 0.092750736 -0.05688435 -0.015141803 0.024970105 0.03457771
0.043041434 -0.07623258 0.027344203 0.07053322 -0.03465367 -0.038501233 -0.022441922 -0.012137545
0.059823383 0.071148634 0.11064165 0.059280034 0.022989502 -0.01792986 0.04996034 -0.053901322
0.030484447 -0.04097872 -0.09752591 -0.073417835 -0.007825371 0.054013137 -0.108436085 0.02972393
-0.08962855 0.03034566 0.03791197 0.04092563 -0.0033735905 0.0027527204 0.06670022 0.08091371
-0.07435889 0.028887536 0.044446778 -0.011286372 -0.045271285 0.0146364765 0.027841203 0.0050886623
