models/heatalpha/tanh/heatalpha_36.pth (torch, 977047 bytes, 51 tensors)

net.0.weight f4 [100, 3]
00000000: 1cba 25be 17b8 10bf 51c1 bf3c 1999 07bf
00000010: 460a a9be dee2 553e 5d5b c4be 5216 51bb
00000020: 5089 d83e 9fe7 613e b44e 363e 165d 493e
00000030: 1c39 8c39 ed01 473e 3c0c b03e b1bc 183e
00000040: c160 fb3f 5a24 d8be 7600 283f 0145 d13e
00000050: 0f70 823e 56cf 2fbe 48e5 3c3e 039a 28bd
00000060: e5a9 3c3e 74fc d3bd fa77 25bf 819a f7bc
00000070: 9c10 6cbd 4659 f63e 828c 85bd 4e3f 123d
00000080: 054d 163f 113a c13e a51e d5bd 975c 02bf
00000090: 277c 1e3e a3f5 903d 1ffd fdbe 5d48 923e
000000a0: 3686 b93d 80e8 e33e ba1b 61be 0392 573e
000000b0: dfc2 e43e 2e49 b7be a374 97be 257e 5e3e
000000c0: 6af6 2e3e 1794 a73e 28a3 0cbe 428b 723e
000000d0: 7697 1cbf 0def 88be e081 c1be 20ad 96be
000000e0: 9be7 a93d 8f49 2b3f cabc 853e 204b 313f
000000f0: b98f 7cbe 7553 ac3e acdb 25bf a3d8 c9bd
00000100: d632 95bd f310 093e f19e a93e f6f1 09bf
00000110: 4ecd d1be 0a6f bbbe 41fa fa3e 245b c2be
00000120: fa6a 96be 6a51 b5be 80e7 35bd 3acb d3be
00000130: 083d 09bf 3dcc a53e 3583 3e3f fa7c c83d
00000140: dd6e dbbd 747b 1a3d ee3a 07bf c2ac 5a3d
00000150: af82 e33d bdab a8bd e7d3 d13e cd0b fdbb
00000160: cba9 79be 6d3f 97be 35a4 ab3e 35f6 4a3e
00000170: 32ab 7b3d f29f 07bf 24b4 213d a9db 483d
00000180: 84d9 31be 2ceb ae3e e711 d43e f93a 413e
00000190: 5d5c 1dbe d828 1e3f e404 6f3c d4c5 213e
000001a0: 54e3 623e 18b8 993e 46c1 be3d 4a44 95be
000001b0: dffc 963c 08f0 48bf 6cea 803e 51e2 ed3d
000001c0: e7e1 b6be 5ec2 37bd f6fe c73d bc6b 6a3e
000001d0: 4602 043e 114f b2be 5953 e43e 96eb bb3e
000001e0: 3618 083e a119 c33e 701f afbd 529f 273e
000001f0: ba8d b0bd b818 19be 2cca e8be e640 f2bc
00000200: 6228 99be d2e2 44be 5479 25bf b1d7 ea3e
00000210: 1ccc 42be dee2 7cbf ec60 d43e e763 053f
00000220: e5b8 dabe 44a1 2dbe b77f 82be e12b c73d
00000230: 63ee ecbe 80b4 8cbe 7a1a aa3e 632a c0be
00000240: 07ed 5cbe 4605 f43c 81d1 113f 73a9 a6be
00000250: 95c2 033d f347 0a3e 8d4f 043e 24b3 343c
00000260: e7f5 333e 0bae 38be 371b c3be a9d4 843d
00000270: f1f4 cf3d 508f 55be 30e3 0dbf 5841 84be
00000280: 7be3 12be 67da 063e 0b37 a7be efb7 11be
00000290: 79ec 45bc 3538 e83d 2782 203f bd8d cbbe
000002a0: 9a81 1abe 102f 0f3e 78ff b43e c4cd 203e
000002b0: f1c0 283f ebc9 30be 8a12 a9be 3fd0 2a3e
000002c0: 26e1 0a3f 6be7 2c3f 2ded 923e 26d2 3abe
000002d0: b1f3 42be 381a 5e3e 9686 563e 2747 a1be
000002e0: 781e ed3d 0486 d03e 4f17 d6bd 985b 2f3e
000002f0: 3abf d73e 3d01 9f3e 848c 82bd 3ba3 cc3d
00000300: b61d 453e 8ca2 b3bd c7f4 c43f 71be 12bf
00000310: 0a21 d73c daf1 d23d c011 923d 98b6 acbd
00000320: ceb9 05bf 07a5 a8be fb19 ffbd 1d2b 8a3c
00000330: d8b0 27bf 3fa9 10bf 841e 26bf 92e9 f43d
00000340: 1e6a cb3a fb3b e53d e945 b03e 729b 523f
00000350: 6c09 16bf 9cdb 54be 78e8 cabe d574 fc3e
00000360: 829a dc3d 51e7 823e 262b 8dbd b3aa c3be
00000370: 2cb2 c43e f896 133f 53a1 023e 4e46 d63e
00000380: a99f 033e bab6 443d 4e92 6a3e 38fb 613e
00000390: 91e5 2d3f 84cc 1b3f 7fc1 0e3d 4e2d 60bd
000003a0: 0c10 383e a5ed e83e b23f b6be f840 04bf
000003b0: c7c5 f83c 38fb 9aba fd6f 16be d015 263f
000003c0: c449 81bd d1b3 113e 07bc acbe 6ea4 3ebf
000003d0: 775e fbbd 9dce 99bd f258 cb3e e29b d6be
000003e0: f7b1 8c3e 3ded c6bd 7d2e 9ebe cd41 3dbd
000003f0: 8f43 28bd 0eb4 6bbf b3ba 553d cb2a 1f3e
-0.16184276 -0.565309 0.02340761 -0.52967983 -0.3301565 0.20887324 -0.38350955 -0.0031904173
0.4229226 0.22061013 0.1780346 0.19664416 0.0002674543 0.19434328 0.34384334 0.1491573
1.9638902 -0.42215234 0.65625703 0.40872958 0.2547612 -0.17168936 0.18446839 -0.041162502
0.18424185 -0.10350886 -0.64636195 -0.03022504 -0.057633027 0.48114985 -0.0652094 0.035704903
0.5871127 0.37739614 -0.104062356 -0.5092253 0.15477048 0.070781015 -0.4960718 0.28570834
0.09058802 0.4451332 -0.21983233 0.21051793 0.44679925 -0.3579802 -0.29581174 0.21727808
0.17086187 0.3273017 -0.13734114 0.23685935 -0.6116861 -0.2674488 -0.377944 -0.2942896
0.08296128 0.66909117 0.26120597 0.69255257 -0.24664201 0.33657423 -0.6478832 -0.09855773
-0.07285087 0.13385372 0.33129075 -0.5388483 -0.40976948 -0.36608154 0.49019054 -0.3796016
-0.29378492 -0.35413677 -0.04441023 -0.41365987 -0.5360875 0.32382384 0.74418956 0.097894624
-0.10714505 0.03771539 -0.52824295 0.05338741 0.1110891 -0.082358815 0.4098198 -0.007722354
-0.24381177 -0.29540578 0.33523718 0.19820483 0.06144256 -0.5297843 0.039478436 0.04903761
-0.17368132 0.34163797 0.41419908 0.18870153 -0.15367265 0.6178107 0.014588568 0.15798122
0.22157031 0.30023265 0.09314208 -0.29153663 0.018431125 -0.7849126 0.2517885 0.11615432
-0.35719225 -0.044863097 0.09765427 0.2289266 0.12891492 -0.34825948 0.4459484 0.36703175
0.13290486 0.3810549 -0.08550918 0.1636937 -0.08620782 -0.14950836 -0.45466745 -0.029571962
-0.29913622 -0.1922715 -0.6463826 0.45867684 -0.19023174 -0.9878367 0.41480196 0.52105564
-0.42719188 -0.16956049 -0.25488064 0.09725166 -0.46275625 -0.2748146 0.33223325 -0.37532339
-0.21574794 0.02978767 0.569603 -0.32551154 0.03216799 0.13504009 0.12920971 0.011029039
0.17574273 -0.18035142 -0.381067 0.06485874 0.10154141 -0.2085545 -0.55424786 -0.25831103
-0.1434459 0.13169251 -0.32659182 -0.14230321 -0.012080305 0.11338846 0.62698597 -0.39756575
-0.15088502 0.13982797 0.35351157 0.15703493 0.65919405 -0.17264526 -0.33021957 0.16681002
0.542498 0.67540616 0.28696576 -0.18244228 -0.19038273 0.21689689 0.20949778 -0.31499597
0.11578077 0.40727246 -0.104536645 0.17124784 0.42138082 0.31055632 -0.063744575 0.09992071
0.19249615 -0.08771238 1.53872 -0.5732184 0.026260871 0.10300036 0.07132292 -0.084332645
-0.5223664 -0.32938406 -0.12456127 0.016866261 -0.6550422 -0.5650825 -0.64890313 0.119586125
0.0015519296 0.11193081 0.34428337 0.8226844 -0.58608127 -0.207869 -0.39630485 0.49307886
0.107716575 0.25567105 -0.068929955 -0.3821617 0.38417184 0.57652235 0.12756853 0.41850513
0.12853874 0.048025824 0.22907373 0.22068489 0.67928416 0.6085894 0.0348525 -0.054730706
0.17974871 0.45493808 -0.3559547 -0.51661634 0.030367745 -0.0011824137 -0.14691158 0.64877033
-0.06312898 0.14228751 -0.33737203 -0.7446965 -0.12273877 -0.075101115 0.39716297 -0.41915804
0.27479526 -0.09713218 -0.30894843 -0.04620533 -0.041080054 -0.92071617 0.052180003 0.15543668

net.0.bias f4 [100]
00000000: e138 d7bd 40db b5be 57f5 6e3e efb5 eebd
00000010: 5c67 983e 98f2 813d 5950 9e3c 7e5b d13e
00000020: f07e 70bc e0d0 0d3f 1038 17bf dbfb 83bd
00000030: 4b17 0bbd b941 38bf 0c6d a23e 7540 0abf
00000040: b390 02bf 6ebe eebe 03de 283f ae62 983e
00000050: 5bcb 083f b29b 4f3e 248c 0bbf f709 063d
00000060: 68e4 e33d 45c5 b9bd c08b 993d 3379 083c
00000070: 86fe a73e 6519 c73e 287b 2abf 9f8b 03bf
00000080: a1d4 9b3e 4f53 ae3e 8c06 14bf 5496 5c3e
00000090: f60b 91be 9633 e6be 6401 bf3d 63ff bc3e
000000a0: 4437 82be d698 ca3d 96cf 6abd 7705 74bc
000000b0: eb02 0f3e 628a 35be 036a 3b3e b442 0b3f
000000c0: 4de6 fbbe 0909 123f 118d 00bf 1fd8 0fbf
000000d0: 3ce1 ad3c e1e4 593d 5a98 ddbe ba97 86be
000000e0: 20dc 6fbe 9ebd fbbd 4380 b2be b4b0 043f
000000f0: a626 983e 583e 33bf 8fe2 7fbe aff4 6abe
00000100: 5fe8 fdbd 5810 72bb 55d0 893e 6aeb 073f
00000110: cd96 0a3e 12df 25bf 451d 753e b36b d3bd
00000120: 9a96 a83e 8331 863e 0531 30be c830 15bd
00000130: 3489 31be 8850 68be 20d5 133f 2685 123f
00000140: 04dc 483e 4d67 fcbd 76f2 de3d 4c61 19be
00000150: 5225 8dbe 14a1 09be f40f 183f 3cf2 873e
00000160: e961 0bbf f17b 6f3e 618a 9abe b468 20bf
00000170: 62fb fd3d 2fcb a23e b0fc bf3e e914 c0be
00000180: d7d5 a1bd 0bc9 9e3e ba20 0ebe 3a97 bebe
-0.10508896 -0.35518837 0.23335777 -0.11655795 0.29766357 0.06345099 0.019325422 0.40890115
-0.014678702 0.5539684 -0.5906992 -0.06444522 -0.03395776 -0.71975285 0.3172382 -0.54004604
-0.51002043 -0.4662966 0.65963763 0.29762787 0.53435296 0.20274237 -0.5451071 0.032724347
0.111275494 -0.09070829 0.07497358 0.008329677 0.32811373 0.38886562 -0.6659417 -0.5138492
0.3043566 0.34047934 -0.5782249 0.2154172 -0.28329438 -0.44961232 0.09326437 0.36913595
-0.2543279 0.098924324 -0.057326876 -0.014893881 0.13965957 -0.1772857 0.18302159 0.54398656
-0.49199143 0.57045037 -0.5021525 -0.5618915 0.021225564 0.05319679 -0.43280298 -0.26287633
-0.23423815 -0.12292026 -0.3486348 0.5183213 0.29716986 -0.70017004 -0.24988769 -0.22944902
-0.12397837 -0.0036936011 0.26916757 0.5309359 0.13534088 -0.64793503 0.23936947 -0.10323276
0.329274 0.2620965 -0.172062 -0.036423475 -0.17337495 -0.2268697 0.5774708 0.5723442
0.1961518 -0.123243906 0.108860895 -0.14978522 -0.27567536 -0.13440353 0.5939934 0.26551998
-0.54446274 0.23387124 -0.301837 -0.62659764 0.12401463 0.31795642 0.37497473 -0.37515953
-0.07902115 0.3101276 -0.13879672 -0.37224752

net.2.weight f4 [100, 100]
00000000: 582d a93d ed26 9f3d bc0d d83d 617f 40bc
00000010: 9c23 493b 5c1b 5a3d a026 1fbc fb76 693d
00000020: 437d a6bd 5ad0 9ebb 84d8 dbbd b915 36bd
00000030: 811c 4a3d 44c9 543b 6df7 adbc 0fdb 1a3d
00000040: a857 a1bc 5515 783d 23e7 4c3b e818 89bd
00000050: fe22 ad3c d66b 653d b506 1bba 9ff2 afbc
00000060: 65b8 c13d 1e22 873c 0523 6abc ca85 2b3c
00000070: 9d87 013d 5601 943d 8c9c 8d3d 574f b3bd
00000080: 3bbd 093e 8045 853d bbd8 e63c bc77 9fbd
00000090: 3e52 1abe 66df f5bd 500a 9e3d 186c 81bd
000000a0: 9165 b8bd 588e a03c 650d b13d 753b c83d
000000b0: 17bc b83d e7a6 3ebb 97e8 ecbc 7f9e babc
000000c0: 34d2 c73d e4dc e93d b566 c6bd 7210 96bd
000000d0: cb38 793d 233c a43d 0d17 9c3b b18b 793d
000000e0: 132c b9bd a11e 21bc 3712 9c3b b259 ef3b
000000f0: 713f ea3d ed84 c1bd f0f0 2d3d 923b cb3c
00000100: f298 a5bc 9f2f 79bd c2f0 173d d0aa 3abd
00000110: 52ee aabd 5915 3cbe 8180 9a3d 292e b93d
00000120: abfd c53d b561 41bd 64ef 6c3d 83f1 6bbc
00000130: 4a08 4d3d 9103 a8bc fe3e 353d 36c2 953d
00000140: 7960 413d 827a 893d ef4d 09bd f31c c6bd
00000150: 10d6 94bd 8ec8 c23c 1bb8 3ebd 2410 f5bb
00000160: 454d f2bb d57a 8abd fc17 28be f5a0 c9bd
00000170: da6d 273d e497 3abd 0d4f 2e3d 3c48 07bc
00000180: 9689 edbc 9dbb 153d 2104 c8bd c730 9ebd
00000190: c599 293d 24ef 99bd fa8d adbc 6a40 923c
000001a0: dfc5 bdbd 29a6 53bd 16d4 afbd 40cd 88bd
000001b0: 30d8 7e3d 8185 24bc 6766 8a3d c8ea acbd
000001c0: e961 aabd a1d3 db3d 245a 3dbd f9c2 b0bd
000001d0: 136d d6bd ace6 21bc b005 6cbd 794c f73c
000001e0: a842 da3d 76ec 6b3d c627 09bd 81b2 063c
000001f0: aecc 53bd 4605 bebd 79bb 49bd c845 083d
00000200: 2c92 69bd 5360 ed3d e180 42bd a500 68bc
00000210: f420 8dbc 9fb8 c2bc f71f 84bd 0cde 7e3b
00000220: eaa9 113c a3d7 e8bd 26eb 623b 27e5 8f3d
00000230: 3614 cfbd 94a4 d7bd 213f 9ebd 260c 88bd
00000240: 0e5f 5bb8 d875 32bd 9d76 333d 7749 bcbc
00000250: 9bca 9c3d b276 59bd 33e1 74bd ad28 c3bc
00000260: 4667 90bd d218 9ebc 281f 9f3d 229c 653c
00000270: 81a5 8b3c 1c3e 62bd 0d9d 94bd fe98 95bd
00000280: cc31 10bd bb31 573d 750a bdbd bdf4 a23d
00000290: 4c84 673c 5897 8ebc 80ce 903c 76a7 303d
000002a0: 0bb4 b8bd 3d66 58be 38b3 cb3d dcea 98bd
000002b0: 1e98 6abd 67d1 4fbd 7b0e e53c 82ea 143d
000002c0: 14d0 97bd 68f0 373d 1802 0c3d 508a a73d
000002d0: 4e6a c23d aa7b b53d 148a 96bd 695d aa3c
000002e0: 0a2d 85bd f18c f6ba d040 c9bd 6adf a33d
000002f0: 87e5 95bc b94d 733d d185 79bd 1dd5 a3bd
00000300: 4708 29bc aa7a 65bd 482c 9cbd a31a d43b
00000310: ff3a 793d 5c74 263d 5aee 443c 7957 a1bd
00000320: 6c12 1b3d c5af 94bd ef62 553d af15 62bd
00000330: 6f3d a53d 1ccb 1c3b 42eb 8f3d 6afc 52bd
00000340: 70e1 afbd e068 4a3b 73f5 c3bd b884 a6bd
00000350: f7a9 d7bd df1a 31bd 94e0 113e 39fe bf3d
00000360: abd4 3ebd b40c bebd d56d 25bd 3108 b23d
00000370: 5df3 913a ad0b 173e 1a9e bebd b43b 7c3b
00000380: 0082 573c bceb 6f3d 97ff 9cbd 15ac b7bd
00000390: 7e98 b9bd 4865 283e dc6f 3abd 5b57 b43d
000003a0: 455b 3bbb 6a47 673d 089e 99bd f3f3 1c3d
000003b0: 6163 0ebe 990d 23be ccfc 4abb faa4 f4bb
000003c0: 9896 e7bd c215 723d b892 3fbd 55b5 b1bd
000003d0: ff05 76bd 636e 7cba 1e6f 93bb b3b3 57bc
000003e0: 35a4 263c e32c 963d e614 96bc f3f7 613d
000003f0: 56ac 8a3b 3184 2b3d be6d 1cbd 6001 55bd
0.08260602 0.077710964 0.105494946 -0.0117491195 0.003069139 0.05324875 -0.009713799 0.056998234
-0.081293605 -0.004846615 -0.107346565 -0.04445431 0.04934359 0.0032468596 -0.021236146 0.037806567
-0.019695118 0.06056722 0.0031265698 -0.066942036 0.02113485 0.056011043 -0.000591378 -0.021477995
0.094589986 0.01649576 -0.014290576 0.0104689095 0.03162347 0.07226817 0.069146246 -0.08755367
0.13451092 0.06507397 0.028179517 -0.077865094 -0.15070435 -0.120055005 0.07716811 -0.06319445
-0.09003747 0.019599125 0.08645133 0.097769655 0.0902025 -0.002909118 -0.028919501 -0.022780655
0.0975689 0.11419085 -0.096875586 -0.073273554 0.060845178 0.08019283 0.00476349 0.060924236
-0.090416096 -0.009833963 0.0047629136 0.0073043937 0.11437882 -0.09449182 0.042466104 0.024808679
-0.020214532 -0.06083643 0.03709484 -0.045573056 -0.08346237 -0.18367518 0.075440414 0.090420075
0.09667524 -0.04721232 0.05784549 -0.014400843 0.050056733 -0.020509513 0.044249527 0.073124334
0.047211144 0.0671282 -0.03352159 -0.096734904 -0.07267392 0.023777273 -0.046562295 -0.0074787308
-0.007394465 -0.067617096 -0.164154 -0.09845153 0.040876247 -0.04555501 0.042555857 -0.008256968
-0.02899627 0.036555875 -0.097664125 -0.07724147 0.04140641 -0.075163156 -0.021185864 0.01785298
-0.092662565 -0.051672135 -0.08585374 -0.06679773 0.06221789 -0.010041595 0.06757813 -0.084432185
-0.08319456 0.107337244 -0.046228543 -0.08630938 -0.10470023 -0.009881657 -0.05762261 0.030187832
0.10657245 0.057598554 -0.033485197 0.00822127 -0.05170887 -0.092783496 -0.049251053 0.033269674
-0.057024166 0.11590638 -0.04748619 -0.01416031 -0.017227627 -0.023769675 -0.06451409 0.0038889674
0.008890608 -0.113692544 0.0034625023 0.07026129 -0.10111277 -0.10529438 -0.07726885 -0.06642942
-5.2302195e-05 -0.043569416 0.04381429 -0.02298425 0.076558314 -0.053091712 -0.05978508 -0.023823107
-0.07050948 -0.019298945 0.077696145 0.014014276 0.017046692 -0.055235013 -0.072565176 -0.073045716
-0.03520374 0.05253766 -0.0923051 0.079568364 0.014130663 -0.01740615 0.017676592 0.043128453
-0.090187155 -0.21132751 0.09946293 -0.07466671 -0.057273977 -0.05073681 0.027961006 0.036356457
-0.07412735 0.044907004 0.034181684 0.08180678 0.09492932 0.08861478 -0.07350555 0.020796495
-0.06502731 -0.0018810314 -0.09826815 0.08001597 -0.018297924 0.059400294 -0.060918633 -0.079996325
-0.010316915 -0.056025185 -0.076256335 0.006472902 0.06084728 0.040638313 0.012019718 -0.07878012
0.037859365 -0.07260088 0.052096304 -0.05519646 0.08068358 0.0023924774 0.07027294 -0.051510252
-0.08587921 0.0030885264 -0.095683 -0.08130783 -0.10530465 -0.043238517 0.14245826 0.09374661
-0.046589535 -0.09279767 -0.040387947 0.08692969 0.001113515 0.14750548 -0.09307499 0.0038487734
0.013153553 0.058574423 -0.076659374 -0.08968369 -0.09062289 0.16444886 -0.045516834 0.08805724
-0.0028588336 0.05646459 -0.07500845 0.038318586 -0.13905098 -0.15923156 -0.0030973433 -0.007465956
-0.1130802 0.05910278 -0.04677078 -0.086771645 -0.060064312 -0.0009629486 -0.00449933 -0.013165402
0.010170986 0.0733278 -0.018320512 0.055168103 0.00423197 0.041874114 -0.038190596 -0.052003264

net.2.bias f4 [100]
00000000: 8d4f c13d 64cd f93c bfb0 873c b6d0 adbd
00000010: 406a 96bd becb 9f3c ac80 afbd d70e c43b
00000020: 3891 a3bd 97ee 25bd cb14 4f3d ff51 6d3d
00000030: 62c9 353d 649e 69bc 6a33 7d3d 95db 6fbc
00000040: 4a03 623c 4a81 813d 7c45 b1bd 5e19 e43d
00000050: 7dc9 803d 6b87 b3bc 39cd b33c 4fb7 883d
00000060: 1844 ad3d ed16 b43d b993 8ebd 114f 1dbd
00000070: 7e2a 813c 4ce8 663c 16e5 a3bd 6f3d b838
00000080: 883f bd3d d54a 913d 4d06 cf3d 2c11 733c
00000090: 0b51 7dbc 19ed 053d 90ac 3d3d c366 44bd
000000a0: 5378 c7bc 4ac3 b8bb 91b4 4b3d a771 37bd
000000b0: 9124 b63d 4239 c03d 0e7e a13d a039 b93d
000000c0: 7bfa 8d3d a7fe eebd 1b6a 453d 9d37 07bd
000000d0: cda2 8cbd 2e9f 4d3d ede4 8a3c d68e 8dbc
000000e0: 3a79 00bd 2238 fcbb 1867 abbd 738f 3a3d
000000f0: a9c0 19bd acec d9bd 04ae 28bd d301 83bd
00000100: e856 c5bd 8c8f 17bd 5d0e e7bc c0b0 873d
00000110: b2e4 a53d 5646 1cbc df87 61ba 465b 48bd
00000120: 8939 d73c 614b 8d3d 1a92 b43d d27e a03d
00000130: 3d71 5e3d 6ec1 1ebd 4e0a 46bd 61d3 583d
00000140: 2693 953c 29db c83d c10f 573d 2848 20bc
00000150: 505e 0dbd 81dd e73c ce31 4ebd 2f7f 7abd
00000160: 963e 95bd 5eed e6bc 0c2d 203d a191 42bc
00000170: 9a40 f4bc 316b 163d 0894 003d fe4a 18bd
00000180: 36ff cebd 172a 02bd 72c3 96bd 7d08 92bd
0.09439001 0.030493446 0.016563771 -0.08487074 -0.07344484 0.019506332 -0.08569464 0.0059832144
-0.07986683 -0.04051074 0.05055694 0.057939526 0.044381507 -0.014258955 0.06181661 -0.014639755
0.0137947295 0.06323488 -0.08655831 0.11137651 0.06288431 -0.021915158 0.021948444 0.06675588
0.084602535 0.08793435 -0.069617696 -0.03840548 0.015767332 0.01409347 -0.08002679 8.7852466e-05
0.09240633 0.07094351 0.10108624 0.014835637 -0.015461217 0.032696817 0.046307147 -0.047949564
-0.024349367 -0.0056385146 0.04973275 -0.04478612 0.08893693 0.09385921 0.07885371 0.09044194
0.06932541 -0.11669665 0.048196893 -0.03301202 -0.06866989 0.050200634 0.016954863 -0.017280024
-0.03136561 -0.0076971212 -0.08369273 0.04554696 -0.03753725 -0.10640845 -0.04118158 -0.06396832
-0.09635717 -0.03700213 -0.028205091 0.06625509 0.08100261 -0.009538254 -0.0008603315 -0.04891517
0.026272552 0.06899143 0.08816929 0.07836689 0.05430721 -0.038758688 -0.04834967 0.05293596
0.018258642 0.098074265 0.05250526 -0.009782828 -0.03451377 0.028303863 -0.050340466 -0.061156448
-0.07287328 -0.028189357 0.03910546 -0.011875541 -0.02981596 0.03672332 0.031391174 -0.037180893
-0.101072714 -0.03177842 -0.07361497 -0.07130525

net.4.weight f4 [100, 100]
00000000: 0d47 5abc c43c aa3d 27fb 743e c6dd eb3e
00000010: 77f3 dd3d a4ba 07bf dee8 25be 1f47 0a3d
00000020: 4b83 653d 584f 0dbd a8fe a63c d591 1dbd
00000030: 4ccf 213e 91e1 823c f16c ea3e d926 083e
00000040: 4a38 f13e 7aa5 b5bd 1a41 863d 0df6 60bc
00000050: 3d18 4e3e 780f 01bf 0149 a33e 8e02 41bd
00000060: 755a 82bd 46a7 dbbd 007a 3f3c fa7f 2e3e
00000070: 9cc1 cebd 3e96 963d 112f 82be 8543 e7ba
00000080: 7f99 773f fda4 1cbe 6d02 463f d91b 593e
00000090: 280f f03d ebbb 0bbe ef75 fe3b c8d2 8c3e
000000a0: a024 b8be 6443 ffbd 090c 5d3e 3798 06bf
000000b0: e6d9 0dbe af54 06bd 5c49 563e 9ff5 34bd
000000c0: 7f49 0b3e 9ea4 6cbe 47c5 653e 76c7 963d
000000d0: bd0b dc3c dd70 e03d 312d 72be 1ca5 2f3e
000000e0: 7c7a 043f ff52 c43e 4cfc a93e 5eea c53e
000000f0: deef fb3d 51e4 363e ddf0 063e 88b8 9dbe
00000100: 5cc0 9e3e 3b66 293e bb26 893d 7318 91bd
00000110: f673 273c 0909 c1be 6886 6a3e 5d6f b73d
00000120: 2228 9b3c 7033 6dbd df76 3c3e 24ca b0bd
00000130: c627 823e 3e21 36bd 8262 8cbe d6cd 283d
00000140: 36b3 1e3f 903f 583f e66a 593d dee5 433e
00000150: ecd5 13bf 684b 773f 1e24 31be a7be 1ebd
00000160: 1166 903c 982e cebf 9813 363f 5ab7 babe
00000170: 0926 31bc eac7 86bc 7b62 403e e542 21bd
00000180: 4184 f0bb 6de0 4b3e bb12 d43d 0f3e 32bf
00000190: 15ac af3c 2687 d53c 2775 8f3d 298f a5bd
000001a0: c35a 4c3d 5ed7 dc3d 55b1 6cbd f2ff 99bd
000001b0: 593e d33c 86f5 bdbc 3b76 80bd 14b6 c93c
000001c0: a0cd 913d 06d7 483d 57e8 a2bd a391 abbd
000001d0: ec17 49bd 8917 c7bd d68f 643c 06e6 5b3d
000001e0: e4f1 d6bd 9351 b63d 6b6d 91bc cb7c b1bd
000001f0: 50e4 db3c 5143 f33c 8ab1 a83d 3db5 db3b
00000200: cef6 83bc 8555 9abd a40d aaba 9594 87bd
00000210: e368 cdbd 7931 4b3d 6500 d13d 05f6 d6bd
00000220: 011d 9bbd 6b10 6c3d eb3b a9bc bf70 89bb
00000230: 4008 50bc 2e0f 8d3d 95c6 3a3d 2ea3 6d3d
00000240: 0e29 ecbd 53ba 46bd 3d7f bebd d437 533a
00000250: ccba 5c3d c200 69bd 7fc9 4f3c 0d46 473d
00000260: 8132 d9bd c4bc 593d b661 d5bc 19ca 213d
00000270: 4d2d 883c 59a9 29bb 9b4c 02be dbef ef3d
00000280: 73cc 913b 0911 443d cf31 0e3d 2fd9 21bc
00000290: 5d61 3dbd 39ba f9bc a6f2 eebd 3b22 d53c
000002a0: 27fa 5d3d fd03 3a3d 528d d63c cc79 e2bc
000002b0: be31 29bd a4fa 88bd b3e7 4d3c 96cd e63b
000002c0: 877b dcbd dd74 e7bd 587a 9e3b fe79 123d
000002d0: 18ee 0ebe 58df 2cbe d762 49bc 7512 52bd
000002e0: d93d 8cbb ef34 d13c 690a 5bbc d2d5 ad3d
000002f0: bc6e 65bd 5955 2cbd ec9f 963d 635f 5fbd
00000300: 0bc6 c2bb 72c7 70bd 5b49 063d c7ed f3bd
00000310: bb8b 793d 191f b83c c106 99bd 2231 073d
00000320: 1d0d 0ebd ecce e03c b313 98bd 2f78 3dbb
00000330: ddef abbd 9e3c 34bc c06c 003d de8c 323d
00000340: 0d72 4b3d 78a5 c83c a135 8d3d 840d f03d
00000350: b874 473c 34ab debd df02 223d 4710 b9bb
00000360: 40a3 983d 711a db3c c120 83bc 0269 253d
00000370: f8b2 11bd cba4 ae3d 473c a03d c76b dcbd
00000380: cbea a03d ce57 40bd 3f3b 40bd 1e93 b83d
00000390: c615 6d3d d0b6 7f3d 8ce4 aabc 2783 aabd
000003a0: d8fe 2a3a 0c49 aebc 498b 123d ac38 2e3d
000003b0: 3b0f bd3a 3ace d73c 3082 b63d ded7 583d
000003c0: d2cd b9bd c158 823c 315d 783d 1108 6abd
000003d0: 94cc 713c 1cb9 5cbd 1fd3 5a3d d186 bdba
000003e0: e31b a93d 075c 953a 5648 ffbc 1a75 e1bd
000003f0: be3f 403d 2024 6b3d 04f4 c0bd ddea a23c
-0.013322604 0.083123714 0.23923932 0.46067637 0.10837453 -0.53019166 -0.16202113 0.033759233
0.056033414 -0.034499496 0.020385101 -0.038469154 0.15801734 0.0159767 0.4578624 0.13296069
0.47113258 -0.08869453 0.06555386 -0.013730538 0.20126434 -0.5041423 0.31891635 -0.047121577
-0.063649096 -0.10725264 0.011686802 0.17041007 -0.10095522 0.07352875 -0.25426534 -0.0017644024
0.9671859 -0.15297313 0.7734745 0.2120203 0.11721641 -0.13645904 0.0077655236 0.27504563
-0.35965443 -0.124640256 0.21586622 -0.5257601 -0.13852653 -0.032795604 0.20926422 -0.044179555
0.13602255 -0.23109671 0.22438537 0.07362263 0.026861066 0.10959027 -0.23650052 0.17152828
0.51749396 0.3834457 0.332003 0.3865537 0.123016104 0.17860533 0.1317782 -0.3080485
0.31006134 0.16542904 0.066968404 -0.070847414 0.010220518 -0.37702206 0.22902834 0.08956788
0.018940035 -0.057910383 0.1840472 -0.08632305 0.2542097 -0.044465296 -0.27418905 0.041211925
0.61992204 0.8447199 0.053080462 0.19130656 -0.57748294 0.96599436 -0.17298934 -0.03875604
0.017626794 -1.6107969 0.7112365 -0.3646801 -0.010812291 -0.016452748 0.18787567 -0.039370436
-0.0073399846 0.1990983 0.10355135 -0.69625944 0.02144436 0.02606542 0.07004767 -0.08083946
0.049891245 0.107832655 -0.057786305 -0.07519521 0.025786566 -0.023188364 -0.06272551 0.024622954
0.07119298 0.049033187 -0.079544716 -0.083773874 -0.04909508 -0.09721286 0.013950309 0.053686164
-0.10495356 0.08902278 -0.01775237 -0.086663805 0.026842266 0.029695185 0.08236988 0.006704955
-0.016108897 -0.07535843 -0.0012974036 -0.06620137 -0.10029771 0.049607728 0.102051534 -0.10496143
-0.075738914 0.057632845 -0.020658454 -0.0041943486 -0.012697279 0.06887661 0.04559954 0.05801695
-0.11531268 -0.048517536 -0.093016125 0.000805733 0.05388908 -0.05688549 0.012682318 0.04865079
-0.10605336 0.053158537 -0.026047569 0.039499376 0.016623164 -0.0025888293 -0.12724535 0.11715671
0.004449421 0.04786781 0.03471547 -0.009878441 -0.04623543 -0.030484306 -0.11667375 0.026017299
0.054193642 0.04541396 0.026190434 -0.027645968 -0.041307203 -0.06688431 0.012567448 0.0070435507
-0.107657485 -0.11301587 0.004836362 0.035760872 -0.13958013 -0.16882074 -0.012291632 -0.051287133
-0.0042798338 0.025537936 -0.013369181 0.084880486 -0.056013808 -0.04207358 0.073547214 -0.054534327
-0.0059440187 -0.058783956 0.0327848 -0.11910587 0.060924273 0.022475766 -0.07471991 0.03300584
-0.034680475 0.027442418 -0.07425632 -0.0028910746 -0.0839536 -0.01100078 0.031353712 0.043591373
0.049669314 0.024492964 0.068949945 0.11721328 0.012173824 -0.10872498 0.03955352 -0.0056476924
0.074530125 0.026746007 -0.01600683 0.040383346 -0.03557107 0.085275255 0.07823997 -0.107627444
0.07857283 -0.046958737 -0.0469315 0.090124354 0.057882093 0.062430203 -0.020860933 -0.083257966
0.000652296 -0.021275066 0.035777364 0.042534515 0.0014424095 0.026343454 0.0891155 0.052940242
-0.0907246 0.015911462 0.06063575 -0.0571366 0.014758248 -0.05388747 0.053423997 -0.0014459734
0.08257272 0.0011395224 -0.031162422 -0.110086635 0.04693579 0.0574075 -0.09421542 0.019887382

net.4.bias f4 [100]
00000000: c779 f6bc dbbc cabd 2fe0 bb3b 47c9 88bd
00000010: 8a30 89bd fe2d 423d 0d81 7ebb b50b 52bc
00000020: a683 913d 1df6 d73c bdfd 603d 4981 043d
00000030: 13e7 b93d 72e6 34bd b7fa e5bc b552 253d
00000040: e9b2 bb3d 600b 973c 345e dabc 27ff b63d
00000050: 6b69 a7bd 7125 263d d1ae 2a3c 9f4b d43b
00000060: f3ab a93c 8572 11bd 9c25 073d bb19 cfbd
00000070: b07c 3b3c 41b5 92bd ef60 313d d544 553d
00000080: 752c 863d bc65 c23d 35c7 2ebd 2c5a 36bd
00000090: 9dd7 80bc 848e 1e3d 6f49 dc3a 0973 7ebc
000000a0: 2e43 cc3d 2ecf a53d 8920 31bd 5211 c53b
000000b0: 3347 6d3d e2c6 fd3c 4478 fb3c 7eea c8bc
000000c0: d2bf 41bd 4a4e d1bd 8032 55bd e89b 3c3d
000000d0: abc5 51bd 1701 703d 560a 6fbd d148 c43c
000000e0: edc5 8b3c f445 a9bd 25ff a2bd df36 bfbb
000000f0: 1133 b13d e557 5dbd 7627 883d 6ac2 753d
00000100: a796 7abd 080a e0bb 8e8f 32bd 26ac d4bc
00000110: e681 c33d b4c1 783d e7ff 94bc 51d0 33bd
00000120: 32eb e2bd afab f23c c758 a23d 470a f6bc
00000130: 9348 c93c 530d 6fbd d420 203d 8b43 d4bd
00000140: af20 ae3d 2318 ee3d e930 0c3d bece 943c
00000150: 1de0 06bd 9833 f63b 2e53 b53d 569b 96bb
00000160: b616 bcbc 2a3b b23d aad7 a23d 0a91 babc
00000170: 543f 75bd 6fe5 4f3d 8eb3 dd3c fa46 bdbd
00000180: 2b4f 6fbd c67f adbd 75c9 b33c 5e5f 563d
-0.030087365 -0.098993026 0.005733512 -0.066790156 -0.06698711 0.047407143 -0.0038834244 -0.012820174
0.07105188 0.026362473 0.054929484 0.03234986 0.09077277 -0.044165082 -0.028073652 0.04036208
0.09164984 0.018438041 -0.026656248 0.08935385 -0.08174404 0.04056305 0.010417656 0.0064787413
0.020711875 -0.035509605 0.03299485 -0.101123296 0.011443302 -0.07163478 0.043305334 0.052067596
0.06551448 0.094920605 -0.042670447 -0.04451959 -0.015727812 0.038710132 0.0016806553 -0.015530356
0.09973751 0.08096157 -0.04324392 0.0060140276 0.05792923 0.030978624 0.030696996 -0.024525877
-0.047302075 -0.102200106 -0.052050114 0.04604712 -0.0512139 0.05859479 -0.058359466 0.023960503
0.017062152 -0.082652956 -0.07958821 -0.0058353986 0.08652318 -0.0540389 0.066481516 0.05999986
-0.06117883 -0.0068371333 -0.043593936 -0.025960993 0.095462605 0.060731605 -0.01818843 -0.043899838
-0.11080016 0.02962288 0.07927089 -0.030034197 0.024570739 -0.058362316 0.039093807 -0.10364445
0.08502328 0.116256975 0.03422633 0.018164989 -0.032928575 0.0075134747 0.08853756 -0.004596154
-0.022960048 0.08702691 0.07951291 -0.022774238 -0.059874848 0.050755914 0.027063157 -0.09242053
-0.05842511 -0.084716365 0.021946648 0.052337043

net.6.weight f4 [100, 100]
00000000: aa80 0fbe 236c 9dbd eb38 4d3d e577 d23d
00000010: ff6c 2bbd 2d63 743d 1526 9d3d 03e4 68bd
00000020: 297e 3f3d 7b79 81bc 09ff c73c 3484 96bd
00000030: 39d3 f0ba 0fa3 b4bd 4d4c bd3c dda3 373d
00000040: af6c d3bd 3c42 923b 008a 38bd 4e85 1d3d
00000050: d210 583d f077 45bd 267e 91b9 7b38 efbb
00000060: 59f4 853d 70d8 0ebd 6eae 46bd 3bcd ea3d
00000070: 20ca 6c3d e5af 3abc d891 b0bc 3ccc 8fbd
00000080: 3819 d0bd f29d a23d 88fe 233d a1c2 68bd
00000090: 069e b43d 8f1e bbbd b8e3 583d b63c 803d
000000a0: 9eec ffbd edc5 b8bd 2ca8 1fbd 9779 0f3d
000000b0: 708e cabc 6ca2 5abc d410 11be 7d0b 9ebd
000000c0: f88c bbbd 348a 9fbd 4a1d 2e3e 2e39 34bd
000000d0: 34a2 f2bc a8fb 763c d4a8 e93b df84 9dbc
000000e0: 3038 5cbc c063 e33b 22a1 5abd 1766 223d
000000f0: f03c a93d 5bf0 28bd 9507 de3b 1ab6 883d
00000100: 4762 2f39 cd92 3cbd cf7b 14bd 5965 aabd
00000110: 189c f4bd bf96 e63c 793e 63bc 3b9c d9bd
00000120: d2c6 ca3c b56b bf3c 3569 8abd 0bd7 f9bd
00000130: 54b1 a9bd 414f 273d 86f5 453d af97 09bd
00000140: cc58 cfbd dd3f 6ebc a57d aabd 6df4 e93c
00000150: a88f be3d 7b76 81bc e35f 4fbc c297 03bd
00000160: 04f5 9ebd dead d4bd bb01 9abd a3d1 78bd
00000170: 1eb6 91bd c7c7 923d 7bf9 b23d f4a4 753d
00000180: c302 9fbd 44c0 623d e140 5e3d 3a24 1cbd
00000190: 7e1c 1a3d 7023 953d f4f8 98bd 6b13 0dbe
000001a0: cc2d 1d3d 3a47 e3bc b703 81bd 5a97 9dbd
000001b0: abe6 943d 2bce 783c e064 dcbd 9cbe 76bd
000001c0: a848 3b3d bf1f 683d 489c eebc 3e35 9cbd
000001d0: 287d e93d 200a 6bbd 71a8 73bd 2bf7 8dbd
000001e0: d18a 0dbc 5126 73bc 463a 013e 4f55 cc3c
000001f0: 41ce cc3d 82ec a33d 404d d83b 5fcc 49be
00000200: 86aa 973d 0434 403d ad16 bd3c 2137 81bc
00000210: 762f 6bbd e69e adbd 2344 8f3c 28a0 f5bc
00000220: 7cff 363b a293 2e3d db24 9b3c a098 7e3d
00000230: 7f6b f23d ef3f 18bc 5549 c53d 99de 003d
00000240: 099b 763d 0172 b3bd cb41 c7bc cd81 c43d
00000250: d710 b3bc f04f 2ebd 628c 01be ba9f 973d
00000260: 02c4 0fbc 01b2 033e b444 9b3d 8b67 31bd
00000270: 798f bd3d d762 343a 3b5b eebd 9f9a cd3d
00000280: 906d 83bc 67e3 a93d c923 39bd f2ae 30bd
00000290: 4cf9 f43c d0ab 863d 7cf9 23bd 6d5d 013e
000002a0: 83fd f83d d797 a63d 372c bf3d c8e9 ac3c
000002b0: 7dd5 7a3d ba71 623d 0dca 013d ad48 383d
000002c0: 1331 cc3d bf84 c5bd 8c12 d83d ae21 7fbd
000002d0: a898 723d 28c1 c43d 17a4 22bd 5998 8cbd
000002e0: 6be4 c4bd 92ba e4bd 6ce4 0c3d e407 c2bd
000002f0: b1ad 9d3d bbe5 4ebd 370d e63d 571c c7bd
00000300: 9faa b33d b9bf 6d3d f65f 62bd 44d7 27bd
00000310: b29c a73b deee 6bbb 0456 6dbd f22b afbd
00000320: dc5b eabd c7cc cb3c aaf4 6d3d 170d b5bd
00000330: 8a3a 0cbc bbc7 803d c3dd 80bb a4bb ca3d
00000340: 6c11 9dbd b153 32bd d990 e6bc bc6e a03d
00000350: cd7a 2b3d fcec 3bbd 38fc 363d 467b 2bbd
00000360: b16b ab3d 858f 813d 5f05 bfbd 74c6 0ebc
00000370: 4152 a93d 488c b8bd 9e96 333d c74d 4d3d
00000380: a136 b9bd 91fb 6a3d 0600 7fbd d5c7 eebb
00000390: b58b 02be c302 99bc 39d7 8abd b5b6 87bd
000003a0: db17 2c3d 641d 8c3d f050 053c f346 c3bd
000003b0: b596 ddbd 549e 853d 2d47 a93d dce1 9abc
000003c0: 4007 aebd 0bfa de3a be70 4ebd 9178 063d
000003d0: 54d5 9a3d 3857 cb3d 89bc 5b3e cb70 d73d
000003e0: da90 babb b962 26be 63ff 673d 0853 adbd
000003f0: b9b4 533d 4ff2 813d 1d50 f1bd 7f79 fdbd
-0.14013925 -0.07686641 0.05010311 0.10276774 -0.041851994 0.059664894 0.07673279 -0.056858074
0.046751175 -0.015804997 0.024413602 -0.073494345 -0.0018373496 -0.088201635 0.023107672 0.044834007
-0.10323464 0.004463462 -0.045053482 0.038457207 0.052750416 -0.048210084 -0.00027750543 -0.007300434
0.06540746 -0.03487438 -0.048506193 0.11464926 0.05780995 -0.011394476 -0.021553919 -0.070213765
-0.1016106 0.07940282 0.04003766 -0.056826238 0.08819203 -0.09136688 0.052951545 0.0626158
-0.12496303 -0.09022126 -0.03897874 0.035028066 -0.024726123 -0.013344388 -0.14166576 -0.07717035
-0.09157747 -0.07790032 0.1700336 -0.043999843 -0.02961836 0.015074648 0.0071307216 -0.019228397
-0.0134411305 0.0069393814 -0.053376324 0.03964814 0.08263576 -0.041244846 0.006775806 0.06675358
0.00016725912 -0.046038438 -0.036250886 -0.08320112 -0.11943835 0.028148053 -0.013869875 -0.10625502
0.024753008 0.023366788 -0.06758348 -0.12199219 -0.08285776 0.040847067 0.048329853 -0.033591922
-0.101243585 -0.014541593 -0.08324746 0.028558934 0.09304744 -0.015803566 -0.0126571385 -0.03212715
-0.07761577 -0.10384725 -0.07519861 -0.0607468 -0.07114814 0.07167011 0.08738991 0.059971765
-0.07764199 0.05535914 0.054261092 -0.038120486 0.03762483 0.0728215 -0.07469359 -0.13776939
0.038373753 -0.027743924 -0.06299537 -0.07694884 0.07270559 0.015185873 -0.10761428 -0.060240373
0.045723587 0.0566709 -0.029127255 -0.07627343 0.11400825 -0.057382703 -0.05948681 -0.06931909
-0.008639053 -0.014840678 0.12619886 0.024943022 0.10000277 0.08004095 0.006601006 -0.19706868
0.07405572 0.046924606 0.023082102 -0.015773358 -0.05741831 -0.08477573 0.017488545 -0.029983595
0.0027923277 0.042621262 0.018938472 0.062157273 0.118369095 -0.009292587 0.096331276 0.031462286
0.060206447 -0.08761979 -0.024323365 0.0959507 -0.021858616 -0.042556703 -0.12651208 0.07403512
-0.008774759 0.12860872 0.075814635 -0.043311637 0.09255881 0.00068811834 -0.116384946 0.10039257
-0.016043454 0.08295327 -0.045200143 -0.04313559 0.02990403 0.065757394 -0.04003285 0.12633295
0.121577285 0.0813443 0.09334605 0.02110757 0.061238755 0.05528424 0.03168683 0.044991184
0.09970298 -0.0964446 0.105504125 -0.06228798 0.059227616 0.09607154 -0.03970727 -0.068649955
-0.0961388 -0.11168398 0.034397528 -0.09474161 0.07699145 -0.050512057 0.11232989 -0.09722202
0.08772778 0.05804417 -0.055267297 -0.040976778 0.005115115 -0.003600053 -0.05794336 -0.08553304
-0.11443302 0.024877919 0.058094658 -0.08840387 -0.008558879 0.062880956 -0.003932686 0.09899071
-0.076693386 -0.043536846 -0.02814524 0.07833621 0.04186516 -0.045880303 0.04467413 -0.04186561
0.0837015 0.06326202 -0.09327196 -0.008714307 0.08267642 -0.090111315 0.04384481 0.050123002
-0.09043623 0.05736882 -0.06225588 -0.0072870054 -0.12748607 -0.018678075 -0.06779332 -0.066266455
0.042014938 0.06841543 0.008136973 -0.09535017 -0.10819761 0.06524339 0.08265529 -0.018906526
-0.084974766 0.0017011774 -0.050400488 0.032829825 0.0756022 0.09928745 0.21458639 0.105195604
-0.005693537 -0.16248597 0.05664004 -0.084631026 0.051686022 0.06345045 -0.117828585 -0.12376689

net.6.bias f4 [100]
00000000: 539f c6bd 4210 cabc cb62 043d ef7e 2cbc
00000010: 8b13 e6bd ccb3 abbd af81 033d 28da 953c
00000020: 1840 91bd 98ee 42bb 614a b9bc 8da1 cc3d
00000030: b0f9 ed3d f381 603c 518c 04bd 4779 b7bd
00000040: c277 a4bd 6ddc db3d 61bb 9bbd f43d d9bd
00000050: 6138 6c3a 7297 c03d 0dc9 3ebd 3148 05bd
00000060: 4a93 1c3d 2de1 c63d 3f3d 823d 8fdc 53bd
00000070: a3a3 2a3b 7044 e73c f8d7 49bc 69f0 8abd
00000080: 1680 b83b 2354 533c 2fc2 8ebc 5d9d 50bd
00000090: 563d 1c3d b980 a33d eea5 c73d bd63 123d
000000a0: eb98 45bd c761 8cbd 9885 88bd 13fd 70bd
000000b0: 4776 c6bd 4502 8dbd 832d 13bd e260 9f3d
000000c0: beff ae3d 1e6e c13b 6667 f73c 1b18 f3bc
000000d0: 6a9f 91bd d376 e53d 14ec 5fbd e334 a83a
000000e0: 4aac debc b822 afbd b8ba d23c 544c 9eba
000000f0: f60f febb ec52 94bd 5433 60bc 4156 e63d
00000100: 5155 9c3d c345 e93c 2c27 9dbd 01fd cabd
00000110: 4dc7 2abd 8083 77bd 478d b53d 6172 8fbd
00000120: c839 703d a5d8 8bbd e0e9 bcbd 0282 ab3d
00000130: 98a0 cf3d b2df cd3d 6c70 7ebd 47e1 863d
00000140: fad4 da3c 4443 a3bd 3e89 8e3d ddab 84bd
00000150: 6874 03be 529e 2f3d 9545 a23d 69b0 3a3d
00000160: fac2 d2bc 6594 5a3d 83ff ce3c 81e7 6b3d
00000170: 9e9a cebd a4f8 f4bc 1b76 50bd 2f62 303c
00000180: bf56 963d c5f6 813d dd51 803c e49d afbd
-0.096983574 -0.024665955 0.03232078 -0.01052831 -0.11234196 -0.08383903 0.032106098 0.018292502
-0.07092303 -0.0029744264 -0.022618474 0.09991751 0.1161989 0.013702857 -0.03236038 -0.08958679
-0.080306545 0.10735402 -0.07604099 -0.1060752 0.00090110867 0.09403886 -0.046578456 -0.03253955
0.038226403 0.097109176 0.06359338 -0.051724013 0.0026037476 0.028230876 -0.012319557 -0.06784136
0.0056305034 0.012898478 -0.017426578 -0.050931323 0.038144432 0.07983536 0.097484455 0.03573965
-0.048241537 -0.06854587 -0.06666106 -0.0588351 -0.09690528 -0.068851985 -0.035932075 0.07782151
0.08544873 0.0059030196 0.030200671 -0.02967458 -0.07110484 0.112043045 -0.0546685 0.0012833144
-0.027181763 -0.08551544 0.0257238 -0.0012077191 -0.0077533675 -0.072423786 -0.013684113 0.112469204
0.0763346 0.028475648 -0.07673487 -0.09911538 -0.041693974 -0.060428143 0.08864837 -0.07004238
0.058648854 -0.06828431 -0.092242956 0.083744064 0.10138053 0.10052432 -0.062118933 0.06585937
0.026712883 -0.07971814 0.069597706 -0.06478093 -0.12837374 0.042875595 0.07923428 0.045578394
-0.025727738 0.053364176 0.025268322 0.057593826 -0.10088085 -0.029903717 -0.050893884 0.010765596
0.07340764 0.06345896 0.015664035 -0.08575037

net.8.weight f4 [100, 100]
00000000: beca cbbd d02a 1739 61a2 71bc fc82 a3bd
00000010: a79b 523d 2689 9c3d 494d b3bd 2f1c 2f3d
00000020: 7ec7 49bc 8ff2 a93d 68e5 d0bd 5c08 3dbc
00000030: 7160 963d faef 7f3d 0186 993d 9524 cc3c
00000040: d317 043c 48e0 8a3c 4855 0f3d cec8 223d
00000050: d2d6 9cbc 61f3 2d3d 7190 9bbc b943 313d
00000060: 03bb 853b 7069 fbbc f14e 933c 1843 c63d
00000070: e79a cf3d 9e72 4f3d 91f2 923a bf57 aebc
00000080: 8902 9b3d d4b1 babd 0800 293d 45fc 2d3e
00000090: 0eb3 2b3d c1e0 903c 1afb 8dbd 2653 02be
000000a0: 75e4 c8bd 9fbe 66bd ee1e 6b3d e7e4 90bd
000000b0: fab6 88bd 0795 f33d 1a64 963d c3eb 44bd
000000c0: ce81 a53d 1c2d 85bd 1deb 873c eff1 003e
000000d0: fde2 35bd ece0 183d 0cbc 0dbd 8b7a 45bd
000000e0: 3c19 b0bc 98aa f2bd 0e05 bfbd f8c4 703d
000000f0: a6fe bc3d 4b94 64bd 3251 a6bd 77ed 893b
00000100: e5f2 98bd 362c 79bb 6ac8 87bd 4232 ca3c
00000110: 7cb8 2dbd da40 c43d 7c2a a03d abaa eabd
00000120: 2b29 fdbd 4202 d1bd 48e0 063c 92ad a33d
00000130: 8849 e1bc e21c a2bb 03d8 8f3d 5ad0 c73c
00000140: a1dd a73d 8c8d 70bd 0e14 6d3c b0e0 5a3d
00000150: bbde 5b3d 2a0b 653c f3a5 9dbd def7 c1bd
00000160: 14f3 c63c 674f 70bd 001f 8e3d 7ee4 bebd
00000170: 1c6c 923d fca2 a8bd ed15 cb3d d5ee d0bc
00000180: 6920 b73d 088f 8c3d 6b7e a03c 67c0 703d
00000190: b587 d6bb 930a 1e3c 2a00 20bd 9f08 9d3d
000001a0: ce89 773d 369d 9d3c 00ce babd 9e1d 48bd
000001b0: 2406 f3bd 4c1f c8bd 7184 753d 1eef 803d
000001c0: 1ac2 923d 0468 a6bd 477c f0bc fe4f 013d
000001d0: c05c c13d d47e a93d 5199 a0bc 99ad 9abd
000001e0: b1c1 dfbc cbaa b5bd 55f9 a03d d71c 463d
000001f0: 4fe0 8abd bba8 79bd bded b43d c57c 0cbe
00000200: c8f7 7b3c ea66 b0bd b03e 8bbc 208d 32bd
00000210: 8652 b4bd f03a 70bd 72c9 823c 58f5 0e3c
00000220: 6ae3 643d e2d5 8b3d 9d4e 86bd 4065 4ebd
00000230: 47b8 b1bd fd94 8ebc 658b d5bd ed7d 313d
00000240: 6ed6 b0bd fcd2 5fbd 51f4 b13d cc03 d73d
00000250: 0c57 3abe 0305 ab3d 14c2 f4bd ffbd 8cbe
00000260: f9bf 68be 0f85 81bc cdf5 a83d 91db b5bd
00000270: 0bb5 bf3c 1c31 32bd f5ce 82bc 96d5 6ebd
00000280: 5128 df3d ea3b 863d 592f 7f3e d41b 62bd
00000290: a475 923d c4ef 833d d4bc 1f3d 7b23 6abd
000002a0: fdb1 05bd cc8f 32bd bd42 96bc 6610 03be
000002b0: d7d4 49bd 728b 30bd c2f0 a6bd 0a2d 32be
000002c0: 77c6 e4bd fab6 65bd 5534 e23a a93c 66bd
000002d0: 0497 07be 0f72 02bd 4ea6 97bc b07e 55bd
000002e0: 93d6 b9bd ebba 2ebd 3ddd e03c e745 51bd
000002f0: edca 63bc 6424 f03c 0286 0ebb c421 7939
00000300: 4b6d d8bc 40b9 14be 6690 15be d524 3abc
00000310: 7b3a 563d b417 8bbd ed79 fcbc 60ac 5c3c
00000320: 5b68 3b3c 9de5 45bd 64c8 0a3e b42b 9ebe
00000330: 33a6 6c3e 3939 823e bc11 16bd f157 48bd
00000340: af65 cb3d 0960 3d3d 358a 793d 2f08 743d
00000350: 42cf 93be 4493 54bc 019b 32bd b111 0bbd
00000360: cb33 9b3d 8cca 84bd 4dac b53d e3f5 3cbd
00000370: c966 803e 3aee 09bd 58c7 2f3e 9445 943d
00000380: c143 973c 3351 243e a1d8 9bbd 5a0f 8f3d
00000390: d614 a7bc 10da 31be 56c9 10bd d890 bd3d
000003a0: 2976 a93c f1a3 76bb 1b3d c43c 5bff ad3e
000003b0: f7a8 783d 79b7 a6bd c392 64bd 50f3 d33d
000003c0: c2c1 133e 76a8 26be b9b0 21bd 276d 443e
000003d0: 3487 2b3e cd65 70bd 4a1e 82bd 3a04 313d
000003e0: 06b7 d53d e288 5cbe 6ff8 e63d 9d40 543e
000003f0: 27b3 a93d be6b 2cbe 9b73 123e 83b2 04bd
-0.099507794 0.00014416431 -0.014748187 -0.07983968 0.051417973 0.076433465 -0.08754975 0.042751487
-0.012315629 0.082982175 -0.10200006 -0.011537638 0.073426135 0.06248472 0.07496262 0.024919787
0.008062321 0.016952649 0.03499344 0.039742284 -0.019145403 0.042468432 -0.018989773 0.043277476
0.0040811314 -0.030689925 0.017981978 0.09680766 0.10136967 0.050646417 0.0011211206 -0.021282075
0.07568843 -0.09115949 0.041259795 0.16990764 0.041918807 0.017685296 -0.069326594 -0.12727031
-0.098092 -0.056334134 0.057402544 -0.0707491 -0.06675525 0.11893659 0.073433116 -0.048076402
0.08081399 -0.065027446 0.016591603 0.1259229 -0.044405926 0.037323877 -0.034603164 -0.04821257
-0.021496408 -0.118489444 -0.09327136 0.058781594 0.09228258 -0.055805486 -0.081209555 0.004209216
-0.074682035 -0.0038020737 -0.06630023 0.024682168 -0.042412266 0.09582682 0.07820603 -0.114583336
-0.12361368 -0.10205509 0.008232184 0.0799209 -0.027500883 -0.0049472908 0.07023623 0.024391342
0.08196569 -0.05872874 0.014470113 0.053436935 0.05367921 0.0139797125 -0.07697668 -0.09471105
0.02428583 -0.058669474 0.069395065 -0.09320925 0.071495265 -0.08234212 0.099162914 -0.025504509
0.089417286 0.068632185 0.01959153 0.05877724 -0.0065469393 0.009646076 -0.039062656 0.0766766
0.060434155 0.019240003 -0.09121323 -0.04885637 -0.118664056 -0.097715944 0.05994076 0.06295608
0.07165928 -0.08125308 -0.029356135 0.031570427 0.09441519 0.08276144 -0.019604357 -0.075526424
-0.027314039 -0.08870467 0.07860056 0.048367348 -0.06781065 -0.06095193 0.088344075 -0.13719471
0.0153789 -0.08613379 -0.016997665 -0.04359162 -0.088048026 -0.058649957 0.015965197 0.008725487
0.05588094 0.06827904 -0.06557963 -0.05038953 -0.08677726 -0.017405028 -0.10426978 0.043332983
-0.08634649 -0.05464457 0.08689178 0.10498771 -0.18197268 0.08350565 -0.1195108 -0.27488706
-0.22729482 -0.015810518 0.08250008 -0.088797696 0.023401758 -0.043503866 -0.015967825 -0.05830916
0.108963616 0.065543965 0.24920405 -0.05520232 0.071513444 0.06442216 0.03899844 -0.057162743
-0.032640446 -0.043594167 -0.01834237 -0.12799224 -0.049275246 -0.043101735 -0.0815139 -0.17399994
-0.11170667 -0.056082703 0.0017258028 -0.056210194 -0.13241202 -0.031847056 -0.018511917 -0.05212277
-0.0907413 -0.042658728 0.027449245 -0.051092055 -0.013903362 0.029314227 -0.0021747355 0.00023759069
-0.026419302 -0.14523792 -0.14605865 -0.0113613205 0.052301865 -0.067916304 -0.030819857 0.013468832
0.0114384545 -0.04831468 0.13553005 -0.30892718 0.23110275 0.25434282 -0.036638007 -0.048911992
0.09931504 0.046234164 0.06092282 0.059578117 -0.28869063 -0.012974564 -0.043604854 -0.03395242
0.07578238 -0.06483945 0.088707544 -0.046132933 0.2507842 -0.033674456 0.17165887 0.072398335
0.018464925 0.160466 -0.07609678 0.0698535 -0.020395678 -0.1736834 -0.03534826 0.092561424
0.020686226 -0.0037634338 0.023954919 0.33983883 0.060708012 -0.081404634 -0.055804025 0.103491426
0.14429381 -0.162752 -0.039475176 0.19182263 0.16750795 -0.058690835 -0.063534334 0.04321692
0.104352996 -0.21536592 0.11277854 0.20727773 0.08286124 -0.16837975 0.14301912 -0.032396805

net.8.bias f4 [100]
00000000: 557e e33d 5f4b a43d 3c30 05bd f2e0 be3d
00000010: 24ed 833d d231 dc3c 33e1 e83d 166b 283c
00000020: 37e2 773b da93 3a3c 6d29 dbbc 370a d8bd
00000030: b214 e83a da6b b73d 12ac e2bc da1b 92bd
00000040: c3c7 ecbc 943f 493c e9df bdbc d67f 7d3d
00000050: 5101 6bbd d486 f0bd 488c 35bd 7c20 1e3d
00000060: 0c71 18bd 6511 773d 81dd 453c 1483 8f3c
00000070: 634f b7bd 721e 85bd 40da 893d abbe d4bd
00000080: 85a6 0f3e 14ed cabc 6135 8bbd 2fb8 d13d
00000090: 5401 d03d 0dd7 5a3c ec1f c83c 3b51 1aba
000000a0: dd8c 923d 3976 5ebd 243b c63d 3d79 b23c
000000b0: 8a56 1cbb 6c5b 9fbc d064 28bc ed54 65bc
000000c0: ed8e 22bd 9034 933d b19f 1f3d 2355 94bd
000000d0: 20a6 7dbc 9693 9abd 0249 80bd d5a8 283d
000000e0: 4082 143d 0106 273d 809b d63c ebd2 9a3c
000000f0: 206a dcbc 6f44 f1bd 025c 263c aea5 b6bc
00000100: 8612 c53c 7d7a 4abd 785e c2bd 82b6 27bd
00000110: e1dd aa3c e074 94bd ce0f ac3d 1f81 f63c
00000120: a31e d2bc a550 643d e0ce a6bd 6f3e 12bd
00000130: f1a2 9bbd 63b9 943d b258 cf3d 4e4f 01bc
00000140: eb45 02bc fbb1 d73c dd9b 883d a3a6 903d
00000150: 43e7 ff3a e56f b03d 4ed3 ab3d bf81 cebb
00000160: 7345 bfbc 4926 86bb a76d 38bd bb99 89bd
00000170: 5768 3dbd dfad 10bd 71c5 bebd 1d39 093d
00000180: 2f1a c2bd 10c3 03bd 1e6a 91bd f04f f2bc
0.1110808 0.080221884 -0.032516703 0.09320249 0.06441715 0.026879225 0.11371078 0.0102794375
0.0037824044 0.01138779 -0.026753152 -0.10548823 0.0017706363 0.08956118 -0.02766994 -0.071342185
-0.028903848 0.012283225 -0.023178058 0.061889492 -0.057374302 -0.117444664 -0.044323236 0.0386052
-0.037217185 0.060319323 0.012076736 0.017518558 -0.08950689 -0.064999476 0.06731081 -0.103879295
0.14028366 -0.02477125 -0.067972906 0.10240208 0.10156503 0.013356936 0.024429284 -0.0005886738
0.07155774 -0.054311965 0.09679249 0.021786327 -0.0023855292 -0.019452773 -0.010277942 -0.013997299
-0.039687086 0.0718776 0.038970653 -0.07242801 -0.015481502 -0.07547681 -0.06263925 0.041176636
0.03625703 0.04077721 0.026197195 0.018899402 -0.026906073 -0.11780631 0.010153772 -0.0222958
0.024056684 -0.04943322 -0.09490675 -0.040945537 0.020857753 -0.07248855 0.08401452 0.030090867
-0.025649374 0.05574097 -0.08144927 -0.035704073 -0.07599438 0.07261922 0.10124339 -0.007892443
-0.00795124 0.026329985 0.066703536 0.070630334 0.0019523877 0.08615092 0.083899125 -0.006302088
-0.023348546 -0.0040939194 -0.045026448 -0.06718775 -0.046242084 -0.035322066 -0.09315003 0.033501733
-0.094776504 -0.032168448 -0.07100318 -0.029579133

net.10.weight f4 [100, 100]
00000000: 36a6 b53c 301b b23d b859 e9bc 184e 923d
00000010: dbca c93d ed3a a0bc 7e76 4d3d af76 d83c
00000020: ad6b 873b feb1 973c 5080 d4bd 3378 a9bd
00000030: 5943 933d 9e67 06bd be62 1d3e 34e4 ab3d
00000040: 6e2b c3bd f8ac b13d 6935 ba3c a64d 0ebd
00000050: 9631 c3bd 8ba2 9cba 1cc1 18bd b494 9fbd
00000060: c992 d1bd c54d 553d f207 96bd 1f20 c9bd
00000070: 0d1a 5abd e558 113d 30f8 ddbd a805 51bd
00000080: 1c06 d23c 93be b73c 0ee1 66bc 92c3 ce3c
00000090: a63a b8bd 9dd4 ddbd 7fa7 1bbc c88a 32bd
000000a0: dbef a4bc 0719 da3c baba 8b3d 0b88 b83d
000000b0: 3201 833d 5e9b 5cbd 537a d1bc 2465 cb3d
000000c0: d55d e0bd 0a66 183d e1e3 34bd 9086 8e3d
000000d0: 8e5e e43a 2a8d 8f3d eeb5 bebd aaba 97bd
000000e0: 12c6 923d 62b5 aa3b 8fea 893c efb7 ac3d
000000f0: 6611 20bd 4e75 913d bde9 1e3c 6b5a 1e3c
00000100: 4bf2 923d 6e23 f13b fd41 76bd 404a 543c
00000110: 7061 1dbb 702d 9e3d 6658 ed3c 37a5 d4bc
00000120: f751 9f3c 6c84 41bc dffb 213c 517a 8d3d
00000130: 57a6 773d 6797 19be 7f63 d53d 0210 58bc
00000140: db94 a7bd fb8d b5bd 91d2 643d 8e22 393d
00000150: b20d a73b 3a9f c83c 9900 063d 0c6c 6dbd
00000160: c0d7 dd3c 86f7 d6bd 63c0 fa3d eadd a7bc
00000170: 87bf f73c 7175 853d bd88 adbd 0ea6 613d
00000180: 7574 31bc 0ef2 213d 774c c7bd e2e4 70bd
00000190: b5a8 d73d 6c9d 5f3d 51e9 d23c b1dc d63c
000001a0: 2e6d b03d 8c8e a53d 61ac 01bd 5e50 c5bd
000001b0: b86a 9b3d bb62 8b3d 19aa ad3d 7542 08bd
000001c0: 9497 ad3d df8a 16bd 6256 20be 3c4d f6bd
000001d0: 3e17 553d 0b11 97bc dece 95bd 5b16 7bbd
000001e0: cedd 6d3c dcd3 98bd 97b9 d7bd 8d30 bc3d
000001f0: 6793 df3d 2ccf 97bd 0ae5 983d 5afb d83d
00000200: b3f7 01bd 6cd4 79bd c08a 91bc 0b5f 9abd
00000210: bb1c ab3d c7cc c9bd 15f3 643d 62b2 9d3d
00000220: ebca 0f3d d69a 7abd 6ee1 143d da1e 2a3d
00000230: 544c 753d 9fa2 4ebd e149 523d fe11 dcbd
00000240: 4697 7cbc 92aa 953c 2b5c a83d 751d 0abd
00000250: fce7 7c3d 8f23 953d 4dfa 913d f28f 9e3c
00000260: 8e15 1c3d 8a9f 51bd 809f 5f3d 46f4 20bc
00000270: 9bd4 d4ba f291 093e 1274 61bd addf 45bd
00000280: d3ab 4dbd 1089 19bb 69ee d23d 2a95 95bd
00000290: 5107 9c3d e442 dd3b 1b9b 363d 30ce 38bd
000002a0: f086 6a3c f68b 64bd d17c d5bd 26fb 173d
000002b0: fd3b 313b 33a2 24bd a721 86bd 58a3 ba3d
000002c0: 97ca 83bc da53 033e 5897 983d e5b8 a73b
000002d0: 943e 15bd 2c62 a9bd 8117 bbbd 3677 a5bd
000002e0: 0e9b 793d 0005 f23d 694e 1bbc f418 b23d
000002f0: ebde 4c39 ff86 6d3d cfda 863d 9532 7bbc
00000300: 1dc1 cfbd 3928 d7bd d4f0 a93b 818e f53d
00000310: 817a d4bd 1948 cbbd 61a3 a6bd 86b7 55bd
00000320: 6037 5d3c 053b 243d 92b8 163d 60ae c4bd
00000330: d5ce ab3d a8cf 9ebd 9cd2 853d 07f2 8cbb
00000340: acc4 76bd 0422 ac3d 8733 07bd 0d08 513d
00000350: 6253 89bd e37e 2dbd a613 943c afe2 6a3d
00000360: 6ab5 263d 566c 97bd f3d7 103d 0dc9 9c3d
00000370: 6b6c 2dbd d6ea 4ebd d20d 13bd 39a5 f9bc
00000380: b948 4f3d 0554 ac3d 9490 b13d fcaf 8d3d
00000390: fe23 453c 7f2b edbc bab7 663d 6b05 2abd
000003a0: f030 0e3d d185 18bd 8ebe e5bd 3990 60bd
000003b0: f371 9c3b e91e 3c3d 1378 f9bd 39a3 163d
000003c0: ebd3 95bd b441 e43c 7dd9 483d 5150 843d
000003d0: 5cc2 a8bc 522f 40bc 1d39 9f3d d69d a83d
000003e0: 8bf1 b9bd e683 f53c 5d4d 2c3d 5efe 16ba
000003f0: 0d0e 28bd f3ce a63c 0b89 273c 246f c03c
0.022173982 0.08696592 -0.028485164 0.071438015 0.09853145 -0.019559348 0.05016183 0.02642378
0.004132709 0.01851749 -0.10376036 -0.08274879 0.0719058 -0.03281366 0.15369698 0.08393136
-0.09529768 0.08675569 0.022730546 -0.03474202 -0.09530942 -0.0011950297 -0.03729354 -0.07792035
-0.10233075 0.05207612 -0.07325734 -0.0982058 -0.0532475 0.035485167 -0.10838354 -0.051030785
0.025637679 0.02242974 -0.014091743 0.02523974 -0.08995561 -0.108315684 -0.009500383 -0.043589383
-0.020133903 0.026623262 0.06822725 0.09010323 0.06396712 -0.053859107 -0.025571024 0.099314004
-0.10955397 0.037206687 -0.044162635 0.069592595 0.0017423199 0.07009347 -0.09312044 -0.0740865
0.07166685 0.005209611 0.016835479 0.0843352 -0.039079092 0.07102452 0.009699282 0.009665112
0.0717512 0.00735896 -0.060121525 0.012957156 -0.0024014376 0.0772351 0.028972816 -0.025957687
0.019448264 -0.011811357 0.009886711 0.06908096 0.06046137 -0.14999162 0.10419368 -0.01318741
-0.08182689 -0.08864971 0.055864874 0.04519897 0.005098068 0.024489988 0.032715414 -0.05796437
0.027080417 -0.1049643 0.12243726 -0.020491559 0.030242695 0.06516541 -0.084733464 0.055090003
-0.010830988 0.039537482 -0.097313814 -0.05881203 0.10530225 0.05459349 0.02574602 0.02622828
0.086145744 0.08083829 -0.031658534 -0.096344694 0.07588714 0.06805941 0.08479709 -0.033266503
0.08476177 -0.03675353 -0.15657952 -0.1202645 0.05202412 -0.018440744 -0.073148474 -0.061300617
0.014518214 -0.07462284 -0.10533445 0.09188948 0.10916787 -0.07412562 0.07465561 0.105948165
-0.031730365 -0.060993597 -0.017766356 -0.07537659 0.08355089 -0.09853511 0.055895884 0.077000394
0.035105627 -0.06118282 0.0363478 0.04153333 0.059887245 -0.050448056 0.051339988 -0.10745619
-0.015416926 0.01826981 0.08220705 -0.0337195 0.061744675 0.07282173 0.07127819 0.019355748
0.038106494 -0.05117754 0.05459547 -0.009823864 -0.0016237678 0.1343458 -0.055042334 -0.048309017
-0.050212692 -0.0023427643 0.102993794 -0.073038414 0.07618583 0.0067523587 0.044581514 -0.04511851
0.014314398 -0.05579754 -0.104241975 0.03710475 0.0027043812 -0.040193748 -0.065493874 0.091131866
-0.016087813 0.12824956 0.074507415 0.0051184767 -0.036436632 -0.08270678 -0.091353424 -0.08079378
0.060938887 0.1181736 -0.009479144 0.08696166 0.00019538 0.05799007 0.06584703 -0.015331884
-0.10144255 -0.10505719 0.0051861797 0.11990071 -0.10374928 -0.09925861 -0.08136631 -0.052176975
0.013501972 0.040095348 0.036797114 -0.09603572 0.083890595 -0.07754451 0.06534311 -0.004301313
-0.060246155 0.084049255 -0.033008125 0.05103307 -0.06705357 -0.042357337 0.018075775 0.05734509
0.040700354 -0.0739371 0.035362195 0.07655535 -0.042339724 -0.050516926 -0.035901852 -0.030474292
0.050606463 0.08414463 0.08670154 0.06918332 0.012032507 -0.028951405 0.05632756 -0.041509073
0.03471464 -0.037236992 -0.11217986 -0.05482504 0.004774326 0.045927916 -0.121811055 0.036776755
-0.07315811 0.027863361 0.049035538 0.06460632 -0.02060049 -0.011730032 0.07774565 0.0823323
-0.09079274 0.02997012 0.042065967 -0.00057599496 -0.041029025 0.020362353 0.010225545 0.023490496
