models/heatalpha/tanh/heatalpha_41.pth (torch, 977047 bytes, 51 tensors)

net.0.weight f4 [100, 3]
000000 33 b6 25 be 01 bc 10 bf 92 35 bf 3c ce 60 07 bf
       -0.16182785 -0.5653687 0.023340974 -0.5288209
000010 66 83 a7 be 92 8f 58 3e 98 5c c4 be 3f d6 56 bb
       -0.32717437 0.21148518 -0.38351893 -0.003278151
000020 db a6 d7 3e cc c8 61 3e 01 36 35 3e 4e b8 49 3e
       0.42119488 0.22049254 0.17696382 0.19699213
000030 f2 3a 92 39 da 4c 47 3e a3 14 b0 3e a2 ea 18 3e
       0.00027891208 0.1946291 0.34390745 0.14933255
000040 24 40 fb 3f 3e 06 d8 be 21 58 28 3f e5 e5 d3 3e
       1.9628949 -0.42192262 0.65759474 0.41386333
000050 bb 6d 82 3e ec db 2f be 70 4d 3c 3e 6f 2c 28 bd
       0.25474343 -0.17173737 0.18388915 -0.041058
000060 89 c4 3c 3e 10 0b d3 bd 45 95 25 bf fd 1c f7 bc
       0.18434347 -0.103048444 -0.6468089 -0.03016519
000070 4c e9 69 bd e6 9b f6 3e 03 ae 85 bd 59 12 12 3d
       -0.057107255 0.48165816 -0.06527331 0.03566203
000080 b1 41 16 3f d5 25 c1 3e 4d 00 d4 bd 92 84 02 bf
       0.5869399 0.37724176 -0.1035162 -0.50983536
000090 1e 73 1e 3e 64 04 93 3d a8 c1 fd be af 4d 92 3e
       0.15473601 0.07178572 -0.4956181 0.28574893
0000a0 35 c4 b7 3d fc e8 e3 3e b8 28 61 be 77 e4 56 3e
       0.089729704 0.4451369 -0.21988189 0.2098559
0000b0 22 c6 e4 3e a4 4c b7 be 22 62 95 be c1 77 5f 3e
       0.44682413 -0.3580066 -0.29176432 0.21823026
0000c0 f0 e8 2e 3e b6 7e a6 3e 06 92 0c be fc 47 72 3e
       0.17081046 0.32518548 -0.13727579 0.23660272
0000d0 f6 e9 1b bf 76 f3 88 be ee 97 c1 be ec 95 96 be
       -0.6090387 -0.26748246 -0.37811226 -0.29411256
0000e0 ae 3e aa 3d 89 da 2a 3f ad 23 85 3e 19 9c 32 3f
       0.083127365 0.6673971 0.2600378 0.69769436
0000f0 f1 06 7c be 7c 30 ac 3e 4f 5e 25 bf 52 c4 c9 bd
       -0.24612023 0.3363074 -0.6459703 -0.09851898
000100 d8 75 94 bd 8e 0d 09 3e 9a 9d a9 3e c0 a5 09 bf
       -0.072490394 0.13384077 0.33128053 -0.5376854
000110 36 b7 d1 be d0 ea ba be 3c 26 fa 3e ba e1 c2 be
       -0.4096009 -0.36507273 0.48857296 -0.3806284
000120 09 70 96 be b6 77 b5 be 20 14 35 bd 34 d8 d3 be
       -0.2938235 -0.35442895 -0.044208646 -0.41375887
000130 66 27 0a bf fd e8 a4 3e 0a a0 3e 3f 01 a0 c5 3d
       -0.5396637 0.32209006 0.7446295 0.09649659
000140 74 9b da bd f4 01 1a 3d 35 de 05 bf 98 29 5a 3d
       -0.106741816 0.03759952 -0.52292186 0.053262323
000150 68 57 e4 3d 08 f1 a7 bd 10 55 d2 3e c4 d0 fc bb
       0.11149484 -0.0820027 0.41080523 -0.0077153165
000160 32 81 79 be c3 3a 97 be 49 a3 ab 3e 00 e4 49 3e
       -0.2436569 -0.2953702 0.33523014 0.19715881
000170 20 ee 7b 3d f8 ac 07 bf a7 5e 20 3d 3a e5 4b 3d
       0.06150639 -0.52998304 0.039152768 0.049779154
000180 1b d2 31 be de a2 ae 3e 37 14 d4 3e a6 b3 41 3e
       -0.17365305 0.34108633 0.41421673 0.18916187
000190 a1 25 1d be 6f 3d 1e 3f 07 4a 6e 3c 6a 34 21 3e
       -0.15346386 0.6181249 0.014544017 0.1574265
0001a0 fa e0 62 3e a1 bc 99 3e 9c 51 c1 3d f5 fa 94 be
       0.22156134 0.30026725 0.09439394 -0.29097715
0001b0 e1 4b 96 3c db 7e 48 bf 59 d4 80 3e d5 ce ed 3d
       0.018346729 -0.78318566 0.25162008 0.11611716
0001c0 4b ef b6 be e3 e0 37 bd 06 e5 c7 3d 6e f3 6a 3e
       -0.3572944 -0.044892203 0.0976048 0.22944424
0001d0 8a 15 04 3e 78 24 b2 be ea 84 e3 3e 71 ef bb 3e
       0.12898842 -0.34793448 0.44437343 0.36706117
0001e0 12 0f 08 3e b8 4e c3 3e 8d 07 af bd ca 80 27 3e
       0.13286999 0.38145995 -0.08546362 0.16357723
0001f0 4c 34 b1 bd 3e 3a 19 be 69 bd e8 be c1 de f2 bc
       -0.08652553 -0.14963624 -0.45457008 -0.029647233
000200 29 b0 99 be 6f e6 44 be 0f ed 25 bf 75 e5 ea 3e
       -0.30017212 -0.19228528 -0.6481485 0.45878187
000210 d1 b6 42 be b3 85 7c bf 61 77 d4 3e af a7 05 3f
       -0.19015051 -0.9864151 0.4149733 0.5220899
000220 71 5c db be 6d 83 2d be 9d 67 82 be 2d 10 c8 3d
       -0.42843965 -0.16944666 -0.25469676 0.0976871
000230 e0 1f ee be fa c4 8c be ec 9c a8 3e d4 00 c0 be
       -0.46508694 -0.2749403 0.32932222 -0.37500632
000240 3b e7 5c be 4c 70 fb 3c 56 d0 11 3f 21 ab a6 be
       -0.21572582 0.030693196 0.5695852 -0.32552436
000250 8e 94 06 3d e0 56 0a 3e 1c 4e 04 3e 1f 75 39 3c
       0.032856517 0.13509703 0.12920421 0.011319428
000260 70 05 34 3e d2 8d 38 be ff 9a c2 be 56 df 84 3d
       0.17580199 -0.1802285 -0.38008878 0.064879104
000270 dc ea cf 3d 55 1a 55 be 36 06 0e bf 56 4e 84 be
       0.10152218 -0.20810826 -0.5547823 -0.25841016
000280 f3 86 12 be 1d b0 06 3e 3d 47 a7 be 5a ad 12 be
       -0.14309292 0.1315312 -0.32671538 -0.14323941
000290 e9 3f 41 bc ce 97 e8 3d d9 3e 20 3f 78 7e cb be
       -0.0117950225 0.113570794 0.625959 -0.39744925
0002a0 33 73 1a be 36 81 0e 3e 96 05 b5 3e 80 d8 20 3e
       -0.15083008 0.13916478 0.35355824 0.15707588
0002b0 d3 e2 28 3f e0 cb 30 be c2 07 a9 be 1a 03 2c 3e
       0.65971106 -0.17265272 -0.3301373 0.16798058
0002c0 fd e4 0a 3f ba 63 2c 3f a3 82 92 3e e2 49 3d be
       0.5425566 0.6733967 0.28615293 -0.18485215
0002d0 24 f8 42 be a5 f0 5d 3e 06 87 56 3e 77 93 a1 be
       -0.1903997 0.2167383 0.20949945 -0.3155782
0002e0 ee aa ec 3d 55 db cf 3e c3 72 d6 bd e3 1b 2f 3e
       0.1155604 0.40597025 -0.10471108 0.17100482
0002f0 58 b0 d7 3e b0 21 9f 3e d5 cb 83 bd 8f f9 cb 3d
       0.42126727 0.3108039 -0.06435362 0.09959709
000300 2d a9 42 3e 24 e6 b0 bd 2d f7 c8 3f 0b c5 11 bf
       0.19009848 -0.08637646 1.5700432 -0.5694129
000310 99 e7 d1 3c 42 ed db 3d 1a 3c 92 3d e6 6c ac bd
       0.02562313 0.10738613 0.0714037 -0.08419208
000320 18 a8 05 bf 98 9f a8 be 76 6f fe bd 7d 43 87 3c
       -0.52209616 -0.3293426 -0.12423603 0.016511673
000330 77 77 27 bf b9 2f 11 bf 55 0e 27 bf 97 e3 f4 3d
       -0.65416664 -0.56713444 -0.65256244 0.11957472
000340 6d 0c e4 3a 44 34 e5 3d 37 4c b0 3e 2c 89 51 3f
       0.0017398723 0.111916095 0.34433147 0.8184993
000350 8a 03 16 bf 8c d6 54 be 7a e7 cb be f7 69 fc 3e
       -0.5859915 -0.20784968 -0.3982504 0.49299595
000360 8b 7d dc 3d 29 d1 82 3e e3 ed 8c bd 4b 87 c3 be
       0.10766133 0.25550202 -0.06881311 -0.38189158
000370 b6 3d c4 3e a9 78 13 3f 2d 8d 02 3e 0a 8c d6 3e
       0.38328332 0.5760599 0.12749167 0.41903716
000380 68 b8 03 3e 95 a8 44 3d aa 90 6a 3e 1e f4 61 3e
       0.12863314 0.048012335 0.22906747 0.2206578
000390 c9 ee 2d 3f 6a 36 1c 3f 98 62 1b 3d a5 cb 60 bd
       0.6794248 0.6102053 0.037935823 -0.05488171
0003a0 14 f5 36 3e d1 e0 e8 3e 7a 3e b6 be 0e f7 03 bf
       0.17866927 0.4548402 -0.3559454 -0.5154885
0003b0 a9 83 f7 3c 45 2e b2 ba 81 14 15 be ea 22 26 3f
       0.030214148 -0.0013594112 -0.14558603 0.64897025
0003c0 88 4c 81 bd 72 84 10 3e e2 be ac be ba a6 3f bf
       -0.06313425 0.14113024 -0.33739382 -0.7486378
0003d0 d3 70 01 be da d9 a1 bd e9 03 cb 3e 94 6f d5 be
       -0.12640695 -0.0790288 0.3965142 -0.4168669
0003e0 3f 6a 8b 3e 2a d9 c6 bd a1 6b 9e be d2 74 3d bd
       0.27229497 -0.097093895 -0.3094149 -0.046253987
0003f0 0c 84 28 bd 6c 1b 6c bf 4c be 55 3d 63 27 1f 3e
       -0.041141555 -0.9222934 0.052183434 0.15542369

net.0.bias f4 [100]
000000 7e 4f d7 bd c3 67 b5 be 22 7c 6e 3e ed e4 ee bd
       -0.10513209 -0.35430726 0.2328954 -0.11664758
000010 8f 66 98 3e af a0 82 3d f5 e2 9c 3c 7b 56 d1 3e
       0.29765746 0.06378304 0.01915119 0.40886292
000020 d2 fa 6e bc 25 d9 0d 3f 80 39 17 bf 3e 27 85 bd
       -0.014586167 0.5540946 -0.59072113 -0.065016255
000030 1e 5b 0a bd 53 4b 38 bf 1c 67 a2 3e d2 1e 0a bf
       -0.033778302 -0.71989936 0.3171929 -0.5395328
000040 38 90 02 bf 6a db ee be 31 d2 28 3f 0f e7 9a 3e
       -0.5100131 -0.46651775 0.65945727 0.3025441
000050 e0 ea 08 3f c0 a7 4f 3e a8 80 0b bf 81 11 07 3d
       0.5348339 0.20278835 -0.5449319 0.032975677
000060 0c 17 e3 3d cd ab bc bd f7 26 9c 3d 00 a6 09 3c
       0.1108838 -0.09212456 0.076246195 0.008401394
000070 29 f1 a7 3e 76 16 c7 3e 8b 7c 2a bf 58 ae 03 bf
       0.32801178 0.38884324 -0.6659629 -0.514379
000080 52 d7 9b 3e 01 e1 ad 3e aa 08 14 bf 20 e1 5c 3e
       0.30437714 0.33960727 -0.5782572 0.21570253
000090 65 11 91 be 04 38 e6 be 21 05 bf 3d 4f 08 bd 3e
       -0.28333583 -0.44964612 0.0932715 0.369204
0000a0 d2 34 82 be 7a eb ca 3d 5c 28 69 bd f1 2c 73 bc
       -0.25430924 0.09908195 -0.056923255 -0.014842258
0000b0 82 1a 0f 3e 57 5e 37 be 00 bf 3b 3e 84 37 0b 3f
       0.13974956 -0.17907082 0.1833458 0.54381585
0000c0 9c e8 fb be 7c 0e 12 3f c7 8d 00 bf 6c d4 0f bf
       -0.49200904 0.5705335 -0.50216335 -0.56183505
0000d0 e5 f1 ab 3c e0 85 59 3d 63 91 dd be 34 7c 86 be
       0.020989368 0.05310619 -0.43274984 -0.26266634
0000e0 0c d3 6f be 09 ac fb bd 3d a7 b2 be 1c 48 04 3f
       -0.23420352 -0.122886725 -0.34893218 0.5167253
0000f0 7a 24 98 3e 42 69 33 bf 0a 0a 80 be 6e 26 6b be
       0.2971533 -0.70082486 -0.2500766 -0.22963879
000100 14 a7 f7 bd c9 40 37 bb a3 e6 89 3e ab eb 07 3f
       -0.120924145 -0.00279622 0.26933774 0.53093976
000110 37 9e 0a 3e 7f e2 25 bf da 1c 75 3e 68 74 d3 bd
       0.13536917 -0.6479873 0.23936787 -0.10324937
000120 54 95 a8 3e 0b 17 86 3e 50 34 30 be af 1b 15 bd
       0.32926428 0.26189455 -0.17207456 -0.036403354
000130 bc af 2f be 76 5b 68 be 87 ca 13 3f 61 8c 12 3f
       -0.17156881 -0.2269114 0.5773091 0.5724545
000140 77 d1 48 3e 79 72 fe bd a5 ae d8 3d 11 63 19 be
       0.19611154 -0.12424178 0.10580186 -0.14979197
000150 8e 2e 8d be 6f ad 09 be 9a fb 17 3f 8e fe 87 3e
       -0.2757458 -0.13445066 0.5936829 0.26561397
000160 c5 62 0b bf 78 42 6f 3e 67 95 9a be ff 6a 20 bf
       -0.54447585 0.233652 -0.3019211 -0.62663263
000170 2c f0 00 3e 82 76 a2 3e a6 07 bf 3e 6d 7a bf be
       0.12591618 0.3173104 0.37310523 -0.3739809
000180 3c e0 a0 bd 25 c1 9e 3e b7 f4 0c be c9 a4 be be
       -0.07855269 0.31006733 -0.13765226 -0.37235096

net.2.weight f4 [100, 100]
000000 e1 2e a9 3d d0 2d 9f 3d ff 31 d8 3d 02 a4 40 bc
       0.082608946 0.0777241 0.10556411 -0.0117578525
000010 f2 2a 48 3b a6 e1 59 3d 73 61 1f bc 05 71 69 3d
       0.0030543176 0.05319371 -0.009727824 0.05699255
000020 79 90 a6 bd 8e 83 9d bb a7 e3 db bd 90 2f 36 bd
       -0.08133025 -0.0048069423 -0.107367806 -0.044478953
000030 7d 1c 4a 3d 8a 3c 52 3b f7 4b ad bc 8a e8 1a 3d
       0.049343575 0.003207954 -0.021154387 0.037819423
000040 27 e9 a0 bc 5d a6 78 3d d9 e5 4c 3b 8b 20 89 bd
       -0.019642426 0.06070553 0.003126493 -0.0669566
000050 4a 6c ac 3c 42 ef 65 3d 07 0f 16 ba 79 89 ae bc
       0.02104773 0.056136377 -0.0005724285 -0.021305786
000060 80 bb c1 3d e0 2a 87 3c 30 b0 6a bc b0 1a 29 3c
       0.09459591 0.016499937 -0.014324233 0.010321304
000070 72 7b 01 3d 59 58 94 3d 70 93 8d 3d 13 3a b3 bd
       0.031611867 0.072434135 0.06912887 -0.08751311
000080 b2 97 09 3e 86 37 85 3d d3 b1 e5 3c 2d 89 9f bd
       0.13436773 0.06504731 0.028038895 -0.07789836
000090 88 74 1b be 15 98 f5 bd 26 09 9e 3d 01 3c 81 bd
       -0.15181172 -0.11991898 0.07716589 -0.06310273
0000a0 28 55 b8 bd 91 62 a0 3c 90 22 b1 3d fc 40 c8 3d
       -0.09000617 0.01957825 0.086491704 0.0977802
0000b0 34 cb b8 3d f4 1a 45 bb ee 52 ec bc 06 d8 ba bc
       0.09023133 -0.003007588 -0.028848138 -0.022808086
0000c0 50 e2 c7 3d 4c ed e9 3d 2b af c6 bd e3 0a 96 bd
       0.097599626 0.11422214 -0.097013794 -0.07326295
0000d0 d4 b1 7a 3d 80 4c a4 3d 5a b9 9c 3b 87 8b 7b 3d
       0.061204746 0.08022404 0.004782838 0.06141236
0000e0 6f 24 b9 bd 89 ff 20 bc c2 9f 9c 3b 1b f9 ee 3b
       -0.09040152 -0.009826549 0.004779787 0.0072928793
0000f0 b7 53 ea 3d d8 7a c1 bd 37 02 2e 3d 39 d5 ca 3c
       0.114417486 -0.09447259 0.04248258 0.024759876
000100 67 0b a6 bc 38 e3 78 bd 0c 21 18 3d 15 7b 3a bd
       -0.020269109 -0.060763568 0.03714089 -0.045527536
000110 d4 e9 aa bd b2 65 3c be a4 78 9a 3d 70 40 b9 3d
       -0.083453804 -0.18398169 0.075425416 0.090454936
000120 e3 f9 c5 3d 19 23 41 bd ec fd 6c 3d ae f7 6b bc
       0.09666803 -0.047152612 0.057859346 -0.014402313
000130 1d f6 4c 3d c8 bd aa bc 28 44 35 3d d8 c2 95 3d
       0.0500394 -0.020842448 0.044254452 0.07312554
000140 6f 47 41 3d 62 85 89 3d ee 66 09 bd b5 1d c6 bd
       0.047187265 0.06714894 -0.033545427 -0.09673635
000150 39 de 94 bd f3 90 c2 3c 8e 5c 3e bd 41 d2 f5 bb
       -0.07268948 0.023750758 -0.046474986 -0.007501871
000160 f8 ee f8 bb 1d 94 8a bd 8b 27 28 be 15 87 c9 bd
       -0.0075968467 -0.067665316 -0.16421334 -0.09840218
000170 12 cf 27 3d 4f d1 3a bd 8c cf 2d 3d 34 1b 07 bc
       0.040968962 -0.04560977 0.04243426 -0.008246232
000180 ae 55 ed bc ef b4 15 3d d0 09 c8 bd eb 41 9e bd
       -0.02897152 0.036549505 -0.097674966 -0.077274166
000190 3c ca 29 3d 01 c4 99 bd f8 0a ae bc a3 c2 91 3c
       0.04145263 -0.07508088 -0.021245465 0.017793005
0001a0 20 db bd bd 1c 7c 53 bd c8 e3 af bd 0f 6c 89 bd
       -0.092703104 -0.05163203 -0.08588368 -0.06710064
0001b0 c1 e5 7f 3d 2c 7a 23 bc 70 38 8a 3d 09 ba ac bd
       0.06247497 -0.0099778585 0.06749046 -0.08433921
0001c0 03 35 aa bd d6 e6 db 3d 99 2b 3f bd 61 a2 b0 bd
       -0.083108924 0.10737388 -0.046672437 -0.08624721
0001d0 c4 a4 d6 bd 4a b3 1e bc 5a 60 6b bd 55 32 f7 3c
       -0.10480645 -0.0096863005 -0.057464935 0.030175367
0001e0 90 ac da 3d 9b ed 6b 3d 1c 62 09 bd 2c 62 13 3c
       0.10677445 0.057599645 -0.03354083 0.008995574
0001f0 fb 6d 53 bd e7 d5 bd bd e9 67 4a bd 50 37 08 3d
       -0.051618557 -0.09269314 -0.049415503 0.033255875
000200 0f a3 69 bd 44 7f ed 3d b4 ec 42 bd e9 2c 67 bc
       -0.05704027 0.115965396 -0.04758902 -0.0141098285
000210 f4 ef 8e bc 7f c6 c1 bc 30 26 84 bd 88 d2 7a 3b
       -0.017448403 -0.02365422 -0.06452596 0.003827246
000220 c5 0b 11 3c d2 c2 e8 bd b7 58 5f 3b f8 8e 8f 3d
       0.008852904 -0.11365284 0.0034079978 0.07009691
000230 87 39 cf bd c1 a1 d7 bd ed 31 9e bd 7b 12 88 bd
       -0.10118394 -0.10528899 -0.07724366 -0.0664415
000240 84 e1 a7 b8 bc 81 33 bd e4 d9 33 3d 29 b0 b9 bc
       -8.005186e-05 -0.043824896 0.04390897 -0.022667008
000250 44 b3 9c 3d c5 24 5a bd d8 58 75 bd 44 d3 c2 bc
       0.0765138 -0.053257722 -0.05989918 -0.02378238
000260 a1 44 90 bd 48 ad 9d bc 8c 3b 9f 3d 05 d8 66 3c
       -0.0704434 -0.019247666 0.077750295 0.014089589
000270 21 6b 89 3c 3e 67 62 bd ac b9 94 bd de bd 95 bd
       0.016774716 -0.05527424 -0.072619766 -0.07311605
000280 e3 4a 12 bd 4f 3e 57 3d 74 68 bf bd 9e 08 a3 3d
       -0.03571595 0.052549656 -0.09346095 0.07960628
000290 65 96 64 3c bd 25 8e bc bf 96 91 3c ce c5 30 3d
       0.0139518725 -0.01735198 0.017772077 0.04315739
0002a0 d9 ab b8 bd 68 a9 58 be 68 94 cb 3d b3 f9 98 bd
       -0.09017152 -0.21158373 0.099404156 -0.07469501
0002b0 2c cd 6a bd 22 ee 50 bd d5 83 e4 3c 0a b2 14 3d
       -0.057324573 -0.05100835 0.027894894 0.036302604
0002c0 14 eb 97 bd e1 9d 37 3d 89 88 0c 3d 90 b4 a6 3d
       -0.074178845 0.0448283 0.034309898 0.08139908
0002d0 17 ca c2 3d b7 ad b5 3d 68 88 96 bd 3d d4 aa 3c
       0.09511202 0.08871024 -0.07350236 0.020853156
0002e0 ac 19 85 bd f9 bf a5 ba 2e 49 c9 bd 73 cb a3 3d
       -0.06499037 -0.0012645713 -0.09828411 0.07997789
0002f0 73 07 95 bc 0c a3 73 3d 2e 53 79 bd ce c1 a3 bd
       -0.018192029 0.059481665 -0.060870342 -0.0799595
000300 80 d8 28 bc 8f 71 65 bd 04 b7 9c bd b9 ce d4 3b
       -0.010305524 -0.0560165 -0.07652095 0.00649437
000310 04 c1 78 3d 0d f4 26 3d bb 63 48 3c 8d 69 a1 bd
       0.06073095 0.04076009 0.012230809 -0.0788146
000320 cc 03 1b 3d 50 b1 94 bd 46 7e 55 3d 2a 17 62 bd
       0.037845418 -0.07260382 0.052122377 -0.055197872
000330 b4 2f a5 3d 2a 22 1b 3b fa eb 8f 3d f1 04 53 bd
       0.08065739 0.0023671486 0.07027431 -0.051518384
000340 c0 3c b0 bd 11 9c 4f 3b f6 d1 c3 bd c0 97 a6 bd
       -0.08605337 0.0031678716 -0.09561531 -0.08134413
000350 9c c5 d7 bd b3 3f 31 bd 62 e5 11 3e cd fb bf 3d
       -0.10535738 -0.04327364 0.14247659 0.09374199
000360 8e 87 3e bd ef cb bd bd d4 85 25 bd 55 08 b2 3d
       -0.046515994 -0.09267413 -0.04041083 0.086929955
000370 23 72 87 3a 5c 2c 17 3e 1a 7a be bd cf 22 7d 3b
       0.0010333698 0.14763016 -0.09300633 0.0038625484
000380 35 58 57 3c 4d e4 6f 3d 80 01 9d bd 33 f6 b7 bd
       0.013143589 0.058567334 -0.07666302 -0.08982506
000390 e5 80 b9 bd ad b2 28 3e cf 70 3a bd d8 59 b4 3d
       -0.09057788 0.1647441 -0.04551774 0.08806199
0003a0 66 5d 3f bb 04 69 67 3d 11 eb 99 bd 0b f1 1c 3d
       -0.0029199957 0.056496635 -0.075155385 0.038315814
0003b0 30 17 0f be 03 14 23 be d8 f1 4a bb 29 95 f4 bb
       -0.13973689 -0.15925603 -0.0030966904 -0.0074640703
0003c0 65 7c e7 bd c9 0d 72 3d cd 85 3f bd dd de b1 bd
       -0.11303023 0.059095178 -0.04675846 -0.08685086
0003d0 95 63 76 bd b3 69 88 ba 2b 79 93 bb a8 bc 58 bc
       -0.060153563 -0.0010407477 -0.0045005283 -0.013228573
0003e0 8e bd 26 3c 37 44 96 3d e7 bc 96 bc 2b f1 61 3d
       0.010177029 0.0733723 -0.018400623 0.055161636
0003f0 5b 86 91 3b 0e 85 2b 3d 9e 6d 1c bd 05 62 52 bd
       0.0044410652 0.041874938 -0.038190477 -0.05136301

net.2.bias f4 [100]
000000 84 47 c1 3d b0 91 f9 3c ab b2 87 3c b9 aa ad bd
       0.09437469 0.030464977 0.016564688 -0.084798284
000010 f8 64 96 bd 7e 67 9f 3c d9 77 af bd 09 90 c7 3b
       -0.07343477 0.019458529 -0.08567781 0.0060901684
000020 e8 cb a3 bd e3 70 26 bd ee 13 4f 3d 4b 9f 6d 3d
       -0.079978764 -0.040635 0.050556116 0.05801324
000030 25 8c 35 3d 1a 8c 6b bc 44 38 7d 3d 72 40 6f bc
       0.044323105 -0.0143766645 0.061821237 -0.014602767
000040 ec 4d 62 3c 94 7e 81 3d a1 43 b1 bd 71 fb e3 3d
       0.013812523 0.06322971 -0.08655477 0.11131943
000050 37 69 7f 3d 86 54 b4 bc bb ce b3 3c f3 e3 88 3d
       0.0623562 -0.02201296 0.021949163 0.06684103
000060 9a 50 ad 3d 1c 1a b4 3d f2 ac 8e bd 50 b5 1c bd
       0.08462639 0.087940425 -0.069665805 -0.03825885
000070 8b 45 82 3c 8f 5d 67 3c 4f fa a3 bd c0 61 20 39
       0.015902301 0.014121427 -0.08006727 0.00015295204
000080 7e 75 bd 3d 27 5a 91 3d f3 37 cf 3d eb eb 72 3c
       0.092509255 0.07097273 0.10118093 0.014826755
000090 ed 80 7d bc 0f 04 06 3d 80 b9 3d 3d 04 9f 44 bd
       -0.015472633 0.032718714 0.046319485 -0.04800321
0000a0 a0 91 c7 bc fc 0d b8 bb cd d6 4b 3d b7 83 37 bd
       -0.024361432 -0.0056169014 0.049765397 -0.044803347
0000b0 b8 23 b6 3d 5d 2e c0 3d bf 9d a1 3d 72 32 b9 3d
       0.088935316 0.09383843 0.07891416 0.09042825
0000c0 3f 43 8e 3d b1 fc ee bd e0 96 45 3d ba 16 07 bd
       0.0694642 -0.11669291 0.04823959 -0.032980658
0000d0 74 a9 8c bd 2b 0f 4e 3d c0 d8 8a 3c 4b 8c 8d bc
       -0.06868258 0.050307434 0.016949058 -0.017278811
0000e0 61 1b 00 bd f9 91 fb bb 38 63 ab bd e3 2c 3a 3d
       -0.03127611 -0.0076773134 -0.08368534 0.045452964
0000f0 b3 b0 19 bd d2 66 da bd ed 31 28 bd 8d 01 83 bd
       -0.03752203 -0.10664143 -0.041063238 -0.0639678
000100 56 4b c5 bd f3 a7 17 bd 5f fe e6 bc 79 d2 87 3d
       -0.0963351 -0.037025403 -0.028197465 0.06631941
000110 bf d6 a5 3d e6 fe 1c bc 6d 9a 65 ba b0 5c 48 bd
       0.080976 -0.009582257 -0.0008758668 -0.04891652
000120 48 b2 d7 3c 44 87 8d 3d 07 79 b4 3d 29 41 a0 3d
       0.026330128 0.069105655 0.08812147 0.07824928
000130 16 47 5e 3d 8b b9 1e bd 19 20 46 bd 2a bc 58 3d
       0.05426701 -0.038751166 -0.048370454 0.052913822
000140 e8 e7 95 3c 2b ba c8 3d f5 eb 56 3d ba 7d 20 bc
       0.018299058 0.09801134 0.05247112 -0.009795601
000150 b3 6e 0d bd 1a 96 e7 3c fc df 4d bd 20 26 7a bd
       -0.0345294 0.028269816 -0.050262436 -0.061071515
000160 8d 39 95 bd e2 d0 e8 bc c8 1d 20 3d d4 26 42 bc
       -0.072863676 -0.028419916 0.0390909 -0.011850078
000170 3e de f3 bc d4 e4 16 3d cc ac 00 3d bc 17 18 bd
       -0.02976906 0.03683932 0.031414792 -0.03713201
000180 a4 08 cf bd fa e8 01 bd 36 dc 96 bd 2e 08 92 bd
       -0.1010907 -0.031716324 -0.07366221 -0.071304664

net.4.weight f4 [100, 100]
000000 73 77 59 bc e9 58 af 3d 62 26 76 3e f5 96 ed 3e
       -0.013273108 0.0856188 0.2403808 0.46404234
000010 6b d4 e4 3d c9 e9 08 bf 3f 8c 20 be 98 04 08 3d
       0.11173328 -0.5348173 -0.156785 0.033207506
000020 70 09 6c 3d fd 45 13 bd 55 9e b6 3c 6f fe 19 bd
       0.057626188 -0.035955418 0.022292295 -0.037596162
000030 ef dc 1f 3e 90 17 b5 3c 5d 09 eb 3e ea ef 05 3e
       0.15611623 0.022105962 0.4590558 0.13079801
000040 64 40 f0 3e 7f 6e b8 bd 09 81 8a 3d ce ff 23 bc
       0.46924126 -0.090054505 0.06762893 -0.010009719
000050 44 83 4f 3e 6f b9 00 bf a5 08 a6 3e 67 71 49 bd
       0.20264918 -0.5028295 0.3242847 -0.049180415
000060 1b 23 84 bd a2 49 e1 bd 44 5a 1e 3c 55 43 2e 3e
       -0.06452008 -0.110003725 0.009665076 0.17017873
000070 f6 92 d3 bd d2 27 98 3d e4 3c 82 be 27 4b 7f bb
       -0.10330765 0.0742947 -0.2543708 -0.0038954706
000080 fc fa 77 3f b4 aa 1e be 2f 88 45 3f f8 42 5d 3e
       0.96867347 -0.15494806 0.77160925 0.21607578
000090 ed b5 ed 3d 11 8f 0b be 0c b6 5f 3c b4 59 8d 3e
       0.11606965 -0.13628794 0.013654243 0.276075
0000a0 cb 23 b8 be 7b b8 fc bd 5a 07 5f 3e 60 b3 06 bf
       -0.35964808 -0.12339874 0.21780148 -0.52617455
0000b0 66 a4 11 be e5 fe ff bc f7 84 54 3e f5 8c 3b bd
       -0.1422287 -0.031249473 0.20753847 -0.045788724
0000c0 c5 9e 06 3e c6 7c 6d be 20 73 6a 3e 27 18 93 3d
       0.13146503 -0.23192129 0.22895479 0.07182341
0000d0 5b 72 ec 3c 62 5c e0 3d 69 42 76 be 18 2b 30 3e
       0.028863123 0.109551206 -0.24048771 0.17203939
0000e0 b4 05 03 3f 6b b6 c2 3e e3 08 ae 3e fe a7 c6 3e
       0.5118058 0.380298 0.33991155 0.38800043
0000f0 68 49 fb 3d ff ca 37 3e 6d 0c 07 3e 53 65 a1 be
       0.122698605 0.1794853 0.13188334 -0.31522617
000100 74 1d 9e 3e 6b 90 27 3e 5a 05 8b 3d 2c ab 93 bd
       0.30881846 0.16363685 0.0678813 -0.07210383
000110 b7 9f 2e 3c d1 1a c0 be b6 0c 70 3e 26 9c b6 3d
       0.010658196 -0.3752046 0.23442349 0.08916502
000120 4b 21 93 3c 58 d7 76 bd 96 03 3c 3e d8 29 a4 bd
       0.017960211 -0.06026396 0.18360743 -0.080157936
000130 b0 80 85 3e ee 11 34 bd 4a ff 8e be 3a 79 33 3d
       0.26074743 -0.04396241 -0.27929145 0.043816783
000140 c3 82 20 3f c2 c7 58 3f 8a 6a 49 3d 82 48 47 3e
       0.62699527 0.84679806 0.04917387 0.19461253
000150 53 a0 14 bf 30 93 77 3f 60 32 35 be e4 9d 1c bd
       -0.58057135 0.96708965 -0.17694998 -0.038236514
000160 fa d9 78 3c 51 01 d0 bf 8c 6b 36 3f 65 6b bd be
       0.015188688 -1.6250402 0.71257854 -0.36995998
000170 b6 4a 19 bc 95 39 86 bc d4 6a 3c 3e ba 31 1d bd
       -0.009356191 -0.01638488 0.18400127 -0.0383775
000180 1d f4 8d bb 62 f9 4d 3e ff 95 d7 3d 51 c0 33 bf
       -0.004332079 0.20114663 0.10526656 -0.70215327
000190 d8 c3 ad 3c 28 01 d8 3c a3 ea 8e 3d 65 82 a5 bd
       0.02121155 0.026367739 0.06978347 -0.080815114
0001a0 2f bb 42 3d f5 75 dc 3d 88 2d 6d bd bb 14 9a bd
       0.047541793 0.10764686 -0.05790475 -0.07523485
0001b0 79 d9 d4 3c 9c 6d ba bc 05 be 80 bd 00 bd cc 3c
       0.025982605 -0.022757344 -0.06286243 0.024992466
0001c0 19 a6 92 3d 25 4c 47 3d 18 e7 a2 bd c1 71 ab bd
       0.07160587 0.0486566 -0.07954234 -0.08371306
0001d0 4b 08 49 bd b3 07 c7 bd 47 4a 67 3c f5 ce 5b 3d
       -0.049080174 -0.097182654 0.01411683 0.053664166
0001e0 b9 a5 d6 bd 24 7a b3 3d 53 f4 92 bc f9 85 b0 bd
       -0.10480828 0.08763531 -0.017938768 -0.08619303
0001f0 80 09 dc 3c 3c 4e f5 3c d8 d4 a8 3d 4b 9c da 3b
       0.026859999 0.029944532 0.08243722 0.0066714636
000200 9d 32 82 bc 70 bc 9a bd 87 06 99 ba 5b 67 88 bd
       -0.015893275 -0.07555473 -0.0011674919 -0.066603385
000210 44 d0 cd bd da bc 4d 3d f1 b7 d0 3d fd 17 d7 bd
       -0.10049489 0.05022893 0.10191334 -0.10502622
000220 a7 bf 9a bd 8a 1c 6b 3d 3d af a7 bc 3f 2e 9d bb
       -0.07556086 0.057400264 -0.020469302 -0.0047967727
000230 1e 7b 47 bc 01 95 8c 3d 04 d2 3a 3d 8d 43 6e 3d
       -0.0121753495 0.06864358 0.045610443 0.05816989
000240 ad c0 eb bd b7 8d 47 bd cb ef bf bd 0c 78 80 3a
       -0.11511359 -0.048719134 -0.09371909 0.0009801402
000250 99 b8 5d 3d 84 86 6a bd 8c e3 4a 3c 6a c5 47 3d
       0.054131124 -0.05725719 0.012383353 0.048772253
000260 74 15 d9 bd a6 72 59 3d dd fd ca bc 41 a0 24 3d
       -0.10599795 0.053087853 -0.024779255 0.040191893
000270 ed 8a 87 3c 10 69 52 bb e3 7f 02 be 31 48 f0 3d
       0.016545737 -0.003210608 -0.12744097 0.117325194
000280 98 66 8a 3b 0f c2 44 3d 89 e6 0c 3d 30 2b 0c bc
       0.004223656 0.04803663 0.034399543 -0.008555219
000290 3a 28 3e bd 62 c4 fa bc 15 f2 ee bd a4 2b d5 3c
       -0.04642508 -0.03061122 -0.11667267 0.026021786
0002a0 65 15 5f 3d 77 71 35 3d 40 a3 d2 3c b9 f0 e0 bc
       0.054463763 0.04429766 0.02571261 -0.027458536
0002b0 c8 e5 28 bd fe 07 8a bd 2f e1 46 3c a5 3a f7 3b
       -0.04123476 -0.06739806 0.012138649 0.007544833
0002c0 8c 00 dd bd 95 96 e7 bd ae e4 98 3b 7e f7 13 3d
       -0.1079112 -0.11308018 0.0046659326 0.0361247
0002d0 ff a9 0f be d8 74 2d be f7 1f 52 bc 44 e6 52 bd
       -0.14029692 -0.16939104 -0.012825004 -0.05148913
0002e0 5e bc 77 bb 21 97 cf 3c 31 96 60 bc ac fb ad 3d
       -0.0037801485 0.025340619 -0.013707683 0.08495268
0002f0 47 95 65 bd a0 42 2c bd a7 7b 96 3d 52 e4 59 bd
       -0.056050565 -0.042055726 0.073478036 -0.05319626
000300 c0 3b c8 bb 9e 28 71 bd 27 64 01 3d d2 3b f4 bd
       -0.0061106384 -0.058876626 0.031589653 -0.11925472
000310 de af 7b 3d 05 a5 c4 3c 60 29 99 bd 19 67 09 3d
       0.061447017 0.024004469 -0.07478595 0.033545587
000320 b3 e5 10 bd 5b 86 e4 3c 96 57 97 bd 7f 1f 32 bb
       -0.03537531 0.027896097 -0.073897526 -0.0027179418
000330 80 c3 aa bd 5d 1a 36 bc c4 f5 00 3d d3 50 32 3d
       -0.0833807 -0.011114684 0.03148438 0.04353411
000340 f7 94 4d 3d 14 e5 c8 3c 16 97 8b 3d 19 e6 f0 3d
       0.050190892 0.024523295 0.06815927 0.11762638
000350 c1 f5 38 3c 35 02 de bd 6c c6 22 3d a3 c2 bc bb
       0.011289061 -0.10840265 0.03974001 -0.005760507
000360 3e ff 98 3d 0e 12 da 3c 59 27 79 bc 9a 57 25 3d
       0.074705586 0.026619937 -0.015207135 0.040366746
000370 b9 78 10 bd 16 0d b1 3d 38 dd a0 3d 65 fb db bd
       -0.03527138 0.08645074 0.07854694 -0.10741309
000380 35 32 a1 3d 4b 8b 41 bd 7b ef 45 bd 6b fa b8 3d
       0.07870904 -0.04725198 -0.04832409 0.090321384
000390 c3 70 67 3d af 38 80 3d be d1 a8 bc 03 70 ad bd
       0.056504022 0.062608115 -0.020607825 -0.0846863
0003a0 4b 8a 59 3a 9e 97 aa bc c7 92 12 3d 17 01 2d 3d
       0.00082985003 -0.02082425 0.03578451 0.042237367
0003b0 4b 15 b7 3a 6f 5f d0 3c 88 91 b6 3d a6 df 55 3d
       0.0013968138 0.025436131 0.08914477 0.05221524
0003c0 21 45 bb bd 67 de 7f 3c 5e 69 78 3d b7 09 69 bd
       -0.09144045 0.01561699 0.06064736 -0.05689403
0003d0 18 f6 69 3c 79 68 60 bd 82 97 5b 3d 3c 53 cc ba
       0.014279865 -0.054787133 0.053611286 -0.0015588771
0003e0 5b 5b a9 3d 74 0e 16 3b de 0b 00 bd 3e b9 e3 bd
       0.08269378 0.0022896798 -0.031261317 -0.111193165
0003f0 37 a3 3f 3d 01 25 6a 3d 3b a5 be bd 63 4e a2 3c
       0.046786513 0.057164196 -0.09308859 0.019812768

net.4.bias f4 [100]
000000 c9 25 01 bd 40 e0 ca bd 38 de bb 3b d2 ce 88 bd
       -0.031530175 -0.099060535 0.0057332776 -0.06680073
000010 51 27 89 bd 22 29 42 3d 65 ae 7f bb 59 3c 52 bc
       -0.06696952 0.04740251 -0.003901386 -0.012831771
000020 01 95 91 3d e0 f6 d7 3c 90 ba 60 3d 45 80 04 3d
       0.07108498 0.026362836 0.05486542 0.03234889
000030 b2 fd b9 3d c1 cd 34 bd 27 35 e5 bc 4a fc 25 3d
       0.09081592 -0.044141535 -0.027979447 0.040523805
000040 ba b5 bb 3d 9f 0c 98 3c 21 08 da bc bc fc b6 3d
       0.09165521 0.018560706 -0.026615204 0.08934924
000050 79 b7 a7 bd ea 17 26 3d 59 a9 2a 3c aa 29 d3 3b
       -0.081892915 0.04055015 0.010416352 0.0064441757
000060 85 5c a9 3c 68 8a 11 bd 18 3b 06 3d 0b 23 cf bd
       0.020674 -0.035532385 0.0327712 -0.10114106
000070 6f 87 3b 3c 8d d4 92 bd 1c 29 31 3d 0f 57 57 3d
       0.011445864 -0.07169447 0.043252096 0.05257326
000080 27 f9 85 3d 20 7b c2 3d 80 f2 2e bd e8 54 36 bd
       0.06541663 0.094961405 -0.042711735 -0.044514567
000090 a8 71 80 bc 5f 0a 1e 3d ce a8 cf 3a 60 bc 7f bc
       -0.015679196 0.03858411 0.0015843154 -0.015608877
0000a0 2d 8a cc 3d 53 a8 a5 3d 43 2b 31 bd 0b 82 c4 3b
       0.099872924 0.08088746 -0.04325415 0.0059969476
0000b0 61 5b 6d 3d 29 ab fd 3c e9 53 fb 3c 5b 35 c9 bc
       0.057948474 0.030965405 0.03067966 -0.024561575
0000c0 98 9f 41 bd a8 0c d1 bd 35 5d 55 bd 90 aa 3c 3d
       -0.04727134 -0.10207492 -0.052090842 0.0460611
0000d0 4f 8e 50 bd 14 45 70 3d 50 fd 6e bd 99 9f c2 3c
       -0.050916966 0.058659628 -0.058347046 0.023757743
0000e0 15 0d 8c 3c d0 60 a9 bd 02 29 a3 bd 60 8c c0 bb
       0.017096082 -0.08270419 -0.07966806 -0.005876109
0000f0 32 05 b1 3d 2e ef 5c bd 5f 2a 88 3d b3 96 75 3d
       0.08643569 -0.053939037 0.06648707 0.05995817
000100 60 11 7a bd 60 69 dc bb fd cc 32 bd b9 cd d4 bc
       -0.061051726 -0.006726429 -0.043652523 -0.025977002
000110 ad 88 c3 3d e2 13 79 3d 11 92 90 bc 37 d0 33 bd
       0.09547553 0.060809977 -0.017647775 -0.04389974
000120 f2 ec e2 bd 2b 9d f3 3c 7e 6c a2 3d cd 68 f6 bc
       -0.1108035 0.02973803 0.079308495 -0.03007927
000130 80 be c9 3c c5 a6 6f bd f2 f1 1f 3d 0e 50 d4 bd
       0.02462697 -0.058508653 0.039049096 -0.10366832
000140 9d 3d ae 3d 67 2f ee 3d a9 1a 0c 3d 8e 8b 95 3c
       0.085078456 0.11630135 0.034205113 0.018255021
000150 8f 15 07 bd 0b 1b f5 3b c8 47 b5 3d a6 17 98 bb
       -0.032979544 0.0074800304 0.08851582 -0.004641491
000160 d7 6d bb bc 84 3e b2 3d 0b ea a2 3d d7 8c bc bc
       -0.022879524 0.0870333 0.079547964 -0.023016376
000170 6e d7 74 bd 38 c2 4f 3d 7f c2 dd 3c 66 32 bd bd
       -0.059775762 0.05072233 0.027070282 -0.09238128
000180 7a 0c 6f bd 36 8d ad bd 3f dd b3 3c 8c 42 56 3d
       -0.058361508 -0.084741995 0.021956084 0.052309558

net.6.weight f4 [100, 100]
000000 9f 31 10 be 8f 0e 9e bd ae 9e 51 3d 9b 13 d5 3d
       -0.14081429 -0.077176206 0.05117672 0.1040413
000010 55 98 2b bd f7 d9 73 3d c3 67 9d 3d 43 6e 6a bd
       -0.041893322 0.05953404 0.076858066 -0.05723406
000020 8a f3 40 3d 08 3f 80 bc 7e c3 c8 3c 51 96 96 bd
       0.047107257 -0.015655056 0.02450728 -0.07352889
000030 50 98 e3 ba 96 b0 b4 bd e1 8c be 3c f5 c3 37 3d
       -0.0017364118 -0.088227436 0.023260536 0.044864614
000040 01 50 d4 bd 1a b8 8f 3b 8b d1 38 bd 58 6e 1b 3d
       -0.10366822 0.0043859603 -0.04512171 0.03794703
000050 30 5a 57 3d 77 56 41 bd 9a 9b 0b ba c7 4b eb bb
       0.052576244 -0.0472016 -0.00053256156 -0.007180664
000060 48 b3 86 3d f9 4b 0f bd 6d d0 45 bd 31 18 ec 3d
       0.06577164 -0.034984563 -0.048294473 0.11528052
000070 5a ba 6c 3d 96 31 3c bc 1f 75 b1 bc 82 44 90 bd
       0.057794906 -0.011486432 -0.021662293 -0.07044317
000080 ac 12 d0 bd 4f c8 a2 3d e1 86 25 3d 91 fa 68 bd
       -0.101598114 0.07948362 0.040411834 -0.056879584
000090 e4 91 b4 3d 64 a5 ba bd 63 c2 55 3d 42 26 80 3d
       0.08816889 -0.09113577 0.052187335 0.06257297
0000a0 04 5b 00 be fc 05 b9 bd 9c 47 20 bd cf a4 0e 3d
       -0.1253472 -0.090343446 -0.039130792 0.034825142
0000b0 7f dc cb bc e7 6e 57 bc 75 2f 11 be 71 56 9d bd
       -0.024885414 -0.013149 -0.1417826 -0.07682503
0000c0 09 b1 bb bd 0a cc 9f bd 26 6b 2e 3e 14 68 33 bd
       -0.09164626 -0.07802589 0.17033061 -0.04380043
0000d0 5c 19 f5 bc 77 c3 73 3c 83 f7 e6 3b 30 13 9c bc
       -0.029919319 0.014878145 0.0070485487 -0.019052118
0000e0 6e 4c 5d bc 4b e4 dd 3b d5 4b 5a bd cb ff 20 3d
       -0.013506992 0.0067715994 -0.053294975 0.039306443
0000f0 c1 3c a9 3d 92 82 27 bd 85 39 e2 3b 9a 70 88 3d
       0.08263541 -0.040896006 0.0069038295 0.06662102
000100 2b d8 2a 38 72 b9 3d bd 59 f0 13 bd cc 2e aa bd
       4.073248e-05 -0.046319433 -0.036117885 -0.08309707
000110 5c 91 f4 bd 3f 8d e5 3c 40 ad 61 bc a4 f2 d9 bd
       -0.119417876 0.028021453 -0.013774216 -0.10641983
000120 3d b4 cb 3c af 4e b7 3c 95 54 8a bd 93 68 fa bd
       0.024866218 0.022376386 -0.06754414 -0.12226977
000130 76 ab a9 bd 7f a5 27 3d b2 42 46 3d d9 b6 0a bd
       -0.08284657 0.040929314 0.04840345 -0.033865783
000140 79 5d d0 bd 02 76 6f bc cc c3 a9 bd fa 87 e8 3c
       -0.101740785 -0.014615538 -0.082892984 0.028385151
000150 37 af be 3d c9 9a 7f bc ab 14 51 bc 12 49 03 bd
       0.09310763 -0.0156008685 -0.012761275 -0.032052107
000160 c4 6f 9f bd 4c 07 d5 bd 93 47 9a bd c6 8f 77 bd
       -0.077849895 -0.104017824 -0.07533183 -0.060439847
000170 90 cb 91 bd b1 8f 92 3d 40 7e b2 3d 21 d4 77 3d
       -0.071189046 0.07156313 0.087154865 0.060505036
000180 64 e7 9e bd ae 1b 63 3d 2b d3 5e 3d 7c c3 18 bd
       -0.07758978 0.05544632 0.054400604 -0.037295803
000190 eb 12 1b 3d 5b 39 95 3d 45 4d 99 bd fb d8 0d be
       0.03785984 0.0728633 -0.07485441 -0.13852303
0001a0 8e 40 1d 3d ab 0c e4 bc 11 13 81 bd f0 73 9d bd
       0.038391642 -0.027838072 -0.06302465 -0.07688129
0001b0 a8 7e 95 3d 81 0e 7a 3c c8 33 dc bd ee fe 76 bd
       0.072995484 0.015262247 -0.10752064 -0.060301714
0001c0 e4 a3 3b 3d f0 52 67 3d 20 4c f4 bc 96 84 9c bd
       0.045810595 0.05647558 -0.029821455 -0.07642476
0001d0 79 c8 e9 3d 96 8c 6a bd fe 0d 73 bd 8b 1d 8d bd
       0.1141519 -0.05726298 -0.059339516 -0.068904005
0001e0 ee 57 10 bc 21 34 79 bc c9 38 01 3e 08 3f cd 3c
       -0.008810027 -0.015210182 0.12619318 0.02505447
0001f0 af ca cc 3d 5a 10 a4 3d 53 c7 d9 3b 4c 27 4a be
       0.09999596 0.08010931 0.0066460758 -0.19741553
000200 cf dd 97 3d 0e b0 40 3d c9 11 be 3c 01 7c 7f bc
       0.074153535 0.0470429 0.02320184 -0.01559353
000210 0c ba 6a bd b8 11 ae bd 9b 3a 8f 3c 98 37 f4 bc
       -0.057306334 -0.08499473 0.017484 -0.029811665
000220 24 18 41 3b 01 68 2e 3d c3 a9 9d 3c 36 34 7e 3d
       0.0029463852 0.042579655 0.019245988 0.06206151
000230 72 75 f3 3d 59 c0 19 bc eb 31 c5 3d b6 de 00 3d
       0.11887635 -0.009384238 0.09628662 0.031462394
000240 4e 42 77 3d 28 40 b3 bd 9f ac c7 bc d0 82 c3 3d
       0.060365967 -0.08752471 -0.024374304 0.09546435
000250 e0 b2 b3 bc 96 db 2d bd 43 9f 01 be d4 bc 97 3d
       -0.02193588 -0.04244574 -0.1265841 0.07409063
000260 10 41 0d bc fb a6 03 3e 4f 61 9b 3d 18 1e 31 bd
       -0.008621469 0.12856667 0.075869195 -0.04324159
000270 c7 5d bd 3d 2c 0f 24 3a ff 60 ee bd 27 88 cd 3d
       0.09246402 0.00062583643 -0.11639594 0.100357346
000280 8d a5 82 bc 27 ec a9 3d 21 ef 38 bd cd 7b 30 bd
       -0.015948081 0.082969956 -0.045149926 -0.043086816
000290 6c 10 f6 3c a9 06 87 3d b4 9f 24 bd d6 36 01 3e
       0.030037127 0.06593067 -0.040191367 0.12618575
0002a0 d2 09 f9 3d ce 4b a7 3d 24 86 bf 3d 5f 9f af 3c
       0.12160076 0.081687555 0.09351757 0.021438299
0002b0 bb fc 7a 3d be 20 64 3d 7e 5c 01 3d 69 3b 37 3d
       0.06127618 0.055695288 0.031582348 0.044734392
0002c0 bf bd cb 3d 73 ea c5 bd 66 33 d8 3d 87 39 7c bd
       0.099483006 -0.09663858 0.105566785 -0.0615783
0002d0 dc 1b 74 3d b4 2a c5 3d 25 ae 23 bd dc 30 8c bd
       0.05959688 0.096272856 -0.039961 -0.06845257
0002e0 82 1e c5 bd d6 31 e5 bd 0e 8d 0d 3d 5b ab c0 bd
       -0.096249595 -0.11191146 0.03455835 -0.094076835
0002f0 18 bc 9d 3d 16 e8 4e bd 96 73 e6 3d ad 9a c7 bd
       0.07701892 -0.050514303 0.11252515 -0.09746299
000300 56 86 b3 3d 97 0c 6e 3d 93 9e 61 bd eb f6 28 bd
       0.08765857 0.058117475 -0.05508287 -0.041251104
000310 51 c3 a2 3b de a2 6f bb 9d 45 6d bd 83 81 af bd
       0.004967131 -0.0036565582 -0.057927717 -0.08569624
000320 0e a5 ec bd b1 c4 c9 3c f3 12 6e 3d d1 66 b5 bd
       -0.11554919 0.024629923 0.05812354 -0.08857501
000330 f5 8a 09 bc 43 6a 80 3d b6 ad 69 bb 4f 6c cb 3d
       -0.008394946 0.06270268 -0.0035656518 0.099327676
000340 95 2c 9d bd 82 29 31 bd 36 f8 eb bc 6e b9 a1 3d
       -0.07674519 -0.043252476 -0.02880488 0.07896696
000350 91 96 2b 3d dd 57 39 bd c9 e0 37 3d e6 25 2c bd
       0.04189164 -0.04524981 0.044892106 -0.04202833
000360 df e3 ab 3d 36 72 81 3d 91 26 c0 bd 20 aa 09 bc
       0.08393072 0.06320612 -0.09382356 -0.008402377
000370 82 cb a9 3d 4c 9c b8 bd 47 4a 36 3d 12 36 4d 3d
       0.08290769 -0.09014186 0.04450443 0.050100394
000380 4d 8d b8 bd c6 24 6c 3d d2 71 7e bd 40 1a 00 bc
       -0.09011326 0.057652257 -0.062120266 -0.0078187585
000390 ab 52 02 be 0e 9a 96 bc 4f 8c 8a bd 55 ed 87 bd
       -0.12726848 -0.018384006 -0.06765043 -0.06637064
0003a0 91 76 2b 3d 8d 43 8b 3d ae 80 0b 3c fb e7 c3 bd
       0.04186112 0.06799994 0.008514566 -0.09565731
0003b0 5e bd e0 bd 01 55 85 3d 29 38 aa 3d 7b 3d 99 bc
       -0.10973619 0.06510354 0.08311493 -0.018706074
0003c0 33 46 ae bd c3 37 d7 3a c9 66 4c bd e3 86 07 3d
       -0.08509483 0.0016419817 -0.04990271 0.033087622
0003d0 17 0b 9b 3d 67 a0 cb 3d 9f 52 5d 3e ba 7d d7 3d
       0.075704746 0.09942704 0.21613549 0.10522027
0003e0 43 fc c1 bb e9 69 26 be ba 1c 66 3d c7 9f ac bd
       -0.0059199645 -0.16251339 0.05617974 -0.084289126
0003f0 b9 5e 53 3d 33 58 84 3d 54 35 f0 bd 03 70 fc bd
       0.051604006 0.06462135 -0.117289215 -0.12326052

net.6.bias f4 [100]
000000 67 a8 c6 bd b4 f1 c8 bc 1b e6 03 3d a1 22 2b bc
       -0.09700089 -0.024529316 0.032201868 -0.010445268
000010 4a 6d e7 bd f8 ae ab bd eb 7e 03 3d 7a e6 94 3c
       -0.11300142 -0.08382982 0.03210346 0.018176306
000020 25 41 91 bd cb 99 38 bb 14 dd b9 bc 16 c6 cc 3d
       -0.070925035 -0.002816784 -0.022688426 0.099987194
000030 59 87 ee 3d 55 2d 63 3c c6 83 04 bd 25 76 b7 bd
       0.11646909 0.0138657885 -0.03235223 -0.08958081
000040 41 77 a4 bd fc ad db 3d db 64 9c bd 08 19 d9 bd
       -0.080305584 0.10726544 -0.07636424 -0.106004775
000050 3f 69 37 3a a8 51 c0 3d 14 d7 3e bd ae 08 04 bd
       0.0006996579 0.09390575 -0.046591833 -0.03223484
000060 44 97 1c 3d 3b e2 c6 3d e9 55 82 3d 33 03 54 bd
       0.038230196 0.09711119 0.06364042 -0.051760864
000070 88 1c 3e 3b 89 80 e7 3c e7 8f 4b bc e3 c2 8a bd
       0.0029008705 0.028259533 -0.012424446 -0.06775453
000080 0f b1 b8 3b ac 3d 55 3c 1c 3e 8d bc 9c bd 4e bd
       0.0056363414 0.013015192 -0.01724153 -0.050473794
000090 6e e0 1b 3d 92 a8 a3 3d a0 a7 c7 3d fe 59 12 3d
       0.03805583 0.079911366 0.09748769 0.035730354
0000a0 2b ca 45 bd 7b 3c 8c bd 5a 89 88 bd 09 9d 6f bd
       -0.048288506 -0.06847473 -0.06666823 -0.05849937
0000b0 ca 73 c6 bd aa cd 8c bd 89 70 13 bd 1d 16 9f 3d
       -0.09690054 -0.06875165 -0.035995994 0.0776789
0000c0 6b e5 ae 3d eb ee c1 3b 9b a3 f7 3c e5 46 f1 bc
       0.08539852 0.005918374 0.03022938 -0.02945275
0000d0 7d 6f 91 bd 78 c7 e5 3d 3b 03 60 bd 44 8b bf 3a
       -0.07101343 0.11219686 -0.05469058 0.0014613648
0000e0 0c 23 df bc d7 d7 ae bd 06 0a d3 3c a9 63 a2 ba
       -0.027238391 -0.08537262 0.025761615 -0.001238932
0000f0 3f 6d 00 bc 1f bc 94 bd af cf 66 bc 62 5f e6 3d
       -0.007838546 -0.07262444 -0.014087602 0.112486616
000100 c6 f3 9b 3d b4 1a e8 3c ff 13 9d bd 6c f5 ca bd
       0.076148555 0.028333046 -0.076698296 -0.09910092
000110 93 d9 2a bd 45 1d 77 bd 22 a9 b5 3d c3 e3 8f bd
       -0.0417114 -0.060330648 0.0887015 -0.07025864
000120 17 38 70 3d a6 f5 8b bd f2 4b bd bd ce 9b ab 3d
       0.05864724 -0.06833963 -0.09243001 0.08379327
000130 f1 8a cf 3d 89 aa cd 3d a6 71 7e bd 28 78 86 3d
       0.10133923 0.100422926 -0.062120102 0.06565887
000140 0d 29 da 3c 00 84 a3 bd 23 fa 8e 3d af fe 84 bd
       0.026630903 -0.079841614 0.069813035 -0.064938895
000150 13 6e 03 be 5b 8d 2f 3d 9c 24 a2 3d 5c af 3a 3d
       -0.12834959 0.042859416 0.07917139 0.045577392
000160 d3 97 d3 bc f9 55 5a 3d e3 be cd 3c b1 05 6c 3d
       -0.025829231 0.053304646 0.025115436 0.057622615
000170 a8 62 ce bd cd 35 f3 bc 9d bd 4f bd 56 14 31 3c
       -0.10077411 -0.02968874 -0.05071794 0.010808071
000180 d7 7d 96 3d 82 d3 81 3d a8 11 7e 3c 82 cb af bd
       0.07348221 0.0633917 0.015507139 -0.08583738

net.8.weight f4 [100, 100]
000000 3d 2e cd bd 2a 26 48 3a 1c fd 6d bc 6d 37 a4 bd
       -0.10018585 0.00076350814 -0.014525678 -0.08018384
000010 6c b1 50 3d 26 3d 9d 3d 1c c0 b4 bd 7e b7 30 3d
       0.050950453 0.07677679 -0.088257045 0.04314374
000020 09 56 4f bc 48 43 aa 3d cd f6 d1 bd 70 2d 3f bc
       -0.01265479 0.08313614 -0.10252152 -0.011668548
000030 f2 5d 98 3d d2 79 80 3d f2 8a 98 3d 29 11 c6 3c
       0.07439794 0.062732354 0.07448377 0.024178104
000040 07 5f ed 3b d8 05 8c 3c ad 40 0e 3d 69 ac 23 3d
       0.007243994 0.01709263 0.03472965 0.039959345
000050 22 a9 8a bc 45 25 2d 3d 37 a9 96 bc f1 a4 30 3d
       -0.016926352 0.04227187 -0.018391235 0.04312605
000060 5a af 9b 3b 85 92 00 bd 9b 4e 94 3c 62 2d c6 3d
       0.004751128 -0.031389732 0.018103888 0.09676625
000070 55 45 cf 3d e8 12 4b 3d 0a 72 81 3a 5d e0 ac bc
       0.10120646 0.049578577 0.0009875905 -0.021103078
000080 17 b9 9b 3d ee 5f bb bd 64 ae 29 3d 2e 18 2e 3e
       0.076036625 -0.091491565 0.041426077 0.17001411
000090 77 67 2e 3d 1b 32 90 3c e7 4e 8e bd 08 b8 02 be
       0.04257914 0.017602017 -0.06948643 -0.12765515
0000a0 86 43 c8 bd 2f 63 64 bd 31 f5 6a 3d 62 77 92 bd
       -0.09778504 -0.05575865 0.05736274 -0.07151677
0000b0 68 57 88 bd 91 00 f3 3d 6d 03 96 3d 90 ea 43 bd
       -0.066572964 0.118653424 0.07324872 -0.047831118
0000c0 c1 9a a6 3d 0e 07 85 bd 2a 2a 87 3c d7 ca 00 3e
       0.08134986 -0.06495486 0.016499598 0.12577377
0000d0 36 65 37 bd ec 8e 17 3d 58 21 0d bd b7 73 45 bd
       -0.044774257 0.037001535 -0.034455627 -0.048206057
0000e0 1a f3 aa bc a5 40 f3 bd 43 ce be bd f5 7f 71 3d
       -0.020867873 -0.11877564 -0.09316685 0.05895992
0000f0 91 54 bd 3d 27 39 65 bd b2 56 a4 bd 85 f0 96 3b
       0.092446454 -0.055962708 -0.08024348 0.004606309
000100 a5 c8 99 bd ad ba 6f bb a5 0d 88 bd d3 68 c7 3c
       -0.07508973 -0.0036579773 -0.066432275 0.024341976
000110 cf 9b 2c bd 85 af c3 3d 8c 43 a0 3d 32 2d ea bd
       -0.04214078 0.09554962 0.078253835 -0.114344016
000120 4d e4 fe bd a7 c6 d1 bd 1c 88 07 3c 4d 87 a3 3d
       -0.12445889 -0.10242968 0.008272197 0.07984791
000130 06 6b dc bc 20 48 ac bb 44 10 90 3d df 04 c0 3c
       -0.026906502 -0.0052576214 0.070343524 0.023439823
000140 b2 c8 a8 3d f3 9c 6f bd cb d7 81 3c 36 85 59 3d
       0.082414046 -0.058499288 0.015849968 0.053105555
000150 b6 d1 58 3d 56 88 6f 3c be e8 9d bd 07 ee c1 bd
       0.05293437 0.014619907 -0.07710408 -0.09469228
000160 49 fc c7 3c 69 d8 6b bd 0c 14 8e 3d 4f 10 bf bd
       0.024412291 -0.05757943 0.069374174 -0.093292825
000170 f8 ad 93 3d 56 29 a8 bd 9d 56 cd 3d 93 46 cb bc
       0.07210916 -0.08211009 0.10026286 -0.024813926
000180 5b 2a b7 3d e3 40 8c 3d 36 2d a2 3c 08 3a 70 3d
       0.089436255 0.06848314 0.019796949 0.058649093
000190 b0 05 d9 bb 8e 9b 1f 3c 62 88 1f bd d0 d1 9c 3d
       -0.0066229925 0.009741677 -0.038948424 0.07657206
0001a0 0f bb 78 3d ec d0 9e 3c 62 d8 ba bd 19 2b 4a bd
       0.060725268 0.019386731 -0.09123303 -0.049357507
0001b0 56 4a f3 bd 27 1b c7 bd 65 69 74 3d 40 19 80 3d
       -0.11879413 -0.09721976 0.059670825 0.06254816
0001c0 11 4b 93 3d 87 dc a7 bd c6 a7 f0 bc 67 7d 03 3d
       0.07192052 -0.08196359 -0.029376876 0.032102015
0001d0 3c 9b c1 3d ff e3 a8 3d db 9f 9b bc 24 a0 9b bd
       0.09453437 0.08246612 -0.018997123 -0.07598904
0001e0 aa b8 ce bc d0 5d b6 bd 13 79 a1 3d e9 43 46 3d
       -0.025234539 -0.08904612 0.07884421 0.048404608
0001f0 b0 0d 8a bd 8b ff 79 bd 3a 7c b4 3d a1 78 0c be
       -0.06740892 -0.06103472 0.08812757 -0.13717891
000200 7d ee 74 3c 01 52 b0 bd 55 be 8b bc dc a9 32 bd
       0.014949438 -0.08609391 -0.01705853 -0.04361902
000210 46 79 b3 bd a5 c5 6f bd b6 f0 83 3c 95 48 fa 3b
       -0.087633654 -0.058538098 0.01610599 0.007638047
000220 03 42 64 3d 08 be 8b 3d c3 ab 86 bd 3b 83 4e bd
       0.055727016 0.06823355 -0.0657573 -0.05041812
000230 26 0a b1 bd ee c0 8f bc 23 4b d6 bd b7 49 31 3d
       -0.08644514 -0.01754805 -0.1046355 0.04328319
000240 4e ec b0 bd 52 ac 60 bd a2 d8 b1 3d 59 48 d7 3d
       -0.086388215 -0.054851837 0.086838976 0.10511846
000250 bf 40 3a be 79 02 ab 3d 88 d0 f4 bd 7d 99 8b be
       -0.18188761 0.08350081 -0.11953837 -0.2726554
000260 56 48 67 be f0 6a 81 bc 9f 61 a9 3d fd 6c b6 bd
       -0.22586188 -0.015798062 0.08270573 -0.089075066
000270 30 1d c1 3c 4f dd 32 bd 2e 19 83 bc 8b 1d 6f bd
       0.023573488 -0.043668088 -0.016003218 -0.058377784
000280 ba 41 df 3d 39 91 86 3d 35 d5 7f 3e 0f 14 70 bd
       0.10901208 0.06570668 0.24983676 -0.05861288
000290 48 da 92 3d 04 6d 84 3d e5 96 1f 3d 34 f7 6a bd
       0.0717054 0.064661056 0.038962264 -0.057364658
0002a0 be 6e 04 bd 37 78 34 bd 0a 37 97 bc f5 bf 02 be
       -0.032332174 -0.04405996 -0.018458862 -0.12768538
0002b0 29 b1 48 bd 98 12 30 bd 43 af a6 bd 57 3b 31 be
       -0.048997078 -0.042986482 -0.08138897 -0.17307793
0002c0 6e 02 e5 bd b6 e8 66 bd d5 cf 09 3b 01 3d 67 bd
       -0.11182104 -0.056374274 0.0021028419 -0.056454662
0002d0 5c 7b 07 be 22 9e 01 bd c4 99 a1 bc c3 c3 54 bd
       -0.13230652 -0.031644948 -0.019726641 -0.051944505
0002e0 c0 30 b9 bd 98 f5 2e bd 74 6c d9 3c a6 b8 51 bd
       -0.090425014 -0.042714685 0.026540972 -0.051201485
0002f0 96 75 64 bc 88 79 f4 3c 19 92 0e bb 77 6d 91 3b
       -0.01394405 0.029843107 -0.0021754561 0.004438098
000300 75 e6 d7 bc 9a 85 14 be c7 0d 15 be 26 98 3b bc
       -0.026355008 -0.1450409 -0.14556037 -0.011449849
000310 20 33 56 3d c6 db 89 bd 6c cf fa bc 0e f5 5c 3c
       0.05229485 -0.067313716 -0.030616485 0.01348616
000320 68 ab 60 3c bb 28 4d bd 61 18 0b 3e 9d 8e 9e be
       0.013712741 -0.05008767 0.13583519 -0.3096818
000330 9f 7c 6c 3e 2e 8c 82 3e 92 9e 12 bd 8a b7 48 bd
       0.23094414 0.25497574 -0.035795756 -0.04900316
000340 0d a8 cb 3d 1e d3 3e 3d c3 c7 7a 3d 27 70 75 3d
       0.099441625 0.046588056 0.061225664 0.05992141
000350 33 d9 93 be 45 44 48 bc dc f2 33 bd 75 31 0a bd
       -0.28876647 -0.012223308 -0.04393278 -0.033738572
000360 d1 cb 9c 3d 7c 3f 84 bd 5e 93 b5 3d 11 6e 3d bd
       0.076560624 -0.06457421 0.08865999 -0.046247546
000370 33 4c 80 3e 92 f0 08 bd 56 8d 30 3e 36 d0 94 3d
       0.25058135 -0.03343255 0.17241415 0.072662756
000380 c7 12 96 3c 09 f8 25 3e fb 0d 9c bd 68 68 8e 3d
       0.0183195 0.16207899 -0.07619854 0.06953508
000390 5e c0 9f bc 91 1e 32 be eb fa 0e bd d0 20 be 3d
       -0.019500908 -0.17394473 -0.034907263 0.09283602
0003a0 a3 ff a6 3c 62 ca 5d bb 16 90 c4 3c 5e 26 af 3e
       0.020385569 -0.0033842553 0.023994487 0.3420896
0003b0 52 dd 75 3d bf 89 a7 bd 2c b5 64 bd 33 ec d2 3d
       0.06002552 -0.0818057 -0.05583684 0.10298958
0003c0 63 a2 14 3e 56 fa 26 be aa 57 1f bd 89 c6 44 3e
       0.1451507 -0.16306433 -0.038901962 0.1921636
0003d0 d2 02 2c 3e cf ba 70 bd 64 a4 81 bd 83 d7 30 3d
       0.16797951 -0.058771905 -0.06330183 0.043174278
0003e0 88 8d d7 3d dd e1 5c be 08 29 e9 3d 02 a3 56 3e
       0.10525042 -0.21570535 0.11384779 0.2096062
0003f0 ea 5f ad 3d b3 ed 2c be 82 d1 11 3e f7 10 01 bd
       0.0846556 -0.1688755 0.14240077 -0.03151032

net.8.bias f4 [100]
000000 fb cc e3 3d 64 cc a3 3d 14 12 05 bd ec 86 be 3d
       0.11123081 0.07997969 -0.032487944 0.09303078
000010 6d eb 83 3d c1 ed d2 3c 5d 04 e9 3d 8a 63 31 3c
       0.06441388 0.025748136 0.11377785 0.010826955
000020 cc d8 6f 3b 57 28 3d 3c 49 3c db bc 14 47 d8 bd
       0.0036597727 0.011545262 -0.026762145 -0.10560432
000030 1e aa d9 3a 7c 5c b7 3d 27 7f e2 bc 69 da 91 bd
       0.0016606485 0.08953187 -0.027648522 -0.071217366
000040 61 5b ee bc 44 15 4b 3c 6c 89 be bc 1f e8 7c 3d
       -0.029096307 0.012395207 -0.023258887 0.061744805
000050 2f 4b 6a bd c9 fb f0 bd 89 25 35 bd 7e 9b 1d 3d
       -0.057200607 -0.11766774 -0.04422525 0.038478367
000060 92 4e 18 bd 2e 05 77 3d e3 11 47 3c ad 84 8e 3c
       -0.037184305 0.060307674 0.012150261 0.01739725
000070 9d 37 b7 bd 34 8c 85 bd cd 32 8a 3d b1 ce d4 bd
       -0.08946154 -0.06520882 0.06747971 -0.10390986
000080 6f 89 10 3e 57 f3 ca bc fc 18 8b bd b8 f2 d1 3d
       0.14114927 -0.024774237 -0.06791875 0.10251373
000090 b4 31 d0 3d 77 54 5d 3c d9 b9 c5 3c c1 6c 65 ba
       0.1016573 0.0135089075 0.02413647 -0.00087518623
0000a0 3a 56 92 3d 05 bf 5e bd bb 43 c6 3d de 82 b0 3c
       0.07145353 -0.05438139 0.09680887 0.021546777
0000b0 6c 38 1a bb ea 6d 9f bc 2e 99 27 bc e4 45 66 bc
       -0.0023532165 -0.01946159 -0.010229392 -0.014054749
0000c0 31 08 22 bd 83 a1 93 3d 4f 53 20 3d 39 5b 94 bd
       -0.039558593 0.0720854 0.03914195 -0.07243962
0000d0 8d 47 7c bc 73 74 9a bd c3 4b 80 bd 6b 95 2a 3d
       -0.015397918 -0.07541742 -0.062644504 0.041646402
0000e0 92 03 14 3d 47 6c 27 3d c8 81 cf 3c 17 1f 9d 3c
       0.036136217 0.040874746 0.02533044 0.019179864
0000f0 66 90 dc bc cd aa ee bd 72 6d 26 3c 5f 79 b7 bc
       -0.026924323 -0.116536714 0.01015793 -0.022396741
000100 ce 19 c6 3c bc 2a 4a bd 82 65 c2 bd 55 61 28 bd
       0.024182227 -0.04935716 -0.09492017 -0.041108448
000110 8a b4 aa 3c e9 79 94 bd 78 3d ac 3d 56 24 f6 3c
       0.02083804 -0.07249815 0.08410162 0.030046623
000120 cf 8f d1 bc 7f b7 63 3d 9e 76 a7 bd 47 86 0d bd
       -0.025581269 0.055594917 -0.08176921 -0.034551885
000130 29 b7 9b bd 77 7d 94 3d 4e 81 cf 3d 4e 99 00 bc
       -0.076032944 0.07250493 0.10132085 -0.007849051
000140 83 e8 00 bc e8 6f d6 3c dd 45 88 3d 56 c7 90 3d
       -0.007867935 0.026176408 0.0665395 0.0706927
000150 a5 d8 f9 3a c8 85 b0 3d 5a 95 ab 3d cb 30 cf bb
       0.0019061757 0.08619267 0.08378096 -0.0063229552
000160 4c c1 c1 bc af 50 7f bb b5 49 37 bd 34 b4 89 bd
       -0.023651741 -0.0038958003 -0.044748027 -0.06723824
000170 0b 43 3d bd 79 69 10 bd 43 c8 be bd b7 e8 08 3d
       -0.046206515 -0.035256837 -0.09315541 0.03342506
000180 ad 0f c1 bd 87 69 02 bd 5d 0b 91 bd 60 5c f4 bc
       -0.09426818 -0.03183892 -0.070822455 -0.029829204
