models/heatalpha/tanh/heatalpha_46.pth (torch, 977047 bytes, 51 tensors)

net.0.weight f4 [100, 3]
00000000: bfb3 25be 8bc6 10bf d4b9 be3c 3d32 07bf
00000010: 902d a6be f002 5b3e 595e c4be a62b 5cbb
00000020: 1fd6 d63e e7ae 613e 8228 343e 960a 4a3e
00000030: c851 9639 298f 473e 341c b03e 0913 193e
00000040: 1e2a fb3f a7ed d7be 78a1 283f 6917 d63e
00000050: 9c90 823e 18e9 2fbe 08b9 3b3e 30d1 27bd
00000060: bddf 3c3e 8f27 d2bd c8ad 25bf 178d f6bc
00000070: a932 68bd 71d9 f63e 1dcc 85bd 6ede 113d
00000080: 4337 163f eb11 c13e fbc5 d2bd fdac 02bf
00000090: 8772 1e3e bfd7 943d e189 fdbe c352 923e
000000a0: a05a b63d 29e8 e33e 5434 61be b54c 563e
000000b0: 4bca e43e 3d4f b7be 72e5 93be 9240 603e
000000c0: 7fdc 2e3e aaa2 a53e da84 0cbe 0c0a 723e
000000d0: c768 1bbf 4af7 88be 81ad c1be 5182 96be
000000e0: d380 aa3d 7c88 2a3f 76ac 843e 3264 333f
000000f0: 5a7b 7bbe 440a ac3e d0eb 24bf 7eb1 c9bd
00000100: e8b4 93bd ce09 093e f99a a93e a86d 09bf
00000110: a4a2 d1be ab7c babe e048 f93e 2f7b c3be
00000120: 1674 96be c995 b5be 3f66 34bd a4e3 d3be
00000130: aaf3 0abf 4120 a43e e3b1 3e3f 107b c33d
00000140: fb47 dabd 499e 193d 6ff8 04bf 51b0 593d
00000150: 5c12 e53d 246a a7bd 04c7 d23e 7583 fcbb
00000160: 1064 79be 0636 97be f6a3 ab3e 0bf6 483e
00000170: e93e 7c3d d3d1 07bf 325a 1f3d 46cc 4e3d
00000180: 12cc 31be fa65 ae3e 7515 d43e d50c 423e
00000190: 75e4 1cbe 4447 1e3f ce74 6d3c 5bac 203e
000001a0: adde 623e c2be 993e f9a0 c33d 94b5 94be
000001b0: a6a7 953c c837 48bf babf 803e 2ebb ed3d
000001c0: 7d07 b7be 2d02 38bd e1ce c73d 0e92 6b3e
000001d0: 3628 043e 7e02 b2be 56d7 e23e 10f4 bb3e
000001e0: 2c07 083e 7b5e c33e 89f2 aebd 506d 273e
000001f0: 2d9d b1bd 0a5d 19be 1c95 e8be ae15 f4bc
00000200: 9126 9abe a2e8 44be 8335 26bf 23ef ea3e
00000210: eaa1 42be 8652 7cbf 3b8c d43e 58f6 053f
00000220: a7fd dbbe 96f3 2cbe 0a4d 82be 8fad c83d
00000230: e422 efbe 58d5 8cbe 3b41 a73e 53de bfbe
00000240: 0ae5 5cbe b7b4 003d c7cc 113f c6ad a6be
00000250: daaa 083d ec64 0a3e fc4b 043e 2259 3c3c
00000260: b713 343e 6372 38be 392d c2be 9de4 843d
00000270: fde3 cf3d dcbe 54be c91f 0ebf 125b 84be
00000280: a548 12be 4e86 063e f953 a7be 6866 13be
00000290: cfba 3dbc 77ee e83d 5716 203f bc71 cbbe
000002a0: 6066 1abe 61dc 0d3e 000b b53e 6ae3 203e
000002b0: 9500 293f 90cb 30be 86fe a8be b0e8 2c3e
000002c0: 47e8 0a3f 5cf3 2b3f 0a10 923e e291 3fbe
000002d0: 5efc 42be ccd0 5d3e c589 563e bbda a1be
000002e0: 8067 ec3d 4554 cf3e facc d6bd 7de4 2e3e
000002f0: dd9c d73e c743 9f3e f4cb 84bd 6c72 cb3d
00000300: cc4a 413e f758 afbd bba9 cb3f 55e5 10bf
00000310: 9b71 cd3c 4e08 e33d 8464 923d c91f acbd
00000320: 2497 05bf bf9b a8be fefd fdbd 7870 843c
00000330: 674d 27bf c98a 11bf 62d3 27bf a5dc f43d
00000340: 76fa f63a dd2c e53d 3e53 b03e 4df2 503f
00000350: 53fa 15bf 81d0 54be 5236 ccbe 5662 fc3e
00000360: 1c65 dc3d 44c7 823e 84b6 8cbd d56f c3be
00000370: e0db c33e 595e 133f 937b 023e dbab d63e
00000380: 00cf 033e db9b 443d 70a4 6a3e d9ec 613e
00000390: 06f5 2d3f 19ba 1c3f a3c3 263d 3b65 61bd
000003a0: f5f9 353e 13d3 e83e f63d b6be 21b7 03bf
000003b0: bb65 f63c f600 c6ba c6e4 13be 6a2d 263f
000003c0: 114f 81bd 7368 0f3e edc0 acbe b77d 40bf
000003d0: 326a 04be c67a a5bd 7ebf ca3e bb5c d4be
000003e0: b570 8a3e 8cc8 c6bd 1e95 9ebe 64a1 3dbd
000003f0: 35be 28bd 3a5a 6cbf e8bd 553d 2b22 1f3e
-0.16181849 -0.5655295 0.02328197 -0.5281103 -0.32456636 0.2138784 -0.38353232 -0.0033595352
0.41960236 0.22039376 0.17593578 0.197306 0.0002867116 0.19488205 0.34396517 0.14948668
1.9622228 -0.42173502 0.6587138 0.41814736 0.25500953 -0.17178762 0.18332303 -0.04097098
0.18444724 -0.102614515 -0.64718294 -0.030096574 -0.05668894 0.4821277 -0.06533072 0.035612516
0.5867807 0.37708983 -0.10291668 -0.5104521 0.15473376 0.07267713 -0.49519256 0.28578767
0.08904004 0.44513062 -0.21992618 0.20927699 0.44685587 -0.35802642 -0.2888599 0.21899632
0.170763 0.32350665 -0.13722554 0.23636645 -0.6070675 -0.26751167 -0.37827685 -0.293963
0.083253525 0.6661451 0.25912827 0.7007476 -0.24558774 0.33601582 -0.6442232 -0.09848307
-0.072122395 0.13382646 0.33126047 -0.5368295 -0.40944397 -0.3642324 0.48688412 -0.3817992
-0.29385442 -0.3546584 -0.044042822 -0.41384614 -0.5427805 0.32055858 0.74490184 0.09544957
-0.106582604 0.037504468 -0.5194158 0.053146664 0.111851424 -0.081745416 0.41167462 -0.0077061006
-0.24354577 -0.29533404 0.3352353 0.19625108 0.061583433 -0.5305454 0.038904376 0.05048778
-0.17363003 0.34062177 0.4142262 0.18950208 -0.15321524 0.6182749 0.01449318 0.15690748
0.22155257 0.3002835 0.095521875 -0.29044783 0.018268418 -0.78210115 0.25146276 0.11607967
-0.357479 -0.04492395 0.09756256 0.23004934 0.12905964 -0.34767526 0.44304913 0.36709642
0.13283986 0.3815802 -0.08542354 0.16350293 -0.08672557 -0.14976898 -0.4542626 -0.029795494
-0.3010755 -0.19229367 -0.649254 0.45885572 -0.19007078 -0.9856342 0.41513237 0.52329016
-0.4296696 -0.16889796 -0.254494 0.09798729 -0.46706307 -0.27506518 0.32666954 -0.37474307
-0.21571746 0.031422343 0.5695309 -0.32554454 0.03336606 0.13515061 0.1291961 0.01149586
0.17585646 -0.18012385 -0.37925127 0.06488917 0.10150907 -0.20775932 -0.5551725 -0.2585073
-0.14285524 0.1313717 -0.32681254 -0.14394534 -0.011580183 0.113736086 0.6253409 -0.3973521
-0.15078115 0.13853599 0.35359955 0.15711752 0.66016513 -0.17265153 -0.33006686 0.16885638
0.5426068 0.6716821 0.28527862 -0.18707994 -0.19041583 0.21661681 0.20950992 -0.3161219
0.115431786 0.4049398 -0.10488315 0.17079349 0.42111865 0.31106398 -0.064842135 0.099339336
0.18876189 -0.085618906 1.5911173 -0.5659993 0.025078585 0.11085568 0.07148078 -0.084045
-0.5218375 -0.32931325 -0.12401961 0.01616691 -0.6535248 -0.56852394 -0.6555692 0.11956147
0.0018842954 0.111901976 0.3443851 0.8161972 -0.5858509 -0.20782663 -0.39885193 0.49293774
0.107614726 0.25542653 -0.068707496 -0.3817126 0.3825369 0.5756584 0.12742452 0.4192799
0.12871933 0.048000198 0.2291429 0.22063006 0.67952 0.6122146 0.040713917 -0.05502818
0.17771132 0.45473537 -0.35594147 -0.5145131 0.030077806 -0.0015106488 -0.14442739 0.64913046
-0.06313909 0.14004688 -0.3374094 -0.75191826 -0.12931135 -0.08080058 0.39599222 -0.41476998
0.27039114 -0.0970622 -0.30973142 -0.046296492 -0.04119702 -0.92325175 0.05218306 0.15540378

net.0.bias f4 [100]
00000000: ad65 d7bd 51fb b4be 6204 6e3e d60f efbd
00000010: 4e66 983e c031 833d 161f 9e3c 0051 d13e
00000020: c177 6dbc 39e1 0d3f a13a 17bf 303c 86bd
00000030: c891 09bd 9253 38bf 6961 a23e 9f04 0abf
00000040: 728f 02bf f0f4 eebe 63c6 283f 6482 9c3e
00000050: 730b 093f 40b1 4f3e 0476 0bbf ffc0 073d
00000060: 5858 e23d 6f53 bfbd 7c7d 9e3d 238d 0a3c
00000070: 02e3 a73e e213 c73e b37d 2abf 2bcc 03bf
00000080: 51d8 9b3e ff91 ad3e 8d0a 14bf 9e25 5d3e
00000090: 2316 91be 773b e6be 560a bf3d 9a0c bd3e
000000a0: 2632 82be 7635 cb3d 01e0 67bd 337f 72bc
000000b0: c930 0f3e d1c7 38be 730c 3c3e 572c 0b3f
000000c0: 20eb fbbe e012 123f 4e8e 00bf ced0 0fbf
000000d0: 2f43 aa3c 7123 593d 5a8a ddbe a363 86be
000000e0: a7cc 6fbe 3b9a fbbd 60c9 b2be 5bec 033f
000000f0: 1f22 983e c389 33bf 0d22 80be ee50 6bbe
00000100: 6e28 f3bd 87fb 02bb 50fa 893e 1feb 073f
00000110: 4ba8 0a3e 84e5 25bf 351e 753e f47a d3bd
00000120: 5495 a83e f8fa 853e 6935 30be 6a06 15bd
00000130: 6dd4 2dbe d664 68be 17c0 133f b892 123f
00000140: 75c7 483e a098 ffbd 9c32 d43d 8a66 19be
00000150: ff36 8dbe 5ab8 09be ebe7 173f cd18 883e
00000160: 2863 0bbf 190b 6f3e 1a9f 9abe 8d6c 20bf
00000170: 056f 023e 1b1c a23e 4630 be3e fdfd bebe
00000180: 97fc 9fbd c3b6 9e3e 67dc 0bbe 43b1 bebe
-0.1051744 -0.3534799 0.2324386 -0.11672942 0.29765552 0.064059734 0.019301932 0.4088211
-0.014493884 0.5542179 -0.59073836 -0.065544486 -0.033586293 -0.7200252 0.31714943 -0.539133
-0.5100013 -0.46671247 0.65927714 0.3056823 0.53533095 0.2028246 -0.5447695 0.03314304
0.110520065 -0.093420856 0.07738778 0.008456501 0.3279038 0.38882357 -0.6659805 -0.5148341
0.30438474 0.3390045 -0.578286 0.21596381 -0.283372 -0.44967243 0.09328143 0.36923677
-0.25428885 0.09922306 -0.05661011 -0.0148008345 0.13983454 -0.18044974 0.18364124 0.5436453
-0.49202824 0.5706005 -0.5021714 -0.56177986 0.020783989 0.053012315 -0.43269616 -0.26247892
-0.23417912 -0.122852765 -0.34919262 0.51532525 0.29713532 -0.7013208 -0.2502598 -0.22980091
-0.11872946 -0.0019986348 0.26948786 0.5309314 0.13540761 -0.6480334 0.23937304 -0.10326186
0.32926428 0.26168036 -0.17207874 -0.03638307 -0.16975565 -0.22694716 0.5771498 0.57255125
0.19607337 -0.12480283 0.103612155 -0.14980522 -0.2758102 -0.13449231 0.59338254 0.26581421
-0.54448175 0.23344077 -0.3019951 -0.62665635 0.12737663 0.31662068 0.37146205 -0.37303153
-0.078118496 0.3099881 -0.13658296 -0.37244615

net.2.weight f4 [100, 100]
00000000: 1e2f a93d 3234 9f3d 6a51 d83d 39b7 40bc
00000010: b7a1 473b 59b3 593d f998 1fbc 4d64 693d
00000020: 709f a6bd ce47 9cbb 30eb dbbd 4044 36bd
00000030: 7224 4a3d 1d58 503b 3db1 acbc 1ff5 1a3d
00000040: e670 a0bc 7120 793d 1596 4c3b 7027 89bd
00000050: 5ab4 ab3c ec58 663d 561b 10ba c44b adbc
00000060: a2bd c13d a032 873c cc27 6bbc 5df7 263c
00000070: b270 013d 7675 943d e78d 8d3d 2d27 b3bd
00000080: 937b 093e c22a 853d dccd e43c ef97 9fbd
00000090: 5b57 1cbe 935c f5bd 580a 9e3d fa0f 81bd
000000a0: eb42 b8bd 3a3e a03c b734 b13d b244 c83d
000000b0: c1d7 b83d 885e 4bbb 82ca ebbc a816 bbbc
000000c0: 90f0 c73d bdfa e93d 05ed c6bd 1706 96bd
000000d0: 0484 7b3d ed59 a43d 1747 9d3b 792e 7d3d
000000e0: 4b1f b9bd 0fd1 20bc ae01 9d3b 1a9b ee3b
000000f0: d663 ea3d d570 c1bd af16 2e3d ac74 ca3c
00000100: 8e71 a6bc cd9e 78bd c93e 183d 2f54 3abd
00000110: 95e5 aabd aca8 3cbe 7f73 9a3d 7b52 b93d
00000120: 6ff7 c53d cde7 40bd 3311 6d3d 85d9 6bbc
00000130: 82e4 4c3d 6a50 acbc 1947 353d 12c2 953d
00000140: 112c 413d 968e 893d 0183 09bd 2e20 c6bd
00000150: b6e7 94bd 7b5e c23c 1108 3ebd 5376 f6bb
00000160: ff5d febb 43af 8abd fc31 28be d16d c9bd
00000170: 7929 283d f807 3bbd 036b 2d3d d5f0 06bc
00000180: 231e edbc ffae 153d 2d0c c8bd 1250 9ebd
00000190: 16f1 293d 349d 99bd c35b aebc dd57 913c
000001a0: 5eea bdbd 2545 53bd 2ff1 afbd c4f9 89bd
000001b0: 176d 803d c619 22bc a10d 8a3d 5795 acbd
000001c0: 330e aabd 7cf6 db3d e096 40bd 3686 b0bd
000001d0: 71d8 d6bd f4c6 1bbc 65cd 6abd 8a1e f73c
000001e0: 45f4 da3d 8cee 6b3d b389 09bd 39b7 1d3c
000001f0: 3719 53bd faaa bdbd 5505 4bbd 3f3d 083d
00000200: 65aa 69bd 0290 ed3d 6a48 43bd cc72 66bc
00000210: ee68 90bc c9cb c0bc 2422 84bd 8803 773b
00000220: 6a62 103c 36b6 e8bd 0470 5c3b c345 8f3d
00000230: ce5b cfbd 06a1 d7bd d424 9ebd 4d14 88bd
00000240: 7c4b f1b8 4d74 34bd 0937 343d 1d80 b7bc
00000250: 98a1 9c3d ecb6 5abd 85cc 75bd 0b8d c2bc
00000260: 2725 90bd b34f 9dbc 0954 9f3d 4ea0 673c
00000270: 7365 873c ff87 62bd accd 94bd 44de 95bd
00000280: ba18 14bd 1c4d 573d 2e05 c1bd 0216 a33d
00000290: ffd1 613c 46b9 8dbc dc0e 923c 64e1 303d
000002a0: b9a4 b8bd 70e8 58be 9878 cb3d 4005 99bd
000002b0: eaf9 6abd c7a3 51bd fc0b e43c e287 143d
000002c0: 6d03 98bd 0c58 373d 7403 0d3d e804 a63d
000002d0: 3b1f c33d e2d9 b53d d395 96bd 7238 ab3c
000002e0: 5b10 85bd 1277 52ba 283f c9bd 9db8 a33d
000002f0: 4a25 94bc f4e8 733d 3d2d 79bd 42ae a3bd
00000300: 3ba8 28bc 9d78 65bd cf2c 9dbd 355d d53b
00000310: 1c6c 783d 3508 273d 3c35 4a3c c27b a1bd
00000320: 45f4 1a3d 74b2 94bd 2695 553d 6b15 62bd
00000330: 2f25 a53d 6446 193b 68ec 8f3d e512 53bd
00000340: eb8f b0bd af64 543b 7daf c3bd 34aa a6bd
00000350: a7db d7bd 5c5a 31bd a8e9 113e aaf9 bf3d
00000360: 3b33 3ebd 1196 bdbd 229e 25bd 3208 b23d
00000370: c595 7a3a 4b47 173e fa56 bebd fbcd 7d3b
00000380: bb2c 573c 89dd 6f3d 6803 9dbd f13f b8bd
00000390: b36b b9bd f8e4 283e dc6d 3abd 5c5c b43d
000003a0: b79e 42bb df82 673d 2929 9abd a5ef 1c3d
000003b0: c39a 0fbe aa18 23be fd9f 4abb 7e8c f4bb
000003c0: f25f e7bd ce04 723d b37a 3fbd 4c03 b2bd
000003d0: a2b2 76bd 9e68 93ba de6c 93bb 29c4 59bc
000003e0: 78e1 263c a759 963d b543 97bc 78ea 613d
000003f0: e0d1 953b 9383 2b3d f36d 1cbd 604a 50bd
0.0826094 0.07773627 0.105624035 -0.011762434 0.003046138 0.053149555 -0.009741061 0.05698042
-0.08135879 -0.004769302 -0.10738218 -0.044498682 0.049351163 0.00317908 -0.021080608 0.037831422
-0.019585084 0.060821954 0.0031217386 -0.06696975 0.020960022 0.056237146 -0.00054972374 -0.021154292
0.09459998 0.016503632 -0.01435275 0.010190812 0.031601615 0.072489664 0.06911831 -0.087477066
0.13426046 0.06502296 0.027930193 -0.07792651 -0.15267698 -0.11980548 0.07716817 -0.063018754
-0.089971386 0.019560922 0.08652633 0.097787276 0.09025527 -0.0031031687 -0.028783087 -0.022837952
0.097626805 0.11424778 -0.09713177 -0.0732538 0.061405197 0.080249645 0.0047997343 0.061811898
-0.09039172 -0.009815468 0.00479146 0.007281673 0.114448234 -0.09445349 0.0425021 0.024713837
-0.020317819 -0.06069832 0.03716925 -0.04549044 -0.083445705 -0.18423718 0.075415604 0.09048935
0.09666335 -0.047096062 0.05787773 -0.014395122 0.05002261 -0.021034438 0.044257257 0.073124066
0.047161166 0.06716649 -0.0335722 -0.096741065 -0.07270758 0.023726692 -0.04639441 -0.0075214296
-0.00776267 -0.0677171 -0.16425318 -0.09835399 0.041055176 -0.045661896 0.042338382 -0.00823613
-0.028945034 0.036543842 -0.09767947 -0.07730116 0.041489683 -0.07500687 -0.02128399 0.017742092
-0.092732176 -0.051579613 -0.08590924 -0.06737092 0.06270807 -0.00989384 0.06740881 -0.08426922
-0.083034895 0.107403725 -0.047018886 -0.08619349 -0.10490502 -0.009507883 -0.057324786 0.03016593
0.10691122 0.057600543 -0.033578586 0.009626203 -0.05153772 -0.09261127 -0.049565632 0.033261534
-0.057047267 0.11599733 -0.04767648 -0.014065456 -0.01762816 -0.023534672 -0.06451824 0.0037691314
0.008812526 -0.11362879 0.0033636102 0.06995728 -0.10124932 -0.1052876 -0.07721868 -0.06644497
-0.000115058356 -0.044056226 0.043997798 -0.022399956 0.07648009 -0.053397104 -0.0600095 -0.023748895
-0.07038336 -0.019203043 0.077797 0.014137341 0.016527867 -0.055305477 -0.07265791 -0.073177844
-0.036156394 0.05256377 -0.09424816 0.07963182 0.013782977 -0.01730026 0.017829351 0.0431837
-0.09015793 -0.21182418 0.09935111 -0.074717045 -0.057367243 -0.05118158 0.027837746 0.0362624
-0.074225284 0.044761702 0.03442712 0.081064045 0.09527441 0.088794485 -0.073527955 0.020900939
-0.0649726 -0.0008028607 -0.09826499 0.079941966 -0.018084187 0.059548333 -0.06083416 -0.079922214
-0.0102940155 -0.05602323 -0.07674562 0.0065113553 0.060649976 0.04077931 0.012341794 -0.07884933
0.03783061 -0.072606 0.052144192 -0.055196207 0.08063733 0.0023387903 0.07027513 -0.05153169
-0.086212 0.0032408645 -0.09554956 -0.081379324 -0.10539942 -0.043299064 0.14249289 0.093737915
-0.046435576 -0.092571385 -0.04043401 0.086929694 0.00095590606 0.1477329 -0.09293933 0.003872751
0.013133223 0.05856088 -0.07666665 -0.08996571 -0.09053745 0.16493595 -0.045514926 0.08806679
-0.0029696652 0.056521293 -0.07527382 0.03831448 -0.1402388 -0.15927377 -0.0030918114 -0.007463037
-0.11297597 0.059086613 -0.046747874 -0.08692035 -0.06022895 -0.0011246388 -0.004499062 -0.013291397
0.010185592 0.073413186 -0.018464902 0.055155247 0.004572138 0.041873526 -0.038190793 -0.05085218

net.2.bias f4 [100]
00000000: 1a40 c13d 3164 f93c ebb3 873c 167e adbd
00000010: 635f 96bd fb11 9f3c a86e afbd ae70 ca3b
00000020: 21fc a3bd 08e1 26bd f91a 4f3d ece8 6d3d
00000030: 3555 353d 42fd 6cbc a63d 7d3d e3fb 6ebc
00000040: 8e8b 623c 9a7b 813d 8c44 b1bd e4dd e33d
00000050: 2ef8 7d3d 0907 b5bc 65d2 b33c 6f0b 893d
00000060: 555a ad3d 311d b43d 0cc0 8ebd a22b 1cbd
00000070: b727 833c 6ecc 673c 740b a4bd 90e2 5439
00000080: 36a4 bd3d ca63 913d dc66 cf3d 12b6 723c
00000090: b7ac 7dbc 1f18 063d c5be 3d3d 4fd0 44bd
000000a0: 3c9f c7bc 0e6c b7bb daf5 4b3d 6795 37bd
000000b0: 9c23 b63d f028 c03d 6eba a13d fb2a b93d
000000c0: 9e88 8e3d 03fc eebd 82c3 453d 62f4 06bd
000000d0: 2bb0 8cbd a379 4e3d dcca 8a3c 0797 8dbc
000000e0: cb9c ffbc 61e7 fabb 995e abbd 50c7 393d
000000f0: 02a2 19bd 19d0 dabd 98ca 27bd 7901 83bd
00000100: 653f c5bd a3be 17bd a6d9 e6bc 66f2 873d
00000110: b0ca a53d 38c0 1dbc 7c1c 69ba 4860 48bd
00000120: cf29 d83c 5ac0 8d3d e760 b43d 900c a03d
00000130: 7c20 5e3d e5af 1ebd 3833 46bd 63ac 583d
00000140: ef34 963c 8d9f c83d 18ce 563d 4d9e 20bc
00000150: cd7f 0dbd f34a e73c 4d90 4dbd d9da 79bd
00000160: 0736 95bd 6990 eabc 940e 203d e3c4 41bc
00000170: ab7a f3bc 7a51 173d 73c3 003d d1e8 17bd
00000180: bc0f cfbd 6fb4 01bd ebf2 96bd 1107 92bd
0.094360545 0.030443283 0.016565284 -0.084713146 -0.07342412 0.019417753 -0.08566028 0.0061779832
-0.08007074 -0.04074195 0.050562833 0.05808346 0.044270713 -0.014464678 0.06182637 -0.014586422
0.013827218 0.06322403 -0.086556524 0.11126307 0.06200426 -0.022098081 0.02195091 0.06691634
0.08464495 0.0879463 -0.06970224 -0.03812755 0.016010148 0.014147861 -0.08009997 0.00020302297
0.092598364 0.070991114 0.10127041 0.014813917 -0.015483073 0.032737847 0.04632451 -0.04805022
-0.024367921 -0.005597598 0.04979501 -0.044820216 0.08893511 0.09382808 0.07896887 0.09041401
0.069596514 -0.11669161 0.048282154 -0.032947905 -0.06869539 0.05040897 0.016942434 -0.01728393
-0.031202694 -0.007656977 -0.083676524 0.045356095 -0.03750802 -0.10684223 -0.040964693 -0.06396765
-0.09631232 -0.03704704 -0.028179955 0.06638031 0.080953 -0.009628348 -0.0008892489 -0.048919946
0.026387123 0.06921454 0.08807545 0.07814896 0.0542302 -0.038741965 -0.04838869 0.052898776
0.018335788 0.09796057 0.05244264 -0.009803367 -0.03454571 0.02823398 -0.050186444 -0.060999725
-0.072856955 -0.028633313 0.039076403 -0.011826727 -0.029721579 0.036942936 0.031436395 -0.037087265
-0.10110423 -0.031666216 -0.07370552 -0.07130254

net.4.weight f4 [100, 100]
00000000: 7a9f 57bc 115b b23d 5607 773e 34a6 ee3e
00000010: b17f e83d 6caf 09bf a441 1dbe 7753 063d
00000020: 1aa4 703d a61e 16bd 1db1 be3c 3f9d 17bd
00000030: 97ec 1e3e 09db d13c 5da4 eb3e bed2 043e
00000040: ddb0 ef3e ede2 b9bd a1f8 8c3d b252 f9bb
00000050: b191 503e 8499 00bf ecdd a73e 41c5 4ebd
00000060: e15d 85bd 9bb3 e4bd 36fb 0a3c e24c 2e3e
00000070: 7962 d6bd 8ff4 983d 2e39 82be 6190 a8bb
00000080: 1d46 783f 8000 20be c132 453f 7dbd 5f3e
00000090: 7fde eb3d 6c9e 0bbe bd99 863c 1199 8d3e
000000a0: 0b1c b8be 9a5f fbbd 1623 603e ffcf 06bf
000000b0: 9f9e 13be 048a f9bc b4e9 533e ef4c 3fbd
000000c0: 8fdf 033e 90b6 6dbe d319 6d3e 03b3 903d
000000d0: 4ddd f53c 61f3 df3d 628e 78be 6642 303e
000000e0: 0d3c 023f 17c5 c13e ac67 b03e 5224 c73e
000000f0: 0379 fb3d e360 383e bcf9 063e 3473 a3be
00000100: 3bd5 9d3e 1a69 263e 2030 8c3d 9436 95bd
00000110: 5295 343c ee9c bfbe 914e 733e ff57 b63d
00000120: d373 8e3c 8068 7bbd ce04 3c3e 7450 9dbd
00000130: 077f 873e 1cfc 32bd 279f 90be 348a 393d
00000140: bb84 213f a423 593f a8f5 413d e085 493e
00000150: 4d30 15bf 4ab0 773f 795d 37be fa04 1cbd
00000160: 4148 5e3c 0b25 d1bf 53a1 363f d7ff bebe
00000170: eedb 0bbc a63d 86bc 9021 3a3e c61e 1bbd
00000180: f0f3 31bb b3f2 4e3e 5ec8 d93d 9aa7 34bf
00000190: 2f2e ac3c a639 da3c 9881 8e3d f07b a5bd
000001a0: 01c5 3c3d 4421 dc3d 9c8f 6dbd 9a22 9abd
000001b0: b846 d63c da4f b7bc 3805 81bd f9a9 cf3c
000001c0: fb64 933d 3fe0 453d ede7 a2bd 8d3f abbd
000001d0: dca9 48bd e1f9 c6bd 35d4 693c 7cba 5b3d
000001e0: aa5e d6bd e81e b13d 0984 94bc a6d8 afbd
000001f0: c429 dc3c 3b22 f73c 37fb a83d 462e d93b
00000200: 96f7 7ebc ea1c 9bbd 4d17 88ba 4a13 89bd
00000210: ed36 cebd 64e9 4f3d df6f d03d 4523 d7bd
00000220: 006b 9abd a34c 6a3d 0817 a6bc a9c9 abbb
00000230: 2752 41bc 9c27 8c3d abde 3a3d 1ced 6e3d
00000240: 4066 ebbd 2948 48bd 7d0c c1bd eb32 953a
00000250: 14a3 5e3d cbfb 6bbd d639 463c cf3a 483d
00000260: 14f8 d8bd 513d 593d 3f92 c1bc 9c25 273d
00000270: 8ec7 863c bfa9 73bb 81ab 02be fb44 f03d
00000280: b437 843b 5459 453d 2bb7 0b3d e5af ffbb
00000290: 1818 3fbd e4b6 fbbc 9bea eebd 7a36 d53c
000002a0: b727 603d d8d5 313d 62d8 ce3c 6781 dfbc
000002b0: ce93 28bd d8e7 8abd 9995 403c 3ef8 023c
000002c0: 1c7e ddbd 63b4 e7bd 908e 953b 9221 153d
000002d0: 3f42 10be ec04 2ebe 32d6 58bc 8eb6 53bd
000002e0: 1e81 59bb 8919 ce3c bf74 65bc 4e1d ae3d
000002f0: e2bc 65bd 1c26 2cbd 138e 963d 5ca7 55bd
00000300: 5f4f cdbb 7f82 71bd dc63 fb3c 6276 f4bd
00000310: 785d 7d3d b269 cf3c 7742 99bd b87b 0b3d
00000320: e95c 13bd d04a e63c 9cc9 96bd 8b06 28bb
00000330: 27d2 a9bd 26cb 36bc c06f 013d df21 323d
00000340: 4175 4f3d 97b2 c83c 7227 8a3d 8989 f13d
00000350: eb2d 2d3c 304d ddbd b94d 233d 6bb0 bfbb
00000360: ff41 993d 4313 d93c d547 6dbc 4344 253d
00000370: 5663 0fbd 4f12 b33d 303e a13d c38a dbbd
00000380: 2775 a13d dda3 42bd 96a0 4abd 9d4d b93d
00000390: bd9e 623d ab95 803d 5a1b a7bc 0abc afbd
000003a0: 1016 7f3a e704 a7bc 1c89 123d 85c1 2b3d
000003b0: 4339 b43a 2150 ca3c 7eb1 b63d fdee 533d
000003c0: 5e3a bcbd 8634 7c3c 0158 783d 3f0f 68bd
000003d0: b42b 623c b682 63bd 6943 5c3d b48a d7ba
000003e0: 4697 a93d 5589 3f3b 2158 00bd 8499 e5bd
000003f0: 4004 3f3d e43f 693d b909 bdbd 0245 a13c
-0.013160581 0.08708776 0.24123892 0.46611178 0.1135248 -0.537833 -0.15357071 0.032794442
0.05875025 -0.036650322 0.023277814 -0.037015196 0.1551994 0.02561714 0.46023837 0.12971017
0.46814623 -0.09076486 0.0688336 -0.007608735 0.20368077 -0.50234246 0.327865 -0.050481085
-0.065120466 -0.111670695 0.008482745 0.17021516 -0.10468001 0.07468521 -0.2543425 -0.0051441644
0.96981984 -0.1562519 0.7703057 0.21849628 0.11517047 -0.13634652 0.01643073 0.27655843
-0.35958895 -0.12274094 0.21888384 -0.52661127 -0.14415978 -0.030461319 0.2069462 -0.04670423
0.1287825 -0.23214173 0.23154382 0.07065394 0.030012751 0.10935093 -0.24273065 0.17212829
0.5087288 0.3784568 0.34454095 0.38894898 0.122789405 0.1800571 0.13181204 -0.3192383
0.30826744 0.1625103 0.068451166 -0.072858006 0.011021929 -0.37424415 0.2376044 0.08903503
0.017389214 -0.061378956 0.18361208 -0.07681361 0.26464102 -0.04369746 -0.28246424 0.045297816
0.63093156 0.8482001 0.047353417 0.19679976 -0.58276826 0.9675337 -0.1790675 -0.038090684
0.013567031 -1.633943 0.7133991 -0.37304565 -0.008536322 -0.016386818 0.18176866 -0.037871145
-0.0027153455 0.2020977 0.1063392 -0.7056824 0.021018116 0.026638817 0.06958312 -0.0808028
0.046086315 0.107485324 -0.057998285 -0.07526131 0.026156768 -0.022376943 -0.062998235 0.025349604
0.07196995 0.04830956 -0.079543926 -0.08361731 -0.048990116 -0.09715629 0.0142717855 0.053644642
-0.104672745 0.08648473 -0.018129366 -0.08586244 0.026875384 0.03016769 0.082510404 0.0066278307
-0.015561959 -0.07573874 -0.0010382921 -0.06693132 -0.1006907 0.050759688 0.10177588 -0.10504774
-0.0753994 0.057201993 -0.020274654 -0.0052425456 -0.011799372 0.068434924 0.04562251 0.058331594
-0.11494112 -0.048896942 -0.0942621 0.0011382973 0.054354742 -0.057613175 0.01209875 0.04888421
-0.10594192 0.05303699 -0.023629306 0.04080735 0.016452577 -0.0037180034 -0.12760736 0.11731907
0.0040349606 0.048180893 0.03411023 -0.0078029507 -0.046653837 -0.030726857 -0.11665841 0.026026953
0.054725375 0.043416828 0.025249664 -0.027283384 -0.041156583 -0.06782502 0.011754417 0.007993756
-0.10815069 -0.11313703 0.004564114 0.03640897 -0.14087771 -0.16994065 -0.013234662 -0.05168777
-0.0033188532 0.02515866 -0.014004885 0.08501683 -0.056088336 -0.04202853 0.07351317 -0.05216156
-0.0062655653 -0.05896234 0.030687265 -0.11936642 0.061856717 0.025318954 -0.0748338 0.034053534
-0.035977278 0.028111845 -0.07362673 -0.0025638666 -0.082920365 -0.011156833 0.031600714 0.043489333
0.05064893 0.02449922 0.06745805 0.11793811 0.01057003 -0.10805738 0.039869044 -0.005849888
0.07483291 0.026498443 -0.014482458 0.040348303 -0.035006844 0.087437265 0.078731894 -0.10719826
0.07883673 -0.047519553 -0.049469553 0.09048007 0.055327166 0.06278547 -0.020398784 -0.085807875
0.00097307656 -0.02038808 0.03577529 0.0419326 0.0013749975 0.024696412 0.08920573 0.05174159
-0.0919082 0.015393382 0.060630802 -0.056655165 0.013804365 -0.055544578 0.053775225 -0.0016444535
0.08280806 0.0029226143 -0.031334046 -0.112109214 0.046634912 0.056945696 -0.0923037 0.019686226

net.4.bias f4 [100]
00000000: 32dd 04bd 4b04 cbbd df81 bb3b 19d4 88bd
00000010: 321c 89bd 5827 423d e962 80bb a675 52bc
00000020: ed9f 913d 3cfb d73c 567c 603d da7d 043d
00000030: 4d13 ba3d ccb8 34bd 306a e4bc 8c8d 263d
00000040: 43b9 bb3d fdf4 983c 57bc d9bc 6efb b63d
00000050: 4ef1 a7bd 811c 263d 3ab8 2a3c f873 d23b
00000060: c114 a93c 099d 11bd 82b3 053d d42d cfbd
00000070: a6af 3b3c 28f2 92bd 3bf2 303d 6e17 593d
00000080: a0c9 853d 6b8e c23d ca15 2fbd 224c 36bd
00000090: 5e1a 80bc ccb6 1d3d 4674 c43a d874 80bc
000000a0: 0acd cc3d fe83 a53d 4131 31bd a41b c43b
000000b0: 6e6b 6d3d 8483 fd3c 4333 fb3c 7765 c9bc
000000c0: f48e 41bd 4ad1 d0bd 7587 55bd 94b0 3c3d
000000d0: b59a 4fbd d783 703d c2f3 6ebd 42f8 c03c
000000e0: 0649 8c3c 6475 a9bd 094c a3bd 34b6 c1bb
000000f0: 49df b03d 3897 5cbd 9129 883d b86f 753d
00000100: 709a 79bd f761 d9bb 5f01 33bd 4aec d4bc
00000110: 558e c33d 7f4a 793d 79dc 8cbc 51cc 33bd
00000120: 93f2 e2bd 6d78 f43c 647b a23d dbb5 f6bc
00000130: 2528 ca3c 4033 70bd 94c3 1f3d a75a d4bd
00000140: b05a ae3d f144 ee3d f405 0c3d f619 963c
00000150: 624a 07bd b053 f43b fa40 b53d 269f 99bb
00000160: 6fd9 babc 8340 b23d 1ff9 a23d e62c bebc
00000170: fb77 74bd 2698 4f3d 9edc dd3c a520 bdbd
00000180: cdd0 6ebd 329b adbd 5dee b33c 7223 563d
-0.03243751 -0.09912928 0.005722269 -0.066810794 -0.06694831 0.047400802 -0.003918041 -0.012845432
0.071105815 0.026364915 0.054806076 0.032346584 0.090857126 -0.04412155 -0.027882665 0.040662333
0.09166195 0.018671507 -0.026579065 0.08934675 -0.08200322 0.040554527 0.0104199 0.006422516
0.020639779 -0.03555015 0.032641895 -0.10116163 0.011455452 -0.07175094 0.04319976 0.05300086
0.065325975 0.0949982 -0.04274539 -0.0445062 -0.015637573 0.038504407 0.0014988265 -0.015680715
0.100000456 0.08081816 -0.043259863 0.0059847403 0.05796378 0.0309465 0.030664092 -0.024584515
-0.04725547 -0.10196169 -0.052131135 0.046066836 -0.05068465 0.058719482 -0.058337934 0.023555879
0.017124664 -0.082743436 -0.07973487 -0.005911613 0.08636338 -0.05385515 0.06648553 0.059920996
-0.0609383 -0.006633993 -0.04370248 -0.025991578 0.09548632 0.06086206 -0.017194973 -0.043896023
-0.110814236 0.02984258 0.07933691 -0.030116012 0.024677346 -0.058642626 0.039004877 -0.10368853
0.08513391 0.11634243 0.034185365 0.018322926 -0.03302992 0.0074562654 0.08850284 -0.0046881614
-0.022808759 0.08703711 0.07957672 -0.023214769 -0.059684735 0.05068221 0.027082738 -0.09234742
-0.058304597 -0.08476867 0.021964246 0.052279897

net.6.weight f4 [100, 100]
00000000: 91d3 10be b590 9ebd 3a77 543d 2136 d73d
00000010: 48aa 2bbd 3b59 733d 8997 9d3d 1fba 6bbd
00000020: 39c6 413d c183 7ebc a059 c93c 2dae 96bd
00000030: d270 d8ba 99c7 b4bd e69c c03c 93bb 373d
00000040: 4ef1 d4bd b95d 8e3b 620c 39bd cda4 193d
00000050: ddd2 563d b14e 3ebd 3656 47ba 14e9 e7bb
00000060: a94a 873d ada8 0fbd 3900 45bd ff2c ed3d
00000070: d3a6 6c3d 7279 3dbc c526 b2bc b4a8 90bd
00000080: 5412 d0bd 6feb a23d f8a5 263d 491e 69bd
00000090: c484 b43d 7e26 babd e3ab 533d 1e0e 803d
000000a0: 68b0 00be 9945 b9bd acdd 20bd e311 0e3d
000000b0: 32bc ccbc c668 55bc 154b 11be a3a9 9cbd
000000c0: fad2 bbbd 410f a0bd 84a0 2e3e 13c3 32bd
000000d0: d92d f7bc 60e1 703c ec8b e63b 3de1 9abc
000000e0: 0f10 5ebc d30e d93b 8236 5abd 60d9 1f3d
000000f0: 3e3a a93d 5446 26bd ae00 e63b 5729 883d
00000100: b08d 78b8 74b9 3ebd 046e 13bd 2703 aabd
00000110: d493 f4bd 6700 e53c 5d48 60bc d932 dabd
00000120: 4743 cc3c e4a6 b23c 2344 8abd 2ae7 fabd
00000130: 53ab a9bd a2e2 273d 5e5d 463d 4e91 0bbd
00000140: 5937 d1bd b49e 70bc 8570 a9bd db3b e73c
00000150: 6fd8 be3d 4889 7cbc 0e4b 52bc cb25 03bd
00000160: 69d7 9fbd 554d d5bd 5b86 9abd f880 76bd
00000170: a1dc 91bd bd57 923d 3119 b23d 359b 793d
00000180: 45d8 9ebd 559a 633d 3851 5f3d 3573 16bd
00000190: 620e 1c3d 8d42 953d 3d79 99bd 8c85 0ebe
000001a0: 5e4d 1d3d 66b4 e4bc 5e22 81bd 614b 9dbd
000001b0: 61f7 953d cb4b 7b3c 3607 dcbd 602d 77bd
000001c0: 85ee 3b3d 23aa 663d ed88 f8bc 4cbb 9cbd
000001d0: 830d ea3d 7444 6abd 887a 72bd 3656 8cbd
000001e0: f7ed 12bc 781a 7ebc a739 013e 0e12 ce3c
000001f0: dfca cc3d 8331 a43d 65b6 da3b 677c 4abe
00000200: 4008 983d af16 413d f096 be3c b3d5 7cbc
00000210: 4b4a 6abd 3c62 aebd 1c4f 8f3c ff05 f3bc
00000220: 71c9 493b bf32 2e3d f3a0 9f3c c1f2 7d3d
00000230: 246a f43d 6372 1abc 6328 c53d 45d5 003d
00000240: bcd0 773d 3b32 b3bd 99fa c7bc f9b6 c23d
00000250: 9d41 b4bc 086d 2dbd 6fac 01be 69f7 973d
00000260: 6ee2 0abc 6c9d 033e 186f 9b3d c2dd 30bd
00000270: 3231 bd3d a2cb 143a 2374 eebd 4774 cd3d
00000280: a5f2 81bc 15fa a93d e9bf 38bd 354d 30bd
00000290: 03dc f63c f354 873d 8534 25bd e717 013e
000002a0: a319 f93d d8cc a73d 7ae2 bf3d 36f3 b13c
000002b0: e529 7b3d 5147 653d 0bf7 003d 075b 363d
000002c0: cb54 cb3d 6b4a c6bd 2259 d83d 2d0e 7abd
000002d0: 7167 753d 728b c53d 0c6c 24bd 00d0 8bbd
000002e0: 685c c5bd b2a2 e5bd 8a01 0e3d 0582 bfbd
000002f0: efc5 9d3d e7ee 4ebd f8d1 e63d 0213 c8bd
00000300: cb65 b33d 234e 6e3d 6fe8 60bd aaf2 29bd
00000310: f1e4 9e3b 482a 74bb 1a30 6dbd dcca afbd
00000320: 50c7 eebd 0bb8 c73c c06f 6e3d 10b1 b5bd
00000330: 4ec4 06bc 2e14 803d 43d1 50bb a313 cc3d
00000340: bf51 9dbd 372a 30bd 33bb f0bc 25d8 a23d
00000350: 1aa2 2b3d 0009 37bd 970b 393d 88de 2cbd
00000360: 984a ac3d aa6c 813d 2f12 c1bd 4091 04bc
00000370: ca4f aa3d 4cbb b8bd 1e9a 383d 4a1f 4d3d
00000380: affa b7bd da18 6d3d 84d9 7dbd 41f5 06bc
00000390: 1019 02be 6d53 94bc cb61 8abd be18 88bd
000003a0: e3e9 2a3d db77 8a3d f0c6 103c 1077 c4bd
000003b0: bb4c e3bd db11 853d fd24 ab3d a925 98bc
000003c0: 986b aebd a251 d13a 2aaa 4abd 095c 083d
000003d0: 8048 9b3d 31cc cb3d 7f80 5e3e d299 d73d
000003e0: 065e c9bb 416a 26be db64 643d 040e acbd
000003f0: b141 533d f93c 863d 2441 efbd 4483 fbbd
-0.14143206 -0.077424444 0.051871516 0.10508371 -0.04191044 0.05941127 0.07694919 -0.057550546
0.04730818 -0.015534342 0.02457887 -0.0735744 -0.0016513115 -0.08827133 0.023512315 0.04485662
-0.10397588 0.0043446687 -0.045177825 0.037510682 0.05244719 -0.046461765 -0.0007604094 -0.0070773456
0.06606037 -0.03507297 -0.048095915 0.11580848 0.057776283 -0.011564599 -0.021747002 -0.070634276
-0.10159746 0.07955062 0.040685624 -0.056913648 0.088143855 -0.09089373 0.051677596 0.06252693
-0.12567294 -0.09046478 -0.039273903 0.034685027 -0.024992082 -0.013025468 -0.14188798 -0.07649543
-0.091711 -0.078154095 0.1705342 -0.04364307 -0.030173229 0.014702171 0.007035723 -0.01890623
-0.013553633 0.0066240816 -0.05327464 0.039025664 0.08263062 -0.040594414 0.007019124 0.0664851
-5.9259764e-05 -0.04656358 -0.03599359 -0.083013825 -0.119422585 0.027954293 -0.013689128 -0.1065423
0.024934424 0.021808095 -0.06751277 -0.12251122 -0.082846306 0.04098762 0.048428886 -0.03407412
-0.10215635 -0.014686275 -0.082734145 0.028226783 0.09318625 -0.01541359 -0.012835277 -0.032018464
-0.07804758 -0.104151405 -0.075451575 -0.060181588 -0.0712216 0.07145641 0.08696211 0.060939033
-0.07756094 0.055567104 0.054520816 -0.036730964 0.038099654 0.07288084 -0.074938275 -0.13918132
0.03840386 -0.027918052 -0.06305383 -0.07680393 0.073225744 0.015337895 -0.10743563 -0.060346007
0.045881767 0.0563146 -0.030338729 -0.076529115 0.114283584 -0.05719419 -0.059198886 -0.06852381
-0.008967868 -0.01550924 0.12619649 0.025155094 0.09999632 0.08017256 0.006674575 -0.19774018
0.074234486 0.047140773 0.023265332 -0.015431809 -0.057199758 -0.085148305 0.017493777 -0.029665945
0.0030790234 0.042528864 0.019485926 0.061999086 0.11934307 -0.009426686 0.09626844 0.03145339
0.0605018 -0.08749815 -0.024411486 0.095075555 -0.022003943 -0.04234031 -0.12663434 0.074202366
-0.008476837 0.1285302 0.07589549 -0.043180235 0.09237899 0.00056760956 -0.11643245 0.10031944
-0.015862772 0.082996525 -0.045104895 -0.04304238 0.030134207 0.06608 -0.04033329 0.12606774
0.12163093 0.08193368 0.09369369 0.021722417 0.06131925 0.055976216 0.0314856 0.044520404
0.09928282 -0.09682163 0.10563876 -0.061048675 0.059913103 0.09645738 -0.040142104 -0.06826782
-0.09636766 -0.11212672 0.034669437 -0.09350971 0.077037685 -0.050520804 0.11270517 -0.097692505
0.0875965 0.058179986 -0.054909166 -0.041491188 0.0048490693 -0.0037256647 -0.0579072 -0.08583614
-0.116591096 0.02437975 0.05821204 -0.088716626 -0.008225514 0.06253849 -0.003186301 0.09964683
-0.076816075 -0.04300901 -0.029386139 0.079513825 0.04190264 -0.044686317 0.04517707 -0.04220441
0.08412665 0.06319554 -0.09427296 -0.008091271 0.08316 -0.09020099 0.045068853 0.050078668
-0.08983361 0.05788503 -0.061975017 -0.008237184 -0.12704873 -0.018106187 -0.06756934 -0.06645344
0.041726958 0.06761142 0.008836493 -0.09593022 -0.110986196 0.06497546 0.08356664 -0.018572645
-0.08516616 0.0015969763 -0.049478687 0.033290897 0.07582188 0.09951056 0.21728705 0.10527386
-0.0061452417 -0.1625147 0.055760246 -0.08401111 0.05157632 0.06554598 -0.116823465 -0.12280896

net.6.bias f4 [100]
00000000: 33af c6bd 42dd c7bc 587d 033d d51e 2abc
00000010: ce74 e8bd 3da9 abbd fe7f 033d 1904 943c
00000020: 4647 91bd 6378 2ebb 9053 babc cfea cc3d
00000030: 3c02 ef3d c41d 653c 1479 04bd f570 b7bd
00000040: fb71 a4bd bc8b db3d b0fb 9cbd c3ee d8bd
00000050: 0535 073a 7002 c03d b5f3 3ebd 74f4 02bd
00000060: 778a 1c3d aee2 c63d f857 823d 071f 54bd
00000070: c1f5 4a3b 4fbb e73c 332d 4dbc ed9d 8abd
00000080: dce9 b83b 04db 563c 55cd 8bbc 0713 4dbd
00000090: a293 1b3d ddcd a33d 56a2 c73d 8b5b 123d
000000a0: dd03 46bd f11a 8cbd e789 88bd 4c99 6ebd
000000b0: 8974 c6bd a1a1 8cbd c4c0 13bd 70cc 9e3d
000000c0: d8cc ae3d 7f6a c23b 5acb f73c cf5d f0bc
000000d0: 6746 91bd 3f08 e63d b822 60bd d511 d33a
000000e0: 572d dfbc 6496 aebd 054d d33c 9626 a8ba
000000f0: a09d 01bc 1b10 95bd 21be 6bbc 7666 e63d
00000100: d099 9b3d 5601 e73c 5c0a 9dbd 84ee cabd
00000110: 99e2 2abd e6c1 76bd 74c4 b53d 4748 90bd
00000120: 3f2a 703d 420a 8cbd f69d bdbd 1db0 ab3d
00000130: ae71 cf3d fe77 cd3d 0575 7ebd b00f 863d
00000140: 8480 d93c 8bb6 a3bd 0663 8f3d dd4a 85bd
00000150: e667 03be a480 2f3d 7007 a23d 10ad 3a3d
00000160: 1463 d4bc 1a20 5a3d 789f cc3c 7613 6c3d
00000170: 2937 cebd 7eaf f1bc 6f16 4fbd babc 313c
00000180: 879d 963d 04af 813d 9bb0 7b3c 7fe4 afbd
-0.09701385 -0.024397496 0.03210196 -0.0103833275 -0.11350404 -0.08381889 0.032104485 0.01806836
-0.070936725 -0.002662205 -0.022744924 0.10005724 0.11670348 0.013984147 -0.03234203 -0.08957092
-0.080295525 0.107200116 -0.07665193 -0.10592415 0.0005157742 0.09375465 -0.046619136 -0.03197141
0.038217988 0.097112045 0.06364435 -0.051787402 0.0030969235 0.028287558 -0.012522983 -0.06768403
0.0056431126 0.013113741 -0.017065683 -0.050066974 0.03798259 0.0799825 0.0974776 0.035731833
-0.048343528 -0.06841076 -0.06666928 -0.058251664 -0.09690196 -0.06866766 -0.036072508 0.07753837
0.085351646 0.0059331055 0.030248333 -0.029341606 -0.07093506 0.112320416 -0.05472061 0.0016103337
-0.0272433 -0.085247785 0.025793562 -0.0012828882 -0.007911116 -0.072784625 -0.014388592 0.112500116
0.07597697 0.02819888 -0.076679915 -0.099087745 -0.041720007 -0.06024351 0.08875361 -0.07045036
0.05863404 -0.06837894 -0.09258644 0.083832 0.101291046 0.10032652 -0.062123317 0.06545961
0.026550539 -0.07993802 0.07001309 -0.0650842 -0.12832603 0.04284729 0.07911575 0.0455752
-0.02592615 0.05325327 0.024978384 0.057635747 -0.10069115 -0.029502627 -0.050558504 0.010848219
0.07354265 0.0633221 0.01536193 -0.08588504

net.8.weight f4 [100, 100]
00000000: 2b5b cebd 9ff4 a53a 08af 6abc b2b2 a4bd
00000010: bff9 4e3d f2d7 9d3d c2f5 b5bd a6db 313d
00000020: 817f 54bc e786 aa3d 85bb d2bd 14db 3fbc
00000030: c7b9 993d b7ba 803d 2e9b 973d 9fba c13c
00000040: f94b d63b bc34 8d3c 60f0 0c3d 3830 243d
00000050: a4f1 79bc 9b4f 2c3d e29a 92bc 0d26 303d
00000060: ca80 b03b 7a91 02bd eae8 943c 8904 c63d
00000070: 5b1d cf3d bb95 473d 7cf3 643a 729f abbc
00000080: ed3a 9c3d 3fd7 bbbd a155 2a3d f34d 2e3e
00000090: 1b70 303d 2cdd 8f3c 3e98 8ebd 0a0d 03be
000000a0: edaf c7bd c174 62bd 89a0 6a3d 50c3 93bd
000000b0: a90a 88bd e899 f23d baa7 953d 7c2c 43bd
000000c0: 0878 a73d 86fc 84bd db8b 863c 36a5 003e
000000d0: f9a4 38bd cdb2 163d f8ca 0cbd 8c93 45bd
000000e0: a209 a7bc ddc2 f3bd 8d85 bebd bd07 723d
000000f0: eda1 bd3d 55b2 65bd c6c2 a2bd f7bc a43b
00000100: e672 9abd 58cb 68bb ee47 88bd 4c65 c53c
00000110: e2d8 2bbd d744 c33d e063 a03d 4fd1 e9bd
00000120: b101 00be fdb1 d2bd 3128 073c 0f57 a33d
00000130: 97b4 d7bc 9317 b6bb 0646 903d fced b93c
00000140: cc75 a93d c418 6fbd 74da 883c 3589 583d
00000150: bea9 563d 9569 783c ba02 9ebd 21df c1bd
00000160: 09a3 c83c 5499 68bd 4b10 8e3d 3262 bfbd
00000170: 78c8 943d 7cb4 a7bd 2df8 ce3d c1d1 c6bc
00000180: d11a b73d b6df 8b3d 596b a33c 72cd 6f3d
00000190: f2df dabb 8b02 213c 2135 1fbd eea9 9c3d
000001a0: 2c69 793d 74c0 9f3c a5e8 babd 730b 4bbd
000001b0: 4c8a f3bd 764e c6bd 132f 733d d627 7f3d
000001c0: 05ca 933d 5220 a9bd bddf f0bc 5fb1 043d
000001d0: 17ae c13d 517b a83d bad4 97bc 8481 9cbd
000001e0: 7d28 c2bc f1f7 b6bd 58ec a13d 6753 463d
000001f0: 5d11 89bd 2fa2 7abd 821f b43d 8175 0cbe
00000200: 4597 6e3c 3e54 b0bd 0cf8 8bbc bca8 32bd
00000210: 717e b2bd 6f83 6fbd 8cc3 843c 6365 e33b
00000220: edd1 633d 57a2 8b3d 04f7 86bd 808c 4dbd
00000230: 6754 b0bd e506 91bc f1ea d6bd 5e17 313d
00000240: dcf0 b0bd bb80 61bd 24ca b13d db9a d73d
00000250: 8a1a 3abe f006 ab3d a2da f4bd f4bc 8abe
00000260: 444c 66be 9a11 81bc 9bae a93d e9f4 b6bd
00000270: 3859 c23c 4a69 33bd 4071 83bc 533d 6fbd
00000280: 0c77 df3d 00c8 863d 8a2f 803e 561e 79bd
00000290: 0c24 933d 7aed 843d a47c 1f3d dde1 6bbd
000002a0: 175c 03bd 0c86 36bd 9758 98bc d57d 02be
000002b0: 46c4 47bd 608c 2fbd 907e a6bd 4ca5 30be
000002c0: 501a e5bd 6306 68bd 718c 293b 5b07 68bd
000002d0: 725e 07be abfe 00bd c73d a9bc 5fc0 53bd
000002e0: a5a9 b8bd 652e 2fbd c5d0 d23c 4aa5 51bd
000002f0: 1bb3 64bc e166 f83c 6414 10bb ec79 f53b
00000300: ef19 d7bc cd5a 14be c8a6 14be 5fe3 3bbc
00000310: 3743 563d 8be6 88bd 563b f9bc c79c 5c3c
00000320: 47e5 7f3c e712 53bd 1e57 0b3e dddc 9ebe
00000330: b660 6c3e 28d0 823e 618d 0fbd 3b08 49bd
00000340: 6bf2 cb3d 7700 403d 75cf 7b3d 5073 763d
00000350: 33e3 93be 5823 3fbc 9ce1 34bd 7f80 09bd
00000360: 9a10 9e3d efc3 83bd 237b b53d 0db9 3dbd
00000370: 032f 803e 0304 08bd d630 313e 7b44 953d
00000380: 484c 953c 3e42 273e 2141 9cbd 14ef 8d3d
00000390: e2d7 99bc 284f 32be a682 0dbd 3897 be3d
000003a0: 8bb4 a43c af61 48bb b0af c43c 4ee7 af3e
000003b0: 7c7f 733d f02f a8bd 79d8 64bd 5e0c d23d
000003c0: 694e 153e 7c40 27be be51 1dbd b92a 453e
000003d0: 1d65 2c3e 85e4 70bd 7348 81bd 7e98 303d
000003e0: de72 d83d e325 5dbe c1f5 ea3d 041e 583e
000003f0: 0912 b03d a255 2dbe 604e 113e 56b5 fcbc
-0.10075983 0.0012661404 -0.014323957 -0.08041896 0.050531145 0.07707204 -0.08884765 0.043422364
-0.012969852 0.08326512 -0.10289673 -0.011709947 0.07506137 0.06285613 0.07402645 0.023648558
0.0065398184 0.01723706 0.034408927 0.040085047 -0.0152553655 0.042068105 -0.01789612 0.043005038
0.0053864466 -0.03187702 0.018177468 0.09668834 0.10113021 0.04872678 0.0008733792 -0.020950053
0.07628427 -0.09171914 0.04158557 0.17021923 0.043075662 0.017561518 -0.06962632 -0.12797943
-0.09750352 -0.055287126 0.057282005 -0.07214987 -0.06642658 0.118457615 0.07307382 -0.047649845
0.08177191 -0.064934775 0.01642411 0.12563023 -0.045079205 0.03679161 -0.034373254 -0.048236415
-0.020390335 -0.119024016 -0.093028165 0.05908941 0.092594005 -0.056078274 -0.07947306 0.005027409
-0.075414464 -0.0035521593 -0.066543445 0.024096154 -0.041954882 0.095346145 0.0783155 -0.114168756
-0.12500645 -0.10287855 0.0082493285 0.079755895 -0.02633123 -0.0055570095 0.07044606 0.022696488
0.08274421 -0.058373228 0.016705729 0.052865226 0.052407973 0.0151618915 -0.07715364 -0.094663866
0.024491804 -0.05678685 0.069367014 -0.09344901 0.07264799 -0.081887215 0.101059295 -0.02426994
0.08940662 0.06829779 0.019948648 0.058545537 -0.0066795284 0.009827266 -0.038869027 0.07649599
0.060891315 0.019500948 -0.09126405 -0.049571466 -0.118916124 -0.09682934 0.059371065 0.06229385
0.072162665 -0.08258118 -0.029403562 0.032395717 0.09457033 0.08226646 -0.018534053 -0.07641891
-0.023700947 -0.0893401 0.07906407 0.048419382 -0.06692765 -0.061189827 0.08795072 -0.13716699
0.014562433 -0.08609818 -0.017086051 -0.04361795 -0.08715523 -0.058474954 0.016206525 0.0069395765
0.055620123 0.06818073 -0.06590083 -0.05018282 -0.086098485 -0.017703483 -0.1049403 0.043235175
-0.0863969 -0.055054408 0.086811334 0.10527583 -0.18174186 0.083509326 -0.119557634 -0.27097285
-0.2249003 -0.015755463 0.082852565 -0.08933432 0.023724183 -0.043801583 -0.016045213 -0.058408093
0.10911378 0.06581116 0.2503627 -0.060819946 0.0718461 0.064906076 0.038937226 -0.057588447
-0.032070246 -0.04456143 -0.01859693 -0.12743314 -0.048771165 -0.04285848 -0.08129609 -0.17250556
-0.11186659 -0.056646716 0.0025871063 -0.05664764 -0.13219622 -0.03149287 -0.02065934 -0.05169713
-0.09016732 -0.042768855 0.025734315 -0.051183023 -0.013958718 0.030322494 -0.002198481 0.007491341
-0.026257483 -0.14487763 -0.14516747 -0.011467784 0.052310195 -0.066845976 -0.030423801 0.013465113
0.015618629 -0.0515317 0.13607451 -0.3102788 0.23083767 0.25549436 -0.03504694 -0.049080115
0.09958347 0.046875443 0.061477143 0.060168564 -0.28884277 -0.011666141 -0.04416047 -0.03356981
0.0771801 -0.06433856 0.08861377 -0.046319056 0.25035867 -0.03320695 0.17303786 0.07288452
0.01822485 0.16333863 -0.0762961 0.06930366 -0.018779699 -0.17413008 -0.034548424 0.093061864
0.02010562 -0.0030575802 0.024009556 0.3435616 0.05944775 -0.08212268 -0.055870507 0.10256265
0.14580692 -0.16333193 -0.038408034 0.19254579 0.16835447 -0.058811683 -0.06312647 0.043114178
0.10568784 -0.21596484 0.11472655 0.211052 0.0859719 -0.16927198 0.14190054 -0.030848186

net.8.bias f4 [100]
00000000: 6012 e43d 3d64 a33d ff11 05bd e038 be3d
00000010: e6df 833d 75c8 ca3c 541d e93d 77da 383c
00000020: 3622 683b 70c9 3f3c 0925 dbbc 1b82 d8bd
00000030: 9f8d d13a af62 b73d 2246 e2bc 73a4 91bd
00000040: f3f0 efbc 21d7 4c3c 1f20 bfbc 786f 7c3d
00000050: 1499 69bd f14b f1bd 01c6 34bd 322e 1d3d
00000060: 7d19 18bd aa00 773d 371d 483c a0b0 8d3c
00000070: 2626 b7bd 6af2 85bd b87e 8a3d 72da d4bd
00000080: 234c 113e a0ef cabc b4fc 8abd 3f1d d23d
00000090: 355d d03d 3178 5f3c 617d c33c 5234 9eba
000000a0: 172c 923d 9e00 5fbd 3647 c63d 9fc4 ae3c
000000b0: 6992 18bb 0255 9fbc 58cf 26bc 8e32 67bc
000000c0: b18e 21bd a521 943d f1fa 203d f168 94bd
000000d0: 9a55 7bbc 3461 9abd df50 80bd c055 2c3d
000000e0: 2e8e 133d afbe 273d b23a ca3c 924d 9f3c
000000f0: c193 dcbc 882e ecbd 749b 263c 6aed b6bc
00000100: 7102 c63c 97f5 49bd de6d c2bd 2fd4 28bd
00000110: 099d aa3c cc7b 94bd c452 ac3d 2dcd f53c
00000120: ddef d0bc cf33 633d 1102 a8bd f898 09bd
00000130: 57bd 9bbd 4548 943d 83a1 cf3d 77f9 ffbb
00000140: d27c ffbb d323 d53c dc00 883d 01d3 903d
00000150: 21a6 f63a a78f b03d d25d ab3d c9eb cfbb
00000160: adda c3bc d9b2 73bb e65d 36bd c3c4 89bd
00000170: d61e 3dbd 4e1c 10bd c7c8 bebd c09d 083d
00000180: 0c2a c0bd ca46 01bd 1ab4 90bd 7b37 f6bc
0.11136317 0.07978103 -0.032487866 0.09288192 0.064391896 0.024753788 0.11382547 0.011282555
0.0035420782 0.011705741 -0.026751058 -0.10571691 0.0015987641 0.08954369 -0.027621333 -0.07111444
-0.029289698 0.012502463 -0.023330746 0.061629742 -0.057030752 -0.11782063 -0.044134144 0.038374133
-0.037133683 0.060303368 0.012213997 0.017296135 -0.08942823 -0.065403774 0.06762451 -0.10393228
0.141892 -0.024772465 -0.067864805 0.102594845 0.10174028 0.013639496 0.023863496 -0.0012070036
0.07137316 -0.054443948 0.09681551 0.02133399 -0.0023280627 -0.019449715 -0.010181271 -0.014111174
-0.03944272 0.0723298 0.039301816 -0.072465785 -0.015340233 -0.07538071 -0.06265425 0.042073965
0.036024265 0.040953334 0.024686191 0.019446168 -0.026925923 -0.11532313 0.010168899 -0.022330005
0.024171086 -0.04930648 -0.09493612 -0.04121798 0.020826833 -0.07250175 0.08414224 0.030005062
-0.025505 0.05546933 -0.08203519 -0.033593148 -0.07604473 0.07240347 0.10138228 -0.007811721
-0.007796862 0.026018059 0.06640789 0.07071496 0.0018817821 0.086211495 0.08367504 -0.0063452465
-0.023907984 -0.003718546 -0.044523142 -0.067269824 -0.046171986 -0.035183243 -0.09315639 0.033353567
-0.0938302 -0.03156165 -0.07065602 -0.030055752

net.10.weight f4 [100, 100]
00000000: 04bd b23c 0d8a b33d 5a79 ecbc e0a5 933d
00000010: 017c ca3d 3ba1 a2bc 0eeb 4d3d 83ac d83c
00000020: 74a0 813b 917e 9b3c c1de d3bd a388 abbd
00000030: b5a6 933d ac3a 06bd 1178 1d3e e9c2 ac3d
00000040: cd8c c2bd 6481 b13d d8a9 bd3c c918 0dbd
00000050: 4f5a c4bd 94b1 c7ba f282 1abd fee4 9ebd
00000060: 49bc d1bd 18e9 543d d534 97bd 08ab c8bd
00000070: ca7f 5dbd f33e 103d 460d ddbd 4753 4ebd
00000080: 60f2 d43c 049c bf3c ef09 63bc a683 d53c
00000090: 5947 b8bd c602 dfbd 14a6 0fbc 44c2 30bd
000000a0: 7182 a5bc d044 db3c 164f 8b3d 74ff b73d
000000b0: 7099 843d 5032 5dbd ee70 d1bc cec9 c93d
000000c0: ec5d e1bd c79e 193d f9ed 33bd 64d1 8d3d
000000d0: 452a 033b e93e 8f3d 3844 bfbd abfc 98bd
000000e0: 4f43 933d 27d1 b13b 03de 893c 662b ac3d
000000f0: 04cc 1ebd b6a5 8f3d adbb 1c3c c667 0d3c
00000100: f33c 913d 9cd5 ee3b d9de 76bd 4e48 4d3c
00000110: 7267 17bb db80 9e3d a667 ea3c 91aa dbbc
00000120: 6c5a a03c 5e6a 46bc de52 2a3c 14bd 8b3d
00000130: 9656 7b3d 2d56 19be 8e02 d63d 7989 5abc
00000140: 4e5b a7bd 90eb b6bd 5b1a 663d 3965 3b3d
00000150: 2fb7 983b e167 c63c 9474 043d 6e2b 6cbd
00000160: b857 e53c d3d4 d6bd 13b1 fa3d 6d91 a8bc
00000170: 54a1 ff3c 3249 863d 905a adbd 7333 613d
00000180: 6747 34bc 5e02 213d 060a c4bd 2f0e 71bd
00000190: 907c d33d 373d 5f3d 26f8 d33c bf99 d23c
000001a0: 6995 b03d 0b6e a63d 1161 01bd 8b62 c4bd
000001b0: c80e 9c3d 0e04 8b3d a6b3 ac3d 7cc9 08bd
000001c0: d8b5 ad3d 311b 15bd 8782 20be 1d4d f6bd
000001d0: 26a1 553d df18 95bc 3619 95bd 7004 7abd
000001e0: 1194 6c3c d8e1 98bd fd23 d8bd 241a bc3d
000001f0: 00de de3d e21b 97bd 6284 983d 8891 d83d
00000200: 0048 02bd c814 7abd d149 95bc c42b 9bbd
00000210: 02eb aa3d 3981 c9bd c01b 653d 2344 9d3d
00000220: d360 123d 9bcc 7bbd f8b4 153d d91d 2b3d
00000230: 55d7 743d 5659 4ebd 5de1 523d 4bb6 dbbd
00000240: 8dbf 80bc 8c48 953c ba72 a83d 30b7 08bd
00000250: 46f5 7c3d 2059 953d 4d3d 923d 1ead 9d3c
00000260: 83a6 1c3d c813 53bd 03d4 5f3d f2e6 24bc
00000270: 236f c4ba 409a 093e c612 64bd 515c 46bd
00000280: 6956 4dbd 67cb ddba 4232 d33d 327b 93bd
00000290: 2303 9c3d 00bc d83b 8ff4 353d 81a7 39bd
000002a0: 8333 6e3c 62e1 65bd bde6 d5bd 8a7f 1a3d
000002b0: 09bc 2f3b 054b 24bd 5cc4 86bd 608c bc3d
000002c0: 4b36 87bc 90f9 023e 97c6 983d 2fc9 9e3b
000002d0: 493f 15bd 9e13 a9bd 61c2 babd 4d75 a5bd
000002e0: 40a5 793d 8a91 f23d 79a9 1dbc cc82 b23d
000002f0: ccc8 4939 25aa 6e3d 21bf 873d 4c5e 75bc
00000300: 9489 d0bd 96c7 d6bd b3d9 b23b b019 f63d
00000310: 9f14 d5bd 3b2f ccbd 1d6d a5bd ea44 56bd
00000320: 29d0 3f3c cff9 273d a5ac 163d a53c c5bd
00000330: f270 ac3d bbc4 9ebd 8626 853d 59ec 92bb
00000340: 1a4c 75bd c925 ac3d 5709 09bd c846 563d
00000350: cc7b 8bbd 3d89 2ebd 5872 953c d619 6c3d
00000360: 187f 263d 0e89 97bd 39ac 0e3d 1934 9c3d
00000370: d875 2dbd 6678 4dbd 388f 13bd ce70 fabc
00000380: 6e74 503d 56e2 ac3d 86ec b13d c583 8d3d
00000390: 9b54 3f3c 7c12 eebc 077e 6a3d 9aa1 29bd
000003a0: 6156 0d3d 9ab3 19bd 1c6b e5bd a47f 5fbd
000003b0: c03c b03b 5989 3c3d e14e f8bd 264f 163d
000003c0: 3fa0 95bd dedd e53c ad25 4b3d 02c5 893d
000003d0: bb64 a9bc 0c8e 48bc 71b2 9f3d 1bb6 a83d
000003e0: 8ad3 b9bd fb1c f83c 2215 2c3d 0f27 bb39
000003f0: 8961 28bd 77f0 b23c 61bb 243c f591 bb3c
0.021818645 0.087665655 -0.028866459 0.072093725 0.09886933 -0.019852271 0.050272994 0.026449447
0.003955895 0.01898125 -0.10345221 -0.08375671 0.07209531 -0.032770798 0.15377833 0.08435614
-0.09499512 0.086672574 0.023152277 -0.034447465 -0.095875375 -0.0015235418 -0.037722535 -0.077585205
-0.10240991 0.051980108 -0.07383124 -0.097982466 -0.054076947 0.035216283 -0.10793547 -0.05037239
0.02599448 0.023389824 -0.013857349 0.026063751 -0.089979835 -0.10889201 -0.008767623 -0.043154016
-0.0202038 0.02676621 0.06802194 0.08984271 0.064745784 -0.05400306 -0.025566544 0.09852944
-0.11004242 0.037504937 -0.04392812 0.06924704 0.0020014208 0.06994421 -0.093391836 -0.074700676
0.071905725 0.005426544 0.016829496 0.08406715 -0.038768783 0.07014029 0.00956623 0.008630699
0.07091703 0.007288648 -0.060271118 0.012529446 -0.002310243 0.07739421 0.028613877 -0.02681473
0.019574367 -0.012110321 0.010395734 0.06823173 0.06136187 -0.1497428 0.10449706 -0.01333844
-0.08171712 -0.08931649 0.05617748 0.04575083 0.004660509 0.024219455 0.03233774 -0.057658605
0.02799593 -0.10489812 0.122408055 -0.020577157 0.031204857 0.0655693 -0.08464539 0.054980706
-0.011003352 0.0393089 -0.09572224 -0.058851417 0.10326493 0.05450174 0.025875162 0.025708077
0.08622248 0.08126458 -0.03158671 -0.09589108 0.07620007 0.06787883 0.08432703 -0.033395275
0.084819496 -0.036402885 -0.15674792 -0.12026427 0.052155636 -0.018200336 -0.07280199 -0.06103939
0.014439599 -0.07464951 -0.10553739 0.091846734 0.10882187 -0.07378365 0.07447125 0.10574633
-0.031806946 -0.061054975 -0.018223675 -0.07576707 0.083456054 -0.098391004 0.055934668 0.07679012
0.03573687 -0.061474424 0.03654954 0.04177651 0.05977567 -0.050378166 0.051484454 -0.10728129
-0.015716339 0.01822307 0.08225007 -0.033377826 0.06175735 0.0729239 0.071405984 0.019247588
0.038244735 -0.051532537 0.05464555 -0.010064827 -0.0014986735 0.13437748 -0.055681966 -0.048427884
-0.050131235 -0.001692158 0.1031232 -0.07201232 0.07617786 0.006614208 0.044422682 -0.04532576
0.014538649 -0.056123145 -0.104444005 0.037719287 0.0026814959 -0.040110607 -0.06580421 0.09206462
-0.016505381 0.12790513 0.07459753 0.0048457603 -0.036437307 -0.08255695 -0.09119106 -0.08079014
0.06094861 0.118441656 -0.009622925 0.08716354 0.00019243656 0.05826773 0.06628252 -0.014976095
-0.10182491 -0.10487287 0.0054580807 0.12016618 -0.10404324 -0.09969946 -0.08077452 -0.052311815
0.011707344 0.04100972 0.03678574 -0.09630708 0.0841998 -0.07752367 0.065014884 -0.0044837412
-0.05988703 0.084056444 -0.033456173 0.052313596 -0.06810722 -0.04261135 0.018243 0.057641827
0.04064855 -0.07399188 0.034832213 0.07627124 -0.042348713 -0.05016365 -0.036025256 -0.030571368
0.050892286 0.08441608 0.086876914 0.06909899 0.011677886 -0.029061548 0.057249095 -0.04141388
0.034506205 -0.037524797 -0.1120207 -0.054565087 0.0053783357 0.046029422 -0.1212442 0.036696576
-0.07305955 0.028059896 0.049596477 0.067270294 -0.020677915 -0.012240898 0.07797707 0.08237859
-0.09073551 0.030287256 0.04201234 0.0003569652 -0.04110864 0.021843178 0.01005444 0.022896746
