models/heatalpha/tanh/heatalpha_50.pth (torch, 977047 bytes, 51 tensors)

net.0.weight f4 [100, 3]
0	0xbe25b22b	-0.16181247
1	0xbf10d5e8	-0.56576395
2	0x3cbe62c9	0.023240464
3	0xbf071449	-0.5276533
4	0xbea5343c	-0.32266414
5	0x3e5cdee0	0.21569395
6	0xbec46103	-0.38355264
7	0xbb60c656	-0.0034297905
8	0x3ed63e7b	0.41844544
9	0x3e619db8	0.22032821
10	0x3e336751	0.17519881
11	0x3e4a4264	0.19751889
12	0x3998bf8d	0.00029134416
13	0x3e47bee7	0.19506417
14	0x3eb02195	0.3440062
15	0x3e192e8a	0.1495916
16	0x3ffb17a4	1.961659
17	0xbed7dc4a	-0.42160255
18	0x3f28d74c	0.65953517
19	0x3ed7b7fb	0.42132553
20	0x3e82aca2	0.25522333
21	0xbe2ff358	-0.17182672
22	0x3e3b49e7	0.1828991
23	0xbd27921c	-0.040910825
24	0x3e3cf485	0.18452652
25	0xbdd16c46	-0.1022573
26	0xbf25be1b	-0.647432
27	0xbcf61e2c	-0.030043684
28	0xbd66b2ab	-0.056322735
29	0x3ef70612	0.4824682
30	0xbd85e062	-0.06536938
31	0x3d11e679	0.035620186
32	0x3f162fb8	0.58666563
33	0x3ec101e8	0.37696767
34	0xbdd1dea1	-0.10247541
35	0xbf02caff	-0.51091
36	0x3e1e75d9	0.15474643
37	0x3d962750	0.07331717
38	0xbefd6172	-0.49488407
39	0x3e9256c4	0.28581822
40	0x3db56844	0.08857778
41	0x3ee3e643	0.44511613
42	0xbe613ced	-0.21995898
43	0x3e55e043	0.2088633
44	0x3ee4cd87	0.44688055
45	0xbeb7518d	-0.35804406
46	0xbe92e35d	-0.2868909
47	0x3e60cc6e	0.21952984
48	0x3e2ed364	0.17072827
49	0x3ea4f748	0.3221991
50	0xbe0c7c64	-0.13719326
51	0x3e71de16	0.23619875
52	0xbf1b0f06	-0.605698
53	0xbe88f9c0	-0.26753044
54	0xbec1bd09	-0.37839535
55	0xbe96759f	-0.29386613
56	0x3daaa802	0.08332826
57	0x3f2a527d	0.6653212
58	0x3e84572f	0.25847766
59	0x3f33ebef	0.7028188
60	0xbe7b0d5f	-0.2451682
61	0x3eabecf3	0.33579215
62	0xbf24976e	-0.64293563
63	0xbdc9a46e	-0.098458156
64	0xbd931eae	-0.07183586
65	0x3e09065e	0.13381335
66	0x3ea99723	0.3312312
67	0xbf094bd8	-0.53631353
68	0xbed1941a	-0.40933305
69	0xbeba31bf	-0.36366078
70	0x3ef89d61	0.4855757
71	0xbec3fa2a	-0.38276798
72	0xbe967782	-0.29388052
73	0xbeb5aa24	-0.3548137
74	0xbd33ec0c	-0.043926284
75	0xbed3ebe5	-0.4139091
76	0xbf0b8cf3	-0.54511946
77	0x3ea38f6a	0.31945354
78	0x3f3eb539	0.74495274
79	0x3dc23a5a	0.09483786
80	0xbdda4566	-0.10657768
81	0x3d1957cf	0.037437256
82	0xbf0459c9	-0.516995
83	0x3d595234	0.05305691
84	0x3de599db	0.11210986
85	0xbda6fe01	-0.08153916
86	0x3ed317d9	0.41229132
87	0xbbfc525c	-0.0077002477
88	0xbe7952d1	-0.24347998
89	0xbe97326c	-0.29530656
90	0x3eaba4e9	0.33524254
91	0x3e48461d	0.19557996
92	0x3d7c7dbc	0.061643347
93	0xbf07fad6	-0.5311712
94	0x3d1e9cca	0.038723744
95	0x3d50f864	0.051018134
96	0xbe31c877	-0.17361628
97	0x3eae3cf1	0.3403087
98	0x3ed415bd	0.41422835
99	0x3e424cea	0.18974653
100	0xbe1cae9f	-0.15300988
101	0x3f1e4ddc	0.61837554
102	0x3c6cd575	0.014455189
103	0x3e204785	0.15652283
104	0x3e62dcf7	0.22154604
105	0x3e99be90	0.300282
106	0x3dc55270	0.09634864
107	0xbe948367	-0.29006502
108	0x3c953645	0.018214354
109	0xbf47fdfc	-0.78121924
110	0x3e80b104	0.25135052
111	0x3dedacf3	0.11605253
112	0xbeb71cc4	-0.35764134
113	0xbd381b1f	-0.04494774
114	0x3dc7be8b	0.0975314
115	0x3e6c1ca1	0.23057796
116	0x3e0435d7	0.12911163
117	0xbeb1ebcb	-0.34750208
118	0x3ee25458	0.44204974
119	0x3ebbf9fc	0.3671416
120	0x3e080179	0.13281812
121	0x3ec3672f	0.3816466
122	0xbdaee2d9	-0.085393615
123	0x3e2761c1	0.16345884
124	0xbdb1d962	-0.086840406
125	0xbe197b3f	-0.14988421
126	0xbee8718b	-0.45399126
127	0xbcf5673c	-0.029956453
128	0xbe9a7db9	-0.30174044
129	0xbe44e75d	-0.19228883
130	0xbf2672fd	-0.6501921
131	0x3eeaf548	0.4589026
132	0xbe428f58	-0.18999994
133	0xbf7c2f14	-0.98509336
134	0x3ed49bb2	0.41525036
135	0x3f06371e	0.5242785
136	0xbedc8f55	-0.43078104
137	0xbe2c2c36	-0.1681374
138	0xbe8238d1	-0.25433972
139	0x3dc90d30	0.098169684
140	0xbeefd72c	-0.4684385
141	0xbe8ce0d7	-0.2751529
142	0x3ea646cb	0.32475886
143	0xbebfc654	-0.37456
144	0xbe5ce474	-0.21571523
145	0x3d02b537	0.0319111
146	0x3f11c90a	0.56947386
147	0xbea6b01b	-0.32556233
148	0x3d0a2e01	0.03373528
149	0x3e0a6f94	0.13519126
150	0x3e044a3e	0.12918946
151	0x3c3e59df	0.011618107
152	0x3e341dc0	0.17589474
153	0xbe385e18	-0.18004644
154	0xbec1d67a	-0.37858945
155	0x3d84e981	0.0648985
156	0x3dcfe1cb	0.101504885
157	0xbe547cb1	-0.20750691
158	0xbf0e2f21	-0.55540663
159	0xbe84642a	-0.2585767
160	0xbe121f3d	-0.14269729
161	0x3e06665d	0.13124986
162	0xbea75d09	-0.32688168
163	0xbe13e24c	-0.14441794
164	0xbc3b4881	-0.0114308605
165	0x3de92c4d	0.11385403
166	0x3f1ff86f	0.62488455
167	0xbecb68fd	-0.39728537
168	0xbe1a5d10	-0.15074563
169	0x3e0d6699	0.13808669
170	0x3eb50eaf	0.35362765
171	0x3e20eae9	0.15714611
172	0x3f291e55	0.6606191
173	0xbe30c9de	-0.17264506
174	0xbea8f84d	-0.33001938
175	0x3e2db29f	0.1696267
176	0x3f0aea79	0.54264027
177	0x3f2ba3db	0.670469
178	0x3e91ae6d	0.2845339
179	0xbe417dc8	-0.18895638
180	0xbe42ff8f	-0.190428
181	0x3e5db7d3	0.21652155
182	0x3e568c31	0.20951916
183	0xbea20f60	-0.31652355
184	0x3dec1ec2	0.11529304
185	0x3ecefcf6	0.4042737
186	0xbdd71074	-0.10501185
187	0x3e2eb9f2	0.1706312
188	0x3ed78c44	0.42099202
189	0x3e9f5d98	0.31126094
190	0xbd8565cb	-0.06513556
191	0x3dcb17b0	0.099166274
192	0x3e405c57	0.18785225
193	0xbdae2f2b	-0.0850509
194	0x3fcdae67	1.6068848
195	0xbf104574	-0.5635598
196	0x3cca8638	0.024722204
197	0x3de7f1fa	0.1132545
198	0x3d9281dd	0.07153676
199	0xbdabe34a	-0.08392961
200	0xbf058aa8	-0.521647
201	0xbea89952	-0.32929474
202	0xbdfdbfd6	-0.123901054
203	0x3c826139	0.0159155
204	0xbf273336	-0.65312517
205	0xbf11cc3a	-0.5695225
206	0xbf286435	-0.65777904
207	0x3df4d7aa	0.11955197
208	0x3b026004	0.0019893656
209	0x3de527bc	0.11189219
210	0x3eb059fa	0.34443647
211	0x3f5087d1	0.8145724
212	0xbf15f073	-0.5857002
213	0xbe54ca90	-0.20780396
214	0xbecc494b	-0.39899668
215	0x3efc5db7	0.4929025
216	0x3ddc52cf	0.10757982
217	0x3e82c326	0.2553951
218	0xbd8c8fbe	-0.06863354
219	0xbec35eaf	-0.38158175
220	0x3ec391bf	0.38197133
221	0x3f134c64	0.5753844
222	0x3e026f1f	0.12737702
223	0x3ed6ce67	0.41954347
224	0x3e03decd	0.1287796
225	0x3d44939f	0.047992345
226	0x3e6abc42	0.22923377
227	0x3e61e792	0.22060993
228	0x3f2dfa52	0.67960083
229	0x3f1d299f	0.61391634
230	0x3d2f2e6d	0.042768884
231	0xbd61d77c	-0.055137143
232	0x3e354253	0.17701082
233	0x3ee8c790	0.45464754
234	0xbeb63dd1	-0.35594037
235	0xbf038553	-0.5137531
236	0x3cf5a9d9	0.029988216
237	0xbad4da69	-0.0016239408
238	0xbe131add	-0.14365716
239	0x3f263425	0.64923316
240	0xbd815139	-0.0631432
241	0x3e0e7db6	0.13915142
242	0xbeacc21a	-0.33741838
243	0xbf412029	-0.754397
244	0xbe063e00	-0.13109589
245	0xbda77591	-0.08176721
246	0x3eca8dee	0.3956141
247	0xbed38ee1	-0.41319945
248	0x3e89d85a	0.26922876
249	0xbdc6bd05	-0.09704021
250	0xbe9eb804	-0.30999768
251	0xbd3dbfad	-0.046325374
252	0xbd28dfb1	-0.041228954
253	0xbf6c8ece	-0.924054
254	0x3d55bd2c	0.05218236
255	0x3e1f1e19	0.15538825

net.0.bias f4 [100]
0	0xbdd7743f	-0.10520219
1	0xbeb4a1f4	-0.3527981
2	0x3e6da7f0	0.23208594
3	0xbdef2f32	-0.11678924
4	0x3e98660e	0.29765362
5	0x3d83978f	0.06425392
6	0x3c9f9caf	0.019483892
7	0x3ed14d04	0.4087907
8	0xbc6c53cb	-0.014424275
9	0x3f0de71a	0.5543076
10	0xbf173b1f	-0.59074587
11	0xbd87053e	-0.06592797
12	0xbd08f539	-0.033436988
13	0xbf38596a	-0.72011435
14	0x3ea25cf3	0.3171154
15	0xbf09f31e	-0.5388659
16	0xbf028ede	-0.5099925
17	0xbeef071b	-0.4668511
18	0x3f28bde3	0.65914744
19	0x3e9d99b6	0.30781335
20	0x3f092519	0.5357223
21	0x3e4fb7e9	0.20285
22	0xbf0b6f27	-0.5446648
23	0x3d0814f3	0.033223104
24	0x3de1cce2	0.110254064
25	0xbdc13ad7	-0.09435051
26	0x3da044bb	0.07825609
27	0x3c0b191b	0.008489872
28	0x3ea7d665	0.32780758
29	0x3ec71254	0.3888117
30	0xbf2a7ee5	-0.66599876
31	0xbf03e29e	-0.51517665
32	0x3e9bd880	0.30438614
33	0x3ead5a27	0.33857843
34	0xbf140bd9	-0.5783058
35	0x3e5d52d5	0.21613629
36	0xbe9119a1	-0.28339866
37	0xbee63e08	-0.449692
38	0x3dbf0c47	0.093285136
39	0x3ebd0ee1	0.36925414
40	0xbe82305c	-0.2542752
41	0x3dcb6755	0.099318184
42	0xbd670de0	-0.056409717
43	0xbc71fc00	-0.014769554
44	0x3e0f431c	0.13990444
45	0xbe39c967	-0.18143235
46	0x3e3c4680	0.18386269
47	0x3f0b2466	0.54352415
48	0xbefbed56	-0.4920451
49	0x3f121625	0.5706504
50	0xbf008ec5	-0.5021785
51	0xbf0fcdef	-0.56173605
52	0x3ca91660	0.020640552
53	0x3d58decf	0.05294686
54	0xbedd83f5	-0.43264738
55	0xbe8651c5	-0.2623426
56	0xbe6fc8cb	-0.2341644
57	0xbdfb8e38	-0.122829854
58	0xbeb2e1a5	-0.34937778
59	0x3f039965	0.51405936
60	0x3e982064	0.29712212
61	0xbf339f5d	-0.70165044
62	0xbe8033e0	-0.25039577
63	0xbe6b6d87	-0.22991
64	0xbdef7780	-0.11692715
65	0xbab6fa93	-0.0013960175
66	0x3e8a089f	0.26959702
67	0x3f07ea8a	0.53092253
68	0x3e0aa52a	0.13539568
69	0xbf25e7d9	-0.64806896
70	0x3e7523af	0.23939393
71	0xbdd37db5	-0.10326711
72	0x3ea89523	0.32926282
73	0x3e85e896	0.2615401
74	0xbe3035f9	-0.17208089
75	0xbd14f7a3	-0.036368977
76	0xbe2c661b	-0.16835825
77	0xbe686b59	-0.226972
78	0x3f13b890	0.57703495
79	0x3f1296b0	0.5726118
80	0x3e48c056	0.1960462
81	0xbe00225f	-0.12513112
82	0x3dd12584	0.10212234
83	0xbe196919	-0.14981498
84	0xbe8d3c33	-0.2758499
85	0xbe09c002	-0.13452151
86	0x3f17d950	0.5931597
87	0x3e882e42	0.26597792
88	0xbf0b6393	-0.54448813
89	0x3e6edea5	0.2332712
90	0xbe9aa600	-0.30204773
91	0xbf206d8b	-0.6266715
92	0x3e039c07	0.12852488
93	0x3ea1d436	0.31607217
94	0x3ebd9802	0.37030035
95	0xbebea55f	-0.37235543
96	0xbd9f5380	-0.07779598
97	0x3e9eae54	0.30992377
98	0xbe0b0723	-0.13576941
99	0xbebeba78	-0.3725164

net.2.weight f4 [100, 100]
0	0x3da92f2a	0.08260949
1	0x3d9f38ed	0.077745296
2	0x3dd86748	0.10566574
3	0xbc40c2ea	-0.011765221
4	0x3b47503a	0.003041281
5	0x3d5994c0	0.053120375
6	0xbc1fc0df	-0.009750574
7	0x3d6959c0	0.056970358
8	0xbda6a798	-0.08137435
9	0xbb9b4f3e	-0.004739671
10	0xbddbf0e6	-0.10739307
11	0xbd365089	-0.044510398
12	0x3d4a2cfb	0.049359303
13	0x3b4efcdd	0.0031583824
14	0xbcac4349	-0.021028178
15	0x3d1afdef	0.037839826
16	0xbca01c3f	-0.019544719
17	0x3d7974a9	0.06090227
18	0x3b4c43aa	0.003116826
19	0xbd892c51	-0.06697906
20	0x3cab2899	0.020893382
21	0x3d66a4d0	0.05630952
22	0xba0b4b43	-0.0005313644
23	0xbcac7324	-0.021050997
24	0x3dc1bf08	0.094602644
25	0x3c87380a	0.016506214
26	0xbc6b7c95	-0.014372964
27	0x3c258fa6	0.010105049
28	0x3d0169ad	0.03159492
29	0x3d948588	0.072520316
30	0x3d8d8a11	0.069111
31	0xbdb319b8	-0.0874514
32	0x3e096880	0.1341877
33	0x3d8521f7	0.06500619
34	0x3ce42a91	0.027852328
35	0xbd9fa1c1	-0.07794524
36	0xbe1cfafb	-0.15330116
37	0xbdf52f56	-0.11971919
38	0x3d9e0b78	0.07717031
39	0xbd80f0a9	-0.06295902
40	0xbdb835fa	-0.0899467
41	0x3ca0269b	0.019549659
42	0x3db141f1	0.086551555
43	0x3dc846fd	0.09779165
44	0x3db8e102	0.09027292
45	0xbb504154	-0.003177722
46	0xbceb6963	-0.028736776
47	0xbcbb46f2	-0.022860978
48	0x3dc7fa56	0.09764545
49	0x3dea0440	0.11426592
50	0xbdc71a58	-0.097218215
51	0xbd9602bc	-0.0732474
52	0x3d7c19ef	0.06154817
53	0x3da4631d	0.08026717
54	0x3b9daa53	0.004811564
55	0x3d7e563a	0.06209395
56	0xbdb91ce0	-0.090387106
57	0xbc20af98	-0.00980749
58	0x3b9d30b1	0.0047970642
59	0x3bee56c0	0.007273525
60	0x3dea6ee6	0.114469334
61	0xbdc169c6	-0.09444003
62	0x3d2e247e	0.04251527
63	0x3cca2e41	0.024680259
64	0xbca6bb46	-0.02035297
65	0xbd786d92	-0.06065137
66	0x3d185796	0.037192903
67	0xbd3a38bf	-0.045464274
68	0xbdaae280	-0.08343983
69	0xbe3cd963	-0.18442301
70	0x3d9a70c9	0.07541043
71	0x3db95fe4	0.09051493
72	0x3dc5f5a5	0.096659936
73	0xbd40be9d	-0.047056783
74	0x3d6d1efa	0.05789087
75	0xbc6bc0c7	-0.014389223
76	0x3d4cd7ba	0.05001042
77	0xbcad68b2	-0.021168087
78	0x3d35493d	0.0442593
79	0x3d95c248	0.07312447
80	0x3d411678	0.04714057
81	0x3d899509	0.06717879
82	0xbd099896	-0.033592783
83	0xbdc621d1	-0.09674419
84	0xbd94eeac	-0.072720855
85	0x3cc23c32	0.023710344
86	0xbd3dcbba	-0.046336867
87	0xbbf6ef50	-0.0075358525
88	0xbc0101d8	-0.007873975
89	0xbd8ac487	-0.06775766
90	0xbe2838dc	-0.1642794
91	0xbdc95b66	-0.09831886
92	0x3d286a34	0.04111691
93	0xbd3b3095	-0.04570063
94	0x3d2d29b9	0.042276118
95	0xbc06d2f0	-0.008229002
96	0xbcecf3f3	-0.028924918
97	0x3d15aa6f	0.03653949
98	0xbdc80c4a	-0.09767969
99	0xbd9e5abe	-0.077321514
100	0x3d2a08b3	0.041512202
101	0xbd9982a4	-0.07495621
102	0xbcae8d42	-0.021307591
103	0x3c911372	0.017709468
104	0xbdbdf394	-0.092749745
105	0xbd531bf6	-0.051540338
106	0xbdaff999	-0.08592529
107	0xbd8a5fc2	-0.067565456
108	0x3d80ca73	0.06288614
109	0xbc20c6c8	-0.009813018
110	0x3d89e7bd	0.06733654
111	0xbdac7b43	-0.08421948
112	0xbda9f374	-0.08298388
113	0x3ddc0198	0.107424915
114	0xbd418638	-0.04724714
115	0xbdb073df	-0.08615851
116	0xbdd6fee2	-0.10497834
117	0xbc195db1	-0.009360717
118	0xbd6a69f0	-0.057229936
119	0x3cf71778	0.030162558
120	0x3ddb1d95	0.10699002
121	0x3d6bf25c	0.05760418
122	0xbd09a814	-0.033607557
123	0x3c24a443	0.010048929
124	0xbd52df9a	-0.051482774
125	0xbdbd8d8b	-0.09255513
126	0xbd4b72f4	-0.049670175
127	0x3d0854ed	0.033284117
128	0xbd69a69a	-0.05704365
129	0x3ded988f	0.11601364
130	0xbd4382cb	-0.047732156
131	0xbc65fc64	-0.014037225
132	0xbc916b8d	-0.01775148
133	0xbcbffd7e	-0.023436304
134	0xbd841dd0	-0.06450999
135	0x3b746e08	0.003729703
136	0x3c0fed26	0.008784568
137	0xbde8acb2	-0.11361064
138	0x3b5a8cba	0.003334804
139	0x3d8f15b0	0.069865584
140	0xbdcf753b	-0.10129782
141	0xbdd79e28	-0.10528213
142	0xbd9e1cc1	-0.07720328
143	0xbd8813f9	-0.066444345
144	0xb9191210	-0.00014597946
145	0xbd351fda	-0.04421983
146	0x3d347905	0.044060726
147	0xbcb5faf4	-0.02221439
148	0x3d9c958b	0.076457106
149	0xbd5b1d64	-0.053494826
150	0xbd76254a	-0.060094155
151	0xbcc26362	-0.02372903
152	0xbd900e87	-0.07034021
153	0xbc9d14e8	-0.019175008
154	0x3d9f631e	0.07782577
155	0x3c67fa38	0.014158778
156	0x3c85e1e1	0.016343059
157	0xbd629ca9	-0.055325184
158	0xbd94deb7	-0.07269042
159	0xbd95f42f	-0.07321965
160	0xbd156903	-0.0364771
161	0x3d575215	0.052568514
162	0xbdc23cf5	-0.09484283
163	0x3da31eab	0.07964834
164	0x3c5fd9f7	0.013662807
165	0xbc8d6d3a	-0.017263997
166	0x3c92bdba	0.017912734
167	0x3d30f18d	0.04319911
168	0xbdb8a103	-0.090150855
169	0xbe59181c	-0.21200603
170	0x3dcb65e0	0.099315405
171	0xbd990d4d	-0.0747324
172	0xbd6b16e3	-0.057394873
173	0xbd5201d6	-0.051271282
174	0x3ce3b85b	0.027797868
175	0x3d146cad	0.036236454
176	0xbd9813fd	-0.074256875
177	0x3d372628	0.044714123
178	0x3d0d58b7	0.034508433
179	0x3da596d3	0.08085408
180	0x3dc35e78	0.09539503
181	0x3db5f77e	0.08885096
182	0xbd96a75b	-0.07356139
183	0x3cab7b94	0.02093295
184	0xbd850c7c	-0.06496522
185	0xb9f2d241	-0.00046314488
186	0xbdc930f3	-0.098237894
187	0x3da3acbc	0.07991931
188	0xbc93645a	-0.017992187
189	0x3d7417ef	0.059593137
190	0xbd790ec5	-0.0608051
191	0xbda3999f	-0.07988285
192	0xbc288fc5	-0.010288184
193	0xbd6581e3	-0.056032073
194	0xbd9d7b29	-0.076895066
195	0x3bd5a325	0.0065196925
196	0x3d783504	0.060597435
197	0x3d26f5da	0.040761806
198	0x3c4b0fda	0.012393916
199	0xbda192c4	-0.078893214
200	0x3d1ae8d2	0.03781969
201	0xbd94b37f	-0.07260799
202	0x3d55a421	0.05215848
203	0xbd621340	-0.05519414
204	0x3da51ef1	0.08062542
205	0x3b17b3f5	0.0023148034
206	0x3d8fecdb	0.070275985
207	0xbd531d8f	-0.05154186
208	0xbdb0cc93	-0.086327694
209	0x3b57e760	0.0032944307
210	0xbdc396f2	-0.09550275
211	0xbda6b7df	-0.081405394
212	0xbdd7e984	-0.105425864
213	0xbd316b38	-0.043315142
214	0x3e11eca9	0.14250435
215	0x3dbff7c1	0.09373427
216	0xbd3df2f5	-0.04637428
217	0xbdbd72b2	-0.09250392
218	0xbd25aff4	-0.040451005
219	0x3db2084f	0.08692991
220	0x3a6b68e5	0.0008980169
221	0x3e1759f9	0.14780416
222	0xbdbe3cfd	-0.09288976
223	0x3b7e07eb	0.0038762044
224	0x3c570b0b	0.013125191
225	0x3d6fd815	0.05855568
226	0xbd9d0497	-0.07666891
227	0xbdb87945	-0.09007505
228	0xbdb95ccb	-0.09050902
229	0x3e290758	0.16506708
230	0xbd3a6adb	-0.04551206
231	0x3db45e37	0.088070326
232	0xbb44d6d4	-0.0030035274
233	0x3d679325	0.056536812
234	0xbd9a5497	-0.075356655
235	0x3d1cefc2	0.03831459
236	0xbe0fff45	-0.14062221
237	0xbe231d6f	-0.15929197
238	0xbb4a4cee	-0.0030868608
239	0xbbf490fd	-0.007463573
240	0xbde74a44	-0.11293462
241	0x3d71fc56	0.059078537
242	0xbd3f7399	-0.046741102
243	0xbdb21cde	-0.08696912
244	0xbd76e79a	-0.060279466
245	0xba9c847d	-0.001194134
246	0xbb935989	-0.0044967574
247	0xbc5a8e63	-0.013339612
248	0x3c26fca6	0.010192072
249	0x3d96691d	0.073442675
250	0xbc97a1db	-0.018509796
251	0x3d61e4dd	0.0551499
252	0x3b98c41c	0.00466205
253	0x3d2b810f	0.041871127
254	0xbd1c6eeb	-0.038191717
255	0xbd4eaea2	-0.05045951

net.2.bias f4 [100]
0	0x3dc13af0	0.094350696
1	0x3cf94e4c	0.030432843
2	0x3c87b619	0.016566323
3	0xbdad5e77	-0.08465283
4	0xbd965b9a	-0.0734169
5	0x3c9ed6ad	0.019389475
6	0xbdaf674a	-0.08564623
7	0x3bccaa6d	0.0062459023
8	0xbda41c6a	-0.08013232
9	0xbd272c9f	-0.04081404
10	0x3d4f2250	0.050569832
11	0x3d6e20bd	0.05813669
12	0x3d353015	0.044235308
13	0xbc6dda0b	-0.0145173175
14	0x3d7d4331	0.061831657
15	0xbc6ee32f	-0.014580532
16	0x3c62b743	0.013837638
17	0x3d81792e	0.06321941
18	0xbdb14588	-0.0865584
19	0x3de3c74d	0.11121998
20	0x3d7cf4b8	0.06175682
21	0xbcb5971d	-0.022166783
22	0x3cb3d5df	0.021952568
23	0x3d89266a	0.0669678
24	0x3dad6093	0.08465686
25	0x3db41f86	0.08795075
26	0xbd8ecfae	-0.069732055
27	0xbd1bc273	-0.038027238
28	0x3c83ccaa	0.016088802
29	0x3c6822b2	0.014168428
30	0xbda4166a	-0.08012088
31	0x397b0419	0.00023938752
32	0x3dbdc588	0.09266192
33	0x3d9168ac	0.07100043
34	0x3dcf8923	0.10133579
35	0x3c72fca2	0.01483074
36	0xbc7dccb6	-0.015490701
37	0x3d062554	0.032750443
38	0x3d3dc02a	0.04632584
39	0xbd44f1f9	-0.048082326
40	0xbcc7ac46	-0.024374139
41	0xbbb6f366	-0.0055832146
42	0x3d4c0b23	0.04981531
43	0xbd37a412	-0.044834204
44	0x3db623f9	0.0889358
45	0x3dc02916	0.093828365
46	0x3da1ce29	0.0790065
47	0x3db9253f	0.09040307
48	0x3d8ebbaa	0.06969388
49	0xbdeefbf5	-0.11669151
50	0x3d45e763	0.04831637
51	0xbd06d971	-0.032922212
52	0xbd8cb547	-0.068705134
53	0x3d4ec77f	0.050483223
54	0x3c8ac0d3	0.016937649
55	0xbc8da77a	-0.017291773
56	0xbcff2033	-0.031143283
57	0xbbfa5bd3	-0.007640341
58	0xbdab5b3b	-0.0836701
59	0x3d397a5a	0.0452827
60	0xbd1996f0	-0.03749746
61	0xbddb1c58	-0.106987655
62	0xbd27850a	-0.04089836
63	0xbd83018a	-0.06396778
64	0xbdc53772	-0.09629716
65	0xbd17cfcd	-0.03706341
66	0xbce69fd8	-0.028152391
67	0x3d88091a	0.06642361
68	0x3da5c215	0.08093659
69	0xbc1e4328	-0.009659566
70	0xba6a5efd	-0.0008940546
71	0xbd4864f7	-0.048924413
72	0x3cd8828e	0.02642944
73	0x3d8de9de	0.06929372
74	0x3db44f6d	0.08804212
75	0x3d9fe720	0.078077555
76	0x3d5e047a	0.054203488
77	0xbd1eaaaa	-0.038736977
78	0xbd463ff3	-0.04840083
79	0x3d58a3a3	0.05289043
80	0x3c96696d	0.018360818
81	0x3dc88d83	0.09792616
82	0x3d56b887	0.052422073
83	0xbc20ab3e	-0.009806452
84	0xbd0d8c14	-0.034557417
85	0x3ce7155f	0.028208433
86	0xbd4d5bd7	-0.050136413
87	0xbd79a5ba	-0.060949065
88	0xbd9533d7	-0.07285278
89	0xbcebfe81	-0.02880788
90	0x3d2007a6	0.039069794
91	0xbc417ab6	-0.011809042
92	0xbcf338c3	-0.029690152
93	0x3d179c4a	0.037014283
94	0x3d00d3b6	0.031451903
95	0xbd17c46b	-0.037052553
96	0xbdcf137a	-0.10111137
97	0xbd0193c7	-0.031635072
98	0xbd970274	-0.07373515
99	0xbd9206a7	-0.07130175

net.4.weight f4 [100, 100]
0	0xbc55dfa0	-0.013053805
1	0x3db4b876	0.08824246
2	0x3e77b12c	0.2418868
3	0x3eef7107	0.4676592
4	0x3deaee93	0.11471286
5	0xbf0a41cc	-0.5400665
6	0xbe1ac564	-0.15114361
7	0x3d050da7	0.032483723
8	0x3d746820	0.059669614
9	0xbd182aa1	-0.03715003
10	0x3cc4cf03	0.024024492
11	0xbd15ce02	-0.036573417
12	0x3e1e5347	0.15461455
13	0x3ce6b963	0.028164571
14	0x3eec122c	0.46107614
15	0x3e04149b	0.12898485
16	0x3eef391a	0.46723253
17	0xbdbad9d7	-0.09123581
18	0x3d8eb4b0	0.06968057
19	0xbbb8d69c	-0.005640818
20	0x3e5177f6	0.20455918
21	0xbf008c8a	-0.50214446
22	0x3ea9328b	0.33046374
23	0xbd52ca4e	-0.051462464
24	0xbd8684bc	-0.06568286
25	0xbde7588f	-0.11296188
26	0x3bfb1ee0	0.0076635927
27	0x3e2e4bc9	0.17021097
28	0xbdd893b7	-0.10575049
29	0x3d996870	0.07490623
30	0xbe8255e5	-0.25456157
31	0xbbc4efe6	-0.0060100434
32	0x3f7878d0	0.97059345
33	0xbe211c8b	-0.15733545
34	0x3f44e659	0.7691398
35	0x3e61bd7f	0.22044943
36	0x3dea2c43	0.114342235
37	0xbe0babb3	-0.13639717
38	0x3c9598f7	0.018261416
39	0x3e8dd071	0.2769809
40	0xbeb815d9	-0.35954168
41	0xbdfa655c	-0.12226364
42	0x3e60de38	0.2195977
43	0xbf06eba8	-0.5270333
44	0xbe14f005	-0.14544685
45	0xbcf4d55f	-0.0298869
46	0x3e5393f2	0.20661905
47	0xbd419803	-0.04726411
48	0x3e01c509	0.12672819
49	0xbe6dd379	-0.23225202
50	0x3e6ef6d0	0.23336339
51	0x3d8f061f	0.069835894
52	0x3cfdc09a	0.030975629
53	0x3ddf7145	0.10910276
54	0xbe7a5462	-0.24446252
55	0x3e304da3	0.17217116
56	0x3f01a9c4	0.50649667
57	0x3ec10e3d	0.37706175
58	0x3eb23079	0.34802607
59	0x3ec789ea	0.38972408
60	0x3dfb825b	0.12280723
61	0x3e38d528	0.18050063
62	0x3e06e2ce	0.13172457
63	0xbea4eae0	-0.32210445
64	0x3e9d99e5	0.30781475
65	0x3e256fcd	0.1615593
66	0x3d8d226a	0.068913296
67	0xbd9646b9	-0.07337708
68	0x3c387746	0.011258906
69	0xbebf592a	-0.37372714
70	0x3e75b773	0.23995762
71	0x3db5fb2c	0.08885798
72	0x3c8bdb3b	0.01707231
73	0xbd7e50f8	-0.062088937
74	0x3e3c27e4	0.18374592
75	0xbd98652d	-0.07441173
76	0x3e89000c	0.26757848
77	0xbd321d54	-0.043485
78	0xbe91dc97	-0.2848861
79	0x3d3df852	0.046379395
80	0x3f223d67	0.6337494
81	0x3f596554	0.8492024
82	0x3d3d4fb0	0.046218574
83	0x3e4b2a93	0.1984046
84	0xbf15a6ea	-0.58457816
85	0x3f77cbd5	0.967954
86	0xbe38df98	-0.18054044
87	0xbd1c065e	-0.03809201
88	0x3c49b0e0	0.012310237
89	0xbfd205e7	-1.6408051
90	0x3f36d125	0.7141288
91	0xbec03d80	-0.3754692
92	0xbc011fad	-0.007881087
93	0xbc85dfa3	-0.01634199
94	0x3e386d39	0.18010415
95	0xbd199cc4	-0.03750302
96	0xbada1367	-0.0016637862
97	0x3e4f9c59	0.20274486
98	0x3ddb8e3e	0.1072049
99	0xbf3555bf	-0.70833963
100	0x3cab309e	0.020897206
101	0x3cdbf3fb	0.026849737
102	0x3d8e4287	0.06946283
103	0xbda57b58	-0.080801666
104	0x3d387cc7	0.045040872
105	0x3ddbe90b	0.10737809
106	0xbd6dd9c6	-0.058069013
107	0xbd9a2d7f	-0.07528209
108	0x3cd74ee5	0.026282737
109	0xbcb515ca	-0.022105116
110	0xbd813f2b	-0.063108765
111	0x3cd1e32b	0.025621017
112	0x3d93f516	0.07224481
113	0x3d44e211	0.048067156
114	0xbda2eaf2	-0.079549685
115	0xbdab0f3e	-0.083525166
116	0xbd483228	-0.048875958
117	0xbdc6eddc	-0.09713337
118	0x3c6bca49	0.01439149
119	0x3d5baf48	0.053633958
120	0xbdd6295c	-0.104571074
121	0x3daf86d5	0.08570639
122	0xbc95c335	-0.018281559
123	0xbdaf733a	-0.085668996
124	0x3cdc38fa	0.026882637
125	0x3cf860f9	0.030319678
126	0x3da91378	0.082556665
127	0x3bd7ddcc	0.0065877195
128	0xbc798bcd	-0.015231085
129	0xbd9b62d7	-0.075872116
130	0xba721db9	-0.00092359964
131	0xbd899262	-0.067173734
132	0xbdce83cb	-0.10083731
133	0x3d516200	0.05111885
134	0x3dd03966	0.10167198
135	0xbdd7256c	-0.105051845
136	0xbd9a305b	-0.07528754
137	0x3d69b74e	0.05705958
138	0xbca4c81f	-0.020114956
139	0xbbb5f92d	-0.0055533857
140	0xbc3decc7	-0.011592097
141	0x3d8bdb0b	0.068288885
142	0x3d3ae7bf	0.045631167
143	0x3d6f6d77	0.058454003
144	0xbdeb2a47	-0.11482673
145	0xbd48d37d	-0.049029816
146	0xbdc1cfb4	-0.09463444
147	0x3aa4abb6	0.0012563381
148	0x3d5f4783	0.05451156
149	0xbd6d207d	-0.05789231
150	0x3c42ce7f	0.011890053
151	0x3d48846f	0.048954424
152	0xbdd8e2cb	-0.10590132
153	0x3d5919f6	0.053003274
154	0xbcba571c	-0.022746615
155	0x3d2900b5	0.04126044
156	0x3c861e75	0.016371945
157	0xbb858749	-0.004074965
158	0xbe02c90a	-0.12772003
159	0x3df02296	0.11725347
160	0x3b7f854f	0.003898937
161	0x3d45c751	0.048285786
162	0x3d0adb5b	0.0339006
163	0xbbefb145	-0.0073148333
164	0xbd3fd991	-0.046838347
165	0xbcfc6bab	-0.030813059
166	0xbdeee814	-0.11665359
167	0x3cd52d98	0.026022717
168	0x3d6108e4	0.05494012
169	0x3d2f87a3	0.042853963
170	0x3ccc1718	0.024913356
171	0xbcde73fa	-0.027154911
172	0xbd2862af	-0.041109737
173	0xbd8b7aeb	-0.06810554
174	0x3c3b2294	0.011421818
175	0x3c084200	0.008316517
176	0xbdddda17	-0.10832613
177	0xbde7cd04	-0.113184005
178	0x3b93c930	0.0045100674
179	0x3d15edc7	0.036603715
180	0xbe10ac49	-0.14128222
181	0xbe2e6f96	-0.17034754
182	0xbc5e33e5	-0.013562177
183	0xbd5453e4	-0.051837817
184	0xbb4378cd	-0.0029826642
185	0x3ccce739	0.0250126
186	0xbc68ee26	-0.014216935
187	0x3dae31de	0.08505605
188	0xbd65e06c	-0.05612223
189	0xbd2c0a17	-0.04200181
190	0x3d96ae4a	0.07357462
191	0xbd5279d1	-0.051385704
192	0xbbd13cc4	-0.0063854177
193	0xbd71cbcc	-0.059032246
194	0x3cf64b61	0.03006524
195	0xbdf49723	-0.119428895
196	0x3d7e99b7	0.062158313
197	0x3cd7104a	0.026252884
198	0xbd994f0c	-0.0748578
199	0x3d0cff25	0.034423012
200	0xbd152a34	-0.0364172
201	0x3ce77fd4	0.028259195
202	0xbd964dc0	-0.073390484
203	0xbb20459a	-0.0024455548
204	0xbda90787	-0.08253389
205	0xbc36d890	-0.011160031
206	0x3d01c544	0.031682268
207	0x3d320bec	0.0434684
208	0x3d50b6b4	0.05095549
209	0x3cc82a08	0.024434105
210	0x3d8920b8	0.06695694
211	0x3df1e540	0.11811304
212	0x3c2437b7	0.010023049
213	0xbddca572	-0.10773744
214	0x3d23a4a6	0.039951943
215	0xbbc32d97	-0.0059563625
216	0x3d9969ff	0.0749092
217	0x3cd83e44	0.026396878
218	0xbc64e03b	-0.013969476
219	0x3d252d4d	0.040326405
220	0xbd0eafea	-0.034835733
221	0x3db48b66	0.08815651
222	0x3da174ab	0.07883581
223	0xbddb2bf2	-0.10701741
224	0x3da1ab75	0.07894031
225	0xbd436053	-0.047699284
226	0xbd4e1e7f	-0.050322052
227	0x3db987ae	0.09059082
228	0x3d5ef1a5	0.05442967
229	0x3d80e27d	0.06293199
230	0xbca5f4cd	-0.020258332
231	0xbdb15dc8	-0.086604655
232	0x3a8d85e9	0.0010797355
233	0xbca4502d	-0.020057762
234	0x3d127e10	0.035764754
235	0x3d2ac92f	0.04169577
236	0x3ab3dad5	0.0013721833
237	0x3cc5f40b	0.02416422
238	0x3db6ca73	0.08925333
239	0x3d529e3c	0.051420435
240	0xbdbcc610	-0.09217465
241	0x3c79d07c	0.01524746
242	0x3d78442b	0.060611885
243	0xbd674f36	-0.056472026
244	0x3c5be436	0.013421109
245	0xbd65b01c	-0.056076154
246	0x3d5cce73	0.053907823
247	0xbae028f7	-0.0017102052
248	0x3da9c712	0.08289923
249	0x3b5d5042	0.0033769761
250	0xbd008377	-0.031375375
251	0xbde6e622	-0.11274363
252	0x3d3e7b3e	0.04650425
253	0x3d689ebf	0.056792017
254	0xbdbbe46b	-0.09174427
255	0x3ca049ea	0.019566495

net.4.bias f4 [100]
0	0xbd078456	-0.03308519
1	0xbdcb21ef	-0.09918582
2	0x3bbb4f5b	0.005716247
3	0xbd88d6e3	-0.066816114
4	0xbd8912f8	-0.06693071
5	0x3d422624	0.047399655
6	0xbb80cceb	-0.003930678
7	0xbc52b494	-0.012860436
8	0x3d91a518	0.07111567
9	0x3cd80112	0.026367698
10	0x3d604f84	0.054763332
11	0x3d047a57	0.032343235
12	0x3dba2368	0.090887845
13	0xbd34ab99	-0.04410896
14	0xbce3b8b3	-0.027798032
15	0x3d26f295	0.040758688
16	0x3dbbbb33	0.09166565
17	0x3c999e26	0.018752169
18	0xbcd98641	-0.026553275
19	0x3db6fa1d	0.08934424
20	0xbda81115	-0.08206383
21	0x3d262546	0.04056289
22	0x3c2ac64c	0.010423254
23	0x3bd19ccf	0.006396867
24	0x3ca8e1d7	0.020615501
25	0xbd11ab04	-0.035563484
26	0x3d056824	0.03257002
27	0xbdcf366d	-0.10117803
28	0x3c3bd1e3	0.011463615
29	0xbd9307d5	-0.07179228
30	0x3d30c86c	0.043159887
31	0x3d5a4a3e	0.05329346
32	0x3d85a877	0.06526273
33	0x3dc29c08	0.09502417
34	0xbd2f2e4a	-0.042768754
35	0xbd3643ec	-0.04449837
36	0xbc7fba2e	-0.015608354
37	0x3d1d9056	0.038467728
38	0x3abd0923	0.0014422279
39	0xbc80e4af	-0.015734045
40	0x3dccfc3a	0.10009046
41	0x3da56af9	0.08077044
42	0xbd3134fe	-0.043263428
43	0x3bc3dc22	0.0059771696
44	0x3d6d75f1	0.057973806
45	0x3cfd5eb6	0.03092895
46	0x3cfb1536	0.030649763
47	0xbcc980d6	-0.024597567
48	0xbd4186ac	-0.047247574
49	0xbdd0a90a	-0.10188492
50	0xbd55a762	-0.05216158
51	0x3d3cae34	0.04606457
52	0xbd4ef673	-0.050528
53	0x3d70abe1	0.058757666
54	0xbd6eeb8b	-0.0583301
55	0x3cbfb174	0.023400046
56	0x3c8c6f6c	0.017142974
57	0xbda9847a	-0.08277221
58	0xbda3633c	-0.07977912
59	0xbbc29314	-0.0059379432
60	0x3db0c5f6	0.08631508
61	0xbd5c5b61	-0.053798083
62	0x3d8827a2	0.06648184
63	0x3d755565	0.05989589
64	0xbd79458c	-0.06085734
65	0xbbd74161	-0.006569073
66	0xbd3324e6	-0.04373636
67	0xbcd5067d	-0.02600407
68	0x3dc39180	0.09549236
69	0x3d7966f5	0.060889203
70	0xbc8a3f94	-0.01687602
71	0xbd33c7af	-0.043891605
72	0xbde2f8a4	-0.11082581
73	0x3cf5168e	0.029917981
74	0x3da283f2	0.07935323
75	0xbcf6e73e	-0.030139562
76	0x3cca6deb	0.024710616
77	0xbd70a7f7	-0.058753934
78	0x3d1fa17b	0.03897236
79	0xbdd460e6	-0.103700444
80	0x3dae6fbd	0.08517406
81	0x3dee5381	0.11637021
82	0x3d0bf793	0.034171652
83	0x3c96791a	0.018368293
84	0xbd0770ce	-0.033066563
85	0x3bf3e855	0.0074434676
86	0x3db53ce5	0.08849505
87	0xbb9aad51	-0.004720368
88	0xbcba65f7	-0.022753699
89	0x3db24127	0.08703833
90	0x3da3036a	0.079596356
91	0xbcbf577f	-0.023357151
92	0xbd7432b2	-0.05961866
93	0x3d4f7366	0.050647162
94	0x3cddf30a	0.02709343
95	0xbdbd1339	-0.09232182
96	0xbd6ea9f7	-0.05826756
97	0xbdada5b8	-0.08478874
98	0x3cb3f5a3	0.021967715
99	0x3d560b08	0.052256614

net.6.weight f4 [100, 100]
0	0xbe1144b0	-0.14186358
1	0xbd9f050b	-0.07764634
2	0x3d569817	0.052391138
3	0x3dd8c88b	0.105851255
4	0xbd2bb120	-0.041916966
5	0x3d72f8ca	0.059319295
6	0x3d9db6d7	0.077008896
7	0xbd6c9cf1	-0.05776686
8	0x3d424238	0.047426432
9	0xbc7d0da9	-0.015445151
10	0x3cc9c8a7	0.024631811
11	0xbd96c53d	-0.07361839
12	0xbad0ca27	-0.0015929387
13	0xbdb4dec8	-0.08831555
14	0x3cc32845	0.023822913
15	0x3d37aba4	0.044841424
16	0xbdd55e5a	-0.10418387
17	0x3b8df3b0	0.0043320283
18	0xbd392f6d	-0.045211244
19	0x3d184eae	0.03718441
20	0x3d56815b	0.052369457
21	0xbd3c16ea	-0.04592029
22	0xba7312da	-0.00092725235
23	0xbbe5a947	-0.007008705
24	0x3d87b1d9	0.066257186
25	0xbd0fe4a1	-0.035130147
26	0xbd4461c4	-0.0479448
27	0x3dedf13d	0.11618278
28	0x3d6c97c7	0.057761934
29	0xbc3e64e2	-0.011620732
30	0xbcb2918c	-0.021797918
31	0xbd90ec8c	-0.07076368
32	0xbdd0153c	-0.101603
33	0x3da31675	0.07963268
34	0x3d275e67	0.040861513
35	0xbd692e15	-0.056928713
36	0x3db47bfc	0.08812711
37	0xbdb9c474	-0.090706736
38	0x3d5206e5	0.051276106
39	0x3d7ff59c	0.06249009
40	0xbe00eaa4	-0.12589508
41	0xbdb97c95	-0.09056965
42	0xbd2152c1	-0.03938556
43	0x3d0da460	0.03458059
44	0xbccd3d02	-0.025053505
45	0xbc549053	-0.012973863
46	0xbe115f2e	-0.14196464
47	0xbd9c1a44	-0.07622197
48	0xbdbbed18	-0.091760814
49	0xbda04186	-0.078249976
50	0x3e2ece85	0.17070968
51	0xbd324a3d	-0.04352783
52	0xbcf8ad92	-0.030356202
53	0x3c6eb8b5	0.014570405
54	0x3be65a8b	0.0070298365
55	0xbc9a07fd	-0.018802637
56	0xbc5e7a7e	-0.013579009
57	0x3bd5b707	0.0065220627
58	0xbd5a5f96	-0.053313814
59	0x3d1ef162	0.03880442
60	0x3da93522	0.082620874
61	0xbd2561e7	-0.04037657
62	0x3be8e02d	0.007106802
63	0x3d87f28b	0.06638058
64	0xb906788f	-0.00012824147
65	0xbd3f7ba9	-0.04674879
66	0xbd13110c	-0.03590493
67	0xbda9e758	-0.082960784
68	0xbdf49b67	-0.11943703
69	0x3ce4ac07	0.02791406
70	0xbc5f1904	-0.013616804
71	0xbdda5cb5	-0.10662214
72	0x3ccc8e5a	0.024970222
73	0x3caf7d51	0.02142206
74	0xbd8a39f2	-0.067493334
75	0xbdfb47c0	-0.122695446
76	0xbda9af73	-0.082854174
77	0x3d28040d	0.041019488
78	0x3d46608a	0.04843191
79	0xbd0c41ab	-0.034242313
80	0xbdd1cdb8	-0.10244316
81	0xbc716f98	-0.014736079
82	0xbda9393c	-0.0826287
83	0x3ce658f6	0.028118592
84	0x3dbefc8e	0.09325515
85	0xbc7a5bb2	-0.015280651
86	0xbc52fc3c	-0.01287752
87	0xbd03317d	-0.032029618
88	0xbda02305	-0.078191794
89	0xbdd57b3d	-0.104238965
90	0xbd9ab240	-0.0755353
91	0xbd75c46b	-0.060001772
92	0xbd91e907	-0.071245246
93	0x3d923004	0.071380645
94	0x3db1d443	0.08683064
95	0x3d7af3d2	0.06126768
96	0xbd9ed361	-0.07755161
97	0x3d642067	0.055694964
98	0x3d5fa4b8	0.054600447
99	0xbd14bdf4	-0.036313966
100	0x3d1cc9c3	0.038278352
101	0x3d954494	0.07288471
102	0xbd99833c	-0.07495734
103	0xbe0f0308	-0.13966
104	0x3d1d581f	0.038414117
105	0xbce52778	-0.027972922
106	0xbd81289f	-0.06306576
107	0xbd9d2227	-0.0767253
108	0x3d964ebf	0.073392384
109	0x3c7c4b27	0.015398777
110	0xbddbe228	-0.10736495
111	0xbd77490d	-0.0603724
112	0x3d3c25e1	0.04593456
113	0x3d66370c	0.05620484
114	0xbcfb5580	-0.030680418
115	0xbd9ce26b	-0.07660373
116	0x3dea3ab3	0.11436977
117	0xbd6a2d0f	-0.057171877
118	0xbd720c79	-0.059093926
119	0xbd8bad8e	-0.06820212
120	0xbc14eacf	-0.009089186
121	0xbc809953	-0.01569811
122	0x3e013ab6	0.12620053
123	0x3cceb685	0.025233516
124	0x3dccce7e	0.10000323
125	0x3da446b1	0.08021296
126	0x3bdb71f2	0.006696933
127	0xbe4ab7e8	-0.19796717
128	0x3d98269a	0.07429238
129	0x3d415e13	0.047208857
130	0x3cbebd7b	0.02328371
131	0xbc7aca97	-0.01530709
132	0xbd69f633	-0.05711956
133	0xbdaead0d	-0.085291006
134	0x3c8f873c	0.01752054
135	0xbcf236c4	-0.02956713
136	0x3b4fec7d	0.0031726651
137	0x3d2df36a	0.042468466
138	0x3ca10d34	0.019659616
139	0x3d7dd105	0.061966915
140	0x3df520d3	0.11969151
141	0xbc1ab64a	-0.009442875
142	0x3dc52701	0.0962658
143	0x3d00b751	0.031424824
144	0x3d782ddf	0.06059062
145	0xbdb33401	-0.08750153
146	0xbcc82c09	-0.02443506
147	0x3dc23104	0.09482005
148	0xbcb4adcc	-0.022055529
149	0xbd2d13c6	-0.042255186
150	0xbe01bb86	-0.12669191
151	0x3d984079	0.07434172
152	0xbc092a35	-0.008371879
153	0x3e039652	0.12850311
154	0x3d9b6722	0.075880304
155	0xbd30acf3	-0.043133687
156	0x3dbd0ebd	0.09231327
157	0x3a0696cb	0.0005134164
158	0xbdee78b4	-0.11644116
159	0x3dcd68d4	0.1002976
160	0xbc816bd8	-0.015798494
161	0x3daa05f8	0.0830192
162	0xbd389ec7	-0.045073297
163	0xbd302a29	-0.043008957
164	0x3cf771a8	0.030205563
165	0x3d878d81	0.066187866
166	0xbd25a16a	-0.04043714
167	0x3e01035f	0.12598942
168	0x3df92b40	0.121664524
169	0x3da8361d	0.08213446
170	0x3dc0255e	0.09382127
171	0x3cb37f5a	0.021911312
172	0x3d7b5b3f	0.061366316
173	0x3d65fccf	0.0561493
174	0x3d00aaad	0.03141277
175	0x3d35ca8a	0.04438261
176	0x3dcb0908	0.09913832
177	0xbdc68eae	-0.09695183
178	0x3dd87b61	0.10570408
179	0xbd78abaa	-0.060710587
180	0x3d764c74	0.060131505
181	0x3dc5d3a9	0.096595116
182	0xbd24e7d6	-0.04026016
183	0xbd8b8913	-0.06813254
184	0xbdc59509	-0.09647567
185	0xbde5f825	-0.112289704
186	0x3d0e4b64	0.034739867
187	0xbdbeb1ff	-0.09311294
188	0x3d9dc793	0.077040814
189	0xbd4ef8b3	-0.050530147
190	0x3de71a8a	0.11284359
191	0xbdc86a42	-0.09785892
192	0x3db34e53	0.087551735
193	0x3d6e7edd	0.058226455
194	0xbd6065ae	-0.05478447
195	0xbd2aa7b8	-0.041663855
196	0x3b9c5e1e	0.004771962
197	0xbb78e056	-0.0037975512
198	0xbd6d16b6	-0.057882987
199	0xbdaffd6f	-0.085932605
200	0xbdf050e7	-0.11734181
201	0x3cc61f7d	0.024184937
202	0x3d6ee55f	0.058324214
203	0xbdb5e188	-0.08880907
204	0xbc049d68	-0.008094169
205	0x3d7faf63	0.06242312
206	0xbb3da04f	-0.0028934663
207	0x3dcc8f14	0.099882275
208	0xbd9d72b6	-0.07687895
209	0xbd2f7a2e	-0.04284113
210	0xbcf41ba5	-0.029798338
211	0x3da3a46b	0.079903446
212	0x3d2ba512	0.04190547
213	0xbd35648a	-0.044285335
214	0x3d3a1916	0.04543408
215	0xbd2d6d58	-0.042340606
216	0x3dac9156	0.08426158
217	0x3d8172f7	0.06320756
218	0xbdc1b41c	-0.09458181
219	0xbc00b8e5	-0.007856582
220	0x3daabee8	0.08337194
221	0xbdb8d4c9	-0.090249605
222	0x3d3a4544	0.045476213
223	0x3d4d06cb	0.050055306
224	0xbdb795cb	-0.089641176
225	0x3d6dbf89	0.05804399
226	0xbd7d6278	-0.061861485
227	0xbc0b6f56	-0.008510431
228	0xbe01ecf6	-0.1268805
229	0xbc92a633	-0.017901516
230	0xbd8a4c45	-0.067528285
231	0xbd8832ef	-0.0665034
232	0x3d2a81d3	0.041627716
233	0x3d89e7b6	0.067336485
234	0x3c144c46	0.009051388
235	0xbdc4dfe8	-0.09613019
236	0xbde53210	-0.11191189
237	0x3d84e21a	0.06488438
238	0x3dabd73a	0.083906606
239	0xbc9763cd	-0.018480206
240	0xbdae7d7a	-0.085200265
241	0x3acd3c4e	0.0015658231
242	0xbd496226	-0.049165867
243	0x3d08e940	0.03342557
244	0x3d9b7d0c	0.0759221
245	0x3dcbda7c	0.09953782
246	0x3e5f680a	0.21817032
247	0x3dd7b661	0.10532833
248	0xbbcef804	-0.006316187
249	0xbe26663c	-0.16249937
250	0x3d6326be	0.05545687
251	0xbdabac4a	-0.08382471
252	0x3d53403a	0.051574923
253	0x3d879db0	0.066218734
254	0xbdee9c7d	-0.116509415
255	0xbdfad802	-0.122482315

net.6.bias f4 [100]
0	0xbdc6b09f	-0.097016566
1	0xbcc711bf	-0.024300454
2	0x3d03370d	0.032034922
3	0xbc297ae0	-0.010344237
4	0xbde935fb	-0.11387249
5	0xbdaba46b	-0.083809696
6	0x3d038577	0.032109704
7	0x3c936ac6	0.01799525
8	0xbd914dc7	-0.07094913
9	0xbb271cc6	-0.0025499328
10	0xbcbaa523	-0.022783821
11	0x3dcd081b	0.100113116
12	0x3def6448	0.11689049
13	0x3c669335	0.014073183
14	0xbd04706c	-0.032333776
15	0xbdb76d03	-0.08956339
16	0xbda46a46	-0.080280825
17	0x3ddb7693	0.107159756
18	0xbd9d68bb	-0.076859914
19	0xbdd8cb86	-0.10585694
20	0x39c6b132	0.00037897524
21	0x3dbfc6a9	0.09364063
22	0xbd3f0d74	-0.04664369
23	0xbd0230b3	-0.031784724
24	0x3d1c7458	0.03819689
25	0x3dc6e3dd	0.0971143
26	0x3d824ca4	0.06362274
27	0xbd542db8	-0.051801413
28	0x3b53b500	0.003230393
29	0x3ce7ea2f	0.02830991
30	0xbc4e4f60	-0.012592167
31	0xbd8a8383	-0.06763365
32	0x3bb901b6	0.005645956
33	0x3c58003d	0.013183651
34	0xbc8abb1a	-0.01693492
35	0xbd4be3f8	-0.049777955
36	0x3d1b5c28	0.037929684
37	0x3da3e7ac	0.08003172
38	0x3dc79a61	0.09746242
39	0x3d12597b	0.035729866
40	0xbd463122	-0.0483867
41	0xbd8c0267	-0.06836396
42	0xbd88895b	-0.066668235
43	0xbd6deb72	-0.058085866
44	0xbdc673b5	-0.09690038
45	0xbd8c83bb	-0.06861063
46	0xbd140351	-0.036135975
47	0x3d9e96af	0.07743584
48	0x3daebd8d	0.08532248
49	0x3bc2a154	0.005939642
50	0x3cf7e3a9	0.030259924
51	0xbcefeab2	-0.029286716
52	0xbd9129ef	-0.07088076
53	0x3de633a1	0.11240316
54	0xbd603b2a	-0.054743923
55	0x3ae188b7	0.0017206882
56	0xbcdf1379	-0.027230965
57	0xbdae67ac	-0.085158676
58	0x3cd37829	0.025814133
59	0xbaad9b66	-0.0013245165
60	0xbc027f75	-0.007964958
61	0xbd95461e	-0.072887644
62	0xbc6f4c49	-0.01460559
63	0x3de66a45	0.11250738
64	0x3d9b5a5f	0.07585596
65	0x3ce637db	0.028102806
66	0xbd9d0376	-0.07666676
67	0xbdcaea13	-0.09907927
68	0xbd2ae491	-0.041721884
69	0xbd767e9b	-0.060179334
70	0x3db5d738	0.0887894
71	0xbd9090de	-0.07058881
72	0x3d702802	0.058631904
73	0xbd8c149d	-0.06839869
74	0xbdbdd9b7	-0.092700414
75	0x3dabbedc	0.08386013
76	0x3dcf5d5e	0.1012523
77	0x3dcd55fd	0.100261666
78	0xbd7e765b	-0.06212459
79	0x3d85c23e	0.065311894
80	0x3cd909d7	0.02649395
81	0xbda3d7c0	-0.080001354
82	0x3d8fb85d	0.070175864
83	0xbd858188	-0.06518847
84	0xbe03638b	-0.12830941
85	0x3d2f792a	0.04284016
86	0x3da1edde	0.07906698
87	0x3d3aaa46	0.04557254
88	0xbcd4f2d3	-0.025994694
89	0x3d59fc9d	0.053219426
90	0x3ccbcb5c	0.024877243
91	0x3d6c218e	0.057649188
92	0xbdce1e50	-0.100643754
93	0xbcf09339	-0.029367076
94	0xbd4ea27f	-0.050447937
95	0x3c323b2a	0.010878364
96	0x3d96b3f5	0.07358543
97	0x3d81945d	0.06327126
98	0x3c7a066a	0.015260318
99	0xbdaff240	-0.085911274

net.8.weight f4 [100, 100]
0	0xbdcf2289	-0.10114009
1	0x3ad22dfa	0.0016035431
2	0xbc682319	-0.014168524
3	0xbda51135	-0.080599226
4	0x3d4db5c3	0.05022217
5	0x3d9e52eb	0.07730659
6	0xbdb6c263	-0.08923795
7	0x3d329921	0.043603066
8	0xbc581eb8	-0.013190918
9	0x3daacd9a	0.08339997
10	0xbdd33bbb	-0.10314127
11	0xbc402ec6	-0.011729902
12	0x3d9adf25	0.07562093
13	0x3d80fbbd	0.06298015
14	0x3d96e74c	0.07368335
15	0x3cbed3e5	0.023294399
16	0x3bc6132c	0.006044766
17	0x3c8e19c7	0.017346276
18	0x3d0bba4c	0.034113213
19	0x3d2493f1	0.04018015
20	0xbc672cd2	-0.014109807
21	0x3d2bb60a	0.041921653
22	0xbc8f4029	-0.017486649
23	0x3d2fd7b7	0.04293033
24	0x3bbfe218	0.00585581
25	0xbd03f61b	-0.032217126
26	0x3c955796	0.01823024
27	0x3dc5db4c	0.09660968
28	0x3dcf13c5	0.101111926
29	0x3d44fe62	0.04809416
30	0x3a51bd2e	0.0008000907
31	0xbcaaa531	-0.020830723
32	0x3d9c9112	0.076448575
33	0xbdbc1433	-0.0918354
34	0x3d2acd83	0.041699897
35	0x3e2e8e49	0.17046465
36	0x3d31bf8f	0.043395575
37	0x3c8fac90	0.017538339
38	0xbd8ece11	-0.06972898
39	0xbe034ba5	-0.12821825
40	0xbdc73f37	-0.09728854
41	0xbd613092	-0.05497796
42	0x3d6a6a32	0.057230182
43	0xbd94d01e	-0.07266258
44	0xbd87d2fa	-0.066320375
45	0x3df258a6	0.118333146
46	0x3d955f18	0.07293528
47	0xbd42aff4	-0.047531083
48	0x3da81945	0.08207945
49	0xbd84f692	-0.06492342
50	0x3c86504f	0.016395716
51	0x3e009539	0.12556924
52	0xbd397fe9	-0.045288
53	0x3d160329	0.036624108
54	0xbd0ca180	-0.034333706
55	0xbd45980f	-0.048240718
56	0xbca48ad0	-0.020085722
57	0xbdf41e93	-0.11919894
58	0xbdbe5133	-0.09292831
59	0x3d72765b	0.059194904
60	0x3dbdd4a6	0.09269075
61	0xbd66025d	-0.056154598
62	0xbda1b977	-0.07896703
63	0x3bafc5d1	0.0053641577
64	0xbd9ae64a	-0.075634554
65	0xbb64a38a	-0.0034887516
66	0xbd887a8d	-0.06664
67	0x3cc41ba8	0.023938969
68	0xbd2b4340	-0.04181218
69	0x3dc2ff78	0.09521383
70	0x3da088b3	0.07838573
71	0xbde98ed6	-0.11404197
72	0xbe00694e	-0.1254017
73	0xbdd37d03	-0.103265785
74	0x3c0687bc	0.0082110725
75	0x3da33f36	0.07971041
76	0xbcd4467b	-0.025912514
77	0xbbbcc051	-0.0057602306
78	0x3d90697e	0.07051371
79	0x3cb575ac	0.022150837
80	0x3da9e7be	0.082961544
81	0xbd6ea76f	-0.058265146
82	0x3c8e0d9b	0.017340472
83	0x3d57bc67	0.05266991
84	0x3d54f659	0.051992748
85	0x3c7ee910	0.015558496
86	0xbd9e171c	-0.077192515
87	0xbdc1d903	-0.0946522
88	0x3cc913d4	0.024545588
89	0xbd6663d3	-0.056247544
90	0x3d8e0fac	0.06936583
91	0xbdbfd047	-0.093658976
92	0x3d9590d7	0.07303017
93	0xbda755b3	-0.08170643
94	0x3dd03f96	0.10168378
95	0xbcc3d291	-0.023904117
96	0x3db6ff41	0.089354046
97	0x3d8b995c	0.0681636
98	0x3ca426fe	0.020038124
99	0x3d6f8e13	0.058485102
100	0xbbdbb60d	-0.0067050518
101	0x3c21a7f4	0.009866703
102	0xbd1f0d4b	-0.038831037
103	0x3d9c9579	0.07645697
104	0x3d79b71b	0.06096564
105	0x3ca044ff	0.01956415
106	0xbdbaf044	-0.09127858
107	0xbd4b72a2	-0.04966987
108	0xbdf3b48f	-0.11899673
109	0xbdc5d1ab	-0.096591316
110	0x3d7231bc	0.05912946
111	0x3d7e7d9a	0.0621315
112	0x3d941f55	0.072325386
113	0xbdaa0522	-0.0830176
114	0xbcf0efdf	-0.029411254
115	0x3d056ade	0.03257262
116	0x3dc1bb17	0.09459513
117	0x3da8452e	0.0821632
118	0xbc95783d	-0.01824581
119	0xbd9d2882	-0.07673742
120	0xbcb984a1	-0.02264625
121	0xbdb75ee4	-0.08953646
122	0x3da24043	0.07922413
123	0x3d464620	0.04840672
124	0xbd883596	-0.06650846
125	0xbd7b0f3e	-0.061293833
126	0x3db3e607	0.087841086
127	0xbe0c7c65	-0.13719328
128	0x3c69f9a1	0.014280708
129	0xbdb06985	-0.08613876
130	0xbc8bef29	-0.017081814
131	0xbd328e74	-0.043592885
132	0xbdb1b305	-0.086767234
133	0xbd6f55c8	-0.058431417
134	0x3c852f78	0.016257986
135	0x3bd7fdfc	0.0065915566
136	0x3d637c1e	0.05553829
137	0x3d8b85bc	0.06812617
138	0xbd87237d	-0.06598566
139	0xbd4c90f7	-0.049942937
140	0xbdafb1cf	-0.08578836
141	0xbc921a8e	-0.017834928
142	0xbdd75452	-0.1051413
143	0x3d30f40c	0.04320149
144	0xbdb0e64b	-0.08637675
145	0xbd622477	-0.055210557
146	0x3db1c900	0.08680916
147	0x3dd7e1f3	0.10541143
148	0xbe3a0373	-0.18165378
149	0x3dab144c	0.08353481
150	0xbdf4d330	-0.11954343
151	0xbe8a234e	-0.2698006
152	0xbe659744	-0.22420985
153	0xbc80a6b6	-0.015704494
154	0x3da9d4c9	0.08292539
155	0xbdb764e3	-0.089547895
156	0x3cc3343a	0.023828615
157	0xbd33bc9e	-0.04388105
158	0xbc83ddea	-0.016097028
159	0xbd6f345a	-0.058399536
160	0x3ddfa35d	0.10919831
161	0x3d86e088	0.06585795
162	0x3e805d43	0.25071153
163	0xbd7f0c4b	-0.062267583
164	0x3d934c0c	0.07192239
165	0x3d854e83	0.065091155
166	0x3d1f4f5e	0.03889405
167	0xbd6ca36a	-0.05777303
168	0xbd02aec9	-0.03190497
169	0xbd38295c	-0.04496132
170	0xbc995418	-0.018716857
171	0xbe02546a	-0.12727514
172	0xbd473bb5	-0.048640925
173	0xbd2f10e3	-0.042740714
174	0xbda6677f	-0.08125209
175	0xbe304592	-0.17214039
176	0xbde53333	-0.11191406
177	0xbd68d13d	-0.05684017
178	0x3b4463e6	0.002996677
179	0xbd687e51	-0.05676109
180	0xbe074644	-0.13210398
181	0xbd00a14c	-0.031403825
182	0xbcb05572	-0.021525118
183	0xbd52e6e3	-0.051489722
184	0xbdb84d8c	-0.08999166
185	0xbd2f7033	-0.04283161
186	0x3ccdedae	0.025137749
187	0xbd519092	-0.051163264
188	0xbc646319	-0.013939642
189	0x3cfb1e05	0.030653963
190	0xbb127be1	-0.002235167
191	0x3c225f3f	0.009910404
192	0xbcd681b7	-0.0261849
193	0xbe14401e	-0.14477584
194	0xbe14599b	-0.14487307
195	0xbc3c2f96	-0.011485955
196	0x3d5662b7	0.052340236
197	0xbd8845f7	-0.0665397
198	0xbcf7f195	-0.030266562
199	0x3c5bf8d1	0.013426022
200	0x3c8b5448	0.017007962
201	0xbd576b89	-0.052592788
202	0x3e0b8712	0.13625744
203	0xbe9f1765	-0.31072536
204	0x3e6c49b4	0.2307499
205	0x3e830429	0.2558911
206	0xbd0d7033	-0.03453083
207	0xbd492f15	-0.049117167
208	0x3dcc2723	0.09968402
209	0x3d40fb35	0.04711457
210	0x3d7c96d2	0.06166727
211	0x3d772818	0.06034097
212	0xbe93f7a2	-0.28899866
213	0xbc3829a6	-0.0112403985
214	0xbd35c6f3	-0.044379186
215	0xbd09081f	-0.03345501
216	0x3d9ef30f	0.077612035
217	0xbd835d65	-0.06414298
218	0x3db5583b	0.08854719
219	0xbd3dde99	-0.046354864
220	0x3e801719	0.25017622
221	0xbd076636	-0.03305646
222	0x3e31bd87	0.17357455
223	0x3d95a069	0.073059864
224	0x3c94e8c2	0.018177394
225	0x3e283b30	0.16428828
226	0xbd9c7b3f	-0.07640695
227	0x3d8d9faf	0.06915223
228	0xbc954034	-0.018219091
229	0xbe326fea	-0.17425504
230	0xbd0c7a21	-0.03429616
231	0x3dbee7a5	0.093215264
232	0x3ca2cde0	0.01987356
233	0xbb3ac974	-0.0028501423
234	0x3cc4e293	0.02403382
235	0x3eb072b0	0.344625
236	0x3d71cf1d	0.05903541
237	0xbda89c80	-0.08232975
238	0xbd650fef	-0.0559234
239	0x3dd16743	0.10224774
240	0x3e15d234	0.14630967
241	0xbe277379	-0.16352643
242	0xbd1bf3b3	-0.038074207
243	0x3e4594e9	0.19295086
244	0x3e2caa1a	0.16861764
245	0xbd70f44c	-0.05882673
246	0xbd810a93	-0.06300845
247	0x3d3059a2	0.04305423
248	0x3dd91ac8	0.10600811
249	0xbe5d60ae	-0.21618912
250	0x3dec5044	0.11538747
251	0x3e59327b	0.21210663
252	0x3db214e9	0.086953945
253	0xbe2da304	-0.16956717
254	0x3e10e7e1	0.14150955
255	0xbcf895f0	-0.030344933

net.8.bias f4 [100]
0	0x3de44417	0.111457996
1	0x3da32453	0.07965913
2	0xbd051c96	-0.032497965
3	0x3dbe0723	0.09278705
4	0x3d83d54f	0.0643717
5	0x3cc48e1c	0.023993544
6	0x3de92783	0.113844894
7	0x3c3ddf4e	0.0115888845
8	0x3b62d99d	0.003461457
9	0x3c41c37b	0.011826391
10	0xbcdb111f	-0.026741562
11	0xbdd8b008	-0.1058045
12	0x3ace1ad2	0.0015724546
13	0x3db76a8f	0.08955871
14	0xbce21804	-0.027599342
15	0xbd9180bc	-0.07104632
16	0xbcf15f12	-0.029464278
17	0x3c4e0780	0.01257503
18	0xbcbf8fab	-0.023383936
19	0x3d7c1382	0.06154204
20	0xbd691c31	-0.05691165
21	0xbdf186fd	-0.11793325
22	0xbd3484e6	-0.044072054
23	0x3d1ce609	0.038305316
24	0xbd17e865	-0.037086863
25	0x3d77004c	0.060303017
26	0x3c48cca5	0.012255822
27	0x3c8d2030	0.017227262
28	0xbdb719e2	-0.08940484
29	0xbd863f25	-0.065550126
30	0x3d8ab33a	0.06772466
31	0xbdd4e157	-0.10394543
32	0x3e11d69f	0.14242028
33	0xbccaf860	-0.024776638
34	0xbd8ae543	-0.067820095
35	0x3dd23a81	0.10265065
36	0x3dd07e73	0.10180368
37	0x3c60eb69	0.013728001
38	0x3cc1e065	0.02366657
39	0xbac0f55f	-0.0014721564
40	0x3d92116b	0.071322285
41	0xbd5f3c7e	-0.05450105
42	0x3dc64680	0.096814156
43	0x3cad8b31	0.021184536
44	0xbb174e41	-0.0023087414
45	0xbc9f35eb	-0.01943489
46	0xbc261f02	-0.010139229
47	0xbc67ee3e	-0.014155922
48	0xbd2137f2	-0.039359994
49	0x3d94867b	0.072522126
50	0x3d2176fb	0.03942011
51	0xbd947944	-0.07249692
52	0xbc7abb05	-0.015303378
53	0xbd9a5c75	-0.07537166
54	0xbd8054ac	-0.0626615
55	0x3d2db42f	0.042408165
56	0x3d133ab5	0.03594466
57	0x3d27f80b	0.041008037
58	0x3cc671dd	0.024224216
59	0x3ca0e1e2	0.01963896
60	0xbcdc86cf	-0.02691975
61	0xbdea46c7	-0.11439281
62	0x3c26ba50	0.010176256
63	0xbcb5c5f7	-0.022189124
64	0x3cc61eb0	0.024184555
65	0xbd49d80c	-0.049278304
66	0xbdc272b9	-0.09494538
67	0xbd29129c	-0.041277513
68	0x3caa8934	0.020817377
69	0xbd947d96	-0.07250516
70	0x3dac5456	0.08414523
71	0x3cf589bd	0.029972905
72	0xbcd0768b	-0.02544715
73	0x3d62d2c6	0.05537679
74	0xbda863c4	-0.08222154
75	0xbd06a257	-0.032869663
76	0xbd9bc39c	-0.07605669
77	0x3d942194	0.07232967
78	0x3dcfb9c2	0.10142852
79	0xbbff110a	-0.0077840136
80	0xbbfdda6a	-0.0077469843
81	0x3cd4161a	0.025889445
82	0x3d87cfc3	0.06631424
83	0x3d90dd75	0.070734896
84	0x3af51f26	0.00187013
85	0x3db0935b	0.08621856
86	0x3dab372b	0.08360132
87	0xbbd07e46	-0.006362709
88	0xbcc5580e	-0.02408984
89	0xbb6b5e20	-0.0035914257
90	0xbd35a462	-0.04434622
91	0xbd89cd8a	-0.067286566
92	0xbd3cfee8	-0.046141535
93	0xbd0fe8df	-0.035134193
94	0xbdbecc87	-0.09316354
95	0x3d086d6d	0.03330748
96	0xbdbf873a	-0.09351964
97	0xbd00842c	-0.03137605
98	0xbd90718d	-0.07052908
99	0xbcf78655	-0.030215422
