models/heatalpha/tanh/heatalpha_18.pth (torch, 977047 bytes, 51 tensors)

net.0.weight f4 [100, 3]
0	0xbe25ea86	-0.16202745
1	0xbf129899	-0.57264096
2	0x3cc214f5	0.023691634
3	0xbf087297	-0.5329985
4	0xbeaee43e	-0.3415851
5	0x3e507dfc	0.20360559
6	0xbec499d6	-0.38398618
7	0xbb8fe995	-0.004391859
8	0x3edca320	0.43093204
9	0x3e631f6a	0.22179952
10	0x3e3b44d4	0.18287975
11	0x3e46a199	0.19397582
12	0x39276b7c	0.00015966402
13	0x3e457dac	0.19286221
14	0x3eafe2fb	0.3435286
15	0x3e1787ab	0.14797847
16	0x3ffbd193	1.9673332
17	0xbed8c0e1	-0.42334655
18	0x3f25e290	0.6479883
19	0x3ec81e55	0.39085642
20	0x3e8303b3	0.2558876
21	0xbe2f9fa3	-0.1715074
22	0x3e3f6e13	0.18694334
23	0xbd2c559b	-0.042073827
24	0x3e3c2f9a	0.18377534
25	0xbdd67cdd	-0.104730345
26	0xbf24ae37	-0.6432833
27	0xbcf9f3d4	-0.030511774
28	0xbd7751a3	-0.06038059
29	0x3ef4dbfa	0.4782408
30	0xbd84dd68	-0.064875424
31	0x3d09f2e3	0.0336789
32	0x3f1683ee	0.5879506
33	0x3ec0efb5	0.37682882
34	0xbdd6ebf9	-0.10494227
35	0xbf01e6f6	-0.50743043
36	0x3e1f6cd8	0.15568864
37	0x3d866b4d	0.06563435
38	0xbeff0ff3	-0.49816856
39	0x3e92505a	0.28576928
40	0x3dc38fb2	0.09548892
41	0x3ee3b4d1	0.4447389
42	0xbe60caf1	-0.21952416
43	0x3e5bbaa7	0.21457921
44	0x3ee4c879	0.44684198
45	0xbeb75321	-0.3580561
46	0xbea79408	-0.32730126
47	0x3e5880b7	0.21142851
48	0x3e2f3f14	0.17113906
49	0x3ead74fd	0.33878317
50	0xbe0cfebf	-0.13769053
51	0x3e73c0ad	0.23803969
52	0xbf226e22	-0.634493
53	0xbe88dff2	-0.26733357
54	0xbec152d4	-0.37758505
55	0xbe96ed3f	-0.2947788
56	0x3da7f5dc	0.08201191
57	0x3f2df5f7	0.6795344
58	0x3e87e22f	0.26539752
59	0x3f262c2b	0.64911145
60	0xbe7e8f90	-0.24859452
61	0x3eac0a5a	0.33601648
62	0xbf27e4a1	-0.65583235
63	0xbdca6569	-0.09882624
64	0xbd9740ab	-0.07385381
65	0x3e08fbcf	0.13377307
66	0x3ea98498	0.33108974
67	0xbf0c160e	-0.5472115
68	0xbed251b4	-0.4107796
69	0xbebf482a	-0.37359744
70	0x3efd3957	0.4945781
71	0xbec2ced1	-0.38048413
72	0xbe9660e2	-0.2937079
73	0xbeb42a08	-0.35188317
74	0xbd375b36	-0.04476472
75	0xbed3aeb0	-0.41344213
76	0xbf04580e	-0.5169686
77	0x3eab020c	0.334
78	0x3f3df8b7	0.74207634
79	0x3dd2f51a	0.10300656
80	0xbdf27161	-0.118380316
81	0x3d1cac6d	0.038250376
82	0xbf1305d5	-0.57430774
83	0x3d5ca068	0.053863913
84	0x3ddeebd9	0.10884828
85	0xbdae2317	-0.085027866
86	0x3ecdf315	0.4022452
87	0xbbfdf8ba	-0.007750598
88	0xbe7be2b5	-0.245982
89	0xbe975463	-0.2955657
90	0x3eabda84	0.33565152
91	0x3e51f9c1	0.2050543
92	0x3d7a6c64	0.061138526
93	0xbf06361f	-0.5242633
94	0x3d22a76f	0.03971046
95	0x3d393fa1	0.045226697
96	0xbe32400f	-0.17407249
97	0x3eb081e9	0.34474114
98	0x3ed3e878	0.41388297
99	0x3e3fedfb	0.18743126
100	0xbe1c848a	-0.15284935
101	0x3f1b74b3	0.60724944
102	0x3c702ac9	0.014658638
103	0x3e24a5aa	0.16078821
104	0x3e62eee6	0.22161445
105	0x3e999966	0.29999846
106	0x3db1d942	0.08684017
107	0xbe966919	-0.29377058
108	0x3c9a4cd0	0.018835455
109	0xbf4b7237	-0.79471153
110	0x3e815db4	0.25266802
111	0x3dee413a	0.11633535
112	0xbeb74715	-0.3579642
113	0xbd370f3e	-0.04469227
114	0x3dc8b5d4	0.09800306
115	0x3e6b6500	0.22987747
116	0x3e03b2e6	0.12861213
117	0xbeb35430	-0.35025167
118	0x3ee5bbc5	0.4486982
119	0x3ebc726a	0.3680604
120	0x3e08524e	0.13312647
121	0x3ec091d6	0.37611264
122	0xbdaf6bf0	-0.08565509
123	0x3e28ef0a	0.16497436
124	0xbdab51ae	-0.083651885
125	0xbe17e06c	-0.14831704
126	0xbee7b892	-0.45258003
127	0xbcf35e3a	-0.029708017
128	0xbe96f34c	-0.29482496
129	0xbe445726	-0.1917387
130	0xbf22a23f	-0.6352882
131	0x3eea98fd	0.45819846
132	0xbe42a9c8	-0.19010079
133	0xbf7ebd21	-0.9950734
134	0x3ed40c0b	0.41415438
135	0x3f074fed	0.5285633
136	0xbed918f3	-0.42401847
137	0xbe1728fd	-0.1476173
138	0xbe83185d	-0.25604525
139	0x3dbe4bc9	0.092917986
140	0xbee56c12	-0.44809014
141	0xbe8c5c12	-0.27413994
142	0x3eaf7783	0.34270868
143	0xbec12ab5	-0.37727895
144	0xbe5d361a	-0.2160267
145	0x3ccc58f5	0.024944762
146	0x3f11ad1e	0.5690478
147	0xbea6b6a9	-0.32561234
148	0x3ce50f79	0.02796148
149	0x3e09c575	0.1345423
150	0x3e045cba	0.12925997
151	0x3c02fc8e	0.007994784
152	0x3e3394e7	0.1753727
153	0xbe396fec	-0.18109101
154	0xbec5533c	-0.38540065
155	0x3d82ddec	0.063899845
156	0x3dd0a277	0.10187238
157	0xbe59910f	-0.21246742
158	0xbf0c9c74	-0.5492623
159	0xbe840ec0	-0.25792503
160	0xbe15d1a1	-0.14630748
161	0x3e0780a0	0.1323266
162	0xbea6c339	-0.32570818
163	0xbe0bccd9	-0.13652362
164	0xbc5d6db8	-0.0135149285
165	0x3de665ec	0.11249909
166	0x3f2532b6	0.64530504
167	0xbecc06b0	-0.39848852
168	0xbe1abd55	-0.15111287
169	0x3e139322	0.14411595
170	0x3eb4f266	0.35341185
171	0x3e20a3ad	0.15687437
172	0x3f2a2cef	0.66474813
173	0xbe30753e	-0.17232224
174	0xbea9399e	-0.3305177
175	0x3e2583c7	0.1616355
176	0x3f0afcf7	0.54292244
177	0x3f2ebe13	0.6825878
178	0x3e92af5a	0.28649408
179	0xbe374aea	-0.17899671
180	0xbe42dd24	-0.19029671
181	0x3e5f54ab	0.21809642
182	0x3e569ac4	0.20957476
183	0xbe9fa259	-0.3117855
184	0x3df86f0c	0.121305555
185	0x3ed618dc	0.4181584
186	0xbdd4fbfe	-0.10399626
187	0x3e30c2fc	0.1726188
188	0x3ed7973b	0.42107567
189	0x3e9ea628	0.30986142
190	0xbd6f4d6b	-0.05842344
191	0x3dd09f35	0.10186616
192	0x3e5cba61	0.21555473
193	0xbdd5278c	-0.104079336
194	0x3faa6f7e	1.3315275
195	0xbf17cfeb	-0.5930163
196	0x3ce8933e	0.028390523
197	0x3da2b925	0.0794547
198	0x3d913db9	0.07091851
199	0xbdaef114	-0.08542076
200	0xbf060746	-0.5235485
201	0xbea8e39c	-0.32986152
202	0xbe026bf3	-0.12736492
203	0x3c97fece	0.018554118
204	0xbf298df4	-0.6623223
205	0xbf0b929e	-0.54520595
206	0xbf205789	-0.6263357
207	0x3df502c6	0.119634196
208	0xb9141954	-0.00014123815
209	0x3de55172	0.11197175
210	0x3eb069e7	0.34455797
211	0x3f5e11fb	0.86746186
212	0xbf15dda9	-0.5854135
213	0xbe54ccc6	-0.2078124
214	0xbebe183c	-0.37127864
215	0x3efcdb2d	0.49385968
216	0x3ddd67a8	0.108107865
217	0x3e84e047	0.2595236
218	0xbd8e5685	-0.06950096
219	0xbec498da	-0.38397866
220	0x3ec64de3	0.38731298
221	0x3f14a9f2	0.58071816
222	0x3e03251d	0.12807126
223	0x3ed4cb0a	0.41561157
224	0x3e02facd	0.12790985
225	0x3d452107	0.0481272
226	0x3e7114dd	0.23543115
227	0x3e6221ad	0.22083159
228	0x3f2db138	0.6784854
229	0x3f1efe5b	0.62106866
230	0x3c91d1c6	0.017800223
231	0xbd5d3db3	-0.05401392
232	0x3e3e0744	0.18557459
233	0x3ee91055	0.45520273
234	0xbeb67843	-0.35638627
235	0xbf055984	-0.52089715
236	0x3d014f2f	0.031569656
237	0xb9a5a4f3	-0.0003159415
238	0xbe2101ab	-0.15723293
239	0x3f25baac	0.64737964
240	0xbd813377	-0.06308644
241	0x3e10cab3	0.14139824
242	0xbeacb312	-0.3373037
243	0xbf392d9d	-0.72335225
244	0xbdd1e1bb	-0.10248133
245	0xbc6213f9	-0.013798707
246	0x3ece2fe8	0.40270925
247	0xbedc2e7b	-0.43004212
248	0x3e93b9b9	0.28852633
249	0xbdc76a3b	-0.09737059
250	0xbe9d9c87	-0.30783483
251	0xbd3c01bc	-0.04590009
252	0xbd2729f7	-0.040811505
253	0xbf6a5d25	-0.9154838
254	0x3d543936	0.051812373
255	0x3e1f0041	0.1552744

net.0.bias f4 [100]
0	0xbdd6fc79	-0.10497374
1	0xbeb5def0	-0.3552165
2	0x3e70561b	0.23470347
3	0xbdeca53e	-0.11554955
4	0x3e98787c	0.29779422
5	0x3d7b7645	0.061392087
6	0x3cc47f02	0.023986343
7	0x3ed16323	0.40895948
8	0xbc79b0fd	-0.015239951
9	0x3f0da2fd	0.55326825
10	0xbf172c17	-0.5905165
11	0xbd7d2d51	-0.061810795
12	0xbd0c4da4	-0.03425373
13	0xbf37f7e8	-0.7186265
14	0x3ea28073	0.31738624
15	0xbf0b1b5b	-0.54338616
16	0xbf028fce	-0.5100068
17	0xbeee1dc8	-0.46507096
18	0x3f29035f	0.6602077
19	0x3e8339ab	0.25629935
20	0x3f085818	0.5325942
21	0x3e4f3400	0.2023468
22	0xbf0bcf44	-0.5461314
23	0x3ce75f27	0.028243614
24	0x3de836bc	0.11338565
25	0xbdab7f36	-0.08373873
26	0x3d7f31db	0.062303405
27	0x3bf171f0	0.0073683187
28	0x3ea7da34	0.32783663
29	0x3ec71e11	0.38890126
30	0xbf2a5f55	-0.66551715
31	0xbf02f23d	-0.51150876
32	0x3e9b9a5a	0.30391198
33	0x3eb14b56	0.3462779
34	0xbf13f3ee	-0.5779408
35	0x3e5b6019	0.21423377
36	0xbe90ece7	-0.28305742
37	0xbee612a3	-0.44936094
38	0x3dbf30fd	0.09335516
39	0x3ebcc9e0	0.36872768
40	0xbe8237a9	-0.2543309
41	0x3dc95ec3	0.098325275
42	0xbd793781	-0.06084395
43	0xbc73be12	-0.014876859
44	0x3e0f0adf	0.1396899
45	0xbe221102	-0.158268
46	0x3e391321	0.18073703
47	0x3f0b6e37	0.5446505
48	0xbefbde51	-0.4919305
49	0x3f11d7ce	0.56969917
50	0xbf008498	-0.5020232
51	0xbf0fe322	-0.5620595
52	0x3cb9d347	0.022683753
53	0x3d5aa641	0.05338121
54	0xbedd64f2	-0.43241078
55	0xbe871e44	-0.26390278
56	0xbe7014ac	-0.23445386
57	0xbdfbfc50	-0.12303984
58	0xbeb1937f	-0.34682843
59	0x3f05736f	0.5212926
60	0x3e9829cf	0.29719397
61	0xbf31832a	-0.69340765
62	0xbe7efd2d	-0.24901266
63	0xbe698182	-0.2280331
64	0xbe0cef45	-0.13763149
65	0xbbb51449	-0.0055261
66	0x3e892aaa	0.26790363
67	0x3f07d13a	0.5305363
68	0x3e0ef70f	0.13961433
69	0xbf25c6ef	-0.64756674
70	0x3e75b711	0.23995616
71	0xbdd35f1c	-0.10320875
72	0x3ea8be65	0.3295776
73	0x3e87746c	0.2645601
74	0xbe2feb1e	-0.17179534
75	0xbd154431	-0.036441986
76	0xbe3766cf	-0.17910312
77	0xbe67e182	-0.22644618
78	0x3f13f0cb	0.57789296
79	0x3f124ef4	0.5715172
80	0x3e490571	0.19630982
81	0xbdba9dc9	-0.091121264
82	0x3e099bae	0.13438293
83	0xbe197fd9	-0.14990176
84	0xbe8cf109	-0.27527645
85	0xbe094fe9	-0.1340939
86	0x3f186541	0.595295
87	0x3e8a5903	0.27021036
88	0xbf0b521f	-0.5442218
89	0x3e703dcb	0.23461072
90	0xbe9a40b7	-0.30127499
91	0xbf205434	-0.62628484
92	0x3dec802c	0.11547884
93	0x3ea0c17a	0.3139761
94	0x3ec5f994	0.38666975
95	0xbec3a497	-0.3821151
96	0xbda53790	-0.08067238
97	0x3e9ec1b3	0.31007156
98	0xbe10f022	-0.14154103
99	0xbebe4adc	-0.37166488

net.2.weight f4 [100, 100]
0	0x3da9116c	0.08255276
1	0x3d9eff7b	0.07763573
2	0x3dd732eb	0.10507759
3	0xbc3e8833	-0.011629152
4	0x3b53f041	0.0032339247
5	0x3d5bebb4	0.05369158
6	0xbc1dd9f9	-0.009634488
7	0x3d68dc5d	0.05685078
8	0xbda54ed7	-0.08071678
9	0xbba41e5c	-0.005008502
10	0xbddbf4c3	-0.10740044
11	0xbd354031	-0.04425067
12	0x3d4ba820	0.049720883
13	0x3b6673b3	0.0035164177
14	0xbcb41b97	-0.021985812
15	0x3d1a8685	0.037725944
16	0xbca13bac	-0.019681774
17	0x3d743e1b	0.05962954
18	0x3b44f285	0.003005178
19	0xbd88ec76	-0.06685726
20	0x3cb02633	0.02150259
21	0x3d618ee5	0.055067915
22	0xba2acc11	-0.00065153936
23	0xbcb8dcec	-0.022566281
24	0x3dc190c9	0.09451444
25	0x3c86e776	0.016467791
26	0xbc66d83a	-0.014089638
27	0x3c3a3b4a	0.011366675
28	0x3d01af60	0.03166139
29	0x3d8e80d0	0.06958163
30	0x3d8e034e	0.06934224
31	0xbdb39ec7	-0.08770519
32	0x3e0adcec	0.13560838
33	0x3d856fd0	0.06515467
34	0x3cef5dcd	0.029219532
35	0xbd9f00b7	-0.07763808
36	0xbe12e9a1	-0.14346935
37	0xbdf81aca	-0.121144846
38	0x3d9e3e2d	0.07726703
39	0xbd827dcb	-0.06371649
40	0xbdb868ba	-0.0900435
41	0x3ca1a21b	0.019730618
42	0x3db0a3fc	0.086250275
43	0x3dc7f842	0.09764148
44	0x3db8525f	0.09000086
45	0xbb172920	-0.0023065284
46	0xbcefa9f8	-0.029255852
47	0xbcba13da	-0.022714544
48	0x3dc762a0	0.09735608
49	0x3de98bb1	0.11403597
50	0xbdc4c6e9	-0.096082516
51	0xbd963c73	-0.073357485
52	0x3d6ef440	0.058338404
53	0x3da3c023	0.079956315
54	0x3b97cff0	0.0046329424
55	0x3d6e949f	0.058247205
56	0xbdb9c2da	-0.09070368
57	0xbc209a2a	-0.009802381
58	0x3b95ff7e	0.004577576
59	0x3bf1b66e	0.0073764836
60	0x3de95706	0.113935515
61	0xbdc19922	-0.09453036
62	0x3d2cfeb4	0.04223509
63	0x3cccdb09	0.025006788
64	0xbca26483	-0.019823318
65	0xbd7a7e14	-0.061155394
66	0x3d1843e5	0.037174124
67	0xbd3bf327	-0.045886185
68	0xbdab0346	-0.08350234
69	0xbe3a4b40	-0.18192768
70	0x3d9ade3c	0.07561919
71	0x3db8bc29	0.09020264
72	0x3dc62e07	0.09676748
73	0xbd432271	-0.047640268
74	0x3d6d021d	0.057863344
75	0xbc6944cd	-0.014237595
76	0x3d4d65ee	0.050146036
77	0xbc92e714	-0.017932452
78	0x3d34f809	0.044181857
79	0x3d958a66	0.07301788
80	0x3d41f4e2	0.04735268
81	0x3d8934c7	0.066995196
82	0xbd0918d9	-0.033470962
83	0xbdc63d27	-0.09679633
84	0xbd949a09	-0.072559424
85	0x3cc4f520	0.024042666
86	0xbd40aa0b	-0.047037166
87	0xbbf1c216	-0.007377873
88	0xbbd05c02	-0.0063586244
89	0xbd8a110c	-0.06741533
90	0xbe26969a	-0.16268387
91	0xbdca3cea	-0.098749
92	0x3d259a2c	0.040430233
93	0xbd39d13c	-0.045365557
94	0x3d32222f	0.04348963
95	0xbc08481e	-0.008317975
96	0xbcedcb77	-0.029027684
97	0x3d15832d	0.036502052
98	0xbdc7f016	-0.0976259
99	0xbd9dc16c	-0.07702908
100	0x3d289ab7	0.041163173
101	0xbd9afe35	-0.075680174
102	0xbca9917b	-0.020699253
103	0x3c94dc53	0.018171465
104	0xbdbd3324	-0.0923827
105	0xbd53e6a2	-0.05173362
106	0xbdaf7722	-0.08567645
107	0xbd8555e6	-0.065105245
108	0x3d7a0077	0.0610356
109	0xbc235b82	-0.009970548
110	0x3d8ab4b8	0.067727506
111	0xbdae9bf7	-0.08525842
112	0xbdaabdf3	-0.08337011
113	0x3ddaf9eb	0.10692199
114	0xbd32f516	-0.043690763
115	0xbdb19b07	-0.08672147
116	0xbdd58a96	-0.10426824
117	0xbc2e9fb2	-0.0106581915
118	0xbd6fc1cf	-0.05853444
119	0x3cf7e6d1	0.030261429
120	0x3dd69325	0.10477284
121	0x3d6aee4b	0.05735616
122	0xbd0e5623	-0.034750115
123	0x3b46c391	0.003032897
124	0xbd55c331	-0.052188102
125	0xbdbf276c	-0.09333691
126	0xbd46238b	-0.04837374
127	0x3d0b1a75	0.03396078
128	0xbd685ff1	-0.05673212
129	0x3dec013e	0.115236744
130	0xbd400d28	-0.046887547
131	0xbc6da285	-0.01450408
132	0xbc7fae0c	-0.015605461
133	0xbcc52658	-0.024066135
134	0xbd82f26b	-0.06393894
135	0x3b8b73b2	0.0042557353
136	0x3c179951	0.009252862
137	0xbde99be4	-0.11406687
138	0x3b785342	0.0037891422
139	0x3d9256b1	0.07145441
140	0xbdce92b9	-0.10086579
141	0xbdd7a29f	-0.105290644
142	0xbd9e68ac	-0.07734808
143	0xbd87a9f1	-0.066242106
144	0xb75b303b	-1.3064647e-05
145	0xbd2ce914	-0.042214468
146	0x3d319ada	0.04336057
147	0xbcc85589	-0.024454849
148	0x3d9d333c	0.07675788
149	0xbd552b18	-0.05204305
150	0xbd71fb68	-0.05907765
151	0xbcc54585	-0.024081001
152	0xbd90ecbe	-0.07076405
153	0xbca0c75a	-0.019626308
154	0x3d9e6fb3	0.07736149
155	0x3c55fed2	0.013061242
156	0x3c96c8f5	0.01840637
157	0xbd61a7d0	-0.05509168
158	0xbd93a5cf	-0.0720936
159	0xbd94a1dd	-0.072574355
160	0xbd065c88	-0.03280309
161	0x3d56b49c	0.052418336
162	0xbdb09d89	-0.086237974
163	0x3da24cdf	0.07924818
164	0x3c75a3b3	0.014992642
165	0xbc9169ae	-0.017750587
166	0x3c8a94dc	0.016916685
167	0x3d3033ba	0.04301808
168	0xbdb8d0d2	-0.09024204
169	0xbe56b500	-0.20967484
170	0x3dcc5e1e	0.09978889
171	0xbd989f66	-0.07452278
172	0xbd6952aa	-0.0569636
173	0xbd450551	-0.048100773
174	0x3ce71420	0.028207839
175	0x3d166f68	0.03672734
176	0xbd97339b	-0.0738289
177	0x3d39aab4	0.04532881
178	0x3d095992	0.033532687
179	0x3dacaa05	0.08430866
180	0x3dc3ea47	0.09566169
181	0x3db4321a	0.087986186
182	0xbd976528	-0.07392341
183	0x3ca7ec0d	0.0204983
184	0xbd85bad3	-0.065297745
185	0xbb9dcc50	-0.0048156157
186	0xbdc81c81	-0.09771062
187	0x3da44b60	0.08022189
188	0xbc9950ea	-0.01871534
189	0x3d717c1a	0.058956243
190	0xbd77dc38	-0.06051275
191	0xbda423ae	-0.08014618
192	0xbc285908	-0.010275133
193	0xbd659d8e	-0.05605846
194	0xbd998665	-0.07496337
195	0x3bcfc9c7	0.0063411924
196	0x3d7cc3b8	0.06171009
197	0x3d1db455	0.038502056
198	0x3c233b22	0.009962829
199	0xbd9f8569	-0.07789118
200	0x3d1b0832	0.037849613
201	0xbd94b7c8	-0.07261616
202	0x3d549249	0.05189732
203	0xbd6192c6	-0.055071615
204	0x3da5ce0b	0.0809594
205	0x3b27739d	0.0025551089
206	0x3d8ff83e	0.0702977
207	0xbd53bd1f	-0.05169403
208	0xbdad7115	-0.08468834
209	0x3b2f034f	0.0026704853
210	0xbdc4f48d	-0.09616957
211	0xbda625cd	-0.08112679
212	0xbdd6a113	-0.10479941
213	0xbd2f69ab	-0.042825382
214	0x3e118d1e	0.14213988
215	0x3dbff857	0.09373539
216	0xbd3f03de	-0.046634547
217	0xbdbfa70e	-0.09358035
218	0xbd255366	-0.040362738
219	0x3db218e6	0.08696155
220	0x3abcba12	0.0014398715
221	0x3e160711	0.14651133
222	0xbdbf3713	-0.093366764
223	0x3b6d5611	0.003621463
224	0x3c573e0f	0.0131373545
225	0x3d6feea4	0.058577195
226	0xbd9ce6e2	-0.07661225
227	0xbdb63cc2	-0.088983074
228	0xbdba2325	-0.090887345
229	0x3e2558d5	0.16147168
230	0xbd39d8a9	-0.04537264
231	0x3db450f9	0.08804507
232	0xbb266e50	-0.0025395341
233	0x3d6639f5	0.056207616
234	0xbd978baa	-0.07399686
235	0x3d1d476b	0.038398188
236	0xbe097897	-0.13424908
237	0xbe22cb47	-0.15897857
238	0xbb421c41	-0.0029618891
239	0xbbf92f28	-0.0076044984
240	0xbde7ad78	-0.113123834
241	0x3d7242e8	0.059145838
242	0xbd3ffeb3	-0.04687376
243	0xbdb0edfd	-0.08639143
244	0xbd741147	-0.05958679
245	0xba0a8db4	-0.00052853976
246	0xbb929d5c	-0.004474325
247	0xbc54dd16	-0.012992164
248	0x3c26482c	0.010149043
249	0x3d959684	0.07304099
250	0xbc911e5e	-0.017714676
251	0x3d61e552	0.055150338
252	0x3b33b394	0.002742027
253	0x3d2b1a4c	0.041773126
254	0xbd1ca07d	-0.03823899
255	0xbd608559	-0.05481467

net.2.bias f4 [100]
0	0x3dc17f49	0.09448106
1	0x3cfb9837	0.03071223
2	0x3c87e426	0.016588282
3	0xbdae1523	-0.08500125
4	0xbd967294	-0.07346073
5	0x3ca1df28	0.01975973
6	0xbdaf9f3a	-0.08575292
7	0x3bb89f13	0.0056341975
8	0xbda1adea	-0.078944996
9	0xbd2286d0	-0.03967935
10	0x3d4f0505	0.050541896
11	0x3d6c3fae	0.057677917
12	0x3d374897	0.04474696
13	0xbc5ad45c	-0.0133562945
14	0x3d7d8a53	0.061899494
15	0xbc78413a	-0.01515227
16	0x3c6003da	0.013672793
17	0x3d819345	0.063269176
18	0xbdb12f7b	-0.08651634
19	0x3de48062	0.111572996
20	0x3d8820c5	0.06646875
21	0xbcb22f6b	-0.021751126
22	0x3cb3efad	0.021964872
23	0x3d87ee1f	0.06637215
24	0x3dad3c91	0.08458818
25	0x3db413a8	0.08792812
26	0xbd8ea351	-0.06964744
27	0xbd1fd375	-0.03902002
28	0x3c794c9f	0.015216022
29	0x3c668d17	0.014071724
30	0xbda35076	-0.07974331
31	0x389bc2b2	7.427241e-05
32	0x3dbb9458	0.09159154
33	0x3d90c411	0.07068647
34	0x3dcdf337	0.10056155
35	0x3c786a18	0.0151620135
36	0xbc7c8254	-0.015411932
37	0x3d053178	0.03251788
38	0x3d3d4aee	0.046214037
39	0xbd42ac15	-0.04752739
40	0xbcc762d5	-0.024339119
41	0xbbbd34ca	-0.005774115
42	0x3d4bb39d	0.04973184
43	0xbd378d65	-0.04481258
44	0x3db6436b	0.08899578
45	0x3dc06d49	0.093958445
46	0x3da0cdc0	0.07851744
47	0x3db92ee6	0.09042148
48	0x3d8ceea3	0.06881454
49	0xbdef089e	-0.116715655
50	0x3d453cfc	0.048153862
51	0xbd07a292	-0.033114024
52	0xbd8c83ee	-0.06861101
53	0x3d4bc535	0.04974862
54	0x3c8b7216	0.017022174
55	0xbc8d2162	-0.017227832
56	0xbd033b42	-0.032038935
57	0xbbfcec95	-0.0077186325
58	0xbdab39ec	-0.08360657
59	0x3d3bf57f	0.04588842
60	0xbd19dd63	-0.037564646
61	0xbdd7325f	-0.105076544
62	0xbd2bb469	-0.0419201
63	0xbd82fcf4	-0.06395903
64	0xbdc57cdb	-0.09642955
65	0xbd174313	-0.0369292
66	0xbce3850d	-0.027773404
67	0x3d86dc6e	0.065850124
68	0x3da64d27	0.081201844
69	0xbc1eae71	-0.009685145
70	0xba1a658d	-0.0005889766
71	0xbd48a608	-0.048986465
72	0x3cd5a5bb	0.026080003
73	0x3d8c83bf	0.06861066
74	0x3db50d0d	0.0884038
75	0x3da1b801	0.07896424
76	0x3d5f5a46	0.05452945
77	0xbd1fab76	-0.038981877
78	0xbd459833	-0.04824085
79	0x3d59e5e4	0.053197756
80	0x3c934388	0.017976537
81	0x3dc98910	0.09840596
82	0x3d580bfa	0.052745797
83	0xbc1dab78	-0.009623401
84	0xbd0d56b4	-0.034506515
85	0x3ce92ce1	0.028463783
86	0xbd4fadf1	-0.050702993
87	0xbd7cb5c6	-0.06169679
88	0xbd9552f7	-0.07291215
89	0xbce00257	-0.027344866
90	0x3d217c70	0.039425313
91	0xbc44b19c	-0.012005236
92	0xbcf6c3ec	-0.03012272
93	0x3d1378d5	0.036003906
94	0x3d00131f	0.031268235
95	0xbd191ba4	-0.037379876
96	0xbdce81d2	-0.10083355
97	0xbd02b47e	-0.031910412
98	0xbd963a0e	-0.07335292
99	0xbd920143	-0.07129147

net.4.weight f4 [100, 100]
0	0xbc47e6de	-0.012201039
1	0x3d8ad699	0.067792125
2	0x3e6f06ba	0.2334241
3	0x3ee02483	0.43777856
4	0x3d94059b	0.07227632
5	0xbeff51d5	-0.4986712
6	0xbe4ee60d	-0.20204945
7	0x3d16d237	0.03682157
8	0x3d47f243	0.048815023
9	0xbc75e60f	-0.0150084635
10	0x3b650772	0.0034947065
11	0xbd30f44e	-0.043201737
12	0x3e38b015	0.1803592
13	0xbcde445f	-0.027132211
14	0x3ee9e65d	0.45683566
15	0x3e2249d0	0.1584847
16	0x3ef89ec7	0.48558637
17	0xbd97b402	-0.07407381
18	0x3d3d704c	0.046249673
19	0xbd0d3597	-0.034474935
20	0x3e4c365a	0.19942608
21	0xbf07a6b8	-0.5298877
22	0x3e90bcec	0.28269136
23	0xbd11fe87	-0.035643127
24	0xbd752a80	-0.059854984
25	0xbdb38937	-0.08766406
26	0x3cfb71d5	0.030693928
27	0x3e337b30	0.17527461
28	0xbda022ff	-0.07819175
29	0x3d85dfad	0.065368034
30	0xbe808c80	-0.25107193
31	0x3ca65776	0.020305376
32	0x3f7472f0	0.9548788
33	0xbe156c8c	-0.14592189
34	0x3f44bebd	0.76853544
35	0x3e330ae6	0.17484626
36	0x3de9230e	0.11383639
37	0xbe14b7fa	-0.14523306
38	0xbda0d89f	-0.07853817
39	0x3e883e0b	0.26609835
40	0xbeb783a9	-0.35842636
41	0xbe07ea67	-0.13273011
42	0x3e488e25	0.19585474
43	0xbf05a791	-0.5220881
44	0xbdcecebc	-0.10098025
45	0xbd3c8114	-0.046021536
46	0x3e703a63	0.23459773
47	0xbce9bdb3	-0.028532838
48	0x3e2eb70f	0.17062019
49	0xbe5da93b	-0.21646588
50	0x3e332f0d	0.17498417
51	0x3db3f2c2	0.08786537
52	0x3c261c3c	0.010138568
53	0x3dd50995	0.10402218
54	0xbe474d58	-0.19463098
55	0x3e23f832	0.16012648
56	0x3f13e465	0.5777038
57	0x3eceff4d	0.40429154
58	0x3e881f5d	0.26586428
59	0x3ebf83ad	0.37405148
60	0x3e001a17	0.12509952
61	0x3e2d810a	0.16943756
62	0x3e04139f	0.1289811
63	0xbe74f697	-0.23922192
64	0x3ea53727	0.3226864
65	0x3e33a307	0.17542659
66	0x3d7be006	0.061492942
67	0xbd78d978	-0.06075427
68	0x3c0a5522	0.008443149
69	0xbecb9684	-0.39763272
70	0x3e3a9e3c	0.18224424
71	0x3dced31d	0.100988604
72	0x3d022b04	0.031779304
73	0xbcf6b349	-0.030114787
74	0x3e4d327e	0.20038792
75	0xbe127b21	-0.14304782
76	0x3e4bfae9	0.19919933
77	0xbd3e9157	-0.046525326
78	0xbe725866	-0.23666534
79	0x3c928382	0.017884973
80	0x3f0bf5a4	0.5467169
81	0x3f521fa7	0.8207955
82	0x3dd179b7	0.102282934
83	0x3e273da8	0.16332114
84	0xbf1142bb	-0.5674245
85	0x3f7455ac	0.95443225
86	0xbe05a96e	-0.13052914
87	0xbd47eae7	-0.048808005
88	0x3d19d879	0.03755996
89	0xbfc24b65	-1.5179259
90	0x3f356a7d	0.70865613
91	0xbea66c6a	-0.32504588
92	0xbca31186	-0.019905817
93	0xbc71a931	-0.014749811
94	0x3e5bfc23	0.21482901
95	0xbd6d15c8	-0.0578821
96	0xbd1fdec3	-0.0390308
97	0x3e3090c6	0.17242727
98	0x3dbc800f	0.09204113
99	0xbf252c0a	-0.64520323
100	0x3cbbf8d5	0.0229458
101	0x3ccdd999	0.025128173
102	0x3d9379a1	0.07200933
103	0xbda6318a	-0.081149176
104	0x3d89d0c0	0.06729269
105	0x3ddf1984	0.108935386
106	0xbd689a3b	-0.05678771
107	0xbd9974f7	-0.074930124
108	0x3ccd4a4b	0.02505984
109	0xbcd235eb	-0.025660476
110	0xbd7f2435	-0.06229039
111	0x3cbf07e7	0.023319198
112	0x3d8e2b17	0.069418125
113	0x3d5b704c	0.05357389
114	0xbda38794	-0.07984844
115	0xbdaa7bf3	-0.08324423
116	0xbd4093b4	-0.04701586
117	0xbdc742dc	-0.09729549
118	0x3c5b0c7e	0.013369678
119	0x3d5d10a2	0.05397094
120	0xbdd7cd8b	-0.10537251
121	0x3dc6c89a	0.097062305
122	0xbc8dcd39	-0.017309772
123	0xbdb9617c	-0.09051797
124	0x3cd968ae	0.026539173
125	0x3ce5f296	0.028069776
126	0x3da765ae	0.08173691
127	0x3be0462a	0.0068443017
128	0xbc6e65f9	-0.014550679
129	0xbd986302	-0.07440759
130	0xbabfe80a	-0.0014641297
131	0xbd84e68a	-0.06489284
132	0xbdcbb6a4	-0.09946945
133	0x3d3ffad3	0.046870064
134	0x3dd315b6	0.103068754
135	0xbdd32a29	-0.10310776
136	0xbd9cd51b	-0.07657834
137	0x3d71b807	0.059013393
138	0xbcab279b	-0.020892909
139	0x3a6d20a2	0.0009045695
140	0xbc86c97c	-0.016453497
141	0x3d8f21ac	0.06988844
142	0x3d3adced	0.045620847
143	0x3d6ccc4c	0.05781202
144	0xbdeec7fe	-0.11659239
145	0xbd43c4db	-0.047795158
146	0xbdb2ef9a	-0.087371066
147	0xb89e09b8	-7.535837e-05
148	0x3d577170	0.052598417
149	0xbd666328	-0.056246907
150	0x3c639fad	0.01389305
151	0x3d431bd5	0.047633965
152	0xbdd91857	-0.106003456
153	0x3d5ba5ac	0.053624794
154	0xbcfa85f6	-0.030581456
155	0x3d15c02e	0.03656023
156	0x3c852d7c	0.01625704
157	0x3a972f57	0.0011534494
158	0xbe00cb7d	-0.12577625
159	0x3de91541	0.11381007
160	0x3bb8b33f	0.005636602
161	0x3d413929	0.047173653
162	0x3d13a327	0.036044266
163	0xbcb0d05c	-0.021583728
164	0xbd421786	-0.047385715
165	0xbcf45853	-0.029827273
166	0xbdee8971	-0.116473086
167	0x3cd60891	0.026127132
168	0x3d5bccd2	0.05366213
169	0x3d59674e	0.053077035
170	0x3ce53664	0.027980037
171	0xbcea3fde	-0.028594907
172	0xbd29776e	-0.041373663
173	0xbd81da04	-0.06340411
174	0x3c46807c	0.012115594
175	0x3b9d5cb4	0.004802311
176	0xbdd96d1d	-0.10616515
177	0xbde6f84e	-0.11277829
178	0x3be6c987	0.007043067
179	0x3d0986b2	0.03357572
180	0xbe0968e5	-0.1341892
181	0xbe2a2e02	-0.16619113
182	0xbc0efa49	-0.008726665
183	0xbd4edc95	-0.050503332
184	0xbbe1369e	-0.006872966
185	0x3cd890e6	0.02643628
186	0xbc370f07	-0.011173016
187	0x3dacc10b	0.084352575
188	0xbd65e156	-0.0561231
189	0xbd2cac14	-0.042156294
190	0x3d9ab1e9	0.07553465
191	0xbd7bafcd	-0.061446954
192	0xbbaa24f2	-0.0051923925
193	0xbd6f6f2f	-0.058455642
194	0x3d284e24	0.041090146
195	0xbdf0365d	-0.11729119
196	0x3d6e5a9c	0.05819188
197	0x3c5cd496	0.013478419
198	0xbd9783fc	-0.07398221
199	0x3cf9a41e	0.030473765
200	0xbcfc3eb7	-0.030791624
201	0x3cb54d5f	0.02213162
202	0xbd9abb3d	-0.07555244
203	0xbb784dda	-0.00378882
204	0xbda81da6	-0.0820878
205	0xbc1099b1	-0.008825705
206	0x3cf8fb5b	0.030393293
207	0x3d33e721	0.043921594
208	0x3d3f3684	0.04668285
209	0x3cc76254	0.024338879
210	0x3d948822	0.07252528
211	0x3dea9f3c	0.11456153
212	0x3c7e6e3b	0.015529211
213	0xbdd6c139	-0.10486073
214	0x3d198a50	0.03748542
215	0xbba99c56	-0.0051761074
216	0x3d956558	0.072947204
217	0x3ce10673	0.027468896
218	0xbca6514d	-0.02030244
219	0x3d242876	0.04007765
220	0xbd19f90c	-0.037591025
221	0x3da3d9cc	0.08000526
222	0x3d995623	0.074871324
223	0xbddb978e	-0.10722266
224	0x3d9fb861	0.07798839
225	0xbd35fc88	-0.044430286
226	0xbd297f52	-0.041381188
227	0x3db6c86f	0.089249484
228	0x3d82f131	0.0639366
229	0x3d7c7365	0.061633486
230	0xbcb238d5	-0.021755615
231	0xbd9a403f	-0.07531785
232	0xba1f8d17	-0.00060863927
233	0xbcb6b282	-0.022301916
234	0x3d1136d0	0.035452664
235	0x3d2d6c9f	0.042339917
236	0x3ac6311c	0.0015120837
237	0x3cef2d39	0.029196369
238	0x3db51d77	0.088435106
239	0x3d6d416a	0.05792371
240	0xbda3cca5	-0.07998017
241	0x3c9464ce	0.018114474
242	0x3d762275	0.060091455
243	0xbd6cbf2d	-0.057799507
244	0x3c869b77	0.016431553
245	0xbd4aa2cd	-0.049471665
246	0x3d589004	0.05287172
247	0xb9fa453c	-0.000477353
248	0x3da80b77	0.08205312
249	0xbc114ab8	-0.008867912
250	0xbcf2ce7d	-0.029639477
251	0xbdcf9f1c	-0.101377696
252	0x3d419703	0.047263157
253	0x3d6fc7da	0.058540203
254	0xbdd1b858	-0.10240239
255	0x3c9a43e4	0.0188312

net.4.bias f4 [100]
0	0xbc9a078e	-0.01880243
1	0xbdca3dc4	-0.09875062
2	0x3bb4ed57	0.005521457
3	0xbd88896c	-0.06666836
4	0xbd88c7ba	-0.0667872
5	0x3d433649	0.047659192
6	0xbb7262de	-0.00369852
7	0xbc531425	-0.012883221
8	0x3d90ae3e	0.07064484
9	0x3cd8bd36	0.02645741
10	0x3d62a1d1	0.0553301
11	0x3d041beb	0.032253187
12	0x3db92d78	0.090418756
13	0xbd357df6	-0.04430958
14	0xbce61b17	-0.02808909
15	0x3d21c63f	0.039495703
16	0x3dbb97f3	0.091598414
17	0x3c91b811	0.017787965
18	0xbcdbf0e3	-0.026848262
19	0x3db72574	0.089426905
20	0xbda591d8	-0.08084458
21	0x3d27882f	0.04090136
22	0x3c2c7f2b	0.010528366
23	0x3bdd0842	0.006745369
24	0x3cab1bc9	0.020887272
25	0xbd10d32f	-0.03535765
26	0x3d0c353e	0.034230463
27	0xbdceed62	-0.10103871
28	0x3c414bc3	0.011797848
29	0xbd925c7b	-0.071465455
30	0x3d3153fa	0.043292977
31	0x3d473463	0.048633944
32	0x3d86fc22	0.06591059
33	0x3dc1c03b	0.09460493
34	0xbd2d5d3a	-0.042325236
35	0xbd35a72b	-0.044348877
36	0xbc82f941	-0.015987994
37	0x3d22ce90	0.039747775
38	0x3b159ca8	0.002282897
39	0xbc76d7c8	-0.015066095
40	0x3dcb1438	0.09915966
41	0x3da6e017	0.081482105
42	0xbd30ce3f	-0.04316544
43	0x3bcb1e3e	0.0061986735
44	0x3d6cbd40	0.05779767
45	0x3cfedd0b	0.03111126
46	0x3cfaa7aa	0.030597527
47	0xbcc582de	-0.024110254
48	0xbd436973	-0.047707986
49	0xbdd27fad	-0.102782585
50	0xbd544be7	-0.0518302
51	0x3d3b602c	0.045746014
52	0xbd5bc71b	-0.05365668
53	0x3d6dd533	0.05806465
54	0xbd6eb915	-0.058281977
55	0x3cca49b5	0.02469335
56	0x3c8a466f	0.016879288
57	0xbda93c64	-0.08263472
58	0xbda18be9	-0.07888014
59	0xbbb4e07a	-0.0055199238
60	0x3db25f4f	0.08709585
61	0xbd6048b3	-0.05475683
62	0x3d87b014	0.06625381
63	0x3d76baac	0.060236618
64	0xbd7dd18a	-0.06196741
65	0xbbf21aac	-0.0073884334
66	0xbd30d9ec	-0.043176576
67	0xbcd3e0d1	-0.025864037
68	0x3dc36059	0.09539861
69	0x3d75df88	0.06002763
70	0xbcad88e7	-0.021183444
71	0xbd33cd71	-0.043897096
72	0xbde346d5	-0.110974945
73	0x3cee585e	0.029094871
74	0x3da18b96	0.07887952
75	0xbcf21896	-0.02955274
76	0x3cc6867d	0.02423405
77	0xbd6cbc2e	-0.05779665
78	0x3d2099e6	0.03920927
79	0xbdd3cde9	-0.103420086
80	0x3dad9eed	0.08477578
81	0x3dedef41	0.116179
82	0x3d0c8eb9	0.0343158
83	0x3c8e83ed	0.017396891
84	0xbd06294d	-0.03275423
85	0x3bfc643a	0.0077023776
86	0x3db5d8e5	0.0887926
87	0xbb8ac8b9	-0.004235354
88	0xbcbfb4e6	-0.023401689
89	0x3db264fb	0.08710667
90	0x3da268b5	0.079301275
91	0xbcace1b5	-0.02110372
92	0xbd76d7b4	-0.060264304
93	0x3d500ef0	0.050795496
94	0x3cdd9b55	0.027051607
95	0xbdbdc503	-0.09266093
96	0xbd7143f4	-0.058902696
97	0xbdad8ce9	-0.08474142
98	0x3cb2ae56	0.021811645
99	0x3d56a8b2	0.052406974

net.6.weight f4 [100, 100]
0	0xbe0b4a6f	-0.13602613
1	0xbd9d13db	-0.07669803
2	0x3d32c394	0.04364355
3	0x3dc303e9	0.0952223
4	0xbd287cde	-0.041134708
5	0x3d779f47	0.060454633
6	0x3d99ab11	0.075033315
7	0xbd602e5e	-0.05473172
8	0x3d2d4e76	0.042311154
9	0xbc86a8d4	-0.016437925
10	0x3cbef2e2	0.023309175
11	0xbd9735ee	-0.07383333
12	0xbb316478	-0.002706794
13	0xbdb51ba8	-0.08843166
14	0x3cd92bd3	0.026510155
15	0x3d36bece	0.04461556
16	0xbdcd2ae7	-0.100179486
17	0x3baf97c9	0.0053586704
18	0xbd36fe39	-0.04467604
19	0x3d279c68	0.040920645
20	0x3d60ab90	0.054851115
21	0xbd5de010	-0.05416876
22	0x3abd713e	0.0014453304
23	0xbc01e244	-0.007927481
24	0x3d81671c	0.06318495
25	0xbd0c8cc7	-0.034313943
26	0xbd4b9ee3	-0.049712073
27	0x3de182d9	0.11011285
28	0x3d6bdb96	0.05758246
29	0xbc37938d	-0.011204612
30	0xbca3ff9f	-0.02001935
31	0xbd8cfb21	-0.068838365
32	0xbdd0b88a	-0.10191448
33	0x3da43cc9	0.08019406
34	0x3d16ee7b	0.036848526
35	0xbd64ed53	-0.055890393
36	0x3db45413	0.088050984
37	0xbdbb8075	-0.091553606
38	0x3d6dc56a	0.058049597
39	0x3d80e75b	0.062941276
40	0xbdfa9850	-0.122360826
41	0xbdb6a661	-0.08918453
42	0xbd1b76ea	-0.037955202
43	0x3d174169	0.036927614
44	0xbcbd7752	-0.023128185
45	0xbc8ec097	-0.017425818
46	0xbe103da3	-0.14086013
47	0xbd9f70b0	-0.07785165
48	0xbdbac43e	-0.091194615
49	0xbd9eab83	-0.07747557
50	0x3e2ced91	0.168875
51	0xbd3838a0	-0.044975877
52	0xbce3406f	-0.027740685
53	0x3c865690	0.016398698
54	0x3c253de7	0.010085559
55	0xbca92fcf	-0.02065268
56	0xbc5078cc	-0.012724113
57	0x3c07c173	0.008285868
58	0xbd63270d	-0.055457164
59	0x3d2af1d1	0.04173452
60	0x3da8f609	0.082500525
61	0xbd30a824	-0.0431291
62	0x3bc73a2e	0.0060799336
63	0x3d8902af	0.06689965
64	0x39da309c	0.00041616417
65	0xbd3751b1	-0.04475564
66	0xbd176251	-0.036958996
67	0xbdab2631	-0.08356894
68	0xbdf5d7b3	-0.12004032
69	0x3ce20e4a	0.027594704
70	0xbc5f8336	-0.013642123
71	0xbdd5644b	-0.1041952
72	0x3cbd3d52	0.023100529
73	0x3d0a4a74	0.03376241
74	0xbd8af2f3	-0.0678462
75	0xbdf5953d	-0.119913556
76	0xbdaa0396	-0.08301465
77	0x3d22170b	0.039572757
78	0x3d41afa6	0.047286652
79	0xbd0504d1	-0.032475296
80	0xbdc751e3	-0.097324155
81	0xbc6a4e55	-0.014300902
82	0xbdb49666	-0.08817749
83	0x3cf0fcf4	0.029417492
84	0x3dbf2029	0.09332306
85	0xbc8a88c0	-0.01691091
86	0xbc3dd294	-0.01158585
87	0xbd0beb46	-0.03415992
88	0xbd9b8628	-0.07593948
89	0xbdd20ff9	-0.10256953
90	0xbd98723e	-0.07443665
91	0xbd809738	-0.06278843
92	0xbd90fb6e	-0.070792064
93	0x3d9224ce	0.07135926
94	0x3db72a19	0.08943576
95	0x3d66d0c5	0.056351442
96	0xbda021fb	-0.07818981
97	0x3d65346d	0.0559582
98	0x3d59bb69	0.053157244
99	0xbd31d902	-0.043419845
100	0x3d150cff	0.036389347
101	0x3d949c43	0.07256367
102	0xbd958245	-0.073002376
103	0xbe085fe3	-0.13317828
104	0x3d1c0c3e	0.038097613
105	0xbcdf5aba	-0.027264941
106	0xbd807afb	-0.06273457
107	0xbd9eb37f	-0.0774908
108	0x3d9321c0	0.07184172
109	0x3c74e977	0.0149482405
110	0xbddd07c0	-0.10792494
111	0xbd73746b	-0.059437197
112	0x3d39117d	0.045182694
113	0x3d6d0100	0.05786228
114	0xbcc4e18e	-0.024033334
115	0xbd9abbf6	-0.07555382
116	0x3de82c54	0.1133658
117	0xbd7075cb	-0.058706086
118	0xbd76e2bb	-0.06027482
119	0xbd9192dd	-0.0710809
120	0xbc03105c	-0.007999506
121	0xbc4a382c	-0.012342494
122	0x3e010911	0.12601115
123	0x3cca67e7	0.024707748
124	0x3dcd5b2c	0.10027155
125	0x3da34b68	0.07973367
126	0x3be06517	0.0068479883
127	0xbe478939	-0.1948594
128	0x3d966361	0.07343174
129	0x3d3d7b5c	0.046260223
130	0x3cae5674	0.021281458
131	0xbc8ad554	-0.016947426
132	0xbd6d00fc	-0.057862267
133	0xbdab06f8	-0.083509386
134	0x3c93eff6	0.018058758
135	0xbd008e64	-0.031385794
136	0x3af2ab12	0.0018514118
137	0x3d2f2bbf	0.04276633
138	0x3c846c2c	0.016164862
139	0x3d8113fd	0.063026406
140	0x3dec368a	0.1153384
141	0xbc08a2c0	-0.008339584
142	0x3dc6458d	0.096812345
143	0x3d004dd7	0.031324234
144	0x3d70997d	0.058740128
145	0xbdb418e3	-0.08793809
146	0xbcc52781	-0.024066688
147	0x3dcaa9ab	0.09895643
148	0xbcaf25d9	-0.021380352
149	0xbd30cd4c	-0.043164536
150	0xbe015be0	-0.12632704
151	0x3d9a0ae9	0.07521612
152	0xbc1d3ea6	-0.009597456
153	0x3e03c969	0.128698
154	0x3d9999fc	0.07500073
155	0xbd32637b	-0.043551903
156	0x3dbe6add	0.09297726
157	0x3a234784	0.0006228613
158	0xbdef858e	-0.116953954
159	0x3dcd7cc8	0.10033566
160	0xbc875ea9	-0.01652463
161	0x3daa413e	0.08313225
162	0xbd3a030a	-0.045413055
163	0xbd3137be	-0.04326605
164	0x3ceeda99	0.02915697
165	0x3d83bded	0.0643271
166	0xbd205758	-0.039145797
167	0x3e025efe	0.12731549
168	0x3df942f0	0.121709704
169	0x3da1112e	0.07864605
170	0x3dbcd4a4	0.092202455
171	0x3c9725d4	0.018450655
172	0x3d7b261a	0.061315633
173	0x3d530b0d	0.05152421
174	0x3d038317	0.03210744
175	0x3d3ca5dd	0.046056617
176	0x3dcea182	0.10089399
177	0xbdc3ac40	-0.095543385
178	0x3dd7f6bd	0.105451085
179	0xbd89912a	-0.06717141
180	0x3d659de1	0.05605877
181	0x3dc2804d	0.09497128
182	0xbd190d55	-0.03736623
183	0xbd8ea57a	-0.06965156
184	0xbdc455f3	-0.09586706
185	0xbde1f221	-0.110325105
186	0x3d0588c3	0.03260113
187	0xbdc6bec7	-0.09704357
188	0x3d9c843f	0.076424114
189	0xbd4f5564	-0.050618544
190	0x3de3b107	0.1111775
191	0xbdc4cdd3	-0.0960957
192	0x3db45eaa	0.08807118
193	0x3d6ce2f1	0.057833616
194	0xbd675405	-0.05647661
195	0xbd1fced2	-0.0390156
196	0x3bd1b273	0.0063994466
197	0xbb6d5d52	-0.0036218953
198	0xbd6c9373	-0.057757806
199	0xbdac9e70	-0.08428657
200	0xbddf9687	-0.10917383
201	0x3cd89574	0.026438452
202	0x3d699efa	0.057036377
203	0xbdb23fb2	-0.08703555
204	0xbc1d89bb	-0.009615357
205	0x3d80025f	0.06250452
206	0xbb8ae2b2	-0.00423845
207	0x3dc53f44	0.096312076
208	0xbd9c2182	-0.076235786
209	0xbd38df7f	-0.045135017
210	0xbccc2ad3	-0.024922764
211	0x3d99d700	0.07511711
212	0x3d298804	0.04138948
213	0xbd484812	-0.048896857
214	0x3d38dba4	0.04513134
215	0xbd29ffd0	-0.041503727
216	0x3da9f7a3	0.08299186
217	0x3d8505c4	0.0649524
218	0xbdb8154e	-0.089884385
219	0xbc220976	-0.009889951
220	0x3da5848d	0.08081923
221	0xbdb97905	-0.09056286
222	0x3d23445f	0.039860126
223	0x3d4ef5e7	0.05052748
224	0xbdbc9637	-0.09208339
225	0x3d645bf4	0.055751756
226	0xbd7fdedc	-0.062468395
227	0xbb96d620	-0.0046031624
228	0xbe03184c	-0.12802237
229	0xbc9d2e8f	-0.01918724
230	0xbd8f4b9d	-0.06996844
231	0xbd861ed1	-0.065488465
232	0x3d30c84e	0.043159775
233	0x3d8ea2da	0.06964655
234	0x3bbd2ada	0.0057729306
235	0xbdc0a116	-0.09405725
236	0xbdcc7680	-0.099835396
237	0x3d875e2a	0.06609757
238	0x3da539b8	0.080676496
239	0xbcb4b310	-0.02205804
240	0xbdac2cd4	-0.08406988
241	0x3b138b8f	0.0022513603
242	0xbd5b5e6e	-0.053556852
243	0x3d003c1f	0.031307336
244	0x3d9b5ec7	0.07586437
245	0x3dc9c946	0.09852843
246	0x3e531868	0.20614779
247	0x3dd76fc7	0.10519367
248	0xbba2654a	-0.0049559223
249	0xbe25f240	-0.16205692
250	0x3d709354	0.058734253
251	0xbdb2bb60	-0.08727145
252	0x3d584baf	0.052806552
253	0x3d6b4551	0.057439152
254	0xbdf3d83b	-0.11906477
255	0xbe011676	-0.12606224

net.6.bias f4 [100]
0	0xbdc637af	-0.096785896
1	0xbccfd490	-0.025369912
2	0x3d0747bf	0.033027407
3	0xbc38b156	-0.011272749
4	0xbddf21e6	-0.108951375
5	0xbdad6baf	-0.08467805
6	0x3d03f244	0.032213464
7	0x3c9b4bf8	0.018957123
8	0xbd916199	-0.070986934
9	0xbb71ca5a	-0.0036894293
10	0xbcb4e6f6	-0.022082787
11	0x3dcc3279	0.099705644
12	0x3dead59e	0.114665255
13	0x3c4f1e77	0.012641541
14	0xbd0497d5	-0.03237136
15	0xbdb78cdd	-0.089624144
16	0xbda41bb5	-0.08013097
17	0x3ddd7d3b	0.108149014
18	0xbd97da47	-0.0741468
19	0xbdd936ac	-0.10606131
20	0x3acda3b9	0.0015689052
21	0x3dc1d694	0.09464756
22	0xbd400720	-0.046881795
23	0xbd0c086f	-0.03418773
24	0x3d1b5bb2	0.037929244
25	0x3dc6e1b7	0.097110204
26	0x3d805665	0.062664784
27	0xbd530302	-0.05151654
28	0x3aeb8c26	0.0017970845
29	0x3ce62ec8	0.028098479
30	0xbc3f122f	-0.01166205
31	0xbd8c1f48	-0.06841904
32	0x3bb96fed	0.0056590945
33	0x3c48d6c1	0.012258233
34	0xbc94a37b	-0.01814436
35	0xbd59f0ab	-0.053208034
36	0x3d1e6944	0.038674608
37	0x3da2918c	0.07937917
38	0x3dc6e7d1	0.09712184
39	0x3d134af2	0.035960145
40	0xbd462d5e	-0.04838311
41	0xbd897847	-0.06712394
42	0xbd88139e	-0.06644367
43	0xbd7d695d	-0.06186806
44	0xbdc68c61	-0.09694744
45	0xbd8e8bc7	-0.06960254
46	0xbd139d05	-0.036038417
47	0x3da08923	0.07838657
48	0x3dafca42	0.085834995
49	0x3bc68e58	0.006059449
50	0x3cf57da1	0.029967131
51	0xbd029b2f	-0.031886276
52	0xbd92b2fb	-0.07163044
53	0x3de37c69	0.11107714
54	0xbd609064	-0.0548252
55	0x39db9b47	0.00041886626
56	0xbcd77688	-0.026301637
57	0xbdb0864d	-0.08619366
58	0x3cd06b36	0.025441747
59	0xbab4fbc4	-0.0013807942
60	0xbbef227e	-0.007297813
61	0xbd9091c7	-0.07059055
62	0xbc2933ea	-0.010327319
63	0x3de61178	0.11233801
64	0x3d9d07aa	0.076674774
65	0x3cefa0ec	0.029251538
66	0xbd9e451d	-0.07728026
67	0xbdcaf591	-0.09910119
68	0xbd29c773	-0.041449975
69	0xbd79d40e	-0.060993247
70	0x3db4fb2c	0.0883697
71	0xbd8c7cc2	-0.06859733
72	0x3d6ec14c	0.05828981
73	0xbd8b0662	-0.06788327
74	0xbdba7a87	-0.091054015
75	0x3daa9b24	0.08330372
76	0x3dcfa366	0.10138588
77	0x3dced643	0.10099461
78	0xbd7eafee	-0.0621795
79	0x3d88ad67	0.06673699
80	0x3cdbd83a	0.026836503
81	0xbda1e902	-0.07905771
82	0x3d8dc363	0.06922033
83	0xbd82ea3e	-0.063923344
84	0xbe0370c0	-0.1283598
85	0x3d2f71b8	0.04283306
86	0x3da430c1	0.080171116
87	0x3d3acfd6	0.045608364
88	0xbccd0b8c	-0.02502992
89	0x3d5c5450	0.053791344
90	0x3cd3baca	0.025845904
91	0x3d6e3720	0.05815804
92	0xbdd0e9e6	-0.102008626
93	0xbcfc9993	-0.030834949
94	0xbd53d4c8	-0.051716596
95	0x3c2db8fe	0.010603188
96	0x3d951e83	0.0728121
97	0x3d8224dd	0.06354687
98	0x3c833486	0.016016256
99	0xbdad4c9b	-0.08461877

net.8.weight f4 [100, 100]
0	0xbdc247a1	-0.094863184
1	0xbbb1b1a5	-0.005422788
2	0xbc77773c	-0.015104111
3	0xbda05bb4	-0.07829991
4	0x3d5ca500	0.053868294
5	0x3d9ad61a	0.07560368
6	0xbda8fd58	-0.082514465
7	0x3d21b6e9	0.039481077
8	0xbc2841e1	-0.010269613
9	0x3da990d2	0.082795754
10	0xbdc8b97c	-0.09801003
11	0xbc366b9f	-0.011134057
12	0x3d8c861d	0.068615176
13	0x3d7ba6f1	0.061438505
14	0x3d9c7bab	0.07640775
15	0x3cf81629	0.030284004
16	0x3c4aee6d	0.012385947
17	0x3c862cc9	0.016378777
18	0x3d034581	0.032048706
19	0x3d1e29ee	0.038614206
20	0xbd10db5b	-0.035365444
21	0x3d301e46	0.04299762
22	0xbc81ed22	-0.015860144
23	0x3d357c21	0.04430783
24	0x3b02b686	0.0019945218
25	0xbccd323a	-0.025048364
26	0x3c84a023	0.01618964
27	0x3dc1f8c1	0.09471274
28	0x3dd39c9e	0.10332607
29	0x3d685646	0.0567229
30	0x3acdc621	0.0015699306
31	0xbcb70e50	-0.022345692
32	0x3d94e719	0.07270641
33	0xbdb4c322	-0.08826281
34	0x3d286c7c	0.041119084
35	0x3e2fd0b9	0.17169465
36	0x3d1b5fa4	0.037933007
37	0x3c9c2aa7	0.019063307
38	0xbd8b92f4	-0.068151385
39	0xbe0110ec	-0.12604111
40	0xbdca6f71	-0.09884537
41	0xbd7063d6	-0.05868896
42	0x3d66f59c	0.056386575
43	0xbd8d237e	-0.06891535
44	0xbd8c20d7	-0.06842201
45	0x3df9b7c6	0.12193255
46	0x3d950d30	0.07277906
47	0xbd4de5b0	-0.050267875
48	0x3d9d3268	0.0767563
49	0xbd880c64	-0.06642988
50	0x3c91a165	0.017777154
51	0x3dff54b2	0.12467326
52	0xbd3009ed	-0.042978216
53	0x3d1ecd46	0.038769983
54	0xbd12dd07	-0.03585532
55	0xbd4d904a	-0.050186433
56	0xbcd431b8	-0.025902614
57	0xbdef117c	-0.11673257
58	0xbdbdc72a	-0.09266503
59	0x3d6d10d3	0.057877373
60	0x3db896f1	0.09013165
61	0xbd5ce4a6	-0.053928994
62	0xbdb38424	-0.08765438
63	0x3b991d50	0.004672684
64	0xbd936ccd	-0.071984865
65	0xbbc22021	-0.00592424
66	0xbd87c71c	-0.06629774
67	0x3ce40eb9	0.027839052
68	0xbd35bb36	-0.04436799
69	0x3dc8cff4	0.09805289
70	0x3da2b041	0.07943774
71	0xbdee1e45	-0.11626867
72	0xbdf34421	-0.11878229
73	0xbdd2bc9d	-0.102898814
74	0x3bd2d5f0	0.0064341947
75	0x3da43007	0.08016973
76	0xbcf60bd9	-0.030034946
77	0xbb6829a9	-0.0035425222
78	0x3d8de361	0.06928135
79	0x3cec5fc1	0.028854253
80	0x3d9fc711	0.07801641
81	0xbd7533cf	-0.05986386
82	0x3a3b65ba	0.00071486423
83	0x3d5b1694	0.05348833
84	0x3d6e891e	0.058236234
85	0x3c31d668	0.010854341
86	0xbd998cbe	-0.074975476
87	0xbdc63128	-0.096773446
88	0x3cb96c52	0.022634659
89	0xbd88af0a	-0.06674011
90	0x3d8f8989	0.070086546
91	0xbdbe461c	-0.09290716
92	0x3d88a7f8	0.066726625
93	0xbda841b7	-0.08215659
94	0x3dc0d3d5	0.09415404
95	0xbcf681d2	-0.0300912
96	0x3db33d9f	0.08751988
97	0x3d8d085b	0.06886359
98	0x3c8fef49	0.017570155
99	0x3d75e6b2	0.06003446
100	0xbba4bf85	-0.0050277137
101	0x3c0ea8a7	0.008707202
102	0xbd2368d6	-0.0398949
103	0x3d9df92b	0.07713541
104	0x3d68dc8f	0.056850966
105	0x3c96e209	0.018418329
106	0xbdba5bf9	-0.09099574
107	0xbd2e355c	-0.042531356
108	0xbdf1a7f4	-0.11799613
109	0xbdcd2f60	-0.10018802
110	0x3d777c87	0.060421493
111	0x3d888c53	0.0666739
112	0x3d90b914	0.07066551
113	0xbd984c2b	-0.07436403
114	0xbcee118c	-0.029061101
115	0x3cd80e3f	0.02637398
116	0x3dbefa16	0.09325044
117	0x3daffad4	0.085927635
118	0xbcbc9290	-0.023019105
119	0xbd94b267	-0.0726059
120	0xbd2db256	-0.042406403
121	0xbdb19d3b	-0.086725675
122	0x3d9f0891	0.07765306
123	0x3d452d99	0.04813919
124	0xbd8b4449	-0.06800134
125	0xbd763acb	-0.060114663
126	0x3db792c2	0.08963539
127	0xbe0cf6c5	-0.1376601
128	0x3c94effd	0.018180842
129	0xbdb2626c	-0.08710179
130	0xbc84732c	-0.0161682
131	0xbd2fbdb6	-0.04290553
132	0xbdb52832	-0.08845557
133	0xbd74fe00	-0.059812546
134	0x3c73adf2	0.014873015
135	0x3ce3dc43	0.02781499
136	0x3d690c91	0.05689675
137	0x3d8c0c35	0.06838266
138	0xbd8431f5	-0.06454841
139	0xbd389385	-0.04506256
140	0xbdb2fa77	-0.08739179
141	0xbc8ce0d7	-0.017197056
142	0xbdd02030	-0.10162389
143	0x3d368d37	0.044568267
144	0xbdaf195d	-0.085497595
145	0xbd5b497a	-0.05353687
146	0x3db3091e	0.08741973
147	0x3dd67163	0.104708456
148	0xbe377d9c	-0.1791901
149	0x3dac516d	0.08413968
150	0xbdf2d6cd	-0.11857376
151	0xbe98aeec	-0.29820955
152	0xbe6e91cf	-0.23297809
153	0xbc82ce20	-0.015967429
154	0x3da4aa3e	0.080402836
155	0xbdb25584	-0.08707717
156	0x3cb1a0c1	0.021683099
157	0xbd2deea0	-0.0424639
158	0xbc869b7c	-0.016431563
159	0xbd6a0b64	-0.05713977
160	0x3de0bcb9	0.10973496
161	0x3d8284fa	0.063730195
162	0x3e79ba49	0.24387468
163	0xbcde110b	-0.027107736
164	0x3d8f3fb7	0.069945745
165	0x3d814f2f	0.06313931
166	0x3d1e0fbb	0.03858922
167	0xbd68e810	-0.056861937
168	0xbd0d6c07	-0.03452685
169	0xbd2dfe2e	-0.042478733
170	0xbc934bd1	-0.017980488
171	0xbe052609	-0.1300279
172	0xbd558b86	-0.052135013
173	0xbd2f3094	-0.042770937
174	0xbda8fd52	-0.08251442
175	0xbe37f021	-0.17962696
176	0xbde37ac7	-0.11107402
177	0xbd5f1e31	-0.054472152
178	0x3b052daf	0.002032142
179	0xbd5e888b	-0.054329436
180	0xbe081605	-0.1328965
181	0xbd05a5d4	-0.03262885
182	0xbc449f1b	-0.012000824
183	0xbd5507c1	-0.052009348
184	0xbdbecfb5	-0.09316961
185	0xbd2ff125	-0.042954583
186	0x3d0115fe	0.031515114
187	0xbd4ab389	-0.049487624
188	0xbc562851	-0.013071136
189	0x3cd1ae8e	0.02559593
190	0xbb1d4e53	-0.0024002984
191	0xbcbc1447	-0.022958888
192	0xbcd77a3b	-0.026303401
193	0xbe15d96b	-0.1463372
194	0xbe18becf	-0.14916538
195	0xbc3932a0	-0.011303574
196	0x3d571fbd	0.052520502
197	0xbd917ad5	-0.071035065
198	0xbd032a84	-0.032022968
199	0x3c534adb	0.012896265
200	0x37e94e83	2.7812324e-05
201	0xbd1dbe34	-0.03851147
202	0x3e07931c	0.13239712
203	0xbe9b0b37	-0.30281994
204	0x3e6d228b	0.23157708
205	0x3e802107	0.25025198
206	0xbd255025	-0.040359635
207	0xbd4863a8	-0.048923165
208	0x3dcc9f46	0.099913165
209	0x3d34381c	0.043998823
210	0x3d75ff67	0.060058024
211	0x3d66fea6	0.056395195
212	0xbe9842ae	-0.29738373
213	0xbc922ca3	-0.01784355
214	0xbd24d0d9	-0.040238235
215	0xbd0ba0da	-0.034088947
216	0x3d953f96	0.07287519
217	0xbd83c761	-0.06434513
218	0x3daa2ab2	0.08308925
219	0xbd365f51	-0.044524495
220	0x3e790ef0	0.24322104
221	0xbd0c106b	-0.034195345
222	0x3e306318	0.17225301
223	0x3d914b85	0.07094482
224	0x3cbbf52c	0.022944055
225	0x3e1bb893	0.15207128
226	0xbd9e8f13	-0.07742133
227	0x3d93354e	0.071879014
228	0xbcd03de9	-0.025420146
229	0xbe2fd432	-0.1717079
230	0xbd1cc169	-0.038270388
231	0x3db99595	0.09061734
232	0x3ca2aca6	0.019857716
233	0xbb690396	-0.0035555116
234	0x3cbff18b	0.023430606
235	0x3ea4fe88	0.32225442
236	0x3d7d3e56	0.061827026
237	0xbd9e5332	-0.07730712
238	0xbd69309f	-0.056931134
239	0x3dd5801f	0.10424828
240	0x3e104014	0.14086944
241	0xbe242a93	-0.16031866
242	0xbd26c7fc	-0.040718064
243	0x3e4a1a32	0.19736555
244	0x3e28704d	0.1644909
245	0xbd664e9f	-0.056227323
246	0xbd87186c	-0.06596455
247	0x3d2b4b97	0.041820135
248	0x3da8bed8	0.082395256
249	0xbe596750	-0.21230817
250	0x3ddff7d6	0.10935943
251	0x3e408e65	0.18804319
252	0x3d90ed72	0.07076539
253	0xbe2872c3	-0.16450028
254	0x3e139a65	0.14414366
255	0xbd20accb	-0.03922729

net.8.bias f4 [100]
0	0x3de04019	0.10949726
1	0x3da7423c	0.0816693
2	0xbd0cac01	-0.034343723
3	0x3dc02ae7	0.09383183
4	0x3d835965	0.06413535
5	0x3d017345	0.03160407
6	0x3de83656	0.11338489
7	0x3bc5c771	0.006035738
8	0x3b89af37	0.0042017954
9	0x3c2faab1	0.010721848
10	0xbcd9aa04	-0.026570328
11	0xbdd76dfe	-0.10519026
12	0x3b69770e	0.003562394
13	0x3db7a2be	0.089665875
14	0xbce2b374	-0.02767346
15	0xbd93a249	-0.07208688
16	0xbced850d	-0.028994108
17	0x3c3e0bf3	0.011599529
18	0xbcbd133e	-0.023080464
19	0x3d81844f	0.06324064
20	0xbd6df557	-0.058095302
21	0xbdec3d81	-0.115351684
22	0xbd37bae0	-0.044855952
23	0x3d238422	0.039920934
24	0xbd16a232	-0.036775775
25	0x3d7749ce	0.06037312
26	0x3c3ef913	0.011656064
27	0x3c9271b4	0.017876484
28	0xbdb7e706	-0.08979611
29	0xbd835bf7	-0.06414025
30	0x3d87803e	0.06616257
31	0xbdd44a56	-0.10365741
32	0x3e0b6453	0.1361249
33	0xbcc9e068	-0.024643138
34	0xbd8c1f2f	-0.06841885
35	0x3dd03f72	0.10168351
36	0x3dcf41bb	0.10119959
37	0x3c4f20b7	0.012642077
38	0x3cd36b99	0.025808142
39	0xbae47fc9	-0.0017433102
40	0x3d949335	0.0725464
41	0xbd5b59be	-0.05355238
42	0x3dc5c05e	0.09655832
43	0x3cbfbce0	0.023405492
44	0xbb12dfd0	-0.0022411235
45	0xbc9b4d34	-0.018957712
46	0xbc2cae7e	-0.010539649
47	0xbc61e8a2	-0.013788374
48	0xbd25f9de	-0.040521495
49	0x3d932971	0.07185639
50	0x3d1c05d5	0.0380915
51	0xbd93aafe	-0.072103485
52	0xbc82af95	-0.015952865
53	0xbd99d706	-0.075117156
54	0xbd8030ee	-0.062593326
55	0x3d1ce137	0.03830072
56	0x3d171d1e	0.036893003
57	0x3d23cfcd	0.039993096
58	0x3d04867a	0.03235481
59	0x3c92fb36	0.017942052
60	0xbcdab47f	-0.026697395
61	0xbdf97cee	-0.121820316
62	0x3c2b1594	0.010442156
63	0xbc9a5fbb	-0.018844476
64	0x3cc03fe4	0.023467965
65	0xbd4d5c22	-0.050136693
66	0xbdc1a408	-0.094551146
67	0xbd2721f1	-0.040803853
68	0x3cae7559	0.02129619
69	0xbd9472b7	-0.072484426
70	0x3da9cecc	0.082913965
71	0x3cf80230	0.03027448
72	0xbcd1add1	-0.025595577
73	0x3d679550	0.05653888
74	0xbda3080a	-0.07960518
75	0xbd31c76b	-0.04340307
76	0xbd9abd9f	-0.075556986
77	0x3d9613bc	0.07327983
78	0x3dce4eb4	0.10073605
79	0xbc099d5a	-0.008399332
80	0xbc073d07	-0.008254296
81	0x3cdd10f2	0.02698562
82	0x3d8b18b7	0.06791823
83	0x3d90fc81	0.07079411
84	0x3b5297de	0.0032133977
85	0x3dafb72a	0.08579858
86	0x3dacee0e	0.08443843
87	0xbbcc1d78	-0.006229099
88	0xbcafc4b9	-0.02145611
89	0xbbaeb34f	-0.005331434
90	0xbd3f9778	-0.04677531
91	0xbd8884a2	-0.06665923
92	0xbd3f409c	-0.046692476
93	0xbd120b75	-0.035655458
94	0xbdbe6488	-0.092965186
95	0x3d0a7b5d	0.033809055
96	0xbdc85fcc	-0.09783897
97	0xbd084759	-0.033271167
98	0xbd92be66	-0.07165222
99	0xbce631e7	-0.028099967
