models/heatalpha/tanh/heatalpha_04.pth (torch, 977047 bytes, 51 tensors)

net.0.weight f4 [100, 3]
0	0xbe2a7ed3	-0.16649942
1	0xbf075772	-0.52867806
2	0x3ca94f2e	0.020667639
3	0xbefe9fbe	-0.4973125
4	0xbea1c06c	-0.3159212
5	0x3e694204	0.22779089
6	0xbec7403b	-0.3891619
7	0xbc87dfe9	-0.01658626
8	0x3ee099a6	0.43867224
9	0x3e6d2e7a	0.2316226
10	0x3e4e16ce	0.20125887
11	0x3e42fc69	0.190416
12	0x3a84dd98	0.0010136841
13	0x3e4e1f38	0.20129097
14	0x3eb0fb34	0.34566653
15	0x3e19d053	0.15020876
16	0x3fd62620	1.6730385
17	0xbedb592d	-0.42841473
18	0x3f1b31cc	0.6062286
19	0x3e94c77f	0.29058453
20	0x3ea03b34	0.31295168
21	0xbe2f86a4	-0.17141205
22	0x3e4d8c6f	0.20073102
23	0xbd3bf55e	-0.045888297
24	0x3e37a3d4	0.17933589
25	0xbe18b3c7	-0.1491233
26	0xbf21e871	-0.632453
27	0xbcfe19ea	-0.031018216
28	0xbdaa87ff	-0.083267204
29	0x3eed8178	0.4638784
30	0xbd8a2b73	-0.067465685
31	0xbd096ca0	-0.03355086
32	0x3f15cc8d	0.58515245
33	0x3ec0ffe9	0.37695244
34	0xbdd33336	-0.10312502
35	0xbf003720	-0.50084114
36	0x3e255d6e	0.16148922
37	0x3d423917	0.047417726
38	0xbf00b92d	-0.50282556
39	0x3e95a07e	0.29224008
40	0x3de49160	0.111605406
41	0x3ee84592	0.45365578
42	0xbe5e0b46	-0.21683988
43	0x3e753100	0.23944473
44	0x3ee4222c	0.4455732
45	0xbeb4ddba	-0.35325414
46	0xbea95d57	-0.33079025
47	0x3e571f38	0.21008003
48	0x3e2feec3	0.17180924
49	0x3ecf6668	0.40507817
50	0xbe0d37ec	-0.13790864
51	0x3e774ede	0.24151179
52	0xbf3a6dc9	-0.7282377
53	0xbe872dc4	-0.26402104
54	0xbec44d1a	-0.38340074
55	0xbea2e5bd	-0.318159
56	0x3da9825a	0.08276816
57	0x3f2ca913	0.67445487
58	0x3e4ee459	0.20204295
59	0x3ef7a80b	0.48370394
60	0xbe863068	-0.26208806
61	0x3eb1cc84	0.34726346
62	0xbf1b8f08	-0.60765123
63	0xbdce10c0	-0.100617886
64	0xbd9e7dd4	-0.077388436
65	0x3e081526	0.13289317
66	0x3ead5a77	0.33858082
67	0xbf00405a	-0.5009819
68	0xbece2f4c	-0.4027046
69	0xbec99312	-0.39370018
70	0x3f01603f	0.50537485
71	0xbed4ac32	-0.41537625
72	0xbe946fd7	-0.28991577
73	0xbebbed48	-0.3670447
74	0xbd3d9bb1	-0.046291057
75	0xbed2e538	-0.41190505
76	0xbee5fe2b	-0.44920477
77	0x3eba809e	0.36426252
78	0x3f49d47d	0.78839856
79	0x3deb0b71	0.11476792
80	0xbdb8b2bb	-0.09018465
81	0x3d5680ae	0.052368812
82	0xbf49ccac	-0.7882793
83	0x3d8ee8be	0.06977986
84	0x3ddad32c	0.10684809
85	0xbdc5c717	-0.09657114
86	0x3eb9ca82	0.36287314
87	0xbbd1d161	-0.0064031337
88	0xbe84e8b2	-0.25958782
89	0xbe9785a7	-0.29594156
90	0x3eafe077	0.3435094
91	0x3e7f0ce6	0.24907264
92	0x3d8317f5	0.06401054
93	0xbee907b9	-0.45513704
94	0x3c96a495	0.018389026
95	0x3c080193	0.008301157
96	0xbe335b97	-0.17515408
97	0x3eaf2daf	0.3421454
98	0x3ed2c812	0.41168267
99	0x3e679dac	0.22618741
100	0xbe17d7f0	-0.14828467
101	0x3f000026	0.50000226
102	0x3c659a66	0.014013862
103	0x3e380ed9	0.17974414
104	0x3e647932	0.22311857
105	0x3e9aab6b	0.30208907
106	0x3d9fd8e9	0.07805044
107	0xbe9a4cfe	-0.30136865
108	0x3c8e2057	0.017349405
109	0xbf2a7de7	-0.6659836
110	0x3e810185	0.25196472
111	0x3def016c	0.11670193
112	0xbeb33f59	-0.35009268
113	0xbd317a0c	-0.043329284
114	0x3dd0a117	0.101869754
115	0x3e80bc37	0.25143597
116	0x3e060166	0.13086471
117	0xbeb37807	-0.3505251
118	0x3ef79cdd	0.48361865
119	0x3ebadfcc	0.36498868
120	0x3e094f8d	0.13409252
121	0x3ed00c9d	0.40634623
122	0xbdaf6d72	-0.08565797
123	0x3e36e346	0.17860135
124	0xbd9061fa	-0.070499375
125	0xbe094d8b	-0.13408487
126	0xbee0697b	-0.43830475
127	0xbbeb8963	-0.0071880086
128	0xbe958e20	-0.29209995
129	0xbe4777b8	-0.19479263
130	0xbf04c14b	-0.5185744
131	0x3eeb4188	0.45948434
132	0xbe476371	-0.19471528
133	0xbf49af48	-0.7878308
134	0x3ed34edb	0.412711
135	0x3f025d56	0.5092367
136	0xbec9152e	-0.3927397
137	0xbe422515	-0.18959458
138	0xbe8bc574	-0.27299082
139	0x3dd8622e	0.10565601
140	0xbed05189	-0.40687206
141	0xbe9069d1	-0.28205732
142	0x3ebccf9a	0.36877137
143	0xbec76009	-0.38940457
144	0xbe5e006c	-0.21679848
145	0x3ca93143	0.020653373
146	0x3f11229c	0.56693435
147	0xbea92ec7	-0.330435
148	0x3d3cb019	0.046066377
149	0x3e06ef73	0.1317728
150	0x3e0606f4	0.1308859
151	0x3ae6982e	0.001759296
152	0x3e3328ce	0.17496035
153	0xbe3cf760	-0.18453741
154	0xbebf00d2	-0.37305313
155	0x3d6afb5b	0.057368618
156	0x3db7e675	0.08979503
157	0xbe80781b	-0.25091633
158	0xbf0e12cb	-0.55497426
159	0xbe8639dc	-0.26216018
160	0xbe25fbfa	-0.16209403
161	0x3e063d5d	0.13109346
162	0xbea168d9	-0.31525305
163	0xbe0f2368	-0.1397835
164	0xbc9a20e0	-0.018814504
165	0x3dd31e12	0.1030847
166	0x3f129a77	0.57266945
167	0xbecf1955	-0.40449014
168	0xbe1be702	-0.15224841
169	0x3e266405	0.16249092
170	0x3eb4e6c2	0.35332304
171	0x3e236261	0.15955497
172	0x3f1031cc	0.56325984
173	0xbe2d3bfe	-0.16917416
174	0xbea8cdfd	-0.32969657
175	0x3e1b7d86	0.15184602
176	0x3f08d09b	0.53443307
177	0x3f27b126	0.6550468
178	0x3e48b710	0.19601083
179	0xbd3e4ea5	-0.04646172
180	0xbe427f12	-0.18993786
181	0x3e7467b0	0.23867679
182	0x3e549dd8	0.20763338
183	0xbe9d036f	-0.30666682
184	0x3e150f9b	0.14556734
185	0x3ece7b5d	0.40328494
186	0xbdd4c896	-0.10389821
187	0x3e3bdc2c	0.18345708
188	0x3ed7d2a5	0.42152897
189	0x3e9f99dc	0.31172073
190	0xbd8618d6	-0.06547706
191	0x3dcfc4de	0.10144971
192	0x3ea70dce	0.3262772
193	0xbe6fd688	-0.23421681
194	0x3f43a26e	0.76419723
195	0xbf25916b	-0.64675015
196	0x3d899eaa	0.06719716
197	0x3da064fb	0.078317605
198	0x3d967c6d	0.07347951
199	0xbdc748ee	-0.09730707
200	0xbf0630b1	-0.5241805
201	0xbeac3a41	-0.33638194
202	0xbe07c32b	-0.13258044
203	0x3cab0e3f	0.020880817
204	0xbf28e101	-0.6596833
205	0xbf10c0c5	-0.5654414
206	0xbf1a4a16	-0.60269296
207	0x3df64eb7	0.120267324
208	0xbbbff92f	-0.0058585624
209	0x3de34cf5	0.11098663
210	0x3eb1318c	0.34608114
211	0x3f65aab3	0.8971359
212	0xbf12f3a2	-0.57403004
213	0xbe59d4c6	-0.21272573
214	0xbebcc5f0	-0.36869764
215	0x3efdadcb	0.49546656
216	0x3de4b451	0.11167205
217	0x3e93e27d	0.28883734
218	0xbd8f8f69	-0.07009775
219	0xbec852ac	-0.39125574
220	0x3ecd1764	0.40056908
221	0x3f131da1	0.57467085
222	0x3e06dfcb	0.13171308
223	0x3e92f895	0.28705278
224	0x3e032a46	0.12809095
225	0x3d493760	0.049125075
226	0x3ea826ec	0.32842195
227	0x3e6305df	0.22170208
228	0x3f24cefd	0.6437834
229	0x3f1b1ca6	0.6059059
230	0xbd708320	-0.0587188
231	0xbd66be20	-0.05633366
232	0x3e50d059	0.20391978
233	0x3eea8f17	0.45812294
234	0xbeb9eefd	-0.36315146
235	0xbef7a305	-0.48366562
236	0x3d096469	0.033543024
237	0xbba066d8	-0.0048950724
238	0xbe5f73a6	-0.2182146
239	0x3f22915d	0.63503057
240	0xbd800698	-0.06251258
241	0x3e4003bc	0.18751425
242	0xbead4db9	-0.3384836
243	0xbf2e57f5	-0.6810296
244	0xbe922f33	-0.28551635
245	0x3d806181	0.062685974
246	0x3ecab584	0.3959161
247	0xbeeb472a	-0.4595273
248	0x3e7792f6	0.24177155
249	0xbdcd85ca	-0.10035284
250	0xbec0de97	-0.37669823
251	0xbd40ba42	-0.04705263
252	0xbd3e382e	-0.046440296
253	0xbf46c203	-0.7763979
254	0x3d22ab96	0.03971442
255	0x3e1dccf3	0.15410213

net.0.bias f4 [100]
0	0xbde5e7d1	-0.11225856
1	0xbe9e49a7	-0.30915567
2	0x3e691c8e	0.22764799
3	0xbdcfc967	-0.10145836
4	0x3e9b163d	0.30290404
5	0x3d758ebc	0.059950575
6	0x3d2d7e12	0.04235656
7	0x3ece7d90	0.40330172
8	0xbc8e8a0c	-0.01739981
9	0x3f0c9d04	0.54927087
10	0xbf170455	-0.58990985
11	0xbd51adb5	-0.05119105
12	0xbcf602a6	-0.03003056
13	0xbf33bf46	-0.70213735
14	0x3ea0b720	0.31389713
15	0xbf0a7e6e	-0.54099166
16	0xbf019525	-0.506182
17	0xbeea440b	-0.45755038
18	0x3f26f9ae	0.6522473
19	0x3dde0b05	0.108419456
20	0x3f09acfe	0.5377959
21	0x3e49a7dd	0.19692941
22	0xbf09d133	-0.5383484
23	0x3c3c46e4	0.011491511
24	0x3df57099	0.11984367
25	0xbd9b2e79	-0.07577223
26	0x3cca2103	0.024673944
27	0x3c62a1be	0.013832508
28	0x3ea9d4c8	0.33170152
29	0x3ec5f816	0.38665837
30	0xbf2717b0	-0.6527052
31	0xbf063452	-0.52423584
32	0x3e9936a0	0.29924488
33	0x3eb7b34f	0.3587899
34	0xbf12fa9b	-0.57413644
35	0x3e62536b	0.22102134
36	0xbe8ff088	-0.28113198
37	0xbee437dd	-0.4457387
38	0x3dcd4bd2	0.10024227
39	0x3ebe2125	0.37134662
40	0xbe8040e0	-0.25049496
41	0x3ddff3d1	0.10935176
42	0xbd830eeb	-0.0639933
43	0xbc96990c	-0.018383525
44	0x3e0a3ed4	0.1350053
45	0xbe5b92af	-0.21442674
46	0x3e26d721	0.16293003
47	0x3f08ad20	0.5338917
48	0xbef999d9	-0.4875019
49	0x3f0f39fa	0.5594784
50	0xbefe5178	-0.4967153
51	0xbf0f321e	-0.5593585
52	0x3c948177	0.01812814
53	0x3d2e6bcc	0.04258327
54	0xbed80ba9	-0.42196396
55	0xbe88cd4e	-0.26719135
56	0xbe714cb2	-0.23564413
57	0xbdf23a00	-0.11827469
58	0xbeadef63	-0.339717
59	0x3ef04ae0	0.46932125
60	0x3e9573b4	0.29189837
61	0xbf2a926c	-0.6662967
62	0xbe786628	-0.2425772
63	0xbe5cadc8	-0.21550667
64	0xbe34c69f	-0.17653893
65	0x3d20fcc9	0.039303575
66	0x3e8502e6	0.25978774
67	0x3f04ef18	0.5192733
68	0x3e111430	0.14167857
69	0xbf245cd6	-0.64204156
70	0x3e757f03	0.23974232
71	0xbde28452	-0.11060394
72	0x3eac5938	0.33661819
73	0x3e848dd0	0.25889444
74	0xbe281a1c	-0.1641621
75	0xbd025de4	-0.031827822
76	0xbe6779cd	-0.22605057
77	0xbe6424c1	-0.22279646
78	0x3f11a8bd	0.568981
79	0x3f0f840a	0.5606085
80	0x3e453d9f	0.19261788
81	0x3d556fe4	0.05210866
82	0x3e21cb5b	0.1580023
83	0xbe2089ac	-0.15677518
84	0xbe8ff0f5	-0.28113523
85	0xbe03bfe1	-0.12866165
86	0x3f16cbee	0.5890492
87	0x3e9ad3d2	0.3023973
88	0xbf0a47ec	-0.54015994
89	0x3e7444a9	0.23854317
90	0xbe986903	-0.29767618
91	0xbf1ec0be	-0.6201285
92	0x3d9651aa	0.07339795
93	0x3e90f357	0.28310654
94	0x3ee0437c	0.43801486
95	0xbec291ce	-0.38001865
96	0xbd9667aa	-0.07343991
97	0x3e9a7dff	0.30174252
98	0xbdf744cd	-0.120736696
99	0xbebdd3da	-0.37075692

net.2.weight f4 [100, 100]
0	0x3da8bb17	0.082388096
1	0x3da14ef9	0.07876391
2	0x3dd708a4	0.10499695
3	0xbc3a8934	-0.011385251
4	0x3b354878	0.0027661603
5	0x3d6197a4	0.055076256
6	0xbc33eb25	-0.010981356
7	0x3d5c3bbb	0.0537679
8	0xbd9f666d	-0.07783208
9	0xbbda3a92	-0.006659814
10	0xbdd30d21	-0.103052385
11	0xbd3bc768	-0.045844465
12	0x3d510bef	0.05103677
13	0x3b9c329d	0.0047667758
14	0xbce18482	-0.027529005
15	0x3d1ed99b	0.038781743
16	0xbc4653a5	-0.012104903
17	0x3d6e4952	0.058175392
18	0x3ae115ee	0.0017172673
19	0xbd8bad07	-0.06820112
20	0x3cb95e07	0.022627844
21	0x3d472759	0.04862151
22	0x3a6bcf73	0.0008995451
23	0xbcb8614d	-0.022507334
24	0x3dc1c7c3	0.0946193
25	0x3c8c7f6c	0.017150603
26	0xbc6c2c48	-0.014414854
27	0x3c55344f	0.01301296
28	0x3d003367	0.03129902
29	0x3d43effe	0.047836296
30	0x3d910e6b	0.07082828
31	0xbdb0e320	-0.08637071
32	0x3e07437d	0.13209338
33	0x3d83f3fd	0.064430214
34	0x3d1bc51a	0.038029768
35	0xbd9f372e	-0.077741966
36	0xbde3e541	-0.11127711
37	0xbdebc78a	-0.115126684
38	0x3d9f7fd5	0.07788054
39	0xbd841b90	-0.0645057
40	0xbdb0e45b	-0.08637305
41	0x3ca38eb6	0.01996551
42	0x3db289fb	0.08717724
43	0x3dc494cf	0.095986955
44	0x3db35216	0.08755891
45	0xbb2f95d2	-0.002679218
46	0xbcf32124	-0.029678889
47	0xbcbac256	-0.022797745
48	0x3dc94c42	0.09828998
49	0x3de78db8	0.113063276
50	0xbdb4f4c8	-0.08835751
51	0xbd94cc54	-0.07265535
52	0x3d7d76de	0.06188094
53	0x3da26c3d	0.07930801
54	0x3bb4a1a8	0.005512435
55	0x3d839199	0.06424255
56	0xbdbb1064	-0.09133986
57	0xbc02c02a	-0.007980386
58	0x3bcaf928	0.0061942525
59	0x3bc9fd94	0.006164262
60	0x3de2ed6f	0.11080443
61	0xbdbd303d	-0.09237716
62	0x3d309a12	0.043115683
63	0x3ccd1c85	0.025038013
64	0xbca5aae7	-0.020223094
65	0xbd735d68	-0.05941525
66	0x3cfc8b98	0.030828282
67	0xbd40b61e	-0.04704868
68	0xbda7e09f	-0.0819714
69	0xbe236e8f	-0.15960144
70	0x3d9b4f0e	0.07583438
71	0x3db608d8	0.088884056
72	0x3dc62421	0.0967486
73	0xbd4d9cef	-0.05019849
74	0x3d73d357	0.05952772
75	0xbc51566d	-0.012776953
76	0x3d47f415	0.04881676
77	0xbc0d3046	-0.008617466
78	0x3d326f88	0.043563396
79	0x3d9117c5	0.07084612
80	0x3d3ff584	0.046865
81	0x3d8aed5c	0.06783554
82	0xbd12a423	-0.035801064
83	0xbdc71249	-0.097202845
84	0xbd92806f	-0.07153403
85	0x3ccdf6b3	0.02514205
86	0xbd4b9bc0	-0.04970908
87	0xbc01e59d	-0.007928279
88	0x381e53b2	3.7748083e-05
89	0xbd880973	-0.06642427
90	0xbe0e8ccb	-0.13920896
91	0xbdc5577d	-0.09635828
92	0x3d256178	0.040376157
93	0xbd4054ee	-0.046955995
94	0x3d3837ed	0.04497521
95	0xbbe0a5e8	-0.006855715
96	0xbcf26861	-0.029590787
97	0x3d0e778d	0.03478198
98	0xbdc87904	-0.09788707
99	0xbd9a0961	-0.0752132
100	0x3d270e1b	0.040784936
101	0xbd9e1c99	-0.07720298
102	0xbca8a727	-0.020587517
103	0x3c960eb8	0.018317565
104	0xbdbb1c3f	-0.09136247
105	0xbd51a603	-0.05118371
106	0xbdad90a7	-0.08474856
107	0xbd89010b	-0.06689652
108	0x3d4b1d05	0.049588222
109	0xbc2c79ee	-0.010527117
110	0x3d96fd33	0.07372513
111	0xbdb85a34	-0.0900158
112	0xbdabf8e1	-0.08397079
113	0x3dd33fc5	0.103148974
114	0xbd268000	-0.040649414
115	0xbdb44101	-0.08801461
116	0xbdd2811d	-0.10278533
117	0xbc3748ab	-0.011186759
118	0xbd7551e9	-0.05989257
119	0x3cfbe333	0.030747985
120	0x3dcd8b83	0.100363754
121	0x3d56bdc4	0.05242707
122	0xbd0bde06	-0.034147285
123	0xbc0bb7c1	-0.008527697
124	0xbd58bc5c	-0.05291401
125	0xbdc240dc	-0.09485027
126	0xbd40aab3	-0.04703779
127	0x3d0e38fe	0.03472232
128	0xbd5b7059	-0.05357394
129	0x3de7774e	0.113020524
130	0xbd3ee1b3	-0.046601962
131	0xbc753016	-0.014965078
132	0xbc7c1e0d	-0.015388024
133	0xbcb05d3e	-0.021528836
134	0xbd50726c	-0.05089037
135	0x3bbf2411	0.005833157
136	0x3c0881f4	0.0083317645
137	0xbdec2a46	-0.115315005
138	0x3b92c193	0.0044786423
139	0x3d915323	0.07095935
140	0xbdcccd5a	-0.10000105
141	0xbdd4a84a	-0.10383661
142	0xbd9cf042	-0.07663013
143	0xbd88ed2b	-0.06685861
144	0x378a2b26	1.6470975e-05
145	0xbd1e40eb	-0.03863613
146	0x3d2d065a	0.042242385
147	0xbcdfa304	-0.027299412
148	0x3d9dd27f	0.077061646
149	0xbd4aa1ba	-0.04947064
150	0xbd4ed108	-0.050492316
151	0xbccbb146	-0.024864804
152	0xbd944cb8	-0.072411954
153	0xbca7eacc	-0.020497702
154	0x3d9cf947	0.076647334
155	0x3c428584	0.011872653
156	0x3cc84326	0.024446081
157	0xbd6192b1	-0.055071536
158	0xbd8ed3f1	-0.06974018
159	0xbd91d230	-0.07120168
160	0xbd0002cc	-0.031252667
161	0x3d5c4e7b	0.053785782
162	0xbd7a5bed	-0.061122824
163	0x3d9fee54	0.07809129
164	0x3c8f8758	0.017520592
165	0xbc95f1ca	-0.01830377
166	0xbcea175a	-0.028575588
167	0x3d336d54	0.043805435
168	0xbdb9ea35	-0.090778746
169	0xbe41571f	-0.1888089
170	0x3dcf8e46	0.101345584
171	0xbd9cbf19	-0.076536365
172	0xbd64ee3a	-0.055891253
173	0xbd4cb8f5	-0.049981076
174	0x3ce88610	0.028384238
175	0x3d1a4fb0	0.037673652
176	0xbd94ec6f	-0.07271659
177	0x3d49aa35	0.049234588
178	0x3d0809ec	0.033212587
179	0x3db0ae75	0.08627025
180	0x3dca6ff2	0.09884633
181	0x3db1d77a	0.08683677
182	0xbd9b5eb6	-0.07586424
183	0x3ca1f471	0.019769879
184	0xbd8680d3	-0.0656754
185	0xbc622220	-0.013802081
186	0xbdc9afa8	-0.09847957
187	0x3da2d2b1	0.079503424
188	0xbcad7c72	-0.021177504
189	0x3d77e825	0.060524125
190	0xbd79c32d	-0.06097715
191	0xbdaac047	-0.08337455
192	0xbc11daed	-0.008902294
193	0xbd61d2f1	-0.05513281
194	0xbd842645	-0.06452612
195	0x3bbd1c1e	0.005771174
196	0x3d82b903	0.063829444
197	0x3d247cb2	0.04015798
198	0x3c8ad827	0.016948773
199	0xbd8ea132	-0.06964339
200	0x3d1729d1	0.036905114
201	0xbd931906	-0.07182507
202	0x3d51f99d	0.05126344
203	0xbd5cdec6	-0.05392339
204	0x3da885a4	0.08228615
205	0x3b8717e3	0.0041227206
206	0x3d8e393c	0.0694451
207	0xbd61e9dc	-0.055154666
208	0xbd9e15e5	-0.0771902
209	0x39552daf	0.00020330281
210	0xbdc29278	-0.09500593
211	0xbda56349	-0.08075578
212	0xbdcea034	-0.1008915
213	0xbd22d731	-0.039756004
214	0x3e0c8a21	0.13724567
215	0x3dc14b11	0.09438146
216	0xbd1d9364	-0.03847064
217	0xbdc04457	-0.09388035
218	0xbd2aa052	-0.0416568
219	0x3db06005	0.08612064
220	0x3af23d40	0.0018481389
221	0x3e0d286a	0.13784948
222	0xbdbd3a9c	-0.092396945
223	0x3b7ab642	0.0038255607
224	0x3c4fdfa2	0.012687596
225	0x3d718104	0.05896093
226	0xbd9e72b6	-0.07736723
227	0xbdb05b73	-0.086111926
228	0xbdbcfc47	-0.092278056
229	0x3e05777c	0.13033861
230	0xbd31dfc0	-0.043426275
231	0x3db69405	0.08914951
232	0xbba89166	-0.005144286
233	0x3d5e0af6	0.054209672
234	0xbd86e789	-0.065871306
235	0x3d1dc51c	0.038518056
236	0xbdd2e0a0	-0.1029675
237	0xbe1afc03	-0.15135197
238	0xba96946a	-0.0011488323
239	0xbc048f52	-0.008090811
240	0xbddea663	-0.108715795
241	0x3d7622d9	0.060091827
242	0xbd3d84f1	-0.04626936
243	0xbdb30e5a	-0.08742972
244	0xbd7bd846	-0.06148555
245	0x39c8d838	0.00038308068
246	0xbb8b6723	-0.004254238
247	0xbc5ad740	-0.013356984
248	0x3c24ca17	0.010057948
249	0x3d8ff68e	0.070294484
250	0xbc2dc8d6	-0.010606965
251	0x3d628553	0.05530293
252	0xbc272c56	-0.010203442
253	0x3d273abe	0.040827505
254	0xbd1ac4e6	-0.037785433
255	0xbd5ac3e2	-0.053409465

net.2.bias f4 [100]
0	0x3dbe7c68	0.09301072
1	0x3d010abe	0.031504385
2	0x3c804304	0.015656956
3	0xbda82b46	-0.08211379
4	0xbd978716	-0.073988125
5	0x3c8cd62f	0.017191974
6	0xbdae2490	-0.085030675
7	0x3c06f9e8	0.008238293
8	0xbd9cda8b	-0.07658871
9	0xbd177684	-0.03697826
10	0x3d539e7d	0.051664818
11	0x3d5e184d	0.054222394
12	0x3d3dd0ab	0.04634158
13	0xbc2876ff	-0.010282277
14	0x3d85e975	0.06538669
15	0xbc7260a4	-0.014793549
16	0x3c79f175	0.015255322
17	0x3d72eec5	0.05930974
18	0xbdb0390a	-0.08604629
19	0x3de3c586	0.11121659
20	0x3d9adc6c	0.075615734
21	0xbcd29988	-0.025707975
22	0x3cbd4c6f	0.023107735
23	0x3d873fe9	0.06603987
24	0x3db0e4a7	0.08637362
25	0x3db3b762	0.08775212
26	0xbd92211a	-0.0713522
27	0xbd1113e1	-0.03541935
28	0x3c915e87	0.01774527
29	0x3c882c1f	0.016622601
30	0xbda2a166	-0.079409406
31	0x3af7a023	0.0018892329
32	0x3db41571	0.08793152
33	0x3d89eb3b	0.0673432
34	0x3dc8b593	0.098002575
35	0x3c815ee0	0.01579231
36	0xbc590c3f	-0.013247549
37	0x3cec5aa9	0.028851824
38	0x3d3aa20b	0.045564692
39	0xbd41bdb3	-0.047300052
40	0xbcc75ef2	-0.024337266
41	0xbbed9970	-0.007250957
42	0x3d54a630	0.0519163
43	0xbd3bd5fd	-0.045858372
44	0x3db953f0	0.09049213
45	0x3dc38d5a	0.09548445
46	0x3da09654	0.07841173
47	0x3db6ba6b	0.08922275
48	0x3d8ec10e	0.06970416
49	0xbdeccdc0	-0.11562681
50	0x3d43d6ae	0.047812156
51	0xbd0bac08	-0.03409961
52	0xbd9019c6	-0.07036166
53	0x3d4ce781	0.050025467
54	0x3c9b1c09	0.018934267
55	0xbc8653b7	-0.01639734
56	0xbd04b932	-0.03240318
57	0xbbf47034	-0.0074596647
58	0xbda7595f	-0.08171343
59	0x3d3f9ad4	0.046778515
60	0xbd10f5b5	-0.035390574
61	0xbdd0a8c3	-0.10188439
62	0xbd302694	-0.04300554
63	0xbd81cd21	-0.06337953
64	0xbdc4dc91	-0.09612382
65	0xbd186d9b	-0.037213903
66	0xbcc3055c	-0.023806266
67	0x3d86746e	0.06565176
68	0x3da69dcb	0.08135565
69	0xbc97e8bd	-0.018543595
70	0xba7f2e27	-0.0009734355
71	0xbd4a6ec2	-0.049422033
72	0x3cdb8bd1	0.026800068
73	0x3d8df7ef	0.06932055
74	0x3db5ee3a	0.08883329
75	0x3da1d411	0.079017766
76	0x3d5d6876	0.0540547
77	0xbd1f855f	-0.038945552
78	0xbd48c1f0	-0.04901308
79	0x3d572cba	0.05253289
80	0x3c8d5cd5	0.01725618
81	0x3dc86d7b	0.09786507
82	0x3d64d20b	0.055864375
83	0xbc043d5c	-0.00807127
84	0xbd170d29	-0.036877785
85	0x3ce8fe93	0.028441703
86	0xbd4a349e	-0.049366586
87	0xbd7d694b	-0.061867993
88	0xbd9258eb	-0.07145866
89	0xbc948ba3	-0.01813299
90	0x3d2e6167	0.04257336
91	0xbc487554	-0.012235004
92	0xbcf7c3e9	-0.030244784
93	0x3d14c780	0.03632307
94	0x3cf83afb	0.030301562
95	0xbd205fe2	-0.03915394
96	0xbdcc01a4	-0.099612504
97	0xbccffdce	-0.025389578
98	0xbd92b56a	-0.07163508
99	0xbd937497	-0.07199972

net.4.weight f4 [100, 100]
0	0x3cd5fcaa	0.026121456
1	0x3da30553	0.0796
2	0x3e76a094	0.24084693
3	0x3e8e5ce1	0.27805236
4	0xbc6ad196	-0.014332196
5	0xbe99a245	-0.30006614
6	0xbe76c92e	-0.24100181
7	0x3d1d86fc	0.03845881
8	0x3db2774a	0.08714159
9	0x3e23e49f	0.16005181
10	0xbd36daf1	-0.044642393
11	0xbcf05b6d	-0.02934047
12	0x3dbfa7b8	0.09358162
13	0x3db5bf92	0.0887443
14	0x3eaa9fb7	0.33324978
15	0x3ea291e2	0.31751925
16	0x3f0a7aad	0.5409344
17	0xbb2c74ca	-0.002631473
18	0x3d0ed556	0.03487142
19	0xbd637403	-0.05553056
20	0x3e46e4ac	0.19423169
21	0xbf120446	-0.5703777
22	0x3de7ca59	0.11317892
23	0xbd7ec7a4	-0.06220211
24	0xbd830cca	-0.06398924
25	0xbced0866	-0.028934669
26	0x3d31b3b9	0.043384288
27	0x3e875542	0.26432234
28	0x3e02cc56	0.1277326
29	0x3d44308a	0.047897853
30	0xbd484cac	-0.048901245
31	0x3d31a627	0.043371346
32	0x3eddb8f5	0.43305174
33	0xbdf37c8a	-0.11888988
34	0x3f00cff6	0.50317323
35	0x3bd29535	0.0064264783
36	0x3db4222d	0.08795581
37	0xbe434f30	-0.19073176
38	0xbe96cf14	-0.29454863
39	0x3e0f72af	0.14008592
40	0xbe41e4f5	-0.18934996
41	0xbd611ab3	-0.054957103
42	0x3d7342c7	0.059389856
43	0xbe6225d8	-0.22084749
44	0x3cf7d8a6	0.030254673
45	0xbd5db625	-0.054128785
46	0x3e98bd74	0.2983204
47	0x3db629a0	0.08894658
48	0x3e3b02a7	0.1826273
49	0xbe71d842	-0.23617652
50	0xbcff1a65	-0.031140516
51	0xbcba6ac5	-0.02275599
52	0x3b882a74	0.0041554514
53	0x3e0144fc	0.12623972
54	0x3d369e7a	0.04458473
55	0x3d80d4a8	0.06290561
56	0x3f0fed09	0.5622106
57	0x3e1f7c73	0.15574817
58	0x3da0ea03	0.07857134
59	0x3e2ed4f9	0.1707343
60	0x3dc3a015	0.095520176
61	0x3db245be	0.087047085
62	0x3dde1472	0.108437434
63	0xbc610395	-0.013733764
64	0x3eb38480	0.35062027
65	0x3e4a0ad8	0.19730699
66	0x3d69d959	0.057092045
67	0x3c8febff	0.017568586
68	0x3ddb71e1	0.1071508
69	0xbe6be5d8	-0.23036897
70	0xbc1d734f	-0.009610011
71	0x3e400b4f	0.18754314
72	0x3d9f819c	0.07788393
73	0x3d92ae1a	0.071621135
74	0x3e6f78dc	0.23385948
75	0xbe09f84f	-0.13473628
76	0xbc6023fd	-0.013680455
77	0xbd4cf09d	-0.050034154
78	0xbd5aa2d6	-0.05337795
79	0x3d359c1e	0.044338338
80	0x3e89fa5d	0.26948825
81	0x3f154622	0.5831014
82	0x3e1bc090	0.15210176
83	0x3d4b7938	0.04967615
84	0xbeb3266b	-0.34990248
85	0x3ecd2f87	0.40075323
86	0x3d8c84c2	0.06861259
87	0xbda109d2	-0.07863201
88	0x3d12d2bd	0.035845507
89	0xbf5e2a7f	-0.86783594
90	0x3eace535	0.3376862
91	0xbdcc2c30	-0.099693656
92	0xbd22658a	-0.039647616
93	0x3be56bf1	0.007001393
94	0x3e890b38	0.26766372
95	0xbd807617	-0.06272524
96	0xbe13f96f	-0.1445062
97	0x3cb92627	0.0226012
98	0x3d180ba4	0.037120476
99	0xbea58201	-0.32325748
100	0x3cd73bb8	0.026273593
101	0x3d8ed46d	0.06974111
102	0x3da48253	0.0803267
103	0xbda7194d	-0.081591226
104	0x3d9cceee	0.07656656
105	0x3ddaa6ae	0.10676323
106	0xbd33059b	-0.043706518
107	0xbda098df	-0.07841658
108	0x3d0301b3	0.031984042
109	0xbc18f1e7	-0.009335018
110	0xbd8e339b	-0.06943437
111	0x3d0617d3	0.032737564
112	0x3da14273	0.07874002
113	0x3d8928a8	0.06697208
114	0xbdab3901	-0.08360482
115	0xbda7977f	-0.081831925
116	0xbcd23d67	-0.025664045
117	0xbdc25b2c	-0.09490046
118	0x3c8c3033	0.017112827
119	0x3d5e741a	0.05430994
120	0xbdbe8d67	-0.09304314
121	0x3d9cf517	0.07663935
122	0xbc862f46	-0.016379964
123	0xbda92e8c	-0.08260831
124	0x3cc92c86	0.024557363
125	0x3cbb08c6	0.022831332
126	0x3d6d13b0	0.057880104
127	0x3c7d935e	0.01547703
128	0xbd01f15b	-0.031724315
129	0xbda38317	-0.07983988
130	0xbc6030a6	-0.013683474
131	0xbd9e80cf	-0.07739412
132	0xbdca958d	-0.09891806
133	0x3d6184cf	0.055058297
134	0x3dcd6332	0.10028686
135	0xbd89305d	-0.06698678
136	0xbda0309b	-0.07821771
137	0x3d31da44	0.043421045
138	0xbcdbc65d	-0.026827985
139	0xb9637e26	-0.00021695401
140	0x3c48065f	0.01220855
141	0x3d8330bb	0.06405779
142	0x3d354f9d	0.04426538
143	0x3d69364e	0.056936555
144	0xbdef57e2	-0.11686684
145	0xbd6e9151	-0.058244053
146	0xbd7df53f	-0.062001463
147	0xbaf02e5f	-0.0018324367
148	0x3d596612	0.053075857
149	0xbd695035	-0.056961257
150	0x3ca22c62	0.019796554
151	0x3d1f8de3	0.038953673
152	0xbdc10223	-0.09424236
153	0x3d4d9f79	0.050200913
154	0xbd68428a	-0.05670408
155	0x3d0bc687	0.034124877
156	0x3c342a21	0.010996372
157	0x3b411e62	0.0029467572
158	0xbe0c62f2	-0.1370962
159	0x3d497924	0.049187794
160	0x3c3349e1	0.010942907
161	0x3d6cdddb	0.057828765
162	0x3cebdc2b	0.028791508
163	0xbc873a08	-0.016507164
164	0xbd43f22f	-0.047838386
165	0xbceaa623	-0.028643673
166	0xbdc6c59f	-0.09705662
167	0x3bfefe49	0.007781778
168	0x3d793f29	0.06085125
169	0x3d548d10	0.05189234
170	0x3cea68aa	0.02861436
171	0xbcff71ba	-0.031182159
172	0xbd46033d	-0.048342932
173	0xbd8ecab1	-0.06972254
174	0x3d4ce556	0.0500234
175	0x3c373afa	0.011183495
176	0xbdc85f14	-0.0978376
177	0xbdf23e38	-0.118282735
178	0x3c342cf9	0.01099705
179	0x3d4a34fe	0.049366944
180	0xbdecb2bc	-0.115575284
181	0xbe2289ca	-0.15872875
182	0x3c0c30ad	0.008556527
183	0xbd39996d	-0.045312334
184	0xbc2e6db6	-0.010646274
185	0x3cd2f29e	0.025750455
186	0xbc3867a1	-0.011255176
187	0x3dac0a5c	0.084004134
188	0xbd6ab6e9	-0.057303343
189	0xbd231eba	-0.039824225
190	0x3d7d969a	0.061911203
191	0xbd861150	-0.06546271
192	0xbbf93f21	-0.0076064025
193	0xbd81f479	-0.063454576
194	0x3d4fc81a	0.05072794
195	0xbdc142c5	-0.094365634
196	0x3da5b70f	0.08091556
197	0x3b611460	0.003434442
198	0xbd95b5dd	-0.07310078
199	0x3d10302f	0.0352022
200	0xbcfad40a	-0.030618686
201	0xbc89bb8a	-0.016813058
202	0xbdb3e5c3	-0.08784058
203	0xbbe0204a	-0.0068397867
204	0xbd915948	-0.07097107
205	0xb9f3f6b0	-0.00046532368
206	0x3ce85b81	0.028363945
207	0x3d398c6b	0.04529993
208	0x3d5b8f95	0.053603727
209	0x3d40a965	0.047036547
210	0x3da36499	0.07978172
211	0x3dd99d74	0.10625735
212	0x3c70211e	0.014656333
213	0xbd8ff7c3	-0.07029679
214	0x3d05e6b3	0.032690715
215	0x3c56e963	0.013117167
216	0x3d8a4210	0.06750882
217	0x3cef1704	0.02918578
218	0xbcb6357b	-0.022242298
219	0x3d153f31	0.036437217
220	0xbd0ce16e	-0.034394674
221	0x3d110ca0	0.03541243
222	0x3d86b365	0.065771855
223	0xbdc60b2f	-0.09670102
224	0x3d9caee0	0.07650542
225	0xbd1b545a	-0.03792224
226	0xbc938667	-0.018008424
227	0x3dad3779	0.08457846
228	0x3da0808f	0.078370206
229	0x3d813530	0.06308973
230	0xbc5ce771	-0.013482914
231	0xbda7f948	-0.082018435
232	0xbc22be6f	-0.009933098
233	0xbc473295	-0.012158056
234	0x3d118218	0.035524458
235	0x3ca9d180	0.02072978
236	0x3b4829c6	0.0030542477
237	0x3ce6929f	0.028146086
238	0x3da9f9e9	0.0829962
239	0x3d34366f	0.043997224
240	0xbd89816e	-0.0671414
241	0x3caf2b5f	0.021382986
242	0x3d633509	0.0554705
243	0xbd6cab94	-0.057780817
244	0x3cbd0fbf	0.023078797
245	0xbd236f73	-0.039901208
246	0x3d1a16b6	0.037619315
247	0x3b5297f5	0.003213403
248	0x3da6370a	0.081159666
249	0xbd058dae	-0.03260582
250	0xbcf38288	-0.029725328
251	0xbda9be8c	-0.08288297
252	0x3d2aa476	0.04166075
253	0x3d78adfc	0.0607128
254	0xbda4d7de	-0.08048986
255	0x3c45d8d7	0.012075624

net.4.bias f4 [100]
0	0xbc00a23b	-0.007851179
1	0xbdcf18f6	-0.10112183
2	0x3b62bc15	0.003459697
3	0xbd83d592	-0.0643722
4	0xbd832321	-0.06403185
5	0x3d506820	0.05088055
6	0xbb4cf168	-0.003127182
7	0xbc4920d0	-0.0122758895
8	0x3d89d569	0.06730158
9	0x3cd0dafc	0.025495045
10	0x3d691e96	0.056913935
11	0x3d003b34	0.03130646
12	0x3db3bee8	0.08776647
13	0xbd3abc59	-0.04558978
14	0xbcdbae4f	-0.026816515
15	0x3d186228	0.037202984
16	0x3db7fe3f	0.089840405
17	0x3c57f35d	0.013180581
18	0xbcd86d96	-0.026419442
19	0x3db7140d	0.08939371
20	0xbda69783	-0.08134367
21	0x3d4e7c71	0.050411645
22	0x3c267ccb	0.010161589
23	0x3c383927	0.011244095
24	0x3ca4b8c9	0.020107644
25	0xbd1325cd	-0.03592472
26	0x3d0f2c4e	0.03495436
27	0xbdccc0b7	-0.09997695
28	0x3c471dd0	0.012153104
29	0xbd940e6f	-0.072293155
30	0x3d31156f	0.04323333
31	0x3d3d19c2	0.046167143
32	0x3d892bbe	0.06697796
33	0x3dc2bbda	0.09508486
34	0xbd29dc9d	-0.04147016
35	0xbd30d448	-0.043171197
36	0xbc6e15ab	-0.014531533
37	0x3d207cdf	0.039181586
38	0x3b96858c	0.0045935567
39	0xbc82ad82	-0.015951876
40	0x3dcaf65f	0.09910273
41	0x3da73dcc	0.08166084
42	0xbd368519	-0.044560526
43	0x3bbab9e5	0.00569843
44	0x3d6d27fd	0.057899464
45	0x3d00b298	0.03142032
46	0x3cf738a9	0.030178385
47	0xbcbd0a4c	-0.023076199
48	0xbd483426	-0.048877858
49	0xbdd66658	-0.10468739
50	0xbd5c2eee	-0.053755693
51	0x3d36c989	0.044625793
52	0xbd83ea31	-0.06441153
53	0x3d6e2bf5	0.05814739
54	0xbd6cdebf	-0.057829615
55	0x3ccc562d	0.024943436
56	0x3c9115bf	0.017710565
57	0xbdb166e1	-0.08662201
58	0xbd97d372	-0.07413377
59	0xbba74541	-0.0051046913
60	0x3db3eba4	0.08785179
61	0xbd72df84	-0.059295192
62	0x3d809a51	0.062794335
63	0x3d73de24	0.05953802
64	0xbd7f7e4b	-0.0623763
65	0xbbda4cc3	-0.0066619827
66	0xbd28e42f	-0.041233238
67	0xbcdfd6bf	-0.027324079
68	0x3dc1b4ca	0.09458311
69	0x3d71c4cc	0.05902557
70	0xbcd9e8fd	-0.026600355
71	0xbd2ec234	-0.042665675
72	0xbde18da1	-0.11013342
73	0x3cf19588	0.029490247
74	0x3da0c057	0.07849186
75	0xbcdfbef6	-0.027312737
76	0x3cbafbfa	0.02282523
77	0xbd647bcf	-0.055782136
78	0x3d19756d	0.0374655
79	0xbdd0b7ff	-0.101913445
80	0x3dacbd37	0.08434527
81	0x3de9f5c3	0.114238285
82	0x3d09de4a	0.033659257
83	0x3c7eadce	0.015544368
84	0xbd0512e9	-0.032488737
85	0x3c0ccbb7	0.008593491
86	0x3dbc5d13	0.0919744
87	0xbb3c401c	-0.0028724736
88	0xbccb79f3	-0.024838423
89	0x3db5a884	0.088700324
90	0x3d9e5dd5	0.07732741
91	0xbc9df581	-0.019282104
92	0xbd70fd3b	-0.05883525
93	0x3d4e54f1	0.050373975
94	0x3cd3dd63	0.025862401
95	0xbdbdf4cd	-0.09275208
96	0xbd7761a4	-0.06039585
97	0xbdad801b	-0.084717
98	0x3ca3cd44	0.01999534
99	0x3d535c36	0.05160161

net.6.weight f4 [100, 100]
0	0xbdef6860	-0.1168983
1	0xbd818192	-0.06323542
2	0x3d02346f	0.031788286
3	0x3d952880	0.072831154
4	0xbd37a4a8	-0.044834763
5	0x3d842783	0.06452849
6	0x3d9475a0	0.07248998
7	0xbd5f95fc	-0.054586396
8	0x3d188a86	0.03724148
9	0xbba75423	-0.0051064654
10	0x3c6c9411	0.014439599
11	0xbd95d6c0	-0.07316351
12	0xbc2d4960	-0.010576576
13	0xbdb18827	-0.08668547
14	0x3d0a7113	0.033799242
15	0x3d31b0d3	0.043381523
16	0xbda9c810	-0.08290112
17	0x3beecf50	0.007287897
18	0xbd41b739	-0.047293875
19	0x3d36da39	0.044641707
20	0x3d56e5e3	0.05246533
21	0xbd836f37	-0.06417697
22	0x3bb8e398	0.0056423657
23	0xbc15c8d2	-0.009142118
24	0x3d89d4a2	0.067300096
25	0xbcec9ef3	-0.028884387
26	0xbd575355	-0.052569706
27	0x3dc00b1f	0.09377121
28	0x3d576e4b	0.052595418
29	0xbc4964d3	-0.012292105
30	0xbc6714b7	-0.01410406
31	0xbd8e4f1c	-0.06948683
32	0xbdd1a3f3	-0.10236349
33	0x3d5d28af	0.053993877
34	0x3d1907b3	0.03736086
35	0xbd6167df	-0.0550307
36	0x3daca6cd	0.08430252
37	0xbdaac63c	-0.083385915
38	0x3d6baed8	0.05753979
39	0x3d87b1ba	0.066256955
40	0xbdf30b91	-0.118674405
41	0xbda99317	-0.08280008
42	0xbcdee7b8	-0.027210101
43	0x3d8945ee	0.06702791
44	0xbc900ae5	-0.01758332
45	0xbc35978b	-0.011083494
46	0xbe0af2a3	-0.13569121
47	0xbd93f3e8	-0.07224256
48	0xbdb60ca1	-0.088891275
49	0xbda3f89d	-0.080064036
50	0x3e061b72	0.13096407
51	0xbd23d8c7	-0.040001657
52	0xbc9597f8	-0.01826094
53	0x3cb911ea	0.02259155
54	0x3cfff3ae	0.031244125
55	0xbcdd7c2f	-0.027036754
56	0xbc2b395f	-0.01045069
57	0x3bd40147	0.006469879
58	0xbd7675db	-0.06017099
59	0x3d3618c9	0.04445723
60	0x3da7c4dc	0.08191845
61	0xbd268225	-0.04065146
62	0x3bc64bbd	0.006051509
63	0x3d8db6a0	0.069195986
64	0xbb471b5f	-0.0030381305
65	0xbd52686c	-0.051369116
66	0xbd276855	-0.040870983
67	0xbda11ec7	-0.078671984
68	0xbde48678	-0.111584604
69	0xbba44a8b	-0.005013769
70	0xbc0479ae	-0.008085651
71	0xbdd4d791	-0.103926785
72	0xbbf918e2	-0.007601843
73	0x3ca3c7a7	0.019992663
74	0xbd963e3d	-0.0733609
75	0xbdedd5bc	-0.11613032
76	0xbda403a8	-0.0800851
77	0x3d16856e	0.036748342
78	0x3d48e133	0.04904289
79	0xbd25e883	-0.040504944
80	0xbdcbaa10	-0.09944546
81	0xbc909efb	-0.017653933
82	0xbd64c67a	-0.055853345
83	0x3d0377b1	0.03209657
84	0x3dc1c9e1	0.094623335
85	0xbc86b789	-0.016444938
86	0xbc9b8941	-0.018986346
87	0xbc84baad	-0.016202295
88	0xbd98df3f	-0.07464456
89	0xbdc9d4eb	-0.09855064
90	0xbd9efe35	-0.0776333
91	0xbd9461ee	-0.07245241
92	0xbd8dc5ec	-0.06922516
93	0x3d9a60b0	0.07537973
94	0x3db7d094	0.0897533
95	0x3d597784	0.053092495
96	0xbd9912e5	-0.07474307
97	0x3d4af486	0.049549602
98	0x3d517e3a	0.05114577
99	0xbd158602	-0.036504753
100	0x3ce33600	0.02773571
101	0x3d7052a7	0.058672573
102	0xbd8bb90d	-0.06822405
103	0xbde555db	-0.11198016
104	0x3d263e68	0.04058686
105	0xbce4afa0	-0.027915776
106	0xbd7e961f	-0.062154885
107	0xbd983871	-0.0743264
108	0x3d90f530	0.07078016
109	0x3c24ab9d	0.010050681
110	0xbdd2bfc0	-0.1029048
111	0xbd78606b	-0.060638826
112	0x3d465e3f	0.048429724
113	0x3d598c6e	0.05311244
114	0xbc4e753a	-0.012601191
115	0xbd9c0206	-0.076175734
116	0x3de0da5d	0.109791495
117	0xbd6e3872	-0.0581593
118	0xbd72a045	-0.059234876
119	0xbd95bf1f	-0.07311844
120	0xb9e27c4f	-0.00043198696
121	0xbc3ccb6a	-0.011523107
122	0x3e009d0b	0.12559907
123	0x3cf27ef8	0.029601559
124	0x3dc84b37	0.09779971
125	0x3da0652c	0.07831797
126	0x3c072c88	0.008250363
127	0xbe3bf8f4	-0.18356687
128	0x3d9b77ed	0.075912334
129	0x3d3c676b	0.045997065
130	0x3c73b720	0.014875203
131	0xbc8cd6be	-0.01719224
132	0xbd714f67	-0.058913615
133	0xbd8811b5	-0.06644002
134	0x3c78078f	0.015138521
135	0xbcfea5d2	-0.031084929
136	0x3b03934b	0.0020076807
137	0x3d1cc004	0.038269058
138	0x3cb5eacd	0.022206688
139	0x3d7a8e4f	0.061170872
140	0x3de55a16	0.11198823
141	0xbc1a242c	-0.009408038
142	0x3db7819c	0.08960268
143	0x3c960624	0.018313475
144	0x3d58fda3	0.05297626
145	0xbdc8f9a5	-0.09813241
146	0xbcd5c222	-0.026093546
147	0x3dc7fbbf	0.09764814
148	0xbcc1e6da	-0.023669649
149	0xbd2f2f88	-0.04276994
150	0xbdd66865	-0.104691304
151	0x3d89a097	0.06720083
152	0xbc3740ce	-0.011184884
153	0x3dffe2d6	0.124944374
154	0x3d89a587	0.06721025
155	0xbd2a6447	-0.04159954
156	0x3dbd1200	0.09231949
157	0x3b866d2d	0.0041023702
158	0xbdf13288	-0.11777216
159	0x3dd517cd	0.1040493
160	0xbc807159	-0.015679048
161	0x3da340b7	0.07971328
162	0xbd38fe30	-0.045164287
163	0xbd383479	-0.044971917
164	0x3cf09f66	0.029372882
165	0x3d803d7f	0.062617294
166	0xbd1a867b	-0.037725907
167	0x3e02d8fe	0.12778088
168	0x3df2ed1d	0.11861632
169	0x3dbed6e3	0.0931833
170	0x3dafcc73	0.085839175
171	0x3c806ae3	0.015675968
172	0x3d89f370	0.06735885
173	0x3d482fa1	0.048873547
174	0x3d111c3f	0.03542733
175	0x3d4af49f	0.049549695
176	0x3dcd97de	0.10038732
177	0xbdc2975e	-0.09501527
178	0x3dd7a2cf	0.105291
179	0xbd96f5a5	-0.07371072
180	0x3d6193da	0.055072643
181	0x3dc4ca72	0.09608926
182	0xbd4d19d9	-0.05007348
183	0xbd974fcc	-0.07388267
184	0xbdc68364	-0.096930295
185	0xbddbe9e6	-0.10737972
186	0x3d236020	0.039886594
187	0xbe0102b0	-0.12598681
188	0x3d9b26c5	0.07575754
189	0xbd5df31e	-0.054186933
190	0x3de53982	0.11192609
191	0xbdbe5e2f	-0.09295308
192	0x3db25feb	0.08709701
193	0x3d66c99f	0.056344625
194	0xbd62197b	-0.05520008
195	0xbd1dd863	-0.03853644
196	0x3b84a4a7	0.0040479484
197	0xbb00cef3	-0.0019654601
198	0xbd629ee4	-0.05532731
199	0xbdb4f9aa	-0.08836682
200	0xbdd9c80f	-0.10633861
201	0x3d08bb01	0.033381466
202	0x3d55f09b	0.052231412
203	0xbda3799c	-0.079821795
204	0xbc7e1be3	-0.015509578
205	0x3d55f8ca	0.052239217
206	0x3bf732a9	0.007543881
207	0x3db7757f	0.089579575
208	0xbd92a9ae	-0.0716127
209	0xbd37ee20	-0.044904828
210	0xbcebd847	-0.028789653
211	0x3da1b403	0.07895663
212	0x3d3bac4e	0.04581862
213	0xbd2763c0	-0.040866613
214	0x3d223bde	0.039607875
215	0xbd2b1a82	-0.041773327
216	0x3db20083	0.08691504
217	0x3d6c20ff	0.057648655
218	0xbdb9f3ac	-0.0907968
219	0xb987dfab	-0.00025915852
220	0x3d8d5e0c	0.06902704
221	0xbdb7ad75	-0.08968631
222	0x3d0e7b73	0.0347857
223	0x3d54c120	0.05194199
224	0xbdb29f08	-0.08721739
225	0x3d636572	0.055516668
226	0xbd8277c9	-0.063705035
227	0x3bc5d5f6	0.006037469
228	0xbe01f8e7	-0.12692605
229	0xbc57e5f0	-0.01317738
230	0xbd93eace	-0.0722252
231	0xbd849c5f	-0.06475138
232	0x3d3d76c2	0.046255834
233	0x3d68df2f	0.05685347
234	0x3c7c46f0	0.015397772
235	0xbdcf3369	-0.101172276
236	0xbdd1a938	-0.10237354
237	0x3d802253	0.06256547
238	0x3d92d613	0.07169738
239	0xbcdc7535	-0.026911357
240	0xbda8f022	-0.08248927
241	0x3a88d7e5	0.0010440318
242	0xbd5481c2	-0.05188156
243	0x3cf985b1	0.030459257
244	0x3d99f0a1	0.075165994
245	0x3dd9f7b1	0.106429465
246	0x3e4ff087	0.20306598
247	0x3de188d2	0.110124245
248	0xbc104c98	-0.008807324
249	0xbe1e7ea5	-0.15477999
250	0x3d51b4db	0.051197868
251	0xbd9ad76f	-0.07560622
252	0x3d585b6c	0.05282156
253	0x3d98f43d	0.0746846
254	0xbde2ba2b	-0.11070665
255	0xbdfee8fb	-0.12446781

net.6.bias f4 [100]
0	0xbdc5208a	-0.09625347
1	0xbcdbf39f	-0.026849566
2	0x3ceee2ad	0.029160822
3	0xbc9a1c6c	-0.01881238
4	0xbdc750ec	-0.097322315
5	0xbdba6d8e	-0.09102927
6	0x3d0a81bf	0.03381514
7	0x3c8d8f40	0.017280221
8	0xbd8a6113	-0.06756797
9	0xbb48a30c	-0.0030614762
10	0xbc9fc5f0	-0.019503564
11	0x3dcc5ae9	0.09978277
12	0x3ddfa32b	0.10919794
13	0xbb1ed044	-0.0024233023
14	0xbd03bed6	-0.032164417
15	0xbdb60f05	-0.088895835
16	0xbda042e6	-0.0782526
17	0x3ddb2c86	0.107018515
18	0xbd8e8127	-0.069582276
19	0xbdd2f28e	-0.1030017
20	0xbaa359bf	-0.001246266
21	0x3dbf0bf0	0.09328449
22	0xbd3b5be0	-0.045741916
23	0xbd1b6521	-0.03793824
24	0x3d10155f	0.03517663
25	0x3dc52dcc	0.09627876
26	0x3d6ba3a0	0.05752909
27	0xbd5d0f29	-0.053969536
28	0xbb7fdc7e	-0.0039041336
29	0x3cc6fb7b	0.024289837
30	0xbc3fa4b9	-0.011696988
31	0xbd8d5688	-0.0690127
32	0x3b7698b1	0.0037627632
33	0x3c1cc3c6	0.00956816
34	0xbca0d7c8	-0.019634143
35	0xbd6d9fd0	-0.058013737
36	0x3d294042	0.041321047
37	0x3d9f19e3	0.077686094
38	0x3dc72a07	0.09724813
39	0x3d0e19b8	0.034692496
40	0xbd4b772c	-0.049674198
41	0xbd508906	-0.050911926
42	0xbd845706	-0.06461911
43	0xbd73fe24	-0.05956854
44	0xbdc79c77	-0.0974664
45	0xbd8d8750	-0.069105744
46	0xbd13d380	-0.036090374
47	0x3d9df266	0.077122495
48	0x3dad45de	0.08460592
49	0x3be4376f	0.006964616
50	0x3d02a8f2	0.0318994
51	0xbd249121	-0.04017747
52	0xbd8e201b	-0.069397174
53	0x3dd6684f	0.10469114
54	0xbd556026	-0.052093647
55	0xbbc1bf19	-0.005912673
56	0xbcc06294	-0.023484506
57	0xbdaf0fca	-0.085479334
58	0x3cd14df2	0.025549863
59	0xbb9bb028	-0.004751224
60	0xbbe2e050	-0.006923713
61	0xbd8194eb	-0.06327232
62	0x3c83ec80	0.016103983
63	0x3de046f0	0.1095103
64	0x3d9816fc	0.07426259
65	0x3cf49ba7	0.029859377
66	0xbda99549	-0.08280427
67	0xbdc6dd73	-0.09710207
68	0xbd200728	-0.039069325
69	0xbd7cd5cd	-0.061727334
70	0x3db56543	0.08857205
71	0xbd80ea6a	-0.06294711
72	0x3d61689c	0.055031404
73	0xbd8e2716	-0.06941049
74	0xbdb180f5	-0.08667175
75	0x3d9fbb72	0.07799424
76	0x3dc6fae6	0.09715824
77	0x3dcf1583	0.10111525
78	0xbd82fba9	-0.063956566
79	0x3d88f30c	0.066869825
80	0x3cd47099	0.025932597
81	0xbd949109	-0.07254226
82	0x3d988c3a	0.07448621
83	0xbd84ca4a	-0.06483896
84	0xbe026c89	-0.12736715
85	0x3d243c64	0.040096655
86	0x3da6978c	0.08134374
87	0x3d39a53a	0.045323588
88	0xbcba3569	-0.022730546
89	0x3d5fe526	0.054661892
90	0x3ced4039	0.028961288
91	0x3d8571f1	0.06515873
92	0xbdd3d48d	-0.10343275
93	0xbd149bbe	-0.03628134
94	0xbd5902bf	-0.052981135
95	0x3c2e04e9	0.010621288
96	0x3d8f609f	0.07000851
97	0x3d792265	0.060823817
98	0x3c9939a1	0.018704237
99	0xbda70fe4	-0.08157328

net.8.weight f4 [100, 100]
0	0xbdde59c3	-0.108569644
1	0xbc44d048	-0.012012549
2	0xbcaa42ba	-0.02078377
3	0xbd918bcb	-0.071067415
4	0x3d8af8e3	0.067857526
5	0x3da0bd68	0.078486264
6	0xbda38ca4	-0.079858094
7	0x3d0cc30d	0.034365702
8	0xbc4132eb	-0.011791925
9	0x3d9e7bcb	0.077384554
10	0xbdbbe63c	-0.09174773
11	0xbc2b8d15	-0.010470648
12	0x3ce9d515	0.028543988
13	0x3d3a5ec4	0.04550053
14	0x3da657b0	0.08122194
15	0x3d252abe	0.040323965
16	0x3ca66e85	0.020316372
17	0x3bebd3cc	0.007196879
18	0x3c2628a9	0.01014153
19	0x3d14aa6b	0.036295336
20	0xbd995d59	-0.07488508
21	0x3d211e15	0.03933533
22	0x3ccc90fb	0.024971476
23	0x3d3c4e33	0.045973014
24	0x3a1e73dc	0.0006044486
25	0xbcbd661d	-0.02311998
26	0x3aa8cffe	0.0012879369
27	0x3db15e2d	0.08660541
28	0x3dd44936	0.103655264
29	0x3d9a0d3a	0.07522054
30	0xbb8d883a	-0.004319218
31	0xbd0ef5b7	-0.0349023
32	0x3d846f7a	0.06466575
33	0xbdacb202	-0.0843239
34	0x3d45ca97	0.048288908
35	0x3d6551d1	0.05598623
36	0x3d0b5fc8	0.03402689
37	0x3d002ff7	0.031295743
38	0xbd8c5441	-0.06852008
39	0xbe0262b4	-0.12732965
40	0xbdc69d2e	-0.096979484
41	0xbd1a06f6	-0.037604295
42	0x3d253f04	0.0403433
43	0xbd846956	-0.06465404
44	0xbd9e7ab8	-0.077382505
45	0x3e07fef4	0.1328085
46	0x3d7887dc	0.06067644
47	0xbd6c38f1	-0.05767149
48	0x3ced2765	0.028949449
49	0xbd8b8536	-0.06812517
50	0x3c22296d	0.009897572
51	0x3d87d934	0.06633225
52	0xbd74f563	-0.05980433
53	0x3d2d122e	0.042253666
54	0xbce8d169	-0.028420167
55	0xbda078de	-0.078355536
56	0xbd1b735c	-0.037951812
57	0xbdd91381	-0.10599423
58	0xbdb29826	-0.08720426
59	0x3d82c84f	0.06385862
60	0x3daeb578	0.08530706
61	0xbd1b2942	-0.037881143
62	0xbd66fe1c	-0.05639468
63	0x3b9fe597	0.004879664
64	0xbd8b8de8	-0.06814176
65	0xbc508c94	-0.012728829
66	0xbd43e8c2	-0.047829397
67	0x3d22e5f1	0.03977007
68	0xbd6ac40d	-0.057315875
69	0x3dcfcc93	0.10146441
70	0x3da7db1b	0.08196088
71	0xbdf3c831	-0.11903418
72	0xbdc51085	-0.096222915
73	0xbddc4161	-0.107546575
74	0xbbb66935	-0.005566741
75	0x3d9373e7	0.07199841
76	0xbd10b29e	-0.035326593
77	0xbc3ec4db	-0.011643614
78	0x3d8ea949	0.06965882
79	0x3d0659d9	0.03280053
80	0x3d661a38	0.056177348
81	0xbd8f64da	-0.07001658
82	0xbd831b6f	-0.06401717
83	0x3d3fcc01	0.046825413
84	0x3da0d877	0.078537874
85	0x3c507a57	0.012724481
86	0xbd4528d1	-0.04813463
87	0xbdcea628	-0.100902855
88	0xbb9dc0d0	-0.004814245
89	0xbda20e60	-0.07912898
90	0x3d8dcc81	0.06923772
91	0xbd62b048	-0.055343896
92	0x3d67e2f5	0.056612927
93	0xbd923fca	-0.07141073
94	0x3db7c0c4	0.08972314
95	0xbcc1a481	-0.023638012
96	0x3da73340	0.08164072
97	0x3cfa79e7	0.030575706
98	0x3c6a7d49	0.014312097
99	0x3d7648e7	0.06012812
100	0x3cd54eee	0.026038613
101	0x3b1164d4	0.0022185342
102	0xbd19ca92	-0.0375467
103	0x3d8a8e67	0.06765442
104	0x3d3412f5	0.04396339
105	0x3c9cee41	0.019156577
106	0xbdb2c0e3	-0.087281965
107	0xbd2b0393	-0.041751456
108	0xbde4e604	-0.111766845
109	0xbd81003d	-0.062988736
110	0x3d5d0fbc	0.053970084
111	0x3d6312ce	0.055437855
112	0x3d36dc67	0.044643786
113	0xbc2588be	-0.010103403
114	0xbd2fc9a3	-0.042916905
115	0xbb32e3f8	-0.0027296524
116	0x3d49c61f	0.04926121
117	0x3dc40aa7	0.09572344
118	0x3c443b4e	0.01197703
119	0xbd7b9894	-0.061424807
120	0xbceebf28	-0.029143885
121	0xbd9e8b58	-0.077414215
122	0x3da54545	0.08069853
123	0x3d637ca5	0.055538792
124	0xbd721079	-0.05909774
125	0xbca8cd9e	-0.020605858
126	0x3dbe54fa	0.09293552
127	0xbdef9873	-0.11698999
128	0x3ccf6862	0.025318328
129	0xbd9f6fa4	-0.07784966
130	0xbc3b3a66	-0.0114274975
131	0xbd088aa8	-0.033335358
132	0xbda74fad	-0.08169494
133	0xbd8d5d52	-0.06902565
134	0x3c39d5ff	0.011342525
135	0x3dcc6a54	0.09981218
136	0x3d70e995	0.05881651
137	0x3d842c65	0.0645378
138	0xbd7683cc	-0.060184285
139	0xbcb89ea7	-0.022536589
140	0xbda46112	-0.08026327
141	0xbceae071	-0.028671475
142	0xbdacd402	-0.08438875
143	0x3d5ade87	0.053434875
144	0xbda5cbea	-0.08095534
145	0xbd5ae392	-0.053439684
146	0x3db74f2c	0.08950648
147	0x3dd9ccf8	0.10634798
148	0xbde1c8b5	-0.1102461
149	0x3da80784	0.082045585
150	0xbdea8965	-0.11451987
151	0xbdb151da	-0.0865819
152	0xbdf8a7f9	-0.12141413
153	0xbd00a657	-0.031408634
154	0x3da0ccd3	0.07851567
155	0xbd03221e	-0.03201496
156	0x3d0830fa	0.033249833
157	0xbd1ab41b	-0.03776942
158	0xbc7cb3af	-0.015423699
159	0xbd61871e	-0.0550605
160	0x3dd8e643	0.10590794
161	0x3d5c384a	0.05376462
162	0x3dd659d2	0.104663506
163	0xbd448369	-0.047976885
164	0x3d87b069	0.066254444
165	0x3d674ec5	0.056471605
166	0x3d04084b	0.03223447
167	0xbd89a482	-0.067208305
168	0xbccf5c02	-0.025312427
169	0xbd3ea40d	-0.04654317
170	0xbc82df80	-0.015975714
171	0xbe00f5de	-0.12593791
172	0x3c395097	0.011310718
173	0xbd1e2f19	-0.038619135
174	0xbda032b2	-0.07822169
175	0xbde354d2	-0.111001626
176	0xbd6d37b0	-0.057914436
177	0xbd2f41c0	-0.042787313
178	0x3c367b2f	0.011137768
179	0xbd422183	-0.04739524
180	0xbdf1f4cf	-0.11814272
181	0xbc6608c7	-0.014040179
182	0xbcc9b259	-0.024621176
183	0xbd59e57b	-0.053197365
184	0xbda778a8	-0.0817731
185	0xbcfa2063	-0.030533021
186	0xbcdf8dda	-0.02728932
187	0xbd5672fe	-0.05235576
188	0xbbd6a657	-0.006550591
189	0x3d028b2f	0.031871017
190	0xbba97b7e	-0.005172192
191	0xbd183c09	-0.03716663
192	0xbd0e23d1	-0.034702126
193	0xbe145429	-0.1448523
194	0xbddbd2dc	-0.107335776
195	0xbc972487	-0.018450035
196	0x3d60236e	0.05472129
197	0xbce6f652	-0.028193627
198	0xbd26d18c	-0.040727183
199	0x3c60a2df	0.0137107065
200	0xbc0ff984	-0.0087875165
201	0xbc9550bc	-0.018226974
202	0x3dd97005	0.10617069
203	0xbe884801	-0.26617435
204	0x3e5628cd	0.20914002
205	0x3e6c6943	0.23087029
206	0xbd302c6a	-0.043011107
207	0xbd3f572f	-0.046714004
208	0x3dd24169	0.10266382
209	0x3ce52d47	0.027975691
210	0x3d56d8d6	0.052452885
211	0x3d4de46e	0.050266676
212	0xbec4f9d2	-0.38471848
213	0xbd0dd0ae	-0.03462284
214	0xbd1b228b	-0.03787474
215	0xbd2ff663	-0.042959582
216	0x3d8435cd	0.06455574
217	0xbd42528e	-0.04744201
218	0x3d67d43f	0.056598898
219	0xbd3069e7	-0.043069746
220	0x3e468c58	0.19389474
221	0xbcdd20b2	-0.02699313
222	0x3e6db716	0.23214373
223	0x3d7fa947	0.062417295
224	0x3dac124c	0.08401927
225	0x3e02ae67	0.12761842
226	0xbda2bfda	-0.07946749
227	0x3d98a456	0.074532196
228	0xbd57bd02	-0.052670486
229	0xbe322ad2	-0.17399147
230	0xbd22a976	-0.03971239
231	0x3dbd5989	0.09245593
232	0x3c94a32b	0.01814421
233	0xbb8ce2e5	-0.004299509
234	0x3bf60933	0.007508421
235	0x3e80c83e	0.25152773
236	0x3d8cdbbd	0.06877849
237	0xbd8475e4	-0.06467798
238	0xbd650ddc	-0.05592142
239	0x3dd76d04	0.1051884
240	0x3e23c19b	0.15991823
241	0xbe2c1441	-0.16804601
242	0xbcd32bd1	-0.02577773
243	0x3e59187c	0.21200746
244	0x3e2ad9bb	0.1668462
245	0xbd3b69ed	-0.045755316
246	0xbd8e0a20	-0.06935525
247	0x3d1e5fd8	0.038665622
248	0xbb9e7c9a	-0.004836631
249	0xbe4d9d3e	-0.20079514
250	0x3dea5e4e	0.114437684
251	0x3dd77073	0.10519495
252	0x3cf8e2c1	0.030381562
253	0xbe0c8df9	-0.13726033
254	0x3e03f8b7	0.12887846
255	0xbd8aeb79	-0.06783194

net.8.bias f4 [100]
0	0x3dc67f18	0.0969221
1	0x3dac2060	0.084046125
2	0xbd22e46a	-0.039768614
3	0x3dbf74c5	0.09348444
4	0x3d8af1e7	0.067844205
5	0x3d4cbe63	0.049986254
6	0x3de58301	0.11206628
7	0xbbb9c564	-0.0056692827
8	0xba7a2863	-0.0009542761
9	0x3c317a50	0.010832384
10	0xbcbed616	-0.023295444
11	0xbdcd1cd2	-0.10015263
12	0x3baf9e3f	0.0053594406
13	0x3db2de9e	0.08733867
14	0xbce308d8	-0.027714178
15	0xbd911cd7	-0.07085579
16	0xbcb254dd	-0.021768982
17	0x3c53856a	0.012910226
18	0xbcb3bdbf	-0.021941064
19	0x3d83bc7f	0.06432437
20	0xbd737f2e	-0.05944746
21	0xbdc54746	-0.09632735
22	0xbd31e1ab	-0.043428104
23	0x3d21684b	0.039406102
24	0xbd217517	-0.039418306
25	0x3d4aee8e	0.04954391
26	0x3c57e7a5	0.013177787
27	0x3c984f1b	0.018592408
28	0xbdb6f201	-0.08932877
29	0xbd872c5a	-0.06600256
30	0x3d886234	0.06659356
31	0xbdd5ae34	-0.10433617
32	0x3df80572	0.121104136
33	0xbcc966cf	-0.024585156
34	0xbd940cfa	-0.072290376
35	0x3dc6b03c	0.09701583
36	0x3dcfcbfd	0.101463296
37	0x3c2ba159	0.01047548
38	0x3ceaec7d	0.02867722
39	0xbc115672	-0.008870708
40	0x3d9debd7	0.077109985
41	0xbd2d7310	-0.04234606
42	0x3dbeec81	0.09322453
43	0x3cd511be	0.026009437
44	0xbb5ad988	-0.003339382
45	0xbc8c1a78	-0.017102465
46	0xbc3e9d9a	-0.011634255
47	0xbc7f3214	-0.015575904
48	0xbd1a0fd2	-0.037612744
49	0x3d9377f8	0.072006166
50	0x3d260da8	0.040540367
51	0xbd924855	-0.071427025
52	0xbc88b8b4	-0.016689636
53	0xbd970218	-0.07373446
54	0xbd76fe43	-0.060301077
55	0x3cc86aa0	0.024464905
56	0x3d1ebe1d	0.038755525
57	0x3d0ec9ec	0.034860536
58	0x3d565b82	0.052333362
59	0x3c932aa0	0.017964661
60	0xbce0c4c5	-0.027437577
61	0xbdc6c577	-0.09705632
62	0x3c20c63a	0.009812886
63	0xbc374a43	-0.011187139
64	0x3ce8f3bf	0.02843654
65	0xbd62001c	-0.055175886
66	0xbdb73ae4	-0.08946779
67	0xbd0b2577	-0.033971276
68	0x3cbe3205	0.02321721
69	0xbd8e99a7	-0.069629006
70	0x3da5dc48	0.08098656
71	0x3cebb47b	0.028772583
72	0xbccb2b67	-0.02480097
73	0x3d7a589e	0.06111967
74	0xbda6f5f4	-0.081523806
75	0xbd506546	-0.050877832
76	0xbd9d7329	-0.07687981
77	0x3d93acc0	0.07210684
78	0x3dc2a1ed	0.09503541
79	0xbc36dc11	-0.011160866
80	0xbc1e99f0	-0.009680256
81	0x3d0dd47f	0.03462648
82	0x3d92d1d0	0.07168925
83	0x3d850edb	0.06496974
84	0x3b3cfe1f	0.0028837991
85	0x3da141ed	0.078739025
86	0x3da9be62	0.08288266
87	0xbc07bb05	-0.008284335
88	0xbc933041	-0.017967345
89	0xbb8f5059	-0.004373592
90	0xbd75c8a9	-0.060005818
91	0xbd901ffe	-0.07037352
92	0xbd39bcea	-0.045346178
93	0xbd175c6e	-0.036953382
94	0xbdb65013	-0.08901992
95	0x3d005861	0.031334285
96	0xbdc21886	-0.09477334
97	0xbd1d4206	-0.038393043
98	0xbd8f2b7b	-0.06990715
99	0xbcdf3a11	-0.027249368
