models/poisson/tanh/poisson_04.pth (torch, 339061 bytes, 51 tensors)

net.0.weight f4 [50, 2]
000000 1b 6f 09 3e 2a 35 f6 3e 7b 51 17 be 8f 11 14 3f
       0.1342129 0.48087436 -0.14777176 0.5783929
000010 17 39 14 3f 38 3a 8d be 3c ca 08 3f 9c 3e 8d bb
       0.5789961 -0.2758348 0.53433585 -0.004310442
000020 d9 75 1b bf 29 e5 29 bf 81 8c 1b 3f 57 ad 3b 3f
       -0.60726696 -0.66365296 0.60761267 0.7331137
000030 38 74 b3 3e 18 5b 98 bd 6b bb 4f bc 74 bc 43 bf
       0.35049605 -0.0743925 -0.012678961 -0.7645943
000040 e0 e9 39 3f 06 97 07 3f b8 13 a9 3e 44 63 d1 3e
       0.7262249 0.5296482 0.33022857 0.40896046
000050 f6 c9 2a bf e6 63 2f bf 13 6b a5 be 10 a6 a8 be
       -0.6671442 -0.6851181 -0.32308254 -0.32939196
000060 d4 42 16 3f 55 4f a0 bd be f2 b3 3e a0 6a 3e bb
       0.5869572 -0.078276314 0.35146135 -0.0029055253
000070 fa 58 22 bf 65 f2 1a bf e4 90 80 3e b1 03 bc be
       -0.6341702 -0.60526115 0.25110543 -0.36721566
000080 97 7e 8e 3d 18 52 86 3e 0f 1a 2c bf 4f b0 13 3c
       0.06957739 0.26234508 -0.6722726 0.009014203
000090 48 c2 78 be 51 0e fe 3d 81 11 af 3e 0d fc f3 3d
       -0.24292862 0.124050744 0.34193042 0.11913309
0000a0 8b 1d 13 3f 7b 45 48 3d 84 10 45 bd c5 bb 11 3e
       0.57466954 0.048894387 -0.048111454 0.14231785
0000b0 46 fb 35 3e 2c b3 2c bf c6 61 32 bf d4 06 2c bf
       0.17771634 -0.67460895 -0.6968044 -0.6719792
0000c0 90 82 51 3c 73 10 9b 3d e6 62 6c 3e 67 6a a5 be
       0.012787476 0.07571497 0.23084602 -0.3230774
0000d0 16 0e 9c be 9d 33 ea be 42 08 d6 be aa c3 f6 be
       -0.30479497 -0.45742503 -0.41803175 -0.48196155
0000e0 c8 bb 96 be 31 a3 fd 3e 9f 42 ae be 22 13 f5 be
       -0.2944014 0.49538568 -0.34035203 -0.4786616
0000f0 b5 e2 dc be e6 68 14 bf 5d 64 08 bf d7 09 ce be
       -0.43141714 -0.5797256 -0.5327814 -0.40241882
000100 d4 70 1a 3e c5 a7 12 bf 99 0b e0 3e 65 82 27 bf
       0.15082103 -0.57287246 0.43758848 -0.6543334
000110 1a 69 94 3e 48 76 1c bc 27 11 00 3f 51 86 7d bd
       0.28986436 -0.009549685 0.5002617 -0.061895672
000120 ab d0 0c 3d e7 52 62 be 13 b8 08 3f 1c bf 26 3f
       0.03437869 -0.22101937 0.53405875 0.6513536
000130 78 dd 14 be 3b d0 ad 3e 55 89 0a bf 12 14 41 bd
       -0.14537609 0.3394793 -0.541158 -0.04713828
000140 22 44 e4 3e c6 25 f1 3d 9d ba 56 3e 87 0e 2f 3f
       0.4458323 0.11774783 0.20969625 0.6838154
000150 a3 20 56 3d 03 8f 29 bd a6 60 35 3e 50 d2 3f bf
       0.05227722 -0.041396152 0.1771265 -0.74930286
000160 ee 0e 72 be 9a 0a 0b bf 4a a4 b6 3e 91 a2 d8 be
       -0.23638508 -0.5431305 0.35672218 -0.42311528
000170 a5 8c 2d bf 6d fa c4 3e d7 d3 37 3f 4b 65 c9 be
       -0.6779273 0.3847231 0.71807617 -0.39335093
000180 bc 82 2e 3f 17 7c c2 be fc 86 06 bf e7 39 0d 3f
       0.68168235 -0.37985298 -0.5254972 0.55166477

net.0.bias f4 [50]
000000 bc aa 94 3e b8 53 a0 be 89 3f a5 3e 8e 3f f4 3e
       0.2903651 -0.31313872 0.32275036 0.47704738
000010 46 79 67 bc e6 53 c5 3e 37 c0 0c be 8d d6 ae be
       -0.014128035 0.38540572 -0.13745199 -0.34148064
000020 6a a9 87 3d 44 64 1f bf 9c 96 7e 3e c6 e8 d0 3e
       0.0662411 -0.6226237 0.2486214 0.40802592
000030 d4 53 91 be 28 8c ca 3e 93 31 1f 3e 89 ed e7 be
       -0.28384268 0.39560056 0.15546255 -0.45298412
000040 67 da d4 3e f8 5b 84 be 57 31 04 3f b3 3e fe 3d
       0.41572878 -0.25851417 0.51637787 0.12414303
000050 66 ce 3a bf c7 a2 76 3a 44 40 df 3d 44 b1 ec 3e
       -0.7297119 0.0009408411 0.109009296 0.46228993
000060 a5 e3 2a 3f 4e 66 ba 3e c0 c2 1f 3f 48 f8 0a 3f
       0.6675361 0.36406177 0.6240654 0.542851
000070 c6 06 c4 bc b7 7a 15 3e d1 ed 35 3e 56 d7 9c 3e
       -0.023929011 0.14597593 0.17766501 0.30633038
000080 84 8f 0c 3f e4 63 cf 3e cc f7 1a bf 9d 3d b8 be
       0.5490649 0.40505898 -0.6053436 -0.35984507
000090 98 22 cd 3e a4 d8 f1 3e 4e 5c 9c 3e 6e 4a 07 3f
       0.40065455 0.47235596 0.30539173 0.52847946
0000a0 02 35 21 3f ba 84 03 be 68 fe 03 3f cc f6 3f 3e
       0.6297151 -0.128436 0.5156007 0.1874649
0000b0 e7 4c 5e be 21 e1 19 bf 23 79 ea be da 2a f9 be
       -0.21709023 -0.60109144 -0.45795545 -0.48665506
0000c0 c6 aa c6 3e d9 ec 21 3f
       0.38802165 0.63252026

net.2.weight f4 [50, 50]
000000 52 2b 95 bc 04 4c 9f bd 4a ee 3f bd 1f d8 17 3d
       -0.018209133 -0.07778171 -0.04685811 0.037071344
000010 ca 09 a0 3d 79 c7 df bd 85 95 0c be 19 e8 ac 3c
       0.07814367 -0.10926718 -0.13728912 0.021106767
000020 e3 ce de bb 9a 96 3e be 08 67 e9 3c 8d e7 bf bd
       -0.006799565 -0.18612137 0.028491512 -0.09370337
000030 71 21 11 be 57 51 12 bd 67 ce e9 bd 37 2f 1a 3d
       -0.14172913 -0.035722103 -0.11416321 0.037642684
000040 8c 58 cf 3d a3 01 0a 3e 9a 82 de 3d 74 f6 c3 bd
       0.10124311 0.13477187 0.10864754 -0.095684916
000050 56 eb d1 bd 93 d9 6f bd 2b ce 02 3c cc ac e1 bc
       -0.10249965 -0.058557104 0.007983725 -0.027548216
000060 df 63 93 3a 98 66 d9 3c a8 c4 92 3d 4a e0 07 3e
       0.0011244974 0.026538178 0.071664155 0.13269153
000070 81 ef 02 3e 4a 01 7d bc 27 de c8 3d 4c 44 d6 3d
       0.12786676 -0.015442202 0.09807997 0.10462245
000080 7e 87 a1 bc 20 60 df 3c fa 13 a4 bc 13 0f c7 3d
       -0.019717928 0.027267516 -0.020029057 0.09719672
000090 08 be 0e 3e ee fc fc 3d 3f e7 f9 bd 80 33 81 bc
       0.13939679 0.1235293 -0.1220231 -0.015771627
0000a0 1b db 39 3d 5f b6 bf 3c ca b6 88 3d 94 97 cc bd
       0.04537497 0.023402391 0.06675489 -0.09989849
0000b0 6a 4d 25 3b a8 c0 c1 bd 81 45 c3 bd 3a fc 04 be
       0.0025223144 -0.094605744 -0.09534741 -0.12986842
0000c0 54 aa 49 bb 38 cf 57 bd 1b 5d f8 bd 75 f0 fa bd
       -0.003077169 -0.052687854 -0.121271335 -0.12252895
0000d0 76 25 20 3e 02 f5 72 3c f8 fd 35 3c e5 01 52 bb
       0.1563929 0.014828922 0.011107914 -0.0032044586
0000e0 a1 5a f7 3d 2a 01 2e 3d 6e 68 0c 3e fb d0 d8 3c
       0.12077833 0.04248158 0.13711712 0.026466837
0000f0 c6 58 ff bd 0b 6b da 3d f9 d7 e0 bd 45 0d fa bd
       -0.12468104 0.10664948 -0.109786935 -0.12209562
000100 62 95 f5 3d b6 84 0c be 23 73 c2 3c ef dc 07 3d
       0.11991383 -0.137225 0.023736542 0.033169683
000110 1d 71 70 bc b1 34 9c 3b 7c 8a 94 bb ee f1 50 bd
       -0.014675406 0.0047670235 -0.00453311 -0.051011972
000120 b9 98 cd bd e3 07 b5 3c 26 44 95 bd 57 f8 38 3c
       -0.10038895 0.022098487 -0.07288389 0.011289678
000130 86 89 ff 3d 82 d3 6d 3c 2f 5f f6 3c e1 49 a1 bd
       0.124774024 0.014515759 0.030074684 -0.078754194
000140 27 3e 93 3d 89 c4 3e 3d cc e2 0f 3e 68 4a d5 bd
       0.07189589 0.04657415 0.1405136 -0.104145825
000150 d7 ec f3 bd 2c 66 b5 3d 3e a0 eb 3d 46 7b e1 3d
       -0.11910408 0.08857378 0.11505173 0.11009841
000160 9e 75 25 bd 45 8d e0 3d a2 ea a4 bc 79 48 69 bb
       -0.04039537 0.10964445 -0.020131413 -0.0035596176
000170 10 7e b2 3d 1e d3 03 bd 53 e5 fc 3c 03 f3 1b be
       0.08715451 -0.03218376 0.030871069 -0.1522942
000180 d9 c1 f7 bd e1 8e b6 3d 20 54 81 3c 32 cf ce bd
       -0.120975204 0.08913971 0.015787184 -0.10098113
000190 20 2f 21 3d fa 3f 7b bd 86 12 76 3d a5 e2 d7 3c
       0.039351583 -0.06134031 0.06007626 0.02635319
0001a0 95 c0 cc 3b d2 d1 fc bd e7 32 32 bd ff 33 15 3d
       0.0062485435 -0.123447075 -0.043505576 0.03642654
0001b0 51 b3 83 bc bb 13 eb bd 56 90 e2 bc d3 b4 fa 3c
       -0.016076716 -0.11478373 -0.027656715 0.030603802
0001c0 f7 dd 24 3d fd ec 33 bd f9 23 50 bc f2 c9 12 3e
       0.040250745 -0.04392718 -0.012703889 0.14334849
0001d0 c7 ce b8 3d 4c 68 a2 3d 31 e3 df 3c 47 c7 b0 3b
       0.09023815 0.07930049 0.027330013 0.0053948495
0001e0 63 6c b3 3d 9f d9 15 be ce 84 c3 bd d4 8e 0e be
       0.087609075 -0.14633797 -0.09546815 -0.13921672
0001f0 39 47 7c 3d 1f cb 9f 3d 10 47 96 3d 25 f2 9f 3d
       0.06159136 0.07802414 0.07337773 0.07809857
000200 b8 bd 92 3d 65 b7 be bc e2 6d 9f bb 33 fb 22 3d
       0.07165092 -0.023280809 -0.004865394 0.039790343
000210 8c aa 00 be ad e8 c4 bd 9a df 90 bd 32 04 c4 3d
       -0.12565058 -0.09614692 -0.070738986 0.09571113
000220 5d 60 88 3b b6 2c 77 bd 4f fe 13 bc e8 a2 b7 bd
       0.004161878 -0.060345374 -0.0090328 -0.08966619
000230 c0 77 f0 3b 39 5f 7b bd 2b d9 83 3c bc 38 5b bd
       0.007338494 -0.06137011 0.016094765 -0.053520903
000240 56 e9 ed bb 88 96 3f 3d da e0 be bb 0b 5a df 3d
       -0.007260482 0.046774417 -0.0058251442 0.10905846
000250 c6 32 2e 3d 21 1c 8e 3d f2 3a c9 3d 38 5a 62 bd
       0.04252889 0.06938959 0.09825696 -0.05526182
000260 8f 33 93 3c 5e 91 ef 3d 8a 77 3a 3d ae 95 c7 3d
       0.017968921 0.116976485 0.045524158 0.09745346
000270 49 b0 db bd 95 4f 83 3d 53 24 87 3b 51 ca 35 3d
       -0.10726983 0.064116634 0.004124203 0.044382397
000280 b0 8b 15 bd 40 4c c8 bd d8 54 11 be 9b 14 f1 bc
       -0.03651017 -0.097801685 -0.14192522 -0.02942877
000290 21 f2 fd bd bc 37 8e b9 3f 94 32 3d 65 be 4d bd
       -0.12399698 -0.00027125876 0.04359841 -0.050230402
0002a0 87 26 f5 bc f1 e4 e7 3d 24 dc db bc 8d 2f 36 3d
       -0.029925598 0.11322964 -0.02683837 0.04447894
0002b0 4b db 16 be 4e 8f fd bc 31 c2 17 3d a4 9a 15 be
       -0.14732091 -0.030952122 0.03705043 -0.14609772
0002c0 77 1d ad bd cf a4 df bd 9c f8 eb 3d 21 9d af bd
       -0.084528856 -0.109201066 0.11522028 -0.08574892
0002d0 97 c5 cc 3d e0 bd 58 3b 28 bf 4d 3d c7 2b 1f 3e
       0.09998625 0.0033072159 0.05023113 0.15544043
0002e0 c0 46 cf bd 8b 00 95 bd 54 c2 ba 3d b5 67 9e 3d
       -0.10120916 -0.07275494 0.091190964 0.07734624
0002f0 0d 64 3d bd 92 4c 11 3e 62 15 4b 3c 56 e7 0e be
       -0.046237994 0.14189366 0.012395235 -0.13955435
000300 0b 77 c3 bd 66 f2 17 be 0e 5b f0 3c 45 7a f3 3d
       -0.0954419 -0.14838561 0.029340293 0.118885554
000310 a1 4b 0e 3d e9 d2 26 be 93 73 b0 3d ed 45 1a 3d
       0.034740094 -0.16291393 0.08615794 0.037664343
000320 1a ec a6 3d 49 34 4d 3a 9d 56 8f bd 69 c3 18 3e
       0.081505015 0.00078279205 -0.06998942 0.14918293
000330 40 a2 ed bd 8e de e4 bd a4 49 98 3d a9 68 8d b9
       -0.11603212 -0.111752614 0.07435921 -0.00026971594
000340 12 16 7d 3d 23 76 00 bd b3 99 a1 bd 86 df 0a 3e
       0.061788626 -0.031362664 -0.07890644 0.1356183
000350 61 45 e5 ba 32 a9 d5 ba be b9 fa 3a 9a 72 8a bd
       -0.001749199 -0.0016301034 0.0019128842 -0.0676014
000360 81 9a e4 3c cd 91 10 be 16 01 e6 bd 51 e5 d6 3c
       0.027905704 -0.14118119 -0.11230676 0.026232393
000370 41 52 6e bd 25 11 37 bd 84 ec 18 bc ed 0a 89 bd
       -0.058183912 -0.044694085 -0.0093337335 -0.06691537
000380 f2 91 d3 bd 28 2f 56 3e 0c 7d b7 3d ad ad a8 bd
       -0.10330571 0.20916426 0.08959398 -0.08236251
000390 3c 76 97 3d b4 c8 87 bd 33 b3 09 bc 05 3a ae 3d
       0.07395598 -0.06630078 -0.008404541 0.0850716
0003a0 aa 65 36 3d fb 89 b7 bb 9c 96 83 bd 9d 4e 26 3d
       0.04453055 -0.0056011654 -0.06425211 0.040602315
0003b0 04 b2 f3 bc e9 a6 31 bd e4 b9 71 3a b7 97 8e 3b
       -0.02974797 -0.04337207 0.000922112 0.004351582
0003c0 aa 61 d0 ba c3 35 ad 3d bf e6 e9 bd 93 69 d9 bd
       -0.0015898247 0.0845752 -0.114209644 -0.1061584
0003d0 67 7b 07 3d 00 8a 2d bd c6 81 f6 bd d2 d7 64 bd
       0.03307667 -0.042367935 -0.12036471 -0.055869885
0003e0 af 7f 48 3e 79 aa f1 bd 27 b4 9a bd 19 74 8b 3d
       0.19579957 -0.11800093 -0.075538926 0.06809253
0003f0 00 91 91 3d 8c 5f 22 3d 6b 54 22 3d 24 6a 6c bd
       0.07107735 0.0396419 0.03963129 -0.05771841

net.2.bias f4 [50]
000000 e1 90 d3 bd 74 b3 47 3d 13 5e 90 3d a5 e0 93 ba
       -0.10330368 0.048755124 0.07049193 -0.0011282159
000010 8d e8 c6 3c 3f f6 43 3d c5 d6 b6 3d a6 f1 68 3d
       0.02428081 0.04784226 0.08927683 0.05687108
000020 38 43 18 b9 21 62 9e bc c1 08 92 3c 04 83 59 3c
       -0.0001452089 -0.0193339 0.01782644 0.013275865
000030 47 1c 74 bd 70 bc 30 bd 88 09 42 bc c9 3e e4 3d
       -0.05959728 -0.043148458 -0.011843093 0.11144788
000040 70 b4 8b bd ff 43 03 be 8d 2e 53 3d a8 63 04 3e
       -0.06821525 -0.12818907 0.051558066 0.12928641
000050 16 ff bb bd 39 5b dc 3d a4 34 4a 3d 84 be b9 bd
       -0.09179513 0.10759587 0.04936661 -0.09069541
000060 6d 6c 30 3d a8 8f 9f bd ec 8f cb 3d 26 84 18 be
       0.043072153 -0.07791072 0.0993956 -0.1489416
000070 a1 11 04 be 68 df da 3d c8 70 6c 3d 7b 0c fe 3c
       -0.1289735 0.106871426 0.057724744 0.03101181
000080 00 c3 f7 3b 24 79 32 bd 91 34 82 3d 22 e4 45 bd
       0.0075610876 -0.04357256 0.063576825 -0.048313268
000090 e5 62 e7 bd ed 76 63 3b 59 59 d2 bd 0c 43 b6 3d
       -0.112981595 0.0034708336 -0.10270948 0.08899507
0000a0 54 4d 8b bd e1 6a d3 bc d9 d3 7b 3c 31 f6 96 3d
       -0.068018585 -0.0258078 0.015370333 0.07371176
0000b0 1b 6a d4 3d 2a b7 10 be 7b 55 cc 3a 66 5d 88 bd
       0.103718005 -0.14132372 0.001558944 -0.06658439
0000c0 38 71 20 bd 45 8f a2 bd
       -0.039170474 -0.07937483

net.4.weight f4 [50, 50]
000000 88 ff c0 bd ad 09 d4 3d 27 74 0d be 8f 02 15 bc
       -0.09423739 0.10353408 -0.1381384 -0.009094848
000010 07 6e f3 3d d2 e4 3d 3d a9 57 e9 3d 11 0a ca 3a
       0.118862204 0.0463608 0.11393673 0.0015414377
000020 30 0f 58 3d d6 c5 b2 3d e3 0f 91 bc 70 2d 24 bd
       0.05274886 0.087291405 -0.01770777 -0.040082395
000030 f2 cc 1b bd 56 c2 82 3d 80 a6 8c bc 16 5d 64 bd
       -0.038037248 0.06384723 -0.017169237 -0.055752836
000040 a0 b8 a5 bd ce d3 99 bc 82 18 07 3d bc b3 a6 3d
       -0.08091855 -0.018777754 0.032982357 0.0813975
000050 e8 e9 0f be 87 a5 cc bc d2 0d da 3c bb 93 a8 3d
       -0.14054072 -0.024981273 0.026617918 0.08231302
000060 77 f7 19 3e 89 a6 14 3e 5b ee ff 3d bb 07 76 bd
       0.15035807 0.14516653 0.124966346 -0.060065966
000070 d5 3a a8 3d 29 1c 27 3e b0 d5 90 bc 01 9a 02 3e
       0.08214346 0.16319336 -0.01768002 0.1275406
000080 a2 1d 62 bd ea f0 76 3b 78 b7 cf bd 08 06 70 3c
       -0.05520404 0.0037680217 -0.10142416 0.014649875
000090 80 f9 d4 bc 82 5b ac bd 69 50 ed bd f8 d3 8a 3c
       -0.025997877 -0.08415891 -0.11587603 0.016946778
0000a0 ba 12 f7 bd f8 8b 14 3e d0 80 54 3d 35 0d ec 3d
       -0.12064119 0.14506519 0.051880658 0.115259565
0000b0 16 9b 71 bd f4 ad c1 bc be c4 5c bd e4 8a 27 3e
       -0.058985792 -0.023642518 -0.053898565 0.16361576
0000c0 84 6d ff 3d e0 80 2f 3d 24 48 3e bd 0f 1b c2 3d
       0.1247206 0.042847514 -0.046455517 0.09477817
0000d0 11 f9 84 3d cb e3 53 bd 2b 71 a4 3d 5b 17 f0 3c
       0.06492818 -0.051730912 0.080293976 0.029308012
0000e0 ae af b4 3c 49 bb 25 3d 2a 22 08 be 1a 53 c4 3c
       0.022056427 0.040461812 -0.13294283 0.023965407
0000f0 e4 d6 b2 3d 82 60 90 ba 90 79 23 bc 03 75 67 bd
       0.087323934 -0.001101509 -0.009977713 -0.056508075
000100 b8 af b4 3d b9 97 5d bd 19 06 e3 bd 17 6e d4 bd
       0.08822578 -0.054099772 -0.110851474 -0.103725605
000110 5b c9 9c 3d 91 99 ed 3c bd 91 20 be c7 b3 35 3e
       0.07655593 0.02900389 -0.15680595 0.17744361
000120 f2 d4 63 bb cb 3d ea bd 40 cc b5 3d be 6d ae 3c
       -0.0034764376 -0.11437567 0.08876848 0.021292564
000130 b5 82 d8 bd c1 05 62 3d be 0b c7 3d 53 7d 98 bd
       -0.105718054 0.05518127 0.097190365 -0.07445779
000140 5f e5 1e 3e d4 26 23 3e c0 6a 01 bd 72 1c bb bd
       0.15517186 0.1593278 -0.031595945 -0.09136285
000150 27 28 db bd f5 91 6a 3d 61 08 1f 3d 9e 5f 91 bd
       -0.10701018 0.0572681 0.03882635 -0.07098316
000160 4e 17 31 3d ad be 57 bd d5 89 a6 3d da 95 5e 3d
       0.043235116 -0.052672077 0.08131758 0.05434213
000170 c0 8e 9a bc 3f 0d 48 bd c7 c6 83 bd 3a 28 cf 3d
       -0.018866897 -0.048840757 -0.06434398 0.101150945
000180 ba d6 86 3d da 46 c6 bb 40 af 16 3e 65 63 02 3e
       0.065839246 -0.0060509266 0.1471529 0.12733229
000190 9d f1 3f 3d a9 7c d3 3d 17 5f 2a be 8a 3f b4 3d
       0.04686128 0.103265114 -0.16637836 0.088011816
0001a0 fc f8 46 bd 91 1b 47 bd 59 78 94 3d 8d 28 96 3c
       -0.048577294 -0.048610274 0.07249517 0.018329883
0001b0 ae ec 0a bd c6 26 fa bd 2b 48 a2 3d e5 a8 4c bd
       -0.03391712 -0.12214427 0.07923921 -0.049965758
0001c0 ba 6e 06 be dd a0 3a be 84 14 c4 bd 67 c6 ea 3d
       -0.13128176 -0.18225427 -0.095742255 0.114636235
0001d0 64 af 0d be 2a ed 95 bc 3e 20 4f bd e9 38 94 bd
       -0.13836437 -0.018301565 -0.050567858 -0.07237417
0001e0 ae e7 8c 3b a3 29 23 3d 2d 48 ae 3d 68 89 3a 3d
       0.0043000793 0.03983463 0.0850986 0.045541197
0001f0 c8 18 07 be 19 6c 35 3c 9f 11 b8 bc 98 8d c3 3d
       -0.13193047 0.011073136 -0.02246934 0.09548491
000200 ac 47 dc bd 20 4a 18 be 02 fe 19 be d6 c6 53 3d
       -0.10755858 -0.14872026 -0.15038303 0.051703297
000210 ad 61 2f 3d f2 75 11 3c 84 0d ec bc 03 b4 fb bc
       0.04281776 0.008878218 -0.028815039 -0.030725485
000220 40 9a d0 3d f6 91 52 3d 1f 7a 2e 3e 71 f8 00 3e
       0.10185671 0.05140873 0.17038773 0.12594773
000230 ad 53 07 3e c0 16 8f bc a4 4e c6 3d 7a 2f da bd
       0.13215514 -0.017466903 0.09682968 -0.10653587
000240 25 6d d2 3d ac e8 2e 3e 10 da 6b 3c 1e 48 00 bd
       0.10274724 0.17080945 0.014395252 -0.031318776
000250 3e 60 90 bd bd f6 02 3d 65 e1 df bd c2 38 b4 3d
       -0.07049607 0.03197359 -0.109316625 0.08799888
000260 66 12 ae 3d 15 3f e7 3d e1 99 11 bd 8a 41 99 3d
       0.08499603 0.11291329 -0.03554714 0.07483204
000270 1b 5a ef bd ea 59 30 3e 90 21 39 bd f6 4b e5 bc
       -0.11687108 0.172218 -0.045198023 -0.027990323
000280 ff 5f d0 bd c0 fa a1 bc 36 b6 0c be 6c 66 76 3d
       -0.1017456 -0.019772887 -0.13741383 0.06015627
000290 17 4b b9 3b 96 f9 14 bd 49 35 45 bd f4 73 b1 3d
       0.0056547034 -0.036370836 -0.04814652 0.086646944
0002a0 93 92 4c 3e f0 91 2f bd 60 d1 8d 3d 94 16 34 bd
       0.19977789 -0.042863786 0.06924701 -0.043966845
0002b0 33 38 c2 3c f5 c6 98 bd 84 c4 0e bd f1 40 45 3e
       0.023708439 -0.07459823 -0.03485538 0.19263054
0002c0 94 ab f8 3d 07 f5 86 bd b7 74 d7 3d 95 b4 1c be
       0.12142101 -0.06589704 0.105203085 -0.15303262
0002d0 2e 6f dd bd ee b0 d1 bd a3 8f b5 bd c9 16 89 bd
       -0.108122215 -0.10238825 -0.08865287 -0.06693799
0002e0 9e e1 48 bc 66 2b 9e bd 5d a6 32 3e ed 1d 0b 3e
       -0.012260823 -0.07723121 0.17446275 0.13585635
0002f0 50 0e 49 3d 1b d7 b2 bd 06 4f b5 bd aa 03 b7 3d
       0.049085915 -0.08732434 -0.08852963 0.08936246
000300 a1 21 10 3e bf fe 23 3e fe 2a b0 3d e7 45 e4 bd
       0.14075328 0.16015147 0.0860195 -0.11146145
000310 ba 0e 1d 3d e9 83 99 bd 7e fc d2 3d 81 06 ee bd
       0.038344122 -0.07495863 0.10302065 -0.11622334
000320 1d 20 08 bc c2 b9 6a 3d f5 d2 bd 3c 9a 25 3b bc
       -0.008308438 0.05730606 0.023171881 -0.011422539
000330 b3 3b f0 bd b4 0e b3 3c f7 8e 59 3d fd d2 96 bc
       -0.11730137 0.021857597 0.053114858 -0.018411154
000340 15 af a1 bd ef 86 50 bd f6 33 fc 3d a2 f7 af bd
       -0.07894722 -0.050909933 0.12314598 -0.08592154
000350 d9 d0 ea bd e8 35 65 3d 31 7b 06 3c 25 b4 a8 3d
       -0.11465616 0.055959612 0.008208082 0.08237485
000360 ba d3 c8 3d ce 96 a2 bd 78 fc 37 be 18 4b 09 be
       0.09806009 -0.0793892 -0.17967403 -0.13407552
000370 e6 c9 6d bd 2f 25 51 ba 3e af 89 bd 4e ef e4 bd
       -0.058053873 -0.0007978258 -0.06722878 -0.11178456
000380 8d 3a 00 3e 08 47 7f bc 37 d1 ea bd 40 a0 fc bd
       0.12522335 -0.0155809 -0.11465686 -0.12335253
000390 75 d5 0e 3e de e4 76 3e dd 98 16 3e ce 33 b8 3d
       0.13948615 0.24110743 0.1470675 0.08994256
0003a0 58 87 10 3e 70 65 13 bd 59 57 a4 bd 65 46 28 3c
       0.1411413 -0.03598541 -0.08024473 0.01027069
0003b0 c8 d9 9b bd 62 52 eb 3b 55 d3 f1 bd d5 62 5e bd
       -0.07609898 0.0071814517 -0.118078865 -0.054293472
0003c0 33 de 0e be 75 13 a6 3c aa 55 d6 bc b1 2c 89 bd
       -0.1395195 0.02027295 -0.026163895 -0.06697977
0003d0 66 ac aa 3d 86 54 dc 3d 68 a4 10 bd 66 0a a4 bd
       0.08333664 0.10758309 -0.03531304 -0.08009796
0003e0 2a f9 f2 3d 20 2a 97 bd d7 64 14 3d 37 16 61 be
       0.118639305 -0.073810816 0.03622898 -0.2198113
0003f0 21 61 08 be 23 2e 5b bd 34 14 9f 3d d2 92 ce bd
       -0.13318302 -0.053510796 0.07767525 -0.100865975

net.4.bias f4 [50]
000000 dd 25 87 bd ab e1 91 3d c1 b8 fd 3d 4f cc 97 bd
       -0.06599019 0.07123121 0.12388755 -0.07412016
000010 0f 4f e3 bc 7e 65 66 bd 44 51 9c 3c af ea 22 3d
       -0.027747659 -0.056249134 0.01908172 0.039774593
000020 fe 12 67 3d b9 fd 2e 3d d2 81 8f bd 62 2a af 3d
       0.056414597 0.042722438 -0.07007183 0.08553006
000030 05 83 0c 3e 2e 07 7c 3d 02 a7 ee 3d f9 bf 95 bd
       0.13721855 0.061530285 0.11652948 -0.073120065
000040 b2 89 81 bd 42 0e 1e 3d 78 d7 dd 3d 3a 3c 82 3d
       -0.063250914 0.038587816 0.10832113 0.063591436
000050 8c 3f 2e 3d a1 aa a0 3d 8b 03 0a 3e 1a 5f 70 bd
       0.04254107 0.07845045 0.13477914 -0.058684446
000060 0b 40 3a bd 21 67 f1 bd b2 7f 9a bd 0e ae 50 3d
       -0.045471232 -0.117872484 -0.07543887 0.05094724
000070 5c 73 cb 3d 52 60 ab 3d 3e 46 67 bd 1e 78 99 bd
       0.099341124 0.08367981 -0.056463473 -0.07493614
000080 ea 87 6c 3d b3 02 f0 3c 9c 12 b4 bd 07 18 d4 3d
       0.057746805 0.029298162 -0.08792612 0.10356145
000090 26 62 d6 3d 14 48 86 3d 5f 0f e3 bd 3c a4 29 3d
       0.10467939 0.065567166 -0.11086916 0.04141639
0000a0 99 e8 ae bd e1 ae cc bd f6 cf 05 3e 9f 05 8a 3d
       -0.08540458 -0.09994293 0.13067612 0.067393534
0000b0 1c 1a d5 3d 0c 3d f3 3c ee b5 fa 3d 5c c4 d3 3c
       0.104053706 0.029692195 0.122417316 0.025850467
0000c0 20 40 ed 3d 91 d8 5c bd
       0.115844965 -0.05391747

net.6.weight f4 [50, 50]
000000 d6 5f 1c 3e 19 e6 a2 3c 1d 05 59 3d 0e 0a 1c be
       0.15270934 0.01988511 0.052983392 -0.1523821
000010 f5 90 7d 3c d7 f8 ea 3d aa 29 a7 bd da 54 e0 3d
       0.015476455 0.11473244 -0.08162244 0.10953684
000020 92 2f 73 3e 2b 87 82 3c 1a 1d c8 3d 82 cb fe 3d
       0.23748615 0.015933594 0.09771176 0.1244116
000030 ed cd 74 3c 0f 96 8e 3d cd c5 d4 bd be bd a2 bd
       0.014941675 0.06962215 -0.1038929 -0.07946347
000040 90 50 9c 3d e3 d5 f2 bd 47 77 e3 3d c8 a0 ec bd
       0.076325536 -0.11857202 0.11106735 -0.11554104
000050 6d 0b 20 3e 9a 4d 22 3d 1c d6 74 bd 7c 8b eb 3d
       0.15629359 0.039624788 -0.059774503 0.11501214
000060 2e 49 13 3e 46 b6 d1 bd df c5 0d be 16 6b bf bd
       0.14383385 -0.10239844 -0.13845013 -0.09346597
000070 b6 16 d1 3c 14 59 f5 3d 5b b4 4a 3d e0 99 b3 3d
       0.025523525 0.11979881 0.049488407 0.08769584
000080 94 17 ce bd ae 86 37 3b d1 86 ba bd c9 a3 e1 bd
       -0.10063091 0.002800386 -0.091077454 -0.11017568
000090 8c 9a eb bb 39 3d 55 b9 ff f7 b9 bd a3 79 fd bc
       -0.0071900543 -0.0002033607 -0.090805046 -0.03094179
0000a0 58 4b b6 3c 91 29 71 bd b8 48 af bc 8e ba a3 bd
       0.022252724 -0.05887753 -0.02139698 -0.07994567
0000b0 0e dc 99 3d 32 c5 c6 3d e3 0f 1a be be c4 70 bd
       0.07512675 0.09705581 -0.15045123 -0.058781378
0000c0 f5 bb de bb 49 37 37 be be ba 22 be 9c 36 f6 bc
       -0.0067973086 -0.17892183 -0.15891549 -0.030055337
0000d0 68 3f 1d 3e 6a 07 b8 bc db b7 fc bd af f0 94 bd
       0.15356219 -0.022464473 -0.12339755 -0.07272469
0000e0 d4 d2 d2 3d b4 3d 17 be 1d 9d 6a be 64 91 ae 3d
       0.102941185 -0.14769632 -0.22911496 0.08523825
0000f0 4b 3e 36 3c 0a 1c 06 3e 57 8f 96 3d 87 24 07 3e
       0.01112325 0.13096634 0.07351559 0.13197528
000100 e0 e7 1b bc ee 48 fa bd 2f 5f 04 3c 30 90 a7 3d
       -0.0095157325 -0.122209415 0.008079334 0.081817985
000110 b0 60 2a be 36 04 3e bd 40 56 ab 3d 7c ad 9c bd
       -0.16638446 -0.046390735 0.0836606 -0.07650277
000120 88 1c d5 bd 66 31 93 3d 8d 69 b1 3b 86 49 27 bd
       -0.104058325 0.071871564 0.005414194 -0.0408416
000130 de b3 72 3d 1b 19 16 3e d8 1f 59 bd e0 16 7c bd
       0.059253566 0.14658014 -0.053008884 -0.061545253
000140 93 89 96 bd 35 cc 76 bd 63 ad 7e 3c 3e 76 4b bc
       -0.07350459 -0.06025334 0.015544268 -0.012418328
000150 d7 b6 2f 3e 6f 26 c4 bd 6a fa a5 3d 47 20 5c bd
       0.17159592 -0.09577643 0.08104403 -0.05374172
000160 4e 83 a6 3d d5 48 31 be 4c d6 b6 bd f8 f7 fa bd
       0.08130513 -0.1731294 -0.08927593 -0.122543275
000170 fd 06 03 3e 82 4d f7 bc dc e1 72 bd e9 23 c0 bc
       0.12795635 -0.030188326 -0.059297428 -0.023454623
000180 fd 70 fd bd 77 52 3c be e8 98 32 be 94 3f 29 3e
       -0.123750664 -0.18390833 -0.17441142 0.1652816
000190 9d 2c 78 bd 2f 16 ae 3d 6d 22 de ba 58 1b d0 3d
       -0.06058942 0.08500325 -0.0016947516 0.101614654
0001a0 f3 87 2c 3e 30 5d a7 bd 67 9d 43 3d 01 75 2a be
       0.16848736 -0.08172071 0.047757532 -0.16646196
0001b0 39 d1 5f 3e d5 9d 0c be 64 90 9a 3b 4e 42 08 be
       0.21857156 -0.13732083 0.0047169197 -0.13306543
0001c0 34 40 1b be ac 09 c4 3d ee 2c 01 be 4f 36 c8 bd
       -0.1516121 0.09572157 -0.12614796 -0.097759835
0001d0 b9 f1 00 3e b3 61 bc 3d d3 5d 74 3d 92 23 95 3d
       0.1259221 0.09198322 0.05965979 0.07282175
0001e0 45 6c 18 3e 3c 1c 3c 3d 49 b3 40 bc 10 20 8e bb
       0.14885052 0.045925364 -0.011761495 -0.0043373182
0001f0 bd f9 8c 3d 40 82 97 bd a5 03 15 be d7 d2 b6 bd
       0.06883571 -0.0739789 -0.14552172 -0.08926933
000200 04 3c df bb 54 cb 91 3d 4b 42 a6 bd ee e6 f9 3d
       -0.0068125743 0.0711886 -0.08118113 0.122022495
000210 19 77 1c bd a4 25 3e bd da 5e d7 3d 99 ca 0d 3d
       -0.038199518 -0.046422616 0.105161384 0.03461704
000220 9b 85 e1 3c 9b 4c fb bd 98 cb 0c be b1 35 28 3e
       0.027529528 -0.12270471 -0.1374954 0.16426732
000230 84 07 36 bd 44 fc 5c 3d 79 82 21 3d d4 c7 7c 3d
       -0.04444076 0.053951517 0.03943107 0.06171401
000240 01 6b 02 3e 71 d5 39 bd 7e f1 dc 3c 31 53 c1 3d
       0.12736131 -0.04536957 0.026970621 0.094396956
000250 7a 28 0d 3d 4b aa 26 bc 73 22 80 3d 8c 32 83 bd
       0.03446243 -0.010172437 0.06256571 -0.064061254
000260 be 5a 08 be e8 64 e0 bc 4c c9 9e 38 6c bf 08 bd
       -0.13315865 -0.027391866 7.5715216e-05 -0.03338568
000270 da e7 7e bd 3e ed 98 3d d5 21 73 3c 51 22 6c bc
       -0.06223283 0.07467125 0.014839609 -0.014412479
000280 b8 8e f1 3d 0b e5 d3 bd 30 bc d4 3c 8c 99 f4 3d
       0.117947996 -0.10346421 0.025968641 0.11943349
000290 96 52 91 bd 20 e3 77 3b 76 ed 82 bd a5 db 1d be
       -0.0709583 0.0037824586 -0.06392948 -0.15415819
0002a0 bc 36 82 3d 33 72 3b 3d b2 ba 39 bd ba fb 88 3b
       0.06358096 0.045763206 -0.045344062 0.004180399
0002b0 a7 58 22 be d5 10 8c be 2e 84 e6 3d c5 53 92 bd
       -0.1585413 -0.27356592 0.1125568 -0.07144884
0002c0 07 1b 07 be ca 26 9f 3d eb d7 fd 3d 9f a1 7c 3d
       -0.13193904 0.0777107 0.12394699 0.06167757
0002d0 96 7f 2a 3d 5f 24 43 be 6f d1 67 bd 32 39 f1 bb
       0.04162558 -0.19056843 -0.056596216 -0.0073615545
0002e0 97 8b 49 be de 37 b0 bc 71 b9 81 3d b1 7e 31 bd
       -0.19682156 -0.021511015 0.06334198 -0.043333713
0002f0 d0 8e cf bd 86 97 27 3e ea 2f 3e 3e 6f 97 96 3b
       -0.10134661 0.16366395 0.18572965 0.004595689
000300 5e 27 82 bd ee 58 05 bd 72 f2 90 3d c4 85 87 3d
       -0.06355165 -0.032555513 0.07077493 0.06617311
000310 0d 82 1a bd 67 06 97 bd 65 c9 82 3d 23 1c 0e 3e
       -0.037721682 -0.07374268 0.06386069 0.13877921
000320 19 63 c7 bc 34 64 bc bd fa 89 8f bd b7 a1 c1 3d
       -0.024339246 -0.091988 -0.07008739 0.09454673
000330 d4 aa 14 be f8 d5 fd 3d 0a 53 8e bd c2 04 86 3d
       -0.14518291 0.12394327 -0.06949432 0.06543876
000340 c5 2c 5f be 0d 00 bf bd 04 b3 db 3d 99 47 c1 bd
       -0.21794422 -0.093261816 0.10727504 -0.09437484
000350 78 ad 12 3e b8 fa 9b bd d5 16 e0 3d f7 a6 d1 3d
       0.14323986 -0.0761618 0.10941855 0.10236924
000360 63 a3 28 be c8 5d 13 3e 15 c9 a2 bc f2 44 5f 3d
       -0.16468577 0.14391243 -0.019871274 0.05450911
000370 67 4d 28 be d3 f5 65 bd 1f 02 a7 bc 67 08 5d 3d
       -0.16435777 -0.05614264 -0.020386754 0.05396309
000380 cf 8e c7 3d e4 53 fa bd 59 ec ad 3d 57 cc 87 bc
       0.097440355 -0.12223032 0.08492345 -0.016576929
000390 52 6e a9 bd d1 cf c8 bd 29 a0 c9 bd 38 fd 09 3e
       -0.08272995 -0.09805263 -0.09845001 0.13475502
0003a0 a0 0c 1f 3e 14 3c 29 3d 71 8e cd 3b b8 c3 a1 3d
       0.1553216 0.04131706 0.006273084 0.078986585
0003b0 50 3b 94 3d 01 06 f8 3d 11 73 ab 3c c5 d0 54 be
       0.072378755 0.1211052 0.020928891 -0.20782764
0003c0 75 4b e8 bd 08 27 a4 bd 0d aa eb 3d 7d b1 5f 3d
       -0.11342517 -0.08015257 0.11507044 0.054612625
0003d0 07 bc 0c be 80 a3 0e be 6a 14 3d 3d 61 4b d2 3d
       -0.13743602 -0.13929558 0.046162046 0.10268284
0003e0 08 52 06 be 9d 92 62 bd 65 c4 de bc 72 ab e0 bd
       -0.1311723 -0.055315603 -0.027193258 -0.109702006
0003f0 05 9d 09 be 51 02 50 3c 07 cd 60 3d 6c f4 a2 bd
       -0.13438804 0.012695865 0.05488303 -0.07956776

net.6.bias f4 [50]
000000 f2 5a b5 bd e0 61 7d bc a7 dd 49 bd 24 45 b2 3d
       -0.08855237 -0.01546523 -0.04928365 0.08704594
000010 fa f4 03 3d 09 6b c4 3c d5 f8 d8 3d 0d a3 06 3d
       0.03221605 0.02397682 0.10594336 0.03287034
000020 be 2b e1 bc 30 5b b8 3d a3 a4 93 bd 19 9d 0f bd
       -0.027486678 0.09001768 -0.07209136 -0.03506193
000030 6e 6e fc 3d b1 0d 04 be c9 e3 2f 3d 4c 67 eb 3d
       0.1232575 -0.12895848 0.042941842 0.11494312
000040 b7 0f 91 3b ad 8e 02 be 1a 52 51 3d 64 46 0c 3c
       0.004426922 -0.12749739 0.05110369 0.008561704
000050 9a 21 ab bd e8 11 af 3d 99 d6 30 3d c5 d5 02 3d
       -0.08356018 0.08548337 0.043173406 0.031942148
000060 ac de fe 3d e0 fe df 3b 91 be a4 bd 05 7d 8d bd
       0.12444815 0.0068358034 -0.0804416 -0.06908611
000070 d0 af e8 3d 8d 8e b1 3c 26 ad 26 bd 5e 81 10 3d
       0.113616586 0.021674419 -0.04069247 0.035279624
000080 72 7b f3 3d 5d c9 30 bd 65 86 c9 bd c1 80 ec 3d
       0.1188878 -0.043160785 -0.09840087 0.11547995
000090 c4 5a 07 3d 08 44 78 3d 74 e3 68 bd a8 30 f6 bc
       0.033045545 0.060611755 -0.05685754 -0.030052498
0000a0 15 36 ac 3d 3e bf 2a 3d b3 ef bc 3d a2 1c f9 bd
       0.08408753 0.04168629 0.092254065 -0.121636644
0000b0 4f c3 f3 3d d0 2b 3a bd 78 73 f8 3d 94 f0 ec 3d
       0.119024865 -0.04545194 0.12131399 0.11569324
0000c0 81 d5 f0 bc c2 3b 8b bd
       -0.029398682 -0.06798507

net.8.weight f4 [50, 50]
000000 9a b1 00 3d 41 51 00 be 61 ac a8 bd a1 dc c7 ba
       0.031419374 -0.12530996 -0.08236004 -0.0015248248
000010 2c eb bb bd 9b ac 8e bc aa 02 15 3d 64 6b af 3d
       -0.09175715 -0.01741629 0.036379494 0.08565405
000020 09 82 82 bd b8 c6 8f ba b5 43 12 3e 9f 85 49 3d
       -0.063724585 -0.0010969257 0.1428364 0.049199697
000030 b1 e1 a4 3d ee c1 07 3d 8b bb 0c bd a9 e9 a6 3d
       0.0805086 0.03314393 -0.034358542 0.08150036
000040 7c f6 34 be bb bd 26 be 9e 45 31 bd e0 32 0d 3e
       -0.17672151 -0.16283314 -0.043279283 0.13788939
000050 87 2f 39 be 9e 0d 12 3e 09 5a 72 bd 83 f3 e5 3d
       -0.18084536 0.14263007 -0.059167895 0.11228087
000060 c2 e6 e5 3d ea 55 e6 3d a8 38 95 3d b1 65 1d bd
       0.11225654 0.112468556 0.07286197 -0.03842706
000070 9d d3 dc bd e9 b6 a1 3c 12 d3 52 bd d1 b3 ed bd
       -0.107825495 0.019740539 -0.051470824 -0.11606563
000080 96 73 c9 bd 5b a1 09 3d a9 88 0b be 41 03 0d be
       -0.098364994 0.033601146 -0.1362635 -0.13770773
000090 55 ea f1 3d 7a 52 29 3e ad 42 e0 3d 70 f6 9a 3d
       0.118122734 0.16535369 0.109502174 0.075665355
0000a0 85 f3 d4 bd bc 40 25 bd 03 37 28 3e fa e6 69 bd
       -0.1039801 -0.04034494 0.16427235 -0.057105042
0000b0 c7 15 07 3d ef 2d db bd 71 b8 83 bd 10 44 5d bd
       0.032979753 -0.107021205 -0.06431664 -0.054019988
0000c0 cc da 47 3c ff b4 36 bd 18 b8 ec 3d d9 a7 c9 bd
       0.012198161 -0.044606205 0.115585506 -0.098464675
0000d0 da 52 8b bd 8d ee 11 3e 1f d9 13 be 66 fa 33 3d
       -0.06802912 0.14251156 -0.14438294 0.04393997
0000e0 f2 55 b7 bb 2c 74 80 3d 0a 92 19 3e f3 64 fe 3d
       -0.0055949623 0.06272158 0.14997116 0.12421598
0000f0 52 22 ac bd 84 64 20 bd de 6c a7 bd 5b 62 bc 3c
       -0.084049836 -0.03915836 -0.08175062 0.022996118
000100 59 e5 01 bd fb c3 b5 bd a4 6a 1b be ec ee 37 bd
       -0.031712864 -0.08875271 -0.15177399 -0.044905588
000110 10 53 0e be 6e 0f ab 3d 08 07 61 3d 76 36 fd bd
       -0.13898873 0.08352552 0.054938346 -0.12363903
000120 43 ea 34 be c1 a4 03 3e af 18 0a be 4c db 18 3e
       -0.17667489 0.12855817 -0.13485979 0.14927405
000130 b9 8a f4 bd c9 50 10 3d 5d 14 93 bd f0 2c a7 3b
       -0.11940522 0.035233293 -0.07181618 0.0051017925
000140 cb e0 8e bc 9b 4f 15 3e c4 54 97 bd 3a b7 75 bd
       -0.017441174 0.14581148 -0.07389215 -0.05998919
000150 83 c5 af bd 31 0a be bc 8a 29 6a bc f9 99 9b 3d
       -0.08582594 -0.023198219 -0.01429213 0.07597727
000160 a7 0b 54 bd 77 6c 34 3d 4c c8 fc bc 07 fc b1 bd
       -0.051768925 0.044048753 -0.030857228 -0.086906485
000170 f0 bb ad bd 76 27 48 3d 08 d0 bd bc 64 e1 22 bd
       -0.08483112 0.048865758 -0.023170486 -0.03976573
000180 31 b1 14 3e 46 a1 19 be 5d b9 d8 3d 65 5d 01 3e
       0.14520718 -0.15002927 0.1058223 0.12633283
000190 9c 94 e6 bc a6 8d aa 3d 1f 13 0f be 3a 98 3c 3d
       -0.028147034 0.083277985 -0.13972138 0.046043612
0001a0 f9 30 1d 3e 23 05 f7 3c d0 58 90 bd d7 9c 8e bd
       0.15350713 0.030153817 -0.0704819 -0.069635086
0001b0 81 d0 f7 bc b9 f2 a9 bd f4 83 b3 bd 9a de e3 bd
       -0.03025079 -0.08298249 -0.087654024 -0.11126442
0001c0 8f 88 a7 3d fd fa 4b 3c f7 25 cb bd 59 da 0f be
       0.08180343 0.012449977 -0.099193506 -0.14048137
0001d0 1a 2f 49 3d ab 6b ce 3d ee 4c e4 3c fb 2e 05 be
       0.049117185 0.1007913 0.027868714 -0.13006203
0001e0 dc 61 4c 3d 40 f7 fd bd 77 69 b0 3d 5b 4a 17 be
       0.049898013 -0.12400675 0.08613866 -0.14774458
0001f0 8f f2 aa 3d 41 2f 56 bd b5 75 a6 3d bc ac ed bd
       0.08347046 -0.05229116 0.081279196 -0.11605212
000200 26 07 ec 3d aa c5 be ba 13 38 8e 3d 5b db c4 3d
       0.11524801 -0.0014554758 0.06944289 0.09612151
000210 ae 2a ac bc 55 e4 05 3e 31 e0 7e bb 4a 85 cc 3d
       -0.021016445 0.13075383 -0.0038890953 0.0998636
000220 db 6f 0b 3e b6 9c 0a be f8 f0 bc bd f5 c6 ee bd
       0.13616888 -0.13536343 -0.09225649 -0.11659042
000230 94 e6 2f 3e 00 2b 2d be e8 b9 0f bd a6 d3 6c bc
       0.17177802 -0.16910934 -0.035089403 -0.014454758
000240 a8 96 04 be f7 3f d3 3d e5 a6 a0 bc c1 56 2e 3e
       -0.12948096 0.10314935 -0.019610832 0.17025281
000250 09 09 58 bc 91 11 67 bd ee bb 13 3d da b1 2c bd
       -0.013185748 -0.056413237 0.036067896 -0.0421618
000260 62 c9 52 bd 8c 51 cb bd 09 e3 d3 3d 59 e0 aa bd
       -0.051461585 -0.09927663 0.10346038 -0.08343572
000270 88 fd 38 be 37 43 3d be bd 33 dd 3d ea ba 36 be
       -0.18065464 -0.18482672 0.10800884 -0.1784474
000280 c4 f6 76 3d a0 d3 d3 bd 5b 14 0e 3c 22 58 f4 bc
       0.060293928 -0.10343099 0.008671845 -0.029827181
000290 a9 f9 0a be dc ba fb 3c 29 74 d5 bd 30 db 16 3d
       -0.135718 0.03072875 -0.104225464 0.036830127
0002a0 48 07 37 3e b6 1f ef 3d 64 9f 4b bd d5 2d 10 3d
       0.17873871 0.1167597 -0.049712554 0.03519996
0002b0 7d 6b eb 3d 12 8e 09 bd e3 b1 03 bc b2 14 da 3d
       0.11495111 -0.033582754 -0.008038017 0.106484786
0002c0 00 df 15 3e cd cc d9 3d da 33 ed bc d6 e3 f6 bc
       0.14635849 0.10634766 -0.028955389 -0.030137938
0002d0 bd d7 27 3c 69 a9 e5 3b 4d e8 01 be f5 f8 c4 3d
       0.010244307 0.0070087207 -0.12686272 0.09617797
0002e0 ff fd 40 3e 3c d0 b7 3d a4 a7 d4 3d 25 48 7d bd
       0.18846892 0.089752644 0.103835374 -0.06183638
0002f0 2a cf 92 3d b0 6b 6c bd 97 f2 2e 3e 1a 58 21 be
       0.0716842 -0.057719886 0.17084728 -0.15756264
000300 c8 4d 44 be aa c1 10 3e 93 ca 1c 3d 8a d1 b9 3d
       -0.19170296 0.14136377 0.038279127 0.090731695
000310 a8 34 15 be 26 4b 33 3e da 91 bf 3d 16 f4 18 3e
       -0.14570868 0.17509136 0.09353991 0.14936861
000320 3c 3d 83 bc 69 8d 11 bd c5 d2 48 bc 4c 3d 3d 3d
       -0.01602041 -0.03553525 -0.012257283 0.046201035
000330 d8 21 c1 bd c2 f7 35 3d 25 6e da bd 69 12 e8 3d
       -0.09430283 0.044425733 -0.1066554 0.113316365
000340 0a 5d 1b bc c1 4b 72 bc d5 1d 4a bd b0 9c 03 be
       -0.009482631 -0.014788569 -0.049344856 -0.1285274
000350 98 b6 6e 3d 76 11 c4 3c 10 b3 e7 3d f1 56 ea 3d
       0.058279604 0.023934107 0.1131345 0.11442364
000360 52 8a 8a 3d 29 8a aa bd 08 77 da bd 09 2b 2f be
       0.06764664 -0.08327133 -0.10667235 -0.1710626
000370 eb 05 5a 3d d7 4c 0c be 81 14 65 bd fe 1d 49 3e
       0.0532283 -0.13701187 -0.055927757 0.19640347
000380 65 e3 08 be 05 bb 4d bb a1 86 ba 3d 3c 45 f5 bd
       -0.13367994 -0.003139199 0.0910771 -0.11976096
000390 0f 58 df 3c 9b 5d fb bc f9 44 f0 bd 33 b4 a7 bd
       0.02726367 -0.030684283 -0.117319055 -0.08188667
0003a0 8d 34 92 3c d0 ce 48 3d f2 0b b5 3c fb 4d 11 b8
       0.017847324 0.049025357 0.022100423 -3.464332e-05
0003b0 5b 5a db bd 65 40 ec 3d df 85 27 be 35 98 9c bd
       -0.10710593 0.1153572 -0.16359662 -0.07646219
0003c0 5e 3e 42 bd 2e 33 04 3d d2 80 0b 3e aa 81 cb bd
       -0.04742276 0.03227537 0.1362336 -0.09936841
0003d0 8e 62 61 3d 94 9f 60 3e 4d 4b 18 3e 4d 0b bc bd
       0.05502563 0.21935874 0.14872475 -0.09181843
0003e0 7f d7 7a 3d 21 3a e8 bd 2b 8c 21 be 04 de 87 3d
       0.06124067 -0.11339212 -0.15776126 0.06634143
0003f0 86 6c 12 be a1 3e fc bd 29 02 ab bd 53 bd 75 bd
       -0.14299211 -0.12316633 -0.083500214 -0.059995007

net.8.bias f4 [50]
000000 47 1a f3 3d 4e ee 03 be 0b 72 62 3d 37 10 be bd
       0.118702464 -0.12883875 0.05528454 -0.092804365
000010 b9 7e 02 3e a9 66 08 3e 9c d9 35 bc c2 ac 81 3d
       0.12743653 0.13320412 -0.011099245 0.06331779
000020 f4 f1 05 be eb d9 ab 3d 2e fb 48 b9 80 d4 fb bd
       -0.13080579 0.08391174 -0.00019167058 -0.122963905
000030 39 f9 da bd 47 3e d5 3d db 1d f2 bd 80 80 00 3d
       -0.10692067 0.10412269 -0.11822101 0.031372547
000040 9b db f8 bd c6 94 e9 bd e1 61 ec 3d f4 a9 06 bb
       -0.121512614 -0.114053294 0.115421064 -0.0020548077
000050 31 21 c5 3b c6 96 e3 3d a4 7b e7 3c 87 04 77 3d
       0.0060159196 0.11112742 0.028257199 0.060307052
000060 97 06 84 bc 8d 78 81 3d 6b ea 05 bc 1f a7 11 3d
       -0.016116424 0.06321821 -0.008173565 0.03555977
000070 ea 24 f7 3c 60 36 b3 bd 43 a3 ba bd e1 8d ac bd
       0.03016897 -0.087506056 -0.09113171 -0.08425499
000080 49 2f ad 3d ab c5 b2 3d 4a ba 14 3e 60 78 08 3e
       0.084562846 0.087291084 0.14524189 0.1332717
000090 20 19 38 bc cc da 39 3d 3c db 95 3d c9 3b 84 bd
       -0.011236459 0.045374677 0.07317206 -0.064567156
0000a0 67 c2 da 3d 85 ce ba bd 92 ba ee 3d f0 60 1e 3d
       0.106816106 -0.09121422 0.11656679 0.038666666
0000b0 b9 54 f4 3b 07 1c bb bd 32 6b 92 3d e4 2f 97 bb
       0.007456389 -0.09136205 0.07149352 -0.0046138633
0000c0 05 0d 0a bd 94 d1 d5 bd
       -0.033703823 -0.104403645

net.10.weight f4 [50, 50]
000000 af b5 21 3d 52 90 ad 3c 22 2c fb bb 1e 72 78 3d
       0.039479908 0.021186981 -0.007665173 0.060655706
000010 e3 99 eb bd 1c 5e 0a 3e b2 76 8d bc 23 24 27 3c
       -0.11503961 0.13512462 -0.017268512 0.010201487
000020 6e 36 cc bd 8e 01 90 3d 95 b5 fe 3b e0 37 65 bd
       -0.09971319 0.070315465 0.007773111 -0.05596149
000030 77 f0 cc 3d 4c 60 b0 bb b2 78 a7 3d bb 34 e5 bd
       0.100068025 -0.005382573 0.08177318 -0.11191698
000040 76 c6 a1 ba 7d 01 8b bd 04 5c 41 3d f9 a7 77 be
       -0.0012342471 -0.06787393 0.047206894 -0.2418517
000050 f4 ae 33 be 58 1c 1b be 02 9d aa bd 68 4f 23 3d
       -0.17547208 -0.15147531 -0.08330728 0.03987065
000060 a5 2f af 3d 14 fa 3e 3a 63 c1 eb bd 4e 36 8d bd
       0.08554009 0.00072851893 -0.11511495 -0.068951234
000070 4e 53 00 bc 9a 5f 50 3c 45 ff b5 bd 9a 97 04 3e
       -0.007832361 0.012718106 -0.088865794 0.12948456
000080 f4 9d 1a 3e bb f5 43 3d 2c 3b 74 3e 8a 89 6b 3d
       0.15099317 0.04784177 0.23850697 0.057504214
000090 a3 a3 35 be e2 08 8f bc 9d 3e 88 bd 45 ce 9d bd
       -0.17738204 -0.01746029 -0.066525675 -0.077053584
0000a0 38 e6 cd bd ad 0e 22 be 67 a1 18 bb f9 bd 20 3e
       -0.10053676 -0.15825911 -0.0023289563 0.15697469
0000b0 b9 90 06 3d b0 7b 39 bd 22 bb c5 bd 96 6a d9 bd
       0.032852862 -0.045283973 -0.096548334 -0.10616033
0000c0 f1 cb f1 bd 49 b1 7b bc e4 4d 15 be 58 bd 24 3e
       -0.11806477 -0.015362092 -0.14580494 0.16087854
0000d0 01 6b e7 bc b6 8f 0a 3c c0 53 06 3d 8b ae cb 3d
       -0.028249266 0.008457115 0.032794714 0.09945401
0000e0 92 ac 6f 3e 56 2d f1 bd 46 7f 3f 3d 8b bd 45 3e
       0.23405674 -0.11776225 0.046752237 0.19310586
0000f0 c3 4a 30 be f7 72 1d 3d df 2f 0f bd 3a b6 fb 3d
       -0.1721602 0.038439717 -0.034957763 0.12290616
000100 3d 7b 3b 3d 25 64 c3 3c 4e e8 94 3d 19 93 db 3d
       0.045771826 0.023851464 0.07270871 0.10721416
000110 af 1d e5 bc ed 12 d0 bd 80 a4 9d 3d cb 11 d4 3d
       -0.027968256 -0.1015986 0.076973915 0.10354956
000120 8e 93 a6 3d 2f 76 a8 bd 3d 75 a7 3d 01 49 8d 3d
       0.081336126 -0.08225667 0.08176658 0.0689869
000130 61 59 b2 3d d3 31 dc bd c2 4a 48 be 2a 5d fb 3d
       0.08708454 -0.10751691 -0.19559768 0.12273629
000140 82 73 bd bd d8 41 98 3d 5e c9 9c 3d 20 8b 0c 3e
       -0.09250547 0.07434434 0.07655595 0.13724947
000150 42 78 d8 3c 0f 95 a1 bd 75 cc 51 3e 8e f6 85 3d
       0.02642453 -0.07889759 0.2048815 0.06541167
000160 91 94 62 bb 23 3e 07 3e 3e f0 a3 3d 43 c1 bd 3d
       -0.0034573416 0.13207297 0.08004807 0.09265377
000170 23 cf 10 3d 2f 17 af bd 92 43 38 3e af d4 bd 3c
       0.03535379 -0.08549344 0.17994526 0.023172705
000180 40 5d 22 be d9 cf 4f 3e 28 c4 9d 3b b8 cc 68 3b
       -0.15855885 0.20294131 0.0048146434 0.0035522413
000190 76 62 cc 3d ab 5d 06 3e 34 23 66 be 46 d9 7b 3c
       0.099797174 0.13121669 -0.22474366 0.015371626
0001a0 2a f2 ec bc 26 83 fb bd 12 77 dd 3c 38 ec 0c bc
       -0.028924067 -0.12280874 0.027034316 -0.008601241
0001b0 a8 1e d5 bd d4 3e 1f be 41 1c f3 3d f7 f4 16 3e
       -0.10406238 -0.15551311 0.118706234 0.14741884
0001c0 43 1b bf 3d fa dd 20 bd d4 41 08 3e d7 d1 f0 bd
       0.09331372 -0.039274193 0.13306361 -0.11758774
0001d0 c2 ad d0 bb 5a 7d 28 be 19 c5 aa 3d 4b f5 4a 3e
       -0.00636837 -0.16454068 0.08338375 0.19820134
0001e0 68 ca a9 3d 3c 11 2b 3e 6f 51 4f 3e 2d bd a0 3d
       0.08290559 0.16705793 0.20245908 0.078485824
0001f0 8d 69 2b be 88 ab 2e 3d 01 b6 22 bb ff 7c 2b 3e
       -0.16739483 0.042644054 -0.002482772 0.16746901
000200 46 34 9f bd f7 f7 a1 3d 05 6a ce 3d 27 ff a4 3b
       -0.07773642 0.07908624 0.10078815 0.0050352993
000210 9c 4d 53 bd c4 7e 2d 3e 80 f0 2d 3d 02 fc a9 3c
       -0.051587686 0.16942888 0.042465687 0.02075005
000220 b6 4d e6 3d 1d 65 d5 bc 1f 71 14 3d cf f5 3d 3e
       0.11245291 -0.026049191 0.036240693 0.185508
000230 77 fd 06 be da 7b 40 3e 56 01 a6 ba e3 fa c1 bd
       -0.13182627 0.18797246 -0.0012665193 -0.09471681
000240 00 aa a0 bd da ae fd bb 1b a4 d2 bc a1 6f c5 38
       -0.07844925 -0.007741791 -0.025713017 9.4144845e-05
000250 f0 5d 4c 3e 73 96 13 3d 49 09 3d be 25 25 67 3d
       0.1995771 0.03603215 -0.18460573 0.05643191
000260 bf d2 c7 3d 8c 29 c7 3d 72 b0 a2 bd aa be 95 3c
       0.097569935 0.09724721 -0.079438105 0.018279392
000270 20 61 5a 3e 73 30 4a 3e ec a0 0a 3d 24 42 4c 3e
       0.21326113 0.19745044 0.033844873 0.19947106
000280 7c ac 0a be 02 4b af 3c 4e db f6 bc 07 3a 01 bd
       -0.1354236 0.021398071 -0.03013387 -0.03154948
000290 b6 3b 0f bd 79 42 e6 3d 60 50 a8 3d aa 1e d5 3d
       -0.034969054 0.112431474 0.08218455 0.10406239
0002a0 02 43 81 3d 66 97 6f be 8b 22 8b bd 58 91 f4 bd
       0.06311609 -0.23397598 -0.06793698 -0.119417846
0002b0 eb 19 7f 3c e7 56 f1 3d d9 5b 54 3e 28 b0 62 3d
       0.015570144 0.117841534 0.20738162 0.055343777
0002c0 59 69 40 be 14 1d 3b be b6 b4 bf 3d 1f 5e 4d bd
       -0.18790187 -0.18272811 0.0936064 -0.05013859
0002d0 6b 76 09 bd 74 ad 62 bd 08 c0 da 3c 07 16 51 3d
       -0.033560198 -0.0553412 0.026702896 0.051046398
0002e0 39 95 14 3e 32 a7 88 3d d1 eb b8 bd 50 37 4e be
       0.14510049 0.06672515 -0.090293534 -0.20138288
0002f0 0d d4 a1 3d e9 a8 78 bc a2 a5 59 3d 53 1c 05 be
       0.079017736 -0.01517699 0.053136475 -0.12999086
000300 66 5d ce 3d ca d4 9d 3d cb 53 90 3d 57 89 19 bd
       0.10076408 0.07706602 0.07047232 -0.037484493
000310 b8 52 9b bd 4d 67 e3 3d ff 76 aa 3c 42 2b 10 be
       -0.07584137 0.111036874 0.020808695 -0.14079002
000320 44 e5 39 bb 2c 7d de 3d f4 b7 ec 3d 2c 77 aa bd
       -0.0028365413 0.108637184 0.11558524 -0.083235115
000330 70 dc 54 3d 10 55 ca 3c e2 8c 4c bd a6 52 86 3d
       0.051968038 0.024698764 -0.049939044 0.06558733
000340 4c 56 19 bc 1f 83 8f 3c 09 4c c3 3d 60 b1 3f 3d
       -0.009358954 0.017518578 0.09535987 0.046800017
000350 81 4f 52 bd fd 1f b1 bc 87 64 1c be c2 21 81 bd
       -0.051345352 -0.021621699 -0.15272723 -0.06305267
000360 4a 14 c9 3d 3c 54 b1 bd c4 4a 5c 3d 7a ad c2 bd
       0.09818323 -0.086586446 0.05378224 -0.09505744
000370 8a 65 e3 bd 64 18 a3 3d 86 ce f3 bd 96 29 6c bd
       -0.111033514 0.079636365 -0.119046256 -0.057656847
000380 4e 4a 21 3e 6c f1 44 3e f7 8a 81 bd 89 0e f9 3c
       0.15751001 0.1923272 -0.063253336 0.030402439
000390 29 f1 8d bd 72 2b 0d 3e 43 a6 e6 3c 64 15 89 3d
       -0.06930763 0.13786104 0.028155452 0.06693533
0003a0 6b 7b ee bd 71 e7 21 bd 27 45 28 3c 4f 37 aa bc
       -0.11644634 -0.03952736 0.010270393 -0.020778326
0003b0 84 a1 1b 3e cc a8 02 be b7 1b 2e be 35 7b 45 be
       0.15198332 -0.12759703 -0.1700276 -0.19285281
0003c0 e5 bc cb 3d 70 6d 2f bd 79 87 8d bd 6b 93 40 3e
       0.09948138 -0.042828977 -0.06910605 0.18806235
0003d0 a7 a4 fb bd dd 93 19 3e 30 29 f3 bd 9f d6 3c 3e
       -0.12287264 0.14997812 -0.1187309 0.18441246
0003e0 97 f6 66 be f8 d3 2f be db 8e 38 3e ac e5 33 3c
       -0.22555004 -0.17170703 0.18023245 0.010980051
0003f0 5a 47 6f bb 5c 97 2d be 7c 2d b4 ba ae 98 c1 bc
       -0.0036511035 -0.1695227 -0.0013746466 -0.023632374

net.10.bias f4 [50]
000000 ed 6e d3 3d d2 5c 19 3c c2 4e 8b 3d e9 65 0a bd
       0.10323892 0.009360509 0.06802131 -0.033788595
000010 25 04 0d 3d dc 8a bc 3d 7d 5f 76 3d b3 5d 22 3e
       0.03442778 0.09206173 0.06014966 0.15856056
000020 cc 29 e4 3d 5a 65 4a 3d 5d 51 18 be 25 fe 26 bc
       0.111407846 0.049413063 -0.14874788 -0.010192429
000030 65 e3 06 3d e4 46 a3 bd ac c1 a8 bd 27 c7 8f 3d
       0.032931704 -0.07972506 -0.08240065 0.07020407
000040 df ee 5c 3d c0 cf 8d 3d de 89 0b bd d4 09 d0 bd
       0.053938743 0.06924391 -0.034067027 -0.101581246
000050 3c fd d3 bd 31 7b 08 be 8c f6 84 bc ea 49 18 be
       -0.10351035 -0.13328244 -0.016230844 -0.14871946
000060 8b 6c c1 3c 38 cc 67 bd 01 c0 4e bd 4e 74 0b 3e
       0.023611328 -0.056591243 -0.050476078 0.13618585
000070 ad 6e 18 bd d8 20 9e bd 26 a8 3b be 43 37 08 be
       -0.037214924 -0.07721108 -0.18325862 -0.1330233
000080 6b af a3 3d 0f 3d 87 3d 2c 2f d5 3a 60 6e 17 bd
       0.07992443 0.06603443 0.0016264669 -0.036970496
000090 9f 1c 8d bd b7 eb 9c 3c 9c c8 36 bc 7a 49 2a 3d
       -0.06890225 0.019155366 -0.011156227 0.04157398
0000a0 6d 34 fb 3d 62 27 80 bd ec d7 34 3d 0f 98 34 3e
       0.12265859 -0.06257512 0.04415123 0.17636131
0000b0 88 42 c9 3d 01 a3 25 3e e2 97 83 3d b4 73 c0 3d
       0.09827143 0.16175462 0.06425454 0.093970686
0000c0 e3 a8 80 3d 11 5a a9 bd
       0.062822126 -0.08269132
