models/poisson/tanh/poisson_08.pth (torch, 339061 bytes, 51 tensors)

net.0.weight f4 [50, 2]
0	0x3e095e2c	0.1341483
1	0x3ef638a3	0.48090085
2	0xbe175aa6	-0.14780673
3	0x3f13fbb0	0.5780592
4	0x3f143a3f	0.57901376
5	0xbe8cdb0f	-0.27510878
6	0x3f08a41f	0.5337543
7	0xbb660271	-0.003509667
8	0xbf1af692	-0.60532486
9	0xbf2a2d16	-0.66475046
10	0x3f1c2321	0.609911
11	0x3f3a95b0	0.72884655
12	0x3eb36732	0.3503967
13	0xbd983033	-0.07431068
14	0xbc30330b	-0.010754357
15	0xbf448993	-0.7677242
16	0x3f398f55	0.7248433
17	0x3f0781a5	0.52932197
18	0x3ea90587	0.3301203
19	0x3ed1657c	0.4089774
20	0xbf2a5a60	-0.6654415
21	0xbf2f469b	-0.6846711
22	0xbea54b4a	-0.32284003
23	0xbea8a7e4	-0.3294059
24	0x3f1626e9	0.5865312
25	0xbd9ff3c8	-0.078101695
26	0x3eb3c945	0.35114494
27	0xbb16cca9	-0.002301017
28	0xbf221429	-0.6331201
29	0xbf1aeb02	-0.60514843
30	0x3e809c82	0.25119406
31	0xbebc0557	-0.36722824
32	0x3d8dd9d3	0.06926312
33	0x3e866092	0.26245552
34	0xbf2c09f5	-0.67202693
35	0x3c14d044	0.0090828575
36	0xbe787b95	-0.24265893
37	0x3dfe4f9d	0.12417529
38	0x3eaf365a	0.34221154
39	0x3df47257	0.11935871
40	0x3f12e4ba	0.5738026
41	0x3d4752a4	0.048662797
42	0xbd44fa11	-0.048090044
43	0x3e11c36c	0.14234704
44	0x3e36b0c6	0.17840871
45	0xbf2c8e00	-0.67404175
46	0xbf31d8bd	-0.6947134
47	0xbf2ba776	-0.670524
48	0x3c56fb25	0.013121401
49	0x3d9b5e3a	0.07586332
50	0x3e6c5933	0.23080902
51	0xbea51db4	-0.32249224
52	0xbe9c0196	-0.3046996
53	0xbeea0d0a	-0.45713073
54	0xbed6151b	-0.41812977
55	0xbef6b338	-0.48183608
56	0xbe96e577	-0.29471943
57	0x3efd3056	0.4945094
58	0xbeae9b32	-0.3410278
59	0xbef52f40	-0.4788761
60	0xbedbc04c	-0.42920148
61	0xbf142e08	-0.5788274
62	0xbf08607d	-0.5327223
63	0xbece1f8f	-0.40258452
64	0x3e1a73fd	0.15083309
65	0xbf12a3df	-0.572813
66	0x3ee04ce4	0.43808663
67	0xbf276a24	-0.6539633
68	0x3e944a2d	0.28962842
69	0xbc1fc12b	-0.009750645
70	0x3effd77c	0.4996909
71	0xbd7d3f5c	-0.061828002
72	0x3d0c62ab	0.034273785
73	0xbe624b90	-0.22099137
74	0x3f08d515	0.5345014
75	0x3f264f87	0.649651
76	0xbe14e71e	-0.14541289
77	0x3eae1307	0.33998892
78	0xbf0a5e02	-0.54049695
79	0xbd405610	-0.046957076
80	0x3ee40d48	0.44541383
81	0x3df184a6	0.11792879
82	0x3e563709	0.20919432
83	0x3f2eabd2	0.68230927
84	0x3d5496bc	0.051901564
85	0xbd27dc0b	-0.040981334
86	0x3e360ae9	0.177776
87	0xbf3fc47f	-0.74909204
88	0xbe718d1a	-0.23588982
89	0xbf0afba6	-0.54290235
90	0x3eb685c3	0.35648927
91	0xbed89eab	-0.42308554
92	0xbf2d802e	-0.6777371
93	0x3ec4a336	0.3840577
94	0x3f37e650	0.71835804
95	0xbec94e2d	-0.39317456
96	0x3f2e77bf	0.6815147
97	0xbec1c112	-0.37842613
98	0xbf068367	-0.52544254
99	0x3f0d538b	0.552056

net.0.bias f4 [50]
0	0x3e94b265	0.29042354
1	0xbea06965	-0.3133041
2	0x3ea5a9ab	0.3235601
3	0x3ef44985	0.4771234
4	0xbc7f5abc	-0.015585598
5	0x3ec37f29	0.38182953
6	0xbe0ca42b	-0.137345
7	0xbeaf6a98	-0.34261012
8	0x3d8b16be	0.06791447
9	0xbf1f6339	-0.62260777
10	0x3e7dbcf9	0.24779119
11	0x3ed0e214	0.40797484
12	0xbe91327b	-0.28358826
13	0x3eca9c61	0.39572433
14	0x3e1e920f	0.15485404
15	0xbee7e62c	-0.45292795
16	0x3ed4ee6b	0.41588148
17	0xbe846de8	-0.25865102
18	0x3f0432fd	0.516403
19	0x3dff13b2	0.124549285
20	0xbf3adb7c	-0.72991157
21	0x3a75e525	0.00093801535
22	0x3ddf80af	0.10913216
23	0x3eece226	0.46266288
24	0x3f2af7c5	0.66784316
25	0x3ebaaa45	0.3645803
26	0x3f1fcfcf	0.62426466
27	0x3f0af36e	0.54277694
28	0xbcc45eb5	-0.023970941
29	0x3e14dc92	0.14537266
30	0x3e3522f6	0.17689118
31	0x3e9cd2f4	0.30629694
32	0x3f0c9a71	0.5492316
33	0x3ecf98b4	0.4054619
34	0xbf1b06cf	-0.60557264
35	0xbeb838a8	-0.35980725
36	0x3ecd29b6	0.40070885
37	0x3ef2b329	0.47402313
38	0x3e9c73cc	0.30557096
39	0x3f0750c4	0.52857614
40	0x3f2122d4	0.6294377
41	0xbe028f45	-0.12749965
42	0x3f0408f8	0.51576185
43	0x3e403911	0.18771769
44	0xbe5dfb9f	-0.21678017
45	0xbf19dd8a	-0.60103667
46	0xbeeabf63	-0.4584914
47	0xbef91fcf	-0.4865708
48	0x3ec78509	0.38968685
49	0x3f21fc93	0.6327602

net.2.weight f4 [50, 50]
0	0xbc9570f5	-0.018242339
1	0xbd9f8d8c	-0.0779067
2	0xbd3f8eb3	-0.046766948
3	0x3d1843ee	0.037174158
4	0x3da04145	0.07824949
5	0xbddfdd9c	-0.109309405
6	0xbe0c6412	-0.13710049
7	0x3cacc4a4	0.02108986
8	0xbbe2c569	-0.006920506
9	0xbe3ecc6d	-0.1863267
10	0x3ceac760	0.028659523
11	0xbdbf9890	-0.09355271
12	0xbe114443	-0.14186196
13	0xbd120c48	-0.035656244
14	0xbde98227	-0.11401778
15	0x3d1a35f5	0.037649114
16	0x3dcf487b	0.101212464
17	0x3e09d689	0.13460745
18	0x3dde6608	0.10859305
19	0xbdc3fbdd	-0.095695235
20	0xbdd28610	-0.10279477
21	0xbd70488a	-0.05866293
22	0x3c0476b2	0.00808494
23	0xbce000ed	-0.027344191
24	0x3a92783b	0.0011174747
25	0x3cdb21e9	0.026749568
26	0x3d932d77	0.07186406
27	0x3e0807bf	0.13284205
28	0x3e02eadb	0.12784903
29	0xbc7b45d7	-0.015336475
30	0x3dc91acb	0.098195635
31	0x3dd67d21	0.10473085
32	0xbca051d4	-0.019570269
33	0x3cdeee91	0.027213367
34	0xbca30bdf	-0.019903122
35	0x3dc6e749	0.09712083
36	0x3e0f2256	0.13977942
37	0x3dfce94c	0.12349185
38	0xbdf9f2b5	-0.12204496
39	0xbc7f87e8	-0.015596367
40	0x3d39defa	0.045378663
41	0x3cbf3835	0.023342231
42	0x3d88c7ee	0.066787586
43	0xbdcc50d8	-0.09976357
44	0x3b28300c	0.0025663404
45	0xbdc1c139	-0.094606824
46	0xbdc3540e	-0.095375165
47	0xbe054b01	-0.13016893
48	0xbb49901d	-0.0030756064
49	0xbd57b8b5	-0.052666385
50	0xbdf809cb	-0.12111243
51	0xbdfb1ac0	-0.122609615
52	0x3e2057d5	0.15658505
53	0x3c779f72	0.015113698
54	0x3c33af3c	0.010967072
55	0xbb4615a8	-0.003022531
56	0x3df871cd	0.12131081
57	0x3d2d3253	0.04228432
58	0x3e0c89c6	0.13724431
59	0x3cd8aa6e	0.026448455
60	0xbdff8b09	-0.12477691
61	0x3dda4be9	0.1065901
62	0xbde0c160	-0.10974383
63	0xbdf97f47	-0.12182479
64	0x3df55cbf	0.119805805
65	0xbe0c960e	-0.13729116
66	0x3cc3b052	0.023887787
67	0x3d069c5a	0.032863952
68	0xbc707fd6	-0.014678916
69	0x3ba2d9e6	0.004969823
70	0xbb94d1c7	-0.004541609
71	0xbd50d1fc	-0.050981507
72	0xbdcd7b65	-0.10033301
73	0x3cb48164	0.022034355
74	0xbd94e9f1	-0.07271183
75	0x3c3d5377	0.011555544
76	0x3dff91d8	0.12478989
77	0x3c6ccc3e	0.014452992
78	0x3cf67d69	0.030089097
79	0xbda18828	-0.07887298
80	0x3d92fc3b	0.071770154
81	0x3d3e5bd2	0.046474285
82	0x3e100113	0.1406291
83	0xbdd5a9b9	-0.10432763
84	0xbdf3908f	-0.11892807
85	0x3db5cf1e	0.08877395
86	0x3dec7838	0.115463674
87	0x3de1d89a	0.110276416
88	0xbd251ac5	-0.040308733
89	0x3de05e50	0.10955489
90	0xbca34d5a	-0.019934345
91	0xbb5f00c5	-0.0034027558
92	0x3db2f378	0.08737844
93	0xbd036b68	-0.032084852
94	0x3cfb8bed	0.03070637
95	0xbe1bfc8f	-0.15233062
96	0xbdf7e441	-0.12104083
97	0x3db61906	0.088914916
98	0x3c818eb0	0.015815109
99	0xbdcedb7b	-0.10100456
100	0x3d21bc9e	0.03948652
101	0xbd7b1c5f	-0.061306354
102	0x3d76a907	0.06021979
103	0x3cda09db	0.026616028
104	0x3bc9cc93	0.0061584204
105	0xbdfc8af4	-0.12331191
106	0xbd302ca4	-0.043011323
107	0x3d147abb	0.036249857
108	0xbc831154	-0.015999474
109	0xbdeb1239	-0.11478085
110	0xbce2de72	-0.02769396
111	0x3cfa6147	0.030563964
112	0x3d24d0dc	0.040238246
113	0xbd32f8aa	-0.043694176
114	0xbc5106be	-0.012757955
115	0x3e12bccf	0.14329837
116	0x3db9090d	0.090349294
117	0x3da1cbfd	0.07900236
118	0x3cdf2ed9	0.027244018
119	0x3bb5c284	0.0055468697
120	0x3db357c4	0.08756974
121	0xbe15e8ea	-0.14639631
122	0xbdc3a0a3	-0.095521234
123	0xbe0e8fdf	-0.1392207
124	0x3d7cbc30	0.061702907
125	0x3da06854	0.07832399
126	0x3d963a1d	0.07335303
127	0x3d9fd571	0.078043826
128	0x3d92d921	0.0717032
129	0xbcbf7e4c	-0.023375653
130	0xbba2741b	-0.0049576885
131	0x3d22c48b	0.03973822
132	0xbe00acf6	-0.1256598
133	0xbdc58745	-0.09644941
134	0xbd903d7f	-0.070429794
135	0x3dc45709	0.09586913
136	0x3b991ed0	0.0046728626
137	0xbd76a398	-0.06021461
138	0xbc12bfbc	-0.008956846
139	0xbdb7b7da	-0.08970614
140	0x3bf55cc3	0.0074878647
141	0xbd7ab172	-0.06120438
142	0x3c854e6d	0.016272748
143	0xbd5b6250	-0.053560555
144	0xbbf24a78	-0.0073941313
145	0x3d3f88af	0.04676121
146	0xbbbddcb2	-0.005794131
147	0x3dde99ca	0.10869177
148	0x3d2dda45	0.042444486
149	0x3d8dfb56	0.06932704
150	0x3dc93cfe	0.098260865
151	0xbd6317da	-0.05544267
152	0x3c940e82	0.018073324
153	0x3def96a5	0.11698655
154	0x3d3a1661	0.0454315
155	0x3dc7af82	0.09750272
156	0xbddc7039	-0.10763592
157	0x3d833f78	0.0640859
158	0x3b8a55a3	0.0042216345
159	0x3d3525a3	0.044225346
160	0xbd162a21	-0.03666127
161	0xbdc8215f	-0.0977199
162	0xbe114b6d	-0.14188929
163	0xbcf12b6b	-0.029439649
164	0xbdfe33d9	-0.12412233
165	0xb9b557e1	-0.00034588485
166	0x3d329319	0.043597315
167	0xbd4dce03	-0.050245296
168	0xbcf2dd8a	-0.029646654
169	0x3de7e297	0.113225155
170	0xbcde4016	-0.027130168
171	0x3d3619de	0.044458263
172	0xbe16c015	-0.14721711
173	0xbcff1fb6	-0.03114305
174	0x3d17e86e	0.037086897
175	0xbe157363	-0.14594798
176	0xbdacc1aa	-0.08435376
177	0xbddf989d	-0.109177805
178	0x3debfe7e	0.1152315
179	0xbdafa45f	-0.08576273
180	0x3dcca677	0.09992688
181	0x3b530473	0.0032198697
182	0x3d4efdcd	0.050535012
183	0x3e1f54b4	0.15559655
184	0xbdd0b84f	-0.10191404
185	0xbd957619	-0.07297916
186	0x3dbbaa3d	0.0916333
187	0x3d9e821f	0.077396624
188	0xbd3d5d73	-0.0462317
189	0x3e116923	0.14200263
190	0x3c4bbdf4	0.012435425
191	0xbe0eee2b	-0.13958041
192	0xbdc36928	-0.09541541
193	0xbe17cf4c	-0.14825171
194	0x3cf0254f	0.029314665
195	0x3df3300c	0.118743986
196	0x3d0d4bb1	0.034496013
197	0xbe26df1a	-0.16296044
198	0x3db0fc97	0.08641928
199	0x3d1b5ee2	0.037932284
200	0x3da79e11	0.08184446
201	0x3a49edb2	0.0007702961
202	0xbd8f4e5c	-0.06997368
203	0x3e197a9c	0.14988178
204	0xbdee65c9	-0.11640508
205	0xbde401b0	-0.11133134
206	0x3d98658b	0.07441243
207	0xba1b4906	-0.0005923662
208	0x3d7f0ed1	0.06226999
209	0xbcff3b20	-0.031156123
210	0xbda24ebf	-0.07925176
211	0x3e0a9528	0.13533461
212	0xbb138a91	-0.0022513012
213	0xba892730	-0.0010463949
214	0x3ac6ca3f	0.0015166475
215	0xbd8affdd	-0.06787083
216	0x3ce78b83	0.028264767
217	0xbe1150b4	-0.14190942
218	0xbde537da	-0.111922935
219	0x3cdafcb6	0.02673183
220	0xbd71da51	-0.059046093
221	0xbd363bbd	-0.044490565
222	0xbc19a68d	-0.009378088
223	0xbd89db30	-0.0673126
224	0xbdd2b730	-0.102888465
225	0x3e56575a	0.2093176
226	0x3db7098e	0.08937369
227	0xbda97002	-0.08273317
228	0x3d97be4d	0.07409344
229	0xbd88815b	-0.066652976
230	0xbc0f7675	-0.00875627
231	0x3dad479f	0.08460926
232	0x3d36cb4b	0.04462747
233	0xbbbd7f41	-0.005782992
234	0xbd847ff6	-0.06469719
235	0x3d23fb01	0.040034298
236	0xbcee2e1b	-0.02907472
237	0xbd2fe8c1	-0.04294658
238	0x3a9acb21	0.0011809805
239	0x3b9e6d55	0.0048348107
240	0xba8827ba	-0.0010387816
241	0x3dadbdd7	0.08483475
242	0xbde8eb27	-0.11372977
243	0xbdd96a2a	-0.10615952
244	0x3d060c86	0.032726787
245	0xbd2e9b86	-0.042628787
246	0xbdf5e886	-0.12007241
247	0xbd67a097	-0.056549635
248	0x3e48137e	0.19538686
249	0xbdf13c44	-0.11779073
250	0xbd9b0cae	-0.07570778
251	0x3d8a8f64	0.06765631
252	0x3d917879	0.071030565
253	0x3d218b96	0.03943976
254	0x3d23431e	0.03985893
255	0xbd6cf382	-0.057849415

net.2.bias f4 [50]
0	0xbdd390de	-0.103303656
1	0x3d486b39	0.04893038
2	0x3d909ace	0.07060777
3	0xba8c1b12	-0.001068922
4	0x3cca880e	0.024723079
5	0x3d439dfd	0.04775809
6	0x3db7512b	0.089510284
7	0x3d678551	0.056523625
8	0xb8b2ef2b	-8.53225e-05
9	0xbc9e3a35	-0.019314865
10	0x3c91e207	0.017807974
11	0x3c619235	0.013767769
12	0xbd73a43b	-0.059482794
13	0xbd30d034	-0.043167308
14	0xbc42973c	-0.011876877
15	0x3de4796a	0.111559704
16	0xbd8c2b15	-0.06844155
17	0xbe0307f5	-0.12796004
18	0x3d5560eb	0.05209438
19	0x3e049388	0.12946904
20	0xbdbc42e9	-0.091924496
21	0x3ddc7aed	0.10765634
22	0x3d4a604e	0.04940825
23	0xbdb9dbef	-0.09075152
24	0x3d2fe3e2	0.042941935
25	0xbd9fb62b	-0.07798418
26	0x3dcbcb63	0.09950902
27	0xbe18a7a6	-0.14907703
28	0xbe04023f	-0.12891482
29	0x3ddac985	0.10682968
30	0x3d6c7019	0.057724092
31	0x3d000608	0.03125575
32	0x3bf82a2e	0.0075733876
33	0xbd32aa21	-0.04361928
34	0x3d822090	0.06353867
35	0xbd45e85e	-0.048317306
36	0xbde78368	-0.11304361
37	0x3b569fc9	0.0032749048
38	0xbdd25ffd	-0.102722146
39	0x3db648f0	0.089006305
40	0xbd8b27ab	-0.067946754
41	0xbcd21bea	-0.025648076
42	0x3c7b2293	0.015328067
43	0x3d971826	0.07377653
44	0x3dd4386f	0.10362326
45	0xbe10fa3b	-0.14157955
46	0x3adbab49	0.0016759421
47	0xbd8809c4	-0.06642488
48	0xbd2163f0	-0.03940195
49	0xbda2822c	-0.079349846

net.4.weight f4 [50, 50]
0	0xbdc0d123	-0.0941489
1	0x3dd38214	0.10327545
2	0xbe0e03d7	-0.13868652
3	0xbc174627	-0.009233034
4	0x3df35127	0.11880713
5	0x3d3dc5a0	0.046331048
6	0x3de93dcf	0.11388742
7	0x3ada0c26	0.0016635701
8	0x3d586479	0.052830193
9	0x3db2cfb5	0.08731023
10	0xbc92e1aa	-0.01792987
11	0xbd21a0be	-0.039459936
12	0xbd1ca5e1	-0.038244132
13	0x3d828f41	0.0637498
14	0xbc8a7c48	-0.016904965
15	0xbd634f07	-0.05549529
16	0xbda66264	-0.08124235
17	0xbc9a55c4	-0.018839724
18	0x3d06a845	0.032875318
19	0x3da7021b	0.081546985
20	0xbe0fabff	-0.14030455
21	0xbcce5ffb	-0.025192251
22	0x3cd9b6a6	0.026576351
23	0x3da92e13	0.08260741
24	0x3e19d6ca	0.15023342
25	0x3e15118e	0.14557478
26	0x3dffc276	0.12488262
27	0xbd775c5c	-0.060390815
28	0x3da7c3ca	0.08191641
29	0x3e272644	0.16323191
30	0xbc978e9d	-0.01850062
31	0x3e02fa3d	0.12790771
32	0xbd65747e	-0.0560193
33	0x3b6bc083	0.00359729
34	0xbdcf8488	-0.101327
35	0x3c737d63	0.0148614375
36	0xbcd49b7b	-0.025953045
37	0xbdabee33	-0.08395042
38	0xbdecc4a0	-0.11560941
39	0x3c8d1634	0.017222501
40	0xbdf7af40	-0.12093973
41	0x3e147950	0.14499402
42	0x3d56ee8e	0.052473597
43	0x3dec687c	0.11543366
44	0xbd6ec001	-0.058288578
45	0xbcc41033	-0.023933506
46	0xbd5d8d10	-0.054089606
47	0x3e278968	0.1636101
48	0x3e00018c	0.1250059
49	0x3d2c2960	0.042031646
50	0xbd3d3620	-0.046194196
51	0x3dc2509b	0.094880305
52	0x3d82de79	0.063900895
53	0xbd53ef49	-0.051741872
54	0x3da47b22	0.08031298
55	0x3cf0e35d	0.02940529
56	0x3cb5184f	0.022106318
57	0x3d2505e0	0.040288806
58	0xbe0851fb	-0.13312523
59	0x3cc452b1	0.023965212
60	0x3db318fa	0.08744998
61	0xbab52fd8	-0.0013823463
62	0xbc228353	-0.009919005
63	0xbd67d828	-0.056602627
64	0x3db510fd	0.08841131
65	0xbd5c51d0	-0.05378896
66	0xbde2fe3e	-0.11083649
67	0xbdd3a646	-0.103344485
68	0x3d9c864a	0.07642801
69	0x3cf0d9a7	0.02940066
70	0xbe2069c2	-0.15665343
71	0x3e35e30d	0.17762394
72	0xbb597e93	-0.0033187016
73	0xbde9eb41	-0.11421824
74	0x3db552ad	0.0885366
75	0x3cac239a	0.02101307
76	0xbdd7f50a	-0.10544784
77	0x3d62388f	0.05522972
78	0x3dc69f97	0.09698408
79	0xbd982920	-0.07429719
80	0x3e1e2d6e	0.15447018
81	0x3e236b82	0.1595898
82	0xbd02060b	-0.031744044
83	0xbdbb7674	-0.091534525
84	0xbdda461a	-0.10657902
85	0x3d6861bb	0.056733828
86	0x3d1d6d6f	0.038434442
87	0xbd91715e	-0.07101701
88	0x3d311e24	0.043241635
89	0xbd571deb	-0.052518766
90	0x3da717a8	0.08158809
91	0x3d5e643b	0.054294806
92	0xbc95fb9d	-0.018308455
93	0xbd48935a	-0.04896865
94	0xbd81ad03	-0.063318275
95	0x3dcf6f4e	0.101286516
96	0x3d871ec4	0.06597665
97	0xbbbf4c85	-0.0058379793
98	0x3e169613	0.14705686
99	0x3e01ccc7	0.12675773
100	0x3d3fecbc	0.046856627
101	0x3dd34f3e	0.103178486
102	0xbe29dec2	-0.16588882
103	0x3db42104	0.0879536
104	0xbd47fa2f	-0.048822578
105	0xbd463874	-0.04839368
106	0x3d941904	0.07231334
107	0x3c977521	0.018488469
108	0xbd0b3940	-0.033990145
109	0xbdf9dc4a	-0.1220022
110	0x3da29611	0.07938779
111	0xbd4dd543	-0.05025221
112	0xbe06892b	-0.13138263
113	0xbe3ad233	-0.18244247
114	0xbdc41bec	-0.09575638
115	0x3deab372	0.11460008
116	0xbe0d3437	-0.1378945
117	0xbc997210	-0.018731147
118	0xbd4e8340	-0.05041814
119	0xbd945f1f	-0.072447054
120	0x3b8d52b2	0.0043128366
121	0x3d238ab5	0.039927203
122	0x3dadf831	0.084946044
123	0x3d3a12a5	0.045427937
124	0xbe06ee70	-0.13176894
125	0x3c33245e	0.010933964
126	0xbcb80bb3	-0.022466516
127	0x3dc3c7a8	0.09559566
128	0xbddc6d1b	-0.10762998
129	0xbe183506	-0.14863977
130	0xbe1987d6	-0.14993224
131	0x3d515dd5	0.051114876
132	0x3d312458	0.04324755
133	0x3c11c5ff	0.008897304
134	0xbcec4e70	-0.028845996
135	0xbcfcced7	-0.030860348
136	0x3dd0b18a	0.10190113
137	0x3d5301ab	0.051515263
138	0x3e2e8cbc	0.17045873
139	0x3e00f6f4	0.12594205
140	0x3e0756e2	0.13216737
141	0xbc9272f3	-0.017877078
142	0x3dc4cea5	0.09609727
143	0xbdda16d1	-0.10648883
144	0x3dd179eb	0.10228332
145	0x3e2f230a	0.1710321
146	0x3c6e9a96	0.014563223
147	0xbd000ffe	-0.03126525
148	0xbd907357	-0.07053249
149	0x3d0592c6	0.032610677
150	0xbddffae0	-0.109365225
151	0x3db45dfc	0.088069886
152	0x3daf6943	0.08564999
153	0x3de73c01	0.11290742
154	0xbd11a5f5	-0.03555866
155	0x3d9935ba	0.07480951
156	0xbdf009fd	-0.11720655
157	0x3e305532	0.1722
158	0xbd38f024	-0.04515089
159	0xbce47cc5	-0.027891526
160	0xbdd05a9a	-0.10173531
161	0xbc930fdc	-0.017951898
162	0xbe0cb9b5	-0.13742717
163	0x3d76aa67	0.060221102
164	0x3bb36a64	0.0054753292
165	0xbd160c4a	-0.036632814
166	0xbd46044b	-0.048343938
167	0x3db105b7	0.08643668
168	0x3e4c19a1	0.19931652
169	0xbd313a58	-0.04326853
170	0x3d8da48b	0.0691615
171	0xbd3641d9	-0.04449639
172	0x3cc05fa2	0.023483101
173	0xbd987d9b	-0.07445832
174	0xbd0cda81	-0.03438807
175	0x3e456edf	0.19280575
176	0x3df856e3	0.12125947
177	0xbd86d7b2	-0.06584109
178	0x3dd7ba04	0.105335265
179	0xbe1d8750	-0.15383649
180	0xbddc6d6f	-0.1076306
181	0xbdd2d178	-0.10293859
182	0xbdb40edb	-0.08791896
183	0xbd89169a	-0.06693764
184	0xbc4beae6	-0.012446141
185	0xbd9d81ee	-0.07690798
186	0x3e32b81b	0.17453043
187	0x3e0b0d70	0.13579345
188	0x3d48f3eb	0.049060743
189	0xbdb33908	-0.08751112
190	0xbdb5dd1f	-0.08880066
191	0x3db75eea	0.0895365
192	0x3e0f9b81	0.14024164
193	0x3e244a25	0.16043909
194	0x3daf7fa2	0.08569266
195	0xbde3dc17	-0.11125963
196	0x3d1ccd6d	0.038281847
197	0xbd9984a6	-0.07496004
198	0x3dd36975	0.10322849
199	0xbdebee3a	-0.115200475
200	0xbc059754	-0.008153755
201	0x3d69b4eb	0.057057302
202	0x3cbde311	0.023179563
203	0xbc3cacd8	-0.011515819
204	0xbdf017db	-0.117233
205	0x3cb280dc	0.02178996
206	0x3d5a9df1	0.05337328
207	0xbc989cb7	-0.018629415
208	0xbda1d869	-0.07902605
209	0xbd5060de	-0.05087363
210	0x3dfc8b57	0.123312645
211	0xbdaf98e8	-0.085740864
212	0xbdeace16	-0.11465089
213	0x3d64f7fd	0.055900563
214	0x3c098896	0.008394381
215	0x3da8fe0e	0.08251582
216	0x3dc82c50	0.09774077
217	0xbda2bdce	-0.079463586
218	0xbe38b501	-0.18037798
219	0xbe09129f	-0.1338601
220	0xbd6d5d2d	-0.057950187
221	0xb9ee2fdc	-0.00045430555
222	0xbd898b4f	-0.06716024
223	0xbde475a7	-0.11155253
224	0x3e000b31	0.12504269
225	0xbc7fb2b5	-0.015606572
226	0xbdeaf554	-0.11472574
227	0xbdfca3af	-0.12335908
228	0x3e0ee519	0.13954581
229	0x3e776d9c	0.24162906
230	0x3e1627a1	0.14663555
231	0x3db8c500	0.0902195
232	0x3e0f72c6	0.14008626
233	0xbd135fa5	-0.035979886
234	0xbda4484a	-0.080216005
235	0x3c2dae0c	0.010600578
236	0xbd9c5400	-0.07633209
237	0x3be9e363	0.0071377023
238	0xbdf22951	-0.11824287
239	0xbd5dbc64	-0.05413474
240	0xbe0ef65c	-0.13961166
241	0x3ca8062e	0.02051076
242	0xbcd22a9b	-0.025655081
243	0xbd8a8f61	-0.067656286
244	0x3daae3fe	0.08344267
245	0x3ddc9195	0.10769955
246	0xbd10424d	-0.03521948
247	0xbda40552	-0.08008827
248	0x3df378d9	0.11888284
249	0xbd97555d	-0.07389329
250	0x3d164f09	0.036696468
251	0xbe61617f	-0.22009848
252	0xbe066756	-0.13125357
253	0xbd5dcc36	-0.05414983
254	0x3d9e0a60	0.077168226
255	0xbdcdc07e	-0.100464806

net.4.bias f4 [50]
0	0xbd875bd6	-0.06609313
1	0x3d91fcbd	0.07128284
2	0x3dfd8af2	0.12380017
3	0xbd980278	-0.07422346
4	0xbce46838	-0.027881727
5	0xbd69539f	-0.056964513
6	0x3c9bf6bc	0.01903855
7	0x3d230406	0.03979876
8	0x3d66c4e7	0.056340124
9	0x3d2eddf5	0.042692143
10	0xbd8f2b1c	-0.06990644
11	0x3daf4ab9	0.08559174
12	0x3e0c8906	0.13724145
13	0x3d7c744b	0.061634343
14	0x3dee8d31	0.11648024
15	0xbd95e7c9	-0.073196
16	0xbd816588	-0.06318194
17	0x3d1d80ba	0.03845284
18	0x3dde0bc8	0.10842091
19	0x3d81e562	0.063425794
20	0x3d2f5030	0.042801082
21	0x3da0b4fe	0.078470215
22	0x3e09e4a2	0.13466123
23	0xbd70a4a7	-0.058750775
24	0xbd39b9de	-0.045343272
25	0xbdf15b5a	-0.11785002
26	0xbd9a769e	-0.07542156
27	0x3d502a2d	0.050821472
28	0x3dcb58be	0.099290356
29	0x3dab8a74	0.08376017
30	0xbd68133b	-0.056658965
31	0xbd994a82	-0.07484914
32	0x3d6bb229	0.057542954
33	0x3cef9319	0.029244946
34	0xbdb3fcce	-0.08788453
35	0x3dd3fbe1	0.103507765
36	0x3dd6b884	0.10484412
37	0x3d86277a	0.06550498
38	0xbde3a876	-0.11116116
39	0x3d29aaf6	0.041422807
40	0xbdaefdc9	-0.085444994
41	0xbdccc5f2	-0.099986926
42	0x3e0629a9	0.1310183
43	0x3d8a1f38	0.06744236
44	0x3dd5695b	0.104204856
45	0x3cf00602	0.02929974
46	0x3dfa456e	0.12220274
47	0x3cd2c30d	0.025727773
48	0x3ded220e	0.11578761
49	0xbd5bc5d1	-0.05365545

net.6.weight f4 [50, 50]
0	0x3e1cc043	0.15307717
1	0x3ca3bc5d	0.01998728
2	0x3d570708	0.05249694
3	0xbe1bcb16	-0.1521419
4	0x3c7d3522	0.015454562
5	0x3deac708	0.114637434
6	0xbda78876	-0.08180325
7	0x3dde15d5	0.10844008
8	0x3e731aac	0.23740643
9	0x3c83141d	0.016000802
10	0x3dc65949	0.096849985
11	0x3dff713c	0.124727696
12	0x3c726be8	0.014796235
13	0x3d8ce6a3	0.06879928
14	0xbdd4ca09	-0.10390098
15	0xbda37b19	-0.079824634
16	0x3d9cccdb	0.076562606
17	0xbdf1e850	-0.11811888
18	0x3de3138e	0.11087714
19	0xbdee0643	-0.11622288
20	0x3e1fe764	0.15615612
21	0x3d204dac	0.039136574
22	0xbd73fe90	-0.05956894
23	0x3deea537	0.11652606
24	0x3e13817a	0.1440486
25	0xbdd1c037	-0.1024174
26	0xbe0d156d	-0.13777705
27	0xbdc051e8	-0.093906224
28	0x3cd16909	0.02556278
29	0x3df596c9	0.119916506
30	0x3d49ea72	0.04929585
31	0x3db4eaaf	0.08833825
32	0xbdce7924	-0.100816995
33	0x3b368f54	0.0027856426
34	0xbdb95b9d	-0.09050677
35	0xbde26dc6	-0.11056094
36	0xbbe39db7	-0.0069462913
37	0xba54a852	-0.000811224
38	0xbdb9e8d3	-0.09077611
39	0xbcfc7e18	-0.030821845
40	0x3cb72eeb	0.02236124
41	0xbd6f37c1	-0.05840278
42	0xbcb0a8ad	-0.021564806
43	0xbda3951f	-0.07987427
44	0x3d971b36	0.07378237
45	0x3dc691ca	0.09695776
46	0xbe1a42e5	-0.1506458
47	0xbd6d9ee2	-0.05801285
48	0xbbecba81	-0.0072243814
49	0xbe374bea	-0.17900053
50	0xbe22f44f	-0.15913509
51	0xbcf4dfbd	-0.029891843
52	0x3e1d9529	0.15388931
53	0xbcbb50c9	-0.02286567
54	0xbdfe8a0b	-0.12428673
55	0xbd95e56a	-0.07319148
56	0x3dd46065	0.10369948
57	0xbe16aab2	-0.14713553
58	0xbe6b61e4	-0.22986561
59	0x3daff694	0.08591953
60	0x3c473510	0.012158647
61	0x3e060d5b	0.13091032
62	0x3d979004	0.07400516
63	0x3e08d024	0.1336065
64	0xbc12381c	-0.00892451
65	0xbdfaa6e2	-0.122388616
66	0x3c0b80d1	0.008514599
67	0x3da6bf24	0.08141926
68	0xbe2acd54	-0.16679889
69	0xbd3db646	-0.046316408
70	0x3daca74f	0.08430349
71	0xbd9d017b	-0.07666298
72	0xbdd7e101	-0.10540963
73	0x3d92a280	0.07159901
74	0x3bb9990b	0.005663996
75	0xbd25546f	-0.040363725
76	0x3d71fa15	0.059076387
77	0x3e1613f5	0.1465605
78	0xbd581d81	-0.052762512
79	0xbd7d29a8	-0.061807305
80	0xbd974194	-0.07385555
81	0xbd75f5d9	-0.06004891
82	0x3c77ad40	0.01511699
83	0xbc569729	-0.013097563
84	0x3e2fc560	0.17165136
85	0xbdc4ed8f	-0.09615623
86	0x3da64f2d	0.0812057
87	0xbd5d9786	-0.054099582
88	0x3da66a86	0.081257865
89	0xbe30d861	-0.17270042
90	0xbdb7f4db	-0.08982249
91	0xbdfa44ae	-0.12220131
92	0x3e03aa28	0.12857878
93	0xbcf718bf	-0.030163167
94	0xbd708aa9	-0.058725987
95	0xbcc17175	-0.02361367
96	0xbdfea0b5	-0.12432996
97	0xbe3d1622	-0.18465474
98	0xbe3302f7	-0.174816
99	0x3e2a7b7d	0.1664867
100	0xbd7479e8	-0.05968657
101	0x3daedc39	0.08538098
102	0xbb202812	-0.0024437946
103	0x3dd2873d	0.10279701
104	0x3e2c5c41	0.16832067
105	0xbda7e5f5	-0.08198158
106	0x3d3fd5f2	0.046834894
107	0xbe2cdd4b	-0.16881292
108	0x3e603edf	0.21898983
109	0xbe0c5be7	-0.13706933
110	0x3b774614	0.0037730979
111	0xbe06e92f	-0.1317489
112	0xbe1bb106	-0.15204248
113	0x3dc1146c	0.09427723
114	0xbe017823	-0.12643485
115	0xbdc9b74f	-0.098494165
116	0x3e0138bb	0.12619297
117	0x3dbe3dad	0.092891075
118	0x3d757fca	0.059936322
119	0x3d9425e3	0.07233789
120	0x3e17b1d1	0.14813925
121	0x3d38a8c6	0.04508283
122	0xbc2c7606	-0.010526186
123	0xbb438368	-0.0029832963
124	0x3d8c9aa2	0.06865431
125	0xbd97c968	-0.07411462
126	0xbe1414bb	-0.14461033
127	0xbdb8a19c	-0.090151995
128	0xbc03f3d8	-0.008053742
129	0x3d94c6ba	0.072644666
130	0xbda6783c	-0.08128402
131	0x3dfc7260	0.12326503
132	0xbd1cbd80	-0.03826666
133	0xbd3b00e9	-0.045655165
134	0x3dd9dd89	0.106379576
135	0x3d0bb9a8	0.034112602
136	0x3ce01d29	0.027357655
137	0xbdfba3a1	-0.12287069
138	0xbe0d86fa	-0.1382102
139	0x3e27d90a	0.16391388
140	0xbd35f296	-0.0444208
141	0x3d5e48e3	0.05426873
142	0x3d200d87	0.0390754
143	0x3d800956	0.06251781
144	0x3e015108	0.12628567
145	0xbd3d2579	-0.046178315
146	0x3cdcaa0f	0.026936559
147	0x3dc408a1	0.09571958
148	0x3d09eb95	0.033671934
149	0xbc2ae160	-0.01042971
150	0x3d80a242	0.06280948
151	0xbd82ec96	-0.063927814
152	0xbe082051	-0.13293578
153	0xbce13dd1	-0.027495297
154	0x3936ec83	0.0001744498
155	0xbd092cbb	-0.033489924
156	0xbd7ef061	-0.062240962
157	0x3d9a473a	0.07533117
158	0x3c70ff2d	0.014709276
159	0xbc725194	-0.014789958
160	0x3df18922	0.11793734
161	0xbdd4099d	-0.10353396
162	0x3cd69368	0.026193336
163	0x3df56dbf	0.11983823
164	0xbd9168c8	-0.071000636
165	0x3b730353	0.0037080839
166	0xbd833ff4	-0.064086825
167	0xbe1e6d4f	-0.15471385
168	0x3d8230f6	0.06356995
169	0x3d39c797	0.04535636
170	0xbd3966c8	-0.045264035
171	0x3b89fcf2	0.0042110616
172	0xbe218542	-0.1577349
173	0xbe8c7649	-0.27433994
174	0x3de6f2f1	0.11276806
175	0xbd924b80	-0.07143307
176	0xbe073125	-0.13202341
177	0x3d9e825a	0.07739706
178	0x3dfed948	0.12443787
179	0x3d7bbbe8	0.0614585
180	0x3d2a430b	0.041567843
181	0xbe4335ec	-0.19063538
182	0xbd68465e	-0.056707732
183	0xbbe8daad	-0.0071061463
184	0xbe498ccb	-0.19682615
185	0xbcae0b29	-0.021245556
186	0x3d82f2bc	0.06393954
187	0xbd31aef9	-0.043379758
188	0xbdd080be	-0.101808056
189	0x3e27a0e2	0.16369966
190	0x3e3e135d	0.18562074
191	0x3b920677	0.004456337
192	0xbd821aeb	-0.063527904
193	0xbd057ab3	-0.03258772
194	0x3d91feec	0.071287006
195	0x3d8771bd	0.06613491
196	0xbd1a5330	-0.03767699
197	0xbd97150c	-0.07377061
198	0x3d834bdf	0.06410956
199	0x3e0e1337	0.13874517
200	0xbcc5ebaf	-0.024160234
201	0xbdbc147b	-0.09183594
202	0xbd8fcd22	-0.07021548
203	0x3dc2d617	0.09513491
204	0xbe1486ca	-0.14504543
205	0x3dfdcfa9	0.12393124
206	0xbd8f0d26	-0.0698493
207	0x3d85dc53	0.06536164
208	0xbe5e5b8b	-0.21714608
209	0xbdbe933b	-0.09305426
210	0x3ddc0b1c	0.107443064
211	0xbdc0957c	-0.09403512
212	0x3e128e22	0.14312032
213	0xbd9cfbe3	-0.07665231
214	0x3ddfa54f	0.10920202
215	0x3dd1b0c8	0.102387965
216	0xbe28b1b5	-0.1647404
217	0x3e133bbc	0.14378256
218	0xbc9e1bd1	-0.019300373
219	0x3d61e688	0.055151492
220	0xbe28bf21	-0.1647916
221	0xbd65381a	-0.055961706
222	0xbca5410f	-0.020172624
223	0x3d58aa52	0.052896805
224	0x3dc6caa1	0.09706617
225	0xbdfa267e	-0.12214373
226	0x3dac8b02	0.08424951
227	0xbc86c0c9	-0.016449349
228	0xbdaadd64	-0.08343008
229	0xbdc73f15	-0.09728829
230	0xbdc918ae	-0.098191604
231	0x3e09b2f2	0.13447168
232	0x3e1f381b	0.15548746
233	0x3d2ada8f	0.04171234
234	0x3bc6f3f5	0.0060715624
235	0x3da20916	0.07911889
236	0x3d93a740	0.07209635
237	0x3df93227	0.12167769
238	0x3ca97558	0.020685837
239	0xbe54ceef	-0.20782064
240	0xbde820df	-0.11334395
241	0xbda52be7	-0.08065014
242	0x3deb7b48	0.114981234
243	0x3d61bfbf	0.055114504
244	0xbe0c6b2e	-0.13712761
245	0xbe0f07b0	-0.13967776
246	0x3d3ddf16	0.04635533
247	0x3dd270b3	0.10275402
248	0xbe063a37	-0.13108145
249	0xbd6413ee	-0.05568307
250	0xbcdc4545	-0.026888499
251	0xbde08b09	-0.10964019
252	0xbe093ab1	-0.13401295
253	0x3c50b070	0.0127373785
254	0x3d5eae21	0.05436528
255	0xbda39d8c	-0.07989034

net.6.bias f4 [50]
0	0xbdb5920b	-0.08865746
1	0xbc787aaf	-0.015165969
2	0xbd4a7798	-0.04943046
3	0x3db2c021	0.08728052
4	0x3d03fa5c	0.032221183
5	0x3cc743ec	0.02432438
6	0x3dd9a739	0.10627598
7	0x3d06082c	0.032722637
8	0xbce2608e	-0.027633931
9	0x3db83814	0.08995071
10	0xbd93fcce	-0.07225953
11	0xbd102147	-0.035187986
12	0x3dfc92d0	0.1233269
13	0xbe0452b5	-0.12922175
14	0x3d30b628	0.043142468
15	0x3dead928	0.114672005
16	0x3b8d236a	0.0043072
17	0xbe0294f1	-0.12752129
18	0x3d50cdb8	0.05097744
19	0x3c0c6bca	0.008570621
20	0xbdab7e54	-0.083737046
21	0x3daf569a	0.0856144
22	0x3d31970a	0.043356933
23	0x3d03e1a0	0.032197595
24	0x3dff46cb	0.124646746
25	0x3bde5864	0.0067854393
26	0xbda49d25	-0.080377854
27	0xbd8dd998	-0.06926268
28	0x3de825ea	0.113353565
29	0x3cb3025f	0.021851717
30	0xbd267c62	-0.040645964
31	0x3d0fd8df	0.035118934
32	0x3df3cd76	0.11904423
33	0xbd3213bd	-0.043475855
34	0xbdca02a5	-0.09863786
35	0x3decda65	0.11565093
36	0x3d07623b	0.033052664
37	0x3d78f314	0.060778692
38	0xbd68394f	-0.05669528
39	0xbcf7107d	-0.03015923
40	0x3dab27a6	0.08357172
41	0x3d2b3109	0.04179481
42	0x3dbe7160	0.09298968
43	0xbdfa6cd0	-0.122277856
44	0x3df4414f	0.11926519
45	0xbd3967c0	-0.04526496
46	0x3df8b397	0.12143629
47	0x3dec8d50	0.11550391
48	0xbcef35d0	-0.029200464
49	0xbd8bb043	-0.06820729

net.8.weight f4 [50, 50]
0	0x3cf1193a	0.029430974
1	0xbdffc079	-0.12487883
2	0xbda9ffc9	-0.0830074
3	0xba75f021	-0.00093817903
4	0xbdb7f6e4	-0.089826375
5	0xbc8dc4ef	-0.01730582
6	0x3d19c4e8	0.0375413
7	0x3dafa204	0.08575824
8	0xbd867fb6	-0.06567328
9	0xbb70df7e	-0.0036754305
10	0x3e115f65	0.14196546
11	0x3d3d2c5a	0.046184875
12	0x3da12f1a	0.07870312
13	0x3d03929e	0.032122247
14	0xbd04fd19	-0.032467935
15	0x3da57fe0	0.08081031
16	0xbe35ff63	-0.17773204
17	0xbe26db76	-0.16294655
18	0xbd2a3015	-0.04154976
19	0x3e0bdbf4	0.13658124
20	0xbe38b21c	-0.18036693
21	0x3e10b07f	0.14129828
22	0xbd6b244c	-0.057407662
23	0x3de4adda	0.11165972
24	0x3de82d3c	0.11336753
25	0x3de5b61f	0.112163775
26	0x3d9398d2	0.072068825
27	0xbd202bb4	-0.03910418
28	0xbddc1433	-0.1074604
29	0x3ca30656	0.019900482
30	0xbd55bc3d	-0.05218147
31	0xbdef59e7	-0.116870694
32	0xbdc94e1a	-0.0982935
33	0x3d044254	0.032289818
34	0xbe0b7809	-0.13620009
35	0xbe0c3a46	-0.13694105
36	0x3df33499	0.118752666
37	0x3e28f744	0.16500574
38	0x3de28576	0.11060612
39	0x3d9aa765	0.07551459
40	0xbdd42722	-0.103590265
41	0xbd251b51	-0.040309254
42	0x3e285356	0.1643804
43	0xbd6a8260	-0.05725324
44	0x3d082d3a	0.033246256
45	0xbdde8c98	-0.1086666
46	0xbd842a6a	-0.06453402
47	0xbd526b80	-0.05137205
48	0x3c58aeb0	0.0132252425
49	0xbd3827cb	-0.044959825
50	0x3dee3ac5	0.11632303
51	0xbdca6484	-0.09882453
52	0xbd8a3302	-0.0674801
53	0x3e102773	0.14077549
54	0xbe13bbe2	-0.1442714
55	0x3d33378c	0.043754146
56	0xbbd31d54	-0.006442705
57	0x3d811dc7	0.06304508
58	0x3e1927a7	0.14956532
59	0x3dfd3606	0.1236382
60	0xbdabc22e	-0.08386646
61	0xbd22adbc	-0.039716467
62	0xbda9c09d	-0.08288691
63	0x3cbe1631	0.023203941
64	0xbd0177ab	-0.031608265
65	0xbdb4b71d	-0.088239886
66	0xbe1a1f1e	-0.15050933
67	0xbd32bf5e	-0.043639533
68	0xbe0f0524	-0.13966805
69	0x3daa2602	0.08308031
70	0x3d6273f0	0.055286348
71	0xbe008fb3	-0.12554817
72	0xbe359ec5	-0.17736347
73	0x3e038c0b	0.12846391
74	0xbe0a45fa	-0.13503256
75	0x3e194606	0.14968118
76	0xbdf618c4	-0.120164424
77	0x3d0c24b1	0.03421468
78	0xbd923570	-0.07139099
79	0x3b9f5806	0.004862788
80	0xbc9406c9	-0.018069642
81	0x3e151d18	0.1456188
82	0xbd99a1bd	-0.07501552
83	0xbd6bbfec	-0.057556078
84	0xbdafa832	-0.085770026
85	0xbcc4807b	-0.023987046
86	0xbc805819	-0.015667008
87	0x3d9a1e33	0.07525291
88	0xbd5ab299	-0.05339298
89	0x3d3603e9	0.044437323
90	0xbcfb0a97	-0.030644698
91	0xbdb1a00d	-0.086731054
92	0xbdae7437	-0.0851826
93	0x3d481471	0.04884762
94	0xbccab86b	-0.02474614
95	0xbd20f119	-0.03929243
96	0x3e13e376	0.14442238
97	0xbe196ca2	-0.14982846
98	0x3dd9c816	0.106338665
99	0x3e013034	0.12616044
100	0xbce4e4eb	-0.027941188
101	0x3dabb7bb	0.08384653
102	0xbe0f84ae	-0.14015457
103	0x3d434e9f	0.0476824
104	0x3e1c9001	0.15289308
105	0x3cf6fc6f	0.030149667
106	0xbd8ee97e	-0.06978129
107	0xbd8f3902	-0.06993295
108	0xbcef1a2e	-0.029187288
109	0xbda6c63f	-0.08143281
110	0xbdb3a58a	-0.087718084
111	0xbde152e4	-0.11002138
112	0x3dac1eb9	0.084042974
113	0x3c4eef52	0.012630301
114	0xbdcc9d8a	-0.09990986
115	0xbe10815e	-0.1411185
116	0x3d459ec4	0.048247114
117	0x3dcc2924	0.099687845
118	0x3ce39f66	0.027785968
119	0xbe046dcb	-0.12932508
120	0x3d498be0	0.04920566
121	0xbdf8ef44	-0.12155011
122	0x3db0b804	0.08628848
123	0xbe164f90	-0.14678788
124	0x3daa708a	0.083222464
125	0xbd58d413	-0.052936625
126	0x3da8a142	0.082338825
127	0xbdec25e1	-0.11530662
128	0x3dec2951	0.11531318
129	0xba56434f	-0.0008173482
130	0x3d90e52d	0.07074962
131	0x3dc5bd9c	0.09655306
132	0xbca17f63	-0.019714063
133	0x3e03dd21	0.12877323
134	0xbb84927f	-0.004045784
135	0x3dce23e4	0.10065439
136	0x3e0c89dc	0.13724464
137	0xbe0981f9	-0.13428487
138	0xbdba8df1	-0.091091044
139	0xbdf070bf	-0.117402546
140	0x3e2fa833	0.17154007
141	0xbe2d127f	-0.16901587
142	0xbd0cfc58	-0.03442034
143	0xbc6c4d97	-0.014422796
144	0xbe02c7a7	-0.12771474
145	0x3dd1d1b6	0.10245077
146	0xbc970612	-0.018435512
147	0x3e2c9bc7	0.168563
148	0xbc6699ab	-0.014074723
149	0xbd6787f5	-0.056526143
150	0x3d0d37fd	0.034477223
151	0xbd327d70	-0.043576658
152	0xbd56d2be	-0.052447073
153	0xbdc9768b	-0.098370634
154	0x3dd5fa50	0.10448134
155	0xbda8fd1e	-0.08251403
156	0xbe3a23a9	-0.18177666
157	0xbe3ecb2f	-0.18632196
158	0x3ddd96ac	0.10819754
159	0xbe39a30b	-0.18128602
160	0x3d7a2e6e	0.061079435
161	0xbdd703b7	-0.104987554
162	0x3c241104	0.0100138225
163	0xbcede2b5	-0.029038766
164	0xbe0aa4fb	-0.13539498
165	0x3d04adcb	0.032392304
166	0xbdd5fe52	-0.104488984
167	0x3d12e4cb	0.035862725
168	0x3e3937ad	0.18087645
169	0x3df11d18	0.11773127
170	0xbd4692c1	-0.0484798
171	0x3d127f69	0.03576604
172	0x3deb589c	0.1149151
173	0xbd1452ac	-0.036211655
174	0xbc08dca3	-0.008353385
175	0x3ddcb825	0.1077731
176	0x3e1663b6	0.14686474
177	0x3dda3f16	0.10656564
178	0xbce456af	-0.027873365
179	0xbd010df4	-0.031507447
180	0x3c039ce9	0.008033016
181	0x3c12147d	0.008916018
182	0xbe03308b	-0.12811486
183	0x3dc6177a	0.096724465
184	0x3e417c5e	0.18895099
185	0x3db5a494	0.088692814
186	0x3dd8509f	0.10562252
187	0xbd83a2eb	-0.064275585
188	0x3d92e617	0.071727924
189	0xbd66b1fd	-0.056322087
190	0x3e309eea	0.17248121
191	0xbe235704	-0.15951163
192	0xbe46f113	-0.194279
193	0x3e117855	0.1420606
194	0x3d14a148	0.036286622
195	0x3dbb0f8f	0.09133827
196	0xbe17003f	-0.14746188
197	0x3e36ad95	0.17839654
198	0x3dbfaefa	0.09359546
199	0x3e1a330d	0.15058537
200	0xbc6ea3b0	-0.014565393
201	0xbd0f75b0	-0.035024345
202	0xbc388032	-0.011261033
203	0x3d3c1b4e	0.045924477
204	0xbdc3d2d7	-0.09561699
205	0x3d367544	0.044545427
206	0xbdd99262	-0.106236234
207	0x3dea2b3d	0.11434028
208	0xbc1cb30a	-0.009564171
209	0xbc5bae95	-0.013408323
210	0xbd4abbe7	-0.049495604
211	0xbe027dc5	-0.1274329
212	0x3d6dc717	0.058051195
213	0x3cc20988	0.023686185
214	0x3de79cc6	0.11309199
215	0x3de9182f	0.11381566
216	0x3d8ae903	0.06782725
217	0xbda9ced7	-0.08291405
218	0xbdde444b	-0.108528696
219	0xbe2fb718	-0.17159688
220	0x3d55908a	0.052139796
221	0xbe0ca5ce	-0.13735124
222	0xbd664211	-0.05621535
223	0x3e4a818c	0.1977598
224	0xbe08dc71	-0.13365342
225	0xbb65f9ee	-0.0035091597
226	0x3db9afae	0.09066711
227	0xbdf4efc6	-0.11959796
228	0x3cd9d62d	0.026591385
229	0xbcf784a4	-0.030214615
230	0xbdef37a4	-0.116805345
231	0xbda97422	-0.08274104
232	0x3c93ee9b	0.018058112
233	0x3d490147	0.049073484
234	0x3cafb5ec	0.021449052
235	0x3953b594	0.00020190171
236	0xbddd7445	-0.10813192
237	0x3ded1d02	0.115777984
238	0xbe27fe04	-0.16405493
239	0xbd9d7786	-0.07688813
240	0xbd470146	-0.0485852
241	0x3d094616	0.033514105
242	0x3e0cbeba	0.13744631
243	0xbdccfd38	-0.10009235
244	0x3d656836	0.056007586
245	0x3e60c05f	0.21948384
246	0x3e1922d8	0.14954698
247	0xbdc1a59b	-0.09455415
248	0x3d7c4e98	0.06159839
249	0xbde93ffa	-0.11389156
250	0xbe207479	-0.15669431
251	0x3d8aefa4	0.06783989
252	0xbe132169	-0.14368214
253	0xbdfd26ff	-0.123609535
254	0xbdae79a8	-0.08519298
255	0xbd7966a9	-0.06088892

net.8.bias f4 [50]
0	0x3df4620a	0.11932762
1	0xbe03ff7c	-0.12890428
2	0x3d630867	0.055427935
3	0xbdbfa48b	-0.09357556
4	0x3e02e2f5	0.1278189
5	0x3e08b8c3	0.13351731
6	0xbc352193	-0.011055368
7	0x3d81e55a	0.063425735
8	0xbe05ad95	-0.13054498
9	0x3daba951	0.08381904
10	0xb77e2765	-1.5148752e-05
11	0xbdfc6592	-0.123240605
12	0xbddb003c	-0.10693404
13	0x3dd566f3	0.10420027
14	0xbdf228f6	-0.11824219
15	0x3cff468a	0.031161565
16	0xbdf9047d	-0.12159059
17	0xbdea706f	-0.11447226
18	0x3ded70a9	0.11593754
19	0xbb0e3759	-0.002170047
20	0x3bb7727a	0.0055983635
21	0x3de3a437	0.11115306
22	0x3ce4d470	0.02793333
23	0x3d792ac8	0.060831815
24	0xbc892444	-0.016740926
25	0x3d809f67	0.062804036
26	0xbc0192c8	-0.0079085305
27	0x3d1089ad	0.035287548
28	0x3cfabec3	0.03060854
29	0xbdb3ccd5	-0.08779303
30	0xbdbac3be	-0.09119366
31	0xbdacd2f2	-0.08438672
32	0x3dad0730	0.084486365
33	0x3db334a2	0.08750273
34	0x3e153982	0.14572719
35	0x3e08394e	0.1330311
36	0xbc3e6ca0	-0.011622578
37	0x3d3a803b	0.045532446
38	0x3d95e3ec	0.07318863
39	0xbd8410b7	-0.064485006
40	0x3dda4d9d	0.10659335
41	0xbdbc9d53	-0.09209695
42	0x3dee870b	0.11646851
43	0x3d1c239b	0.038119894
44	0x3be16ac1	0.006879181
45	0xbdbb1505	-0.091348685
46	0x3d929351	0.071570046
47	0xbba115d3	-0.0049159317
48	0xbd099fec	-0.03359978
49	0xbdd6233b	-0.104559384

net.10.weight f4 [50, 50]
0	0x3d21dc00	0.03951645
1	0x3ca9ec02	0.02074242
2	0xbbee9c5b	-0.0072818226
3	0x3d77e21f	0.06051838
4	0xbdeb3771	-0.11485184
5	0x3e09fa77	0.13474451
6	0xbc94d248	-0.018166676
7	0x3c3058af	0.010763331
8	0xbdcc57c4	-0.099776775
9	0x3d8cd091	0.068757184
10	0x3bf580d6	0.007492165
11	0xbd65f18e	-0.056138568
12	0x3dcea6a0	0.10090375
13	0xbbb49caf	-0.005511842
14	0x3da5e1ab	0.080996834
15	0xbde75940	-0.1129632
16	0xba82f838	-0.0009992188
17	0xbd8c283a	-0.0684361
18	0x3d419b3a	0.047267176
19	0xbe76a95a	-0.2408804
20	0xbe34ccd1	-0.17656256
21	0xbe1b4e0f	-0.15166496
22	0xbdabfd4d	-0.08397923
23	0x3d263970	0.04058212
24	0x3dad8375	0.08472339
25	0x3b1e6d29	0.0024173951
26	0xbdeb8a4f	-0.1150099
27	0xbd8d2836	-0.06892435
28	0xbbfaa59d	-0.007649137
29	0x3c4d600a	0.0125351045
30	0xbdb41977	-0.087939195
31	0x3e04d0cf	0.12970279
32	0x3e1ad718	0.15121114
33	0x3d43bbb3	0.047786426
34	0x3e748a22	0.23880818
35	0x3d689428	0.056781918
36	0xbe3657bb	-0.17806904
37	0xbc91ef58	-0.017814323
38	0xbd88f9dd	-0.06688283
39	0xbd9e35af	-0.07725083
40	0xbdceadc5	-0.10091738
41	0xbe232932	-0.15933684
42	0xbb482134	-0.0030537369
43	0x3e207fac	0.15673703
44	0x3d018bcb	0.031627458
45	0xbd3958cf	-0.04525071
46	0xbdc586e3	-0.09644868
47	0xbddb726b	-0.10715183
48	0xbdf18a73	-0.11793985
49	0xbc877d98	-0.01653938
50	0xbe128f97	-0.14312588
51	0x3e2528c9	0.1612884
52	0xbceee42c	-0.029161535
53	0x3c06ab28	0.008219518
54	0x3d0368a9	0.032082234
55	0x3dca359b	0.09873506
56	0x3e711439	0.2354287
57	0xbdf48bc7	-0.11940723
58	0x3d40c42e	0.04706209
59	0x3e46b33d	0.19404311
60	0xbe2d2231	-0.16907574
61	0x3d1fbf47	0.039000776
62	0xbd151a64	-0.03640212
63	0x3dfc43c0	0.1231761
64	0x3d405b55	0.0469621
65	0x3cc3e246	0.023911607
66	0x3d9141a5	0.07092599
67	0x3ddbc6aa	0.107312515
68	0xbcd214d5	-0.0256447
69	0xbdcfad13	-0.10140433
70	0x3da06fb3	0.07833805
71	0x3dd57c25	0.10424069
72	0x3da862c0	0.0822196
73	0xbda8d582	-0.082438484
74	0x3da0d55e	0.078531966
75	0x3d87d002	0.06631471
76	0x3dba0727	0.090833955
77	0xbddca85b	-0.10774299
78	0xbe4350f6	-0.19073853
79	0x3dfcc33a	0.12341924
80	0xbdbaf40d	-0.0912858
81	0x3d96e397	0.07367628
82	0x3d9c3e20	0.07629037
83	0x3e0d1487	0.13777362
84	0x3cd88723	0.026431626
85	0xbd9d5aa3	-0.07683303
86	0x3e51c043	0.20483498
87	0x3d8c9de0	0.0686605
88	0xbac4ce14	-0.0015015029
89	0x3e092be7	0.13395654
90	0x3da59f97	0.0808708
91	0x3dbef038	0.09323162
92	0x3d135055	0.035965282
93	0xbdb2dd49	-0.08733613
94	0x3e39dc53	0.18150453
95	0x3cb86ae4	0.022511907
96	0xbe219ad7	-0.15781723
97	0x3e4ee7f0	0.20205665
98	0x3bfff89d	0.0078116194
99	0x3bababac	0.0052389707
100	0x3dcc4b7c	0.09975335
101	0x3e05f1ec	0.13080567
102	0xbe6598d8	-0.22421587
103	0x3c8380b1	0.016052576
104	0xbcf1ec21	-0.02953154
105	0xbdfc0fc3	-0.12307694
106	0x3cd032ca	0.025414843
107	0xbb917b70	-0.0044397637
108	0xbdd3fbb0	-0.1035074
109	0xbe20f051	-0.15716673
110	0x3ded78e5	0.115953244
111	0x3e170863	0.14749293
112	0x3dc4df97	0.09612959
113	0xbd270dd9	-0.04078469
114	0x3e056c63	0.13029628
115	0xbdf2c7a0	-0.11854482
116	0xbbaa7a0c	-0.0052025374
117	0xbe28ec5d	-0.16496415
118	0x3da9bdf7	0.08288186
119	0x3e4bcce0	0.19902372
120	0x3da77698	0.08176917
121	0x3e296379	0.16541852
122	0x3e4efe20	0.20214128
123	0x3da0d0e3	0.07852342
124	0xbe2bea80	-0.16788673
125	0x3d346f74	0.044051602
126	0xbb7382b4	-0.0037156763
127	0x3e2a337c	0.16621202
128	0xbda1b968	-0.078966916
129	0x3da472e8	0.08029729
130	0x3dd07758	0.10179013
131	0x3c00d83e	0.007864056
132	0xbd4ef07f	-0.050522324
133	0x3e2d76b8	0.16939819
134	0x3d2b1721	0.041770104
135	0x3c9097d7	0.017650528
136	0x3de46dc5	0.111537494
137	0xbcf467e6	-0.029834699
138	0x3d0560de	0.032563083
139	0x3e3d23ae	0.18470642
140	0xbe0a18de	-0.13486049
141	0x3e3fd2b0	0.18732715
142	0xbb8c4594	-0.0042807553
143	0xbdc13fcd	-0.09435997
144	0xbda38c8f	-0.07985794
145	0xbb986a65	-0.004651355
146	0xbcce3d7f	-0.025175808
147	0xb9775066	-0.00023585706
148	0x3e4bcb6c	0.19901818
149	0x3d0f9654	0.035055473
150	0xbe3dd706	-0.18539056
151	0x3d61ad84	0.055097118
152	0x3dce35fe	0.10068892
153	0x3dc612c5	0.09671549
154	0xbda3262f	-0.07966267
155	0x3c9d4482	0.019197706
156	0x3e5c2ef2	0.21502283
157	0x3e4b6d53	0.19865923
158	0x3d1072fd	0.03526591
159	0x3e4cd55a	0.20003262
160	0xbe0a803f	-0.13525485
161	0x3ca5cf42	0.02024043
162	0xbcef49d4	-0.029210009
163	0xbcfc7765	-0.03081865
164	0xbd0bdfeb	-0.03414909
165	0x3de3eb05	0.11128811
166	0x3daaabd9	0.083335586
167	0x3dd6c9d2	0.10487713
168	0x3d8740ed	0.066041805
169	0xbe712ff7	-0.23553453
170	0xbd8a8c1d	-0.06765006
171	0xbdf69731	-0.12040556
172	0x3c61ba90	0.01377739
173	0x3df38e34	0.118923575
174	0x3e546087	0.20739947
175	0x3d58ec7b	0.0529599
176	0xbe3f2596	-0.18666682
177	0xbe3bc323	-0.18336158
178	0x3dc34eb5	0.095364965
179	0xbd4a0809	-0.04932407
180	0xbd03adb5	-0.03214808
181	0xbd5e25db	-0.05423532
182	0x3ceef702	0.029170517
183	0x3d47d3c2	0.048785932
184	0x3e162a78	0.14664638
185	0x3d8a6593	0.06757655
186	0xbdbd4aff	-0.0924282
187	0xbe4da380	-0.20081902
188	0x3da3fbbe	0.080070004
189	0xbc70fc32	-0.014708566
190	0x3d5c7876	0.053825818
191	0xbe06c5b9	-0.13161363
192	0x3dcf45c9	0.10120732
193	0x3d9d5320	0.076818705
194	0x3d915d66	0.070978925
195	0xbd1dc9da	-0.03852258
196	0xbd9f6cb9	-0.07784409
197	0x3de0c292	0.10974611
198	0x3cb6a17f	0.022293804
199	0xbe10309a	-0.1408104
200	0xbb30a6de	-0.002695493
201	0x3ddeabe1	0.10872627
202	0x3decd5d7	0.11564224
203	0xbda95672	-0.08268441
204	0x3d50f129	0.05101124
205	0x3cc3ad6e	0.023886409
206	0xbd505a2b	-0.05086724
207	0x3d863428	0.06552917
208	0xbc08b533	-0.0083439825
209	0x3c92d445	0.017923484
210	0x3dc1c115	0.094606556
211	0x3d416cc6	0.047222875
212	0xbd50c7dc	-0.05097185
213	0xbcb75f6a	-0.022384364
214	0xbe1cf2f7	-0.15327059
215	0xbd826a2c	-0.06367907
216	0x3dc835c7	0.09775882
217	0xbdaf9dfd	-0.08575056
218	0x3d5dee2d	0.05418222
219	0xbdc29843	-0.09501698
220	0xbde42dd7	-0.11141556
221	0x3da25b45	0.079275645
222	0xbdf441df	-0.119266264
223	0xbd6aae8b	-0.057295363
224	0x3e2058e8	0.15658915
225	0x3e4510b9	0.1924466
226	0xbd801e8b	-0.062558256
227	0x3cf3caae	0.029759731
228	0xbd8d6327	-0.069036774
229	0x3e0e4129	0.13892044
230	0x3ced27f0	0.028949708
231	0x3d89b786	0.067244574
232	0xbdedd0f1	-0.11612118
233	0xbd23cb2d	-0.039988685
234	0x3c2563ee	0.010094626
235	0xbcada242	-0.021195535
236	0x3e1b3f3a	0.15160838
237	0xbe027454	-0.12739688
238	0xbe2eadca	-0.17058483
239	0xbe4474ce	-0.19185182
240	0x3dca71e1	0.09885002
241	0xbd309cbb	-0.04311822
242	0xbd8f085e	-0.06984018
243	0x3e3ee4d4	0.18641979
244	0xbdfc4839	-0.12318463
245	0x3e1af04c	0.15130728
246	0xbdf2296d	-0.118243076
247	0x3e3c7e60	0.18407583
248	0xbe65f275	-0.22455771
249	0xbe2f5919	-0.17123832
250	0x3e369e55	0.17833836
251	0x3c338452	0.010956841
252	0xbb0c965f	-0.0021451933
253	0xbe2c51e5	-0.16828115
254	0xbad4dff3	-0.0016241058
255	0xbcbca54b	-0.023028037

net.10.bias f4 [50]
0	0x3dd3add2	0.10335888
1	0x3c1b4690	0.009477273
2	0x3d8b75ed	0.06809602
3	0xbd0836d7	-0.033255424
4	0x3d0b8541	0.034062628
5	0x3dbbc81b	0.091690265
6	0x3d727a4e	0.05919867
7	0x3e245944	0.16049677
8	0x3de41012	0.11135878
9	0x3d4b0ff0	0.049575746
10	0xbe18cb94	-0.14921409
11	0xbc22d540	-0.009938538
12	0x3d094822	0.033516057
13	0xbda40fc5	-0.0801082
14	0xbda8c32c	-0.08240351
15	0x3d9085fc	0.070568055
16	0x3d5fda2d	0.054651428
17	0x3d8ba412	0.06818403
18	0xbd0bc06e	-0.034119062
19	0xbdce5b31	-0.10075987
20	0xbdd3a5a7	-0.1033433
21	0xbe0911ab	-0.13385646
22	0xbc8b3488	-0.016992822
23	0xbe18fe97	-0.14940868
24	0x3cc52e6d	0.02406999
25	0xbd692d4d	-0.056927968
26	0xbd4ebd29	-0.050473366
27	0x3e0b2e42	0.13591865
28	0xbd1a970e	-0.037741713
29	0xbd9cf2e8	-0.07663518
30	0xbe3e0ea9	-0.1856028
31	0xbe08e71e	-0.13369414
32	0x3da3f001	0.080047615
33	0x3d86acbd	0.06575916
34	0x3a499347	0.00076894875
35	0xbd13d4e9	-0.03609172
36	0xbd8dd65e	-0.06925653
37	0x3c9c5bdd	0.019086773
38	0xbc44064f	-0.011964395
39	0x3d276403	0.040866863
40	0x3dfbaf08	0.12289244
41	0xbd808be1	-0.0627668
42	0x3d38cacf	0.04511529
43	0x3e33f54c	0.17574042
44	0x3dc8a10f	0.097963445
45	0x3e269a38	0.16269767
46	0x3d81d922	0.06340243
47	0x3dc43466	0.09580307
48	0x3d81ff95	0.063475765
49	0xbda99e0e	-0.082821
