models/heat/relu/heat_05.pth (torch, 975234 bytes, 51 tensors)

net.0.weight f4 [100, 2]
00000000: 7e5d 9b3c 767c 493e 31b6 853e dad6 e23e
00000010: 0c4c d83d 91c2 e1bd 3c43 7bbd 4944 4b3c
00000020: 0d27 f13e 103d 213f 82bd 12bf de55 723e
00000030: 97bd 90be 76fc 643d e414 47be b27f 9c3e
00000040: d116 1e3f 0370 ca3d c224 8b3e 0edd 523e
00000050: 2cbe ae3e 0095 84be bc32 e33d 651a 2cbe
00000060: 8a21 03bf cbfb 35bd 35a2 17bf d8fd c2be
00000070: 48d4 8c3e 15ba c83d 3580 543e 4bd7 013f
00000080: b0dc e9bd 7e70 08bf a0a7 96bd 6f5f 3a3d
00000090: 7078 ffbe 3a54 c03e 2214 84be 2280 1fbf
000000a0: 4fda d83d 421f 82bc 4f66 793e 6ed8 153f
000000b0: c597 0e3f bf9c febe a554 bebe 99ab 23bd
000000c0: 1136 0dbf b952 8e3e 40ab 293f 7111 b63e
000000d0: cff1 313f e605 003f 04f5 803e baff f2be
000000e0: d1f6 0e3f 70bc 033d 2ec4 f4be d4b4 c13d
000000f0: 6f2f 2cbb 0dfc 8e3c e030 07be fad6 dc3e
00000100: c956 dfbe 8931 c33e 80d3 39bd eefa 0dbf
00000110: 34ca 0e3f fbc8 89be 9b1b 34bf a063 853e
00000120: 40fa 28bd 9919 0c3d 28b4 42be 5899 b7bd
00000130: 1d16 9dbc 1b2d 3e3e a6e1 af3d b708 f93e
00000140: 2ea3 223d 8be4 be3e 35c5 9fbd dc05 3f3e
00000150: 75bd dfbc aa4b ebba 78d8 32bf f3c3 30bf
00000160: e254 06bf ea03 4c3d 9bb9 2f3e 6813 f93d
00000170: c20a c83e f2a5 c63d 53e7 9a3e 331a 0cbf
00000180: 8b7e cebe ec1c 2b3e 9fb6 e0be c068 d13e
00000190: 8bbd 10bf bb7e 07bf a550 0dbe f57d 233f
000001a0: 9ef6 5f3e 8ea4 1e3e bea3 263f dec3 c33c
000001b0: 2b3c b43d 3172 5c3e 6b43 14be b210 b13e
000001c0: b204 773e 8069 fabb 8386 e43e 872a e13e
000001d0: acce 3abe df60 943d 1ef0 0dbf 75af 193e
000001e0: 80b4 14bf 4040 25bf 40a9 09be e8f0 b6bd
000001f0: 4fc3 453e f8f7 47bd fdf3 9a3e f9ce 0fbd
00000200: 1bcf 2bbf bc54 7ebe 38c3 0bbf 8ee4 99be
00000210: e7df 5b3e 09fa c1be a10c 1ebf 2667 6b3d
00000220: 5556 1b3f 8c2a cb3e 4087 f3be 300f a73e
00000230: 5c88 5b3e a573 62bc 62f4 11bf 3476 aebd
00000240: ddd1 a7be 5239 093f bbfd 853e e8a8 efbe
00000250: 9455 083f eb71 0f3f 5d89 d13e 0c09 2cbe
00000260: a027 88bc 23bd cfbe 0100 c73e b06a 173f
00000270: 9dff bf3e 5b3f 81bd f438 6e3e 2947 273e
00000280: 80c1 8dbb 9aec 2fbf 4e22 2fbf 96dd 5c3e
00000290: cf96 06bf 4db6 03bf 2c65 f13d 27fc eebe
000002a0: fcd4 f63d 47bd febb 202c 373e 77cd b1be
000002b0: 1114 523d a82f 85be 2eeb 70be dccf f8be
000002c0: 5fbc 2abf cbe6 10bf 8e72 06be ec4d a53e
000002d0: f768 afbc b869 e13d c124 523e 7a04 d7be
000002e0: 72d2 253f 3f9c 783c b858 a9be 7b15 f3be
000002f0: eef2 0fbf ee36 493e 5d89 e93e 2393 453e
00000300: b961 c13e 1e00 953e 3a1b f33d 46c8 073f
00000310: dff3 2cbf b0eb 6ebd d7e9 03bf be3e 27be
0.018965479 0.19676384 0.26115564 0.44304544 0.1056138 -0.11023439 -0.061343417 0.012406417
0.47100106 0.629838 -0.57320416 0.23665568 -0.28269646 0.055904828 -0.19441563 0.30566174
0.61753565 0.09884646 0.2717648 0.20592138 0.34129465 -0.25894928 0.11093661 -0.16806944
-0.5122305 -0.04442958 -0.59231883 -0.38084292 0.27505708 0.09801117 0.20752032 0.50719136
-0.11419046 -0.5329665 -0.07356191 0.04550117 -0.49896574 0.3756426 -0.2579661 -0.6230489
0.10588514 -0.015884046 0.24355434 0.5853337 0.5570033 -0.49728963 -0.37173954 -0.03995857
-0.55160624 0.27797487 0.6627693 0.35560182 0.69509596 0.50009 0.25186932 -0.4746073
0.5584536 0.03216213 -0.47805923 0.09458318 -0.002627339 0.017454172 -0.13202238 0.43132764
-0.436209 0.3812373 -0.045367718 -0.55461013 0.5577729 -0.26911148 -0.7035462 0.2605257
-0.041254282 0.0342041 -0.19014037 -0.08964795 -0.019175583 0.18571894 0.08587961 0.4863946
0.0397064 0.3728374 -0.07801286 0.18654579 -0.02731202 -0.0017951627 -0.69861555 -0.69048995
-0.5247327 0.04980842 0.17160647 0.121619046 0.39070708 0.0969962 0.3025461 -0.54727477
-0.4033092 0.16710252 -0.4388933 0.4090023 -0.5653922 -0.5292775 -0.13800295 0.6386407
0.2187142 0.1549246 0.650936 0.023897108 0.08800539 0.21527936 -0.14478843 0.3458305
0.24122885 -0.007641971 0.44633874 0.43977758 -0.18242902 0.07245039 -0.55444515 0.15008338
-0.5808792 -0.6455116 -0.1344347 -0.08932668 0.19312786 -0.048820466 0.30264273 -0.035109494
-0.6711289 -0.24837011 -0.54594755 -0.30057186 0.2147213 -0.37886074 -0.6173802 0.057471417
0.6067861 0.39680898 -0.47564125 0.32628775 0.21438736 -0.013821517 -0.57013524 -0.08518639
-0.327773 0.5360309 0.26170143 -0.46808553 0.5325558 0.560332 0.40925112 -0.16800326
-0.016620457 -0.40573987 0.3886719 0.5914717 0.37499705 -0.06310912 0.23263913 0.16335739
-0.0043260455 -0.687204 -0.6841172 0.21568903 -0.52573866 -0.51450044 0.11786875 -0.46676752
0.12052342 -0.0077740285 0.17887926 -0.3472707 0.051288668 -0.2601292 -0.23527214 -0.48596084
-0.6669368 -0.5660216 -0.13129637 0.32286012 -0.021412356 0.110064924 0.20521833 -0.41995603
0.6477424 0.015173971 -0.330755 -0.47477326 -0.56230056 0.1964986 0.45612612 0.1929441
0.3776987 0.29101652 0.118704274 0.5303997 -0.6755962 -0.058330238 -0.51528686 -0.16332528

net.0.bias f4 [100]
00000000: 2a02 0c3f 85d3 9c3e 72fe 3a3f 0e53 223f
00000010: 90e5 09be fdde 2cbf be76 adbd 28f6 08be
00000020: 7b13 f0be fe0e 273f ea05 073f fdf0 e6be
00000030: b6b1 ff3e 4783 433e 701d 8cbd f249 a9be
00000040: 54c2 7bbe 39eb 12be 2332 49be 4074 3bbc
00000050: bd33 3cbe 3ab0 2d3f 0c89 b83c e8d1 513e
00000060: 5944 22bd 633a 05bf 5d2a d53e 0975 573d
00000070: 30cf 8e3d d712 003f 38aa 1b3f 5ad7 79be
00000080: 301d 22bf 59d1 ccbe cdd6 4cbe db78 b9be
00000090: 27c1 4dbe a032 bbbe b7e8 12bf e936 a4be
000000a0: d382 57be c42b d2be 0878 0b3e ba99 71be
000000b0: 48cd 43be 0460 943e 0d58 11bf 7552 773e
000000c0: cfcf d63d e288 76be 58c6 90bd 82fe afbe
000000d0: 73e9 e5bc 6d4b 3cbf 007f 1d3f 65f4 84be
000000e0: d85f 33bf b62f fabe 4c32 c4be 8d6a 0cbe
000000f0: 11e2 2abf 3230 95be c20b 863e 2cef 36bf
00000100: a952 11bf 3ddd 273e e802 95be b29f 1e3f
00000110: 1569 dcbe 5dab 95be a628 173f b14b 013f
00000120: a5fc eb3d 41f4 38bf 7b11 e8be 2801 8ebe
00000130: a5b5 b4be 0b99 4fbe cd27 26bf 7cdd 193f
00000140: c08e c0bc da64 8bbe f15e a13e 2c55 fa3e
00000150: 04cd 10bf 4c78 003e 5908 b93a 00dd 0ebe
00000160: 29bd fb3e f0be 243f 8d3a 583e ebb1 bbbe
00000170: be31 f5be 6abe e23e d20f 663d 1dc4 273f
00000180: ae37 113f 51da f9be 8ec2 97be aa7e 8f3e
0.546908 0.30630127 0.730445 0.6340798 -0.13466477 -0.67527753 -0.08469914 -0.13375151
-0.46889862 0.6525725 0.527434 -0.45105734 0.4994027 0.19093047 -0.06841552 -0.33064228
-0.24585849 -0.14347543 -0.19648032 -0.01144129 -0.18379112 0.67847025 0.022526287 0.20490229
-0.039615963 -0.52042216 0.41633883 0.052601848 0.06973112 0.5002875 0.6080661 -0.24398556
-0.63325787 -0.4000347 -0.20003815 -0.36225018 -0.20093213 -0.3656206 -0.57386345 -0.32073143
-0.21045999 -0.41049016 0.13620007 -0.23593798 -0.19121277 0.28979504 -0.5677498 0.24152549
0.10488855 -0.24075654 -0.07069081 -0.34373862 -0.028065419 -0.7355259 0.6152191 -0.25967708
-0.7006812 -0.48864526 -0.38319623 -0.13712521 -0.667512 -0.29138333 0.26180845 -0.714587
-0.56766754 0.1639299 -0.2910378 0.61962426 -0.4304892 -0.29232302 0.590464 0.5050612
0.115227975 -0.722477 -0.45325837 -0.27735257 -0.35294834 -0.20273225 -0.6490448 0.60103583
-0.023505569 -0.2722538 0.31517747 0.48893106 -0.5656283 0.1254589 0.0014116868 -0.13951492
0.49167755 0.6435385 0.21116085 -0.36659178 -0.47889513 0.442859 0.05616743 0.6553362
0.56725585 -0.48799375 -0.2964062 0.28026325

net.2.weight f4 [100, 100]
00000000: 60bb 7dbd 856b 6bbc 96c1 a43b 475f 34bd
00000010: 0baf 70bd 7cac f73c fa4b 65bd efa1 bd3d
00000020: 13d3 293d 2a9f 543d 0388 9b3d e4f6 93bd
00000030: 40a2 d2bc ed10 5dbd c4ae 97bd feb0 3a3c
00000040: 2d34 c23d f80e b33c d4d7 80bc 7dd8 c1bd
00000050: b5ee 13bd 2fc7 1cbd 3317 bebd 8e07 acbd
00000060: 6a90 92bd 7f63 cbbd c935 4abd 881e cebc
00000070: 691d 383d bdc0 3ebd 646e ee3c 0040 5037
00000080: 2045 c5bc 8047 4dbc 80d6 6b3d 4dca a7bd
00000090: 2c41 a83c ecc7 c93c 40cd 8c3c 402f 1cbd
000000a0: 99f4 7fbd 4e42 203d b0b2 05bd 826d 553d
000000b0: 27d7 54bd d4c9 b4bd aac2 cdbd 2949 a93d
000000c0: 39f3 bf3d a296 053d d1a5 b83d 4299 cabd
000000d0: 65da bc3c feab 653d b602 733d b0d6 10bc
000000e0: 6784 a43d 1d40 e83c a6aa 3f3d 800b fa3b
000000f0: 009e 2a3b 3733 4ebd 3ce9 cebd f9c7 48bb
00000100: f405 da3c ec3f dd3c 068b 86bd 1a1a 27bd
00000110: 45d8 be3d 18a6 263c 1a28 a8bd 2c6f 8c3c
00000120: 5a12 82bd 8687 4d3c aae3 84b9 ba99 7b3d
00000130: 3c42 fd3c c61e 9a3c 2265 bc3d 1686 c4bd
00000140: 6887 c0bc 58ae bdbc 3d84 c1bd d35c 93bd
00000150: 5d42 d53c 15b4 113d e449 b83d 608f 6dbb
00000160: 0e08 81bd c00a 58bd 105f aebd e008 c93c
00000170: 16ee b4bd 70f0 9bbd 2821 4bbc 3688 8abc
00000180: 98ed 2b3d 7794 82bd 1afa 44bd 1ecd a3bd
00000190: 7655 a7bd e369 3abd e47a 04bd 278d ad3d
000001a0: 37c3 d2bb 4b48 213d d8da 8c3d 9890 b23d
000001b0: a4bb bf3d 51fc 83bd 2443 2bbd f67b 83bd
000001c0: 3689 4ebc 7e88 7e3d 69a3 30bd 80fd 663d
000001d0: c0c6 61bd 47ae 243b 2e15 bd3d 5872 4f3c
000001e0: 420f 80bd 99e2 0a3d 9433 1abd 6818 23bd
000001f0: aa50 f6bc 8bb5 dcbc 0eb6 6c3d 3e89 8d3d
00000200: 951f 653d fe4f d73d 3049 b0bd 932f 863d
00000210: 4f5b 5fbd e016 8b3c 86bd 323d b4b4 bd3d
00000220: 10bb 6a3d a650 1c3d 2803 8abd 9b5b 05be
00000230: e54a a23b ac96 5b3c 4a71 59bc d422 e73c
00000240: b977 703c 054b c1bc 4ebe b43d d4a2 2f3c
00000250: 22fc 803d aa36 59bd b424 e5bc 4eff 5bbd
00000260: 0306 cabc b737 ad3d 6160 d1bd 7558 34bc
00000270: 986c 7c3d 855b 5b3d 9b0f 843c bf92 543c
00000280: a09c 76bb e385 1fbd 63bc 933d c00c 7cbd
00000290: c0b1 44bd 9438 c6bc 2e16 043d 5ee7 35bd
000002a0: bd06 913b b506 773d aed1 573d 6112 34bc
000002b0: 4451 8abd 2151 483d 2e38 abbd 3d77 72bd
000002c0: a2d2 113d 91c9 4c3d 0381 1d3d d778 87bd
000002d0: dd39 973d 8269 9fbd 850b a6bd df75 73bc
000002e0: 8197 9abb 5ae8 2fbd 56cd 7fbd 90a6 2ebd
000002f0: 1ce3 a13d c6e5 0fbc 4a70 fd3c 47f1 78bd
00000300: 75ee 6f3d 2102 8b3c 0373 7f3c 0d4f 8cbc
00000310: b530 ab3d 64b1 003d cc0c d1bc 312a 39bc
00000320: 92f9 3e3d a82a 8bbd e9e8 69bc 7e58 8e3d
00000330: 63c1 373c 787c 9d3d 485f d2bd 4f7e 673d
00000340: e8f8 13bd 43ab 3d3d 5c56 63bd 20a7 c3bb
00000350: 0408 293d d4d7 ebbd 89e7 b0bd aac7 babc
00000360: 40a9 053c 87bd 683d fc8f c4bc e552 85bd
00000370: 3913 3bbd 62ca 6abb 2652 aa3d 1f20 44bd
00000380: db89 9e3d e4fe 50bd 546b b03d 64a8 c13d
00000390: 74d8 cf3d 25d3 72bd 9e65 26bc cb84 0a39
000003a0: 1137 07bd a704 21bd c113 d43d e21f 62bd
000003b0: 13ad 4f3d 3812 ba3c 6b76 06bd a4ba f0bb
000003c0: 6a08 d73d 7a00 79bd 117f 0fbd cf9e b9bd
000003d0: 2ed5 7ebb 9dd5 5b3d 7b89 21bd a2a4 7b3c
000003e0: aa1e b13d bfc8 c93d adf0 7cbd 30e9 09bd
000003f0: f5ce 86bd b83c 20bd c902 8ebd 72df 9a3c
-0.061946273 -0.014368896 0.00502796 -0.044036176 -0.058760684 0.030233614 -0.05598066 0.09259402
0.04146106 0.051909603 0.075943016 -0.07224825 -0.025712132 -0.05397122 -0.07406381 0.011394737
0.09482608 0.021857724 -0.015727915 -0.0946512 -0.03611632 -0.038275894 -0.09281769 -0.083998784
-0.07156451 -0.09931087 -0.0493677 -0.025161043 0.044949923 -0.04657053 0.029105373 1.2412667e-05
-0.024080813 -0.012529254 0.05757761 -0.08192883 0.020538889 0.024631463 0.017187715 -0.038131
-0.062489126 0.039125733 -0.032641113 0.052106388 -0.051962998 -0.08827558 -0.10046895 0.08265907
0.09372563 0.032614358 0.09016002 -0.09892513 0.023053357 0.056072228 0.059328757 -0.008840248
0.08033066 0.028350884 0.046793602 0.0076307654 0.0026034117 -0.05034181 -0.1010308 -0.003063677
0.026614167 0.02700802 -0.06569485 -0.040796377 0.09318594 0.010171436 -0.08210774 0.017142855
-0.063511565 0.012544518 -0.00025346625 0.061425902 0.030915372 0.018813502 0.09198977 -0.09595887
-0.023502067 -0.023154423 -0.094490506 -0.07195439 0.026032621 0.03557213 0.089984685 -0.0036248788
-0.063003644 -0.052744627 -0.085142255 0.024540365 -0.08834474 -0.07614219 -0.012398042 -0.016910654
0.041974634 -0.06375974 -0.048090078 -0.079981074 -0.08170597 -0.045511138 -0.03234376 0.08474188
-0.006431963 0.039375585 0.06877679 0.08718985 0.093619615 -0.0644461 -0.041812077 -0.06420128
-0.012605956 0.062141888 -0.04312459 0.0563941 -0.055121183 0.0025128291 0.09232555 0.012661539
-0.0625291 0.033907507 -0.037646845 -0.039818197 -0.03006776 -0.026942035 0.05779081 0.069109425
0.055938322 0.10513304 -0.086077094 0.06552043 -0.054530438 0.016978681 0.043637775 0.09262982
0.057307303 0.03816285 -0.06738883 -0.13023226 0.004952776 0.013402622 -0.013271639 0.02821485
0.014676982 -0.023595342 0.0882536 0.010719974 0.062980905 -0.053030647 -0.027971603 -0.053710274
-0.02466107 0.084578924 -0.10223461 -0.011007418 0.061627 0.053554077 0.016120723 0.01297444
-0.0037629977 -0.038946044 0.07213666 -0.061535597 -0.048021078 -0.0241969 0.032247715 -0.044410102
0.004425852 0.06030913 0.0526902 -0.01099071 -0.067537814 0.048905496 -0.08360325 -0.059195746
0.035601266 0.049996916 0.038453113 -0.06614845 0.073840834 -0.07783796 -0.08107666 -0.014859646
-0.0047177677 -0.042946197 -0.062451683 -0.042639315 0.07904646 -0.00878281 0.030937333 -0.060776975
0.05857702 0.016968789 0.015591386 -0.017127538 0.083588995 0.031419173 -0.025518797 -0.011301563
0.046624728 -0.067952454 -0.0142767215 0.06950472 0.011215541 0.07689756 -0.1027208 0.05651694
-0.036126047 0.046305906 -0.05550228 -0.0059708506 0.04126741 -0.11515775 -0.08637912 -0.022800285
0.008158028 0.056821372 -0.023994438 -0.065099515 -0.04567263 -0.0035826196 0.0831645 -0.047882196
0.077411376 -0.051024333 0.08614221 0.09455946 0.10148707 -0.059283394 -0.010156063 0.00013210175
-0.0330115 -0.039311077 0.1035533 -0.055206187 0.050702166 0.022713766 -0.032827776 -0.007346468
0.10499652 -0.06079147 -0.03503329 -0.090634935 -0.003888439 0.053670514 -0.039437752 0.015359076
0.08648427 0.098527424 -0.061752964 -0.03366965 -0.06582443 -0.039120406 -0.06934125 0.018905375

net.2.bias f4 [100]
00000000: 1018 103d ad8a babd 1467 81bd d956 c3bd
00000010: 3557 ae3d 4fad 9a3d 9422 6f3d c0bb 703d
00000020: 1788 d13d b7fa fb3d 1328 ed3d 54d4 d6ba
00000030: f8db 713d 3b42 e83d 3327 1abd 1555 c43d
00000040: 40ec bebd 084b 9cbd a13c 9d3d c2a5 e13d
00000050: ee82 d83c 643d 0a3e a773 c7bc 2130 ecbc
00000060: e1f2 9d3d 63f0 65bd 67d7 d13d 02d3 c23d
00000070: ee47 513d 37ac 5abd 6d2e 9b3d d732 0dbc
00000080: f625 01bd a6a6 f337 0364 60bd da24 a2bd
00000090: bba2 0f3d d8c0 933c 0528 6b3d 56c8 0ebd
000000a0: 2f55 7fbd be4c c1bd 65ff 643d 8993 1d3c
000000b0: 84c4 c2bc e2d3 abbd 6508 b53d f436 28bd
000000c0: 9185 78bd f77c 24bd c00d f1bc e756 88bd
000000d0: c97c 03bd 257f c3bc ba4e 883d 74ef 97bd
000000e0: dacf 89bd 8b71 d2bd 141f da3c 50e1 3fbd
000000f0: 55fa afbd 3459 5c3d 9a19 a9ba b7b7 5f3c
00000100: 0a89 0bbd 09e0 e9bc 3f2e 05bd 8fd0 533c
00000110: 9a3e 5a3d 1720 67bd 774c 8fbb 1e71 373c
00000120: d1a2 bebd 7b2d 373d 370f 7fbd d215 a03d
00000130: 07a4 bcbd c51f 523d 1897 00bc 30e9 13bd
00000140: fdab a83d 7fb8 e9bd 16da 1fbd e087 81bd
00000150: 27d6 42bb 5e8c 023e 477f 063e ffd4 cdbd
00000160: 5c01 cd3d 0dd8 fc3d 9ec8 eabd 3e77 873d
00000170: 9a31 9ebd 391f adbc 634e f23d 956f 10ba
00000180: d185 13be 2a98 143e 2fcc 01bd abe5 cfbb
0.035179198 -0.091084816 -0.06318489 -0.09538049 0.08512727 0.07552587 0.058382586 0.058772802
0.10231035 0.123036794 0.11579909 -0.0016390183 0.05904767 0.113407575 -0.03763504 0.095865406
-0.09322405 -0.076314986 0.0767758 0.11017944 0.02642962 0.13499981 -0.02434714 -0.028831543
0.07712341 -0.056137454 0.10246163 0.09512903 0.051093988 -0.053386893 0.075772144 -0.008618078
-0.031530343 2.9045459e-05 -0.05478288 -0.07917185 0.0350673 0.018036291 0.057411212 -0.034859024
-0.062337097 -0.094384655 0.055907626 0.009617695 -0.023775347 -0.08390023 0.08839492 -0.041068032
-0.060674254 -0.04015824 -0.029425502 -0.066572 -0.032101426 -0.023864338 0.06655641 -0.07418719
-0.06729098 -0.10275563 0.026626147 -0.046845734 -0.08592669 0.05379601 -0.0012901307 0.013654641
-0.034066238 -0.028549211 -0.032514807 0.012928142 0.053282358 -0.056427088 -0.004373129 0.011196403
-0.093083985 0.044721108 -0.06227037 0.07816662 -0.09210973 0.05129983 -0.007848524 -0.036111057
0.08235929 -0.11412143 -0.039026342 -0.06324744 -0.0029729696 0.12748858 0.1313449 -0.100503914
0.10010025 0.12345896 -0.11464046 0.066145405 -0.077243045 -0.021133052 0.11831357 -0.0005509791
-0.14406516 0.14511171 -0.031688865 -0.006344517

net.4.weight f4 [100, 100]
00000000: a6ee b4bd 4828 04bc 341e 993d 8587 d73d
00000010: 55b5 4e3d e0d3 3b3d 3434 10bc 4dd4 a93d
00000020: eb50 9cbc 9523 eabd b975 dabd b063 963d
00000030: 6e67 a3bd 5799 e63d 0969 2d3d 584a 353d
00000040: 9a12 393d 7fbd b4bd 83a2 173c 171c 453d
00000050: 1f29 98bd 9fae cfbd 4918 9d3d 6749 64bd
00000060: e1c3 58bc b3de 983d 8ec3 f9bd d681 663d
00000070: e4a7 6a3d 84e6 f13c f5f4 a4bd 5493 353d
00000080: 6acd aebd c3fe eb3c 72e6 653d 33e8 4b3d
00000090: 9190 57bd f88f 903c f60b bfbd 0355 47bd
000000a0: fcaa eebb c833 713c 4aaa e9bc 7782 113a
000000b0: 8252 66bd 1fcf c5bd c528 c53d abcf bbbb
000000c0: a7ef 84bd 9ab6 bf3d ff4e 9ebd b8b2 8d3c
000000d0: 7fc7 e13d 8091 8a3d ade6 153d 6f89 27bd
000000e0: 0962 9d3d 602d 0dbd 2287 71bd 9855 653d
000000f0: 09be f4bc e6e2 50bb 5a2b 963d 7eef 12bd
00000100: 56b1 5fbd 8a4e c23d 3346 37bc 88aa 85bd
00000110: 06d1 c5bd e70f dc3d 8b32 dd3d bc45 1bbd
00000120: d3f6 983d da80 1f3d c072 1b3c 3584 c4bd
00000130: 6f3f bd3b 463a 913d 7aad 4ebb 587e a2bc
00000140: e8e9 6fbc d7e8 93bd b041 adbd e4c0 db3c
00000150: 3129 b83d 04e8 8fbc 39aa 15be 2f29 e6bb
00000160: acee a43d 0a11 8f3c 9da8 d73c 9b30 9bbd
00000170: 9aef a3bd ec48 6e3d e12c a5bd 4feb 243c
00000180: 2ffa 903b 64c1 1abe 1bb4 023c d5db ad3d
00000190: 0ca5 dc3c c58d a2bc 7c1a 9ebd e0e6 b93d
000001a0: d630 47bd 81ea f4bd f4b0 c8bc 6779 883c
000001b0: b896 c7bd 10b2 713d e4db b1bc ff7b b03c
000001c0: 4176 013d 72ef 2f3d 8178 aebc 79cc 95bc
000001d0: 2297 203d ab95 793c b037 84bd f927 9fbd
000001e0: 1c25 07bb 6b68 18be f410 a6bd 2025 81bc
000001f0: 36d2 303b 9441 c3bc 4553 ddbd 5774 9b3d
00000200: e422 b1bd a646 0fbd d7bf 983d 72b1 073d
00000210: 2024 7fbd 616f e53d f946 9f3d 5b52 e23d
00000220: 617b 9e3d 4a67 6abd 572d 8bbd a50c 7cba
00000230: 341e 7c3d 8e65 b93d 11c3 8f3d e632 b43c
00000240: e5d8 45bd 3758 aebd d008 ad3d 5a6a d33d
00000250: a162 7b3d 99d1 a6bd debd 18bd a0ea 58bd
00000260: d7fb 0b3b 77fd 28bd 4c16 8b3d 3f35 51bd
00000270: 3851 afbb 8eb2 873d 98f4 603c 44a5 29bd
00000280: 04e8 94ba ee6d 97bd 495f 29bd 953b b4bd
00000290: b911 6b3d 44db 3d3d 0e3d 973d 3739 ab3d
000002a0: df09 eabd bf07 98bc 5cae 6b3d a5f1 6d3d
000002b0: 354d 99bd 80e4 a53c 1880 9e3c 9fe4 29bd
000002c0: 5d8f 62bd 4379 05bd 0977 f33d 32bb 5f3d
000002d0: c799 b1bb 3b40 b93d 1989 9b3d d480 cd3c
000002e0: 112c c9bc b2d2 ebbc ca4f e1bb 1ac7 d53d
000002f0: 7441 b13d 5bb0 5fbd 9b24 f93c 7a63 4dbd
00000300: d0ce 34bd ea37 aa3d 8be0 70bd 3f8e 9dbd
00000310: 6ee7 d73d 2604 7fbd 98fc 07bc 42c2 d0bc
00000320: 805d 163d aeda c2bd aa3b 583b 4ccd cdbd
00000330: 2e6f 53bc ebfd 8abd 8994 d03d 04c6 51bd
00000340: b5dd 51bd 1579 c8bc 3c16 a53d b199 a73c
00000350: 7a07 afbd 1fb7 c8bd 3fce 4c3d 2093 56bb
00000360: 40b0 4b3c f18b 83bc 0927 83bd c081 6fbd
00000370: ebf4 41bd 7df3 0cbe 4ad9 c93c c1f2 703d
00000380: 0b4d 923d da83 2a3d 90c9 6a3c 0599 0fbc
00000390: cc2b 10bb 676f 8b3d b0fe a93b d61f fdbc
000003a0: 728c 81bd bce8 e9bc 0b58 b0bd f148 963d
000003b0: bfda 56bd 24eb ea3c 30a8 30bd 8fb5 263d
000003c0: 975d 113d 1f16 06bd 0004 b4bd 1298 223d
000003d0: 02c0 ffbc 70d3 3d3c 4018 ef3c 8111 7d3d
000003e0: add8 c93d 349b 973d 8b52 0f3d 0332 22bd
000003f0: 2522 9e3d d897 0c3d 4011 ac3d b29b d4bd
-0.08834581 -0.008066244 0.07476464 0.10523895 0.0504659 0.045856357 -0.008801509 0.08292446
-0.019081553 -0.11432568 -0.10666985 0.07343233 -0.07978712 0.11259716 0.042336497 0.044260353
0.045183755 -0.08825206 0.009255054 0.04812249 -0.07429718 -0.10140728 0.07670648 -0.055734064
-0.013230295 0.074643515 -0.12195502 0.056276165 0.05728902 0.029528864 -0.08054534 0.044329956
-0.085352734 0.028808003 0.056127973 0.04978199 -0.052628104 0.017646775 -0.09328453 -0.048665058
-0.0072835665 0.014721818 -0.028523583 0.0005550752 -0.05623103 -0.09658646 0.09626917 -0.005731543
-0.064910226 0.09361 -0.07729911 0.017297134 0.11024379 0.06766033 0.036596943 -0.04090255
0.07684714 -0.0344671 -0.058966763 0.05598983 -0.029875772 -0.0031873523 0.073324874 -0.03587293
-0.05461248 0.094876364 -0.01118617 -0.06526667 -0.09659009 0.10745221 0.10800656 -0.0379083
0.07468953 0.03894124 0.009487808 -0.09595529 0.005775384 0.07091193 -0.0031536506 -0.019835636
-0.01464317 -0.07222145 -0.084597945 0.026825376 0.08992232 -0.017566688 -0.14615716 -0.0070239524
0.080533355 0.01746418 0.026325518 -0.0757763 -0.08004685 0.058175012 -0.080652006 0.010065868
0.0044243555 -0.15112835 0.007977511 0.08489195 0.02693417 -0.019842992 -0.07719895 0.09077239
-0.048630558 -0.119587906 -0.02449844 0.016659452 -0.09745544 0.059007704 -0.021711297 0.021543501
0.031606916 0.042952962 -0.021297695 -0.018285977 0.03920663 0.0152334375 -0.06455934 -0.07771296
-0.0020621484 -0.14883582 -0.08108702 -0.015764773 0.0026980764 -0.023834981 -0.10806898 0.075905494
-0.08649233 -0.034979485 0.074584655 0.03312821 -0.06229031 0.112028845 0.07777209 0.11050864
0.077383764 -0.05722741 -0.06795757 -0.00096149213 0.06155224 0.09052573 0.07019628 0.021996927
-0.04830255 -0.085129194 0.084489465 0.10323019 0.061373357 -0.08145446 -0.037290446 -0.05295813
0.0021359825 -0.041257348 0.06791362 -0.05107617 -0.005350258 0.066258535 0.013730191 -0.041417375
-0.001136065 -0.07394014 -0.041350637 -0.08800427 0.05738995 0.046351686 0.07384692 0.08360522
-0.11427664 -0.018558381 0.05753933 0.05809178 -0.07485429 0.020250559 0.01934819 -0.041477796
-0.055312503 -0.032586347 0.118879385 0.054621883 -0.005419943 0.09045454 0.07594509 0.025085844
-0.024557145 -0.02878699 -0.0068759667 0.10438366 0.08655062 -0.054611545 0.030412963 -0.050143696
-0.044142544 0.08311446 -0.05880789 -0.07693147 0.105421886 -0.062259816 -0.008299969 -0.025483254
0.036710262 -0.09514366 0.0032994547 -0.10048923 -0.012904925 -0.06786712 0.10184581 -0.051214233
-0.051236827 -0.024471799 0.080608815 0.020459028 -0.08546348 -0.098005526 0.05000138 -0.0032741502
0.012432158 -0.01605794 -0.0640393 -0.05847335 -0.047352713 -0.13764758 0.024639744 0.05882526
0.07143601 0.04162965 0.014330283 -0.00876451 -0.0021998761 0.06808358 0.005187832 -0.03089897
-0.06325616 -0.02855336 -0.08610543 0.07338131 -0.052454706 0.028676577 -0.043129146 0.04070049
0.035489645 -0.03273594 -0.087898254 0.039695807 -0.031219486 0.011586055 0.029186368 0.06178427
0.09855781 0.074026495 0.03499083 -0.039598476 0.07721356 0.034324497 0.08401728 -0.10381259

net.4.bias f4 [100]
00000000: 6841 85bd f50b 4d3d f9f8 9e3c 9fee 61bd
00000010: d3da bfbd a190 893d ce80 f3bc 46cc 553d
00000020: 5d1f d13c 2fca f5bd 37d9 28bd 53ef 9c3d
00000030: 2893 edbd 7a0f abbd 4383 69bd ba0e 5dbd
00000040: 6ed9 e63d c204 d53d 2b26 9abd 3499 7cbc
00000050: f23d 853d f1b2 6dbd 6a08 b3ba 6b76 ef3d
00000060: f2dc 033e e803 63bd fb55 2e3c d044 65bc
00000070: 38b8 3cbd 9aa5 0cbd e46d 50bc a62c febc
00000080: 9e49 d8bd c413 c2bd 209c e03d 9040 643d
00000090: dd1b bc3d 6f12 5e3d 1cfa e93c 868e bcbd
000000a0: 4529 d5bd 9f87 cb3c 01a2 8a3d abbb 4ebd
000000b0: 10ef a6bc ddc5 ac3a a887 303c 6caf 5b3d
000000c0: 4221 1d3d fee3 b13c 098f 4b3d b224 5bbd
000000d0: 6ec9 89bc f98e edbc 597b 1bbc f06e 8dbb
000000e0: b943 78bd c0b7 033d dce1 56bd 49b2 1dbc
000000f0: e32c ddbc 153c 19bc c616 e2bd 1476 8c3d
00000100: 1612 a73d 48d6 a0bd c2af ef3c f28a 1b3d
00000110: 2b68 d63d 1e8b 6d3d 81f5 603d 89f9 54bd
00000120: 74a5 babc 44bf bdbd 0dc9 80bc c6b4 843d
00000130: 7782 f33c 8361 a6bd 3f35 613c 2dc4 a9bd
00000140: debd 1cbd 313e 943d e74b dc3d 401a 303d
00000150: e9fb c3bd 88c6 d1bc 768d 47bd 6483 e53c
00000160: 2b5d 103d 0bd5 583d 310c f43d 67f8 5ebc
00000170: 69ce 72bd 1b75 67bb b929 8d3d 4d5a 98bd
00000180: e93c 3d3b d2ea e23d 1414 08bd 8b96 babc
-0.06506616 0.05006023 0.019405829 -0.055159207 -0.09367909 0.06717039 -0.029724505 0.052196763
0.02552765 -0.12001454 -0.041222777 0.07662835 -0.116003335 -0.08352561 -0.057009947 -0.053969122
0.1127194 0.10401298 -0.07526811 -0.015417386 0.06505956 -0.05803198 -0.0013659124 0.11692508
0.12877253 -0.055423647 0.0106406165 -0.013993457 -0.046074122 -0.034337617 -0.0127215125 -0.03102715
-0.10560916 -0.09476426 0.109672785 0.055725634 0.09185002 0.0542168 0.028561644 -0.09206872
-0.10408262 0.024844943 0.06769181 -0.050471943 -0.020377666 0.0013181526 0.0107745305 0.053634092
0.038361795 0.02171516 0.049696956 -0.053501792 -0.016819682 -0.028998839 -0.009489858 -0.0043162033
-0.06061146 0.03215766 -0.05246149 -0.009625026 -0.026998943 -0.009352704 -0.110395 0.06858459
0.081577465 -0.07853371 0.029258613 0.037974305 0.10469087 0.057994 0.05492163 -0.051995788
-0.022783972 -0.09264997 -0.015720868 0.06479792 0.029725296 -0.08124068 0.013745605 -0.08289371
-0.03826701 0.072384246 0.10756665 0.042993784 -0.095695324 -0.025607362 -0.048718892 0.028016753
0.035245102 0.05293755 0.11916388 -0.013609028 -0.05927888 -0.0035317603 0.068927236 -0.074390985
0.0028875417 0.11079945 -0.033222273 -0.022776863

net.6.weight f4 [100, 100]
00000000: f290 a83d 1967 b2bc 490d d63c f01a 6fbd
00000010: c190 b33d c761 953d 80d2 a9bb 10f0 c43c
00000020: 6876 63bc 26df 16bd 7dcb 29bd 46b9 bdbd
00000030: 9ae4 503d a80c 80bc 3e51 403d 3101 cb3d
00000040: fc56 893d 35fb 493d 1268 073d 86d1 f3bc
00000050: f447 863c c615 013d c8c9 b5bc 6021 7fbd
00000060: 6188 933c e0b7 a63d 659c 1a3d c6dd 08bd
00000070: 0444 d03c e2e8 653d 82ef b9bd b067 88bb
00000080: 40b7 84bd 8b2c a2bd 83a1 9d3b e31e bdbd
00000090: bc80 93bd a8dc 7b3c 4677 b6bd 488a abbd
000000a0: 481d bfbd c346 853d ca59 32bd e1d9 313d
000000b0: 98f6 223c ecfc 013d a728 5ebd 96f9 903d
000000c0: a3a6 bbbd e2ac a6bc ee4d d93c 3494 91bc
000000d0: 5f91 82bc e695 bfbc beb7 93bd d665 92bd
000000e0: 79ba b7bd d075 11bd aa9f 3cbd 0235 2b3d
000000f0: 58e2 053d 1003 be3d 9b9e c5bd b12d b0bd
00000100: 8dce 40bd 044d 06bd 8554 8fbd 00e2 5ebd
00000110: 8819 b6bd f592 833d 1e50 c43d 6474 0abd
00000120: 7330 9fbd 70bc 06bd df1c 4a3b 0026 1abc
00000130: b28c 5fbc a0ca 1b3b 7ea5 7a3b 55a6 a9b9
00000140: 783e 98bc 9f72 9e3d 4615 ac3d c516 b5bd
00000150: 342c a3bc 091f 983d 4783 023d a819 3a3c
00000160: 60e5 e1bc 80e7 b7bc 1fb5 593d 2c30 693d
00000170: 3a2e 04bd 4f8d 2dbb 4d86 a73d 58a7 bdbd
00000180: 3887 aabd a713 d43a b298 313d 08f0 cc3d
00000190: 1ea0 6dbd 128c a3bd d338 193d 1d4e b8bd
000001a0: 0aa4 11be 4038 ee3c c6cb 57bc 6c9b b83d
000001b0: b57e a3bc 94d6 b4bd e9b3 83bd 5a8b ac3d
000001c0: f131 1fbc 095b 95bd 8d4f a63d 5d5d a1bd
000001d0: 096c 903d d646 9cbc 32ef 003d b4e5 a43d
000001e0: 21b0 90bd 4360 e2bc 3838 d9bb b831 643b
000001f0: ad7f 75bc b0d0 b4bd 0f25 c43d 5ed7 a7bd
00000200: 63bb 893d aa51 4dbd 29e8 d63c 3e46 9d3d
00000210: 73cf 85bd 0d97 d9bd b336 e43d 7741 233d
00000220: 4512 ef3d 3435 d8bb b682 a13d 6a65 7e3d
00000230: 9ee5 a13d 738c 48bd 03a7 863d 06ed c03b
00000240: 43b9 a7bc 3d2c 583d 8072 61ba 701b 81bd
00000250: 766b b3bd 8d47 75bd 1ad5 c63d e33a c2bc
00000260: de91 523d 176b 2abd 5f36 8ebd 4cb8 0bbd
00000270: 7188 cf3a 0aa1 e43d 8a36 b7bc f9cc 25bd
00000280: b4fd 79bd f2b9 2d3d 5ca2 0b3d eb63 9b3d
00000290: feae 813d 3b96 013d 026d 31bd 06f6 c0bd
000002a0: 9daf 793d d7b9 f33c 6531 d53d f26e febb
000002b0: 6496 56bd df65 fe3c cc87 5fbd d2c9 bb3d
000002c0: 3669 c93d 090d c9bb b3f4 6dbd e108 7a3d
000002d0: 4abf ba3d 37bc c73d 52ad ac3d 42eb 8f3d
000002e0: 1f83 bbb9 3281 5abc c9c8 82bd 184a 31bc
000002f0: 0ef4 0dbd b771 b3bd 2c31 373d 8c1e 90bd
00000300: aed5 823d 6ad1 70bd b5f7 643d 1d78 5cbd
00000310: 092f 3f3d 5451 1f3d 78c3 8b3d ec32 88bc
00000320: 3158 c2bc 73d0 efbd e512 17bb 2504 5cbd
00000330: 80f1 4f3d 56ea c0bd c531 b8bd eaff 713d
00000340: 8fc4 83bd c9f8 7dbd a8f0 bebd da33 3cbd
00000350: 35f4 0b3c 86df 053d 1848 2dbc 6899 37bc
00000360: 8452 e8bd b13f d6bc 5876 40bc d977 f7bc
00000370: 515b c33d 19d1 223d 36b2 b2bd 7e52 6a3c
00000380: 5d36 8ebc 408e 69bd 1778 9c3d a266 553d
00000390: d250 7e3d ff9b adbd bf1c b6bd 2aa1 dabd
000003a0: 60ef 89bb 05ef ecbb 4d39 413d a273 c7bd
000003b0: c9f9 0e3d 5631 2f3d aa74 83bc 198b 53bc
000003c0: 5b32 b2bd cc88 703d cbe0 653d 2fd3 5d3d
000003d0: 0d7e b3bd 72ec 9abd 30e8 93bd 0328 ccbd
000003e0: 5ee5 d1bd 7136 c3b9 07ed 65bd 063c ab3d
000003f0: bd85 9b3d 50c5 873c e5f8 d8bd a202 0e3c
0.08230771 -0.021777676 0.026129382 -0.0583753 0.08767844 0.0729404 -0.0051825643 0.024040252
-0.013883211 -0.036833905 -0.041453827 -0.09263854 0.05099926 -0.015631035 0.04695248 0.099123366
0.06706044 0.049311835 0.033058234 -0.029762994 0.016391732 0.031514905 -0.022190943 -0.06228769
0.018009366 0.0814054 0.037746806 -0.033414625 0.025423057 0.056130297 -0.090788856 -0.004162751
-0.06480265 -0.07918652 0.0048105135 -0.09234407 -0.072022885 0.015372433 -0.08909468 -0.083759844
-0.09331757 0.06507637 -0.04354266 0.043420676 0.009946488 0.031735346 -0.054237988 0.07078855
-0.09162643 -0.020346109 0.026526418 -0.017770864 -0.015938459 -0.023386907 -0.072127804 -0.0714833
-0.08971114 -0.035512745 -0.046050705 0.0417986 0.03268656 0.09277928 -0.09649392 -0.08602465
-0.047071982 -0.03278829 -0.06998543 -0.05441475 -0.088915884 0.06424514 0.09585594 -0.033802405
-0.07772913 -0.03289455 0.0030839962 -0.009408474 -0.013644384 0.0023771897 0.0038245614 -0.0003235812
-0.018584475 0.07736706 0.08402495 -0.088422336 -0.019918539 0.074277945 0.031863477 0.011358656
-0.027575195 -0.022449255 0.053151246 0.056930706 -0.032270648 -0.0026481932 0.08179913 -0.09260434
-0.08326572 0.0016180173 0.043358512 0.1000672 -0.058014028 -0.07985701 0.037407707 -0.08999274
-0.14222732 0.029079556 -0.013171142 0.09014019 -0.01995788 -0.0882999 -0.064307995 0.08425017
-0.009716497 -0.07292754 0.08120642 -0.07879136 0.07051856 -0.019076746 0.031478114 0.08051625
-0.07064844 -0.027633792 -0.0066290163 0.0034819674 -0.014984054 -0.088288665 0.09577381 -0.08195375
0.06725194 -0.05012671 0.02623375 0.07679413 -0.065337084 -0.10624514 0.111432455 0.039857354
0.116734065 -0.006598139 0.07886259 0.062108435 0.07905124 -0.048962068 0.06574824 0.0058876304
-0.020474082 0.052776564 -0.00086001307 -0.063040614 -0.08760731 -0.05988269 0.09708615 -0.02370972
0.05140864 -0.041606035 -0.06943964 -0.034111306 0.0015833509 0.11163528 -0.022364873 -0.04047868
-0.061032966 0.04241366 0.034090385 0.07587417 0.06332205 0.03163741 -0.04331685 -0.09421925
0.060958494 0.029751701 0.10409812 -0.0077646906 -0.052389517 0.031054435 -0.054572865 0.091693535
0.098345205 -0.006135587 -0.05809469 0.061043624 0.09118517 0.09752696 0.08431496 0.07027294
-0.00035765112 -0.013336467 -0.06385953 -0.010820888 -0.034656577 -0.08761924 0.04472463 -0.07037076
0.063884124 -0.058793463 0.055900294 -0.053825486 0.046675716 0.03889592 0.06824392 -0.016625844
-0.023723694 -0.117096804 -0.0023052034 -0.05371489 0.05076742 -0.09419696 -0.08993868 0.05908195
-0.06433975 -0.06200484 -0.09323245 -0.045947887 0.00854211 0.03268387 -0.0105762705 -0.0112060085
-0.113438636 -0.026153417 -0.011746965 -0.030208515 0.095389016 0.039750192 -0.08725397 0.014301894
-0.017359907 -0.057020426 0.07640093 0.05209983 0.062088795 -0.084770195 -0.08892202 -0.10675271
-0.004209444 -0.007230642 0.047173787 -0.09738852 0.034906182 0.04277166 -0.01604684 -0.012911581
-0.08701011 0.05872421 0.056122582 0.05415648 -0.08764277 -0.075646296 -0.072220206 -0.09968569
-0.102488264 -0.0003723386 -0.05613425 0.08361058 0.07593868 0.016573578 -0.10594348 0.00866762

net.6.bias f4 [100]
00000000: da56 5cbd 1384 933d 8437 103d 4bd3 713d
00000010: ee4b 143c dc9a c73d 9f24 dabd 07ef 983d
00000020: b888 873c 0ce4 bd3c ff7e f73b 3cae adbc
00000030: 3e48 9ebd cf25 a6bc 26ae aabd f88e 503d
00000040: 8b62 9f3c 7fd6 d9bb c5c1 dd3c 53f5 273d
00000050: a850 34bd 0361 933d 1676 0f3d 969b 56bd
00000060: 6135 3cbd dbaa df3d 4c85 7d3d a917 063e
00000070: e11f cc3c fb62 9fbd 8f56 973d 9d8d 053e
00000080: cc50 e53b 8be9 d0bc c8b3 9abc c762 b1bd
00000090: 7767 b1bc 4a39 babc c89d 86bd 9608 4c3d
000000a0: 9a93 913d 1a56 de3d 897a fa3c 8391 bebd
000000b0: 72ed c03d 8f61 913c c901 983d 9b06 aabd
000000c0: cfbb 2bbd 13a3 a83b 1a00 59bd aaf0 863c
000000d0: 1eae d3bb 0902 f53d 5e67 d8bd 3aa6 bebd
000000e0: ca6e e83b f4f4 c9bd d4a0 b6bd 7853 b8bd
000000f0: 01f4 003d fd84 28bc 13f4 043e ffb9 0abd
00000100: d13f 6abd 39de 20bc 059d 98bd 9033 aa3c
00000110: 27e1 c53d 3607 cebd df03 b53b c73c 1f3d
00000120: bfbe 253e 585d 2cbb 2b62 d7bd 561e 0b3d
00000130: 7b0d 183d 713a e63d 909c 50bd 90ae c93d
00000140: de93 c03d 0bff e73d b7da 9bbd c13e e4bc
00000150: cbb6 cd3c 89ae 013b 33c8 f2bc 6f23 81bd
00000160: 7aa6 b2bd 31e8 843d fc0a ca3b 5ee4 babd
00000170: 4aec 0a3e 28e8 00bd d566 bfbb 2323 1a3d
00000180: 8e4e 8dbd 85f7 51bc ea3c 87bd 379e d7bd
-0.053793766 0.072029255 0.035209194 0.059039395 0.009051306 0.09746334 -0.10651516 0.07467466
0.016544685 0.02318003 0.007552981 -0.021201245 -0.07728623 -0.0202817 -0.083339974 0.050917596
0.019456169 -0.0066478844 0.027069936 0.041005444 -0.044022232 0.07196238 0.035024725 -0.052394472
-0.045949344 0.1092126 0.0618947 0.13094963 0.024917545 -0.07782551 0.073895566 0.13042302
0.006998157 -0.025501987 -0.018884555 -0.086614184 -0.021655781 -0.022732396 -0.06573063 0.049812876
0.07108231 0.10856266 0.030576007 -0.09305098 0.09420289 0.017746715 0.074222155 -0.08302041
-0.041927155 0.005146393 -0.052978612 0.01647218 -0.0064599654 0.11963279 -0.10566591 -0.09309049
0.007093285 -0.09861174 -0.08917394 -0.090002954 0.0314827 -0.010285613 0.12983732 -0.033868786
-0.057189766 -0.009818607 -0.07451824 0.02077654 0.09662085 -0.10059969 0.005524143 0.03887632
0.16186045 -0.0026300754 -0.10516771 0.033964477 0.03712223 0.112416156 -0.05093056 0.09847748
0.094032034 0.113279425 -0.07610076 -0.027861955 0.025111577 0.001978787 -0.029636478 -0.063055865
-0.08723159 0.064895995 0.00616586 -0.09125589 0.135667 -0.0314714 -0.005841116 0.037631165
-0.06899749 -0.012815361 -0.06603415 -0.10528224

net.8.weight f4 [100, 100]
00000000: 57ba 8f3d 8991 bd3c ab2b bdbd 32e2 a5bb
00000010: 4ff0 b13d 50a2 59bc a527 acbd c69d 96bd
00000020: 27e4 993d 8e6f 6dbd 6bb8 adbd eeed 7c3d
00000030: fea8 243d 6010 d5bc 9ed8 173d 446c ea3c
00000040: 906d 383c 4710 93bd 863d 673d 6d4c 73bd
00000050: 7620 03bd e83c 90bd 621c 853d b39e 083d
00000060: 1c36 d43c 6d95 7cbc 57b6 bd3d 451d c0bd
00000070: 85a3 55bd 1ae2 59bd 60c3 83bd 6a56 b43d
00000080: d259 6fbd 04f9 01bd 14da 18bd 685f 69bc
00000090: 4d7c 783d 0a91 99bd eacd bebc ad7f 94bd
000000a0: 4071 a9bc 3036 0dbc 9a90 8fbd 9265 6ebb
000000b0: cc91 91bc 26b8 cfbc 65e6 b3bb 5a68 303d
000000c0: 0313 4cbd 1691 913d 05a6 8f3d 1916 623c
000000d0: cfb5 afbd 9003 2cbd d6cf a9bc 6984 8a3d
000000e0: aab1 b13c 36f4 333d 2db5 a53d 53c6 b63d
000000f0: c96b 663d 807d a6ba 7ec0 50bd bb10 bbbd
00000100: b22d 2d3d b274 203d 5059 08bd 51e8 633d
00000110: 695b 1dbd 18c0 b9bd 700d 05bc aeb8 b03c
00000120: 29b4 cc3c 80b8 38bd 3dd8 273c bd4a 81bd
00000130: 3c38 5a3d 00df 6d3b b89c a13c 34ba afbd
00000140: 807b 26bc eaae 273d 3386 873d 1817 08bc
00000150: 2713 69bd 68d3 adbd b373 c13d c2bd 9fbd
00000160: a809 93bd 041d 05bd a80d a63c d839 2f3c
00000170: e6b3 883c 3db2 af3d 435f 72bd 5076 2bbd
00000180: dd8a 17bd 533a 93bd e328 4bbd 614f 0ebd
00000190: 7ac4 a1bd 7564 e03c aeca 8f3d 0a3a cfbc
000001a0: 87ec a0bd 8c91 7f3a 8453 8d3c f2dd dabd
000001b0: eabb c6bd 6982 1bbd d167 a43d 6a81 2bbc
000001c0: 80dc fe3b 9a35 bd3c 5009 0bbd 728c 603d
000001d0: 6466 3ebc dea5 be3c d8e0 f4bb c2b9 9a3d
000001e0: a1a0 f7bd 37d6 40bd 49dd 253d d67b 7e3d
000001f0: 873b c8bd 5d94 dbbd 08dc f43c c95f ecbb
00000200: e472 b6bd b0fd 9cbb ecda 2cbb be01 583d
00000210: c17b 0b3d 29dd adbd 532b 703d d75d 583d
00000220: 640d 4dbd e61a 203d 8546 a1bd 3905 b6bc
00000230: c6e4 e5bd bae0 303d 93c2 d0bd b56f 9f3d
00000240: 80ce 7f3c 0646 31bd aeae 88bd ac23 813d
00000250: 6c23 b73d e84d 053d 8ef3 af3d 9613 5b3c
00000260: b9ae a53d 4d16 86bd 0633 2dbd 3e2a 69bd
00000270: a270 04bd ce01 933d 30c8 d1bb 0742 5bbc
00000280: c9bf 76bc 2846 57bd f15c db3d 6b48 aabd
00000290: 4798 953d ae9b 2cbd 425f b0bd 2426 6abd
000002a0: 54eb 89bd dbe9 a0bd f5e7 b43d b295 9bbd
000002b0: 6745 5dbd c884 d6bd 4127 59bd cbc5 1abd
000002c0: 7cc4 42bc cf40 eb3d 805d fcba a0fb 693d
000002d0: f049 f1bc 32b0 cb3d 1de8 2abd ceb3 4dbd
000002e0: dc6b a23d bdff 0c3d 6b46 0bbd 43b2 243d
000002f0: 7672 c8bb 48cf dcbc 3308 cebd 9085 50bc
00000300: 8c10 bcbc e9c3 0d3d ea86 943d 4e40 b33d
00000310: 0e8b b5bd b917 af3d 73c3 cd3d 65c4 5abb
00000320: 4541 8d3d 8a43 983d 0e7b 89bd 741a 5a3d
00000330: 48c7 c6bc dbea 863d 4a58 e3bd 283a 873d
00000340: ae5b 023d 003e efba 7845 98bc 5f25 a2b9
00000350: 9a15 273d 3520 afbd 5040 1c3d 1435 e6bc
00000360: bad9 96bd 8fd9 b3bd 13a6 a0bd 6fa1 9dbd
00000370: 3937 793d fdc2 b03c b9cf 753d de2d 6f3d
00000380: 9b9f d03c a9f3 ac3d a380 2c3d f215 7d3d
00000390: eb61 99bd b01d ae3b 33d4 d03c 7f36 653d
000003a0: e5e8 16bd 2962 943d 5b23 abbc c483 c4bd
000003b0: e2ae 783d 6d2d 8d3d a3df 75bd 5aad 6cbd
000003c0: d12d c63d 0de3 943d 8b39 c9bd 2a22 b13d
000003d0: fba5 c5bc 7d32 51bd e998 213d 5907 93bd
000003e0: 7d5b b03d d6f0 77bd 47ac 29bd 4d52 973d
000003f0: 1665 84bc 6bdc 6b3c d08e 85bd 43f2 4a3c
0.070179634 0.023140686 -0.09236845 -0.005062365 0.08688413 -0.013283327 -0.08405999 -0.07354312
0.0751422 -0.057967715 -0.084824406 0.061750345 0.040200226 -0.026008785 0.037071817 0.028616078
0.0112565905 -0.07180839 0.056455158 -0.059399057 -0.03201338 -0.07042867 0.06499554 0.033354472
0.025904708 -0.015416485 0.09263294 -0.09380583 -0.052157898 -0.053194143 -0.06433749 0.08805545
-0.05843527 -0.03173162 -0.03731735 -0.014243938 0.060665417 -0.07498367 -0.023291547 -0.07250915
-0.020683885 -0.008618876 -0.070100024 -0.0036376459 -0.017769717 -0.025356364 -0.0054901117 0.043068267
-0.04982282 0.07107751 0.070140876 0.013799214 -0.08579599 -0.041995585 -0.020728987 0.067635365
0.021691162 0.04393407 0.08091197 0.08924546 0.056255136 -0.0012702197 -0.050964825 -0.091340505
0.042279907 0.03917379 -0.0332883 0.055641476 -0.038417254 -0.09069842 -0.0081208795 0.021572437
0.02498825 -0.045097828 0.010244426 -0.06313083 0.053276286 0.0036296248 0.01972805 -0.08580437
-0.010161281 0.040938295 0.06617393 -0.008306287 -0.05690303 -0.08487588 0.09445896 -0.07799865
-0.07179576 -0.032498375 0.020270184 0.010694943 0.016687345 0.08578918 -0.05917288 -0.04186088
-0.036997665 -0.07188859 -0.04959954 -0.03474367 -0.07898803 0.027391652 0.0702108 -0.02529623
-0.07857614 0.0009749166 0.017251737 -0.10686864 -0.097038105 -0.037966166 0.08027614 -0.010467866
0.0077777505 0.023096848 -0.033944428 0.05482144 -0.0116210915 0.023272451 -0.0074730925 0.07554962
-0.120911844 -0.04707929 0.040494237 0.062129818 -0.09776979 -0.107216574 0.029890075 -0.007213567
-0.089086324 -0.004790984 -0.0026375605 0.052736036 0.034053568 -0.084894486 0.058635067 0.052823868
-0.0500616 0.039088152 -0.07874779 -0.022219287 -0.11225276 0.043183066 -0.10193362 0.07784978
0.015613198 -0.04327967 -0.066739425 0.06305632 0.08942303 0.032545 0.08591376 0.013371369
0.08089966 -0.06547222 -0.042284988 -0.05692505 -0.032333978 0.071780786 -0.006402038 -0.013382441
-0.015060374 -0.05255714 0.107110865 -0.08314594 0.07304435 -0.042140655 -0.08611919 -0.05716528
-0.067343384 -0.078571044 0.08833305 -0.075969115 -0.054021265 -0.10474545 -0.05301595 -0.037786286
-0.011887666 0.11486971 -0.0019253939 0.057124734 -0.029454201 0.09945716 -0.041725267 -0.050220303
0.07930729 0.03442358 -0.034002703 0.040209066 -0.0061171604 -0.026954308 -0.100601576 -0.012727156
-0.022957109 0.034610663 0.07252295 0.087524995 -0.08864413 0.085494466 0.100470446 -0.003338122
0.06897215 0.07434757 -0.06712924 0.053247884 -0.024264947 0.06587764 -0.11100824 0.06602889
0.031825714 -0.001825273 -0.018587813 -0.00030926891 0.040792085 -0.08551065 0.03814727 -0.028101481
-0.07365747 -0.087817304 -0.07844176 -0.07696807 0.06084368 0.021577353 0.060012553 0.05839335
0.02546673 0.08444912 0.042114865 0.061788507 -0.074893795 0.0053135976 0.02549181 0.055960175
-0.0368432 0.07245285 -0.020890882 -0.09595445 0.060713656 0.0689343 -0.06002773 -0.05778251
0.096767075 0.07269869 -0.098254286 0.086490944 -0.024126997 -0.05107354 0.039452467 -0.07179136
0.086112 -0.060532413 -0.041424062 0.073887445 -0.016161483 0.014395813 -0.0652138 0.012386861

net.8.bias f4 [100]
00000000: 3905 2bbd 9ca1 843d 457c 8cbc 46be ec3d
00000010: 279c 95bd ec32 3fbd e24b 06be b585 65bd
00000020: b48a 59bd 902e 523d b305 513c 30a0 5abd
00000030: 2582 6f3d 682a cabd 8943 e13d 17dd 773d
00000040: 436e d23d e763 d4bc 5fbd 69bd cb3e 9c3b
00000050: eb66 66bd 95bb c13d fbd3 a2bd c6d1 b73d
00000060: e3be 7fbc 1406 34bb d88c aebd 2014 cabc
00000070: af93 c83d 0526 bdbc f85b 63bd 4cce 5ebb
00000080: 1b0a 99bd 7d49 eb3d 935c 06be 832e 31bd
00000090: 892d c2bc b652 4abc 7e34 753d fb79 153d
000000a0: 9431 34bb 1e03 e03d 3887 ed3d 4fe1 f5bd
000000b0: 48a4 09be 47b6 5abd 358e 033d cf8b 36bd
000000c0: fe58 26bd eed3 593d ec10 c3bd d932 983d
000000d0: e0d0 a03d eac2 003e 159f 91bd faa0 a9bb
000000e0: be4e 09bd 3bd3 5abd a177 513d 45b2 81bd
000000f0: 54ce f03d a9be f63b a74e e53d 0633 f13d
00000100: 74f8 3fbc 1488 fdbc bb2c 8d3d 1c1e b3bd
00000110: c3ab 8cbd 6286 963d c6cf 83bd 35ee c83d
00000120: 3fc7 0fbd 7409 bbbc 2f66 f13d cc2d e6bc
00000130: 55f3 c3bd baa6 b13d eaa1 f83b ae36 d6bc
00000140: a460 12bb d322 57bd bb0b ec3a 498a 0c3d
00000150: 5177 f2bb c0cb 4fbc 47de 93bd ab56 a4bd
00000160: f89e 083d be27 d43d dbf1 c4bd e760 343c
00000170: 0a08 803d f013 5b3d cdb1 7dbd 9d6a 333c
00000180: 915b 763d 4260 ff3c 9617 c3bd 1b28 6abd
-0.041753028 0.06476137 -0.0171491 0.11559729 -0.07305174 -0.046679422 -0.13114884 -0.056035716
-0.053110793 0.051313937 0.012757706 -0.053375423 0.058473725 -0.098713696 0.109992094 0.060513582
0.10274937 -0.025926543 -0.057065364 0.0047682277 -0.056250494 0.094596066 -0.07950588 0.08975558
-0.015609476 -0.0027469443 -0.085229576 -0.0246678 0.097937934 -0.023089418 -0.05550763 -0.0033997474
-0.074726306 0.11488626 -0.13121252 -0.043257248 -0.023703353 -0.012348821 0.059864514 0.036493283
-0.0027495371 0.109380946 0.115980566 -0.12005865 -0.13441575 -0.05339649 0.03211804 -0.044566926
-0.040612213 0.053180628 -0.09524712 0.074315734 0.0785234 0.12574354 -0.071104206 -0.0051766606
-0.03352236 -0.0534241 0.051139478 -0.0633283 0.11758104 0.0075300527 0.11196642 0.1177731
-0.011716951 -0.030948676 0.06893297 -0.08745977 -0.068686984 0.0734985 -0.06436114 0.098110594
-0.035102125 -0.022831656 0.11787068 -0.02809801 -0.09567896 0.08674379 0.007587661 -0.02614912
-0.0022335434 -0.052523445 0.0018008867 0.034311567 -0.0073994775 -0.012682855 -0.072201304 -0.08024343
0.03335473 0.10359143 -0.09616443 0.011009431 0.06251533 0.05348581 -0.061937142 0.010950712
0.06014592 0.031173829 -0.09525983 -0.057167154

net.10.weight f4 [100, 100]
00000000: 9a0b 023d 9e62 6a3d 52df 803b f622 203a
00000010: f746 42bc c2dd 8a3d 9386 babc 3cf2 d8bd
00000020: 062e 873d 3126 353d a362 893d eef8 e93d
00000030: f7ab cc3d 4d70 823d 5fe6 ebbc 469d c9bc
00000040: 97f5 f73c c84e 94bd b008 8c3b 7058 8bbd
00000050: f59b ca3d f1d4 6b3d 0e7c 6e3d b9c4 6e3d
00000060: 02a3 e83d fe74 dfbd 764b 1d3d c101 a83c
00000070: 5697 bbbc cdb7 7b3d df55 a13d 87ea 77bc
00000080: 0008 023a e7f2 eabd 3e11 5abc 4ef1 443d
00000090: 6b33 1abc 0803 96bd a4e4 78bd 5b2e bbbc
000000a0: 2ac6 b83d d4ae 293a 9bdc f83d a928 013d
000000b0: 54bf b83b bd3a a73d 04f0 27bd d415 73bd
000000c0: 6b71 8f3c 5bd0 11bd 6fad 8d3d 900f cdbc
000000d0: a1cd 01bb f6f6 12bb e0a7 6e3d e800 003d
000000e0: 9163 b93d ce2f 27bd 0108 a6bd d5ec cd3d
000000f0: 8c39 7fbd 691b 54bc 711c a43c ac4e 89bc
00000100: c16f a3bd 5808 64bd 6001 103d dace b13c
00000110: 1fde a3bc 90ff 953d 7309 a73d 63c0 4c3d
00000120: 2a08 543d 309b 02bc b23e 02bc 8031 a43b
00000130: 3a55 63bd 7849 dabc 43a8 a43d 3974 75bd
00000140: c388 903d 1344 19bd 6d40 03bc 7eb4 fc3d
00000150: 40d6 c8bc 5785 afbd 943e e9bd a0a1 0b3d
00000160: 2d4b 8bbd e86d f0bd 4334 81bd dc85 4fbd
00000170: 8255 123d dd9f e73d 523a 6e3c 40a2 b53c
00000180: bb03 98bc c6d0 cebc c7f7 b1bc 0add bfbd
00000190: 72ed aa3c dc69 dfbd 937f d6bc 7034 6fbc
000001a0: f178 213d 72f4 713c 3ea6 813d b790 99bd
000001b0: 8664 753d 8cde c13d f8c8 34bd 4233 8a3d
000001c0: f641 bdbc 581c 68bc 97ee b8bd dcb9 dabc
000001d0: f28d 933d d2af cd3c 5217 8abd 68d1 913c
000001e0: 3cbb 78bd df63 d33d 8cb9 40bb 0e92 1b3c
000001f0: 6571 933c 3a12 e0b6 6688 c9bc ebf0 b33d
00000200: ca17 ce3d 6590 bb3d 6aef ddbd 3684 6dbb
00000210: 33ad ad3d a49e ac3d 3bc1 603d edad 9bbb
00000220: 10ba 583c ad2c 5ebd d866 1b3d de66 a93d
00000230: 264e c7bd 9042 593d 0876 1abb fbb1 b2bc
00000240: c07b 15be 9b86 683d 01ce 863d 59e5 8dbd
00000250: 9bbd 033d 7c82 7cbd b93f c83a 6d32 9ebd
00000260: f487 183c d8c5 f2bc 001e b4bc 6abd 433d
00000270: 957c b03d e747 073d 7334 c33d 8c27 f0ba
00000280: bc62 acbd 3f1a 9cbc a1f5 253d 5cb9 b4bd
00000290: b795 ee3d 1e67 9bba 2de4 dfbc 7460 f0bc
000002a0: 62a7 9ebd 51f6 443b badd 9b3d 5d32 b5bd
000002b0: f316 b1bc 0019 0dbb 325a 1fbd 02e3 483d
000002c0: 88b0 d8bc 6224 22bd 59b6 babd de17 863c
000002d0: 143f 0abd 9ad1 8dbd 6579 52bc 58d4 44bd
000002e0: 2223 893d d404 ad3c fee7 3bbd 6e42 a9bd
000002f0: 178f fe3b abf7 62bd 1980 123d c4d4 6eba
00000300: e285 b4bd 514f 963d a24b c03d 15be a03d
00000310: b91f 683d e12d a63d cdb4 ef3c 9f56 b53d
00000320: 12de 5b3d 147b 47bc 7d1b 23bd 4b6f 1abb
00000330: 09be b73d 27a5 cebd 09b0 66bd 5056 413c
00000340: a284 9cbc a5f6 0c3d e205 cb3d 8be6 b23d
00000350: 81a1 02bd 7715 66bd 6128 9bbc d952 c13c
00000360: 9a04 01bd dd7e aabd 36de 3bbd 35e7 4bbd
00000370: 3c53 4fbd ce8b 363b 965d 863c 75cb 483d
00000380: 0830 123d 9c3f 27bd ecd5 4fbd 2ce9 b7bb
00000390: f96b ce3d eb53 153c a807 ab3d 3dbc 123d
000003a0: 2c6e 963c a511 02be 2916 a1bd f7cd 033d
000003b0: 2760 5dbd 85ce dbbd e0e0 70bd bd77 84bd
000003c0: dece d4bc d3cc 47bd ccf3 a63d 78ed adbc
000003d0: ca22 d2bd 9713 a5bd dec1 9d3d a948 b33d
000003e0: 142c 1c3d df6a 3abc 141b a0bd 2d64 c23d
000003f0: 1fcb 083d 7e22 e13c 439c debd da6a 50ba
0.031749345 0.057222955 0.003932872 0.0006108725 -0.01185774 0.06780578 -0.022769248 -0.105930775
0.06600575 0.044225875 0.067082666 0.11424433 0.09993737 0.06369076 -0.028796373 -0.024611127
0.030268474 -0.07241589 0.0042734966 -0.068039775 0.09893028 0.057576124 0.058223777 0.058293078
0.11359216 -0.10910986 0.038402043 0.020508649 -0.022899311 0.061454583 0.07877707 -0.015131599
0.00049602985 -0.11472111 -0.013309775 0.04808169 -0.009411673 -0.07324797 -0.060764924 -0.022849252
0.09022172 0.000647289 0.12151452 0.031532917 0.0056380425 0.081655 -0.04100038 -0.05934699
0.017510137 -0.035599094 0.069178455 -0.025031835 -0.0019806402 -0.0022425032 0.058265567 0.031250864
0.09052194 -0.040817074 -0.081069954 0.10054938 -0.06231074 -0.012945988 0.020033093 -0.016761146
-0.079803 -0.05567202 0.03515756 0.02170508 -0.020003377 0.07324135 0.08156099 0.04998816
0.0517656 -0.00797157 -0.007949518 0.0050107837 -0.0555012 -0.02664636 0.08039906 -0.05992529
0.07057335 -0.037418436 -0.008010966 0.12339114 -0.024516225 -0.085703544 -0.11388889 0.034089684
-0.06801448 -0.11739713 -0.06308796 -0.050664768 0.035726078 0.113097884 0.014540272 0.022172093
-0.018556466 -0.025246035 -0.021724595 -0.09368332 0.020865176 -0.10908863 -0.026183879 -0.014599904
0.03942198 0.014767753 0.06330536 -0.07498305 0.05991032 0.094662756 -0.04413697 0.06748058
-0.023102742 -0.014166914 -0.090298824 -0.026699953 0.07204808 0.025108252 -0.06742729 0.017800048
-0.060725436 0.10321783 -0.002940747 0.009495271 0.017998407 -6.677842e-06 -0.024601173 0.08786186
0.10063131 0.091584004 -0.1083668 -0.0036242134 0.08480301 0.08428696 0.05487178 -0.004750958
0.0132279545 -0.054241825 0.037939876 0.082715735 -0.097317025 0.053041995 -0.0023568887 -0.021813383
-0.14597988 0.056768995 0.06582261 -0.0692851 0.032163244 -0.061647877 0.001527778 -0.07724462
0.0093097575 -0.029635355 -0.021986961 0.04778806 0.08617512 0.033027556 0.09531488 -0.0018322333
-0.084172696 -0.019055484 0.040517453 -0.08824417 0.116496496 -0.0011856293 -0.027330482 -0.029342867
-0.077467695 0.0030054043 0.0761065 -0.08847497 -0.021617388 -0.0021529794 -0.038904376 0.049044617
-0.026451364 -0.03958548 -0.09116811 0.016368803 -0.033751562 -0.06924744 -0.0128463255 -0.04805407
0.06696154 0.021120466 -0.045875542 -0.082646236 0.0077685225 -0.055411976 0.035766695 -0.0009110684
-0.088145986 0.07339347 0.09389426 0.07848755 0.056670878 0.081142195 0.029261017 0.08854412
0.05367858 -0.01217534 -0.039821137 -0.002356487 0.08971793 -0.10090094 -0.056320224 0.011800364
-0.019106213 0.034414906 0.099132314 0.08735379 -0.031892303 -0.056172814 -0.018940153 0.023599075
-0.03149853 -0.083249785 -0.045866214 -0.049781043 -0.050616488 0.0027854326 0.016402047 0.049022157
0.035690337 -0.040832147 -0.05074112 -0.005612513 0.10079188 0.009114246 0.0835107 0.03582405
0.01836308 -0.12702043 -0.07865555 0.032178845 -0.054046776 -0.1073275 -0.058808208 -0.06468151
-0.025977548 -0.04877932 0.08151969 -0.021231398 -0.10260542 -0.08060377 0.07702993 0.08754093
0.038127974 -0.011378019 -0.07817665 0.09491763 0.033396836 0.027482267 -0.10869648 -0.00079504924
