models/heat/relu/heat_04.pth (torch, 975234 bytes, 51 tensors)

net.0.weight f4 [100, 2]
0.01895883 0.1967866 0.26113847 0.44360125 0.10560494 -0.11036933 -0.061348777 0.012482052
0.4710035 0.6294891 -0.57320416 0.23686889 -0.28269646 0.056188934 -0.19128183 0.30609035
0.6175385 0.09883777 0.2717596 0.20624764 0.3412939 -0.2656898 0.1109288 -0.17054535
-0.51202184 -0.044328745 -0.59231883 -0.3808461 0.27504328 0.09839463 0.20751962 0.50721675
-0.11419046 -0.5329665 -0.07356191 0.045372896 -0.49896574 0.37777394 -0.2579661 -0.6230489
0.10589072 -0.016206956 0.2435537 0.5854223 0.556995 -0.5001811 -0.37181464 -0.040094834
-0.55160624 0.28059715 0.6627707 0.35572448 0.6950944 0.49995807 0.2518737 -0.47499064
0.5584434 0.031853672 -0.47793165 0.09471114 -0.0026364324 0.017587053 -0.13043736 0.43495774
-0.436209 0.38387746 -0.045367718 -0.55461013 0.55777353 -0.2691111 -0.7035462 0.26072758
-0.041254282 0.034563944 -0.19014037 -0.08964795 -0.017319614 0.18638976 0.085930824 0.4861142
0.03972938 0.37271243 -0.07780862 0.18779801 -0.027401078 -0.001509646 -0.69861555 -0.69048995
-0.5247327 0.050241742 0.171593 0.12171296 0.39071128 0.09713775 0.30254585 -0.5498505
-0.4033092 0.16879211 -0.4388933 0.4089903 -0.5653922 -0.5292775 -0.13858598 0.63906634
0.21876593 0.15574776 0.6509412 0.023882113 0.08799865 0.21550855 -0.14076999 0.3463535
0.24123837 -0.008039426 0.44633624 0.4397191 -0.18242902 0.07267481 -0.55444515 0.15059274
-0.5808792 -0.6455116 -0.1344347 -0.08932668 0.1931183 -0.048949506 0.3026484 -0.035331346
-0.6711289 -0.24837011 -0.54594755 -0.30054718 0.21472684 -0.38542047 -0.6173955 0.057224184
0.6067863 0.3970662 -0.47564125 0.32773373 0.21439849 -0.014336748 -0.5698503 -0.08545006
-0.32724148 0.537038 0.26169348 -0.47074533 0.5325645 0.56038386 0.40925983 -0.17067689
-0.016620457 -0.40573987 0.3886778 0.59143287 0.3749964 -0.06375147 0.23262244 0.16370384
-0.0043260455 -0.687204 -0.6841172 0.21589853 -0.52574295 -0.5145127 0.11787503 -0.46989495
0.120526865 -0.007803767 0.17885545 -0.34925547 0.051224772 -0.2645962 -0.23527214 -0.48596084
-0.66690534 -0.56599313 -0.13135962 0.3237998 -0.021424167 0.11016799 0.20523083 -0.4227034
0.6477463 0.0152400015 -0.3306147 -0.47428808 -0.56230056 0.19773033 0.45610982 0.19315441
0.37768143 0.29132742 0.11869316 0.5305612 -0.6755962 -0.058330238 -0.5154173 -0.16305764
00000000: 8c4f 9b3c 6d82 493e f1b3 853e b41f e33e
00000010: 6747 d83d 5109 e2bd db48 7bbd 8581 4c3c
00000020: 5f27 f13e 3326 213f 82bd 12bf c28d 723e
00000030: 97bd 90be 5e26 663d 62df 43be e0b7 9c3e
00000040: 0117 1e3f 756b ca3d 1324 8b3e 9532 533e
00000050: 13be ae3e 7e08 88be a42e e33d 71a3 2ebe
00000060: dd13 03bf 0f92 35bd 35a2 17bf 43fe c2be
00000070: 79d2 8c3e 2083 c93d 0680 543e f5d8 013f
00000080: b0dc e9bd 7e70 08bf a0a7 96bd eed8 393d
00000090: 7078 ffbe 966b c13e 2214 84be 2280 1fbf
000000a0: 3cdd d83d 73c4 84bc 2466 793e 3cde 153f
000000b0: 3997 0e3f de0b 00bf 7d5e bebe 7b3a 24bd
000000c0: 1136 0dbf 6eaa 8f3e 57ab 293f 8521 b63e
000000d0: b5f1 313f 81fa ff3e 97f5 803e f931 f3be
000000e0: 26f6 0e3f ff78 023d 75b3 f4be eaf7 c13d
000000f0: ffc7 2cbb b912 903c 5f91 05be c8b2 de3e
00000100: c956 dfbe 968b c43e 80d3 39bd eefa 0dbf
00000110: 3fca 0e3f eec8 89be 9b1b 34bf 167e 853e
00000120: 40fa 28bd ec92 0d3d 28b4 42be 5899 b7bd
00000130: dde1 8dbc f5dc 3e3e 80fc af3d f6e3 f83e
00000140: 46bb 223d 2ad4 be3e 205a 9fbd 1f4e 403e
00000150: 3a78 e0bc 50df c5ba 78d8 32bf f3c3 30bf
00000160: e254 06bf 49ca 4d3d 13b6 2f3e a544 f93d
00000170: 4f0b c83e 28f0 c63d 4ae7 9a3e 01c3 0cbf
00000180: 8b7e cebe d7d7 2c3e 9fb6 e0be 2d67 d13e
00000190: 8bbd 10bf bb7e 07bf 7ce9 0dbe da99 233f
000001a0: 2d04 603e 577c 1f3e 15a4 263f 6ca4 c33c
000001b0: a338 b43d 46ae 5c3e 0226 10be 3f55 b13e
000001c0: 3107 773e ccb7 03bc 2f86 e43e dd22 e13e
000001d0: acce 3abe 88d6 943d 1ef0 0dbf fc34 1a3e
000001e0: 80b4 14bf 4040 25bf 40a9 09be e8f0 b6bd
000001f0: cec0 453e 477f 48bd bbf4 9a3e 9ab7 10bd
00000200: 1bcf 2bbf bc54 7ebe 38c3 0bbf 52e1 99be
00000210: 5ae1 5b3e d555 c5be a20d 1ebf e863 6a3d
00000220: 5956 1b3f 434c cb3e 4087 f3be b7cc a73e
00000230: 478b 5b3e aee4 6abc b6e1 11bf 7100 afbd
00000240: 328c a7be 537b 093f b0fc 853e 8805 f1be
00000250: 2656 083f 5175 0f3f 818a d13e ecc5 2ebe
00000260: a027 88bc 23bd cfbe c700 c73e 2568 173f
00000270: 87ff bf3e 2190 82bd 9434 6e3e fba1 273e
00000280: 80c1 8dbb 9aec 2fbf 4e22 2fbf 8114 5d3e
00000290: 1797 06bf 1bb7 03bf 7768 f13d 1296 f0be
000002a0: cad6 f63d beb6 ffbb e225 373e 9dd1 b2be
000002b0: 11d1 513d 2779 87be 2eeb 70be dccf f8be
000002c0: 4fba 2abf ede4 10bf 2383 06be 16c9 a53e
000002d0: bc81 afbc c19f e13d 0828 523e 946c d8be
000002e0: b4d2 253f 33b1 793c 5446 a9be e3d5 f2be
000002f0: eef2 0fbf d279 4a3e 3a87 e93e 45ca 453e
00000300: 765f c13e de28 953e 6615 f33d dcd2 073f
00000310: dff3 2cbf b0eb 6ebd 63f2 03bf 95f8 26be

net.0.bias f4 [100]
0.54685104 0.30620995 0.73039657 0.6340166 -0.1345634 -0.6751731 -0.08367951 -0.13313727
-0.46883202 0.6525133 0.52743083 -0.45105734 0.49949902 0.19090813 -0.06836945 -0.3305948
-0.24585849 -0.14331377 -0.19670217 -0.01144129 -0.18372487 0.6784134 0.022427967 0.20478474
-0.039520785 -0.5203799 0.41632876 0.05257636 0.069685616 0.50046384 0.60799736 -0.24334137
-0.6334069 -0.4000347 -0.19999309 -0.3623658 -0.20093182 -0.3656206 -0.5731048 -0.32061893
-0.2104609 -0.41051203 0.13595699 -0.23593798 -0.19084935 0.289714 -0.56769896 0.24149363
0.10493354 -0.2407207 -0.07069081 -0.34379262 -0.028039653 -0.7354603 0.61515605 -0.25790092
-0.7006133 -0.48857713 -0.38313794 -0.13626716 -0.667512 -0.29138333 0.26174128 -0.71453214
-0.56766754 0.16393839 -0.29099298 0.6197804 -0.430425 -0.29231286 0.5904295 0.5049948
0.115587465 -0.722477 -0.4531726 -0.2773028 -0.35294834 -0.20266972 -0.64899564 0.6009691
-0.023505569 -0.2724774 0.31510296 0.48893097 -0.5655823 0.12542373 0.001350342 -0.13951492
0.4917606 0.6434105 0.21108107 -0.3665912 -0.47883046 0.4430735 0.056460977 0.6552606
0.56718636 -0.4879688 -0.2964062 0.28036824
00000000: 6efe 0b3f 8dc7 9c3e 45fb 3a3f e94e 223f
00000010: fdca 09be 25d8 2cbf 2a60 abbd 2355 08be
00000020: c00a f0be 1d0b 273f b505 073f fdf0 e6be
00000030: 56be ff3e 6c7d 433e 4805 8cbd b943 a9be
00000040: 54c2 7bbe d8c0 12be 4b6c 49be 4074 3bbc
00000050: 5f22 3cbe 80ac 2d3f dbba b73c 17b3 513e
00000060: 8ce0 21bd 9e37 05bf 0b29 d53e 4f5a 573d
00000070: 55b7 8e3d 661e 003f b7a5 1b3f 7b2e 79be
00000080: f426 22bf 59d1 ccbe fdca 4cbe 0388 b9be
00000090: 12c1 4dbe a032 bbbe ffb6 12bf 2a28 a4be
000000a0: 1083 57be a22e d2be 4f38 0b3e ba99 71be
000000b0: 036e 43be 6555 943e b854 11bf 1b4a 773e
000000c0: 65e7 d63d 7d7f 76be 58c6 90bd 9605 b0be
000000d0: 6ab3 e5bc 2047 3cbf de7a 1d3f 970b 84be
000000e0: 655b 33bf c826 fabe a82a c4be 9e89 0bbe
000000f0: 11e2 2abf 3230 95be f402 863e 94eb 36bf
00000100: a952 11bf 77df 273e 08fd 94be eea9 1e3f
00000110: aa60 dcbe 08aa 95be 6326 173f 5747 013f
00000120: 1fb9 ec3d 41f4 38bf 3d06 e8be a2fa 8dbe
00000130: a5b5 b4be a788 4fbe 9424 26bf 1cd9 193f
00000140: c08e c0bc 2882 8bbe 2d55 a13e 2955 fa3e
00000150: 00ca 10bf 146f 003e f5fd b03a 00dd 0ebe
00000160: 0cc8 fb3e 8db6 243f a325 583e d7b1 bbbe
00000170: 4429 f5be 88da e23e a043 673d 29bf 273f
00000180: 2033 113f 0cd7 f9be 8ec2 97be 6d8c 8f3e

net.2.weight f4 [100, 100]
-0.061946273 -0.014368896 0.00502796 -0.044036176 -0.058760684 0.030233614 -0.05598066 0.09259402
0.04146106 0.051909603 0.075943016 -0.07224825 -0.025712132 -0.05397122 -0.07406381 0.011394737
0.09482608 0.021857724 -0.015727915 -0.0946512 -0.03611632 -0.038275894 -0.09281769 -0.083998784
-0.07156451 -0.09931087 -0.0493677 -0.025161043 0.044949923 -0.04657053 0.029105373 1.2412667e-05
-0.024080813 -0.012529254 0.05757761 -0.08192883 0.020538889 0.024631463 0.017187715 -0.038131
-0.062489126 0.039125733 -0.032641113 0.052106388 -0.051962998 -0.08827558 -0.10046895 0.08265907
0.09372563 0.032614358 0.09016002 -0.09892513 0.023053357 0.056072228 0.059328757 -0.008840248
0.08033066 0.028350884 0.046793602 0.0076307654 0.0026034117 -0.05034181 -0.1010308 -0.003063677
0.026614167 0.02700802 -0.06569485 -0.040796377 0.09318594 0.010171436 -0.08210774 0.017142855
-0.063511565 0.012544518 -0.00025346625 0.061425902 0.030915372 0.018813502 0.09198977 -0.09595887
-0.023502067 -0.023154423 -0.094490506 -0.07195439 0.026032621 0.03557213 0.089984685 -0.0036248788
-0.063003644 -0.052744627 -0.085142255 0.024540365 -0.08834474 -0.07614219 -0.012398042 -0.016910654
0.041974634 -0.06375974 -0.048090078 -0.079981074 -0.08171338 -0.04553527 -0.03236586 0.08476393
-0.006460921 0.039375585 0.06877679 0.08747757 0.09358319 -0.06447049 -0.041783504 -0.06382132
-0.012605956 0.062141888 -0.0431572 0.056364853 -0.055121183 0.0024246885 0.09554054 0.012661539
-0.06257157 0.03388738 -0.03758743 -0.039818197 -0.030180098 -0.026976934 0.057762075 0.06903237
0.05590586 0.10513304 -0.08608556 0.0644134 -0.053381443 0.016978681 0.043612428 0.09262982
0.057307303 0.03816285 -0.06809115 -0.1302856 0.004843093 0.01374515 -0.013580705 0.02821485
0.014676982 -0.023621505 0.08821362 0.010656168 0.062483367 -0.051047005 -0.027971603 -0.053268827
-0.024691116 0.08454009 -0.10225136 -0.012196683 0.061570894 0.053519726 0.016120723 0.01297444
-0.0037629977 -0.038946044 0.07210699 -0.061586156 -0.048021078 -0.0241969 0.03252797 -0.044410102
0.004391885 0.058614258 0.05266437 -0.01099071 -0.06831213 0.048881322 -0.08363591 -0.059270523
0.035601266 0.049967315 0.0384094 -0.066172555 0.073840834 -0.07783796 -0.08107666 -0.015624206
-0.0048913625 -0.0429441 -0.06257805 -0.042639315 0.07904646 -0.008170035 0.03098633 -0.060098223
0.058540337 0.016968789 0.015591386 -0.01715509 0.08356276 0.031116582 -0.025518797 -0.011301563
0.046537843 -0.0680028 -0.014309 0.06938112 0.011175689 0.07704615 -0.102661155 0.05632403
-0.036138855 0.04626555 -0.055213943 -0.0064507113 0.04110938 -0.115103915 -0.086400166 -0.022860497
0.008158028 0.056518838 -0.02296892 -0.065099515 -0.045665592 -0.00364486 0.08324604 -0.047903184
0.07886223 -0.05104517 0.08610914 0.09459552 0.10146887 -0.058955677 -0.010223168 -0.00090587005
-0.03334083 -0.039311077 0.10355815 -0.055542517 0.050609667 0.022713766 -0.03309819 -0.007634121
0.10479585 -0.062088646 -0.035408657 -0.090634935 -0.003882744 0.053633004 -0.039444897 0.015487428
0.08616229 0.09951111 -0.061752964 -0.033590756 -0.06585263 -0.039126344 -0.06940415 0.018353088
00000000: 60bb 7dbd 856b 6bbc 96c1 a43b 475f 34bd
00000010: 0baf 70bd 7cac f73c fa4b 65bd efa1 bd3d
00000020: 13d3 293d 2a9f 543d 0388 9b3d e4f6 93bd
00000030: 40a2 d2bc ed10 5dbd c4ae 97bd feb0 3a3c
00000040: 2d34 c23d f80e b33c d4d7 80bc 7dd8 c1bd
00000050: b5ee 13bd 2fc7 1cbd 3317 bebd 8e07 acbd
00000060: 6a90 92bd 7f63 cbbd c935 4abd 881e cebc
00000070: 691d 383d bdc0 3ebd 646e ee3c 0040 5037
00000080: 2045 c5bc 8047 4dbc 80d6 6b3d 4dca a7bd
00000090: 2c41 a83c ecc7 c93c 40cd 8c3c 402f 1cbd
000000a0: 99f4 7fbd 4e42 203d b0b2 05bd 826d 553d
000000b0: 27d7 54bd d4c9 b4bd aac2 cdbd 2949 a93d
000000c0: 39f3 bf3d a296 053d d1a5 b83d 4299 cabd
000000d0: 65da bc3c feab 653d b602 733d b0d6 10bc
000000e0: 6784 a43d 1d40 e83c a6aa 3f3d 800b fa3b
000000f0: 009e 2a3b 3733 4ebd 3ce9 cebd f9c7 48bb
00000100: f405 da3c ec3f dd3c 068b 86bd 1a1a 27bd
00000110: 45d8 be3d 18a6 263c 1a28 a8bd 2c6f 8c3c
00000120: 5a12 82bd 8687 4d3c aae3 84b9 ba99 7b3d
00000130: 3c42 fd3c c61e 9a3c 2265 bc3d 1686 c4bd
00000140: 6887 c0bc 58ae bdbc 3d84 c1bd d35c 93bd
00000150: 5d42 d53c 15b4 113d e449 b83d 608f 6dbb
00000160: 0e08 81bd c00a 58bd 105f aebd e008 c93c
00000170: 16ee b4bd 70f0 9bbd 2821 4bbc 3688 8abc
00000180: 98ed 2b3d 7794 82bd 1afa 44bd 1ecd a3bd
00000190: 5859 a7bd 3183 3abd 1092 04bd b698 ad3d
000001a0: 22b6 d3bb 4b48 213d d8da 8c3d 7127 b33d
000001b0: 8ba8 bf3d 1b09 84bd 2e25 2bbd c1b4 82bd
000001c0: 3689 4ebc 7e88 7e3d 9bc5 30bd d5de 663d
000001d0: c0c6 61bd 86e7 1e3b c2aa c33d 5872 4f3c
000001e0: 8625 80bd 7ecd 0a3d 47f5 19bd 6818 23bd
000001f0: 413c f7bc bbfe dcbc ed97 6c3d d860 8d3d
00000200: 8bfd 643d fe4f d73d a04d b0bd 2ceb 833d
00000210: 80a6 5abd e016 8b3c f2a2 323d b4b4 bd3d
00000220: 10bb 6a3d a650 1c3d 5f73 8bbd 9769 05be
00000230: cfb2 9e3b 5633 613c 9b81 5ebc d422 e73c
00000240: b977 703c e381 c1bc 58a9 b43d 3597 2e3c
00000250: 8fee 7f3d aa16 51bd b424 e5bc 6a30 5abd
00000260: 0645 cabc 5b23 ad3d 2969 d1bd 99d4 47bc
00000270: c331 7c3d 8037 5b3d 9b0f 843c bf92 543c
00000280: a09c 76bb e385 1fbd d4ac 933d c441 7cbd
00000290: c0b1 44bd 9438 c6bc 0c3c 053d 5ee7 35bd
000002a0: cde9 8f3b 8115 703d 98b6 573d 6112 34bc
000002b0: 3be7 8bbd c837 483d 4e49 abbd a6c5 72bd
000002c0: a2d2 113d 87aa 4c3d 2d53 1d3d 7a85 87bd
000002d0: dd39 973d 8269 9fbd 850b a6bd abfc 7fbc
000002e0: b947 a0bb 27e6 2fbd ec28 80bd 90a6 2ebd
000002f0: 1ce3 a13d 9cdb 05bc 0bd7 fd3c 8e29 76bd
00000300: fec7 6f3d 2102 8b3c 0373 7f3c d588 8cbc
00000310: f422 ab3d 34e8 fe3c cc0c d1bc 312a 39bc
00000320: 779e 3e3d 0d45 8bbd 4c70 6abc b017 8e3d
00000330: 3d1a 373c 5fca 9d3d 0340 d2bd 07b4 663d
00000340: 5606 14bd f280 3d3d 0428 62bd 7d60 d3bb
00000350: 4f62 283d 9abb ebbd 92f2 b0bd f045 bbbc
00000360: 40a9 053c 4c80 673d 5129 bcbc e552 85bd
00000370: d80b 3bbd 9ade 6ebb e67c aa3d 2136 44bd
00000380: 8582 a13d bd14 51bd fd59 b03d 4cbb c13d
00000390: e9ce cf3d 827b 71bd 137f 27bc e977 6dba
000003a0: 6590 08bd a704 21bd 4c16 d43d 8d80 63bd
000003b0: 154c 4f3d 3812 ba3c f891 07bd a627 fabb
000003c0: 359f d63d aa50 7ebd ab08 11bd cf9e b9bd
000003d0: a275 7ebb 48ae 5b3d f990 21bd fbbe 7d3c
000003e0: db75 b03d 7bcc cb3d adf0 7cbd 7696 09bd
000003f0: bedd 86bd f242 20bd c323 8ebd 3759 963c

net.2.bias f4 [100]
0.035179198 -0.09109449 -0.063247986 -0.09532488 0.08517494 0.07546093 0.058303542 0.058793228
0.10223822 0.12296294 0.11570158 -0.0015626993 0.058982253 0.11339018 -0.03763504 0.09584025
-0.09322405 -0.076268174 0.07671876 0.110168025 0.02642962 0.13493006 -0.024411757 -0.028811542
0.077112235 -0.056137454 0.10239319 0.09509499 0.05103194 -0.053386893 0.075772144 -0.008618078
-0.031530343 8.52467e-05 -0.05478288 -0.0791189 0.035020497 0.018036291 0.05742175 -0.034859024
-0.062325537 -0.09432978 0.05599404 0.009678741 -0.023740891 -0.08390023 0.08843012 -0.041204024
-0.060715824 -0.040275846 -0.029425502 -0.066572 -0.032023538 -0.02389396 0.066584475 -0.07418719
-0.06722224 -0.10275563 0.026626147 -0.04676947 -0.085854314 0.053733744 -0.0012901307 0.013704287
-0.034149345 -0.028494677 -0.032514807 0.012870531 0.053216603 -0.056334294 -0.0043166815 0.011196403
-0.092978515 0.044765025 -0.06227037 0.07809837 -0.09205291 0.051370412 -0.007779458 -0.036111057
0.08234491 -0.11419731 -0.03903147 -0.06324744 -0.0030352632 0.12741688 0.13116422 -0.100440875
0.10007449 0.123309076 -0.114568844 0.066084445 -0.077243045 -0.021172095 0.11832617 -0.00023800932
-0.14398979 0.14503711 -0.03169602 -0.006371187
00000000: 1018 103d bf8f babd 2988 81bd b139 c3bd
00000010: 3370 ae3d 438b 9a3d b2cf 6e3d 2bd1 703d
00000020: 4662 d13d fed3 fb3d f3f4 ec3d 7dd3 ccba
00000030: 6097 713d 1c39 e83d 3327 1abd e547 c43d
00000040: 40ec bebd 7d32 9cbd ba1e 9d3d c69f e13d
00000050: ee82 d83c 1b2b 0a3e 2afb c7bc 2f06 ecbc
00000060: 05ed 9d3d 63f0 65bd 85b3 d13d 2ac1 c23d
00000070: de06 513d 37ac 5abd 6d2e 9b3d d732 0dbc
00000080: f625 01bd 79c6 b238 0364 60bd 1709 a2bd
00000090: a771 0f3d d8c0 933c 1233 6b3d 56c8 0ebd
000000a0: 1049 7fbd f92f c1bd 025a 653d 9593 1e3c
000000b0: 427c c2bc e2d3 abbd da1a b53d 8dc5 28bd
000000c0: 28b1 78bd 49f8 24bd c00d f1bc e756 88bd
000000d0: 1d2b 03bd 44bd c3bc 715d 883d 74ef 97bd
000000e0: d0ab 89bd 8b71 d2bd 141f da3c 5891 3fbd
000000f0: 63d4 afbd ea17 5c3d 9a19 a9ba f287 603c
00000100: 2fe0 0bbd ab6d e9bc 3f2e 05bd ebde 523c
00000110: a7f9 593d cabe 66bd f372 8dbb 1e71 373c
00000120: 856b bebd 885b 373d 370f 7fbd 0af2 9f3d
00000130: 3c86 bcbd c869 523d d3ea febb 30e9 13bd
00000140: 73a4 a83d 47e0 e9bd 76df 1fbd e087 81bd
00000150: 44eb 46bb 9279 023e ea4f 063e f2b3 cdbd
00000160: dbf3 cc3d 7889 fc3d 12a3 eabd 4857 873d
00000170: 9a31 9ebd 1a71 adbc fe54 f23d 2492 79b9
00000180: 0f72 13be 9c84 143e b0d3 01bd 64c5 d0bb

net.4.weight f4 [100, 100]
-0.08834581 -0.008070764 0.07491368 0.10523437 0.05061573 0.04546413 -0.008722977 0.08302576
-0.019071806 -0.11428302 -0.105300106 0.07344666 -0.081352234 0.11125862 0.042336497 0.043598752
0.045183755 -0.08849872 0.008951055 0.04811586 -0.07429718 -0.102136284 0.076969825 -0.055459104
-0.013230295 0.074643515 -0.12188438 0.056898236 0.05739593 0.029528864 -0.08054534 0.044329956
-0.085352734 0.028513445 0.056127973 0.04973788 -0.05265459 0.017646775 -0.093238376 -0.048665058
-0.0071726814 0.0148504935 -0.02863311 0.0009267948 -0.055444498 -0.09658646 0.09626917 -0.005643782
-0.064810224 0.093635805 -0.07729911 0.017297134 0.11016782 0.06779399 0.036638774 -0.04090255
0.07693541 -0.0344671 -0.058966763 0.056349352 -0.029788176 -0.0037012068 0.073324874 -0.036089435
-0.05431766 0.09470974 -0.01118617 -0.06532411 -0.09697578 0.1073793 0.108000025 -0.0379083
0.074127644 0.039049987 0.009487808 -0.09590893 0.005946789 0.07072696 -0.0030774288 -0.019835636
-0.01464317 -0.07110386 -0.084318414 0.026825376 0.08984135 -0.01736157 -0.14806446 -0.007144807
0.08046977 0.015365473 0.02643404 -0.07586905 -0.08004685 0.0582323 -0.08050179 0.010074182
0.0044804937 -0.1505881 0.008376457 0.08484228 0.02693417 -0.019844523 -0.077081256 0.09074339
-0.048531022 -0.11985406 -0.024414223 0.016734308 -0.09776579 0.059019092 -0.020610506 0.02154798
0.030527806 0.04106644 -0.021297695 -0.01903124 0.03920663 0.015037099 -0.06482437 -0.07771296
-0.0020621484 -0.14955124 -0.0809294 -0.015557529 0.0026980764 -0.023834981 -0.10808859 0.07658289
-0.08642494 -0.034979485 0.074584655 0.03312821 -0.06229031 0.1118616 0.07777209 0.11051979
0.07707582 -0.05722741 -0.0678548 -0.00096149213 0.061609924 0.09064918 0.070106596 0.022086028
-0.04711206 -0.085129194 0.084489465 0.10329711 0.0616704 -0.08143765 -0.037290446 -0.05295813
0.0020640963 -0.04126421 0.06793465 -0.05107617 -0.0053074965 0.066258535 0.013730191 -0.041160982
-0.0010222835 -0.0746115 -0.041350637 -0.088082775 0.05748279 0.046245676 0.07384692 0.08354844
-0.114728585 -0.018615453 0.05750337 0.05809178 -0.0751222 0.02030013 0.01934819 -0.04142974
-0.054570146 -0.03274276 0.11888229 0.054621883 -0.005419943 0.09120275 0.07610269 0.025085844
-0.024575265 -0.02861823 -0.009304723 0.10432109 0.086502135 -0.05679738 0.030491142 -0.050228193
-0.044142544 0.08314633 -0.058641028 -0.07693147 0.105445884 -0.061842725 -0.008014905 -0.025575148
0.036710262 -0.09525209 0.003433379 -0.10045604 -0.012782639 -0.06779076 0.10192834 -0.051175196
-0.051600914 -0.024539668 0.081508115 0.020431805 -0.08614102 -0.09808522 0.05000138 -0.00376509
0.012432158 -0.016207218 -0.064051 -0.05846408 -0.047352713 -0.13840452 0.024759082 0.059325155
0.07143601 0.04162965 0.014265239 -0.008455814 -0.0020965936 0.06808358 0.005187832 -0.03089897
-0.06325616 -0.028598355 -0.08610543 0.07340633 -0.053287163 0.028676577 -0.04321323 0.04070049
0.03556851 -0.032739278 -0.08799821 0.039724812 -0.030588679 0.011586055 0.029186368 0.06188901
0.09794373 0.07405098 0.03499083 -0.039598476 0.07713339 0.0343214 0.084033005 -0.10381259
00000000: a6ee b4bd 3d3b 04bc 586c 993d 1e85 d73d
00000010: 7152 4f3d 9838 3a3d d1ea 0ebc 6909 aa3d
00000020: 7a3c 9cbc 370d eabd 95a7 d7bd 346b 963d
00000030: 009c a6bd 8fdb e33d 0969 2d3d 9b94 323d
00000040: 9a12 393d d13e b5bd 72a7 123c 2315 453d
00000050: 1f29 98bd d42c d1bd 5ba2 9d3d 1629 63bd
00000060: e1c3 58bc b3de 983d 859e f9bd 200e 693d
00000070: ff17 6b3d 84e6 f13c f5f4 a4bd 5493 353d
00000080: 6acd aebd 0795 e93c 72e6 653d f2b9 4b3d
00000090: 57ac 57bd f88f 903c c3f3 bebd 0355 47bd
000000a0: d008 ebbb 7c4f 733c fc8f eabc 25f4 723a
000000b0: c519 63bd 1fcf c5bd c528 c53d 7aef b8bb
000000c0: 39bb 84bd 21c4 bf3d ff4e 9ebd b8b2 8d3c
000000d0: aa9f e13d 93d7 8a3d 8a12 163d 6f89 27bd
000000e0: 5090 9d3d 602d 0dbd 2287 71bd 94ce 663d
000000f0: 5506 f4bc f28f 72bb 5a2b 963d 84d2 13bd
00000100: 327c 5ebd 2ef7 c13d 3346 37bc a6c8 85bd
00000110: 3d9b c6bd aee9 db3d 1e2f dd3d bc45 1bbd
00000120: 3cd0 973d e1f2 1f3d c072 1b3c e76b c4bd
00000130: 48dd c23b 4cd9 903d b0ae 49bb 587e a2bc
00000140: e8e9 6fbc e79e 91bd 22af acbd e4c0 db3c
00000150: befe b73d da39 8ebc 369e 17be fc1e eabb
00000160: 56cd a43d 77bf 7b3c 338c d83c 3c61 9bbd
00000170: 9aef a3bd fe84 6e3d 1fde a4bd 2f0e 253c
00000180: 1bd1 923b c433 1abe 683d 093c cac1 ad3d
00000190: 0ca5 dc3c fb90 a2bc c7dc 9dbd acd7 b93d
000001a0: 77c8 46bd 0c76 f5bd 5600 c8bc 6316 893c
000001b0: 6e39 c8bd 01be 713d 5dd7 a8bc 6485 b03c
000001c0: 7315 fa3c 4935 283d 8178 aebc 67e7 9bbc
000001d0: 2297 203d 2a5e 763c a4c2 84bd f927 9fbd
000001e0: 1c25 07bb f623 19be 50be a5bd 02e5 7ebc
000001f0: 36d2 303b 9441 c3bc 8d5d ddbd 7dd7 9c3d
00000200: 8fff b0bd a646 0fbd d7bf 983d 72b1 073d
00000210: 2024 7fbd b217 e53d f946 9f3d 3358 e23d
00000220: edd9 9d3d 4a67 6abd 75f7 8abd a50c 7cba
00000230: b05a 7c3d 47a6 b93d 0c94 8f3d c2ed b43c
00000240: 93f8 40bd 3758 aebd d008 ad3d 6f8d d33d
00000250: 1a9a 7c3d c8c8 a6bd debd 18bd a0ea 58bd
00000260: ca45 073b a904 29bd 5221 8b3d 3f35 51bd
00000270: 82ea adbb 8eb2 873d 98f4 603c 6b98 28bd
00000280: 24fe 85ba eacd 98bd 495f 29bd be64 b4bd
00000290: 1373 6b3d 1b6c 3d3d 0e3d 973d 721b ab3d
000002a0: d2f6 eabd 6f7f 98bc a788 6b3d a5f1 6d3d
000002b0: abd9 99bd 754c a63c 1880 9e3c 3bb2 29bd
000002c0: f284 5fbd 461d 06bd 8f78 f33d 32bb 5f3d
000002d0: c799 b1bb 82c8 ba3d badb 9b3d d480 cd3c
000002e0: 1152 c9bc c770 eabc d672 18bc 4ca6 d53d
000002f0: 0828 b13d 5fa4 68bd 8fc8 f93c 14bc 4dbd
00000300: d0ce 34bd a048 aa3d 9331 70bd 3f8e 9dbd
00000310: 03f4 d73d cc4e 7dbd f350 03bc f982 d1bc
00000320: 805d 163d 8713 c3bd 8b02 613b e5bb cdbd
00000330: 466e 51bc e2d5 8abd cebf d03d 159d 51bd
00000340: 7b5b 53bd 6a07 c9bc baed a63d 9a60 a73c
00000350: b46a b0bd e7e0 c8bd 3fce 4c3d babf 76bb
00000360: 40b0 4b3c 00c5 84bc 2c2d 83bd 0878 6fbd
00000370: ebf4 41bd eab9 0dbe 8fd3 ca3c effe 723d
00000380: 0b4d 923d da83 2a3d c0b8 693c 418a 0abc
00000390: 0167 09bb 676f 8b3d b0fe a93b d61f fdbc
000003a0: 728c 81bd 1947 eabc 0b58 b0bd 0f56 963d
000003b0: a443 5abd 24eb ea3c 5b00 31bd 8fb5 263d
000003c0: 49b0 113d 9f19 06bd 6838 b4bd 7cb6 223d
000003d0: 1c95 fabc 70d3 3d3c 4018 ef3c 557f 7d3d
000003e0: b996 c83d 0aa8 973d 8b52 0f3d 0332 22bd
000003f0: 1cf8 9d3d 9994 0c3d 7f19 ac3d b29b d4bd

net.4.bias f4 [100]
-0.06498475 0.050108682 0.01940927 -0.055159207 -0.09363579 0.06717039 -0.029724505 0.052209858
0.02552765 -0.119961664 -0.041222777 0.07659804 -0.11595057 -0.08352561 -0.057009947 -0.053969122
0.112674095 0.10396866 -0.07526811 -0.015537609 0.06510509 -0.057973966 -0.0013703045 0.11676558
0.12868774 -0.055476975 0.010760853 -0.013993457 -0.046074122 -0.034337617 -0.012669177 -0.031010885
-0.10560916 -0.09470274 0.109601796 0.055725634 0.091759555 0.053942874 0.028610744 -0.092014834
-0.10408262 0.024844943 0.06769181 -0.050414193 -0.020364283 0.0013460022 0.0107745305 0.053656116
0.03841867 0.021584008 0.049685653 -0.053501792 -0.017041948 -0.029111313 -0.009487193 -0.0043162033
-0.06056418 0.032683562 -0.05238351 -0.009568939 -0.026998943 -0.009345145 -0.11036943 0.06844917
0.08139332 -0.07853371 0.029258613 0.037974305 0.10464986 0.057965674 0.054896932 -0.051995788
-0.022783972 -0.09261864 -0.015656121 0.06423494 0.029670548 -0.08124068 0.013887453 -0.08285827
-0.03826701 0.07224151 0.10748758 0.043026496 -0.095695324 -0.025607362 -0.048967615 0.028016753
0.035245102 0.053003058 0.11906522 -0.013642513 -0.05928975 -0.003555552 0.06872846 -0.074390985
0.0029227037 0.11072895 -0.03327626 -0.022855388
00000000: b916 85bd c33e 4d3d 3000 9f3c 9fee 61bd
00000010: 1fc4 bfbd a190 893d ce80 f3bc 01da 553d
00000020: 5d1f d13c 76ae f5bd 37d9 28bd 6fdf 9c3d
00000030: 7e77 edbd 7a0f abbd 4383 69bd ba0e 5dbd
00000040: adc1 e63d 85ed d43d 2b26 9abd 7591 7ebc
00000050: d155 853d 1c76 6dbd ca9b b3ba cb22 ef3d
00000060: b8c6 033e d33b 63bd 4a4e 303c d044 65bc
00000070: 38b8 3cbd 9aa5 0cbd 6192 4fbc 8a0a febc
00000080: 9e49 d8bd 83f3 c1bd e876 e03d 9040 643d
00000090: 6fec bb3d 34f3 5c3d 1461 ea3c 4672 bcbd
000000a0: 4529 d5bd 9f87 cb3c 01a2 8a3d 1d7f 4ebd
000000b0: ffd2 a6bc 576c b03a a887 303c 84c6 5b3d
000000c0: e55c 1d3d f2d0 b03c 2f83 4b3d b224 5bbd
000000d0: 8e9b 8bbc d97a eebc 2c70 1bbc f06e 8dbb
000000e0: 2512 78bd 33df 053d 1790 56bd 0ac7 1cbc
000000f0: e32c ddbc 611c 19bc 5e09 e2bd 142f 8c3d
00000100: 8ab1 a63d 48d6 a0bd c2af ef3c f28a 1b3d
00000110: aa52 d63d 6a6d 6d3d 9bdb 603d 89f9 54bd
00000120: 74a5 babc d7ae bdbd 4441 80bc 9c8d 833d
00000130: a60f f33c 8361 a6bd 3388 633c 99b1 a9bd
00000140: debd 1cbd 5bf3 933d 7322 dc3d 8d3c 303d
00000150: e9fb c3bd 88c6 d1bc 4492 48bd 6483 e53c
00000160: 2b5d 103d bc19 593d 77d8 f33d d984 5fbc
00000170: cfd9 72bd 4404 69bb 82c1 8c3d 4d5a 98bd
00000180: d58a 3f3b dcc5 e23d b04c 08bd 393b bbbc

net.6.weight f4 [100, 100]
0.08230771 -0.021777676 0.026129382 -0.0583753 0.08767844 0.0729404 -0.0051825643 0.024040252
-0.013883211 -0.036833905 -0.041453827 -0.09260191 0.05099926 -0.015631035 0.04695248 0.099123366
0.067047484 0.049477167 0.033058234 -0.030019261 0.016353754 0.031514905 -0.022197666 -0.06226698
0.018008817 0.08167444 0.037755646 -0.033414625 0.025423057 0.056130297 -0.09091842 -0.004162751
-0.06480265 -0.07918652 0.004918709 -0.09234407 -0.07190337 0.015372433 -0.08909468 -0.083793715
-0.09331757 0.06507637 -0.04354266 0.043420676 0.009946488 0.031608403 -0.054237988 0.07078855
-0.09162643 -0.0204537 0.0263045 -0.017770864 -0.016066408 -0.023386907 -0.07216541 -0.0714833
-0.08971114 -0.035512745 -0.046050705 0.0417986 0.03268656 0.09277928 -0.09649392 -0.08607304
-0.047203816 -0.03278829 -0.06998543 -0.05441475 -0.08893279 0.0641072 0.09585594 -0.033802405
-0.07772913 -0.03289455 0.0029651357 -0.009527563 -0.013730394 0.0023771897 0.0038245614 -0.0004785914
-0.018584475 0.07735054 0.08406603 -0.08852949 -0.019918539 0.074277945 0.03194892 0.011358656
-0.027575195 -0.022449255 0.053089805 0.056948982 -0.032363437 -0.0024722642 0.08180984 -0.09260434
-0.08326572 0.0015445767 0.043087084 0.09985005 -0.05799813 -0.07991352 0.03728647 -0.08999274
-0.14221323 0.029079556 -0.013171142 0.090174586 -0.01995788 -0.08828222 -0.064307995 0.0844899
-0.0096368985 -0.07292754 0.08120642 -0.07879136 0.07045421 -0.018991932 0.031478114 0.080348015
-0.07080821 -0.027667047 -0.006741851 0.0024590825 -0.015134534 -0.08828389 0.09583738 -0.08195375
0.06725194 -0.05012671 0.026481215 0.077008426 -0.065337084 -0.10623957 0.11160965 0.039857354
0.11715463 -0.0063635902 0.07883817 0.061950356 0.07905124 -0.048962068 0.06574824 0.0058532255
-0.020631563 0.052715693 -0.00086001307 -0.06304027 -0.08760731 -0.059831336 0.097126335 -0.02370972
0.051770337 -0.041623406 -0.06952312 -0.034111306 0.0015951685 0.111992925 -0.022302296 -0.04053498
-0.061032966 0.042371027 0.03416756 0.075092874 0.063784696 0.03163741 -0.04331685 -0.09421925
0.060935564 0.029709494 0.10407246 -0.0077646906 -0.052389517 0.0311095 -0.05460391 0.0916218
0.0982968 -0.006135587 -0.05810536 0.061002497 0.09118517 0.09780798 0.083667666 0.07028615
-0.00035765112 -0.013336467 -0.06431786 -0.010820888 -0.034656577 -0.08759793 0.04456339 -0.070631705
0.065597996 -0.058864214 0.054751165 -0.053825486 0.046668418 0.038900405 0.06792151 -0.016743755
-0.023723694 -0.117096804 -0.0023052034 -0.05371489 0.05076742 -0.09419696 -0.08993868 0.05908195
-0.06433975 -0.06200484 -0.09323245 -0.045947887 0.00854211 0.03268387 -0.0105762705 -0.0112060085
-0.113438636 -0.026153417 -0.011746965 -0.030208515 0.095389016 0.039750192 -0.08725397 0.014301894
-0.017359907 -0.057020426 0.07640093 0.05209983 0.062088795 -0.084770195 -0.08892202 -0.10675271
-0.004209444 -0.007230642 0.047173787 -0.09738852 0.034906182 0.04277166 -0.01604684 -0.012911581
-0.08701011 0.05872421 0.056122582 0.05415648 -0.08764277 -0.075646296 -0.072220206 -0.09968569
-0.102488264 -0.0003723386 -0.05613425 0.08361058 0.07593868 0.016573578 -0.10594348 0.00866762
00000000: f290 a83d 1967 b2bc 490d d63c f01a 6fbd
00000010: c190 b33d c761 953d 80d2 a9bb 10f0 c43c
00000020: 6876 63bc 26df 16bd 7dcb 29bd 12a6 bdbd
00000030: 9ae4 503d a80c 80bc 3e51 403d 3101 cb3d
00000040: 3150 893d 92a8 4a3d 1268 073d f4ea f5bc
00000050: 4ff8 853c c615 013d e1d7 b5bc a90b 7fbd
00000060: 3a87 933c ee44 a73d aaa5 1a3d c6dd 08bd
00000070: 0444 d03c e2e8 653d 7033 babd b067 88bb
00000080: 40b7 84bd 8b2c a2bd 1f2d a13b e31e bdbd
00000090: 1342 93bd a8dc 7b3c 4677 b6bd 0a9c abbd
000000a0: 481d bfbd c346 853d ca59 32bd e1d9 313d
000000b0: 98f6 223c d077 013d a728 5ebd 96f9 903d
000000c0: a3a6 bbbd 858e a7bc 897c d73c 3494 91bc
000000d0: b39d 83bc e695 bfbc 75cb 93bd d665 92bd
000000e0: 79ba b7bd d075 11bd aa9f 3cbd 0235 2b3d
000000f0: 58e2 053d 1003 be3d 9b9e c5bd 1047 b0bd
00000100: ca58 41bd 044d 06bd 8554 8fbd 00e2 5ebd
00000110: 6522 b6bd a34a 833d 1e50 c43d 6474 0abd
00000120: 7330 9fbd 70bc 06bd b952 423b 7f19 1cbc
00000130: 72f5 60bc a0ca 1b3b 7ea5 7a3b 73eb fab9
00000140: 783e 98bc f669 9e3d d02a ac3d f34e b5bd
00000150: 342c a3bc 091f 983d dfdc 023d a819 3a3c
00000160: 60e5 e1bc 80e7 b7bc b274 593d 5643 693d
00000170: 868f 04bd b605 22bb eb8b a73d 58a7 bdbd
00000180: 3887 aabd 6573 ca3a 157c 303d 2f7e cc3d
00000190: 728f 6dbd b3a9 a3bd b3b9 183d 1d4e b8bd
000001a0: 58a0 11be 4038 ee3c c6cb 57bc 74ad b83d
000001b0: b57e a3bc 4fcd b4bd e9b3 83bd 0a09 ad3d
000001c0: 15e4 1dbc 095b 95bd 8d4f a63d 5d5d a1bd
000001d0: 4c4a 903d f894 9bbc 32ef 003d 808d a43d
000001e0: e503 91bd 01a6 e2bc bfea dcbb 8f28 213b
000001f0: d6f6 77bc 2fce b4bd 6346 c43d 5ed7 a7bd
00000200: 63bb 893d aa51 4dbd 22ef d83c 98b6 9d3d
00000210: 73cf 85bd 2294 d9bd 9a93 e43d 7741 233d
00000220: c4ee ef3d aa85 d0bb e875 a13d a8bf 7d3d
00000230: 9ee5 a13d 738c 48bd 03a7 863d 6acc bf3b
00000240: 8603 a9bc 69ec 573d 8072 61ba 421b 81bd
00000250: 766b b3bd b411 75bd 2cea c63d e33a c2bc
00000260: 220d 543d 4e7d 2abd 2362 8ebd 4cb8 0bbd
00000270: f914 d13a 8c5c e53d 4eb3 b6bc 0208 26bd
00000280: b4fd 79bd 3e8d 2d3d 49f3 0b3d 4bca 993d
00000290: 8da1 823d 3b96 013d 026d 31bd 06f6 c0bd
000002a0: 9297 793d 5361 f33c f123 d53d f26e febb
000002b0: 6496 56bd 5ad9 fe3c 59a8 5fbd 36a4 bb3d
000002c0: d54f c93d 090d c9bb e3ff 6dbd c1dd 793d
000002d0: 4abf ba3d 8d4f c83d f459 ab3d 2ff2 8f3d
000002e0: 1f83 bbb9 3281 5abc 15b9 83bd 184a 31bc
000002f0: 0ef4 0dbd 8b66 b3bd 1a88 363d 5ba7 90bd
00000300: 3e58 863d 9a1b 71bd c242 603d 1d78 5cbd
00000310: 6227 3f3d 0856 1f3d 6f1a 8b3d 332a 89bc
00000320: 3158 c2bc 73d0 efbd e512 17bb 2504 5cbd
00000330: 80f1 4f3d 56ea c0bd c531 b8bd eaff 713d
00000340: 8fc4 83bd c9f8 7dbd a8f0 bebd da33 3cbd
00000350: 35f4 0b3c 86df 053d 1848 2dbc 6899 37bc
00000360: 8452 e8bd b13f d6bc 5876 40bc d977 f7bc
00000370: 515b c33d 19d1 223d 36b2 b2bd 7e52 6a3c
00000380: 5d36 8ebc 408e 69bd 1778 9c3d a266 553d
00000390: d250 7e3d ff9b adbd bf1c b6bd 2aa1 dabd
000003a0: 60ef 89bb 05ef ecbb 4d39 413d a273 c7bd
000003b0: c9f9 0e3d 5631 2f3d aa74 83bc 198b 53bc
000003c0: 5b32 b2bd cc88 703d cbe0 653d 2fd3 5d3d
000003d0: 0d7e b3bd 72ec 9abd 30e8 93bd 0328 ccbd
000003e0: 5ee5 d1bd 7136 c3b9 07ed 65bd 063c ab3d
000003f0: bd85 9b3d 50c5 873c e5f8 d8bd a202 0e3c

net.6.bias f4 [100]
-0.05378783 0.07197429 0.035209194 0.059143465 0.009052078 0.09739455 -0.106500335 0.074541345
0.016544685 0.023251472 0.007597646 -0.021074995 -0.07728623 -0.0202817 -0.083339974 0.050956845
0.019451493 -0.0066229957 0.027069936 0.041028377 -0.044006273 0.071776696 0.035043474 -0.05229997
-0.04590358 0.10903703 0.061839268 0.13091105 0.024917545 -0.07782551 0.073657036 0.13030949
0.0069263247 -0.025577016 -0.018884555 -0.0866143 -0.021655781 -0.022732396 -0.06574748 0.04980698
0.07087043 0.108552165 0.030473877 -0.09305098 0.094150566 0.017700886 0.07413652 -0.08302041
-0.041927155 0.0051890034 -0.052947912 0.016535064 -0.0063438374 0.11947187 -0.10562962 -0.09309049
0.0069943946 -0.09861174 -0.08917394 -0.089973934 0.031367812 -0.010285613 0.12978427 -0.033848643
-0.057189766 -0.009818607 -0.07450928 0.02077654 0.09653575 -0.1005589 0.005514137 0.038834453
0.16172166 -0.0026300754 -0.105127886 0.03408154 0.037260342 0.11240409 -0.05093056 0.09845575
0.09399387 0.113254935 -0.07603114 -0.027854588 0.025037905 0.001968635 -0.029636478 -0.06304325
-0.08723159 0.064895995 0.00616586 -0.09125589 0.13551576 -0.03141095 -0.0059168865 0.037631165
-0.06778613 -0.012815361 -0.06598829 -0.10532445
00000000: a150 5cbd 4267 933d 8437 103d 6b40 723d
00000010: 2b4f 143c cb76 c73d d91c dabd 22a9 983d
00000020: b888 873c df79 be3c adf5 f83b 78a5 acbc
00000030: 3e48 9ebd cf25 a6bc 26ae aabd 20b8 503d
00000040: bd58 9f3c b705 d9bb c5c1 dd3c 5f0d 283d
00000050: ec3f 34bd a9ff 923d bf89 0f3d 7e38 56bd
00000060: 6405 3cbd ce4e df3d 2c4b 7d3d 8c0d 063e
00000070: e11f cc3c fb62 9fbd 80d9 963d da6f 053e
00000080: 39f6 e23b e486 d1bc c8b3 9abc d762 b1bd
00000090: 7767 b1bc 4a39 babc 9da6 86bd 6702 4c3d
000000a0: 8424 913d 9950 de3d 5aa4 f93c 8391 bebd
000000b0: 03d2 c03d 7301 913c e3d4 973d 9b06 aabd
000000c0: cfbb 2bbd 8408 aa3b e9df 58bd 8b74 873c
000000d0: f7df cfbb abad f43d 5854 d8bd 3aa6 bebd
000000e0: 3c31 e53b f4f4 c9bd d4a0 b6bd 4144 b8bd
000000f0: 897b 003d fd84 28bc 2be6 043e e0a4 0abd
00000100: d13f 6abd 39de 20bc 5298 98bd 9033 aa3c
00000110: 89b4 c53d d3f1 cdbd efaf b43b e010 1f3d
00000120: 5d9a 253e 585d 2cbb 4a4d d7bd 1699 0b3d
00000130: 4d9e 183d 1e34 e63d 909c 50bd 2ba3 c93d
00000140: dc7f c03d 34f2 e73d 37b6 9bbd 4e2f e4bc
00000150: 4b1c cd3c 3704 013b 33c8 f2bc d21c 81bd
00000160: 7aa6 b2bd 31e8 843d fc0a ca3b 5ee4 babd
00000170: a5c4 0a3e c5a8 00bd 71e2 c1bb 2323 1a3d
00000180: 74d3 8abd 85f7 51bc de24 87bd 58b4 d7bd

net.8.weight f4 [100, 100]
0.070179634 0.023140686 -0.09236845 -0.005062365 0.08688413 -0.013283327 -0.08405999 -0.07354312
0.0751422 -0.057967715 -0.084824406 0.061750345 0.040200226 -0.026008785 0.037071817 0.028616078
0.0112565905 -0.07180839 0.056455158 -0.059399057 -0.03201338 -0.07042867 0.06499554 0.033354472
0.025904708 -0.015416485 0.09263294 -0.09380583 -0.052157898 -0.053194143 -0.06433749 0.08805545
-0.05843527 -0.03173162 -0.03731735 -0.014243938 0.060665417 -0.07498367 -0.023291547 -0.07250915
-0.020683885 -0.008618876 -0.070100024 -0.0036376459 -0.017769717 -0.025356364 -0.0054901117 0.043068267
-0.04982282 0.07107751 0.070140876 0.013799214 -0.08579599 -0.041995585 -0.020728987 0.067635365
0.021691162 0.04393407 0.08091197 0.08924546 0.056255136 -0.0012702197 -0.050964825 -0.091340505
0.042279907 0.03917379 -0.0332883 0.055641476 -0.038417254 -0.09069842 -0.0081208795 0.021572437
0.02498825 -0.045097828 0.010244426 -0.06313083 0.053276286 0.0036296248 0.01972805 -0.08580437
-0.010161281 0.040938295 0.06617393 -0.008306287 -0.05690303 -0.08487588 0.09445896 -0.07799865
-0.07179576 -0.032498375 0.020270184 0.010694943 0.016687345 0.08578918 -0.05917288 -0.04186088
-0.036997665 -0.07188859 -0.04959954 -0.03474367 -0.07898803 0.027331237 0.0702108 -0.025288722
-0.07856784 0.0013150949 0.017242637 -0.10703166 -0.097038105 -0.038059834 0.08026833 -0.010491863
0.0077777505 0.023096848 -0.033944428 0.054821275 -0.01176289 0.023088494 -0.0074730925 0.07553726
-0.12102323 -0.046824645 0.0405235 0.062143598 -0.09776406 -0.1070422 0.030128315 -0.00717847
-0.089086324 -0.004790984 -0.0029663527 0.05272748 0.03402139 -0.085270524 0.058635067 0.052828807
-0.0500616 0.039088152 -0.07874779 -0.022230268 -0.1128627 0.043190233 -0.101943634 0.07784978
0.015675824 -0.04309164 -0.06711338 0.06305632 0.08942303 0.032550298 0.08591376 0.013374034
0.08089611 -0.06550431 -0.042139437 -0.05692505 -0.032137707 0.071780786 -0.006402038 -0.013383849
-0.015045784 -0.05255714 0.10691286 -0.08309209 0.07304435 -0.042140655 -0.085576765 -0.05716528
-0.06735492 -0.07862356 0.087562285 -0.07601885 -0.05422517 -0.10474545 -0.052961208 -0.03778372
-0.012729977 0.11484611 -0.0019253939 0.057363078 -0.029746199 0.099436015 -0.041671425 -0.050597496
0.07914863 0.034062352 -0.034002703 0.040206958 -0.0061171604 -0.026954308 -0.100601576 -0.012727156
-0.02277798 0.034594364 0.072535165 0.087524995 -0.08843065 0.085494466 0.10066547 -0.0033813068
0.06897215 0.07434757 -0.06712924 0.053247884 -0.024264947 0.06587764 -0.11100824 0.06602889
0.031825714 -0.001825273 -0.018587813 -0.00030926891 0.040792085 -0.08551065 0.03814727 -0.028101481
-0.07365747 -0.087817304 -0.07844176 -0.07696807 0.06084368 0.021577353 0.060012553 0.05839335
0.02546673 0.08444912 0.042114865 0.061788507 -0.074893795 0.0053135976 0.02549181 0.055960175
-0.0368432 0.07245285 -0.020890882 -0.09595445 0.060713656 0.0689343 -0.06002773 -0.05778251
0.096767075 0.07269869 -0.098254286 0.086490944 -0.024126997 -0.05107354 0.039452467 -0.07179136
0.086112 -0.060532413 -0.041424062 0.073887445 -0.016161483 0.014395813 -0.0652138 0.012386861
00000000: 57ba 8f3d 8991 bd3c ab2b bdbd 32e2 a5bb
00000010: 4ff0 b13d 50a2 59bc a527 acbd c69d 96bd
00000020: 27e4 993d 8e6f 6dbd 6bb8 adbd eeed 7c3d
00000030: fea8 243d 6010 d5bc 9ed8 173d 446c ea3c
00000040: 906d 383c 4710 93bd 863d 673d 6d4c 73bd
00000050: 7620 03bd e83c 90bd 621c 853d b39e 083d
00000060: 1c36 d43c 6d95 7cbc 57b6 bd3d 451d c0bd
00000070: 85a3 55bd 1ae2 59bd 60c3 83bd 6a56 b43d
00000080: d259 6fbd 04f9 01bd 14da 18bd 685f 69bc
00000090: 4d7c 783d 0a91 99bd eacd bebc ad7f 94bd
000000a0: 4071 a9bc 3036 0dbc 9a90 8fbd 9265 6ebb
000000b0: cc91 91bc 26b8 cfbc 65e6 b3bb 5a68 303d
000000c0: 0313 4cbd 1691 913d 05a6 8f3d 1916 623c
000000d0: cfb5 afbd 9003 2cbd d6cf a9bc 6984 8a3d
000000e0: aab1 b13c 36f4 333d 2db5 a53d 53c6 b63d
000000f0: c96b 663d 807d a6ba 7ec0 50bd bb10 bbbd
00000100: b22d 2d3d b274 203d 5059 08bd 51e8 633d
00000110: 695b 1dbd 18c0 b9bd 700d 05bc aeb8 b03c
00000120: 29b4 cc3c 80b8 38bd 3dd8 273c bd4a 81bd
00000130: 3c38 5a3d 00df 6d3b b89c a13c 34ba afbd
00000140: 807b 26bc eaae 273d 3386 873d 1817 08bc
00000150: 2713 69bd 68d3 adbd b373 c13d c2bd 9fbd
00000160: a809 93bd 041d 05bd a80d a63c d839 2f3c
00000170: e6b3 883c 3db2 af3d 435f 72bd 5076 2bbd
00000180: dd8a 17bd 533a 93bd e328 4bbd 614f 0ebd
00000190: 7ac4 a1bd c2e5 df3c aeca 8f3d 4b2a cfbc
000001a0: 2de8 a0bd 435f ac3a 6e40 8d3c 6a33 dbbd
000001b0: eabb c6bd a1e4 1bbd b963 a43d 10e6 2bbc
000001c0: 80dc fe3b 9a35 bd3c 5009 0bbd 468c 603d
000001d0: 23b9 40bc 1524 bd3c d8e0 f4bb 47b3 9a3d
000001e0: 07db f7bd 33cb 3fbd f8fb 253d 498a 7e3d
000001f0: 8638 c8bd f138 dbbd a8cf f63c 5f39 ebbb
00000200: e472 b6bd b0fd 9cbb 2467 42bb c5f8 573d
00000210: 035a 0b3d 50a2 aebd 532b 703d 0563 583d
00000220: 640d 4dbd e61a 203d 8546 a1bd 401c b6bc
00000230: 8f24 e7bd 3ee8 303d d3c7 d0bd b56f 9f3d
00000240: 966a 803c dc80 30bd bd72 89bd ac23 813d
00000250: 6c23 b73d 7653 053d 8ef3 af3d c41e 5b3c
00000260: dcac a53d 2027 86bd 679a 2cbd 3e2a 69bd
00000270: d4a2 03bd ce01 933d 30c8 d1bb ee47 5bbc
00000280: 9882 76bc 2846 57bd 21f5 da3d 302c aabd
00000290: 4798 953d ae9b 2cbd df42 afbd 2426 6abd
000002a0: 60f1 89bd 6405 a1bd db53 b33d c5af 9bbd
000002b0: 361b 5ebd c884 d6bd daed 58bd 1ac3 1abd
000002c0: 6591 50bc 7034 eb3d 805d fcba 8cf5 6a3d
000002d0: 4dae f3bc 1ca5 cb3d a8af 2abd 523f 4fbd
000002e0: ad18 a23d f784 0b3d 6b46 0bbd 0db0 243d
000002f0: 7672 c8bb 48cf dcbc 3308 cebd 9085 50bc
00000300: e398 babc d2b2 0d3d 518d 943d 4e40 b33d
00000310: 211b b5bd b917 af3d b329 ce3d ea98 5dbb
00000320: 4541 8d3d 8a43 983d 0e7b 89bd 741a 5a3d
00000330: 48c7 c6bc dbea 863d 4a58 e3bd 283a 873d
00000340: ae5b 023d 003e efba 7845 98bc 5f25 a2b9
00000350: 9a15 273d 3520 afbd 5040 1c3d 1435 e6bc
00000360: bad9 96bd 8fd9 b3bd 13a6 a0bd 6fa1 9dbd
00000370: 3937 793d fdc2 b03c b9cf 753d de2d 6f3d
00000380: 9b9f d03c a9f3 ac3d a380 2c3d f215 7d3d
00000390: eb61 99bd b01d ae3b 33d4 d03c 7f36 653d
000003a0: e5e8 16bd 2962 943d 5b23 abbc c483 c4bd
000003b0: e2ae 783d 6d2d 8d3d a3df 75bd 5aad 6cbd
000003c0: d12d c63d 0de3 943d 8b39 c9bd 2a22 b13d
000003d0: fba5 c5bc 7d32 51bd e998 213d 5907 93bd
000003e0: 7d5b b03d d6f0 77bd 47ac 29bd 4d52 973d
000003f0: 1665 84bc 6bdc 6b3c d08e 85bd 43f2 4a3c

net.8.bias f4 [100]
-0.041753028 0.06476188 -0.0171491 0.11561819 -0.07305174 -0.04665289 -0.13114014 -0.056035716
-0.053104836 0.05126063 0.012681206 -0.053564075 0.05847303 -0.098713696 0.10999397 0.060541824
0.10275084 -0.025926543 -0.057065364 0.004715803 -0.056257136 0.09444233 -0.07947941 0.08973822
-0.015651986 -0.0027469443 -0.085229576 -0.0246678 0.09788586 -0.023137271 -0.05550763 -0.0033936368
-0.074726306 0.11473704 -0.1312127 -0.043257248 -0.023710337 -0.012327501 0.059671946 0.036493283
-0.0028090344 0.10939097 0.11593054 -0.12005865 -0.13223131 -0.053166408 0.03210097 -0.044574846
-0.040686417 0.053180628 -0.09524012 0.07432166 0.07853966 0.12561743 -0.07106841 -0.0051879557
-0.033510786 -0.053463884 0.05102564 -0.062968224 0.11757611 0.0075214454 0.11197608 0.11741011
-0.011716951 -0.030948676 0.06893297 -0.08745977 -0.06869202 0.0734985 -0.064362824 0.098122545
-0.035102125 -0.022831656 0.11790241 -0.02809801 -0.09567896 0.08674702 0.007623114 -0.02615414
-0.0022335434 -0.052523445 0.0018008867 0.0343799 -0.0074480153 -0.012682855 -0.072199 -0.08024343
0.03335473 0.10346605 -0.09616369 0.010870953 0.06256373 0.05350945 -0.061938383 0.010949417
0.060015596 0.031173829 -0.09522139 -0.057167154
00000000: 3905 2bbd e0a1 843d 457c 8cbc 3bc9 ec3d
00000010: 279c 95bd 1a17 3fbd 9a49 06be b585 65bd
00000020: 7584 59bd abf6 513d d5c4 4f3c 0166 5bbd
00000030: 6a81 6f3d 682a cabd 8544 e13d b4fa 773d
00000040: 086f d23d e763 d4bc 5fbd 69bd 0687 9a3b
00000050: e26d 66bd fb6a c13d 1ac6 a2bd acc8 b73d
00000060: 9838 80bc 1406 34bb d88c aebd 2014 cabc
00000070: 6278 c83d 608a bdbc f85b 63bd c767 5ebb
00000080: 1b0a 99bd 41fb ea3d 9f5c 06be 832e 31bd
00000090: 2e3c c2bc 49f9 49bc 926a 743d fb79 153d
000000a0: c717 38bb 5f08 e03d fe6c ed3d 4fe1 f5bd
000000b0: a567 07be 05c5 59bd 4f7c 033d 1d94 36bd
000000c0: cda6 26bd eed3 593d 410d c3bd f435 983d
000000d0: 67d9 a03d dba1 003e 518c 91bd baff a9bb
000000e0: 9b42 09bd f2fc 5abd 4300 513d 7cf5 80bd
000000f0: becb f03d 7576 f63b b753 e53d b674 f03d
00000100: 74f8 3fbc 1488 fdbc bb2c 8d3d 1c1e b3bd
00000110: 67ae 8cbd 6286 963d a8d0 83bd 79f4 c83d
00000120: 3fc7 0fbd 7409 bbbc d276 f13d cc2d e6bc
00000130: 55f3 c3bd 6ca8 b13d 51cb f93b 3541 d6bc
00000140: a460 12bb d322 57bd bb0b ec3a f0d1 0c3d
00000150: 7b0e f4bb c0cb 4fbc 12dd 93bd ab56 a4bd
00000160: f89e 083d 02e6 d33d 78f1 c4bd 151c 323c
00000170: 6a21 803d ba2c 5b3d 1ab3 7dbd 2f65 333c
00000180: ead2 753d 4260 ff3c 6f03 c3bd 1b28 6abd

net.10.weight f4 [100, 100]
0.031749345 0.057403974 0.003932872 0.000695567 -0.01185774 0.06728944 -0.022802856 -0.105930775
0.06582907 0.04397841 0.06698152 0.114408135 0.09982598 0.06369076 -0.028801367 -0.024543526
0.030330017 -0.07241589 0.0042734966 -0.068029776 0.09895688 0.05770875 0.058066163 0.05840482
0.11360509 -0.10910986 0.038402043 0.020508649 -0.022881683 0.061475426 0.07877707 -0.015124652
0.00049602985 -0.1144887 -0.013245131 0.04808169 -0.009216318 -0.07340407 -0.060779374 -0.022849252
0.0903051 0.0007562549 0.12135205 0.031532917 0.0056380425 0.08118365 -0.04110665 -0.060332533
0.017523099 -0.035599094 0.06915252 -0.024877552 -0.0019434694 -0.0020667939 0.058079395 0.031260803
0.09048922 -0.04119455 -0.08110296 0.10021144 -0.062253375 -0.012797529 0.020048102 -0.015536133
-0.079803 -0.05567202 0.03515756 0.02170508 -0.01999556 0.07324135 0.08105171 0.05004952
0.0517656 -0.00797157 -0.007912285 0.0050107837 -0.0555012 -0.026670529 0.08043572 -0.059950408
0.07057335 -0.037418436 -0.008010966 0.12352375 -0.024710817 -0.085703544 -0.11387947 0.034089684
-0.06801448 -0.11740819 -0.06308994 -0.050478946 0.03476933 0.11311825 0.0144216595 0.022379147
-0.01854191 -0.025246035 -0.021642823 -0.09368332 0.020865176 -0.10911944 -0.026183879 -0.014589746
0.03942198 0.014695672 0.06328797 -0.07498305 0.05982458 0.09458155 -0.044167865 0.06744207
-0.023045696 -0.014166914 -0.090284504 -0.026751935 0.07221548 0.025108252 -0.06742729 0.017771645
-0.06070063 0.10296314 -0.0029430168 0.009496677 0.018051492 -6.677842e-06 -0.024601173 0.08786186
0.100476004 0.091532476 -0.1083668 -0.0035309438 0.08480301 0.08375412 0.054843824 -0.004750958
0.013139121 -0.054221105 0.037888393 0.082715735 -0.097245164 0.05305464 -0.0023711638 -0.021813383
-0.14553803 0.05699854 0.06588178 -0.069394834 0.03217857 -0.061647877 0.0015415464 -0.07734236
0.009281429 -0.03001567 -0.022002893 0.04773478 0.08628462 0.033201136 0.09517728 -0.0016458328
-0.08416236 -0.01919937 0.040569823 -0.08938287 0.116496496 -0.0011856293 -0.027330482 -0.029342867
-0.07748754 0.0030054043 0.07627116 -0.088491134 -0.021617388 -0.0021529794 -0.038970087 0.049044617
-0.026451364 -0.03978162 -0.091109775 0.016266005 -0.033751562 -0.06924744 -0.0128463255 -0.048055362
0.0670663 0.021120466 -0.045933213 -0.082646236 0.0077685225 -0.05562326 0.035743583 -0.0010840493
-0.08789315 0.07349666 0.09390257 0.07857492 0.056549538 0.081142195 0.029212518 0.08854412
0.05367858 -0.012218426 -0.039821137 -0.0023781543 0.08971793 -0.10074347 -0.056193754 0.011800364
-0.018930458 0.03470821 0.09920927 0.08717149 -0.031900708 -0.056172814 -0.01899732 0.023546914
-0.031526633 -0.083249785 -0.045866214 -0.049740497 -0.050628114 0.0032037178 0.016545275 0.048928633
0.035669796 -0.040832147 -0.05074112 -0.005612513 0.10067339 0.0093493415 0.0835107 0.03581281
0.01836308 -0.12669133 -0.078537196 0.032178845 -0.054141156 -0.10726302 -0.05865511 -0.06468151
-0.025982456 -0.0488702 0.08149618 -0.021231398 -0.1017653 -0.08042668 0.077070124 0.0876409
0.038133316 -0.011378019 -0.078030966 0.09487935 0.03332404 0.027695913 -0.10858244 -0.00043363989
00000000: 9a0b 023d 6e20 6b3d 52df 803b b656 363a
00000010: f746 42bc 0ccf 893d 0ecd babc 3cf2 d8bd
00000020: 64d1 863d b522 343d 9b2d 893d d04e ea3d
00000030: 9071 cc3d 4d70 823d d8f0 ebbc 810f c9bc
00000040: a876 f83c c84e 94bd b008 8c3b 3253 8bbd
00000050: e8a9 ca3d 0360 6c3d c9d6 6d3d e439 6f3d
00000060: c9a9 e83d fe74 dfbd 764b 1d3d c101 a83c
00000070: 5e72 bbbc a8cd 7b3d df55 a13d 63cd 77bc
00000080: 0008 023a 0d79 eabd 1b02 59bc 4ef1 443d
00000090: 0a00 17bc e054 96bd cbf3 78bd 5b2e bbbc
000000a0: e1f1 b83d 683f 463a 6c87 f83d a928 013d
000000b0: 54bf b83b 9d43 a63d 725f 28bd 3f1f 77bd
000000c0: 9a8c 8f3c 5bd0 11bd d69f 8d3d 02cc cbbc
000000d0: 03bc feba 0c73 07bb a9e4 6d3d 540b 003d
000000e0: 6a52 b93d 9ebb 28bd 4f19 a6bd a83b cd3d
000000f0: 65fd 7ebd baac 51bc eb3b a43c 448b 7ebc
00000100: c16f a3bd 5808 64bd 6001 103d dace b13c
00000110: bbcd a3bc 90ff 953d 70fe a53d ba00 4d3d
00000120: 2a08 543d 309b 02bc 87a2 01bc 8031 a43b
00000130: 3a55 63bd 277c dabc 7cbb a43d 8f8e 75bd
00000140: c388 903d 1344 19bd 6d40 03bc 05fa fc3d
00000150: 576e cabc 5785 afbd a439 e9bd a0a1 0b3d
00000160: 2d4b 8bbd b573 f0bd 4c35 81bd 03c3 4ebd
00000170: 496a 0e3d 8baa e73d d348 6c3c 7954 b73c
00000180: 34e5 97bc c6d0 cebc 4a4c b1bc 0add bfbd
00000190: 72ed aa3c 037a dfbd 937f d6bc d409 6fbc
000001a0: f178 213d 1ec6 703c 209d 813d b790 99bd
000001b0: 9e0a 753d f9b3 c13d 5de9 34bd 111f 8a3d
000001c0: 54ca bcbc 581c 68bc 15e7 b8bd e026 dbbc
000001d0: b6e5 933d d2af cd3c 5217 8abd d795 913c
000001e0: 39a1 78bd 57de d23d a1df 40bb f397 1b3c
000001f0: b9e0 933c 3a12 e0b6 6688 c9bc ebf0 b33d
00000200: 5dc6 cd3d 6175 bb3d 6aef ddbd 6867 67bb
00000210: 33ad ad3d 4887 ab3d eba3 603d edad 9bbb
00000220: 7845 573c f316 5ebd dc30 1b3d de66 a93d
00000230: 7928 c7bd d24f 593d 8765 1bbb fbb1 b2bc
00000240: ec07 15be 4d77 693d 07ed 863d e11e 8ebd
00000250: adcd 033d 7c82 7cbd b70d ca3a ac65 9ebd
00000260: 2311 183c 6ce3 f5bc 693f b4bc 8b85 433d
00000270: feb5 b03d eafd 073d 4eec c23d fcb8 d7ba
00000280: 515d acbd ff47 9dbc 8b2c 263d 5e0e b7bd
00000290: b795 ee3d 1e67 9bba 2de4 dfbc 7460 f0bc
000002a0: cab1 9ebd 51f6 443b 0e34 9c3d d73a b5bd
000002b0: f316 b1bc 0019 0dbb 199f 1fbd 02e3 483d
000002c0: 88b0 d8bc 0df2 22bd c397 babd 4940 853c
000002d0: 143f 0abd 9ad1 8dbd 6579 52bc b3d5 44bd
000002e0: 0e5a 893d d404 ad3c 7724 3cbd 6e42 a9bd
000002f0: 178f fe3b 37d5 63bd dd67 123d a916 8eba
00000300: 5301 b4bd 6b85 963d fe4f c03d e3eb a03d
00000310: 7da0 673d e12d a63d 174f ef3c 9f56 b53d
00000320: 12de 5b3d cb2f 48bc 7d1b 23bd cfda 1bbb
00000330: 09be b73d 9852 cebd 6c2b 66bd 5056 413c
00000340: 0c14 9bbc 322a 0e3d 3b2e cb3d f786 b23d
00000350: 51aa 02bd 7715 66bd 45a0 9bbc 75e5 c03c
00000360: 1222 01bd dd7e aabd 36de 3bbd b1bc 4bbd
00000370: 6d5f 4fbd 77f5 513b f589 873c 6469 483d
00000380: 7e1a 123d 9c3f 27bd ecd5 4fbd 2ce9 b7bb
00000390: da2d ce3d fb2d 193c a807 ab3d 74b0 123d
000003a0: 2c6e 963c 5fbb 01be 1cd8 a0bd f7cd 033d
000003b0: 1ec3 5dbd b7ac dbbd 5740 70bd bd77 84bd
000003c0: 29d9 d4bc 1e2c 48bd 78e7 a63d 78ed adbc
000003d0: 536a d0bd beb6 a4bd f1d6 9d3d 127d b33d
000003e0: ae31 1c3d df6a 3abc b3ce 9fbd 1b50 c23d
000003f0: ca7e 083d 8ae2 e23c 7860 debd 295a e3b9
