models/poisson/sin/poisson_08.pth (torch, 339061 bytes, 51 tensors)

net.0.weight f4 [50, 2]
0.3956629 0.053924065 -0.16730133 -0.2531499 -0.2089999 -0.57804644 -0.30235377 -0.23834352
0.63962287 -0.40779585 0.11132576 0.3858011 -0.19010629 0.49278194 -0.47263616 0.14008266
-0.22714552 -0.34486914 -0.28297108 0.6510244 -0.08263955 -0.08861551 -0.41214278 -0.4747897
-0.32323486 -0.47953978 -0.33447155 -0.40118054 -0.27385297 -0.7333093 -0.072326995 -0.36695853
0.39822647 0.21771231 0.62512475 -0.016935928 -0.43104175 -0.6309622 0.5382631 0.6979389
-0.40803126 -0.16966431 0.70889115 0.39026192 0.11110751 0.07850467 -0.6161694 -0.26661113
-0.37876758 -0.063410014 0.34236383 0.64827234 0.54053193 -0.024875173 0.41533038 -0.4101488
0.019280339 -0.76291174 0.3660469 0.41922206 -0.48142347 0.58869416 0.6546898 0.34865853
0.7676491 0.23822236 -0.5090931 -0.37272394 0.62297696 0.22752246 -0.67432463 0.48409542
-0.75962263 -0.2182428 0.39415762 0.2270489 0.037811402 -0.31618807 0.05713751 -0.23491137
0.04843241 0.05088728 -0.65784377 -0.66055477 0.32453784 0.66438663 -0.4104201 -0.67407244
-0.3567241 0.112065166 -0.54897416 0.47514465 0.19884339 -0.22845538 -0.32981867 -0.36288828
-0.7422538 -0.26464212 0.03533228 -0.13767833
00000000: 5494 ca3e 7bdf 5c3d 0a51 2bbe dd9c 81be
00000010: 1204 56be dafa 13bf 1dce 9abe 5310 74be
00000020: 53be 233f 9eca d0be c3fe e33d b987 c53e
00000030: 39ab 42be ea4d fc3e 5efd f1be d471 0f3e
00000040: d698 68be b092 b0be 96e1 90be 89a9 263f
00000050: ed3e a9bd 0c7c b5bd 6104 d3be a317 f3be
00000060: 0a7f a5be 3d86 f5be db3f abbe 8967 cdbe
00000070: 7536 8cbe 29ba 3bbf 2d20 94bd fde1 bbbe
00000080: 57e4 cb3e faef 5e3e 2d08 203f 37bd 8abc
00000090: 81b1 dcbe bd86 21bf 9ccb 093f 20ac 323f
000000a0: 79e9 d0be 7bbc 2dbe e479 353f 69d0 c73e
000000b0: 568c e33d 0ec7 a03d 47bd 1dbf 4181 88be
000000c0: d3ed c1be 1cdd 81bd 504a af3e 2df5 253f
000000d0: 4d60 0a3f 05c7 cbbc 2fa6 d43e 06ff d1be
000000e0: cdf1 9d3c 2f4e 43bf 806a bb3e 46a4 d63e
000000f0: 237d f6be a9b4 163f c099 273f 5f83 b23e
00000100: a784 443f 90f0 733e ed53 02bf acd5 bebe
00000110: 6b7b 1f3f a6fb 683e 8aa0 2cbf 5bdb f73e
00000120: a176 42bf 0a7b 5fbe 07cf c93e 827f 683e
00000130: 21e0 1a3d 67e3 a1be 0609 6a3d 9b8c 70be
00000140: 1061 463d 2e6f 503d 7368 28bf 1e1a 29bf
00000150: d329 a63e 3e15 2a3f 9522 d2be 0390 2cbf
00000160: 8ba4 b6be 6c82 e53d 9289 0cbf 2946 f33e
00000170: 9a9d 4b3e 35f0 69be fedd a8be 7ecc b9be
00000180: 5804 3ebf 2c7f 87be 95b8 103d 8cfb 0cbe

net.0.bias f4 [50]
0.65757537 -0.15396953 -0.5609914 0.022000415 0.07834707 -0.6356393 -0.55079377 -0.5513147
-0.78762835 0.36241183 -0.45688507 -0.014609027 -0.18787579 -0.26085934 -0.46165928 0.20676084
-0.6364091 0.5720206 -0.6034969 -0.35846528 0.2463335 0.62514436 0.5032784 0.41369596
-0.44889092 0.68517023 -0.42713895 0.058752388 0.082997404 0.7147669 0.6475606 -0.34507906
0.5218879 -0.009043 0.44577804 -0.43075353 -0.46062723 -0.6714567 0.41348013 0.4736698
-0.7106453 -0.6422433 0.013795922 -0.25267735 -0.31129274 0.051489174 0.68345225 0.3285884
-0.6435592 0.43874115
00000000: dc56 283f 30aa 1dbe 229d 0fbf 373a b43c
00000010: 6e74 a03d 42b9 22bf d200 0dbf f622 0dbf
00000020: 03a2 49bf 0b8e b93e d7ec e9be b35a 6fbc
00000030: 8362 40be 5b8f 85be 9b5e ecbe 1db9 533e
00000040: b5eb 22bf f16f 123f c67e 1abf c388 b7be
00000050: d93e 7c3e 7609 203f dad6 003f f5cf d33e
00000060: 08d5 e5be 5167 2f3f f5b1 dabe 58a6 703d
00000070: 8bfa a93d f7fa 363f 88c6 253f 34ae b0be
00000080: 729a 053f 1729 14bc 053d e43e ba8b dcbe
00000090: 55d7 ebbe 96e4 2bbf abb3 d33e d984 f23e
000000a0: daec 35bf 0f6a 24bf 4a08 623c ed5e 81be
000000b0: c361 9fbe 50e6 523d baf6 2e3f bd3c a83e
000000c0: 4cc0 24bf aea2 e03e

net.2.weight f4 [50, 50]
-0.027097862 -0.019394802 0.07905606 0.06313258 0.08692968 0.08518341 0.058118314 -0.006618682
-0.002949536 -0.07110984 0.034327757 -0.12178371 0.033785865 -0.054769963 0.06934155 -0.068760164
0.118537605 0.115419395 0.13298579 -0.0641896 -0.12558028 0.05086213 0.06702888 0.08913388
0.0045735072 -0.14147432 0.12139657 -0.037631936 0.012516491 -0.06711992 0.13597874 0.031504896
0.037497062 0.0513553 0.12356105 0.002650251 -0.05184439 -0.015253149 0.08706145 0.037824884
0.15184051 0.01499619 0.1202321 0.030253945 0.10278831 -0.02241627 -0.073611826 0.00544557
0.14873071 -0.15660992 0.13571838 0.10205818 0.07168197 -0.035832196 -0.12241128 -0.14075711
0.021672186 -0.071736686 -0.120977454 -0.09113299 -0.02890273 -0.017055007 -0.11642691 -0.15436791
-0.09979958 0.072905615 0.10605947 0.061583593 -0.009633316 0.10000897 0.09891012 -0.05975212
0.022348708 -0.13785802 0.12721734 0.06837092 0.14477287 0.12414655 0.047593795 -0.08946206
0.008413377 -0.026051119 0.11158416 -0.019715209 0.1447227 -0.13511157 -0.09132316 -0.11996396
-0.105288096 -0.04368228 0.074995056 -0.07475297 0.11469542 -0.024879096 0.061607234 -0.013485731
0.14855157 0.0018206649 0.13002376 0.06269463 0.07274181 0.06472332 0.07777904 -0.029450059
-0.06812472 0.04626205 -0.0016655856 -0.03908548 0.023677567 0.011526248 -0.08346958 0.070389636
0.14502463 0.09951986 -0.07882952 -0.067555234 0.09413366 -0.0889821 0.13781722 -0.062964186
6.6980533e-06 -0.07406327 0.013400954 0.005706087 0.13232465 -0.15754217 -0.045094922 0.057268336
0.10882212 0.037933238 0.09604168 -0.13897996 -0.0698698 -0.030738458 0.018525105 -0.12653661
0.11021249 0.10520982 0.19060497 0.10292264 -0.13605778 -0.12748381 -0.0036943278 0.09220403
-0.0049226093 -0.16345103 0.028258964 -0.06692689 0.08680996 0.019726813 0.10472685 0.101858504
-0.017287478 -0.078395806 0.02806144 0.060564604 -0.094753474 0.09219305 0.1065563 0.11719686
0.010906662 -0.033434782 -0.08301663 0.047529425 0.087448254 -0.093065865 0.10017895 0.043477874
0.10945443 -0.098101296 -0.1627748 -0.10830522 -0.03002068 -0.12092816 0.07186069 -0.035774693
-0.09140245 0.052265886 -0.09372776 0.07984171 0.13603795 0.046445146 -0.00017960946 -0.013188857
-0.019502727 -0.10820824 0.10633922 0.042856652 -0.011153374 -0.13100974 -0.13892108 0.061134316
0.03843469 -0.07188104 0.004794631 0.0763389 0.034027442 -0.16588566 0.09035332 -0.13606076
-0.059578564 -0.09716449 -0.06306909 -0.12749395 -0.0710571 -0.019323023 0.031142645 -0.057017706
-0.15328799 -0.064019024 -0.06793478 -0.026595611 0.050046936 -0.0037013302 -0.087555155 -0.10754552
0.08429316 -0.028095523 -0.013362452 -0.04484573 -0.13592264 0.1120965 0.0029214926 0.031573527
-0.026309974 0.088167936 -0.1799608 -0.19802617 -0.042749017 0.13536881 0.08196536 0.14482021
0.12902038 -0.05146087 -0.087826416 -0.029205682 -0.047962025 0.050847936 -0.09109968 -0.014444361
-0.13297859 0.099707745 0.046158705 0.09114004 -0.04531945 0.059807137 -0.10587355 0.017058926
0.026233653 -0.02334295 -0.063509814 0.07381761 -0.1348074 0.0047041764 -0.12985796 -0.12672003
00000000: 56fc ddbc d9e1 9ebc 25e8 a13d a74b 813d
00000010: 3008 b23d a474 ae3d 780d 6e3d 87e1 d8bb
00000020: 014d 41bb 09a2 91bd 439b 0c3d bd69 f9bd
00000030: 0c63 0a3d 7856 60bd f102 8e3d 21d2 8cbd
00000040: d8c3 f23d 0161 ec3d 6d2d 083e d675 83bd
00000050: 1e98 00be cf54 503d 7046 893d d38b b63d
00000060: 5cdd 953b a5de 10be c49e f83d f223 1abd
00000070: f811 4d3c 2b76 89bd 033e 0b3e 470b 013d
00000080: 8596 193d ef59 523d 930d fd3d d5af 2d3b
00000090: c85a 54bd 58e8 79bc 464d b23d 44ee 1a3d
000000a0: 147c 1b3e 94b2 753c 3f3c f63d 1fd7 f73c
000000b0: ad82 d23d 53a2 b7bc ccc1 96bd c170 b23b
000000c0: dd4c 183e 5a5e 20be c2f9 0a3e e103 d13d
000000d0: ffcd 923d c8c4 12bd c4b2 fabd a222 10be
000000e0: de89 b13c afea 92bd 07c3 f7bd efa3 babd
000000f0: 6bc5 ecbc f1b6 8bbc 3b71 eebd 9f12 1ebe
00000100: b963 ccbd 8a4f 953d b535 d93d 143f 7c3d
00000110: 0ed5 1dbc 81d1 cc3d 6491 ca3d a4be 74bd
00000120: a314 b73c a72a 0dbe 4345 023e 0e06 8c3d
00000130: 573f 143e 8c40 fe3d b6f1 423d e237 b7bd
00000140: 43d8 093c 2869 d5bc 3c86 e43d ca81 a1bc
00000150: 3032 143e b05a 0abe a307 bbbd aaaf f5bd
00000160: 49a1 d7bd 31ec 32bd 0297 993d 1618 99bd
00000170: 6fe5 ea3d 3fcf cbbc de57 7c3d 41f3 5cbc
00000180: e71d 183e 60a3 ee3a f324 053e 0b66 803d
00000190: a8f9 943d a98d 843d 9e4a 9f3d 4041 f1bc
000001a0: f984 8bbd 467d 3d3d c74f daba 1918 20bd
000001b0: 75f7 c13c 97d8 3c3c 19f2 aabd 7128 903d
000001c0: 5681 143e 12d1 cb3d 5f71 a1bd 665a 8abd
000001d0: 26c9 c03d 3f3c b6bd f51f 0d3e 5ef3 80bd
000001e0: d7bf e036 7cae 97bd ad8f 5b3c 21fa ba3b
000001f0: 1d80 073e bc52 21be 74b5 38bd 3492 6a3d
00000200: 22de de3d e25f 1b3d 80b1 c43d c350 0ebe
00000210: e617 8fbd 38cf fbbc f6c1 973c d092 01be
00000220: 16b7 e13d 3f78 d73d f32d 433e 1bc9 d23d
00000230: bb52 0bbe 1e8b 02be 891c 72bb 77d5 bc3d
00000240: d74d a1bb b55f 27be 587f e73c f710 89bd
00000250: 6cc9 b13d 209a a13c 087b d63d 319b d03d
00000260: 789e 8dbc fb8d a0bd 1be1 e53c 9712 783d
00000270: 1c0e c2bd b6cf bc3d 303a da3d e804 f03d
00000280: dbb1 323c e9f2 08bd 9f04 aabd 37ae 423d
00000290: 1218 b33d 5199 bebd 9f2a cd3d db15 323d
000002a0: a529 e03d 55e9 c8bd 70ae 26be 21cf ddbd
000002b0: eeed f5bc 2fa9 f7bd b32b 933d 7c88 12bd
000002c0: 3531 bbbd c114 563d 57f4 bfbd 0d84 a33d
000002d0: 884d 0b3e 443d 3e3d 8c55 3cb9 1316 58bc
000002e0: 2fc4 9fbc 489c ddbd 61c8 d93d 758a 2f3d
000002f0: a4bc 36bc 6b27 06be 5441 0ebe fa67 7a3d
00000300: b26d 1d3d 5e36 93bd 481c 9d3b 9257 9c3d
00000310: 5c60 0b3d eedd 29be 290b b93d 8353 0bbe
00000320: a708 74bd 2dfe c6bd 5e2a 81bd c68d 02be
00000330: 6386 91bd 514b 9ebc dc1e ff3c 668b 69bd
00000340: 87f7 1cbe 681c 83bd 6421 8bbd 0adf d9bc
00000350: 04fe 4c3d 0492 72bb 1e50 b3bd d340 dcbd
00000360: e4a1 ac3d 9528 e6bc 30ee 5abc 28b0 37bd
00000370: 4e2f 0bbe da92 e53d 8376 3f3b 3e53 013d
00000380: 0488 d7bc 6491 b43d a547 38be 5fc7 4abe
00000390: 9819 2fbd 1f9e 0a3e 74dd a73d c04b 143e
000003a0: eb1d 043e a2c8 52bd 56de b3bd c140 efbc
000003b0: d473 44bd ed45 503d 7892 babd 0ba8 6cbc
000003c0: 8a2b 08be 9333 cc3d e910 3d3d a1a7 ba3d
000003d0: e3a0 39bd 54f8 743d 3bd4 d8bd 29bf 8b3c
000003e0: f5e7 d63c b739 bfbc 6f11 82bd b02d 973d
000003f0: f30a 0abe 7e25 9a3b 7cf9 04be e5c2 01be

net.2.bias f4 [50]
-0.12345672 0.045183145 0.10235765 -0.05507641 -0.032090843 0.06683137 0.006025517 -0.010211493
0.023201281 -0.042475704 -0.083769515 0.011478531 -0.13956676 -0.06186882 0.08140232 0.108895816
0.022650803 -0.11594146 0.09042953 0.0044103507 0.0040597 -0.10855007 0.10783653 0.121203884
-0.062792756 -0.123947404 0.13014494 -0.06737101 0.08208525 -0.033983737 0.050850384 0.08532651
0.03365348 -0.12442911 0.0200556 0.11769242 -0.031599943 -0.096305914 0.026847066 0.14290977
-0.08165605 0.028592542 0.071950175 0.047741756 0.111969896 0.13101725 -0.12855087 0.08691233
-0.090251386 0.07610882
00000000: e0d6 fcbd f611 393d e3a0 d13d cd97 61bd
00000010: b071 03bd e3de 883d b371 c53b 1b4e 27bc
00000020: 9d10 be3c 01fb 2dbd 5a8f abbd 7310 3c3c
00000030: 97ea 0ebe 296a 7dbd 42b6 a63d c504 df3d
00000040: 2d8e b93c b772 edbd 1e33 b93d b484 903b
00000050: 3b07 853b 804f debd 66d9 dc3d be39 f83d
00000060: 7d99 80bd 23d8 fdbd b744 053e d0f9 89bd
00000070: 501c a83d 8832 0bbd 7e48 503d aabf ae3d
00000080: 3bd8 093d b0d4 febd a44b a43c b908 f13d
00000090: f16e 01bd 093c c5bd 61ee db3c f056 123e
000000a0: 4a3b a7bd e83a ea3c 9d5a 933d dc8c 433d
000000b0: 7950 e53d 6329 063e d7a2 03be 17ff b13d
000000c0: b8d5 b8bd f1de 9b3d

net.4.weight f4 [50, 50]
0.060135122 0.06927562 -0.1007328 -0.021727795 0.07586788 0.13208401 -0.074424446 -0.11368015
-0.074210085 -0.15063335 -0.08788311 -0.13489495 -0.12579446 0.086197324 -0.06500753 0.015496451
0.023093153 0.0537471 -0.13591611 -0.10152109 -0.041572236 0.12503566 -0.12555474 0.07918742
0.030829487 -0.09876752 -0.11705564 0.101895444 0.12092876 0.09033455 0.011868025 0.10333882
-0.03495249 -0.0059796637 0.018343903 -0.12795143 0.030918024 0.097918056 0.10296499 0.009858613
0.13199379 0.05730555 0.034075223 0.027716972 -0.071076244 -0.07710074 -0.061698265 -0.1301298
0.0772685 0.093660995 0.029295389 -0.102931514 -0.04891078 0.043519657 -0.08667931 -0.09181495
-0.09458164 0.11411083 -0.08260377 0.092590384 0.024470646 0.11632728 0.13154021 -0.11760557
0.06726041 0.09088901 0.05142757 -0.03659406 0.031805288 -0.07059902 -0.0032781938 -0.1333677
-0.10978391 0.0044704713 -0.068098605 -0.11358399 0.029894508 0.0022705118 -0.020103117 0.0071800407
-0.14062496 -0.0858479 0.10125622 -0.069076456 -0.14380287 -0.05813357 -0.040789224 0.16303429
0.16804641 -0.02117419 -0.12540577 -0.05962871 0.10111952 0.09462159 -0.09550212 -0.003956388
-0.006104128 0.08353278 -0.024585329 -0.1367166 -0.044313423 0.03190557 0.105491064 -0.12401799
0.114067174 0.089303315 -0.05647304 -0.06341538 -0.13089944 -0.091280624 0.05085593 0.025745753
0.10302282 -0.03872914 0.026720092 -0.007711172 0.012527046 0.116453856 0.09425303 0.11068925
-0.05493872 0.012387394 -0.08716055 0.015983718 0.10498057 -0.019660503 -0.09985126 -0.10089582
-0.028475886 -0.09250281 -0.024993446 0.019420348 -0.06630705 -0.047618814 0.030978523 0.009167593
0.087851234 -0.18966438 -0.1171158 -0.14597763 0.14339583 0.09404127 0.051578134 0.04053614
0.0076903105 0.09728391 0.13826369 0.01754364 -0.0405264 0.116990745 -0.10573857 -0.076721795
0.12701304 -0.074918576 0.09441962 0.005951326 0.055543877 0.091037035 0.10212929 0.018218156
0.08589047 -0.07024831 0.106784776 -0.041578285 -0.024373312 -0.12718578 0.12730275 -0.068263955
0.07201132 0.052456435 -0.061865803 -0.12863892 -0.049903415 0.08377076 0.060565405 0.13360743
-0.014268309 -0.15573026 -0.11027667 -0.085272 -0.11410497 0.049569126 -0.0829669 -0.12064714
0.02755671 -0.04322206 -0.029346697 0.10423987 -0.081552975 0.057077434 0.046940476 -0.15391077
-0.040012635 -0.1014604 -0.04442609 -0.009357561 0.12623835 0.045042563 -0.03220516 0.11342682
-0.08313288 0.05127525 -0.08871982 -0.050536685 0.10338138 0.10387114 -0.10461511 -0.12026048
0.06497217 0.13942821 0.09957004 -0.059615392 0.021134814 0.0011806112 -0.10814201 -0.023203846
0.1398339 0.063679844 0.13398632 -0.1016347 0.0977375 -0.047187608 -0.07200651 -0.14541776
0.04252356 -0.04448866 0.060927406 0.103720635 0.021759361 -0.009709315 -0.12453785 0.1537734
0.0066093053 -0.04299531 -0.07637926 -0.071288906 0.085821606 0.06389285 -0.13066117 0.109252594
0.11923895 0.029248081 0.0122828735 0.13042165 -0.07037883 -0.03536622 0.10176421 -0.0034303172
-0.02896554 -0.0009914782 -0.08247027 0.104796246 -0.07662642 0.2234721 -0.077430815 -0.006787013
00000000: 3f50 763d 60e0 8d3d 004d cebd 7dfe b1bc
00000010: 9e60 9b3d 0841 073e d86b 98bd 23d1 e8bd
00000020: 75fb 97bd a13f 1abe 0ffc b3bd e721 0abe
00000030: 43d0 00be 3988 b03d ab22 85bd d4e4 7d3c
00000040: da2d bd3c eb25 5c3d 982d 0bbe 4aea cfbd
00000050: a647 2abd 5909 003e 6c91 00be 042d a23d
00000060: 1f8e fc3c a046 cabd deba efbd 8fae d03d
00000070: 7fa9 f73d 5201 b93d 1b72 423c 4ea3 d33d
00000080: 582a 0fbd 0ef1 c3bb f445 963c b305 03be
00000090: cc47 fd3c 4389 c83d 4fdf d23d 0586 213c
000000a0: 6129 073e 39b9 6a3d 7692 0b3d b40e e33c
000000b0: 6c90 91bd fee6 9dbd 52b7 7cbd bf40 05be
000000c0: f33e 9e3d 56d1 bf3d e2fc ef3c c2cd d2bd
000000d0: ac56 48bd ab41 323d ec84 b1bd 7a09 bcbd
000000e0: 05b4 c1bd f0b2 e93d 2a2c a9bd 07a0 bd3d
000000f0: aa76 c83c ff3c ee3d 7ab2 063e 30db f0bd
00000100: d3bf 893d 0424 ba3d b7a5 523d a7e3 15bd
00000110: 4346 023d 3896 90bd f7d6 56bb 8b91 08be
00000120: 63d6 e0bd 087d 923b 4877 8bbd b99e e8bd
00000130: 54e5 f43c decc 143b 4baf a4bc 8c46 eb3b
00000140: fdff 0fbe 06d1 afbd 6c5f cf3d f577 8dbd
00000150: 0f41 13be 771d 6ebd 9a12 27bd 76f2 263e
00000160: 5c14 2c3e 7f75 adbc 5f6a 00be 3c3d 74bd
00000170: c017 cf3d f7c8 c13d 9e96 c3bd 97a4 81bb
00000180: 2305 c8bb 3c13 ab3d 2c67 c9bc 70ff 0bbe
00000190: fe81 35bd 6aaf 023d b30b d83d 25fd fdbd
000001a0: 0d9c e93d a8e4 b63d 4650 67bd ecdf 81bd
000001b0: 810a 06be 56f1 babd 4f4e 503d c2e8 d23c
000001c0: a1fd d23d 72a2 1ebd 18e4 da3c 00ae fcbb
000001d0: 3d3e 4d3c 5c7f ee3d bc07 c13d 0cb1 e23d
000001e0: 6c07 61bd 7ff4 4a3c 3b81 b2bd 49f0 823c
000001f0: 0e00 d73d 100f a1bc d17e ccbd 78a2 cebd
00000200: 4346 e9bc 1d72 bdbd 0ebf ccbc 6c17 9f3c
00000210: fecb 87bd f20b 43bd acc6 fd3c ac33 163c
00000220: 59eb b33d 6137 42be 69da efbd 297b 15be
00000230: 5bd6 123e b698 c03d 9843 533d 3909 263d
00000240: 00ff fb3b c93c c73d ff94 0d3e aeb7 8f3c
00000250: 03ff 25bd d898 ef3d 778d d8bd 5120 9dbd
00000260: b50f 023e e96e 99bd 135f c13d 5703 c33b
00000270: fa81 633d a071 ba3d 2929 d13d 3e3e 953c
00000280: 58e7 af3d 59de 8fbd fab1 da3d fe4d 2abd
00000290: 8aaa c7bc fd3c 02be a75b 023e f9cd 8bbd
000002a0: ac7a 933d 8fdc 563d ff66 7dbd ecb9 03be
000002b0: 8667 4cbd 0190 ab3d 6e13 783d 63d0 083e
000002c0: a0c5 69bc c177 1fbe bcd8 e1bd 16a3 aebd
000002d0: deaf e9bd ff08 4b3d 8dea a9bd d915 f7bd
000002e0: 9cbe e13c 9d09 31bd 7c68 f0bc b77b d53d
000002f0: 3f05 a7bd 07ca 693d a844 403d c99a 1dbe
00000300: 4ae4 23bd 78ca cfbd 22f8 35bd 7550 19bc
00000310: a044 013e 8d7e 383d 8fe9 03bd 524c e83d
00000320: 9241 aabd ff05 523d bdb2 b5bd 8eff 4ebd
00000330: 9eb9 d33d 64ba d43d 7240 d6bd 204b f6bd
00000340: 2110 853d 45c6 0e3e 61eb cb3d 452f 74bd
00000350: eb22 ad3c bdbe 9a3a 8f79 ddbd fe15 bebc
00000360: 9e30 0f3e 946a 823d b633 093e db25 d0bd
00000370: 992a c83d cb47 41bd 2678 93bd 65e8 14be
00000380: 2f2d 2e3d be39 36bd 048f 793d 7c6b d43d
00000390: b040 b23c d213 1fbc b30d ffbd c676 1d3e
000003a0: df92 d83b da1b 30bd bb6c 9cbd ebff 91bd
000003b0: 3dc3 af3d 41da 823d 0bcc 05be d3bf df3d
000003c0: 8d33 f43d ac99 ef3c 1b3e 493c 418d 053e
000003d0: c722 90bd 2bdc 10bd c169 d03d 2ccf 60bb
000003e0: 2449 edbc 7df4 81ba 2ce6 a8bd 6a9f d63d
000003f0: 50ee 9cbd dfd5 643e 0c94 9ebd 9765 debb

net.4.bias f4 [50]
0.06965696 0.09858313 -0.023639817 0.086638056 -0.08190434 0.17786919 0.015192845 -0.057147376
0.13915467 0.067091405 -0.009136655 -0.09671553 0.009344549 0.07406198 -0.011471461 -0.10550398
-0.14033562 -0.14187498 0.11926111 0.04840957 -0.06513618 0.053042598 -0.1311941 0.099103935
0.033603583 0.009494945 -0.0065849232 0.12042689 -0.06973655 -0.08487905 0.115683235 -0.12228186
0.103747375 -0.06718932 -0.020569718 -0.002324195 0.06328019 -0.11563898 0.026567364 -0.10816924
-0.1150864 -0.016892092 -0.05357067 -0.1216262 0.13633378 -0.06597867 0.09016651 -0.11643824
-0.0389211 -0.12256014
00000000: 4fa8 8e3d f4e5 c93d 4aa8 c1bc 4b6f b13d
00000010: 76bd a7bd 5723 363e 69eb 783c 5e13 6abd
00000020: 907e 0e3e 3867 893d e9b1 15bc cb12 c6bd
00000030: e119 193c cfad 973d cbf2 3bbc 7812 d8bd
00000040: 24b4 0fbe ad47 11be 2b3f f43d 1d49 463d
00000050: 1e66 85bd 3243 593d bf57 06be 01f7 ca3d
00000060: e9a3 093d b090 1b3c 57c6 d7bb 60a2 f63d
00000070: 09d2 8ebd 11d5 adbd 55eb ec3d e96e fabd
00000080: 8179 d43d 8e9a 89bd d381 a8bc 8651 18bb
00000090: 0b99 813d 21d4 ecbd cda3 d93c d687 ddbd
000000a0: 6bb2 ebbd 4961 8abc eb6c 5bbd 2817 f9bd
000000b0: 159b 0b3e d31f 87bd 38a9 b83d 2c77 eebd
000000c0: bb6b 1fbd d000 fbbd

net.6.weight f4 [50, 50]
0.09456113 -0.068418615 0.1152788 -0.061720483 0.11059477 -0.0074669346 0.03276316 -0.06471797
-0.079894096 -0.0027953503 0.138477 0.026219644 0.018097287 -0.0499039 0.05958995 -0.06941773
-0.032330975 0.030604294 0.12099297 0.08212306 -0.01650613 0.06062214 -0.07058593 0.04347465
0.07305322 -0.12314189 -0.06780485 0.041191176 0.028944194 0.01929219 0.15292604 -0.022121323
-0.021934161 0.048448086 0.14808469 -0.07066498 -0.018388363 0.04045448 -0.120987706 0.024264656
-0.06920426 -0.05546568 0.1029703 0.05259155 -0.16053252 0.0651875 0.109137245 0.0237425
0.053588644 -0.11247191 0.063782625 0.00845621 0.039239727 -0.13660419 0.024863577 -0.071624056
0.11935403 0.04522172 0.037428398 0.008438281 0.01605125 -0.020757878 -0.056749884 0.051693648
-0.07153133 0.18222742 -0.003856771 0.053264428 0.032987226 0.011998975 -0.10117725 0.07075452
0.123977624 -0.123268604 0.09839735 0.097166054 0.04506977 0.0011498467 -0.11137452 -0.07172569
0.018506167 -0.08622181 -0.03816468 0.13634244 -0.03682155 -0.1071549 0.11532693 -0.017374411
0.061986968 0.08941908 -0.03490076 0.060203608 0.07598628 -0.04639545 0.08493297 -0.038808953
-0.03520685 -0.10192249 0.1001969 -0.11886695 -0.08036715 0.10444403 -0.07078127 -0.17730387
-0.0594192 0.09679939 -0.11136052 0.09774518 -0.10011336 0.04759303 -0.031756878 -0.08240183
-0.05257515 0.031619612 -0.13047808 0.12870362 -0.027561968 -0.102407075 -0.026741471 -0.03013648
-0.067078315 0.0689316 -0.013811346 -0.10649912 0.12047223 0.069973655 -0.065623224 -0.023682669
-0.065358356 0.057974517 0.04002325 -0.02077563 -0.034180105 -0.13772713 -0.09549016 0.067046754
0.03018009 -0.041342396 -0.056282677 0.060721427 0.15486652 0.01337111 -0.11950663 -0.049299397
-0.04102676 0.09446088 0.0329204 -0.073172905 -0.11767367 -0.11009851 0.08077794 -0.08209319
-0.11340208 0.08274982 0.0032527628 0.02881683 -0.012849379 0.008156238 -0.03009115 -0.007849181
-0.15709889 0.03699285 -0.11601806 -0.097989686 -0.07051456 -0.07513795 0.0023072404 0.09213214
0.073892735 0.06131106 0.0410563 0.13337237 -0.121661946 0.074110575 -0.14936955 0.008177177
-0.09498074 0.0016643782 0.105494134 -0.0033212563 -0.016422313 -0.03793058 0.074376024 0.07487037
-0.06278629 -0.06586957 0.07026348 0.041499015 -0.09162785 -0.055020746 0.0033680499 -0.022516647
0.11150511 -0.15907118 0.14508191 -0.08799011 -0.02282735 0.10899013 0.0030108485 -0.084911816
0.15856959 -0.011697325 -0.03919554 -0.072248645 -0.15428282 0.091349676 -0.13245273 -0.06643424
0.04228491 0.006350103 -0.0909336 0.09516769 -0.13869578 0.040768903 -0.029627347 -0.1165036
0.10199421 0.019602202 -0.10005032 0.028734557 -0.09361447 0.1427139 0.10116086 0.12533665
0.061332658 0.14569418 0.014378269 0.010852115 -0.10685653 0.08951476 -0.098619245 0.015209643
0.021647567 0.08172422 -0.0451224 0.10512694 -0.08470712 -0.030368952 -0.05114176 -0.05988387
-0.11212035 0.0077665085 -0.10966713 -0.025470689 -0.072468966 -0.112164564 -0.12379846 0.10429036
0.11674069 -0.02188218 0.10986441 -0.037490383 -0.13086005 -0.09340318 -0.12666632 0.10838974
00000000: 44a9 c13d 0f1f 8cbd 4b17 ec3d 9ece 7cbd
00000010: 837f e23d 30ad f4bb aa32 063d db8a 84bd
00000020: 849f a3bd 3232 37bb eacc 0d3e 94ca d63c
00000030: c340 943c 0868 4cbd 9714 743d e22a 8ebd
00000040: 7c6d 04bd dbb5 fa3c 2acb f73d 2330 a83d
00000050: dd37 87bc ec4e 783d 5b8f 90bd 7912 323d
00000060: ed9c 953d d131 fcbd 45dd 8abd 14b8 283d
00000070: 601c ed3c a80a 9e3c a598 1c3e c737 b5bc
00000080: 45af b3bc 8071 463d 83a3 173e cdb8 90bd
00000090: 31a3 96bc 99b3 253d 67c8 f7bd acc6 c63c
000000a0: f7ba 8dbd fb2f 63bd 18e2 d23d 3d6a 573d
000000b0: a362 24be 0681 853d 5983 df3d a27f c23c
000000c0: c47f 5b3d ac57 e6bd 77a0 823d ea8b 0a3c
000000d0: d6b9 203d f8e1 0bbe b3ae cb3c a2af 92bd
000000e0: e36f f43d 693a 393d 854e 193d b740 0a3c
000000f0: e97d 833c 6d0c aabc 9172 68bd b8bc 533d
00000100: 057f 92bd d399 3a3e e1c1 7cbb cd2b 5a3d
00000110: 9d1d 073d 5997 443c 0536 cfbd bfe7 903d
00000120: fbe7 fd3d 4074 fcbd 8d84 c93d fffe c63d
00000130: 149b 383d 74b6 963a 5318 e4bd ebe4 92bd
00000140: 3f9a 973c 0f95 b0bd 9152 1cbd 5a9d 0b3e
00000150: 32d2 16bd 0774 dbbd 8730 ec3d c854 8ebc
00000160: 0ce6 7d3d 5a21 b73d 19f4 0ebd 0f98 763d
00000170: b29e 9b3d 2809 3ebd 56f1 ad3d 23f6 1ebd
00000180: 0f35 10bd bdbc d0bd 0834 cd3d 8470 f3bd
00000190: 8897 a4bd c0e6 d53d c5f5 90bd 258f 35be
000001a0: 8c61 73bd c23e c63d fc10 e4bd a02e c83d
000001b0: 3c08 cdbd e9f0 423d 8013 02bd 4ac2 a8bd
000001c0: 0a59 57bd 9183 013d 0c9c 05be e2ca 033e
000001d0: a3c9 e1bc cdba d1bd ee10 dbbc c8e0 f6bc
000001e0: 5b60 89bd 032c 8d3d fc48 62bc 361c dabd
000001f0: 25ba f63d 594e 8f3d 7865 86bd 2802 c2bc
00000200: 9ada 85bd b076 6d3d 6bef 233d a731 aabc
00000210: 7000 0cbd 5708 0dbe 5890 c3bd cf4f 893d
00000220: 3c3c f73c a556 29bd aa88 66bd 08b7 783d
00000230: 5495 1e3e 8012 5b3c e4bf f4bd 2aee 49bd
00000240: ad0b 28bd b574 c13d 8bd7 063d addb 95bd
00000250: e5fe f0bd 547b e1bd e86e a53d 7920 a8bd
00000260: 5a3f e8bd bd78 a93d 4e2c 553b 4611 ec3c
00000270: 3486 52bc bea1 053c b781 f6bc da99 00bc
00000280: 88de 20be d185 173d e09a edbd d1ae c8bd
00000290: f069 90bd ede1 99bd 1235 173b c7af bc3d
000002a0: 1355 973d 4e21 7b3d a72a 283d c492 083e
000002b0: e629 f9bd 49c7 973d 55f4 18be 91f9 053c
000002c0: 4385 c2bd 4427 da3a 4f0d d83d 6fa9 59bb
000002d0: 1688 86bc 195d 1bbd 7552 983d a355 993d
000002e0: 1996 80bd a0e6 86bd 4de6 8f3d dffa 293d
000002f0: 62a7 bbbd 6f5d 61bd 80ba 5c3b d574 b8bc
00000300: cb5c e43d 8ee3 22be 5a90 143e 2934 b4bd
00000310: 6c00 bbbc 3836 df3d a851 453b 3fe6 adbd
00000320: 1160 223e 23a6 3fbc 818b 20bd 19f7 93bd
00000330: 51fc 1dbe 8a15 bb3d b0a1 07be ad0e 88bd
00000340: f132 2d3d 8614 d03b 653b babd 47e7 c23d
00000350: 4406 0ebe 4bfd 263d 0db5 f2bc 7099 eebd
00000360: 57e2 d03d cc94 a03c 2fe7 ccbd bc64 eb3c
00000370: f1b8 bfbd 9823 123e 6d2d cf3d 4058 003e
00000380: f437 7b3d db30 153e d592 6b3c 12cd 313c
00000390: 99d7 dabd 8453 b73d e3f8 c9bd de31 793c
000003a0: 3d56 b13c 075f a73d 44d2 38bd cb4c d73d
000003b0: ed7a adbd 4fc8 f8bc 067a 51bd ca48 75bd
000003c0: 5b9f e5bd 327e fe3b 2999 e0bd e8a7 d0bc
000003d0: 9c6a 94bd 89b6 e5bd 0c8a fdbd 2f96 d53d
000003e0: be15 ef3d 4242 b3bc 9700 e13d 848f 19bd
000003f0: 2d00 06be 2b4a bfbd d1b4 01be 71fb dd3d

net.6.bias f4 [50]
0.064909235 -0.11980968 -0.05365536 -0.13149765 0.12375928 0.06099165 0.029049996 0.060615767
0.08964227 -0.10263292 -0.093200624 0.08838012 0.02675336 0.018964063 -0.014169394 -0.041075412
0.06851042 -0.08219185 0.08520904 -0.07234746 0.014294183 -0.050283663 0.09056372 0.10332246
0.13585511 -0.100550614 0.0987808 -0.14470637 0.020076094 0.034999 0.066972435 0.12606598
-0.042195212 -0.015474431 -0.12793158 0.047109816 -0.0045861597 0.078127414 0.12300411 -0.04624092
0.09344497 -0.008511912 0.0967534 0.09455747 -0.03734509 0.10290205 -0.052327484 0.14540529
-0.06439829 0.07255837
00000000: 22ef 843d c75e f5bd b9c5 5bbd 52a7 06be
00000010: 8175 fd3d 61d2 793d 42fa ed3c 3d48 783d
00000020: 5e96 b73d 3531 d2bd f8df bebd a300 b53d
00000030: dd29 db3c 865a 9b3c bf26 68bc b13e 28bd
00000040: 314f 8c3d 3354 a8bd 1482 ae3d e82a 94bd
00000050: 2632 6a3c 3ef6 4dbd 7979 b93d ba9a d33d
00000060: 9a1d 0b3e 7bed cdbd 974d ca3d e82d 14be
00000070: 9f76 a43c 1d5b 0f3d d828 893d 7117 013e
00000080: e3d4 2cbd 7888 7dbc 7f00 03be 39f6 403d
00000090: 7f47 96bb 4401 a03d 94e9 fb3d 1e67 3dbd
000000a0: 1460 bf3d 8c75 0bbc a626 c63d 59a7 c13d
000000b0: 2af7 18bd 4fbe d23d 5855 56bd 20e5 143e
000000c0: 40e3 83bd 7c99 943d

net.8.weight f4 [50, 50]
-0.017790392 -0.073590614 -0.085337564 0.015284584 0.024457162 0.053298887 -0.048651934 -0.02001815
0.10611583 -0.06400845 0.15254533 0.065353215 -0.014106236 -0.16458327 0.03104302 -0.062064007
-0.05291122 0.08527081 0.06210809 0.06323919 -0.01923571 -0.090222515 -0.07598068 -0.07134471
-0.05828616 0.13053872 -0.0669446 0.03046271 -0.08801609 0.059298143 -0.03977238 0.03408389
-0.016019609 0.06255102 0.0014381689 -0.0046203174 -0.07462691 -0.12784365 0.029065553 -0.039955128
-0.0377567 -0.051330294 -0.08082174 0.11009226 0.040321965 0.01487027 0.16730107 0.09643501
-0.06712754 -0.039238077 -0.13588718 0.022684427 0.0070063183 0.091436595 -0.097695194 -0.13671595
-0.10575066 -0.08818875 0.053177465 0.004718411 0.039051343 0.06542183 0.039549682 -0.12812345
0.13187188 0.26046112 -0.05873537 0.14149944 -0.083646566 -0.020554777 0.011207559 -0.14502645
-0.02188168 0.026808754 -0.09531209 -0.044080406 0.1297707 0.21656394 0.1053258 -0.01975454
0.03871271 0.02842277 0.17216738 -0.093070365 0.114542924 -0.09443388 0.040752087 0.010832009
0.037082367 0.008617567 0.078957856 -0.10305635 -0.11391248 -0.09655291 0.11504442 0.0476311
0.027042476 -0.11598824 -0.04082173 0.12905338 -0.14098544 -0.08083777 -0.11405542 -0.10098775
-0.054297365 -0.0021689679 0.080779195 -0.09383334 -0.03330753 -0.1297932 0.08318404 0.025344023
0.12162475 -0.13237403 0.14161086 0.1057635 -0.15208349 0.162674 -0.035930034 -0.04571233
-0.07447531 0.07403488 -0.076747864 -0.0649262 -0.0660401 -0.15140378 0.13895549 0.12173689
0.0886293 0.100045905 -0.04236494 -0.1681127 -0.0070570405 0.003631421 0.04790803 0.031234026
0.16580722 0.06408066 0.008977298 0.053739384 -0.05361766 -0.12164674 0.050538894 0.04553156
0.0058919303 0.116184324 -0.08812741 -0.09076173 -0.113596745 0.12322038 0.060608003 0.03075947
-0.10273545 -0.01551227 -0.03590163 -0.02924227 0.16503043 -0.11451762 -0.08342686 -0.068880446
0.019123774 0.1300321 -0.0602062 -0.036665954 -0.08955832 -0.049280185 0.10612547 0.09934396
0.069668606 -0.047589686 0.04970265 0.02549121 -0.105709516 0.06230633 -0.13727954 -0.14331949
-0.009002609 0.1200961 -0.026399227 0.06441236 -0.12043218 -0.08651489 -0.12650348 0.0408623
-0.012732455 0.064922914 -0.04526151 -0.14689796 0.11098511 0.049985748 -0.12973946 0.012081526
-0.12615317 -0.091457084 -0.09437111 0.035191327 0.12598242 0.06850825 0.054379445 0.14027473
0.05544597 -0.06507739 0.030621959 -0.028260607 -0.021820072 0.07931755 0.11723773 -0.017207114
0.10908176 -0.07919805 -0.058845848 -0.060646623 0.12813215 0.07850098 0.13522322 0.12688097
0.028388623 -0.052388843 -0.11170625 0.07647769 -0.094142534 -0.06609411 -0.015347556 -0.09205857
0.010040572 -0.11945825 -0.020282114 0.03675149 0.010049571 0.07817593 -0.116423436 -0.054886274
0.0810465 -0.097726226 -0.022607887 0.10249888 0.035056762 0.017834432 0.015887769 -0.0942588
0.04458384 -0.02442479 -0.0807733 0.012265121 -0.10358345 0.024672965 0.13807394 -0.11235954
0.039026488 0.060940024 -0.11067182 0.1603567 0.00010218944 0.10511477 -0.08711734 0.050699204
00000000: 28bd 91bc adb6 96bd 76c5 aebd 316c 7a3c
00000010: 635a c83c ef4f 5a3d 4047 47bd 1afd a3bc
00000020: 4253 d93d dd16 83bd d834 1c3e e8d7 853d
00000030: d81d 67bc 8488 28be ee4d fe3c d436 7ebd
00000040: 6fb9 58bd 76a2 ae3d 0d65 7e3d 8c83 813d
00000050: 3594 9dbc 95c6 b8bd c29b 9bbd 2d1d 92bd
00000060: 78bd 6ebd f1ab 053e 401a 89bd ef8c f93c
00000070: c841 b4bd 9ce2 723d 5de8 22bd 8d9b 0b3d
00000080: 8e3b 83bc c01a 803d f180 bc3a 0866 97bb
00000090: fed5 98bd 72e9 02be e21a ee3c fda7 23bd
000000a0: c5a6 1abd b73f 52bd de85 a5bd 0d78 e13d
000000b0: a528 253d 6fa2 733c f950 2b3e b87f c53d
000000c0: 2a7a 89bd 1bb8 20bd 0226 0bbe b1d4 b93c
000000d0: 4295 e53b 1c43 bb3d 6b14 c8bd 44ff 0bbe
000000e0: cd93 d8bd 4e9c b4bd 9dd0 593d e69c 9a3b
000000f0: 4df4 1f3d e1fb 853d d9fe 213d cb32 03be
00000100: 6c09 073e 295b 853e 8094 70bd 3be5 103e
00000110: e44e abbd 7e62 a8bc e99f 373c d081 14be
00000120: 3541 b3bc 089e db3c fc32 c3bd a88d 34bd
00000130: 9ce2 043e f0c2 5d3e 0eb5 d73d 46d4 a1bc
00000140: 3891 1e3d ded6 e83c a54c 303e ad9b bebd
00000150: 7b95 ea3d 8d66 c1bd a9eb 263d bd78 313c
00000160: aee3 173d b230 0d3c a8b4 a13d 350f d3bd
00000170: f24a e9bd 88bd c5bd 699c eb3d d418 433d
00000180: 2f88 dd3c 3e8b edbd b034 27bd 9226 043e
00000190: 7d5e 10be 468e a5bd e395 e9bd aad2 cebd
000001a0: ea66 5ebd 3e25 0ebb 906f a53d b22b c0bd
000001b0: 7a6d 08bd 82e8 04be 655c aa3d 459e cf3c
000001c0: 6616 f93d 0f8d 07be 7002 113e 899a d83d
000001d0: c6bb 1bbe 0394 263e 5f2b 13bd da3c 3bbd
000001e0: 8386 98bd 999f 973d fc2d 9dbd 07f8 84bd
000001f0: 0840 87bd 9809 1bbe 594a 0e3e 3151 f93d
00000200: 4783 b53d dee4 cc3d dc86 2dbd bc25 2cbe
00000210: bf3e e7bb 22fd 6d3b 363b 443d 80de ff3c
00000220: 5ec9 293e b93c 833d 8415 133c d41d 5c3d
00000230: 319e 5bbd ed21 f9bd df01 4f3d 4d7f 3a3d
00000240: 1811 c13b 0cf2 ed3d 257c b4bd 49e1 b9bd
00000250: 69a5 e8bd f75a fc3d 1940 783d 49fb fb3c
00000260: f766 d2bd 2d27 7ebc 960d 13bd 7c8d efbc
00000270: bdfd 283e 3788 eabd b4db aabd 3111 8dbd
00000280: 76a9 9c3c 2327 053e c79a 76bd 0a2f 16bd
00000290: 5a6a b7bd 05da 49bd 4f58 d93d d974 cb3d
000002a0: 6aae 8e3d 67ed 42bd 0295 4b3d f1d2 d03c
000002b0: 3b7e d8bd ec34 7f3d 0293 0cbe 58c2 12be
000002c0: ae7f 13bc f2f4 f53d 3143 d8bc a1ea 833d
000002d0: 26a5 f6bd b82e b1bd 218a 01be 3a5f 273d
000002e0: c99b 50bc 4ef6 843d 2264 39bd 6b6c 16be
000002f0: 294c e33d dbbd 4c3d 6cda 04be 98f1 453c
00000300: 4c2e 01be da4d bbbd a445 c1bd c824 103d
00000310: 8901 013e 0e4e 8c3d fbbc 5e3d 2ea4 0f3e
00000320: 501b 633d 4b47 85bd e7da fa3c ca82 e7bc
00000330: 02c0 b2bc 3d71 a23d 561a f03d eff5 8cbc
00000340: 4266 df3d 9632 a2bd 5808 71bd 9868 78bd
00000350: 1335 033e 1fc5 a03d f577 0a3e 16ed 013e
00000360: 428f e83c af95 56bd 3fc6 e4bd 56a0 9c3d
00000370: cdcd c0bd 595c 87bd 5174 7bbc 3489 bcbd
00000380: 3681 243c 87a6 f4bd ad26 a6bc bb88 163d
00000390: f5a6 243c b41a a03d 696f eebd 6ed0 60bd
000003a0: b5fb a53d b024 c8bd 2d34 b9bc efea d13d
000003b0: ae97 0f3d 8419 923c 1127 823c c20a c1bd
000003c0: 8b9d 363d 7f16 c8bc 796c a5bd a5f3 483c
000003d0: 8f23 d4bd f51e ca3c 4163 0d3e c21c e6bd
000003e0: 3dda 1f3d 3f9c 793d e8a7 e2bd 8c34 243e
000003f0: 8a4e d638 6a46 d73d 936a b2bd f8a9 4f3d

net.8.bias f4 [50]
0.00057689 0.102797255 -0.055274185 -0.09649608 -0.10924512 0.09281754 0.13019653 0.13883829
0.019909441 -0.027393535 0.10865089 0.034055863 -0.019827312 -0.09410705 -0.015257305 0.03086249
-0.07654468 0.068694085 -0.12447565 0.06225835 0.10550747 0.018294893 0.06575597 -0.15587857
-0.015239368 0.1596861 0.14742275 0.097072266 0.050646674 0.005363167 0.14909936 -0.073707595
-0.021559782 -0.06110589 -0.09631703 -0.12082168 -0.10475396 -0.10986671 -0.0697816 -0.03846987
0.04660795 0.11846106 -0.068058476 -0.007854093 -0.062426105 -0.14506774 -0.05154727 -0.043966383
-0.16084827 -0.07846534
00000000: 6f3a 173a 5e87 d23d 2f67 62bd bd9f c5bd
00000010: e8bb dfbd 1f17 be3d 3d52 053e a02b 0e3e
00000020: 2019 a33c 6868 e0bc 5c84 de3d 297e 0b3d
00000030: e36c a2bc 32bb c0bd c7f9 79bc 55d3 fc3c
00000040: 75c3 9cbd 7caf 8c3d 17ed febd 9d02 7f3d
00000050: 4d14 d83d 2cdf 953c 11ab 863d a29e 1fbe
00000060: 8bae 79bc c184 233e fdf5 163e d3cd c63d
00000070: e372 4f3d 81bd af3b 81ad 183e 02f4 96bd
00000080: 249e b0bc 2b4a 7abd dd41 c5bd 5b71 f7bd
00000090: 3f89 d6bd cc01 e1bd a8e9 8ebd 9592 1dbd
000000a0: fae7 3e3d b69b f23d 3e62 8bbd 74ae 00bc
000000b0: 84b2 7fbd a38c 14be 3b23 53bd 1816 34bd
000000c0: 69b5 24be 70b2 a0bd

net.10.weight f4 [50, 50]
0.011580246 -0.010670368 -0.09105884 -0.1102565 -0.16790211 0.007084539 0.13796514 -0.028237412
-0.005068069 -0.16900669 -0.2126339 -0.088661805 -0.12434746 0.036675405 0.084952146 -0.15699036
0.008896624 0.05187714 -0.034619637 -0.12027133 -0.023874283 -0.03877322 0.09878713 -0.03842844
0.11604781 -0.09297819 0.029563256 0.021176185 -0.117783055 -0.07372081 0.08633405 -0.039100192
0.043840963 -0.14693815 0.035599563 0.060614575 0.0005202177 0.004524688 -0.10358979 0.10894635
-0.11591498 0.050786555 0.12511176 0.02498547 -0.08056312 -0.10443948 0.08080889 0.07619178
0.10851883 0.1130619 0.1338131 0.030904785 -0.102765515 0.054166093 0.13616523 0.073790275
-0.0211017 -0.13158675 0.021040803 0.07717825 -0.1960145 -0.09569181 -0.019395638 0.0048983637
-0.058710936 0.02240688 0.0025309054 0.012723136 0.058485802 0.035731997 -0.033973943 -0.011759524
-0.0838015 -0.04822112 -0.17580451 0.0097064255 -0.1732072 0.04525586 0.019603174 -0.14671457
-0.08256086 -0.13298376 -0.06859108 0.021852322 -0.07851064 0.14048743 0.024781786 0.07832232
0.10199022 0.089564435 -0.09326096 -0.1880827 -0.00160426 -0.13748905 0.048507564 0.030730806
-0.05733702 -0.11124309 0.1343155 -0.105350606 0.15395378 -0.057450294 0.06463695 -0.0272618
-0.014323009 0.119442545 -0.15725021 -0.062485952 0.10247183 -0.0415648 0.09091494 -0.13035403
0.09993173 -0.13923469 0.15011056 0.05227578 -0.089177534 0.12201698 0.082204275 -0.021425372
0.00884831 -0.09845849 -0.09846172 0.0102514895 0.07862009 -0.0057310876 -0.09841943 0.02525681
0.007899409 0.09706027 0.027096573 -0.079854734 -0.11579592 -0.009978135 -0.08893873 0.14581203
0.063105844 0.10328175 0.04525578 -0.01921817 0.13271433 -0.16783366 -0.10567762 -0.0949614
0.025950309 0.052508254 0.11395179 0.07789175 0.047033265 -0.055739194 -0.17082833 -0.08465764
0.042299546 -0.14204845 -0.07446226 -0.13733691 0.011270876 0.1643953 -0.0138463685 0.017083837
-0.03336297 -0.0654779 -0.17300098 0.057366613 -0.08924372 0.053461675 -0.013250109 -0.080516525
-0.08132514 -0.0033634151 -0.070553385 -0.0065764245 0.0136095155 0.00042858158 -0.008431729 0.04372361
0.16012128 -0.055079866 0.1671013 0.039368007 0.10982622 0.14184904 -0.054610945 -0.09480908
-0.019230163 -0.13147044 -0.10025622 0.010729816 -0.089707665 0.09268017 -0.17880897 -0.09163658
0.04334625 0.08255577 -0.08297986 -0.026851924 -0.040842637 -0.09957643 -0.042347364 0.050647438
0.1422959 0.16256028 -0.05323152 0.040053744 -0.035614293 -0.0027819455 0.012551636 0.060621757
-0.20992398 -0.03294901 -0.035845917 0.01290395 0.19014636 -0.17254202 0.106633626 -0.06662732
-0.18383361 -0.08048935 0.11943527 0.020255543 -0.09699046 0.09737085 -0.06736659 -0.04397829
-0.1603382 -0.051728472 0.084166214 -0.08886735 0.031346854 -0.14461876 -0.14637762 -0.0036013727
-0.050974887 0.11624502 0.08648492 0.100640394 -0.019002292 0.08328796 -0.019121861 -0.08299262
-0.003130323 -0.13800429 0.10912737 -0.051060505 -0.08878879 0.017688325 0.12591349 0.0493542
0.12614718 0.0698376 0.08684717 0.081286155 0.010904436 0.024278492 -0.129889 -0.09876931
00000000: 12bb 3d3c c4d2 2ebc 0f7d babd 29ce e1bd
00000010: 88ee 2bbe 6c25 e83b bc46 0d3e 2552 e7bc
00000020: 0b12 a6bb 1710 2dbe b3bc 59be 5294 b5bd
00000030: e2a9 febd f338 163d 64fb ad3d 15c2 20be
00000040: 25c3 113c 207d 543d 52cd 0dbd d150 f6bd
00000050: 0094 c3bc abd0 1ebd e850 ca3d 2467 1dbd
00000060: 79aa ed3d 596b bebd a42e f23c ae79 ad3c
00000070: 3e38 f1bd f0fa 96bd e8cf b03d 8627 20bd
00000080: 9592 333d f476 16be d9d0 113d fd46 783d
00000090: 385f 083a d543 943b e226 d4bd 441f df3d
000000a0: d564 edbd 9005 503d 4c1d 003e 54ae cc3c
000000b0: 47fe a4bd 5ee4 d5bd 227f a53d 700a 9c3d
000000c0: 1f3f de3d ff8c e73d 4d06 093e 082c fd3c
000000d0: ba76 d2bd 44dd 5d3d e66e 0b3e 5b1f 973d
000000e0: 79dd acbc adbe 06be c35d ac3c a10f 9e3d
000000f0: 06b8 48be 11fa c3bd 9ae3 9ebc 7482 a03b
00000100: e17a 70bd a28e b73c 8cdd 253b b374 503c
00000110: cf8e 6f3d b75b 123d 4328 0bbd 05ab 40bc
00000120: 1fa0 abbd 8283 45bd 1906 34be b307 1f3c
00000130: 3a5d 31be 355e 393d d696 a03c 583c 16be
00000140: ab15 a9bd e52c 08be 7b79 8cbd a403 b33c
00000150: 30ca a0bd f0db 0f3e 2c03 cb3c 7467 a03d
00000160: 40e0 d03d 8f6d b73d 9aff bebd c098 40be
00000170: 0846 d2ba eec9 0cbe deaf 463d 2cbf fb3c
00000180: 39da 6abd 6bd3 e3bd 018a 093e 0fc2 d7bd
00000190: 0fa6 1d3e 0051 6bbd 6160 843d 2354 dfbc
000001a0: 0eab 6abc 4b9e f43d 3306 21be 45f1 7fbd
000001b0: c0dc d13d da3f 2abd 9d31 ba3d 877b 05be
000001c0: 02a9 cc3d 8a93 0ebe 95b6 193e 211f 563d
000001d0: b6a2 b6bd 0ae4 f93d b75a a83d 4384 afbc
000001e0: 81f8 103c 9ba4 c9bd 4ca6 c9bd ddf5 273c
000001f0: 9203 a13d d9cb bbbb 2090 c9bd 5fe7 ce3c
00000200: 866c 013c 89c7 c63d a2f9 dd3c e18a a3bd
00000210: 6926 edbd 557b 23bc 8225 b6bd c04f 153e
00000220: a33d 813d 6285 d33d 205e 393d 6c6f 9dbc
00000230: 44e6 073e 96dc 2bbe 826d d8bd 1f7b c2bd
00000240: be95 d43c e512 573d 8e5f e93d b685 9f3d
00000250: f4a5 403d c84e 64bd 9fed 2ebe fc60 adbd
00000260: 4a42 2d3d 2675 11be ab7f 98bd 0ca2 0cbe
00000270: 7ba9 383c 3e57 283e e1db 62bc 67f3 8b3c
00000280: 9ca7 08bd 4719 86bd 2b27 31be 41f9 6a3d
00000290: 69c5 b6bd a1fa 5a3d fc16 59bc d9e5 a4bd
000002a0: cc8d a6bd be6c 5cbb 4b7e 90bd 0c7f d7bb
000002b0: 72fa 5e3c 3fb3 e039 3c25 0abc 8717 333d
000002c0: d5f6 233e 6d9b 61bd 9a1c 2b3e 5940 213d
000002d0: 92ec e03d e040 113e baaf 5fbd 432b c2bd
000002e0: 9388 9dbc 30a0 06be 2253 cdbd 1ccc 2f3c
000002f0: a7b8 b7bd 1acf bd3d b319 37be f6ab bbbd
00000300: d68b 313d 0013 a93d 58f1 a9bd 91f8 dbbc
00000310: 9c4a 27bd baee cbbd 6e74 2dbd b073 4f3d
00000320: 04b6 113e 3476 263e 4b09 5abd 650f 243d
00000330: 4be0 11bd 4d51 36bb 61a5 4d3c 854e 783d
00000340: 50f6 56be 8bf5 06bd 2bd3 12bd 176b 533c
00000350: bab5 423e dbae 30be bb62 da3d e873 88bd
00000360: e13e 3cbe 9ad7 a4bd 7b9a f43d f4ee a53c
00000370: efa2 c6bd 5e6a c73d 7ff7 89bd 9422 34bd
00000380: b22f 24be 3ce1 53bd 565f ac3d 1600 b6bd
00000390: 8f65 003d f116 14be 04e4 15be 0205 6cbb
000003a0: 0bcb 50bd de11 ee3d 011f b13d 8d1c ce3d
000003b0: b2aa 9bbc e192 aa3d 73a5 9cbc 09f8 a9bd
000003c0: 1b26 4dbb ff50 0dbe 2c7e df3d d224 51bd
000003d0: e6d6 b5bd 1be7 903c 77ef 003e a127 4a3d
000003e0: ba2c 013e 0407 8f3d eedc b13d 5b79 a63d
000003f0: 85a8 323c b0e3 c63c 9f01 05be 9047 cabd

net.10.bias f4 [50]
0.09058451 -0.0550316 -0.03035184 0.0011169625 -0.15388909 0.018913243 0.021783145 0.12712449
0.09317886 -0.14222692 -0.0761996 -0.09765211 0.078724146 0.08001088 -0.18255912 0.057059504
0.13191688 -0.1184392 -0.023972599 0.006272878 -0.051295917 -0.045553822 -0.00859268 0.16522849
0.08534564 0.010578455 -0.01631436 -0.1346636 0.08051567 0.008876391 0.14782983 0.047216017
-0.0020721678 -0.011703703 0.029349046 0.04024546 -0.05503969 0.07648785 -0.10501325 -0.104965374
0.038068984 -0.038733114 -0.110477634 0.08510447 0.117249146 -0.03650611 -0.0193452 -0.011094858
0.06698573 -0.109970726
00000000: 5f84 b93d d168 61bd 6ca4 f8bc 0b67 923a
00000010: 1a95 1dbe f2ef 9a3c 9172 b23c ec2c 023e
00000020: 8fd4 be3d efa3 11be 890e 9cbd d4fd c7bd
00000030: 203a a13d bfdc a33d c7f0 3abe 3ab7 693d
00000040: 3815 073e 4090 f2bd 2f62 c4bc b78c cd3b
00000050: ab1b 52bd a596 3abd 50c8 0cbc a831 293e
00000060: b2c9 ae3d 4251 2d3c b1a5 85bc 41e5 09be
00000070: 66e5 a43d 486e 113c b460 173e 9565 413d
00000080: 35cd 07bb e3c0 3fbc 696d f03c 6cd8 243d
00000090: 4c71 61bd a9a5 9c3d 3011 d7bd 16f8 d6bd
000000a0: 39ee 1b3d 9da6 1ebd 1942 e2bd 414b ae3d
000000b0: 5220 f03d 6e87 15bd d379 9ebc 35c7 35bc
000000c0: d02f 893d 5538 e1bd

net.12.weight f4 [50, 50]
0.2270858 -0.17530915 -0.25285158 0.043198124 -0.085733056 -0.03526627 0.023140771 0.12556107
-0.17106923 -0.0719423 0.20574687 -0.04123864 -0.1769464 0.1420049 -0.048014577 -0.22210354
0.16496113 0.02196583 -0.073763676 -0.061143667 0.056043472 0.08230036 -0.037179597 0.08647852
0.09787797 0.21969773 -0.21655129 -0.14307354 0.12258435 -0.031164313 0.160682 -0.14297092
-0.18321611 0.0465233 -0.12518229 0.03784261 0.19439429 -0.19623464 0.1923892 0.07253508
-0.017097995 -0.053998068 0.15267934 -0.25271657 0.12835495 0.0794779 -0.17342262 0.06262867
0.0758634 0.009079141 0.21764843 -0.060854316 -0.101428665 0.019305903 -0.12829223 0.020282714
-0.14072198 0.21066876 -0.10527339 0.09123574 -0.099405095 -0.2780776 -0.169902 0.103197075
-0.207347 -0.17534052 0.19431731 -0.032045953 -0.052479103 -0.012132382 -0.022298323 0.21988308
-0.042040918 0.29375866 -0.19280444 -0.029810183 0.06612804 -0.11544044 -0.075983755 -0.048607167
0.17729919 -0.025344452 -0.05165382 0.1000529 -0.08976066 0.17195992 0.11942564 -0.021425152
0.28840965 -0.22001798 -0.062039282 -0.040437188 -0.12428003 -0.13249896 0.10459303 0.06829102
0.104286514 0.2748983 0.10447086 -0.15730391 0.20001492 -0.08498464 -0.139937 -0.16280739
-0.055122357 0.028397013 -0.20093153 0.05334727 -0.011777361 0.2323072 -0.012081386 -0.37181732
0.1960926 0.06865709 -0.06933327 0.1184645 -0.10461129 -0.17066054 0.1782829 -0.17118053
-0.19580229 0.17847389 -0.14041534 0.29690963 -0.31616336 -0.20033716 0.08457724 -0.3560062
-0.29313323 -0.04096575 -0.06063804 -0.08057271 -0.32345843 0.084251955 -0.005494513 -0.14051019
-0.17768295 -0.019788837 0.21688381 -0.2315302 0.044242073 -0.025046749 -0.31529665 0.036186803
0.001055837 0.058295425 0.22665286 0.0311075 0.14342411 0.10150415 -0.09446537 0.12723687
0.068820834 0.095573924 0.10765802 0.06877367 -0.19207895 0.06848336 0.0067453417 -0.029049655
-0.10258124 -0.1465763 0.114008114 -0.13754109 -0.13238864 -0.0033797044 -0.10662781 -0.047709946
-0.033901118 0.0054916805 -0.16554935 0.06449376 0.008490471 -0.019730054 -0.16112322 -0.07085801
0.14370929 -0.20416401 -0.13199197 -0.044979066 -0.06521358 0.111518465 0.042804074 -0.13375323
0.0519017 0.03128026 6.9997586e-05 0.11041874 0.04062576 -0.051882945 -0.009448954 -0.14509346
-0.09077969 0.12783192 -0.13725968 -0.1623545 -0.023958009 -0.07773256 0.11259403 0.18946408
-0.020760348 -0.01960042 0.017894404 0.026542122 0.13941039 -0.057701893 -0.004124257 0.0017117874
0.12815684 -0.03238246 -0.10221593 0.0797771 -0.024652386 -0.10267134 0.18684162 0.24419212
-0.0023817003 0.079144984 -0.04751992 0.13198863 -0.025447948 0.079779446 0.18045622 0.05658327
0.044058327 -0.22029936 0.211044 -0.11554469 -0.07965388 -7.7668796e-05 0.053171832 0.11506109
0.14438406 -0.16110079 -0.054537464 -0.011702812 -0.19216818 0.16204895 0.024755254 -0.04450333
0.21019137 -0.15054639 0.029944103 0.029651262 -0.098085 -0.19164596 0.16542232 0.07062753
-0.13296649 0.021889847 -0.045131944 -0.059821263 -0.1485906 -0.0005462398 0.0029232563 0.113708474
00000000: 2e89 683e 3e84 33be c375 81be 84f0 303d
00000010: d094 afbd 5d73 10bd b791 bd3c 1593 003e
00000020: c62c 2fbe 7c56 93bd 4faf 523e d9e9 28bd
00000030: 7031 35be bc69 113e efaa 44bd 1c6f 63be
00000040: 92eb 283e aff1 b33c 6911 97bd c871 7abd
00000050: d78d 653d 178d a83d a249 18bd a61b b13d
00000060: 3f74 c83d 71f8 603e 9fbf 5dbe df81 12be
00000070: 810d fb3d 4d4c ffbc d289 243e f866 12be
00000080: 019d 3bbe 378f 3e3d c92f 00be da00 1b3d
00000090: 4c0f 473e bcf1 48be ad01 453e 468d 943d
000000a0: 1811 8cbc 142d 5dbd f957 1c3e 1164 81be
000000b0: 7b6f 033e 4fc5 a23d b395 31be 7643 803d
000000c0: 455e 9b3d adc0 143c 3bdf 5e3e 6042 79bd
000000d0: d5b9 cfbd 6a27 9e3c 0a5f 03be ef27 a63c
000000e0: 6c19 10be 8db9 573e 9399 d7bd ced9 ba3d
000000f0: e694 cbbd 3060 8ebe cafa 2dbe fd58 d33d
00000100: c652 54be 778c 33be 1efb 463e 9e42 03bd
00000110: 54f4 56bd e6c6 46bc f9aa b6bc 0829 613e
00000120: 1933 2cbd 8967 963e 876e 45be 7c34 f4bc
00000130: 236e 873d 0a6c ecbd 5f9d 9bbd 4f18 47bd
00000140: eb8d 353e 2b9f cfbc f592 53bd 89e8 cc3d
00000150: 70d4 b7bd 4316 303e 6e95 f43d cd83 afbc
00000160: 6eaa 933e 654c 61be e71c 7ebd 77a1 25bd
00000170: 8786 febd cfad 07be df34 d63d 2adc 8b3d
00000180: 2b94 d53d 78bf 8c3e d1f4 d53d 4714 21be
00000190: b6d0 4c3e 6d0c aebd a54b 0fbe fbb6 26be
000001a0: fbc7 61bd daa0 e83c ffc0 4dbe ab82 5a3d
000001b0: d5f5 40bc f0e1 6d3e 01f1 45bc d75e bebe
000001c0: 80cc 483e 179c 8c3d 9afe 8dbd 849d f23d
000001d0: 723e d6bd a3c1 2ebe cb8f 363e f349 2fbe
000001e0: 6580 48be dcc1 363e 0ac9 0fbe 8a04 983e
000001f0: 2ae0 a1be 2f25 4dbe d536 ad3d 7246 b6be
00000200: 8f15 96be b4cb 27bd 985f 78bd 4e03 a5bd
00000210: 589c a5be 4a8c ac3d 510b b4bb e7e1 0fbe
00000220: 85f2 35be 331c a2bc ca16 5e3e 4116 6dbe
00000230: 2d37 353d d72e cdbc 906e a1be 9d38 143d
00000240: 0364 8a3a 2fc7 6e3d b017 683e 28d5 fe3c
00000250: c5dd 123e 68e1 cf3d 0f77 c1bd 624a 023e
00000260: f0f1 8c3d 43bc c33d cf7b dc3d 36d9 8c3d
00000270: 58b0 44be 0141 8c3d 0708 dd3b 8bf9 edbc
00000280: 1d16 d2bd 1918 16be 167d e93d 92d7 0cbe
00000290: e390 07be 087e 5dbb ae5f dabd 816b 43bd
000002a0: e6db 0abd 8ef3 b33b c585 29be 4e15 843d
000002b0: 9e1b 0b3c eca0 a1bc 7cfd 24be 011e 91bd
000002c0: 8728 133e 5f10 51be e728 07be f83b 38bd
000002d0: b38e 85bd cb63 e43d 5353 2f3d 9bf6 08be
000002e0: e196 543d bb1f 003d abcb 9238 3823 e23d
000002f0: 3267 263d 3683 54bd c9cf 1abc 6193 14be
00000300: b4ea b9bd 5fe6 023e cd8d 0cbe 4240 26be
00000310: 9643 c4bc 4032 9fbd b397 e63d df02 423e
00000320: 9b11 aabc 0f91 a0bc 4997 923c dd6e d93c
00000330: 99c1 0e3e d258 6cbd c624 87bb 0e5e e03a
00000340: 8c3b 033e 78a3 04bd 9656 d1bd 2d62 a33d
00000350: cdf3 c9bc 5a45 d2bd 6953 3f3e 800d 7a3e
00000360: 4d16 1cbb c416 a23d 3fa4 42bd 0728 073e
00000370: 3778 d0bc 6863 a33d 84c9 383e dcc3 673d
00000380: 8176 343d 2896 61be eb1b 583e b2a2 ecbd
00000390: 9321 a3bd 1ee2 a2b8 b5ca 593d 26a5 eb3d
000003a0: 6ad9 133e 9bf7 24be ad62 5fbd 27bd 3fbc
000003b0: bcc7 44be 29f0 253e 88cb ca3c 2049 36bd
000003c0: 683c 573e d528 1abe 564d f53c 34e7 f23c
000003d0: cae0 c8bd d73e 44be 7864 293e 2ba5 903d
000003e0: 5e28 08be 5652 b33c 46dc 38bd 2407 75bd
000003f0: 2228 18be 8831 0fba 1a94 3f3b fddf e83d

net.12.bias f4 [50]
0.08527931 0.03154933 0.1473316 0.034386687 0.042545427 0.15449059 0.009421479 0.042263296
0.03439823 0.1393439 0.06041807 0.11378164 0.056786083 0.18379956 -0.19550417 -0.1537953
-0.18185045 -0.08323197 0.012313059 0.0039974675 -0.0131811155 0.008604611 0.18353502 -0.030507693
0.043670937 0.034502313 -0.09446736 0.14685299 0.06003267 0.09102735 -0.014784509 -0.1252767
-0.06243737 0.03769883 0.028451068 -0.09061486 0.09977939 -0.023249492 0.14417249 -0.2867498
0.0620594 0.027460784 0.105493166 0.07763663 0.07469123 0.21816425 0.19189906 -0.022682136
-0.15107127 -0.1088941
00000000: eba6 ae3d df39 013d 18de 163e 0ed9 0c3d
00000010: 1d44 2e3d c832 1e3e 8c5c 1a3c 471c 2d3d
00000020: 29e5 0c3d 2bb0 0e3e f078 773d 5906 e93d
00000030: 8698 683d f435 3c3e 3f32 48be 847c 1dbe
00000040: 0137 3abe 8675 aabd b6bc 493c 30fd 823b
00000050: 9bf5 57bc 5bfa 0c3c 9bf0 3b3e 45eb f9bc
00000060: 4ce0 323d 4c52 0d3d 1a78 c1bd a160 163e
00000070: d1e4 753d 8c6c ba3d ba3a 72bc 8948 00be
00000080: 54be 7fbd 176a 1a3d 3712 e93c 4994 b9bd
00000090: 2359 cc3d b875 bebc f4a1 133e dfd0 92be
000000a0: ff31 7e3d 70f5 e03c cd0c d83d f4ff 9e3d
000000b0: b7f7 983d 7366 5f3e 3081 443e e3cf b9bc
000000c0: 6db2 1abe df03 dfbd
